Run_GIN_ModelCheckpoint_EvFr_2/NCI1_reps_2_folds_5_epochs_20_2023-04-26_11-05/rep_0_fold_1/checkpoints/model_trial_3.ckpt (torch, 96717 bytes, 86 tensors)

gnn.convs.0.nn.lins.0.weight f4 [16, 37]
000000 ed 79 8e bd 18 a5 47 bf 4d 8b 5e bf 2c e3 d0 3e
       -0.06956849 -0.7798629 -0.86931306 0.40798318
000010 c9 35 96 3e 35 60 90 be 85 9c 10 3f 92 bb ec bd
       0.2933791 -0.281984 0.5648883 -0.11559214
000020 d0 95 d4 3f 1f 71 62 3f ed 79 7f 40 fb 02 0f 3f
       1.6608219 0.8845386 3.9918168 0.5586392
000030 97 90 1b 40 81 fa bf be 5a 54 16 40 e6 6d 3f 3f
       2.4307 -0.37495807 2.3488984 0.74777067
000040 1c 78 a5 3f d5 88 97 3f 02 68 3a 3e a3 44 d5 3f
       1.292728 1.1838633 0.18203738 1.6661571
000050 5b ad b3 be 27 3b 96 be 53 f8 d4 bd 1f 75 06 40
       -0.35093197 -0.29342005 -0.103989266 2.1008985
000060 18 ae ed 3f 28 9f c9 be 06 c7 95 3f c0 b1 ad 3f
       1.8568754 -0.3937924 1.1701362 1.356987
000070 62 07 46 bf 75 ee a6 3f e7 18 ad 3d 4e 54 fd bd
       -0.77355015 1.3041521 0.08452015 -0.123695955
000080 91 9c b1 be dd 69 a3 be 0f ce aa be f4 03 be 3d
       -0.34689763 -0.31916705 -0.33360335 0.09278098
000090 f6 b5 9d be 6e 1c d1 be 7b 47 08 be 40 54 32 be
       -0.30802888 -0.40842003 -0.13308518 -0.17414951
0000a0 fe 3a bd 3e 7f 76 5a be 63 16 b0 be a5 0a a5 be
       0.3695907 -0.21334265 -0.3439208 -0.32234684
0000b0 b2 c5 2c 3e d3 01 11 be 38 fe b1 bc 43 32 87 bd
       0.1687229 -0.14160852 -0.021727666 -0.066013835
0000c0 ce f7 f9 bd b3 da 2a bd 1d 76 91 3d 32 90 12 40
       -0.12205468 -0.041712474 0.071026064 2.290051
0000d0 96 99 c8 3f 6b 54 c8 3d 9f 42 c1 3f 4a b9 1e 3e
       1.5671871 0.097817264 1.5098456 0.1550037
0000e0 4d e3 aa 3f 12 00 ac 3b b3 07 85 bd 90 3e 38 bc
       1.3350617 0.005249032 -0.06495609 -0.011245385
0000f0 41 95 0a 40 ef 3b b5 3d fd c6 96 3f cc 76 1e 3f
       2.1653597 0.08849322 1.1779476 0.6190002
000100 03 a8 89 bd 0c 5e d9 bd ca e5 fd bd 42 34 41 3c
       -0.06721499 -0.10613641 -0.123973444 0.011792244
000110 03 c7 23 3e 1b dc bd bc fb 24 76 bc af b1 a6 b8
       0.15993886 -0.023176244 -0.015023465 -7.948593e-05
000120 07 de 8c 3c 3d f4 04 bc 72 d0 85 be ce 08 2f bd
       0.017195715 -0.008114872 -0.26135594 -0.042733006
000130 28 86 8c be 74 92 57 be e2 0e 3c 3e 0a a3 b3 bd
       -0.27446103 -0.21051961 0.18365052 -0.087713316
000140 35 df 84 3d 85 39 0d be 95 6a fa be 08 b2 0b 3f
       0.06487886 -0.13791473 -0.4890944 0.5456853
000150 c6 cc 66 be f4 32 70 be af 4b 5d be b1 6e 0a 3f
       -0.22539052 -0.23456937 -0.21610902 0.5407515
000160 bf 93 9d be ad 24 8c be e0 25 b4 3d b7 86 6e be
       -0.30776784 -0.2737173 0.087962866 -0.23293577
000170 f8 bc 2f be 59 b9 c3 be e3 eb 4f be 03 c2 2b 3c
       -0.1716193 -0.38227347 -0.20304827 0.010483268
000180 b5 b3 c2 3d c4 22 99 bd 65 35 5f be d4 c2 ac 3f
       0.09506933 -0.07477334 -0.21797712 1.3496957
000190 41 b1 06 bf 56 43 00 3f 34 82 9f be c7 c6 01 40
       -0.5261422 0.50102746 -0.31154025 2.0277574
0001a0 02 f3 ae 3d e4 b3 07 3e c5 aa 50 be 0f 7e ae bb
       0.08542444 0.13252217 -0.20377643 -0.005325086
0001b0 7b 61 0d be f7 83 8b bc c9 2f d9 bb ed 25 ec bd
       -0.13806717 -0.0170307 -0.006628011 -0.11530671
0001c0 91 47 a5 bd 8d 09 08 be 5e 00 d2 3d 71 7d 96 bd
       -0.08070291 -0.13284893 0.10253976 -0.07348145
0001d0 7b fc b1 3d fd ce f5 bd 18 29 86 bd 56 48 e7 3d
       0.08690735 -0.120023705 -0.06550807 0.11293094
0001e0 32 a9 a2 bc 6a 24 d3 3d d3 11 93 3d 05 31 c9 3d
       -0.01985607 0.1030968 0.07181134 0.09823803
0001f0 c0 39 8a bd 0d 74 b0 3d 43 cd 0d be af 33 e8 bd
       -0.06749296 0.08615885 -0.13847832 -0.11337983
000200 34 f1 34 bd c9 48 91 bd 23 5b f4 3d d3 37 f6 bd
       -0.04417534 -0.07093961 0.119314454 -0.120223664
000210 1c 50 b4 bd 39 8e 1d 3c 8b fe 25 be 84 03 27 be
       -0.08804342 0.009616428 -0.16210382 -0.16309935
000220 5d 92 c6 3d 64 8c 8f bc 5a 36 1e be a8 02 15 be
       0.09695885 -0.017522998 -0.15450421 -0.14551795
000230 b4 46 26 3e db 9b 8f bd 1f c6 ce 3d 7d 7f aa bd
       0.16237909 -0.07012149 0.10096382 -0.08325098
000240 78 19 11 be f3 22 82 bd 70 01 b5 3d df 57 cf bd
       -0.14169872 -0.06354322 0.08838165 -0.10124182
000250 f1 62 34 be 14 17 8c 3d 62 78 ac 3e 3b 9b 62 3d
       -0.17615868 0.06840339 0.33685595 0.05532382
000260 ed d5 28 3f 45 52 47 3e e7 d5 89 be 33 86 42 be
       0.65951425 0.19464977 -0.26921007 -0.18996505
000270 37 e8 04 40 3b c8 bd 3f 33 ff 52 40 17 d4 7a 3f
       2.0766733 1.482673 3.2968261 0.97979873
000280 5d 17 03 40 8d 67 81 3e ca 87 15 be 27 f5 ea 3f
       2.048301 0.25274315 -0.1460258 1.8356065
000290 c7 cf 7f bd 02 40 96 3f 45 99 f0 3f 0d 96 98 3f
       -0.06245401 1.1738284 1.8796774 1.1920792
0002a0 21 cf 95 bf b5 3b 89 bf 39 ac 89 3c 23 e9 99 3f
       -1.1703836 -1.0721346 0.016805755 1.2024273
0002b0 0b e1 de 3f 8e ad af 3f 6e d2 97 3f 1d 1a 86 3f
       1.7412428 1.372484 1.1861093 1.0476719
0002c0 eb da 32 be 6e 66 11 40 ee d3 08 be 52 e8 8c bd
       -0.17466323 2.2718768 -0.13362095 -0.06880249
0002d0 03 f4 5d be 34 db 3b be 8d 3c 83 be 89 43 1c bd
       -0.21675114 -0.18345338 -0.25632134 -0.038150344
0002e0 89 13 86 bd f1 d3 ca 3e d7 d8 5c 3e 80 7f d9 be
       -0.06546695 0.39614823 0.21567093 -0.42480087
0002f0 64 19 16 bf 7e 23 04 3f 52 be 00 3e e9 9a d8 3c
       -0.58632493 0.51616657 0.12572601 0.026441054
000300 26 58 34 be 29 cc d6 3f 54 75 87 3f 90 e1 8f bd
       -0.17611751 1.6781055 1.0582681 -0.070254445
000310 0e a4 77 bb 32 de 7d 3f 8a ba 9c be 44 fd 2a bd
       -0.0037786993 0.9916717 -0.30611068 -0.04174544
000320 25 10 cb 3f 80 5f c0 bd 51 3f f1 bc b7 f2 ec 3d
       1.5864302 -0.09393215 -0.029449137 0.11569732
000330 f6 da a0 3f df b2 e7 be d4 31 07 bf 22 2b 39 bb
       1.2566822 -0.45253655 -0.52810407 -0.002825447
000340 fa c4 79 3f 7f f8 e1 3f 1b e7 2b bf 53 6e 8f 3f
       0.9756619 1.765396 -0.67149514 1.1205543
000350 e2 85 b3 3f 74 55 f6 be b0 aa 4f ba 1a 3e 15 be
       1.4025233 -0.4811207 -0.0007921858 -0.14574471
000360 b6 1a 98 3d 89 f7 9b 3e a8 4c 5e be 1a 99 0c 3c
       0.0742697 0.30462292 -0.2170893 0.008581424
000370 59 52 81 3d f6 f7 dc be e5 80 8f be ff 6b c4 be
       0.06314535 -0.4315793 -0.28028026 -0.38363644
000380 a3 53 8e be c8 09 ff 3d 06 d7 51 be 61 5d d4 be
       -0.27798185 0.124530375 -0.20492181 -0.41477492
000390 f4 9e 73 be 96 cd d9 bc 9a 3a c2 bd 4e 79 7f bd
       -0.23791105 -0.026587289 -0.094838336 -0.062371545
0003a0 dc fa 23 be 4a ef 5f 3f 41 c8 0f 40 b8 02 24 be
       -0.16013664 0.874745 2.2465975 -0.16016662
0003b0 15 fb 1a 40 23 a5 23 bd a1 65 2c be d9 3d cf 3f
       2.4215748 -0.03995241 -0.16835643 1.619075
0003c0 37 3d b5 3c eb ae 3d 3d 7d 2d 06 be a5 de 8c bc
       0.022123916 0.046309393 -0.1310329 -0.017196009
0003d0 aa ec 0b 3e db c6 09 bd 7a 1d fd 3f 53 4a 3a 3d
       0.13664499 -0.03363691 1.977462 0.045481037
0003e0 0f 90 2f bc f0 36 66 3d 32 e4 d6 bd 04 f7 cd bd
       -0.010715499 0.056204736 -0.104927436 -0.1005688
0003f0 6b 38 ad bd 55 ac 17 3e 24 8e b9 bd 42 25 95 3d
       -0.084580265 0.14811833 -0.09060314 0.07282497

gnn.convs.0.nn.lins.0.bias f4 [16]
000000 cf 1d 44 3e 84 f8 d1 be 32 b0 09 be f4 8a 54 be
       0.19151996 -0.41009915 -0.1344612 -0.20756131
000010 0b 0f 63 be ab f5 dd bd 56 2d 0f be 27 e1 5d bd
       -0.22173707 -0.10837873 -0.13982138 -0.0541698
000020 74 77 06 3e 55 c9 ee be ea e5 03 bf c8 62 5a 3d
       0.13131505 -0.4663798 -0.51522696 0.05331686
000030 52 60 f1 3e e9 c2 50 3e 84 18 66 be d0 77 5d be
       0.471438 0.20386852 -0.2247029 -0.21627736

gnn.convs.0.nn.lins.1.weight f4 [16, 16]
000000 85 97 95 3f 4e e6 00 3f 23 4c aa 3e 92 51 7d 3d
       1.1686865 0.5035142 0.33261213 0.06184537
000010 8f 06 9e 3e 16 65 ae 3e 34 eb 9b 3f 5c 37 5c bf
       0.3086438 0.34061497 1.2181153 -0.8602197
000020 a7 23 6b 3f 0a bd c1 3e 64 0d 1f bf 4d 6c 59 3e
       0.91851276 0.37839538 -0.6212981 0.2123272
000030 b3 61 4c 3f b5 16 79 bf 4f 73 bd 3c 7b cd 80 bd
       0.7983658 -0.97300273 0.023126272 -0.06289192
000040 72 d1 6b 3e 28 32 9c be a1 92 5c bd 04 ef 63 be
       0.23029116 -0.30507016 -0.053850774 -0.22259146
000050 da fd 95 bc f0 f9 82 be c6 72 49 3d db bb f0 3d
       -0.018309522 -0.25581312 0.049181722 0.117545806
000060 b4 8f 15 be c2 ca ec 3d 58 0d 02 be 02 2e 9a be
       -0.146056 0.115621105 -0.12700403 -0.30113226
000070 bd 66 51 be fd 04 cd 3d 92 d0 dc be 72 a5 8f bd
       -0.20449348 0.10010717 -0.43127877 -0.07013978
000080 75 db 94 be a4 a9 f6 3d 99 f2 82 bd be bb ed 3c
       -0.29073682 0.12044075 -0.06393928 0.029020187
000090 23 85 c2 be 1e f6 9f be dd 73 99 3d 9d c5 40 bf
       -0.379922 -0.3124246 0.07492802 -0.75301534
0000a0 d9 bd 5a 3c bb d2 45 bd a5 69 b0 3d ac bc cc be
       0.013350927 -0.04829667 0.086139 -0.39987695
0000b0 d5 19 74 be 5f ba a3 bd 0b 49 bf bd 75 df 4c 3e
       -0.23837979 -0.07994532 -0.09340104 0.20007117
0000c0 f0 ed 8d 3f 14 dc 22 3d cf b1 37 3d c9 b8 10 3e
       1.1088238 0.039760664 0.044847306 0.1413299
0000d0 c4 82 ff 3e 72 c5 ed 3e 9d 05 78 3f 98 48 5f bf
       0.49904454 0.464397 0.96883565 -0.87220144
0000e0 24 99 25 3f 56 de 14 3f f4 40 e6 be cb 52 83 3e
       0.646868 0.5815176 -0.4497143 0.25649104
0000f0 3f 10 61 3f 8f 08 ac bf 97 21 58 3e 05 c4 0d bd
       0.87915415 -1.3440112 0.21106564 -0.034610767
000100 63 61 9e 3f fd e5 eb 3d 22 8d 14 3e 5d e7 25 be
       1.237347 0.11518476 0.14506963 -0.1620154
000110 d9 d8 ed 3e da 87 0e 3f 31 b8 a3 3f 94 8f ee bf
       0.46454504 0.55676043 1.2790586 -1.8637567
000120 d5 5d 5f 3f b5 af 03 3f 30 3e 8b be 2c 81 fe bd
       0.8725255 0.5143998 -0.27195883 -0.12426981
000130 7d 25 7e 3e 03 88 a6 bf 69 40 c2 3e 4f 3c 9b 3d
       0.24818988 -1.3010257 0.37939766 0.07579862
000140 3e 33 29 be 24 97 6f bf fc b5 b2 bd 81 f8 a3 3c
       -0.16523454 -0.9359 -0.08726117 0.020015957
000150 0b 3b 0c 3e 9e 1b 21 bf df cf 90 bd 41 53 48 3f
       0.13694398 -0.62932765 -0.07070898 0.78252035
000160 57 14 e7 3d 5d 1d 68 be 68 3c b3 3e 67 14 38 3d
       0.112831764 -0.22667451 0.35007024 0.044941332
000170 82 0d 3e be 2d e5 43 be 7d 02 b0 bf 9b 5a 62 3f
       -0.1855984 -0.19130392 -1.3750759 0.884195
000180 14 ef 74 be 60 42 75 be 37 f5 75 be 58 30 4f 3e
       -0.23919326 -0.23951101 -0.24019323 0.20233285
000190 65 8f 71 be 40 fb d7 bc d4 22 6e 3e ee c2 5c bc
       -0.23589857 -0.026364923 0.23255473 -0.013474209
0001a0 b0 86 df bd a4 ce a6 bd aa 58 da bd be c4 71 be
       -0.109143615 -0.08144882 -0.106614426 -0.23610207
0001b0 e7 ee 9f be 7a a3 62 bc 9e 5c 4d 3e 73 21 48 be
       -0.31236956 -0.013832921 0.20054862 -0.1954401
0001c0 95 9c a4 3f c0 32 65 3f 56 01 ad 3e 95 d1 2f 3e
       1.2860285 0.89530563 0.33790082 0.17169793
0001d0 f9 b6 e9 3e 03 c5 f9 3e 46 51 e6 3f cc 18 a1 bf
       0.4564741 0.4878312 1.7993553 -1.2585692
0001e0 c7 a7 8c 3f ff 85 02 3f e3 17 98 3e 0c dc 01 3e
       1.0988702 0.5098571 0.29705724 0.12681597
0001f0 bd 93 c8 3e 45 44 aa bf 4b 8f b5 3e 14 83 ac 3d
       0.39175215 -1.3302084 0.35460886 0.08423439
000200 a4 2f 79 3f ab 4d c6 3e ef 5a cd 3e b0 f6 69 be
       0.9733832 0.3873113 0.4010844 -0.2284801
000210 a4 87 12 3f f1 f9 86 be c2 e6 c8 3f e6 5c 34 bf
       0.5723822 -0.26362565 1.5695422 -0.7045425
000220 50 99 15 3f 87 76 6a 3e a6 52 10 3e 7b fc 95 bb
       0.5843706 0.22896777 0.14094028 -0.004577217
000230 d9 d9 4d 3f b7 ff a8 bf 45 4c a4 bd 48 7c 09 3f
       0.80410534 -1.3203038 -0.0802236 0.53705263
000240 f7 84 95 3f 68 49 f1 3e 34 07 22 3e e0 5e 63 be
       1.1681203 0.47126317 0.1582306 -0.2220416
000250 36 09 3b 3e 5f fd 3e 3e 78 f3 07 40 01 85 3a bf
       0.18265232 0.18651341 2.1242352 -0.728592
000260 5a b7 a0 3f 2d ff de 3e 64 f8 8c be a6 ba a0 3e
       1.2555954 0.4355406 -0.27533257 0.313924
000270 85 57 19 3f fe e5 a9 bf e2 ae 10 3e 21 44 25 be
       0.5989917 -1.3273313 0.14129212 -0.1613927
000280 06 2b a5 be ac ef af be b9 ba 00 be a8 9f 80 3d
       -0.32259387 -0.34362543 -0.12571229 0.06280452
000290 e2 ce 2a 3d 6c 95 f5 be 21 51 f7 be ff e6 9b 3f
       0.041701205 -0.47965562 -0.48304084 1.217987
0002a0 39 f5 0a 3e 4f 81 1d bc 12 66 0f 3f db 4c 03 be
       0.13570108 -0.009613349 0.5601512 -0.12822287
0002b0 53 64 27 3c 13 6d 01 3d 58 91 01 bf 73 f0 46 3f
       0.01021679 0.031598162 -0.506124 0.77710646
0002c0 a8 54 83 3f 9f 01 11 3f d8 04 31 be 87 0d 41 be
       1.026021 0.566431 -0.17287004 -0.18852817
0002d0 61 99 98 3e 05 f3 39 3d 8d e1 5a 3f 15 69 b8 bf
       0.2980452 0.045397777 0.85500413 -1.4407068
0002e0 7e 0d 86 3f c2 8e b4 3e 17 85 fb bd 01 17 3f 3e
       1.0472867 0.35265166 -0.12281244 0.18661119
0002f0 20 4f 08 3f 47 39 93 bf f7 4d f5 3e 14 8a 41 3e
       0.53245735 -1.1501855 0.47911045 0.18900329
000300 67 d1 5a bd f5 9e 21 3d 03 32 71 bc 68 e5 98 bd
       -0.053422358 0.039458234 -0.014721396 -0.07465631
000310 c7 02 f1 bd 56 6f 78 be fe f3 89 be 58 49 f8 be
       -0.11768108 -0.24261221 -0.26943964 -0.48493457
000320 7b 08 72 bf 9e c5 bf bd 89 bd ee 3d fd 8f 96 3e
       -0.9454419 -0.09363864 0.11657245 0.2940673
000330 09 6d 48 3e 15 35 0a bf 9f 6c bc be 51 ce e3 3d
       0.19572844 -0.53987247 -0.3680162 0.11123336
000340 31 34 3c bd 1b d3 75 be 7d 29 d9 3d d9 e6 26 3e
       -0.04594821 -0.24006312 0.106036164 0.16298999
000350 8e d4 30 bd ca 80 78 be 0c f9 f9 be 0f 17 63 3f
       -0.043171458 -0.24267879 -0.4882282 0.8870706
000360 9c cc 0d 3e 8a 95 0f bc 23 55 af 3f a4 f5 69 be
       0.13847584 -0.00876368 1.3697857 -0.2284761
000370 9b 23 0b bf c1 ee e9 3d d8 cb 1c bf bf 23 c1 3e
       -0.54351205 0.11422492 -0.6124854 0.37722585
000380 54 d0 28 3f 3f 9e 17 3f 9d 75 d1 bb 64 60 9d 3d
       0.65942883 0.5922584 -0.0063921944 0.07684401
000390 18 48 ed 3e 67 78 8f 3e cc 57 d5 3f 47 11 be bf
       0.46344066 0.28021547 1.6667418 -1.4849023
0003a0 fa f0 25 3f f9 0a 0e be bf 3f e9 be 88 7e c8 3e
       0.64820826 -0.13871373 -0.45556447 0.39159036
0003b0 7f 0f 01 3f a9 20 b2 bf 57 56 be 3e 9a 01 95 3e
       0.5041427 -1.3916217 0.37175247 0.29102784
0003c0 db d7 59 bd 80 11 5f 3c 1a f7 61 be 64 6b 4d be
       -0.05318437 0.013615012 -0.22066918 -0.20060498
0003d0 25 6e df be 6c aa 5c be 12 22 47 be 20 5f 3f bc
       -0.4363872 -0.21549386 -0.1944659 -0.011680394
0003e0 6f 60 a4 be d3 08 7c 3d d8 cf f3 bd af 5c a4 be
       -0.32104823 0.061531853 -0.119048774 -0.32101962
0003f0 97 ca b5 bd 62 7b 5f 3b 00 63 21 bc f1 8a 35 3c
       -0.088765316 0.0034100641 -0.009850264 0.0110804895

gnn.convs.0.nn.lins.1.bias f4 [16]
000000 36 3a f1 3d 30 de c4 be 43 ff e9 bd 6f c6 e7 3e
       0.11778681 -0.38450766 -0.114256404 0.4526858
000010 8a 1d 8f 3c 88 46 00 bf dd d0 5c be 08 55 5e bd
       0.01747014 -0.5010762 -0.2156405 -0.05428031
000020 df 7f ca 3e f4 78 d1 3e 0c 68 5d bf 8b 23 9e bd
       0.39550683 0.40912592 -0.8648689 -0.07721623
000030 67 c3 64 be 50 86 24 bf 20 bd 10 be fe 3a 9c be
       -0.22340165 -0.64267445 -0.14134645 -0.30513757

gnn.convs.1.nn.lins.0.weight f4 [16, 16]
000000 24 23 87 bd b7 a4 07 3e e0 73 24 3e 3b 8c 91 3e
       -0.065984994 0.13246427 0.16059828 0.284273
000010 dc 92 bf be 96 f4 dc be ae 4f 21 3e aa af 86 bf
       -0.37416732 -0.43155354 0.15753052 -1.0522358
000020 0e 7a 73 be 71 25 cf be d5 e8 35 bf ea c2 a3 3e
       -0.23777029 -0.40458253 -0.710584 0.31984645
000030 86 74 db 3c 7a 41 bf be 4c dc 09 3f 84 44 65 be
       0.026788961 -0.37354642 0.5385177 -0.22389418
000040 05 8c c9 bd 73 1c 90 3e 8c e7 e6 3e 06 43 11 bf
       -0.0984116 0.28146705 0.4509853 -0.56742895
000050 2a 2c 9e be 07 20 06 3f 69 d0 a9 3d 7b 71 37 be
       -0.3089307 0.5239262 0.08291704 -0.17914383
000060 31 64 af be b9 3a c4 be 0d 45 6f 3f cf 84 08 bf
       -0.34256127 -0.38326052 0.9346474 -0.5332765
000070 90 59 77 3e b2 41 a3 3f c9 53 0b bf 4e 3a 60 3e
       0.24155259 1.2754424 -0.5442472 0.21897241
000080 d0 e7 87 bd 7e b7 a0 be 58 d2 7b 3e 7b 08 80 ba
       -0.066360116 -0.31389993 0.24591959 -0.0009768152
000090 18 8d 37 3f 39 ca 36 bf ae a5 90 bc 12 a3 17 bf
       0.71699667 -0.7140232 -0.017657127 -0.592332
0000a0 5d 2f c9 bd 6f 44 3c 3e 24 a2 83 bf 11 21 5e 3e
       -0.09823487 0.1838548 -1.0283856 0.21692301
0000b0 d1 15 7d bc d5 68 05 bf 6d 70 1d be 4b d5 24 be
       -0.015447096 -0.52113086 -0.15374918 -0.1609699
0000c0 22 09 81 3d ea d5 72 3c 1a ef f8 bd 13 93 02 3d
       0.0630057 0.014821509 -0.1215498 0.031878542
0000d0 50 f9 8e 3e e2 cc d4 be fd 44 21 bd 2e 59 de 3d
       0.27924585 -0.41562563 -0.039372433 0.108568534
0000e0 e7 e8 a4 bd e2 81 05 3c e1 19 32 bf 8f 3f 4e bd
       -0.08052235 0.008148642 -0.6957074 -0.050353583
0000f0 1b d6 a1 3d 99 b1 c0 be d7 e6 ed 3c ea 96 a7 3d
       0.079021655 -0.37635496 0.029040737 0.081830814
000100 db a0 8c 3e 17 9a 48 3e 1f 08 01 3e ea 26 67 3e
       0.27466473 0.1959003 0.12600754 0.22573438
000110 79 c8 b4 3e 2b ae 12 bf 1e e6 29 be df 78 b3 3c
       0.35309198 -0.5729701 -0.16591689 0.021908222
000120 bf fd 4e be 0f 46 8f bd 23 0d 78 bf 9a 26 32 3e
       -0.20213984 -0.069957845 -0.96895045 0.17397538
000130 20 53 41 bb 97 27 14 bf d1 ce a4 3e cc 84 7b 3e
       -0.002949901 -0.5787291 0.32189038 0.24562377
000140 db 42 49 3d 83 1b 0f be c2 eb e6 bd d6 a2 85 be
       0.049136024 -0.13975339 -0.11275436 -0.26100796
000150 b5 df 86 be 48 68 c5 be 96 96 5e 3e fd 93 a7 3c
       -0.2634255 -0.38556123 0.21737131 0.020456308
000160 65 8c c9 be 43 fc 5c bd 8c 51 db be a3 ef 1f 3e
       -0.39364925 -0.053951513 -0.42835653 0.15618758
000170 56 68 c5 3c be b6 0c be 1d 60 05 be e6 1b 02 be
       0.024097603 -0.13741586 -0.13024946 -0.12705955
000180 1c ff de be b2 5d 60 3d d8 9e ae 3c 23 e5 44 3c
       -0.43554008 0.054776855 0.021315977 0.012017521
000190 0f 2a 67 3c f7 79 05 bf 80 fb 64 3d 79 00 9c 3c
       0.014109149 -0.5213923 0.05590391 0.019043194
0001a0 6f 38 9e be 68 73 a7 3d 16 de 83 bf 3c 3e 33 be
       -0.3090243 0.08176309 -1.030215 -0.1750421
0001b0 db 71 34 be a3 94 3b 3e 26 d0 c9 3c a4 37 e0 bd
       -0.17621557 0.18318419 0.024635386 -0.109481126
0001c0 a5 17 6c bc e0 c0 42 be 65 15 b0 be a1 51 2e bd
       -0.014409934 -0.19018888 -0.34391323 -0.042558316
0001d0 6d 05 f8 ba 9b 26 f8 bd 48 c2 2f 3e 0c d3 15 be
       -0.0018922515 -0.121167384 0.17163956 -0.14631289
0001e0 44 f2 98 be f5 88 bf bc c3 3a 03 bd f8 0f 2f 3a
       -0.29872334 -0.023380736 -0.03203846 0.00066781
0001f0 3f ce 97 be 2c a2 8e be a2 34 3e be 68 02 79 3d
       -0.2964954 -0.27858102 -0.18574765 0.06079331
000200 d0 db c7 3d 28 06 67 bd ec b1 19 3c e3 0c 71 bf
       0.09758723 -0.056402355 0.009380799 -0.9416029
000210 91 36 85 3e d6 b8 95 be 6d 2b 91 be f8 5a a4 bd
       0.26018193 -0.2924258 -0.28353444 -0.080251634
000220 f3 0a 32 bf db 31 c9 3e da 28 a2 be 39 7b 61 3e
       -0.6954796 0.3929585 -0.31671792 0.22019662
000230 95 5c c0 bd cd 9f a3 be 56 ef e3 3d 3e 27 64 3d
       -0.093926586 -0.31957856 0.11129634 0.055701487
000240 3d c3 83 be 5e 11 36 be 41 e1 1f be a1 30 74 be
       -0.25734892 -0.17780063 -0.15613271 -0.23846675
000250 d4 c0 63 b9 b3 f6 46 be f0 1f 82 bc da 67 ca be
       -0.00021720241 -0.19430046 -0.01588437 -0.39532357
000260 bc bd 04 bf e6 87 07 bf b0 74 0b be d6 62 d5 be
       -0.5185201 -0.5294174 -0.13618731 -0.41676968
000270 71 39 16 bd 9d 02 a0 bd 57 34 84 3e 94 56 d0 bd
       -0.036675874 -0.078129984 0.25821182 -0.101727635
000280 1e 7b 36 be 8d ae a3 3e 98 78 9d 3e e6 0f 09 3f
       -0.17820403 0.3196911 0.30756068 0.53539884
000290 d5 9e 1d be 71 0f 70 3f 18 df 35 be eb ff 01 3f
       -0.15392621 0.9377356 -0.17760885 0.50781125
0002a0 0a 9b 1c 3f eb 43 92 3e c1 60 fb 3e a6 24 1d 3e
       0.6117407 0.28567442 0.49097255 0.15346012
0002b0 1f 25 26 be 9c 5c c2 3e 5c 7c e1 be b8 15 7d 3e
       -0.16225098 0.3796128 -0.4404019 0.24715316
0002c0 d9 e7 53 be 3f 79 56 be 6a 6b a4 3d f1 ea 57 be
       -0.20693912 -0.20944689 0.080283 -0.21085717
0002d0 b3 44 35 be 43 b0 f5 bc 6e 36 8f 3e 27 a3 d5 be
       -0.17701988 -0.029991275 0.27971214 -0.41726038
0002e0 46 a9 8c bd 19 ec 6b bd c2 57 0a bf da f3 80 3d
       -0.06868224 -0.057598207 -0.5404016 0.06296511
0002f0 76 33 c3 3d 17 6f be be 32 c3 61 3e 5e 10 20 3e
       0.095313 -0.3719413 0.22047117 0.15631244
000300 4f cb 56 be 33 94 b7 3e 94 a4 8f 3d c9 1c 69 be
       -0.20975994 0.35855255 0.07013813 -0.22764887
000310 37 14 88 3e fe e7 5b be 2c 63 fa 3d a3 2b 46 3e
       0.26577923 -0.21475217 0.12225947 0.19352584
000320 0a b6 03 bf 6f a0 4e 3d 60 5b 31 3d 2c 6e 2a bf
       -0.51449645 0.05044597 0.043300033 -0.6657436
000330 c1 59 93 be 40 5e 56 bf df 6c de be 24 f4 cb bd
       -0.28779414 -0.83737564 -0.43442437 -0.099586755
000340 b8 e4 75 be 70 1b 91 bd fa ee c6 bc 46 a1 21 be
       -0.2401303 -0.070853114 -0.024283875 -0.15784177
000350 85 a5 a7 be 23 55 16 3d 50 a4 65 3e a8 f9 41 be
       -0.3274347 0.036702286 0.22425961 -0.18942893
000360 8e 11 87 bb 5e f0 e5 bc 7b ea 09 bd 38 58 e0 be
       -0.0041219657 -0.028068718 -0.033670884 -0.43817306
000370 fd 9a 14 be c7 bd 5d be 8e c9 69 be d6 a3 15 3e
       -0.14512248 -0.21654426 -0.22830793 0.1461328
000380 02 af fe be ad 61 00 3e ef 6a 92 3e 86 0b 8d bf
       -0.49742895 0.1253726 0.2859721 -1.1019142
000390 42 3d 41 bf f4 cf c7 3e 08 b3 3d be 55 ef e9 be
       -0.75484097 0.39025843 -0.18525326 -0.45690408
0003a0 91 60 3d bf 52 60 8c bf 9e 14 50 bf 62 9d 99 bf
       -0.73975474 -1.0966895 -0.8128146 -1.2001154
0003b0 26 39 e5 bd 68 64 a8 be 94 b1 02 bf 21 5a 88 bc
       -0.11192541 -0.32889104 -0.5105221 -0.01664454
0003c0 d4 d6 eb bd 4a 4a 08 3e 54 e2 b6 bd 6d f7 d7 be
       -0.115155846 0.13309589 -0.089298874 -0.42180958
0003d0 f2 a6 89 be 09 5c 85 be 33 cd 27 3e 99 76 b0 be
       -0.26885182 -0.2604678 0.16386871 -0.34465483
0003e0 22 ee 5f be 0f d7 4e be 7c 58 8e 3d 21 cb 08 be
       -0.21868184 -0.20199226 0.06950471 -0.13358738
0003f0 08 fd b0 3d e2 54 f1 be c9 45 07 be db c1 32 3e
       0.08642012 -0.47135073 -0.13210215 0.17456762

gnn.convs.1.nn.lins.0.bias f4 [16]
000000 d9 9b 6d bd 6f 28 1b 3f 23 de 0b 3f 5e dc c2 3e
       -0.058009956 0.6060857 0.5463583 0.38058752
000010 27 c4 0f 3f e6 ed 07 be 28 0c eb be 25 60 2f be
       0.5615868 -0.13274345 -0.45907712 -0.1712652
000020 f0 72 6d 3e c3 e6 cf bd 7e f4 28 3e b9 86 e4 bd
       0.23188376 -0.10151436 0.16499516 -0.11158509
000030 f2 4f 55 bf 58 8a b0 be 29 7d 4c 3f 5a b0 c7 be
       -0.8332511 -0.34480548 0.7987848 -0.39001733

gnn.convs.1.nn.lins.1.weight f4 [16, 16]
000000 34 ba 0c 3e aa 11 55 bd e3 fc a2 be 88 e6 e3 3d
       0.13742906 -0.0520188 -0.31833562 0.11127955
000010 b0 d1 64 bd 4e 08 a1 bd 97 d4 1a 3e c5 d3 00 3d
       -0.055864036 -0.07862912 0.15120159 0.03145196
000020 a4 e6 8f bd 46 ac 01 be ed f1 8e be 68 fa 55 3d
       -0.07026413 -0.12663373 -0.2791895 0.05224076
000030 e6 5b 1a 3e 05 b5 8c bc 44 6b fd 3d 0a 5a db bd
       0.15074119 -0.01717616 0.12373975 -0.10710533
000040 fe 97 92 3e 75 a1 73 bf 0d 2e c3 3d 0a 29 e3 3d
       0.28631586 -0.9516824 0.09530268 0.11091812
000050 48 00 fd 3e 52 34 88 bd f1 c2 89 3d c3 5c 96 3e
       0.49414277 -0.06650604 0.06726635 0.29367647
000060 be d7 87 bd 41 13 94 3d 84 96 2c be 74 91 82 bd
       -0.066329464 0.07230235 -0.16854292 -0.06375399
000070 71 9c 33 3e f1 ba 2b be 90 ce b0 bf bf 93 e7 b9
       0.17540146 -0.16770531 -1.3813038 -0.00044169833
000080 4b 91 23 3c c8 f6 20 bf 2a bd eb 3d 41 a1 6e 3c
       0.009983371 -0.6287656 0.115106896 0.014564813
000090 c9 36 aa 3d e4 54 d4 bd 87 44 a5 3e 80 bf 0c 3d
       0.08311231 -0.10367754 0.32278845 0.034362316
0000a0 00 98 9e 3f 9b 0e 82 3e 7c b1 b7 bd 31 f3 1f 3e
       1.2390137 0.25401768 -0.08969399 0.15620114
0000b0 e7 58 c2 3d 92 91 4b 3e b5 63 51 be 3c e4 6e be
       0.09489613 0.1987975 -0.20448191 -0.23329252
0000c0 75 94 3c be 4f 23 0d bd 70 91 a1 be eb bd 05 bd
       -0.18416007 -0.0344575 -0.31556273 -0.032651823
0000d0 eb 79 99 ba c7 c5 22 3e ea 90 95 bd c2 58 79 be
       -0.0011709308 0.15895759 -0.07303031 -0.24350265
0000e0 5a d4 59 bd 76 95 47 be 8b 2e c9 bd 55 b8 eb bd
       -0.05318103 -0.19490609 -0.098233305 -0.11509768
0000f0 b0 5d 71 be f0 59 e0 3c 21 6e 25 be ab 2f 43 be
       -0.23570895 0.027386636 -0.16155292 -0.19061153
000100 92 97 7b be 0a 27 62 be b4 e9 3a 3d 33 ea f1 3d
       -0.24569538 -0.22085205 0.045633033 0.11812248
000110 40 0e 1d be 60 fb 02 3d 6e b5 71 be 98 e7 24 3e
       -0.15337467 0.03197801 -0.23604366 0.16103971
000120 fe 69 77 be 60 c4 46 3d a8 88 7a bd 96 8b 01 be
       -0.24161527 0.04852712 -0.06116548 -0.12650904
000130 12 00 7e be 8b f9 65 3e 40 a6 ee 3a a7 7d 9b be
       -0.24804714 0.22458474 0.0018207505 -0.30369303
000140 c2 7a 47 bd bf 79 94 bc 9c 57 88 be 69 7a 0a be
       -0.048701055 -0.01812446 -0.2662934 -0.13523258
000150 69 8f a7 3b a3 c8 9c 3d 4e 62 a2 bc bf 12 5e bd
       0.0051135314 0.07655456 -0.019822266 -0.054217096
000160 b3 c2 7a bd 67 ef d8 3d e1 59 8d be c6 99 97 be
       -0.061220836 0.105925374 -0.27607635 -0.29609507
000170 4c 9b 8a bd 54 7a 0b be 7b 0f 1e be d0 23 32 bd
       -0.06767902 -0.13620883 -0.15435593 -0.043491185
000180 e5 29 be bd 5f 40 f9 3a c3 3f 10 3c 22 75 59 bc
       -0.092853345 0.0019016376 0.0088042645 -0.013272556
000190 f8 a4 e0 bc 0d 89 a8 be d5 ff f8 bd d7 44 c3 3d
       -0.027422413 -0.3291706 -0.12158171 0.095346145
0001a0 dd 4a 51 be 38 96 ab bd 98 02 31 be b6 13 1c bd
       -0.20438714 -0.08378261 -0.17286146 -0.038104735
0001b0 66 d6 f9 be b5 42 25 3e 86 03 0d 3e 49 74 be be
       -0.48796386 0.16138728 0.13770875 -0.37198094
0001c0 85 15 c0 3d 97 48 0b bf 5e a5 bb 3e db 33 38 3e
       0.093791045 -0.5440764 0.36649603 0.17988531
0001d0 ac f5 a0 3d ce 43 9f 3d f9 0a 7c be 23 ac 2c be
       0.07859358 0.077766046 -0.2461356 -0.1686254
0001e0 0f 86 02 3f 62 44 09 3e e5 09 c3 be 4e bf b0 3d
       0.5098581 0.13404992 -0.38093486 0.086302385
0001f0 9f 58 1d 3e 76 2e 13 3e ce ad 67 bf b9 57 cf 3d
       0.15365838 0.14373192 -0.9049958 0.10124154
000200 20 7a a6 be 3b 73 ca be 1d ab 88 be e3 64 09 bd
       -0.3251505 -0.3954104 -0.2669305 -0.03354348
000210 64 f2 17 bd dd 6d 26 3e 5f d7 85 be 2b ea 13 3c
       -0.037096396 0.16252847 -0.26140878 0.009027998
000220 5f 98 d8 3d 78 8b 24 3e 80 43 3c bd 38 48 ca be
       0.105759375 0.16068828 -0.04596281 -0.39508224
000230 0e 25 ae be c7 3e fe 3d 70 39 9a 3d 9b f1 0f bc
       -0.34012645 0.124143176 0.075304866 -0.008785631
000240 9e 4f aa 3e 2e 37 06 bf 48 aa b8 3d 6b c7 2b bd
       0.33263868 -0.5242795 0.090168536 -0.041938227
000250 36 96 52 3e 75 c0 2e 3e 9b 0d 6b bc 7b 84 8e 3e
       0.20565113 0.17065604 -0.0143465055 0.2783545
000260 8b 9f f3 3e 46 57 dc 3e d1 9a 43 bf ab cb b5 3e
       0.4758266 0.43035334 -0.76408106 0.3550695
000270 ed 5e 06 be 8e 39 93 bd dc 6e 3f bf 73 dd 9e bc
       -0.13122149 -0.07188712 -0.74778533 -0.019392705
000280 41 9b e1 3b 52 6b b5 be 7e e8 02 3e 81 4a 68 be
       0.006884963 -0.3543344 0.12784001 -0.22684671
000290 31 ce 09 be d2 da 0d 3d 93 fe 8b be 37 12 af bd
       -0.13457562 0.03463251 -0.27342662 -0.08548396
0002a0 4f 32 3b be 2b 01 4a be 37 6e 96 bd bc 84 aa bd
       -0.1828091 -0.19727008 -0.073452406 -0.08326098
0002b0 88 68 33 be 30 61 cd be 71 83 f0 3d 5f 5c 8f be
       -0.17520344 -0.4011321 0.117438205 -0.2800016
0002c0 57 a4 10 3e 6a 8a 01 bf a9 1f 8d bd c0 d5 5a bd
       0.1412519 -0.5060183 -0.06890804 -0.053426504
0002d0 47 04 a8 3d f2 be 14 be 22 cc 3f 3e c3 b9 20 3e
       0.08203941 -0.14525965 0.18730214 0.15695862
0002e0 93 45 ef bc 11 12 3d 3e 45 ab 44 bf 06 bb 32 bd
       -0.02920798 0.18463923 -0.76823837 -0.04363539
0002f0 36 bf 4d be cd 06 55 3e 9d 2e 16 bf a0 04 d6 bd
       -0.20092472 0.20803376 -0.58664876 -0.10450101
000300 fe 4d 29 3a c2 80 54 bf 3d 77 c7 3e a1 39 5a 3e
       0.000645846 -0.8300897 0.3895816 0.21311046
000310 73 8f b1 3e 2c 47 6c 3d 91 dd f1 bc 16 54 08 3d
       0.34679756 0.057685062 -0.029524596 0.033283316
000320 2f 9c 0d 3e a0 96 ac bc 2e 70 03 be 90 19 3f be
       0.1382911 -0.021067917 -0.12835762 -0.18662095
000330 ce c0 2d 3f 00 60 36 bd cb 2d 61 bf 7a 69 a2 3e
       0.6787232 -0.044525146 -0.879605 0.31721097
000340 82 04 65 be 3e 58 91 bc 34 e8 19 3e c1 d7 4d be
       -0.22365001 -0.017742272 0.15029985 -0.20101835
000350 a2 92 af be 55 e4 19 be 13 ef 41 be ae 9b 12 3e
       -0.3429156 -0.15028508 -0.18938856 0.143172
000360 a9 19 98 3c 0e 62 6a be 8f 21 ed bd 5a 47 c6 bd
       0.018566923 -0.22888967 -0.115786664 -0.09681578
000370 ae ec 0f 3e 80 4f bf 3d d0 4b 61 be 18 ac fa 3d
       0.1405513 0.09341335 -0.22001576 0.122398555
000380 f5 a6 43 be f3 53 c4 bd a4 3e ce bd b7 cd 11 be
       -0.19106658 -0.095863245 -0.100705415 -0.1423863
000390 46 0f 7d be 05 bd bb bc c2 64 a9 3d 28 c7 70 bd
       -0.24712858 -0.02291728 0.08271171 -0.05878368
0003a0 80 81 13 3c e5 4b 08 3e 12 94 05 be 5b cd 76 be
       0.009003043 0.13310201 -0.13044766 -0.24101774
0003b0 24 fc e3 bd 62 d4 a4 3d fe ee 13 3b e6 77 65 3d
       -0.111320764 0.08048321 0.002257287 0.056022547
0003c0 a4 d7 52 bd a8 d4 16 be 65 f2 7f be e6 4d 99 3c
       -0.051475182 -0.1472956 -0.2499481 0.018713903
0003d0 0f f6 18 be 35 54 68 3d 5c 08 83 3d 15 16 85 bd
       -0.14937614 0.05672093 0.06398079 -0.064983524
0003e0 26 0a 7f 3d 84 7f 9e 3e 45 6c 31 be 9d 02 dc 3d
       0.062265538 0.30956662 -0.17326458 0.10742686
0003f0 e8 b3 39 3e 80 99 21 3d e0 89 72 be 23 1a 0b be
       0.18135035 0.03945303 -0.23685408 -0.13584189

gnn.convs.1.nn.lins.1.bias f4 [16]
000000 4f 5a 23 3c 2e ca 0b 3f 27 b6 48 be ba a0 ac be
       0.009970262 0.54605377 -0.19600736 -0.33716375
000010 16 2a 13 bf 59 f8 8e bd ab c9 51 be 01 75 63 3e
       -0.57486093 -0.06980962 -0.20487086 0.22212602
000020 3f a1 d5 bc 69 d2 ac 3b b7 af 80 bd 37 da 52 3d
       -0.026077865 0.0052741063 -0.06283515 0.051477637
000030 75 7d 2c 3f ee 51 98 be 1a 78 1f be 5b f1 86 be
       0.6737893 -0.29750007 -0.15573159 -0.26356015

gnn.convs.2.nn.lins.0.weight f4 [16, 16]
000000 cc d7 39 be 33 b4 3b 3e 3e b5 38 be 76 af 00 be
       -0.18148726 0.1833046 -0.18037888 -0.12566933
000010 5b 43 fb bd 1c ba 38 3e 7a 90 40 3e 94 ce 51 be
       -0.122687064 0.18039745 0.18805113 -0.2048896
000020 94 a9 17 3e 31 f4 6a be e8 ea ae bc 92 b6 06 be
       0.14810783 -0.22944714 -0.021352246 -0.13155583
000030 e3 29 9a be bc ba 85 3c 11 59 40 be da 2e 6f 3d
       -0.30110082 0.016324393 -0.18783976 0.05839429
000040 64 8b ee bc 58 76 81 3d 89 d3 13 3f 63 69 54 3e
       -0.029119201 0.063214004 0.5774465 0.20743327
000050 e9 a8 9f bd 6b 05 16 3c 33 6f e1 bc d4 66 c3 3d
       -0.07795889 0.009156565 -0.027518844 0.09541097
000060 fd 63 22 be 17 1b 34 3d 13 84 00 3d e4 ce ef bd
       -0.15858455 0.043971147 0.031375956 -0.11709383
000070 a9 23 a5 bd 5d dd 4b 3e 49 58 4a bd 35 40 01 bd
       -0.08063442 0.19908662 -0.0494006 -0.031555373
000080 87 b7 15 be 48 d4 67 bd cb 8c 2e 3e 07 8a 84 be
       -0.14620791 -0.05659893 0.17045896 -0.25886557
000090 7d 4a 9d bd d0 21 1e be 4d 42 b4 bd 87 54 f2 be
       -0.07680223 -0.15442586 -0.08801708 -0.47330114
0000a0 4b 9a 87 bd 79 7b bb 3d f3 a3 c0 bc 33 31 7b 3e
       -0.06621226 0.0915441 -0.023515677 0.24530487
0000b0 ee 85 06 bf 40 3c 89 3e 32 e9 00 3e 8d fe 08 3e
       -0.5254811 0.2680378 0.12588957 0.13378353
0000c0 39 65 2a 3e b7 b0 e8 3d bb dc f6 be 9f fa e3 3d
       0.16640176 0.11361831 -0.4821528 0.111317866
0000d0 33 4c c2 be 6b b0 61 3d b5 6c db bc d3 7c 04 be
       -0.3794876 0.055099886 -0.026785234 -0.12938242
0000e0 bf a9 9f be 83 4d 63 bd 74 27 2d 3d c0 9a 7e be
       -0.31184193 -0.055493843 0.042273954 -0.2486372
0000f0 49 ed c3 be 4f 3f 05 3e d4 a6 89 bc 90 8d ac 3e
       -0.38266972 0.13012432 -0.016803183 0.33701754
000100 0f 87 d7 3c 4f 2d 22 be 54 80 66 bd 48 f0 a5 3e
       0.026309518 -0.15837596 -0.056274727 0.32409883
000110 24 37 85 3d cb 0d 03 be 0a 9b 1c 3e dd 10 a5 bd
       0.06504658 -0.1279823 0.15293518 -0.08059857
000120 a8 90 2f bd 3f ed 9b be bc 0e 6a be b5 68 65 be
       -0.042862564 -0.30454442 -0.22857183 -0.22403224
000130 68 31 0b be 6e ec 20 be 58 03 cc bd f7 49 56 3e
       -0.13593066 -0.15715191 -0.09961575 0.20926653
000140 02 7d 14 3e 27 6d 02 be 83 ba 64 bd ca 78 40 3e
       0.14500812 -0.12736951 -0.055841934 0.18796077
000150 58 7d 65 be 22 14 76 bc 05 13 e9 bd 3a 4f cb 39
       -0.22411096 -0.0150194485 -0.11380581 0.00038778206
000160 dd dd 6d be 8e 31 18 bd 42 b6 07 be ed 0a bc bd
       -0.23229165 -0.037156634 -0.1325312 -0.091817714
000170 31 a1 7b be 36 c3 83 3e 81 56 38 be 99 a8 65 bc
       -0.24573208 0.25734872 -0.18001749 -0.014017248
000180 94 56 29 be b0 77 46 bf 2f 07 17 bf 36 5e 05 3e
       -0.16536933 -0.7752638 -0.58995336 0.1302422
000190 7b 50 95 be 32 7b ca bc f4 07 85 bd 73 74 5f bb
       -0.29162964 -0.024716947 -0.064956576 -0.0034096509
0001a0 ee 33 94 be 45 c2 24 bd dc 4d 11 3e 34 a6 90 be
       -0.2894587 -0.040224332 0.14189857 -0.28251803
0001b0 08 a3 ff bc f5 b0 01 3e 16 e3 98 3e 3d 27 b0 be
       -0.031205669 0.1266516 0.29860753 -0.34404936
0001c0 f2 9d 04 be 13 2d 2a bf c7 10 75 be dd 7b dc 3c
       -0.12950876 -0.6647503 -0.23932181 0.026914531
0001d0 13 20 8e be 87 24 43 3e 91 ea a0 bd 52 1f c5 be
       -0.27758846 0.19056903 -0.0785724 -0.38500458
0001e0 e9 65 1e 3e af f2 5c bd 6b 9f d3 bd 69 41 f6 3d
       0.15468563 -0.05394238 -0.10333141 0.12024195
0001f0 f8 55 02 bf 28 f5 46 be f6 c3 69 be 33 a2 84 3e
       -0.5091243 -0.19429457 -0.2282866 0.25904998
000200 dc f9 cb 3d 9f d1 e5 bd 9f f3 22 bc 7f 10 6c bd
       0.09959766 -0.11221623 -0.009945779 -0.05763292
000210 0d ba e9 3d ca 2f 79 3d 93 56 85 3d 3d ad 64 be
       0.114124395 0.06083659 0.06510653 -0.2233171
000220 d4 5e 01 3e 94 d7 ad be 02 7d 52 3d 98 19 8e 3d
       0.1263383 -0.33953536 0.051388748 0.06938475
000230 50 61 65 be 0c 5a ef 3b 0e 9e 03 be 71 24 11 3e
       -0.22400403 0.0073044356 -0.12853262 0.14174058
000240 cd db 69 bc 16 89 03 bc 83 4e 41 be 61 90 55 be
       -0.014273596 -0.008028289 -0.18877606 -0.20855857
000250 ea ba e0 bd 59 57 4c 3d 8d 86 7f 3e 15 fe a9 be
       -0.10973151 0.04988799 0.24953671 -0.33201662
000260 da d6 08 3e 42 22 2c be bd f8 f4 bd 7e 85 2c be
       0.1336321 -0.16809943 -0.119615056 -0.16847798
000270 cf 10 49 bc eb da 6a 3e a5 6c f9 bd 25 67 40 bd
       -0.012272074 0.22935073 -0.121789254 -0.046973366
000280 f3 c9 3a be 7c 8e 3e be 7d 07 79 be f4 fc ce bd
       -0.182411 -0.18609041 -0.24319263 -0.10106841
000290 8b cb f1 bc 48 60 a5 bd 1a 07 99 3d e9 5a ca bc
       -0.029516002 -0.08075005 0.07472058 -0.024701552
0002a0 29 1b f2 bd e7 5d 42 3e 1d 45 3e be f2 c0 b8 be
       -0.11821587 0.18981133 -0.18581052 -0.36084706
0002b0 9d 48 0f be 58 0f 22 3c 3a 1f 71 3c 25 bc e9 bd
       -0.13992544 0.009891354 0.014716918 -0.11412839
0002c0 b6 69 27 3e f5 f3 67 bd bd da 83 be 66 a0 ca bd
       0.1634892 -0.05662914 -0.25752822 -0.09893875
0002d0 f7 a1 4c be b1 dd dc bd ec 8a 16 3e 09 4f ad be
       -0.1998366 -0.10784472 0.14701432 -0.33849362
0002e0 b9 41 3e be da 7c a6 bd e7 79 47 bd 02 0a 3d be
       -0.18579759 -0.08129282 -0.04870024 -0.18460849
0002f0 5c d1 cb bd c1 38 b6 3c 3f 44 6f bd e9 cc 4c 3e
       -0.099520415 0.02224386 -0.058414694 0.20000042
000300 5d 4d 71 bc 95 e0 cc bd 20 5b 57 be 81 59 26 3e
       -0.0147279175 -0.10003773 -0.21030855 0.1624508
000310 bf ed 99 bd 03 a1 a1 3e e4 83 d1 3d 0e 26 b4 be
       -0.075160496 0.31568155 0.10230234 -0.35185283
000320 d0 6d 21 be 14 9e fd bc 5f 95 cd 3d 3d de b7 bc
       -0.15764546 -0.030959167 0.10038256 -0.022444839
000330 bb ed 70 bd c8 97 b6 be ec 9d 5b be 01 24 54 be
       -0.058820467 -0.35662675 -0.21446961 -0.2071686
000340 11 b7 56 bd 68 8f 81 3d 25 3b d4 be 08 a1 c6 3c
       -0.05242068 0.06326181 -0.41451374 0.024246708
000350 06 b7 e9 bd 81 65 9f bd a7 f5 0f 3e 12 63 ce bd
       -0.11411862 -0.07783032 0.14058553 -0.1007749
000360 f7 35 3e be 74 38 fb bc be 3d f9 bd 99 56 12 be
       -0.18575273 -0.030666567 -0.121699795 -0.14290847
000370 4c a0 11 bf 53 e0 95 bc 4d ea 82 3e 62 e5 88 3e
       -0.5688522 -0.018295443 0.25569382 0.26737505
000380 53 df 3a 3d f1 eb 4a be 3e 5b 2e be 0e b6 56 be
       0.045623135 -0.19816567 -0.17026994 -0.20967886
000390 36 8c a6 3e 2c 85 03 be 03 b1 3b 3e 2a 52 8a bd
       0.32528847 -0.1284377 0.18329243 -0.06753953
0003a0 b5 f4 8e be 4e f6 5a 3c 6e 50 84 3e 23 21 07 be
       -0.27921072 0.013364388 0.25842613 -0.13196234
0003b0 a6 ec 10 bf de a2 20 3e 69 1f 11 3e 81 db d2 3b
       -0.56611097 0.15687129 0.14172138 0.0064348583
0003c0 54 f4 58 be fd a4 db bd b8 4f 69 be bf 80 cb bd
       -0.21186954 -0.107248284 -0.22784317 -0.09936666
0003d0 5e 08 a7 bd 13 3d 8d 3e 19 47 8b bd bc 14 1f 3c
       -0.08155893 0.27585658 -0.0680067 0.009709533
0003e0 df 34 16 be df f1 9c bd 3a d1 0e be 85 65 7a bb
       -0.14668606 -0.07663321 -0.13947001 -0.0038207483
0003f0 98 1d 92 bd 2f 9e a7 bc 54 1c 4e 3d 66 dd e5 bd
       -0.07134551 -0.02046117 0.050319985 -0.11223869

gnn.convs.2.nn.lins.0.bias f4 [16]
000000 38 ac ef 3c e5 56 b8 3d 71 ed 19 3d 23 77 2e 3e
       0.029256925 0.09000949 0.037579957 0.17037635
000010 ce bd b2 be 79 b1 d8 bd d4 2e 83 3f 34 bc 89 be
       -0.34910434 -0.10580725 1.0248666 -0.269014
000020 52 33 07 be 72 42 31 be 15 45 b4 bd e4 15 48 3d
       -0.13203171 -0.17310503 -0.08802239 0.048849
000030 3a 99 a9 be bd 1d 85 3e c1 75 06 be fd 48 c8 bd
       -0.33124715 0.2599925 -0.13130857 -0.097795464

gnn.convs.2.nn.lins.1.weight f4 [16, 16]
000000 bc 74 a1 3d 37 4b 6e bd b1 f5 72 be 43 57 41 be
       0.078835934 -0.0581772 -0.23726536 -0.18880944
000010 9c 67 e3 be 34 a6 e1 bd f7 31 82 be 0d 3e 2c be
       -0.44414985 -0.11018029 -0.25428745 -0.16820545
000020 bd f3 25 be 64 12 5a be c4 74 17 3d 9c 98 a6 3e
       -0.1620626 -0.21296078 0.03697659 0.32538307
000030 77 05 3d 3e a3 5c 72 3e 34 0d ac 3c a8 90 26 3e
       0.18459116 0.2366815 0.02100239 0.1626612
000040 1c 4b 8d 3d 30 7b 36 3e 42 97 8b be 81 92 48 3d
       0.068990916 0.1782043 -0.27263838 0.048967842
000050 25 0b 00 3e 72 14 c4 3d dc 5e cc bf 43 4b b4 bd
       0.12504251 0.09574212 -1.5966449 -0.088034175
000060 52 16 61 bd 06 d4 04 3e 3f 6b a7 3c 60 50 aa bc
       -0.054952927 0.12971506 0.020436881 -0.020790279
000070 93 34 21 be e7 a7 c0 3d fb a2 b9 bd 62 c7 a3 bd
       -0.15742712 0.09407025 -0.09064289 -0.07997014
000080 b1 8d 8f bd 25 05 35 be 98 c1 7e be 62 b4 6d 3b
       -0.07009447 -0.17677744 -0.24878538 0.0036270847
000090 43 13 6a 3e 73 a8 10 3e 6a 17 98 be b5 8e e3 bd
       0.2285891 0.14126758 -0.29705364 -0.111112036
0000a0 b4 dd 02 3e 6d a1 5f be 43 7f 1b be 34 7e 5d 3e
       0.12779886 -0.21838923 -0.15185265 0.21630174
0000b0 1c 99 a8 3d 40 88 3b 3e b1 66 8b 3d a8 ff b8 be
       0.08232328 0.18313694 0.06806696 -0.3613255
0000c0 88 f9 07 bf aa e2 06 bf 01 11 00 bf 8f 6a 4d bc
       -0.5311513 -0.5268961 -0.50025946 -0.012537613
0000d0 e3 27 32 3d 8a 69 35 3d d1 4c ae bf ef 84 bb b9
       0.04349507 0.044290103 -1.3617193 -0.00035766463
0000e0 05 03 36 be 06 6d 17 3e 45 e4 88 3e ec 22 b9 be
       -0.1777459 0.14787683 0.26736656 -0.36159456
0000f0 4f 05 e9 bd cf 4b 94 be 3a 43 5d be df 94 4c be
       -0.11377966 -0.28964087 -0.21607676 -0.19978665
000100 11 7f 43 3e bb a8 92 3d d0 2a ef bd 59 46 b5 be
       0.1909144 0.07161089 -0.11678088 -0.35405234
000110 e4 56 9b be bc 4d 1b be 69 0e 98 bf b3 0c 02 3f
       -0.3033973 -0.15166372 -1.1879398 0.5080063
000120 ad d5 ee bb c0 e2 f2 3d 39 49 82 3d 57 13 13 bc
       -0.0072886557 0.118596554 0.06361622 -0.008976779
000130 4f fc 8b 3e 08 f9 80 be d7 3f 91 bd 0e 36 46 3e
       0.27340934 -0.25189996 -0.070922546 0.19356558
000140 45 d6 8b 3d a7 7c c9 bd 6a 00 0e be 6c d0 86 bd
       0.06827978 -0.09838229 -0.13867345 -0.06582722
000150 2e 9f f9 bc 21 44 81 3d 0e e4 c5 3d ed f1 a2 be
       -0.03047141 0.06311823 0.096626386 -0.318252
000160 2e a2 50 3e 57 d2 03 bd 4f 25 82 be a5 91 63 3b
       0.20374367 -0.032183018 -0.2541909 0.0034724262
000170 16 3e a3 bd 30 10 4d 3e 23 fc e7 bd 5d 67 f9 bd
       -0.07970826 0.20025706 -0.11327388 -0.12177918
000180 10 c7 8c bd da fa 31 bc bb 51 7b be 3f fd 6b be
       -0.06873906 -0.01086303 -0.24542896 -0.23045824
000190 32 e0 b3 3d 0c ba c6 ba 9d ae c1 bc 15 a9 3a be
       0.08782996 -0.0015161647 -0.023642832 -0.18228562
0001a0 33 cf a2 3d 72 fc 83 3d 85 89 c2 bd 3a e9 9f be
       0.07949676 0.064446345 -0.09498886 -0.31232625
0001b0 9a 2e ad bd be e8 e7 3d bc c1 10 be 4e 1f d1 3c
       -0.08456154 0.11323689 -0.14136404 0.025527623
0001c0 ca 47 54 3e e2 15 8c 3d c9 91 b3 be 9f a2 6f 3e
       0.2073051 0.06840111 -0.35072163 0.23401879
0001d0 e6 7b f3 3d a2 9c a9 bd 6e 35 2e bf f1 de 25 be
       0.11888866 -0.082818285 -0.6805028 -0.16198327
0001e0 7a 02 9b be 9f 69 b3 bd 27 68 04 be 0d d4 b2 3e
       -0.30275327 -0.0876038 -0.12930356 0.34927407
0001f0 e2 bb 5d 3e b1 5f 9c bd d2 0d 42 3e bb 09 51 3e
       0.21653703 -0.07635439 0.18950585 0.20413868
000200 aa 05 a8 bc bb 94 74 be 73 cf 0f 3c 34 2d 9d bd
       -0.020510513 -0.23884861 0.008777487 -0.076746374
000210 99 6f ea 3e af 56 62 3e 02 dd bd bc e2 1c c5 bd
       0.45788267 0.2210338 -0.023176674 -0.096246496
000220 52 1c 3e 3e 0e 79 8c be 14 7a 42 be 0b f8 0c bc
       0.18565491 -0.27436107 -0.18991882 -0.00860406
000230 5a 92 8c 3d da 2d 5f be be 68 cb bd d0 6e bb bd
       0.06863852 -0.21794835 -0.09932087 -0.09151995
000240 f7 85 23 3e 2c 3e b0 be 0f f1 d1 3c a1 5f 45 3e
       0.15969072 -0.34422433 0.025627641 0.19274761
000250 a6 1b be bd 44 33 91 3d 3c 2e a8 3c d5 7e 73 be
       -0.09282617 0.07089856 0.020529859 -0.23778851
000260 f9 86 54 3e 4f 62 aa ba b1 64 a4 bd d5 8c 42 bf
       0.20754613 -0.0012999269 -0.08027018 -0.7599614
000270 61 1c 17 bc be 46 9f 3e c9 d6 9f be a5 f4 f7 3d
       -0.009223075 0.3110866 -0.31218556 0.12107209
000280 9c ad dd bc bf 05 3c be e4 53 1f be 28 44 c5 be
       -0.027060322 -0.18361567 -0.15559345 -0.38528562
000290 dc 1f 21 3e 54 19 c7 bd 84 34 52 bf 3c 9a 8f 3e
       0.1573481 -0.09721628 -0.8211138 0.2804736
0002a0 53 56 55 bc b4 52 e0 3d db e6 b5 3e 2f 40 ff 3b
       -0.01302107 0.10953274 0.3552769 0.0077896337
0002b0 91 e4 0a 3e d8 aa 0e 3d ca e0 aa 3d 62 d3 49 3e
       0.13563754 0.034830898 0.08343656 0.19709542
0002c0 6c 96 83 be 97 2b ac 3d 52 ce 03 bf b3 eb 40 bf
       -0.257007 0.084067516 -0.51486695 -0.7535965
0002d0 f4 ba 8b bd 56 3e 58 be 0c e1 45 3e 6c a1 df be
       -0.06822768 -0.2111753 0.1932413 -0.43677843
0002e0 6b 9f 64 be 8f 82 23 3e 47 95 61 bd 10 05 8f 3d
       -0.22326438 0.15967773 -0.055074003 0.069833875
0002f0 be 31 f0 3d 44 ba 19 bf 3c 57 8d bc 4a 92 8c bd
       0.117282376 -0.60049844 -0.01725351 -0.0686384
000300 4a 08 70 be a0 9a 09 bc 81 a3 92 be e7 14 1b be
       -0.23440662 -0.008398682 -0.2864037 -0.15144692
000310 e3 35 32 be b0 9a ca bd 8d bd b3 bd 75 5f c9 bd
       -0.17403369 -0.098927855 -0.08776388 -0.0983266
000320 60 1e e1 bd 51 ea 8a 3d 15 79 9f be bf 2f 10 bd
       -0.10992122 0.067829736 -0.31147066 -0.035201784
000330 c0 f8 fd bd b1 7e 88 be 2a 01 a9 be 11 ad 99 be
       -0.12400961 -0.26659158 -0.330087 -0.30014852
000340 af 55 c0 be e1 68 a4 bc 55 25 22 be dc 38 a1 bd
       -0.3756537 -0.020069541 -0.15834554 -0.07872173
000350 15 3d ae bd c8 cb bd bd d0 f0 05 bf 85 9b b0 be
       -0.08507744 -0.09267384 -0.52320576 -0.34493652
000360 fa 9b 7a be 69 ce 0e 3e 5e 43 ce 3d 5e 71 a9 bd
       -0.24473563 0.13945927 0.10071443 -0.08273576
000370 a7 02 41 bd 37 ca 08 be 4d e8 82 3b 22 d7 b8 bd
       -0.04712167 -0.13358389 0.0039949776 -0.09025408
000380 bc a5 88 ba f9 2d 2f be 74 4e 36 be 31 4c 88 3e
       -0.0010425369 -0.17107381 -0.17803365 0.2662063
000390 51 ef 56 3e fc fe 34 3e 24 a9 24 be f2 72 3f be
       0.2098973 0.17675394 -0.16080147 -0.18696192
0003a0 ab ff 31 be 64 17 1c be 74 ef fb 3d e3 d5 11 3c
       -0.17382686 -0.15243298 0.123015314 0.008901092
0003b0 3e 45 0a be 3d 02 c5 bd 86 98 b1 be d2 d0 b5 be
       -0.13502976 -0.096195675 -0.3468668 -0.3551088
0003c0 74 7c 62 3e 9a 1b b3 3e 82 64 a5 3b a1 ec c9 3b
       0.22117788 0.34981996 0.005047382 0.0061622416
0003d0 b0 60 ce be 06 db a0 bd 87 c7 2a bf 3e e9 7b bd
       -0.40308142 -0.078542754 -0.66710705 -0.061501734
0003e0 a3 17 44 be 09 77 64 3d 4a 5e 29 be c1 5a c1 bd
       -0.19149642 0.055777583 -0.16539875 -0.09441138
0003f0 ac 26 56 be 39 f1 17 bd 84 f9 9b bd 8a d7 c7 3d
       -0.2091319 -0.037095282 -0.07615951 0.09757908

gnn.convs.2.nn.lins.1.bias f4 [16]
000000 c5 40 db bd d1 e7 b3 3e 33 84 5e be 5c 8b 7c 3e
       -0.10705713 0.351378 -0.21730117 0.24662536
000010 00 51 b7 3e 26 e3 4e be aa 07 8c bd 92 10 54 be
       0.35803986 -0.20203838 -0.06837399 -0.20709446
000020 0f df 4b be 2f 80 9c be bc 17 30 3e 2f 4c 93 be
       -0.19909309 -0.30566546 0.17196554 -0.2876906
000030 27 96 a7 bd 4e d8 64 bd 60 ef d1 be 50 d6 17 3f
       -0.08182936 -0.055870347 -0.4100294 0.5931139
