Run_GIN_ModelCheckpoint_EvFr_2/NCI1_reps_2_folds_5_epochs_20_2023-04-26_11-05/rep_0_fold_1/checkpoints/model_trial_1.ckpt (torch, 245261 bytes, 86 tensors)

gnn.convs.0.nn.lins.0.weight f4 [32, 37]
0.023026073 -0.1399551 -0.154937 -0.37392506 -0.5006992 -0.19003074 -0.25172713 0.09457452
0.9502576 1.1559184 0.12912242 1.5909193 2.120482 -0.17092732 0.13677046 0.042477634
0.026878765 1.5207834 0.03571554 0.053400904 -0.33796948 -0.36968282 0.062135 1.2281204
0.093861744 -0.0004960961 0.16658169 0.062393732 -0.0031761772 -0.15162936 0.036739726 0.10434459
-0.13105693 0.020443033 -0.109975755 -0.123522356 -0.033684663 -0.3368331 -0.21053655 -0.2376502
-0.48967507 0.28272545 0.31610036 -0.16307975 0.003276289 -0.16805433 0.49634045 -0.15512885
-0.12146644 1.9240935 0.1710533 1.7736956 -0.12184235 0.27802464 2.0389874 -0.04245292
-0.05271159 0.35279617 -0.0796155 0.027694086 1.0309918 -0.1610496 -0.1932129 0.17273715
0.971643 -0.03037078 1.515762 -0.102034666 -0.11120268 -0.05118594 -0.03404392 -0.15942052
-0.052711394 -0.08518433 -0.36927047 -0.1995164 -0.25971073 -0.3503404 0.22659135 0.028995717
-0.10905618 -0.031052718 1.0708627 0.7618905 -0.10080994 -0.098390184 1.9755486 -0.14667696
-0.07896778 -0.09095579 -0.0699475 -0.07522652 -0.099364065 -0.047831364 0.0016002583 -0.019842345
0.0034717068 1.2926157 -0.14671609 -0.056607984 0.23761384 1.0247904 -0.014734503 1.1874737
0.14548664 -0.014761873 -0.015900556 -0.054408476 -0.1251026 -0.12447409 0.120371975 -0.039466906
-0.24131328 -0.14138512 -0.48965293 0.21489039 0.114299655 -0.025256502 -0.034379218 1.0553074
0.89463925 2.7029076 0.20105717 0.012730199 -0.06170389 0.017719898 -0.049123906 0.03265663
0.23515832 0.13509692 0.013078952 -0.32603475 -0.30306157 -0.1541449 0.032221373 0.16664067
-0.18887512 0.32655802 -0.07065362 -0.16269638 -0.050411817 -0.10084792 0.09559643 -0.08053393
-0.08471902 0.02132883 0.08002846 -0.0068609496 -0.5426621 -0.3499449 -0.24945065 0.2268406
-0.14791363 -0.32949767 -0.14845449 -0.071983874 1.1071959 0.8387926 2.8534784 1.6467385
2.4660099 -0.24265859 1.913746 0.92981356 -0.10960899 -0.08515608 0.051104728 -0.087328635
-0.17927851 -0.25298914 -0.030150466 1.5349436 1.7244104 0.92145324 0.20783816 0.9773973
-0.068134874 1.6664792 -0.086535014 -0.098037586 -0.14961126 -0.09719089 -0.2607353 0.031224096
-0.12742354 -0.6133887 0.4552844 -0.33501747 -0.9177375 0.81371135 -0.13207734 -0.097860865
-0.44389823 -0.40813446 1.094713 2.6022832 0.5965558 1.9651672 -0.61682594 1.9552321
0.28430694 -0.1584193 1.5926092 0.056587093 -0.13535567 0.098643176 -0.057851993 0.075417876
1.3676028 0.94803464 -0.09407909 1.2900862 0.5380713 -0.2655311 1.4776055 -0.0018247592
-0.16371086 -0.17575724 -0.21873578 -0.2925406 -0.12127534 0.017852165 -0.16870447 -0.25295848
-0.0744839 -0.5393407 0.16820183 0.18613394 -0.22788274 -0.08657519 0.95197827 0.9272892
2.7921956 1.5453135 2.140488 -0.231793 1.8115628 0.8653046 0.55528164 1.5682595
1.45217 1.5196002 -0.20072494 -0.28172776 0.13319789 1.266181 1.5208223 0.29478025
0.04190806 0.7782715 -0.11907417 0.98356426 -0.12501927 0.08922481 -0.14632426 -0.1478718
00000000: 2da1 bc3c 6450 0fbe cea7 1ebe 1b73 bfbe
00000010: d32d 00bf 6b97 42be 61e2 80be 49b0 c13d
00000020: 1544 733f 22f5 933f ab38 043e 3ea3 cb3f
00000030: fab5 0740 9207 2fbe 8e0d 0c3e 07fd 2d3d
00000040: db30 dc3c 08a9 c23f 754a 123d e8ba 5a3d
00000050: 560a adbe 1147 bdbe 4581 7e3d 0d33 9d3f
00000060: 963a c03d 720c 02ba 6494 2a3e 9290 7f3d
00000070: 6927 50bb ba44 1bbe 657c 163d 9eb2 d53d
00000080: ca33 06be 2678 a73c f83a e1bd 4af9 fcbd
00000090: eef8 09bd 6375 acbe e596 57be 935a 73be
000000a0: b1b6 fabe 64c1 903e e8d7 a13e 61fe 26be
000000b0: 02b7 563b 6f16 2cbe 5620 fe3e 19da 1ebe
000000c0: 66c3 f8bd b248 f63f 9928 2f3e 7508 e33f
000000d0: 7b88 f9bd 3f59 8e3e c57e 0240 1de3 2dbd
000000e0: 1ce8 57bd b3a1 b43e 740d a3bd b5de e23c
000000f0: 8af7 833f 30ea 24be 9ad9 45be 02e2 303e
00000100: 98bd 783f 24cc f8bc 7d04 c23f 8df7 d0bd
00000110: 3bbe e3bd 59a8 51bd a371 0bbd 223f 23be
00000120: e7e7 57bd 1f75 aebd 0511 bdbe 074e 4cbe
00000130: cef8 84be d15f b3be 9007 683e 6d88 ed3c
00000140: d958 dfbd 4562 febc 0712 893f 410b 433f
00000150: 7175 cebd cb80 c9bd c7de fc3f 7c32 16be
00000160: dcb9 a1bd 0747 babd a340 8fbd 5d10 9abd
00000170: 637f cbbd d2ea 43bd c2bf d13a 6a8c a2bc
00000180: 9385 633b 6e74 a53f be3c 16be c6dd 67bd
00000190: 0b51 733e 552c 833f fc68 71bc 23ff 973f
000001a0: 73fa 143e c8db 71bc e241 82bc 6cdb 5ebd
000001b0: e51a 00be 46ec febd 9585 f63d 0da8 21bd
000001c0: d41a 77be 43c7 10be cab3 fabe 3a0c 5c3e
000001d0: f015 ea3d b9e6 cebc 39d1 0cbd 5014 873f
000001e0: 1407 653f 70fc 2c40 eee1 4d3e 5392 503c
000001f0: 38bd 7cbd 5229 913c 2636 49bd f5c2 053d
00000200: 58cd 703e d956 0a3e 1a49 563c 07ee a6be
00000210: e32a 9bbe 29d8 1dbe 8ffa 033d daa3 2a3e
00000220: 7b68 41be 9d32 a73e d8b2 90bd e199 26be
00000230: 9f7c 4ebd 5b89 cebd 10c8 c33d f9ee a4bd
00000240: 2a81 adbd ccb9 ae3c f6e5 a33d d1d1 e0bb
00000250: e7eb 0abf fa2b b3be fe6f 7fbe e748 683e
00000260: ac76 17be ebb3 a8be 7404 18be 486c 93bd
00000270: 98b8 8d3f 1dbb 563f 649f 3640 54c8 d23f
00000280: 1bd3 1d40 7e7b 78be a1f5 f43f 4308 6e3f
00000290: ae7a e0bd 5066 aebd 3153 513d 5bd9 b2bd
000002a0: c994 37be cb87 81be 1cfe f6bc 0879 c43f
000002b0: 7bb9 dc3f 5ce4 6b3f 87d3 543e b636 7a3f
000002c0: 4c8a 8bbd 314f d53f 4539 b1bd eec7 c8bd
000002d0: b233 19be 040c c7bd 197f 85be adc9 ff3c
000002e0: 517b 02be 0b07 1dbf 091b e93e 6987 abbe
000002f0: d8f0 6abf 634f 503f 483f 07be 476b c8bd
00000300: a146 e3be 00f7 d0be 8e1f 8c3f cf8b 2640
00000310: e2b7 183f 998a fb3f 4ee8 1dbf 0c45 fa3f
00000320: ae90 913e ab38 22be 9eda cb3f dec7 673d
00000330: ad9a 0abe 6f05 ca3d 36f6 6cbd b074 9a3d
00000340: 9c0d af3f 66b2 723f 8aac c0bd 8b21 a53f
00000350: 0abf 093f b1f3 87be 2d22 bd3f c22c efba
00000360: d2a3 27be b5f9 33be 46fc 5fbe e2c7 95be
00000370: 355f f8bd b43e 923c ddc0 2cbe c683 81be
00000380: 048b 98bd 3b12 0abf 1a3d 2c3e e599 3e3e
00000390: 185a 69be 554e b1bd d9b4 733f d362 6d3f
000003a0: 55b3 3240 d5cc c53f c1fd 0840 255b 6dbe
000003b0: 4ae1 e73f 9a84 5d3f f026 0e3f babc c83f
000003c0: b5e0 b93f 4282 c23f d78a 4dbe 9f3e 90be
000003d0: 0765 083e 3812 a23f 4eaa c23f 70ed 963e
000003e0: c9a7 2b3d cd3c 473f 29dd f3bd deca 7b3f
000003f0: 0d05 00be 7fbb b63d 07d6 15be b56b 17be

gnn.convs.0.nn.lins.0.bias f4 [32]
-0.25252083 -0.08020255 -0.03572791 -0.3630495 0.02814207 0.19057119 -0.06642547 -0.18677865
0.023100385 -0.05707847 -0.31010503 -0.50023204 -0.10542933 -0.21304013 -0.18717498 -0.178198
-0.20902227 -0.09017603 -0.04775869 -0.14592998 -0.0257746 -0.14315905 -0.5489905 -0.30614036
-0.09515226 -0.2640949 -0.29364538 0.19813347 -0.21366104 -0.2951054 -0.054019146 -0.20127511
00000000: 694a 81be 3c41 a4bd 6e57 12bd a0e1 b9be
00000010: 338a e63c 1825 433e 140a 88bd e742 3fbe
00000020: 053d bd3c 1dcb 69bd 16c6 9ebe 350f 00bf
00000030: 55eb d7bd 3127 5abe ccaa 3fbe 8979 36be
00000040: ef09 56be 36ae b8bd 9e9e 43bd ab6e 15be
00000050: 4125 d3bc 4998 12be a48a 0cbf 6ebe 9cbe
00000060: 30df c2bd 7237 87be b058 96be 80e3 4a3e
00000070: f6c9 5abe 0e18 97be 2e43 5dbd 101b 4ebe

gnn.convs.0.nn.lins.1.weight f4 [32, 32]
0.25578406 0.17628899 0.44476593 0.24043751 0.4897443 0.13399649 0.2609536 -0.15526564
0.34837982 0.33778822 0.36781317 0.053549096 0.26049578 -0.3619151 -0.0052808416 0.20129043
-0.07869388 -0.09701806 -0.005343335 0.12451256 0.71161526 -0.07795151 -0.28249794 -0.22144836
0.357297 -0.001278955 0.04744473 -0.21791905 0.40476015 0.08584683 0.09827054 0.15823103
0.06250643 -0.03785919 0.06184308 -0.030258562 0.43927503 0.06139456 0.19489957 0.20402554
0.21837325 0.45000806 0.5737831 -0.2644482 0.10957621 -0.5395261 0.16447952 0.10164946
0.052216813 0.017857369 0.122833356 -0.117404334 0.8222618 -0.25044575 -0.5307981 -0.18304037
0.012887033 0.13812435 -0.103041634 -0.53837 0.29786325 -0.16296452 0.22152337 0.65775555
-0.13948208 0.3807415 0.77857935 0.21335153 -0.37948468 -0.16699417 -0.0685265 -0.030766208
0.026751108 0.14207743 -0.22094432 0.16017951 0.1466663 0.70475394 -0.17177393 0.3012385
-0.12220528 0.39261037 -0.18405427 0.24006759 -0.3481818 -0.3071014 1.2659466 0.07236663
0.23804082 -0.45925522 0.05762768 -0.15724191 -0.3415607 0.5095443 -0.061435368 -0.007562608
0.14360575 0.38583553 0.20913625 0.15417877 0.1711715 0.76077414 0.3613427 -0.07215665
0.056226596 0.14914957 0.33710295 0.1608621 0.02708535 -1.342688 -0.1059833 -0.08497854
0.022014173 0.31070206 -0.011799844 0.20857383 0.8260626 -0.16386004 -0.6262071 -0.14849366
0.27392688 0.1268748 -0.030517403 -0.8408851 0.019940536 0.226319 0.07385907 0.68415076
0.18553554 0.2209086 0.24405886 0.18373786 0.5010643 0.313079 0.3064623 0.09585641
-0.49342325 0.45523226 0.62647295 0.10080136 0.33103845 -0.41062808 -0.017189655 0.13943085
0.15223268 0.09929817 -0.087397225 0.05982721 0.7953174 -0.71006435 -0.48190445 0.09125943
-0.25070727 0.20251305 -0.23807903 -0.47667333 0.3270106 0.2832356 0.21506634 0.83641016
-0.038289793 -0.06282428 -0.0926166 -0.16899306 0.012645264 0.029079633 -0.082476154 -0.03370513
0.045853376 -0.14721823 -0.08408308 0.11675589 -0.13399059 -0.007427234 -0.13960591 -0.081100374
0.017399633 0.113441154 -0.21268585 0.023860916 0.00029886607 0.09038946 -0.24912402 0.11676466
-0.16101617 -0.13618673 0.15834355 -0.24266593 0.03585299 0.16836517 -0.12242896 -0.12090992
0.1292522 0.6499163 -0.050275557 -0.02372794 0.03567793 0.25845745 -0.030311473 0.00483869
0.27857274 0.0068997964 0.06530642 -0.13234647 0.22792266 -0.38218343 0.23459508 -0.11810101
-0.12462383 0.08069499 -0.17195253 0.20239735 0.21344593 -0.20223661 -0.4177891 0.42635256
-0.116797246 0.015251772 -0.067693494 -0.66516685 -0.08971166 -0.11576481 -0.09388707 0.42151555
-0.16431066 0.07893449 0.10589431 -0.1339996 -0.050884128 -0.04450219 0.072858304 -0.012593478
-0.07539065 0.0770475 -0.12468427 0.039789174 -0.064011544 -0.21722305 -0.042438436 -0.17704748
-0.21790287 -0.11539135 -0.06431508 -0.06983381 -0.32914814 -0.08749275 0.07122089 -0.12705994
-0.015654476 0.021560958 0.03839737 -0.110906176 -0.12651862 -0.2139817 -0.22114411 -0.0705636
00000000: 21f6 823e 1a85 343e 5cb8 e33e 4035 763e
00000010: c4bf fa3e 6036 093e b69b 853e f5fd 1ebe
00000020: d75e b23e 94f2 ac3e 0252 bc3e 4c56 5b3d
00000030: b45f 853e f04c b9be e90a adbb 141f 4e3e
00000040: 422a a1bd 68b1 c6bd 2517 afbb 7100 ff3d
00000050: 6b2c 363f 0ba5 9fbd 92a3 90be 5cc3 62be
00000060: a2ef b63e 9ca2 a7ba 6855 423d 2c26 5fbe
00000070: b93c cf3e 76d0 af3d 1142 c93d 5107 223e
00000080: 5f03 803d 3d12 1bbd 2b4f 7d3d cee0 f7bc
00000090: a8e8 e03e dd78 7b3d c193 473e 12ec 503e
000000a0: 3d9d 5f3e 7567 e63e 73e3 123f c165 87be
000000b0: 7e69 e03d 621e 0abf 526d 283e 982d d03d
000000c0: 4ce1 553d 9e49 923c 0e90 fb3d af71 f0bd
000000d0: c07f 523f 6d3a 80be 62e2 07bf ef6e 3bbe
000000e0: 2224 533c 7870 0d3e 7e07 d3bd 9ed2 09bf
000000f0: 8881 983e 2ce0 26be 06d7 623e ab62 283f
00000100: 64d4 0ebe 8df0 c23e fa50 473f d378 5a3e
00000110: d14b c2be 8500 2bbe 9f57 8cbd 6a09 fcbc
00000120: 2425 db3c bf7c 113e 3a3f 62be 1906 243e
00000130: b12f 163e c16a 343f 81e5 2fbe ef3b 9a3e
00000140: c346 fabd 3a04 c93e b978 3cbe 47d4 753e
00000150: e344 b2be 653c 9dbe 8a0a a23f f534 943d
00000160: f9c0 733e 8023 ebbe 010b 6c3d 0604 21be
00000170: 0be1 aebe 7f71 023f a7a3 7bbd c1cf f7bb
00000180: 630d 133e 3c8c c53e d027 563e 0ae1 1d3e
00000190: 9547 2f3e 18c2 423f e901 b93e dec6 93bd
000001a0: dc4d 663d aaba 183e c298 ac3e 09b9 243e
000001b0: 19e2 dd3c 33dd abbf c60d d9bd 3b09 aebd
000001c0: 1157 b43c 5714 9f3e 2254 41bc 6194 553e
000001d0: d778 533f edca 27be 1c4f 20bf b90e 18be
000001e0: 2540 8c3e 78eb 013e a2ff f9bc 3f44 57bf
000001f0: 565a a33c 2bc0 673e 6d43 973d 8124 2f3f
00000200: 07fd 3d3e dd35 623e 91ea 793e c725 3c3e
00000210: c045 003f e44b a03e a0e8 9c3e 5e50 c43d
00000220: f9a1 fcbe 3414 e93e 8860 203f f270 ce3d
00000230: df7d a93e d83d d2be 52d1 8cbc f6c6 0e3e
00000240: e2e2 1b3e d75c cb3d 51fd b2bd 600d 753d
00000250: ec99 4b3f c7c6 35bf 2ebc f6be 39e6 ba3d
00000260: b45c 80be 955f 4f3e fdca 73be 870e f4be
00000270: ef6d a73e 4204 913e 5a3a 5c3e fa1e 563f
00000280: c2d5 1cbd 04aa 80bd c6ad bdbd 840c 2dbe
00000290: 152e 4f3c 6938 ee3c 42e9 a8bd 640e 0abd
000002a0: c0d0 3b3d 60c0 16be c033 acbd b61d ef3d
000002b0: d434 09be 2860 f3bb daf4 0ebe f417 a6bd
000002c0: ad89 8e3c d653 e83d 52ca 59be f877 c33c
000002d0: 20b1 9c39 1c1e b93d 5e1a 7fbe 4f22 ef3d
000002e0: 6ce1 24be 8974 0bbe d024 223e 6b7d 78be
000002f0: 96da 123d eb67 2c3e 09bc fabd 9f9f f7bd
00000300: b05a 043e ea60 263f beed 4dbd 1961 c2bc
00000310: 0523 123d 8954 843e c44f f8bc e08d 9e3b
00000320: 16a1 8e3e b017 e23b 5fbf 853d d585 07be
00000330: 8f64 693e 8cad c3be b139 703e f1de f1bd
00000340: c73a ffbd 6a43 a53d 5314 30be 4041 4f3e
00000350: 9291 5a3e 1d17 4fbe 74e8 d5be e24a da3e
00000360: 6533 efbd 91e2 793c e3a2 8abd 6048 2abf
00000370: bfba b7bd 1a16 edbd dd47 c0bd e3d0 d73e
00000380: 0e41 28be 68a8 a13d 1edf d83d 3137 09be
00000390: e06b 50bd ee47 36bd bc36 953d e054 4ebc
000003a0: 6a66 9abd 14cb 9d3d 775a ffbd f9f9 223d
000003b0: 7c18 83bd b86f 5ebe edd3 2dbd ef4b 35be
000003c0: ee21 5fbe 4d52 ecbd a0b7 83bd 0705 8fbd
000003d0: 1b86 a8be 662f b3bd 42dc 913d 001c 02be
000003e0: d13d 80bc 9ba0 b03c 9046 1d3d c722 e3bd
000003f0: 198e 01be 051e 5bbe 9a73 62be a683 90bd

gnn.convs.0.nn.lins.1.bias f4 [32]
0.05763735 0.5015499 -0.38178715 -0.14321718 0.3548216 -0.31662038 0.397225 -0.13206753
-0.07886782 -0.23550864 0.31556267 -0.109505 -0.2968895 -0.15966547 -0.18373276 -0.20436712
-0.12752196 -0.2542252 -0.068266205 -0.066995345 0.20869154 0.16653849 -0.5155841 -0.5429474
-0.11097232 -0.45887482 -0.07711456 0.3491659 -0.16026525 -0.34810174 0.27486867 -0.24089414
00000000: 2415 6c3d 9365 003f 9b79 c3be 86a7 12be
00000010: 2dab b53e 111c a2be 1361 cb3e b63c 07be
00000020: 7485 a1bd 2d29 71be 6e91 a13e 2844 e0bd
00000030: e701 98be 587f 23be 7124 3cbe 9d45 51be
00000040: 1e95 02be ce29 82be 27cf 8bbd db34 89bd
00000050: 3cb3 553e 1189 2a3e 52fd 03bf 9afe 0abf
00000060: 7545 e3bd a4f1 eabe 3dee 9dbd dfc5 b23e
00000070: 931c 24be 643a b2be 96bb 8c3e f4ac 76be

gnn.convs.1.nn.lins.0.weight f4 [32, 32]
0.10521688 0.17839622 -0.35313952 0.19965461 0.24029787 -0.14108695 0.11290433 -0.010568653
-0.13812283 0.008779634 -0.12314111 -0.108648196 0.5673762 -0.042598903 0.072593324 -0.31157008
0.16764696 -0.010301379 0.19487357 -0.0845724 -0.021775361 -0.2061933 -0.57509077 -0.7455245
-0.2068008 -0.7770542 0.053659517 -0.17031163 -0.11760567 -0.09744616 0.10633707 0.0081215575
0.17289986 0.30936745 -0.4069861 0.46823898 0.23687766 -0.14380422 0.6467348 0.31542826
-0.10484405 0.05644432 0.48207942 -0.009716495 0.85518587 0.08023715 -0.03886363 0.13736796
0.16154732 0.4838068 0.022117581 0.16917217 0.4338926 0.43215442 -0.69898117 -0.6177956
-0.0036986005 -0.43901762 0.19882213 0.39715007 -0.013024669 -0.019586226 0.36743078 0.08829836
0.4946506 -0.59689975 -0.859481 -0.2806451 -1.2385066 -0.02557033 -1.0773175 -0.050311334
0.027256483 0.218441 -1.2127419 -0.16991597 0.051879406 0.00044403676 0.048016723 0.26353276
-0.1755988 -0.06624972 -0.046767283 -0.027038248 -1.186355 -1.2498571 0.3237826 -0.06787756
0.05967086 -0.65910566 -0.15415862 -1.0406619 -0.2525391 -0.14575629 -1.0422003 0.08694849
0.027724968 -0.14250456 0.031603746 -0.119425654 0.013232122 0.05976364 -0.16070622 0.09313772
0.04769492 0.06284065 -0.27838936 -0.00038917118 0.002195281 0.0030044077 0.0125218285 -0.07947638
0.037782684 0.07617115 -0.0047410442 -0.043433312 0.14123097 -0.2975311 -0.15479152 -0.099800594
-0.12289388 -0.29585895 -0.014846765 -0.42615688 -0.022616714 0.1034436 -0.52279466 -0.015222635
0.030684074 0.2147195 -0.66181546 0.52135664 0.14917889 0.0014475356 0.007024858 -0.0054640486
0.15012145 -0.015067495 0.060465336 0.057222858 0.40468362 0.1577753 0.14411008 -0.08696061
-0.024849558 -0.0207926 0.20498222 0.15424085 0.22763874 0.068246044 -1.1180706 -0.68150955
0.19141403 -0.9064639 0.21356706 0.073691696 0.15911517 -0.19055827 0.15379292 -0.009900326
0.07192091 0.07833917 -0.57354105 0.25886 -0.08191888 -0.121984534 0.039606906 0.19058716
0.008841759 -0.20206067 0.11154433 -0.0490151 0.26493102 0.07516987 0.18660061 -0.07936245
0.03176092 -0.031002458 0.092113994 0.07884544 0.05568279 -0.12509257 -0.6183563 -0.8207483
-0.10168522 -0.64158416 0.15341122 0.053863846 0.10502994 0.050853275 0.21652769 0.042531483
0.40159342 -1.1041433 -0.07623826 0.09465477 0.017622774 -0.1354647 -0.08467057 -0.12073742
0.091242395 0.023194844 -0.42598867 0.022884754 -0.24211082 0.097176656 0.09342222 -0.43623412
0.08238245 0.1694424 0.058010846 -0.0742695 -1.3134503 0.15568721 -0.30253473 0.97244585
-0.0053421427 -0.004337911 -0.75722086 -0.35360307 -0.0012197776 -0.036128532 -0.452799 -0.14195918
0.083673626 0.25949997 -0.33091447 0.48180068 0.158988 -0.03689677 -0.071653426 -0.10647841
-0.012948105 0.018574521 0.1015248 -0.12648286 0.40221903 0.04777172 0.13048777 -0.17556174
-0.021304214 -0.066116676 0.06446892 -0.077824384 0.15392381 -0.018185653 -1.0892866 -0.77337307
-0.08917994 -0.8944394 0.24094482 0.28220657 0.08350804 -0.1320106 0.07593123 0.08363981
00000000: f37b d73d 80ad 363e b4ce b4be 4272 4c3e
00000010: a510 763e 1979 10be 633a e73d 2528 2dbc
00000020: 1270 0dbe 74d8 0f3c 6831 fcbd f282 debd
00000030: 913f 113f 307c 2ebd cfab 943d 1d86 9fbe
00000040: a5ab 2b3e 1dc7 28bc f08c 473e 4b34 adbd
00000050: 3e62 b2bc 5624 53be 2639 13bf b2da 3ebf
00000060: 97c3 53be 06ed 46bf 15ca 5b3d 2c66 2ebe
00000070: 3edb f0bd da91 c7bd 40c7 d93d 4810 053c
00000080: a90c 313e 6965 9e3e 7b60 d0be 05bd ef3e
00000090: 0f90 723e 6a41 13be 6990 253f d07f a13e
000000a0: 7ab8 d6bd 2932 673d 1dd3 f63e ef31 1fbc
000000b0: 76ed 5a3f 6053 a43d 782f 1fbd 30aa 0c3e
000000c0: a96c 253e 86b5 f73e ee2f b53c 783b 2d3e
000000d0: 2c27 de3e 5843 dd3e 6ef0 32bf da27 1ebf
000000e0: 3864 72bb ebc6 e0be 0798 4b3e 4157 cb3e
000000f0: 6c65 55bc 4b73 a0bc e31f bc3e c5d5 b43d
00000100: d842 fd3e 6cce 18bf f206 5cbf b7b0 8fbe
00000110: 6287 9ebf de78 d1bc 8ae5 89bf 4213 4ebd
00000120: fd48 df3c ffae 5f3e 203b 9bbf 74fe 2dbe
00000130: 807f 543d 9bcd e839 2fad 443d c4ed 863e
00000140: 2cd0 33be efad 87bd 0d8f 3fbd 517f ddbc
00000150: 7bda 97bf 51fb 9fbf d5c6 a53e 6403 8bbd
00000160: 6f69 743d 26bb 28bf c2db 1dbe 6934 85bf
00000170: ce4c 81be 2341 15be d266 85bf 0d12 b23d
00000180: 791f e33c b7ec 11be ee72 013d 7095 f4bd
00000190: 8bcb 583c b8ca 743d 2c90 24be fdbe be3d
000001a0: c05b 433d 99b2 803d 0d89 8ebe ac09 ccb9
000001b0: b4de 0f3b 99e5 443b 5b28 4d3c 83c4 a2bd
000001c0: 04c2 1a3d 9fff 9b3d c35a 9bbb 21e7 31bd
000001d0: da9e 103e ff55 98be ab81 1ebe 4164 ccbd
000001e0: c9af fbbd d37a 97be d93f 73bc 3c31 dabe
000001f0: b046 b9bc 3dda d33d dfd5 05bf 5c68 79bc
00000200: 2b5d fb3c 6edf 5b3e bd6c 29bf a177 053f
00000210: 5ac2 183e 3cbb bd3a c830 e63b c30b b3bb
00000220: 70b9 193e a8dd 76bc 80aa 773d 8462 6a3d
00000230: b132 cf3e d98f 213e 9891 133e 6718 b2bd
00000240: 4d91 cbbc 3e55 aabc dce6 513e 50f1 1d3e
00000250: 211a 693e 95c4 8b3d f01c 8fbf 6977 2ebf
00000260: 0a02 443e 050e 68bf 53b1 5a3e aceb 963d
00000270: 16ef 223e b521 43be e47b 1d3e fa34 22bc
00000280: 454b 933d 4970 a03d 96d3 12bf 4c89 843e
00000290: 16c5 a7bd 07d3 f9bd da3a 223d 4829 433e
000002a0: 06dd 103c fee8 4ebe 5b71 e43d 0fc4 48bd
000002b0: 0aa5 873e a9f2 993d 3b14 3f3e c888 a2bd
000002c0: bd17 023d def8 fdbc 43a6 bc3d b879 a13d
000002d0: a313 643d 4418 00be 994c 1ebf 901c 52bf
000002e0: 5740 d0bd dc3e 24bf d517 1d3e 56a0 5c3d
000002f0: f019 d73d 864b 503d 6fb9 5d3e 7e35 2e3d
00000300: a79d cd3e 9154 8dbf ce22 9cbd 5cda c13d
00000310: a35d 903c 42b7 0abe c467 adbd 2e45 f7bd
00000320: 4bdd ba3d 1d03 be3c 301b dabe cf78 bb3c
00000330: e6eb 77be 8e04 c73d 2654 bf3d 145a dfbe
00000340: 21b8 a83d 4f82 2d3e c89c 6d3d 9c1a 98bd
00000350: 241f a8bf 786c 1f3e d5e5 9abe 36f2 783f
00000360: 240d afbb 0925 8ebb 3ad9 41bf 760b b5be
00000370: f2e0 9fba 83fb 13bd 45d5 e7be bf5d 11be
00000380: 145d ab3d 2edd 843e 9f6d a9be 94ae f63e
00000390: c0cd 223e 1121 17bd 08bf 92bd 5a11 dabd
000003a0: 4a24 54bc 9829 983c 3cec cf3d b984 01be
000003b0: a7ef cd3e 47ac 433d 969e 053e 75c6 33be
000003c0: 2d86 aebc 2e68 87bd 4808 843d 6462 9fbd
000003d0: 349e 1d3e 14fa 94bc be6d 8bbf c7fb 45bf
000003e0: f9a3 b6bd fbf9 64bf 3dba 763e 617d 903e
000003f0: 4306 ab3d c92d 07be d581 9b3d 594b ab3d

gnn.convs.1.nn.lins.0.bias f4 [32]
0.30382323 0.21820812 1.2950038 -0.28589568 0.30583215 0.41313848 -0.2519255 0.41745207
-0.05212259 0.33726794 0.5195162 -0.0064322427 -0.044448517 0.01414723 -0.29814416 0.25781658
-0.11729036 -0.20905966 0.26515955 -0.18460608 -0.06889215 0.4429382 0.20713694 0.2644771
-0.117670685 -0.067401275 -0.1009178 0.16310434 0.15165785 -0.27528116 0.53851956 -0.2603085
00000000: b88e 9b3e f371 5f3e afc2 a53f eb60 92be
00000010: 0896 9c3e e386 d33e 61fc 80be 47bc d53e
00000020: 7f7e 55bd 62ae ac3e 04ff 043f 90c5 d2bb
00000030: a60f 36bd c9c9 673c 5aa6 98be 8900 843e
00000040: ee35 f0bd bc13 56be fec2 873e 6009 3dbe
00000050: 5417 8dbd ccc8 e23e b51b 543e 8b69 873e
00000060: 54fd f0bd ae09 8abd fead cebd d304 273e
00000070: 324c 1b3e a7f1 8cbe 6bdc 093f 2847 85be

gnn.convs.1.nn.lins.1.weight f4 [32, 32]
-0.10114081 -0.35553658 -0.19320352 0.08304139 -0.07423307 -0.26770067 0.592847 -0.18737924
0.15180568 -0.07807217 -0.32603914 0.10391949 -0.023379082 -0.045223057 1.392941 -0.079323076
0.1461384 0.1725597 -0.37116638 -0.12918912 -0.0008962942 0.10683821 -0.29282144 -0.2867966
0.059751272 0.19774674 0.012510712 -0.045085657 -0.032464918 -0.47587833 -0.2569759 0.034570713
0.012256191 -0.014204179 -0.35582253 -0.061153047 -0.27865013 -0.30445793 0.26606238 -0.75542754
0.14520457 -0.09482705 -0.20109755 -0.09575402 0.09906035 0.12006375 0.5563596 -0.3904246
0.28978056 -0.10750436 0.13095188 0.48768365 -0.14287257 -0.47250572 -0.23166792 -0.115808144
-0.12752649 0.11658041 0.08249681 -0.87097096 0.034444872 0.6762753 0.15374622 0.7823631
0.032476988 0.089841284 -1.4330027 -0.003259257 0.45372534 0.18858203 -0.4036542 0.3508808
0.1999939 0.273807 0.37655243 0.028317306 -0.02645422 0.05508834 0.117745504 0.32835138
-0.015190877 0.21923652 -0.19725126 -0.2644482 -0.119052365 0.15565991 0.18761982 0.24632484
-0.08067619 0.12299261 -0.12802151 0.2683521 0.1944685 -0.040532324 0.53036726 0.061671007
0.15606621 -0.1699765 -0.06338545 -0.027052758 0.0946087 0.06993971 0.25716385 -0.17267111
-0.13385902 0.06218416 0.026461167 -0.2854619 -0.0729326 -0.0800437 -0.08479603 -0.11113636
-0.2348315 -0.06643593 -0.062117398 -0.35763568 -0.112381406 -0.05122941 -0.2793131 -0.17662957
0.16601728 0.04096518 -0.2324654 -0.087539546 -0.34077993 -0.053478613 -0.0677856 -0.075848415
0.02951377 -0.37700313 0.19995491 0.0037802095 -0.18030156 0.06442297 -0.0788982 -0.17168565
-0.2453642 -0.06969206 -0.26187924 -0.17435879 -0.17215289 -0.09733375 0.0018122009 0.03429353
-0.14849615 -0.06045066 0.11567654 0.06976022 -0.22112063 0.08637747 -0.036524378 -0.46012387
-0.17160916 -0.0066649327 -0.09327596 -0.19601572 0.35892767 -0.21554175 0.0030620731 -0.11835096
-0.06747869 -0.2233449 0.043932606 -0.22286706 -0.13515347 0.027546758 -0.09198952 -0.10421033
-0.09903588 0.07853524 -0.07755831 -0.124519385 0.03176847 -0.024611082 -0.5301522 -0.21076494
0.12904006 -0.09354921 -0.20287228 -0.08271004 0.21514401 -0.054673735 -0.06622073 -0.17077398
0.067791834 0.10453427 0.08305253 -0.012342774 0.22958486 -0.12645948 -0.18714418 -0.39143127
0.087548494 0.60088915 -1.2052108 0.07536008 0.34005302 0.20148979 -0.14131017 0.27944
0.122894764 0.32803765 0.39800134 0.069559455 0.08894398 0.18569261 -0.18820584 0.21442659
0.058705926 0.008590367 0.006356092 0.22082472 -0.08687957 0.28564006 0.21992932 0.22113365
0.18022501 0.07813285 -0.019861592 0.12993069 0.30426785 -0.22395127 0.35072744 -0.0115218675
0.008222742 -0.11096152 -0.32868174 -0.024245838 0.03330415 -0.2306506 -0.2601337 -0.008462272
0.0660114 -0.14557229 -0.17917828 0.05824176 0.035453945 0.01939466 -0.09780258 -0.16646197
-0.1264849 -0.17398366 -0.059291862 -0.03744339 -0.04778529 0.013652971 0.03512553 0.14627925
-0.050409324 -0.111510135 -0.16576843 -0.007788019 -0.018248426 -0.14497407 -0.05192463 -0.2055788
00000000: ea22 cfbd e408 b6be 25d7 45be 9b11 aa3d
00000010: 8207 98bd 1010 89be d2c4 173f 58e0 3fbe
00000020: f372 1b3e 4de4 9fbd 9aee a6be bed3 d43d
00000030: 7d85 bfbc d03b 39bd e44b b23f 2374 a2bd
00000040: 4ea5 153e 7db3 303e 8509 bebe 274a 04be
00000050: 49f5 6aba fecd da3d b1ec 95be 01d7 92be
00000060: c0bd 743d 1f7e 4a3e bbf9 4c3c bdab 38bd
00000070: eff9 04bd 53a6 f3be 5892 83be 059a 0d3d
00000080: 31ce 483c a5b8 68bc 5f2e b6be 9e7b 7abd
00000090: 3bab 8ebe e9e1 9bbe 5439 883e b363 41bf
000000a0: 82b0 143e af34 c2bd 84ec 4dbe af1a c4bd
000000b0: 27e0 ca3d fce3 f53d 956d 0e3f bce5 c7be
000000c0: 1e5e 943e 3f2b dcbd 4018 063e acb1 f93e
000000d0: 304d 12be 45ec f1be 5b3a 6dbe d22c edbd
000000e0: 4e96 02be b6c1 ee3d 16f4 a83d f4f7 5ebf
000000f0: 1116 0d3d 6120 2d3f a66f 1d3e f348 483f
00000100: 9706 053d b5fe b73d a26c b7bf 4299 55bb
00000110: b04e e83e a61b 413e c3ab cebe a6a6 b33e
00000120: 33cb 4c3e 6e30 8c3e 7bcb c03e b2f9 e73c
00000130: 85b6 d8bc 50a4 613d 8e24 f13d ac1d a83e
00000140: 28e3 78bc 8a7f 603e 3cfc 49be c165 87be
00000150: bad1 f3bd 5065 1f3e 691f 403e 943c 7c3e
00000160: 8f39 a5bd 8de3 fb3d 1218 03be 7265 893e
00000170: c022 473e 3905 26bd 26c6 073f bd9a 7c3d
00000180: d2cf 1f3e 520e 2ebe 3bd0 81bd bf9d ddbc
00000190: 35c2 c13d 8d3c 8f3d fbaa 833e b2d0 30be
000001a0: 5712 09be d1b4 7e3d 17c5 d83c 1028 92be
000001b0: b05d 95bd f4ed a3bd 8aa9 adbd 769b e3bd
000001c0: ab77 70be 900f 88bd d06e 7ebd 061c b7be
000001d0: 3928 e6bd eed5 51bd 2002 8fbe 62de 34be
000001e0: 6f00 2a3e 1bcb 273d 690b 6ebe ef47 b3bd
000001f0: b57a aebe 640c 5bbd 2dd3 8abd 6a56 9bbd
00000200: ddc6 f13c 8e06 c1be fbc0 4c3e 64bd 773b
00000210: f9a0 38be 31f0 833d 6195 a1bd 5dce 2fbe
00000220: c140 7bbe b6ba 8ebd 0915 86be 1c8b 32be
00000230: d948 30be eb56 c7bd 5f87 ed3a 5f77 0c3d
00000240: 600f 18be 1c9b 77bd d2e7 ec3d 72de 8e3d
00000250: 726d 62be ace6 b03d 969a 15bd 5b95 ebbe
00000260: 50ba 2fbe 8265 dabb 7707 bfbd 58b8 48be
00000270: 5ec5 b73e fab6 5cbe 10ad 483b fd61 f2bd
00000280: 4432 8abd 87b4 64be adf2 333d 4337 64be
00000290: ac65 0abe bda9 e13c 0065 bcbd 3a6c d5bd
000002a0: 53d3 cabd 15d7 a03d e4d6 9ebd 0504 ffbd
000002b0: a81f 023d 2e9d c9bc 0eb8 07bf c4d2 57be
000002c0: 1423 043e ba96 bfbd c0bd 4fbe e263 a9bd
000002d0: b64e 5c3e 91f1 5fbd bc9e 87bd 60df 2ebe
000002e0: 72d6 8a3d 1016 d63d 7217 aa3d 5939 4abc
000002f0: 4b18 6b3e 987e 01be b9a2 3fbe ae69 c8be
00000300: a04c b33d dfd3 193f 5944 9abf 6356 9a3d
00000310: 6e1b ae3e 5753 4e3e 9db3 10be c212 8f3e
00000320: 40b0 fb3d 8df4 a73e d5c6 cb3e 3075 8e3d
00000330: 4328 b63d 3426 3e3e 08b9 40be a592 5b3e
00000340: a075 703d 9cbe 0c3c c446 d03b e01f 623e
00000350: eaed b1bd 6a3f 923e 2735 613e dc70 623e
00000360: e88c 383e 1e04 a03d c7b4 a2bc 8d0c 053e
00000370: ffc8 9b3e 7b53 65be 8c92 b33e 37c6 3cbc
00000380: aeb8 063c cb3f e3bd f948 a8be 359f c6bc
00000390: ef69 083d ac2f 6cbe 3f30 85be 57a5 0abc
000003a0: fc30 873d e710 15be 837a 37be e98e 6e3d
000003b0: 2838 113d 8de1 9e3c b84c c8bd 0275 2abe
000003c0: 4285 01be c628 32be 06dc 72bd 3d5e 19bd
000003d0: 82ba 43bd b6b0 5f3c cadf 0f3d 3aca 153e
000003e0: 027a 4ebd 6d5f e4bd 33bf 29be a332 ffbb
000003f0: b97d 95bc 1574 14be ecae 54bd 4083 52be

gnn.convs.1.nn.lins.1.bias f4 [32]
-0.31916958 -0.23390083 0.32857704 0.06837215 0.044063482 -0.13927512 0.29945898 -0.120838284
0.5843862 -0.17652905 -0.16006444 -0.21029362 -0.10435614 0.34555122 0.2936294 -0.44688076
-0.22787413 0.5244034 0.04306023 -0.041654307 0.31017196 -0.0286805 -0.45264548 -0.26575053
0.28468186 0.365879 -0.0055133277 -0.13883877 0.29064858 -0.020320613 -0.19248405 0.10059409
00000000: 326a a3be b383 6fbe 403b a83e b306 8c3d
00000010: e97b 343d 239e 0ebe b052 993e 107a f7bd
00000020: 569a 153f 08c4 34be efe7 23be 3657 57be
00000030: acb8 d5bd 17ec b03e 9856 963e 8ecd e4be
00000040: d657 69be 4d3f 063f ec5f 303d b59d 2abd
00000050: dcce 9e3e 5ef3 eabc 26c1 e7be 7410 88be
00000060: d2c1 913e 7e54 bb3e 25a9 b4bb c02b 0ebe
00000070: e4cf 943e 6a77 a6bc 8a1a 45be 4604 ce3d

gnn.convs.2.nn.lins.0.weight f4 [32, 32]
-0.56978935 -0.44042566 0.5593769 -0.2969673 -0.35740468 0.14776416 0.28440878 -0.14689094
0.54072773 0.07654994 -0.053684708 0.092005596 -0.022687428 0.5221626 0.63274693 -0.3256125
-0.19489123 0.45592293 0.013133631 -0.048709344 0.40000784 -0.33357906 0.2182855 0.1770961
0.7052592 0.34176174 0.10061304 0.22099878 -0.4918026 -0.08724168 -0.21897271 0.33264327
-0.38498452 -0.299677 0.35645843 0.11933454 0.13985138 0.086431235 0.33078513 -0.114557594
0.34812844 0.07173351 0.04275688 0.09537913 0.088006236 0.21971239 0.29356208 -0.5127265
-0.14734036 0.21797645 -0.10424986 -0.016587574 0.40164104 0.09333358 0.103999935 -0.17182449
0.61987275 0.42303976 0.15110488 0.09347872 -0.58565176 -0.011492878 -0.5200123 0.2456959
-0.0006248976 0.6095602 -0.2021323 -0.041234978 0.107352994 -0.03150053 -0.30502123 0.33441824
-0.27565068 -0.04610408 0.06836386 -0.05048404 -0.010822664 -0.16421832 -0.12741178 0.3516412
0.3228078 -0.054199774 1.0444467 0.23334284 -0.3645758 -0.1208426 0.20105922 0.11180042
-0.3122615 -0.19476084 -0.026581964 -0.26118362 0.5168795 0.037121955 0.47018808 -0.25821507
-0.17396544 -0.17222485 -0.34775227 -0.0042562797 0.0014589996 -0.14810681 -0.13230586 -0.11361631
-0.14481366 -0.029007526 -0.18999554 0.11811018 -0.2327434 -0.2584591 -0.006136721 -0.22460045
-0.12615848 -0.16615757 0.046644982 -0.087916955 -0.29590976 -0.07253296 0.37273327 -0.04070849
-0.070645854 -0.061642736 0.1475144 0.15755026 -0.22717528 -0.124469884 0.08292208 -0.25264668
0.13164876 -0.3160715 -0.22011365 0.09517171 0.18996267 -0.060207367 -0.0180682 -0.2701526
-0.14682782 -0.17366935 -0.16416606 -0.10399058 -0.096290894 -0.08169509 0.11886493 -0.15304817
0.090472825 0.20479591 -0.036349624 0.038189482 0.079277545 -0.05294573 0.026854446 0.13694566
0.13925073 -0.063026115 0.02088916 -0.029971339 -0.08995844 0.18096139 -0.24975395 -0.08941437
-0.18485442 -0.3292695 0.4761195 0.07613896 -0.14690119 0.03977051 0.5786638 -0.05984713
0.7086118 -0.13301305 0.2791224 0.08846845 0.053395264 0.18976258 0.34892294 -0.53247446
-0.32502732 0.21608189 0.24475197 0.08204828 0.26250583 -0.07412931 0.21306 -0.0035501816
0.4191123 0.5558264 0.096955284 -0.037128866 -0.44290963 0.032821555 -0.25822693 0.42954698
-0.027070284 -0.68215877 -0.102268524 -0.17021348 -0.108048454 -0.09027817 -0.20167428 0.046588726
-0.23600647 -0.08276571 -0.22616906 -0.14363141 0.10698565 0.047886714 0.024425576 -0.10024327
0.053290367 -0.2117992 0.0023165406 0.13767679 -0.4467123 0.053526677 -0.019678924 -0.0316769
-0.014296086 -0.15608378 -0.4086458 -0.297742 -0.2396119 -0.043294977 -0.4108902 0.042633098
0.31175077 0.570086 -0.21727672 -0.13626353 0.04602918 -0.095022805 -0.0805438 0.45840368
-0.310036 -0.12183694 -0.071502395 0.00037076598 -0.0056301076 0.0927174 0.040634666 -0.20466334
0.16020337 -0.121627085 0.40044922 0.049898177 -0.07653975 -0.08603832 0.09215315 -0.08321797
-0.119325794 -0.0970548 -0.16913718 -0.07273373 0.32493103 0.1018159 0.3661581 -0.24930084
00000000: b7dd 11bf 797f e1be 5333 0f3f 190c 98be
00000010: bffd b6be 7d4f 173e 079e 913e 946a 16be
00000020: 226d 0a3f 37c6 9c3d 7fe4 5bbd 6e6d bc3d
00000030: fcda b9bc 73ac 053f b4fb 213f aeb6 a6be
00000040: 9191 47be bb6e e93e 712e 573c 7383 47bd
00000050: d4cd cc3e e0ca aabe 3c86 5f3e ae58 353e
00000060: de8b 343f 65fb ae3e 360e ce3d 814d 623e
00000070: 8dcd fbbe c4ab b2bd 623a 60be 3850 aa3e
00000080: b11c c5be 446f 99be b881 b63e ab65 f43d
00000090: 3335 0f3e dc02 b13d ab5c a93e 2c9d eabd
000000a0: e43d b23e 05e9 923d d721 2f3d 2256 c33d
000000b0: 9d3c b43d 49fc 603e c54d 963e 0b42 03bf
000000c0: 64e0 16be 3835 5f3e f380 d5bd aae2 87bc
000000d0: e5a3 cd3e ad25 bf3d ebfd d43d c2f2 2fbe
000000e0: fbaf 1e3f ab98 d83e 3dbb 1a3e c571 bf3d
000000f0: 46ed 15bf a04c 3cbc 871f 05bf b597 7b3e
00000100: 2bd0 23ba 230c 1c3f c5fb 4ebe 02e6 28bd
00000110: e3db db3d b306 01bd be2b 9cbe de38 ab3e
00000120: 1622 8dbe a2d7 3cbd 5a02 8c3d 5ac8 4ebd
00000130: 8b51 31bc d928 28be 3c78 02be 510a b43e
00000140: 1047 a53e 9500 5ebd 6eb0 853f 6df1 6e3e
00000150: aea9 babe 537c f7bd 78e2 4d3e 9ef7 e43d
00000160: bde0 9fbe 636f 47be 6bc2 d9bc dcb9 85be
00000170: 3752 043f 310d 183d 7ebc f03e c434 84be
00000180: ff23 32be b65b 30be 960c b2be 4378 8bbb
00000190: e73b bf3a 50a9 17be 307b 07be abaf e8bd
000001a0: 084a 14be 31a1 edbc 318e 42be c0e3 f13d
000001b0: 4954 6ebe c054 84be 8c16 c9bb a9fd 65be
000001c0: b02f 01be 3625 2abe cf0e 3f3d ce0d b4bd
000001d0: 7c81 97be 298c 94bd e5d6 be3e f2bd 26bd
000001e0: c6ae 90bd 187d 7cbd 040e 173e db54 213e
000001f0: a3a0 68be 11ea febd 0dd3 a93d e85a 81be
00000200: efce 063e 20d4 a1be 7965 61be 63e9 c23d
00000210: 9385 423e 009c 76bd c303 94bc 7151 8abe
00000220: 085a 16be 61d6 31be 261b 28be 03f9 d4bd
00000230: 2934 c5bd c14f a7bd 756f f33d a9b8 1cbe
00000240: d149 b93d 05b6 513e 58e3 14bd 936c 1c3d
00000250: 445c a23d 9fdd 58bd dbfd db3c 7c3b 0c3e
00000260: be97 0e3e d613 81bd be1f ab3c 7486 f5bc
00000270: 213c b8bd f14d 393e 80bf 7fbe e21e b7bd
00000280: 7a4a 3dbe 0396 a8be efc5 f33e beee 9b3d
00000290: 446d 16be 67e6 223d 5023 143f 4422 75bd
000002a0: 9567 353f 9334 08be 22e9 8e3e f22e b53d
000002b0: feb4 5a3d 1f51 423e 07a6 b23e 3f50 08bf
000002c0: fb69 a6be 9244 5d3e 43a0 7a3e ee08 a83d
000002d0: 2a67 863e 1cd1 97bd 672c 5a3e 2aaa 68bb
000002e0: e395 d63e a44a 0e3f 7e90 c63d 7014 18bd
000002f0: 0dc5 e2be e56f 063d 5236 84be 95ed db3e
00000300: 80c2 ddbc f5a1 2ebf 2972 d1bd 714c 2ebe
00000310: 8248 ddbd c3e3 b8bd b483 4ebe d2d3 3e3d
00000320: aeab 71be 1281 a9bd dd98 67be 1d14 13be
00000330: 4b1b db3d dc24 443d 2518 c83c 584c cdbd
00000340: 0047 5a3d e4e1 58be 1ad1 173b 25fb 0c3e
00000350: 79b7 e4be ca3e 5b3d b235 a1bc a3bf 01bd
00000360: 213a 6abc 6dd4 1fbe 063a d1be a471 98be
00000370: d25c 75be 1356 31bd 3360 d2be 0ba0 2e3d
00000380: cc9d 9f3e 28f1 113f ca7d 5ebe ab88 0bbe
00000390: 1889 3c3d 519b c2bd 26f4 a4bd e3b3 ea3e
000003a0: 0abd 9ebe a585 f9bd d96f 92bd 5e63 c239
000003b0: c47c b8bb 9fe2 bd3d 8970 263d 4493 51be
000003c0: 5a0c 243e 9f17 f9bd ae07 cd3e 0862 4c3d
000003d0: dfc0 9cbd dc34 b0bd caba bc3d 2f6e aabd
000003e0: 1561 f4bd abc4 c6bd 4c32 2dbe 6cf5 94bd
000003f0: 5c5d a63e db84 d03d 1379 bb3e b848 7fbe

gnn.convs.2.nn.lins.0.bias f4 [32]
0.35151553 0.45471826 0.07650849 -0.14980392 0.0055366135 0.45736447 0.005309369 0.022520084
-0.040245004 0.082028076 -0.08023373 -0.10788398 0.33650443 -0.12689875 0.48252594 0.015698513
-0.09884881 0.07985489 0.061945066 0.20196237 0.44938242 -0.14909294 -0.053961672 0.2692033
0.24321905 -0.1642094 -0.15673657 0.107016 0.059636865 0.15127093 0.08468116 0.2214462
00000000: d8f9 b33e d5d0 e83e 7cb0 9c3d 3366 19be
00000010: 7b6c b53b ad2b ea3e 37fa ad3b 0a7c b83c
00000020: f2d7 24bd 56fe a73d 9551 a4bd 47f2 dcbd
00000030: 4f4a ac3e bff1 01be a40d f73e 2b9a 803c
00000040: 3f71 cabd f68a a33d 1cba 7d3d 39cf 4e3e
00000050: 7415 e63e d2ab 18be ea06 5dbd 04d5 893e
00000060: 6a0e 793e 8226 28be 8d7f 20be 342b db3d
00000070: c945 743d c4e6 1a3e 516d ad3d cbc2 623e

gnn.convs.2.nn.lins.1.weight f4 [32, 32]
0.8725461 0.588243 0.29940635 -0.4117075 0.099451154 0.22638595 -0.19115748 0.48993686
0.25410867 0.053495076 0.08071572 0.13284051 0.20378181 0.28303927 0.2682407 0.1548083
0.12849222 -0.09629319 -0.14993277 0.24318738 0.25269347 0.20012164 0.07636353 0.29305983
-0.014599585 0.21943764 0.08353064 0.1915036 -0.043586396 0.54771084 0.29092187 0.29545632
-0.13745624 -0.13669896 -0.11485288 -0.11293252 0.02780451 -0.13217376 -0.22691406 0.049583912
-0.11517328 0.010419322 0.010532977 -0.069070816 -0.1439686 -0.046831228 -0.0659469 -0.1905562
-0.18328105 -0.13127482 0.08569657 -0.14096917 -0.15260918 0.0042833053 0.058708865 -0.2045983
-0.19450535 -0.12489258 -0.16246207 -0.06718307 -0.17356914 0.079242945 -0.08297651 -0.0123536205
-0.11644778 -0.3299924 0.031012524 -0.062350515 -0.094260305 -0.0023786556 0.027003812 -0.7989622
-0.04676123 -0.06310158 -0.22576436 -0.13690478 0.08071068 0.13167736 -0.04587255 0.00039516648
0.13201338 0.052460864 0.11963629 0.0037333565 -0.2618012 0.05134037 0.08122118 -0.041701373
0.057616413 -0.015248644 -0.039469067 -0.1277286 -0.005951473 -0.16418783 0.021840535 0.040027145
0.552158 0.20003134 -0.14310099 -0.18065755 -0.0002599518 0.44868222 0.30937707 -0.1251059
0.05233698 -0.28566155 0.047031358 0.13638327 0.34525388 0.1491793 0.28919244 0.066025354
0.33789876 -0.0047465027 0.15606909 0.17525731 0.5148822 -0.14522788 0.2196727 0.41751817
0.009791955 0.06673939 -0.3265484 -0.40803024 0.11216199 0.2760474 0.16623385 0.15064986
0.0885793 -0.13492377 0.035430297 -0.14030237 0.19498026 -0.09098637 -0.12140532 -0.0843684
-0.028254475 -0.044523668 0.03229693 -0.07848699 -0.13557725 0.01123182 0.062509276 0.13202262
0.15638994 0.038558286 0.016735533 -0.11411957 -0.19839811 -0.18994161 0.10948375 0.11941064
0.16699968 0.024209283 -0.11469514 0.048583895 -0.17659579 -0.13412607 0.19748512 -0.15799452
0.5640163 0.34526244 0.18754192 0.21378383 0.11359782 0.46069306 0.010000687 0.4741812
0.21044976 -0.09669657 0.07240927 -0.27382466 0.3527281 0.079644576 0.22440958 0.10204848
0.065684624 -0.10350187 -0.0034221353 0.34335163 0.58756936 0.29520836 0.011630004 0.45785466
0.108123 0.2275901 -0.14405252 -0.009403519 0.04848621 0.47916648 0.1981795 0.48844495
-0.27847943 -0.6257143 0.02766331 -0.051707823 -0.24985504 -0.22159216 0.025462493 0.0031593076
-0.09373268 -0.23730536 -0.043067083 -0.114935435 -0.15025283 -0.25940073 -0.085264765 0.23760954
-0.026847642 -0.040186774 0.3060675 0.06267298 0.016683884 0.20985001 0.13821596 -0.037046164
0.10546273 0.18888646 0.08187855 -0.11245286 0.10766763 -0.21560939 -0.07873052 -0.06455428
0.0088982135 -0.11527113 -0.03913088 0.24049258 -0.18179354 -0.2708035 0.047964543 0.020169007
0.15338522 -0.15110713 -0.060620528 0.21576898 -0.14793122 -0.17637715 -0.056564927 -0.0625412
-0.19488657 0.2209375 0.04796674 0.08550288 0.061597273 -0.1875642 -0.14219211 -0.22002497
0.14961916 0.007056278 0.022669371 0.010728663 -0.12339378 0.021500766 0.023246575 0.08300228
00000000: 2e5f 5f3f 1897 163f ca4b 993e 53cb d2be
00000010: 0cad cb3d b8d1 673e c9be 43be 01d9 fa3e
00000020: 881a 823e a71d 5b3d 494e a53d 5807 083e
00000030: 2eac 503e 86ea 903e d856 893e 1186 1e3e
00000040: 7793 033e 5d35 c5bd fa87 19be 1d06 793e
00000050: 0a61 813e b0ec 4c3e 7b64 9c3d f00b 963e
00000060: 1933 6fbc 43b4 603e 1d12 ab3d 8519 443e
00000070: a687 32bd c736 0c3f b6f3 943e 0d46 973e
00000080: 54c1 0cbe d0fa 0bbe fd37 ebbd 2a49 e7bd
00000090: 49c6 e33c 8f58 07be 295c 68be 8018 4b3d
000000a0: f8df ebbd ceb5 2a3c 8292 2c3c 0075 8dbd
000000b0: 816c 13be 1ad2 3fbd 2b0f 87bd 2a21 43be
000000c0: 07ae 3bbe e86c 06be af81 af3d 395a 10be
000000d0: 9545 1cbe f85a 8c3b b578 703d 3782 51be
000000e0: 692c 47be aec7 ffbd 755c 26be 4797 89bd
000000f0: 1cbc 31be 204a a23d 97ef a9bd d766 4abc
00000100: 2c7c eebd c4f4 a8be fa0d fe3c 4163 7fbd
00000110: 8c0b c1bd 38e3 1bbb 1937 dd3c c988 4cbf
00000120: b488 3fbd 673b 81bd c62e 67be c430 0cbe
00000130: a44b a53d 6ed6 063e dbe4 3bbd 592e cf39
00000140: 842e 073e 34e1 563d df03 f53d 54ab 743b
00000150: cf0a 86be 484a 523d 4a57 a63d 0fcf 2abd
00000160: 30ff 6b3d 73d5 79bc 51aa 21bd 49cb 02be
00000170: 9304 c3bb db20 28be ecea b23c 81f3 233d
00000180: 3a5a 0d3f 04d5 4c3e 1189 12be 4bfe 38be
00000190: 244a 88b9 adb9 e53e ac66 9e3e c31b 00be
000001a0: 4d5f 563d 3b42 92be f4a3 403d 0ea8 0b3e
000001b0: 1ec5 b03e 75c2 183e 0811 943e 4d38 873d
000001c0: 1101 ad3e 8d88 9bbb 93d0 1f3e a776 333e
000001d0: 52cf 033f 9eb6 14be e1f1 603e f1c4 d53e
000001e0: 706e 203c a9ae 883d 5a31 a7be 57e9 d0be
000001f0: 2fb5 e53d 1656 8d3e 3539 2a3e f543 1a3e
00000200: 1069 b53d 7529 0abe 5c1f 113d 6dab 0fbe
00000210: e8a8 473e 1057 babd 5aa3 f8bd 57c9 acbd
00000220: ee75 e7bc 735e 36bd c949 043d c9bd a0bd
00000230: c3d4 0abe ab05 383c dd04 803d f030 073e
00000240: af24 203e 4bef 1d3d f518 893c 85b7 e9bd
00000250: e028 4bbe 0e80 42be 0439 e03d 918d f43d
00000260: f701 2b3e 8c52 c63c 49e5 eabd e8ff 463d
00000270: 87d5 34be 5858 09be 8a39 4a3e 51c9 21be
00000280: 5f63 103f 3dc6 b03e fd0a 403e 26ea 5a3e
00000290: f9a5 e83d f6df eb3e ecd9 233c e1c7 f23e
000002a0: 2480 573e da08 c6bd 504b 943d bf32 8cbe
000002b0: c798 b43e b21c a33d a0cb 653e cbfe d03d
000002c0: a985 863d caf8 d3bd e745 60bb c9cb af3e
000002d0: f26a 163f 8d25 973e c68b 3e3c ed6b ea3e
000002e0: 976f dd3d 610d 693e 8182 13be 3811 1abc
000002f0: 7a99 463d 4f55 f53e 91ef 4a3e 7515 fa3e
00000300: db94 8ebe d02e 20bf 2a9e e23c 95cb 53bd
00000310: 00da 7fbe 0ee9 62be b896 d03c 630c 4f3b
00000320: ebf6 bfbd 2d00 73be 1c67 30bd 4563 ebbd
00000330: e1db 19be 2cd0 84be 4b9f aebd ea4f 733e
00000340: 96ef dbbc e39a 24bd e1b4 9c3e b15a 803d
00000350: a4ac 883c ece2 563e 7c88 0d3e b8bd 17bd
00000360: d8fc d73d 746b 413e f1af a73d af4d e6bd
00000370: d980 dc3d b5c8 5cbe 783d a1bd 0935 84bd
00000380: d0c9 113c 4513 ecbd b447 20bd b043 763e
00000390: 1628 3abe c2a6 8abe 7876 443d 7939 a53c
000003a0: 0411 1d3e d4bb 1abe 3b4d 78bd 8bf2 5c3e
000003b0: 487b 17be 369c 34be a0b0 67bd 9a15 80bd
000003c0: 5890 47be 713d 623e c678 443d 221c af3d
000003d0: 6c4d 7c3d d410 40be cf9a 11be 3a4e 61be
000003e0: c435 193e 5a38 e73b 1eb5 b93c 46c7 2f3c
000003f0: e1b5 fcbd 6022 b03c 9a6f be3c 19fd a93d

gnn.convs.2.nn.lins.1.bias f4 [32]
0.24065408 -0.00010610928 -0.046591002 0.108353496 0.091814555 0.023700884 -0.21203573 -0.021960728
-0.0728717 0.07363248 -0.05870079 -0.123376146 0.09212932 0.10344296 0.09443625 -0.038153443
0.07073301 0.09869781 0.035853274 -0.14724503 0.16776577 0.10140355 -0.024083642 -0.056303684
0.17355515 0.066393085 0.18600903 0.04146234 -0.19407901 0.115515225 0.14058475 0.0418739
00000000: 066e 763e fc86 deb8 35d6 3ebd 70e8 dd3d
00000010: 4509 bc3d 5b28 c23c e51f 59be fce6 b3bc
00000020: c23d 95bd a0cc 963d 3d70 70bd a2ac fcbd
00000030: 4cae bc3d e7d9 d33d cb67 c13d c946 1cbd
00000040: 78dc 903d 1422 ca3d e2da 123d 67c7 16be
00000050: caca 2b3e aaac cf3d 0f4b c5bc b19e 66bd
00000060: 71b8 313e 19f9 873d 2779 3e3e 6ad4 293d
00000070: a6bc 46be 3f93 ec3d 73f5 0f3e f783 2b3d

gnn.convs.3.nn.lins.0.weight f4 [32, 32]
0.28761286 0.049939483 0.006654773 0.3828916 0.13369039 0.5551019 0.012673911 -0.07993057
0.12573345 -0.1182828 0.3383208 0.064320154 0.073834226 0.23149723 0.4867345 0.1667151
0.1986981 0.28703943 -0.22019643 -0.007029003 -0.036060385 0.07030999 0.16599703 0.0133359805
0.20517386 0.09314412 0.0070062494 -0.0016412359 0.0027188268 -0.50590944 0.43293938 0.14919059
0.024157232 0.10084592 -0.08232147 -0.25843742 0.162975 -0.28739056 -0.011041865 0.14252403
-0.21578914 0.14929561 0.005588529 -0.023279099 0.0011165119 -0.29352334 -0.042221386 -0.13810596
-0.21247984 -0.11539731 -0.07995126 -0.18244846 -0.26533633 -0.14045992 -0.019991206 0.11437818
-0.0482759 0.025971973 -0.074031375 0.16257727 0.23696303 0.47206593 -0.10125447 -0.022094969
-0.03301717 -0.06313262 -0.15651314 -0.29747537 0.12062651 0.079428315 0.09342125 0.053318236
-0.3812339 0.036723673 0.032792512 -0.06982251 -0.20410532 0.049874004 -0.24819364 -0.15134653
-0.21977788 -0.1814284 -0.08506028 0.035273127 0.050995067 -0.10585526 0.05454931 0.087398335
-0.06584747 -0.07820325 -0.0046063573 -0.05284194 -0.0667005 -0.5436292 -0.03687757 0.1203925
0.03315147 0.16864763 0.19958001 -0.07874216 0.07021506 0.060304187 0.18225975 0.19444431
0.034275886 0.06418575 -0.16097647 -0.039948907 0.059872486 -0.12571245 0.2338446 -0.2345225
-0.33631828 -0.32874525 -0.20498775 -0.058160238 0.10594664 -0.2370304 0.04503684 0.007259643
0.13185255 0.13438934 -0.085067466 0.0029221978 0.095671676 -0.77982885 0.116041355 -0.14740011
-0.297938 0.04180987 0.1572245 0.37558243 -0.19413176 -0.21371287 -0.04774736 -0.0023855374
-0.77784324 0.025490835 0.096479096 -0.10645594 -0.102776356 -0.11217587 -0.054835256 0.08522428
-0.26716685 -0.3369187 0.100849755 0.029064326 -0.11004685 -0.07207789 0.066213064 0.05295017
-0.19710082 -0.030298473 0.05303533 -0.20653558 0.018477688 -0.2824675 0.25310817 -0.080633834
0.32120338 0.11086412 -0.074129015 0.3578772 0.13321903 0.19205768 0.036581464 0.08005423
-0.091942154 -0.13278551 0.29178146 -0.09328237 0.13558152 0.21048251 0.35925522 -0.04555899
0.26197526 0.3733826 0.064384624 -0.2018583 -0.10084904 0.14547588 0.0962987 -0.05937228
0.089088514 0.004350346 -0.111141466 0.08254279 0.33756706 -0.48632666 0.21000674 -0.10475112
0.21748273 -0.13922659 -0.09142483 0.4384946 -0.080653094 0.38988855 -0.11313164 -0.10011146
-0.11585535 -0.19571044 0.22414422 -0.09720182 -0.10381894 0.17696431 0.5318837 0.07360871
0.35190862 0.28052336 0.095572025 -0.10540034 -0.10990346 -0.022353515 -0.19805256 0.04713134
0.05097219 -0.037530955 0.09970135 -0.09557231 0.063881055 -0.555539 0.20468335 -0.1693014
0.32122666 0.009585605 0.089521416 0.21048293 0.039810363 0.4358911 0.097299226 -0.06904516
-0.2310807 -1.3362237 0.29146826 -0.15092947 -0.12887971 0.23201752 0.54166454 -0.03282779
0.030081654 0.4783671 -0.07782123 0.2085456 -0.031700164 0.27067584 -0.08081703 -0.313173
0.0057797804 0.039003123 0.1558688 0.10045029 -0.15443128 -0.62717026 0.201884 -0.06413063
00000000: fe41 933e 588d 4c3d 4810 da3b 5e0a c43e
00000010: 22e6 083e 281b 0e3f 3ca6 4f3c a4b2 a3bd
00000020: 45c0 003e 413e f2bd 6238 ad3e 49ba 833d
00000030: 6636 973d 9c0d 6d3e 4435 f93e 5db7 2a3e
00000040: 8477 4b3e d5f6 923e 2c7b 61be 8d53 e6bb
00000050: 0eb4 13bd affe 8f3d 20fb 293e 287f 5a3c
00000060: 1919 523e 58c2 be3d ae94 e53b bd1e d7ba
00000070: 582e 323b 4883 01bf 3baa dd3e 6bc5 183e
00000080: 63e5 c53c 4e88 ce3d 2998 a8bd e951 84be
00000090: ebe2 263e db24 93be f0e8 34bc d2f1 113e
000000a0: d4f7 5cbe f3e0 183e fb1f b73b cfb3 bebc
000000b0: ec57 923a b148 96be 55f0 2cbd a66b 0dbe
000000c0: 5194 59be 6d55 ecbd 7cbd a3bd c5d3 3abe
000000d0: 2ada 87be bad4 0fbe 99c4 a3bc 1b3f ea3d
000000e0: f3bc 45bd 2dc3 d43c c39d 97bd a87a 263e
000000f0: 70a6 723e a0b2 f13e 815e cfbd 8200 b5bc
00000100: 033d 07bd ad4b 81bd fb44 20be b14e 98be
00000110: 080b f73d 50ab a23d a453 bf3d 3964 5a3d
00000120: 1731 c3be 906b 163d 7151 063d 1bff 8ebd
00000130: fc00 51be af48 4c3d 7926 7ebe 96fa 1abe
00000140: 740d 61be 5ec8 39be 1634 aebd 8e7a 103d
00000150: 34e0 503d a4ca d8bd 196f 5f3d e6fd b23d
00000160: 0adb 86bd 0729 a0bd edf0 96bb ca70 58bd
00000170: 469a 88bd 492b 0bbf ef0c 17bd 5890 f63d
00000180: d6c9 073d f7b1 2c3e b45e 4c3e 9243 a1bd
00000190: eacc 8f3d 8601 773d 4da2 3a3e 691c 473e
000001a0: df64 0c3d d273 833d 04d7 24be 77a1 23bd
000001b0: da3c 753d c4ba 00be f574 6f3e ab26 70be
000001c0: e931 acbe 4c51 a8be 4fe8 51be 6e39 6ebd
000001d0: 8dfa d83d 19b8 72be 8d78 383d 4de2 ed3b
000001e0: 5b04 073e 5c9d 093e da37 aebd 5882 3f3b
000001f0: 83ef c33d dda2 47bf 17a7 ed3d 0ef0 16be
00000200: 548b 98be d440 2b3d 76ff 203e 574c c03e
00000210: 7aca 46be 8cd7 5abe bc92 43bd ad56 1cbb
00000220: bc20 47bf 28d2 d03c d596 c53d 9205 dabd
00000230: 697c d2bd 76bc e5bd ef9a 60bd 118a ae3d
00000240: 18ca 88be 9c80 acbe 518a ce3d 4f18 ee3c
00000250: 3e60 e1bd 939d 93bd b79a 873d 47e2 583d
00000260: ccd4 49be 8134 f8bc 933b 593d 107e 53be
00000270: 855e 973c 959f 90be 6597 813e 5a23 a5bd
00000280: c574 a43e ba0c e33d f4d0 97bd ae3b b73e
00000290: 926a 083e c5aa 443e 72d6 153d 79f3 a33d
000002a0: 2b4c bcbd edf8 07be 6164 953e d40a bfbd
000002b0: e2d5 0a3e ba88 573e 4df0 b73e 109c 3abd
000002c0: 9f21 863e 012c bf3e 16dc 833d f1b3 4ebe
000002d0: f189 cebd a1f7 143e 4138 c53d 5930 73bd
000002e0: 0a74 b63d 598d 8e3b 239e e3bd 320c a93d
000002f0: 97d5 ac3e cfff f8be 020c 573e c187 d6bd
00000300: cbb3 5e3e 6a91 0ebe f13c bbbd 5d82 e03e
00000310: 732d a5bd 799f c73e 90b1 e7bd 3d07 cdbd
00000320: 9245 edbd 5168 48be 1086 653e bf11 c7bd
00000330: 069f d4bd 2236 353e 8829 083f 2ac0 963d
00000340: 5e2d b43e c2a0 8f3e 44bb c33d 22dc d7bd
00000350: 1115 e1bd b81e b7bc 4ace 4abe cb0c 413d
00000360: 37c8 503d 0fba 19bd 3930 cc3d 6abb c3bd
00000370: 12d4 823d ce37 0ebf 8398 513e 595d 2dbe
00000380: d277 a43e f10c 1d3c 0157 b73d d688 573e
00000390: 3110 233d 1e2d df3e d144 c73d 8d67 8dbd
000003a0: 6ba0 6cbe 6109 abbf 543b 953e 418d 1abe
000003b0: 0bf9 03be 0096 6d3e 87aa 0a3f 6f76 06bd
000003c0: cd6d f63c 88ec f43e bd60 9fbd fa8c 553e
000003d0: 08d8 01bd 0696 8a3e 6683 a5bd 3658 a0be
000003e0: 5064 bd3b bdc1 1f3d 129c 1f3e e2b8 cd3d
000003f0: 3c23 1ebe 3b8e 20bf aeba 4e3e eb56 83bd

gnn.convs.3.nn.lins.0.bias f4 [32]
0.21686801 0.08828192 0.109184384 -0.104459964 -0.1098611 0.18680015 -0.097753614 0.038192682
-0.10309075 -0.07135525 0.09440247 -0.06963097 0.07628311 0.17695765 -0.10407894 0.12915623
0.16363584 0.052778244 0.17537452 -0.09818283 -0.027803786 0.03959118 -0.08223098 -0.089640945
-0.057119083 0.0045569674 0.051689625 0.04739345 -0.009847913 0.003759702 -0.10527414 0.15022041
00000000: a612 5e3e 27cd b43d 109c df3d 1bef d5bd
00000010: dbfe e0bd 8a48 3f3e 0c33 c8bd ee6f 1c3d
00000020: 3e21 d3bd b422 92bd 1556 c13d af9a 8ebd
00000030: 523a 9c3d 6334 353e 5727 d5bd 8841 043e
00000040: 2790 273e 002e 583d 6195 333e 1414 c9bd
00000050: c4c4 e3bc 5c2a 223d b768 a8bd ac95 b7bd
00000060: b3f5 69bd 9d52 953b 80b8 533d a21f 423d
00000070: 2459 21bc 5565 763b f899 d7bd 61d3 193e
