Run_GIN_ModelCheckpoint_EvFr_2/NCI1_reps_2_folds_5_epochs_20_2023-04-26_11-05/rep_0_fold_1/checkpoints/model_trial_4.ckpt (torch, 245261 bytes, 86 tensors)

gnn.convs.0.nn.lins.0.weight f4 [32, 37]
-0.00037325302 0.04679937 0.007104467 0.110663906 -0.37899572 0.05349933 -0.25013617 0.10580278
0.77729285 0.9895857 3.5232131 1.6700774 2.5013292 0.22048025 1.8913563 1.6462646
-0.11783099 2.532931 1.3648669 0.5989534 -0.4340866 -0.41178733 0.062135 2.0095556
1.2874079 0.6357039 0.73420507 0.7514389 -0.15806322 -0.15162936 0.036739726 0.10434459
-0.13401732 -0.05406029 -0.109975755 -0.123522356 0.040468227 -1.2562368 -0.79029584 0.259712
-0.8667207 0.22925808 -0.5525736 0.34150982 -0.1368055 -0.34114546 0.027903542 -0.38893116
-0.23593205 -0.20905139 -0.4712976 -0.20787449 -0.2768973 -0.14339712 -0.21605821 -0.78055155
-0.5676332 0.67903125 0.3985468 0.027694086 -0.19519894 -0.9086164 -0.7871145 0.31565776
-0.5740801 0.8466718 -0.2021627 -0.102034666 -0.11120268 0.9140644 1.0194458 0.7360057
-0.052711394 -0.08518433 0.110227756 0.027182758 -0.21655531 -0.062632024 0.50750434 0.64918494
-0.4308126 0.1563821 1.2078878 0.52459115 2.7625086 1.1952775 2.2636068 -0.11759898
1.3058112 1.1678258 -0.37922865 1.9043468 0.9261805 0.9263907 -0.4141854 -0.19642527
0.0034717068 1.6034393 1.1381017 0.8637741 0.9062271 0.77545553 -0.042819105 0.96256316
0.14548664 -0.014761873 -0.27983624 -0.34122482 -0.3157181 -0.12447409 0.07366439 -0.1874867
-0.19756193 0.057330593 -0.18209568 0.5076784 0.35468906 -0.10079667 -0.034379218 1.0979583
0.6022086 3.4303534 1.3684443 2.2787132 0.31312463 1.6004792 -0.049123906 0.014565763
2.2404373 1.6245289 0.86021155 -0.44565448 -0.37717542 -0.1541449 1.7433991 1.6341106
0.7608844 0.8739988 0.6951609 -0.16269638 -0.050411817 -0.10084792 0.09559643 -0.08053393
-0.08471902 -0.07940846 0.08002846 -0.00624228 -0.44223893 0.19544734 -0.38688236 -0.04495987
0.62222135 -0.38457587 -0.24290885 0.2138085 1.1208742 0.21768214 3.8850002 1.4279584
2.7019296 -0.37966648 2.1783047 1.5684341 -0.46892953 2.3313138 1.4300838 1.0323327
0.14359227 -0.08285445 -0.030150466 2.1238303 2.012447 0.8814152 0.992284 0.88104016
0.19053742 1.6412209 -0.086535014 -0.098037586 0.30695888 -0.12151662 -0.56885654 0.031224096
-0.19772565 -0.35348928 -1.4009128 -0.78811175 0.64745927 0.03215476 -0.9062217 0.39388067
0.2878026 0.313705 0.4746712 4.0667233 1.5858492 2.591595 -0.098293565 2.0760584
1.235505 1.4591273 2.6978455 0.056587093 -0.13535567 -0.19507118 0.8186095 0.075417876
2.13916 -0.010718946 0.95323014 0.18584447 0.780405 -0.83041555 1.6697605 -0.0018247592
-0.16371086 -0.5637271 -0.49619952 -0.7656859 -0.12127534 0.028904928 -0.36396086 -0.26303005
-0.25789243 0.08887114 -0.2967251 0.16406415 -0.014756057 -0.17589004 0.8558446 0.419661
3.7304842 1.4023243 2.4558406 -0.2459689 1.9982247 1.463975 0.018325863 2.1539514
1.1009136 1.1169559 -0.045553707 -0.18024963 0.13319789 1.9295089 1.7957016 0.7475919
0.37065595 -0.1624312 -0.22794275 -0.20705612 -0.12501927 0.08922481 0.58108836 -0.16574621
00000000: 2cb1 c3b9 b2b0 3f3d 97cc e83b c2a3 e23d
00000010: ba0b c2be 1d22 5b3d d911 80be 21af d83d
00000020: aafc 463f 7d55 7d3f 537c 6140 19c5 d53f
00000030: c715 2040 93c5 613e f717 f23f ccb8 d23f
00000040: 6051 f1bd 8b1b 2240 f5b3 ae3f 0355 193f
00000050: 9940 debe cad5 d2be 4581 7e3d 8f9c 0040
00000060: c8c9 a43f 7ebd 223f ddf4 3b3f 4d5e 403f
00000070: 53db 21be ba44 1bbe 657c 163d 9eb2 d53d
00000080: d63b 09be 536e 5dbd f83a e1bd 4af9 fcbd
00000090: 03c2 253d 5ecc a0bf d450 4abf f9f8 843e
000000a0: 68e1 5dbf a1c2 6a3e 7775 0dbf 60da ae3e
000000b0: be16 0cbe 9eaa aebe f895 e43c fc21 c7be
000000c0: 2c98 71be 9111 56be eb4d f1be 0ddd 54be
000000d0: 7cc5 8dbe b2d6 12be 5d3e 5dbe 3ad2 47bf
000000e0: 6950 11bf fed4 2d3f 530e cc3e b5de e23c
000000f0: 3be2 47be 169b 68bf 5680 49bf e59d a13e
00000100: eaf6 12bf 7cbf 583f bd03 4fbe 8df7 d0bd
00000110: 3bbe e3bd 2000 6a3f 337d 823f df6a 3c3f
00000120: e7e7 57bd 1f75 aebd 17bf e13d 60ae de3c
00000130: adc0 5dbe 3845 80bd ceeb 013f fc30 263f
00000140: 7893 dcbe a122 203e 119c 9a3f 9b4b 063f
00000150: f1cc 3040 dafe 983f efde 1040 bcd7 f0bd
00000160: d224 a73f 517b 953f 422a c2be a3c1 f33f
00000170: 2a1a 6d3f f127 6d3f 1c10 d4be b523 49be
00000180: 9385 633b 803d cd3f 51ad 913f 4d20 5d3f
00000190: 80fe 673f 4184 463f 1663 2fbd 8a6a 763f
000001a0: 73fa 143e c8db 71bc b246 8fbe 05b5 aebe
000001b0: cea5 a1be 46ec febd 5bdd 963d 83fc 3fbe
000001c0: ad4d 4abe 7cd3 6a3d 4a77 3abe 36f7 013f
000001d0: ce99 b53e 7c6e cebd 39d1 0cbd e689 8c3f
000001e0: 582a 1a3f e98a 5b40 2f29 af3f 70d6 1140
000001f0: df51 a03e 81dc cc3f 2636 49bd 3da5 6e3c
00000200: 5363 0f40 90f0 cf3f d336 5c3f d32c e4be
00000210: 231d c1be 29d8 1dbe b427 df3f 892a d13f
00000220: 52c9 423f 63be 5f3f 11f6 313f e199 26be
00000230: 9f7c 4ebd 5b89 cebd 10c8 c33d f9ee a4bd
00000240: 2a81 adbd e7a0 a2bd f6e5 a33d 0a8c ccbb
00000250: 246d e2be 5923 483e 7215 c6be d727 38bd
00000260: e649 1f3f 21e7 c4be 19bd 78be 9ef0 5a3e
00000270: ce78 8f3f 11e8 5e3e d8a3 7840 57c7 b63f
00000280: 6aec 2c40 a563 c2be 5869 0b40 73c2 c83f
00000290: 8817 f0be 3f34 1540 fc0c b73f 7a23 843f
000002a0: da09 133e 98af a9bd 1cfe f6bc d6ec 0740
000002b0: efcb 0040 6da4 613f 5306 7e3f d98b 613f
000002c0: 3e1c 433e 8713 d23f 4539 b1bd eec7 c8bd
000002d0: b729 9d3e b5dd f8bd 95a0 11bf adc9 ff3c
000002e0: 9878 4abe 8cfc b4be 1c51 b3bf b1c1 49bf
000002f0: e4bf 253f b6b4 033d 25fe 67bf baaa c93e
00000300: dd5a 933e f19d a03e 1b08 f33e 9922 8240
00000310: 1bfd ca3f b1dc 2540 234e c9bd 24de 0440
00000320: 0725 9e3f afc4 ba3f 80a9 2c40 dec7 673d
00000330: ad9a 0abe bdc0 47be 6490 513f b074 9a3d
00000340: ffe7 0840 859e 2fbc e406 743f 034e 3e3e
00000350: 9fc8 473f 1d96 54bf b6ba d53f c22c efba
00000360: d2a3 27be 6b50 10bf dd0d febe fe03 44bf
00000370: 355f f8bd 07ca ec3c 1459 babe e0ab 86be
00000380: 7a0a 84be 1202 b63d 5aec 97be 6f00 283e
00000390: 64c3 71bc 851c 34be a218 5b3f cedd d63e
000003a0: 41c0 6e40 5d7f b33f 7e2c 1d40 45df 7bbe
000003b0: d4c5 ff3f 8863 bb3f 1f20 963c 57da 0940
000003c0: bdea 8c3f 69f8 8e3f 8696 3abd 5c93 38be
000003d0: 0765 083e 26fa f63f 8dd9 e53f 2f62 3f3f
000003e0: 9ec6 bd3e 5d54 26be d369 69be 8506 54be
000003f0: 0d05 00be 7fbb b63d 35c2 143f 60b9 29be

gnn.convs.0.nn.lins.0.bias f4 [32]
-0.18800858 -0.057066504 0.3465039 -0.28454715 0.46386194 0.4779328 -0.078087494 -0.186778
0.5007893 0.40163907 -0.5249739 -0.32771274 0.0033524425 -0.1634388 -0.40049675 -0.020997291
-0.12008762 0.03486422 0.0803269 -0.018520387 -0.09422668 -0.099751264 -0.317641 0.19887023
0.03251791 -0.4862232 0.13608141 0.2308534 -0.10327388 -0.037984062 0.7009422 -0.10563304
00000000: 5285 40be 91be 69bd f668 b13e 2ab0 91be
00000010: 507f ed3e 9cb3 f43e 56ec 9fbd bb42 3fbe
00000020: ba33 003f a3a3 cd3e b164 06bf f7c9 a7be
00000030: a7b4 5b3b 805c 27be e90d cdbe 8302 acbc
00000040: 80f0 f5bd c9cd 0e3d 6e82 a43d 11b8 97bc
00000050: ebf9 c0bd 644a ccbd d7a1 a2be a3a4 4b3e
00000060: 8031 053d 3ff2 f8be ed58 0b3e d564 6c3e
00000070: 4281 d3bd 2d95 1bbd f370 333f 2356 d8bd

gnn.convs.0.nn.lins.1.weight f4 [32, 32]
0.2906957 -0.8346279 0.047074504 -0.02604409 0.2936207 0.56928587 0.11075361 -0.035286956
0.4731854 0.044090673 0.22012949 0.12331057 -0.0070706154 0.005968876 -1.0043902 0.103189744
-0.020473257 -0.14563613 0.16833994 -0.015499752 -0.006249286 -0.5859107 -0.23086847 3.8272266
-1.0309811 -0.75134695 0.21454822 -0.17473161 0.13055652 0.081670925 -0.34558165 -0.321689
-0.16618867 -0.4041609 -0.08017115 -0.3365116 -0.019947993 -0.1973294 -0.19257551 0.2040368
-0.023279166 0.13670209 -0.16655406 -0.17876098 0.123958275 0.21778901 -0.13030916 -0.00015659914
-0.02226263 0.11509938 0.050337516 -0.2162871 0.08237569 -0.022204032 -0.117374465 -0.2375126
-0.371726 -0.1158367 0.21075404 0.07405489 -0.067127205 -0.40809694 -0.07134878 0.033433005
-0.092491426 -0.07251439 -0.19117361 -0.09609393 -0.1692218 -0.009056072 0.02000734 -0.030766208
0.007975701 0.14465445 -0.3117251 0.041057266 -0.23905438 -0.15576872 -0.38037762 -0.00818123
-0.17032366 -0.023379436 -0.15147299 -0.0049831904 -0.004238982 -0.3264809 -0.056158762 -0.02555669
-0.26872718 -0.08240406 0.05762768 -0.27539626 -0.38092193 -0.21729219 -0.2620522 -0.2737944
0.19439226 -0.4206257 -0.014705451 0.20038433 0.526132 0.66010374 0.22610609 -0.19221726
0.68489337 1.0272378 0.24076112 0.07720741 -0.1755321 -0.03546201 -1.0666933 0.017040212
-0.023495661 0.08710525 0.11368904 0.0055836802 -0.09072691 -0.2415907 -0.14263657 3.2880967
-0.95708984 -0.59879506 0.25049958 -0.150262 0.07906628 0.019658081 -0.07370931 -0.32860583
-0.21294223 -0.839379 -0.2099224 -0.09181595 0.2079857 -0.053754006 0.110141985 -0.02417808
0.10020966 -0.15807016 0.38586614 -0.025345627 -0.37992746 0.51437604 -0.8118183 0.3124215
-0.085450426 -0.2204285 0.12757108 -0.18153855 -0.075574346 -0.6838251 -0.1021784 2.9960265
-0.62719035 -0.41248772 0.18873346 -0.556354 -0.22000878 0.12393191 -0.2116453 0.058202602
-0.041185778 -0.168559 -0.18326378 -0.17794801 0.002953889 -0.24461843 -0.07996184 -0.03370513
-0.23254935 -0.10357558 -0.0919697 0.09314789 -0.14576225 -0.24331382 -0.13960591 -0.12262066
-0.008172923 0.024728222 -0.19837882 0.08257443 0.041186385 -0.0057661827 -0.10254119 0.121481314
-0.16101617 -0.13618673 -0.1136787 -0.14198288 0.012451376 0.034171708 -0.12658733 -0.10837999
0.1386565 -0.27192557 -0.3367918 -0.0635434 -0.050889634 0.65493333 0.12332697 0.00483869
0.29947534 -0.09636596 -0.29947633 -0.0705234 -0.24571809 -0.0668802 -0.18477716 0.0670581
0.0471428 -0.20102894 -0.08737207 0.037780296 0.14242402 -0.27924037 -0.24414304 1.8101473
-0.41058296 -0.32206437 0.31744945 -0.29676148 -0.007055955 -0.21026549 -0.17916064 -0.023898011
-0.030032123 0.16500252 -0.012971495 -0.24349028 0.41903615 -0.11122983 0.086253785 -0.012593478
0.139037 0.14628193 0.412323 0.021874843 0.25166437 -0.19563586 0.78747636 -0.12586567
-0.12465755 -0.046359364 0.0062698205 -0.14044154 -0.17510226 -0.11198662 0.2459004 -0.038453713
0.68068606 0.8578597 0.1435775 -0.08372446 0.21036075 -0.15053807 -0.4887425 0.0088826185
00000000: 11d6 943e 2daa 55bf 32d1 403d 6a5a d5bc
00000010: 7455 963e b8bc 113f cad2 e23d 0e89 10bd
00000020: 5b45 f23e 6c98 343d a069 613e 418a fc3d
00000030: 9fb0 e7bb 9096 c33b dc8f 80bf 2555 d33d
00000040: 88b7 a7bc a321 15be 4e61 2c3e acf2 7dbc
00000050: cfc6 ccbb 3efe 15bf c968 6cbe 48f1 7440
00000060: 30f7 83bf 4658 40bf 87b2 5b3e d8ec 32be
00000070: 9cb0 053e 1643 a73d 14f0 b0be 6cb4 a4be
00000080: 5d2d 2abe 2dee cebe c630 a4bd 404b acbe
00000090: f969 a3bc b810 4abe 8432 45be 06ef 503e
000000a0: f3b3 bebc a2fb 0b3e 268d 2abe 1e0d 37be
000000b0: d6dd fd3d 1504 5f3e c46f 05be c334 24b9
000000c0: 1e60 b6bc 39b9 eb3d b62e 4e3d 5e7a 5dbe
000000d0: 96b4 a83d 3be5 b5bc 0662 f0bd 8136 73be
000000e0: df52 bebe cb3b edbd e8cf 573e 17aa 973d
000000f0: fd79 89bd 15f2 d0be 4f1f 92bd 0cf1 083d
00000100: 256c bdbd 6d82 94bd 04c3 43be e5cc c4bd
00000110: 7b48 2dbe eb5f 14bc 6fe6 a33c 6a09 fcbc
00000120: 84ac 023c 4c20 143e 6f9a 9fbe aa2b 283d
00000130: acca 74be d681 1fbe dbc0 c2be 910a 06bc
00000140: 5369 2ebe 3b86 bfbc bc1b 1bbe 084a a3bb
00000150: 29e7 8abb 8128 a7be bb06 66bd 435c d1bc
00000160: 9c96 89be 76c3 a8bd 010b 6c3d bd00 8dbe
00000170: 3308 c3be d881 5ebe b52b 86be c82e 8cbe
00000180: c40e 473e 405c d7be 22ef 70bc 8d31 4d3e
00000190: 96b0 063f 8ffc 283f 5b88 673e 9ad4 44be
000001a0: 2c55 2f3f 877c 833f 158a 763e eb1e 9e3d
000001b0: b0be 33be 9d40 11bd 6889 88bf ea97 8b3c
000001c0: f979 c0bc 3d64 b23d cdd5 e83d 4ef7 b63b
000001d0: 08cf b9bd 8d63 77be 520f 12be 2d70 5240
000001e0: d703 75bf a24a 19bf 7b41 803e 48de 19be
000001f0: 80ed a13d fc09 a13c e8f4 96bd 063f a8be
00000200: 870d 5abe 8be1 56bf e6f5 56be 000a bcbd
00000210: 34fa 543e 292d 5cbd 1f92 e13d 1c11 c6bc
00000220: b93a cd3d 25dd 21be 3f90 c53e a2a1 cfbc
00000230: da85 c2be 26ae 033f 53d3 4fbf b6f5 9f3e
00000240: a200 afbd 02b8 61be fea1 023e 3ee5 39be
00000250: b9c6 9abd 290f 2fbf e942 d1bd e6be 3f40
00000260: 8c8f 20bf 9731 d3be 5843 413e 376d 0ebf
00000270: fb49 61be 03d0 fd3d 8cb9 58be da65 6e3d
00000280: 6bb2 28bd bb9a 2cbe 80a9 3bbe 0138 36be
00000290: 0996 413b 417d 7abe 08c3 a3bd 640e 0abd
000002a0: 6b21 6ebe 6f1f d4bd 9c5a bcbd 52c4 be3d
000002b0: b342 15be 4227 79be daf4 0ebe 8a20 fbbd
000002c0: b9e7 05bc d792 ca3c d123 4bbe c81c a93d
000002d0: 0eb3 283d 3ff2 bcbb 1e01 d2bd 32cb f83d
000002e0: 6ce1 24be 8974 0bbe 61d0 e8bd f663 11be
000002f0: db00 4c3c a2f7 0b3d 1ca0 01be 54f6 ddbd
00000300: f8fb 0d3e d439 8bbe fa6f acbe 0b23 82bd
00000310: a671 50bd b6a9 273f da92 fc3d e08d 9e3b
00000320: d554 993e 845b c5bd f654 99be 936e 90bd
00000330: 869d 7bbe 7cf8 88bd 3936 3dbe c255 893d
00000340: cf18 413d 88da 4dbe 21f0 b2bd 83bf 1a3d
00000350: 9ad7 113e 98f8 8ebe a200 7abe e8b2 e73f
00000360: ee37 d2be 9fe5 a4be bc88 a23e 1ff1 97be
00000370: a435 e7bb d64f 57be e375 37be c3c5 c3bc
00000380: ed05 f6bc 6cf6 283e 6586 54bc 8455 79be
00000390: e88b d63e 77cc e3bd d3a5 b03d e054 4ebc
000003a0: b75f 0e3e eeca 153e 001c d33e df32 b33c
000003b0: 27da 803e c454 48be 0d98 493f eee2 00be
000003c0: 754c ffbd 51e3 3dbd 1173 cd3b e8cf 0fbe
000003d0: 024e 33be 3e59 e5bd 51cd 7b3e a481 1dbd
000003e0: 7141 2e3f b19c 5b3f fb05 133e bb77 abbd
000003f0: cf68 573e a726 1abe 753c fabe 6788 113c

gnn.convs.0.nn.lins.1.bias f4 [32]
0.33018678 -0.122847125 -0.34978542 -0.07687764 0.4363759 -0.14811526 -0.116899095 -0.33669636
-0.10135185 -0.16430853 0.59410816 -0.36012727 -0.0011802441 -0.16881149 -0.12795265 0.1558708
-0.14680128 -0.20332955 0.26969674 -0.18973397 -0.02474847 -0.08276145 -0.24000764 0.2698967
0.004141079 -0.33974868 0.106015205 -0.240413 -0.18774866 -0.3321456 -0.018143887 -0.4547455
00000000: 3e0e a93e 4697 fbbd 1317 b3be 0672 9dbd
00000010: a96c df3e 87ab 17be cb68 efbd 7763 acbe
00000020: 8f91 cfbd 7f40 28be 7917 183f 9a62 b8be
00000030: 6cb2 9aba ebdc 2cbe 0506 03be 989c 1f3e
00000040: 1353 16be 9f35 50be b115 8a3e 9f49 42be
00000050: 4ebd cabc d67e a9bd 90c4 75be e62f 8a3e
00000060: e3b1 873b 8af3 adbe 801e d93d d32e 76be
00000070: 2f41 40be fd0e aabe 7da2 94bc 67d4 e8be

gnn.convs.1.nn.lins.0.weight f4 [32, 32]
0.42210904 -0.15950383 -0.10641732 0.27057183 0.39085668 0.06120227 0.13638286 -0.25655824
0.41676784 -0.034582462 0.62099355 -0.08270149 0.3533623 0.40474576 0.009296571 0.22941051
0.28197682 0.2655448 0.38029155 -0.0110297715 -0.010091773 -0.1087596 0.16520165 0.8760369
-0.33424547 -0.6575965 0.12561454 -0.15072246 -0.14810224 0.1843855 0.23606646 0.112677075
-0.0035006683 0.5196936 0.16025046 -0.1824411 -0.29421672 0.061339803 -0.05845356 -0.31495282
-0.11902956 -0.06862608 -0.35380647 -0.010790015 0.044382088 0.03428655 -0.03886363 -0.08668108
-0.005185624 -0.04073167 -0.14179376 -0.09260761 -0.07260365 -0.1568857 0.0039792946 -0.3045022
-0.15488839 -0.4606737 -0.025778165 -0.112118535 0.2148212 -0.10279828 -0.16085404 -0.14088337
-0.17243217 -0.019890692 0.09013928 -0.3039998 -0.030257698 -0.14048621 -0.052632358 -0.025890836
-0.072721384 0.14975816 -0.061524123 -0.22439118 -0.007154938 -0.2496653 -0.03220479 -0.22932254
-0.17868063 -0.059962306 -0.03802524 0.018380554 -0.0026659097 -0.082087316 -0.23774955 -0.45445785
0.07692236 -0.120450884 -0.3450752 0.0789923 -0.22975627 -0.4232469 -0.1264125 0.5379792
0.08487605 -0.17109054 0.031385347 -0.1944027 0.029112725 0.05976364 -0.13743797 0.06448811
0.04387626 -0.17190187 -0.21751349 0.035419915 0.006098125 -0.14344196 0.0125218285 -0.24243474
0.0334132 0.008382315 -0.029011808 0.014332351 0.06910125 -0.18950202 -0.09140037 0.041476894
-0.07152308 -0.2266524 -0.18525703 -0.13333516 -0.032741338 0.1034436 -0.19805795 -0.036652796
0.113480985 -0.24940713 0.17420964 0.23840539 -0.04992966 0.27304268 -0.005969507 -0.62851065
1.0743932 -0.046948615 0.086076826 -0.3179022 0.11271743 0.36805907 0.0656713 0.06865542
0.001257191 0.46400535 0.09433271 0.100893974 0.11951002 -0.038597364 0.12139527 0.51633173
-0.0021820616 -1.0549054 0.124823146 0.07786235 -0.06841557 0.25059283 0.050426304 0.20121741
0.067490846 -0.007932582 0.002410652 -0.164307 -0.13732195 -0.120801345 0.21482162 -0.18106683
0.05635262 -0.1396184 -0.02258478 0.10373473 -0.12290596 0.010625585 0.13566586 -0.03425308
0.08613347 -0.20656699 -0.031328823 -0.03871198 -0.011614496 -0.2704971 0.018022055 -0.13300301
-0.117432915 0.029284257 0.105364196 -0.0374866 0.17492314 0.19415201 0.20385402 0.041441947
-0.20475374 0.018112496 -0.07744671 -0.053247526 -0.19070786 -0.08374915 0.143847 -0.25556788
0.07496605 -0.116716385 -0.083801545 -0.10556584 -0.068155475 0.029828338 0.09342222 -0.17797115
0.17167698 0.03614257 -0.018697526 -0.011671979 -0.11425038 -0.004221886 -0.05438899 0.14777586
-0.043613587 -0.027801396 0.023142802 -0.017011655 0.11207137 0.019310392 -0.15801428 -0.14195918
0.29337248 -0.30293292 0.02346719 0.3314429 0.27142698 0.13240826 -0.17027363 -0.185566
0.90067637 -0.07660646 0.65481764 0.14170459 0.17270966 0.4111833 0.052196003 0.24142794
-0.0348998 0.30609322 0.20732008 -0.110799246 0.160838 0.072296135 0.08861462 1.0015657
-0.27886394 -0.69134825 0.25500587 -0.033972036 0.13896751 0.27601814 0.070888825 0.20449488
00000000: ad1e d83e f954 23be 53f1 d9bd 6488 8a3e
00000010: 5e1e c83e 3baf 7a3d f3a7 0b3e 9a5b 83be
00000020: 9862 d53e 57a6 0dbd 6ff9 1e3f 665f a9bd
00000030: e7eb b43e d63a cf3e a550 183c 97ea 6a3e
00000040: 445f 903e 7df5 873e 93b5 c23e 37b6 34bc
00000050: f757 25bc 5abd debd 9f2a 293e f443 603f
00000060: 3922 abbe 3f58 28bf 19a1 003e fd56 1abe
00000070: 1da8 17be 8dcf 3c3e 68bb 713e 3dc3 e63d
00000080: 786b 65bb a40a 053f b218 243e d7d1 3abe
00000090: 93a3 96be 723f 7b3d 006d 6fbd 7f41 a1be
000000a0: c5c5 f3bd d58b 8cbd 1f26 b5be 9ac8 30bc
000000b0: fec9 353d 0e70 0c3d 782f 1fbd da85 b1bd
000000c0: 2bec a9bb 40d6 26bd 6232 11be 0fa9 bdbd
000000d0: 39b1 94bd a5a6 20be be64 823b b6e7 9bbe
000000e0: 109b 1ebe 6cdd ebbe bb2c d3bc 679e e5bd
000000f0: 17fa 5b3e e887 d2bd ecb6 24be bb43 10be
00000100: 0f92 30be cef1 a2bc f19a b83d dda5 9bbe
00000110: fede f7bc 9edb 0fbe 0795 57bd 0519 d4bc
00000120: f3ee 94bd 345a 193e b800 7cbd cdc6 65be
00000130: f873 eabb 43a8 7fbe 2be9 03bd 87d3 6abe
00000140: 0ef8 36be 099b 75bd 5bc0 1bbd d192 963c
00000150: 8bb6 2ebb 651d a8bd 9e74 73be b3ae e8be
00000160: 7889 9d3d f4ae f6bd b2ad b0be b7c6 a13d
00000170: 3a45 6bbe d1b3 d8be 4772 01be 01b9 093f
00000180: 7fd3 ad3d 5c32 2fbe ec8d 003d 8011 47be
00000190: cf7d ee3c b8ca 743d 8abc 0cbe 5812 843d
000001a0: 98b7 333d 0b07 30be dbbb 5ebe 7914 113d
000001b0: c8d2 c73b 73e2 12be 5b28 4d3c d040 78be
000001c0: 48dc 083d fa55 093c 2caa edbc 3dd2 6a3c
000001d0: f584 8d3d d10c 42be 1e30 bbbd ade3 293d
000001e0: b17a 92bd 9117 68be 05b4 3dbe 0389 08be
000001f0: c81b 06bd 3dda d33d b4cf 4abe 3e21 16bd
00000200: b868 e83d 9564 7fbe 0364 323e 8b20 743e
00000210: 0b83 4cbd 40cc 8b3e db9b c3bb 13e6 20bf
00000220: b785 893f 314d 40bd 0c49 b03d 14c4 a2be
00000230: 65d8 e63d 3d72 bc3e ad7e 863d 369b 8c3d
00000240: 54c8 a43a 1c92 ed3e 8231 c13d 80a1 ce3d
00000250: abc1 f43d 4518 1ebd 159e f83d 512e 043f
00000260: eb00 0fbb 2407 87bf 47a3 ff3d 4c76 9f3d
00000270: 761d 8cbd b44d 803e d08b 4e3d f00b 4e3e
00000280: a438 8a3d a9f7 01bc 08fc 1d3b 1840 28be
00000290: 209e 0cbe b266 f7bd 33fa 5b3e 9569 39be
000002a0: 01d2 663d 20f8 0ebe b703 b9bc e072 d43d
000002b0: 1fb6 fbbd ef16 2e3c feeb 0a3e f54c 0cbd
000002c0: bf66 b03d 4c86 53be a752 00bd 7490 1ebd
000002d0: ba4a 3ebc 997e 8abe fda2 933c f131 08be
000002e0: ab80 f0bd 8ae5 ef3c 2fc9 d73d 8d8b 19bd
000002f0: 0d1f 333e c9cf 463e 1cbf 503e 08bf 293d
00000300: f7aa 51be a860 943c 619c 9ebd 141a 5abd
00000310: ec48 43be ad84 abbd a14c 133e cbd9 82be
00000320: cd87 993d 0009 efbd 25a0 abbd e732 d8bd
00000330: 1995 8bbd 8f5a f43c 2654 bf3d 123e 36be
00000340: 17cc 2f3e 3b0a 143d 8e2b 99bc d43b 3fbc
00000350: 1afc e9bd bf57 8abb fdc6 5ebd 8e52 173e
00000360: 29a4 32bd c1bf e3bc f995 bd3c 075c 8bbc
00000370: ad85 e53d d430 9e3c 7fce 21be bf5d 11be
00000380: eb34 963e 061a 9bbe 443e c03c e2b2 a93e
00000390: 7af8 8a3e 0896 073e 365c 2ebe 0305 3ebe
000003a0: ba92 663f d9e3 9cbd 21a2 273f 021b 113e
000003b0: cdda 303e 9e86 d23e 7acb 553d e338 773e
000003c0: 18f3 0ebd 40b8 9c3e b74b 543e b7ea e2bd
000003d0: b7b2 243e ff0f 943d 957b b53d 4e33 803f
000003e0: 41c7 8ebe 33fc 30bf 2190 823e 4326 0bbd
000003f0: 804d 0e3e 4052 8d3e 292e 913d 1b67 513e

gnn.convs.1.nn.lins.0.bias f4 [32]
0.2947913 -0.45113847 0.046659853 -0.2535307 -0.0020889894 0.0044596246 -0.22008313 0.19128561
0.0035953668 0.6477951 0.21498407 0.8808683 -0.014867033 0.2072262 -0.16591467 -0.2542872
0.475762 -0.14663675 -0.1774011 -0.08346717 0.587096 0.2412241 0.18754442 -0.14482163
-0.24492343 -0.029532105 -0.5240566 0.04016869 -0.40614045 0.35550487 -0.12533924 -1.0854287
00000000: e3ee 963e 9ffb e6be 671e 3f3d c7ce 81be
00000010: 6de7 08bb 0b22 923b 795d 61be 60e0 433e
00000020: 3fa0 6b3b e6d5 253f c924 5c3e 9680 613f
00000030: db94 73bc 1b33 543e 89e5 29be ef31 82be
00000040: 1497 f33e f227 16be a2a8 35be d6f0 aabd
00000050: ec4b 163f 7303 773e a50b 403e 1f4c 14be
00000060: 35cd 7abe 50ed f1bc 9328 06bf ed87 243d
00000070: a4f1 cfbe bc04 b63e ee58 00be 54ef 8abf

gnn.convs.1.nn.lins.1.weight f4 [32, 32]
0.03033294 -0.042263508 -0.038673192 0.060264282 0.0024307105 -0.11000021 0.15860131 -0.14410616
0.11070298 0.15735215 -0.15386042 0.22520962 0.009686114 -0.05303082 0.03428051 0.14495479
-0.23377639 0.04441564 -0.13377659 -0.17574003 -0.08542141 0.21167816 -0.17429186 0.041347094
0.013454854 0.16971141 -0.15632485 -0.43949133 -0.01922449 -0.02515623 0.039978754 -0.6172944
-0.34383526 -0.03012993 -0.025531845 -0.14873551 0.02036428 0.041327257 0.025846133 -0.11723062
-0.07212706 -0.124615885 -0.0666797 -0.30217087 0.044594985 -0.3059173 0.086742446 -0.1896217
0.058771074 -0.07064832 0.036454882 -0.030205382 -0.1617412 -0.091696285 -0.17036365 -0.15400761
-0.38749352 -0.116540104 -0.027890753 -0.2842613 0.17338933 -0.15748273 0.15940125 -0.02618396
-0.11789655 0.016553953 0.018552301 0.18895641 0.05333411 0.061465867 -0.10354341 0.0044825645
0.012246179 0.017297165 0.0037860658 -0.25134873 -0.048048735 -0.07635564 0.048378088 0.16876976
-0.15021972 0.2892671 0.16264467 -0.20106432 -0.13985766 -0.114121266 -0.08668016 0.06342482
-0.61552596 0.13283351 -0.19589786 0.070202574 -0.031102119 0.08836084 0.11660728 -0.03341255
0.08577354 0.045735717 -0.16807814 -0.037890542 0.059861884 0.20099835 0.10360631 -0.057986952
-0.079715006 -0.07633951 -0.04584243 -0.9743342 -0.1857031 -0.09678873 -0.11737575 -0.0942023
-0.6086163 0.088127606 -0.25455242 -0.122072235 -0.26358628 -0.08624477 -0.28108022 -0.08464528
0.10993507 -0.0687328 -0.41243458 0.13971497 -0.013118751 0.016110301 -0.19141997 -0.7601889
-0.017118974 -0.12848836 0.09504071 0.08578223 -0.21059997 0.061239142 0.0018419364 -0.20828441
-0.23492518 -0.0039523565 -0.25368008 -0.19569808 -0.1727542 0.045821473 0.0059420005 0.06394884
0.0003269862 -0.0007810443 0.17266841 0.11944649 -0.16458291 0.0620815 0.019420313 -0.14072041
-0.08504143 0.039743774 -0.1404917 -0.11321578 0.07861829 -0.2324275 0.15848456 0.013636023
0.07766213 -0.26440385 0.023488972 -0.0073571764 0.17586747 0.28518027 0.32267582 0.28506142
0.33445108 0.9639844 -0.5183664 0.7220358 0.121788785 0.2101797 -0.048577104 -0.42039546
0.122017644 -0.27318373 -0.6118259 0.099221684 0.49640456 0.33384234 0.22164382 0.029484212
0.15691401 -0.110556886 0.13223682 0.3755588 0.3052611 0.35750067 -0.01144672 -0.058765154
0.02609331 -0.018681616 0.04828119 -0.10102802 0.19605085 0.16271532 0.1605193 0.03891542
0.0981076 0.07233308 0.09020479 -1.070037 0.014729728 0.27756464 -0.23911971 0.09797923
-1.1570482 0.17391333 -0.08854739 -0.040292054 -0.21262863 0.14750706 -0.05094981 0.05935779
0.14743006 0.008198086 -0.30870152 0.04195585 0.0787708 -0.1045561 -0.014803985 -0.42636696
0.67255545 -0.10562374 -0.15107775 0.014550789 0.5866343 -0.10658506 -0.054024726 0.6659712
0.20505267 -1.0732936 0.019547679 -0.7087586 0.1519961 0.6949993 -0.02508905 -0.098022394
-1.0862564 0.009138182 -0.03626069 -0.08250687 -1.0316781 0.48472485 0.56184816 0.08777037
-0.081343785 -0.15205427 0.16218065 0.40069473 0.07536898 -0.7436933 -0.09045583 -0.4685208
00000000: c97c f83c 801c 2dbd c867 1ebd aed7 763d
00000010: 8e4c 1f3b ca47 e1bd 6268 223e 9190 13be
00000020: 3eb8 e23d ec20 213e 968d 1dbe 5a9d 663e
00000030: 82b2 1e3c d836 59bd b869 0c3d 076f 143e
00000040: 1463 6fbe 2ded 353d bbfc 08be 32f5 33be
00000050: 6cf1 aebd 29c2 583e 9179 32be 925b 293d
00000060: bf71 5c3c d4c8 2d3e 9f13 20be 0205 e1be
00000070: ad7c 9dbc 7014 cebc c3c0 233d 0107 1ebf
00000080: 2d0b b0be 0bd3 f6bc 2928 d1bc 1f4e 18be
00000090: fed2 a63c c546 293d 45bb d33c 9b16 f0bd
000000a0: 5ab7 93bd 9d36 ffbd 5e8f 88bd 24b6 9abe
000000b0: 3ba9 363d 31a1 9cbe 06a6 b13d 312c 42be
000000c0: f0b9 703d 11b0 90bd b751 153d 4771 f7bc
000000d0: 7c9f 25be 43cb bbbd cf73 2ebe 2cb4 1dbe
000000e0: 8d65 c6be 94ac eebd 267b e4bc b28a 91be
000000f0: f98c 313e 2743 21be 153a 233e be7f d6bc
00000100: bf73 f1bd 289c 873c fffa 973c ca7d 413e
00000110: de74 5a3d a2c3 7b3d 910e d4bd 7ae2 923b
00000120: 33a4 483c c9b2 8d3c a51f 783b c8b0 80be
00000130: c0ce 44bd 5960 9cbd 1a28 463d fbd1 2c3e
00000140: 33d3 19be d11a 943e 538c 263e cee3 4dbe
00000150: d936 0fbe 69b8 e9bd 5e85 b1bd dfe4 813d
00000160: 1c93 1dbf 8205 083e 7399 48be 5ec6 8f3d
00000170: dfc9 febc 87f6 b43d cccf ee3d 99db 08bd
00000180: 0aaa af3d 6055 3b3d ad1c 2cbe 1d33 1bbd
00000190: bc31 753d 83d2 4d3e 8c2f d43d ba83 6dbd
000001a0: 9f41 a3bd e457 9cbd 46c5 3bbd f76d 79bf
000001b0: f428 3ebe 2b39 c6bd b262 f0bd 23ed c0bd
000001c0: 47ce 1bbf 3f7c b43d b254 82be 0201 fabd
000001d0: c8f4 86be 19a1 b0bd bfe9 8fbe 815a adbd
000001e0: a325 e13d c8c3 8cbd a02a d3be 7111 0f3e
000001f0: 08f0 56bc c0f9 833c 9903 44be bd9b 42bf
00000200: 173d 8cbc 7492 03be b4a4 c23d 98ae af3d
00000210: 85a7 57be e5d5 7a3d 216d f13a 8248 55be
00000220: 3a90 70be c582 81bb 5be2 81be 1465 48be
00000230: 7ae6 30be 4caf 3b3d 1db5 c23b 9cf7 823d
00000240: 586f ab39 ffbe 4cba fdcf 303e 5da0 f43d
00000250: 6c88 28be 2c49 7e3d 5917 9f3c 0319 10be
00000260: 342a aebd 5eca 223d 0edd 0fbe addd e7bd
00000270: a002 a13d 7901 6ebe c749 223e a069 5f3c
00000280: 530d 9f3d f15f 87be f26b c03c 7814 f1bb
00000290: 9a16 343e 2603 923e c435 a53e 92f3 913e
000002a0: 2c3d ab3e aec7 763f a9b3 04bf 57d7 383f
000002b0: 666c f93d 5939 573e c9f8 46bd 133e d7be
000002c0: 63e4 f93d bdde 8bbe 9fa0 1cbf bd34 cb3d
000002d0: bd28 fe3e 62ed aa3e 99f6 623e e088 f13c
000002e0: 11ae 203e a66b e2bd 1769 073e 3e49 c03e
000002f0: 2f4b 9c3e 540a b73e 068b 3bbc bbb3 70bd
00000300: a3c1 d53c 300a 99bc 7fc2 453d c7e7 cebd
00000310: 8ec1 483e d89e 263e 2c5f 243e c765 1f3d
00000320: a3ec c83d 5e23 943d 4abd b83d f9f6 88bf
00000330: f554 713c f41c 8e3e ccdb 74be 56a9 c83d
00000340: 281a 94bf 5616 323e 5658 b5bd 4809 25bd
00000350: 52bb 59be 170c 173e bfb0 50bd 2721 733d
00000360: e8f7 163e 4451 063c 200e 9ebe e6d9 2b3d
00000370: 9652 a13d 8221 d6bd 6a8c 72bc c54c dabe
00000380: 982c 2c3f 4251 d8bd 20b4 1abe 6f66 6e3c
00000390: aa2d 163f 4549 dabd 0849 5dbd 177d 2a3f
000003a0: 54f9 513e af61 89bf 7422 a03c 3471 35bf
000003b0: dea4 1b3e 79eb 313f 8d87 cdbc f7bf c8bd
000003c0: 730a 8bbf 50b8 153c 1786 14bd 5df9 a8bd
000003d0: 070e 84bf db2d f83e 48d5 0f3f f4c0 b33d
000003e0: 9297 a6bd 1db4 1bbe af12 263e dc27 cd3e
000003f0: 0d5b 9a3d af62 3ebf e840 b9bd f5e1 efbe

gnn.convs.1.nn.lins.1.bias f4 [32]
0.030771699 -0.19304933 0.08019715 0.11563467 0.018397879 -0.12766097 0.098671004 0.138676
-0.17861967 -0.13882624 0.03387626 -0.2699688 -0.056759182 0.13736255 0.03377682 -0.21222627
-0.1851528 0.2882156 0.0057037817 -0.15172899 0.2619847 -0.015615051 -0.34089392 -0.20800593
0.1583816 -0.08716818 -0.05275215 -0.036217313 0.102158435 0.015222525 0.060544174 -0.09211037
00000000: ee14 fc3c b9ae 45be 673e a43d dfd1 ec3d
00000010: 26b7 963c 8fb9 02be 0614 ca3d 1501 0e3e
00000020: 13e8 36be 7728 0ebe d5c1 0a3d 5a39 8abe
00000030: 517c 68bd c5a8 0c3e 9059 0a3d d851 59be
00000040: b298 3dbe ff90 933e cae6 ba3b d85e 1bbe
00000050: dc22 863e 45d6 7fbc a689 aebe 82ff 54be
00000060: c92e 223e 3b85 b2bd a312 58bd 9b58 14bd
00000070: 7138 d13d e667 793c 2bfd 773d 5da4 bcbd

gnn.convs.2.nn.lins.0.weight f4 [32, 32]
-0.07255132 -0.08646306 0.07965297 -0.23906171 -0.03716313 -0.15225743 -0.22421938 -0.043582957
-0.15553832 0.06839074 -0.1622284 -0.07402658 -0.087762736 -0.16841343 0.019362375 0.020747945
0.079613775 -0.033312198 -0.011556518 -0.096857384 -0.2336616 -0.2920443 -0.022588097 0.109929666
0.067986175 -0.007915958 -0.025150262 0.14215605 -0.08222663 -0.070657104 0.06770712 -0.061398383
0.051313996 -0.14998826 -0.09634719 0.040708903 0.103967845 -0.066855036 -0.085232414 -0.10274493
-0.12616931 0.112270966 0.02409567 -0.065693155 -0.13619277 -0.068804435 -0.14787495 -0.03424756
0.107354194 -0.1530291 -0.09106568 -0.101859786 -0.08698667 0.07309538 0.008598336 -0.1163869
0.10025829 0.13883054 0.030017575 0.066055216 -0.14069836 -0.07755416 -0.11454555 -0.022472804
-0.19593379 0.22526135 -0.011554638 -0.17684174 0.14668678 -0.33336166 -0.15433519 -0.15556471
-0.17232768 -0.10947178 0.13340786 -0.1524254 -0.01593659 -0.01639138 -0.12682873 -0.22917457
0.23116301 -0.0142517425 0.02074189 0.022691328 -0.17038146 -0.10805589 0.12153823 0.11843586
-0.27664816 0.004519345 -0.049453583 -0.08728942 -0.014487451 0.102880105 0.16879278 0.27262837
-0.1147171 0.119495526 -0.05117917 -0.08778691 0.06530403 -0.46326536 -0.124441944 -0.16485806
-0.080508165 -0.029007526 -0.13871674 0.11811018 -0.17272867 -0.112164184 -0.0052294545 -0.04776907
-0.12615848 -0.29603755 0.15275162 -0.15658814 -0.2494817 -0.21826093 -0.12536523 0.02864028
-0.03262514 0.004406959 -0.16108412 0.108410314 -0.019933715 -0.13912773 0.11065193 -0.091757506
0.17544697 0.24593818 -0.08497492 0.25020626 0.20177995 -0.431659 0.14067753 0.15236196
-0.24299103 -0.08125946 0.0609588 -0.16028427 0.016604863 -0.06328258 0.54195255 -0.45741302
0.045728974 0.2968264 -0.09232376 -0.25461328 0.2479596 -0.07656472 0.13745074 0.099037975
0.25099817 0.06346181 -0.07572207 -0.043507986 -0.04076727 0.20825079 -0.17067689 -0.3387224
-0.14338823 -0.012261698 -0.0018006685 0.087804936 -0.09665911 -0.17605403 0.08202463 -0.9097137
-0.006120008 -0.068668135 0.044374924 -0.10251287 0.006405775 -0.19162871 -0.117119424 -0.1898135
-0.11685837 -0.115761474 0.18705705 -0.07933279 -0.18269473 -0.038364083 0.052027777 0.0073111025
-0.21260817 0.20232739 -0.15350953 -0.19330603 -0.20757806 -0.08122059 -0.13894132 0.00010420608
0.12096732 -0.11318315 -0.12733006 -0.15560457 -0.07576413 0.08845906 0.29347768 0.8555026
0.20966609 -0.10906875 0.405371 -0.16268726 -0.099140316 0.16511941 0.58311784 0.5426283
0.032609798 0.27064154 0.18565537 0.08411161 0.30008516 -0.03862431 0.09821834 0.012115807
0.2660108 0.035793748 0.16070144 0.015861554 0.3346452 -0.069102705 -0.111349255 0.16386463
0.020096734 0.24714522 -0.18614456 -0.24364874 0.016955314 -0.008436158 -0.19363631 0.0071534873
-0.0636856 0.0024480154 -0.17369314 -0.14633392 0.11254449 -0.28422752 -0.09830597 -0.20163153
0.07287857 -0.28435588 -0.043464977 -0.08411207 -0.34898952 -0.17569552 -0.03936539 0.29646415
-0.40284672 -0.08411181 -0.26243556 -0.19685787 -0.07150297 0.08286881 0.073006876 -0.39575133
00000000: c995 94bd 8b13 b1bd 1921 a33d 98cc 74be
00000010: 5e38 18bd 5fe9 1bbe c499 65be 0b84 32bd
00000020: 7045 1fbe 7210 8c3d 341f 26be 3f9b 97bd
00000030: f3bc b3bd 9274 2cbe d89d 9e3c 98f7 a93c
00000040: 8c0c a33d 5f72 08bd 8d57 3dbc 2a5d c6bd
00000050: fd44 6fbe d586 95be ac0a b9bc ce22 e13d
00000060: 563c 8b3d efb1 01bc ec07 cebc 5b91 113e
00000070: 6f66 a8bd acb4 90bd 08aa 8a3d df7c 7bbd
00000080: a02e 523d 8696 19be ad51 c5bd 61be 263d
00000090: 18ed d43d 4beb 88bd 558e aebd ef6b d2bd
000000a0: 8732 01be 52ee e53d 4864 c53c 228a 86bd
000000b0: 1e76 0bbe 57e9 8cbd 886c 17be 2b47 0cbd
000000c0: 84dc db3d a9b3 1cbe a580 babd dd9b d0bd
000000d0: 1126 b2bd 08b3 953d 09e0 0c3c 415c eebd
000000e0: 3854 cd3d 9829 0e3e 6be7 f53c f547 873d
000000f0: 3b13 10be b7d4 9ebd db96 eabd e318 b8bc
00000100: dea2 48be e9aa 663e aa4f 3dbc 0016 35be
00000110: 0f35 163e 61ae aabe 0b0a 1ebe 5b4c 1fbe
00000120: ab76 30be be32 e0bd 129c 083e 6715 1cbe
00000130: 748d 82bc 3747 86bc 64df 01be bdac 6abe
00000140: ffb5 6c3e 2480 69bc e5ea a93c 2ae3 b93c
00000150: 7a78 2ebe 684c ddbd 09e9 f83d 808e f23d
00000160: d4a4 8dbe 0317 943b d78f 4abd ccc4 b2bd
00000170: c65c 6dbc ceb2 d23d 04d8 2c3e f295 8b3e
00000180: cdf0 eabd 12ba f43d 40a1 51bd a0c9 b3bd
00000190: 1fbe 853d 1e31 edbe 6bdb febd 8dd0 28be
000001a0: 77e1 a4bd 31a1 edbc c30b 0ebe c0e3 f13d
000001b0: c9df 30be 56b6 e5bd d85b abbb 80a9 43bd
000001c0: b02f 01be 3c92 97be ec6a 1c3e a458 20be
000001d0: 2178 7fbe cb7f 5fbe be5f 00be 059f ea3c
000001e0: f0a1 05bd 4068 903b 3cf3 24be 3a06 de3d
000001f0: 084c a3bc 8077 0ebe 7b9d e23d 5ceb bbbd
00000200: 5fa8 333e 38d7 7b3e 5507 aebd 091b 803e
00000210: 679f 4e3e 6902 ddbe c50d 103e c604 1c3e
00000220: a4d2 78be 5c6b a6bd efaf 793d 8f21 24be
00000230: ec06 883c 4c9a 81bd 67bd 0a3f 0a32 eabe
00000240: 4e4e 3b3d a1f9 973e 3d14 bdbd ac5c 82be
00000250: 1fe9 7d3e f7cd 9cbd e3bf 0c3e 6cd4 ca3d
00000260: d582 803e 44f8 813d 2c14 9bbd 6e35 32bd
00000270: 95fb 26bd b23f 553e ecc5 2ebe 066d adbe
00000280: 5dd4 12be 4ae5 48bc 6904 ecba 13d3 b33d
00000290: 36f5 c5bd 8247 34be 87fc a73d ffe2 68bf
000002a0: 598a c8bb e1a1 8cbd 7bc2 353d 45f2 d1bd
000002b0: 89e7 d13b 513a 44be 4fdc efbd 785e 42be
000002c0: 7153 efbd 5a14 edbd e28b 3f3e 3b79 a2bd
000002d0: 5414 3bbe a823 1dbd 141b 553d f991 ef3b
000002e0: f5b5 59be e92e 4f3e 9a31 1dbe 04f2 45be
000002f0: 588f 54be fb56 a6bd a246 0ebe 3789 da38
00000300: b7bd f73d 91cc e7bd d062 02be ce56 1fbe
00000310: 392a 9bbd 062a b53d b542 963e 3802 5b3f
00000320: b5b2 563e 705f dfbd ca8c cf3e 7d97 26be
00000330: 140a cbbd 1015 293e 3647 153f b0e9 0a3f
00000340: da91 053d 8791 8a3e 711c 3e3e b542 ac3d
00000350: c3a4 993e 8634 1ebd b226 c93d 6181 463c
00000360: 9132 883e 779c 123d eb8e 243e 17f0 813c
00000370: 9e56 ab3e b885 8dbd 140b e4bd 21cc 273e
00000380: e8a1 a43c a313 7d3e ae9c 3ebe 0e7f 79be
00000390: dfe5 8a3c d037 0abc 9948 46be cd67 ea3b
000003a0: 996d 82bd e26e 203b 9ddc 31be 8fd8 15be
000003b0: ba7d e63d 4586 91be a454 c9bd 7f78 4ebe
000003c0: 5c41 953d 1897 91be 5508 32bd f342 acbd
000003d0: c1ae b2be 87e9 33be 9a3d 21bd 26ca 973e
000003e0: ed41 cebe d042 acbd f45d 86be 1c95 49be
000003f0: 2670 92bd 1fb7 a93d a184 953d eb9f cabe

gnn.convs.2.nn.lins.0.bias f4 [32]
-0.29950562 -0.035544038 0.14985019 -0.2942408 -0.011607727 0.07390924 0.3704833 -0.011288789
-0.122002654 0.138163 -0.06805494 -0.038239975 0.014131973 -0.18283334 0.1206391 0.09530334
-0.12388165 -0.065021574 0.056382027 0.021212557 0.072015695 -0.088250645 0.06455716 0.06388896
-0.05628671 -0.14070743 0.090876415 0.075395204 -0.29396805 -0.2637313 -0.054236896 -0.055495583
00000000: cd58 99be a096 11bd 5472 193e bba6 96be
00000010: 562e 3ebc ba5d 973d fdaf bd3e 9df4 38bc
00000020: 87dc f9bd 9a7a 0d3e 6360 8bbd 85a1 1cbd
00000030: ca89 673c aa38 3bbe a211 f73d 662e c33d
00000040: aab5 fdbd 082a 85bd d7f0 663d f5c5 ad3c
00000050: f77c 933d c1bc b4bd 8b36 843d 37d8 823d
00000060: e58c 66bd 9c15 10be 6a1d ba3d cd68 9a3d
00000070: fb82 96be ca07 87be 8227 5ebd 564f 63bd

gnn.convs.2.nn.lins.1.weight f4 [32, 32]
0.17234015 0.00737534 0.0155830085 -0.049176898 0.035349175 -0.17072532 -0.37956655 0.1504412
0.15109974 -0.059236467 -0.054575257 -0.065134004 -0.11928426 0.079650104 -0.11714295 0.12577221
-0.034788515 -0.13601287 -0.07566735 -0.11320911 -0.08541411 -0.23114023 -0.3792854 0.049285248
0.045304187 0.10092529 0.20272894 0.14629552 0.11312736 0.07790947 -0.022901827 -0.095456764
-0.13745624 -0.079722784 -0.11038275 -0.17296703 0.029224062 -0.12818804 -0.085874565 -0.061920036
-0.10550083 0.014328762 0.015005481 -0.0646007 -0.14511561 -0.050393686 -0.06437455 -0.18713342
-0.16852753 -0.12673418 0.08547843 -0.13896501 -0.14943211 0.06433577 -0.16621257 -0.20166251
-0.18986179 -0.064838335 -0.10240839 -0.068248026 -0.11352097 0.079242945 -0.07507796 -0.02696032
-0.085477285 0.0026218921 -0.085765935 0.18347813 -0.09590644 0.08856597 0.35801706 -0.16900699
0.010814611 0.1386451 0.029400524 -0.1789088 0.12901981 0.17450213 -0.21896347 0.12851585
0.082556255 0.1804196 0.17576882 -0.16406195 -0.10713362 0.09002177 0.26279655 -0.0012418684
-0.1576709 -0.011876385 -0.019821024 -0.25975078 -0.10398216 0.014530163 -0.12750854 -0.03343529
0.014253327 0.030828629 0.13019063 0.25371525 -0.4813253 -0.114108935 -0.21088876 0.12548093
-0.16851334 -0.2887306 -0.057874028 -0.11811987 -0.3848738 -0.17240502 -0.22899972 0.042580787
0.15670662 -0.24849789 -0.14117257 0.02306595 0.10691991 -0.082402185 0.17152445 -0.020650784
-0.37175167 -0.027792234 -0.057773978 0.1042555 -0.038889512 0.058774624 -0.5185538 -0.34446102
0.17025524 -0.07714951 -0.054212645 0.07542227 0.01858809 -0.09109454 -1.2494576 -0.05212957
-0.119896896 -0.02290127 0.015970172 -0.043187898 -0.23871486 -0.058173865 -0.06391632 0.22355396
0.054970767 -0.09215101 0.053112324 -0.28595063 -0.0925667 -0.094130196 -0.08173542 -0.0468099
0.16400002 -0.1366798 -0.17341782 0.01886864 -0.039499868 -0.16821615 -0.16508937 -0.3012257
0.19647232 0.06694053 -0.07112366 0.114494964 -0.008077941 -0.0039395234 -0.5464563 0.16886638
0.14205371 -0.13478242 0.12555793 -0.12313053 -0.12633294 -0.11625918 -0.19971897 0.01457889
-0.081785835 -0.22746003 0.03769869 0.13577126 0.13859008 0.06800497 -0.25509468 0.039399605
0.16269651 -0.021100286 -0.0774521 0.10198775 -0.06363816 0.12425822 -0.092262454 0.07539999
0.14438134 -0.060949378 0.16027428 0.045871764 0.44128025 -0.065089926 0.22405976 0.055572018
0.31826067 0.05341897 -0.070526764 0.12870947 0.13857993 0.28815013 0.11692934 0.010891686
0.042824633 0.6390859 -0.05037881 0.2688589 0.036879513 -0.3750041 -0.009935015 0.49975353
0.12630847 -0.019705063 -0.0003234962 -0.06602121 0.13391978 0.05450388 0.21642908 0.3756366
-0.11156471 -0.11876191 -0.13038963 0.39085427 -0.21429813 -0.2246841 0.115424745 -0.034891713
0.020972226 -0.14600766 -0.17699108 0.052148838 -0.21368323 -0.3885844 -0.07864939 -0.17375946
-0.10193292 -0.09256436 0.050016925 -0.028520413 0.06446248 -0.24504949 -0.13258624 -0.30570957
0.043295562 0.017361624 -0.047989827 0.06357669 -0.06095452 0.040306315 -0.11399479 -0.032464202
00000000: f079 303e d6ac f13b e04f 7f3c b76d 49bd
00000010: 4cca 103d 9ed2 2ebe 8c56 c2be 420d 1a3e
00000020: e4b9 1a3e f0a1 72bd 4e8a 5fbd fa64 85bd
00000030: 4e4b f4bd 981f a33d a5e8 efbd 6eca 003e
00000040: 677e 0ebd f546 0bbe 7cf7 9abd 2eda e7bd
00000050: 98ed aebd 06b0 6cbe b231 c2be 54df 493d
00000060: e290 393d ebb1 ce3d 2d98 4f3e 7ece 153e
00000070: 51af e73d 008f 9f3d 9d9c bbbc d67e c3bd
00000080: 54c1 0cbe b345 a3bd 5a10 e2bd 451e 31be
00000090: 4d67 ef3c ba43 03be 01df afbd dd9f 7dbd
000000a0: d210 d8bd 2fc3 6a3c 8dd9 753c 5f4d 84bd
000000b0: 3099 14be 9c69 4ebd ced6 83bd e79f 3fbe
000000c0: 7b92 2cbe 9bc6 01be 510f af3d d84c 0ebe
000000d0: bb04 19be 79c2 833d a133 2abe 9e80 4ebe
000000e0: 216b 42be f6c9 84bd 7dbb d1bd 9fc5 8bbd
000000f0: af7d e8bd 204a a23d 79c2 99bd e4db dcbc
00000100: b70e afbd 0dd4 2b3b 0da6 afbd b1e1 3b3e
00000110: 986a c4bd 1362 b53d 034e b73e 2b10 2dbe
00000120: c42f 313c fbf8 0d3e 5ed9 f03c de33 37be
00000130: c51d 043e b0b0 323e f637 60be a999 033e
00000140: 4113 a93d eabf 383e befc 333e dbff 27be
00000150: df68 dbbd 555d b83d 458d 863e 30c6 a2ba
00000160: 7b74 21be 2b95 42bc b35f a2bc 0efe 84be
00000170: 99f4 d4bd ec0f 6e3c 9991 02be 71f3 08bd
00000180: c986 693c 528c fc3c b150 053e f7e6 813e
00000190: 4570 f6be f2b1 e9bd 39f3 57be 137e 003e
000001a0: c38e 2cbe 7fd4 93be 510d 6dbd d5e8 f1bd
000001b0: 2e0e c5be f18a 30be e77e 6abe 3169 2e3d
000001c0: b377 203e 3b76 7ebe 8b8f 10be cef4 bc3c
000001d0: d3f8 da3d 7ac2 a8bd 1ba4 2f3e d52b a9bc
000001e0: 3c56 bebe 8aac e3bc 68a4 6cbd e883 d53d
000001f0: 9c4a 1fbd a9bd 703d f1bf 04bf 325d b0be
00000200: 6457 2e3e 9000 9ebd 140e 5ebd fe76 9a3d
00000210: 0d46 983c c68f babd 3aee 9fbf d185 55bd
00000220: 818c f5bd 729b bbbc e1d3 823c cbe5 30bd
00000230: ab71 74be b847 6ebd 8fe6 82bd 54eb 643e
00000240: 0729 613d abb9 bcbd 4f8c 593d 1f68 92be
00000250: 9c93 bdbd 55c7 c0bd e664 a7bd bdbb 3fbd
00000260: 9fef 273e caf5 0bbe 7194 31be 6892 9a3c
00000270: 9dca 21bd db40 2cbe 300d 29be 413a 9abe
00000280: 0a30 493e 1e18 893d 48a9 91bd 567c ea3d
00000290: 5759 04bc 1e17 81bb 8fe4 0bbf 4feb 2c3e
000002a0: 8776 113e 6704 0abe 4292 003e dc2b fcbd
000002b0: 6c5d 01be 4b19 eebd 2183 4cbe 4cdc 6e3c
000002c0: 557f a7bd 48eb 68be f169 1a3d 9f07 0b3e
000002d0: 8fea 0d3e 3146 8b3d c59b 82be 7b61 213d
000002e0: ea99 263e 82da acbc 359f 9ebd f4de d03d
000002f0: b954 82bd 187b fe3d 19f4 bcbd 4f6b 9a3d
00000300: b4d8 133e 0ea6 79bd f11e 243e 08e4 3b3d
00000310: 7cef e13e de4d 85bd ec6f 653e 7c9f 633d
00000320: 10f3 a23e dacd 5a3d 5670 90bd 6acc 033e
00000330: e6e7 0d3e 6a88 933e a678 ef3d 0b73 323c
00000340: e268 2f3d 229b 233f 035a 4ebd e0a7 893e
00000350: f90e 173d 8a00 c0be 79c6 22bc b2df ff3e
00000360: 0257 013e 836c a1bc ed9a a9b9 2136 87bd
00000370: 4422 093e 763f 5f3d 969f 5d3e 7153 c03e
00000380: 0a7c e4bd 7239 f3bd dc84 05be 0d1e c83e
00000390: f870 5bbe 9713 66be cf63 ec3d 9dea 0ebd
000003a0: f2cd ab3c 0883 15be 263d 35be 059a 553d
000003b0: c7cf 5abe 89f4 c6be ee12 a1bd 00ee 31be
000003c0: 35c2 d0bd 6292 bdbd 8cde 4c3d a4a3 e9bc
000003d0: e804 843d 41ee 7abe b0c4 07be f785 9cbe
000003e0: b056 313d f739 8e3c fb90 44bd 7f34 823d
000003f0: 72ab 79bd 3c18 253d 1a76 e9bd 2ff9 04bd

gnn.convs.2.nn.lins.1.bias f4 [32]
0.18007788 -0.0158768 -0.110955305 0.1173649 0.0793741 -0.16609618 -0.81686944 -0.017861357
0.02521908 0.06982334 -0.18584049 -0.06260976 0.084189706 -0.33938473 0.07587468 0.034306925
-0.0722941 -0.031082371 0.034465 -0.106326476 0.14758933 0.110921465 -0.008983118 -0.041505616
0.02785409 -0.07223223 0.1718094 -0.08150347 -0.2362671 -0.24151461 -0.036266696 0.04750133
00000000: 5666 383e 1010 82bc 893c e3bd 025d f03d
00000010: e38e a23d 1e15 2abe 5b1e 51bf fb51 92bc
00000020: 3e98 ce3c 8aff 8e3d f84c 3ebe 8c39 80bd
00000030: a76b ac3d d6c3 adbe 2f64 9b3d 6b85 0c3d
00000040: ee0e 94bd 75a0 febc 2c2b 0d3d b2c1 d9bd
00000050: a821 173e cb2a e33d ee2d 13bc cb01 2abd
00000060: 432e e43c 7eee 93bd ceee 2f3e 4beb a6bd
00000070: 01f0 71be 9b4f 77be 638c 14bd c190 423d

gnn.convs.3.nn.lins.0.weight f4 [32, 32]
-0.20624457 0.257047 -0.30197993 0.24756369 -0.07906035 0.059393905 -0.051421333 0.020918151
-0.16523544 0.05219248 -0.03024661 0.20698342 -0.13814537 -0.011730968 -0.024753582 -0.059860952
-0.22305936 -0.11548565 0.026373781 -0.29373017 -0.099342406 0.070262425 0.12362427 0.020782534
0.08739632 0.086111225 -0.15524082 -0.10803408 0.032320548 0.02436813 0.08527564 -0.04802553
0.059971157 -0.080487795 -0.2715845 -0.26138598 -0.011946168 -0.22436923 -0.45633793 0.081115335
0.0096147405 0.12888303 0.11826359 -0.19445257 -0.06314886 -0.09680137 -0.0570272 -0.21557428
-0.1908865 -0.07030598 -0.08411178 -0.22635199 -0.20980762 -0.22392638 -0.07423457 0.114187054
-0.011069742 -0.0135460235 -0.069790296 0.10735383 0.042019907 0.029172447 -0.09083381 -0.04521133
-0.110882096 -0.24197675 -0.2478352 -0.4298018 0.09843054 -0.050356146 -0.0016463932 0.10152527
-0.24301276 0.013587705 0.027855577 -0.039489742 -0.054646775 0.29195702 -0.17884819 -0.1604253
-0.17474763 -0.1384253 -0.14813118 -0.13292362 0.014043522 0.03281533 0.11554251 0.05594438
0.11761339 -0.018925846 0.04625582 -0.027476154 -0.016125908 -0.20514801 0.052496154 0.10929082
-0.07205346 -0.11414903 0.07455716 -0.18613273 0.061133284 -0.26510304 -0.066229075 0.023063751
-0.054881938 -0.11484232 0.0018690852 -0.06778178 0.07572591 -0.31967103 0.07048471 -0.21362178
-0.16188683 -0.052673258 -0.22178778 -0.32641226 -0.0292872 -0.21731672 0.05800224 -0.0055518183
0.013915314 0.07920642 -0.12970361 -0.077079736 0.109033726 0.08874746 0.21701373 -0.14754793
-0.07208647 0.15698816 0.15134332 -0.32466534 -0.17015022 0.008814802 -0.4228634 -0.0003495126
0.24046734 0.008453993 -0.040071376 -0.3383341 -0.08676178 -0.053199228 -0.10150649 0.19604494
-0.09905892 -0.15741546 0.19760957 -0.23881257 -0.13042584 -0.05016598 0.06467394 0.13481167
-0.19348389 -0.039203882 0.04621339 -0.19942799 -0.04111665 -0.12267768 0.05652208 -0.07442534
-0.12671451 0.3402093 -0.055844482 0.65806866 0.0527845 0.057614688 -0.20653597 0.073342495
-0.6351006 0.009503712 -0.02541331 0.045136783 0.0631999 0.04724479 0.03259211 -0.09194848
0.019318208 -0.110127345 0.1541534 -0.19413698 -0.016166445 0.06448729 0.07882411 -0.0062559047
0.13948184 0.13273421 -0.2445662 0.03243824 0.13916938 -0.037983995 -0.034998104 -0.19354235
-0.09578018 -0.13668753 -0.24244612 -0.12619646 -0.10776811 -0.33771765 -0.007932861 -0.08257829
-0.009434139 -0.059406143 -0.16838199 -0.09928436 -0.13166487 -0.18345419 0.09273 -0.03343982
0.06365735 -0.19491929 0.041574728 -0.6197423 -0.053238537 -0.030894011 -0.20581469 0.0207106
0.04699248 -0.07135538 0.044322424 -0.092996456 -0.058778938 0.023945099 -0.20343877 -0.21491197
-0.19945669 -0.16876498 0.043882377 -0.13003878 -0.23727165 -0.12491759 -0.03212244 -0.07228749
-0.694676 -0.34822473 -0.08858703 -0.2317955 -0.2019021 0.051547647 0.0060452675 -0.17812295
-0.25136697 -0.28972673 -0.25861183 0.18924664 -0.10563153 0.10437408 -0.44928288 -0.5571068
-0.31482086 -0.21698341 -0.14943361 -0.26098958 0.0031314886 0.0514705 -0.15786283 -0.19416076
00000000: c731 53be aa9b 833e 1d9d 9abe 5681 7d3e
00000010: 65ea a1bd 0647 733d 2d9f 52bd 8b5c ab3c
00000020: 7b33 29be c8c7 553d bdc7 f7bc 76f3 533e
00000030: fb75 0dbe 3f33 40bc 06c8 cabc c230 75bd
00000040: ac69 64be be83 ecbd d40d d83c cd63 96be
00000050: 0874 cbbd bfe5 8f3d b92e fd3d 2240 aa3c
00000060: d8fc b23d 155b b03d 73f7 1ebe f940 ddbd
00000070: 8d62 043d ac9f c73c ffa4 ae3d 6bb6 44bd
00000080: 51a4 753d c9d6 a4bd 200d 8bbe 62d4 85be
00000090: dcb9 43bc 0cc1 65be 20a5 e9be cc1f a63d
000000a0: 2587 1d3c eaf9 033e 2e34 f23d 931e 47be
000000b0: 3154 81bd cc3f c6bd 5a95 69bd 81bf 5cbe
000000c0: c077 43be 95fc 8fbd cc42 acbd d1c8 67be
000000d0: cfd7 56be f54c 65be 4b08 98bd e7da e93d
000000e0: dd5d 35bc 24f0 5dbc 37ee 8ebd 53dc db3d
000000f0: 111d 2c3d 0efb ee3c 1407 babd 842f 39bd
00000100: 2716 e3bd c1c8 77be 83c8 7dbe fb0e dcbe
00000110: f395 c93d 3f42 4ebd cacb d7ba 7bec cf3d
00000120: 56d8 78be f79e 5e3c 6131 e43c ffbf 21bd
00000130: 4cd5 5fbd 647b 953e fb23 37be 8846 24be
00000140: 0bf1 32be 5dbf 0dbe b3af 17be 211d 08be
00000150: cd16 663c 5e69 063d 8da1 ec3d ef25 653d
00000160: 4adf f03d 600a 9bbc be76 3d3d ac15 e1bc
00000170: 7b1a 84bc 5212 52be 3506 573d ded3 df3d
00000180: c490 93bd f7c6 e9bd 6db1 983d 9499 3ebe
00000190: e566 7a3d 96bb 87be 1ca3 87bd 31f0 bc3c
000001a0: e2cb 60bd 7332 ebbd 18fc f43a 2dd1 8abd
000001b0: 3016 9b3d ecab a3be 4a5a 903d abbf 5abe
000001c0: a9c5 25be eabf 57bd 561c 63be 821f a7be
000001d0: b6eb efbc 4688 5ebe c293 6d3d 07ec b5bb
000001e0: 0ffd 633c fa36 a23d 06d1 04be fbdb 9dbd
000001f0: 134d df3d 3ac1 b53d d938 5e3e ce16 17be
00000200: 12a2 93bd 81c1 203e bef9 1a3e 893a a6be
00000210: dc3b 2ebe f66b 103c 8d81 d8be c93e b7b9
00000220: 123d 763e 9e82 0a3c e221 24bd 213a adbe
00000230: 29b0 b1bd 6fe7 59bd a2e2 cfbd 01c0 483e
00000240: 67df cabd 8531 21be 2a5a 4a3e 488b 74be
00000250: 5a8e 05be d87a 4dbd c573 843d 120c 0a3e
00000260: a420 46be 4094 20bd 404a 3d3d da36 4cbe
00000270: ef69 28bd 6f3e fbbd b283 673d 506c 98bd
00000280: 73c1 01be ea2f ae3e 2fbd 64bd 3077 283f
00000290: 8f34 583d 61fd 6b3d 2a7e 53be 9734 963d
000002a0: f495 22bf 75b5 1b3c 932f d0bc 59e1 383d
000002b0: f36e 813d c183 413d 4e7f 053d 7c4f bcbd
000002c0: 3841 9e3c 728a e1bd 64da 1d3e d8cb 46be
000002d0: 7e6f 84bc ea11 843d 896e a13d 55fe ccbb
000002e0: 54d4 0e3e 7aeb 073e 906f 7abe f6dd 043d
000002f0: 6b82 0e3e 1b95 1bbd 2c5a 0fbd f72f 46be
00000300: 6628 c4bd d1f7 0bbe cc43 78be a539 01be
00000310: 87b5 dcbd 54e9 acbe d5f8 01bc ce1e a9bd
00000320: a691 1abc db53 73bd 546c 2cbe 9955 cbbd
00000330: 28d3 06be 6adb 3bbe 3ae9 bd3d 31f8 08bd
00000340: c95e 823d ec98 47be 434a 2a3d 6ea7 1ebf
00000350: a710 5abd 7015 fdbc 16c1 52be 47a9 a93c
00000360: 307b 403d c522 92bd 6e8b 353d ed74 bebd
00000370: 2fc2 70bd 8328 c43c 4152 50be e211 5cbe
00000380: 603e 4cbe bad0 2cbe 02be 333d e328 05be
00000390: 57f7 72be cbd4 ffbd d292 03bd 770b 94bd
000003a0: 49d6 31bf 834a b2be 1e6d b5bd cd5b 6dbe
000003b0: 6dbf 4ebe a023 533d 6117 c63b dd65 36be
000003c0: 2cb3 80be 1057 94be c568 84be dfc9 413e
000003d0: 5855 d8bd 14c2 d53d 6808 e6be 8d9e 0ebf
000003e0: 3330 a1be e630 5ebe 2005 19be 6da0 85be
000003f0: a939 4d3b bbd2 523d cba6 21be 14d2 46be

gnn.convs.3.nn.lins.0.bias f4 [32]
0.033564303 0.09712983 0.18005541 -0.13349874 -0.086084306 0.19270697 -0.18554327 -0.31084615
-0.09041871 -0.02443204 -0.21787922 -0.08142608 0.050851535 0.2003447 -0.13512385 -0.20618977
0.11068603 0.16397382 0.11456509 -0.2343712 0.09611985 0.17487204 -0.19049765 -0.061500777
-0.02655981 -0.040972967 -0.014931538 -0.017082252 0.011442788 0.042140327 -0.26992887 -0.12024416
00000000: b97a 093d 01ec c63d 7260 383e e5b3 08be
00000010: f84c b0bd fa54 453e 0eff 3dbe 3a27 9fbe
00000020: 722d b9bd b425 c8bc bb1b 5fbe b7c2 a6bd
00000030: b349 503d 2927 4d3e e85d 0abe 6923 53be
00000040: 5baf e23d c1e8 273e 1aa1 ea3d 01ff 6fbe
00000050: 7cda c43d a811 333e d111 43be 3de8 7bbd
00000060: f593 d9bc 45d3 27bd 69a3 74bc 14f0 8bbc
00000070: 887a 3b3c 569b 2c3d 1e34 8abe 9242 f6bd
