Run_GIN_ModelCheckpoint_EvFr_2/NCI1_reps_2_folds_5_epochs_20_2023-04-26_11-05/rep_0_fold_1/checkpoints/model_trial_2.ckpt (torch, 96717 bytes, 86 tensors)

gnn.convs.0.nn.lins.0.weight f4 [16, 37]
0	0x3c9630ab	0.018333754
1	0xbd60461b	-0.054754358
2	0xbeff145f	-0.4982023
3	0xbeec1f64	-0.461177
4	0x3e858be3	0.26083288
5	0xbe4e1b40	-0.20127583
6	0xbd3613fe	-0.04445266
7	0xbecb8b0f	-0.3975453
8	0x3fe38512	1.7774985
9	0x3f680393	0.90630454
10	0x40419626	3.0247893
11	0xbeaacde6	-0.33360213
12	0x3fdd9382	1.7310641
13	0xbe689ca7	-0.22716008
14	0x3fc3db3e	1.5301282
15	0x3e9d76a6	0.30754584
16	0xbec06c04	-0.3758241
17	0x3fbd597c	1.4792933
18	0x3cc02a62	0.02345771
19	0x3fcdc9d2	1.6077216
20	0x3e58bb5e	0.21165225
21	0xbe61fce8	-0.22069132
22	0xbdd4f853	-0.103989266
23	0x3fd0fcc1	1.6327134
24	0x3fc2a55c	1.5206714
25	0xbee86ced	-0.45395604
26	0x3f35f101	0.7107087
27	0x3f3a3995	0.72744113
28	0xbe82e3f5	-0.25564542
29	0x3f162e2d	0.5866421
30	0x3dad18e7	0.08452015
31	0xbdfd544e	-0.123695955
32	0xbe901f0a	-0.2814868
33	0xbe7a1bff	-0.24424742
34	0xbe55eaf4	-0.20890409
35	0x3dbe03f4	0.09278098
36	0xbed28249	-0.41115025
37	0xbd9d3201	-0.07675553
38	0xbe55dda2	-0.20885327
39	0xbddcdd63	-0.10784414
40	0x3c66a775	0.014078011
41	0xbdee3e5e	-0.11632989
42	0x3dbc0a85	0.09181694
43	0xbede14f3	-0.43375358
44	0xbe348d03	-0.17631917
45	0x3da948d1	0.08265842
46	0xbcb1fe38	-0.021727666
47	0xbd873243	-0.066013835
48	0x3fb596ab	1.4186605
49	0xbd2adab3	-0.041712474
50	0x3dcd3f2a	0.10021813
51	0x3fc44750	1.5334263
52	0x3ee5ce7e	0.44884104
53	0x3ee5d514	0.44889128
54	0x3fbcc697	1.4748105
55	0x3f57541d	0.8411272
56	0x3f996704	1.1984563
57	0x3ec646b0	0.38725805
58	0xbd8a13c9	-0.06742055
59	0xbc383e90	-0.011245385
60	0x3fc4cf01	1.5375673
61	0x3f9d3bbd	1.2283856
62	0xbe88519d	-0.26624766
63	0x3ec3b400	0.38223267
64	0xbd89a803	-0.06721499
65	0xbdd95e0c	-0.10613641
66	0xbdfde5ca	-0.123973444
67	0x3c413442	0.011792244
68	0x3e23c703	0.15993886
69	0xbcbddc1b	-0.023176244
70	0xbc7624fb	-0.015023465
71	0xb8a69d8a	-7.944841e-05
72	0x3c8cde07	0.017195715
73	0x3b345758	0.0027517881
74	0xbd848629	-0.064709015
75	0xbddb4d4f	-0.10708105
76	0xbe1eb48d	-0.15498562
77	0x3ed80091	0.42187932
78	0xbe8e70a2	-0.27820307
79	0x3daa770b	0.08323487
80	0xbdc827e3	-0.09773233
81	0xbcf96df6	-0.030447941
82	0xbef59c8b	-0.47970995
83	0xbe77a7bd	-0.24185081
84	0xbeb76031	-0.35815576
85	0xbdbb1813	-0.09135451
86	0xbe6c8770	-0.2309854
87	0x3b434452	0.002979536
88	0xbea313b3	-0.31850967
89	0xbe89e24d	-0.26930466
90	0xbe9ebfaf	-0.31005618
91	0xbe6873ea	-0.22700468
92	0xbe835863	-0.2565337
93	0xbed15444	-0.40884602
94	0xbe35a822	-0.17739919
95	0x3fa54068	1.291028
96	0x3dc2b3b5	0.09506933
97	0xbe9e74f9	-0.30948618
98	0xbe8209e2	-0.25398165
99	0x3d78d77c	0.060752377
100	0xbe430661	-0.19045402
101	0xbe10d611	-0.1414416
102	0x40093f40	2.1444855
103	0xbd25309a	-0.040329553
104	0x3daef302	0.08542444
105	0x3e07b3e4	0.13252217
106	0xbdd0ced4	-0.10195699
107	0x3d3b267e	0.045691006
108	0x3f325eae	0.6967572
109	0xbc8b83f7	-0.0170307
110	0xbe5cc7b8	-0.21560562
111	0xbdec25ed	-0.11530671
112	0xbda547aa	-0.080703095
113	0xbe080972	-0.13284853
114	0x3dd20092	0.10254015
115	0xbd967d71	-0.07348145
116	0x3db1fc7d	0.086907364
117	0xbdf5cefd	-0.120023705
118	0xbd862918	-0.06550807
119	0x3de74856	0.11293094
120	0xbca2a932	-0.01985607
121	0x3dd3246a	0.1030968
122	0x3d9311d3	0.07181134
123	0x3dc93105	0.09823803
124	0xbd8a39c0	-0.06749296
125	0x3db0740d	0.08615885
126	0xbe0dcd43	-0.13847832
127	0xbde833af	-0.11337983
128	0xbd34f134	-0.04417534
129	0xbd9148c9	-0.07093961
130	0x3df45b23	0.119314454
131	0xbdf637d3	-0.120223664
132	0xbdb4501c	-0.08804342
133	0x3c1d8e39	0.009616428
134	0xbe25fe8b	-0.16210382
135	0xbe270384	-0.16309935
136	0x3dc6925d	0.09695885
137	0xbc8f8c64	-0.017522998
138	0xbe1e365a	-0.15450421
139	0xbe1502a8	-0.14551795
140	0x3e2646b4	0.16237909
141	0xbd8f9bdb	-0.07012149
142	0x3dcec61f	0.10096382
143	0xbdaa7f7d	-0.08325098
144	0xbe111978	-0.14169872
145	0xbd8222f3	-0.06354322
146	0x3db50170	0.08838165
147	0xbdcf57df	-0.10124182
148	0xbd1753d1	-0.036945168
149	0xbe53e5fa	-0.20693198
150	0xbd26d144	-0.040726915
151	0x3d591cfd	0.05300616
152	0x3a4816e5	0.0007632806
153	0xbe26ee28	-0.16301787
154	0xbe304d46	-0.17216977
155	0xbe428633	-0.18996505
156	0x3fe7969e	1.809284
157	0x3f9ef909	1.241975
158	0x402f3cb8	2.738081
159	0x3fc2c0e8	1.521512
160	0x3fd0edf7	1.6322621
161	0x3de80807	0.11329656
162	0xbe1587ca	-0.1460258
163	0x3fab373b	1.337623
164	0x3e01f41f	0.12690781
165	0xbe3181fd	-0.17334743
166	0x3f95b58d	1.169603
167	0x3f91b357	1.1382855
168	0xbe54598a	-0.20737281
169	0xbe9b61f2	-0.30348164
170	0x3c89ac39	0.016805755
171	0x3fb38ab1	1.40267
172	0x3fd616d3	1.6725715
173	0x3f3ce2bd	0.73783475
174	0x3d279fc8	0.040923864
175	0x3f1f6ad2	0.6227237
176	0xbe012ba8	-0.1261431
177	0x3f75f4ee	0.9607686
178	0xbe08d3ee	-0.13362095
179	0xbd8ce852	-0.06880249
180	0xbe5dec5d	-0.21672197
181	0xbe3bd8a8	-0.18344367
182	0xbd981382	-0.07425596
183	0xbd1c4389	-0.038150344
184	0xbe58e314	-0.21180373
185	0x3e547e3e	0.20751283
186	0xbee3b1ec	-0.4447168
187	0x3e5b5b6c	0.21421593
188	0xbedaa598	-0.42704463
189	0x3c2f8136	0.010711959
190	0xbe93512e	-0.28772873
191	0xbec9d290	-0.3941846
192	0x3d7863a3	0.060641896
193	0x3fd36300	1.6514587
194	0x3f8b5a3d	1.0886914
195	0xbd8fe190	-0.070254445
196	0x3dbfde8f	0.093686216
197	0x3da75a85	0.08171562
198	0xbec7875b	-0.38970456
199	0xbd2afd44	-0.04174544
200	0x3fa68235	1.3008486
201	0xbe28214f	-0.16418956
202	0x3dbabfd7	0.09118622
203	0x3f639e1c	0.8891313
204	0x3fa06e01	1.253357
205	0xbee7d9d1	-0.45283368
206	0xbf0af5ab	-0.5428111
207	0xbb392b22	-0.002825447
208	0x3d49b9d5	0.04924949
209	0x3fc5df43	1.5458759
210	0xbef0c8d2	-0.47028214
211	0x3f216627	0.630465
212	0x3f5da3a9	0.8657785
213	0x3a53da91	0.000808158
214	0xba4faab0	-0.0007921858
215	0xbe153e1a	-0.14574471
216	0x3d981ab6	0.0742697
217	0x3cb169ba	0.02165686
218	0x3d89b080	0.06723118
219	0x3c0c991a	0.008581424
220	0x3d815259	0.06314535
221	0xbe95667e	-0.29179758
222	0xbe400be1	-0.18754531
223	0xbd859590	-0.065226674
224	0xbeda3584	-0.42618954
225	0x3df3dbb3	0.11907139
226	0x3e97a57c	0.29618442
227	0xbf100487	-0.5625691
228	0x3e86551a	0.26236802
229	0xbde00059	-0.10937566
230	0x3f5f993f	0.8734321
231	0xbed9c521	-0.4253321
232	0x3f5f3c0b	0.87200993
233	0x3f7fb03d	0.99878293
234	0x3f95b405	1.1695563
235	0xbe9b3ce6	-0.303199
236	0x3fbba015	1.4658228
237	0x3f0ade0d	0.5424507
238	0xbe222e04	-0.15837866
239	0x3ff6195b	1.9226488
240	0x3f1289ed	0.5724171
241	0x3d3daeeb	0.046309393
242	0xbed556f7	-0.4166791
243	0xbecb8412	-0.397492
244	0x3e0becaa	0.13664499
245	0x3f262343	0.64897555
246	0x3f85d563	1.0455745
247	0x3d904b48	0.07045609
248	0xbe46b895	-0.1940635
249	0x3f1b885f	0.6075496
250	0xbf056e5f	-0.5212154
251	0x3f380eb3	0.7189743
252	0xbdad386b	-0.084580265
253	0x3e17ac55	0.14811833
254	0xbe5314bd	-0.2061338
255	0xbe3fe280	-0.18738747

gnn.convs.0.nn.lins.0.bias f4 [16]
0	0x3e30a7a8	0.17251456
1	0xbe1b74b4	-0.15181237
2	0xbe2903a4	-0.16505295
3	0xbe548ae4	-0.20756108
4	0xbe39c85d	-0.18142839
5	0xbf1cbfcf	-0.61230177
6	0x3c8b1d77	0.016981823
7	0xbe950341	-0.29104045
8	0x3f3f0129	0.74611145
9	0xbec5f5b4	-0.3866402
10	0xbee42631	-0.44560388
11	0xbe04467b	-0.12917511
12	0xbd1feeff	-0.039046284
13	0x3e1b0cff	0.15141676
14	0xbe9d5211	-0.30726674
15	0x3e157634	0.14595872

gnn.convs.0.nn.lins.1.weight f4 [16, 16]
0	0x3f8c1e65	1.0946776
1	0x3f4427e3	0.7662336
2	0x3ea508f1	0.32233384
3	0x3d7d5186	0.061845325
4	0x3ed1ae65	0.40953365
5	0x3e99ab47	0.30013487
6	0x3e9de4d3	0.30838642
7	0x3f1e50ca	0.61842024
8	0x3f220656	0.6329092
9	0x3eec1520	0.46109867
10	0xbf7ab7dc	-0.979368
11	0x3dee76e1	0.11643768
12	0x3e80c996	0.25153798
13	0xbe7a6a62	-0.24454644
14	0x3ded3bc7	0.11583667
15	0xbf80b969	-1.0056583
16	0xbe9258b1	-0.2858329
17	0xbe80b008	-0.251343
18	0x3f0540b7	0.5205187
19	0xbe63ef04	-0.22259146
20	0xbbfd851b	-0.0077368147
21	0x3c899a67	0.016797258
22	0xbf0a74e7	-0.5408463
23	0x3e27166a	0.16317144
24	0xbea47c8c	-0.32126272
25	0xbf1a5ae3	-0.6029493
26	0x3f8d255b	1.1027025
27	0x3eee063d	0.46489134
28	0x3e990fd0	0.29894876
29	0x3de3091d	0.110857226
30	0xbec4a597	-0.38407585
31	0xbb090ce3	-0.0020912222
32	0xbe0e7201	-0.13910677
33	0xbcb03cc9	-0.02151336
34	0xbe1f47ce	-0.15554735
35	0x3cedb9ac	0.0290192
36	0xbe24b78a	-0.1608564
37	0xbeb499e3	-0.35273656
38	0xbd730107	-0.05932715
39	0xbe1f9c5b	-0.15586989
40	0xbe4d5fec	-0.20056123
41	0xbdb44229	-0.088016815
42	0xbe8beabe	-0.27327532
43	0x3c179fd1	0.009254412
44	0xbdde670d	-0.10859499
45	0xbe1a06eb	-0.15041701
46	0xbed1a67e	-0.40947336
47	0x3d8e4e27	0.069485
48	0x3fa18085	1.2617346
49	0x3ef78cf0	0.48349714
50	0xbd3bb568	-0.0458273
51	0x3e10ba25	0.14133509
52	0x3edd984f	0.43280265
53	0x3e9d12c8	0.3067839
54	0x3f29a7c0	0.6627159
55	0x3f1fcdfa	0.6242367
56	0x3f871ec4	1.0556264
57	0x3e060921	0.1308942
58	0xbfabc32c	-1.3418937
59	0x3e2eb158	0.17059839
60	0x3e9d7260	0.30751324
61	0xbe376043	-0.17907815
62	0x3e00098c	0.12503642
63	0xbf8725e9	-1.0558444
64	0x3fab4658	1.3380842
65	0xbc7fea37	-0.015619806
66	0x3e0a544f	0.13508724
67	0xbe25e775	-0.16201575
68	0x3f1bba4e	0.60831153
69	0x3f0e02f0	0.5547323
70	0x3f4cbc07	0.79974407
71	0xbe98bfa1	-0.298337
72	0x3f970866	1.1799438
73	0x3eedeb88	0.4646876
74	0xbfd65a44	-1.6746297
75	0xbe89c443	-0.26907548
76	0x3e7819c1	0.24228574
77	0xbecc56ad	-0.39909878
78	0x3e97e62d	0.29667798
79	0xbecf4a4e	-0.40486377
80	0xbf0ba66c	-0.54550815
81	0xbe15d71d	-0.1463284
82	0x3e4dac4c	0.20085257
83	0x3ca3f607	0.020014776
84	0xbc806bd2	-0.015676413
85	0x3da5dbbc	0.08098552
86	0xbdf7c5ce	-0.12098275
87	0x3ed83679	0.4222906
88	0xbf4c00b3	-0.79688567
89	0xbd8397d7	-0.064254455
90	0x3fc2458d	1.5177475
91	0x3f5da146	0.8657421
92	0x3d1cb48d	0.038258124
93	0x3d7d8e29	0.061903153
94	0xbf06c28b	-0.526406
95	0xbd502c76	-0.05082365
96	0xbe74ef14	-0.23919326
97	0xbe754260	-0.23951101
98	0xbe966b60	-0.29378796
99	0x3e4f3058	0.20233285
100	0xbedc5cfc	-0.4303969
101	0xbe4fd4e3	-0.20296054
102	0x3e6e22d4	0.23255473
103	0xbde1454c	-0.109995455
104	0xbddf86b0	-0.109143615
105	0xbda6cea4	-0.08144882
106	0xbe2614f9	-0.16218938
107	0xbe71c4be	-0.23610207
108	0xbe8fbc05	-0.28073135
109	0xbdb70cc7	-0.08937984
110	0x3c8b285f	0.016987024
111	0xbdecc312	-0.11560644
112	0xbeec8986	-0.46198672
113	0x3d9550e4	0.07290819
114	0x3f3e413d	0.74318296
115	0x3e2fd194	0.17169791
116	0xbc5df0bb	-0.013546164
117	0xbe8081d4	-0.2509905
118	0xbf064e44	-0.52463174
119	0x3f2ccc9a	0.674997
120	0xbf5122d3	-0.8169376
121	0xbbf5cea5	-0.0075014406
122	0xbd81c25a	-0.06335898
123	0x3fbf7a4b	1.4959196
124	0xbf6ab61b	-0.9168412
125	0x3ee20ebe	0.44151872
126	0xbf1b9b3c	-0.60783744
127	0xbd92babe	-0.071645245
128	0xbe8bd234	-0.2730881
129	0x3e81aaea	0.2532571
130	0x3e1bbf5c	0.15209717
131	0xbe69f6b0	-0.2284801
132	0x3e83ce19	0.25743178
133	0xbee2b596	-0.44279164
134	0xbd8bb7b1	-0.06822146
135	0xbd1ba7a4	-0.03800167
136	0xbe7f1f5a	-0.24914303
137	0xbe105309	-0.14094175
138	0x3e3aeda6	0.18254718
139	0x3fb07c9e	1.378803
140	0x3e938480	0.28812027
141	0xbe441b88	-0.19151127
142	0xbf0ba587	-0.5454945
143	0x3ed06e44	0.40709126
144	0x3f8d1a96	1.1023738
145	0x3e8ed566	0.27897185
146	0x3d16319d	0.03666841
147	0xbe635eda	-0.22204152
148	0x3e805367	0.2506363
149	0x3f03df5a	0.5151268
150	0x3f7dbe91	0.99118906
151	0x3dd64484	0.10462287
152	0x3f730ecf	0.9494447
153	0x3e479e48	0.19493973
154	0xbfca7849	-1.5817958
155	0x3d9b5dbc	0.07586238
156	0x3d38a413	0.04507835
157	0xbecd21f8	-0.4006498
158	0x3dbb6ae8	0.0915125
159	0xbf46b1a7	-0.77614826
160	0xbdee4c6e	-0.116356716
161	0x3c7a0503	0.015259984
162	0xbec3193a	-0.38105184
163	0x3d809fa8	0.06280452
164	0xbe5b4f94	-0.21417075
165	0x3d24b9e0	0.040216327
166	0xbda2436a	-0.079230145
167	0xbd4b0a79	-0.049570534
168	0xbebbfcf4	-0.36716425
169	0xbdcb80b4	-0.099366575
170	0xbd0a98ef	-0.033837255
171	0xbdb699c2	-0.08916046
172	0xbe2f8588	-0.17140782
173	0x3d57cd3e	0.05268597
174	0xbde4ad3c	-0.11165854
175	0xbe206cc2	-0.15666488
176	0x3f473a35	0.7782319
177	0x3eb15701	0.3463669
178	0xbe13b7a8	-0.14425528
179	0xbe410d6b	-0.18852775
180	0x3ebb2fb9	0.36559847
181	0x3ecff8a1	0.40619376
182	0x3f1da160	0.61574364
183	0x3de39399	0.111121364
184	0x3f2374f6	0.63850343
185	0x3ebb0cfa	0.36533338
186	0xbf67af48	-0.9050183
187	0x3e4ee109	0.20203032
188	0x3e4ec322	0.20191625
189	0xbc3e12dd	-0.011601177
190	0x3dee3ca0	0.11632657
191	0xbf7d48b1	-0.98939043
192	0x3a375d4f	0.00069948
193	0xbd1459c4	-0.03621842
194	0xbd0ff170	-0.035142362
195	0xbd98e568	-0.07465631
196	0x3d3e4c27	0.046459343
197	0xbe8ba216	-0.272721
198	0xbf09f96c	-0.5389621
199	0xbe075be3	-0.13218646
200	0xbea67f30	-0.3251891
201	0xbdcaae65	-0.09896544
202	0x3d6ab616	0.057302557
203	0x3e89bf62	0.26903826
204	0x3d874f6e	0.06606947
205	0x3cc4f2be	0.02404153
206	0xbdd2ccd8	-0.10292977
207	0x3d5aade7	0.053388502
208	0xbe56ab79	-0.20963849
209	0xbe846165	-0.25855556
210	0x3a408f86	0.00073456054
211	0x3e26e6db	0.16299002
212	0x3e022772	0.1271036
213	0x3e2f1cf7	0.17100893
214	0xbf3cf78b	-0.7381522
215	0x3dd8604e	0.10565244
216	0xbf6ca72c	-0.92442584
217	0x3b863fd0	0.0040969625
218	0x3fa5f99b	1.2966799
219	0x3e98f2f0	0.29872847
220	0x3ea26bbc	0.3172282
221	0x3e8e357a	0.27775174
222	0xbf21ec23	-0.6325094
223	0x3eb6082d	0.35553113
224	0x3f47c1a9	0.78029877
225	0x3e974674	0.2954594
226	0xbe8582e8	-0.26076436
227	0x3d9d6064	0.07684401
228	0x3e0e8f94	0.13921958
229	0x3ec19edb	0.3781651
230	0x3f2e731c	0.6814439
231	0xbf103267	-0.5632691
232	0x3f74e87f	0.9566726
233	0x3e81be50	0.2534051
234	0xbf61fa0d	-0.8827217
235	0x3dbdaca0	0.09261441
236	0x3e66ccd9	0.2253908
237	0xbe94f5e2	-0.29093844
238	0x3ceb917e	0.0287559
239	0xbe970705	-0.29497543
240	0xbc95de57	-0.018294496
241	0x3c5f1180	0.013615012
242	0xbe61f71b	-0.2206692
243	0xbe4d6b64	-0.20060498
244	0xbece1279	-0.4024847
245	0xbe5caa6c	-0.21549386
246	0xbe472212	-0.1944659
247	0xbc3f5f20	-0.011680394
248	0xbe92a07d	-0.28638068
249	0x3d7c08d7	0.061531868
250	0xbdf3cfd6	-0.11904876
251	0xbda23a4e	-0.07921277
252	0xbd9c87ca	-0.07643087
253	0x3b5f7b56	0.0034100614
254	0xbc216300	-0.009850264
255	0x3c358aee	0.011080487

gnn.convs.0.nn.lins.1.bias f4 [16]
0	0x3eaee431	0.3415847
1	0xbec1d043	-0.37854204
2	0xbe80d163	-0.2515975
3	0x3ec80a9a	0.39070588
4	0x3e021bde	0.12705943
5	0xbe963f2c	-0.2934507
6	0xbeb21743	-0.34783372
7	0xbf01a3b6	-0.5064043
8	0xbdfbfe71	-0.1230439
9	0x3e556d01	0.20842363
10	0xbee8f78b	-0.4550136
11	0x3e99532d	0.2994627
12	0xbe1912c0	-0.14948559
13	0xbebb0b9e	-0.365323
14	0xbec63b81	-0.38717273
15	0xbebd08e7	-0.36920854

gnn.convs.1.nn.lins.0.weight f4 [16, 16]
0	0x3ce7e3d2	0.028306875
1	0xbedf452b	-0.43607458
2	0x3a4780c4	0.0007610435
3	0x3e6ffc07	0.23435985
4	0xbf10438a	-0.56353056
5	0xbec547f4	-0.38531458
6	0x3d8be630	0.06831014
7	0xbf7be45d	-0.9839533
8	0x3e7778cd	0.24167176
9	0x3bab22d5	0.005222658
10	0xbe53577c	-0.20638841
11	0x3e4fe62e	0.2030265
12	0x3dc8f864	0.09813002
13	0xbeb34a7f	-0.35017774
14	0x3e8be5df	0.27323815
15	0xbd70f5d0	-0.058828175
16	0x3dbcbb7e	0.09215449
17	0xbe8b0736	-0.2715394
18	0xbd9875a6	-0.07444315
19	0xbd5bbf8b	-0.053649466
20	0xbe8f4914	-0.27985442
21	0x3d8b5f92	0.06805338
22	0x3ebadc6e	0.364963
23	0xbdace612	-0.0844232
24	0xbf1386ce	-0.5762757
25	0xbf015957	-0.50526947
26	0xbe6184b9	-0.22023286
27	0xbd370a18	-0.04468736
28	0xbddd920a	-0.1081887
29	0x3e017814	0.12643462
30	0xbe88ce60	-0.26719952
31	0x3e603a4f	0.21897243
32	0x3e4b2f09	0.19842161
33	0xbf699c47	-0.91254085
34	0x3eaddb64	0.33956444
35	0x3e82b7b9	0.25530794
36	0x3ee1a142	0.44068342
37	0xbf216414	-0.6304333
38	0xbe725c87	-0.23668109
39	0xbdb0c316	-0.0863096
40	0x3eacd28d	0.33754387
41	0x3caae20d	0.020859743
42	0xbe608c12	-0.21928433
43	0x3ed87ef7	0.42284366
44	0x3e3b480c	0.18289202
45	0xbf49a18a	-0.78762114
46	0x3e50223d	0.20325561
47	0xbe0df6b5	-0.13863643
48	0x3e401e37	0.18761526
49	0xbeba566a	-0.36394054
50	0xbdfea569	-0.12433893
51	0x3dc8a49f	0.09797024
52	0x3bf3617d	0.007427393
53	0xbf1f0d24	-0.62129426
54	0xbce53eb7	-0.027984006
55	0x3eea37f6	0.4574582
56	0x3e595ed7	0.21227585
57	0x3d7b67ca	0.061378278
58	0x3d938cfc	0.07204625
59	0x3de91014	0.1138002
60	0x3e482a72	0.19547442
61	0xbec81cc1	-0.39084437
62	0x3e79370d	0.24337406
63	0x3e87ef14	0.2654959
64	0x3e2cf238	0.16889274
65	0xbd85ae4d	-0.06527386
66	0xbe9ef4f7	-0.31046268
67	0x3d2ff590	0.042958796
68	0xbea53873	-0.3226963
69	0xbf01e94b	-0.507466
70	0xbde6d98e	-0.11271964
71	0xbd7d0a47	-0.06177738
72	0xbeb6dafe	-0.35713953
73	0xbe92da20	-0.2868204
74	0xbe03502a	-0.12823549
75	0xbd966ccd	-0.07344971
76	0x3c54064f	0.012940957
77	0xbe095986	-0.13413057
78	0x3f0b3f83	0.54393786
79	0x3eecec22	0.46273905
80	0x3cbbac49	0.0229093
81	0xbeb02b9a	-0.34408265
82	0xbe7cd98e	-0.24692366
83	0xbdd93adb	-0.10606929
84	0xbe523e80	-0.20531654
85	0xbec462d7	-0.3835666
86	0x3e5e9696	0.21737131
87	0xbe34a4a8	-0.17640936
88	0xbe9379e1	-0.28803924
89	0xbd6108ef	-0.05494016
90	0xbdba15ec	-0.090862125
91	0x3dbe3c14	0.09288803
92	0x3e52c389	0.20582403
93	0xbe185c69	-0.14879002
94	0x3da13030	0.07870519
95	0xbe021be6	-0.12705955
96	0xbe553dcd	-0.20824356
97	0x3eec6212	0.46168572
98	0xbd9de217	-0.07709139
99	0xbe12d5f8	-0.14339435
100	0xbd0c8237	-0.03430387
101	0xbf83791f	-1.0271338
102	0x3d64fb80	0.05590391
103	0xbea2f5b2	-0.31828076
104	0xbf822ed4	-1.0170541
105	0x3cd93eef	0.026519267
106	0xbe8b5f7d	-0.2722129
107	0x3a2f2dfa	0.0006682571
108	0xbd79eb28	-0.061015278
109	0x3cdea153	0.027176535
110	0x3baefee6	0.005340445
111	0xbde037a6	-0.10948114
112	0xbc5c5867	-0.013448811
113	0xbe42c0e0	-0.19018888
114	0xbeb09a51	-0.34492734
115	0xbcb7fe2a	-0.022460062
116	0xbc31809a	-0.010833884
117	0xbd9d972d	-0.0769485
118	0x3e2fc248	0.17163956
119	0xbd4937ec	-0.049125597
120	0xbe6d3f1a	-0.23168603
121	0xb82d387e	-4.1299027e-05
122	0x3cd7ec20	0.02635771
123	0xbbe7ec67	-0.007077742
124	0xbe9034c2	-0.2816525
125	0xbe8d1ca0	-0.27560902
126	0xbe355ec6	-0.17711934
127	0x3d790268	0.06079331
128	0xbdc34caf	-0.095361106
129	0xbe5014be	-0.20320413
130	0xbebc9fbe	-0.36840624
131	0xbea16c4d	-0.3152794
132	0xbe8849ef	-0.26618907
133	0xbe9a99c0	-0.30195427
134	0xbea9fee1	-0.3320227
135	0xbedc00a8	-0.4296925
136	0xbeb66717	-0.35625526
137	0x3e0a57b7	0.13510023
138	0x3e342438	0.17591941
139	0x3de23bd5	0.11046568
140	0xbdc8f6aa	-0.098126724
141	0xbe9417f8	-0.28924537
142	0x3e49f430	0.19722056
143	0x3d64273b	0.055701476
144	0xbe14edfa	-0.14543906
145	0xbf0c46a1	-0.5479527
146	0xbe12e0ad	-0.1434352
147	0xbdce5aa3	-0.10075881
148	0x3cf0b67b	0.029383888
149	0x3ecab883	0.39593896
150	0x3e65a7e0	0.2242732
151	0xbd9d83ec	-0.07691178
152	0xbeb1ffb2	-0.34765393
153	0xbea03c33	-0.31295928
154	0x3d0bd858	0.03414187
155	0xbd83376b	-0.064070545
156	0xbcdd7522	-0.027033392
157	0xbe21d163	-0.15802531
158	0x3e4c7c96	0.19969401
159	0xbe863ef9	-0.2621992
160	0xbdb37a0b	-0.08763512
161	0x3f7a8a2b	0.9786708
162	0xbe61196e	-0.21982357
163	0xbe2e1372	-0.16999605
164	0xbe1bdc44	-0.15220743
165	0x3f17df26	0.5932487
166	0x3cb88376	0.022523623
167	0xbd9bf0fc	-0.076143235
168	0xbe15f940	-0.14645863
169	0xbe1fe29f	-0.15613793
170	0xbe21fca9	-0.15819038
171	0xbdf8ce92	-0.12148775
172	0x3e79a9fa	0.24381247
173	0x3f2195cf	0.63119215
174	0xbe84dd5d	-0.25950137
175	0x3e0dd48c	0.13850611
176	0xbe509e64	-0.20372921
177	0xbf59bfdc	-0.8505838
178	0xbdb1ca00	-0.086811066
179	0x3e9503e2	0.29104525
180	0xbefebc67	-0.49753115
181	0xbec2d449	-0.38052586
182	0x3e38e9f0	0.1805799
183	0x3e890a65	0.26765743
184	0xbe15e59e	-0.14638373
185	0xbe8c0ab0	-0.27351904
186	0xbdfa35e8	-0.12217313
187	0x3d65d28b	0.056108993
188	0x3e55359a	0.20821229
189	0xbf14083f	-0.5782508
190	0x3e2c1e8f	0.16808532
191	0x3e94f821	0.29095557
192	0xbe8d0bee	-0.27548164
193	0xbd9532a9	-0.07285053
194	0x3dcaa10b	0.09893998
195	0xbecbcf38	-0.39806533
196	0xbecd43ec	-0.40090883
197	0xbe125f56	-0.1429418
198	0x3dfa632c	0.12225947
199	0x3dbc0d68	0.091822445
200	0xbefdf1c5	-0.49598518
201	0xbe5f2231	-0.21790387
202	0x3d9c8ff0	0.076446414
203	0xbeb25506	-0.34830493
204	0xbe920ed7	-0.28526947
205	0xbf1781e3	-0.59182566
206	0xbe122a05	-0.14273842
207	0xbdcbf424	-0.099586755
208	0xbf10a80e	-0.5650643
209	0xbd8abc60	-0.06774211
210	0xbe11b751	-0.14230086
211	0xbedd7d36	-0.4325959
212	0xbe621964	-0.22079998
213	0xbde5589b	-0.11198541
214	0x3dfb7604	0.12278369
215	0xbe7a0610	-0.24416375
216	0xbd824e12	-0.06362547
217	0x3c986cbc	0.018606536
218	0x3d45c680	0.048285007
219	0xbe8d367a	-0.27580625
220	0xbe6797e5	-0.22616537
221	0xbeb408cc	-0.3516296
222	0xbe9d632b	-0.30739722
223	0x3e15a3d6	0.1461328
224	0xbf67e66c	-0.9058597
225	0xbe148f35	-0.14507754
226	0x3e0794e1	0.13240387
227	0xbf54d76d	-0.83141214
228	0x3dae22f7	0.08502763
229	0xbc2faf18	-0.010722898
230	0xbebea856	-0.37237805
231	0x3e325491	0.17415072
232	0x3e6ff01b	0.23431437
233	0xbf429fe3	-0.7602522
234	0xbe180923	-0.14847235
235	0xbfb3da61	-1.4051019
236	0xbc804edc	-0.015662603
237	0xbd415605	-0.047201175
238	0xbdcc2674	-0.09968272
239	0xbc885a28	-0.016644552
240	0x3f1e37c3	0.61803836
241	0xbef4685a	-0.47735864
242	0x3ef5f9c2	0.48042113
243	0xbf90b19c	-1.1304202
244	0xbe9ee1b3	-0.3103157
245	0xbe87fb49	-0.26558903
246	0x3d62f1b0	0.055406272
247	0xbe18034c	-0.14845008
248	0x3ea39dce	0.31956333
249	0x3e6a753b	0.22896282
250	0x3dc8b668	0.09800416
251	0xbd528f13	-0.051405977
252	0x3ea4722c	0.32118356
253	0xbf83ef6d	-1.0307442
254	0xbf00a722	-0.50255024
255	0x3e32c1db	0.17456762

gnn.convs.1.nn.lins.0.bias f4 [16]
0	0xbc9067c4	-0.017627604
1	0xbe08c6bd	-0.13357063
2	0x3f03f797	0.5154967
3	0x3e8b27f2	0.27178913
4	0xbf0de4a7	-0.5542702
5	0xbe946c65	-0.28988948
6	0xbedda935	-0.43293157
7	0xbe2fd6fb	-0.17171852
8	0xbd05f22c	-0.032701656
9	0xbe96ca51	-0.2945123
10	0xbe70e1e5	-0.23523672
11	0xbcb26a03	-0.021779066
12	0xbefdad82	-0.49546438
13	0xbea02506	-0.31278247
14	0x3f161f38	0.58641386
15	0xbdc4e113	-0.09613242

gnn.convs.1.nn.lins.1.weight f4 [16, 16]
0	0x3e110a79	0.14164151
1	0x3d1aa31e	0.037753217
2	0xbeab83b1	-0.3349891
3	0x3e3af80c	0.18258685
4	0x3d2cb216	0.042162023
5	0xbdb0769f	-0.08616375
6	0x3e0ffed9	0.1406206
7	0x3cfcbaa8	0.030850723
8	0x3d0facd8	0.035076946
9	0xbe1d5823	-0.15365653
10	0xbe895e17	-0.26829597
11	0x3db7905d	0.08963082
12	0x3db4bc9a	0.088250354
13	0xbcdfc5a9	-0.027315931
14	0xbd6b3f31	-0.05743331
15	0xbdb132fc	-0.086523026
16	0x3e82b0cd	0.25525513
17	0xbb94ec90	-0.004544802
18	0xbe94cd40	-0.29062843
19	0x3d3ea54f	0.04654437
20	0x3ef1f354	0.47255957
21	0xbe05d58a	-0.1306974
22	0xbce59f31	-0.02803001
23	0x3e95bbab	0.29244742
24	0x3e7bd625	0.24593408
25	0xbb9c3de0	-0.0047681183
26	0xbea20bb1	-0.31649545
27	0x3e1d7a02	0.15378574
28	0x3ddc1906	0.1074696
29	0x3d7a21fe	0.061067574
30	0xbf09d31a	-0.5383774
31	0xbeb2446e	-0.34817833
32	0xbe842c72	-0.2581516
33	0xbe832e94	-0.25621474
34	0xbdcf9d15	-0.10137383
35	0xbdd07b90	-0.10179818
36	0x3d237dca	0.039914884
37	0xbe7d2fa0	-0.24725199
38	0x3db638d3	0.08897557
39	0x3d0cbf80	0.034362316
40	0xbd6979ba	-0.057000853
41	0x3d0f8ae9	0.035044584
42	0xbe146904	-0.14493185
43	0x3d8a6c6e	0.067589626
44	0xbe5db48a	-0.21650901
45	0xbd600830	-0.05469531
46	0xbd9a9b2b	-0.07549127
47	0xbf15ec65	-0.58563834
48	0xbe370a1b	-0.17874949
49	0x3da7df5e	0.08196901
50	0xbe4f6a2b	-0.20255344
51	0x3d31078f	0.0432201
52	0x3d8b96fa	0.06815906
53	0x3e2ba848	0.16763413
54	0xbda79b38	-0.081839025
55	0xbe7958c2	-0.24350265
56	0xbcb7ac1f	-0.02242094
57	0xbe47957e	-0.1949062
58	0xbc331082	-0.010929229
59	0xbdef21cf	-0.1167637
60	0xbe715db0	-0.23570895
61	0xbdbb34db	-0.09140941
62	0xbcf6d350	-0.030130059
63	0xbe432faa	-0.19061151
64	0x3dc02688	0.09382349
65	0xbead2889	-0.33819988
66	0xbf001072	-0.50025094
67	0xbded2cd4	-0.11580816
68	0xbd877120	-0.06613374
69	0x3d02fb60	0.03197801
70	0xbeb1dcf3	-0.34738883
71	0x3e24e798	0.16103971
72	0xbe7769fe	-0.24161527
73	0xbae05a74	-0.0017116801
74	0xbccb715f	-0.024834333
75	0xbe018b96	-0.12650904
76	0xbe7e0012	-0.24804714
77	0x3e4ac2a8	0.19800818
78	0xbd998f45	-0.074980296
79	0xbeae4e72	-0.34044224
80	0xbd2a1706	-0.041525863
81	0x3dea4401	0.11438752
82	0xbe8d029c	-0.27541053
83	0xbdbbb1e4	-0.09164789
84	0x3d817ab8	0.06322235
85	0x3da6ce20	0.08144784
86	0xbcc37780	-0.023860693
87	0xbd3986b5	-0.045294482
88	0x3cd45028	0.025917128
89	0x3dae31ba	0.08505578
90	0xbe89f3fc	-0.26943958
91	0xbe97a601	-0.29618838
92	0xbd8a9b4c	-0.06767902
93	0xbe0b7a54	-0.13620883
94	0xbe1e0f77	-0.15435587
95	0xbd695003	-0.05696107
96	0xbd93ed9b	-0.07223054
97	0x3d0af6f4	0.03392692
98	0xbd907f3f	-0.0705552
99	0xbc749850	-0.014928892
100	0x3b4cfdd5	0.0031279225
101	0xbea093aa	-0.3136266
102	0xbe001d27	-0.1251112
103	0x3e7e65be	0.24843499
104	0xbe2a079a	-0.16604462
105	0xbd04fd73	-0.03246827
106	0xbe734d8d	-0.23760052
107	0xbba7c104	-0.005119445
108	0xbe82f002	-0.25573736
109	0x3e9b6e61	0.3035765
110	0x3dc6c22a	0.097050026
111	0xbe7c8a0a	-0.24662033
112	0x3e4254c8	0.18977654
113	0x3dc9c192	0.09851374
114	0x3ed21073	0.41028175
115	0x3d81522b	0.063145004
116	0x3d1f5528	0.03889957
117	0x3d6a2a76	0.0571694
118	0xbe532937	-0.20621191
119	0xbe2da7dd	-0.16958566
120	0x3eab6aac	0.33479822
121	0x3d4ff2b6	0.050768577
122	0xbf06f11e	-0.52711666
123	0x3eae3542	0.34025007
124	0xbc91a469	-0.017778592
125	0x3e6303a0	0.22169352
126	0xbf7887f0	-0.97082424
127	0x3eff1069	0.49817207
128	0xbe719ea2	-0.2359567
129	0xbe166a99	-0.14689101
130	0xbeaa56ef	-0.3326945
131	0xbce44bf4	-0.027868249
132	0xbdcd8b57	-0.100363426
133	0x3e1ead03	0.15495686
134	0xbec644bf	-0.38724324
135	0x3c13ea33	0.009028005
136	0xbcd2e76c	-0.025745116
137	0x3ed72381	0.42019275
138	0xbd9aabc5	-0.07552294
139	0xbd96c77d	-0.07362268
140	0xbe35fddb	-0.1777262
141	0x3ea84be6	0.32870406
142	0x3ec66588	0.38749337
143	0x3efb67ca	0.49102622
144	0x3e991180	0.29896164
145	0xbd16fba0	-0.036861062
146	0xbe790da6	-0.24321613
147	0x3e098a22	0.134316
148	0x3e91dd0a	0.28488952
149	0x3e10eecf	0.14153598
150	0xbdd57415	-0.104225315
151	0x3e8d4035	0.2758805
152	0x3eac6074	0.33667338
153	0xbdb3737b	-0.087622605
154	0xbe0b2e11	-0.13591792
155	0x3e68fe33	0.2275322
156	0x3e464a98	0.19364393
157	0xbc8670f6	-0.016411286
158	0xbec99ddf	-0.3937826
159	0x3ded647f	0.11591434
160	0x3c922545	0.017840037
161	0xbe7a0702	-0.24416736
162	0x3f0b7a74	0.54483724
163	0x3e9f2c3e	0.31088442
164	0xbd3064a6	-0.043064736
165	0xbca525c7	-0.020159615
166	0xbe1761e4	-0.14783436
167	0xbda955d3	-0.08268323
168	0x3d84ca52	0.06483902
169	0xbe8dd901	-0.27704623
170	0xbefc0931	-0.49225762
171	0xbc12a0c2	-0.00894946
172	0xbd97132d	-0.07376704
173	0xbcc92e65	-0.024558255
174	0xbe33f682	-0.17574504
175	0xbddf64db	-0.109079085
176	0xbe8c10ca	-0.2735656
177	0xbe4eb8a3	-0.20187621
178	0xbdf29a5e	-0.118458495
179	0x3c071552	0.008244829
180	0x3e8181b8	0.2529428
181	0xbe37fff8	-0.17968738
182	0x3e16cfc2	0.14727691
183	0xbdc44aed	-0.095846035
184	0xbdac7cb6	-0.08422224
185	0x3da9df7f	0.082945816
186	0xbe081d60	-0.13292456
187	0xbe90b203	-0.28260812
188	0xbece4604	-0.40287793
189	0x3e3fcbf1	0.18730141
190	0x3d709bd0	0.058742344
191	0xbe904e90	-0.28184938
192	0x3e771493	0.24128942
193	0x3b76ee54	0.0037678676
194	0x3ebc51c2	0.36781126
195	0x3dc31082	0.09524633
196	0x3ef9eabc	0.488119
197	0x3ddb4c48	0.10707909
198	0x3e6bd04b	0.23028676
199	0x3d8cc85f	0.06874155
200	0xbe1bf9c9	-0.15232004
201	0xbd107d71	-0.03527588
202	0xbe84b46f	-0.2591891
203	0x3ea352ef	0.3189921
204	0xbbc4de7d	-0.006007968
205	0x3d5e5f94	0.05429037
206	0xbf27ab53	-0.65495795
207	0x3ef994fe	0.48746485
208	0xbe86f9b6	-0.2636239
209	0xbdb12e3f	-0.08651399
210	0x3ca1d3f6	0.019754391
211	0xbe45c74f	-0.19314311
212	0xbefdecf5	-0.49594846
213	0xbe07ca76	-0.13260826
214	0xbf2fc3d9	-0.68658215
215	0x3e12cca5	0.14335878
216	0x3de66eb6	0.11251585
217	0xbdf74ccc	-0.12075195
218	0xbe724628	-0.23659575
219	0x3d06c9e3	0.032907378
220	0x3e1330ba	0.14374056
221	0x3ddcbe01	0.10778428
222	0x3e297ccd	0.16551514
223	0xbc293af6	-0.010328999
224	0xbe43a6f5	-0.19106658
225	0xbde38ec3	-0.11111214
226	0xbdd9df3b	-0.10638281
227	0xbe11cdb7	-0.1423863
228	0xbe7d0f46	-0.24712858
229	0xbcbbbd05	-0.02291728
230	0x3da964c1	0.082711704
231	0xbd70c728	-0.05878368
232	0x3c138180	0.009003043
233	0xbd06ce41	-0.032911543
234	0xbe90aa26	-0.28254813
235	0xbe76cd58	-0.2410177
236	0xbde3fc24	-0.111320764
237	0x3e52eff0	0.20599341
238	0xbe520195	-0.20508416
239	0xbdf2d833	-0.11857643
240	0xbd86fdf7	-0.06591409
241	0xbe3c6afc	-0.18400186
242	0xbe87b4c0	-0.2650509
243	0x3da89c5f	0.082329504
244	0xbce3012a	-0.027710516
245	0x3d6bdd0c	0.057583854
246	0x3ded73c6	0.11594348
247	0xbd851657	-0.064984016
248	0x3dc5e785	0.096632995
249	0x3e0ac5f3	0.13552074
250	0xbe2265b7	-0.15859114
251	0x3dca918a	0.098910406
252	0x3e7c0e95	0.24614938
253	0x3d219980	0.03945303
254	0xbef22bed	-0.47299138
255	0xbeab1ce5	-0.33420482

gnn.convs.1.nn.lins.1.bias f4 [16]
0	0xbc2b49f9	-0.010454648
1	0x3cb9e13b	0.022690406
2	0xbea44c70	-0.32089567
3	0xbe8697c8	-0.26287675
4	0xbeff1498	-0.498204
5	0xbd657a6e	-0.05602496
6	0xbe5c322d	-0.21503516
7	0x3e43c8cd	0.19119568
8	0x3d8a4929	0.067522354
9	0xbc818c24	-0.015813895
10	0x3e23645f	0.15956257
11	0xbe392c17	-0.18083225
12	0x3e0c316c	0.13690728
13	0xbec9dcb8	-0.39426208
14	0xbe78df4b	-0.2430393
15	0xbe93709c	-0.28796852

gnn.convs.2.nn.lins.0.weight f4 [16, 16]
0	0xbe152de5	-0.14568289
1	0x3d695212	0.056963034
2	0xbd211800	-0.03932953
3	0xbdbf1210	-0.09329617
4	0x3e62ed15	0.22160752
5	0x3e38866b	0.18020026
6	0x3d52b083	0.051437866
7	0xbe0c49aa	-0.13699976
8	0x3d0488c0	0.032356977
9	0xbdeaad57	-0.11458843
10	0xbe7baae4	-0.24576908
11	0x3e14c836	0.145295
12	0xbdfe1b72	-0.124075785
13	0xbd895272	-0.06705178
14	0xbe1407e2	-0.14456132
15	0x3d3cfcf5	0.046139676
16	0x3d29f122	0.041489728
17	0xbdae90e7	-0.08523732
18	0x3d583a14	0.052789763
19	0x3e4be49c	0.19911426
20	0x3e05e301	0.13074876
21	0x3c52641d	0.012841252
22	0xbd2e06e2	-0.042487033
23	0xbe376526	-0.17909679
24	0xbc28682e	-0.010278745
25	0x3dcccfa4	0.10000542
26	0x3dad6097	0.08465689
27	0x3e702e79	0.23455228
28	0xbe87ec28	-0.2654736
29	0x3ed01762	0.4064284
30	0xbdc56e8b	-0.09640225
31	0xbd898f4d	-0.067167856
32	0xbe0dc0ee	-0.13843128
33	0x3e5e3df8	0.21703327
34	0x3e3d6b04	0.18497854
35	0xbe5f25cd	-0.21791764
36	0xbedd4c8e	-0.4322247
37	0xbe1dbebe	-0.15404794
38	0xbd83e0c3	-0.06439354
39	0xbf0ba3c5	-0.5454677
40	0xbea60560	-0.32425976
41	0xbcb3a2a3	-0.021928137
42	0xbc734eeb	-0.0148503585
43	0xbd1f3f69	-0.038878832
44	0xbe075857	-0.13217293
45	0x3e4f2e48	0.20232499
46	0xbd0e9e6a	-0.034819044
47	0x3e1a0960	0.15042639
48	0x3e210687	0.15725146
49	0xbdd12731	-0.10212553
50	0x3e7c5b4d	0.24644203
51	0x3e03cbac	0.12870663
52	0xbeb10448	-0.3457358
53	0x3d7109bb	0.05884717
54	0xbdaff445	-0.085915126
55	0xbe84340e	-0.25820965
56	0xbec485c5	-0.38383308
57	0xbce0d634	-0.02744589
58	0xbd6cd965	-0.05782451
59	0xbda738b5	-0.08165113
60	0xbe4b7005	-0.19866951
61	0x3eb74870	0.35797453
62	0xbd99863e	-0.07496308
63	0x3ead747e	0.3387794
64	0x3c0e4d9a	0.008685494
65	0xbde07621	-0.10960031
66	0x3e9c41fb	0.3051909
67	0x3e39eb36	0.18156132
68	0xbdf7a339	-0.12091679
69	0xbe030dd4	-0.12798244
70	0x3e03e1cf	0.12879108
71	0xbd5a475b	-0.053290706
72	0xbe48e31a	-0.19617882
73	0xbe564b99	-0.20927276
74	0xbe51cd63	-0.20488505
75	0xbe5c6928	-0.21524489
76	0x3c2dd690	0.010610238
77	0xbe1df81a	-0.15426674
78	0xbdcc0358	-0.09961575
79	0x3e564251	0.20923735
80	0x3e1475be	0.1449804
81	0xbe124f87	-0.1428815
82	0xba96ef04	-0.0011515324
83	0x3e19c0b6	0.1501492
84	0xbe657d58	-0.22411096
85	0xbc7531f9	-0.014965528
86	0xbdfa42ca	-0.1221977
87	0xbb7919bf	-0.003800973
88	0xbe6ddbef	-0.2322843
89	0xbc0e7fba	-0.008697445
90	0xbe0860e2	-0.13318208
91	0xbd822a8d	-0.06355772
92	0xbe7c4057	-0.24633919
93	0xbe1824a7	-0.14857732
94	0xbe385681	-0.18001749
95	0xbc68f41f	-0.014218359
96	0xbe226cd8	-0.15861833
97	0xbe873597	-0.26408073
98	0x3dc23b1e	0.09483932
99	0x3df36ea2	0.11886336
100	0xbe68390d	-0.22678013
101	0xbcf5dc59	-0.030012297
102	0xbdc8727f	-0.097874634
103	0xbea4e46f	-0.3220553
104	0xbe694490	-0.22780061
105	0xbf17e525	-0.5933402
106	0x3e4f30b7	0.20233427
107	0xbe20e73e	-0.15713212
108	0xbe3314a9	-0.1748835
109	0x3e24a295	0.16077645
110	0x3e9972ab	0.29970297
111	0xbed02644	-0.40654194
112	0xbd1d18e5	-0.03835382
113	0x3eaa311b	0.3324059
114	0xbf0022b6	-0.50052965
115	0x3c26ee1d	0.010188607
116	0xbe82783a	-0.2548235
117	0x3e406e48	0.18792069
118	0xbd9c2bdb	-0.07625552
119	0xbf2d7ee3	-0.6777174
120	0xbda04cac	-0.07827124
121	0x3ea25ff5	0.31713834
122	0xbd924e5e	-0.071438536
123	0xbeee1386	-0.4649927
124	0x3e04664e	0.12929651
125	0xbf144ee2	-0.57932866
126	0xbefd918a	-0.495251
127	0xbd3fe2a5	-0.046847004
128	0x3de1cc68	0.110253155
129	0xbdb6cf89	-0.08926303
130	0x3dc1be99	0.09460182
131	0xbd9629d8	-0.073322
132	0xbec048f4	-0.3755566
133	0x3d76d945	0.060265798
134	0x3d5ca0cd	0.05386429
135	0xbeb02a64	-0.3440734
136	0x3d5cf100	0.053940773
137	0xbe71d492	-0.23616245
138	0xbd94e018	-0.07269305
139	0x3e1331f0	0.14374518
140	0xbe9a1dde	-0.30100912
141	0xbe744478	-0.23854244
142	0x3d88af29	0.06674034
143	0x3e1ebd2b	0.1550185
144	0xbd0d5b63	-0.03451098
145	0x3e9240fa	0.28565198
146	0xbcd03a0a	-0.0254183
147	0xbe4f9009	-0.20269789
148	0xbb8b8c6b	-0.0042586825
149	0x3d44144f	0.04787093
150	0x3e7ac5d8	0.24489534
151	0xbe8f07fc	-0.2793578
152	0xbd54f25e	-0.05198895
153	0xbdda8c38	-0.10671276
154	0x3e134d5e	0.14384982
155	0x3d32f0c7	0.043686654
156	0x3eacbc41	0.33737376
157	0xbc080b0a	-0.008303413
158	0xbe1b0d95	-0.151419
159	0xbc84a731	-0.016193004
160	0xbe1fdc6c	-0.15611428
161	0x3c1f44d9	0.009721004
162	0xbe47c463	-0.1950851
163	0xbc33d44d	-0.010975909
164	0xbea56653	-0.3230463
165	0xbdb02fb2	-0.08602847
166	0xbbd582e6	-0.0065158485
167	0x3e2f08fa	0.17093268
168	0xbe9f289c	-0.3108567
169	0x3e48e3be	0.19618127
170	0xbddb0420	-0.10694146
171	0x3d0eb1bd	0.034837473
172	0xbe8ad5de	-0.27116293
173	0xbea6dbb2	-0.3258949
174	0xbdd2fbce	-0.10301934
175	0xbde54fcd	-0.111968614
176	0x3e122240	0.14270878
177	0x3ecab3ea	0.3959039
178	0xbe70bb11	-0.2350886
179	0xbdab7078	-0.08371061
180	0xbe88e80b	-0.26739535
181	0xbdd731c3	-0.10507538
182	0x3e18f02c	0.14935368
183	0xbe27ef2d	-0.16399832
184	0xbf043284	-0.5163958
185	0x3c8f7249	0.01751055
186	0x3e8120f0	0.25220442
187	0xbc14249c	-0.0090419315
188	0x3e857348	0.26064515
189	0x3dcbe9c5	0.099566974
190	0xbe108899	-0.14114608
191	0x3e7e4db8	0.24834335
192	0x3bae9409	0.0053277058
193	0xbd3862fe	-0.04501628
194	0xbe3bb18b	-0.18329446
195	0x3e3a03fb	0.18165581
196	0x3dca1250	0.09866774
197	0x3ea3ce83	0.31993493
198	0x3d283826	0.041069172
199	0xbecde119	-0.40210798
200	0xbe264bfc	-0.16239923
201	0x3e0fa7ce	0.14028856
202	0x3b90fbe0	0.004424557
203	0x3e679a3c	0.2261743
204	0xbbb5fc57	-0.005553763
205	0xbe90ece6	-0.2830574
206	0xbe5b9dec	-0.21446961
207	0xbe479eb2	-0.19494131
208	0xbd54fbbc	-0.051997885
209	0xbdf9ffe7	-0.122070126
210	0xbd6bfcd3	-0.05761416
211	0x3dd90b79	0.10597891
212	0x3e3f1fb6	0.1866444
213	0xbd9f74ef	-0.07785975
214	0x3e281066	0.16412506
215	0xbe144aa2	-0.14481595
216	0xbe827b58	-0.2548473
217	0x3db9e733	0.09077301
218	0xbe25dfca	-0.1619865
219	0xbd850dbe	-0.06496762
220	0xbec2ebc7	-0.3807051
221	0x3dda3e1e	0.10656379
222	0x3e9ee0c2	0.31030852
223	0x3e8c1481	0.27359393
224	0x3d374846	0.04474666
225	0xbe298877	-0.16555963
226	0x3e6437c6	0.22286901
227	0xbe5a2b67	-0.21305619
228	0x3d80fac7	0.06297832
229	0xbe039319	-0.12849082
230	0x3e45d2c2	0.19318679
231	0xbe3aba0b	-0.18235032
232	0xbe9d38e6	-0.30707473
233	0x3dd09939	0.10185475
234	0xbd6f4805	-0.058418293
235	0xbd97a9cc	-0.07405433
236	0xbeaa80d6	-0.3330142
237	0xbdb37083	-0.08761694
238	0x3e111f67	0.14172135
239	0x3b8eec0b	0.0043616346
240	0xbe1a2a45	-0.15055187
241	0xbde53127	-0.11191016
242	0x3e2c3289	0.16816153
243	0xbd819177	-0.06326573
244	0xbe2d0eb2	-0.16900137
245	0x3e95feb4	0.29295886
246	0xbe75fe1b	-0.24022715
247	0x3dcdddda	0.100520805
248	0xbe98ddea	-0.29856807
249	0xbdc6f022	-0.097137704
250	0xbe7a6057	-0.24450813
251	0x3e4577a4	0.1928392
252	0xbe6927b4	-0.22769052
253	0xbe11426c	-0.14185494
254	0x3e33a7a4	0.17544419
255	0xbd85ef64	-0.06539801

gnn.convs.2.nn.lins.0.bias f4 [16]
0	0x3e722353	0.23646288
1	0x3be0340b	0.0068421415
2	0xbdff14d5	-0.12455145
3	0x3d91eff0	0.071258426
4	0xbe857dec	-0.26072633
5	0xbdcd023f	-0.10010194
6	0xbdb9dcca	-0.09075315
7	0xbf456151	-0.7710162
8	0x3e9e472e	0.3091368
9	0xbda5f8ea	-0.08104117
10	0xbdc2da7d	-0.095143296
11	0xbc542575	-0.012948384
12	0xbe9a2ff9	-0.30114725
13	0x3daf1f2c	0.085508674
14	0xbd5ea2f5	-0.054354627
15	0xbdee56ae	-0.116376266

gnn.convs.2.nn.lins.1.weight f4 [16, 16]
0	0xbd2cbaf9	-0.0421705
1	0xbe86a9bc	-0.26301372
2	0xbed1a6bd	-0.40947524
3	0xbe2651a3	-0.1624208
4	0xbdc9211f	-0.098207705
5	0xbde05ed9	-0.10955591
6	0x3da98211	0.08276761
7	0xbe926b44	-0.28597462
8	0xbdfaa7a0	-0.12239003
9	0xbed060c1	-0.40698817
10	0xbdfd1d0c	-0.12359056
11	0x3cf75672	0.030192588
12	0x3d200b71	0.03907341
13	0x3e224c42	0.15849403
14	0x3cefc3fe	0.029268261
15	0x3e2b234f	0.16712688
16	0xbe17304c	-0.14764518
17	0xbe60aee5	-0.21941717
18	0xbcd4b1d7	-0.025963707
19	0x3e85810f	0.26075026
20	0x3de08c33	0.10964241
21	0x3dcb9626	0.09940748
22	0x3e33db86	0.1756421
23	0xbeb4d5a5	-0.35319248
24	0xbda7ef48	-0.08199936
25	0x3e060448	0.1308757
26	0x3e5b1141	0.213933
27	0x3e18a312	0.14905956
28	0xbe476f15	-0.19475968
29	0x3e49594c	0.1966297
30	0x3d55dfe3	0.05221547
31	0xbd3d51fc	-0.046220765
32	0xbdd05d0a	-0.10173996
33	0xbe76af5a	-0.24090329
34	0xbe9c1881	-0.30487445
35	0xbc4a47d4	-0.012346227
36	0xbdeed00d	-0.11660776
37	0x3e10a86d	0.1412675
38	0xbdb4d1b7	-0.088290624
39	0xbe264cce	-0.16240236
40	0x3e03f2bc	0.12885565
41	0xbe6772dd	-0.2260241
42	0xbde7ff73	-0.1132802
43	0x3d26b079	0.04069564
44	0x3e11f0e6	0.14252052
45	0x3e3b5d75	0.1829737
46	0x3d4b9ffe	0.049713127
47	0xbdfb905a	-0.12283392
48	0xbeaa41fc	-0.33253467
49	0xbdf9b7ea	-0.12193282
50	0xbcbd5051	-0.023109587
51	0x3e3ef3bb	0.18647663
52	0x3d8a32a8	0.06747943
53	0x3d44e334	0.04806824
54	0xbe59f71c	-0.21285671
55	0xbd6dd401	-0.05806351
56	0xbdce9183	-0.10086348
57	0x3d1e8cb9	0.038708422
58	0xbe5a03a6	-0.21290454
59	0xbe548973	-0.20755558
60	0xbe5f3abb	-0.21799748
61	0xbe42d45e	-0.19026324
62	0xbe5e5c84	-0.2171498
63	0xbe65cd04	-0.22441489
64	0x3d401e7c	0.046904072
65	0xbdcb1c21	-0.099174745
66	0xbdb47e1b	-0.08813115
67	0xbe451ffd	-0.19250484
68	0xbe25dbfe	-0.16197202
69	0xbe1a86f0	-0.15090537
70	0xbe8cf623	-0.27531537
71	0x3ec18097	0.3779342
72	0xbe042f27	-0.12908612
73	0x3e5558ec	0.20834702
74	0x3de9e2a6	0.11420183
75	0x3e231af6	0.15928254
76	0x3ea832b8	0.32851195
77	0xbde7f076	-0.11325161
78	0xbd8e9ca5	-0.06963471
79	0x3e7c547c	0.24641603
80	0x3dd8f414	0.10593429
81	0xbe1388d8	-0.1440767
82	0xbdfd30b5	-0.12362806
83	0xbd9c60bf	-0.0763564
84	0x3c0460c3	0.00807971
85	0x3d892863	0.06697156
86	0x3b80e20c	0.003933197
87	0x3da882b0	0.08228052
88	0x3e1c7c57	0.15281807
89	0xbda55acd	-0.080739595
90	0xbe8ede61	-0.27904037
91	0xbcf6fa18	-0.03014855
92	0xbdb524ce	-0.088449106
93	0x3e6c7a8c	0.23093623
94	0xbde0dd18	-0.1097967
95	0xbe4bf8ca	-0.19919124
96	0xbdc31fbf	-0.095275395
97	0x3dbb4e23	0.09145763
98	0x3ea86c2f	0.32895038
99	0xbe203860	-0.15646505
100	0xbdbea4f1	-0.09308804
101	0xbacb528d	-0.0015512273
102	0x3ebe268d	0.37138787
103	0x3d221013	0.03956611
104	0x3ca4dbba	0.020124305
105	0x3d91ee45	0.071255244
106	0xbd9facf7	-0.07796662
107	0xbe84db26	-0.25948447
108	0xbc0b016c	-0.008484226
109	0x3e38b6e4	0.18038517
110	0xbe0816be	-0.13289925
111	0x3d490ec4	0.049086347
112	0xbb214a74	-0.0024611028
113	0xbd283861	-0.041069392
114	0x3e867e76	0.26268357
115	0x3d7400d4	0.059571102
116	0xbd3e0a8b	-0.046396773
117	0xbdb15cf4	-0.086603075
118	0x3e0a1cc0	0.1348753
119	0xbeeaa214	-0.4582678
120	0xbe8a9461	-0.2706633
121	0xbe6f2558	-0.2335409
122	0x3c5fd8d4	0.013662536
123	0x3db6cffb	0.08926388
124	0x3e3271c1	0.17426206
125	0xbd59804e	-0.053100877
126	0x3aaab6be	0.0013024432
127	0x3e7ac240	0.24488163
128	0xbda3632f	-0.07977902
129	0xbe51fee3	-0.20507388
130	0x3e09d151	0.13458754
131	0xbe0bfa11	-0.13669612
132	0x3e7f9678	0.24959743
133	0x3e64f66e	0.2235963
134	0x3ca160ef	0.019699542
135	0x3beec323	0.0072864457
136	0x3d915953	0.07097115
137	0xbe89d0c6	-0.26917094
138	0xbe63c5f1	-0.22243477
139	0xbb0cdd0d	-0.0021494061
140	0xbdb66b2e	-0.08907162
141	0xbea46321	-0.3210688
142	0xbe75c889	-0.2400228
143	0xbdaf8075	-0.08569423
144	0xbd527c2e	-0.05138796
145	0xbe8d6a9b	-0.27620396
146	0x3d150e60	0.036390662
147	0x3e2537ca	0.16134563
148	0xbd88a063	-0.06671216
149	0x3d94a3a6	0.07257776
150	0x3e25bdc6	0.16185674
151	0x3d30c9da	0.04316125
152	0xbdbb1836	-0.09135477
153	0xbbd7e73c	-0.0065888446
154	0x3e142d5b	0.14470427
155	0xbe947490	-0.2899518
156	0x3d57cc2a	0.05268494
157	0xbcfafa81	-0.030637028
158	0xbe90f413	-0.28311214
159	0x3e3219d7	0.1739267
160	0xbe1f03e8	-0.15528834
161	0xbea53d7f	-0.3227348
162	0xbdb058e4	-0.086107045
163	0xbe421c62	-0.1895614
164	0x3df6208b	0.12017926
165	0xbdc00b77	-0.09377187
166	0xbe5f831b	-0.21827357
167	0xbe5bb353	-0.21455126
168	0xbe28415c	-0.16431183
169	0xbba59ba8	-0.005053956
170	0x3e2e5c8a	0.17027488
171	0xbe8a0681	-0.26958087
172	0x3e0b6986	0.13614473
173	0x3e303861	0.17209007
174	0x3e53fe7c	0.20702547
175	0x3d607d19	0.054806802
176	0xbe028f2f	-0.12749933
177	0xbda9acdb	-0.08284923
178	0xbd8364bb	-0.06415697
179	0xbe75df9c	-0.24011081
180	0x3d8f2027	0.069885544
181	0xbe583d1d	-0.21117063
182	0x3cbaf439	0.022821533
183	0xbe723d66	-0.23656234
184	0x3c41af47	0.0118215745
185	0x3d9e420d	0.07727442
186	0xbe7467bb	-0.23867695
187	0xbdf9e039	-0.1220097
188	0xbd91f3e2	-0.07126595
189	0xbe68f607	-0.22750102
190	0x3d48713d	0.048936117
191	0xbe9d90b4	-0.30774462
192	0xbe9bea87	-0.30452368
193	0x3dab53e0	0.08365607
194	0xbe3f2cb8	-0.18669403
195	0xbe3c2427	-0.18373166
196	0xbea15ac3	-0.31514558
197	0xbdca7c44	-0.09886983
198	0xbdd14b72	-0.10219468
199	0x3efb5495	0.49087968
200	0xbd9e36ae	-0.07725273
201	0x3cc5663a	0.024096597
202	0xbed863c1	-0.42263606
203	0xbe5a53d0	-0.21321034
204	0xbe2a9366	-0.1665779
205	0xbe89144e	-0.26773304
206	0xbea94ced	-0.33066502
207	0xbdaaeb86	-0.08345704
208	0xbee8f899	-0.45502165
209	0x3e02ea79	0.12784757
210	0xbe285927	-0.16440259
211	0x3943cf4b	0.00018673872
212	0xbcad31fc	-0.021141998
213	0xbdb6cb65	-0.08925513
214	0x3e4e3647	0.20137893
215	0x3e8947ae	0.268125
216	0xbe0b0ee7	-0.13579904
217	0x3d8e69f7	0.06953805
218	0xbd38427a	-0.044985272
219	0xbe8f08b6	-0.27936333
220	0xbe1c5a0d	-0.15268727
221	0xbdb8c27b	-0.09021469
222	0x3d147271	0.036241952
223	0xbddc783b	-0.1076512
224	0xbd4b0953	-0.04956944
225	0xbc433496	-0.011914393
226	0xbeb0db61	-0.34542373
227	0x3e0638df	0.13107632
228	0xbd02bbba	-0.03191731
229	0x3e5acfed	0.2136838
230	0x3ec78014	0.38964903
231	0xbe43c2cf	-0.19117282
232	0x3d708aa0	0.058725953
233	0xbf07b70a	-0.5301367
234	0x3df8b17f	0.1214323
235	0xbed9785f	-0.42474648
236	0xbeaadad1	-0.3337007
237	0xbe60a97b	-0.21939652
238	0xbe64399e	-0.22287604
239	0xbcda7fff	-0.026672361
240	0xbe8384a0	-0.25687122
241	0xbd04439c	-0.03229104
242	0xbd21d1bd	-0.039506663
243	0xbd5f2541	-0.054478887
244	0xbe8ce2af	-0.27516696
245	0xbd9a16fc	-0.07523915
246	0x3e11f5eb	0.14253967
247	0xbd0783ce	-0.033084683
248	0xbecb6a2d	-0.39729443
249	0x3e1206cf	0.1426041
250	0xbd30b92f	-0.043145355
251	0x3e9cf53b	0.30655846
252	0xbdd06ba9	-0.101767845
253	0x3bc92b3b	0.0061391867
254	0xbd8d3198	-0.06894225
255	0xbddabc94	-0.106805

gnn.convs.2.nn.lins.1.bias f4 [16]
0	0xbe255c62	-0.16148522
1	0x3e1cec69	0.15324558
2	0xbe3c1040	-0.18365574
3	0xbcd9b17d	-0.02657389
4	0x3e4ea8d3	0.20181589
5	0xbe0622eb	-0.13099258
6	0xbdbe85b1	-0.09302843
7	0x3d88ac59	0.06673498
8	0xbe3e14ab	-0.18562572
9	0xbd8122c1	-0.06305457
10	0x3dfdd9d6	0.123950645
11	0xbe0d6150	-0.13806653
12	0xbd5ed63c	-0.05440353
13	0x3cc9ea44	0.02464784
14	0xbefd4045	-0.49463096
15	0x3e1338d2	0.14377144

gnn.convs.3.nn.lins.0.weight f4 [16, 16]
0	0xbe1d7f84	-0.15380675
1	0xbeb23819	-0.34808424
2	0xbe611736	-0.2198151
3	0xbd394c48	-0.045238763
4	0xbeb245e4	-0.34818947
5	0x3d10b65e	0.03533017
6	0xbe7dc462	-0.24781945
7	0xbe62f5e6	-0.22164115
8	0x3dddc804	0.108291656
9	0xbe71a386	-0.23597535
10	0xbe4571d7	-0.19281708
11	0x3bf10e8a	0.0073564695
12	0xbd861190	-0.065463185
13	0xbe447d70	-0.19188476
14	0xbc294d20	-0.010333329
15	0xbdf79611	-0.1208917
16	0x3e6db53a	0.23213664
17	0xbf0a543d	-0.5403479
18	0xbe52039d	-0.20509191
19	0x3e2ebe3a	0.17064753
20	0xbea4d51d	-0.32193843
21	0xbe6f8ce4	-0.2339359
22	0x3d1282e9	0.035769377
23	0xbdd8f805	-0.10594181
24	0xbe10a3ca	-0.1412498
25	0xbd9290b3	-0.071565054
26	0x3ca30b22	0.01990277
27	0xbc0850b7	-0.008320025
28	0x3d5d757c	0.05406712
29	0xbd6f6d07	-0.058453586
30	0xbee2aa7a	-0.44270688
31	0xbdecec60	-0.115685225
32	0xbe4c9169	-0.19977345
33	0xbd161495	-0.036640722
34	0xbe084c46	-0.13310346
35	0xbd51abfc	-0.051189408
36	0xbd210a15	-0.039316256
37	0x3c9e47cb	0.019321343
38	0x3d309b39	0.04311678
39	0xbe44d579	-0.19222058
40	0xbde3f99b	-0.11131593
41	0x3e14ee8d	0.14544125
42	0xbdafc0a8	-0.08581668
43	0x3e328497	0.17433392
44	0xbe0054e9	-0.1253239
45	0xbe35bded	-0.17748232
46	0x3ea6615b	0.3249615
47	0xbe5f5ffd	-0.2181396
48	0x3d950a7c	0.0727739
49	0xbeeec636	-0.46635598
50	0xbb9f4a48	-0.00486115
51	0x3e0a57c8	0.13510048
52	0x3dc5f0c4	0.09665063
53	0xbecdab0b	-0.40169558
54	0xbd8f5f11	-0.07000554
55	0xbe6c7e76	-0.23095116
56	0xbe89a3e1	-0.26882842
57	0xbe995549	-0.2994788
58	0xbdf5ea1f	-0.12007546
59	0xbde3eee5	-0.1112955
60	0x3dce2e5f	0.10067438
61	0xbd24b3e6	-0.040210627
62	0xbe00ed8a	-0.12590614
63	0xbe78e5e2	-0.24306443
64	0x3e296e59	0.16546
65	0x3e84ba92	0.25923592
66	0x3d7b6e40	0.06138444
67	0xbe3e3d17	-0.18577991
68	0xbe7a2c7c	-0.24431032
69	0x3e96ffac	0.29491937
70	0x3e6b8ee1	0.23003723
71	0xbe89fd55	-0.2695109
72	0x3cfd6a93	0.030934608
73	0x3c04f7bd	0.008115706
74	0xbe3eaf4c	-0.18621558
75	0x3d33c2f4	0.043887094
76	0x3e05133c	0.12995619
77	0x3e76a054	0.24084598
78	0xbec77fd0	-0.389647
79	0xbf0b4cf3	-0.5441429
80	0x3da9b4fb	0.082864724
81	0xbd72bfe6	-0.05926504
82	0xbe1b5569	-0.151693
83	0xbe2af39f	-0.16694497
84	0x3daa7906	0.08323865
85	0x3d84b6eb	0.06480201
86	0xbe8f1f8f	-0.27953765
87	0xbd7fab03	-0.06241895
88	0xbc8e4915	-0.017368833
89	0xbe620cf3	-0.22075252
90	0xbea7350d	-0.32657662
91	0xbe2137b7	-0.1574391
92	0x3d074935	0.0330288
93	0x3d5bf3af	0.05369919
94	0x3e4f2042	0.20227149
95	0xbe989764	-0.29803002
96	0xbe977ce7	-0.2958748
97	0xbe56d763	-0.20980601
98	0xbdc073aa	-0.09397061
99	0x3d6a58c8	0.057213575
100	0x3e05e054	0.13073856
101	0xbe3d8410	-0.18507409
102	0x3e55c276	0.20874962
103	0xbe88f4b6	-0.267492
104	0x3caa6d52	0.020804081
105	0xbe5a48ba	-0.21316805
106	0xbe7a6e88	-0.24456227
107	0xbe852ca9	-0.26010635
108	0xbda4eec2	-0.08053352
109	0xbeaa41f8	-0.33253455
110	0xbcf22a9b	-0.029561331
111	0xbe704871	-0.23465134
112	0x3e08bab6	0.13352475
113	0xbe81c5c3	-0.25346193
114	0x3c629c7e	0.013831256
115	0x3dcb2611	0.0991937
116	0xbe8bb87b	-0.27289185
117	0xbd26de9b	-0.040739637
118	0xbc01598b	-0.007894884
119	0xbe87340c	-0.26406896
120	0xbe6558f3	-0.22397213
121	0xbd949fbb	-0.07257029
122	0xbe8263ce	-0.2546677
123	0xbe1a07c3	-0.15042023
124	0x3e6a7b78	0.22898662
125	0xbe3a3ef6	-0.1818808
126	0xbdad42a0	-0.08459973
127	0xbe262e14	-0.16228515
128	0x3e5443d9	0.20729007
129	0xbe855a12	-0.2604528
130	0xbe2b0713	-0.16701917
131	0xbe0f9ead	-0.14025374
132	0xbe3e0ce4	-0.18559605
133	0x3ce385d2	0.027773771
134	0x3e3d7044	0.18499857
135	0xbde15978	-0.11003393
136	0xbe5a0f63	-0.21294932
137	0xbdc62520	-0.0967505
138	0x3db8808f	0.090088956
139	0xbc1cd403	-0.009572032
140	0xbea96b54	-0.33089697
141	0xbd342df7	-0.043989148
142	0x3daecaeb	0.08534797
143	0xbdbf454c	-0.09339389
144	0xbdb09a1e	-0.086231455
145	0xbe2932b4	-0.16523248
146	0x3d88849b	0.066659175
147	0xbe0c9354	-0.13728076
148	0xbea9861e	-0.33110136
149	0xbd30fa1c	-0.043207273
150	0xbe94b8ad	-0.29047146
151	0xbeb4d979	-0.35322168
152	0x3e1bbb88	0.15208256
153	0xbdf4743c	-0.119362324
154	0xbd88efee	-0.06686388
155	0x3d1b3736	0.03789445
156	0xbe3ceea0	-0.18450403
157	0xbeb2106b	-0.3477815
158	0x3d907f20	0.07055497
159	0xbe591598	-0.21199644
160	0xbdda1a01	-0.10649491
161	0x3db3b3a1	0.08774496
162	0x3dc82cff	0.09774207
163	0x3e39a62a	0.18129793
164	0xbe170526	-0.14748058
165	0xbe088f7a	-0.13335982
166	0x3d66a2f4	0.056307748
167	0xbd19d899	-0.03756008
168	0x3cba9c8f	0.022779731
169	0xbcb10b7b	-0.02161192
170	0xbd1893ab	-0.037250202
171	0x3d435848	0.047691613
172	0xbe05c8f8	-0.13064945
173	0x3dc08774	0.09400836
174	0x3d660b07	0.05616286
175	0xbe04ecda	-0.12980977
176	0xbd8acfd0	-0.06777918
177	0x3dfd50ab	0.12368902
178	0x3e500cdd	0.20317407
179	0x3d03a0cb	0.032135766
180	0x3e1fa09d	0.15588613
181	0xbea81c4e	-0.32834095
182	0x3dc81239	0.09769101
183	0xbe8f07af	-0.2793555
184	0xbe4a9070	-0.19781661
185	0xbe2553df	-0.16145276
186	0xbe19ea3b	-0.15030758
187	0x3e67b5e1	0.22627975
188	0x3e43d920	0.19125795
189	0x3e467903	0.193821
190	0xbd892e08	-0.06698233
191	0x3ec80209	0.39064053
192	0xbc53b9c8	-0.012922712
193	0xbd4caaf7	-0.049967732
194	0xbe21d9fa	-0.15805808
195	0x3e212633	0.15737228
196	0xbe23e47c	-0.16005129
197	0xbe1402ca	-0.14454189
198	0x3e15a759	0.1461462
199	0x3c86ac9b	0.016439727
200	0x3de0f11a	0.109834865
201	0x3d917781	0.07102872
202	0xbe7dc7b7	-0.24783216
203	0x3e4bd094	0.19903785
204	0x3e34036d	0.17579432
205	0xbe314409	-0.1731111
206	0xbec0ece9	-0.37680748
207	0xbdda3b11	-0.10655797
208	0xbd2fa974	-0.042886212
209	0xbe50a9dd	-0.20377298
210	0xbe5fdf60	-0.21862555
211	0x3cf23d02	0.029570106
212	0xbd915783	-0.0709677
213	0xbe936e97	-0.2879531
214	0x3e3d679a	0.18496552
215	0xbe8de260	-0.27711773
216	0xbdbb0d4a	-0.09133394
217	0xbcaf071c	-0.021365695
218	0xbea39aed	-0.31954136
219	0xbe8d08f5	-0.27545896
220	0x3d0755e5	0.0330409
221	0xbe8917bb	-0.26775917
222	0x3a39518f	0.0007069343
223	0xbf12086e	-0.5704411
224	0xbdf2beff	-0.11852836
225	0xbdc49286	-0.0959826
226	0xbe6e2025	-0.2325445
227	0x3d48b9f7	0.049005475
228	0x3d4c16b1	0.049826328
229	0xbc98cf19	-0.01865344
230	0xbd587973	-0.052850198
231	0xbd1dca75	-0.038523156
232	0x3dc78411	0.097419865
233	0xbd91cf8d	-0.07119665
234	0x3d53041d	0.051517595
235	0xbe20243a	-0.1563882
236	0xbe0dbd9e	-0.13841864
237	0x3e7671d8	0.24066865
238	0x3e3de46f	0.18544172
239	0xbdb28f4b	-0.08718737
240	0xbe378054	-0.17920047
241	0x3d7e26f4	0.062048867
242	0x3dc9f1d0	0.09860575
243	0x3dd9a21c	0.10626623
244	0x3d763f2d	0.060118843
245	0x3da35377	0.07974904
246	0xbe8c0c97	-0.27353355
247	0x3c15a48c	0.009133469
248	0x3e10d000	0.14141846
249	0xbd03f8bb	-0.03221963
250	0xbe6afa7e	-0.22947118
251	0xbeb00318	-0.3437736
252	0xbd2e6d7c	-0.04258488
253	0xbdf3fcee	-0.11913477
254	0x3e9af379	0.3026388
255	0xbe7bda90	-0.24595094

gnn.convs.3.nn.lins.0.bias f4 [16]
0	0xbed2d586	-0.4117853
1	0xbebc3182	-0.3675652
2	0x3e271c40	0.1631937
3	0xba30d72c	-0.00067459303
4	0xbd93df8f	-0.07220375
5	0x3d605a34	0.054773524
6	0xbee1ce89	-0.44102886
7	0xbe024829	-0.1272284
8	0xbcb4d82c	-0.022075735
9	0xbec2c9a1	-0.38044456
10	0x3d39f487	0.045399215
11	0xbe67aac8	-0.22623742
12	0xbe0848b9	-0.13308991
13	0x3e3d3100	0.18475723
14	0xbdcb1e1a	-0.09917851
15	0xbe39f147	-0.18158446
