Run_GIN_ModelCheckpoint_EvFr_2/NCI1_reps_2_folds_5_epochs_20_2023-04-26_11-05/rep_0_fold_1/checkpoints/model_trial_7.ckpt (torch, 245261 bytes, 86 tensors)

gnn.convs.0.nn.lins.0.weight f4 [32, 37]
0	0x3da8ad87	0.08236223
1	0x3e4ffa2d	0.20310278
2	0xbe08c327	-0.13355695
3	0x3e67904e	0.22613642
4	0xbdac920d	-0.084262945
5	0xbdb3e0c6	-0.087831065
6	0x3d986d74	0.074427515
7	0xbc956b03	-0.018239504
8	0x3dd94e73	0.10610666
9	0xbda3c36d	-0.07996259
10	0xbdd7d049	-0.10537774
11	0x3d7c178f	0.061545905
12	0xbd8e437b	-0.06946465
13	0x3bde2669	0.006779481
14	0xbcee1129	-0.029060917
15	0xbdb9db88	-0.090750754
16	0x3d1f2ad2	0.038859196
17	0xbdde99b4	-0.1086916
18	0xbdd5b18d	-0.10434256
19	0x3d93680a	0.07197578
20	0xbd6472cd	-0.055773545
21	0x3f04c5cd	0.5186432
22	0xbdc9ab58	-0.09847134
23	0xbd812cb0	-0.063073516
24	0xbda909ad	-0.08253799
25	0x3e43121e	0.1904988
26	0xbe0c7f83	-0.13720517
27	0xbcdae804	-0.026721962
28	0x3e2418d7	0.160251
29	0xbe0afe06	-0.13573465
30	0xbd83b601	-0.06431199
31	0x3e05bb2b	0.1305968
32	0x3e15abb8	0.14616287
33	0x3e3dc0ab	0.18530528
34	0x3da069db	0.0783269
35	0x390853ee	0.00013001237
36	0xbd8b0e58	-0.06789845
37	0x3e347c8c	0.17625636
38	0xbe268074	-0.16259938
39	0x3d8c2622	0.06843211
40	0xbdfc4c68	-0.12319261
41	0xbc9d6bdd	-0.019216472
42	0xbddc5759	-0.10758848
43	0xbc80c5cf	-0.015719322
44	0x3d17fc6e	0.03710597
45	0x3eb172ab	0.34657797
46	0x3d89f9c7	0.06737094
47	0xbdb40f1f	-0.087919466
48	0xbced1fb5	-0.028945783
49	0xbda80ba6	-0.08205347
50	0x3e36d437	0.17854391
51	0x3e4a6bae	0.19767639
52	0xbd5afeba	-0.053465582
53	0x3d513adf	0.051081534
54	0x3da6bf5b	0.08141967
55	0x3dce4ca1	0.100732096
56	0x3e7655fc	0.24056238
57	0xbdb0be2d	-0.08630023
58	0xbe85b9fe	-0.26118463
59	0x3e1aa245	0.15100963
60	0x3dd0d199	0.101962276
61	0xbd98a3c2	-0.07453109
62	0xbd8e0b99	-0.06935806
63	0x3e7ebd2d	0.24876852
64	0xbde33add	-0.11095212
65	0xbdfe310b	-0.12411698
66	0xbd1dd712	-0.038535185
67	0x3d559edf	0.052153464
68	0x3af64f8f	0.0018792021
69	0x3db0c1ab	0.08630689
70	0xbe23f58c	-0.16011637
71	0xbd66bd41	-0.05633283
72	0xbd08fce4	-0.0334443
73	0x3da86e86	0.08224206
74	0x3d7e5ceb	0.062100332
75	0xbe348a5a	-0.17630902
76	0x3e1ea8c6	0.1549407
77	0xbeed6336	-0.46364754
78	0xbdccd133	-0.10000839
79	0x3e0dc51b	0.13844721
80	0xbdd4da8b	-0.10393246
81	0x3d8bf392	0.06833567
82	0x3e876d82	0.26450735
83	0x3ebee552	0.37284333
84	0x3e483180	0.19550133
85	0x3d36314a	0.0444806
86	0x3e21d5d9	0.15804233
87	0x3d19ec82	0.037579067
88	0x3dcba0bd	0.09942768
89	0x3e15d336	0.14631352
90	0x3cd70b2a	0.02625044
91	0x3d431d0f	0.047635134
92	0x3d61a072	0.055084653
93	0x3d5d180f	0.053978022
94	0x3cd71860	0.02625674
95	0xbe712beb	-0.2355191
96	0x3e219d3c	0.15782636
97	0x3e2589d0	0.16165853
98	0xbcf4a585	-0.029864082
99	0xbdd31120	-0.10306001
100	0x3e0d050a	0.13771453
101	0xbc632cc6	-0.013865655
102	0x3d4f157b	0.050557595
103	0xbe0db5e3	-0.13838916
104	0xbdd0efd1	-0.10201991
105	0xbd6404bc	-0.055668578
106	0xbd5e026a	-0.05420152
107	0xbe578f95	-0.21050866
108	0xbd4d7e65	-0.050169367
109	0xbdfe8f80	-0.12429714
110	0xbdff2935	-0.124590315
111	0xbda3fb38	-0.080069005
112	0x3e3c4279	0.18384732
113	0xbde655a6	-0.11246805
114	0x3eb27ede	0.34862417
115	0xbe4a9e6b	-0.19786994
116	0x3e304228	0.17212737
117	0xbdd7d138	-0.10537952
118	0xbe05c958	-0.13065088
119	0xbe130fa0	-0.14361429
120	0xbd11378b	-0.03545336
121	0x3cc1e392	0.023668084
122	0xbd861778	-0.06547445
123	0xbcd85492	-0.026407514
124	0x3da4820f	0.08032619
125	0x3d9f8619	0.07789249
126	0xbd61ecaa	-0.05515734
127	0xbbc96c59	-0.0061469493
128	0xbcf14c23	-0.02945525
129	0xbd50b0cd	-0.05094986
130	0x3da4223e	0.08014344
131	0x3de2e5fa	0.11079021
132	0xbca59d44	-0.020216592
133	0xbd25d8c7	-0.040489938
134	0xbda76ef7	-0.08175462
135	0xbe03d180	-0.12872887
136	0x3c345812	0.011007326
137	0xbbb4a89a	-0.005513263
138	0xbd107481	-0.035267357
139	0x3d8e9eec	0.06963906
140	0xbccaba40	-0.024747014
141	0xbc2226e8	-0.009896971
142	0xbcf73f02	-0.030181412
143	0xbe1b44ba	-0.15162936
144	0x3df1ec8d	0.118126966
145	0x3e25436f	0.16139005
146	0xbd42379e	-0.047416322
147	0x3e036e1c	0.12834972
148	0x3d1fbc71	0.03899807
149	0xbd204b51	-0.039134327
150	0x3e12db78	0.14341533
151	0xbebde9e9	-0.37092522
152	0x3c9bf368	0.019036964
153	0xbe81a571	-0.25321534
154	0xbe08165a	-0.13289776
155	0xbda0b611	-0.078472264
156	0x3eee2acc	0.46517026
157	0xbd9cbe03	-0.07653429
158	0x3dbc2f1b	0.09188672
159	0xbdf0900e	-0.11746226
160	0xbd99ac02	-0.07503511
161	0xbe4c468c	-0.19948786
162	0xbdf8c366	-0.12146644
163	0x3e12376f	0.14278959
164	0xbdcd7f34	-0.10034028
165	0x3e44896c	0.19193047
166	0xbe3604bb	-0.17775242
167	0x3e5316fe	0.2061424
168	0xbd70a471	-0.058750574
169	0xbeb4826e	-0.3525576
170	0xbd57e81c	-0.05271159
171	0x3e3abbcb	0.182357
172	0x3e2609c8	0.16214669
173	0xbc628147	-0.013824767
174	0x3e013be4	0.12620503
175	0x3d70243b	0.058628302
176	0xbdd9a7b5	-0.10627691
177	0x3c26d0c1	0.010181607
178	0x3e2821de	0.1641917
179	0x3dd1e3f3	0.10248556
180	0x3da8ce12	0.0824243
181	0xbdd0f78d	-0.102034666
182	0xbde3be3b	-0.11120268
183	0x3dfc7efa	0.12328906
184	0xbd58c7b5	-0.05292483
185	0x3e5b6d70	0.21428466
186	0xbe9dfd6b	-0.30857405
187	0xbba80204	-0.0051271934
188	0xbe8dc18f	-0.27686736
189	0x3d82c659	0.06385488
190	0x3cd2901b	0.02570348
191	0xbda3ce86	-0.079983756
192	0x3e057a7b	0.13035004
193	0x3efd6bcd	0.49496308
194	0x3e4c210c	0.19934481
195	0x3e00a88e	0.12564299
196	0x3e08e79f	0.13369606
197	0x3d81dec4	0.06341317
198	0xbdeff681	-0.11716939
199	0xbd84de6f	-0.06487738
200	0x3e0a7b77	0.1352366
201	0x3d7932f5	0.060839612
202	0x3da3e9e3	0.08003595
203	0xbe16635e	-0.14686343
204	0xbe03ff98	-0.1289047
205	0xbd8d0dac	-0.06887373
206	0xbeb884e9	-0.36038902
207	0xbd43ead2	-0.047831364
208	0x3dd3f9b9	0.10350365
209	0x3e1724d1	0.14760138
210	0x3be8002e	0.0070800995
211	0x3e89b08f	0.26892516
212	0xbe163cbe	-0.14671609
213	0xbcd8877e	-0.026431795
214	0x3e0ed5fd	0.13948818
215	0x3cfbe672	0.030749533
216	0x3e009531	0.12556912
217	0xbdad12ed	-0.084508754
218	0x3d7e88e8	0.062142283
219	0x3d311dac	0.043241188
220	0x3d7203f5	0.059085805
221	0xbd962b56	-0.073324844
222	0xbe438e17	-0.19097172
223	0xbd8b1dc6	-0.06792788
224	0x3c51eaf5	0.012812366
225	0xbcbfb273	-0.02340052
226	0xbd625d79	-0.055264924
227	0x3d8adcf8	0.06780428
228	0xbcbfa29e	-0.023392972
229	0x3d94b0e8	0.07260305
230	0x3eb23d0e	0.34812206
231	0x3d90ad9c	0.07064363
232	0xbd0cd139	-0.034379218
233	0x3de35a6f	0.11101233
234	0x3e03d334	0.12873536
235	0xbc3c37e8	-0.011487938
236	0x3dc6cce4	0.097070485
237	0x3c509253	0.012730199
238	0x3da55598	0.08072966
239	0x3c912952	0.017719898
240	0xbd493626	-0.049123906
241	0x3e14191c	0.14462703
242	0x3d63a802	0.055580147
243	0x3d8fad59	0.07015485
244	0xbde112e2	-0.1098993
245	0x3d843151	0.06454719
246	0xbb0032f8	-0.001956163
247	0xbe1dd829	-0.1541449
248	0xbc9b88e1	-0.018986167
249	0xbe07544c	-0.1321575
250	0xbdecfe02	-0.11571886
251	0x3e1a89b5	0.15091594
252	0xbe125fe7	-0.14294396
253	0xbe2699e1	-0.16269638
254	0xbd4e7c9f	-0.050411817
255	0xbdce895b	-0.10084792

gnn.convs.0.nn.lins.0.bias f4 [32]
0	0x3e271512	0.16316631
1	0xbdfb0c09	-0.12258155
2	0x3e4839a5	0.1955324
3	0x3d021c21	0.031765107
4	0x3befac29	0.0073142243
5	0x3d1c920c	0.03822522
6	0xbe22fe97	-0.15917431
7	0x3b5b2c0b	0.0033443
8	0x3dc61f6b	0.09673961
9	0xbe1a5a36	-0.15073475
10	0x3df9f125	0.12204198
11	0x3d31994d	0.04335909
12	0xbc8b9945	-0.017040858
13	0x3db29b3e	0.08721016
14	0xbdc8308e	-0.09774886
15	0x3df3a70e	0.118970975
16	0x3d9c960f	0.07645809
17	0xbd0c8038	-0.034301966
18	0x3ca819e8	0.020520166
19	0xbe45db2a	-0.19321886
20	0xbd8721d6	-0.065982506
21	0xbe2faba5	-0.17155321
22	0x3b2ccc57	0.0026366913
23	0xbd28e256	-0.041231476
24	0xbc17a2a4	-0.009255085
25	0xbe8cb320	-0.27480412
26	0xbd38ac32	-0.045086093
27	0xbe604e2a	-0.21904817
28	0xbdcfbbd8	-0.1014325
29	0x3d84dc79	0.06487364
30	0x3dfed286	0.12442498
31	0xbbde8d53	-0.0067917495

gnn.convs.0.nn.lins.1.weight f4 [32, 32]
0	0xbdee0e02	-0.116237655
1	0x3e1f2b7c	0.15543932
2	0xbc915167	-0.017739011
3	0xbe26bae7	-0.16282235
4	0xbd4db366	-0.050219916
5	0x3e924d07	0.28574392
6	0xbe72f3bc	-0.2372579
7	0x3de9a182	0.11407758
8	0xbda252bd	-0.07925937
9	0x3e176799	0.14785613
10	0xbd8d6ac8	-0.069051325
11	0x3dd4f587	0.10398393
12	0x3d48dec0	0.049040556
13	0x3da44c77	0.08022397
14	0x3d85a542	0.06525661
15	0x3e5214a0	0.2051568
16	0x3abc26e8	0.0014354857
17	0x3d88cf8f	0.06680214
18	0xbe2909d0	-0.1650765
19	0x3ddc88fd	0.10768316
20	0x3de8ef4c	0.11373767
21	0xbdbbfb20	-0.09178758
22	0x3e40456f	0.18776487
23	0x3e84e658	0.25956988
24	0x3ddbdd45	0.10735563
25	0xbd795bfa	-0.06087873
26	0x3e92a44f	0.28640983
27	0xbd4c6ea3	-0.0499102
28	0xbd8231f5	-0.06357185
29	0x3e833c74	0.2563206
30	0x3e9a2ff2	0.30114704
31	0x3e682c03	0.22673039
32	0x3e3fbfa6	0.18725452
33	0xbdf6e597	-0.120555095
34	0xbde5fc92	-0.112298146
35	0xbda2b82e	-0.07945286
36	0xbd80f526	-0.06296758
37	0x3e9d8fe4	0.30773842
38	0x3d0e3218	0.034715742
39	0x3ccb1350	0.024789482
40	0xbcf822d5	-0.030290047
41	0x3df1c013	0.118042134
42	0x3cedb16f	0.029015271
43	0x3cb29882	0.021801237
44	0xbe0597b4	-0.13046151
45	0xbd690161	-0.05688608
46	0xbe77a3cb	-0.24183576
47	0xbd71ffae	-0.059081726
48	0xbe75fbf8	-0.240219
49	0xbe16db71	-0.14732148
50	0x3e5ecbef	0.21757482
51	0xbcb9b3e9	-0.022668796
52	0xbd9e08ca	-0.0771652
53	0xbe0e2f70	-0.13885283
54	0xbe47f577	-0.19527231
55	0xbe2dc281	-0.16968729
56	0xbb127e1f	-0.0022353006
57	0x3dc293b4	0.095008284
58	0xbcec0df8	-0.028815255
59	0xbcae3b65	-0.021268556
60	0xbd8ed6d2	-0.069745675
61	0x3df921e2	0.12164666
62	0x3daa31d9	0.08310289
63	0xbe06c0f0	-0.13159537
64	0xbe56bce3	-0.20970492
65	0x3e0a30d9	0.13495196
66	0x3e0df29e	0.13862082
67	0xbe11de39	-0.14244927
68	0xbd0b6fb1	-0.034042064
69	0x3e0701db	0.13184302
70	0x3e2ad57f	0.16683005
71	0x3dbbc3ee	0.0916823
72	0xbb375300	-0.0027973056
73	0x3de56121	0.112001665
74	0x3ca89033	0.020576572
75	0xbcd26f54	-0.025687851
76	0xbd044046	-0.03228786
77	0xbb6dba62	-0.0036274423
78	0x3e27f62a	0.16402498
79	0x3e83461a	0.2563942
80	0xbd0aea95	-0.03391512
81	0x3e3b3062	0.18280175
82	0xbe1415ae	-0.14461395
83	0x3e1f7d99	0.15575255
84	0x3e45b068	0.19305575
85	0xbdd9e2e3	-0.10638978
86	0x3eb34518	0.35013652
87	0x3db57281	0.088597305
88	0xbcfcc3ef	-0.030855147
89	0xbe0c828e	-0.13721678
90	0x3e18718f	0.14887069
91	0x3d806b5d	0.06270478
92	0xbc878027	-0.0165406
93	0xbd9604d3	-0.07325139
94	0x3e37e7db	0.1795954
95	0x3e54a5a9	0.2076632
96	0xbe758c09	-0.239792
97	0x3dfdeffa	0.123992875
98	0x3d65fe71	0.056150857
99	0xbd999dbc	-0.075007886
100	0x3e5f4dfa	0.2180709
101	0x3e78fbe4	0.24314839
102	0x3c183306	0.009289509
103	0xbb5ea687	-0.003397377
104	0x3c8fc8ed	0.017551864
105	0xbdf38178	-0.118899286
106	0xbdf43d95	-0.11925808
107	0xbd787a5c	-0.060663566
108	0xbdea980a	-0.114547804
109	0x3e140376	0.14454445
110	0x3e3ebdcb	0.18627088
111	0x3e8a24e1	0.2698126
112	0x3cce895c	0.025211982
113	0x3e573888	0.21017659
114	0x3dacc3ff	0.08435821
115	0xbd5ec203	-0.054384243
116	0x3e2d3e08	0.16918194
117	0x3cf3f09b	0.029777816
118	0x3e81caa4	0.25349915
119	0x3e3efd81	0.18651392
120	0x3cda912a	0.026680548
121	0xbd52710e	-0.05137735
122	0x3e4d5a66	0.20054016
123	0xbe818e0c	-0.25303686
124	0xbc03251f	-0.008004456
125	0x3ddcfb70	0.107901454
126	0x3d1352d0	0.035967648
127	0xbc139589	-0.00900782
128	0xbd310b4f	-0.043223675
129	0xbcd163aa	-0.025560219
130	0xbdc0d0ee	-0.0941485
131	0xbe12095c	-0.14261383
132	0x3e267c1a	0.16258278
133	0x3e056e5e	0.13030383
134	0x3d2ff75e	0.042960517
135	0x3cf1783d	0.02947628
136	0x3d1630bb	0.036667567
137	0x3dc90393	0.09815135
138	0x3d7a4dfc	0.061109528
139	0xbbd47791	-0.00648398
140	0x3d80a803	0.06282046
141	0xbdeb830f	-0.11499607
142	0x3d89482b	0.06703218
143	0xbc2d2482	-0.010567786
144	0xbe1284fd	-0.14308544
145	0x3da4ba45	0.080433406
146	0xbe045bd0	-0.12925649
147	0xbe6ea5b7	-0.23305403
148	0xbdd68bc1	-0.10475875
149	0xbdeafc91	-0.114739545
150	0xbde2b87c	-0.11070344
151	0x3c840759	0.016116785
152	0xbd89b8d2	-0.06724705
153	0x3dabec49	0.08394677
154	0x3e2e80d1	0.17041327
155	0x3db64fa5	0.0890191
156	0x3dd333b8	0.10312599
157	0xbe0701c9	-0.13184275
158	0x3c039235	0.008030464
159	0x3d927c60	0.07152629
160	0x3d87effa	0.06637569
161	0x3b993416	0.0046753986
162	0x3cac0fe2	0.021003667
163	0x3dcbfc91	0.099602826
164	0x3e17397a	0.1476802
165	0xbe105480	-0.14094734
166	0x3dae7129	0.08517677
167	0xbe049dc5	-0.1295081
168	0x3d46dd78	0.048551053
169	0xbe306d92	-0.17229298
170	0x3db96b8b	0.09053715
171	0x3daceecb	0.08443984
172	0xbd4eb66f	-0.05046695
173	0x3dcf995d	0.101366736
174	0xbcc84ded	-0.02445122
175	0xbe34ebb5	-0.1766804
176	0x3bb66463	0.0055661662
177	0xbde4ba5d	-0.111683585
178	0xbe1c33dc	-0.15254158
179	0x3dbc9366	0.092078015
180	0x3bae0f38	0.005311873
181	0xbe1fdb02	-0.15610889
182	0xbe2d487b	-0.1692218
183	0xbd8d7c76	-0.06908505
184	0xbd24056a	-0.040044226
185	0xbdb9fe19	-0.090816684
186	0xbd554c6a	-0.052074827
187	0x3dad4592	0.08460535
188	0xbe62d4f8	-0.22151554
189	0xbc9b9ae8	-0.018994763
190	0xbda5d9ad	-0.08098159
191	0xbe5d4d77	-0.21611582
192	0xbe77a3b3	-0.2418354
193	0xbd9472b6	-0.07248442
194	0xbe6ff22b	-0.23432223
195	0x3de31c8f	0.110894315
196	0xbe589a41	-0.21152593
197	0xbd7ea0b0	-0.062164962
198	0xbd83ab8d	-0.06429205
199	0xbe2b8b1e	-0.16752288
200	0x3dcd41eb	0.100223385
201	0xbcd15c43	-0.02555669
202	0xbe07d6de	-0.13265559
203	0x3da0acf1	0.07845486
204	0xbbdcd24d	-0.006738937
205	0xbdfd4afa	-0.12367816
206	0xbe6ea511	-0.23305155
207	0x3c7d5469	0.0154620195
208	0xbdcfa50a	-0.101389006
209	0xbde902fb	-0.113775216
210	0x3d1b11c6	0.037858747
211	0xbd9b7096	-0.075898334
212	0xbc8f8931	-0.017521473
213	0x3dac5cb7	0.084161215
214	0xbd70961d	-0.05873691
215	0x3dd456ac	0.10368094
216	0x3c2a7e21	0.010406048
217	0xbe4ec8b1	-0.20193745
218	0x3cd68f1c	0.026191287
219	0xbe062a7f	-0.13102148
220	0x3da2089a	0.07911797
221	0xbc878c52	-0.016546402
222	0xbd3f5ba9	-0.046718273
223	0xbd433333	-0.04765625
224	0xbe80a802	-0.2512818
225	0xbe65e3db	-0.22450201
226	0xbe2dc3bb	-0.16969196
227	0x3de37ee5	0.111081876
228	0xbde0d74a	-0.10978563
229	0xbc515ef8	-0.01277899
230	0xbe580860	-0.21096945
231	0xbd4b0ded	-0.049573828
232	0xbc08cda8	-0.0083498135
233	0x3d3d19e6	0.046167277
234	0xbe3186b3	-0.1733654
235	0x3d02be3e	0.03191971
236	0xbe073550	-0.13203931
237	0xbd16bc75	-0.03680082
238	0xbdfd2667	-0.1236084
239	0x3dafc885	0.08583168
240	0x3dbfd2d3	0.093663834
241	0x3cf80a33	0.0302783
242	0xbe036320	-0.12830782
243	0x3db9a373	0.090643786
244	0xbde3aa42	-0.111164585
245	0x3d56deb1	0.05245847
246	0x3df74e98	0.120755374
247	0xbe100cc5	-0.14067371
248	0xbc0a1ba1	-0.008429439
249	0xbc925ad2	-0.017865572
250	0xbd406c65	-0.046978373
251	0x3e1f24e8	0.15541422
252	0x3dcfcf20	0.10146928
253	0xbd5c96c5	-0.053854723
254	0x3d359408	0.044330627
255	0x3d9505c7	0.072764926

gnn.convs.0.nn.lins.1.bias f4 [32]
0	0x3e236937	0.15958105
1	0x3d80c578	0.06287664
2	0xbc9767c0	-0.018482089
3	0xbded398d	-0.115832426
4	0xbdf560bc	-0.11981341
5	0xbe626799	-0.22109832
6	0xbd220623	-0.039556634
7	0xbd182c7b	-0.037151795
8	0xbe2f60c9	-0.17126764
9	0xbced88f1	-0.028995963
10	0x3dce70f3	0.10080137
11	0xbe065889	-0.13119711
12	0xbe297f98	-0.1655258
13	0x3da07ff8	0.07836908
14	0x3d0f7257	0.035021152
15	0xbc3a0dcd	-0.011355829
16	0xbdbab68f	-0.091168515
17	0x3e401272	0.18757036
18	0xbda28102	-0.079347625
19	0x3d1f10b3	0.038834285
20	0xbe5a2bd3	-0.2130578
21	0xbe3acdb1	-0.18242528
22	0xbcd8eaf1	-0.026479216
23	0x3e07f45c	0.1327681
24	0xbe39fe46	-0.18163404
25	0x3cbe8321	0.023255887
26	0x3cd84bf8	0.026403412
27	0xbdc22980	-0.09480572
28	0x3e1c402f	0.15258859
29	0xbd31d943	-0.043420088
30	0xbdd9bd36	-0.10631792
31	0xbc73abfe	-0.014872549

gnn.convs.1.nn.lins.0.weight f4 [32, 32]
0	0x3b9b8474	0.0047460143
1	0xbe2f77fe	-0.17135617
2	0x3e5640b2	0.20923117
3	0xbdff859b	-0.12476655
4	0xbdcb6986	-0.099322364
5	0xbdba89bd	-0.09108303
6	0xbe2f3f1d	-0.1711392
7	0x3d4a7b6b	0.049434107
8	0xbe55881f	-0.20852707
9	0x3dcaa7ab	0.098952614
10	0xbd6721a8	-0.05642858
11	0x3c01e029	0.007926979
12	0x3d8b4cc8	0.06801754
13	0xbd101622	-0.035177357
14	0x3e07c425	0.13258417
15	0xbdd2b6ad	-0.10288749
16	0xbcda5d69	-0.02665587
17	0x3e24b0d3	0.16083078
18	0x3d97bd4c	0.074091524
19	0x3dffbf25	0.1248763
20	0xbde84967	-0.113421254
21	0xbe11632d	-0.14197989
22	0xbdf10a2e	-0.1176952
23	0x3e2e5583	0.17024808
24	0xbd82dbc8	-0.06389576
25	0x3bd3cc6a	0.006463577
26	0xbd285d1e	-0.04110443
27	0x3c81d2a4	0.015847512
28	0xbdf079e0	-0.11741996
29	0x3e326c8a	0.17424217
30	0x3da317da	0.07963534
31	0xbde105c2	-0.10987426
32	0xbb4b9e8b	-0.003106984
33	0xbc9b55c8	-0.018961802
34	0xbcc30819	-0.023807572
35	0xbd2ee908	-0.042702705
36	0x3dad6c3a	0.08467908
37	0xbde9e48e	-0.114205465
38	0xbe08b091	-0.13348605
39	0x3db8270b	0.08991822
40	0x3d784717	0.06061467
41	0x3df44a0e	0.11928187
42	0xbe4c8efa	-0.19976416
43	0xbdafde02	-0.085872665
44	0x3dd637b7	0.104598455
45	0xbdb0746f	-0.08615958
46	0xbd23cb15	-0.039988596
47	0x3ddfc320	0.10925889
48	0x3d2e535c	0.042559966
49	0xbd548e5e	-0.051893584
50	0xbd9a342f	-0.075294845
51	0xbe1a4cec	-0.15068406
52	0xbe147c1f	-0.14500473
53	0x3dbde321	0.09271837
54	0xbd3392b7	-0.04384109
55	0xbc12d137	-0.0089610135
56	0xbdaa7923	-0.08323886
57	0x3c6b4fff	0.014362334
58	0x3d86edd9	0.065883346
59	0xbe2c44da	-0.1682314
60	0xbd59b2b0	-0.053148925
61	0xbdae2d5f	-0.085047476
62	0x3d225416	0.03963097
63	0x3e284a03	0.16434483
64	0x3e282aae	0.16422531
65	0xbe3a1399	-0.18171538
66	0x3e3401bc	0.17578787
67	0x3e2d44d6	0.1692079
68	0xbd47cb2f	-0.048777755
69	0x3d192147	0.03738525
70	0xbdd9a03e	-0.10626267
71	0xbe80b975	-0.25141492
72	0xbe6f2998	-0.2335571
73	0x3e87950c	0.264809
74	0xbc8d95f3	-0.017283415
75	0x3df98cc7	0.12185054
76	0xbd1f7f01	-0.03893948
77	0x3aa8d461	0.0012880677
78	0x3e1e017d	0.15430255
79	0xbe37a110	-0.17932534
80	0x3d17a6e5	0.037024397
81	0x3e630cf0	0.22172904
82	0x3e01865e	0.12648913
83	0x3e40d2fd	0.18830486
84	0x3ceec49f	0.02914649
85	0xbd3d9885	-0.046288032
86	0xbe03764c	-0.12838095
87	0x3d93dc45	0.072197475
88	0xbe24629a	-0.16053239
89	0x3dd552ea	0.10416205
90	0x3d9d32dd	0.07675717
91	0xbb5a6592	-0.00333247
92	0xbdcdf14d	-0.1005579
93	0x3d2484d1	0.040165726
94	0x3e3570a3	0.17718749
95	0x3d2828ae	0.04105442
96	0x3d9f8909	0.07789809
97	0xbd88d8b4	-0.06681958
98	0xbe218e3d	-0.15776916
99	0xbe2b25b4	-0.16713601
100	0x3dd57204	0.104221374
101	0xbd31af67	-0.043380167
102	0xbe0ba989	-0.13638891
103	0x3e375044	0.17901713
104	0x3e100030	0.14062572
105	0xbc8cfccb	-0.017210385
106	0xbce5dc7a	-0.028059233
107	0xbd668048	-0.056274682
108	0xbd4a738f	-0.04942661
109	0x3dcf368f	0.10117828
110	0x3d6c1568	0.057637602
111	0xbe2e0845	-0.16995342
112	0x3db6c206	0.08923726
113	0xbdabc813	-0.083877705
114	0x3e2c59a4	0.1683107
115	0xbdbfe72e	-0.09370266
116	0x3cb8562f	0.022502033
117	0x3c3645ee	0.011125071
118	0x3e52f1b7	0.2060002
119	0xbd6fc0e0	-0.05853355
120	0x3e2f0dbf	0.17095087
121	0xbe45df18	-0.19323385
122	0xbe62357b	-0.22090714
123	0x3d21b88d	0.039482642
124	0x3e5e2e53	0.21697359
125	0xbd35ac63	-0.044353854
126	0x3e56413f	0.20923327
127	0xbd4a89ee	-0.049447946
128	0xbcecdeac	-0.028914772
129	0xbe82b898	-0.2553146
130	0x3cd9b58a	0.026575822
131	0xbe217308	-0.15766537
132	0x3e144018	0.14477575
133	0xbdb67404	-0.08908847
134	0xbcf18f8f	-0.0294874
135	0xbd8c2e2f	-0.06844746
136	0x3db59ef4	0.088682085
137	0xbcd013da	-0.025400091
138	0xbe262b7e	-0.16227528
139	0xbe0a5bae	-0.13511536
140	0xbe2aed37	-0.16692053
141	0xbe2c89fc	-0.16849512
142	0xbe314283	-0.17310528
143	0xbd69a25d	-0.057039607
144	0x3d33e95b	0.043923717
145	0xbdb784eb	-0.08960899
146	0x3da96c34	0.08272591
147	0xbc87e161	-0.016586961
148	0x3e2418b2	0.16025046
149	0x3bddcf3c	0.006769089
150	0xbe2237c3	-0.15841584
151	0xbcd89051	-0.026436003
152	0xbc52cbaf	-0.012865945
153	0x3cba4f66	0.022742938
154	0xbd7b56d2	-0.061362095
155	0x3e043d41	0.12913992
156	0xbe58f732	-0.21188048
157	0xbce3de43	-0.027815944
158	0x3e2e64aa	0.17030588
159	0x3e030ac2	0.12797073
160	0x3d686286	0.056734584
161	0xbe170a6e	-0.14750072
162	0x3e56ac61	0.20964195
163	0x3e80aec7	0.25133345
164	0x3d8edad2	0.069753304
165	0x3d3a9b98	0.045558542
166	0xbe1b7831	-0.15182568
167	0xbe274a57	-0.16336952
168	0xbd6599ce	-0.056054883
169	0x3c7f2b5d	0.015574303
170	0x3dd3d19e	0.10342716
171	0xbb4ee84f	-0.0031571572
172	0x3c339c93	0.010962623
173	0xbba2af9b	-0.0049647815
174	0x3e2f443e	0.17115876
175	0x3dc65136	0.096834585
176	0xbdda8905	-0.10670666
177	0x3e66d888	0.22543538
178	0x3dfd311a	0.12362881
179	0x3d9447bd	0.072402455
180	0x3e0134cb	0.12617795
181	0xbddd1fbc	-0.107970685
182	0xbd0070fa	-0.031357743
183	0xbd1afd59	-0.037839267
184	0x3b9dd1ff	0.0048162933
185	0x3dcea426	0.100899026
186	0x3d285cb3	0.04110403
187	0x3db437a1	0.08799673
188	0xbd69e660	-0.05710447
189	0xbddb827c	-0.10718247
190	0x3e90310e	0.28162426
191	0x3dab4122	0.083620325
192	0x3dbc3583	0.09189894
193	0xbe283226	-0.1642538
194	0xbbbb1a94	-0.0057099555
195	0xbda3ab0d	-0.0799161
196	0x3dd1603b	0.10223433
197	0x3db92b6e	0.09041487
198	0xbce13abd	-0.027493829
199	0xbd4437c4	-0.047904745
200	0xbd81359c	-0.06309053
201	0x3e263029	0.16229309
202	0x3ddaa1d5	0.10675398
203	0xbdb6a99f	-0.089190714
204	0xbdcc3722	-0.09971453
205	0x3e340049	0.17578234
206	0xbda9eaa0	-0.08296704
207	0xbdd98446	-0.10620932
208	0xbb2851f3	-0.0025683611
209	0x3e7c65e6	0.24648246
210	0x3e52e751	0.20596053
211	0xbd69ef8c	-0.057113215
212	0x3d72fdc4	0.05932404
213	0xbdae3bb3	-0.085074805
214	0x3d106b7d	0.03525876
215	0x3dd78a14	0.10524383
216	0xbda2fc6a	-0.079583004
217	0x3e5f418d	0.2180235
218	0x3e04e7f5	0.1297911
219	0xbcfe6639	-0.031054603
220	0xbe24a3f2	-0.16078165
221	0x3dce8a74	0.100850016
222	0x3e7e3450	0.24824643
223	0x3cc88cf7	0.02448128
224	0xbd25126c	-0.04030077
225	0xbe500038	-0.20312583
226	0x3d6deb41	0.058085684
227	0x3d88794b	0.0666376
228	0x3dd8ece2	0.10592057
229	0xbd3b3b94	-0.045711115
230	0x3c023e44	0.007949416
231	0xbe2f09cd	-0.17093582
232	0xbd006ae7	-0.03135195
233	0x3dcfe8fc	0.1015186
234	0xbdd94c39	-0.106102414
235	0xbdf778a5	-0.12083558
236	0xbdac5add	-0.08415768
237	0xbda05808	-0.07829291
238	0x3c6fc5ab	0.01463453
239	0x3df66ce9	0.12032492
240	0xbe4f6c71	-0.20256211
241	0xbdf0d2cd	-0.11758957
242	0xbd1135d2	-0.035451718
243	0xbdecbf6c	-0.11559948
244	0x3e30f490	0.17280793
245	0x3dd60af7	0.1045131
246	0x3e250775	0.16116126
247	0x3e0e6a1f	0.1390767
248	0x3e312e00	0.17302704
249	0xbe8730f2	-0.2640453
250	0x3e0c0d05	0.13676842
251	0xbde21b96	-0.11040418
252	0x3c6611dc	0.014042344
253	0xbbb4708e	-0.0055065816
254	0xbdc60d3f	-0.09670495
255	0x3d22145b	0.039570194

gnn.convs.1.nn.lins.0.bias f4 [32]
0	0xbd9842dc	-0.074346274
1	0xbe1efb91	-0.15525652
2	0x3e186d2f	0.148854
3	0xbbefc151	-0.0073167463
4	0xbe4c1759	-0.19930781
5	0xbd2d55e7	-0.04231825
6	0x3d6b3e75	0.05743261
7	0xbd96ac6d	-0.07357106
8	0x3d2968e7	0.04135981
9	0xbe4b19db	-0.19834082
10	0x3dae56fe	0.08512686
11	0xbca32abc	-0.019917838
12	0x3dcd8afd	0.100362755
13	0x3d832bac	0.06404814
14	0xbe63c39a	-0.22242585
15	0xbe81811d	-0.25293818
16	0xbe0ea572	-0.139303
17	0x3dd507a5	0.10401849
18	0x3db4f8e9	0.08836538
19	0xbbdf2938	-0.0068103336
20	0xbd7518f1	-0.05983824
21	0xbb42ca5a	-0.0029722662
22	0x3cad5557	0.021158857
23	0x3dc3b3b1	0.09555758
24	0x3e60685c	0.2191481
25	0xbe6fb6a5	-0.23409517
26	0x3dd4ba68	0.10387117
27	0x3d201e79	0.03909156
28	0xbd611df9	-0.054960225
29	0x3bd7fb06	0.0065912036
30	0x3e0e5569	0.13899769
31	0xbccae2f5	-0.024766425

gnn.convs.1.nn.lins.1.weight f4 [32, 32]
0	0xbdc094e6	-0.094034
1	0x3c163e47	0.0091701215
2	0xbdb6c5ad	-0.089244224
3	0xbe2bea67	-0.16788636
4	0xbdd4d119	-0.10391445
5	0x3c9843f8	0.018587098
6	0x3c36f07a	0.0111657325
7	0xbdedee52	-0.116177216
8	0xbe17509a	-0.14776841
9	0xbd9a0dc6	-0.07522158
10	0x3b94c821	0.004540459
11	0xbdf92042	-0.12164356
12	0x3e096333	0.13416748
13	0xbd5d1556	-0.053975426
14	0x3d486849	0.04892758
15	0xbe21993d	-0.15781112
16	0xbe282d24	-0.1642347
17	0x3d169798	0.036765665
18	0xbe07d49e	-0.13264701
19	0xbe2ae656	-0.16689429
20	0xbe33d300	-0.17560959
21	0x3d5c8033	0.053833198
22	0x3dc31c1c	0.09526846
23	0x3e19cc83	0.15019421
24	0xbd518448	-0.051151544
25	0xbe2f191f	-0.17099427
26	0xbdaae32c	-0.08344111
27	0xbc1cac28	-0.00956253
28	0x3dac9753	0.084273
29	0x3dc2ba08	0.09508139
30	0xbc56c587	-0.013108618
31	0xbe08aceb	-0.13347213
32	0xbe5381ba	-0.20654956
33	0x3dfa1ab6	0.12212126
34	0xbc5cbd60	-0.013472885
35	0xbe1effc8	-0.1552726
36	0x3b5230c9	0.0032072535
37	0x3cfd373d	0.030910129
38	0x3e10e0fd	0.14148326
39	0x3d6444d8	0.055729717
40	0x3cda800d	0.026672387
41	0x3d74d638	0.059774607
42	0xbdc8c4a1	-0.09803129
43	0x3c914291	0.017731937
44	0xbdc80724	-0.09766987
45	0x3e3d045b	0.18458693
46	0xbdd85991	-0.105639584
47	0x3d0c0328	0.034182698
48	0x3d8e2750	0.06941092
49	0xbcc494f1	-0.023996802
50	0xbe125abc	-0.14292425
51	0x3c10d2db	0.008839334
52	0xbccf1b85	-0.025281677
53	0xbe2b6b5a	-0.1674017
54	0xbd93c20a	-0.072147444
55	0xbe0c0777	-0.13674723
56	0xbde0a264	-0.109684736
57	0xbda98bb8	-0.08278602
58	0xbdfbfa4c	-0.123036
59	0xbe819f49	-0.25316837
60	0x3cfbf54f	0.03075662
61	0xbe01f68a	-0.12691703
62	0xbe1f89be	-0.15579888
63	0xbddd4759	-0.10804624
64	0x3e469eb4	0.19396478
65	0x3d1e3aad	0.038630176
66	0x3e4c8499	0.19972457
67	0xbd0ba4fa	-0.03409288
68	0xbd8b22f9	-0.0679378
69	0x3e12f696	0.14351878
70	0x3e7d8458	0.24757516
71	0xbe0e36a0	-0.13888025
72	0xbd99e229	-0.0751384
73	0xbd3d79d9	-0.04625878
74	0xbe23301c	-0.15936321
75	0xbdb7e8bc	-0.089799374
76	0xbd0ac98e	-0.033883624
77	0x3daf4756	0.08558528
78	0x3d834437	0.06409495
79	0x3d2355b2	0.039876647
80	0xbd8ca4eb	-0.06867393
81	0x3d289a58	0.04116282
82	0x3e148f3c	0.14507765
83	0x3d763444	0.060108438
84	0x3d297172	0.041367956
85	0xbda74203	-0.081668876
86	0xbe0e94fc	-0.1392402
87	0x3c96d484	0.018411882
88	0xbda44865	-0.08021621
89	0xbe160de9	-0.14653744
90	0x3e2d171c	0.16903347
91	0x3d3aef2c	0.04563825
92	0x3e705dfb	0.2347335
93	0x3e53dd5d	0.20689912
94	0x3e36ea3c	0.17862791
95	0x3e9a6853	0.30157718
96	0xbe1b34c0	-0.15156841
97	0xbce31e18	-0.02772431
98	0x3d2fb4b6	0.04289695
99	0xbd0c7618	-0.03429231
100	0x3d82fda6	0.06396036
101	0x3d3cfaf2	0.046137758
102	0x3d22d5cf	0.039754685
103	0x3df7d795	0.12101666
104	0xbdbe477d	-0.09290979
105	0x3dafa949	0.085772105
106	0x3daa101b	0.08303853
107	0xbc218085	-0.009857302
108	0xbd402025	-0.046905655
109	0xbe7a243a	-0.24427882
110	0xbd1b0f5f	-0.037856456
111	0x3dfcc08c	0.12341413
112	0xbe161859	-0.14657725
113	0xbd82db4d	-0.063894846
114	0xbd057b45	-0.032588262
115	0xbe4065f5	-0.18788894
116	0xbd048326	-0.032351635
117	0x3e2e46fa	0.17019263
118	0x3b2014f4	0.0024426552
119	0xbe4b39a7	-0.19846211
120	0x3c902447	0.017595423
121	0x3d2b1764	0.041770354
122	0x3d8e64d0	0.06952822
123	0x3d92fe50	0.071774125
124	0xbe2fcf3c	-0.17168897
125	0x3e0706ff	0.13186263
126	0xbde81111	-0.1133138
127	0xbb68da50	-0.0035530515
128	0x3d98e086	0.074646994
129	0x3e2016d6	0.15633711
130	0x3e1bbcf2	0.15208796
131	0x3e225d5c	0.15855926
132	0xbe814d06	-0.25254077
133	0xbd494d90	-0.049146235
134	0x3e268a88	0.16263783
135	0x3e533af2	0.20627955
136	0xbda66c3d	-0.081261136
137	0xbdb7a1ec	-0.08966431
138	0x3e208333	0.15675049
139	0x3dbb64b5	0.09150068
140	0x3c754373	0.014969694
141	0x3d94d6f0	0.072675586
142	0x3e76f792	0.24117878
143	0xbc1c2d65	-0.009532307
144	0xb9545043	-0.00020247795
145	0xbdf7d568	-0.12101251
146	0xbe10953e	-0.14119431
147	0xbcc1fd30	-0.0236803
148	0xbd9a8a8c	-0.07545957
149	0xbe0783d5	-0.13233884
150	0x3db8aba5	0.090171136
151	0x3dcc17d7	0.099654846
152	0x3dcbf5c4	0.099589854
153	0xbd671985	-0.05642082
154	0x3c5d2e64	0.01349983
155	0x3df9f565	0.122050084
156	0x3c6c8118	0.014435075
157	0xbdc0e9a7	-0.09419566
158	0x3e382d65	0.17986067
159	0xbd8d303e	-0.06893967
160	0x3e51efc7	0.20501624
161	0xbd375b18	-0.04476461
162	0x3e7e4319	0.24830283
163	0x3ba68ae9	0.0050824773
164	0x3d02f83d	0.03197502
165	0x3dbf66f2	0.09345807
166	0x3e02e8bc	0.12784094
167	0xbda985ae	-0.082774505
168	0x3dbd92a0	0.09256482
169	0xbcaa0ab9	-0.020757066
170	0xbd044102	-0.03228856
171	0x3dbe9610	0.09305966
172	0x3cf2365a	0.029566932
173	0xbca87565	-0.02056379
174	0x3e274942	0.1633654
175	0x3daf1e3f	0.08550691
176	0x3e5c5ef7	0.21520601
177	0x3ef5d7a9	0.48016098
178	0x3dafe37b	0.0858831
179	0x3e44576e	0.19173977
180	0xbd9b1622	-0.07572581
181	0x3d4c427f	0.049868103
182	0x3cb1ba4e	0.021695282
183	0x3d691c5a	0.056911804
184	0xbc5b25e4	-0.013375733
185	0x3e1bedbb	0.15227406
186	0x3e040d8c	0.12895793
187	0x3d8b4a83	0.06801321
188	0x3dc8e18f	0.09808647
189	0x3ca7b371	0.020471307
190	0x3b9c6a67	0.0047734263
191	0x3e3f8fa5	0.1870714
192	0x3ddac1bb	0.106814824
193	0x3e1fb585	0.15596588
194	0xbe2f8e67	-0.17144166
195	0x3e1dd9e8	0.15415156
196	0x3d2d536b	0.04231588
197	0xbda3537e	-0.07974909
198	0xbdfa74a5	-0.122292794
199	0xbe18c66d	-0.14919443
200	0xbe0efe82	-0.13964275
201	0x3ddccc53	0.10781159
202	0xbe80543a	-0.2506426
203	0x3e0d92d1	0.13825537
204	0x3c5d1526	0.013493812
205	0x3d573e3b	0.052549582
206	0xbcfec9df	-0.031102119
207	0x3d845d4c	0.064631075
208	0x3e2c25a4	0.16811234
209	0xbdf55fa7	-0.11981135
210	0x3dc92e8f	0.098233335
211	0x3d02c58e	0.031926684
212	0xbe3d7a92	-0.18503788
213	0xbd964225	-0.07336835
214	0x3d52b0b1	0.051438037
215	0x3e25f0a2	0.16205075
216	0x3d911094	0.0708324
217	0xbd92557a	-0.071452096
218	0xbe1d28e3	-0.15347628
219	0xbc644eb5	-0.013934781
220	0xbd6c17af	-0.057639774
221	0xbd8f3b58	-0.06993741
222	0xbe11c8c9	-0.1423675
223	0xbe41e559	-0.18935145
224	0xbe4f3a6a	-0.20237127
225	0xbe57f68b	-0.21090142
226	0xbe3455b5	-0.1761082
227	0xbdf84ef6	-0.121244356
228	0xbdb071cb	-0.08615454
229	0xbe41dc53	-0.18931703
230	0xbe3ba1d1	-0.18323447
231	0xbd3b20bd	-0.04568552
232	0xbe66a2e5	-0.22523077
233	0xbd8dd2fe	-0.06925009
234	0x3d8a032b	0.067388855
235	0xbd71177d	-0.05886029
236	0xbe18862a	-0.1489493
237	0xbce70b72	-0.0282037
238	0xbe05bcec	-0.13060349
239	0xbd17938d	-0.03700595
240	0xbe066e56	-0.13128027
241	0x3cd563fa	0.02604865
242	0x3d0b2a11	0.033975665
243	0xbe071247	-0.13190566
244	0x3dfc2683	0.12312033
245	0x3ce5cd27	0.028051926
246	0xbdd08e51	-0.10183395
247	0x3dd14911	0.102190144
248	0xbcc6b309	-0.024255292
249	0xbde49e7d	-0.11163042
250	0xbe32d0ba	-0.17462435
251	0xbd41adf9	-0.047285054
252	0xbe53943d	-0.20662017
253	0xbe0fffb4	-0.14062387
254	0xbe2576ae	-0.16158554
255	0x3d597a36	0.053095065

gnn.convs.1.nn.lins.1.bias f4 [32]
0	0xbe10a8c6	-0.14126882
1	0xbd245db5	-0.04012843
2	0xbdd30cef	-0.10305201
3	0xbc58e40f	-0.013237967
4	0x3d46de5e	0.04855191
5	0xbda0735e	-0.078345045
6	0xbe594b8b	-0.21220224
7	0xbb838c4d	-0.004014528
8	0xbe3ce038	-0.18444908
9	0x3d78305b	0.06059299
10	0x3cdaafa3	0.026695078
11	0x3c135195	0.008991619
12	0x3c778aac	0.015108746
13	0xbd9c4dae	-0.07632004
14	0xbc39283c	-0.0113010965
15	0x3db95cd7	0.09050911
16	0x3e47f493	0.19526891
17	0x3e13c16d	0.14429255
18	0xbdddb859	-0.10826177
19	0xbe4d5206	-0.2005082
20	0x3dd9ed0f	0.106409185
21	0xbd339f5d	-0.043853153
22	0x3ca68b45	0.02033008
23	0x3c7e1e33	0.01551013
24	0xbe174d0d	-0.14775486
25	0xbe04e892	-0.12979344
26	0x3c455299	0.012043619
27	0xbd1e6bb1	-0.03867692
28	0xbe031255	-0.12799962
29	0xbe3807c7	-0.17971717
30	0x3d9d945e	0.076943144
31	0x3da2a8dc	0.079423636

gnn.convs.2.nn.lins.0.weight f4 [32, 32]
0	0xbd5e73af	-0.054309543
1	0xbdc9d1ca	-0.09854467
2	0xbdd4eb96	-0.10396497
3	0xbe4bf11f	-0.19916199
4	0xbd5e9967	-0.054345515
5	0xbd9c6364	-0.07636145
6	0xbdafb2e5	-0.08579043
7	0xbe516bb6	-0.20451245
8	0xbe34fb8d	-0.17674084
9	0x3c68ee8d	0.014217031
10	0x3ba2d4a4	0.0049691964
11	0xbe3705c7	-0.17873298
12	0xbd79da4e	-0.060999207
13	0xbe4045d8	-0.18776643
14	0xbe28f4c3	-0.16499619
15	0xbe0a4c08	-0.13505566
16	0xbd9807d8	-0.07423371
17	0x3ca6f7ee	0.020381894
18	0xbd134ce3	-0.035961997
19	0xbde70f90	-0.11282265
20	0x3d9e4bbe	0.077292904
21	0x3d95c782	0.07313444
22	0x3c18f05b	0.009334649
23	0x3e7a7368	0.24458086
24	0xbe0117fe	-0.12606809
25	0xbe0e073b	-0.13869946
26	0x3dd428c7	0.1035934
27	0xbe1337e8	-0.14376795
28	0xbd8072eb	-0.06271919
29	0xbe208e7c	-0.15679353
30	0xbbf551d6	-0.0074865622
31	0xbe0b42dc	-0.13599724
32	0xbd6dc787	-0.058051612
33	0x3e0432c3	0.12909989
34	0x3d5743c5	0.052554864
35	0xbd1d6fde	-0.038436763
36	0x3dfd3355	0.123633064
37	0x3e54f9b8	0.20798385
38	0x3d23f290	0.040026248
39	0x3e2cdbc6	0.16880712
40	0x3d8ae56b	0.06782039
41	0xbd00fad8	-0.031489223
42	0x3cd75fa4	0.026290722
43	0x3d7b6404	0.06137468
44	0xbd074534	-0.03302498
45	0x3e14866e	0.14504406
46	0x3c8d5be5	0.017255733
47	0x3dbebcd5	0.093133606
48	0xbe291aaf	-0.16514085
49	0x3c1d9066	0.009616947
50	0x3d617d2d	0.055051018
51	0x3e86eab9	0.26350954
52	0x3dc537dc	0.09629795
53	0x3cfc17a8	0.030772999
54	0x3d0e0e91	0.03468186
55	0x3e96508f	0.29358336
56	0xbe61f267	-0.22065125
57	0x3b17ba7e	0.002315193
58	0xbe37bd10	-0.17943215
59	0x3dc7f2d4	0.09763113
60	0x3e3b934b	0.18317907
61	0x3d6a053f	0.05713391
62	0x3e49595b	0.19662993
63	0xbe73b1c7	-0.23798285
64	0x3e2f1e71	0.17101456
65	0x3d4599ab	0.048242252
66	0x3e4614fc	0.19343942
67	0x3e1087f2	0.14114359
68	0xbe0dbd72	-0.13841799
69	0x3e70d625	0.2351919
70	0xbde97caa	-0.11400731
71	0x3d99f040	0.07516527
72	0xbe1f45e6	-0.15554008
73	0x3e20362a	0.15645662
74	0xbcd1df0e	-0.025619056
75	0xbd83d27a	-0.064366296
76	0xbdc84e4d	-0.0978056
77	0x3e517bc0	0.20457363
78	0x3dac357d	0.084086396
79	0x3e0f9bad	0.1402423
80	0x3dc0efd3	0.09420743
81	0xbe44ec49	-0.1923076
82	0xbe269054	-0.16265994
83	0x3dfaedf5	0.12252418
84	0x3e402efc	0.18767923
85	0x3e107558	0.14107263
86	0x3d3920d9	0.04519734
87	0x3e8ba4a0	0.27274036
88	0xbd49fd07	-0.04931357
89	0x3e4f5139	0.20245828
90	0x3d45d58f	0.04829937
91	0x3e0bd314	0.13654739
92	0x3cb8b0b8	0.022545204
93	0x3bb23ff4	0.0054397527
94	0x3b266d9f	0.002539493
95	0x3cc208e8	0.023685887
96	0xbe20fdd8	-0.15721834
97	0xbca23c0a	-0.01980402
98	0x3e72a548	0.23695862
99	0x3d8769f7	0.06612008
100	0x3e30b208	0.17255414
101	0x3e8caa70	0.27473783
102	0x3de7efac	0.11325011
103	0x3e2d75b5	0.16939433
104	0xbd4a982c	-0.04946153
105	0x3e2a193e	0.16611192
106	0x3d380b8e	0.044932894
107	0x3e2eac24	0.17057854
108	0xba90315f	-0.0011001042
109	0x3da3395c	0.07969925
110	0x3d8618b4	0.065476805
111	0x3e6f8181	0.23389246
112	0x3e5d8a04	0.2163468
113	0xbd098d72	-0.03358216
114	0xbda37d5b	-0.07982894
115	0x3cb7b7cc	0.022426508
116	0x3e836785	0.25664917
117	0xbd5f157b	-0.054463845
118	0xba8655e9	-0.0010248992
119	0x3e70bb1b	0.23508875
120	0xbd66ecec	-0.05637829
121	0x3e2846bc	0.16433233
122	0x3daf1515	0.08548943
123	0x3df7723b	0.120823346
124	0xbcfcd406	-0.03086282
125	0xbd979b3f	-0.07402658
126	0xbc19064b	-0.009339879
127	0xbe05889d	-0.13040395
128	0x3dbe7270	0.09299171
129	0x3c136358	0.008995853
130	0x3df5e3ec	0.12006363
131	0x3a3c2398	0.0007176935
132	0x3d777220	0.060411572
133	0x3e013c4c	0.12620658
134	0xbe2d32e6	-0.16913947
135	0xbd566ca8	-0.052349716
136	0xbda02657	-0.07819813
137	0x3e384531	0.17995144
138	0x3d87f367	0.06638222
139	0x3c99beb6	0.018767696
140	0x3e2c5817	0.16830479
141	0x3e2c5c11	0.16831996
142	0x3d899ea9	0.06719715
143	0x3d2c9677	0.042135682
144	0x3de1329b	0.1099598
145	0x3e0fbbf4	0.14036542
146	0x3dfd59a7	0.123706155
147	0xbde8f21f	-0.11374306
148	0xbd75ace8	-0.05997935
149	0x3dea28d5	0.11433569
150	0x3d0a4551	0.03375751
151	0x3dddceba	0.108304456
152	0xbde2bfb5	-0.110717215
153	0xbc8c5ac7	-0.01713313
154	0xbd8d31c6	-0.06894259
155	0x3dc66b3e	0.096884236
156	0x3d2051c4	0.039140478
157	0xbe00b800	-0.1257019
158	0xbd7b35c9	-0.06133059
159	0xbd8d269c	-0.0689213
160	0xbe176c88	-0.14787495
161	0xbd751fc0	-0.059844732
162	0x3d816365	0.06317786
163	0xbe5a76d0	-0.21334386
164	0xbe38a9e3	-0.18033557
165	0xbe1b0a51	-0.15140654
166	0xbdb22611	-0.08698667
167	0x3d95b308	0.07309538
168	0x3c0ce009	0.008598336
169	0xbdcd72a0	-0.100316286
170	0x3d10ac76	0.03532072
171	0x3d6a671b	0.057227235
172	0x3d65720d	0.05601697
173	0xbc81669a	-0.015795995
174	0xbe2724b6	-0.16322598
175	0xbe108900	-0.14114761
176	0xbe16737d	-0.14692493
177	0xbd9395e5	-0.072063245
178	0xbe25ce65	-0.16192015
179	0x3db2a75c	0.087233275
180	0xbdb52fa4	-0.08846977
181	0xbe720ee2	-0.2363849
182	0x3e189acc	0.149028
183	0xbe0ff2f4	-0.14057523
184	0xbe104f3f	-0.1409273
185	0xbdd93159	-0.106051154
186	0xbe209363	-0.15681224
187	0xbe03fdd5	-0.12889798
188	0x3cc00aa4	0.023442574
189	0xbe33c1e9	-0.1755444
190	0xbd9ba095	-0.07598988
191	0x3c3723f4	0.0111780055
192	0xbdb4fc52	-0.08837189
193	0x3e060c92	0.13090733
194	0x3e8f8d54	0.28037512
195	0xbcb1799c	-0.021664433
196	0xbd0191ed	-0.031633306
197	0x3e9c727a	0.3055609
198	0xbe31c9e6	-0.17362174
199	0xbbf8aa2e	-0.0075886464
200	0x3d85a09a	0.06524773
201	0x3e90ea6a	0.28303844
202	0xbdde0ac8	-0.108419
203	0x3c2fce2e	0.010730309
204	0x3caabafa	0.02084111
205	0xbd4dd4ba	-0.0502517
206	0x3e46be17	0.19408451
207	0x3e3eae1e	0.18621108
208	0x3e15cad2	0.14628151
209	0xbd230af7	-0.03980538
210	0xbdd40a6f	-0.103535526
211	0x3dc02ab1	0.09383143
212	0x3e0fcda0	0.14043283
213	0x3db0e4c0	0.086373806
214	0x3d514efc	0.051100716
215	0x3dfd41b6	0.12366049
216	0x3dcc0ea5	0.09963731
217	0x3c4ee01d	0.012626675
218	0x3ceac38b	0.028657695
219	0x3b17bf5a	0.0023154826
220	0xbe0d0c4b	-0.1377422
221	0x3e366a43	0.17813973
222	0xbdc8d04b	-0.09805354
223	0xbd8db145	-0.06918577
224	0xbbab5bd8	-0.0052294545
225	0x3d269a81	0.04067469
226	0xbdfd72a7	-0.12375384
227	0xbe13f7a0	-0.1444993
228	0x3cf44f3b	0.029822936
229	0xbcad3eda	-0.021148134
230	0xbe505a36	-0.20346913
231	0x3d9dd877	0.07707303
232	0xbe005fbe	-0.12536523
233	0x3bca8b5b	0.0061811632
234	0xbdd01749	-0.10160691
235	0xbdeeae5c	-0.1165435
236	0x3d7ed2b4	0.06221266
237	0x3e0385e8	0.1284405
238	0xbd043606	-0.032278083
239	0xbd81c70f	-0.063367955
240	0x3d7990f0	0.06092924
241	0xbd68678e	-0.056739382
242	0x3e6c4d35	0.23076327
243	0x3e4d18f0	0.20029044
244	0xbe7901f4	-0.24317151
245	0x3d73e515	0.05954464
246	0x3dcc220f	0.09967434
247	0xbe437c22	-0.19090322
248	0xbd3e02b7	-0.046389308
249	0xbc1cd290	-0.009571686
250	0xbe41f463	-0.18940882
251	0xbe56f2af	-0.20991014
252	0xbcc8ee23	-0.024527615
253	0xbe5dec60	-0.21672201
254	0xbdfc52f7	-0.12320512
255	0xbc30e99a	-0.010797882

gnn.convs.2.nn.lins.0.bias f4 [32]
0	0xbe1996cd	-0.14998932
1	0xbda1929e	-0.07889293
2	0x3d93e904	0.072221786
3	0xbd9f595a	-0.07780714
4	0x3a1e0843	0.0006028453
5	0xbe656e4c	-0.22405356
6	0xbb9f0c75	-0.00485378
7	0xbc7c1ff0	-0.015388474
8	0xbe68c524	-0.22731453
9	0xbd26404c	-0.040588662
10	0xbc4cf55e	-0.012509672
11	0xbc55d265	-0.01305065
12	0x3e5485fd	0.20754237
13	0x3ccdbab7	0.025113447
14	0x3ca2b69d	0.019862467
15	0x3c216b23	0.009852204
16	0x3e099c72	0.13438585
17	0x3e142acc	0.1446945
18	0xbe0abdcd	-0.13548966
19	0xbd870516	-0.06592767
20	0x3cfcbbb6	0.030851226
21	0xbe029bdb	-0.12754767
22	0x3dd6856a	0.104746655
23	0xbe32cdc1	-0.17461301
24	0x3d9c6d25	0.07638005
25	0xbc8953ac	-0.01676353
26	0xbdbc2a94	-0.09187809
27	0x3d8e9e70	0.06963813
28	0xbc6ff0e3	-0.014644834
29	0xbe44f3d4	-0.19233638
30	0x3db00e72	0.08596505
31	0x3b8c90a0	0.0042897016

gnn.convs.2.nn.lins.1.weight f4 [32, 32]
0	0xbd5d49aa	-0.05402533
1	0xbd397d95	-0.04528578
2	0x3e6580f7	0.22412477
3	0x3d0f9b48	0.035060197
4	0xbd15c19e	-0.0365616
5	0x3d4b8e2d	0.049696136
6	0x3d8851f8	0.06656259
7	0x3e2a7f51	0.1665013
8	0x3db6b5b9	0.089213796
9	0x3ded1cf0	0.11577785
10	0xbddacb0c	-0.10683259
11	0x3e192d08	0.14958584
12	0x3e5903e4	0.2119289
13	0x3dd6284f	0.10456907
14	0x3e22aec4	0.1588698
15	0xbd53dd8b	-0.05172495
16	0xbd4e063c	-0.050298914
17	0x3d76d582	0.06026221
18	0x3c75c3f2	0.01500033
19	0x3df7af5b	0.12093993
20	0x3db44346	0.08801894
21	0x3b67d24c	0.003537315
22	0x3e484bfe	0.19560239
23	0x3d86410c	0.065553755
24	0x3cd3a49e	0.025835332
25	0x3e6c63f0	0.23084998
26	0x3e32e9b7	0.17471968
27	0x3e9feab7	0.3123376
28	0x3e0e2ac5	0.13883503
29	0x3cc91b0b	0.024549028
30	0x3db64bf0	0.08901203
31	0xbd6f3833	-0.058403205
32	0xbdb39130	-0.08767927
33	0x3de99856	0.11406009
34	0x3e309b40	0.17246723
35	0x3e65121d	0.22370191
36	0x3e5fc7a8	0.21853507
37	0x3d111b22	0.035426266
38	0x3c60d8d7	0.013723574
39	0x3d9e133a	0.07718511
40	0xbd890489	-0.06690318
41	0x3c099f27	0.008399761
42	0x3d8a5272	0.067540064
43	0x3e2730b4	0.16327173
44	0xbdc54397	-0.09632032
45	0x3e1afcbd	0.15135475
46	0x3c440f08	0.011966474
47	0x3e004c1a	0.1252903
48	0x3e67e82f	0.22647165
49	0x3e6b5ede	0.22985408
50	0xbbf7365c	-0.007544322
51	0x3d80ca77	0.06288617
52	0xbe032730	-0.12807918
53	0x3db6a508	0.08918196
54	0xbcb260b2	-0.021774624
55	0xbdb0e0b3	-0.08636608
56	0x3dbda31b	0.092596255
57	0x3e7a98d6	0.24472365
58	0x3d0008de	0.031258456
59	0xbba2755c	-0.004957838
60	0xbe8b2fe4	-0.27184975
61	0x3d7961fe	0.06088447
62	0x3d9fad86	0.07796769
63	0x3e1d51d1	0.15363242
64	0xbe03cf24	-0.12871987
65	0xbd9eb70d	-0.07749758
66	0x3dceec23	0.10103633
67	0x3d1c0f78	0.03810069
68	0x3dd1daea	0.10246833
69	0x3e332a5d	0.17496629
70	0x3e030dd8	0.1279825
71	0xbd2cee38	-0.04221937
72	0xbdc055e4	-0.09391382
73	0xbd86dba2	-0.065848604
74	0xbe50c7bd	-0.20388694
75	0x3e157fde	0.14599559
76	0xbe20452a	-0.15651384
77	0x3de112ee	0.10989939
78	0xbde325ce	-0.11091195
79	0xbc89be9f	-0.016814528
80	0x3d7adc54	0.061245278
81	0xbe0d7cf0	-0.13817191
82	0xbdaa9d87	-0.08330827
83	0x3c9efb22	0.019406859
84	0x3e39ad97	0.18132626
85	0xbd8e0c42	-0.06935932
86	0x3d271ad6	0.040797077
87	0x3dbddbcc	0.092704386
88	0xbd1fac2c	-0.038982555
89	0x3dade75e	0.084913954
90	0xbe4ad837	-0.19809042
91	0x3e277b9d	0.16355748
92	0x3d423b85	0.047420043
93	0xbd39731e	-0.0452758
94	0xbc8f1c16	-0.017469447
95	0xbd987d3d	-0.07445762
96	0x3e6c6db7	0.23088728
97	0x3dcab335	0.09897462
98	0x3d7f2bfa	0.0622978
99	0x3e07e10e	0.13269445
100	0x3e5e0188	0.21680272
101	0x3d456d24	0.048199788
102	0x3e84fcd4	0.25974143
103	0xbb9e4398	-0.004829835
104	0xbd9201e5	-0.071292676
105	0x3e5aae45	0.21355541
106	0x3e4f718c	0.20258158
107	0xbc0eb900	-0.0087111
108	0x3ba1dcd4	0.004939655
109	0x3e7a5ac7	0.24448691
110	0x3d92a9e9	0.07161314
111	0xbc4351f4	-0.011921395
112	0x3c854189	0.016266601
113	0x3ddd530e	0.10806857
114	0x3e402c83	0.1876698
115	0x3dac1844	0.08403066
116	0x3d4858b7	0.04891273
117	0xbcd4ff56	-0.02600066
118	0x3e2380c4	0.15967089
119	0xbd6160a2	-0.055023797
120	0x3c4b9798	0.0124262795
121	0x3e8af6a6	0.27141303
122	0x3db5f33f	0.08884286
123	0x3dd83f4e	0.105589494
124	0x3d3dafdf	0.046310302
125	0x3db1e20a	0.08685692
126	0xbd3f6130	-0.046723545
127	0x3e1706a5	0.14748628
128	0x3d759d89	0.05996469
129	0x3d5da7b0	0.054114997
130	0xbe17328d	-0.14765377
131	0xbd8724b3	-0.06598797
132	0xbe518fc0	-0.20464993
133	0x3cf50fff	0.029914854
134	0xbe41373b	-0.18868725
135	0xbdef8b63	-0.11696508
136	0xbd34c073	-0.044128846
137	0x3d9a347e	0.07529543
138	0xbdc7fa5d	-0.0976455
139	0xbdc219c2	-0.09477569
140	0xbc3e63f6	-0.011620512
141	0xbc4816f7	-0.0122125065
142	0xbc6c2d1a	-0.01441505
143	0x3d479e8c	0.048735186
144	0x3d61bf9b	0.05511437
145	0xbcb88c98	-0.022527978
146	0xbe0a1e7e	-0.13488194
147	0xbd11d06e	-0.035599165
148	0xbd679895	-0.056541998
149	0xbe8a3d88	-0.2700007
150	0x3d7f8173	0.06237931
151	0xbd294ab8	-0.041331023
152	0xbe562535	-0.20912631
153	0x3cee899e	0.029118355
154	0xbd5164dc	-0.051121578
155	0x3d24cf04	0.040236488
156	0x3cf4afff	0.029869078
157	0xbe111b3c	-0.14170545
158	0xbd074a0a	-0.033029594
159	0xbd6f2757	-0.058387127
160	0xbc0ff67e	-0.008786796
161	0xbe06b497	-0.13154827
162	0xbde8ab3a	-0.11360784
163	0xbd91b6f7	-0.07114976
164	0x3e1071e6	0.14105949
165	0xbdaac864	-0.08339003
166	0xbdc03176	-0.09384434
167	0x3d83c279	0.06433577
168	0x3df339fd	0.11876295
169	0xbe1594be	-0.14607522
170	0xbe09807e	-0.13427922
171	0xbd84c9f6	-0.064838335
172	0xbdd1bb7d	-0.10240839
173	0xbbfcb8bc	-0.0077124517
174	0xbde87daf	-0.11352097
175	0x3da24a20	0.079242945
176	0xbc9fb303	-0.01949454
177	0x3cf241ba	0.029572356
178	0xbce1147f	-0.027475594
179	0x3b2bd40d	0.0026218921
180	0x3cf6bb6b	0.030118665
181	0xbd0c3688	-0.034231693
182	0xbded4374	-0.11585131
183	0x3dfe1b40	0.12407541
184	0x3e29201c	0.16516155
185	0xbe27ea01	-0.16397859
186	0xbd367872	-0.04454846
187	0xbdcb3455	-0.09922091
188	0xbe258932	-0.16165617
189	0xbdf013f1	-0.117225535
190	0x3e09a0bd	0.13440223
191	0x3e2af6ed	0.16695757
192	0x3d912713	0.07087531
193	0x3dbfde6c	0.093685955
194	0x3e0ea54d	0.13930245
195	0x3c792dbd	0.015208659
196	0x3d8eab24	0.06966236
197	0x3db4ee8c	0.08834562
198	0xbe5b637c	-0.21424669
199	0x3e200ffe	0.156311
200	0x3da8c5bf	0.08240842
201	0x3cdb03f6	0.026735287
202	0x3ddad4a0	0.10685086
203	0xbd8e7a18	-0.06956881
204	0xbd8b205c	-0.067932814
205	0xbe4fbc18	-0.20286596
206	0x3d882e74	0.06649485
207	0xbcb199a2	-0.021679703
208	0x3ce433a8	0.027856663
209	0x3dcc510a	0.099763945
210	0x3d9e3b11	0.0772611
211	0x3d8001a6	0.062503144
212	0xbe1ae4b7	-0.1512631
213	0x3b95f995	0.0045768716
214	0xbd23d7b8	-0.040000647
215	0x3e2ee4c1	0.1707945
216	0x3e4bac62	0.19889978
217	0xbe1ff139	-0.15619363
218	0xbdda269d	-0.10651896
219	0xbdd6ed03	-0.10494425
220	0xbd675fee	-0.05648797
221	0xbe2132fe	-0.15742108
222	0x3dacdaa6	0.084401414
223	0xbdb8c5b7	-0.09022086
224	0xbda2395f	-0.07921099
225	0xbdb041f1	-0.08606327
226	0x3e03d169	0.12872852
227	0x3e25ed5f	0.16203831
228	0x3d8df5e2	0.06931664
229	0x3d822f30	0.063566566
230	0x3e45b919	0.1930889
231	0xbde980d7	-0.114015274
232	0x3d8f1331	0.06986082
233	0x3e469761	0.19393684
234	0xbdefd76c	-0.1171101
235	0xbbdbef73	-0.006711894
236	0xbdd0d24c	-0.10196361
237	0x3e30f685	0.1728154
238	0x3e1b9b45	0.1519595
239	0x3e399aaf	0.18125413
240	0xbe3b24a4	-0.18275696
241	0x3d33efb7	0.04392978
242	0x3dbc0f2f	0.091825835
243	0xbe0903de	-0.13380381
244	0xbdb3deeb	-0.087827526
245	0x3db29a3d	0.08720825
246	0x3e592319	0.21204795
247	0xbd4dd93c	-0.050256
248	0xbe2576f3	-0.16158657
249	0xbdbb8d93	-0.091578625
250	0x3d479707	0.048728015
251	0xbd093de7	-0.0335063
252	0x3d96754c	0.07346591
253	0xbe124508	-0.14284146
254	0xbe2134e8	-0.15742838
255	0x3d88a5dc	0.0667226

gnn.convs.2.nn.lins.1.bias f4 [32]
0	0x3bbb3c7a	0.0057139965
1	0x3e13ed0e	0.14445898
2	0xbb722a5c	-0.0036951518
3	0x3bd20c9e	0.0064101955
4	0x3e07af5a	0.13250485
5	0xbde90688	-0.11378199
6	0x3d6f195b	0.05837379
7	0x3e19761e	0.14986464
8	0x3d77dfb2	0.060516067
9	0xbe23087b	-0.15921204
10	0xbd4d7a08	-0.050165206
11	0x3d4b2155	0.049592335
12	0xbc5ec513	-0.013596791
13	0x3e612d9d	0.21990056
14	0x3cb54900	0.022129536
15	0xbe04efc9	-0.12982096
16	0xbd159a48	-0.036524087
17	0xbdb4abfe	-0.088218674
18	0x3e1ca93d	0.15298934
19	0x3af8aac6	0.0018971793
20	0x3e01a7c8	0.1266166
21	0x3c009184	0.007847194
22	0xbd742c0b	-0.059612315
23	0xbd47d24e	-0.048784547
24	0xbe267dc1	-0.16258909
25	0xbe1b54f0	-0.1516912
26	0xbe64f8f3	-0.22360592
27	0xbe4ea42c	-0.20179814
28	0x3e577a51	0.21042754
29	0x3b0a58ce	0.002111006
30	0xbdc69a18	-0.0969736
31	0xbdb67109	-0.089082785
