Run_GIN_ModelCheckpoint_EvFr_2/NCI1_reps_2_folds_5_epochs_20_2023-04-26_11-05/rep_0_fold_2/checkpoints/model_trial_6.ckpt (torch, 96717 bytes, 86 tensors)

gnn.convs.0.nn.lins.0.weight f4 [16, 37]
0	0xbcc78d43	-0.024359351
1	0xbdadd284	-0.08487418
2	0xbead5f75	-0.3386189
3	0xbed677ef	-0.41888377
4	0x3e110030	0.14160228
5	0xbe7e33fd	-0.2482452
6	0xbdad0d53	-0.08449807
7	0xbccce6ad	-0.025012339
8	0x3f966a4e	1.1751192
9	0x3f48cfb9	0.7844196
10	0x3f0eeaf4	0.5582726
11	0xbe7f7117	-0.24945484
12	0xbdde7b93	-0.10863414
13	0xbe986522	-0.29764658
14	0x3e539f26	0.20666179
15	0x3ede6f0a	0.4344409
16	0x3e370145	0.17871578
17	0x3f42fa10	0.76162815
18	0x3c9b0349	0.018922465
19	0xbdab2352	-0.08356346
20	0xbe2ff417	-0.17182957
21	0xbe325c90	-0.17418122
22	0x3db201c9	0.08691747
23	0x3e249f38	0.16076362
24	0xbce56cc5	-0.028005967
25	0xbe95705d	-0.2918729
26	0x3f134a94	0.5753567
27	0x3e71015b	0.23535673
28	0xbe869274	-0.2628361
29	0x3ecd3cd5	0.40085474
30	0x3ce2dbc0	0.027692676
31	0xbdebaef1	-0.11507977
32	0xbd0e22d8	-0.0347012
33	0xbe646822	-0.22305349
34	0x3cc0cab5	0.023534158
35	0xbd5b0bdb	-0.053478103
36	0xbdd2675d	-0.10273621
37	0xbe7c8be7	-0.24662744
38	0xbc17eeb7	-0.009273223
39	0xbdb2b03b	-0.087250195
40	0x3c8b316d	0.016991341
41	0xbc6ea55c	-0.014565792
42	0xbc9099f4	-0.017651536
43	0xbe10987a	-0.14120665
44	0x3c4eb233	0.012615728
45	0xbefe9dd1	-0.4972978
46	0xbec32144	-0.38111317
47	0xbc821047	-0.015876902
48	0xbd9c49e2	-0.076312795
49	0xbd037288	-0.032091647
50	0x3d0c6e4d	0.03428488
51	0xbd97dd99	-0.07415313
52	0x3e41a601	0.18910982
53	0x3e439985	0.19101532
54	0xbd92f8b9	-0.07176346
55	0x3d44879d	0.047980893
56	0x3e4fa260	0.20276785
57	0xbeae31a6	-0.34022254
58	0xbe843d34	-0.25827944
59	0xbc405404	-0.011738781
60	0xbc040d3a	-0.008059794
61	0x3c866b50	0.016408592
62	0xbdec2e67	-0.11532288
63	0x3ac29958	0.0014846725
64	0xbdf5e282	-0.120060936
65	0x3e7a6fdb	0.24456732
66	0xbde432e4	-0.11142519
67	0x3d125f02	0.035735138
68	0x3df76ec9	0.120816775
69	0xbe075cfe	-0.13219067
70	0xbdc27c90	-0.09496415
71	0x3e4d1247	0.20026504
72	0xbdc895aa	-0.09794171
73	0x3e5c18ae	0.2149379
74	0x3c916cd2	0.017752085
75	0xbe496d95	-0.19670708
76	0xbeba0566	-0.36332244
77	0xbec9b390	-0.39394808
78	0x3e44882c	0.1919257
79	0xbe33c9de	-0.17557475
80	0xbcdce911	-0.026966603
81	0xbe02b6ed	-0.12765093
82	0x3e6ab898	0.2292198
83	0x3f3a280f	0.72717375
84	0x3f2fddd6	0.6869787
85	0x3e1680a0	0.14697504
86	0x3f3f1ac5	0.7465022
87	0xbdca7466	-0.098854825
88	0x3f00a385	0.5024951
89	0x3edc3142	0.4300633
90	0x3ea3fc6f	0.3202853
91	0x3f0b5509	0.5442663
92	0x3e0fe04b	0.14050405
93	0xbe227b72	-0.15867403
94	0xbd254ea3	-0.040358197
95	0xbd4ec8e6	-0.05048456
96	0xbbb3db0f	-0.0054887603
97	0xbd8c32b8	-0.06845611
98	0x3f0d0a20	0.55093575
99	0xbe087bf7	-0.13328539
100	0x3ea6faf2	0.3261333
101	0x3eb63797	0.35589287
102	0x3d7c03ca	0.06152705
103	0x3e8a021c	0.26954734
104	0xbd2ca30d	-0.042147685
105	0xbcef3f6b	-0.029205045
106	0xbdf8fa09	-0.121570654
107	0xbdc3e3ec	-0.09564957
108	0xbdcfb27c	-0.10141465
109	0x3d5ca724	0.053870335
110	0xbd822d6d	-0.063563205
111	0x3f051271	0.51981264
112	0x3ef32940	0.4749241
113	0xbe84eae7	-0.25960466
114	0x3ecb53e0	0.3971243
115	0xbe9fcc01	-0.3121033
116	0x3df3016f	0.11865508
117	0xbe8cc809	-0.27496365
118	0xbda2558e	-0.079264745
119	0xbd461367	-0.048358347
120	0xbe6ab2f4	-0.22919828
121	0xbd962e76	-0.073330805
122	0x3d32b91a	0.043633558
123	0xbde5be0e	-0.11217891
124	0x3e46b309	0.19404234
125	0xbe098d47	-0.134328
126	0x3d3bcf9c	0.04585229
127	0x3e548f59	0.20757808
128	0x3c32517d	0.010883686
129	0xbe042417	-0.12904392
130	0xbcd85fbb	-0.026412835
131	0x3de3ba8c	0.11119565
132	0x3ef91921	0.48651984
133	0x3e249682	0.16073039
134	0xbcf1710d	-0.029472852
135	0x3da52202	0.08063127
136	0xbeebb6c8	-0.4603789
137	0xbe7d1faf	-0.24719118
138	0x3cce7b3e	0.02520525
139	0xbda720d1	-0.08160556
140	0x3d5a7254	0.053331688
141	0xbde0aed9	-0.109708495
142	0xbddce9b9	-0.107867666
143	0x3b221304	0.0024730572
144	0x3e9e2df8	0.30894446
145	0xbdfd544e	-0.123695955
146	0xbb1ec655	-0.0024227102
147	0x3dfb73eb	0.12277969
148	0xbea00993	-0.31257305
149	0xbee9f200	-0.45692444
150	0x3dd43cc2	0.10363151
151	0x3e52a2ad	0.20569868
152	0xbe4ea069	-0.20178379
153	0x3d88163b	0.06644865
154	0x3eb56a67	0.3543274
155	0x3dfe70f5	0.124238886
156	0xbe81bac1	-0.25337794
157	0xbea3469c	-0.31889808
158	0xbe95f6cc	-0.29289854
159	0xbd957ac6	-0.07298808
160	0xbea4fd0e	-0.32224315
161	0x3e8e5c24	0.27804673
162	0xbe9612f4	-0.29311335
163	0xbe70eac5	-0.23527057
164	0xbdc72e64	-0.09725645
165	0xbe59c0dd	-0.21264978
166	0xbe46f2c9	-0.19428553
167	0xbec23a72	-0.37935215
168	0x3f39d62c	0.72592425
169	0x3f1142c7	0.5674252
170	0x3e0281a1	0.12744762
171	0xbe25f52d	-0.16206808
172	0xbe84baff	-0.25923917
173	0xbebb0dec	-0.3653406
174	0xbcf51ead	-0.029921854
175	0xbe419cff	-0.18907546
176	0x3e83af67	0.2571976
177	0xbe447d08	-0.1918832
178	0xbd89a803	-0.06721499
179	0xbdd95e0c	-0.10613641
180	0x3de333fd	0.110939
181	0x3e6d2555	0.23158772
182	0x3eba2557	0.36356613
183	0xbcbddc1b	-0.023176244
184	0x3da093f6	0.07840721
185	0x3ea56029	0.32299927
186	0x3e9f76d6	0.31145352
187	0x3ddd1bd5	0.10796324
188	0xbca29147	-0.019844664
189	0xbead0c08	-0.33798242
190	0xbdd0a84f	-0.10188352
191	0xbe87b5e7	-0.26505968
192	0x3d2a0bd3	0.041515183
193	0x3f96da98	1.178546
194	0x3f5f3930	0.87196636
195	0x3ec2d279	0.38051203
196	0x3d91b1ad	0.07113967
197	0xbd8fddf1	-0.07024754
198	0xbdb18d2b	-0.08669504
199	0xbde337be	-0.11094616
200	0x3e947c28	0.29000974
201	0xbe83e723	-0.2576228
202	0xbda32001	-0.07965089
203	0x3e9d08e7	0.30670854
204	0x3ed82fd4	0.4222399
205	0xbeecefcc	-0.462767
206	0xbed9b8de	-0.42523855
207	0x3db0bf39	0.08630223
208	0xbe0927b7	-0.13394056
209	0x3ecf50f0	0.40491438
210	0x3f0765df	0.5288982
211	0x3ec4ab8d	0.38412133
212	0x3eadaa3c	0.3391894
213	0x3da2f63c	0.07957122
214	0xbd9d2d15	-0.07674614
215	0x3e09996e	0.13437435
216	0x3deb1aeb	0.114797436
217	0xbd12c2bf	-0.035830256
218	0x3aab47d0	0.0013067666
219	0x3d095816	0.03353127
220	0xbc1da0cd	-0.009620857
221	0xbcf2114d	-0.029549265
222	0x3d6baf12	0.057540007
223	0x3db6465b	0.08900138
224	0xbe4c12fc	-0.19929117
225	0xbea2afbe	-0.31774706
226	0x3eb9220e	0.36158794
227	0xbdc3ce98	-0.09560889
228	0xbccbbdfb	-0.024870863
229	0xbe4395a4	-0.19100052
230	0x3fae9f83	1.3642429
231	0x3f1e55cd	0.6184967
232	0x3ee2ced5	0.44298425
233	0x3d8511a3	0.064975046
234	0x3eebc8c9	0.46051624
235	0x3ebf82da	0.3740452
236	0x3ea7d3e0	0.32778835
237	0x3ed51de7	0.41624376
238	0x3db1b65d	0.08677361
239	0x3f1c4384	0.6104052
240	0xbe0dcd43	-0.13847832
241	0x3d718e92	0.058973856
242	0xbdb905cf	-0.09034311
243	0xbeba935c	-0.3644055
244	0x3df45b23	0.119314454
245	0xbe3e53a9	-0.18586601
246	0x3ec63422	0.3871165
247	0x3c97ab1a	0.018514205
248	0x3ec4b012	0.3841558
249	0x3e4941e1	0.19654037
250	0xbc9d05dd	-0.019167835
251	0x3d17e1d2	0.037080593
252	0xbe1e365a	-0.15450421
253	0xbe1502a8	-0.14551795
254	0x3e29464b	0.16530721
255	0xbe1ff69a	-0.15621415

gnn.convs.0.nn.lins.0.bias f4 [16]
0	0x3bbeaf26	0.005819219
1	0xbd8f2c65	-0.069908895
2	0xbd1e8de8	-0.03870955
3	0xbe440e01	-0.19145967
4	0x3e79c70c	0.24392337
5	0x3d249302	0.04017926
6	0x3e20abfc	0.15690607
7	0xbd8f9ffe	-0.07012938
8	0xbe5ad4b0	-0.21370196
9	0x3d660be5	0.056163687
10	0xbdd4b27d	-0.103856064
11	0xbe8b8549	-0.27250126
12	0xbe6dfe43	-0.23241524
13	0x3cf240d1	0.029571922
14	0xbdef3e03	-0.1168175
15	0xbe2e9a92	-0.17051151

gnn.convs.0.nn.lins.1.weight f4 [16, 16]
0	0xbe9b711b	-0.3035973
1	0xbe4743e0	-0.19459486
2	0xbe1b7e08	-0.15184796
3	0xbe860a30	-0.26179647
4	0xbe4fc555	-0.2029012
5	0xbe7d1ad4	-0.24717265
6	0xbc8fdf79	-0.017562615
7	0x3d0c246f	0.034214433
8	0x3c10bc14	0.008833904
9	0x3cc25d85	0.023726234
10	0xbe57bd2d	-0.21068259
11	0x3ca81448	0.020517483
12	0x3bdce3e4	0.006741034
13	0x3de6c6b7	0.112683706
14	0x3cea76e0	0.028621137
15	0x3e1d0e02	0.15337375
16	0x3f1f5619	0.6224075
17	0xbeeaabfb	-0.45834336
18	0x3e594045	0.21215923
19	0xbea71967	-0.32636568
20	0xbf134216	-0.57522714
21	0x3ebca1db	0.36842236
22	0x3ea1f10e	0.31629223
23	0x3e142435	0.14466937
24	0x3ce0ed22	0.027456824
25	0x3de4dfeb	0.111755215
26	0x3e41cff8	0.1892699
27	0x3d675c34	0.056484416
28	0xbd1c4698	-0.03815326
29	0xbf1bd6ef	-0.6087484
30	0xbef91cf5	-0.48654905
31	0x3efdc3f9	0.49563578
32	0x3f5aa0bd	0.8540152
33	0xbb6419de	-0.0034805457
34	0x3e8c9ffd	0.2746581
35	0xbeee4c5f	-0.46542642
36	0xbea2b273	-0.3177677
37	0xbdb130c6	-0.08651881
38	0x3f026db7	0.5094866
39	0x3ebc7ac3	0.3681241
40	0x3e354208	0.1770097
41	0xbe57ebe6	-0.21086082
42	0x3e8198a9	0.25311783
43	0xbe98f11e	-0.29871458
44	0x3e30e055	0.17273076
45	0xbe0ba489	-0.13636984
46	0xbeedfa9d	-0.46480265
47	0x3f259e41	0.646946
48	0x3f0f45ba	0.5596577
49	0xbe5c368b	-0.21505181
50	0x3e925cbd	0.2858638
51	0xbf853726	-1.0407455
52	0xbe885346	-0.26626033
53	0x3e9f9769	0.31170204
54	0x3ceb7461	0.028742017
55	0x3e97690e	0.29572338
56	0x3d05d01b	0.032669168
57	0x3e48aff6	0.19598374
58	0x3dd7e78d	0.10542212
59	0x3cc9d627	0.024638249
60	0xbe65903e	-0.22418305
61	0xbf042a88	-0.516274
62	0xbee150ed	-0.44007054
63	0x3f06efc3	0.527096
64	0xb9edaaab	-0.0004533132
65	0x3d9a4149	0.075319834
66	0xbe15375d	-0.145719
67	0x39539181	0.00020176733
68	0xbe826e1c	-0.25474632
69	0xbe3b08a6	-0.18265018
70	0x3e0d82cd	0.13819428
71	0xbd954941	-0.07289363
72	0x3e151152	0.14557388
73	0x3e503b86	0.20335206
74	0x3e44f0bf	0.19232462
75	0x3dc951ab	0.0983003
76	0xbe83a7a5	-0.2571384
77	0xbe7d75e1	-0.24751998
78	0xbe1c93fb	-0.15290825
79	0x3d6087fb	0.05481718
80	0x3ed2f08a	0.41199142
81	0x3e6f88b8	0.23391998
82	0x3e5699b3	0.20957069
83	0xbed0c5d6	-0.40775937
84	0xbec0d615	-0.37663332
85	0x3cfad720	0.030620158
86	0x3e804c5d	0.2505826
87	0x3ec10dd4	0.37705863
88	0x3e0e41c4	0.13892275
89	0xbdb535ca	-0.0884815
90	0x3da6521b	0.08121129
91	0xbea01917	-0.31269142
92	0x3c76a0ea	0.015053013
93	0xbe1c3516	-0.15254626
94	0xbf076d8e	-0.5290154
95	0x3e1de25b	0.15418379
96	0xbe85d6b2	-0.26140362
97	0x3e693c08	0.22776806
98	0xbc06c464	-0.008225534
99	0xbe23ca48	-0.15995133
100	0x3cd88401	0.026430132
101	0xbe9589d3	-0.29206714
102	0x3db9be86	0.090695426
103	0xbe466a02	-0.19376376
104	0xbdbc3c14	-0.091911465
105	0xbe55dc41	-0.20884801
106	0xbdc0a7d8	-0.09407014
107	0xbea3aafe	-0.31966394
108	0xbe324798	-0.17410123
109	0xbde24311	-0.11047948
110	0x3db109e9	0.08644468
111	0x3da13c8e	0.07872878
112	0x3e6e4136	0.23267063
113	0x3c494700	0.012284994
114	0x3ec6778f	0.3876309
115	0x3f0f621f	0.56009096
116	0xbe486280	-0.19568825
117	0x3dabea06	0.08394246
118	0x3e95dbd6	0.29269284
119	0x3f07905b	0.52954644
120	0xbe357e96	-0.1772407
121	0x3e2e75a7	0.17037068
122	0x3e9beb26	0.30452842
123	0x3edd9930	0.43280935
124	0xbd1fb0cb	-0.038986962
125	0x3e7e18d4	0.24814159
126	0x3eedb3a5	0.4642612
127	0xbe1f50ae	-0.1555812
128	0x3ebd3b2c	0.36959207
129	0xbecfb5bd	-0.40568343
130	0x3e751143	0.23932366
131	0xbef160a5	-0.47144046
132	0xbe9e2d7a	-0.3089407
133	0xbe5c8da6	-0.2153841
134	0x3e0857d8	0.1331476
135	0x3e835650	0.2565179
136	0x3d70f3c0	0.058826208
137	0x3e1b7abc	0.15183538
138	0xbd3c0837	-0.04590627
139	0x3dc08dc3	0.09402039
140	0x3e1293b5	0.14314158
141	0xbe78c9a0	-0.24295664
142	0xbe2afe43	-0.16698556
143	0x3e039f07	0.12853633
144	0xbe28055b	-0.16408293
145	0xbd6e0827	-0.058113243
146	0xbe1d9641	-0.15389349
147	0xbd5a5e12	-0.05331237
148	0x3de53766	0.11192207
149	0xbe1e4a57	-0.15458046
150	0xbe27eb9b	-0.1639847
151	0xbe2ee5df	-0.17079876
152	0xbcb4de1a	-0.022078563
153	0xbb4d6f21	-0.0031346756
154	0xbb9e149d	-0.0048242346
155	0x3dff1829	0.1245578
156	0x3e0b0f7a	0.13580123
157	0xbda011f5	-0.07815925
158	0xbd405651	-0.046957318
159	0x3d9a93f8	0.07547754
160	0x3f0f123e	0.5588721
161	0x3e0fc86d	0.140413
162	0x3e7ebeca	0.24877468
163	0xbf21352b	-0.6297175
164	0xbea79af4	-0.32735407
165	0x3eca35c1	0.39494136
166	0x3df251b0	0.11831987
167	0x3e8e659f	0.27811906
168	0xbe5311f7	-0.20612322
169	0x3e85dbf6	0.2614438
170	0x3e186614	0.1488269
171	0xbe4768e0	-0.194736
172	0x38d22ec9	0.00010022295
173	0xbee99d28	-0.45627713
174	0xbf0beec7	-0.5466122
175	0x3ef44e33	0.4771591
176	0x3f2ddbd7	0.67913574
177	0xbe589a6b	-0.21152656
178	0x3d97368e	0.07383452
179	0xbf217444	-0.6306803
180	0xbdaffdd6	-0.08593337
181	0x3df58416	0.11988084
182	0x3f0dcf21	0.5539418
183	0x3e86dbd2	0.26339585
184	0x3dc81296	0.0976917
185	0xbe6a8a3b	-0.22904293
186	0x3e5e8ad9	0.21732654
187	0xbe7618fa	-0.24032965
188	0x3cf9360c	0.03042128
189	0xbe5c80f1	-0.21533562
190	0xbeba9e5c	-0.36448944
191	0x3ef7ccb0	0.48398352
192	0x3d7211d0	0.05909902
193	0xbd2c2430	-0.0420267
194	0x3e21c82a	0.15799013
195	0xbdf5f3ec	-0.12009415
196	0xbe2a3ffe	-0.16625974
197	0x3db32438	0.087471426
198	0xbe106e60	-0.14104605
199	0xbe31f102	-0.17377093
200	0x3e469f44	0.19396693
201	0x3d8ceff8	0.06881708
202	0x3d97208c	0.07379255
203	0xbdc404ac	-0.095712036
204	0xbd9ccf68	-0.07656747
205	0x3e054dfa	0.13018027
206	0xbe014d8e	-0.12627241
207	0x3d4683a0	0.04846537
208	0x3ed8d75e	0.42351812
209	0x3da97c87	0.08275705
210	0xbd6d478b	-0.057929557
211	0xbf2497dd	-0.64294225
212	0xbee41514	-0.4454733
213	0x3ee462e3	0.44606695
214	0x3d54a189	0.051911864
215	0x3dc25192	0.094882146
216	0x3e7ae336	0.24500737
217	0x3e495fcb	0.19665448
218	0x3e6bc1d8	0.23023164
219	0xbdcbea6e	-0.09956823
220	0x3d5f8712	0.054572172
221	0xbf0f7bac	-0.56048083
222	0xbf478c27	-0.7794823
223	0x3f0586c5	0.52158767
224	0x3f64a7bb	0.89318436
225	0x3e355998	0.17709959
226	0x3de8155d	0.113322
227	0xbec81867	-0.39081118
228	0x3b391091	0.0028238634
229	0x3e1c9add	0.1529345
230	0x3ee6949e	0.4503526
231	0x3eed8a16	0.46394414
232	0xbd8484d1	-0.06470645
233	0x3e935775	0.28777662
234	0x3d4cae8f	0.04997116
235	0xbf1a7602	-0.60336316
236	0x3e6476ed	0.22310992
237	0xbea97da4	-0.3310367
238	0xbf337716	-0.70103586
239	0x3ec63d91	0.38718846
240	0xbf0e5b0a	-0.55607665
241	0xbde2aa47	-0.11067634
242	0xbe52e96d	-0.20596857
243	0x3f5a7404	0.85333276
244	0x3e1cb83c	0.15304655
245	0x3d90c1a6	0.070681855
246	0x3da90d11	0.08254445
247	0x3e0cf14b	0.13763921
248	0x3ec7ac11	0.38998464
249	0x3db54a65	0.0885208
250	0x3e8c3778	0.2738607
251	0x3e06a32a	0.1314818
252	0x3df12cec	0.11776146
253	0x3ef65217	0.48109505
254	0x3f168898	0.58802176
255	0xbee7e765	-0.45293728

gnn.convs.0.nn.lins.1.bias f4 [16]
0	0xbe2920d6	-0.16516432
1	0x3df0c9ff	0.11757278
2	0xbb2c26ab	-0.0026268165
3	0x3d909eb1	0.07061518
4	0xbe6e6780	-0.2328167
5	0xbe37e946	-0.1796008
6	0xbe5795eb	-0.21053283
7	0xbe85db4c	-0.26143873
8	0x3df16f76	0.117888376
9	0xbdb9cfe0	-0.09072852
10	0x3c0e2c3a	0.008677537
11	0x3e4061d4	0.18787318
12	0xbe7948e6	-0.24344215
13	0x3dee8fa3	0.1164849
14	0xbec8596b	-0.3913072
15	0xbe9c8e12	-0.3057714

gnn.convs.1.nn.lins.0.weight f4 [16, 16]
0	0x3b31c5a4	0.002712586
1	0x3d672329	0.056430016
2	0xbe98e9c1	-0.2986584
3	0xbe6c0651	-0.23049285
4	0xbdf7058c	-0.12061605
5	0x3d3e6397	0.046481695
6	0xbda77f34	-0.08178559
7	0xbe335481	-0.17512704
8	0x3e281159	0.16412868
9	0xbe316971	-0.17325379
10	0x3da5c930	0.08095014
11	0x3e2e93f5	0.17048629
12	0xbe632e08	-0.22185528
13	0xbe732a0e	-0.23746511
14	0x3e86b2b2	0.2630821
15	0xbde239b5	-0.11046163
16	0x3e0d7e34	0.13817674
17	0xbe5e372b	-0.21700732
18	0xbe9cd456	-0.3063075
19	0xbe0b6a29	-0.13614716
20	0xbe4070c7	-0.18793021
21	0x3eb85ea4	0.36009705
22	0xbd536543	-0.051610243
23	0x3ece0fff	0.4024658
24	0xbcb238a2	-0.02175552
25	0x3e44e1e2	0.19226792
26	0xbe887488	-0.26651406
27	0xbdc2631f	-0.09491562
28	0x3da59b78	0.08086294
29	0xbe80a351	-0.251246
30	0x3cb0f26f	0.021599976
31	0x3e51abba	0.20475665
32	0xbd89b1c0	-0.06723356
33	0x3e60cafb	0.21952431
34	0x3e7bd33b	0.24592297
35	0x3e8a5bae	0.2702307
36	0x3c8dce66	0.017310333
37	0x3a1a8017	0.00058937207
38	0x3e347081	0.17621042
39	0x3caff7fa	0.02148055
40	0x3e75e1a9	0.24011864
41	0x3db1c06e	0.08679281
42	0x3cd59d4a	0.026075978
43	0x3f08d55f	0.5345058
44	0xbdbda860	-0.092606306
45	0x3e0d8dcd	0.13823624
46	0x3e88d8f3	0.2672802
47	0xbecd5568	-0.40104222
48	0xbe6b4eaf	-0.22979234
49	0x3f32b425	0.6980613
50	0x3e549935	0.20761569
51	0xb9450332	-0.00018788574
52	0xbe157f8b	-0.14599435
53	0xbcd9bbc7	-0.026578797
54	0x3d8abd63	0.06774404
55	0xbe431460	-0.19050741
56	0x3de94116	0.11389367
57	0x3e355766	0.17709121
58	0x3ee3ae01	0.44468692
59	0x3e7b4d60	0.24541235
60	0x3e6c45b2	0.23073462
61	0x3d64053a	0.055669047
62	0x3e3d3b0a	0.18479553
63	0xbeee4932	-0.4654022
64	0x3e1c405b	0.15258925
65	0xbeeb4b1e	-0.45955747
66	0xbe90ebee	-0.28305
67	0xbe8ef848	-0.279238
68	0x3e34b36d	0.1764657
69	0x3dd12215	0.10211579
70	0xbe1c69be	-0.15274712
71	0xbd85e8da	-0.065385535
72	0xbe9f796a	-0.3114732
73	0xbbfb83fa	-0.007675645
74	0x3dcff4bc	0.10154101
75	0xbe2b7998	-0.16745603
76	0x3d0f1e18	0.03494081
77	0xbe9ea6f1	-0.3098674
78	0x3e23a84d	0.1598217
79	0x3c551f47	0.013007945
80	0x3dc2764b	0.09495219
81	0x3da6f657	0.08152454
82	0x3dc36c5f	0.095421545
83	0x3e975992	0.29560524
84	0xbe9bdccc	-0.30441892
85	0xbe683462	-0.22676232
86	0xbe0656ad	-0.13119002
87	0xbdbba28a	-0.09161861
88	0xbdfb95e6	-0.1228445
89	0xbca6f113	-0.020378625
90	0x3ec6df3e	0.38842195
91	0x3e47e03f	0.19519137
92	0x3e2e8eea	0.17046705
93	0x3e17114a	0.14752689
94	0x3e901ee3	0.28148565
95	0xbf0cc0a6	-0.5498146
96	0x3d143bcc	0.03618984
97	0x3e80504f	0.2506127
98	0x3e6188c6	0.22024831
99	0x3ea8c4c6	0.32962626
100	0xbd3e8fd1	-0.046523873
101	0xba807105	-0.0009799307
102	0x3d24425c	0.040102348
103	0xbdb708b6	-0.08937208
104	0x3d1f5e03	0.038908016
105	0x3e1b5f4e	0.15173075
106	0xbd984a3e	-0.074360356
107	0xbc46d9ef	-0.01213692
108	0xbdcca570	-0.09992492
109	0x3e9ad960	0.3024397
110	0x3eab2159	0.3342388
111	0xbece94e2	-0.40347964
112	0x3cd9768a	0.026545782
113	0x3f15edc6	0.5856594
114	0x3db35bdb	0.087577544
115	0x3e36ca25	0.1785055
116	0x3e13082f	0.1435859
117	0x3e0626ad	0.13100691
118	0xbe7828ca	-0.2423431
119	0xbe679f98	-0.22619474
120	0x3d193f9c	0.03741418
121	0xbe9fb3ad	-0.3119177
122	0x3ef18c78	0.47177482
123	0x3e491fca	0.19641033
124	0xbe53577c	-0.20638841
125	0x3eb3a5b7	0.35087368
126	0x3ea71241	0.32631114
127	0xbf1062dc	-0.5640085
128	0x3e664b7d	0.22489734
129	0xbe004ab6	-0.125285
130	0xbb8d1160	-0.00430505
131	0xbcd8bb9e	-0.02645665
132	0xbe83e26b	-0.2575868
133	0xbba18cc3	-0.00493011
134	0xbe0bc922	-0.13650945
135	0xbe318888	-0.17337239
136	0x3e084527	0.1330763
137	0x3db97c4f	0.09056913
138	0xbee5a8ed	-0.44855443
139	0xbdc69b74	-0.09697619
140	0xbe158e1c	-0.14604992
141	0x3d1497da	0.03627763
142	0xbeea8cdc	-0.45810592
143	0x3d9178e0	0.07103133
144	0xbe10cf74	-0.14141637
145	0x3d9c6326	0.076360986
146	0xbe3dc7f2	-0.18533304
147	0xbe4bc02a	-0.19897524
148	0x3e3a87c3	0.18215851
149	0xbe1d4a96	-0.15360484
150	0x3e6ab544	0.2292071
151	0xbe3b704d	-0.18304558
152	0xbe32a19b	-0.1744446
153	0xbe6bf76b	-0.23043601
154	0xbeadda8b	-0.33955798
155	0x3d933e91	0.07189668
156	0xbe608c12	-0.21928433
157	0xbd9bb0ed	-0.07602105
158	0xbc6bcbfb	-0.014391894
159	0xbeb07819	-0.34466627
160	0x3e931bfc	0.28732288
161	0x3ea9726d	0.33095112
162	0x3df689a8	0.120379746
163	0x3e8602d8	0.26174045
164	0xbe3b6093	-0.18298559
165	0x3de41c56	0.11138217
166	0x3df0bf02	0.11755182
167	0xbdd152a3	-0.1022084
168	0x3dd8b1f5	0.105808176
169	0x3da52e06	0.08065419
170	0x3ebea809	0.37237576
171	0x3ebc928c	0.36830556
172	0x3d938cfc	0.07204625
173	0xbce7f377	-0.028314335
174	0x3ebedb5d	0.37276736
175	0xbf07e45d	-0.5308283
176	0x3d12e803	0.035865795
177	0x3e2e911a	0.1704754
178	0x3df27a5c	0.118397444
179	0x3e16dacd	0.14731903
180	0xbd2afe50	-0.041746438
181	0x3e0af209	0.13568892
182	0xbde673d0	-0.11252558
183	0xbea2966c	-0.31755388
184	0xbb75727e	-0.0037452276
185	0xbce0604f	-0.027389674
186	0x3eaecb19	0.34139326
187	0x3d6aca53	0.057321858
188	0xbe03502a	-0.12823549
189	0x3f07ce42	0.530491
190	0x3e9fc143	0.31202134
191	0xbf04f02f	-0.5192899
192	0x3e267917	0.1625713
193	0x3e238381	0.15968134
194	0xbd2b641c	-0.04184352
195	0xbdde1b21	-0.10845018
196	0xbcfa4a28	-0.030552939
197	0xbeba2ae5	-0.3636085
198	0x3d981dc6	0.07427554
199	0xbea89ae2	-0.32930666
200	0x3e1fcf27	0.15606366
201	0xbe59e682	-0.21279338
202	0xbe9bc361	-0.304225
203	0xbe294522	-0.16530278
204	0xbdba15ec	-0.090862125
205	0xbcb6292d	-0.022236431
206	0x3e055919	0.1302227
207	0x3c0c3a7d	0.008558867
208	0x3e0b3381	0.13593866
209	0x3dffa78a	0.124831274
210	0xbdfea47b	-0.12433716
211	0x3e9740eb	0.29541716
212	0x3e64c1a0	0.22339487
213	0x3cd51db1	0.026015135
214	0x3e404d40	0.18779469
215	0xbe8c0fbb	-0.2735575
216	0x3e2a72d5	0.16645367
217	0x3d2cab78	0.042155713
218	0xbde5f114	-0.11227623
219	0x3e7ab031	0.24481274
220	0xbe3d2d22	-0.18474248
221	0x3e86964c	0.26286542
222	0x3e308018	0.17236364
223	0xbe4ceff7	-0.20013414
224	0xbc9d676d	-0.019214356
225	0xbe432302	-0.19056323
226	0xbcbac1b1	-0.022797437
227	0xbe8e6d84	-0.2781793
228	0xbe70ebd2	-0.23527458
229	0xbc9b6d90	-0.018973142
230	0x3d8e4eba	0.0694861
231	0xbd6f8c25	-0.05848326
232	0x3dbbc250	0.091679215
233	0xbd7dc49e	-0.061955087
234	0xbe8b9897	-0.27264854
235	0xbca3eb7d	-0.02000975
236	0x3cd7ec20	0.02635771
237	0xbd3ecde8	-0.046583086
238	0xbe485618	-0.19564092
239	0xbe6210a6	-0.22076663
240	0xbdab9e43	-0.083797954
241	0x3e26c341	0.16285421
242	0x3dcceba0	0.100058794
243	0x3e92138d	0.2853054
244	0xbd660a31	-0.056162063
245	0xbe38bc94	-0.18040687
246	0x3d17a580	0.037023067
247	0x3d114a2b	0.035471123
248	0xbe3bce25	-0.18340357
249	0x3db1d4c7	0.08683162
250	0x3e853d22	0.26023203
251	0x3e95871a	0.29204637
252	0x3e342438	0.17591941
253	0x3e82623f	0.2546558
254	0x3e29bb51	0.16575362
255	0xbf1483ef	-0.58013815

gnn.convs.1.nn.lins.0.bias f4 [16]
0	0xbe955435	-0.29165807
1	0x3d985354	0.074377686
2	0xbcb0335e	-0.021508869
3	0xbc55e2d8	-0.013054572
4	0xbe6903cf	-0.22755359
5	0x3d19984a	0.03749875
6	0x3da6ad54	0.081385285
7	0x3ea1564a	0.31511146
8	0xbd645565	-0.0557455
9	0xbe62bfb0	-0.22143435
10	0x3d49a4cc	0.04922943
11	0x3b862faa	0.0040950375
12	0xbd25f956	-0.04052099
13	0x3e2fb254	0.1715787
14	0xbdee69e8	-0.11641294
15	0xbce943ce	-0.028474715

gnn.convs.1.nn.lins.1.weight f4 [16, 16]
0	0x3e02e083	0.12780957
1	0xbe528063	-0.20556788
2	0xbd71e5ef	-0.059057172
3	0x3e877cb5	0.2646233
4	0xbd9dd8b6	-0.0770735
5	0x3dd9db17	0.10637491
6	0xbe283389	-0.16425909
7	0x3e314a08	0.17313397
8	0xbe7731ea	-0.24140134
9	0x3dc19cc9	0.094537325
10	0xbdcae7bd	-0.09907482
11	0x3e7a7d66	0.24461898
12	0xbe8a8d3f	-0.27060887
13	0xbdc3c247	-0.0955854
14	0xbbfe8b04	-0.007768037
15	0x3e29b21e	0.16571853
16	0xbc9d8b58	-0.019231483
17	0xbd33ba6c	-0.043878958
18	0xbe126d33	-0.14299469
19	0xbe5601eb	-0.20899169
20	0x3e272f37	0.16326605
21	0xbd20be02	-0.039243706
22	0xbe20deab	-0.15709941
23	0x3be35fb4	0.006938899
24	0x3e02a3db	0.12757818
25	0x3d9d1974	0.076708704
26	0x3e5a8025	0.21337946
27	0x3cc8781b	0.024471333
28	0xbe3d0158	-0.18457544
29	0xbde6cdb0	-0.112697005
30	0x3e33a7ef	0.1754453
31	0xbea7a142	-0.32740217
32	0xbd31306d	-0.043259073
33	0x3ccd68b3	0.025074339
34	0xbe60f9f7	-0.21970354
35	0x3db2fc90	0.08739579
36	0x3e16540b	0.14680497
37	0xbe7a40fb	-0.2443885
38	0x3df3e36b	0.11908611
39	0x3d300c89	0.042980704
40	0x3d473607	0.04863551
41	0x3e23c289	0.15992178
42	0xbe25df7f	-0.16198538
43	0x3da74711	0.08167852
44	0x3d7a94f3	0.061177205
45	0xbe08a602	-0.13344577
46	0xbd78f8f6	-0.060784303
47	0xbe382a35	-0.1798485
48	0xbecb738d	-0.39736596
49	0xbe95386c	-0.2914461
50	0xbe75a347	-0.23988067
51	0xbdf37135	-0.11886827
52	0x3dde8d59	0.10866804
53	0xbdc4e460	-0.096138716
54	0xbd721cec	-0.059109613
55	0x3ccb8a78	0.0248463
56	0x3e6e36a3	0.2326303
57	0xbe7a0610	-0.24416375
58	0x3e301f7a	0.17199507
59	0x3e66bb9e	0.22532508
60	0x3e41b3e2	0.18916276
61	0xbdf15b5b	-0.11785003
62	0xbdaa2b44	-0.083090335
63	0xbe1d3012	-0.15350369
64	0xbdd634dc	-0.10459301
65	0x3d122ba9	0.03568617
66	0xbeb25aaa	-0.34834796
67	0xbdf38eff	-0.11892509
68	0x3e585732	0.21127012
69	0x3d4280b5	0.047486026
70	0xbe880631	-0.26567224
71	0x3c505426	0.012715375
72	0xbe605e12	-0.21910885
73	0xbe5dda94	-0.21665412
74	0x3e13bd75	0.14427741
75	0xbd021f38	-0.031768054
76	0xbe78f3c0	-0.24311733
77	0xbe93079b	-0.2871674
78	0x3af40700	0.0018617809
79	0xbe176afa	-0.14786902
80	0x3e4b46eb	0.19851272
81	0xbdd5a52d	-0.104318954
82	0x3dc0e16f	0.09417998
83	0x3d013420	0.03154385
84	0x3cede6b5	0.029040674
85	0xbe767479	-0.24067868
86	0xbdd5777a	-0.10423179
87	0xbe64e7be	-0.22354028
88	0x3bd6543b	0.006540803
89	0xbe7efa5e	-0.24900195
90	0xbe2bf840	-0.16793919
91	0x3d2fec21	0.0429498
92	0x3de383f8	0.111091554
93	0x3d5504d8	0.052006572
94	0x3dfa8456	0.12232272
95	0xbe477c7f	-0.19481085
96	0x3de8230f	0.11334812
97	0x3e9b3a32	0.30317837
98	0xbc0b6ddf	-0.008510082
99	0x3deaaa73	0.11458292
100	0x3e01ec5f	0.12687825
101	0x3e11e758	0.14248407
102	0xbeb51579	-0.35367945
103	0xbe3237ab	-0.17404048
104	0xbc302620	-0.010751277
105	0xbdf58e08	-0.11989981
106	0x3eb5374b	0.35393748
107	0xbe649b8a	-0.22324958
108	0x3d3636ac	0.044485733
109	0x3da77c02	0.081779495
110	0xbe1f03ff	-0.15528868
111	0xbe57aa3d	-0.21061035
112	0x3e213f0c	0.15746707
113	0xbe93b648	-0.28850007
114	0x3e9eebb0	0.3103919
115	0x3e1de356	0.15418753
116	0xbe9b8442	-0.30374342
117	0x3dcc6f21	0.09982134
118	0x3d3a31be	0.045457594
119	0x3e098be4	0.1343227
120	0x3e837a80	0.25679398
121	0x3d472a37	0.048624244
122	0x3e99976e	0.29998344
123	0x3e376add	0.17911859
124	0xbe0f7435	-0.14009173
125	0x3e708ace	0.2349045
126	0x3d9da596	0.07697599
127	0x3bb2924d	0.0054495693
128	0x3dd07d2b	0.10180124
129	0xbea50072	-0.32226902
130	0x3e621c89	0.22081198
131	0x3dbca818	0.09211749
132	0xbe2eb611	-0.1706164
133	0xbd09d320	-0.03364861
134	0x3e07aaf2	0.13248804
135	0x3d2bf7eb	0.04198448
136	0x3e1b0245	0.15137585
137	0x3eb27be3	0.34860143
138	0x3dd6c355	0.104864754
139	0x3cd58a9e	0.026067074
140	0xbdcdbaa5	-0.10045365
141	0x3e518c66	0.20463714
142	0x3e77118c	0.24127787
143	0x3e63ccdf	0.22246121
144	0xbd067052	-0.03282196
145	0xbe80c920	-0.25153446
146	0xbe413daf	-0.18871187
147	0xbd21ad7d	-0.039472092
148	0xbe7682ff	-0.24073409
149	0xbda291e1	-0.079379804
150	0x3d83dab7	0.06438201
151	0xbdc41216	-0.09573762
152	0x3e2764c8	0.16347039
153	0xbcbb8ed9	-0.022895264
154	0x3d863725	0.06553487
155	0x3defa16b	0.1170071
156	0x3e215791	0.1575606
157	0x3ddf8439	0.10913891
158	0xbe3383e0	-0.17530775
159	0xbde5292f	-0.11189496
160	0x3cdeedd8	0.027213022
161	0xbef2ef7d	-0.4744834
162	0xbd1f7358	-0.03892836
163	0x3ec57af0	0.38570356
164	0xbe637e45	-0.22216137
165	0x3e55ffab	0.20898311
166	0x3e7d3838	0.24728477
167	0x3f07c30e	0.53032005
168	0xbdce3c2e	-0.10070072
169	0xbe238b6a	-0.15971151
170	0x3e1fa963	0.1559196
171	0x3e48c6c3	0.19607072
172	0x3dfb598d	0.1227294
173	0x3e075c86	0.13218889
174	0xbe6a1209	-0.22858442
175	0x3e515ef8	0.20446384
176	0x3e2f77a0	0.17135477
177	0xbe05a780	-0.13052177
178	0x3ddc597e	0.10759257
179	0xbe8d4799	-0.27593687
180	0xbdb54b60	-0.08852267
181	0x3c00bb39	0.007857137
182	0xbd83e696	-0.06440465
183	0x3c88e671	0.016711446
184	0xbdf97c64	-0.12181929
185	0x3e24e798	0.16103971
186	0xbeb99baf	-0.3625159
187	0xbcd31a6e	-0.025769439
188	0x3e5ff17e	0.21869466
189	0xbe0086f7	-0.12551485
190	0xbe8d5fd1	-0.27612165
191	0x3e0f5ad5	0.13999493
192	0xbd69f608	-0.0571194
193	0xbec62357	-0.38698837
194	0x3e1adacb	0.15122525
195	0x3eebc31e	0.460473
196	0xbd94b549	-0.0726114
197	0x3e3487c0	0.1762991
198	0x3e7a0c70	0.24418807
199	0x3ea4feae	0.32225555
200	0x3d82d935	0.06389085
201	0x3c57d5ac	0.013173502
202	0x3ec01ca6	0.37521857
203	0x3f00e25e	0.5034541
204	0xbd01aa46	-0.031656526
205	0xbdaecbbc	-0.08534953
206	0xbe05e184	-0.13074309
207	0x3e0c43ce	0.1369774
208	0xbe169c1f	-0.14707993
209	0xbe6ef185	-0.2333432
210	0x3dab91d7	0.08377426
211	0x3ed444e1	0.414588
212	0x3ec79b41	0.38985637
213	0x3d966ce2	0.073449865
214	0x3c5a509e	0.013324885
215	0xbe691a02	-0.22763827
216	0xbd71db43	-0.059046995
217	0x3deb52e6	0.11490421
218	0x3e24e935	0.16104586
219	0xbe36ebac	-0.17863339
220	0xbdeaa876	-0.114579126
221	0x3d1bd6a4	0.038046494
222	0xbc56cde9	-0.013110616
223	0x3e4e1a4d	0.2012722
224	0x3e13b88f	0.14425872
225	0xbe9cc3bb	-0.3061808
226	0x3e879ef1	0.2648845
227	0x3e64c6f9	0.22341527
228	0x3e8e7479	0.27823237
229	0x3ea7000a	0.32617217
230	0xbc11f661	-0.008908839
231	0x3ef256ec	0.4733194
232	0xbdd3d293	-0.10342898
233	0xbcfe32ac	-0.031030022
234	0x3ebd98ce	0.37030643
235	0x3ef84412	0.48489434
236	0xbd391ec4	-0.045195356
237	0x3e9967cb	0.29962
238	0x3e00d3a5	0.12580736
239	0x3e8d71ef	0.27625987
240	0xbe42637b	-0.18983261
241	0x3eadad8f	0.33921477
242	0xbecb93fc	-0.3976134
243	0xbea3e494	-0.3201033
244	0x3ce2dc85	0.027693043
245	0xbdde060c	-0.10840997
246	0x3be7de71	0.0070760776
247	0x3e003237	0.12519155
248	0xbe33e995	-0.17569573
249	0x3d93f2a9	0.07224018
250	0xbe1c0175	-0.15234931
251	0xbe5afab2	-0.21384695
252	0x3e34b1fe	0.17646024
253	0xbe93c78f	-0.2886319
254	0xbe25d223	-0.16193442
255	0xbca0867d	-0.019595379

gnn.convs.1.nn.lins.1.bias f4 [16]
0	0x3e0c0461	0.13673545
1	0xbd436461	-0.04770315
2	0x3e2e5081	0.17022897
3	0xbdf0ca0f	-0.117572896
4	0xbea6a796	-0.32549733
5	0x3e1f551b	0.15559809
6	0x3dbbb783	0.091658615
7	0x3e7a0a71	0.24418046
8	0xbe15110a	-0.14557281
9	0x3e0087ca	0.125518
10	0x3e9ff0fb	0.3123854
11	0xbe032962	-0.12808755
12	0x3c24f85b	0.010068978
13	0x3da32dca	0.07967718
14	0x3e4f3515	0.20235093
15	0x3e2378d9	0.15964068

gnn.convs.2.nn.lins.0.weight f4 [16, 16]
0	0x3d5a77ac	0.053336784
1	0xbe5d5af9	-0.21616735
2	0x3d997208	0.07492453
3	0xbd4a833a	-0.049441554
4	0xbdc0cdd8	-0.094142616
5	0x3e41d4e4	0.18928868
6	0x3c77cbe9	0.0151243
7	0xbeab7431	-0.33487085
8	0x3dc955e9	0.09830839
9	0x3e4453e3	0.19172625
10	0xbdcb6568	-0.09931451
11	0xbe775b32	-0.24155882
12	0xbdb2fa9d	-0.08739207
13	0xbe7af493	-0.2450736
14	0xbde9d74d	-0.114180185
15	0xbe3d15a7	-0.18465291
16	0xbe4c982d	-0.19979925
17	0x3deef1ae	0.116671905
18	0xbdcbd4f9	-0.09952731
19	0x3ea214b2	0.31656414
20	0xbe9c34d1	-0.30509046
21	0xbe33b868	-0.17550814
22	0x3e07cf0b	0.13262574
23	0xbde20e37	-0.110378675
24	0x3e49ae4e	0.19695398
25	0xbe9d0b3b	-0.3067263
26	0xbea1851c	-0.31546867
27	0xbe27a500	-0.16371536
28	0xbe80d1c9	-0.25160053
29	0x3dd80484	0.10547736
30	0xbe8c7153	-0.2743021
31	0xbe7b1323	-0.24519019
32	0xbdf17986	-0.11790757
33	0xbbf4a78e	-0.007466263
34	0x3d7c1b2d	0.061549354
35	0x3d8cdd79	0.0687818
36	0xbd922e77	-0.07137769
37	0x3ddc59e0	0.1075933
38	0xbe03ac14	-0.12858611
39	0xbe59e7d5	-0.21279843
40	0x3dc33baa	0.095328644
41	0x3d8193a7	0.063269906
42	0xbe668393	-0.22511129
43	0xbd9a43e0	-0.075324774
44	0xbeb47e04	-0.35252392
45	0x3e209c0b	0.15684526
46	0x3d716c42	0.058941133
47	0x3dc5969c	0.09647867
48	0x3dd5df6f	0.10443007
49	0x3e0f3544	0.13985163
50	0x3df7552d	0.12076793
51	0x3d0a12e9	0.03370944
52	0x3dd32a1c	0.10310766
53	0xbe224dd8	-0.15850008
54	0x3db1e9e8	0.08687192
55	0x3e571cf7	0.21007143
56	0x3eb02371	0.3440204
57	0x3e00dae0	0.12583494
58	0x3e4da676	0.20083031
59	0xbbaae72b	-0.0052155457
60	0x3e8c0d4b	0.27353892
61	0xbc69472c	-0.01423816
62	0x3e9603e8	0.29299855
63	0x3dcc2b61	0.09969211
64	0xbc0f9a89	-0.008764871
65	0x3e574415	0.21022065
66	0xbe083a18	-0.13303411
67	0xbdd04644	-0.10169652
68	0x3e7da1fb	0.24768822
69	0x3da2ad46	0.079432055
70	0xbe066fa3	-0.13128524
71	0xbdd19edd	-0.10235379
72	0xbe94bfd4	-0.29052603
73	0x3e3cd91f	0.184422
74	0x3cd7ea3a	0.026356805
75	0xbe8f65e8	-0.28007436
76	0xbcf6ddeb	-0.030135116
77	0xbd4f42cb	-0.050600808
78	0xbe2461ac	-0.16052884
79	0xbe15afb6	-0.1461781
80	0xbe8b5268	-0.27211308
81	0x3e156a4d	0.14591332
82	0x3e4ec87b	0.20193665
83	0x3d423737	0.04741594
84	0xbdf647ab	-0.12025388
85	0xbdef50ba	-0.11685319
86	0x3cd1f12b	0.025627693
87	0xbd2d3ba5	-0.04229321
88	0x3db8d942	0.09025814
89	0x3e3108ef	0.17288564
90	0xbe51ba55	-0.20481236
91	0xbd205351	-0.039141957
92	0xbdeba583	-0.11506178
93	0x3dd165ef	0.102245204
94	0xbc2a7c1a	-0.010405565
95	0x3ce2fe96	0.027709287
96	0x3d939d11	0.072076924
97	0x3d908db7	0.0705828
98	0xbe6aec4b	-0.22941701
99	0x3e115312	0.14191845
100	0x3e083d63	0.13304667
101	0x3e70188c	0.23446864
102	0xbe1f1c16	-0.15538058
103	0xbdf97135	-0.12179796
104	0xbe966fed	-0.29382268
105	0x3dba7448	0.0910421
106	0xbe7244c9	-0.23659052
107	0x3ddad53f	0.10685205
108	0xbd5399be	-0.05166029
109	0x3dec032c	0.115240425
110	0xbe448071	-0.19189622
111	0x3e9268aa	0.28595477
112	0x3e54239e	0.20716712
113	0xbdc74f5a	-0.09731932
114	0xbeb858fb	-0.36005387
115	0x3e3457e2	0.1761165
116	0xbdbbf026	-0.09176664
117	0xbce6193a	-0.0280882
118	0xbde133f0	-0.109962344
119	0x3da4b817	0.08042925
120	0x3cf12706	0.029437553
121	0x3b945c18	0.00452758
122	0x3e8c9a9d	0.2746171
123	0xbdd635c5	-0.104594745
124	0xbcb3b7e1	-0.021938266
125	0x3d1c6da2	0.03819049
126	0x3df214ab	0.11820348
127	0xbbc0ebaa	-0.0058874683
128	0xbe66d0b4	-0.22540551
129	0x3d83205a	0.06402655
130	0xbd05927e	-0.03261041
131	0x3e45d161	0.19318153
132	0x3e39fffd	0.18164058
133	0x3e4e4457	0.20143257
134	0xbce6255c	-0.028093986
135	0xbdaa1429	-0.083046265
136	0x3d214a8e	0.03937774
137	0x3e89c74f	0.26909873
138	0xbe27bfd1	-0.16381766
139	0x3e2d6527	0.16933118
140	0x3db047ea	0.086074665
141	0x3e635e3b	0.22203915
142	0xbe2d5c38	-0.1692971
143	0x3df20fcd	0.1181942
144	0x3d8ce32e	0.068792686
145	0xbdb8f469	-0.090309925
146	0xbe3a29b1	-0.18179967
147	0x3dc85588	0.09781939
148	0x3cb6d923	0.022320336
149	0xbe1410ef	-0.14459585
150	0x3e2513b1	0.16120793
151	0x3d43539c	0.047687158
152	0xbd8b778a	-0.0680991
153	0xbeb8ee6e	-0.36119407
154	0x3e1928cb	0.14956968
155	0xbdffaaa8	-0.12483722
156	0xbda4209b	-0.080140315
157	0xbdf726fd	-0.12067983
158	0x3e8bb11e	0.27283567
159	0x3f0a2233	0.53958434
160	0x3de7ccd0	0.11318362
161	0x3e1d8e2d	0.15386267
162	0x3dcb3b1e	0.09923385
163	0x3cd730d4	0.0262684
164	0x3e49e435	0.1971596
165	0x3dc5d99e	0.09660648
166	0xbe1420c2	-0.14465621
167	0x3e16e6ad	0.14736433
168	0x3c3ba4dd	0.011452881
169	0xbe5fd5f8	-0.21858966
170	0xbebc985d	-0.36834994
171	0xbbeb5088	-0.007181231
172	0x3dfbdd7f	0.122981064
173	0xbdf41e9a	-0.11919899
174	0xbe0ff6c3	-0.14058976
175	0x3cbf5aa1	0.023358645
176	0xbd88ac2f	-0.066734664
177	0x3daa7a5c	0.083241194
178	0x3c5039d8	0.0127091035
179	0x3d89b771	0.06724442
180	0x3e1dafd5	0.15399106
181	0x3e4225e7	0.18959771
182	0x3d806290	0.06268799
183	0x3e033c75	0.12816031
184	0x3e330595	0.17482598
185	0xbd336cc3	-0.043804895
186	0x3e6e5285	0.23273666
187	0x3d15ab86	0.03654053
188	0x3d1e27ea	0.038612284
189	0xbe1347d4	-0.14382869
190	0x3eb687a7	0.3565037
191	0xbe564151	-0.20923354
192	0xbe52874e	-0.20559427
193	0x3dcffb67	0.10155373
194	0x3e15a8aa	0.14615121
195	0xbd9715d1	-0.07377208
196	0xbcc52ac0	-0.024068236
197	0x3dac53ef	0.084144466
198	0xbe74f38b	-0.2392103
199	0x3d92cea7	0.07168322
200	0xbdd3a20f	-0.103336446
201	0x3ddb7e9c	0.10717508
202	0xbe626484	-0.22108656
203	0x3e64f9ee	0.22360966
204	0xbe3f7b58	-0.18699396
205	0xbdb29a39	-0.08720822
206	0xbe73b80c	-0.23800677
207	0x3de7f0dc	0.11325237
208	0xbdfe1fc2	-0.12408401
209	0xbe3017e5	-0.17196615
210	0xbe036147	-0.12830077
211	0x3d79dbb8	0.061000556
212	0x3dd72dbd	0.10506771
213	0x3e8f301f	0.279664
214	0xbe5d6bca	-0.2162315
215	0x3db33c7b	0.0875177
216	0xbde87ff5	-0.11352531
217	0xbd609f83	-0.054839622
218	0xbe84f2f1	-0.259666
219	0xbe8a617d	-0.27027503
220	0x3c8c7790	0.017146856
221	0xbe45bc8f	-0.1931021
222	0x3cc23451	0.023706587
223	0xbe243649	-0.16036333
224	0x3e354b52	0.17704514
225	0xbebca148	-0.36841798
226	0xbd4519b4	-0.048120216
227	0xbe37508c	-0.1790182
228	0xbe678212	-0.22608212
229	0xbd4710dc	-0.048600063
230	0xbe7f633d	-0.249402
231	0x3e13e6ad	0.14443465
232	0x3d7173c1	0.058948282
233	0xbe1285ee	-0.14308903
234	0x3e98e7fb	0.29864487
235	0x3e480ace	0.19535372
236	0x3ad80fba	0.0016484179
237	0xbd464058	-0.048401207
238	0xbd625370	-0.055255353
239	0xbe56f3a8	-0.20991385
240	0xbe1a8a0d	-0.15091725
241	0x3e24db60	0.1609931
242	0x3e2220f9	0.1583289
243	0x3a8d502a	0.0010781337
244	0x3e6349f5	0.22196181
245	0xbe0f3eec	-0.13988847
246	0xbe091328	-0.13386214
247	0x3e35f6e6	0.17769966
248	0x3d8d8ff3	0.06912222
249	0x3d587ffa	0.052856423
250	0x3e58d16e	0.21173641
251	0xbdd7c3f0	-0.10535419
252	0x3e8c980e	0.2745976
253	0x3e772d26	0.24138317
254	0x3e40e8fa	0.18838874
255	0xbe3d987e	-0.18515202

gnn.convs.2.nn.lins.0.bias f4 [16]
0	0xbdfde13d	-0.123964764
1	0x3e56038c	0.2089979
2	0x3c13b539	0.009015375
3	0x3e9766bc	0.29570568
4	0x3d615a09	0.055017505
5	0xbe8beeb1	-0.27330545
6	0xbdbfaa37	-0.09358638
7	0x3d1812b8	0.037127227
8	0x3e334b6f	0.17509244
9	0x3e33b2f4	0.17548734
10	0x3e615690	0.22005677
11	0x3c41ef0e	0.01183678
12	0xbdb16610	-0.08662045
13	0x3dda13f0	0.10648334
14	0x3e0f3195	0.13983758
15	0x3e9840d4	0.2973696

gnn.convs.2.nn.lins.1.weight f4 [16, 16]
0	0xbe1377a1	-0.14401104
1	0xbd922896	-0.071366474
2	0xbea49808	-0.3214724
3	0xbc29acf6	-0.0103561785
4	0xbde3c9ac	-0.1112245
5	0xbce14405	-0.027498255
6	0xbcb61f70	-0.022231787
7	0xbe568fbc	-0.20953268
8	0xbda158b8	-0.0787825
9	0xbd082c85	-0.033245582
10	0x3c9b4022	0.01895148
11	0x3e1cbdbc	0.15306753
12	0xbe373ba8	-0.17893851
13	0xbd39a059	-0.045318935
14	0xbdf6c630	-0.1204952
15	0xbd8e23a9	-0.069403954
16	0x3e26845c	0.16261429
17	0xbe0c143f	-0.13679598
18	0x3e2969c4	0.16544253
19	0x3ea08d80	0.31357956
20	0xbe1d3126	-0.1535078
21	0xbd3b3d33	-0.04571266
22	0x3c494e45	0.012286727
23	0x3d807e47	0.062740855
24	0x3cfe2199	0.03102188
25	0xbe76feea	-0.2412068
26	0xbdffdcb3	-0.12493267
27	0x3e76d5a6	0.24104938
28	0x3d93bed1	0.0721413
29	0x3c7a09f7	0.015261165
30	0x3e9579f5	0.29194608
31	0x3eab912b	0.33509192
32	0xbc90f609	-0.017695444
33	0x3d375fbd	0.044769038
34	0x3dbdda06	0.092701
35	0xbde6058e	-0.11231528
36	0xbdd45edf	-0.10369658
37	0x3d794883	0.06086017
38	0x3e29ce4c	0.16582602
39	0x3e34f34c	0.17670935
40	0x3dbabd4b	0.09118136
41	0xbe24a576	-0.16078743
42	0xbe35e526	-0.17763194
43	0x3d616b9a	0.055034257
44	0x3e1473a0	0.14497232
45	0xbdbe2324	-0.09284046
46	0xbc6c5a1a	-0.014425779
47	0xbea026d5	-0.31279626
48	0xbe1e3332	-0.15449217
49	0xbd969f7d	-0.07354639
50	0xbea2b76b	-0.31780562
51	0xbe811ba3	-0.25216398
52	0xbe400c85	-0.18754776
53	0x3bc36b53	0.005963722
54	0xbded5dcf	-0.11590158
55	0xbdd863e4	-0.105659276
56	0xbd10783f	-0.035270926
57	0xbe41300c	-0.18865985
58	0xbe6a34c0	-0.22871685
59	0x3de53348	0.11191422
60	0xbee95690	-0.45573854
61	0xbcdd00c0	-0.026977897
62	0xbe71a05e	-0.23596331
63	0x3cd45f30	0.025924295
64	0x3e694ad9	0.22782458
65	0x3e5fbab5	0.21848567
66	0x3d1e1ee4	0.03860368
67	0xbe1914b5	-0.14949305
68	0x3e5b757d	0.21431537
69	0xbe280e69	-0.16411747
70	0x3e4b33c5	0.19843967
71	0xbdf588d3	-0.11988988
72	0x3e0fe659	0.14052714
73	0xbdcbe88a	-0.09956463
74	0xbe981154	-0.2970072
75	0x3dd0f5c1	0.10203124
76	0x3e38538d	0.18000622
77	0xbdc6e2d0	-0.0971123
78	0xbe93e073	-0.2888218
79	0x3e37bb28	0.17942488
80	0x3e044e9a	0.12920609
81	0xbdc57d58	-0.09643048
82	0xbe188e5c	-0.14898056
83	0xbc6410ca	-0.013920018
84	0x3e1b32e3	0.1515613
85	0xbe5df0d3	-0.21673898
86	0xbe463b4d	-0.19358559
87	0x3e0496cd	0.12948151
88	0xbe810d88	-0.25205636
89	0x3f15c594	0.58504605
90	0x3d3200a6	0.04345765
91	0x3deb936a	0.115027264
92	0xbd560da5	-0.052259106
93	0x3cfa998a	0.030590791
94	0xbd38fcd0	-0.045162976
95	0x3d196297	0.03744754
96	0x3e2f34ea	0.17110029
97	0xbe133b1f	-0.14378022
98	0x3df626f1	0.12019146
99	0x3e52803a	0.20556727
100	0xbccae4b0	-0.02476725
101	0x3e3881b2	0.18018225
102	0xbe297550	-0.16548657
103	0x3da3d446	0.07999472
104	0x3e3d0d0c	0.18462008
105	0x3e5ce303	0.21570973
106	0x3e69892a	0.2280623
107	0x3eb60095	0.3554732
108	0x3dadd241	0.084873684
109	0x3e2e01b0	0.16992831
110	0xbd84f86f	-0.064926974
111	0x3ebf5deb	0.3737634
112	0x3daf7db5	0.085688986
113	0x3d162bc4	0.036662832
114	0x3d24503e	0.040115587
115	0xbe0c5d9b	-0.13707583
116	0xbd1db09e	-0.038498513
117	0xbe0ac0af	-0.13550065
118	0xbdf26cb0	-0.11837137
119	0xbdca15fe	-0.09867476
120	0x3e46165c	0.19344467
121	0xbe5d8063	-0.21631007
122	0xbe7fe910	-0.2499125
123	0xbe640d63	-0.22270732
124	0x3cf88ab0	0.030339569
125	0x3e08e85d	0.1336989
126	0x3d0aac97	0.033856
127	0x3e519e21	0.20470478
128	0x3c97e616	0.01854233
129	0x3e114ab9	0.1418866
130	0xbe30d821	-0.17269947
131	0xbe50bb11	-0.2038386
132	0xbe65ac56	-0.22429022
133	0x3dceeb3f	0.101034634
134	0xbea709dd	-0.32624713
135	0xbdaa9ad4	-0.08330312
136	0xbe6a77dd	-0.22897287
137	0x3d955718	0.072920024
138	0x3d1eae03	0.03874017
139	0x3d8baca5	0.06820039
140	0xbd8606fe	-0.065443024
141	0x3d3a7669	0.04552308
142	0xbe67b8f5	-0.2262915
143	0x3ddab7e9	0.10679609
144	0xbd915ea7	-0.070981316
145	0xbd460f87	-0.04835465
146	0xbde15418	-0.11002368
147	0xbe27e724	-0.16396767
148	0xbd9f5d23	-0.07781436
149	0x3ce25907	0.027630342
150	0xbda0b8bd	-0.07847736
151	0x3e27967d	0.16366
152	0x3d85a7ff	0.06526183
153	0xbed87d09	-0.42282894
154	0x3df4fdeb	0.119624935
155	0xbe483452	-0.19551209
156	0xbe3c3174	-0.1837824
157	0x3e15eab2	0.1464031
158	0x3e1ad8de	0.15121791
159	0x3dc18244	0.09448674
160	0x3d612aad	0.05497234
161	0xbe58f1d6	-0.21186003
162	0xbddbf23c	-0.10739562
163	0xbe3a077f	-0.18166922
164	0x3c257bdf	0.010100334
165	0x3e26e8ee	0.16299793
166	0x3d91afba	0.07113595
167	0xbc9de653	-0.019274866
168	0xbe6b1e99	-0.22960891
169	0xbd41c1cf	-0.04730397
170	0xbd7b0d1f	-0.06129181
171	0x3d92af7a	0.07162376
172	0xbd743f65	-0.05963077
173	0xbeb667b4	-0.35625994
174	0xbe9109e7	-0.28327867
175	0xbe0e1299	-0.13874282
176	0xbe854d22	-0.2603541
177	0xbe925483	-0.28580102
178	0x3e41d707	0.18929683
179	0xbdc27ac0	-0.09496069
180	0xbdcc84d9	-0.09986276
181	0xbe92e299	-0.28688505
182	0xbe9bfcfa	-0.30466443
183	0xbed173b2	-0.4090858
184	0xbdfe7e71	-0.124264605
185	0x3da1cfa4	0.079009324
186	0xbe01eb3d	-0.12687393
187	0xbdf1d45f	-0.11808085
188	0xbd38ddfe	-0.045133583
189	0x3da1686c	0.07881245
190	0x3d8c0899	0.068375774
191	0xbe6cd47d	-0.23127933
192	0xbdd2d082	-0.10293676
193	0x3e02937f	0.12751578
194	0x3e21c59f	0.15798043
195	0xbd19620f	-0.03744703
196	0xbbbc239d	-0.00574155
197	0xbd559a1e	-0.05214893
198	0x3e4c1e1f	0.19933365
199	0x3e527450	0.20552182
200	0x3c49f8c3	0.012327376
201	0x3da7368a	0.081646994
202	0x3c6f9712	0.01462342
203	0xbdb7870e	-0.089613065
204	0xbdb7b26e	-0.0896958
205	0xbc073155	-0.008251508
206	0x3d73b77a	0.05950115
207	0x3e11b4b7	0.14229093
208	0xbd9f1b42	-0.07768871
209	0x3d72c89b	0.059273344
210	0x3d909e95	0.07061497
211	0x3e6eb4db	0.23311178
212	0x3d877488	0.066140234
213	0xbe709329	-0.23493637
214	0x3e6011fb	0.21881859
215	0x3ddd625d	0.10809777
216	0x3e345015	0.17608674
217	0x3cca4ec8	0.024695769
218	0x3e8a8b3a	0.27059346
219	0x3ebb25b8	0.36552215
220	0xbde06e55	-0.10958544
221	0xbe82cfd6	-0.2554919
222	0x3de37812	0.11106886
223	0x3e2c9d27	0.16856824
224	0xbe1c49f7	-0.1526259
225	0x3e052b8f	0.13004898
226	0x3da5ce51	0.08095992
227	0x3e22595f	0.15854405
228	0x3eb7e0b4	0.35913622
229	0x3d7bf5a8	0.061513573
230	0x3d5bfcbd	0.053707827
231	0xbde2edf8	-0.11080545
232	0x3e71c328	0.23609602
233	0xbe1bb91e	-0.15207335
234	0xbddb7e10	-0.10717404
235	0xbe2229b3	-0.1583622
236	0xbe0ee666	-0.13955078
237	0x3e1c1d75	0.15245612
238	0x3d5ffd6c	0.05468504
239	0x3d27f9ab	0.041009586
240	0x3dde510a	0.10855301
241	0x3e25ff85	0.16210754
242	0x3e0a93b0	0.13532901
243	0xbe782e8c	-0.24236506
244	0x3d93ef83	0.072234176
245	0xbdbc9d46	-0.09209685
246	0x3e2f3109	0.17108549
247	0x3e11527c	0.14191622
248	0xbd1a7c45	-0.03771617
249	0xbe110349	-0.1416141
250	0x3e81234a	0.25222236
251	0xbe9f3f19	-0.31102827
252	0xbe25b574	-0.161825
253	0x3e1f73da	0.15571538
254	0xbd115388	-0.035480052
255	0xbe925577	-0.2858083

gnn.convs.2.nn.lins.1.bias f4 [16]
0	0xbe6c87a7	-0.23098622
1	0x3e25c6c4	0.16189104
2	0xbc3faa93	-0.011698383
3	0xbecec373	-0.4038349
4	0x3dd2d2a2	0.10294081
5	0x3e834908	0.25641656
6	0x3d871f06	0.06597714
7	0x3e1c30b5	0.15252955
8	0xbb51a3d7	-0.0031988525
9	0x3e0788a5	0.1323572
10	0xbd7575b6	-0.05992671
11	0xbd2d13fd	-0.04225539
12	0x3e3c3630	0.18380046
13	0xbbe3022c	-0.006927749
14	0x3e53fb37	0.207013
15	0xbc6c33b9	-0.0144166285

gnn.convs.3.nn.lins.0.weight f4 [16, 16]
0	0xbe3ccb31	-0.18436886
1	0xbd81ad6f	-0.06331908
2	0xbcd85865	-0.026409337
3	0x3e3c400c	0.18383807
4	0xbe60560f	-0.21907829
5	0xbe15572a	-0.14584032
6	0xbe3faa37	-0.18717276
7	0x3e77f18c	0.24213237
8	0xbdfd1b7b	-0.12358757
9	0x3d5badd3	0.05363257
10	0xbe071ec0	-0.13195324
11	0xbe1ec0f8	-0.15503299
12	0x3d89c6dc	0.067273825
13	0x3dcec02c	0.100952476
14	0x3e7d41d8	0.24732149
15	0xbdaf7944	-0.085680515
16	0x3e851a74	0.25996745
17	0xbe304bdd	-0.1721644
18	0x3ccbac42	0.024862412
19	0xbe25dc5d	-0.16197343
20	0xbcbb8434	-0.022890188
21	0xbe8cf6a8	-0.27531934
22	0x3c754fcf	0.014972641
23	0x3e877ada	0.26460916
24	0xbcf498e3	-0.029858058
25	0x3e445037	0.19171225
26	0x3e4105aa	0.18849817
27	0x3d82bf0e	0.06384097
28	0xbd04a9c2	-0.032388456
29	0xbe3fe002	-0.18737796
30	0x3d23ba65	0.03997268
31	0xbe888282	-0.2666207
32	0xbe49b88f	-0.1969931
33	0xbded5ac7	-0.1158958
34	0x3e029f31	0.12756039
35	0x3ee0d406	0.4391176
36	0xbdc2002b	-0.09472688
37	0xbe6152f4	-0.220043
38	0xbea0c2f6	-0.31398743
39	0xbe2514ff	-0.1612129
40	0x3e191bb4	0.14951974
41	0xbde689c3	-0.11256745
42	0x3db89da4	0.090144426
43	0xbe2495d3	-0.16072778
44	0xbbb2f7b9	-0.0054616597
45	0xbe19cd1f	-0.15019654
46	0x3c611297	0.013737342
47	0xbe263149	-0.16229738
48	0x3d807b58	0.06273526
49	0xbe8ed8cc	-0.27899778
50	0x3d0feffa	0.03514097
51	0xbd925fd2	-0.071471825
52	0xbe98f7b7	-0.2987649
53	0x3e1735fb	0.14766686
54	0xbe0eb5aa	-0.13936487
55	0x3e28f80d	0.16500874
56	0xbd804d75	-0.06264774
57	0xbe549dd9	-0.20763339
58	0x3de3e23d	0.11127136
59	0x3d75a18c	0.059968516
60	0x3cbf30f6	0.023338776
61	0xbf100039	-0.5625034
62	0x3c28e31b	0.010308052
63	0x3dd01d80	0.10161877
64	0x3d48383b	0.04888175
65	0xbdd27731	-0.1027664
66	0xbe1f76fc	-0.15572733
67	0xbdd82e59	-0.10555715
68	0x3e72fe26	0.23729762
69	0xbd86ced1	-0.06582416
70	0x3d3105cb	0.043218415
71	0xbd797741	-0.060904745
72	0x3c9fde62	0.01951522
73	0x3cc05d8b	0.023482105
74	0xbc7d5313	-0.015461701
75	0x3dc8341f	0.09775566
76	0xbe26c432	-0.1628578
77	0x3dd3d731	0.10343779
78	0x3d80cece	0.06289445
79	0xbd346309	-0.04403976
80	0xbdc65755	-0.09684626
81	0xbe98c562	-0.2983809
82	0x3e39dbed	0.18150301
83	0x3d3582be	0.04431414
84	0xbe5fcf24	-0.21856362
85	0x3daa758f	0.08323204
86	0xbce9cca1	-0.028539957
87	0x3e692401	0.2276764
88	0x3dec59be	0.115405545
89	0x3e12f30f	0.14350532
90	0x3e2b74dd	0.16743799
91	0x3e0f5659	0.13997783
92	0xbe9dca9d	-0.30818644
93	0x3d3404f0	0.04395002
94	0x3e75e273	0.24012165
95	0x3d6c56bb	0.0576999
96	0x3e7374e5	0.2377506
97	0x3e7068a8	0.23477423
98	0x3d51d60d	0.051229525
99	0x3dacdadc	0.084401816
100	0xbd9aced5	-0.07558981
101	0xbd3aac93	-0.045574736
102	0x3e95f14b	0.29285654
103	0x3e06d0ba	0.1316556
104	0x3b55b417	0.0032608563
105	0x3e04670c	0.12929934
106	0x3e1a966e	0.15096447
107	0x3e1c1375	0.15241797
108	0xbdfa6f9e	-0.122283205
109	0x3ed42a30	0.41438437
110	0x3bb78c79	0.0056014624
111	0x3e4a4071	0.19751145
112	0x3b609e73	0.003427413
113	0xbe864f66	-0.2623245
114	0xbe8b64de	-0.27225393
115	0xbdec63f4	-0.11542502
116	0xbe71a439	-0.23597802
117	0xbe0e8f04	-0.13921744
118	0xbe492986	-0.19644746
119	0x3dd89344	0.10574964
120	0xbea3c5fe	-0.31986994
121	0xbd80a032	-0.06280555
122	0x3d45d4b1	0.04829854
123	0xbe9b47ac	-0.3032812
124	0xbe1f7faf	-0.15576051
125	0x3d0b39c4	0.033990636
126	0xbe0fdbdf	-0.14048718
127	0xbe8282d5	-0.25490442
128	0xbd2bde85	-0.041960258
129	0x3df5fd38	0.12011188
130	0x3dd20e2b	0.102566086
131	0xbe36d38b	-0.17854135
132	0xbdfd2c90	-0.12362015
133	0x3de77b74	0.11302844
134	0xbdbdba72	-0.09264077
135	0xbddaa46b	-0.106758915
136	0x3e0fcf4a	0.14043918
137	0x3e1a3189	0.15057959
138	0xbe3ea85b	-0.1861891
139	0xbd3c33f1	-0.045947973
140	0xbd8a0799	-0.067397304
141	0x3e8e895f	0.2783918
142	0x3e43e7df	0.1913142
143	0x3dc71c38	0.09722179
144	0x3e448335	0.19190677
145	0xbe4b0c18	-0.19828832
146	0xbe81510f	-0.25257155
147	0x3e0713a2	0.13191083
148	0xbe82955b	-0.25504574
149	0xbe486e95	-0.19573434
150	0x3d9ba2c8	0.075994074
151	0x3db9f2ac	0.09079489
152	0xbcacd7a0	-0.021098912
153	0xbe0cee60	-0.13762808
154	0xbe5b30c4	-0.21405321
155	0x3d2fb567	0.042897608
156	0xbe06a49b	-0.1314873
157	0x3d54f478	0.051990956
158	0xbe60bc2f	-0.21946786
159	0xbe20773d	-0.15670486
160	0xbd97aa54	-0.074055344
161	0xbe816714	-0.25273955
162	0xbdaac700	-0.083387375
163	0xbdec8260	-0.115483046
164	0xbd1aee9d	-0.037825216
165	0xbcb9b154	-0.022667564
166	0xbb7f1254	-0.0038920837
167	0xbe68b5b6	-0.22725567
168	0x3e39dff4	0.18151838
169	0xbe7bcca8	-0.24589789
170	0xbe1e1087	-0.15435992
171	0xbd61828d	-0.055056144
172	0x3d45f1c2	0.04832626
173	0x3d3b4d67	0.045728114
174	0x3d3d6e33	0.046247672
175	0x3e35e5b2	0.17763403
176	0xbdac7d61	-0.08422352
177	0xbd303bf6	-0.043025933
178	0x3d8fc00b	0.07019051
179	0x3defd7bd	0.11711071
180	0x3e3eadfa	0.18621054
181	0xbe410f55	-0.18853505
182	0xbddc1c6a	-0.10747607
183	0x3e3c9395	0.18415673
184	0x3e52d6f9	0.20589818
185	0xbdb2f04a	-0.08737238
186	0xbd438039	-0.047729705
187	0x3d718658	0.05896601
188	0xbe51fd3c	-0.20506757
189	0x3b51175b	0.003190479
190	0x3e7c0f4d	0.24615212
191	0x3e9f5db0	0.31126165
192	0xbe65e0da	-0.22449055
193	0xbe8d648a	-0.27615768
194	0xbd891e41	-0.066952236
195	0x3e58926f	0.2114961
196	0xbe18ed2e	-0.14934227
197	0xbeab315e	-0.33436102
198	0x3dee1e80	0.11626911
199	0x3d9a4f45	0.07534651
200	0xbd6c284f	-0.05765563
201	0xbe1a5c61	-0.15074302
202	0x3db368e7	0.08760243
203	0xbea1f293	-0.31630382
204	0xbea4e2ba	-0.3220423
205	0xbe936a99	-0.28792265
206	0x3de1e83c	0.11030623
207	0x3e04963e	0.12947938
208	0x3daefa67	0.08543854
209	0xbe226574	-0.15859014
210	0xbeb53001	-0.35388187
211	0xbdf34908	-0.11879164
212	0xbd7da179	-0.06192157
213	0xbe32a08f	-0.1744406
214	0x3e595086	0.21222124
215	0xbe4a8441	-0.19777013
216	0x3e2a029b	0.16602556
217	0x3d72d0f5	0.05928131
218	0xbe5005b2	-0.20314673
219	0xbe1e0926	-0.15433177
220	0xbe860bfa	-0.26181012
221	0xbdffb19f	-0.124850504
222	0xbe7bf027	-0.2460333
223	0xbe63f1c4	-0.22260195
224	0x3dffac62	0.12484051
225	0xbe8410bf	-0.25794026
226	0x3cb20eb7	0.021735532
227	0xbdac5068	-0.08413774
228	0x3c96666c	0.018359385
229	0x3da3e7a4	0.08003166
230	0xbe8d2be3	-0.27572545
231	0xbd7f78b2	-0.062370963
232	0xbcb3f6f3	-0.02196834
233	0xbea1c85a	-0.3159817
234	0xbe44b09a	-0.19207993
235	0xbdbf5380	-0.09342098
236	0xbeae7e44	-0.34080708
237	0xbdcf857a	-0.101328805
238	0x3dcf9c08	0.101371825
239	0xbdd947b4	-0.106093794
240	0xbd88662e	-0.06660114
241	0x3e978314	0.29592192
242	0x3e078928	0.13235915
243	0xbe44c36e	-0.19215176
244	0xbd3890d0	-0.04505998
245	0xbcfb1241	-0.030648353
246	0xbdb05f9e	-0.086119875
247	0x3e5e3ed6	0.21703658
248	0x3e32c550	0.17458081
249	0x3da9ba2a	0.08287461
250	0xbd5b02e4	-0.053469554
251	0xbdb45d28	-0.08806831
252	0x3e615609	0.22005476
253	0x3d5abb9b	0.05340157
254	0xbe1ad096	-0.15118632
255	0x3ddca898	0.10774344

gnn.convs.3.nn.lins.0.bias f4 [16]
0	0x3ea4ee1d	0.32212916
1	0xbdb5f938	-0.08885425
2	0xbbd0668a	-0.00635988
3	0xbe92cb5c	-0.28670776
4	0x3da72fde	0.08163427
5	0xbd97c155	-0.07409922
6	0xbde67ccb	-0.11254271
7	0x3c821978	0.015881285
8	0xbd7585b8	-0.059941977
9	0xbe62dfd9	-0.22155704
10	0x3d8b5f04	0.06805232
11	0xbe459dbb	-0.1929845
12	0xbd96a266	-0.07355194
13	0x3e229c0c	0.1587984
14	0xbea5b51f	-0.32364747
15	0x3df227e7	0.11824017
