Run_GIN_ModelCheckpoint_EvFr_2/NCI1_reps_2_folds_5_epochs_20_2023-04-26_11-05/rep_0_fold_2/checkpoints/model_trial_1.ckpt (torch, 245261 bytes, 86 tensors)

gnn.convs.0.nn.lins.0.weight f4 [32, 37]
00000000: 5ca2 ef3d f9dd 91bd f609 c2bd 21db 10bf
00000010: 2452 3c3e 0d97 9c3c c57b c0be b979 0a3d
00000020: 0541 8c3f 79ea 853f 0143 3440 3e0b 8a3f
00000030: cae6 bb3f dda7 10be e68d 503f 23f0 503f
00000040: e473 f13e ed45 2a40 1f0a 973f 841e 843f
00000050: 88e1 1abe 8286 d2be 4581 7e3d 1500 753f
00000060: 4dc4 c53f 014a d5bd 1a3e 193f 3c09 5d3f
00000070: db8d 23bb 6b45 933f 657c 163d 9eb2 d53d
00000080: c348 f4bd 8f3c a93c f83a e1bd 4af9 fcbd
00000090: b94e 1abd e7df cabe c1d7 a7bb 828b 76be
000000a0: 8c82 b6be fc8a dabc 614d 3d3e e3c3 523e
000000b0: 86b6 983d 51bb 76be d3e1 a93d 19da 1ebe
000000c0: 66c3 f8bd 9805 4d3d 5104 34bc fc3c e53c
000000d0: 7b88 f9bd 7919 81bd 49e2 073e 1de3 2dbd
000000e0: 1ce8 57bd 6dbd eebc 5710 e4bc b5de e23c
000000f0: c51f 1b3e 7ce4 5cbc 67be 36bd e638 893c
00000100: aed5 c33b ba6a 233f 15ba f13c 8df7 d0bd
00000110: 3bbe e3bd 19be 023f a371 0bbd 97f2 37bd
00000120: e7e7 57bd 1f75 aebd af5a cd3c ee1f 863e
00000130: b8fb e2be 82a1 dcbe 8cd3 8e3e 0386 983d
00000140: 22cf 4fbe 21b5 c1bc 9743 913f ae32 553f
00000150: bb8f c33f a454 853f f932 dc3f 685a 81bd
00000160: a15f 22be d446 773f 8388 a3bc 678c 4c40
00000170: 637f cbbd d2ea 43bd cb8f 573f 5657 7ebc
00000180: 9385 633b d863 b33f be3c 16be aa43 b1be
00000190: 884e 993f 57a0 813f 0ab4 68bd ab3e acbd
000001a0: 73fa 143e c8db 71bc 4b1b 45be 6cdb 5ebd
000001b0: e51a 00be 46ec febd 99b0 ab3e 7132 94bd
000001c0: 9151 dfbe 18a5 b43d 355f fabe dd6c cbbd
000001d0: d593 de3e 4358 4cbd 39d1 0cbd 4446 8c3f
000001e0: bd11 813f 119a 2b40 2fc1 6a3f 5392 503c
000001f0: 884f b3bd 5229 913c 2636 49bd 3cac 76be
00000200: cdfb 0440 b4ba ce3f 11c8 803f 3f1a edbe
00000210: 7868 b5be 29d8 1dbe 8ffa 033d 810f 973f
00000220: 1c97 9dbd 6e2e 413f 89bb 743e e199 26be
00000230: 9f7c 4ebd 5b89 cebd 10c8 c33d f9ee a4bd
00000240: 2a81 adbd ccb9 ae3c f6e5 a33d 4650 23bc
00000250: cd91 ecbd 7924 b83d 8b6f 9fbe 6e34 613d
00000260: 753f c53e c237 d23e 682b 86be eb44 9dbe
00000270: d2f4 ad3f 7d0e 083f f075 7440 145d 853f
00000280: 0a57 1040 f451 e2be 7f41 e43f 6f1b a53f
00000290: 3f62 a5be 4325 2340 7bd9 e93f d318 913f
000002a0: b0b5 fcbe 64a5 0bbf 1cfe f6bc 05b1 b53f
000002b0: 5c0b c03f 101c 023f a669 7d3f 8fba 173f
000002c0: d302 e53d 8c11 ee3f 4539 b1bd eec7 c8bd
000002d0: d944 2abe 04b0 0fbf 9502 07bf adc9 ff3c
000002e0: 6a39 5bbe ac6b c03e 8ed3 cb3c c6f8 d3be
000002f0: f606 89bf 61c5 ca3e 2e18 06bf 89da d43e
00000300: 266b 0cbf f220 523f bb61 473f 3100 2e40
00000310: c693 4e3f 776a a33f 88f2 b8be 35f7 583f
00000320: 8c9a 2f3f fe3c f4be 28d6 1f40 bd29 7fbd
00000330: ad9a 0abe 2b7f dfbe 3580 efbe b074 9a3d
00000340: 9ab9 933f b815 df3f b1f1 78bf accc 3a3f
00000350: 1358 123f 3bf5 69be 8d60 dc3f c22c efba
00000360: d2a3 27be 2fde 8cbe 070f f5be 2ae0 c0be
00000370: 355f f8bd 6a17 b2bd 43ed 9c3d 71fc fe3b
00000380: 358a e5bd fe44 c73e b3d8 74bd 27b8 373e
00000390: 3619 a4be 0d5f a3bd 777b a63f eaa0 623f
000003a0: f9c7 6740 cc74 4d3f 3078 0540 a12e dfbe
000003b0: eb71 bd3f dfb9 b33f 015d aabe bd7b 2640
000003c0: c16e c73f ea16 c93f 02c9 1dbe 3a98 a63f
000003d0: 0765 083e c61c a73f f1b1 b83f fadd c93f
000003e0: 1a6a 4b3f eae8 a03e 44d5 cfbd 77e9 e43f
000003f0: 0d05 00be 7fbb b63d ebd2 98be b56b 17be
0.117008895 -0.07122416 -0.09474556 -0.56584364 0.18390709 0.019114995 -0.3759443 0.03380749
1.0957342 1.046218 2.8165896 1.0784681 1.4679806 -0.14126535 0.8146652 0.8161642
0.4715873 2.660518 1.1799964 1.0321813 -0.15125096 -0.41118246 0.062135 0.9570325
1.5450531 -0.10414506 0.59860384 0.86342216 -0.0024956379 1.150556 0.036739726 0.10434459
-0.11927941 0.02065876 -0.109975755 -0.123522356 -0.037672732 -0.3962395 -0.0051221554 -0.24076656
-0.35646474 -0.026677601 0.18486549 0.20582537 0.074566886 -0.24094893 0.08295026 -0.15512885
-0.12146644 0.050054163 -0.010987357 0.027983181 -0.12184235 -0.06303687 0.13269915 -0.04245292
-0.05271159 -0.02914306 -0.027839823 0.027694086 0.15148838 -0.013482209 -0.044615176 0.016750764
0.0059764003 0.63834727 0.029507676 -0.102034666 -0.11120268 0.51071316 -0.03404392 -0.044909086
-0.052711394 -0.08518433 0.025067655 0.26196235 -0.4433267 -0.4309197 0.27895772 0.07447436
-0.20293859 -0.02364594 1.1348752 0.83280456 1.5278238 1.0416455 1.7203056 -0.06316072
-0.15856792 0.9659245 -0.019962555 3.1960695 -0.099364065 -0.047831364 0.84203786 -0.015523752
0.0034717068 1.4014845 -0.14671609 -0.34621936 1.1977091 1.0127057 -0.056812324 -0.084103905
0.14548664 -0.014761873 -0.19248693 -0.054408476 -0.1251026 -0.12447409 0.3353317 -0.072361834
-0.43616918 0.08820552 -0.48900762 -0.099328734 0.43472162 -0.04988886 -0.034379218 1.0958943
1.0083538 2.6812785 0.91701025 0.012730199 -0.08755404 0.017719898 -0.049123906 -0.2408914
2.0778687 1.6150727 1.0061055 -0.46309087 -0.35431266 -0.1541449 0.032221373 1.1801606
-0.076948375 0.7546147 0.23899664 -0.16269638 -0.050411817 -0.10084792 0.09559643 -0.08053393
-0.08471902 0.02132883 0.08002846 -0.009967869 -0.11551247 0.089913316 -0.31139788 0.05498164
0.38524976 0.41058165 -0.2620499 -0.30716643 1.3590338 0.5314711 3.8196983 1.041903
2.2553124 -0.4420315 1.7832488 1.2898997 -0.32301518 2.5491493 1.8269495 1.1335701
-0.49357367 -0.5454924 -0.030150466 1.4194647 1.5003467 0.5082407 0.9898933 0.5926904
0.11182179 1.8599105 -0.086535014 -0.098037586 -0.16627826 -0.56127954 -0.52738315 0.031224096
-0.2140862 0.37582147 0.02488115 -0.41400737 -1.0705249 0.39603713 -0.52380645 0.4157298
-0.54850996 0.8208152 0.778835 2.7187617 0.80694234 1.2766865 -0.36122537 0.8475221
0.68595195 -0.47702783 2.497446 -0.062295664 -0.13535567 -0.4365171 -0.46777502 0.075417876
1.1541016 1.7428503 -0.9724379 0.72968554 0.5716564 -0.22847454 1.7216965 -0.0018247592
-0.16371086 -0.27513263 -0.47863027 -0.37671024 -0.12127534 -0.08695872 0.076624416 0.007781558
-0.112080015 0.38919824 -0.059776973 0.17941342 -0.32050484 -0.07977114 1.3006428 0.88526785
3.6215804 0.8025634 2.0854607 -0.43590263 1.480039 1.4041098 -0.3327408 2.6013024
1.5580674 1.5710118 -0.1540871 1.3015206 0.13319789 1.3055656 1.4429303 1.5770867
0.79458773 0.314277 -0.10148099 1.7883748 -0.12501927 0.08922481 -0.29848418 -0.1478718

gnn.convs.0.nn.lins.0.bias f4 [32]
00000000: 6ebf d3bd bfeb 5dbe 8367 ffbc 8345 b2be
00000010: 7d7d 903e 8dca 9d3e e7cd 36be e742 3fbe
00000020: 5152 a13e 1784 f53d 603e 11bf 89ab d5be
00000030: 4dac 933e adbf adbe 625f 3fbe cceb 6fbe
00000040: 83d6 0abe 2942 333e ae43 acbd 92e0 a13b
00000050: d752 1bbe a6c7 853d ed66 aebd b6fa 52be
00000060: bf53 443e dc47 05be ce6b 96be 061c 083e
00000070: f490 95be c3ca ba3c 8df1 e4bd bc8e e0bc
-0.10339247 -0.21671961 -0.031177288 -0.34818658 0.2822074 0.30818596 -0.17851983 -0.18677865
0.31508115 0.11988085 -0.567358 -0.41732433 0.28842393 -0.339353 -0.1868873 -0.23429793
-0.13558392 0.17505707 -0.084113464 0.004940101 -0.1516832 0.065322205 -0.08515725 -0.20603451
0.19172572 -0.13015693 -0.29379123 0.1329194 -0.29212153 0.022801762 -0.11178885 -0.027411811

gnn.convs.0.nn.lins.1.weight f4 [32, 32]
00000000: e748 f03e 647c 8abe 8218 bd3e 1758 5a3e
00000010: 80d4 953e 925b 2d3e f0b8 cf3d f5fd 1ebe
00000020: 7a63 363e 1aa8 f13e 70d8 663e b58a 523e
00000030: 5e24 12bd 9ba9 6abf 136f a8bb c263 083e
00000040: e7f2 a93e 103f b7bd 7090 463e 3222 2c3e
00000050: a47f b53e 0440 7ebc d6f0 3fbf 5fb0 d5bd
00000060: ea1e 833f 0818 aebd a07f 423d 6016 29bf
00000070: 9b15 d93b b679 d43e 3aeb 61be c23b 1d3e
00000080: 0841 9d3e 4e52 84be d26b 753e d9ee a3bd
00000090: c0b9 123f 96d4 123e 042c 873e 12ec 503e
000000a0: 8f9e 493a daa7 263f 3236 253f 2ed2 84be
000000b0: f161 dabd dd80 8dbf c17d 293e fb10 793e
000000c0: 0971 1a3f 2299 893e 9f8a f03e 9b79 793e
000000d0: 48ee 533f 4b6d adbe 0a53 24bf ebde 87be
000000e0: fa7e 5c3f d2a8 b73c d2f2 d1bd e935 3cbf
000000f0: 6f9d 843e a9e8 833e 654f 823e 6e1c 4abe
00000100: 256c bdbd e9c7 1b3e 380f ae3b e5cc c4bd
00000110: 7b48 2dbe c7ad 22bd 6fe6 a33c 6a09 fcbc
00000120: 75dd c8bd 3cf5 763d eb57 25be aa2b 283d
00000130: 1f0e c0bd fd53 86be 81e5 2fbe 910a 06bc
00000140: 5369 2ebe b526 d73d bc1b 1bbe 94a2 cfbd
00000150: 29e7 8abb 2b96 d3bd a3b0 663d 435c d1bc
00000160: b9c2 8abd 8578 123e 010b 6c3d 85df 59bd
00000170: f990 2fbe 6d82 49bd 692e 34bd 43cd 45bd
00000180: b00b d53e 66d5 573b 9cab 253f aa9a bb3e
00000190: c654 d4bd 7da3 683e 5b34 5c3d ddc6 93bd
000001a0: ab6c bebe e9ea d43e b9a2 6f3e cefc 083e
000001b0: 84ca dfbe 881d 15bf fd0d d9bd bc4a be3d
000001c0: c89e 9f3d 2dcb 573e 302a 7dbe 6cbd 6b3e
000001d0: c5e2 e23e 74a9 bcbe 25f9 58bf dd1d a1bd
000001e0: 9fa1 1e3f 6d55 8d3e 2154 f8bc 6f35 5abf
000001f0: 460d 95bd b86b 193f 379a 973d 3202 a2bb
00000200: d4dc be3e f3eb 823d 2406 023f 6bbe 1a3e
00000210: 99b1 a83e 6b3d 9b3e 98e4 8a3e 5e50 c43d
00000220: b4ea 4dbf 55f5 303f 741e 5b3e dadd 23be
00000230: 9d24 e03d 19a1 38bf 0669 90bc 0c4f 9d3e
00000240: 2b7a 003f 28b9 4c3e 2349 bbbd b96f fcbd
00000250: 74a3 3e3f 361b 33bf 8623 a4bf 65bb 373d
00000260: 1ea9 1e3f 12fa 1f3f 2bdf 73be 8d8b 92bf
00000270: c297 983e eca7 203f 4a41 a03e c56b 0ebc
00000280: 13d6 1cbd 04aa 80bd f8ad bdbd 910c 2dbe
00000290: 4b4c 4f3c fdfc f63c 501e 8abd 640e 0abd
000002a0: 40f5 1f3c 6dc0 16be cc33 acbd af92 e63d
000002b0: 2138 09be ad69 b3bc daf4 0ebe bb18 a6bd
000002c0: 6089 8e3c 17be 2e3d e1ac 45be bb30 b43d
000002d0: 1e88 a639 883e 723d 1e01 d2bd 32cb f83d
000002e0: 6ce1 24be 8974 0bbe e124 223e 776f c9bd
000002f0: 56da 123d 2e0d 203d 37bc fabd f0ee f6bd
00000300: 2ec5 a83e 2c81 9abd c1e9 fe3e 1eb0 693d
00000310: 03ca 883d 6432 e5be 3052 ae3d e08d 9e3b
00000320: ec97 97ba 8750 b13d 29d8 943b c866 07bc
00000330: b64a bc3d 3e87 65bf b739 703e a0db 073e
00000340: eb40 843e dfc8 7dbe 3e6c 7dbe 2618 8bbe
00000350: cfb3 863e 577f c0be 58cf bbbe 7c56 6cbe
00000360: d33e 503f 1184 933e 99a7 8abd 3aaa 5dbf
00000370: 3c99 af3d 8aff d2bd 2fed b43d ba59 97be
00000380: 7fd2 73be 2b2d 2d3e 6e50 db3d 9f79 32be
00000390: aebc 9c3d 1baf 52be 7b6c a53d e054 4ebc
000003a0: 63e8 c9be c85f 16bd f214 c6bc f9f9 223d
000003b0: d590 42bd bc10 f0be edd3 2dbd 1203 64be
000003c0: 49d3 acbe a55f a4be f002 66be 5eb6 5bbe
000003d0: 2a78 a8bd ff33 3ebe 66fd 32bd 4d23 c1bc
000003e0: 95f8 2f3e 14df c13e 8f46 1d3d 4859 9cbd
000003f0: 06d7 33bd f2e0 e0bd 775a 62be b7a9 8ebe
0.4693062 -0.27048028 0.3693276 0.21322666 0.29263687 0.16929463 0.10142696 -0.15526564
0.17811385 0.47198564 0.22543502 0.20560725 -0.035679214 -0.9166505 -0.005140194 0.13319305
0.33193132 -0.08947575 0.19391036 0.1680992 0.35448945 -0.015518192 -0.7497686 -0.10434031
1.0243809 -0.08500677 0.047484994 -0.66049767 0.00662489 0.41499108 -0.22062388 0.15354827
0.30713677 -0.25844043 0.23966911 -0.08004541 0.5731468 0.14338908 0.2640077 0.20402554
0.00076911686 0.6509987 0.6453582 -0.25941604 -0.10663212 -1.1054951 0.16551878 0.24322884
0.6032873 0.26874644 0.4698076 0.24362795 0.82785463 -0.33872446 -0.6418921 -0.2653726
0.8613125 0.022419367 -0.102513924 -0.7351976 0.25901362 0.25763443 0.25451198 -0.19737408
-0.092491426 0.15212978 0.005311873 -0.09609393 -0.1692218 -0.03971651 0.02000734 -0.030766208
-0.098078646 0.060292467 -0.1614682 0.041057266 -0.093776934 -0.26235953 -0.17177393 -0.00818123
-0.17032366 0.1050543 -0.15147299 -0.10138431 -0.004238982 -0.10331377 0.056320798 -0.02555669
-0.06775422 0.14303787 0.05762768 -0.05319168 -0.17145146 -0.04919665 -0.043989573 -0.048291456
0.4161048 0.0032933592 0.6471498 0.36641437 -0.10367732 0.22718616 0.053760868 -0.072156645
-0.37192282 0.41585472 0.23401918 0.13377687 -0.43709195 -0.58248186 -0.10598371 0.09291598
0.07793957 0.21073599 -0.24723125 0.23021477 0.44313636 -0.36848032 -0.84755164 -0.07867024
0.61965364 0.27604237 -0.030313553 -0.85237783 -0.07277922 0.5992999 0.07402461 -0.0049441094
0.37277853 0.0639266 0.5079062 0.15111701 0.32947996 0.30320296 0.27127528 0.09585641
-0.80436254 0.69124347 0.21398336 -0.16002598 0.109444834 -0.72120816 -0.017628204 0.3072437
0.50186414 0.19992507 -0.09144809 -0.12325997 0.7446816 -0.69963396 -1.2823341 0.044856448
0.619768 0.6249095 -0.238156 -1.1448838 0.29803282 0.6275623 0.31299812 -0.008692686
-0.038290095 -0.06282428 -0.092616975 -0.16899325 0.012652467 0.030149931 -0.06744063 -0.03370513
0.009763062 -0.14721842 -0.08408317 0.112584464 -0.13400318 -0.021900976 -0.13960591 -0.08110186
0.01739949 0.042661753 -0.1930423 0.08798357 0.00031763403 0.059141666 -0.10254119 0.121481314
-0.16101617 -0.13618673 0.1583438 -0.09835713 0.035852753 0.03907507 -0.122429304 -0.120572925
0.32962936 -0.07544169 0.49787715 0.057052724 0.06679156 -0.44765007 0.0851177 0.00483869
-0.0011565662 0.086579375 0.00454237 -0.008264251 0.091939375 -0.8965949 0.23459516 0.13267374
0.25830778 -0.24783657 -0.24748322 -0.2716686 0.26309058 -0.37597153 -0.36681628 -0.23079866
0.8134586 0.28811696 -0.06770248 -0.8658787 0.08574149 -0.103026465 0.08834302 -0.29560643
-0.23810767 0.16911761 0.107087 -0.17429207 0.07653175 -0.2057461 0.08077332 -0.012593478
-0.3943511 -0.036712438 -0.02417991 0.039789174 -0.047501404 -0.46887767 -0.042438436 -0.22266796
-0.33754948 -0.3210422 -0.22462058 -0.21456286 -0.082260445 -0.18574522 -0.04369869 -0.023576403
0.1718467 0.37865508 0.038397368 -0.076342165 -0.043906234 -0.10980405 -0.22104822 -0.27863857

gnn.convs.0.nn.lins.1.bias f4 [32]
00000000: ae4b b03e 3450 963d cf51 6cbe 7982 103e
00000010: 5a96 6abe 444f efbd 4d26 fa3e e4c4 84be
00000020: 8042 17be d25f 42bf 30e9 1c3e 80af 53be
00000030: 33ed da3e 597f 23be fa2d 25be 4f24 3fbc
00000040: 1f1e 04be c172 5e3d 8e78 1f3e 6440 dfbd
00000050: 8428 58bd 0833 863e ee00 4bbe 6a83 34bf
00000060: 2ed3 02bf 692a 06bf 56ed c83e a29d 08bd
00000070: 0d00 27be c1fc 98be 0dc8 8fbd 3cf4 76be
0.3443274 0.07339516 -0.23078083 0.14112271 -0.22908917 -0.116850406 0.48857346 -0.25931466
-0.14771461 -0.7592746 0.15323329 -0.20672417 0.42759094 -0.15966548 -0.1613082 -0.0116663715
-0.12902115 0.054308657 0.15573332 -0.109009534 -0.052773014 0.2621081 -0.19824573 -0.7051302
-0.51103485 -0.5240846 0.39243573 -0.033353455 -0.16308613 -0.29880336 -0.070205785 -0.24116606

gnn.convs.1.nn.lins.0.weight f4 [32, 32]
00000000: 9caf 963d 3c9b 0c3e 2f56 b83c dcfe 543b
00000010: 0d09 e83e afd1 b6bd 9d96 223d e565 3c3e
00000020: 0ba4 aabd 99ee eabe be72 a83c 07f7 29bd
00000030: 06f5 c43b 2b7c 2ebd c833 953d 7c9b fbbd
00000040: 1bfe 1f3e 047e cd3e 6e5d a33e eaac 28be
00000050: 0d16 233e 3c7e 273e f49e b53d b663 45bf
00000060: 9867 07bf e3b5 25bf 366f 3a3e 23fc 2ebe
00000070: a7b7 0dbe 7e32 49be 4760 1a3e 3e93 463c
00000080: 6515 683e 2a29 123e b218 243e 8616 acbd
00000090: ec36 043f 89e1 11bd 0a26 6f3e 7fd0 703e
000000a0: 6b88 cbbc ce2f 03bf 0b2f 76bd 5d0b 52bd
000000b0: a7b8 91bd 5653 a43d 782f 1fbd 2606 d3bc
000000c0: 6b65 233e 5ca1 5f3f 6ffc c23e fdb1 d53b
000000d0: 0b9c 71be 1a97 9d3e 29c0 d3bd 0d29 3dbf
000000e0: 2c37 acbe 5d5c 1fbf 949b fc3d fbfd 41be
000000f0: 3f38 6abd a858 a1bc 4de7 383e 87b7 b43d
00000100: c2dc 67bf e5e9 27bf f19a b83d 5c03 8abf
00000110: 90b8 cb3d cac3 4dbe b4b9 6abf 9a8d 183e
00000120: df81 a0bd 2de7 093f c03b 39bf 443a c5be
00000130: af3d 63bf 8dce e839 eed6 453d 5760 c0bb
00000140: 83d0 33be 7ced 0a3f 8635 ddbe 552b d7bc
00000150: 7a03 b8be c78a 8bbf dbd7 48bb dfd3 e13d
00000160: d785 7d3d b3c7 21bf b6e1 a0bf 1f4e af3d
00000170: 3bfb 83be 0da1 b3be 8391 24bf 0a58 b13d
00000180: 85a0 efbc 6ea3 67be ec8d 003d 4790 cabd
00000190: 1c51 603d b8ca 743d 012f edbd 0f08 afbd
000001a0: 6653 943d 7c9f f13c 93dc 5ebe 5a34 0bbe
000001b0: 04a1 92bc 78e5 443b 5b28 4d3c 6cbc 97bd
000001c0: 33c1 113d 380f 4dbe 96ac acbb f3d4 d4bc
000001d0: 5014 d13d 88fd 2ebe 1e30 bbbd 7128 02bd
000001e0: 4a84 00be 8496 e8bd a729 45be 5350 3fbe
000001f0: c447 b9bc ac0d 6a3e 293e 4cbe feae f5bb
00000200: 043f ba3d 2f2e 483c 0364 323e c40e 383e
00000210: 978b 8f3e cce5 bf3d d143 413e 1b49 eabd
00000220: 76c8 443d e161 ecbe ab46 06bd 5b62 4d3e
00000230: 2874 44be d48f 213e 87bf 133e 9e23 07be
00000240: 409f 28bd e831 b83e a5db f73d afbb 653d
00000250: 766a bf3e 3ca8 683e 76d7 08bd b849 05bf
00000260: 4179 483c fe3e e0be ec0b 2a3e 5660 0d3e
00000270: 1143 083e 3f37 34bd 137c f73d 4a5d 29bc
00000280: 2c95 e93d 0aac 053e 08fc 1d3b d805 4cbd
00000290: f21e c33e c15c dabd 316b 603d 8ab1 873e
000002a0: 1985 8a3b 5b9e 7cbf 02df 083d d43d 063d
000002b0: 9dcc 21be a5f2 993d bc21 413e 6c57 f73c
000002c0: 7a5f fd3c 3b68 7b3e 561b 0b3e 1dc9 283b
000002d0: cd64 ccbd e639 a73e fda2 933c 2aa8 36bf
000002e0: ad3b febe ea40 0abf 9734 6d3e 0cbd 38bb
000002f0: c32a bc3d 11d6 923e 8a2a bf3e 3a4d 383d
00000300: ad5b fdbe bdce 97be 619c 9ebd 98aa 07be
00000310: 1256 b4be 8a1a 0abe b851 ecbd b891 16be
00000320: 3c89 ba3d a945 afbe 9a42 2ebe 5a85 583c
00000330: f6c6 0fbf 9104 c73d 2654 bf3d 702d 9bbd
00000340: 21bd a83d e415 713e 8ca0 71bc 9c1a 98bd
00000350: fa19 7bbe b416 41bf fdc6 5ebd 17f5 e5be
00000360: ad9f 13be cb18 97be 165f e8be b644 88bc
00000370: f8dc 4cb9 83fb 13bd 43ea 12bf bf5d 11be
00000380: ac8a ee3d 0bea 7d3d db52 1a3e 7551 d93d
00000390: 40ac bf3e d2a0 ed3b 9a0f f0bd b4ac 1f3e
000003a0: 7564 533d b320 13bf 813d fa3d 4165 d7bd
000003b0: bd57 34be 50ac 433d 53a7 053e 2b3f cc37
000003c0: 1f8a b3bc 2689 d03d 12ed 753d 9759 2fbe
000003d0: c118 033e 8bef b93e 63ce d238 7d56 17bf
000003e0: ecd4 8ebe 7461 e9be 05c6 ed3d e760 da3d
000003f0: 4674 813d a8bc eabd a3e1 103e efca b33d
0.073577136 0.13731092 0.022502033 0.003250054 0.45319405 -0.08926713 0.039694417 0.18398245
-0.0833207 -0.4588516 0.020562526 -0.04149535 0.0060106544 -0.042598885 0.07285267 -0.12285516
0.15624277 0.40135205 0.3190722 -0.16472211 0.1592638 0.16356748 0.088682085 -0.7710527
-0.52892447 -0.6473066 0.18206486 -0.1708837 -0.13839589 -0.19648167 0.1507579 0.012120066
0.22664411 0.14273515 0.16025046 -0.084027335 0.51646304 -0.035615478 0.23354355 0.23517035
-0.024845323 -0.5124482 -0.060103457 -0.051280368 -0.07115298 0.080237076 -0.03886363 -0.025759768
0.15956657 0.8735559 0.38083217 0.006521462 -0.23594682 0.30779344 -0.10339386 -0.73890764
-0.33635843 -0.6225031 0.12334362 -0.18944542 -0.057182547 -0.019695595 0.18056984 0.088240676
-0.90571225 -0.6559127 0.09013928 -1.0782275 0.09947312 -0.20094219 -0.9168961 0.14897767
-0.07837271 0.5386837 -0.72356796 -0.38521016 -0.88765997 0.0004440438 0.048300676 -0.0058708596
-0.1756001 0.5426862 -0.43204898 -0.02626578 -0.35940152 -1.0901726 -0.0030646238 0.11026739
0.061895218 -0.6319534 -1.2568882 0.08559822 -0.2577761 -0.3508381 -0.64284533 0.0865937
-0.029251346 -0.22620937 0.031385347 -0.098908 0.054764852 0.05976364 -0.11581231 -0.08546459
0.072424695 0.029494993 -0.2176383 -0.1359419 -0.017899044 0.0030044 0.0125218285 -0.074089855
0.03558464 -0.20025337 -0.0052695973 -0.025980448 0.102089524 -0.17088902 -0.09140037 -0.03177685
-0.12550464 -0.113568336 -0.1925417 -0.18682985 -0.022617228 0.22856778 -0.19945587 -0.0074976673
0.090940505 0.012218042 0.17420964 0.17974383 0.28036186 0.09370002 0.18873526 -0.11439725
0.048042737 -0.46168426 -0.032782238 0.20057051 -0.19184935 0.15777522 0.1442853 -0.1319718
-0.041167498 0.35975575 0.12102441 0.056087192 0.3738591 0.22720426 -0.033408605 -0.5206561
0.01223594 -0.4379806 0.1660611 0.1380628 0.13306834 -0.043998 0.12084212 -0.010337183
0.114054054 0.13053909 0.002410652 -0.04981026 0.38109547 -0.10662223 0.054789726 0.2650264
0.0042272923 -0.9867913 0.0334158 0.032773808 -0.1580071 0.07516984 0.18860525 0.030193053
0.030929316 0.2455148 0.13584647 0.0025754638 -0.09980164 0.3266136 0.018022055 -0.7135035
-0.49654904 -0.540053 0.23164593 -0.0028188853 0.09187844 0.28678945 0.37337142 0.044995524
-0.49484006 -0.29649916 -0.07744671 -0.1324867 -0.35221916 -0.13486686 -0.11539024 -0.14704025
0.09108207 -0.34232834 -0.17017594 0.013215387 -0.56162965 0.09717668 0.09342222 -0.07577026
0.082391985 0.23543507 -0.01474775 -0.0742695 -0.24521628 -0.7542527 -0.05438899 -0.4491355
-0.1441638 -0.29511103 -0.45385045 -0.016634326 -0.00019537273 -0.036128532 -0.57388705 -0.14195918
0.11647543 0.06199078 0.1507067 0.1061124 0.37436104 0.0072518373 -0.11721726 0.15593225
0.051609475 -0.5747177 0.12218762 -0.105173595 -0.17611594 0.047771752 0.1305211 2.434811e-05
-0.021916447 0.10182409 0.06004054 -0.1712402 0.12802412 0.3631557 0.00010052023 -0.59116346
-0.27896821 -0.45582163 0.11610035 0.10663014 0.063210055 -0.114617646 0.14148574 0.08778941

gnn.convs.1.nn.lins.0.bias f4 [32]
00000000: 3a99 0f3f 8ca2 ff3e 7f2a 133f b80a a9be
00000010: a945 b73e 6b48 8e3f c602 e1be 8123 253f
00000020: 9973 91bd 893f 8d3e 7e9f 893f 3bd6 9fbe
00000030: aa68 69bd 6e23 fa3e 420c 52be e80a cb3e
00000040: 5c4f 7cbd 5358 d5be 6c23 f23e 810b 4dbd
00000050: 2f66 eb3d 5e4d ec3e 884b 35bb d756 203f
00000060: 7ae6 373f d187 6dbe 186a 873d d2a2 1a3f
00000070: bd57 a7be 19cf 26be 2e03 bcbd adde dabe
0.5609318 0.499287 0.5748672 -0.3301599 0.35795334 1.111585 -0.43947428 0.645073
-0.07102127 0.27587536 1.0751798 -0.31218132 -0.05698458 0.48855156 -0.20512488 0.39656758
-0.06159912 -0.4166895 0.4729265 -0.0500598 0.11494099 0.46152776 -0.0027663428 0.6263251
0.71836054 -0.23196341 0.06612033 0.60404694 -0.32684126 -0.16289939 -0.09180294 -0.42748013

gnn.convs.1.nn.lins.1.weight f4 [32, 32]
00000000: d192 77bd 51c2 58be b0a2 90bd ae0c b53d
00000010: 996a 7cbc 3e91 2bbe 7fc5 193e fd61 aabd
00000020: 8f4b 293e f3e9 5d3c 35b0 84be bd0d fe3c
00000030: afc1 c2bc 5509 3dbd 239e 98bd d250 af3c
00000040: 6198 033e 7498 303e 36e6 56be 1875 ffbd
00000050: b561 98bd 3658 263e e913 34be cf54 9abd
00000060: 55e5 8e3d c541 693d 6917 903c 4333 3abe
00000070: 618c 16ba 07cc 6bbd 23b1 fdbd aea8 7bbd
00000080: 2864 71be a294 83be 57b6 cb3d 1f4e 18be
00000090: 8f8b d43d cccd 88bd 45bb d33c ff62 5bbe
000000a0: 6e5b 07be 322b ab3b 5275 18bc 255c 65be
000000b0: 5572 c53d 25fb 4ebe 06a6 b13d ef07 34be
000000c0: 46b2 823d 11b0 90bd df65 313d 4771 f7bc
000000d0: b62f 0dbe 7c41 9fbd 1a8b 3ebe 0076 2cbd
000000e0: e6f6 85be 2f03 80bc b647 46bd 9dd2 e8bd
000000f0: b3f9 2cbe 2f10 05bd decc c93d 1921 32be
00000100: 330d 073d 8327 17bd 9db9 71bf c0e2 7a3e
00000110: dfe6 363e 31d8 9d3e c6b9 e43d e252 343e
00000120: 39c7 e63d 7840 d73d b2d7 923e 8326 2c3e
00000130: 75c1 93bd 4ee2 84bf 0e95 9fbd e685 8b3e
00000140: 13ca 15be 8898 db3c 4585 9ebf 3633 b23c
00000150: f098 033e fdcc 183d c1e0 8f3d ab01 6abf
00000160: 797f 54bf 106f d03e d7ec 893d a55e 463e
00000170: 7bf3 673d 1914 f23d 0331 8f3e c4bd 253e
00000180: 9070 0d3e d347 c8bd e871 16bd 6da7 7cbc
00000190: 7e72 5b3d b2ec a439 77a3 853c f46b 77be
000001a0: c2d3 cfbd 158e 193d de0c dabc 1a96 c6bd
000001b0: 6c47 91bd 73f8 6fbd 9ef8 0fbe 2198 2dbe
000001c0: 82e6 a3bd 8ced 75bc 3cd7 173c 32c4 d7bd
000001d0: 6c17 7abe ae62 95bd 1948 9abe c990 d4bd
000001e0: e6fe 0d3e a941 0c3d 29fd 6abe ec8b 32be
000001f0: d05b 0dbe e6c7 6a3d e673 63bd 10f0 67be
00000200: 0162 71bd cd41 043d e273 523e d7e7 df3c
00000210: 5d46 c5be d57d b33d 802d c3bd c1f9 e6bd
00000220: 3784 73be 30d9 08be 85f7 4abe eee8 8abe
00000230: c114 30be 7b37 883e f00d 9b3d 1a62 b1bd
00000240: 1e7c 523e 26d2 78bd f740 8d3f 96e7 263c
00000250: bd15 cd3e a946 35bd 0b71 84bd 40c7 783e
00000260: 4cb1 953f 2efd 66bd 359b 0bbf 5fc3 e7bd
00000270: 2b05 423f 3ab0 50be 3d79 503e 5892 14bc
00000280: 8cb6 58be 28a7 9ebe 4193 8c3e 8d26 953d
00000290: fcbf 83be 2fa6 55be 5675 303e 73c9 a3be
000002a0: f787 31be 7565 f8bc b88e a4be 843b 383e
000002b0: 08e1 483e 99b7 6ebe bdff 20be 5515 a9be
000002c0: da4e 193e 8291 ccbe 8b57 0a3f 65af dc3d
000002d0: a14c 473f 0586 0fbe a767 dcbd 4830 9a3d
000002e0: 312d 6b3f 9b0f 5b3e cde8 33bd 96aa 3ebd
000002f0: a8b2 a43e 5906 e3bd 76d4 063f 8dc3 dc3e
00000300: 4e68 cb3c 4d6b 903e ba14 3dbf c4d4 b7bd
00000310: f513 983d 079a c03e 6101 433f e9c3 e83c
00000320: 31b6 f43d d852 063e 71a4 573e a5a5 1abe
00000330: 4898 503d aaa7 59bf d0f6 89be a09b 043e
00000340: 0ae1 963e 70f1 44ba b514 86bf 5482 a13e
00000350: f685 bebe 1c71 ea3d e79f 9b3d ca29 47bf
00000360: 48c7 32bf b379 c5bc 6838 113d 2a70 aebe
00000370: 28ca 11bf c213 4f3e 9ed9 333e dcd3 073e
00000380: 19ce e2bb 9fa5 cdbe c3fc 3bbe ebce 933c
00000390: 5195 a7bc 7020 11be a971 c3bd 7b35 9e3c
000003a0: fa55 b83d dbb8 1cbe c947 28be 1e84 87be
000003b0: 0d8e 103d 29e7 97bd 4c99 b7bd ecee 69be
000003c0: 5dc9 113d c628 32be 0b65 ec3d f4e3 38bc
000003d0: e067 0bbf 6111 433c 5373 a43d 6e05 a03d
000003e0: c6bc b0bc 1eda c9bd bcc3 9bbd 7717 4dbd
000003f0: a90d 01be 2454 27be e1b9 acbb 87fb dcbd
-0.06044275 -0.21167876 -0.0706228 0.08840309 -0.015406274 -0.16754624 0.15016745 -0.08319471
0.1653273 0.013544547 -0.25915685 0.03101241 -0.023773996 -0.046151478 -0.07452037 0.021400843
0.12851097 0.17245656 -0.20986256 -0.12473506 -0.07440511 0.16244587 -0.1758572 -0.07535707
0.06977335 0.05694749 0.017589288 -0.18183617 -0.0005742964 -0.057567623 -0.12387302 -0.061440162
-0.23573363 -0.25699335 0.09946888 -0.14873551 0.10378181 -0.06679878 0.025846133 -0.21424483
-0.13218471 0.005223655 -0.009305315 -0.22398432 0.09640948 -0.20212992 0.086742446 -0.17581151
0.06381659 -0.07064832 0.043310042 -0.030205382 -0.13787732 -0.07776162 -0.1860775 -0.04210472
-0.2616493 -0.015626518 -0.048408233 -0.11368296 -0.16892128 -0.032486137 0.098535284 -0.17395438
0.032971572 -0.036902916 -0.9442385 0.24500561 0.17861508 0.30829003 0.11168246 0.17609742
0.112684675 0.10510343 0.28680187 0.16811566 -0.072146334 -1.0381563 -0.07792102 0.27250594
-0.14627866 0.026806131 -1.2384421 0.021752935 0.1285131 0.037304867 0.0702529 -0.91408795
-0.8300701 0.40709734 0.06734627 0.19372042 0.056628685 0.118202396 0.2796708 0.16185671
0.1381247 -0.097793244 -0.036729723 -0.015420777 0.053575985 0.0003145687 0.016313298 -0.24162275
-0.101478115 0.037489016 -0.026617464 -0.09696598 -0.07093701 -0.05858655 -0.14059684 -0.16952564
-0.0800295 -0.015010249 0.0092676245 -0.10535468 -0.24422997 -0.07294212 -0.3013313 -0.10379178
0.13866767 0.034242306 -0.22948135 -0.17436188 -0.13804555 0.057319544 -0.05553045 -0.2265017
-0.058931354 0.032289315 0.20552018 0.02733223 -0.38530245 0.08764235 -0.09530163 -0.112781055
-0.23780905 -0.133641 -0.19820984 -0.27130836 -0.17195417 0.26604828 0.07571018 -0.086612895
0.2055516 -0.06074729 1.1035451 0.01018705 0.40055647 -0.04425684 -0.06466874 0.24294758
1.1694732 -0.056393795 -0.545337 -0.11316561 0.75789136 -0.20379725 0.20358749 -0.009068094
-0.21163386 -0.30986905 0.27456096 0.072827436 -0.2573241 -0.20864175 0.1723226 -0.3198963
-0.17337023 -0.030321816 -0.32140136 0.17991453 0.19617093 -0.23312224 -0.15722556 -0.33024088
0.14971486 -0.39954764 0.5403983 0.10775641 0.778513 -0.14015968 -0.107619576 0.0752874
0.9186583 0.21392672 -0.043923188 -0.046549402 0.32167554 -0.11085195 0.5266794 0.43117943
0.02483001 0.28206864 -0.7385975 -0.08976129 0.074256815 0.37617514 0.7617398 0.02841373
0.11948813 0.1311754 0.21058823 -0.15102251 0.050926477 -0.8502146 -0.26946115 0.12949991
0.29468566 -0.00075127836 -1.0475069 0.31544745 -0.3721158 0.11447355 0.07598858 -0.7779814
-0.6983533 -0.024105882 0.035454184 -0.3406995 -0.5694909 0.20222381 0.17563483 0.13264412
-0.0069215414 -0.4016542 -0.1835814 0.018043002 -0.020456942 -0.1417253 -0.09543163 0.01931261
0.09000774 -0.15304892 -0.16433634 -0.26467985 0.03529172 -0.07417137 -0.08964786 -0.22845048
0.035592426 -0.17398366 0.1154271 -0.011284817 -0.54455376 0.011905999 0.08029809 0.07813536
-0.02157439 -0.09856056 -0.07605693 -0.050071206 -0.12602867 -0.16340691 -0.005271182 -0.107901625

gnn.convs.1.nn.lins.1.bias f4 [32]
00000000: 4eae e2bd 5c10 32be 446a 483f f420 d23d
00000010: af90 12bd 2be1 32be 5eee 9a3e efb7 94bd
00000020: c8de 6e3f c9c5 2cbe 03f0 bfbe c3e7 46be
00000030: ba99 54bd e06e 793f 3e99 323f 7413 97be
00000040: e261 b4be bd6f 293f 3b32 5e3d af39 6bbd
00000050: b2fd 223f 6f79 22bd b079 59be 80bd babe
00000060: 19d1 02be 463f 093f b788 103f f435 4d3f
00000070: 7a06 323f c142 a4bc 1694 0e3c e85c 0c3f
-0.11068402 -0.17389053 0.7828715 0.102601916 -0.035782512 -0.17468707 0.30259985 -0.07261645
0.9330869 -0.16872324 -0.37487802 -0.19424348 -0.051904418 0.97434807 0.6976508 -0.2950703
-0.3523093 0.66186124 0.054247122 -0.05742806 0.6366836 -0.03966659 -0.21237826 -0.36472702
-0.12775077 0.5361217 0.5645861 0.8016045 0.6954113 -0.020051362 0.008702299 0.54829264

gnn.convs.2.nn.lins.0.weight f4 [32, 32]
00000000: 27a7 6d3e 6f9d f3bd 3a1b bb3e 4105 81be
00000010: 14f6 71be ef48 50bf 6352 df3c 29cf 37be
00000020: a788 b63e 9f68 493e 49e4 bfbf c924 16be
00000030: c8df e03d 67f1 c93e f563 c43e 6667 88bd
00000040: 60d8 833e 06e9 433e c036 4dbe 6926 89be
00000050: 71ac 8b3e 186e f6be 9aa3 3a3d dbe6 863d
00000060: 87b6 16be 6f4d dc3d ccfc 973e ad1e d13e
00000070: 367a b73e 6bf9 e8bb cd65 0d3d 1cc1 8c3e
00000080: 495f 293e ad32 16be 2f77 45be 7ef4 8a3d
00000090: cf4e 1dbc da49 c7be 18cb 93bd fd4f 95bd
000000a0: 585d 5bbe 52ee e53d 42cf 02bf 228a 86bd
000000b0: 28f4 9bbd 790a 31be 7dbf 1abe b5a6 073e
000000c0: 1e98 98bd 8fc2 36be 5d15 1abe 6b20 2fbe
000000d0: 7309 2fbd 4856 0c3e 882d 57be 28a7 683e
000000e0: e4c6 7cbe 1594 163e cd83 bf3d f195 dabc
000000f0: 7af8 ecbd 3f73 5dbc 1a03 05be 7978 92bd
00000100: 4ced cdbd 0df7 6c3e 1713 c7bd 115c 54be
00000110: 8b8f 3a3d 207e 0abf 2c5b 5fbe 4953 01be
00000120: 633e 92bd 2858 ad3e 4a9f 66bd e9c1 33be
00000130: 649a 82bc 99aa bbbd 19bc 11be 0f00 ee3d
00000140: d60f 72bd ff6b 8cbd 0dbd 6abd 0e4e 803e
00000150: ad46 36be a614 f5bd 60c5 b03e a35b dd3d
00000160: 9d55 85be bde4 6bbd a7e3 0a3d c815 4fbe
00000170: e2d0 b43d e90c 183d 9135 103e 6a88 94be
00000180: 7b58 01be 69c5 373e a3fa 303f 5cdf 8e3e
00000190: c500 8bbe e4c8 4abf 208a ff3e 8276 61bc
000001a0: 7a5b b03e b269 1d3e 5200 a8bf eaed 8a3e
000001b0: bb93 4abd d4d2 003e c00e d23e 1351 80be
000001c0: 7a32 553e a25c a63f 7882 2bbd 0aba b8bd
000001d0: c525 1e3f 6091 cebe 6732 963e 2198 00bd
000001e0: 18ed 0ebf 7ed1 c53e 5a1b 163f ffcb 1e3f
000001f0: d998 313f 44a0 f1bd 3fdf 163e 97d1 383e
00000200: 794b 483e 8486 d63d ac8f 52be 4100 d03d
00000210: 41cc 263e b5e4 fcbe 82fb 3bbb 45b3 1c3c
00000220: b62b 36be 38db 2ebe 192e aabe 50f8 d9bd
00000230: 60d6 c8bd 22b3 29bd 6408 153e 914a d9bd
00000240: a3ff 8abb 65df 313e fa8d 06bd 8d2c 353d
00000250: e27e 853d 0609 57bd ece3 903e 201f e43d
00000260: 195e 57be cb2d a1bd 6f32 cf3d 11a1 0abe
00000270: 00d3 98bd 004e 393e 6856 59be 4eac 61be
00000280: 93b6 05be 0110 843d 3f4e ec3e c0e9 ee3d
00000290: 37af ddbe 270f dcbe 03f0 e03e f533 9ebd
000002a0: cfd0 3e3f ef30 0fbe 1ad5 a3be c0cb a03c
000002b0: 6d44 b83c 2b42 9e3e d9e3 c83e 4e14 ca39
000002c0: 2c0b 8fbd 682b 2b3e 7f0a 793d 5498 463d
000002d0: 88a9 9c3e 1a44 9dbc 28bf 1cbc d20f a6bd
000002e0: 13a6 91be 9e5d 063f 80b4 a43e a0c4 af3e
000002f0: 8d65 773e 414a 083d c772 8ebd 6a26 163f
00000300: d372 093c 56a8 13be f1a9 71be ec5d 33be
00000310: ff0a 08be a772 cfbe 8388 a8be 5e02 23bc
00000320: a2f2 123d 4de8 74bd 0643 6abe 1d14 13be
00000330: 27d5 c93d 75ea 8c3c f8ae a43c df25 cd3d
00000340: 8687 7d3e 0593 edbd b179 d53c 05b2 053e
00000350: 47cf b2be d302 b83c 05f8 533e 6e4e 403d
00000360: 7cff bfbe 2c0e 003b 6eb2 f7bd 4b76 dcbe
00000370: 5beb 55be 3201 31bd 0dbb 03be 08f1 223c
00000380: 1c1e 4b3d 7b2e 2f3e 0b48 2abe cc16 2fbe
00000390: 7dd2 043d 97bf 97bd ed3e 0ebe a862 d83c
000003a0: 0177 72bd e26e 203b cea6 6ebe 15d9 02be
000003b0: 11d0 f7bb 8c8d 7bbd e836 88bd 89b2 77bd
000003c0: 88d8 b6bd 8e43 22be 2c08 04be f8b2 593d
000003d0: 423a 37be d525 b1bd 1b15 493e 78bc acbd
000003e0: 88b4 68be 5df7 e7bd a196 68be 7e6f 55be
000003f0: a128 573d dc84 d03d 71a9 6e3d 7d0a 3dbd
0.23208295 -0.118952624 0.3654421 -0.2519932 -0.23629028 -0.8136129 0.027260965 -0.17950119
0.35651132 0.19668816 -1.4991542 -0.1466247 0.10980183 0.39441988 0.3835751 -0.06660347
0.2575102 0.1913186 -0.20040417 -0.26787117 0.2728 -0.4813087 0.04556618 0.06587001
-0.14718066 0.10756957 0.29685056 0.40843716 0.35835427 -0.007109811 0.034520913 0.2749108
0.16540255 -0.14667769 -0.19283746 0.067849144 -0.009601309 -0.38923532 -0.072164714 -0.07290647
-0.21422327 0.112270966 -0.510975 -0.065693155 -0.076149285 -0.17289151 -0.1511211 0.13247187
-0.07450889 -0.17847656 -0.15047212 -0.1710221 -0.04273362 0.13704789 -0.21013463 0.22720015
-0.24685246 0.14704926 0.09351311 -0.026682826 -0.11570831 -0.013516246 -0.12989464 -0.071518846
-0.100550264 0.23141117 -0.09720438 -0.20738246 0.04554705 -0.540987 -0.21812123 -0.12629427
-0.071408056 0.3385632 -0.056304254 -0.1755444 -0.01594276 -0.09163398 -0.1423191 0.11621105
-0.059097134 -0.06856536 -0.0573092 0.2505955 -0.17800398 -0.11966829 0.34525585 0.10808494
-0.2604188 -0.05759119 0.033908512 -0.20223153 0.08828904 0.037121687 0.14082934 -0.29010326
-0.12631409 0.179464 0.6913244 0.27904785 -0.27149025 -0.79212785 0.4991007 -0.013761165
0.3444479 0.15372351 -1.3125098 0.2713464 -0.049457293 0.12580425 0.41026878 -0.25061855
0.20820037 1.2997019 -0.04187247 -0.09019859 0.6177638 -0.40345287 0.2933533 -0.03139508
-0.55830526 0.38636392 0.58635485 0.62030023 0.6937385 -0.11798146 0.14733599 0.18048702
0.1956004 0.104748756 -0.20562619 0.101562984 0.16288854 -0.4939324 -0.0028683846 0.009564226
-0.17790112 -0.17075813 -0.33238295 -0.10643065 -0.09806514 -0.0414306 0.14553982 -0.106099255
-0.0042419 0.17370375 -0.032850243 0.04423194 0.065183416 -0.05249884 0.2829889 0.11138749
-0.21031989 -0.078700624 0.10117041 -0.13538004 -0.0746212 0.18096161 -0.21224368 -0.22038385
-0.13057928 0.06448365 0.46153447 0.11665678 -0.4329774 -0.4298031 0.43933114 -0.07724754
0.74537367 -0.1398351 -0.3199852 0.019628406 0.022493565 0.30909857 0.39236334 0.0003854357
-0.06984553 0.16715777 0.060801025 0.048485115 0.30598092 -0.019197512 -0.00956706 -0.08108486
-0.28447017 0.524866 0.3216896 0.343297 0.24159832 0.03327394 -0.06955486 0.58652365
0.008389193 -0.14419684 -0.23599984 -0.17516297 -0.13285445 -0.4051716 -0.3291665 -0.009949295
0.035875924 -0.05979185 -0.2287713 -0.14363141 0.09855109 0.017201642 0.020102963 0.10016989
0.2475873 -0.116003074 0.026059004 0.1305619 -0.34923765 0.022462284 0.2070008 0.046949796
-0.37499607 0.0019539697 -0.1209458 -0.43059 -0.20890562 -0.04321403 -0.12864323 0.009945162
0.04958926 0.17107575 -0.16629045 -0.1709854 0.0324273 -0.0740959 -0.13891192 0.02641423
-0.059195522 0.0024480154 -0.23305818 -0.12778123 -0.0075626452 -0.061414286 -0.066510975 -0.060473
-0.08928019 -0.15846083 -0.12893742 0.053149194 -0.17893317 -0.08649794 0.19636957 -0.08434385
-0.22725117 -0.11326478 -0.2271371 -0.20843312 0.05252898 0.10181591 0.05826706 -0.04615258

gnn.convs.2.nn.lins.0.bias f4 [32]
00000000: 378e c83e 7c4b 93bd b192 b33d a70d 993f
00000010: d58f f63b b530 1c3f 0679 af3d 5534 313d
00000020: dc22 00be d3e3 a83d 640f a1bd 9c27 70bd
00000030: 5d96 db3e fb5d 9abd 618b 103f 1fee 273d
00000040: 4058 eebd 7a8f e03d 38d7 503d 7312 7c3d
00000050: bb60 2e3f 358b 16be ddae 71bd f549 b43e
00000060: 733c e23e 094f 4cbe e51b 24be 4398 ea3d
00000070: 7914 473c 8adc ce3e be45 c93d 315b cf3e
0.39171 -0.07192132 0.087682135 1.1957291 0.0075244703 0.6101182 0.08568005 0.0432628
-0.12513298 0.08246579 -0.07864264 -0.058631524 0.42888156 -0.075374566 0.56462675 0.040998574
-0.11637926 0.10964866 0.0509865 0.061541032 0.6811635 -0.14701541 -0.059004653 0.35212675
0.44186744 -0.19952025 -0.16026266 0.11454823 0.012150877 0.40402633 0.098277554 0.4049926

gnn.convs.2.nn.lins.1.weight f4 [32, 32]
00000000: 895b 9a3d 3f8c 61bc 7166 dc3d a2e7 7ebe
00000010: 614b 983d 51dc 5fbe 903d da3d 2c61 5f3e
00000020: 6329 8a3d 3268 653d 2c18 a63d 6e35 84bd
00000030: 93cc 08be dd8d 013e 0b6e 503c 9388 c03d
00000040: bf98 8bbd 8d27 a9bd 4134 fdbd 312d 1e3d
00000050: f104 14be 0495 d7bd 5877 3b3d 8833 343d
00000060: b6dc 0bbe 4b11 d23d f719 ac3d 6586 353d
00000070: b38d 253d da94 e03a 34b0 013c e475 873b
00000080: 54c1 0cbe 31ee 0abe dfed ebbd 6f25 e7bd
00000090: f465 df3c 5f6a 57be 275c 68be 8218 4b3d
000000a0: f17f ebbd c7b5 2a3c 711b 193c d313 8dbd
000000b0: 497c 13be cadc 3fbd ae0f 87bd 2a21 43be
000000c0: 3178 3ebe 766c 06be e58e af3d 2c88 10be
000000d0: 2e4a 1cbe 035b 8c3b 12e0 2f3d 4284 51be
000000e0: 692c 47be afc7 ffbd 755c 26be afa4 89bd
000000f0: 1cbc 31be 867f 6dbe 96ef a9bd e366 4abc
00000100: da30 283d be66 05be 2371 e93d 8ac6 9fbd
00000110: bf68 c2bd c627 373c b955 3d3e 42f0 5ebe
00000120: ed36 43bd f13c b5bd c9de 55be f184 a0bd
00000130: df45 aa3d 9b0d 083e 436a 26bd 8926 523b
00000140: a129 013e fa1d 503d 2a03 053e 1a03 293c
00000150: 8b86 83be c514 613e 6740 303d 46c4 29bd
00000160: 01ee 753d 0b8e 87bc d0b5 25bd d793 0fbe
00000170: d5ff 2fbd 1999 42bd 3c67 193d a24f 3f3d
00000180: 8281 063f d9d5 003c 3ff8 1e3d 86a0 ac3d
00000190: 07e4 133d 505f 093f c8ed 293e a542 45bd
000001a0: 9505 9ebd ab41 0dbe 4fe6 b0ba 8e66 893d
000001b0: c3f7 cc3e 4a52 f93d 3564 ac3e bb55 2f3d
000001c0: 74ab 713e 1b74 9ebd 618f 0d3e ec00 b43d
000001d0: d238 393f 7ef8 253e 438e d2bd a1ef f93e
000001e0: e5cb 683e 3822 aa3c df38 6ebd 9c18 13bf
000001f0: 3781 943e 5607 ec3e 4f5f ce3d e040 8f3e
00000200: 954d 0d3e 7b36 93be fba8 2c3d a7c8 1dbe
00000210: 9c42 453e 7c95 b3bd 703a e4bd 7a11 9cbd
00000220: cd3a 17bd 014a 15bd f084 063d 2226 80bd
00000230: 8c72 0ebe d03c 863c 4783 7e3d 218e 0b3e
00000240: f41e 1e3e a456 ea3c ebcc 5b3c 875d ecbd
00000250: 7471 47be 041b 3dbd d7c0 f53d a0d6 f43d
00000260: fb35 283e 0a38 da3c dce2 eabd be13 09bc
00000270: 9d2e 34be 9c16 90bd ae5e 483e 1313 23be
00000280: 176d 9a3e 3d00 c9bd c9c9 21be a4ea 613f
00000290: 1239 023c 8713 d13e cb5b eebd 2ffa eebd
000002a0: 45ec c33d 4338 34be f016 f73c 3f0a 5cbe
000002b0: 754c 713e 4212 89bb c209 123e 5b0a 933d
000002c0: ca04 0bbe fb15 a0be f16c b53d 077e 483e
000002d0: b4de 1d3f 6897 b03e 5a01 64be b8de c63e
000002e0: 2f3d b03d 14be b83d c2d0 063e 67cb 9ebe
000002f0: 0efe 533e b80e f33e dfb0 f5bc 8d61 d73e
00000300: 8478 59be 5fb9 4b3e 38da 903d b0ac 32be
00000310: 7998 60be 5048 93be dada b53c c16e 7f3e
00000320: ae5d 07be 4900 fabb 1071 443b 0e5f d73d
00000330: 8489 23be c10e 35be 6b25 cdbd 9b69 693e
00000340: 1e53 953b 2dad e93d 8c04 19be 0250 913d
00000350: 5adc 4bbc 14d6 443e 5445 da3e e3c4 55bd
00000360: 67d6 b83d 4083 3c3d fd7b b53d 3d50 8a3f
00000370: 8f3b fa3d 70db 3dbe 6033 7abd 7a4c f2bd
00000380: 7b94 ecbe 9ef3 af3d 821b 4dbd 51ae ef3d
00000390: 89e9 36be ef4a e0be 62f0 403d 8622 a23c
000003a0: db96 dd3d f252 15be d160 7cbd fa30 5b3e
000003b0: 51e8 1dbe 866c 35be afdc 7bbd 461f 81bd
000003c0: 040f 42be dc83 8c3e 9032 423d 0578 b03d
000003d0: 30cc 043d 2edc 3abe 86dc f9bd f07e 69be
000003e0: 56fe ad3d 8517 8dbb 0808 043d 9ce0 383e
000003f0: c7e2 cfbd 442a 8bbe ecc4 e23c b0b9 5c3d
0.0753699 -0.013766347 0.10761727 -0.24893048 0.074362524 -0.21861388 0.10656273 0.21814412
0.06746175 0.05600757 0.08110079 -0.064555034 -0.13359289 0.12651773 0.012721549 0.094010495
-0.068162434 -0.08259497 -0.12363482 0.038617317 -0.1445501 -0.10526469 0.045768112 0.043994457
-0.13658413 0.102572046 0.0840339 0.04431762 0.040418338 0.0017134205 0.007915545 0.0041339267
-0.13745624 -0.13567425 -0.1151998 -0.11286437 0.027270295 -0.21036671 -0.22691403 0.04958392
-0.11499012 0.010419316 0.009344921 -0.06888547 -0.1440288 -0.04684142 -0.065947875 -0.1905562
-0.18600537 -0.13127312 0.08572177 -0.14114445 -0.15262672 0.0042833104 0.0429383 -0.20460609
-0.19450535 -0.124892585 -0.16246207 -0.06720864 -0.17356914 -0.23193178 -0.082976505 -0.012353632
0.041062213 -0.13027474 0.11398532 -0.0780154 -0.09492635 0.011178916 0.18489732 -0.21771339
-0.047659803 -0.08849514 -0.20885767 -0.078378566 0.08314108 0.1328644 -0.040628683 0.0032066426
0.12613536 0.050809838 0.12989488 0.010315681 -0.25688586 0.21980579 0.04303017 -0.041446947
0.06004143 -0.016547224 -0.040456593 -0.1402124 -0.04296859 -0.047509287 0.037451968 0.046706803
0.52541363 0.007863485 0.038810965 0.08429055 0.036106136 0.5366106 0.16594613 -0.04815926
-0.077159084 -0.13794582 -0.0013496372 0.06709014 0.40032777 0.121738985 0.33670202 0.04280637
0.2360056 -0.07736989 0.13824226 0.08789238 0.72352326 0.16208073 -0.102810405 0.48815635
0.2273403 0.02076827 -0.058159705 -0.57459426 0.29004833 0.46099347 0.100767724 0.27979183
0.13799126 -0.28752503 0.04215334 -0.15408574 0.1926369 -0.08768746 -0.111439586 -0.07620521
-0.03692131 -0.03644753 0.032841623 -0.06257273 -0.13910884 0.01638642 0.062136915 0.13628437
0.15441495 0.028605767 0.0134155555 -0.115412764 -0.19476873 -0.046168342 0.11999672 0.11954999
0.16426842 0.02663805 -0.11469051 -0.008366523 -0.17595907 -0.070355624 0.19567367 -0.15925245
0.30161354 -0.098144986 -0.15799631 0.8824866 0.007948177 0.4083521 -0.11638602 -0.116688125
0.09566549 -0.17599587 0.030162305 -0.21488284 0.23564322 -0.0041830847 0.14261535 0.071797095
-0.13576046 -0.3126677 0.088586695 0.19579326 0.61667943 0.34490514 -0.2226614 0.38841796
0.0860542 0.090206295 0.13165572 -0.3101456 0.20702383 0.47472167 -0.029991565 0.42066613
-0.2123738 0.19894932 0.07072872 -0.17448688 -0.21933164 -0.28766108 0.022199083 0.24944593
-0.1321933 -0.0076294285 0.0029974617 0.10516177 -0.15970427 -0.1768141 -0.100169025 0.22794192
0.0045570275 0.11409984 -0.14943141 0.070953384 -0.012442673 0.1922229 0.42631018 -0.05218972
0.09025269 0.046023607 0.088615395 1.0805737 0.12218391 -0.1854074 -0.06108415 -0.11830993
-0.46207032 0.08591388 -0.05007506 0.1170317 -0.17862524 -0.4380717 0.047104247 0.019791853
0.10819789 -0.14582422 -0.06161577 0.21405402 -0.15420653 -0.1771718 -0.061489757 -0.06304793
-0.1895104 0.2744435 0.0474115 0.08616642 0.03242129 -0.18248054 -0.12200265 -0.22802329
0.08495776 -0.0043057823 0.03223422 0.18054432 -0.10150676 -0.27180684 0.02768179 0.053888023

gnn.convs.2.nn.lins.1.bias f4 [32]
00000000: 0136 473e 3c8d dbba f1fe 3fbd 5b49 613e
00000010: 58e3 b23d 31c6 2c3e 3b9e 2ebe 3632 bbbc
00000020: 28a8 4fbd 56d6 833d f65d 8fba 7808 b8be
00000030: 6ff8 b23d bf8b 9fbd 5835 093e 20a2 19bd
00000040: 2313 033e be1c 6d3d 8fb2 0e3d 0f21 15be
00000050: c6b5 293e fa80 c63d f467 c8bc 5fc4 69bd
00000060: 9b95 293e 5436 733d 5eeb 283e 6555 4c3d
00000070: 8e66 763d 04b6 c53e d7ba 3a3e 09e2 423d
0.19454195 -0.0016750465 -0.04687399 0.22000639 0.08734769 0.16872479 -0.17052548 -0.02285109
-0.050697476 0.06437366 -0.0010938037 -0.3594396 0.08738791 -0.07790326 0.13399255 -0.03750813
0.12800269 0.05788874 0.034838255 -0.14563392 0.16573247 0.09692569 -0.024463631 -0.05707204
0.16560976 0.059377983 0.16496035 0.049886126 0.060156398 0.3861543 0.18235336 0.047578845

gnn.convs.3.nn.lins.0.weight f4 [32, 32]
00000000: 764e ebbd 10a7 f9bc 04d8 703d d12d f93e
00000010: 59c7 eb3d e086 163f 0d16 36bf 610e 38be
00000020: d28f f83d a4b6 ccbc 39ff 013f 8eb6 053e
00000030: a523 b9ba d85e a6bd 12fc d23e 3c22 1e3e
00000040: d084 903e d866 943e 7173 89be 9679 8d3c
00000050: 49cb b739 8a3b 3b3d 9264 233e 5fdf ae3d
00000060: ecb3 353e 4742 5a3d 84b5 203c 9a06 e03b
00000070: 78ed 67bf b828 d7be 0690 e53e b2bf 193e
00000080: 7ba1 1b3e 0624 c93d 7d84 acbd 544a 7ebe
00000090: 2dd6 243e a10c f3be 8dac f3bd 78a2 a23e
000000a0: a470 8dbd 57e3 e43d 89d8 ef3d b3e8 d8bd
000000b0: f62d 80bb 6344 74be 9882 16bc ae6f 0dbe
000000c0: 9a41 4bbe 2869 adbd 1b44 97bd 597e 35be
000000d0: 2e05 7dbe f578 10be b7d0 a3bc 2e0c 163e
000000e0: ee95 58bd f363 da3c 0495 82bd ef6b 283e
000000f0: 09c3 b53c bc16 e8bd f231 ffbd 4329 b7bc
00000100: 35aa 98bd 150a 8abd b779 21be 9c3e 88be
00000110: 9b65 f63d e932 bb3d 29d7 693d 7beb 0c3d
00000120: ed15 a13c 4a54 f13b 3a97 303d e523 36bd
00000130: 81a7 50be 7b73 f73d 4366 64be d603 1abe
00000140: 7352 52be 3f2d 1bbe e7df b9bd c627 d03c
00000150: a4f5 523d a157 dcbd 077b 5f3d d636 b13d
00000160: 6ce5 92bd 3237 a1bd d3e4 90bb b8aa 65bd
00000170: 0983 7abe 3491 78be 003c 31bd 1134 fa3d
00000180: f2ab 5abd 3b4e b53d 649d 443e bf16 ba3e
00000190: a617 4f3d 82c4 8e3e e803 02bf c86f 9ebd
000001a0: 677d 16bd 1c78 bcbc 7e4e e43e 6751 efbd
000001b0: 8e9f 823d 798f 9abd b788 af3e 162b 7abe
000001c0: 1fa4 d33c 1f52 eb3d 45a8 acbe 2953 3dbc
000001d0: 1acb 7d3d 3d78 8bbe a72d 303d fcff 45bc
000001e0: aa4b 033e 7d90 5e3c c9e5 b9bd 45e3 e1bb
000001f0: 22b0 68bf 58a4 ddbe a265 743e c8d8 1cbe
00000200: 11e7 86bd d840 2b3d b30a 213e e7e8 31bd
00000210: f1be 4bbe ca50 90bc f4e5 60be ea52 80bd
00000220: 7217 6bbe 1ca8 2f3b 70f4 b6bd 56e8 e6bd
00000230: 768c b6bd 929a ffbd 8f86 d4bd 121c ad3d
00000240: c8a7 d2bd 2356 2bbe 1c8f be3d e1b6 cd3c
00000250: 81b6 09be 792e 94bd 9b9a 873d 08c8 333d
00000260: 546f 49be 6ce0 f0bc cd55 593d 2654 51be
00000270: bacd 09bc f47f b7be ad8f bbbb a136 a5bd
00000280: 9af1 74bd 49cc c93d 03c4 60bd 80c9 0e3f
00000290: 57db e23d f6f8 aa3e 71b5 d5be 7ac2 9a3d
000002a0: 5da2 e1bd 7d46 803d b0d5 0b3f 6c6a 9ebd
000002b0: 3513 f03d 7b3c 58bc ecc5 d33e 8f66 58bd
000002c0: f4fe d13e 0620 dc3e 33a3 a0bc cceb 35be
000002d0: 9aaf c9bd e11a d13d c675 c13d 10d7 66bd
000002e0: a4a5 963d cd4c 69bc 4fd6 ebbd faa5 ba3d
000002f0: ec47 14bf 3ee1 ffbe 8717 903e 961a d2bd
00000300: 6109 8fbd 467a 1dbe 1286 ffbc 0c5f 003f
00000310: 43ff 02be af33 cd3e 779a 4bbf ae97 ddbd
00000320: 9876 65bd 9470 95bd 4080 cb3e 285a c1bd
00000330: 23bd f7bd c1fa 72be 30dc e63e 5fa5 203d
00000340: 646a cb3e 8805 603e 879a 14ba 84a7 8dbd
00000350: a312 b9bd 94a5 28bd 83e9 50be d150 543d
00000360: 07f5 0a3b 3619 b4bd 668d c63d 1ed6 a7bd
00000370: d0b7 4abf d443 91be dfb7 2a3e 669b 3fbe
00000380: 080a 6bbd 9bff 7bbf 5c07 dd3d bb48 573e
00000390: 9658 adbc fc62 d33e b67f e2be d575 15be
000003a0: 75db 25be 3f67 37bf 83b5 ab3e 1857 7dbd
000003b0: 76d3 b2bd 4ae1 3c3d a1ef c13e ee47 2cbd
000003c0: b3af 73b9 e691 ab3e 77dc 41bf 8757 523e
000003d0: cc26 8d3c 8a51 98bc 71ff babd e075 de3d
000003e0: 86f6 a7bc 09cd 773c 3f34 1c3e 9783 e03d
000003f0: c0e0 b7bf 1cee 0dbf 71da 013e 434a 6abd
-0.114895746 -0.03047517 0.05879976 0.48667768 0.11512632 0.5879955 -0.71127397 -0.17974235
0.121368065 -0.024989434 0.50780064 0.1305792 -0.0014125003 -0.08123559 0.4120794 0.15442747
0.28226328 0.28984714 -0.26845887 0.01726989 0.0003505594 0.045711078 0.15956333 0.085386984
0.17744416 0.053285863 0.009808902 0.0068367245 -0.90596724 -0.42023253 0.44836444 0.15014532
0.15198319 0.09821324 -0.08423708 -0.24833041 0.16097327 -0.47470573 -0.11898146 0.3176458
-0.0690625 0.11176174 0.11711223 -0.10591259 -0.003911729 -0.23854212 -0.009186409 -0.13812134
-0.19849244 -0.084673226 -0.07386037 -0.17723979 -0.24709007 -0.14108641 -0.019996984 0.14653084
-0.05287736 0.026658988 -0.06376079 0.16447423 0.022187727 -0.11332461 -0.12460698 -0.022358542
-0.074543394 -0.06740204 -0.15769087 -0.26610267 0.120310985 0.0914057 0.05708996 0.03440426
0.019663775 0.0073647844 0.04311297 -0.044467825 -0.20376398 0.12082573 -0.22304635 -0.15040526
-0.20539264 -0.15153979 -0.09075909 0.02540959 0.051503792 -0.107589014 0.054560687 0.08653037
-0.07172665 -0.07871856 -0.004421809 -0.056071013 -0.24464048 -0.2427414 -0.04327011 0.12216962
-0.053386636 0.08852812 0.19200665 0.3634548 0.050559662 0.278843 -0.5078721 -0.07736164
-0.036740687 -0.023006491 0.44591135 -0.11685448 0.06378089 -0.075468965 0.34283993 -0.24430498
0.025835095 0.11490273 -0.3372213 -0.011555471 0.06196127 -0.27240172 0.043012287 -0.012084957
0.12821832 0.013584253 -0.09077031 -0.0068935477 -0.9089376 -0.43289447 0.23866895 -0.1531707
-0.06587041 0.041809887 0.15726738 -0.043435004 -0.19897057 -0.017616648 -0.2196272 -0.062658146
-0.22958162 0.0026803082 -0.089333415 -0.11274783 -0.089135095 -0.12480654 -0.103772275 0.084526196
-0.10285908 -0.16732077 0.0930464 0.025111618 -0.13448526 -0.072354265 0.066212855 0.043891937
-0.19671375 -0.029403888 0.05306034 -0.20442256 -0.008410865 -0.35839808 -0.0057239146 -0.0806706
-0.05980072 0.098534174 -0.05487443 0.55776215 0.11076992 0.33393067 -0.4173999 0.07556625
-0.110172965 0.062634446 0.54622936 -0.07735142 0.117224135 -0.013198013 0.4136194 -0.052832182
0.41014826 0.42993182 -0.01960907 -0.1776573 -0.098479465 0.10210205 0.094462916 -0.056357443
0.07355812 -0.014239502 -0.115154855 0.09113689 -0.57922244 -0.49976534 0.2814295 -0.10258977
-0.06984211 -0.15378675 -0.03119186 0.5014503 -0.12792687 0.40078494 -0.7953257 -0.10819946
-0.056021303 -0.07296863 0.39746284 -0.09441024 -0.12096622 -0.23728468 0.45089865 0.03922021
0.39729607 0.2187711 -0.00056687783 -0.06916717 -0.09036758 -0.041173533 -0.20401578 0.051834885
0.0021203177 -0.08793871 0.09694938 -0.081951365 -0.79186726 -0.2837206 0.16671704 -0.18711624
-0.057382613 -0.984369 0.10792419 0.21023838 -0.021160405 0.41286457 -0.4423806 -0.1459573
-0.16196997 -0.71641916 0.3353692 -0.061850637 -0.08731739 0.04611329 0.37878135 -0.042060785
-0.00023239739 0.3350975 -0.7572703 0.20541202 0.017230414 -0.018593568 -0.09130753 0.108623266
-0.020503294 0.015124568 0.15254305 0.10962599 -1.4365463 -0.5544145 0.12680985 -0.057199728

gnn.convs.3.nn.lins.0.bias f4 [32]
00000000: 9c98 953e 93b3 b73d 6634 df3d fc75 dcba
00000010: cacd e2bd 2451 883e 6413 d0bc 8a26 ab3d
00000020: 74d7 d3bd 0736 92bd 5404 093e 377e 92bd
00000030: 7ee9 9a3d 8bf8 873e 989f d4bd 2e31 4c3e
00000040: 6f2e 723e dd8f 7a3d 05bd 383e 0d82 59be
00000050: d14d debc 53ba 223d 4924 b0bd cee1 b6bd
00000060: 53fb 6dbd 9e26 303d 5706 d03d 1f0e 3f3d
00000070: 586b cbbb 633b 533b b18e 63bc 406a 383e
0.29217994 0.08969798 0.10898666 -0.001681983 -0.110744074 0.26624405 -0.025399871 0.0835696
-0.10343829 -0.07139211 0.13380557 -0.0715298 0.07564066 0.2655681 -0.103820026 0.19940636
0.23650526 0.061172355 0.18040855 -0.21241017 -0.027136715 0.039728474 -0.08600671 -0.089297876
-0.05810101 0.04300558 0.10157459 0.046644326 -0.0062078647 0.0032231442 -0.013889001 0.18009281
