Run_GIN_ModelCheckpoint_EvFr_2/NCI1_reps_2_folds_5_epochs_20_2023-04-26_11-05/rep_0_fold_2/checkpoints/model_trial_7.ckpt (torch, 245261 bytes, 86 tensors)

gnn.convs.0.nn.lins.0.weight f4 [32, 37]
0	0xbd0cbf58	-0.034362167
1	0x3da015eb	0.078166805
2	0xbe5bd447	-0.21467696
3	0x3f320584	0.69539666
4	0xbe633b2e	-0.22190544
5	0xbe8079c5	-0.25092903
6	0xbe9a9d05	-0.3019792
7	0x3c4ed668	0.012624361
8	0xbe109504	-0.14119345
9	0xbe2c18ab	-0.16806285
10	0xbbf55d00	-0.007487893
11	0xbe838dce	-0.25694126
12	0xbe8bc79a	-0.2730072
13	0x3e78317c	0.24237627
14	0xbd330de1	-0.043714408
15	0xbe0a74da	-0.13521138
16	0x3f0d7b66	0.55266416
17	0xbe2b5236	-0.1673058
18	0xbe52a3c7	-0.20570289
19	0xbe3d2bb2	-0.184737
20	0xbc714416	-0.014725706
21	0x3fda632d	1.7061516
22	0x3d2ce15b	0.042207103
23	0xbe1e94c1	-0.15486433
24	0xbe62a0fd	-0.22131725
25	0xbf0cebca	-0.55047286
26	0xbeadd0ad	-0.3394827
27	0xbdfeb118	-0.12436122
28	0x3c8f0624	0.017458983
29	0xbe32e762	-0.17471078
30	0xbced1fb5	-0.028945783
31	0xbda80ba6	-0.08205347
32	0x3e578e86	0.21050462
33	0x3f51de0c	0.8197944
34	0x3e330116	0.17480883
35	0x3d1ac1b6	0.037782393
36	0x3eadabe9	0.3392022
37	0x3f17a3d6	0.5923437
38	0x3f16d5ca	0.58919966
39	0xbe27afcd	-0.16375656
40	0x3f21c039	0.63183933
41	0xbf5fa34b	-0.8735854
42	0x3cfc60fb	0.030807963
43	0xbe225445	-0.15852459
44	0x3cf202f3	0.029542422
45	0xb9e6aed6	-0.00043999281
46	0xbde8bfca	-0.11364706
47	0xbdfe310b	-0.12411698
48	0xbd1dd712	-0.038535185
49	0x3d559edf	0.052153464
50	0xbe39670a	-0.18105713
51	0xbc7d24b2	-0.015450643
52	0xbe23f58c	-0.16011637
53	0x3f128718	0.57237387
54	0xbd08fce4	-0.0334443
55	0x3dceeffd	0.10104368
56	0xbe08c0b6	-0.13354763
57	0x3f01f59f	0.50765413
58	0x3fc80d90	1.5629139
59	0xbe240376	-0.16016945
60	0xbd35a679	-0.044348214
61	0x3dd4307f	0.103608124
62	0xbe05d844	-0.1307078
63	0xbf378868	-0.71692514
64	0xbd3421ef	-0.043977674
65	0x3dbb48c5	0.09144739
66	0x3ccd65c8	0.025072947
67	0xbce21998	-0.027600095
68	0x3ddb1f6e	0.10699354
69	0x3d10d85b	0.035362583
70	0x3d2b6249	0.04184178
71	0x3d83cfac	0.06436095
72	0x3d986a7a	0.07442184
73	0x3d8f53aa	0.069983795
74	0x3e188a90	0.14896607
75	0x3d69a7e8	0.057044894
76	0xbd9ad328	-0.07559806
77	0xbe9f55a9	-0.3112004
78	0x3da23582	0.07920362
79	0xbe549afd	-0.20762248
80	0xbe7eeeb0	-0.2489574
81	0xbdc081d2	-0.09399761
82	0x3f8e9b11	1.1141073
83	0x3f2e93a1	0.68194014
84	0x3f8f884f	1.1213473
85	0xbe070af3	-0.1318777
86	0xbdd0efd1	-0.10201991
87	0xbe8a6076	-0.2702672
88	0x3f9ce475	1.225722
89	0x3ed5adcc	0.4173416
90	0xbcf70c92	-0.030157361
91	0xbdfe8f80	-0.12429714
92	0x3df5d9b2	0.12004413
93	0x3f0981a0	0.5371342
94	0xbdd5fb7d	-0.10448358
95	0xbed7dff1	-0.4216304
96	0x3de0e052	0.10980286
97	0x3f220357	0.63286346
98	0x3f92928f	1.1450976
99	0x3d4d0e61	0.05006254
100	0x3f4d25f8	0.8013606
101	0x3e9e2752	0.30889374
102	0xbe235356	-0.15949759
103	0x3f633f3b	0.8876836
104	0xbbc4141b	-0.005983842
105	0x3cf7dc02	0.030256275
106	0xbd056a74	-0.032572225
107	0x3d2be490	0.04196602
108	0xbd9103e3	-0.070808195
109	0xbccb711b	-0.024834206
110	0xbc85ce20	-0.01633364
111	0xbf4f9ea6	-0.81101453
112	0xbed34e80	-0.41270828
113	0x3e8d75e9	0.2762902
114	0xbe4a2e7e	-0.19744298
115	0x3e511d2c	0.20421284
116	0xbedb2e64	-0.4280883
117	0xbe7ee3dc	-0.24891609
118	0x3d7e8145	0.062135
119	0xbe869a47	-0.2628958
120	0xbdd4e78e	-0.10395728
121	0xbc280c2c	-0.010256808
122	0xbccaba40	-0.024747014
123	0xbc2226e8	-0.009896971
124	0x3eb1a532	0.34696347
125	0xbe1b44ba	-0.15162936
126	0x3d167c65	0.036739726
127	0x3cdf2c9b	0.02724295
128	0xbd42379e	-0.047416322
129	0xbf22bb8f	-0.6356744
130	0xbf04d216	-0.51883066
131	0xbe943389	-0.28945568
132	0xbdae060a	-0.084972456
133	0xbe2508f1	-0.16116692
134	0xbcfba989	-0.03072049
135	0xbf0584ca	-0.52155745
136	0xbf045ebf	-0.5170707
137	0x3e11ae04	0.14226538
138	0xbea31331	-0.3185058
139	0xbd9cbe03	-0.07653429
140	0xbd297f53	-0.04138119
141	0xbdf0900e	-0.11746226
142	0xbd99ac02	-0.07503511
143	0xbe1eda19	-0.15512885
144	0xbdf8c366	-0.12146644
145	0x3d7ff68f	0.062490996
146	0x3af9582e	0.0019023472
147	0x3d97050a	0.07374008
148	0xbd4f6203	-0.05063058
149	0xbbf7224e	-0.0075419312
150	0xbc8c114b	-0.01709809
151	0xbe4250a0	-0.18976068
152	0xbe4ffe51	-0.20311858
153	0x3e134fc2	0.14385894
154	0xbcf1ed79	-0.029532181
155	0xbce47448	-0.027887478
156	0x3e12412f	0.14282678
157	0xbc5ce47c	-0.013482209
158	0xbd36be67	-0.044615176
159	0xbd0d5e93	-0.03451402
160	0x3e225451	0.15852477
161	0x3d18262c	0.03714578
162	0x3f913ae6	1.1346099
163	0xbdd0f78d	-0.102034666
164	0xbd95e5e7	-0.07319241
165	0x3f928362	1.1446345
166	0xbdb80a79	-0.089863725
167	0x3da6e754	0.08149591
168	0xbdb36db2	-0.08761157
169	0xbddece73	-0.10879221
170	0xbd0920fa	-0.033478715
171	0x3c6f94bd	0.014622864
172	0x3e43bcca	0.19114986
173	0x3d96cb4c	0.073629946
174	0x3e3146c5	0.17312153
175	0x3e3116f5	0.17293914
176	0xbdcdb124	-0.100435525
177	0x3cc737da	0.024318624
178	0x3d6d30d9	0.057907913
179	0x3ac09699	0.0014693319
180	0xbdce7571	-0.10080994
181	0xbc602eb3	-0.013683009
182	0xbbb32984	-0.0054675955
183	0xbd6991d8	-0.057023853
184	0xbda1b9dc	-0.07896778
185	0xbdba4707	-0.09095579
186	0xbe03ff98	-0.1289047
187	0xbd9a105d	-0.07522652
188	0xbdcb7f63	-0.099364065
189	0xbe000479	-0.12501706
190	0x3d1f4216	0.038881384
191	0x3cc05889	0.023479717
192	0x3b638593	0.0034717068
193	0x3de4e308	0.11176115
194	0xbe163cbe	-0.14671609
195	0xbd67ddc6	-0.056607984
196	0x3da9465c	0.08265373
197	0x3cfbe672	0.030749533
198	0x3d862f9b	0.06552049
199	0xbab131a0	-0.0013518818
200	0x3e14fa73	0.14548664
201	0xbc71dbc8	-0.014761873
202	0x3d7203f5	0.059085805
203	0xbd5edb6c	-0.054408476
204	0xbe001ae5	-0.1251026
205	0xbdfeec46	-0.12447409
206	0x3dca5d68	0.09881097
207	0xbd4cc23a	-0.049989916
208	0xbe071c5c	-0.13194412
209	0x3e21b741	0.15792562
210	0xbcd74816	-0.02627949
211	0x3e0340e3	0.12817721
212	0x3df50cf8	0.11965364
213	0x3d90ad9c	0.07064363
214	0xbd0cd139	-0.034379218
215	0x3e1b6bc0	0.15177822
216	0x3e03d334	0.12873536
217	0x3d20380c	0.03911595
218	0x3dc6cce4	0.097070485
219	0x3c509253	0.012730199
220	0x3da99e70	0.08282173
221	0x3c912952	0.017719898
222	0x3f0223f8	0.50836134
223	0x3ef2cb69	0.47420815
224	0xbdb14908	-0.08656508
225	0x3f74df48	0.956532
226	0xbf1c9819	-0.6116958
227	0xbd6f2d84	-0.058393016
228	0xbdc8ed42	-0.09810878
229	0xbe1dd829	-0.1541449
230	0xbd241a93	-0.040064406
231	0xbe07544c	-0.1321575
232	0xbdecfe02	-0.11571886
233	0xbdc93f99	-0.098265834
234	0xbe125fe7	-0.14294396
235	0x3de92fab	0.11386045
236	0xbd4e7c9f	-0.050411817
237	0xbdce895b	-0.10084792
238	0x3f305c11	0.6889048
239	0xbda4eef9	-0.08053393
240	0xbdad812a	-0.08471902
241	0x3d551613	0.052023005
242	0x3f4a209d	0.78956014
243	0x3faca278	1.3487082
244	0xb9c16a58	-0.0003689106
245	0xbe16601d	-0.14685102
246	0xbd3e35b8	-0.04643795
247	0xbed87c2f	-0.42282245
248	0xbf343c47	-0.70404476
249	0xbe0d7288	-0.13813221
250	0xbd1ae99c	-0.037820444
251	0xbcba8ddd	-0.022772724
252	0x3dab2239	0.08356137
253	0xbdfdb9c0	-0.123889446
254	0x3e9f7504	0.31143963
255	0xba043d0a	-0.0005044496

gnn.convs.0.nn.lins.0.bias f4 [32]
0	0xbded7ad3	-0.115956925
1	0xbecf354d	-0.40470353
2	0xbdacf37c	-0.084448785
3	0xbdfd1d77	-0.123591356
4	0xbe41c8fd	-0.18924327
5	0xbe1fea0e	-0.15616629
6	0xbedf8311	-0.43654683
7	0xbe6f2057	-0.2335218
8	0xbe9a93bf	-0.30190846
9	0xbec93563	-0.39298543
10	0xbe40eb2e	-0.18839714
11	0xbc17d96a	-0.009268144
12	0xbe1dc1a0	-0.15405893
13	0xbc81c91d	-0.015842969
14	0xbda87879	-0.08226103
15	0xbd61bdc4	-0.055112615
16	0xbe17d1ad	-0.14826079
17	0xbe8a1f3c	-0.26976955
18	0xbec66f5a	-0.3875683
19	0x3e90807f	0.28223035
20	0xbecb0284	-0.39650357
21	0xbe1221a4	-0.14270645
22	0xbee51c90	-0.44748354
23	0xbc1ff6d8	-0.009763442
24	0x3c19c338	0.009384923
25	0x3e4d2e6f	0.20037244
26	0xbdeb4eac	-0.11489615
27	0x3d87a742	0.06623699
28	0xbe655886	-0.2239705
29	0xbe3e9f20	-0.18615389
30	0xbdb414bc	-0.08793017
31	0xbe38cd47	-0.18047057

gnn.convs.0.nn.lins.1.weight f4 [32, 32]
0	0xbdf0e52b	-0.1176246
1	0xbde38b42	-0.11110546
2	0xbe025c19	-0.12730445
3	0xbdfc1dab	-0.12310346
4	0xbda0f373	-0.07858934
5	0x3e17ee00	0.14836884
6	0x3cf5afec	0.029991113
7	0xbe276a8d	-0.1634924
8	0x3dc362af	0.09540307
9	0xbc3c52b8	-0.011494331
10	0xbdd4a1b3	-0.10382404
11	0x3d97a83c	0.07405135
12	0x3d931216	0.07181184
13	0x3daecdb7	0.08535331
14	0x3e16b35c	0.14716858
15	0xbe4dedf0	-0.20110297
16	0xbd91c134	-0.07116929
17	0xbe2e6aa3	-0.17032866
18	0x3ce75810	0.028240234
19	0xbdb95441	-0.09049273
20	0x3dc095a3	0.09403541
21	0xbcf94134	-0.0304266
22	0xbe2989af	-0.16556428
23	0x3cf8dc8b	0.0303786
24	0xbd79da2d	-0.060999084
25	0xbd3fed65	-0.046857256
26	0xbd7671d7	-0.06016716
27	0xbe543bbe	-0.20725915
28	0xbe0b8f3c	-0.13628858
29	0xbe253c6b	-0.16136329
30	0xbe256459	-0.16151561
31	0xbe59ecbc	-0.21281713
32	0x3dc8959b	0.0979416
33	0xbee8f98b	-0.45502886
34	0xbe01b484	-0.12666517
35	0xbedc4919	-0.4302452
36	0xbde82ec7	-0.11337047
37	0xbdba0985	-0.09083847
38	0xbf5d0433	-0.8633453
39	0x3d994e68	0.07485658
40	0x3c25b24d	0.010113311
41	0x3e1e0fba	0.15435687
42	0x3cc5f3b4	0.024164058
43	0x3e146e02	0.1449509
44	0x3e2311a8	0.15924704
45	0x3dad283d	0.084549405
46	0xbda30562	-0.07960011
47	0x3ecdbb82	0.4018212
48	0x3d8c3f93	0.06848063
49	0x3ce7ad60	0.028280914
50	0xbdbdb89e	-0.092637286
51	0xbeeb59e9	-0.45967034
52	0x3ecac17e	0.39600748
53	0x3db17cd9	0.08666391
54	0xbf0541f3	-0.52053756
55	0xbf047c10	-0.51751804
56	0x3de12b8c	0.10994634
57	0xbd28f323	-0.0412475
58	0xbf068f0e	-0.52562034
59	0x3e93832a	0.28811008
60	0x3ec1ac78	0.37826896
61	0x3e964ee3	0.2935706
62	0xbf24ad34	-0.64326787
63	0x3da86445	0.0822225
64	0xbd71864f	-0.058965977
65	0xbf44f4cd	-0.76936036
66	0x3ec78374	0.38967478
67	0xbecde25c	-0.4021176
68	0x3dd36d79	0.103236146
69	0x3d0df709	0.03465942
70	0x3e881840	0.26581
71	0xbe0b891d	-0.13626523
72	0x3e694ef4	0.22784024
73	0x3e024a23	0.12723593
74	0x3db759bc	0.08952662
75	0x3e2c933b	0.16853039
76	0x3ec81620	0.3907938
77	0xbc1dae7f	-0.009624123
78	0xbdd02975	-0.10164157
79	0x3d5e7c66	0.054317854
80	0xbd78f8ba	-0.06078408
81	0x3e910305	0.28322616
82	0x3e456cf3	0.19279842
83	0xbe17b882	-0.14816478
84	0xbe0f4fc1	-0.13995267
85	0x3e065d9b	0.13121645
86	0xbd4c17c1	-0.04982734
87	0xbf0c750a	-0.5486609
88	0xbdd523ac	-0.104071945
89	0x3e9a2385	0.30105224
90	0xbf36ca07	-0.7140202
91	0x3f187660	0.59555626
92	0x3f0dd7a9	0.55407196
93	0x3f232f9e	0.63744533
94	0xbe9ec86e	-0.3101229
95	0x3e883f69	0.26610878
96	0xbe2eeaf8	-0.17081821
97	0xbea188a6	-0.31549567
98	0x3d25e944	0.040505663
99	0xbe48a1b2	-0.19592932
100	0x3e082b37	0.13297735
101	0x3e1f4eb1	0.15557362
102	0xbcfe7493	-0.031061446
103	0xbdc30b73	-0.09523668
104	0x3dfedcf8	0.1244449
105	0xbe82f39e	-0.2557649
106	0xbe0242ef	-0.12720846
107	0x3b99e123	0.004696028
108	0xbe7c78e2	-0.24655488
109	0xbe2ad917	-0.16684376
110	0xbe1c53be	-0.1526632
111	0xba865cea	-0.0010251079
112	0xbcd82b67	-0.026387883
113	0xbe3eeb03	-0.18644337
114	0x3d490025	0.049072403
115	0xbd278bcf	-0.040904816
116	0xbcc94907	-0.024570955
117	0x3dbcdb44	0.09221509
118	0xbe650d3c	-0.2236833
119	0xbe12844d	-0.14308281
120	0xbd49168d	-0.04909377
121	0xbcde8256	-0.027161758
122	0xbd0f175f	-0.034934398
123	0xbdb34d63	-0.08754995
124	0x3d91b0ce	0.07113801
125	0x3cf32172	0.029679034
126	0xbed04eab	-0.4068502
127	0x3de69e45	0.11260656
128	0x3e46b1ec	0.1940381
129	0xbf1802e8	-0.59379435
130	0x3c907430	0.017633528
131	0xbe8f61fa	-0.28004438
132	0x3d2fb6dd	0.042899
133	0xbddf18b0	-0.10893381
134	0x3e82e4b7	0.2556512
135	0x3dc0df63	0.09417608
136	0x3e88f385	0.2674829
137	0x3c346b7e	0.011011956
138	0x3f110a68	0.56656504
139	0xbe1927c4	-0.14956576
140	0x3ea0bb82	0.31393057
141	0xbdd0bfda	-0.10192843
142	0x3e12aa80	0.14322853
143	0x3ecc934a	0.39956123
144	0x3c30ea75	0.010798086
145	0x3e9b804f	0.3037133
146	0xbe5ec331	-0.21754147
147	0xbe7fdce8	-0.24986613
148	0x3f13e003	0.5776369
149	0xbb488366	-0.0030595898
150	0xbe405f77	-0.18786417
151	0xbed3d8ff	-0.41376492
152	0x3e5261e6	0.20545158
153	0x3d9cf0e3	0.07663133
154	0xbf894ff0	-1.072752
155	0x3ec4588d	0.3834881
156	0xbd98ecfb	-0.074670754
157	0x3e006bbb	0.12541096
158	0xbf483331	-0.7820311
159	0x3df3ce3b	0.1190457
160	0xbe64a9f4	-0.22330457
161	0x3e2e7243	0.17035775
162	0xbd98dae3	-0.07463624
163	0xbe7e5c85	-0.24839981
164	0xbe2c6592	-0.16835621
165	0xbc145feb	-0.009056072
166	0xbe083f0b	-0.13305299
167	0xbcfc096a	-0.030766208
168	0xbd9398f7	-0.0720691
169	0x3e3c4725	0.18386514
170	0xbe71ef39	-0.23626412
171	0xbd372601	-0.044713978
172	0xbe1054d2	-0.14094856
173	0xbe6f812d	-0.2338912
174	0xbe3c097b	-0.18362992
175	0xbd9e6896	-0.07734792
176	0xbe013b0a	-0.12620178
177	0x3d3c85fd	0.04602622
178	0xbdb09e54	-0.08623949
179	0x3c8c092e	0.017094221
180	0xbe18c1a8	-0.14917624
181	0x3dbbe37b	0.09174248
182	0xbdf1caf5	-0.11806289
183	0xbd810a39	-0.06300778
184	0xbd873c72	-0.06603326
185	0x3d095c5a	0.03353534
186	0xbcb62e0c	-0.022238754
187	0xbe1040e8	-0.1408726
188	0xbe51b787	-0.20480166
189	0xbe0aa34f	-0.1353886
190	0xbe2d669f	-0.16933678
191	0xbde9558b	-0.11393269
192	0x3dcdf237	0.100559644
193	0xbe4fbd00	-0.20286942
194	0xbd3258a9	-0.043541584
195	0x3d53be61	0.05169523
196	0xbcc732df	-0.02431625
197	0x3e2ab315	0.16669877
198	0xbd99948c	-0.07499036
199	0xbe075ff9	-0.13220204
200	0x3d061822	0.03273786
201	0xbe4414f3	-0.19148616
202	0x3d2ee752	0.042701073
203	0xbb0bf5fe	-0.002135634
204	0xbe5a447d	-0.21315189
205	0xbdf89941	-0.12138606
206	0xbe927353	-0.2860361
207	0xbe512e23	-0.20427756
208	0xbde60ed6	-0.112332985
209	0xbd4596b5	-0.04823943
210	0xbe1bd19d	-0.1521668
211	0x3d2f608a	0.042816676
212	0xbe85466a	-0.26030284
213	0x3e529fbe	0.2056875
214	0xbe115965	-0.14194258
215	0xbc8f9f84	-0.017532118
216	0xbe001c8a	-0.12510887
217	0x3d398ac0	0.045298338
218	0xbe8a6da2	-0.27036768
219	0xbd8dabc1	-0.06917525
220	0x3cd629a4	0.026142903
221	0x3e4e9752	0.20174912
222	0xbe2ba270	-0.16761184
223	0xbdc9f07f	-0.09860324
224	0xbe130b88	-0.14359868
225	0x3d3bae05	0.045820255
226	0xbe31b109	-0.1735269
227	0x3d8f8c73	0.070092104
228	0x3de25b81	0.11052609
229	0xbdb6382d	-0.088974334
230	0xbd885086	-0.066559836
231	0x3d12da7b	0.03585289
232	0xbc02cbc4	-0.007983152
233	0x3d24a07a	0.040192105
234	0x3d9696f4	0.07353011
235	0xbd2895fb	-0.041158658
236	0xbd6fa104	-0.058503166
237	0x3ce455f9	0.027873026
238	0xbe490210	-0.19629693
239	0x3c8a002b	0.016845783
240	0xbd49deea	-0.049284853
241	0xbe34bf04	-0.17650992
242	0x3d673246	0.05644443
243	0xbe1e2f2e	-0.15447685
244	0xbdccbc80	-0.09996891
245	0xbe0794bf	-0.13240336
246	0xbe052364	-0.13001782
247	0x3cea759e	0.028620537
248	0xbe17d285	-0.148264
249	0x3da10d94	0.07863918
250	0xbe628cd9	-0.22124042
251	0xbe397e7f	-0.1811466
252	0x3d36bfcc	0.044616506
253	0x3dc54d3e	0.096338734
254	0x3d3f9651	0.046774212
255	0x3da5464e	0.0807005

gnn.convs.0.nn.lins.1.bias f4 [32]
0	0xbdd844a4	-0.10559967
1	0x3ec4812b	0.38379797
2	0xbdc01946	-0.093798205
3	0xbed19bbf	-0.40939137
4	0x3ea22763	0.31670675
5	0xbd34f6c8	-0.04418066
6	0xbe2c3d22	-0.16820195
7	0xbdd34293	-0.103154324
8	0xbcf04eac	-0.029334389
9	0xbe18f2dd	-0.14936395
10	0x3c1665c0	0.0091795325
11	0xbefd0c6e	-0.49423546
12	0xbe4d0499	-0.20021285
13	0x3e77d815	0.24203523
14	0x3e9b6c3a	0.30356008
15	0x3ea399f0	0.31953382
16	0xbe658c41	-0.22416784
17	0xbe06878a	-0.13137642
18	0xbcc40b6e	-0.023931231
19	0xbe038d49	-0.12846865
20	0x3ebb506e	0.365848
21	0xbf3faddc	-0.74874663
22	0xbe24f733	-0.16109924
23	0xbda808bc	-0.08204791
24	0x3e404ef7	0.18780123
25	0xbdf06301	-0.117376335
26	0xbf00730c	-0.5017555
27	0xbcbc8539	-0.023012744
28	0xbe24f4aa	-0.16108957
29	0xbed26491	-0.4109235
30	0x3d68a765	0.056800265
31	0xbdbcfe3f	-0.09228181

gnn.convs.1.nn.lins.0.weight f4 [32, 32]
0	0x3e0440f6	0.12915406
1	0x3eb9044a	0.36136085
2	0x3ceea291	0.029130252
3	0xbc6dba8b	-0.014509807
4	0x3e042244	0.12903696
5	0x3d9b8635	0.07593957
6	0xbe45299e	-0.19254157
7	0xbe015aeb	-0.12632339
8	0x3d1c712f	0.038193878
9	0xbdc65d48	-0.09685761
10	0xbdc21b4c	-0.09477863
11	0x3e46a65f	0.19399403
12	0x3d009deb	0.031400602
13	0xbc42a925	-0.0118811475
14	0x3e77b8ee	0.24191639
15	0x3dd6f32e	0.104956016
16	0xbe13562f	-0.14388345
17	0xbda76af3	-0.08174696
18	0xbdd47914	-0.10374656
19	0x3d32f312	0.04368884
20	0x3eb5e4ee	0.35526222
21	0x3f09b47f	0.5379104
22	0x3df71d87	0.12066179
23	0x3e7c9965	0.2466789
24	0x3d9bd7fa	0.07609554
25	0xbe2badee	-0.16765568
26	0x3e8d11d0	0.27552652
27	0x3dc21892	0.09477343
28	0xbbbb0061	-0.0057068323
29	0x3f05b12f	0.52223486
30	0xbbc52012	-0.006015786
31	0x3d76b995	0.06023558
32	0x3d31d6c5	0.04341771
33	0xbdc52ee5	-0.09628085
34	0xbdbada84	-0.0912371
35	0x3c0ed687	0.0087181395
36	0xbdaa7cf7	-0.083246164
37	0x3d4a7364	0.04942645
38	0xbe86b588	-0.26310372
39	0x3e01ac5f	0.1266341
40	0xbca1fdd5	-0.019774357
41	0xbe2c44da	-0.1682314
42	0x3ec6c1fb	0.3881987
43	0xbe2eab57	-0.17057548
44	0x3e0cdf65	0.13757093
45	0x3db458b7	0.088059835
46	0x3d26b60d	0.04070096
47	0xbdd3bce3	-0.10338762
48	0xbce7243f	-0.028215526
49	0x3dabe2f9	0.08392901
50	0xbc6b9c4f	-0.014380529
51	0xbaca5fab	-0.0015439888
52	0xbdafd5e4	-0.08585718
53	0x3e43f658	0.19136941
54	0xbe31b76d	-0.17355128
55	0x3d80f681	0.06297017
56	0x3e05ea27	0.13077603
57	0x3d2e070e	0.042487197
58	0xbdcfa47c	-0.10138795
59	0x3d243471	0.040089075
60	0x3f1a6d76	0.60323274
61	0xbeb881ac	-0.36036432
62	0xbd21e3b6	-0.039523803
63	0x3c9efe3e	0.019408341
64	0x3caf611b	0.021408608
65	0x3d5c368d	0.05376296
66	0xbd86d272	-0.06583108
67	0xbca8c9c3	-0.02060402
68	0xbe23092c	-0.15921468
69	0x3c896fd1	0.016776951
70	0xbe671459	-0.22566356
71	0xbdb74cf9	-0.08950228
72	0xbd8047c6	-0.0626369
73	0x3a2de954	0.0006634195
74	0xbdf0af0c	-0.117521375
75	0xbdeaf02c	-0.114715904
76	0x3cdec09b	0.02719145
77	0xbda77eda	-0.08178492
78	0x3c820e6d	0.01587602
79	0xbe735d54	-0.2376607
80	0xbdf575ba	-0.11985345
81	0xbdd7e98e	-0.10542594
82	0xbd2c36f7	-0.042044606
83	0xbe211e84	-0.15734297
84	0xbe3ed861	-0.1863723
85	0xbc989b35	-0.018628696
86	0x3da50451	0.08057464
87	0xbd4b91fb	-0.049699765
88	0x3d7d2ebc	0.061812147
89	0xbdd42bb4	-0.10359898
90	0xbe472d8d	-0.1945097
91	0x3d5f35b0	0.05449456
92	0x3c98a9f7	0.018635733
93	0xbe7781d2	-0.24170616
94	0x3d3d6b9f	0.046245214
95	0xbde3808b	-0.11108502
96	0x3df03038	0.11727947
97	0xbdb75ede	-0.08953641
98	0xbda77427	-0.08176451
99	0xbc1647ac	-0.009172361
100	0x3def7fbc	0.11694285
101	0xbe07997c	-0.13242143
102	0x3deb1c60	0.114800215
103	0xbe107b46	-0.14109525
104	0xbe5ba22e	-0.21448585
105	0x3d0d8344	0.034549013
106	0x3e198b56	0.14994559
107	0xbd3834cd	-0.04497223
108	0x3e5ccc4f	0.21562313
109	0xbe0a108b	-0.13482873
110	0xbdefeae1	-0.117147215
111	0xbe2e41fe	-0.17017362
112	0x3dddb532	0.10825576
113	0xbdac50a4	-0.084138185
114	0x3e324b9d	0.17411657
115	0xbe30d6fb	-0.17269509
116	0xbe92219b	-0.28541264
117	0xbde3a111	-0.11114705
118	0x3db59ef4	0.088682085
119	0xbd985f63	-0.074400686
120	0xbe3db63a	-0.18526545
121	0xbe504100	-0.20337296
122	0xbdd77d05	-0.105218925
123	0xbcc89193	-0.024483478
124	0xbe162b5b	-0.14664976
125	0xbefe2f63	-0.49645528
126	0x3d8a6ba9	0.06758816
127	0xbdc86493	-0.09784808
128	0x3d385cc1	0.045010332
129	0x3e80c3de	0.25149435
130	0x3ec005da	0.37504464
131	0xbd4b39e1	-0.049615745
132	0xbd8e678d	-0.069533445
133	0x3db3d4a4	0.08780792
134	0x3c97aad9	0.018514084
135	0x3ddd8c15	0.10817734
136	0xbe39c21b	-0.18140452
137	0x3e3daf22	0.18523839
138	0x3e81ce63	0.25352773
139	0xbe448d14	-0.19194442
140	0x3e2dc490	0.16969514
141	0x3d944060	0.07238841
142	0x3d9382e7	0.07202702
143	0x3e9a94fc	0.3019179
144	0x3d348430	0.044071376
145	0x3e85826a	0.2607606
146	0x3de50774	0.11183062
147	0x3e455e38	0.19274223
148	0x3e33cd9f	0.17558907
149	0xbf185ee0	-0.5951977
150	0x3d9ead2c	0.07747874
151	0xbd1b005a	-0.037842132
152	0x3eed8872	0.46393162
153	0x3d74e911	0.059792582
154	0xbebdaf01	-0.3704758
155	0xbd2d9600	-0.04237938
156	0xbe49c3f0	-0.1970365
157	0xbda16000	-0.07879639
158	0x3e9a9869	0.30194405
159	0x3ee39722	0.44451243
160	0x3d1a539a	0.037677385
161	0x3e5d9a9c	0.2164101
162	0x3e86e3fc	0.26345813
163	0xbdfd3d5f	-0.12365221
164	0x3e9d2e05	0.30699173
165	0xbd132e6a	-0.035932936
166	0xbc3514de	-0.011052338
167	0x3d7b368b	0.061331313
168	0xbd1b9d16	-0.037991606
169	0x3e4cedda	0.20012608
170	0x3eb06e29	0.34459046
171	0xbf17b9b5	-0.5926774
172	0x3d02d1a4	0.03193821
173	0x3d32b78a	0.043632068
174	0x3e252395	0.16126855
175	0x3e438d26	0.19096813
176	0xbe2b6a8c	-0.16739863
177	0xbdbbf427	-0.09177428
178	0x3e09c7f1	0.13455178
179	0x3e3d665b	0.18496077
180	0x3e90a800	0.28253174
181	0xbf4d0345	-0.80083114
182	0x3d9e1a42	0.07719852
183	0x3dbd7ef1	0.09252728
184	0x3eb66e75	0.35631147
185	0xbccbeb76	-0.02489255
186	0xbf27ac3a	-0.6549717
187	0x3d7a2bd3	0.06107695
188	0xbf168f3d	-0.58812314
189	0xbf35d20c	-0.7102363
190	0x3eb5e567	0.35526583
191	0x3ed32c92	0.41244942
192	0x3dea61c2	0.11444427
193	0xbe6d73dd	-0.2318873
194	0x3c1d76b9	0.009610825
195	0xbe35987f	-0.17733954
196	0x3c66259c	0.014047053
197	0x3d5c4a5f	0.053781863
198	0xbda3a85b	-0.07991096
199	0x3daf6698	0.0856449
200	0xbd364f24	-0.044509068
201	0xbe140a5e	-0.1445708
202	0x3e92af04	0.2864915
203	0xbe15bb37	-0.14622198
204	0x3e0070a9	0.12542976
205	0xbe82aeb8	-0.25523925
206	0xbd7fc692	-0.06244523
207	0xbeb1c5ed	-0.34721318
208	0x3dc85c88	0.09783274
209	0x3e30fce8	0.17283976
210	0xbc2e861b	-0.01065209
211	0x3d79bd36	0.06097146
212	0x3e6c996b	0.231054
213	0xbdfc9e3b	-0.123348676
214	0xbdbb301e	-0.09140037
215	0x3d95d897	0.07316702
216	0x3f0e39b5	0.55556804
217	0xbd7a7dd4	-0.061155155
218	0xbe60373d	-0.21896072
219	0xbe6132bb	-0.21992008
220	0xbd6aedda	-0.05735574
221	0x3dc4fe1b	0.09618779
222	0xbe26aed6	-0.16277632
223	0xbd94c027	-0.07263213
224	0x3e022614	0.12709838
225	0xbe6a61e9	-0.22888912
226	0x3e37d79e	0.17953345
227	0x3e5fdb9d	0.2186112
228	0xbc2df1d0	-0.010616735
229	0x3d951268	0.07278901
230	0x3d34ab6c	0.044108793
231	0xbe15e62e	-0.14638588
232	0x3c9a8512	0.018862281
233	0xbde9a1b0	-0.114077926
234	0xbe459047	-0.19293319
235	0xbe64a698	-0.22329175
236	0x3d220c8b	0.039562743
237	0xbb0dcc07	-0.0021636502
238	0xbd5371e1	-0.051622275
239	0xbcb82140	-0.022476792
240	0x3cd0d52b	0.025492271
241	0xbd8dbfb8	-0.06921333
242	0x3dd4bc79	0.10387511
243	0x3e6f04ea	0.23341718
244	0x3cde2f70	0.02712223
245	0xbe54418a	-0.20728126
246	0x3c6c8b59	0.01443752
247	0x3c1f6d7b	0.009730692
248	0x3e313dcb	0.17308728
249	0x3dec3003	0.11532595
250	0xbe8fc7b2	-0.28082043
251	0x3d5779cd	0.052606393
252	0x3d79a9b0	0.060952842
253	0xbe800e9d	-0.2501115
254	0x3d19b34e	0.037524514
255	0x3d31dbdd	0.04342257

gnn.convs.1.nn.lins.0.bias f4 [32]
0	0xbf07415b	-0.528341
1	0x3cab2c75	0.020895222
2	0xbdb72025	-0.08941678
3	0xbe3284fb	-0.1743354
4	0x3edb7b6e	0.42867607
5	0x3ef89504	0.4855119
6	0xbb0133e1	-0.001971476
7	0xbea876e3	-0.32903203
8	0x3efe5396	0.49673146
9	0x3f4a4d07	0.79023784
10	0x3eeda30a	0.4641345
11	0xbe7fd039	-0.24981774
12	0x3c5da294	0.013527531
13	0xbd39bcb7	-0.045345988
14	0xbe2e33b3	-0.17011909
15	0x3ea94616	0.33061284
16	0xbe4aa1f1	-0.19788338
17	0xbebf87b4	-0.3740822
18	0x3ee02ece	0.4378571
19	0xbd548e21	-0.051893357
20	0xbddeea9d	-0.10884593
21	0xbe49522d	-0.19660254
22	0xbe86e8a4	-0.26349366
23	0xbe1d467b	-0.15358917
24	0xbe30ed35	-0.17277987
25	0x3e248e36	0.16069874
26	0xbddf0d64	-0.10891226
27	0x3dec2eec	0.11532387
28	0x3f257b1f	0.6464099
29	0xbefc49eb	-0.49275145
30	0x3ed2e671	0.41191438
31	0xbd8854bb	-0.06656786

gnn.convs.1.nn.lins.1.weight f4 [32, 32]
0	0xbe5227d0	-0.20523
1	0xbeaf2a09	-0.34211758
2	0xbdb9bbfb	-0.090690576
3	0x3e10c4ed	0.14137621
4	0x3e99f79c	0.30071723
5	0x3ed0c501	0.40775302
6	0x3d34aeae	0.0441119
7	0xbdbf58d3	-0.09343114
8	0x3e5586ad	0.20852156
9	0xbf8354a3	-1.0260204
10	0x3e9285d6	0.28617734
11	0xbd81ff51	-0.06347526
12	0xbde9fba0	-0.11424947
13	0xbd3caf44	-0.046065584
14	0xbdc8969c	-0.097943515
15	0x3ea86b54	0.32894385
16	0xbcd3cc37	-0.025854213
17	0xbe33b61b	-0.17549936
18	0x3e4e8909	0.20169462
19	0x3db8e586	0.09028153
20	0x3dde9659	0.1086852
21	0x3c313870	0.010816678
22	0x3dc28f94	0.095000416
23	0x3d8bed24	0.0683234
24	0x3da7c696	0.08192174
25	0x3ce513ab	0.02796348
26	0x3df217cf	0.118209474
27	0xbb1cee3d	-0.0023945712
28	0xbf56fdf4	-0.8398125
29	0xbb971d02	-0.0046116123
30	0x3ea5b9b2	0.32368237
31	0xbc8f5f7a	-0.017501581
32	0xbe1d6055	-0.15368779
33	0x3d8c4ba2	0.06850363
34	0xbc2b86fb	-0.010469194
35	0xbd3cb74b	-0.04607324
36	0xbdf3b92e	-0.119005546
37	0xbdca6a68	-0.09883577
38	0xbcf67d80	-0.03008914
39	0xbcdf31b8	-0.027245387
40	0x3ca71933	0.020397758
41	0xbe25b1ef	-0.16181158
42	0x3d1fdb57	0.03902754
43	0xbdf06096	-0.11737172
44	0x3ddd3574	0.10801211
45	0xbd8e323e	-0.06943177
46	0x3dd91a0d	0.10600672
47	0x3e1f23a2	0.15540937
48	0x3de06109	0.10956008
49	0xbd48eb25	-0.049052376
50	0xbd8d5bcd	-0.06902275
51	0x3d36b2fb	0.044604283
52	0x3e321c52	0.17393616
53	0xbdbbf82a	-0.09178193
54	0xbdfc054b	-0.12305697
55	0xbdf75e4b	-0.12078532
56	0xbe1535be	-0.14571282
57	0xbdcc0d96	-0.09963529
58	0xbe327c15	-0.17430146
59	0xbd36dc0f	-0.044643458
60	0x3cd9ec85	0.02660204
61	0x394292fa	0.00018556035
62	0xbdba019f	-0.090823404
63	0xbdfaef9f	-0.12252735
64	0xbdc72706	-0.0972424
65	0xbe42fd15	-0.19041856
66	0x3e24dd73	0.16100101
67	0xbe1078e5	-0.14108618
68	0x3dec9b4c	0.11553058
69	0x3ec9ecdc	0.39438522
70	0xbde8a00e	-0.11358653
71	0x3d1c4fa3	0.038161885
72	0x3e8b0bad	0.27157345
73	0xbf82a7ff	-1.0207518
74	0x3ec0fd9d	0.37693492
75	0x3e643397	0.22285305
76	0x3da2cd4e	0.07949315
77	0x3d7a2ab0	0.061075866
78	0xbc9f0e6b	-0.019416055
79	0x3e468bc8	0.1938926
80	0x3e6433bb	0.22285359
81	0x3d91de14	0.07122436
82	0x3e9a9deb	0.30198607
83	0xbe89ee28	-0.2693951
84	0x3caee843	0.021350985
85	0x3da9493b	0.08265921
86	0xbdaa058b	-0.083018385
87	0x3e244f47	0.16045867
88	0x3d8db2df	0.069188826
89	0xbd20efd0	-0.039291203
90	0x3e0e6edc	0.13909477
91	0xbe3dff8a	-0.18554512
92	0xbf4cabfd	-0.79949933
93	0xbe2bb047	-0.16766463
94	0x3e2ccf3d	0.1687593
95	0xbca86813	-0.020557439
96	0xbe2daf6a	-0.16961446
97	0xbe8b5bbe	-0.2721843
98	0xbd8f9e74	-0.070126444
99	0xbcd1486f	-0.025547234
100	0xbc987a51	-0.018613013
101	0x3d99b0ff	0.075044625
102	0x3e3ea500	0.1861763
103	0x3d85a446	0.06525473
104	0x3da6145b	0.08109351
105	0xbf3b3708	-0.73130846
106	0xbde4c1f6	-0.111698076
107	0x3d254110	0.04034525
108	0x3d95f762	0.07322575
109	0x3cab5f56	0.020919483
110	0xbe07f378	-0.1327647
111	0x3ce81ea6	0.028334927
112	0x3dbcb174	0.09213534
113	0x3d959aa5	0.07304887
114	0xbba7bf09	-0.0051192087
115	0xbf2a7160	-0.66579247
116	0x3e1c6e89	0.15276541
117	0x3d82a5bd	0.06379268
118	0xbd59bd4e	-0.05315905
119	0xbdf74568	-0.12073785
120	0x3e9d89f0	0.307693
121	0xbb46d2ed	-0.0030338124
122	0xbdb81f04	-0.08990291
123	0xbe58f1e8	-0.2118603
124	0xbe92ca33	-0.2866989
125	0xbeb16b3f	-0.34652135
126	0x3d8f6b2d	0.07002864
127	0xbe1786f4	-0.14797574
128	0xbda31092	-0.07962145
129	0xbdf808f4	-0.12111083
130	0x3de523fa	0.111885026
131	0xbdaa4544	-0.083139926
132	0x3e8024c5	0.25028053
133	0x3e9b8906	0.30377978
134	0xbda67685	-0.081280746
135	0xbe1c2abf	-0.15250681
136	0xbbd8fecb	-0.0066221706
137	0xbf5af6ed	-0.8553303
138	0x3eb42310	0.35183
139	0xbdaebafc	-0.08531758
140	0x3e994a88	0.29939675
141	0xbe08f8a0	-0.13376093
142	0x3dbd4e8b	0.092434965
143	0x3d35451e	0.04425537
144	0x3d3ba3cc	0.045810506
145	0xbe05b7bd	-0.13058372
146	0x3e17cf8a	0.14825264
147	0xbf113659	-0.5672355
148	0xbbee850d	-0.0072790445
149	0xbdcdc9a0	-0.100482225
150	0x3d2f9be8	0.042873293
151	0xbd2c35d7	-0.042043533
152	0xbdb3c770	-0.08778274
153	0xbdefea63	-0.117146276
154	0x3e94a0a0	0.29028797
155	0xbea55216	-0.3228919
156	0xbee9b117	-0.4564292
157	0x3e060321	0.13087131
158	0x3e8728cb	0.2639831
159	0x3e2dcb89	0.16972174
160	0xbdbb4412	-0.09143843
161	0x3db04e92	0.08608736
162	0x3ccef0a0	0.025261223
163	0x3cb38c1e	0.021917399
164	0x3e95955a	0.2921551
165	0x3ee3fd64	0.4452926
166	0x3d0c19d2	0.03420431
167	0x3dc5d3be	0.09659527
168	0x3e73f84e	0.2382519
169	0xbf5c7654	-0.86118054
170	0x3ec629be	0.38703722
171	0xbeb7fef7	-0.3593671
172	0x3cea9645	0.028636107
173	0xbd47749c	-0.04869519
174	0x3e330f0a	0.17486206
175	0x3e5e0c61	0.2168441
176	0xbe435dbc	-0.19078726
177	0xbd2dd4e8	-0.04243937
178	0x3ea3ff48	0.32030702
179	0xbe00d0a6	-0.12579593
180	0xbe5ee7f1	-0.21768166
181	0xbe43a732	-0.19106749
182	0x3d347f19	0.044066522
183	0xbccf490c	-0.025303386
184	0xbdf6439d	-0.12024615
185	0xbe8a6569	-0.27030495
186	0x3dba7160	0.09103656
187	0x3eb2d43c	0.34927547
188	0xbf147ae3	-0.5800001
189	0x3df16f85	0.11788849
190	0x3ef0196a	0.4689439
191	0xbc926e0d	-0.017874742
192	0x3e648d1d	0.22319455
193	0xbe75a9a2	-0.23990491
194	0xbe1c33f3	-0.15254192
195	0xbed0e6a0	-0.40800953
196	0xbe8e0125	-0.27735248
197	0x3bda1bff	0.0066561694
198	0xbe0994c4	-0.13435656
199	0xbe66d0c8	-0.22540581
200	0xbee5bf4b	-0.44872507
201	0x3e9679a5	0.29389682
202	0xbd8c1a6c	-0.06840977
203	0xbdf1132a	-0.117712334
204	0xbe4c0b6b	-0.1992623
205	0xbe09cb2d	-0.13456412
206	0xbe19eefa	-0.15032569
207	0xbe9e9fe1	-0.30981353
208	0xbd13e7f6	-0.036109887
209	0xbd8d64b2	-0.06903972
210	0xbe4b9d43	-0.1988421
211	0x3e252fff	0.1613159
212	0x3c6b292a	0.014353076
213	0xbd3b20bd	-0.04568552
214	0xbe313519	-0.17305411
215	0xbd104b45	-0.035228033
216	0x3d8a4ccb	0.06752928
217	0xbf2a2da0	-0.6647587
218	0x3e6e9d77	0.23302256
219	0x3ded1096	0.11575429
220	0x3bcfa587	0.006336871
221	0x3ea0bb71	0.31393006
222	0xbec50309	-0.38478878
223	0xbcdf4e9d	-0.027259165
224	0x3ca47450	0.020074993
225	0xbcb72ebc	-0.022361152
226	0x3e6af579	0.22945203
227	0x3dbefb08	0.09325224
228	0xbe4242ac	-0.18970746
229	0x3d9076e2	0.07053925
230	0xbd1dacf2	-0.03849501
231	0xbd886751	-0.06660331
232	0xbe7360b9	-0.23767366
233	0x3d9d5551	0.076822884
234	0xbe2dea0e	-0.16983816
235	0xbe48e1f8	-0.1961745
236	0xbdd20ef7	-0.102567606
237	0x3e4c35b4	0.19942361
238	0x3d9a5137	0.07535022
239	0x3d882695	0.06647984
240	0xbe17d6dc	-0.14828056
241	0xbdcabcf1	-0.09899319
242	0x3d998c12	0.074974194
243	0x3ac1e20a	0.0014792096
244	0xbdb8aedc	-0.09017727
245	0x3e332ad6	0.1749681
246	0x3d9ae97d	0.075640656
247	0xbe35da0e	-0.17758963
248	0xbd378ef5	-0.04481407
249	0x3daafdb5	0.08349172
250	0xbe133ca0	-0.14378595
251	0xbe1e2df7	-0.15447222
252	0xbd1e8c2d	-0.0387079
253	0xbe85cdd8	-0.2613361
254	0x3ca89da3	0.02058298
255	0x3dc401af	0.095706336

gnn.convs.1.nn.lins.1.bias f4 [32]
0	0x3eb61a76	0.35567063
1	0xbe718fc3	-0.23589997
2	0x3e7ed174	0.24884588
3	0x3eabe0b6	0.33569878
4	0x3e74cdc6	0.23906621
5	0x3eb3bbb1	0.35104135
6	0xbe1be7bb	-0.15225117
7	0xbe6e50a8	-0.23272955
8	0x3d7a1a8c	0.061060473
9	0x3eae6720	0.34063053
10	0xbe051d2c	-0.1299941
11	0xbe961dfc	-0.2931975
12	0x3e838835	0.25689855
13	0x3dd5d147	0.10440307
14	0xbdc2abbe	-0.095054135
15	0x3cc0cc69	0.02353497
16	0xbe4ef11f	-0.20209168
17	0xbe3db518	-0.18526113
18	0x3ebfbf6c	0.3745073
19	0xbe547a64	-0.20749813
20	0x3e8df291	0.27724126
21	0x3bd6c99a	0.0065547945
22	0xbd17318e	-0.036912493
23	0x3e88a192	0.26685768
24	0xbe815845	-0.25262657
25	0xbdb767bd	-0.089553334
26	0xbdf38036	-0.11889689
27	0xbe270fc7	-0.16314612
28	0xbe3a7db8	-0.1821202
29	0xbe0dc81d	-0.13845868
30	0xbe613f07	-0.219967
31	0x3e6ae8da	0.22940388

gnn.convs.2.nn.lins.0.weight f4 [32, 32]
0	0xbe3220ef	-0.17395376
1	0xbe071f42	-0.13195518
2	0x3e298feb	0.16558807
3	0xbd854d10	-0.06508839
4	0x3e47e61b	0.19521372
5	0x3d338454	0.04382737
6	0xbf1852f6	-0.5950159
7	0xbe305591	-0.17220141
8	0xbb85a9b1	-0.0040790667
9	0xbdc95b62	-0.09831883
10	0xbe84767e	-0.25871652
11	0x3dfba1b5	0.122867025
12	0xbdcab7b3	-0.09898319
13	0xbdbc9973	-0.092089556
14	0xbd919f94	-0.07110515
15	0x3d678d4f	0.056531247
16	0x3e0b773a	0.136197
17	0xbd3c0ff0	-0.045913637
18	0x3eaf0579	0.34183863
19	0x3b98819f	0.004654124
20	0x3dd5d102	0.10440256
21	0x3e12febd	0.14354987
22	0x3e830653	0.25590762
23	0x398aad78	0.00026450655
24	0xbe64cb1b	-0.22343104
25	0x3d9e890c	0.07740983
26	0xbd7ea7d7	-0.062171783
27	0x39bc9aaf	0.00035973403
28	0xbdf7d18d	-0.121005155
29	0x3defa4d6	0.11701362
30	0xbf1ee394	-0.62066007
31	0xbba42724	-0.0050095487
32	0xbdabb730	-0.083845496
33	0x3db87ce4	0.09008196
34	0xbca09396	-0.019601624
35	0xbd65552d	-0.055989433
36	0xbd1a12cc	-0.037615582
37	0x3d3ff6ac	0.046866104
38	0xbe9abb30	-0.30220938
39	0xbe04aef5	-0.12957366
40	0xbe68c1ee	-0.22730228
41	0xbd7a5f4e	-0.061126046
42	0x3e0ee68c	0.13955134
43	0x3d6a053f	0.05713391
44	0x3d16621b	0.036714654
45	0xbdcbd8cf	-0.09953462
46	0x3e2f1e71	0.17101456
47	0x3da8bab2	0.08238734
48	0x3b90bc71	0.004416995
49	0xbd00264a	-0.031286515
50	0xbe017067	-0.12640534
51	0x3e183ebf	0.14867686
52	0xbe8378ac	-0.25678003
53	0xbad938f8	-0.0016572764
54	0xbe446960	-0.19180822
55	0xbd852630	-0.06501424
56	0xbe921b2f	-0.28536364
57	0xbe54c97d	-0.20779987
58	0xbe24c985	-0.16092499
59	0x3d6840db	0.056702476
60	0xbd1df721	-0.03856576
61	0x3e3f37a1	0.18673564
62	0xbd81b1e9	-0.06332762
63	0xbe2143c8	-0.15748513
64	0xbe9a2472	-0.3010593
65	0x3cbc2a0d	0.02296927
66	0xbe31470c	-0.17312258
67	0xbb48739b	-0.0030586484
68	0x3c115db6	0.00887244
69	0xbc2252e7	-0.009907461
70	0xbe9a9e89	-0.30199078
71	0x3dd0f8e4	0.10203722
72	0x3daea27b	0.085270844
73	0x3ce2a931	0.027668567
74	0xbda2ecc3	-0.07955315
75	0xbd7d93cc	-0.06190853
76	0x3d295376	0.04133936
77	0x3dc2e123	0.09515598
78	0xbe20fdd8	-0.15721834
79	0xbd89d06f	-0.06729209
80	0x3dca5473	0.09879389
81	0x3bef6d01	0.0073066955
82	0x3bf4281f	0.007451072
83	0x3d9ddede	0.07708524
84	0xbd588715	-0.0528632
85	0x3e16516d	0.14679499
86	0xbcf6f811	-0.030147584
87	0x3ce1ed71	0.027579041
88	0xbe4d4d6a	-0.20049062
89	0x3e001f90	0.1251204
90	0x3d0b0128	0.03393665
91	0xbc0c10bd	-0.008548913
92	0xbe4afc10	-0.19822717
93	0x3e0bb2cc	0.13642424
94	0xbc18e8c5	-0.00933284
95	0xbe05aa64	-0.1305328
96	0xbddfd912	-0.10930075
97	0xbe5b3816	-0.21408114
98	0xbd9f269e	-0.077710375
99	0xbefa966c	-0.48942888
100	0xbe0caff9	-0.13739003
101	0xbe257a5b	-0.16159956
102	0xbeb13e32	-0.34617764
103	0x3c9982ae	0.01873907
104	0xbe051fdc	-0.13000435
105	0xbd01f655	-0.03172906
106	0xbdb651f9	-0.08902354
107	0xbd8212a0	-0.06351209
108	0xbe350788	-0.17678654
109	0xbe2c889c	-0.16848987
110	0x3dbe7270	0.09299171
111	0xbd36d1e7	-0.044633772
112	0x3da30c8c	0.079613775
113	0xbce11329	-0.027474957
114	0x3e0af21f	0.13568924
115	0x3db28dea	0.08718474
116	0xbe5ffdf9	-0.21874227
117	0xbea5993c	-0.3234347
118	0x3d023dd5	0.03179725
119	0x3cfb224e	0.030656006
120	0xbde985ab	-0.11402448
121	0x3e38e17c	0.18054765
122	0x3ddd557b	0.1080732
123	0x3cfe529e	0.031045254
124	0x3d72ed4a	0.059308328
125	0xbdc03f75	-0.093871035
126	0xbe0a3988	-0.13498509
127	0xbd5e7bbd	-0.054317225
128	0x3d63d09d	0.05561887
129	0xbe199686	-0.14998826
130	0xbe400d06	-0.18754968
131	0xbe2deb25	-0.16984232
132	0x3d9d3fc1	0.07678176
133	0xbdac102f	-0.08401524
134	0xbe86db88	-0.26339364
135	0xbc76bc8f	-0.015059604
136	0xbe2826a9	-0.16420998
137	0x3d4e4448	0.050358087
138	0x3cd138b4	0.025539733
139	0xbd868a22	-0.065693155
140	0xbd976121	-0.07391573
141	0xbdfc2284	-0.12311271
142	0xbe176c88	-0.14787495
143	0xbdda9f92	-0.10674967
144	0x3e224bfd	0.158493
145	0xbdaef6ff	-0.085432045
146	0xbe82ff86	-0.25585574
147	0xbe3150cf	-0.17315982
148	0xbe2d7762	-0.16940072
149	0x3c7e1c29	0.015509644
150	0xbdd4e546	-0.10395293
151	0xbdcc36c6	-0.09971385
152	0xbe384565	-0.17995222
153	0x3d8dbbb7	0.069205694
154	0xbd31e935	-0.043435294
155	0x3ba11c6b	0.0049167178
156	0xbe8495d9	-0.25895575
157	0x3c87a071	0.016555997
158	0xbeafafaa	-0.3431371
159	0xbc910124	-0.01770074
160	0xbe846a3f	-0.2586231
161	0x3e2f7b0e	0.17136785
162	0xbe80af83	-0.25133905
163	0xbe985f8c	-0.29760396
164	0x3dbccce1	0.09218765
165	0xbdd44411	-0.10364545
166	0xbeb15186	-0.3463251
167	0xbd5c688b	-0.053810637
168	0xbba45053	-0.005014458
169	0xbe7f8fa7	-0.24957143
170	0x3d92a904	0.071611434
171	0xbdcc0125	-0.09961156
172	0xbe9a06d2	-0.30083328
173	0xbccf80ce	-0.025329974
174	0xbdb4fc52	-0.08837189
175	0x3e2c5e09	0.16832747
176	0x3e385ac9	0.18003382
177	0x3d55f33d	0.052233923
178	0xbe3f56b3	-0.18685417
179	0x3e1dd2b0	0.15412402
180	0xbe35b050	-0.17743039
181	0x3c1fb9bf	0.009748875
182	0x3d871d93	0.06597438
183	0x3d08d5da	0.03340707
184	0xbf0b0af1	-0.5431357
185	0x3dc44f3c	0.09585425
186	0xbc59409e	-0.013260035
187	0xbd3fc35c	-0.04681717
188	0x3e191789	0.14950384
189	0x3dc8f433	0.09812202
190	0xbcbc5544	-0.022989877
191	0xbe3fe2f3	-0.18738918
192	0x3cd5ba94	0.026089944
193	0x3e8eed7b	0.27915558
194	0xbf183d64	-0.59468675
195	0x3e8537d4	0.26019156
196	0xbe468697	-0.1938728
197	0xbefd5658	-0.49479938
198	0x3d4769fd	0.048685063
199	0xbe0e0c3b	-0.13871853
200	0x3d286d2f	0.04111975
201	0xbe146ae0	-0.14493895
202	0xbe57ddf7	-0.21080767
203	0x3d62bfb0	0.05535859
204	0x3e662de6	0.22478446
205	0xbd50b686	-0.050955318
206	0xbbab5bd8	-0.0052294545
207	0x3c2a32a5	0.010388051
208	0xbe3e19e6	-0.18564567
209	0xbdabea6f	-0.08394324
210	0xbe40edab	-0.18840663
211	0xbd7c35db	-0.061574798
212	0xbebcb490	-0.36856508
213	0xbe0a9b54	-0.13535815
214	0x3deab6b6	0.114606306
215	0x3d65c4f0	0.056096017
216	0xbe80c005	-0.251465
217	0xbd7d7dc6	-0.061887525
218	0x3e738d8b	0.23784463
219	0x3e8b044f	0.27151725
220	0x3d244572	0.04010529
221	0xbdec9864	-0.11552504
222	0x3e27a76e	0.16372463
223	0xbd390f33	-0.04518051
224	0x3e72280c	0.23648089
225	0x3e763589	0.2404386
226	0x3d85073d	0.06495521
227	0x3ddf9a6f	0.10918128
228	0x3e371299	0.17878188
229	0x3d8f3313	0.069921635
230	0xbe3744c1	-0.17897321
231	0xbde1f0dc	-0.110322684
232	0xbe838efc	-0.25695026
233	0x3d7351a3	0.059404027
234	0xbe3b2327	-0.18275128
235	0xbdb7f190	-0.08981621
236	0xbe0d7334	-0.13813478
237	0x3d3f91c5	0.046769876
238	0x3df04217	0.11731356
239	0xbe26fc57	-0.16307198
240	0xbc2ad34a	-0.010426352
241	0x3dd76e8e	0.105191335
242	0x3dcd2445	0.100166835
243	0xbce55c3f	-0.027998088
244	0x3e34efbb	0.17669575
245	0xbda9a48f	-0.0828334
246	0x3cc99e68	0.024611667
247	0x3e1b86a7	0.15188085
248	0xbcaf5126	-0.021401
249	0x3cbbc0c2	0.022919063
250	0xbc5c968b	-0.013463627
251	0xbe3bd779	-0.18343915
252	0xbebf6e85	-0.37389007
253	0x3df99fc5	0.12188677
254	0xbf135312	-0.5754863
255	0x3d6260fe	0.05526828

gnn.convs.2.nn.lins.0.bias f4 [32]
0	0xbe195302	-0.14973071
1	0xbd726e9b	-0.059187513
2	0x3d61938b	0.05507235
3	0xbeb1dd00	-0.34738922
4	0xbd992078	-0.07476896
5	0xbe824542	-0.25443465
6	0xbe1f4b18	-0.1555599
7	0x3e834915	0.25641695
8	0x3ebbfc36	0.3671586
9	0x3e1d0f94	0.15337974
10	0x3d582d65	0.052777667
11	0x3e5bde9c	0.21471637
12	0xbd188ffb	-0.037246685
13	0xbdc6e294	-0.09711185
14	0xbe4ef4cd	-0.20210572
15	0x3e863815	0.26214662
16	0x3dda6035	0.10662881
17	0x3ea43cfa	0.3207777
18	0xbdfebcb9	-0.1243834
19	0x3cb976ab	0.022639593
20	0xbd236c79	-0.03989837
21	0x3cdd4c9c	0.02701407
22	0xbd47804f	-0.04870635
23	0x3e38730a	0.18012634
24	0xbe275da5	-0.16344316
25	0x3ed1679b	0.40899357
26	0x3bcd8ff0	0.006273262
27	0x3e5cc329	0.21558823
28	0x3df131eb	0.11777099
29	0xbe7784ec	-0.241718
30	0xbebc20aa	-0.3674367
31	0xbe1ed37c	-0.15510362

gnn.convs.2.nn.lins.1.weight f4 [32, 32]
0	0x3cd9dfea	0.026596028
1	0x3d94d588	0.0726729
2	0x3dbc5bad	0.09197173
3	0xbdddba89	-0.108265944
4	0x3b8b84ea	0.004257788
5	0xbea1367b	-0.31486878
6	0x3db651b8	0.08902305
7	0x3e0733a1	0.13203289
8	0x3e77fcd3	0.24217539
9	0x3dec1795	0.115279354
10	0x3d15bf73	0.036559533
11	0x3e6e0524	0.23244148
12	0x3ce924f5	0.028460005
13	0xbd5072a4	-0.05089058
14	0xbe8df57d	-0.27726355
15	0x3ed2d9ff	0.41181943
16	0x3df54806	0.11976628
17	0x3ec130f9	0.37732676
18	0x3e4bdf3c	0.19909376
19	0x3d987893	0.07444873
20	0xbe0c7088	-0.13714802
21	0xbcf0cf82	-0.029395822
22	0xbde6f576	-0.11277287
23	0x3e95d95f	0.29267403
24	0xbc97c29b	-0.018525412
25	0x3e27fce6	0.16405067
26	0xbbde84dd	-0.006790741
27	0x3ea46a91	0.32112554
28	0xbab38c1a	-0.001369837
29	0xbc160abd	-0.009157834
30	0xbd8b0f5b	-0.06790038
31	0x3df60225	0.12012128
32	0xbdfa34d1	-0.12217105
33	0xbda4ea5e	-0.080525145
34	0xbe397aa4	-0.1811319
35	0xbddab2a0	-0.10678601
36	0xbd9a97fd	-0.07548521
37	0xbc114554	-0.008866627
38	0xbd336c43	-0.04380442
39	0x3dd20337	0.102545194
40	0x3c0ca0a1	0.008583219
41	0xbe240a63	-0.16019587
42	0xbe6768e1	-0.22598602
43	0xbdde1592	-0.10843958
44	0xbda5292d	-0.08064494
45	0x3d59f5f2	0.053213067
46	0xbe191de3	-0.14952807
47	0xbe37a250	-0.17933011
48	0xbb530c18	-0.0032203253
49	0xbdd6702f	-0.10470616
50	0x3d2f4537	0.042790618
51	0x3d55a55f	0.052159663
52	0x3e2b3b8c	0.16721934
53	0xbd1a8e80	-0.037733555
54	0xbdf13609	-0.117778845
55	0x3c1ddc42	0.009635033
56	0xbd6e8127	-0.058228638
57	0x3d9e6aa4	0.07735184
58	0xbd9ab30b	-0.07553681
59	0xbc99b7c7	-0.01876439
60	0xbe80a54d	-0.25126114
61	0xbe10352b	-0.14082782
62	0xbc8c29b1	-0.017109724
63	0xbdcd0d14	-0.1001226
64	0xbc629e84	-0.013831738
65	0x3d1e94a3	0.03871597
66	0x3e153dff	0.14574431
67	0xbe9a4bb0	-0.3013587
68	0xbd466fa2	-0.048446305
69	0x3c812edd	0.015769416
70	0xbe8e3396	-0.27773732
71	0x3e095998	0.13413084
72	0x3dcb2c19	0.0992052
73	0x3d6ad167	0.057328608
74	0xbd35fb88	-0.044429332
75	0x3db8361c	0.089946955
76	0xbda45776	-0.08024494
77	0xbce43294	-0.027856149
78	0x3c002ca8	0.007823147
79	0x3e60694e	0.2191517
80	0xbd947ca9	-0.072503395
81	0x3db7f3c1	0.08982039
82	0x3d19e7d5	0.037574608
83	0x3cf9282f	0.030414669
84	0x3e2597ca	0.16171184
85	0xbe142abc	-0.14469427
86	0x3c25ed2d	0.010127348
87	0x3e0bbc1f	0.13645981
88	0x3e409580	0.1880703
89	0xbcf5fe10	-0.030028373
90	0x3a2a63fe	0.00064998853
91	0x3e0d8c8e	0.13823149
92	0x3cc600ce	0.024170306
93	0xbe683baa	-0.2267901
94	0xbe0f0e9d	-0.13970418
95	0x3d0f1093	0.034927916
96	0x3e4d9af0	0.20078635
97	0x3dbd12fe	0.09232138
98	0x3d17b11c	0.03703414
99	0xbde5c45e	-0.11219095
100	0x3d1047b8	0.035224646
101	0xbddec481	-0.10877324
102	0xbbf6da37	-0.0075333375
103	0x3e781803	0.2422791
104	0x3ebb968b	0.36638293
105	0xbdc0fb3c	-0.09422919
106	0x3e0172c5	0.12641437
107	0x3e9f5dd0	0.3112626
108	0xbe484001	-0.19555666
109	0x3e77d5f8	0.24202716
110	0x3dee5b58	0.11638516
111	0x3eec1d63	0.4611617
112	0xbd475cd9	-0.04867253
113	0x3e95663f	0.2917957
114	0xbd86deed	-0.065854885
115	0x3d7f351d	0.062306512
116	0xbd79dd51	-0.06100208
117	0xbe334d46	-0.17509946
118	0x3e0585ce	0.13039324
119	0x3e7cb5de	0.24678752
120	0xbd9a2e59	-0.07528371
121	0x3eafc9f4	0.34333766
122	0x3cd5f604	0.026118286
123	0x3eb8c808	0.36090112
124	0x3da37545	0.07981352
125	0x3dafd82b	0.08586153
126	0xbe4e94e8	-0.2017399
127	0x3d549e10	0.051908553
128	0xbe56c2c3	-0.20972733
129	0xbcc39b98	-0.023877904
130	0xbd9148d4	-0.07093969
131	0xbe311e45	-0.17296703
132	0x3d83e317	0.06439798
133	0xbd94afd0	-0.07260096
134	0xbe1f7296	-0.15571055
135	0x3d598b67	0.05311146
136	0xbd628ceb	-0.05531017
137	0x3db3f181	0.087862976
138	0x3c864677	0.016391022
139	0xbdba43c2	-0.09094955
140	0xbdb75cb3	-0.08953228
141	0xbd43e6b6	-0.047827445
142	0xbdd3eb05	-0.10347561
143	0xbe5203f6	-0.20509323
144	0xbdff2724	-0.12458637
145	0xbd987419	-0.07444019
146	0x3e1071e6	0.14105949
147	0xbdb7a1c7	-0.089664035
148	0x3c2f58f1	0.010702358
149	0x3ca88e87	0.020575775
150	0x3d4e259b	0.050328832
151	0xbe2b7eb8	-0.16747558
152	0xbe194b29	-0.14970078
153	0xbddfa0a5	-0.109193124
154	0xbdd1bb7d	-0.10240839
155	0xbd7336f7	-0.05937859
156	0xbe21a729	-0.15786423
157	0x3ccfa82a	0.025348742
158	0xbde220e9	-0.11041433
159	0x3cf241ba	0.029572356
160	0xbe7bc4d2	-0.245868
161	0x3d434407	0.047672298
162	0xbbb1bc36	-0.005424048
163	0x3db18da6	0.086695954
164	0xbcfb1772	-0.030650828
165	0x3ee44222	0.44581705
166	0x3ea7d8a6	0.32782477
167	0xbd7ea4a8	-0.062168747
168	0xbd358896	-0.04431971
169	0xbdfab972	-0.12242402
170	0xbe53d45d	-0.20686479
171	0xbe3d5b11	-0.1849177
172	0x3ed78259	0.42091635
173	0x3e0a87cb	0.13528363
174	0xbd4ee71b	-0.050513368
175	0x3c05f224	0.008175407
176	0x3d43643a	0.047703005
177	0xbbc4de98	-0.0060079806
178	0xbe22f924	-0.15915352
179	0xbcc4ec14	-0.024038352
180	0xbda56104	-0.08075145
181	0x3eb7bb03	0.35884866
182	0xbcaefd9e	-0.021361168
183	0x3b0c5eab	0.0021418731
184	0x3df10a8a	0.11769588
185	0xbd9c4b6b	-0.07631572
186	0xbeaf0dbc	-0.34190166
187	0xbe548d2c	-0.20756978
188	0x3b421138	0.0029612314
189	0x3d417873	0.04723401
190	0x3eec9a47	0.46211454
191	0xbe16947c	-0.1470508
192	0xbd2689dc	-0.040658817
193	0xbde7e3c9	-0.113227434
194	0xbe2bc453	-0.1677411
195	0xbe46e5a0	-0.19423532
196	0xbe00c9ce	-0.12576982
197	0xbea61994	-0.3244139
198	0x3e8e0ca0	0.27744007
199	0xbe427357	-0.18989311
200	0xbe43f0a3	-0.19134764
201	0xbdaa5c69	-0.08318407
202	0xbe6784f0	-0.22609305
203	0xbe8fa578	-0.2805593
204	0x3d8864d0	0.066598535
205	0xbd48e8fb	-0.049050312
206	0x3e1c51af	0.15265535
207	0xbea4f7c1	-0.3222027
208	0xba84674d	-0.0010101587
209	0xb7faf217	-2.9915054e-05
210	0xbdc471d6	-0.09592025
211	0x3cbc498f	0.022984294
212	0x3dd2cb38	0.10292667
213	0xbcbd3542	-0.023096684
214	0x3dc171b9	0.09445519
215	0xbce97f5f	-0.028503118
216	0x3d82c8df	0.06385969
217	0xbdc9b900	-0.09849739
218	0xbdd98dd1	-0.106227525
219	0xbda4c5f1	-0.08045567
220	0x3dcbc468	0.09949571
221	0xbaa91014	-0.0012898468
222	0xbeb3ee0c	-0.35142553
223	0xba82c670	-0.0009977352
224	0x3e03236e	0.12806484
225	0xbd9d028e	-0.07666503
226	0xbd94c1b5	-0.07263509
227	0x3c9607ee	0.018314328
228	0x3e6a5e4c	0.22887534
229	0xbe0e0dea	-0.13872495
230	0xbe9a2359	-0.30105093
231	0xbe090ede	-0.13384578
232	0xbe2e7e38	-0.17040336
233	0xbd878b42	-0.06618358
234	0x3cdeeb96	0.027211946
235	0xbde05eb7	-0.109555654
236	0xbe1c8912	-0.15286663
237	0xbc11954c	-0.008885693
238	0x3c831056	0.015999
239	0x3dde99b6	0.10869162
240	0x3dece41f	0.11566948
241	0xbe008d73	-0.12553959
242	0xbcf5bb8f	-0.029996661
243	0xbe5b1a7c	-0.21396822
244	0xbd8790da	-0.06619425
245	0x3dd679b4	0.10472432
246	0x3e23d82f	0.16000436
247	0x3b3223a2	0.0027181883
248	0x3d21c872	0.0394978
249	0xbe0cc193	-0.13745718
250	0xbe6579db	-0.22409765
251	0xbdcb276d	-0.09919629
252	0xbe52f793	-0.20602255
253	0xbe0de8f6	-0.13858399
254	0xbed6b879	-0.41937616
255	0xbd5373b9	-0.051624034

gnn.convs.2.nn.lins.1.bias f4 [32]
0	0x3e3c857e	0.18410298
1	0x39e624aa	0.00043896335
2	0x3e4e3f36	0.201413
3	0x3e94f78e	0.2909512
4	0xbc99d508	-0.018778339
5	0xbe68b864	-0.2272659
6	0xbe3be095	-0.1834739
7	0xbd522299	-0.051302526
8	0xbe6b5fd3	-0.22985773
9	0xbe4b2e27	-0.19841824
10	0x3d8e0521	0.06934572
11	0x3d73a02f	0.059478935
12	0xbcef7878	-0.029232249
13	0x3da71a3c	0.08159301
14	0x3d7f29d1	0.06229574
15	0x3de82eb9	0.11337037
16	0xbec552bd	-0.38539687
17	0xbe469e2d	-0.19396277
18	0x3e80c04a	0.25146705
19	0x3e932082	0.2873574
20	0x3b6ea0a3	0.0036411665
21	0x3e4684c8	0.1938659
22	0xbdaa13bb	-0.083045445
23	0x3d33b166	0.043870352
24	0x3dac2fb3	0.084075354
25	0xbe6426a3	-0.22280364
26	0x3d084912	0.03327281
27	0x3dec9027	0.115509324
28	0x3e0bd520	0.1365552
29	0x3db38788	0.08766085
30	0xbd305d4b	-0.04305772
31	0xbde6a8a7	-0.11262637
