Run_GIN_ModelCheckpoint_EvFr_2/NCI1_reps_2_folds_5_epochs_20_2023-04-26_11-05/rep_1_fold_4/checkpoints/model_trial_0.ckpt (torch, 245261 bytes, 86 tensors)

gnn.convs.0.nn.lins.0.weight f4 [32, 37]
-1.0988797 -0.39850944 0.40463057 -0.5671049 -0.52948725 -0.4791888 -0.15466149 0.13985233
0.03926219 -0.02488959 0.015758725 -0.08477269 -0.04902074 0.029114118 -0.08682224 -0.022112804
0.16330938 0.012369363 -0.3763821 -0.32736534 0.40132937 -0.41146076 -0.03407073 0.020574631
-0.15416817 -0.56884444 0.10859465 0.14453433 0.042616483 0.9065839 0.49218383 0.11880542
0.27747148 -0.08448059 0.015602854 0.14423579 -0.09681438 -0.0477459 -0.15010852 -0.17144568
-0.0329195 -0.4743557 -0.14534615 -0.12292952 0.029541517 0.3461517 0.7459353 4.1636815
-0.1117655 2.7858837 -0.2276244 0.026336532 -0.060837757 0.078298174 1.8881315 0.027811363
0.6515997 -0.023087624 -0.14625709 0.13557921 2.3949242 1.2225714 -0.20976661 -0.06878341
-0.14571583 -0.05759031 -0.03314067 -0.12523785 0.056058794 -0.023583272 -0.024057541 -0.11552313
0.15656745 -0.13347757 0.026081774 0.056331657 -0.098387815 -0.07922245 -0.085414946 -0.0034775496
0.0553596 -0.14069162 0.7460648 0.051681604 0.020813528 -0.018600272 0.022317512 0.07445296
0.0803684 -0.08144808 -0.12129264 -0.11698532 0.18467481 0.04382643 -0.038540464 -0.4287968
-0.1592107 -0.0026350594 0.07075997 -0.12098786 0.24952766 0.08410795 -0.2178255 -0.084688514
-0.104088314 0.13984622 0.0474965 -0.027836418 -0.08281841 -0.027266696 0.06548514 0.25487688
0.06436487 -0.22340603 -0.19257794 -0.07759923 0.29541874 -0.21403523 -0.2787677 1.132061
0.43148467 2.5882459 0.36660975 2.724778 -0.02188948 0.17839259 1.513122 -0.24417928
1.9667536 0.2693794 0.7218644 -0.24967305 -0.2668243 0.084165454 1.9867495 1.0813954
-0.4028123 0.6025322 0.6726961 -0.19195487 -0.22767046 -0.074003845 0.0401155 -0.113895126
-0.123023145 -0.15334475 0.15426731 0.06345541 0.43074125 0.3133164 -0.15000455 0.3385084
-0.13262346 0.65725595 -0.25074995 0.08973941 1.6668396 0.6911172 3.4693673 1.1977308
2.4383483 -0.21810533 0.5202289 1.736226 -0.9061074 2.1377733 1.1414392 1.0578812
-0.58127946 0.34592858 0.15178764 1.9853985 1.2804612 0.69291025 0.5308147 0.63098365
-0.4268769 -0.33498642 -0.4170717 -0.059382223 -0.3423607 -0.28736055 -0.35734844 0.060798347
-0.40581283 -1.0648736 -0.42797706 0.36801174 -0.49481744 -0.10502533 -0.51611525 0.25981492
0.117149904 -0.10092339 0.24059264 0.017540127 0.040010456 0.05326441 -0.06651892 -0.077262156
0.09109272 -0.066523336 0.058768257 -0.69853765 -0.39908642 0.2970949 -0.7372716 -0.05331879
-0.0067059067 -0.54795897 -0.09483624 0.22507687 -0.35527447 -0.515897 0.8125995 -0.0050218017
-0.15862519 -0.0014406189 -0.09067834 -0.01108086 0.040236715 -0.13854937 0.1678723 0.05483301
-0.35551217 -0.82333905 0.28084984 0.019339165 0.012575704 0.1083073 -0.070332475 0.27721405
-0.10940565 -0.11275454 2.3987849 -0.006631102 0.03169378 -0.143732 -0.21117203 -0.16388403
0.3494031 0.027174449 0.04247348 -0.3244406 -0.021020046 -0.07111446 -0.03719375 -0.36722782
-0.544467 0.9219688 -0.04271943 0.07007307 -0.018234402 0.12988867 -0.07206115 -0.098486766
00000000: 17a8 8cbf 6e09 ccbe bd2b cf3e c92d 11bf
00000010: 7a8c 07bf 3c58 f5be 955f 1ebe 7335 0f3e
00000020: 64d1 203d 41e5 cbbc 7118 813c 4e9d adbd
00000030: f9c9 48bd bb80 ee3c dccf b1bd e925 b5bc
00000040: 933a 273e dea8 4a3c 28b5 c0be 6e9c a7be
00000050: 0b7b cd3e fcaa d2be c08d 0bbd 218c a83c
00000060: 43de 1dbe ca9f 11bf df66 de3d cf00 143e
00000070: 9f8e 2e3d e215 683f 85ff fb3e 4250 f33d
00000080: be10 8e3e 2904 adbd 1da3 7f3c 8cb2 133e
00000090: 9e46 c6bd 3491 43bd 0cb6 19be 758f 2fbe
000000a0: 99d6 06bd c0de f2be 9fd5 14be 79c2 fbbd
000000b0: 0d01 f23c cc3a b13e 9ef5 3e3f e13c 8540
000000c0: 4fe5 e4bd eb4b 3240 5f16 69be b6bf d73c
000000d0: 0331 79bd cb5a a03d 4bae f13f a8d4 e33c
000000e0: 3dcf 263f 4222 bdbc 6bc4 15be 47d5 0a3e
000000f0: 7046 1940 387d 9c3f 0fcd 56be 51de 8cbd
00000100: 8836 15be d1e3 6bbd 83be 07bd 5a3e 00be
00000110: e89d 653d b531 c1bc 5214 c5bc 6497 ecbd
00000120: 3853 203e 58ae 08be 72a9 d53c 06bc 663d
00000130: 8d7f c9bd 613f a2bd 08ee aebd 9ae7 63bb
00000140: bfc0 623d 7711 10be 1afe 3e3f 17b0 533d
00000150: 2281 aa3c 995f 98bc 37d3 b63c cb7a 983d
00000160: 3098 a43d 40ce a6bd 4768 f8bd 0096 efbd
00000170: 651b 3d3e 5883 333d 9bdc 1dbd 418b dbbe
00000180: 2108 23be f6b0 2cbb 9aea 903d 7cc8 f7bd
00000190: 2e84 7f3e ca40 ac3d a60d 5fbe 2c71 adbd
000001a0: 412c d5bd d933 0f3e b18b 423d 3309 e4bc
000001b0: b39c a9bd 685e dfbc 131d 863d 397f 823e
000001c0: bbd1 833d 8dc4 64be 2733 45be 58ec 9ebd
000001d0: 2041 973e 0d2c 5bbe a4ba 8ebe 60e7 903f
000001e0: 8feb dc3e d2a5 2540 46b4 bb3e c362 2e40
000001f0: 9151 b3bc 8cac 363e fbad c13f 220a 7abe
00000200: 95be fb3f 19ec 893e 1bcc 383f 4baa 7fbe
00000210: 329d 88be f05e ac3d cf4d fe3f 2a6b 8a3f
00000220: 6a3d cebe 8d3f 1a3f d035 2c3f d18f 44be
00000230: 7222 69be 548f 97bd 2750 243d d941 e9bd
00000240: 8ff3 fbbd 6806 1dbe 40f8 1d3e e9f4 813d
00000250: 1e8a dc3e 026b a03e cb9a 19be f950 ad3e
00000260: 72ce 07be ed41 283f 4c62 80be 4cc9 b73d
00000270: 005b d53f 0fed 303f 1d0a 5e40 3e4f 993f
00000280: e60d 1c40 0157 5fbe b92d 053f a73c de3f
00000290: a8f6 67bf 47d1 0840 ae1a 923f a768 873f
000002a0: bbce 14bf 8d1d b13e 386e 1b3e 8a21 fe3f
000002b0: 27e6 a33f 9162 313f 79e3 073f 2588 213f
000002c0: 9c8f dabe 5783 abbe 6c8a d5be c63a 73bd
000002d0: e749 afbe ec20 93be 60f6 b6be b007 793d
000002e0: b3c6 cfbe c74d 88bf cf1f dbbe 096c bc3e
000002f0: b658 fdbe 8517 d7bd 2120 04bf 7606 853e
00000300: 4aec ef3d ecb0 cebd eb5d 763e 50b0 8f3c
00000310: 01e2 233d c82b 5a3d 123b 88bd 9f3b 9ebd
00000320: d28e ba3d 633d 88bd fcb6 703d 5dd3 32bf
00000330: 0e55 ccbe d31c 983e d5bd 3cbf ce64 5abd
00000340: 39bd dbbb 0a47 0cbf 8139 c2bd 8d7a 663e
00000350: 89e6 b5be d311 04bf 8506 503f ed8d a4bb
00000360: a46e 22be 26d3 bcba 91b5 b9bd 7f8c 35bc
00000370: 41cf 243d e3df 0dbe b7e6 2b3e 9498 603d
00000380: b105 b6be 59c6 52bf 8dcb 8f3e 2b6d 9e3c
00000390: 530a 4e3c 38d0 dd3d 790a 90bd 00ef 8d3e
000003a0: 1210 e0bd daeb e6bd b185 1940 b749 d9bb
000003b0: 56d1 013d 7b2e 13be 7b3d 58be 37d1 27be
000003c0: f7e4 b23e f39c de3c acf8 2d3d 141d a6be
000003d0: 3b32 acbc 75a4 91bd 7958 18bd 4905 bcbe
000003e0: 3062 0bbf 2606 6c3f 92fa 2ebd 7882 8f3d
000003f0: 5060 95bc 8901 053e cc94 93bd 6eb3 c9bd

gnn.convs.0.nn.lins.0.bias f4 [32]
-0.8466971 -0.10167119 -0.21886632 0.14911452 0.23681441 -0.6805873 -0.3426757 -0.32607865
0.06631999 -0.23193455 0.14952208 0.42513412 -0.28135636 -0.57463104 -0.1573036 -0.15845026
-0.4489497 0.17637594 -0.09921153 0.56106174 -0.092575096 0.001487702 -0.35485396 -0.5556723
-0.27831933 0.49022338 -0.14942005 0.08335186 0.27193922 -0.06569717 -0.11042808 -0.1761781
00000000: 24c1 58bf fc38 d0bd 7e1e 60be 7ab1 183e
00000010: 7a7f 723e f83a 2ebf 3073 afbe c8f3 a6be
00000020: c6d2 873d 4080 6dbe 511c 193e 2eab d93e
00000030: f10d 90be 051b 13bf 3214 21be c940 22be
00000040: bcdc e5be e59b 343e 6a2f cbbd bea1 0f3f
00000050: 0398 bdbd fffe c23a 6baf b5be 8a40 0ebf
00000060: df7f 8ebe 8ffe fa3e 9201 19be 61b4 aa3d
00000070: 9e3b 8b3e 3d8c 86bd 1e28 e2bd 0868 34be

gnn.convs.0.nn.lins.1.weight f4 [32, 32]
-0.22137724 0.07927325 0.08393891 0.0713247 -0.035305277 -0.038289644 -0.042154886 -0.36826098
-0.19391128 0.19659247 -0.06457339 -0.27687973 -0.376701 -0.10902426 0.03513692 -0.031848058
-0.38563144 -0.08559524 0.011562817 -0.05951966 -0.24076575 -0.06268828 0.091976866 -0.1872694
-0.20238687 -0.27678725 -0.048751526 -0.14811888 -0.12187181 0.08119961 -0.03627106 -0.028770851
-0.45100924 0.061545994 -0.106596954 -0.15773 0.58554614 -0.50058794 -0.30882564 0.5762419
-0.44276175 0.12293913 0.5224702 -0.4746957 1.4176946 1.1681687 -0.15897457 0.30808342
0.27278486 0.27951303 -0.06940853 -0.41536084 -0.3275073 -0.3286951 -0.07169182 0.22926958
-0.6450522 0.556717 0.093217626 -0.78419375 -0.6722886 0.018837214 -0.6035867 0.506736
-0.1989261 -0.323223 0.1698818 -0.4252259 0.11991925 -0.41206914 -0.22603616 -0.19400023
0.0723623 -0.102351785 0.18444352 -0.95922077 -0.0051372773 -0.7969928 0.0010150857 -0.07644327
-0.70968217 -0.1932275 0.07156721 -0.11903965 0.095913865 -0.09691581 -0.16125137 0.057839796
-0.46867806 -0.4010422 0.011063968 -1.140773 -0.48240688 -0.1462942 0.31696996 -0.0020538904
-0.22499053 0.021278251 0.10234946 -0.18055935 -0.0897072 0.048046585 0.06254137 0.013260514
-0.1728379 -0.14303733 -0.11049347 -0.019105673 0.0870932 -0.058494136 0.028549137 0.1107071
-0.05397464 -0.18174621 -0.04841803 -0.12176439 -0.15664965 -0.06894857 0.011068087 -0.17124122
-0.22684962 -0.019350037 -0.21261951 -0.05817542 0.0376815 0.008246201 -0.15389022 0.115495116
-0.617423 0.08224273 0.13794105 0.18355101 0.1522939 -0.5083901 -0.56681716 0.09446403
0.056339774 -0.086770676 0.25782707 1.0322094 -0.36210227 -1.6741751 0.06384052 0.22982308
-0.7867433 -0.1500799 0.1958963 0.7934074 0.06264762 -0.15890685 0.1732662 -0.007241652
-0.3989291 0.8427802 0.05635139 0.49850532 -0.18440567 -0.091447555 0.44710508 0.092882454
-0.7435567 0.04697726 0.05264191 0.31181824 0.17425583 -0.40096426 -0.013801894 0.40795627
0.07902892 0.087832615 0.008109182 1.2226985 -0.5971182 -1.9291662 0.1473592 0.2406813
-0.85967433 0.14996678 0.23279387 0.64360607 0.15851584 -0.025167678 -0.052927725 0.3193108
-0.59705657 1.12714 0.3975746 1.0808365 0.044418085 -0.20040008 0.4743107 0.37175244
0.22413903 -0.5882423 0.21979037 -0.3141634 0.40265077 0.3697138 -0.44743142 0.06954818
0.069790296 -0.10572545 0.17338076 -0.26160827 0.9491369 0.14045389 -0.095324494 -0.049644906
0.23414764 -0.046218973 0.11428364 -0.376123 0.3308783 -0.18714902 -0.26731536 0.1869409
0.05644632 0.06881719 0.17911135 -0.6594465 -0.617275 0.2922952 -0.11071632 0.09009396
-0.15597175 0.22174403 -0.07714381 -0.17126016 -0.089343525 -0.17525211 0.09210677 -0.14772257
0.06523371 0.17081146 -0.09143177 -0.38749108 -0.11159019 0.066127 -0.011861134 0.09744
-0.06465171 -0.29366294 0.087364934 -0.021088976 0.12629205 0.06984485 0.21088663 0.015679674
0.08961446 -0.21477002 -0.085562855 -0.21158522 0.16780041 -0.11508911 -0.19195962 -0.10212826
00000000: b7b0 62be 045a a23d 2ae8 ab3d af12 923d
00000010: 449c 10bd 9ad5 1cbd 9aaa 2cbd b48c bcbe
00000020: ae90 46be 894f 493e 0e3f 84bd 2ec3 8dbe
00000030: f4de c0be 1c48 dfbd bbeb 0f3d 1c73 02bd
00000040: 7c71 c5be 8f4c afbd f871 3d3c e3ca 73bd
00000050: 4c8b 76be b762 80bd 5e5e bc3d 8dc3 3fbe
00000060: 813e 4fbe 0fb7 8dbe aeaf 47bd 7aac 17be
00000070: ed97 f9bd fb4b a63d f790 14bd d9b0 ebbc
00000080: afea e6be a717 7c3d 814f dabd f983 21be
00000090: 5ae6 153f 8826 00bf 651e 9ebe 9784 133f
000000a0: abb1 e2be 83c7 fb3d 9bc0 053f 510b f3be
000000b0: 0477 b53f 8d86 953f 3bca 22be 1cbd 9d3e
000000c0: 75aa 8b3e 551c 8f3e 0f26 8ebd 2daa d4be
000000d0: 09af a7be b94a a8be 29d3 92bd a5c5 6a3e
000000e0: 2422 25bf 0185 0e3f e2e8 be3d ecc0 48bf
000000f0: 1b1b 2cbf 8050 9a3c a884 1abf 73b9 013f
00000100: 49b3 4bbe 7c7d a5be 7ff5 2d3e 36b7 d9be
00000110: 3998 f53d bafa d2be 0676 67be ffa7 46be
00000120: af32 943d d09d d1bd c3de 3c3e 7e8f 75bf
00000130: 9b56 a8bb b807 4cbf a00c 853a 4a8e 9cbd
00000140: bbad 35bf 6edd 45be d491 923d 0fcb f3bd
00000150: 7d6e c43d cc7b c6bd 141f 25be 6ce9 6c3d
00000160: 92f6 efbe 6755 cdbe a545 353c da04 92bf
00000170: 09fe f6be 26ce 15be e349 a23e 909a 06bb
00000180: eb63 66be ba4f ae3c 989c d13d 8de4 38be
00000190: 69b8 b7bd 7fcc 443d b115 803d a042 593c
000001a0: 6bfc 30be 6178 12be 674a e2bd 8083 9cbc
000001b0: eb5d b23d 8c97 6fbd e1df e93c 67ba e23d
000001c0: 8314 5dbd ae1b 3abe fc51 46bd 9c5f f9bd
000001d0: c468 20be e834 8dbd ec56 353c dc59 2fbe
000001e0: 444b 68be f883 9ebc eeb8 59be 5949 6ebd
000001f0: eb57 1a3d 131b 073c 6695 1dbe b488 ec3d
00000200: 6f0f 1ebf e06e a83d 6b40 0d3e ccf4 3b3e
00000210: eff2 1b3e db25 02bf ee1a 11bf 5b76 c13d
00000220: 89c4 663d d3b4 b1bd e901 843e 701f 843f
00000230: 7865 b9be 5f4b d6bf d2be 823d be56 6b3e
00000240: 0268 49bf 8cae 19be 0a99 483e bf1c 4b3f
00000250: 654d 803d 7ab8 22be b26c 313e 614b edbb
00000260: 6f40 ccbe 71c0 573f b7d0 663d 173c ff3e
00000270: d7d4 3cbe db48 bbbd f5ea e43e 2839 be3d
00000280: bb59 3ebf 3a6b 403d 0b9f 573d a4a6 9f3e
00000290: 1f70 323e 304b cdbe 5721 62bc a5df d03e
000002a0: ead9 a13d 96e1 b33d 60dc 043c 6281 9c3f
000002b0: bddc 18bf ebee f6bf 55e5 163e 2975 763e
000002c0: 9e13 5cbf e490 193e 8461 6e3e 5ec3 243f
000002d0: fa51 223e 722c cebc beca 58bd b57c a33e
000002e0: b3d8 18bf 2046 903f e68e cb3e da58 8a3f
000002f0: bdef 353d ae35 4dbe dad8 f23e 5656 be3e
00000300: b484 653e 0c97 16bf ba10 613e 06da a0be
00000310: 3e28 ce3e 214b bd3e bb15 e5be 476f 8e3d
00000320: 37ee 8e3d 9686 d8bd ba8a 313e 85f1 85be
00000330: a3fa 723f 25d3 0f3e 7d39 c3bd 7558 4bbd
00000340: 66c4 6f3e 1b50 3dbd 8b0d ea3d 3293 c0be
00000350: e168 a93e fea3 3fbe 8fdd 88be 6f6d 3f3e
00000360: 4234 673d 07f0 8c3d f768 373e 7cd1 28bf
00000370: bc05 1ebf b7a7 953e 3dbf e2bd 2f83 b83d
00000380: 0fb7 1fbe de10 633e 93fd 9dbd d35e 2fbe
00000390: bdf9 b6bd 4a75 33be 79a2 bc3d 9644 17be
000003a0: 4099 853d 33e9 2e3e 9440 bbbd 3b65 c6be
000003b0: 6689 e4bd 986d 873d 3455 42bc 9f8e c73d
000003c0: 1e68 84bd fd5a 96be 63ec b23d cac2 acbc
000003d0: b452 013e d10a 8f3d aaf2 573e a972 803c
000003e0: c987 b73d acec 5bbe 943b afbd cca9 58be
000003f0: dfd3 2b3e d7b3 ebbd 1091 44be 9f28 d1bd

gnn.convs.0.nn.lins.1.bias f4 [32]
0.012753274 -0.35813397 0.42318586 -0.14073077 0.4926053 0.3651614 0.43859538 -0.18214361
-0.0550058 -0.096181005 0.5186009 -0.04262234 0.048302066 0.41416007 -0.37082866 -0.07777633
-0.074928015 0.21359144 -0.3779148 -0.41333294 0.5306111 -0.41442755 -0.14684437 0.29568353
-0.017053286 -0.2999253 -0.10616166 0.21159141 -0.18534297 -0.62776357 -0.02466209 -0.05983222
00000000: 1cf3 503c 565d b7be d1ab d83e ba1b 10be
00000010: c336 fc3e 6ff6 ba3e 938f e03e db83 3abe
00000020: c34d 61bd 8cfa c4bd 07c3 043f c394 2ebd
00000030: 63d8 453d ca0c d43e 41dd bdbe 3249 9fbd
00000040: dc73 99bd b7b7 5a3e 0c7e c1be 60a0 d3be
00000050: 21d6 073f d92f d4be 5f5e 16be d563 973e
00000060: 55b3 8bbc cf8f 99be 496b d9bd 6bab 583e
00000070: 8cca 3dbe 1db5 20bf 2708 cabc a112 75bd

gnn.convs.1.nn.lins.0.weight f4 [32, 32]
-0.10256975 -0.4001455 0.21456681 -0.15657318 0.2123639 0.43571633 0.054888662 -0.2896383
-0.190649 0.0320938 0.40145397 0.28553578 0.23606801 0.22275546 0.47130403 -0.08420903
0.070952274 0.27793705 -0.08006614 -0.42454818 0.056277983 -0.11094042 -0.010463403 0.14937921
-0.20031391 0.02307545 0.09791271 0.6145546 0.05836654 -0.811608 -0.19024956 0.1530141
0.18254083 -0.63824195 -0.24964857 -0.11382424 -0.28851238 -0.1821858 -0.42010167 -0.19224246
0.09227201 0.02287423 0.12626156 -0.089054 -0.182 -0.042034034 -0.19060218 -0.12883307
-0.14214633 -0.16465172 -0.021829054 -0.04493302 0.026565982 0.06772585 -0.0685554 0.11448864
0.069291495 -0.0145750195 0.18137784 -0.08009567 0.21076211 -0.12045111 -0.04767156 0.08976487
0.09179757 -0.16407414 -0.096111156 0.10738871 -0.16775234 -0.06479056 0.13272764 0.087518856
-0.13514964 -0.105883054 -0.30877763 -0.4483514 -0.042548336 -0.15423818 -0.0939441 0.07038461
0.03813139 -0.027933517 -0.08138631 0.5546736 -0.3718283 0.260955 -0.05615594 -0.28280857
-0.047022365 -0.2244025 -0.4969161 -0.18872808 0.109696865 -0.20898995 -0.45039767 -0.060067397
-0.077658355 0.094672054 -0.15011121 0.15399168 -0.046357106 0.02955554 -0.09841407 0.029468844
0.185909 -0.15139987 -0.25447014 -0.21106602 -0.08635409 0.027709767 -0.15704393 -0.10007918
0.16757174 -0.10308743 0.09213008 -0.16891089 -0.108925544 -0.119960085 -0.10813496 -0.1703665
0.11066896 -0.01149172 0.03232112 -0.075565554 -0.051331427 -0.14248691 -0.042113975 -0.18455085
0.31658697 -0.8666067 0.16704535 0.101129785 0.50801384 0.6376438 0.20826733 -0.0133118825
0.12248522 -0.29286796 0.7976206 0.24603331 0.14797977 0.39762706 0.84016025 0.1538961
-0.101384126 0.048705187 -0.06665026 0.11868248 0.42960072 0.37274995 0.054793168 0.22718756
0.19589637 0.708307 -0.11075251 0.62972534 0.054579176 -1.1812837 0.44420612 -0.09183705
-0.1071173 -0.12079158 -0.4692414 -0.18653953 -0.085338034 0.09392968 -0.31523016 -0.18979101
-0.21534564 -0.034216724 0.03647984 -0.12752001 -0.16456807 0.11376411 0.054674055 0.10894624
-0.08913245 -0.23911618 -0.106580906 -0.20439664 -0.15201949 -0.2223531 0.07945962 -0.099023394
0.063620016 0.14634086 -0.03040919 -0.056818087 0.027026104 -0.37280852 -0.109560564 0.066407956
-0.0992121 0.59941274 0.06430661 -0.035888724 -0.2904113 -0.27088505 0.3306528 0.09606242
-0.05191034 0.028918086 -0.612466 -0.0021918425 0.32079977 -0.3968203 -0.030277302 -0.101247706
0.1896574 -0.10762754 0.37991396 0.5789907 -0.56193095 -0.22913346 0.2276054 -0.5894584
0.21379226 -0.025065238 -0.1361863 -0.49153322 -0.13221367 0.51833624 0.10729589 0.0013527354
-0.032610744 0.023903497 -0.20893893 -0.15641311 0.03800683 -0.113279276 -0.099818155 -0.004969282
0.027057707 -0.12108408 -0.21205612 -0.3278224 -0.11608109 -0.0011911119 -0.17994274 0.16905063
0.0049361545 -0.22041172 0.03817276 -0.27933204 -0.10449886 -0.10010669 0.11273616 0.037789818
-0.18982074 -0.16230565 -0.32446548 -0.15035279 -0.05321461 -0.16974801 -0.30496907 0.0144961765
00000000: 1710 d2bd dfdf ccbe 67b7 5b3e b854 20be
00000010: ec75 593e 3616 df3e efd2 603d 794b 94be
00000020: 7e39 43be ca74 033d 608b cd3e bf31 923e
00000030: d0bb 713e 021a 643e c34e f13e c975 acbd
00000040: 6d4f 913d c44d 8e3e b7f9 a3bd 615e d9be
00000050: be83 663d bb34 e3bd b16e 2bbc ddf6 183e
00000060: 171f 4dbe ba08 bd3c 7586 c83d 7353 1d3f
00000070: c111 6f3d 8bc5 4fbf c8d0 42be baaf 1c3e
00000080: fceb 3a3e d363 23bf e0a3 7fbe af1c e9bd
00000090: e5b7 93be ea8e 3abe 9117 d7be 35db 44be
000000a0: 1cf9 bc3d bd62 bb3c b64a 013e f261 b6bd
000000b0: 355e 3abe e12b 2cbd 382d 43be d1ec 03be
000000c0: cf8e 11be 769a 28be d8d2 b2bc b00b 38bd
000000d0: e7a0 d93c dab3 8a3d c666 8cbd 0579 ea3d
000000e0: b3e8 8d3d 10cc 6ebc 1dbb 393e 3309 a4bd
000000f0: 06d2 573e 12af f6bd 4143 43bd a5d6 b73d
00000100: 5d00 bc3d 0d03 28be edd5 c4bd 9dee db3d
00000110: 45c7 2bbe eab0 84bd c1e9 073e 163d b33d
00000120: ab64 0abe 37d9 d8bd 1a18 9ebe 518e e5be
00000130: 2a47 2ebd 9df0 1dbe c465 c0bd ce25 903d
00000140: a92f 1c3d d5d4 e4bc dead a6bd 17ff 0d3f
00000150: 4760 bebe e59b 853e c503 66bd 49cc 90be
00000160: 869a 40bd c5c9 65be c96b febe ef41 41be
00000170: c0a8 e03d 7601 56be 869a e6be 3b09 76bd
00000180: 580b 9fbd 6ce3 c13d c1b6 19be ffaf 1d3e
00000190: f3e0 3dbd 761e f23c 518d c9bd a568 f13c
000001a0: ee5e 3e3e 9108 1bbe e949 82be b121 58be
000001b0: 6ada b0bd 98ff e23c 20d0 20be 50f6 ccbd
000001c0: ed97 2b3e 811f d3bd b2ae bc3d faf6 2cbe
000001d0: 5b14 dfbd a2ad f5bd dd75 ddbd 8e74 2ebe
000001e0: 68a6 e23d c447 3cbc 2763 043d 1dc2 9abd
000001f0: e740 52bd 17e8 11be b47f 2cbd e6fa 3cbe
00000200: b017 a23e f0d9 5dbf f00d 2b3e 221d cf3d
00000210: 320d 023f a03c 233f 0844 553e 151a 5abc
00000220: 88d9 fa3d caf2 95be dd30 4c3f 28f0 7b3e
00000230: 0288 173e c695 cb3e be14 573f f096 1d3e
00000240: 7ba2 cfbd 177f 473d ee7f 88bd cd0f f33d
00000250: a0f4 db3e 15d9 be3e cd6e 603d dba3 683e
00000260: 0f99 483e 9c53 353f 36d2 e2bd ae35 213f
00000270: 6a8e 5f3d 4e34 97bf fc6e e33e 1015 bcbd
00000280: 5160 dbbd 9361 f7bd 6940 f0be 3804 3fbe
00000290: b5c5 aebd 345e c03d d965 a1be 9358 42be
000002a0: 9183 5cbe d626 0cbd e26b 153d 9b94 02be
000002b0: 8884 28be 28fd e83d e7f1 5f3d 351f df3d
000002c0: 138b b6bd dfda 74be 1747 dabd 5a4d 51be
000002d0: ffaa 1bbe 88b0 63be babb a23d c7cc cabd
000002e0: 364b 823d 61da 153e b21c f9bc 15ba 68bd
000002f0: d965 dd3c c2e0 bebe 4a61 e0bd e500 883d
00000300: b72f cbbd 1d73 193f 2fb3 833d 0e00 13bd
00000310: cab0 94be 72b1 8abe 534b a93e 60bc c43d
00000320: f09f 54bd 9fe5 ec3c 92ca 1cbf 04a5 0fbb
00000330: de3f a43e 082c cbbe 1b08 f8bc f55a cfbd
00000340: 8d35 423e d46b dcbd 1584 c23e bc38 143f
00000350: b5da 0fbf f6a1 6abe 6411 693e bfe6 16bf
00000360: 5cec 5a3e 9d55 cdbc 6c74 0bbe 3eaa fbbe
00000370: 0563 07be afb1 043f f3bd db3d 454e b13a
00000380: d892 05bd 44d1 c33c 16f4 55be c22a 20be
00000390: 0dad 1b3d f7fe e7bd 766d ccbd 5cd5 a2bb
000003a0: 20a8 dd3c eefa f7bd 3d25 59be 56d8 a7be
000003b0: ecbb edbd 151f 9cba e942 38be 9c1b 2d3e
000003c0: 77bf a13b 9cb3 61be 0a5b 1c3d 9c04 8fbe
000003d0: 8003 d6bd bc04 cdbd 37e2 e63d 7fc9 1a3d
000003e0: 5e60 42be 7433 26be 5720 a6be 15f6 19be
000003f0: 90f7 59bd 6cd2 2dbe e824 9cbe 5f81 6d3c

gnn.convs.1.nn.lins.0.bias f4 [32]
-0.5565108 -0.054935873 -0.19039764 0.03938138 -0.34665293 0.108997054 0.3892997 -0.34179077
-0.24518645 -0.017601106 -0.09481881 0.088348486 0.04349865 -0.1874836 -0.1437423 -0.46080545
-0.36619496 -0.26888347 -0.049180288 -0.5387314 -0.023669409 -0.18081973 0.013611513 0.00016094153
-0.5359613 0.009049021 -0.34228948 0.049445078 -0.30492282 -0.4301016 -0.16175367 -0.2795877
00000000: 7e77 0ebf 7004 61bd 99f7 42be 5f4e 213d
00000010: 7e7c b1be d939 df3d 4a52 c73e 33ff aebe
00000020: 2812 7bbe 3230 90bc 5d30 c2bd 0df0 b43d
00000030: a42b 323d b3fb 3fbe 2e31 13be b1ee ebbe
00000040: e87d bbbe 18ab 89be 4571 49bd 4dea 09bf
00000050: 59e6 c1bc cf28 39be d302 5f3c 6ac2 2839
00000060: c234 09bf 5842 143c 9140 afbe ec86 4a3d
00000070: d81e 9cbe 4736 dcbe c1a2 25be 1e26 8fbe

gnn.convs.1.nn.lins.1.weight f4 [32, 32]
-0.372458 0.01678298 -0.16985638 -0.18574883 -0.13334048 -0.07781588 0.015403055 -0.053405304
-0.101948865 -0.07499117 -0.16878462 0.13477722 -0.2445661 -0.59017414 -0.43486688 -0.11352157
0.052681852 -0.1300662 -0.22609985 -0.03587179 0.15975562 -0.09985943 -0.0261074 -0.08325583
-0.21598303 -0.5037775 -0.07355455 0.02401776 0.14348158 -0.14573571 0.02294525 -0.1056053
0.041497957 0.043134462 -0.03694428 -0.085580625 -0.18538438 0.12511136 -0.23169513 -0.052652776
0.030768694 0.076316305 0.09575098 -0.04643564 -0.1141682 -0.03734484 -0.17424856 -0.07972892
0.018708626 0.081985734 0.11617514 -0.27048746 0.04962998 -0.0054050107 0.05516074 0.10350666
0.17183535 0.049874097 -0.032647453 0.189404 -0.0071719773 0.022268953 0.08435919 -0.14033365
0.093244284 0.013864907 0.032981236 -0.015659506 -0.11315684 -0.088141836 -0.45902035 -0.17661485
-0.13934563 -0.05694213 0.03217469 -0.07052947 -0.015462994 -0.13556424 0.06858788 -0.18517719
0.08451442 -0.14691326 -0.15747441 -0.25417122 -0.19772238 0.16175425 -0.12494582 0.055887114
0.09471447 0.039728686 -0.13052417 -0.12869637 0.059419185 -0.09849631 0.042783875 -0.21478415
0.0760931 -0.15023917 0.043913316 -0.078051075 -0.06735485 -0.11342816 -0.12934904 -0.03991178
-0.031024357 -0.011960344 0.050120737 -0.05397735 0.022771884 0.10831715 -0.028057935 -0.08518424
-0.1566442 -0.03604329 -0.040370163 -0.086506695 0.1315728 -0.06299098 0.22146785 -0.033939946
0.04617605 -0.21505612 -0.13477567 0.08582004 -0.101013236 -0.23778816 0.17203274 -0.11271893
-0.10577987 0.11230505 -0.20878373 0.01418171 0.25277546 0.18411101 0.008671692 0.15011881
0.19045112 -0.11468309 -0.12735383 -0.15736125 -0.015377293 -0.10264914 0.50767654 0.44021907
0.006199751 0.15412502 0.12729621 0.5696143 -0.0028529745 0.15408453 0.024894275 -0.19208506
0.36858895 -0.10930322 -0.25931454 -0.096588835 0.15568817 0.54468894 0.06736243 0.1137545
-0.121590585 0.24910028 -0.18815872 0.013737506 -0.19627129 0.20413841 -0.19648774 -0.105525844
-0.04999929 0.20616756 0.07807113 0.17056109 0.10510734 0.010894146 0.07344756 -0.14409944
-0.16028166 -0.085648 0.21380009 -0.16466857 -0.11171241 0.07538183 0.14509004 0.029520284
0.07989258 -0.17297263 -0.065585144 0.05977683 0.15610684 0.22121954 -0.107522324 -0.087342516
-0.2154537 0.19048774 0.07503204 0.08462937 -0.33557883 0.048615318 -0.313022 -0.09123905
-0.006011089 0.122033834 -0.05457789 -0.011783677 -0.06829933 0.15643331 0.010691711 -0.029792173
0.04848647 0.3522186 -0.039904535 -0.13876818 0.2196801 0.07584868 0.110394776 0.111106634
0.15539727 -0.019051934 -0.10997877 0.17667194 -0.13478477 0.018659303 -0.056213953 0.10632144
-0.29008546 0.0483759 -0.13018376 -0.14005189 -0.12101713 0.0121241305 -0.14761248 -0.14883238
-0.04102608 0.055104118 -0.15522441 0.13652554 0.1312016 -0.12040886 0.016958755 -0.13736077
-0.17221405 0.037664384 -0.15265742 -0.3580661 0.095075555 0.13716835 0.008630871 0.1315883
-0.13409026 0.047186304 -0.06830042 0.041670103 0.1763026 0.06477043 0.16402192 -0.17145406
00000000: d1b2 bebe 767c 893c d5ee 2dbe f134 3ebe
00000010: 688a 08be ef5d 9fbd 185d 7c3c 85bf 5abd
00000020: 91ca d0bd f894 99bd e0d5 2cbe 0a03 0a3e
00000030: 896f 7abe a715 17bf dfa6 debe ff7d e8bd
00000040: edc8 573d 1330 05be b886 67be 4cee 12bd
00000050: fa96 233e 1a83 ccbd 30df d5bc 0882 aabd
00000060: a82a 5dbe 90f7 00bf c5a3 96bd e5c0 c43c
00000070: d6ec 123e be3b 15be adf7 bb3c 9747 d8bd
00000080: c3f9 293d c3ad 303d e352 17bd e544 afbd
00000090: 67d5 3dbe 311d 003e 7d41 6dbe 70aa 57bd
000000a0: a10e fc3c b94b 9c3d 1719 c43d 4c33 3ebd
000000b0: 04d1 e9bd e7f6 18bd 376e 32be ea48 a3bd
000000c0: d542 993c 23e8 a73d 3bed ed3d 557d 8abe
000000d0: ce48 4b3d 841c b1bb 3af0 613d 4dfb d33d
000000e0: 9bf5 2f3e c848 4c3d 56b9 05bd 1ff3 413e
000000f0: e802 ebbb 616d b63c 83c4 ac3d a0b3 0fbe
00000100: dcf6 be3d a329 633c 5517 073d 5d48 80bc
00000110: c6be e7bd b583 b4bd b704 ebbe 86da 34be
00000120: 9fb0 0ebe 273c 69bd 9cc9 033d c171 90bd
00000130: 7f58 7dbc 5ad1 0abe cd77 8c3d 179f 3dbe
00000140: e515 ad3d 6e70 16be f940 21be bb22 82be
00000150: bc77 4abe e8a2 253e 98e3 ffbd e3e9 643d
00000160: a9f9 c13d 8cba 223d 21a8 05be fbc8 03be
00000170: 8861 733d 6fb8 c9bd 253e 2f3d 60f0 5bbe
00000180: b3d6 9b3d 4cd8 19be 73de 333d 3ed9 9fbd
00000190: 57f1 89bd 064d e8bd 1374 04be 897a 23bd
000001a0: cb26 febc 52f5 43bc 674b 4d3d 5b17 5dbd
000001b0: 1a8c ba3c 62d5 dd3d c1d9 e5bc 1375 aebd
000001c0: 5667 20be 21a2 13bd 2f5b 25bd 6c2a b1bd
000001d0: 05bb 063e 6a01 81bd 78c8 623e 9d04 0bbd
000001e0: 1923 3d3d ac37 5cbe a202 0abe 6bc2 af3d
000001f0: 07e0 cebd bd7e 73be 5a29 303e 2fd9 e6bd
00000200: 1ea3 d8bd 3100 e63d 67cb 55be 675a 683c
00000210: c96b 813e 9987 3c3e b613 0e3c bfb8 193e
00000220: 9e05 433e f8de eabd 0b69 02be 4f23 21be
00000230: 0bf1 7bbc b639 d2bd 17f7 013f 6564 e13e
00000240: 4827 cb3b f3d2 1d3e f059 023e 3ed2 113f
00000250: f8f8 3abb 56c8 1d3e 14ef cb3c f2b1 44be
00000260: b1b7 bc3e 5eda dfbd e0c4 84be 5ed0 c5bd
00000270: b86c 1f3e bc70 0b3f 50f5 893d 1ff8 e83d
00000280: 7c04 f9bd 2514 7f3e aeac 40be 4713 613c
00000290: 57fb 48be a909 513e 1534 49be ef1d d8bd
000002a0: 0ecc 4cbd 971d 533e c2e3 9f3d 91a7 2e3e
000002b0: 8442 d73d 5c7d 323c ad6b 963d ce8e 13be
000002c0: e020 24be 3868 afbd 69ee 5a3e e19e 28be
000002d0: 7ac9 e4bd ca61 9a3d 7c92 143e 86d4 f13c
000002e0: b99e a33d bd1f 31be 8151 86bd 8dd8 743d
000002f0: 79da 1f3e 6087 623e aa34 dcbd a2e0 b2bd
00000300: e59f 5cbe 380f 433e 66aa 993d 2a52 ad3d
00000310: fdd0 abbe db20 473d 6b44 a0be 8adb babd
00000320: abf8 c4bb e0ec f93d 118d 5fbd 5310 41bc
00000330: 85e0 8bbd 0e30 203e 492c 2f3c b70e f4bc
00000340: c099 463d ff55 b43e f072 23bd 3f19 0ebe
00000350: d2f3 603e 8e56 9b3d a816 e23d e08b e33d
00000360: 7620 1f3e cd12 9cbc 8d3c e1bd 7de9 343e
00000370: 0505 0abe 65db 983c 9a40 66bd 0ebf d93d
00000380: 1586 94be cf25 463d e44e 05be c369 0fbe
00000390: d4d7 f7bd 4aa4 463c ba27 17be 8467 18be
000003a0: f60a 28bd dbb4 613d 26f3 1ebe 5acd 0b3e
000003b0: b659 063e ec98 f6bd 16ed 8a3c 4da8 0cbe
000003c0: e158 30be f845 1a3d 3a52 1cbe 7154 b7be
000003d0: f9b6 c23d dc75 0c3e 7f68 0d3c 15bf 063e
000003e0: f54e 09be 6d46 413d 17e1 8bbd 45ae 2a3d
000003f0: ab88 343e 5ca6 843d 5df5 273e a791 2fbe

gnn.convs.1.nn.lins.1.bias f4 [32]
-0.2545568 0.094082914 0.05090018 -0.038811896 -0.17063308 -0.3701151 0.009457596 -0.22603895
-0.01452897 0.15812327 0.051618494 -0.086477645 0.0030726658 -0.089919604 0.1243764 -0.5811378
0.03444609 -0.23304938 -0.2543953 -0.011469529 0.022470064 0.031469684 -0.12313781 0.10177031
-0.24014366 -0.3631049 0.040721446 0.107753575 0.12897515 0.021558484 -0.29094538 -0.19531475
00000000: 4555 82be 8bae c03d b57c 503d 39f9 1ebd
00000010: 70ba 2ebe ba7f bdbe 08f4 1a3c c176 67be
00000020: eb0a 6ebc 11eb 213e ea6d 533d 311b b1bd
00000030: c75e 493b c527 b8bd 0eb9 fe3d 72c5 14bf
00000040: 5817 0d3d 7fa4 6ebe 1a40 82be b1ea 3bbc
00000050: 2413 b83c 5be6 003d ad2f fcbd f46c d03d
00000060: 38e8 75be e3e8 b9be 88cb 263d e8ad dc3d
00000070: 1012 043e 6b9b b03c cbf6 94be 9700 48be

gnn.convs.2.nn.lins.0.weight f4 [32, 32]
-0.0953383 -0.08374294 -0.15670353 -0.22956803 -0.11628284 0.1479915 0.06295161 -0.120734215
-0.20545068 -0.13234958 -0.0136730205 -0.09234731 0.028273148 -0.0392258 -0.017765319 -0.205116
-0.16873577 -0.09827187 -0.04636149 -0.18414214 -0.1443617 -0.060582776 -0.14986911 -0.15201312
0.089923926 -0.11621764 -0.09196287 -0.1300526 0.01926599 -0.1394735 0.05885516 -0.069010556
0.04370624 -0.043606896 -0.2156541 0.04331347 -0.079833984 -0.16829509 0.0886431 0.11900287
-0.070459485 0.06735117 -0.117718495 -0.05844455 -0.08473808 -0.1745712 0.09190646 0.018277086
-0.175786 -0.018366437 0.12130228 0.013942574 -0.17449419 0.037254803 0.021643287 -0.084447354
0.09063047 -0.13639626 0.054241657 0.10750207 -0.018842122 -0.19145992 -0.3775287 0.026740616
0.021373348 -0.14387524 0.14049976 0.10930235 -0.30591902 0.038842704 -0.1755391 0.040485017
-0.09087268 -0.0681936 -0.1619166 0.1707448 -0.07233154 -0.21635813 -0.13359624 -0.32105318
0.016805995 0.097584195 0.10759338 -0.08930711 0.06834765 -0.13770051 -0.18405552 -0.17147402
0.14871383 -0.06816717 -0.147169 -0.02708978 -0.17401996 -0.19270973 -0.1388172 0.10918655
0.054596473 -0.09862371 -0.013455491 0.13511883 -0.335804 0.19114912 0.19171454 -0.023815498
0.017788053 0.15822624 0.19819379 0.06711577 -0.0140196355 -0.10508316 0.18953082 -0.13447414
0.14406975 0.080215 0.06714475 0.18058065 -0.06561116 0.16567373 0.16780356 0.35100332
-0.10698676 -0.24333167 0.23702645 0.22779582 0.061394017 -0.111502394 0.058685094 0.08909132
0.048943702 0.1949743 0.20894083 -0.08113665 0.13301073 0.22029284 0.014022729 -0.08159634
-0.16452235 0.031234995 0.11614421 0.07522038 -0.14136498 0.10059407 0.027745683 -0.20347947
0.086522914 0.032835383 -0.05457876 0.043366667 -0.08529645 0.06073367 -0.078515254 -0.01986929
0.0019068269 0.018713761 -0.078996316 0.17331304 0.17833221 0.30892873 -0.10485009 0.12798665
-0.07052458 0.10724847 -0.054931507 -0.07156114 -0.026254818 0.19961013 0.1944765 -0.108522214
-0.41313756 0.031993784 0.20719594 -0.14037183 -0.12282539 -0.023965724 0.14755239 -0.23930939
-0.08542643 -0.062192995 -0.25603688 -0.13732998 -0.070788145 0.11270716 0.10187552 -0.042657472
-0.02277161 0.10074083 0.031642623 0.084183365 0.0069630146 -0.1186845 0.21067517 -0.02790136
0.03737296 -0.20323694 -0.078464516 -0.112450406 -0.23410071 -0.061117094 -0.054490454 0.097907506
-0.041469894 -0.06373291 -0.10558914 0.08754599 0.089886814 -0.04612452 -0.12962556 0.011738381
0.07278086 -0.0038956963 -0.14340179 -0.19447187 -0.19071493 0.08784591 0.0009535472 -0.2145045
-0.13453119 0.074901864 -0.23045875 -0.02884159 0.039022543 0.018764883 -0.024092635 0.05436134
-0.023124045 -0.090051 -0.7213055 0.13608398 -0.095799305 -0.19442874 -0.28546745 -0.08091124
-0.64328533 0.006229212 -0.72457856 -0.40737078 -0.29826674 0.49827 -0.2875309 -0.18424587
0.13765544 -0.11798574 0.12089513 0.17375335 -0.3090356 -0.81744176 0.031876404 -0.32504275
-0.10940692 0.105741724 -0.5870944 -0.22997437 0.951554 0.13379765 -0.20200354 -0.17584424
00000000: ba40 c3bd 6b81 abbd e476 20be e213 6bbe
00000010: b325 eebd 158b 173e c6ec 803d 8043 f7bd
00000020: aa61 52be a686 07be ce04 60bc 9620 bdbd
00000030: 179d e73c 3cab 20bd 9388 91bc ee09 52be
00000040: 12c9 2cbe c342 c9bd 8ce5 3dbd c28f 3cbe
00000050: 8ed3 13be a525 78bd 4a77 19be 54a9 1bbe
00000060: 092a b83d 8403 eebd 0757 bcbd 822c 05be
00000070: b6d3 9d3c 24d2 0ebe 1c12 713d 6855 8dbd
00000080: 5005 333d 259d 32bd 6ed4 5cbe 7769 313d
00000090: 0080 a3bd 8c55 2cbe 838a b53d c7b7 f33d
000000a0: 104d 90bd 69ef 893d 6516 f1bd 8d63 6fbd
000000b0: 298b adbd cbc2 32be 7439 bc3d d4b9 953c
000000c0: 3f01 34be 3675 96bc 546d f83d 656f 643c
000000d0: 9bae 32be 7e98 183d 434d b13c bcf2 acbd
000000e0: 789c b93d 76ab 0bbe 802c 5e3d 0c2a dc3d
000000f0: cb5a 9abc 120e 44be 714b c1be 230f db3c
00000100: 2917 af3c 0854 13be 2bdf 0f3e e9d9 df3d
00000110: 6ba1 9cbe 8719 1f3d 86c0 33be 9ed3 253d
00000120: 751b babd 16a9 8bbd 77cd 25be bad7 2e3e
00000130: 8f22 94bd fc8c 5dbe 74cd 08be 1561 a4be
00000140: baac 893c 39da c73d eb59 dc3d a5e6 b6bd
00000150: daf9 8b3d 5d01 0dbe 0d79 3cbe e396 2fbe
00000160: 7048 183e 3b9b 8bbd 78b3 16be 63eb ddbc
00000170: 4a32 32be b355 45be 1926 0ebe 339d df3d
00000180: 8da0 5f3d 3afb c9bd 6b74 5cbc 975c 0a3e
00000190: 80ee abbe 98bc 433e d150 443e b818 c3bc
000001a0: 40b8 913c 0f06 223e 50f3 4a3e fe73 893d
000001b0: 9db2 65bc d735 d7bd 5e14 423e 97b3 09be
000001c0: 0587 133e c347 a43d 3083 893d 22ea 383e
000001d0: 255f 86bd 60a6 293e b2d4 2b3e b5b6 b33e
000001e0: e01b dbbd f02b 79be 10b7 723e 4f43 693e
000001f0: 4b78 7b3d 5e5b e4bd c85f 703d 8375 b63d
00000200: 3179 483d 58a7 473e 96f4 553e f92a a6bd
00000210: f733 083e 7294 613e 97bf 653c fb1b a7bd
00000220: 8c78 28be 88e0 ff3c 04dd ed3d 250d 9a3d
00000230: fbc1 10be 4404 ce3d ea4a e33c ec5c 50be
00000240: ed32 b13d 657e 063d fa8d 5fbd 3fa1 313d
00000250: e8af aebd dec3 783d 9bcc a0bd ecc4 a2bc
00000260: 7eee f93a 9a4d 993c d2c8 a1bd f978 313e
00000270: b89c 363e e82b 9e3e a5bb d6bd ef0e 033e
00000280: 316f 90bd 16a5 db3d dcff 60bd a68e 92bd
00000290: 5814 d7bc 9966 4c3e d924 473e e540 debd
000002a0: c486 d3be ea0b 033d 2c2b 543e a2bd 0fbe
000002b0: e18b fbbd c453 c4bc f917 173e 850d 75be
000002c0: 0df4 aebd 15be 7ebd 4417 83be 3ba0 0cbe
000002d0: 60f9 90bd 03d3 e63d 1da4 d03d 9ab9 2ebd
000002e0: 878b babc 3551 ce3d b29b 013d 5468 ac3d
000002f0: 002a e43b dc10 f3bd 3bbb 573e 6591 e4bc
00000300: 6414 193d 581d 50be 01b2 a0bd 664c e6bd
00000310: 19b8 6fbe eb55 7abd 6231 5fbd bb83 c83d
00000320: 56dc 29bd 6686 82bd 1e3f d8bd 504b b33d
00000330: 9416 b83d 11ed 3cbd 90bc 04be 5752 403c
00000340: 220e 953d f04e 7fbb ebd7 12be a223 47be
00000350: c64a 43be 8ee8 b33d 78f7 793a 11a7 5bbe
00000360: 8bc2 09be 2666 993d 61fd 6bbe 3345 ecbc
00000370: 1ad6 1f3d d0b8 993c eb5d c5bc ffa9 5e3d
00000380: a36e bdbc a96c b8bd 7aa7 38bf 9959 0b3e
00000390: 6d32 c4bd 5418 47be ca28 92be cbb4 a5bd
000003a0: 59ae 24bf 6b1e cc3b fb7d 39bf e792 d0be
000003b0: 6bb6 98be 3f1d ff3e 4037 93be f3aa 3cbe
000003c0: 8cf5 0c3e 82a2 f1bd de97 f73d 66ec 313e
000003d0: ea39 9ebe dd43 51bf d590 023d 016c a6be
000003e0: bc10 e0bd 1e8f d83d d24b 16bf 677e 6bbe
000003f0: 0b99 733f 4002 093e 04da 4ebe 8310 34be

gnn.convs.2.nn.lins.0.bias f4 [32]
-0.008931909 -0.05328181 -0.39111862 0.3310435 -0.012359522 -0.05663384 -0.039766673 -0.39286792
0.12646289 -0.07114159 -0.0058591324 -0.024216292 -0.1866408 -0.1528245 -0.30750018 -0.11181859
0.12284479 -0.17775959 -0.057598285 -0.34926435 -0.11574975 -0.22140753 0.53582907 0.05902072
-0.06966797 -0.08333573 -0.14606002 -0.25195798 -0.06839899 -0.058487557 0.41973856 -0.014799708
00000000: 2457 12bc 073e 5abd b340 c8be 897e a93e
00000010: 987f 4abc e3f8 67bd 61e2 22bd fc25 c9be
00000020: 7d7f 013e afb2 91bd f7fd bfbb 3f61 c6bc
00000030: c41e 3fbe 077e 1cbe aa70 9dbe 2501 e5bd
00000040: 0d96 fb3d 9c06 36be 2eec 6bbd c7d2 b2be
00000050: 340e edbd a8b8 62be 182c 093f b6bf 713d
00000060: 15ae 8ebd ecab aabd c290 15be a300 81be
00000070: c514 8cbd a690 6fbd f9e7 d63e 797a 72bc

gnn.convs.2.nn.lins.1.weight f4 [32, 32]
-0.0020211972 0.055586822 -0.13196534 0.021499202 -0.06792178 -0.031768974 0.061712798 -0.46493122
0.047697052 0.10137443 -0.009245022 -0.25544506 -0.22892123 -0.06102023 0.06575833 -0.23580672
0.13338548 -0.18699157 -0.025690328 0.08321631 -0.06055186 -0.33928105 0.17724733 0.14273643
-0.16055445 -0.089301996 0.071308695 -0.13831148 -0.37733606 0.09753539 0.21574347 0.13899639
-0.14495538 -0.13394569 -0.20818485 0.2806468 -0.10022706 0.17515616 0.08127215 0.08141106
0.06285192 0.0834922 -0.050575715 -0.11315531 -0.30587664 -0.21533881 0.030396875 -0.43675008
-0.0012088098 0.26482418 -0.020406893 0.15326214 0.02558572 -0.34159967 -0.093486324 0.043788493
0.16799675 -0.112155765 0.21732105 -0.07055338 -0.16554336 0.030497858 0.12544976 -0.18375957
-0.06874233 0.01502965 -0.017848536 0.039500047 -0.0944113 -0.15364304 -0.17031978 0.050271053
-0.12731342 -0.1009715 0.12945783 -0.13222162 -0.055846836 -0.3280998 -0.13752082 -0.20652126
-0.0026547879 -0.11538277 0.12819706 -0.13473663 0.054331124 -0.033732522 7.546393e-05 -0.07338417
0.07739913 -0.051855016 0.1460192 0.09791819 -0.3128454 -0.1547345 -0.043190405 0.0914819
0.020979099 -0.09105212 -0.024530202 -0.059362065 0.032838933 -0.10134952 -0.11225619 0.028243635
-0.09486786 0.070569925 -0.13178344 -0.0640236 -0.035642892 -0.15638632 -0.1037894 -0.093430676
-0.22907546 0.10130603 -0.12920548 0.02316336 -0.06867197 -0.1078415 -0.051027413 0.025260573
0.02438193 0.07041089 -0.12745322 -0.13454123 -0.11616622 0.020784697 -0.08706763 0.088004895
0.16232137 -0.016703743 0.12511663 0.5224136 -0.31346253 0.47095624 0.019577885 0.15576614
-0.1401246 0.53849953 -0.15112416 -0.46413156 -0.17672484 -0.23807842 0.091571175 -0.1907519
-0.1928172 -0.29421422 -0.021084694 -0.16637778 -0.12078735 0.10272609 0.37013608 0.05468676
0.1371073 0.25621086 -0.06943835 -0.10138422 -0.19801794 -0.17406565 -0.163361 0.23457505
0.13908169 0.05170238 -0.21092251 0.13938886 0.06425171 -0.18308295 -0.18500346 -0.2624417
-0.1789534 -0.08687529 -0.18344933 -0.018220996 -0.30006826 -0.19876938 -0.035470746 -0.16483298
-0.073060565 -0.13598657 -0.122620046 -0.061514217 -0.2087321 -0.26134592 -0.16704966 -0.11128364
0.13021463 -0.043026105 -0.10703849 0.18354358 0.020137599 -0.08518246 -0.19571331 0.15141962
0.021109875 0.2089057 0.17441382 -0.008165334 0.22666338 0.10719337 0.16922644 -0.07608449
0.22592989 -0.15447882 0.11524695 0.097335726 -0.019704979 -0.0769692 -0.1368525 -0.21233316
0.12758535 -0.06895445 -0.22886924 0.13612159 0.16976897 -0.29619133 0.004341988 -0.10333354
-0.32010418 -0.1864878 -0.112795055 -0.2618197 -0.23449196 -0.08153858 -0.027128614 0.1080695
-0.08541865 0.0968088 0.15984114 0.12696068 -0.19399518 -0.09378959 -0.13269168 -0.17656621
0.050797902 0.20736879 0.057840362 -0.09276523 -0.44974303 -0.23344035 0.11315276 -0.11660519
-0.05708761 -0.13432828 -0.12514877 -0.026959684 -0.006039879 -0.28450194 0.20533688 0.15513915
0.3450645 -0.13515031 -0.3002956 -0.13660872 0.048774984 -0.121637985 0.08285278 -0.15652138
00000000: 1076 04bb 02af 633d ec21 07be 181f b03c
00000010: 931a 8bbd 2f20 02bd 8fc6 7c3d 770b eebe
00000020: fc5d 433d 669d cf3d 6f78 17bc b2c9 82be
00000030: 546a 6abe 59f0 79bd 4eac 863d 5177 71be
00000040: 3496 083e b87a 3fbe 8674 d2bc 506d aa3d
00000050: 3a05 78bd 3fb6 adbe 5380 353e 8029 123e
00000060: 6368 24be f7e3 b6bd 4b0a 923d 86a1 0dbe
00000070: 3132 c1be a2c0 c73d dbeb 5c3e 1255 0e3e
00000080: 2f6f 14be 0f29 09be 692e 55be f0b0 8f3e
00000090: d843 cdbd 235c 333e 0372 a63d d8ba a63d
000000a0: 82b8 803d f5fd aa3d 7b28 4fbd f9bd e7bd
000000b0: dd9b 9cbe c781 5cbe de02 f93c b59d dfbe
000000c0: ed70 9eba 0997 873e 5b2c a7bc c0f0 1c3e
000000d0: 2599 d13c 27e6 aebe c275 bfbd 905b 333d
000000e0: 5707 2c3e ecb1 e5bd 6989 5e3e 4a7e 90bd
000000f0: 3384 29be a5d6 f93c e775 003e 782b 3cbe
00000100: c7c8 8cbd ec3e 763c 1837 92bc cdca 213d
00000110: b65a c1bd 9a54 1dbe 4f68 2ebe 05e9 4d3d
00000120: 735e 02be 25ca cebd 9890 043e 1b65 07be
00000130: a7bf 64bd b2fc a7be 42d2 0cbe 4f7a 53be
00000140: f3fb 2dbb cd4d ecbd 1746 033e 66f8 09be
00000150: 508a 5e3d 1d2b 0abd 6442 9e38 714a 96bd
00000160: 6f83 9e3d ed65 54bd 0f86 153e 5589 c83d
00000170: 462d a0be b972 1ebe 6ce8 30bd dd5a bb3d
00000180: 5cdc ab3c 8979 babd 90f3 c8bc a325 73bd
00000190: 1e82 063d 5690 cfbd 93e6 e5bd 325f e73c
000001a0: 154a c2bd f786 903d 3df2 06be ce1e 83bd
000001b0: 48fe 11bd bc23 20be 898f d4bd 9558 bfbd
000001c0: c292 6abe 8979 cf3d 714e 04be 16c1 bd3c
000001d0: e4a3 8cbd 01dc dcbd 1f02 51bd 43ef ce3c
000001e0: 9dbc c73c 9633 903d 1983 02be 2dc5 09be
000001f0: 8ee8 edbd ab44 aa3c 8350 b2bd e93b b43d
00000200: 9337 263e 4ad6 88bc 931e 003e e6bc 053f
00000210: 297e a0be 2d21 f13e cd61 a03c 2981 1f3e
00000220: d37c 0fbe 1bdb 093f 4bc0 1abe a7a2 edbe
00000230: 5bf7 34be d4ca 73be ab89 bb3d 7754 43be
00000240: df71 45be 3fa3 96be cfb9 acbc f05e 2abe
00000250: 5c5f f7bd 0e62 d23d 7a82 bd3e 39ff 5f3d
00000260: db65 0c3e 122e 833e b235 8ebd 88a2 cfbd
00000270: 37c5 4abe 443e 32be 1b48 27be 7134 703e
00000280: 6e6b 0e3e e0c5 533d 12fc 57be f4bb 0e3e
00000290: 6796 833d 197a 3bbe 8c71 3dbe c25e 86be
000002a0: 8f3f 37be aceb b1bd 24da 3bbe 3344 95bc
000002b0: 8ca2 99be 338a 4bbe c649 11bd fac9 28be
000002c0: c7a0 95bd 1040 0bbe 3820 fbbd 55f6 7bbd
000002d0: debd 55be 22cf 85be 110f 2bbe ade8 e3bd
000002e0: fc56 053e 243c 30bd ff36 dbbd d9f2 3b3e
000002f0: 9bf7 a43c 2474 aebd 1269 48be bf0d 1b3e
00000300: 9eee ac3c 60eb 553e 8999 323e e5c7 05bc
00000310: 721a 683e 3388 db3d b249 2d3e 2fd2 9bbd
00000320: 2a5a 673e b22f 1ebe 9806 ec3d f457 c73d
00000330: 566c a1bc 07a2 9dbd 1023 0cbe dd6d 59be
00000340: bca5 023e fe37 8dbd b35c 6abe 7563 0b3e
00000350: ebd7 2d3e 64a6 97be 3c47 8e3b 89a0 d3bd
00000360: b2e4 a3be a8f6 3ebe 1801 e7bd 3b0d 86be
00000370: a91e 70be b3fd a6bd d43c debc 8b53 dd3d
00000380: f9ef aebd b143 c63d 65ad 233e fb01 023e
00000390: aca6 46be c214 c0bd 54e0 07be c6cd 34be
000003a0: 7611 503d 7c58 543e 04ea 6c3d b2fb bdbd
000003b0: b844 e6be fd0a 6fbe a2bc e73d b4ce eebd
000003c0: b3d4 69bd 5a8d 09be 0027 00be 8eda dcbc
000003d0: 2dea c5bb 3daa 91be d543 523e ccdc 1e3e
000003e0: 4bac b03e d864 0abe 58c0 99be 28e3 0bbe
000003f0: 47c8 473d 561d f9bd b8ae a93d 2447 20be

gnn.convs.2.nn.lins.1.bias f4 [32]
0.22028217 -0.33499277 -0.20869353 -0.23797396 -0.4373152 -0.04903826 -0.08588702 0.1270008
-0.016307026 -0.13162418 -0.05171347 -0.050890364 0.08393269 -0.020204928 0.40674406 -0.05073552
-0.090341404 -0.27185217 -0.24967462 0.24853253 0.14994414 0.015392762 0.08082323 -0.18009052
-0.040722497 0.006604839 0.041283928 0.32803008 0.3169759 0.17575699 0.17318097 -0.086558215
00000000: a691 613e 2c84 abbe c2b3 55be 72af 73be
00000010: c7e7 dfbe 58dc 48bd 89e5 afbd 7f0c 023e
00000020: 5096 85bc 7dc8 06be 81d1 53bd 6a72 50bd
00000030: e7e4 ab3d ce84 a5bc c240 d03e 0cd0 4fbd
00000040: ea04 b9bd 3530 8bbe b4aa 7fbe 507f 7e3e
00000050: f58a 193e ec31 7c3c a686 a53d a669 38be
00000060: a2cc 26bd 686d d83b 5619 293d 8ff3 a73e
00000070: aa4a a23e a4f9 333e 5a56 313e 6f45 b1bd

gnn.convs.3.nn.lins.0.weight f4 [32, 32]
-0.22470446 0.16279913 -0.01869828 0.07540887 -0.039218444 0.011769553 0.010699959 0.11565253
-0.22838691 0.07254581 -0.019865548 -0.013911826 0.0022896153 0.00010937107 -0.14856471 -0.23085728
-0.07224166 0.009342587 0.015910767 -0.10885575 -0.076002695 0.03312079 -0.039992705 -0.14581677
-0.010301694 0.067767 0.08786751 -0.009100417 -0.11813558 -0.17145169 -0.124289475 0.1188555
0.07637448 0.080223896 -0.10242955 0.109728135 -0.118200354 0.07082938 0.07125774 -0.051233325
-0.050676737 -0.14498779 -0.46757063 -0.09205278 0.120406955 -0.0027816077 -0.22190504 0.12847486
-0.0006782218 -0.14005256 -0.0030755 -0.0013374299 0.19522117 -0.16910149 -0.22109798 0.14523666
-0.09895406 -0.089940496 0.26993442 -0.08335206 -0.24928059 0.05425243 0.15346144 0.29475877
0.016550668 0.0260567 -0.13368787 0.08635527 -0.18917538 -0.29452708 0.038701996 0.09585418
-0.03235199 0.15867786 0.04274586 -0.08460202 -0.10626206 -0.06703102 -0.11867861 -0.037896078
0.039632767 -0.13798013 0.05315423 -0.29579493 0.012538937 -0.047231168 -0.11152047 0.09246138
-0.14830065 -0.14368309 -0.07872625 -0.15594187 -0.05495353 -0.19194035 -0.0024359063 -0.16627705
-0.12383444 0.0016109381 -0.07146181 0.014889741 -0.25044188 0.07009734 -0.05416223 0.017389294
0.027122635 -0.0713293 0.0568015 -0.15872815 0.08185476 -0.42318985 -0.18800315 0.13318264
0.08321875 -0.059168223 0.30019537 -0.34327775 -0.08529089 -0.17011239 0.13703746 0.008789958
0.007131988 -0.26612496 0.23042159 0.12382471 -0.024693498 -0.140155 0.27378938 0.0127719585
-0.07718527 -0.3302586 0.1669912 0.107585646 0.29720926 0.23718888 -0.1932232 -0.069612615
-0.019055953 0.018258289 -0.13944604 0.05405503 -0.16085693 -0.02233105 -0.46379137 -0.048574794
-0.016167551 -0.13019042 -0.12076222 0.06775681 -0.04839725 -0.039252464 -0.19049773 0.13588278
0.11676454 0.08551522 -0.17422634 0.06594673 -0.18088007 -0.1718955 -0.1352769 -0.07113486
0.076362565 -0.10306816 -0.05373721 0.020219294 -0.44502842 0.09291089 -0.26187298 0.100355834
-0.1787248 0.07680888 -0.2779778 0.06711565 0.10526308 0.03540876 0.053278763 0.11296788
-0.077974774 0.23337342 0.02440608 -0.10899038 -0.23774792 -0.19713743 -0.07585503 -0.13318601
0.10744109 -0.07473978 0.011699031 0.15716426 -0.07454502 -0.22893544 0.05393851 0.12139757
0.085940845 -0.09114998 0.033408705 -0.07622631 0.14862421 0.16032894 0.041852746 -0.1540706
-0.18954521 0.06534325 0.08748227 0.08663311 0.04467778 -0.1845214 -0.2720244 -0.10544785
-0.075298384 -0.22233903 -0.05754288 -0.20678349 -0.3309493 -0.0017160154 0.013976122 -0.2657018
-0.23894992 0.042949248 0.005802175 0.07415265 -0.1873749 -0.1555207 -0.19694357 0.0664628
-0.95923924 -0.044888135 -0.019403256 -0.17603716 -0.09825125 -0.15080102 -0.16594143 -0.22450063
0.10059014 -0.08095866 -0.050679225 0.29143718 0.0794423 -0.07544051 -0.029928816 -0.05794844
0.14878465 0.34216404 0.017526424 -0.23126529 0.23635349 -0.3637306 -0.17309387 0.07885289
-0.064555354 -0.28197134 0.27583978 -0.015372197 0.14276403 0.08047574 0.09662731 0.03924681
00000000: ed18 66be d1b4 263e 232d 99bc f76f 9a3d
00000010: 85a3 20bd 15d5 403c e14e 2f3c 3cdb ec3d
00000020: 42de 69be e692 943d 13bd a2bc 6dee 63bc
00000030: 5f0d 163b 255e e538 5921 18be da65 6cbe
00000040: 6ff3 93bd a611 193c 4c57 823c c3ef debd
00000050: 4da7 9bbd aaa9 073d 64cf 23bd fe50 15be
00000060: 70c8 28bc 6dc9 8a3d e2f3 b33d ea19 15bc
00000070: 11f1 f1bd 0891 2fbe 7b8b febd 836a f33d
00000080: 396a 9c3d 6d4c a43d 95c6 d1bd 25b9 e03d
00000090: 0713 f2bd fe0e 913d 94ef 913d 09da 51bd
000000a0: 6992 4fbd ae77 14be 6b65 efbe 2b86 bcbd
000000b0: ec97 f63d a24b 36bb 133b 63be ea8e 033e
000000c0: b2ca 31ba f069 0fbe 548e 49bb b34c afba
000000d0: 0fe8 473e f128 2dbe 8267 62be ebb8 143e
000000e0: 6da8 cabd b932 b8bd d834 8a3e 7cb4 aabd
000000f0: 6943 7fbe cc37 5e3d ff24 1d3e 9fea 963e
00000100: 4495 873c dc74 d53c 79e5 08be 08db b03d
00000110: 31b7 41be 41cc 96be fc85 1e3d 324f c43d
00000120: 8583 04bd 737c 223e 4816 2f3d d343 adbd
00000130: ec9f d9bd 8f47 89bd c50d f3bd eb38 1bbd
00000140: f855 223d aa4a 0dbe 40b8 593d 6f72 97be
00000150: 1d70 4d3c 7875 41bd d864 e4bd 645c bd3d
00000160: 20dc 17be a921 13be 3a3b a1bd 3aaf 1fbe
00000170: f416 61bd 038c 44be baa3 1fbb 8844 2abe
00000180: e99c fdbd 1d26 d33a 925a 92bd 1af4 733c
00000190: eb39 80be 328f 8f3d 37d9 5dbd fe73 8e3c
000001a0: 4a30 de3c 1915 92bd b1a8 683d a289 22be
000001b0: 78a3 a73d 57ac d8be e683 40be 0861 083e
000001c0: 986e aa3d 615a 72bd 35b3 993e 1ac2 afbe
000001d0: fdac aebd f131 2ebe 8c53 0c3e c203 103c
000001e0: 74b3 e93b 8841 88be a3f3 6b3e cf97 fd3d
000001f0: 054a cabc cb84 0fbe 1f2e 8c3e 7a41 513c
00000200: 5013 9ebd a817 a9be beff 2a3e dd55 dc3d
00000210: d02b 983e a4e1 723e 4ddc 45be 0f91 8ebd
00000220: 3b1b 9cbc 6892 953c f1ca 0ebe cf68 5d3d
00000230: aeb7 24be 9bef b6bc 1076 edbe 5df6 46bd
00000240: d071 84bc a350 05be 2f52 f7bd 15c4 8a3d
00000250: 323c 46bd 31c7 20bd d611 43be db24 0b3e
00000260: 3f22 ef3d 9b22 af3d 6468 32be 140f 873d
00000270: a038 39be 6005 30be 0786 0abe 27af 91bd
00000280: fa63 9c3d 6615 d3bd 8c1b 5cbd efa2 a53c
00000290: c4da e3be 1148 be3d 3714 86be 5c87 cd3d
000002a0: a203 37be f94d 9d3d 1b53 8ebe ee73 893d
000002b0: 2b94 d73d c708 113d d53a 5a3d b45b e73d
000002c0: 3db1 9fbd 71f9 6e3e 42ef c73c 5936 dfbd
000002d0: 3174 73be 65de 49be e259 9bbd ea61 08be
000002e0: 130a dc3d 2b11 99bd 4bad 3f3c abef 203e
000002f0: 0fab 98bd 0d6e 6abe a1ee 5c3d 4a9f f83d
00000300: c101 b03d d7ac babd 91d7 083d 8a1c 9cbd
00000310: f230 183e 452d 243e c96d 2b3d afc4 1dbe
00000320: 2418 42be afd2 853d e829 b33d b36c b13d
00000330: 0c00 373d 2ef3 3cbe c846 8bbe 0bf5 d7bd
00000340: 0a36 9abd d8ac 63be 15b2 6bbd 0dbf 53be
00000350: 3072 a9be eceb e0ba 1bfc 643c 110a 88be
00000360: 4aaf 74be 8deb 2f3d 2c20 be3b 58dd 973d
00000370: 35df 3fbe d240 1fbe 93ab 49be a61d 883d
00000380: b490 75bf 9fdc 37bd 94f3 9ebc 1643 34be
00000390: f437 c9bd 956b 1abe 8dec 29be 7ee3 65be
000003a0: 3402 ce3d a7cd a5bd 0595 4fbd 4137 953e
000003b0: a5b2 a23d 8e80 9abd 472d f5bc 585b 6dbd
000003c0: 015b 183e 2030 af3e 9393 8f3c cfd0 6cbe
000003d0: a606 723e e63a babe 853f 31be a07d a13d
000003e0: 9935 84bd 8c5e 90be df3a 8d3e abdb 7bbc
000003f0: bc30 123e 77d0 a43d 8ae4 c53d 43c1 203d

gnn.convs.3.nn.lins.0.bias f4 [32]
-0.17809422 0.05143766 -0.29245135 -0.09819226 0.066944346 -0.27997082 0.015562995 -0.044144977
-0.23701413 -0.27258947 0.14973451 0.07067065 -0.07826251 0.15729651 -0.006436674 -0.08537079
-0.18831393 0.06567027 -0.47090515 -0.055505145 -0.32104424 -0.1329523 -0.11719862 -0.44564128
0.09384995 0.11464306 -0.19411932 -0.069417365 0.050626025 0.06348148 -0.004553518 0.052458018
00000000: 555e 36be 4cb0 523d 2fbc 95be 0619 c9bd
00000010: 1e1a 893d 5658 8fbe effb 7e3c 5dd1 34bd
00000020: d5b3 72be d990 8bbe 0154 193e c6bb 903d
00000030: 1848 a0bd 5612 213e bcea d2bb e1d6 aebd
00000040: 5ed5 40be 227e 863d 7b1a f1be 5d59 63bd
00000050: e95f a4be a624 08be d505 f0bd 182b e4be
00000060: 6734 c03d fbc9 ea3d 37c7 46be b12a 8ebd
00000070: 3c5d 4f3d 9402 823d ad35 95bb 38de 563d
