Run_GIN_ModelCheckpoint_EvFr_2/NCI1_reps_2_folds_5_epochs_20_2023-04-26_11-05/rep_1_fold_4/checkpoints/model_trial_1.ckpt (torch, 245261 bytes, 86 tensors)

gnn.convs.0.nn.lins.0.weight f4 [32, 37]
000000 30 48 9d 3c 0f f2 df 3e 4e f4 bc be 77 98 62 3f
       0.01919946 0.43739364 -0.3690514 0.8851389
000010 11 0f b4 be ef 6a a9 3e ac 38 76 bd 0f 8e d4 3e
       -0.35167745 0.33089396 -0.06011264 0.41514632
000020 3d 09 09 be 0f 69 33 bd 6f 6a 8f bd 2b 9b 25 be
       -0.1338243 -0.043801364 -0.070027225 -0.16172473
000030 17 5a e3 bc 88 bd e2 bd d6 1b 3c 3d 8a c9 2e bb
       -0.02775292 -0.110713065 0.045924984 -0.002667042
000040 17 11 55 be cb fe 9c bd 86 72 75 3c 22 be 23 be
       -0.208073 -0.076657854 0.014980918 -0.15990499
000050 bb 7d ef bb b0 09 76 bd 3a 1e 3b 3d 22 f9 52 3d
       -0.0073086894 -0.060067832 0.045683123 0.051507123
000060 87 48 0b be c9 dc 5b be 63 e2 5c be 16 ca e6 bb
       -0.13601886 -0.21470942 -0.21570735 -0.0070431335
000070 32 3d 26 be 9b af 11 be 98 b4 09 3f b2 d8 93 3d
       -0.16234282 -0.14227144 0.5379119 0.07219066
000080 47 ac 96 3c 5a bc 20 be 51 b6 eb bb 06 ef bd 3d
       0.018392695 -0.1569685 -0.0071933647 0.09274106
000090 3c 1d 25 bd 25 6c 9d 3e ef fe c3 3e df bf af bc
       -0.040311083 0.3074657 0.38280436 -0.021453796
0000a0 b8 2d c5 be f6 8d ff 3d 36 1a f3 3e e3 0b 93 be
       -0.38511443 0.12478249 0.47480935 -0.28720006
0000b0 cb 9a 04 be 2c b6 ab 3f 5a 5c 20 3f c4 f5 4a 3f
       -0.12949674 1.341497 0.6264092 0.7928126
0000c0 79 54 2b 3c 69 95 bb 3e 93 2b 60 3e 34 21 1b be
       0.010457152 0.36637428 0.21891622 -0.15149385
0000d0 fa 57 e3 3e 18 ad a0 bd 56 b7 70 3d 81 88 15 3f
       0.44403058 -0.07845515 0.058768593 0.58411413
0000e0 ce 51 52 3f e9 94 6d be 0b 55 d7 be 79 19 7e bd
       0.82156074 -0.23201336 -0.4205707 -0.06203601
0000f0 f5 e2 8d 3e 00 80 1d 3f b7 21 1a 3f b4 ab 9b 3e
       0.27712217 0.6152344 0.60207695 0.30404437
000100 35 7b f5 3e 25 ac 07 be ed 10 c1 be 0f 0a 8f be
       0.47945562 -0.13249262 -0.37708226 -0.27937362
000110 61 51 23 be 01 df 16 be bd db 19 be 9c 98 3e be
       -0.15949012 -0.14733507 -0.1502523 -0.18612903
000120 b8 50 c4 3d 24 45 27 be a1 e0 e5 bd 87 3b 0d be
       0.095857084 -0.16334969 -0.11224485 -0.13792239
000130 22 3f 50 be 91 9e 08 bd 74 22 e5 bd 7a d2 e2 bd
       -0.20336583 -0.033354346 -0.11188212 -0.110753015
000140 40 f1 40 be 97 f4 71 3d 5f dd 88 bd 19 26 99 bd
       -0.1884203 0.05907115 -0.06682848 -0.0747797
000150 3f ae c6 bd 77 30 b4 3d 81 4c 80 bb f5 fb d4 3d
       -0.097012036 0.087983064 -0.00391537 0.103996195
000160 cc ca 0f be ca 28 d5 3b 27 0d 77 bd d9 a8 09 bd
       -0.14042205 0.0065051066 -0.060315277 -0.03360829
000170 1e 9f c8 bd fc 59 c1 3d 62 1c f9 3d 75 ca 4b 3d
       -0.09795974 0.09440991 0.12163617 0.049753625
000180 4b 0b f3 bd f5 22 9c 3d 94 90 1d be a4 57 7a 3d
       -0.11867388 0.07623855 -0.15387183 0.061118737
000190 83 25 d1 bd f3 67 e8 bd f7 10 9e bd 85 6f bf bd
       -0.10212233 -0.11347952 -0.077180795 -0.093474425
0001a0 a5 65 95 bd aa 22 83 bd d7 2e b6 3e d6 15 08 be
       -0.07294778 -0.06403096 0.3558261 -0.1328958
0001b0 81 94 26 be 9d 57 fc bd ce 67 96 bd 9f d3 d5 3c
       -0.16267587 -0.123213984 -0.07344018 0.026101885
0001c0 84 5a 51 bd 14 4a 94 bd c9 f9 98 3d 06 67 ce 3a
       -0.051111713 -0.07240692 0.07469518 0.0015747256
0001d0 ad d8 d7 bc 04 02 ae bd c8 2d b2 3d 23 9e b8 3e
       -0.026348436 -0.08496478 0.08700138 0.3605815
0001e0 81 86 e9 3e 37 46 2d 3d f0 49 47 bd c2 af 05 3e
       0.4561043 0.04230329 -0.048654497 0.13055328
0001f0 94 33 2c be 26 3c b1 ba b9 29 c3 3d 75 2c 27 3e
       -0.1681655 -0.0013521954 0.09529442 0.16325553
000200 5d 9a 90 3d 56 ab bb 3e 63 73 b0 3e 6e a4 5f be
       0.070606925 0.36654156 0.34463033 -0.21840069
000210 9d 1e 91 be 05 ed 39 3d 98 73 de 3d 1b aa 14 3e
       -0.2834367 0.045392055 0.108618915 0.14518015
000220 ef 3e 6a 3e 02 96 8d 3e 3a b0 5d 3e 90 9d 94 3d
       0.2287557 0.2765351 0.21649256 0.07256615
000230 b6 f2 90 bb 7e fa f2 3c 29 47 2b bd 4d 63 84 bd
       -0.0044234646 0.02966046 -0.04181591 -0.064642526
000240 f9 a5 54 3d 74 ce da bd 15 60 11 be d8 c5 b6 3e
       0.051916096 -0.10683909 -0.14196809 0.35697818
000250 a4 79 86 bd f9 f1 d9 bd 2b 39 ae bd 6e 00 25 3e
       -0.0656617 -0.10641856 -0.08506998 0.16113445
000260 81 55 9b bb 4f ad 8e 3e 90 68 59 3d 89 db 61 bc
       -0.0047404175 0.278666 0.053078234 -0.013785251
000270 19 73 e9 bd 28 49 ad bd df 94 e6 bd 20 86 01 bc
       -0.11398906 -0.08461219 -0.11258864 -0.007905513
000280 bf b0 18 be 69 0a 02 bd 62 07 12 3e 3b 6f 8f 3d
       -0.14911173 -0.03174821 0.14260629 0.070036374
000290 44 0b 0c be d3 7a 95 bd 63 88 89 bd 5e 60 ef 3d
       -0.13676172 -0.072988175 -0.06715467 0.116883025
0002a0 39 b2 01 be 2b 8e 04 bd bc 9d 8a bd 3a 9c 00 3d
       -0.12665643 -0.032362144 -0.06768367 0.03139899
0002b0 08 aa f9 bd 39 2c 0a be af 37 83 3d b1 71 06 3e
       -0.12190634 -0.13493432 0.06407105 0.13129307
0002c0 53 aa 30 be 7f 71 ee bd 12 3c 20 be 4c 7d 8e bd
       -0.17252474 -0.116427414 -0.15647915 -0.06957492
0002d0 b1 d7 e8 3d 23 9f 65 3d f5 52 8e bd 90 59 08 be
       0.11369265 0.056059968 -0.069494165 -0.13315415
0002e0 ee fe ac bd 1d cc c8 3e 5f 52 ed be 1c ea f2 3b
       -0.084470615 0.39218226 -0.46351907 0.007413162
0002f0 09 dc 32 bc 2a 33 d6 bd fd 8a 6d be 7b 08 01 be
       -0.010916718 -0.104589775 -0.23197551 -0.12600891
000300 59 15 9a bd c2 78 b8 3f ff a3 25 be c9 02 7d 3f
       -0.07523603 1.4411852 -0.16175841 0.98832375
000310 c4 36 eb 3d b5 c9 7a bd 20 d8 9a 3e e3 10 b7 3c
       0.11485055 -0.06122752 0.30243015 0.02234692
000320 3f 9b 20 be 64 59 41 be 25 43 cc 3e 5e c5 3f 3f
       -0.15684222 -0.18881756 0.39894977 0.74910533
000330 3f 1b 53 3f fd 1f 55 be 8d 2c dd be d4 02 10 3e
       0.8246345 -0.20812984 -0.43198052 0.14063579
000340 bc a5 d5 3b 18 f7 2d be 59 d8 d9 3e a0 42 06 3f
       0.006520001 -0.1698879 0.42547873 0.5244541
000350 53 46 17 3f a1 44 04 be d5 9e 07 be 23 b6 b6 bc
       0.5909168 -0.12916805 -0.13244183 -0.022303646
000360 e5 f3 46 3d 57 6a be bd d3 01 8e 3d 21 9e 12 be
       0.04857244 -0.092976265 0.06933942 -0.14318134
000370 90 06 85 bd d6 36 2b be 15 89 a0 bd 22 d4 1d bf
       -0.06495392 -0.16720137 -0.07838646 -0.61651814
000380 b3 9c c3 be fa 5b 7f 3e 55 b1 c2 3e a0 2b 50 be
       -0.3820549 0.2493743 0.3802592 -0.20329142
000390 7b 0f d7 bd 03 64 cd bd c9 3c 25 3e 75 58 0c 3f
       -0.105009995 -0.10028841 0.16136469 0.54822475
0003a0 f0 24 83 3f 97 f1 94 3e 66 41 5d 3e 15 c2 1c be
       1.0245647 0.29090568 0.21606979 -0.15308411
0003b0 9c d4 b7 3e 52 58 8f 3e ef 9e 72 be a4 df af 3e
       0.35904396 0.2799707 -0.23693441 0.34350312
0003c0 44 75 44 3e 45 ed ef 3b bf 78 c2 bd c2 3f c4 3d
       0.19185358 0.007321986 -0.09495687 0.09582473
0003d0 5b 31 1d bd 08 9a 05 3f de 73 54 bc ae cc 68 3e
       -0.038377147 0.5218816 -0.012967078 0.22734329
0003e0 c3 97 28 3f be f4 e8 3e 87 43 15 be 47 54 27 3e
       0.6585657 0.45499223 -0.14576541 0.16340743
0003f0 a0 f3 71 be 25 ae 0b 3e c4 14 2b be e6 30 80 be
       -0.23628092 0.1364065 -0.1670714 -0.25037307

gnn.convs.0.nn.lins.0.bias f4 [32]
000000 65 1b 5d be 10 6f 95 3d 0a e4 7d bc e0 ad 92 be
       -0.21592481 0.07296574 -0.015496263 -0.2864828
000010 47 d9 8c be 84 05 11 be 91 e5 dd 3d 71 16 2f be
       -0.2750952 -0.1416226 0.10834802 -0.17098404
000020 04 6d 7f be e5 03 7f 3b c3 a5 16 bc 50 da 74 be
       -0.2494393 0.0038912233 -0.009194794 -0.23911405
000030 41 a0 2f bd c1 6b 31 bd e6 c8 52 3d ab 3c 7f bd
       -0.04287744 -0.043315653 0.051461123 -0.062313717
000040 c0 13 ae bd 82 55 1c be d7 23 96 be 0d 49 16 3e
       -0.08499861 -0.15266994 -0.2932422 0.14676304
000050 a9 57 8d be bc fb 85 bd af cc 21 be 42 75 aa 3b
       -0.27605942 -0.06542155 -0.15800737 0.0052019665
000060 43 81 71 be 99 b7 6a bd c7 c4 54 be 91 e5 f3 bd
       -0.23584466 -0.057304 -0.2077819 -0.11909021
000070 91 db 09 be 0c 2e 8c be 34 b3 a1 bd 83 9c 6d be
       -0.13462664 -0.2737888 -0.078955084 -0.23204236

gnn.convs.0.nn.lins.1.weight f4 [32, 32]
000000 ed 08 a4 bd 8e df e1 3d 59 ac 29 be 9b b8 47 3e
       -0.08009515 0.11028968 -0.16569652 0.19504015
000010 e4 b9 46 bd a0 75 1c 3f e3 d0 e8 3e c6 51 04 bc
       -0.048517123 0.6111698 0.45471868 -0.008076137
000020 27 75 f0 3d 27 23 80 3e 74 34 cf bd 70 dc 78 bd
       0.11741095 0.2502682 -0.101174265 -0.0607571
000030 1b 76 84 3e 57 56 17 3e 60 ef 9c be 79 a9 f9 3e
       0.25871357 0.1477903 -0.3065138 0.4876211
000040 4e 7a f1 bc f9 17 20 3e 71 3f 68 bc bb 6b 4e 3e
       -0.029477265 0.15634145 -0.014175282 0.20158283
000050 81 6f 8e bc 8c c1 5b bf 89 72 0e 3d ba 21 35 3e
       -0.017387154 -0.85842204 0.034777198 0.17688647
000060 f1 77 bf bd ee 56 7f 3e 91 25 82 3d c7 2d d1 3d
       -0.09349049 0.24935505 0.063548215 0.102138095
000070 4b 67 0f 3e e8 78 a0 3e ac 85 9c be c0 8e b2 bd
       0.14004247 0.31342244 -0.30570734 -0.08718634
000080 b8 65 a9 3d c3 96 3c bd 61 86 8f 3d 38 98 51 be
       0.082713544 -0.046042215 0.070080526 -0.20468223
000090 4e c2 61 3c 98 95 33 be 79 4d 93 3e 8c 1a 29 3d
       0.013779236 -0.17537534 0.28770044 0.041285083
0000a0 28 43 30 3d d8 c5 b4 3d 63 f4 0d 3e 8f 5a 34 be
       0.043032795 0.08826798 0.13862757 -0.1761267
0000b0 ea 2d 1f 3d dd 70 5a 3d 3c 6a 44 be f5 c1 8f 3d
       0.038862146 0.05333029 -0.1918115 0.07019416
0000c0 50 0a de 3d fd a6 51 3e fd e0 43 be 00 25 46 3e
       0.10841811 0.20473857 -0.19128795 0.19350052
0000d0 6a ee 11 3d 13 d5 ba bd a5 08 d8 3c 41 a6 8b bd
       0.03562776 -0.09122672 0.02637131 -0.0681882
0000e0 cb a1 c4 bd 7c 6b d9 3c 64 c3 73 be 00 54 0a 3e
       -0.09601172 0.02654051 -0.23805004 0.13508606
0000f0 58 3a 82 be 86 b2 80 be d7 c5 de bd 1c e4 83 3d
       -0.25435138 -0.25136203 -0.10877579 0.06439993
000100 71 99 9e be 3f cc d1 3e 9a 9b 75 3d 93 a0 27 bd
       -0.30976442 0.4097614 0.059962846 -0.04092462
000110 ca 5e df 3d b2 cd 89 3e c4 da de 3e 8a ef 97 3e
       0.109067515 0.26914746 0.4352628 0.2967494
000120 f9 95 61 bd b4 b2 7a 3e cc 83 8a 3b 8b c7 ca 3d
       -0.055074666 0.24482232 0.004227137 0.09901341
000130 83 67 29 3d 26 e0 5e 3e eb c8 ac be f8 93 b5 3e
       0.041358482 0.21765193 -0.33747038 0.35464454
000140 03 16 80 3e 43 86 d7 3d ae 3c 23 3e 66 ca 27 3f
       0.25016794 0.10523655 0.15941116 0.6554321
000150 a2 6c 38 bd 2b d7 83 bf 00 ed 5f 3e 30 78 03 bd
       -0.045025475 -1.0300039 0.21867752 -0.03209704
000160 90 07 a7 bc 3f a7 25 ba ed 81 cb be 0d 95 e0 3b
       -0.020389348 -0.0006319172 -0.39747563 0.0068537057
000170 cd 75 09 3e 7e 71 59 3e 2c 74 6f 3c 07 10 d1 bd
       0.13423844 0.212347 0.0146151 -0.10208135
000180 a2 e1 df 3d 65 da 9a be 39 25 b1 bc dc cd 44 3d
       0.10931708 -0.30244747 -0.021624194 0.048047885
000190 db b8 25 3e a4 ce e8 3d 90 75 34 be 14 c0 af bd
       0.16183798 0.113675386 -0.17622972 -0.08581558
0001a0 c0 bc 9f 3c a9 be 56 3d d7 3e aa 3d df e7 96 bd
       0.019499183 0.05242792 0.08312767 -0.07368445
0001b0 5b 7a 28 3d 47 ee a3 bd 4c 9b 40 be 01 1f 13 3d
       0.041132312 -0.08004432 -0.18809241 0.03591824
0001c0 c8 42 16 3d 90 56 9f bd 2f 8a 39 be 9d 48 18 be
       0.03668478 -0.07780182 -0.18119119 -0.1487145
0001d0 0d 58 b9 bc 27 90 be bd 69 25 04 be a2 0a 65 bd
       -0.022624994 -0.09304839 -0.12904896 -0.055918343
0001e0 68 bd db 3d 1e 13 a5 3d 4b 1c d3 bd 50 88 2c be
       0.10729486 0.08060287 -0.10308131 -0.16848874
0001f0 bc ae 1f 3d 5d 46 80 bc 58 c7 d1 3d e3 64 b7 bc
       0.038985 -0.015658552 0.102431 -0.022386974
000200 e2 13 d1 bd 22 b9 ea bd c9 72 c3 bc ca b8 06 be
       -0.102088705 -0.114610925 -0.023858445 -0.13156429
000210 0c 1e 51 bd 18 8a 17 be 49 e7 29 be 2b 8b 35 3d
       -0.051054046 -0.14798772 -0.16592135 0.044322174
000220 86 c5 e8 bc c1 30 99 bd 4a e2 a3 3d 7e e3 6b bd
       -0.028414499 -0.07480002 0.080021456 -0.05759
000230 08 53 88 bd cd 55 12 3e b7 a9 9e 3d df e4 32 be
       -0.06656462 0.14290543 0.07747214 -0.1747012
000240 91 a1 ca 3d b5 3d bd bd dd f8 8f bd db eb a8 3d
       0.098940976 -0.09240285 -0.07029889 0.08248111
000250 85 b8 2b 3e 3d 89 11 be fa 57 0e be 53 a5 1d be
       0.16769607 -0.14212508 -0.13900748 -0.15395097
000260 79 d4 29 be db 81 26 be 52 a4 26 be 2f 2e 20 3d
       -0.16584958 -0.16260473 -0.1627362 0.039106544
000270 8e 33 1d 3d a1 27 dc 3d 75 69 ea 3d dd 59 14 be
       0.038379245 0.10749746 0.114458956 -0.14487405
000280 54 ff 5a bd fb 92 44 be 1a ff 40 3e 94 94 1f bc
       -0.053466156 -0.19196694 0.18847314 -0.009740014
000290 de aa 38 3d ff 14 11 be 59 e4 46 3e b7 55 11 be
       0.045084827 -0.14168166 0.19423045 -0.14192854
0002a0 46 5b 54 3b a7 82 93 bd be 87 84 bd a8 18 83 bd
       0.0032403036 -0.07202654 -0.06471203 -0.06401187
0002b0 b1 7e c2 3d e9 e5 ae bc 3f c7 6e 3a 18 69 ad bd
       0.09496821 -0.021349864 0.00091086695 -0.08467311
0002c0 be 92 fb bd 5e 3b 61 3d d8 f8 3f be b6 8b 82 bd
       -0.12283848 0.054988258 -0.1874727 -0.06374304
0002d0 8b 54 61 bd 76 4d 21 be 26 c0 51 3d bf b7 16 3e
       -0.055012267 -0.15752205 0.051208638 0.14718531
0002e0 cd 46 ae bd 56 8a 12 be 9a 24 c4 bc 0c 7d c0 bb
       -0.08509598 -0.14310583 -0.023943234 -0.0058742817
0002f0 e2 1b be 3d 3d 8f bc bd 00 b8 be bc 95 d3 00 be
       0.09282662 -0.09207008 -0.023281097 -0.12580712
000300 e6 5f 2f be 61 95 b4 bd b0 11 59 bd 0a d7 47 3d
       -0.17126426 -0.08817554 -0.052995384 0.04878906
000310 19 05 76 3d 21 05 43 be f9 4d 71 3d 72 2d 3d be
       0.060063455 -0.19044925 0.05891225 -0.18474367
000320 fd 04 c5 bd 33 68 ac 3d 8b 2f 50 bd eb f2 2d 3d
       -0.09620092 0.08418312 -0.05082659 0.042467993
000330 2d 93 6e be 48 90 5f be f8 fb 19 bd fd 12 64 be
       -0.2329833 -0.21832383 -0.03759381 -0.22272868
000340 0f 58 79 3d d3 63 0b 3e fb 97 ee bd ef a2 cc 3d
       0.060874995 0.13612299 -0.11650082 0.099920146
000350 d6 8f fe bd 35 34 29 be a1 4a e6 3c bd 77 08 3c
       -0.12429778 -0.16523822 0.028111758 0.008329329
000360 1e 7e 04 3e 0f b7 51 bd b6 1a 9c bb 5a 29 14 3e
       0.12938735 -0.05119997 -0.0047639264 0.144689
000370 18 d6 4c be 91 13 15 3c 00 aa 05 bd d6 77 2d 3b
       -0.20003545 0.009098903 -0.032632828 0.0026469133
000380 cf c5 10 3d 34 50 1c be 4c 2a 2e be f1 64 a1 bd
       0.035344895 -0.1526497 -0.17008322 -0.07880581
000390 ce 4a 10 be 63 91 16 bc 93 b7 82 3d bf cb 58 be
       -0.14091036 -0.009189936 0.0638267 -0.21171473
0003a0 ac c3 9b 3d 19 11 47 3d c5 dc 20 bd da 99 1a bc
       0.07605681 0.04860029 -0.039273042 -0.009436095
0003b0 02 65 8f be 42 79 80 be 2a ba 3e be e0 c9 ac bd
       -0.2800675 -0.25092512 -0.18625703 -0.08436942
0003c0 bf c4 bf bd 97 94 0b 3e 76 10 20 3e 02 98 cc bd
       -0.09363698 0.13630901 0.1563128 -0.09989931
0003d0 4f ce 87 be d9 2c aa bb a8 76 8a bc 96 9a 71 3d
       -0.26524588 -0.0051933345 -0.016902283 0.058985315
0003e0 db db 01 be 7f 54 9e 3d 8d 78 0e be d0 d1 12 3e
       -0.12681524 0.0773096 -0.13913174 0.1433785
0003f0 21 8a 80 bd b5 a4 6d be b5 c0 5b 3c 03 20 ef 3d
       -0.06276346 -0.23207362 0.013412644 0.116760276

gnn.convs.0.nn.lins.1.bias f4 [32]
000000 f4 82 b6 bd 72 48 62 be 87 6e 08 3e 5f da 1e bd
       -0.08911696 -0.22097948 0.13323413 -0.038782474
000010 cb 5a 06 be c7 13 a2 bd a8 88 25 be f4 19 78 be
       -0.13120572 -0.079139285 -0.16165411 -0.2422865
000020 ce df 68 be e6 20 53 3d f6 aa 2e 3e 75 73 d0 bd
       -0.22741625 0.051545046 0.17057404 -0.10178272
000030 38 dd dc bb 42 84 a8 3d 18 a5 14 3d 3e cf bc 3d
       -0.0067402385 0.08228351 0.03629026 0.09219216
000040 f9 d4 39 bd fb ed d0 bd 97 5d 5a be 57 e5 46 be
       -0.045369122 -0.10201641 -0.21324764 -0.19423424
000050 30 02 ce bd 82 72 70 be bf e5 15 3e c5 19 a9 bc
       -0.10059011 -0.23481181 0.14638422 -0.02064217
000060 08 66 7f be 2b 76 38 bd b8 ed 6b bc e0 f3 61 be
       -0.24941266 -0.04503457 -0.014399938 -0.22065687
000070 fd ea 3e 3e 5f 17 fb 3c ab cc 18 bd f4 af 7a be
       0.18644328 0.030650793 -0.03730456 -0.24481183

gnn.convs.1.nn.lins.0.weight f4 [32, 32]
000000 e0 e4 fe bd bf 39 8f bb b5 e1 07 be f7 4a 09 be
       -0.12445998 -0.0043708975 -0.13269694 -0.13407503
000010 be c4 97 3c 25 87 4d 3d 58 d7 ec bd 77 ee d6 3d
       0.018526431 0.050177712 -0.11564511 0.10494702
000020 10 a2 3c 3e a2 0f 8b 3e aa 8f 27 bd 2b 9d 0e 3e
       0.18421197 0.27160364 -0.040908493 0.13927142
000030 1e 6e 26 be 5b 75 4d bd 26 8d 67 3d 0a 8e 42 be
       -0.16252944 -0.050160747 0.056531094 -0.18999496
000040 69 35 2a bf 7a c4 c3 3c 92 f6 b8 bc 15 c6 23 3d
       -0.6648775 0.023897398 -0.022578511 0.039983828
000050 23 88 a4 bd 6f 16 31 be 4f bf 3e be 6d 31 cb 3d
       -0.080337785 -0.17293714 -0.18627666 0.099215366
000060 25 20 e0 bd 05 09 8f 3b 26 f3 8c 3d fc cd 90 bd
       -0.10943631 0.004365089 0.068823144 -0.070705384
000070 f0 0f fe 3d 72 02 02 3e 75 98 85 3d 38 ca 24 be
       0.124053836 0.12696245 0.065232195 -0.16092765
000080 90 a0 bc bd b9 b6 10 bc e2 dc 07 be 89 a9 7e bd
       -0.09210312 -0.008832627 -0.13267854 -0.0621734
000090 2f 87 10 bc 92 2a 75 b9 dd e8 f0 3b 1b 73 78 3d
       -0.008821293 -0.0002338088 0.007351978 0.060656648
0000a0 18 c7 75 bd db d2 b2 bd fe eb b8 bd d8 92 02 be
       -0.060004324 -0.08731624 -0.09029387 -0.12751329
0000b0 6b 44 52 bc 16 67 8f be 65 3f 11 3d 5f 26 ef bc
       -0.012833695 -0.28008336 0.03546085 -0.029193101
0000c0 18 7c 44 3e 7b ef c3 bd 60 9e c9 3c b3 dc 22 bd
       0.19187963 -0.09567162 0.024611652 -0.039761256
0000d0 c0 0a 6f 3e 3d a1 00 be 60 23 a1 bd 01 7b ac bd
       0.23343945 -0.12561508 -0.07868075 -0.08421899
0000e0 a3 46 77 be 40 ea b1 bb 7c 24 a4 bc 9d ab 3e be
       -0.2414804 -0.005429536 -0.020036928 -0.18620153
0000f0 e6 d4 78 bd 27 c8 5c be 2b f3 5e bd 73 b8 1c be
       -0.06074991 -0.21560727 -0.05443112 -0.15304737
000100 15 98 cd bd 02 30 85 be 39 aa cd be df b1 c4 be
       -0.10038773 -0.2601319 -0.40168932 -0.38416955
000110 09 08 08 3e 32 e9 58 bc 41 b7 9f 3c e9 d9 1e 3d
       0.13284315 -0.013239192 0.019496562 0.038782034
000120 79 33 e6 bc d5 c3 e1 bd c1 eb 26 be 9c b5 b0 3d
       -0.028100716 -0.1102368 -0.1630087 0.08628389
000130 4f f9 0d be 0c 1f f9 bd ab af 22 bc ba 4e 66 3e
       -0.13864635 -0.12164125 -0.009929578 0.2249097
000140 55 a4 d1 3c 0a 47 05 3e cc 73 9e 3d 48 e5 e9 bd
       0.025591055 0.1301538 0.0773693 -0.11420685
000150 00 ea 00 be 61 ac 4e bd dd ad 6c be fb 4c 1b 3e
       -0.12589264 -0.050457362 -0.23113199 0.15166084
000160 e4 9f b2 3d c7 78 71 3d 85 8f 45 be 5c a6 43 bd
       0.08721903 0.058953073 -0.1929303 -0.047766075
000170 52 96 38 3d 9b 1c f6 bd 00 8e 08 3e 3b 03 0f be
       0.04506523 -0.12017175 0.13335419 -0.13966076
000180 b2 03 95 3e 61 e3 93 bd 57 82 d9 3e be 27 9b 3d
       0.29104382 -0.072211035 0.42482254 0.075759396
000190 a2 ed 13 bd ad a1 16 3d 17 57 37 be 32 70 76 bc
       -0.036115296 0.03677528 -0.17904316 -0.015041398
0001a0 c2 64 1a 3e 37 27 a1 3d bc 45 8d 3d e9 6d 42 3d
       0.15077499 0.07868808 0.068980664 0.0474681
0001b0 f4 0c 02 3e fa 4b e9 3d 65 ec 09 3e 39 6e 5f 3e
       0.12700254 0.113914445 0.13469084 0.2181939
0001c0 d2 c1 97 bc f8 bf 05 be 12 f4 10 be 42 4d 2d 3e
       -0.018525038 -0.13061512 -0.14155605 0.16924003
0001d0 f1 15 16 3d 3f 97 ba bd 7e fb 81 3d c2 a6 3c 3c
       0.03664202 -0.09110879 0.063467965 0.011514368
0001e0 d3 32 25 3e 5f 48 26 bc 67 0b d1 3d cd 63 ea bd
       0.16132669 -0.010149091 0.10207253 -0.11444817
0001f0 cf 75 66 3e ef 5d 88 3d ca f4 29 3d 01 25 ac be
       0.22505878 0.066585414 0.041493215 -0.33621982
000200 66 ce b6 3d 84 da 8a bb eb e5 00 be ea a3 68 be
       0.08926086 -0.004237475 -0.12587707 -0.22718778
000210 91 16 51 3d 5d a2 ab 3d d9 42 2d 3e af 06 a6 3d
       0.05104691 0.08380578 0.16920032 0.081067435
000220 f8 6f bb bc c1 be d0 bd e7 7f 3c be 14 dd e4 3d
       -0.02288054 -0.101926334 -0.18408166 0.1117498
000230 3c be ea bd ea 15 8c 3c bb b9 7a be 89 e7 40 3c
       -0.114620656 0.017100293 -0.24484913 0.011773952
000240 df 2c ba be 2a 0a 61 3e 08 c3 88 bd 58 40 43 3c
       -0.3636236 0.21976534 -0.06677824 0.011917196
000250 80 2d 19 3b b5 91 fd bd 68 99 23 be 22 99 3e be
       0.0023373067 -0.12381307 -0.15976489 -0.18613103
000260 a1 ac d2 bc b8 cb dd 3d 83 80 c7 bd b7 9a 94 bd
       -0.025717082 0.10829872 -0.097413085 -0.07256072
000270 3b 37 25 be 90 d5 33 ba 35 f1 f6 bd 5a 31 6e bd
       -0.1613435 -0.00068601314 -0.12057725 -0.058152534
000280 0d dc fb 3d 65 46 8e be 7c a2 9b 3e 76 1f 37 be
       0.12297831 -0.27788082 0.30397403 -0.17883095
000290 b6 4a 01 be 7e 43 11 3d 3d 3c 7c bd 44 fe 9e 3d
       -0.12626156 0.035464756 -0.061580885 0.07763341
0002a0 9b f0 56 3d 31 3f 83 3e c4 74 72 3e 2f 8f 9e bd
       0.052475553 0.2563415 0.23677355 -0.07742154
0002b0 a8 2e d7 bd 1b 4a 33 3c 40 ef f1 3d 5b 93 4a 3e
       -0.10506946 0.010942961 0.118132114 0.19782774
0002c0 18 74 68 bc 2d 34 35 be f0 7f 82 bc 3e bc c6 bd
       -0.014187835 -0.17695685 -0.015930146 -0.09703873
0002d0 13 1b 1c be 80 63 2d be db 93 fe bd 11 87 0f be
       -0.15244703 -0.16932487 -0.12430545 -0.14016367
0002e0 90 6c 8d 3e ab aa 95 bd ed ed 86 3d 57 9b ed bd
       0.2762189 -0.07307943 0.065883495 -0.11601894
0002f0 b8 17 bd 3d 19 1a 21 3d 77 4c c4 bd a3 01 8b be
       0.092330396 0.03933153 -0.09584897 -0.27149686
000300 38 62 cc 3d f5 ba d6 3b 02 fd b8 3e b3 c1 ec bd
       0.09979671 0.0065530487 0.3613053 -0.11560383
000310 25 10 8e 3c f0 0c 52 be 8a aa c9 3b 3f d5 5f 3e
       0.017341683 -0.20512748 0.006154363 0.2185869
000320 bd 63 29 be b7 f2 bb bd f6 ae 0f 3e 0f c7 d5 3d
       -0.16541953 -0.091771536 0.14031586 0.10438358
000330 0a 43 25 be e0 90 81 3d 8f da 08 3d 7e 8e a1 3d
       -0.16138855 0.06326461 0.03341156 0.07888506
000340 98 0d 68 3e fb e7 43 be 6e 6e 55 bc c8 04 96 3c
       0.22661436 -0.19131462 -0.013026817 0.018312827
000350 5e df e4 3d cd e1 21 3d e0 4c c3 3d 98 c5 df 3d
       0.111754164 0.03952198 0.09536147 0.1092636
000360 e5 dc a7 3e 5e c9 bf bb b0 af f0 3d 8b f9 91 3d
       0.32785717 -0.0058528623 0.1175226 0.07127675
000370 f4 a6 82 3e 76 7e 4f 3e 17 04 9d bd d8 c2 45 be
       0.25518 0.20263085 -0.07666796 -0.19312608
000380 05 7b 00 be e2 9b 27 3d 7a 63 8c 3b 05 e8 89 bd
       -0.12546928 0.040920146 0.0042843195 -0.06733707
000390 8c a6 cd bc d4 82 b0 3d ae db 87 3b 6d 9d 81 bd
       -0.02510383 0.086187035 0.004146061 -0.06328855
0003a0 b9 e6 1d bc b0 72 b5 be d2 d3 bb bd f8 77 1b 3d
       -0.009637528 -0.35439062 -0.09171261 0.037956208
0003b0 c1 07 1e be c1 12 38 bd 6e 2b 63 be 53 d0 da bc
       -0.15432645 -0.04493976 -0.22184536 -0.026710665
0003c0 c5 da 95 be 42 1e 60 be ed 63 8a bb e1 fe 33 be
       -0.2926847 -0.21886542 -0.004223338 -0.17577697
0003d0 10 cf 1f 3e b8 1a cd bd d3 d0 24 3d c2 b5 49 be
       0.15606332 -0.10014862 0.040238213 -0.19698241
0003e0 f2 35 26 be 30 ab ec 3d fe 2e 9d bd 30 c3 51 be
       -0.16231516 0.11556089 -0.07674979 -0.20484614
0003f0 52 35 8f bd 1d 7e c0 bd 6f 19 52 be 5d 72 dc bd
       -0.06992592 -0.09399054 -0.20517515 -0.107640006

gnn.convs.1.nn.lins.0.bias f4 [32]
000000 39 1d 77 3d b1 58 5d be 77 7b 80 be 77 68 6a 3d
       0.060330603 -0.21615864 -0.25094196 0.05722853
000010 2e 43 20 be 1f 76 34 3e 13 df 0f 3e 9e bc 7a 3d
       -0.15650627 0.17623185 0.1404994 0.061215036
000020 55 5e e5 bc e9 0c cf 3d 8b 58 5c bd 37 da 86 be
       -0.027999083 0.10109884 -0.05379538 -0.2633836
000030 4b 2d 38 be 8e 5a 74 be 4c db 9b bd 23 3a e6 bd
       -0.17986028 -0.23862669 -0.07610187 -0.112415574
000040 12 ae d7 3d 70 ec 56 3e 4c 45 e6 3d 51 b2 51 be
       0.10531248 0.20988631 0.11243686 -0.20478179
000050 1b e0 90 be be 8d 7d 3d d9 64 e0 3d cb ce 33 be
       -0.2829598 0.061902754 0.10956735 -0.17559354
000060 fe 6f 1b 3d 65 05 65 bd 9e 6a 85 be ac 6d 51 be
       0.0379486 -0.055913348 -0.26057905 -0.20451993
000070 e1 4c cc bd 29 1d 20 3e 6c ca dd bd 72 ba 94 3d
       -0.09975601 0.15636124 -0.108296245 0.07262124

gnn.convs.1.nn.lins.1.weight f4 [32, 32]
000000 1b 41 4c be 40 e5 2d 3d 42 83 46 bc 91 e0 ba 3d
       -0.19946711 0.042454958 -0.012116255 0.09124864
000010 06 e5 32 3e f9 c0 16 3e 4d 0b 02 be bc b8 79 bd
       0.17470178 0.1472205 -0.12699623 -0.060967192
000020 e5 62 c0 bc 83 71 d0 bd ee 7b 87 bd eb 83 57 3d
       -0.023484657 -0.10177901 -0.066154346 0.05261604
000030 a8 50 1d be c3 51 d8 3d 39 b9 48 be f1 74 75 bc
       -0.15362799 0.1056247 -0.19601907 -0.014981494
000040 93 82 8c 3d bf d5 d8 3d 81 3a 9c 3c 96 d0 e1 bd
       0.068608426 0.10587644 0.019070866 -0.11026113
000050 fc f5 35 3d 23 b2 44 bc aa ec 15 3d 62 4a 4f bd
       0.044424042 -0.012005362 0.036602654 -0.050608046
000060 ac 17 af bc 25 94 e3 3d 7c cc e0 bd d2 85 29 3e
       -0.021373592 0.11112241 -0.10976502 0.16554955
000070 df a3 2e 3e f7 d1 f5 bd 42 92 2e be c6 f9 2e bc
       0.170547 -0.12002938 -0.1704798 -0.010679668
000080 87 c3 68 be ae fc 12 3e 7c b1 a0 bc 9b 5f 89 3d
       -0.22730838 0.14354202 -0.019615881 0.067076884
000090 39 5f 00 3e e6 c1 95 bd 89 c3 8f bd f2 5a 29 bd
       0.12536325 -0.07312374 -0.07019717 -0.041346498
0000a0 0b d7 1c 3d 8b 9f e6 3d 2f 0e c6 bc 89 64 34 be
       0.03829102 0.11260899 -0.024176685 -0.17616476
0000b0 da 5a 03 3d 75 5e b4 bd bd c4 1f bd 5f c2 e9 bd
       0.032069065 -0.08807079 -0.039005984 -0.114140265
0000c0 c6 88 38 3e 8a 4c 0e be 43 e1 1b 3d 73 cc ba 3d
       0.18020925 -0.13896385 0.038056623 0.09121027
0000d0 ad 3a 16 3e 41 5d 69 be bc 3c 75 bd 30 b3 6a be
       0.1467082 -0.2278948 -0.059872374 -0.22919917
0000e0 6d d5 90 3c 2f 39 e9 bd a7 bd 21 be 2e ae 51 bd
       0.017679894 -0.1138786 -0.15795003 -0.0511915
0000f0 ea ae 1a be 7e a3 9b 3d 87 6d 15 be d1 f0 5e be
       -0.15105787 0.07599543 -0.14592563 -0.21771552
000100 a0 47 81 3d ed b4 be 3d 08 39 1a be 35 27 25 be
       0.063124895 0.093118526 -0.15060818 -0.16128238
000110 21 fe c2 bc 19 60 be bd 32 34 89 bd 8f cf e1 bc
       -0.023802819 -0.09295673 -0.066994086 -0.027564792
000120 53 5a 26 be fa 4f 21 be 76 ad 84 bd bf f1 16 be
       -0.16245393 -0.15753165 -0.064783975 -0.14740656
000130 8b 78 44 be df 50 e2 3d 08 a2 da bd d4 7e 0c be
       -0.19186608 0.11050581 -0.10675436 -0.13720256
000140 6d 75 1b be 52 74 47 bd 9d 59 2f 3e 36 70 67 bd
       -0.15181513 -0.048694916 0.17124029 -0.056503497
000150 0c e0 a0 3b 4a ff 05 be 43 28 dd 3d 32 ea bb bb
       0.004909521 -0.13085666 0.10798695 -0.0057347054
000160 54 6b f0 bd 93 bd 65 be 2b 99 25 3e fe c3 c3 3d
       -0.11739221 -0.22435598 0.1617171 0.09558867
000170 a9 5f 1f be b3 dd ce bc 75 1f ed 3d 4b 0c 14 be
       -0.15563835 -0.025252199 0.115782656 -0.14457814
000180 18 a8 5f bd f7 98 d8 3c 58 46 89 bd 1f 4f d8 bc
       -0.054603666 0.026440127 -0.0670287 -0.026404915
000190 b5 00 df 3c 1f 25 e4 3d a8 6b f5 bd 42 8d 0d bc
       0.027222017 0.11139893 -0.119834244 -0.0086396355
0001a0 3a 64 81 be a1 1e e1 3c 4a 08 17 3e f1 4a a0 3d
       -0.2527178 0.027480425 0.14749256 0.07826794
0001b0 85 52 01 bd da ef 55 bd 17 0e 50 be c6 9f 68 3d
       -0.031572837 -0.052230693 -0.20317875 0.056792997
0001c0 f0 07 1f bd 41 ce 8b 3d 23 03 b8 bd 33 47 c5 bc
       -0.03882593 0.06826449 -0.08984973 -0.024081802
0001d0 62 9e cf bd a7 fc a5 3d 81 48 72 bd 14 9b d0 3d
       -0.10137631 0.0810483 -0.059151176 0.10185829
0001e0 42 ef e1 bc c5 98 de 3c 93 8e 15 be 8f 7b 39 be
       -0.027579907 0.027172456 -0.14605169 -0.1811354
0001f0 c7 5f 38 3d ec a1 24 be ff c0 ca 3d 79 6e 0a 3c
       0.045013215 -0.16077393 0.09900092 0.00844919
000200 d7 b5 eb 3c a6 e2 9e 3d 10 2d 0e bd 7e 0c 12 be
       0.028773231 0.077580735 -0.034710944 -0.14262578
000210 f6 18 1c be 16 50 29 be b8 a9 10 be 7f ca 85 bd
       -0.15243897 -0.16534457 -0.14127243 -0.06532764
000220 8b ae 42 3d 48 df 4c bd af d8 35 bd 5c b1 f9 3d
       0.04752974 -0.050017625 -0.0443961 0.12192032
000230 7e cf df bd de ac 14 3e 53 b5 24 be 71 eb e4 3d
       -0.10928248 0.14519069 -0.16084795 0.111777194
000240 95 f4 d2 3d 7c f3 14 bd f3 7a 7c bc 7a e3 22 be
       0.103005566 -0.036365017 -0.015410173 -0.15907088
000250 0e 0f fd bd 26 a1 b8 3d 18 43 a1 3d 42 d8 cf bd
       -0.12356387 0.090151116 0.07874125 -0.1014867
000260 cf 3c c4 bd f7 70 eb bd f9 26 88 bc 43 72 c2 bd
       -0.09581911 -0.11496156 -0.016620146 -0.0949445
000270 ee e2 aa 3c 0d de 18 be b9 01 b5 3d 94 ef 02 bd
       0.020860162 -0.14928456 0.08838219 -0.03196676
000280 6a fe c1 bc 7f 11 6b 3e 95 fe 75 be 61 7b 75 bc
       -0.023680884 0.22955893 -0.24022897 -0.014983029
000290 a7 c1 e8 3c 0e 08 e9 3d 89 a9 e6 bd 4e 79 43 3b
       0.028412653 0.113784894 -0.11262805 0.0029826942
0002a0 12 f4 74 bd 64 d8 05 3e 11 3f 5a 3e ea de 87 3d
       -0.059803076 0.13070828 0.2131312 0.06634314
0002b0 2e c3 f7 bd 5e 3a d0 bd 32 2a 97 bd 66 8c a3 3c
       -0.120977744 -0.10167383 -0.07381095 0.019964408
0002c0 27 f5 3e 3c 75 c1 eb 3d 34 e6 40 be 7f 58 b4 3b
       0.011655129 0.115115084 -0.18837816 0.0055037136
0002d0 c3 97 91 3c c4 08 0f be 07 69 57 3e 42 7f 68 3e
       0.017772561 -0.13968188 0.21036159 0.22704795
0002e0 78 c7 40 be be 0d ce 3d da c1 e0 bd 3c 2a c5 bd
       -0.18826091 0.10061215 -0.10974474 -0.09627196
0002f0 71 f6 a8 3d 07 3b 57 be db 98 54 3e 88 56 f2 3d
       0.0825013 -0.21018611 0.20761435 0.11832911
000300 8a 04 fc bc d9 45 4a 3c 1f 77 84 be 21 73 53 3e
       -0.030763883 0.012345755 -0.25872132 0.20649387
000310 01 78 4c bd f4 82 4b 3e 2c ab 72 3e 46 9b b3 bd
       -0.049919132 0.19874173 0.2369811 -0.087698504
000320 35 b3 91 3e 74 d2 19 bd 0b 6c 15 be f7 f1 0a be
       0.28457037 -0.03755422 -0.14591996 -0.13568865
000330 a7 a1 11 be 72 01 17 bd 17 19 f5 3d a1 58 55 be
       -0.14221822 -0.036866613 0.11967676 -0.2083459
000340 d9 26 94 bd d6 dd fc 3d ac a5 72 3e c9 2f a7 bd
       -0.07233972 0.12346999 0.23696011 -0.08163411
000350 99 8f ce be 19 a0 65 3d 49 88 ad 3e 75 31 2d bd
       -0.4034393 0.056060884 0.3389304 -0.042283494
000360 c4 68 00 be ff 5b 03 3e 13 47 1a be b1 94 11 bd
       -0.12539965 0.12828062 -0.15066175 -0.035542194
000370 8c 3e 08 3e 38 58 b3 3e 3c e9 be bd 12 ac b1 3e
       0.1330511 0.35028243 -0.0932183 0.34701592
000380 f5 3d ac 3d e6 95 e3 bd a9 2d 57 3e c9 af 44 3e
       0.08410255 -0.11112575 0.21013512 0.19207682
000390 19 a1 1c bd fb 37 20 bd 81 7f 67 bd c5 e4 a4 3c
       -0.038239572 -0.039115887 -0.05651808 0.020128617
0003a0 d4 3d ec 3c da 83 08 3e 1e 4b 3a be d2 da 1c bd
       0.028838076 0.13331547 -0.18192717 -0.03829462
0003b0 06 83 55 3d a5 b5 99 bd 9f 89 1f 3e d1 bb 5a be
       0.052126907 -0.07505349 0.15579842 -0.21360709
0003c0 f8 10 2b 3c 07 3d ec 3d 16 ab 59 3e a1 8a 3b be
       0.010441057 0.115350775 0.2125667 -0.18314601
0003d0 60 e8 25 3e 66 6c 7e 3e 78 ce 18 3e 87 fa c5 bd
       0.16201925 0.24846038 0.14922512 -0.09666925
0003e0 72 61 3c be 7c 18 fc bd 7e 33 53 be 51 b9 9b bd
       -0.18396547 -0.123093575 -0.20625111 -0.07603706
0003f0 af eb 33 bd c2 20 53 3e 33 85 a8 bd 48 d1 45 3e
       -0.043925937 0.20617965 -0.08228531 0.19318116

gnn.convs.1.nn.lins.1.bias f4 [32]
000000 be e2 04 3a ce 2a 3a be 69 2a 04 bc 64 ca 6a be
       0.00050691876 -0.18180391 -0.008066752 -0.22928768
000010 a8 db aa bd e9 a2 2c 3e 6e 98 28 bc ce e6 c4 3d
       -0.08342677 0.1685902 -0.010290248 0.09614335
000020 00 ff 69 3d 2f 54 70 bd 96 1d 82 be 66 99 48 3e
       0.057127953 -0.058674034 -0.25413197 0.19589767
000030 ae e5 42 3d 12 45 01 be 61 2f eb 3d a1 47 c8 bc
       0.04758232 -0.12624004 0.11483646 -0.024448218
000040 26 15 0f be 33 48 52 3e a3 22 8d bd 77 68 35 3d
       -0.13972911 0.20535354 -0.06891372 0.04428908
000050 0c 94 e3 3d 98 68 eb 3d 6f d2 97 3c 8d fc 98 bd
       0.11112222 0.11494559 0.01853296 -0.07470045
000060 0a d6 e9 bd 1b 0a 2a bd 50 16 f1 3d 31 b8 3b 3e
       -0.11417778 -0.041513544 0.11771834 0.18331982
000070 78 82 a1 3d be cc 97 3d 94 9c 3e bd d8 1b 97 bc
       0.07886213 0.07412098 -0.046536043 -0.018445894

gnn.convs.2.nn.lins.0.weight f4 [32, 32]
000000 da 23 fb 3b 34 c0 a5 be b8 2e ce 3d c7 f0 0e 3d
       0.007664186 -0.32373202 0.10067505 0.034897592
000010 79 86 e9 3d ef 97 f0 bd 8f 47 7c bd bd 9f 87 be
       0.11402602 -0.11747729 -0.06159168 -0.26489058
000020 35 d6 d8 bd 41 ae 8a bd c6 55 6b be 3f 4d b9 3d
       -0.10587732 -0.067715175 -0.22981939 0.09047937
000030 11 da 39 be 64 4f e6 3d 0f a5 ec bc 73 8c 9b 3d
       -0.18149592 0.11245611 -0.0288873 0.07595148
000040 3e 3a cd bd 2f 0e c5 bd 62 65 5f be d5 9c 61 3e
       -0.100208744 -0.09621846 -0.21816018 0.22032483
000050 54 cd 50 bd 31 9b 7d be 48 cb b5 bd 6e 44 0f be
       -0.050977066 -0.24766232 -0.088766634 -0.13990948
000060 f5 74 4f 3d 1a fd e2 bd 84 28 6b be 65 7a 1b 3e
       0.05064865 -0.110834315 -0.22964674 0.15183409
000070 9b ef 76 3e 5b ea 42 be 15 93 ef bd 61 f5 fc bd
       0.2411484 -0.19034712 -0.116979755 -0.1235149
000080 92 97 31 bd 1a aa 33 3c 5a a0 2a be 53 84 b8 bd
       -0.04335744 0.010965848 -0.16662732 -0.09009614
000090 7c 97 30 3e 54 79 54 be 17 0d 70 be 23 78 5f be
       0.17245287 -0.20749408 -0.23442493 -0.21823172
0000a0 f1 71 da bd 0a 75 54 be f1 43 81 be bc b5 f5 3c
       -0.10666264 -0.20747772 -0.25247148 0.029993884
0000b0 7d 4c 05 be 4a 52 b8 3d 74 e9 c4 bd c0 d5 ee bd
       -0.13017459 0.090000704 -0.0961484 -0.11661863
0000c0 70 ee 8f bd 46 88 15 3e 2b de 16 be cf f7 00 be
       -0.070279 0.14602765 -0.14733188 -0.12594531
0000d0 64 2e 58 be 42 45 56 3d 5d 5a 91 3d d5 de b7 3d
       -0.21111447 0.052312143 0.070973136 0.08978049
0000e0 c4 fe 2d bd 27 6c b5 bd 5e b0 72 be 00 d1 2b be
       -0.04247929 -0.08858519 -0.23700091 -0.16778946
0000f0 25 d7 05 be ed 12 bf 3d 32 ac b6 bd 23 ca 94 3c
       -0.13070352 0.09329782 -0.089195624 0.018162793
000100 2c 89 01 bc b4 54 2d 3e 2d 44 b9 3a aa 14 1f be
       -0.0079062395 0.16926843 0.0014134698 -0.15535226
000110 90 d9 22 be 22 28 84 3d 04 d7 9b 3d ab 63 b8 bc
       -0.15903306 0.06452967 0.0760937 -0.022508463
000120 6f f8 17 3e d4 ef 44 bc ac d3 d4 be 0c 04 06 3e
       0.14840864 -0.01202007 -0.41567743 0.13087481
000130 62 83 83 bd e5 0d fd bd 08 02 8b bd 70 49 65 bd
       -0.06421544 -0.12356166 -0.06787497 -0.05597824
000140 ac 82 a1 3d 1b a0 8a 3e 6b 7a ac 3d e3 cb 21 3d
       0.07886252 0.27075276 0.08421787 0.039501082
000150 cc 60 c2 bd 15 a2 b1 3d f9 77 ff bd f8 a9 f7 3c
       -0.09491119 0.08673493 -0.12474055 0.030232415
000160 b6 e8 91 bb 5b 32 91 be 8b 0c c3 3d 1b b4 5b 3c
       -0.00445279 -0.2835873 0.09523877 0.01340964
000170 95 7a 98 3d b9 80 10 3e 81 3a c8 3d a9 4e 7b 3d
       0.07445256 0.14111604 0.09776784 0.061354313
000180 2f a6 ab bd 9e 68 33 be e6 69 66 3d 95 24 bf bc
       -0.083813064 -0.17520377 0.056253336 -0.023332873
000190 35 82 80 3d e1 cb 2e be b4 a9 18 be 3c 87 68 be
       0.06274835 -0.17069961 -0.14908487 -0.22707838
0001a0 2b aa 27 3d c6 f3 a6 3d 49 68 5e be cd f9 4d be
       0.04093377 0.08151965 -0.21719469 -0.20114823
0001b0 49 22 51 3c 71 06 2b 3e 6c 5a 86 be 38 27 95 bd
       0.012764522 0.16701676 -0.2624086 -0.07282871
0001c0 ec c1 d5 3d 26 51 e5 bd 61 b0 4b be 1c 03 c1 3d
       0.10437378 -0.111971185 -0.19891502 0.09424421
0001d0 98 fd 15 be fe 7d 9a bd c5 66 03 be db 93 1f bd
       -0.1464752 -0.07543562 -0.12832172 -0.038959365
0001e0 70 c4 a2 3c 12 02 e4 3d b3 70 4d be c7 86 50 be
       0.01986906 0.111332074 -0.20062523 -0.20363913
0001f0 14 9e 4b be cd 83 b5 bd fc 3d 13 be 9f 3c 24 be
       -0.19884521 -0.0886303 -0.14379114 -0.1603875
000200 30 17 5d 3d 32 9b 7c bc 3c 8e bc 3d bb 17 5b 3e
       0.05397719 -0.015417861 0.092068166 0.21395771
000210 8d e7 18 be 0e ae 38 bc 8b 96 61 3e 3c c1 72 3d
       -0.1493208 -0.011271967 0.22030084 0.059266314
000220 5f 3c 06 3e 44 45 d4 ba bc 2e 43 bf b7 21 c1 3e
       0.13108967 -0.0016194959 -0.76243186 0.37721035
000230 cf 2e 2d 3e ac 32 1a be 70 c1 fc 3d 86 ed 3c 3d
       0.16912387 -0.15058392 0.12341583 0.046124958
000240 cc d4 19 3e 9c e9 8a 3e e6 2a 22 3e 05 d8 16 3c
       0.15022582 0.27131355 0.15836677 0.0092067765
000250 59 99 89 3d e2 95 dd 3c 1a b1 3a 3e 81 84 98 bd
       0.06718702 0.027049009 0.18231621 -0.07447148
000260 7b 89 a1 bd c8 c0 42 bd 9e e9 ca 3d f6 ec 00 3d
       -0.078875504 -0.04754713 0.0990784 0.031475984
000270 28 78 18 bc 23 42 4b 3e 0c a4 37 3d d7 11 0c 3e
       -0.009305991 0.19849448 0.04483418 0.1367868
000280 2e 9c 48 3d 78 68 21 3e de b9 88 bd 1b 84 dd 3c
       0.04897707 0.15762508 -0.06676076 0.027040532
000290 42 a8 0d 3e 36 1a 93 be e8 0e fc 3d 2d 52 27 3e
       0.13833717 -0.28730935 0.12307531 0.16339941
0002a0 e2 60 a7 3e 74 00 83 3c 1d 35 ad be c4 65 39 3e
       0.32691103 0.015991427 -0.33829585 0.18105227
0002b0 85 aa b6 3d 10 b9 b3 bc e2 1f 25 3e 79 12 4e be
       0.08919243 -0.02193883 0.16125444 -0.20124234
0002c0 0b aa b0 3b 58 1f 1d 3f 69 d1 4c 3d 56 6b c0 bb
       0.0053913645 0.6137595 0.050004397 -0.0058721704
0002d0 f6 77 3a 3d 7f e2 42 3e d8 4e 4d 3e b4 6b 5f 3c
       0.04552456 0.19031714 0.20049608 0.013636518
0002e0 9a 30 a5 3d 25 1c 92 3e 36 56 8f 3d 49 da 62 be
       0.08065911 0.28537098 0.06998865 -0.22153582
0002f0 8b 88 45 3e 83 b1 c6 3e 1a 84 da 3d 49 73 de 3d
       0.19290368 0.38807306 0.106697276 0.10861833
000300 13 47 1a 3e 50 a1 94 bd 1b 86 7b 3d d1 fb cc bd
       0.15066175 -0.072573304 0.06140719 -0.10008968
000310 99 30 96 3d 5e a3 0b bd e1 4c b4 3d 99 93 d9 3d
       0.07333488 -0.034091346 0.08803726 0.10623855
000320 29 9f b3 3e 26 0a 08 3e b0 15 ea be 4c f1 86 3e
       0.35082367 0.13285121 -0.4571967 0.2635597
000330 fd 18 5e 3e a6 db be bd c2 e4 ff 3d 1d e7 46 bd
       0.2168922 -0.09319238 0.12494804 -0.04856025
000340 e7 bc 39 bc f7 0b aa 3e f1 56 02 3e 4b d7 74 3e
       -0.011336542 0.33212253 0.12728478 0.23910253
000350 45 e3 57 3e d0 b8 d2 bc ba c8 42 3c e0 9c 35 3d
       0.2108279 -0.025722891 0.011888677 0.04433906
000360 cd c5 40 3d ac 97 68 3e 92 fe 8a bd 64 50 60 3d
       0.047063638 0.22714108 -0.06786837 0.054764166
000370 fb f5 9d 3d 13 b6 8e 3e 4c 38 b8 3d 36 62 89 3e
       0.07712933 0.27873287 0.08995113 0.26832741
000380 b3 74 6b 3d c3 f9 30 be 98 2d 7a 3e 50 a9 08 bd
       0.05748434 -0.17282777 0.24431455 -0.033364594
000390 8a 29 90 bc 67 09 09 bd 8c 54 8a bd 30 94 75 be
       -0.017597932 -0.033456232 -0.06754407 -0.2398231
0003a0 46 2a 92 3c e1 30 05 bd 88 89 4b bc bc a2 6d 3d
       0.017842423 -0.032517318 -0.012422927 0.058016524
0003b0 57 f8 5b be 17 cd aa 3b e5 41 8e 3d dd 99 15 3c
       -0.21481453 0.005212437 0.06946162 0.009130922
0003c0 e4 36 2f be 3e b5 9c bc 83 0a 40 3c 2f 88 59 bc
       -0.17110783 -0.019129392 0.011721256 -0.013277098
0003d0 c1 77 c7 bc 3c d2 b6 3c 4d 9d d7 bc a2 1e 3a be
       -0.024349095 0.022317044 -0.026320124 -0.18175748
0003e0 21 dc 2c be 65 b7 21 be dc d9 21 be 34 ba 9e 3d
       -0.16880848 -0.15792616 -0.15805763 0.07750359
0003f0 20 50 fa bd 6f 12 77 bc ff 0e 6e 3c 28 08 b5 bd
       -0.12222314 -0.0150800785 0.014529943 -0.08839446

gnn.convs.2.nn.lins.0.bias f4 [32]
000000 9c da 85 bd d1 24 d4 bd c9 cd f2 3d 47 14 91 bd
       -0.06535837 -0.10358585 0.11855657 -0.07083946
000010 3e b6 59 3e 62 c0 c1 3d 9c 02 90 3d 42 0f 7d bd
       0.21260926 0.09460522 0.07031748 -0.06178213
000020 3c e0 57 3e ec 54 57 3e ea df 25 bd d3 72 d4 bc
       0.21081632 0.21028489 -0.040496744 -0.025933659
000030 2c 5b b1 3c 28 c0 9e 3d 2d 6e 9b bd a8 7e 84 3e
       0.02164992 0.07751495 -0.07589374 0.2587788
000040 cb 97 63 bd 47 20 8d 3d 01 bc 20 3d ae 22 67 3e
       -0.055564683 0.06890922 0.039241794 0.22571823
000050 11 39 3e be 43 61 89 3d 08 dc a0 bc 48 44 f7 bd
       -0.18576457 0.06708004 -0.01963617 -0.120735705
000060 43 b3 27 be 0f 4b 19 3e ff 0f 4c be f0 de 6d 3e
       -0.16376977 0.14970039 -0.19927977 0.23229575
000070 7c 9b 29 3e 78 04 3b 3d 36 d4 31 3e 22 28 df 3d
       0.16563219 0.04565856 0.17366108 0.108963266

gnn.convs.2.nn.lins.1.weight f4 [32, 32]
000000 f2 ab 20 3e 9d 2b af 3c b9 e3 5c 3e 78 93 96 bd
       0.15690592 0.021383101 0.21571244 -0.07352346
000010 80 29 01 3e dd f5 09 3e 28 d0 f2 bc 2e 57 03 3e
       0.12613487 0.13472696 -0.029640272 0.12826225
000020 6b ea 04 3e 4a 66 71 bd 3d e8 fd 3d dc 31 e9 3c
       0.12980048 -0.05893544 0.123978116 0.028466158
000030 01 38 37 be 16 4f 5d 3e a8 0f cd bd 50 e0 93 bd
       -0.17892458 0.216122 -0.10012752 -0.072205186
000040 e0 a6 23 bc ad 81 43 3d cf e7 71 3d 6a 83 6c 3e
       -0.009988517 0.04773109 0.05905896 0.23097005
000050 73 73 49 be 00 9c b5 3d 21 7e 8c bd 45 f1 f2 3d
       -0.19672947 0.08867645 -0.06859995 0.11862425
000060 a6 0f 8d bd 0b 19 44 3d 21 1a be bc 97 3e 20 3e
       -0.0688775 0.047875445 -0.023205819 0.15648876
000070 e3 0f 0b 3e e3 6f 64 3d 0e 66 b2 3d 09 e6 29 bc
       0.13580279 0.055770766 0.08710872 -0.010369786
000080 29 ad 04 3d c8 91 18 3e d3 6f df 3d cf a0 d9 bb
       0.0323917 0.14899361 0.10910001 -0.0066414843
000090 2a 68 65 be 93 1c 44 3d 2a a0 62 be 64 f2 3c be
       -0.22403017 0.047878813 -0.2213141 -0.1845184
0000a0 4a 3a 2a be b9 67 e0 bd 11 e2 86 3d cd 94 5a be
       -0.16623798 -0.109572835 0.065860875 -0.21345825
0000b0 60 c8 1b be bf b1 cf 3d 83 33 59 be c3 59 58 3f
       -0.15213156 0.10141324 -0.21211056 0.84511966
0000c0 c2 fd 05 3d b9 89 b5 bd 9a cd 06 3d fa 59 cf bd
       0.032712705 -0.08864159 0.03291092 -0.101245835
0000d0 80 97 22 be 17 02 c1 bc c2 b2 93 3c 40 36 23 3d
       -0.15878105 -0.023560567 0.018029574 0.03984666
0000e0 1c 29 d7 bd 42 98 66 be 91 86 3b bd 5e bc ef 3b
       -0.10505888 -0.22519019 -0.04578263 0.0073161563
0000f0 70 8d 6c bd f9 4b 1c bd 00 9a 27 be 52 55 6a be
       -0.057752073 -0.03815839 -0.1636734 -0.2288411
000100 59 c0 f5 be cc c7 25 be 66 dc 4c 3d 92 e3 00 3e
       -0.47998312 -0.16189498 0.050014876 0.12586811
000110 57 e3 aa 3e f5 bb 90 3e 70 c5 92 3d 7c 0a 93 bd
       0.33376572 0.282684 0.071665645 -0.07179734
000120 7c 6c 1b be e7 41 9a 3e 6a 8f 91 3e a0 2f 1b 3d
       -0.15178102 0.30128404 0.2842973 0.037887216
000130 b9 40 24 3e 4f 96 1c be ed 80 4a 3f 3c 79 82 bd
       0.16040315 -0.15291713 0.79102975 -0.0637078
000140 48 16 e1 3d 08 8c 1d be 04 fe 30 3c 6c ba 35 3e
       0.10990578 -0.15385449 0.01080275 0.17746896
000150 59 e9 a2 bd a6 55 89 3d d6 be b0 be ef af 5a 3c
       -0.07954664 0.06705789 -0.34520596 0.01334761
000160 39 a5 8b be 2d 81 a0 3e 18 1b a8 3d 62 ef 2b be
       -0.27274492 0.31348553 0.08208293 -0.16790536
000170 4e 95 37 be c1 34 01 3e 97 cc 5a 3d c7 59 48 bd
       -0.17928049 0.1261778 0.05341777 -0.048913743
000180 c5 67 a4 bd b2 d8 6e bd c4 d6 2a bd 42 d6 c5 bc
       -0.08027605 -0.058312126 -0.041708723 -0.024150018
000190 91 5f 03 bc 94 87 ec bd 65 df 05 bd 78 0a 28 bc
       -0.00801839 -0.11549297 -0.03268375 -0.010256402
0001a0 cc 52 98 bd 7a e4 14 be 03 73 07 3d 64 f9 86 3d
       -0.07437667 -0.14540282 0.033068668 0.06590536
0001b0 8b 0d af bd 69 73 e6 3c 6c 03 e4 3d cd ef 13 be
       -0.08547505 0.028131204 0.11133465 -0.14446945
0001c0 ab dc 49 be 34 da 83 3d a1 58 50 3e d6 23 42 3c
       -0.19713084 0.06438103 0.20346309 0.011849364
0001d0 01 2a be bc 3d 1e b3 bd 21 38 32 be 9b 14 a8 3d
       -0.023213388 -0.08746002 -0.17404224 0.08207055
0001e0 c8 17 c9 3d d5 8c 92 bd 8a c0 ab bd 1e ed 16 be
       0.09818989 -0.07155768 -0.08386333 -0.1473889
0001f0 ea 01 53 be 6b 0c 92 bd 01 b4 69 3d a8 3c 8f 3d
       -0.20606199 -0.07131275 0.05705643 0.06993991
000200 45 c9 14 3e 57 88 55 3e ec ab 7b be e9 67 1f 3e
       0.14529903 0.20852791 -0.24577302 0.15566982
000210 bd bf 22 bd 16 7b 49 be e8 a2 67 be d6 c3 3a 3e
       -0.039733637 -0.1967586 -0.22620738 0.18238768
000220 db ee a3 3c 4a d9 00 3d 37 8d 8c be 9c 49 97 bc
       0.020011356 0.031457223 -0.27451488 -0.018467717
000230 c9 f9 a6 3d 35 eb 8c 3d 42 e8 9e bc 56 9c ae 3e
       0.081531115 0.068808 -0.019397859 0.3410365
000240 4b 2a 8f bd 61 3a 1d be f3 66 55 bd 10 af 4b 3c
       -0.069904886 -0.15354301 -0.052100133 0.012431875
000250 b1 81 4c be 90 e2 04 3e 6f 4b 8a 3e a7 2b 4c 3e
       -0.19971348 0.12977052 0.27010676 0.19938527
000260 e1 50 2f be 4e 5e 0a be 8f b4 5a 3d 82 46 b1 3d
       -0.17120697 -0.13512537 0.05339485 0.086560264
000270 cf 50 cb 3c 56 38 2b be 31 4c 22 bd b4 8a 97 bd
       0.024818806 -0.16720709 -0.039623443 -0.073995024
000280 eb 61 07 3d b9 f4 25 bd c5 b9 f7 3d 35 aa 01 3e
       0.033052366 -0.04051659 0.120959796 0.12662585
000290 4d c3 74 3e f1 60 99 3e 9f 84 60 3e c9 51 a9 bd
       0.23902626 0.29956773 0.21925591 -0.082675524
0002a0 b0 ca 80 bd 41 43 dc 3e 19 66 cb 3e a3 4e 80 bd
       -0.062886596 0.4302006 0.39726332 -0.06264999
0002b0 fb 2e f3 3d 99 c5 fc bd 9d d7 22 be 94 e8 a7 be
       0.11874195 -0.12342376 -0.15902562 -0.3279463
0002c0 f8 a8 1f 3e a7 0e 91 3c d6 a4 aa 3e 66 a3 07 3f
       0.155918 0.017707182 0.33328885 0.529837
0002d0 a4 2f 4f bd e6 8b 07 3e 67 a8 0e be e1 38 25 be
       -0.050582543 0.13236961 -0.13931428 -0.16134979
0002e0 43 ac 23 3e c3 73 bd 3e fc 9f a5 bd 9e 8e 01 be
       0.15983681 0.37002382 -0.08087155 -0.1265206
0002f0 50 94 fb bc a1 6d df 3d d7 ae 3e 3e ce ea 64 bb
       -0.03071037 0.10909582 0.18621384 -0.0034929994
000300 ce 23 26 3e 46 50 29 bd 00 a0 1f bd 0b 8b 1b 3d
       0.16224596 -0.04133632 -0.038970947 0.0379744
000310 d5 4c 6d bd e3 4a 38 3c ae ae d0 bc 5e fc 15 be
       -0.0579346 0.011248323 -0.025473919 -0.14647052
000320 3e 40 87 bd a6 73 ae 3d 62 8a e2 bd ce a0 b8 bd
       -0.0660405 0.08518152 -0.11061551 -0.09015046
000330 af 7b c4 bd cc f4 af 3d bf 57 c6 bd e2 bd e0 bd
       -0.09593903 0.08591613 -0.09684705 -0.10973717
000340 e1 dd 48 39 82 42 85 bc b6 39 65 3d f0 95 9a bb
       0.00019156143 -0.016267065 0.05596324 -0.004717581
000350 e0 3d d8 bd 7e 64 69 bd 68 5e 2a 3d 2e 45 47 be
       -0.10558677 -0.056980602 0.04159394 -0.19459984
000360 f2 58 40 3c e6 8a dc 3b 61 8c 17 be f6 8f 33 be
       0.011739956 0.006730425 -0.14799644 -0.17535385
000370 d6 c8 d0 bd 25 52 67 be 76 e0 cf 3c ca b6 25 3e
       -0.101945564 -0.2258993 0.025375586 0.1618301
000380 48 43 69 be cb 35 1d 3e 27 80 89 3d 86 86 8f bd
       -0.22779572 0.15352552 0.06713896 -0.0700808
000390 0b cf c2 bb e8 a4 f9 3d e6 ad 07 3e c4 58 9c bd
       -0.0059450916 0.121896565 0.1324993 -0.07634118
0003a0 a7 43 b9 3d fc 89 61 3e 55 aa 1d 3e fb 1f bb bc
       0.09046107 0.22025293 0.15397008 -0.022842398
0003b0 63 86 27 3e 29 a7 ef bc 60 d3 1f 3e 6a ed 02 bf
       0.16359858 -0.029254513 0.15607977 -0.51143515
0003c0 d5 fe f8 3d 07 11 2e 3e bb 6a 39 bd 2b bf 87 3e
       0.1215798 0.16998683 -0.0452678 0.26513037
0003d0 e7 27 3f 3e e5 66 d4 bd e6 df 75 bd e2 3c d4 3d
       0.18667565 -0.10371188 -0.06002798 0.10363175
0003e0 43 45 62 3b 33 33 25 bc 88 cb 93 bd 55 32 74 3d
       0.0034526146 -0.010083008 -0.07216555 0.059618313
0003f0 cc 75 7f be d3 5d ae 3d c6 e0 19 3e 17 6d b8 3d
       -0.2494728 0.08513989 0.1502715 0.09005182

gnn.convs.2.nn.lins.1.bias f4 [32]
000000 a6 b0 fd 3c 3d 9f bf 3d b9 99 85 bd 3c 72 1d be
       0.030968022 0.09356544 -0.06523461 -0.15375608
000010 6a 8c 05 be 34 95 34 bd 24 2b c2 bd 3d 62 80 bc
       -0.13041845 -0.044087604 -0.09480885 -0.015671844
000020 d4 f2 83 3d 71 1f a8 3d fe 2d 8a bd 84 5b 39 be
       0.064428 0.08209122 -0.067470536 -0.18101317
000030 41 8b 4e be 3c 54 41 3e a1 5f bd bc 86 fb f8 bd
       -0.20170309 0.18879789 -0.023116888 -0.12157349
000040 f8 67 8a 3d 7b a4 5d 3e 9d 57 20 be d9 cd ea bd
       0.06758112 0.21644776 -0.15658422 -0.114650436
000050 3a d0 46 bd 73 00 8c 3e dc 43 82 bd e0 fb 81 bc
       -0.048538424 0.27344093 -0.063605994 -0.015867174
000060 87 a9 f8 bd 61 be 5d be 62 56 b9 bd 97 e4 53 bd
       -0.1214171 -0.21654655 -0.09049679 -0.051731672
000070 14 6a fd 3d 22 2e 10 be c2 4d 33 3a f8 34 58 be
       0.123737484 -0.14080098 0.0006839895 -0.21113956
