Run_GIN_ModelCheckpoint_EvFr_2/NCI1_reps_2_folds_5_epochs_20_2023-04-26_11-05/rep_1_fold_4/checkpoints/model_trial_4.ckpt (torch, 245261 bytes, 86 tensors)

gnn.convs.0.nn.lins.0.weight f4 [32, 37]
0	0x3e01b0de	0.12665126
1	0x3e030245	0.12793835
2	0x3e04e97a	0.12979689
3	0x3e5a729c	0.21332783
4	0xbedd0a70	-0.43172026
5	0xbd910711	-0.07081426
6	0x3eb0aeb6	0.34508294
7	0x3ebc2066	0.36743468
8	0xbf16f398	-0.58965445
9	0xbdea8245	-0.11450628
10	0xbe831148	-0.25599122
11	0xbe8ca17d	-0.27466956
12	0xbe99e92d	-0.30060712
13	0xbe523ba2	-0.2053056
14	0xbdd99a87	-0.10625177
15	0xbded0878	-0.11573881
16	0x3d6f94e2	0.058491595
17	0xbe3e6ac9	-0.18595423
18	0xbebfb310	-0.374413
19	0xbf05aa19	-0.52212673
20	0x3ea325e2	0.3186484
21	0x3f48ef13	0.784898
22	0x3d3b1e3a	0.045683123
23	0xbe182c86	-0.14860734
24	0xbf002ff6	-0.5007318
25	0xbf0793a3	-0.5295965
26	0xbefc5d31	-0.4928985
27	0xbd918e20	-0.07107186
28	0x3e949ff7	0.29028293
29	0x3ce5dd2d	0.028059566
30	0x3e88a263	0.2668639
31	0x3d93d8b2	0.07219066
32	0x3f017995	0.50576144
33	0xbe20bc5a	-0.1569685
34	0x3e45acb5	0.19304164
35	0x3dbdef06	0.09274106
36	0x3e79c048	0.24389756
37	0x3f0b323a	0.54373515
38	0x3eb2b1e1	0.34901336
39	0xbdfc3465	-0.12314681
40	0x3f20488b	0.6261069
41	0xbf5396ab	-0.82651776
42	0x3d8db032	0.06918372
43	0xbe5a0241	-0.21289922
44	0xbdb6e3a3	-0.08930137
45	0xbc8b5560	-0.017008483
46	0xbcf96419	-0.030443238
47	0xbdae7f82	-0.08520414
48	0xbd3ef571	-0.04662079
49	0xbdbc131b	-0.091833316
50	0x3e3d31cd	0.18476029
51	0xbe1b2134	-0.15149385
52	0xbd5e15ca	-0.05422
53	0xbe1dce1f	-0.1541066
54	0x3be2eff1	0.006925576
55	0xbc8842c0	-0.016633391
56	0x39d99502	0.00041500485
57	0x3e2bd103	0.1677895
58	0x3f778ebd	0.96702176
59	0xbd7e1979	-0.06203601
60	0xbdd35944	-0.103197604
61	0x3d51f4e4	0.051258937
62	0xbdc81b3d	-0.0977082
63	0xbedd3ce0	-0.43210506
64	0x3b8e14c8	0.0043359734
65	0x3f087523	0.53303736
66	0x3e127b7f	0.14304923
67	0xbce91622	-0.028452937
68	0xbe235161	-0.15949012
69	0x3f2ddae6	0.6791214
70	0xbdc99f28	-0.0984481
71	0xbdd51e25	-0.1040614
72	0x3dc450b8	0.095857084
73	0x3e30fb69	0.17283405
74	0x3f1dbd26	0.6161674
75	0x3e1e3eed	0.15453692
76	0xbe51a964	-0.20474774
77	0x3f38cf36	0.7219118
78	0xbf4cb3ef	-0.79962057
79	0x3dfd7bb4	0.1237711
80	0xbe80d209	-0.25160244
81	0x3f184de7	0.5949387
82	0xbdb8b6bf	-0.09019231
83	0xbdf272b0	-0.11838281
84	0xbe23ff0d	-0.16015263
85	0xbd6689b3	-0.056283664
86	0xbe52db1c	-0.20591396
87	0x3d7c43de	0.06158816
88	0xbe0fcacc	-0.14042205
89	0xbdde319d	-0.10849307
90	0xbe0b74a6	-0.13618717
91	0xbdff153d	-0.12455223
92	0xbdc89f1e	-0.09795974
93	0x3d05c018	0.032653898
94	0x3f0486fd	0.51768476
95	0x3f86be5b	1.0526842
96	0xbdf30b4b	-0.11867388
97	0xbe6b3846	-0.22970685
98	0xbe1d9094	-0.15387183
99	0xbe5e9e45	-0.21740063
100	0xbebbbe85	-0.36668792
101	0xbde867f3	-0.11347952
102	0x3f0ddd6c	0.5541599
103	0xbdae20eb	-0.08502372
104	0x3f67a9ba	0.9049336
105	0xbd8322aa	-0.06403096
106	0x3f0e8e6e	0.5568608
107	0x3ed37021	0.41296485
108	0xbe269481	-0.16267587
109	0xbdfc579d	-0.123213984
110	0x3e055d9f	0.13023995
111	0xbd8c2e3c	-0.06844756
112	0xbdbf2d2a	-0.09334786
113	0xbbefe943	-0.007321508
114	0x3dd4c2cb	0.10388716
115	0xbe3e3d4d	-0.18578072
116	0x3e70d985	0.23520477
117	0xbd73e178	-0.059541196
118	0x3c8a0962	0.016850177
119	0x3f308045	0.68945724
120	0x3e80202c	0.25024545
121	0xbd10f7fd	-0.03539275
122	0xbd4749f0	-0.048654497
123	0x3e5f5a61	0.2181182
124	0xbebc8442	-0.36819655
125	0xbab13c26	-0.0013521954
126	0x3e35765d	0.17720933
127	0xbdeb1127	-0.11477881
128	0x3e312a6e	0.17301342
129	0x3c42fcf8	0.011901133
130	0x3cb6c272	0.022309516
131	0xbea9e37d	-0.33181372
132	0xbee3e34a	-0.44509345
133	0x3d39ed05	0.045392055
134	0x3dc072c9	0.093968935
135	0x3e2d4b97	0.16923366
136	0x3d43683c	0.047706828
137	0x3e2a4b7a	0.16630355
138	0x3e2fe155	0.17175801
139	0xbdb06fa8	-0.08615047
140	0xbddb5b04	-0.10710719
141	0xbdb30b67	-0.08742409
142	0xbd2b4729	-0.04181591
143	0xbd84634d	-0.064642526
144	0x3d821e27	0.06353407
145	0xbddace74	-0.10683909
146	0xbe116015	-0.14196809
147	0x3d57966b	0.052633684
148	0xbe6c4061	-0.23071434
149	0xbea1f9bd	-0.31635848
150	0xbcb00d94	-0.02149085
151	0xbdc2a29d	-0.09503672
152	0x3a87f5e0	0.0010372959
153	0x3dc41719	0.09574718
154	0x3f2576ea	0.64634573
155	0xbc61db89	-0.013785251
156	0xbde97319	-0.11398906
157	0xbd00fae2	-0.03148926
158	0xbde694df	-0.11258864
159	0xbc018620	-0.007905513
160	0xbe18b0bf	-0.14911173
161	0xbe4d504a	-0.20050159
162	0x3d1633c3	0.036670458
163	0x3d8f6f3b	0.070036374
164	0xbe0c0b44	-0.13676172
165	0xbd957ad3	-0.072988175
166	0xbd898863	-0.06715467
167	0xbd38c8bb	-0.045113306
168	0xbe01b239	-0.12665643
169	0xbd946c1d	-0.072471835
170	0xbd8a9dbc	-0.06768367
171	0x3d009c3a	0.03139899
172	0xbdf9aa08	-0.12190634
173	0xbe0a2c39	-0.13493432
174	0x3ea3d026	0.31994742
175	0x3d921d31	0.07134474
176	0x3e984796	0.29742116
177	0xbdee717f	-0.116427414
178	0xbe203c12	-0.15647915
179	0xbd8e7d4c	-0.06957492
180	0x3f1cb5fc	0.61215186
181	0x3d659f23	0.056059968
182	0xbd8e52f5	-0.069494165
183	0xbe085990	-0.13315415
184	0xbdacfeee	-0.084470615
185	0x3e117b86	0.14207277
186	0x3e3f6fd1	0.18694998
187	0xbe01eba9	-0.12687553
188	0xbdf1404c	-0.11779842
189	0x3e433181	0.19061853
190	0x3e57cc7a	0.21074095
191	0xbdf40907	-0.11915784
192	0xbe9b5ce5	-0.3034431
193	0x3fa9223d	1.3213574
194	0x3ee009dd	0.43757525
195	0x400277c7	2.0385606
196	0x3f155105	0.5832675
197	0x3f608d4c	0.877156
198	0x3e9ed7b7	0.31023952
199	0x3ed57b00	0.41695404
200	0xbe209b3f	-0.15684222
201	0xbe8ae14d	-0.27125016
202	0xbd962e86	-0.073330924
203	0x3f5e667a	0.86875117
204	0x3f29eada	0.6637398
205	0xbe2b062f	-0.16701578
206	0xbe5778cb	-0.21042173
207	0x3e1002d4	0.14063579
208	0x3f83be23	1.02924
209	0x3f61fdeb	0.88278073
210	0x3f457652	0.7713367
211	0x3e910fe1	0.28332427
212	0x3f00dd0c	0.5033729
213	0xbe45e3c9	-0.19325174
214	0xbeb20a8e	-0.34773678
215	0xbdf70a71	-0.120625384
216	0x3d46f3e5	0.04857244
217	0xbde5ece1	-0.11226822
218	0xbe0a88ab	-0.13528697
219	0xbe129e21	-0.14318134
220	0xbd850690	-0.06495392
221	0xbe482f35	-0.19549258
222	0x3ddc2668	0.10749513
223	0xbf0c0271	-0.54691225
224	0xbf4aa8d8	-0.79163885
225	0xbf652125	-0.895037
226	0x3f0c70e8	0.5485978
227	0xbee0a849	-0.4387839
228	0xbd782aa9	-0.06058756
229	0xbe0b5a0d	-0.1360857
230	0xbe862ea3	-0.26207456
231	0x3f5f4168	0.87209177
232	0x400a16e7	2.1576478
233	0x3f166832	0.5875274
234	0x3fb55170	1.4165478
235	0xbe2ecc15	-0.17070039
236	0x3ede525a	0.43422204
237	0x3f13871d	0.5762804
238	0xbea645b1	-0.32475045
239	0x3f78d831	0.9720488
240	0x3e534b3e	0.20634171
241	0x3befed45	0.007321986
242	0x3f3d1639	0.73862034
243	0xbcead8cc	-0.02866783
244	0xbd1d315b	-0.038377147
245	0x3fa3400e	1.2753923
246	0xbc5473de	-0.012967078
247	0xbecfc1a3	-0.4057742
248	0x3f14260b	0.5787055
249	0x3f118166	0.5683807
250	0xbe2e0cd1	-0.16997077
251	0x3f166771	0.5875159
252	0xbe618426	-0.22023067
253	0x3e0bae25	0.1364065
254	0xbdd32f00	-0.10311699
255	0xbe385706	-0.18001947

gnn.convs.0.nn.lins.0.bias f4 [32]
0	0x3d1aaba7	0.037761357
1	0xbe68f94c	-0.22751349
2	0xbae7e3a7	-0.0017691747
3	0xbe75e9d8	-0.24014986
4	0xbd959b2e	-0.07304989
5	0xbc06a847	-0.008218831
6	0x3bed53cf	0.007242657
7	0xbe9bfd93	-0.304669
8	0xbec89535	-0.39176336
9	0x3c35e8d6	0.011102876
10	0xbdcaaf3a	-0.09896703
11	0xbcec3185	-0.028832207
12	0xbdbb99e4	-0.09160212
13	0xbd604894	-0.054756716
14	0xbd2d8b5d	-0.042369235
15	0x3a0aec85	0.00052995264
16	0xbc15c885	-0.009142046
17	0x3b425c69	0.0029657132
18	0xbea51b60	-0.32247448
19	0xbcfa3d05	-0.030546675
20	0xbe8b4654	-0.27202094
21	0xbed11b7e	-0.40841287
22	0xbe09214f	-0.13391612
23	0x3db7190e	0.08940326
24	0xbe66af5c	-0.22527832
25	0xbdb648fe	-0.08900641
26	0xbe3bcb6f	-0.18339323
27	0xbd970f20	-0.07375932
28	0x3e36645c	0.17811722
29	0xbe6a6377	-0.22889505
30	0xbdbb544e	-0.09146939
31	0xbe6988b3	-0.22806053

gnn.convs.0.nn.lins.1.weight f4 [32, 32]
0	0xbe712496	-0.23549113
1	0xbe0885a6	-0.13332233
2	0xbf133c3e	-0.575138
3	0x3dc69491	0.096963055
4	0xbdef6511	-0.11689199
5	0x3da02f29	0.07821495
6	0x3ef0176c	0.4689287
7	0xbd76a06e	-0.06021159
8	0xbe3c9f09	-0.18420042
9	0x3e3d1e56	0.18468603
10	0xbd8d7567	-0.06907158
11	0xbdcce906	-0.10005383
12	0x3e3b6ab0	0.18302417
13	0x3e70cd62	0.23515847
14	0x3dafaaf1	0.08577526
15	0xbc673367	-0.014111376
16	0xbd9229c2	-0.07136871
17	0x3dfd6efe	0.12374686
18	0xbd5ba1a5	-0.053620953
19	0x3d53c6e2	0.05170334
20	0xbd2fa8ec	-0.042885706
21	0xbf4e72c7	-0.80643886
22	0xbb9c5599	-0.004770946
23	0x3d9c0cd3	0.076196335
24	0xbe2c0227	-0.16797696
25	0x3e0cebdb	0.13761847
26	0x3ca64aa8	0.02029927
27	0x3e75b182	0.23993495
28	0x3e5fe478	0.21864498
29	0x3e58beb3	0.21166496
30	0x3c24e6ba	0.010064775
31	0xbd9861d2	-0.07440533
32	0x3e73eb0b	0.2382013
33	0x3f50d329	0.81572205
34	0x3f18fbde	0.5975932
35	0xbe8f108c	-0.27942312
36	0xbd9e7a1f	-0.077381365
37	0x3dcca1a1	0.09991766
38	0xbf1d05ee	-0.61337173
39	0x3d492298	0.049105257
40	0x3f4ebb6e	0.80754745
41	0x3e49d2ac	0.19709271
42	0x3e071f27	0.13195477
43	0xbe6bc8b2	-0.23025778
44	0xbe52077f	-0.20510672
45	0x3e7a1974	0.24423772
46	0xbf087dfc	-0.53317237
47	0x3e17ba7a	0.14817229
48	0x3ebdcbbd	0.37069502
49	0x3ed7395b	0.42035946
50	0x3ccc78a6	0.024959873
51	0x3dda6312	0.106634274
52	0xbeaa9f8e	-0.33324856
53	0x3f94695b	1.1594652
54	0xbe8b90a2	-0.27258784
55	0xbee20e80	-0.44151688
56	0x3f205b30	0.6263914
57	0xbe7e996e	-0.24863216
58	0xbeae76ae	-0.3407492
59	0xbde1cdda	-0.11025591
60	0xbe91c0cd	-0.28467408
61	0x3e183715	0.14864762
62	0xbd6c80d9	-0.057740066
63	0xbcf2094e	-0.029545452
64	0xbef5702d	-0.47937146
65	0xbe06aa84	-0.13150984
66	0xbf2501d8	-0.6445594
67	0xbd879dff	-0.06621932
68	0x3d6f9b1a	0.058497526
69	0x3e973a3f	0.29536626
70	0x3eb4695d	0.35236636
71	0x3ecfd6c4	0.4059354
72	0xbf17626e	-0.59134567
73	0x3dc2e0be	0.095155224
74	0x3ddb026b	0.106938206
75	0x3df2a28a	0.11847408
76	0x3d751f1c	0.05984412
77	0x3e8d0cfb	0.27548966
78	0xbda73bd4	-0.08165708
79	0xbcf9364a	-0.030421395
80	0x3ddbec3c	0.107384175
81	0x3da0d2c1	0.07852698
82	0xbd9ee3ff	-0.077583306
83	0x3e0be578	0.13661754
84	0xbeb182a2	-0.34669977
85	0xbf4240b1	-0.7587996
86	0x3ea40e7f	0.3204231
87	0xbe0956a9	-0.13411964
88	0xbe429bc8	-0.19004738
89	0xbcb0965b	-0.02155607
90	0xbdd360c8	-0.10321194
91	0x3f13c6b0	0.5772505
92	0x3eb64df2	0.35606343
93	0x3e3da3ad	0.18519469
94	0x3c802e48	0.015647069
95	0xbdf89e80	-0.121396065
96	0x3e286b9a	0.16447297
97	0xbdc117a1	-0.09428335
98	0xbea2c158	-0.31788135
99	0xbd6420ad	-0.055695225
100	0xbe283915	-0.16428025
101	0x3cab6f77	0.020927174
102	0x3f34db45	0.7064708
103	0x3bb9e1f6	0.0056726886
104	0xbebc2b81	-0.3675194
105	0x3e173cb0	0.14769244
106	0x3e843440	0.25821114
107	0xbd76c716	-0.060248457
108	0x3de52027	0.11187773
109	0x3d9dc662	0.07703854
110	0xbe86e4b2	-0.26346356
111	0xbd342bb0	-0.043986976
112	0x3dbe3c61	0.0928886
113	0x3d3e7804	0.046501175
114	0x3d97e6f3	0.07417097
115	0xbd25f963	-0.040521037
116	0xbf0a9e32	-0.54147637
117	0xbf3e2724	-0.74278474
118	0xbce47ef1	-0.027892562
119	0xbe1c6674	-0.15273458
120	0xbed6b1d5	-0.4193255
121	0x3d3d408c	0.046204135
122	0xbe18f0c1	-0.1493559
123	0x3e46fa0d	0.19431324
124	0x3e24204c	0.16027945
125	0x3dc7ffeb	0.09765609
126	0x3e8c1c22	0.27365214
127	0xbe1e434b	-0.15455358
128	0xbe9f5c00	-0.31124878
129	0xbdef0cb1	-0.116723426
130	0xbd6458b6	-0.055748664
131	0xbe21820a	-0.15772262
132	0xbcb35af6	-0.02189396
133	0xbe16a3b7	-0.1471089
134	0xbe29e749	-0.16592135
135	0x3d3fcb29	0.046824608
136	0xbce8c586	-0.028414499
137	0xbd9bae73	-0.07601633
138	0x3da3e24a	0.080021456
139	0xbd6b8023	-0.057495248
140	0xbd8c4899	-0.068497844
141	0x3e177334	0.1479004
142	0xbdd7ea0d	-0.105426885
143	0xbe331d84	-0.17491728
144	0x3dd0891d	0.10182402
145	0xbdff2550	-0.12458289
146	0xbd22aad2	-0.03971369
147	0x3da8ebdb	0.08248111
148	0xbb6b0ed7	-0.0035867
149	0xbe413517	-0.18867908
150	0xbe17234c	-0.14759558
151	0xbe399098	-0.18121564
152	0xbe5d895b	-0.21634428
153	0xbe58c2e8	-0.21168101
154	0xbe0c968f	-0.13729309
155	0x3d202e2f	0.039106544
156	0x3d03e46a	0.032200254
157	0x3ddcdf9a	0.10784836
158	0x3d9a42f4	0.075323015
159	0xbe1459dd	-0.14487405
160	0xbec6c18c	-0.3881954
161	0xbf2178be	-0.6307486
162	0xbebe7512	-0.37198693
163	0xbdfc2ade	-0.12312864
164	0xbc7c89e6	-0.015413737
165	0x3e2d30fc	0.16913217
166	0x3f6ee33f	0.933155
167	0x3e7e75ec	0.24849671
168	0xbf295f7f	-0.6616134
169	0xbd8662ad	-0.0656179
170	0xbdb01e45	-0.085995235
171	0x3e3965ef	0.18105291
172	0x3ee6b286	0.45058078
173	0x3ddc59fe	0.10759352
174	0x3d93ac2a	0.07210572
175	0x3d801ce4	0.062555104
176	0xbb4c92df	-0.0031215472
177	0x3e826a25	0.25471607
178	0xbea4b1c2	-0.32166868
179	0x3e52b4d6	0.20576796
180	0xbf19cc2f	-0.60077184
181	0xbf76a01e	-0.9633807
182	0x3f211a46	0.62930715
183	0x3df1397c	0.117785424
184	0xbeb7b730	-0.35881948
185	0xbd6dcece	-0.058058552
186	0xbe83c27e	-0.25734323
187	0x3ef3e5a4	0.4763614
188	0x3eebbf70	0.46044493
189	0x3dc2994e	0.09501897
190	0x3d7078d1	0.05870897
191	0xbd8d767b	-0.06907364
192	0xbe922be3	-0.28549108
193	0x3c134af6	0.00899004
194	0xbde73aa9	-0.112904854
195	0x3ddaf633	0.1069149
196	0x3e2b3305	0.16718681
197	0xbe19aca7	-0.15007268
198	0xbe03c0c1	-0.12866499
199	0xbddf822f	-0.109135024
200	0xbd355ea3	-0.044279706
201	0x3e0a8d13	0.13530378
202	0x3b47679f	0.0030426753
203	0x3dbc581b	0.09196492
204	0xbe34ede4	-0.17668873
205	0xbe3aac2f	-0.18229745
206	0x3bf0bef3	0.0073469817
207	0xbe82c0b2	-0.2553764
208	0x3db156b9	0.08659119
209	0x3d862ec4	0.065518886
210	0xbd75ad52	-0.059979744
211	0x3e475dab	0.19469325
212	0xbda5ccc6	-0.08095698
213	0xbecf0452	-0.40432984
214	0x3dc5a60a	0.0965081
215	0x3d3c1c85	0.045925636
216	0x3d652d8a	0.055951633
217	0xbd2e7198	-0.0425888
218	0x3e0f0fe1	0.13970901
219	0xbb771a1d	-0.0037704774
220	0xbdf1d83c	-0.118088216
221	0x3cc68e85	0.02423788
222	0xbdf62290	-0.12018311
223	0x3e07c3ca	0.13258281
224	0x3d10c5cf	0.035344895
225	0xbd370299	-0.04468021
226	0xbe2e2a4c	-0.17008322
227	0xbd5b45be	-0.05353331
228	0xbe104ace	-0.14091036
229	0x3c83dc24	0.016096182
230	0x3d82b793	0.0638267
231	0xbe3f57d8	-0.18685853
232	0x3d9bc3ac	0.07605681
233	0x3d97b29e	0.074071154
234	0xbd20dcc5	-0.039273042
235	0x3c832870	0.016010493
236	0xbe829aba	-0.25508672
237	0xbe66f0b4	-0.22552758
238	0xbe24b99e	-0.16086432
239	0xbd732dd6	-0.059369884
240	0xbd8c49cf	-0.06850015
241	0x3d5c580d	0.05379491
242	0x3e201076	0.1563128
243	0xbdcc9802	-0.09989931
244	0xbe2431a1	-0.16034557
245	0xbbaa2cd9	-0.0051933345
246	0x3c0c77f5	0.008573522
247	0xbcc0c742	-0.023532514
248	0xbe01dbdb	-0.12681524
249	0xbbaaa127	-0.005207199
250	0xbe0e788d	-0.13913174
251	0x3e12d1d0	0.1433785
252	0xbd18d578	-0.037312955
253	0xbe5399bc	-0.20664114
254	0xbd8d850a	-0.06910141
255	0x3def2003	0.116760276

gnn.convs.0.nn.lins.1.bias f4 [32]
0	0xbcde5cf4	-0.027143933
1	0xbf2283ad	-0.6348217
2	0x3c50f332	0.012753295
3	0x3e85a8bb	0.26105294
4	0xbe1bc754	-0.15212756
5	0x3d09a8eb	0.03360836
6	0xbdfeaafa	-0.12434955
7	0xbe5e03ca	-0.21681133
8	0xbe7f96eb	-0.24959914
9	0xbe49f078	-0.19720638
10	0x3ee62956	0.44953412
11	0x3da23f7e	0.079222664
12	0x3ecc8183	0.3994256
13	0x3e1c48b7	0.15262114
14	0x3e81d96e	0.25361198
15	0x3e8e1445	0.2774984
16	0xbdde92ed	-0.108678676
17	0x3b7a6853	0.0038209155
18	0xbe776f1e	-0.24163482
19	0xbeb5c904	-0.35504925
20	0xbdc0cd6e	-0.094141826
21	0xbe70717c	-0.23480791
22	0x3b31e1ab	0.0027142565
23	0xbda9c1e6	-0.08288936
24	0xbe4da794	-0.20083457
25	0x3e327ce7	0.17430459
26	0x3e5b6cf0	0.21428275
27	0xbe5b4fca	-0.21417156
28	0x3a929c9c	0.0011185589
29	0xbdb8d712	-0.090253964
30	0x3c1cd238	0.009571604
31	0xbdd6dd87	-0.10491472

gnn.convs.1.nn.lins.0.weight f4 [32, 32]
0	0x3bed6ec0	0.0072458684
1	0x3e8e5a47	0.2780325
2	0xbe07ec0b	-0.13273637
3	0xbd0e3383	-0.034717094
4	0x3de161d8	0.1100499
5	0x3d82c1df	0.06384634
6	0xbe798123	-0.24365668
7	0x3dd6ee77	0.10494702
8	0x3e572082	0.21008494
9	0xbe00ae46	-0.1256648
10	0xbdee69bb	-0.1164126
11	0x3e278198	0.1635803
12	0xbe8824ae	-0.26590484
13	0x3d84d3cc	0.064857095
14	0xbd8ed96f	-0.06975066
15	0x3c8305cb	0.015993973
16	0x3da6d5b2	0.08146228
17	0x3c20f465	0.009823893
18	0x3aa1a363	0.0012332018
19	0xbcee9dd9	-0.029128002
20	0xbe19d824	-0.15023857
21	0xbd58ed49	-0.052960668
22	0x3dbd4567	0.09241753
23	0xbe22eb62	-0.15910104
24	0x3d876316	0.06610696
25	0x3cd35cdd	0.025801117
26	0x3e7a3b9f	0.24436806
27	0xbda6f171	-0.0815152
28	0x3e0b2701	0.13589098
29	0x3d787ef2	0.06066794
30	0x3de958aa	0.113938645
31	0xbe1c9346	-0.15290555
32	0xbdbc31e6	-0.09189205
33	0xbda74748	-0.08167893
34	0xbe310991	-0.17288806
35	0xbd73b759	-0.059501026
36	0xbc10872f	-0.008821293
37	0xbd8638a2	-0.065537706
38	0xbd44d42f	-0.048053917
39	0x3d78731b	0.060656648
40	0xbde1e243	-0.11029484
41	0x3d68345e	0.056690566
42	0xbe25c0ea	-0.16186872
43	0xbe738420	-0.2378087
44	0xbca7f6a0	-0.020503342
45	0xbe905350	-0.28188562
46	0x3d57fa3f	0.052728888
47	0xbd379e48	-0.044828683
48	0x3e3415fa	0.17586508
49	0x3e1f0715	0.15530045
50	0x3cc99e60	0.024611652
51	0xbdcd2831	-0.100174315
52	0x3d8a6891	0.06758226
53	0xbe00a13d	-0.12561508
54	0xbddb3678	-0.107037485
55	0xbddd2de2	-0.10799767
56	0xbe2c0a8b	-0.16800897
57	0xbd58ea9a	-0.05295811
58	0xbd3e0d9b	-0.046399694
59	0xbe012ddd	-0.12615152
60	0x3d4991d3	0.049211334
61	0xbe8754bb	-0.26431832
62	0xbe663dbd	-0.22484489
63	0xbd93de71	-0.07220162
64	0xbe97896d	-0.29597035
65	0xbd149d11	-0.036282603
66	0xbe31476d	-0.17312403
67	0xbe590b49	-0.21195711
68	0x3e080809	0.13284315
69	0xbe80fd6c	-0.25193346
70	0x3c9fb741	0.019496562
71	0x3e13a9d7	0.14420258
72	0xbe3ac8f8	-0.18240726
73	0x3d423968	0.047418028
74	0xbd127d32	-0.035763927
75	0x3ce0ca20	0.02744013
76	0xbe763cd4	-0.24046642
77	0xbe2edad4	-0.17075664
78	0x3a4b5221	0.00077560736
79	0xbc03c2d9	-0.008042061
80	0x3cfcc8f4	0.03085754
81	0x3d012747	0.0315316
82	0x3d9e73cc	0.0773693
83	0xbd566104	-0.052338615
84	0x3d7b2439	0.06131384
85	0xbd4eac61	-0.050457362
86	0xbbf48c95	-0.0074630477
87	0x3df9cb8b	0.12197026
88	0x3c6418e1	0.013921947
89	0xbd3b1811	-0.04567725
90	0xbd9f4da2	-0.07778479
91	0xbd43a65c	-0.047766075
92	0x3d2dfe20	0.04247868
93	0xbdca4ffd	-0.09878538
94	0x3c1a2f4d	0.009410691
95	0xbe5669c4	-0.20938784
96	0xbdeab242	-0.11459781
97	0xbf07d753	-0.53062934
98	0x3e68a188	0.2271787
99	0x3cc7c700	0.024386883
100	0x3c45b515	0.012067099
101	0x3e84d54d	0.25943986
102	0xbd5bb4f2	-0.05363936
103	0xbe430675	-0.19045432
104	0x3d2fc7b3	0.042915057
105	0x3e1a4379	0.15064801
106	0xbe412074	-0.18860036
107	0xbf15199f	-0.5824222
108	0x3de1f132	0.110323325
109	0xbd3d2677	-0.04617926
110	0xbd85a583	-0.065257095
111	0xbdbd2a8b	-0.0923663
112	0xbda18f0e	-0.07888614
113	0xbe1affbc	-0.15136617
114	0xbc009936	-0.007849028
115	0x3df2f63f	0.11863374
116	0x3e5d8ec3	0.2163649
117	0xbe584149	-0.21118654
118	0xbd7bcfbb	-0.061477404
119	0xbe09893a	-0.13431254
120	0xbdeec031	-0.11657751
121	0xbe545773	-0.20736484
122	0x3cc1dbb5	0.023664335
123	0xbe722180	-0.23645592
124	0x3c5fc4b8	0.013657741
125	0xbd1c050c	-0.03809075
126	0xbde2451e	-0.11048339
127	0xbc3e9c69	-0.011633971
128	0x3d9feb6d	0.07808576
129	0xbe9568b2	-0.2918144
130	0xbd96b247	-0.073582225
131	0xbe4a0bd1	-0.1973107
132	0x3d9b092e	0.0757011
133	0x3dac47ad	0.084121086
134	0x3e14b993	0.14523916
135	0x3da606af	0.081067435
136	0xbd95f793	-0.07322612
137	0x3e25e69d	0.16201253
138	0xbc58faa9	-0.013243356
139	0xbe894bf1	-0.2681575
140	0xbd507fcb	-0.050903123
141	0xbd0a0fc5	-0.033706445
142	0xbddc59d4	-0.10759321
143	0x3de9e602	0.11420824
144	0xbc6a6038	-0.014305167
145	0x3e46513a	0.19366923
146	0xbd88c308	-0.06677824
147	0x3dcf8ba6	0.10134058
148	0x3e40331b	0.18769495
149	0xbdfd91b5	-0.12381307
150	0xbdf244a9	-0.11829502
151	0xbd96d2c0	-0.07364416
152	0x3d89703e	0.067108616
153	0x3a18c3de	0.00058275263
154	0xbdded94f	-0.10881292
155	0xbd8b35b3	-0.06797352
156	0xbdf98e61	-0.1218536
157	0x3c85d59e	0.016337212
158	0xbe39744b	-0.18110768
159	0x3d0c4042	0.03424097
160	0xbddf6483	-0.10907843
161	0xbf556f3f	-0.83372873
162	0x3eb37a07	0.35054037
163	0x3d95ffbd	0.07324169
164	0x3d3b13ca	0.04567317
165	0x3ea27910	0.31732988
166	0x3c598ab7	0.013277701
167	0x3d5c968f	0.05385452
168	0x3e9a93ac	0.3019079
169	0x3d688afa	0.056773163
170	0x3f21c0a8	0.63184595
171	0xbd94bf0a	-0.07263
172	0x3eed4e53	0.4634882
173	0x3c2798fe	0.010229347
174	0x3f02d30c	0.5110328
175	0x3e87d6db	0.2653111
176	0xbcd3a468	-0.025835231
177	0xbd82011e	-0.06347869
178	0x3c8e46de	0.017367776
179	0xbc8f8848	-0.017521039
180	0x3d766de2	0.060163386
181	0xbe2d2bab	-0.1691119
182	0x3e06e5db	0.1317362
183	0xbd4ea96f	-0.050454553
184	0x3d252966	0.040322684
185	0x3de43eb1	0.1114477
186	0x3edb37a5	0.4281589
187	0xbb885b58	-0.0041612796
188	0x3db06c00	0.08614349
189	0x3e95ea66	0.29280394
190	0xbcc5a36f	-0.024125783
191	0x3de32011	0.110901006
192	0xbe388dd0	-0.18022847
193	0xbe33f301	-0.17573167
194	0x3dfb9174	0.12283602
195	0xbe19b589	-0.15010656
196	0x3dce03b1	0.10059298
197	0x3d42bfd2	0.047546215
198	0xbe143656	-0.14473853
199	0x3de4cbb8	0.11171669
200	0xbe44c4d2	-0.19215706
201	0x3ce780f2	0.028259728
202	0xbd74948f	-0.05971199
203	0xbe77030b	-0.24122255
204	0xbe1bf1a6	-0.152289
205	0xbd8b2916	-0.06794946
206	0xbd999bec	-0.07500443
207	0xbdc5164f	-0.09623396
208	0xbce4c6d4	-0.02792684
209	0xbd49d685	-0.049276847
210	0x3dd3fa01	0.10350419
211	0x3c9604c8	0.018312827
212	0x3e1cb98f	0.1530516
213	0x3e235285	0.15949447
214	0x3d3c81c6	0.0460222
215	0x3de0969e	0.10966228
216	0x3d7a5faf	0.061126407
217	0xbc9357b3	-0.017986154
218	0x3d178108	0.03698829
219	0x3d5657ec	0.052329943
220	0x3dd4d37b	0.10391899
221	0x3cb4fdfd	0.022093767
222	0xbdc0cef3	-0.094144724
223	0xbcf3b8e8	-0.029751256
224	0xbe0ad175	-0.13556464
225	0x3ebdd1ff	0.37074277
226	0xbe59c29f	-0.21265648
227	0xbe00d9e2	-0.12583116
228	0x3cdeef06	0.027213585
229	0xbe689f47	-0.2271701
230	0xbe035945	-0.12827022
231	0xbd819d6d	-0.06328855
232	0xbe8190ae	-0.25305694
233	0xbe995b1f	-0.29952332
234	0x3dd8ce94	0.10586277
235	0x3d449083	0.04798938
236	0xbe1c1d25	-0.15245493
237	0xbdcda630	-0.100414634
238	0xbe66db46	-0.22544584
239	0xbcd1bf83	-0.025604015
240	0x3de5ad17	0.11214655
241	0xbdf50fe0	-0.119659185
242	0x3e034967	0.1282097
243	0xbe880b77	-0.26571247
244	0x3caed5bc	0.02134215
245	0x3ca293d3	0.019845879
246	0x3d35b3cf	0.044360932
247	0xbc6c9641	-0.01444012
248	0xbe4cf782	-0.20016292
249	0xbc159b5f	-0.009131282
250	0xbeadc7c0	-0.3394146
251	0xbe5c6510	-0.21522927
252	0xbdf6215b	-0.12018081
253	0xbe1bd15f	-0.15216587
254	0xbe46bf83	-0.19408993
255	0xbd7440e7	-0.05963221

gnn.convs.1.nn.lins.0.bias f4 [32]
0	0x3921201a	0.00015366115
1	0xbe5e63af	-0.21717714
2	0xbe72b75a	-0.23702756
3	0xbe325186	-0.17413911
4	0xbe1f3ce3	-0.1555057
5	0x3e6d8e1e	0.23198745
6	0xbd5e94d5	-0.054341156
7	0x3cf5254e	0.029925015
8	0xbe08234a	-0.13294712
9	0xbe950445	-0.2910482
10	0x3d9a1723	0.07523944
11	0xbe8ea7f3	-0.2786251
12	0xbdb0153d	-0.08597801
13	0xbdf331a8	-0.118747056
14	0xbeba0a97	-0.36336204
15	0xbe3c525e	-0.18390796
16	0x3da9b561	0.082865484
17	0x3dd4a848	0.103836596
18	0xbea3d161	-0.3199568
19	0xbe6b1126	-0.2295576
20	0xbeae0718	-0.33989787
21	0xbd4d8d13	-0.050183367
22	0x3c826c07	0.015920652
23	0xbe31b375	-0.17353614
24	0xbe00cb6e	-0.12577602
25	0x3d58dbf4	0.05294414
26	0xbe3941e5	-0.18091543
27	0xbe5d0b6f	-0.21586393
28	0x3d97732c	0.07395014
29	0xbd924820	-0.07142663
30	0xbddfcdfa	-0.10927959
31	0x3dcdfa86	0.10057549

gnn.convs.1.nn.lins.1.weight f4 [32, 32]
0	0x3c4b4e93	0.01240887
1	0x3e130bb4	0.14359933
2	0x3d8cb5e3	0.0687063
3	0x3dfe18bc	0.124070615
4	0x3df0fbb8	0.117667615
5	0x3e8fbddd	0.28074542
6	0xbe386f07	-0.18011104
7	0xbdb17c55	-0.086662926
8	0xbd269b7a	-0.040675618
9	0x3eeb28d9	0.45929602
10	0x3d4c9b2c	0.04995267
11	0x3da588b7	0.08082717
12	0x3cb941a0	0.0226143
13	0x3e39bcc7	0.18138419
14	0xbea26f6f	-0.31725642
15	0xbd256f2d	-0.04038923
16	0xbb998992	-0.004685589
17	0x3e5ea74f	0.2174351
18	0x3deec187	0.11658006
19	0xba90e83c	-0.0011055539
20	0x3cf258b5	0.029583314
21	0x3cc62be1	0.024190845
22	0x3d8c4e31	0.06850851
23	0xbde203e0	-0.11035895
24	0x3e9e12d1	0.3087373
25	0x3e2b27a5	0.16714342
26	0x3e2a9c57	0.16661201
27	0x3df19597	0.1179611
28	0x3f011190	0.50417423
29	0xbe322925	-0.17398508
30	0xbe26c9b8	-0.16287887
31	0x3e6bb615	0.23018678
32	0xbdc95286	-0.09830193
33	0x3e12fcae	0.14354202
34	0xbca0b17c	-0.019615881
35	0x3d03d7ef	0.032188352
36	0x3df7da07	0.12102132
37	0xbd841b45	-0.06450514
38	0xbd4f0f6b	-0.050551813
39	0xbdd482fe	-0.10376547
40	0x3dc048e0	0.093889
41	0x3d7ff146	0.062485956
42	0x3cdca679	0.02693485
43	0xbdfb735b	-0.12277862
44	0x3db2be1b	0.08727666
45	0xbdc1994c	-0.09453067
46	0x3cb32b7f	0.021871326
47	0xbd76c39d	-0.060245145
48	0x3e132f9c	0.1437363
49	0xbe0c128b	-0.13678949
50	0x3d90b380	0.07065487
51	0x3dbacc73	0.09121027
52	0x3e163aad	0.1467082
53	0xbe311484	-0.17292982
54	0xbd4592cf	-0.04823571
55	0x3c5dcecb	0.013538073
56	0x3de88373	0.11353197
57	0xbdf5cd4d	-0.12002049
58	0x3d8564b7	0.065133505
59	0x3d3526cd	0.044226456
60	0xbe1c3df7	-0.15258013
61	0x3e0b487c	0.1360187
62	0xbe156d87	-0.14592563
63	0xbe80b35e	-0.25136846
64	0x3bc86620	0.00611569
65	0x3e1d151e	0.15340087
66	0xbe646129	-0.22302689
67	0xbe0d0f7c	-0.13775438
68	0xbd73fb9f	-0.059566136
69	0x3bda4e80	0.00666219
70	0x3da56c83	0.080773376
71	0xbdbc8dc8	-0.0920673
72	0xbd3773fd	-0.04478835
73	0xbde34301	-0.11096764
74	0xbd8885e2	-0.06666161
75	0xbe0c5439	-0.13704003
76	0xbea04f61	-0.3131056
77	0x3b094246	0.0020944043
78	0xbde96314	-0.11395851
79	0xbe31a12c	-0.17346638
80	0xbcc86216	-0.024460834
81	0x3d829bc5	0.06377367
82	0x3db04181	0.08606244
83	0xbd99c928	-0.07509071
84	0xbcf5a149	-0.029984133
85	0xbc6e5dfa	-0.014548773
86	0x3e7239bb	0.23654835
87	0x3d8c1fab	0.06841978
88	0x3dada7df	0.084792845
89	0xbdc6b7f9	-0.09703059
90	0x3e816443	0.25271806
91	0x3e5d9cf7	0.21641909
92	0xbc02f366	-0.007992601
93	0x3dc5e12a	0.09662087
94	0xbbf2fec8	-0.007415626
95	0x3d03ee32	0.032209583
96	0xbf2406b5	-0.64072734
97	0x3e36317f	0.17792319
98	0xbe1d274a	-0.15347019
99	0x3e2ea8b8	0.17056549
100	0x3b12095c	0.002228341
101	0x3c0f24a1	0.00873676
102	0xbb6a5b75	-0.003576008
103	0xbe6f4989	-0.23367895
104	0xbde4e2e8	-0.111760914
105	0x3ee096ba	0.43864995
106	0x3de57b51	0.11205161
107	0x3e786ac0	0.24259472
108	0x3c20e176	0.009819379
109	0x3de091e2	0.10965325
110	0xbe174522	-0.14772466
111	0x3d6337d4	0.055473164
112	0xbc8201ef	-0.015870063
113	0xbd9c0638	-0.07618374
114	0xbdc047f7	-0.09388726
115	0xbcc54733	-0.024081802
116	0xbdea9e36	-0.114559576
117	0x3e12aa3d	0.14322753
118	0xbdec8b28	-0.115499794
119	0x3dd09b14	0.10185829
120	0xbe0cab80	-0.13737297
121	0xbe45655c	-0.19276947
122	0xbd26e850	-0.040748894
123	0xbc82f7b3	-0.015987253
124	0xbdd6f086	-0.10495095
125	0xbe26b128	-0.16278517
126	0x3dcac0ff	0.09900092
127	0xbd5470a1	-0.051865224
128	0x3d811341	0.063025005
129	0x3d9ee2a6	0.077580735
130	0x3d601af2	0.054713197
131	0xbd10b9d6	-0.035333477
132	0xbcf0a968	-0.029377654
133	0xbe6c7767	-0.23092423
134	0x3dcbc34c	0.09949359
135	0x3d9ff2a7	0.07809954
136	0x3e9b168c	0.3029064
137	0xbd79d064	-0.060989752
138	0xbe28af33	-0.16473083
139	0x3df9b15c	0.12192032
140	0xbeac0669	-0.3359864
141	0x3e3a13cc	0.18171614
142	0x3f08b13d	0.53395444
143	0x3de4eb71	0.111777194
144	0x3e5cce98	0.21563184
145	0xbd092d25	-0.03349032
146	0xbe8d4e5c	-0.27598846
147	0xbe16617c	-0.14685625
148	0x3d9a2bec	0.07527909
149	0x3dd019ba	0.10161157
150	0xbc78e02d	-0.015190166
151	0xbe981809	-0.29705837
152	0xbe9fbbbb	-0.31197914
153	0xbd992b7b	-0.07478996
154	0x3dff8199	0.12475891
155	0x3d098e6f	0.0335831
156	0xbe611fdd	-0.21984811
157	0xbe18de0d	-0.14928456
158	0x3e40f3c9	0.18842997
159	0xbe77ea5b	-0.24210493
160	0xbddf13ed	-0.108924724
161	0x3e55e578	0.20888317
162	0xbe6c204d	-0.23059197
163	0x3dac8554	0.08423868
164	0xbc4ff6d1	-0.012693123
165	0x3e842d1a	0.2581566
166	0xbdc4373d	-0.09580848
167	0xbe2ed352	-0.170728
168	0xbce572d6	-0.02800886
169	0x3f35698a	0.70864165
170	0x3e3ce74f	0.18447612
171	0xbc1eee5b	-0.009700383
172	0x3d2ce71c	0.04221259
173	0xbdd3a938	-0.1033501
174	0xbdcbec4d	-0.0995718
175	0x3bee93ac	0.0072807875
176	0x3c2d2543	0.010567966
177	0x3e075dd3	0.13219385
178	0xbe1bc437	-0.15211569
179	0x3d2d4dad	0.042310406
180	0x3ce1e5f8	0.027575478
181	0xbc869a44	-0.016430981
182	0x3e5ab8bd	0.21359535
183	0x3e764832	0.24050978
184	0x3eaf193c	0.3419894
185	0x3e268b93	0.16264181
186	0x3d88798e	0.0666381
187	0xbda72016	-0.08160417
188	0x3e5eca5a	0.21756878
189	0xbdb1db94	-0.08684459
190	0x3db52242	0.08844425
191	0x3e6d44ab	0.23170726
192	0xbe8c2c13	-0.27377376
193	0xbcdb9104	-0.026802547
194	0xbdb2d949	-0.0873285
195	0xbc7c15ac	-0.015386026
196	0xbe10d0c2	-0.14142135
197	0xbdb9479a	-0.0904686
198	0x3d49f74c	0.049308106
199	0xbd9823c1	-0.074286945
200	0x3dda3b47	0.106558375
201	0xbd79d515	-0.060994226
202	0xbe11d4e2	-0.14241365
203	0xbe2c10cd	-0.16803284
204	0xbe07098a	-0.13187233
205	0xbc5133ff	-0.0127687445
206	0xbe4bb888	-0.19894612
207	0x3ca85667	0.020549012
208	0xbd4f69d0	-0.05063802
209	0xbe652d2a	-0.2238051
210	0xbd02fbcb	-0.03197841
211	0x3cb65b5e	0.022260364
212	0x3cc13b99	0.023587989
213	0xbe4bf9cf	-0.19919513
214	0x3cd4b3df	0.025964675
215	0xbce6c55b	-0.028170278
216	0xbd0eff5a	-0.03491149
217	0x3d8d6718	0.06904429
218	0xbd11a1fc	-0.03555487
219	0xbe2c331e	-0.16816375
220	0x3cebfa88	0.028805986
221	0x3d566fa6	0.05235257
222	0xbe55fa1e	-0.20896193
223	0x3d9b9124	0.07596043
224	0xbdaa1ad5	-0.08305899
225	0xbdeef5d7	-0.11667984
226	0x3e626956	0.22110495
227	0x3db2ba30	0.08726919
228	0xbe2e0900	-0.1699562
229	0xbe5eaa41	-0.21744634
230	0xbe42f03e	-0.19036958
231	0xbde633e3	-0.11240365
232	0xbda19a9c	-0.078908175
233	0x3ddf4f5a	0.10903807
234	0xbe05f2c4	-0.13080889
235	0xbe4179e1	-0.1889415
236	0x3e0224a8	0.12709296
237	0xbe6b9d5c	-0.23009247
238	0x3c8317a1	0.016002478
239	0xbd662a8b	-0.056192916
240	0xbdae3662	-0.085064664
241	0xbda11a18	-0.07866305
242	0x3e0ea833	0.1393135
243	0xbde580c6	-0.11206202
244	0x3e1e6d24	0.15471321
245	0xbb3cdeb2	-0.002881926
246	0x3c4818e6	0.0122129675
247	0xbdd8b23e	-0.10580872
248	0x3d8408e0	0.06447005
249	0xbe517e95	-0.20458443
250	0xbe1d9b7d	-0.15391345
251	0xbe6b1640	-0.22957706
252	0xbe0dca24	-0.13846642
253	0x3d3f189e	0.046654336
254	0xbd1b30bc	-0.037888274
255	0x3d1d2c13	0.03837211

gnn.convs.1.nn.lins.1.bias f4 [32]
0	0xbd474fdc	-0.048660144
1	0xbe4418b4	-0.19150048
2	0x3d449fea	0.04800407
3	0xbea953e8	-0.33071828
4	0xbd934c8a	-0.07192333
5	0x3e005cd6	0.12535414
6	0xbe7510b4	-0.23932153
7	0xbce1c380	-0.027559042
8	0xbd0b9cab	-0.034084957
9	0xbe4e3252	-0.20136383
10	0xbe6d2223	-0.23157553
11	0x3cc3f408	0.023920074
12	0xbd06b3d5	-0.032886345
13	0xbd92a6e6	-0.071607396
14	0x3dae8a89	0.08522517
15	0x3abe3ae4	0.00145134
16	0xbe970977	-0.2949941
17	0xbdce07e5	-0.100600995
18	0xbea265af	-0.31718203
19	0xbc879e93	-0.016555106
20	0x3d28ece6	0.04124155
21	0x3d7e9c0e	0.062160544
22	0xbe4c3f05	-0.19945915
23	0xbe09c1c6	-0.13452825
24	0xbe22396c	-0.15842217
25	0xbeb5e834	-0.3552872
26	0x3da25036	0.07925455
27	0x3e32b3c1	0.17451383
28	0xbbb8b602	-0.0056369314
29	0xbc8e576f	-0.017375676
30	0xbdd9c7b9	-0.10633797
31	0xbe38e056	-0.18054327

gnn.convs.2.nn.lins.0.weight f4 [32, 32]
0	0x3df1d6a4	0.118085176
1	0xbd81db75	-0.06340686
2	0x3da26e1c	0.07931158
3	0x3eba713a	0.3641451
4	0x3dc207d9	0.09474153
5	0xbc366c81	-0.011134268
6	0xbd4ae3e4	-0.04953374
7	0xbe4e8f91	-0.20171954
8	0xbde16ea3	-0.110074304
9	0xbc57ea5c	-0.013178434
10	0x3de13f62	0.109984174
11	0x3de57b4c	0.11205158
12	0xbe62d2c8	-0.22150719
13	0x3f342c40	0.7038002
14	0xbc894d6d	-0.016760552
15	0x3e954757	0.2915599
16	0xbe18f514	-0.1493724
17	0xbdb699e4	-0.08916071
18	0xbf1a02c7	-0.6016049
19	0x3daa3919	0.08311672
20	0x3df5f6ad	0.1200994
21	0xbe8452d1	-0.25844434
22	0xbd8d687c	-0.069046944
23	0xbdbe4bbf	-0.09291791
24	0x3e1f3f79	0.15551557
25	0xbd85ddeb	-0.06536468
26	0xbe6cb5c9	-0.2311622
27	0x3e01130e	0.12604925
28	0x3b593d33	0.003314805
29	0xbe154eeb	-0.14580886
30	0xbdf4f1a6	-0.11960153
31	0xbd348f3d	-0.044081915
32	0xbe215879	-0.15756406
33	0x3d9d39bc	0.076770276
34	0xbe58b4d0	-0.21162724
35	0xbe2e4fc2	-0.17022613
36	0x3d7c978b	0.06166796
37	0xbe869935	-0.26288763
38	0xbd7daca4	-0.06193222
39	0xbe04d29b	-0.12970965
40	0xbda7cf19	-0.081937976
41	0xbe184cc7	-0.14873038
42	0xbe12d8be	-0.14340493
43	0x3d72466b	0.059149187
44	0xbda6fc1e	-0.08153556
45	0x3e0e4575	0.13893683
46	0xbe526be8	-0.20548975
47	0xbe11f948	-0.1425525
48	0xbd8fee70	-0.070279
49	0x3d693b04	0.056941047
50	0xbe440faf	-0.19146608
51	0xbe54a2ad	-0.20765181
52	0xbe00d743	-0.12582116
53	0xbaadc1b6	-0.0013256583
54	0x3df529c5	0.119708575
55	0x3e076697	0.13222729
56	0xbd335e30	-0.043790996
57	0x3aee48b0	0.0018179622
58	0xbe81182b	-0.2521375
59	0xbe2269d8	-0.15860689
60	0xbe6a1da0	-0.22862864
61	0x3abd7f1e	0.001445744
62	0xbdb6ac32	-0.089195624
63	0x3d0611ed	0.03273194
64	0x3d1e0314	0.038577154
65	0x3e13ebcd	0.1444542
66	0xb8c21d85	-9.256139e-05
67	0x3db33af0	0.08751476
68	0xbe9be5d1	-0.30448774
69	0xbc07790e	-0.008268608
70	0x3d7aebcf	0.06126004
71	0xbd6d3f1f	-0.057921525
72	0x3d09b6a4	0.033621445
73	0xbc6c6ce7	-0.014430261
74	0x3e59c906	0.2126809
75	0x3bd162b9	0.0063899425
76	0xbdb61c4d	-0.08892117
77	0x3d61ac64	0.055096045
78	0xbcbc5eda	-0.022994447
79	0xbd1ccd2e	-0.038281612
80	0xb9b46b7c	-0.00034412357
81	0x3e33268c	0.17495173
82	0x3e0447fa	0.12918082
83	0xbcf7af61	-0.030234994
84	0xbd64fa32	-0.055902667
85	0xbe21c222	-0.15796712
86	0xbe1bcb1f	-0.15214203
87	0x3d1df3a8	0.038562447
88	0xbba4503d	-0.005014448
89	0xbe2829a0	-0.16422129
90	0x3d8cd445	0.06876425
91	0x3bc63f85	0.0060500526
92	0xbe05e2e4	-0.13074833
93	0x3dbd9a07	0.09257894
94	0x3e21138f	0.15730117
95	0x3e161d5e	0.1465964
96	0xbd49ecff	-0.049298283
97	0xbdaa9cba	-0.083306745
98	0xbce8fa9e	-0.028439816
99	0xbcbf2495	-0.023332873
100	0xbd033da6	-0.032041214
101	0xbe5096e4	-0.2037006
102	0xbe27a769	-0.16372456
103	0xbe167fe2	-0.14697221
104	0xbac61eb5	-0.0015115353
105	0x3e22e410	0.15907311
106	0x3d9ab3fd	0.07553861
107	0xbe628725	-0.22121866
108	0x3d644a5a	0.05573497
109	0x3d8a0bd2	0.06740536
110	0xbe455638	-0.19271171
111	0xbe087c62	-0.13328698
112	0x3dd5c1ec	0.10437378
113	0xbd6b2307	-0.05740645
114	0xbe217a53	-0.15769319
115	0x3e07d375	0.13264258
116	0xbdba3dec	-0.09093842
117	0xbe651f21	-0.22375156
118	0xbdd526e9	-0.10407812
119	0xbc4690ab	-0.0121194525
120	0x3d4f813e	0.050660364
121	0x3e32c07e	0.17456242
122	0xbe2720fd	-0.16321178
123	0xbe1abd60	-0.15111303
124	0xbe4a4a8d	-0.19755001
125	0xbcd238bf	-0.025661824
126	0xbe133dfc	-0.14379114
127	0xbd863704	-0.06553462
128	0xbcf4105a	-0.029792953
129	0xbd2eaa94	-0.042643145
130	0xbdefbda8	-0.11706096
131	0x3e9e6513	0.30936489
132	0xbeaaf2e0	-0.33388424
133	0xbe71741b	-0.23579447
134	0x3b99de20	0.004695669
135	0xbe36cd28	-0.17851698
136	0xbe135070	-0.14386153
137	0xbe345344	-0.17609888
138	0xbd42926d	-0.047502924
139	0xbc10aaf9	-0.008829826
140	0x3cf27a86	0.02959944
141	0xbdb144d6	-0.086557075
142	0xbe096648	-0.13417923
143	0xbdda8197	-0.106692486
144	0x3d8e8a20	0.06959939
145	0x3dfb3258	0.12265462
146	0xbe040fef	-0.12896703
147	0xbdec97ca	-0.11552389
148	0xbdd6bfe0	-0.10485816
149	0x3c08dd97	0.008353612
150	0xbda61008	-0.081085265
151	0xbdd474b5	-0.103738226
152	0x3b4397e8	0.0029845182
153	0xbd5560c4	-0.052094236
154	0xbcbbfeb1	-0.022948595
155	0xbe2deea6	-0.16985568
156	0xbe7675b3	-0.24068336
157	0xbe1ce100	-0.15320206
158	0xb9d16666	-0.0003993988
159	0xbdbd64af	-0.092477195
160	0xbd9090b8	-0.07058853
161	0x3df69dd4	0.12041822
162	0xbe2eb21c	-0.17060131
163	0x3cdd841b	0.027040532
164	0x3d4e422f	0.050356086
165	0xbe851715	-0.25994173
166	0xbde7281f	-0.11286949
167	0xbd01b222	-0.03166402
168	0x3aca675d	0.0015442182
169	0xbde100c6	-0.10986476
170	0xbc454fd2	-0.012042956
171	0xbe57a6d6	-0.21059737
172	0xbd6a3ed8	-0.05718884
173	0xbe70a3aa	-0.23499933
174	0xbe16c4a3	-0.14723448
175	0xbdce0597	-0.1005966
176	0xbd9889ce	-0.07448159
177	0x3dc17b76	0.094473764
178	0xbd8f0c68	-0.06984788
179	0xbd2a1f2c	-0.041533634
180	0xbdaa51f3	-0.08316412
181	0x3d7b7466	0.061390303
182	0xbd882c3e	-0.066490635
183	0x3db7c10a	0.08972366
184	0x3ca87e22	0.020567957
185	0xbbc32dc1	-0.005956382
186	0x3e0ef306	0.13959894
187	0xbe720e9e	-0.23638389
188	0xbd83d7fa	-0.06437679
189	0x3ce9c06a	0.028534133
190	0x3dda841a	0.106697276
191	0xbe0b5e1b	-0.13610117
192	0xbd838a1c	-0.06422827
193	0xbe066a35	-0.13126452
194	0x3decfac4	0.11571267
195	0xbde85ba5	-0.11345605
196	0xbcc003fa	-0.023439396
197	0xbe1e2d77	-0.15447031
198	0xbddc2e74	-0.10751048
199	0xbd029b78	-0.031886548
200	0x3e484c14	0.19560272
201	0x3de018ca	0.10942228
202	0xbdcfb77c	-0.10142419
203	0xbd6a5999	-0.057214353
204	0x3e04ce6c	0.12969369
205	0xbe64028b	-0.22266595
206	0xbd1dd63e	-0.038534395
207	0xbe3da0e0	-0.185184
208	0xbdbc851f	-0.09205078
209	0xbe24846c	-0.1606614
210	0xbd1feff5	-0.0390472
211	0x3e4a2a0a	0.19742599
212	0x3db39eda	0.08770533
213	0xbe080e32	-0.13286665
214	0xbe677d0e	-0.22606298
215	0x3d8fa6f7	0.07014268
216	0xbd85db80	-0.06536007
217	0x3cee4bc2	0.029088859
218	0xbe57e331	-0.2108276
219	0xbd96664a	-0.07343729
220	0xbd305f04	-0.043059364
221	0xbe01892a	-0.1264998
222	0x3d17b7a1	0.037040357
223	0x3e1d7243	0.15375619
224	0x3ceb4dfa	0.028723706
225	0xbda4bfbd	-0.08044384
226	0x3e213746	0.15743741
227	0x3d529194	0.051408365
228	0xbe3c96aa	-0.18416849
229	0x3d53025e	0.05151593
230	0x3cd17be8	0.025571778
231	0xbdbe5737	-0.09293979
232	0x3e09d288	0.13459218
233	0x3d937844	0.07200673
234	0x3b094b68	0.0020949487
235	0x3ce834ca	0.028345484
236	0xbdfb48ae	-0.12269722
237	0x3e953941	0.29145244
238	0x3db1ebe6	0.08687572
239	0x3b2fcd05	0.0026825082
240	0xbe382063	-0.17981105
241	0x3dad1714	0.084516674
242	0xbeaf7e9e	-0.3427629
243	0x3d9f6c27	0.077843
244	0x3dcfa553	0.10138955
245	0xbd71eef1	-0.059065763
246	0x3dd79c19	0.1052782
247	0xbe038bdb	-0.1284632
248	0x3a8eb714	0.0010888302
249	0xbd1bd04e	-0.03804045
250	0xbd94c03a	-0.07263227
251	0x3e2c4dcb	0.1682655
252	0xbe1084e7	-0.14113198
253	0x3dea4831	0.11439551
254	0xbd0812ae	-0.03322094
255	0x3d043385	0.032275695

gnn.convs.2.nn.lins.0.bias f4 [32]
0	0xbdda516c	-0.10660061
1	0xbddf9a81	-0.10918141
2	0x3d5b1279	0.053484414
3	0xbdef0223	-0.116703294
4	0xbdd5048b	-0.10401257
5	0xbdc5d667	-0.096600346
6	0xbdfce2e6	-0.12347965
7	0x3baec7f3	0.0053338944
8	0x3e13cdfb	0.14434044
9	0x3e043236	0.12909779
10	0x3cac2d24	0.021017618
11	0x3cf22e4e	0.029563095
12	0xbe2f0c14	-0.17094451
13	0x3d3a7fa1	0.045531873
14	0xbe35290c	-0.1769144
15	0x3e7c92f5	0.24665435
16	0xbe0eb13c	-0.13934797
17	0x3d9d21ac	0.07672438
18	0x3d057810	0.032585204
19	0x3d9c03a9	0.076178856
20	0xbe586c30	-0.2113502
21	0xbdbd5e6b	-0.092465244
22	0xbbe00afe	-0.006837248
23	0xbe04a8b5	-0.12954982
24	0xbe0c2ee5	-0.13689764
25	0x3dbea945	0.09309629
26	0xbf4c8100	-0.7988434
27	0x3d88bf46	0.066771075
28	0x3dbfda9d	0.09367869
29	0xbd2d0420	-0.042240262
30	0x3c2eb6ba	0.010663683
31	0x3db86768	0.09004098

gnn.convs.2.nn.lins.1.weight f4 [32, 32]
0	0x3d58c04a	0.052917756
1	0x3e30682b	0.17227237
2	0x3d988355	0.074469246
3	0xbda277ad	-0.079329826
4	0xbc996057	-0.018722696
5	0x3c167d1f	0.009185105
6	0xbe0504f2	-0.12990168
7	0xbc91444e	-0.017732766
8	0x3b30446f	0.0026896258
9	0xbe10b552	-0.14131668
10	0x3d4230e0	0.047409892
11	0xbde7b7fc	-0.11314389
12	0xbe206334	-0.15662843
13	0x3ded8182	0.11596967
14	0xbde08935	-0.1096367
15	0xbce9e29f	-0.028550444
16	0x3d4f5041	0.050613645
17	0xbdca119a	-0.098666385
18	0xbcd1b541	-0.025599124
19	0x3d987dcb	0.07445868
20	0xbdd5e17d	-0.10443399
21	0xbd16a4a9	-0.036778126
22	0xbe492403	-0.19642644
23	0x3dc39ec2	0.09551765
24	0xbd957e97	-0.07299536
25	0xbda05eef	-0.07830607
26	0x3b3cf95d	0.0028835156
27	0x3d2cfb2d	0.042231727
28	0x3bd40d6f	0.006471328
29	0xbd5e44a4	-0.05426468
30	0xbd37a716	-0.04483708
31	0xbe112c18	-0.14176977
32	0x3cc497a5	0.023998091
33	0x3db0f039	0.08639569
34	0x3dd9f8f8	0.1064319
35	0x3d1b78cf	0.03795701
36	0xbe700900	-0.23440933
37	0x3e2812cc	0.1641342
38	0xbe23282c	-0.15933293
39	0xbe509678	-0.203699
40	0xbe306396	-0.17225489
41	0xbde57178	-0.11203283
42	0x3ddcf1ce	0.10788308
43	0xbe5ed2d3	-0.2176011
44	0xbe4caef6	-0.19988617
45	0x3da58222	0.080814615
46	0xbdc55888	-0.096360266
47	0xbe8c5ee9	-0.2741616
48	0x3ddc4a62	0.10756375
49	0xbc24fb8d	-0.01006974
50	0x3d324d30	0.043530643
51	0xbdd12c27	-0.102134995
52	0xbd5b37ed	-0.05352013
53	0x3db989f9	0.09059519
54	0x3c985618	0.01859574
55	0x3c9b57b1	0.018962713
56	0xbe1dfbc3	-0.1542807
57	0xbe6df4da	-0.23237935
58	0x3a02d7a6	0.00049912406
59	0x39e9237e	0.00044467667
60	0xbda248b0	-0.0792402
61	0xbd421075	-0.047378976
62	0xbe29176c	-0.16512841
63	0xbe712087	-0.23547564
64	0xbe43b5ac	-0.19112271
65	0x3cb78758	0.022403404
66	0x3d64126d	0.055681635
67	0x3df32439	0.11872143
68	0x3dd955ab	0.10612043
69	0x3d49f6c3	0.049307596
70	0xbd38fb92	-0.04516179
71	0xbe701770	-0.2344644
72	0xbebdcb4a	-0.3706916
73	0xbde02fad	-0.109465934
74	0x3e00655f	0.1253867
75	0x3dd2dffe	0.10296629
76	0x3d5919dd	0.05300318
77	0x3da1e6aa	0.07905324
78	0x3dab77d7	0.08372467
79	0x3ecb4084	0.3969766
80	0x3cdc1c9c	0.02686911
81	0xbd96ff98	-0.073729694
82	0xbcb06efa	-0.021537293
83	0xbd9c1955	-0.07622019
84	0xbe092195	-0.13391717
85	0xbdd40c3c	-0.10353896
86	0xbe32d49e	-0.1746392
87	0xbe5a8f10	-0.21343637
88	0xbb338f3e	-0.0027398611
89	0x3d5323c9	0.0515478
90	0x3db0cf52	0.08633293
91	0xbe878d83	-0.26475152
92	0xbe723519	-0.23653068
93	0xbdf8438b	-0.12122258
94	0xbdf3272d	-0.118727066
95	0xbae492fb	-0.0017438823
96	0xbda467c5	-0.08027605
97	0xbd6ed8b2	-0.058312126
98	0x3cea21d1	0.028580578
99	0xbcc5d642	-0.024150018
100	0x3d54f112	0.051987715
101	0xbd634968	-0.055489928
102	0x3cbb9e3a	0.022902597
103	0x3d7ec387	0.06219819
104	0xbb8385c6	-0.00401375
105	0xbe303d4d	-0.17210884
106	0x3d077303	0.033068668
107	0x3e0f590f	0.13998817
108	0xbcf4eeb1	-0.029898973
109	0x3dae4a9d	0.08510325
110	0x3de4036c	0.11133465
111	0xbe13efcd	-0.14446945
112	0xbde61a9d	-0.11235545
113	0x3dfed1dc	0.12442371
114	0x3e2c3a14	0.1681903
115	0x3da5c76c	0.08094677
116	0xbcbe2a01	-0.023213388
117	0xbdaa964c	-0.08329448
118	0xbe03ab9d	-0.12858434
119	0xbd0831b4	-0.033250526
120	0x3d490f3b	0.04908679
121	0xbcf7ed60	-0.030264556
122	0xbdabc08a	-0.08386333
123	0xbdad28b6	-0.084550306
124	0xbe03ad93	-0.12859182
125	0xbe0fc15b	-0.14038603
126	0x3e077ea2	0.132319
127	0x3e085940	0.13315296
128	0x3d324c03	0.04352952
129	0x3e210d31	0.15727688
130	0xbe4fcfd4	-0.20294124
131	0x3e1f67e9	0.15566982
132	0x3c5e2797	0.013559244
133	0xbe143662	-0.1447387
134	0xbd4ccc3c	-0.04999946
135	0x3deebbe5	0.11656932
136	0x3d827c2f	0.063713424
137	0x3db0255b	0.08600875
138	0xbe712a07	-0.23551188
139	0x3ae8c311	0.001775833
140	0x3da72a7a	0.08162399
141	0xbe211250	-0.15729642
142	0xbd9f8cff	-0.07790565
143	0xbdf6e0e2	-0.12054612
144	0xbdc564da	-0.096383765
145	0xbe0f35b9	-0.13985337
146	0x3cbc5681	0.022990467
147	0x3c89f936	0.016842466
148	0xbe0c1ad9	-0.13682117
149	0x3d9f718e	0.07785331
150	0x3e876b36	0.26448983
151	0x3d08b2f4	0.033373788
152	0xbe7149e9	-0.2356335
153	0xbdc63e06	-0.09679799
154	0xbca81508	-0.020517841
155	0x3dc8aa49	0.09798104
156	0x3cde3faa	0.027129967
157	0xbdf050c0	-0.11734152
158	0xbba94008	-0.005165104
159	0xbd83a18b	-0.06427296
160	0x3de0937b	0.1096563
161	0xbdd1475f	-0.10218691
162	0xbda9da7c	-0.08293626
163	0x3df77699	0.120831676
164	0xbd17a9be	-0.037027113
165	0x3cd7a49f	0.026323615
166	0xbcfee46e	-0.031114783
167	0x3c90f436	0.017694574
168	0xbd5dfa38	-0.054193705
169	0x3e49fa3b	0.19724362
170	0x3e38ada1	0.18034984
171	0xbd902902	-0.070390716
172	0xbe426c44	-0.18986613
173	0x3ad2faf0	0.0016096514
174	0x3d01f2ec	0.03172581
175	0xbe329e43	-0.17443185
176	0x3d38be0a	0.04510311
177	0xbdffb9f5	-0.1248664
178	0x3e62be58	0.22142923
179	0x3e14c413	0.14527921
180	0xbe7e899b	-0.2485718
181	0xbd19a171	-0.03750748
182	0xbc8e6a34	-0.017384626
183	0xbe3460fd	-0.17615123
184	0x3cbb1692	0.02283791
185	0x3db616b2	0.088910475
186	0xbcfdde51	-0.030989798
187	0xbe824b44	-0.25448048
188	0xbc9da5d8	-0.01924412
189	0xbe1bb325	-0.15205057
190	0xbe49fe28	-0.19725859
191	0xbba5760d	-0.005049473
192	0x3d9928fd	0.07478521
193	0xbd295046	-0.04133632
194	0xbdc619ae	-0.09672867
195	0x3db39204	0.08768085
196	0xbdf62bf4	-0.12020102
197	0xba7e65f3	-0.00097045227
198	0x3d6b416f	0.05743545
199	0xbe2df635	-0.16988452
200	0xbe0071a6	-0.12543353
201	0x3d044ee2	0.03230179
202	0xbe68335d	-0.22675844
203	0xbe0c4ed0	-0.1370194
204	0xbcba4138	-0.022736177
205	0x3d1862d1	0.037203614
206	0xbdc657bf	-0.09684705
207	0xbcd5b7fd	-0.026088709
208	0xbc334105	-0.010940795
209	0xbcd76b9c	-0.02629643
210	0xbba5bd09	-0.005057935
211	0x3d3c2f3a	0.045943476
212	0xbe86fc4c	-0.26364362
213	0xbe35c442	-0.17750648
214	0x3d934c45	0.07192282
215	0xbe30ab21	-0.1725278
216	0x3d20ddca	0.039274015
217	0xbd177f5b	-0.03698669
218	0xbe178c61	-0.14799644
219	0xbe63b393	-0.22236471
220	0xbe64fe4f	-0.22362636
221	0xbe68f5fb	-0.22750084
222	0xbd916adb	-0.07100459
223	0x3e02b4d5	0.12764294
224	0x3c08e414	0.008355159
225	0x3db298e5	0.087205686
226	0xbdf9c2dd	-0.1219537
227	0xbdf3d841	-0.119064815
228	0x3edafec9	0.4277251
229	0x3cc3b8d6	0.023891848
230	0x3d73b63d	0.059499968
231	0xbeafb198	-0.3431518
232	0xbd0f6609	-0.035009418
233	0xbe02f2bb	-0.12787907
234	0x3e570ecb	0.21001737
235	0xbeca1cd2	-0.39475113
236	0x3e2d9ebc	0.16955084
237	0x3dc7f89e	0.09764217
238	0x3e1cee0d	0.15325184
239	0xbd8c65da	-0.06855364
240	0x3dcaf85f	0.09910654
241	0x3d9a58eb	0.07536491
242	0xbe4a4725	-0.19753702
243	0x3e00be56	0.12572607
244	0x3e68ad70	0.22722411
245	0xbdbd5fb6	-0.09246771
246	0xbcb2970c	-0.02180054
247	0x3d6b333f	0.05742192
248	0x3da3b40d	0.07993326
249	0xbe6278c2	-0.22116378
250	0x3f11d9c9	0.5697294
251	0xbce31487	-0.02771975
252	0xbe70d1b0	-0.2351749
253	0x3cc4d79c	0.024028592
254	0xbb59970e	-0.0033201608
255	0x3e0f90b3	0.14020042

gnn.convs.2.nn.lins.1.bias f4 [32]
0	0xbdd85fab	-0.10565122
1	0x3dae2aed	0.08504281
2	0xbed979ba	-0.42475682
3	0xbe55a383	-0.20863156
4	0xbdc93a4f	-0.098255746
5	0xbdbeb8f1	-0.093126185
6	0xbe17ad3b	-0.14812176
7	0xbf0f2914	-0.55922055
8	0x3d9243f7	0.071418695
9	0x3d71ca74	0.059030965
10	0xbd311c3f	-0.04323983
11	0xbeb7b188	-0.35877633
12	0xbe6ee3f9	-0.23329152
13	0x3d86eeda	0.06588526
14	0x3c8a688b	0.016895553
15	0xbd1608f6	-0.03662964
16	0xbdf9bbab	-0.12193998
17	0x3e153330	0.14570308
18	0xbe501291	-0.20319583
19	0xbd09891a	-0.033578016
20	0xbe6dfa13	-0.23239927
21	0x3e5d9830	0.21640086
22	0xbeb0ff13	-0.34569606
23	0x3c95a155	0.018265406
24	0xbd04d716	-0.032431684
25	0xbe59db6c	-0.21275109
26	0xbec5b2a4	-0.38612854
27	0xbd492313	-0.049105715
28	0x3e7697d9	0.24081363
29	0xbe92df54	-0.2868601
30	0xbe5504fc	-0.20802683
31	0xbda47dfd	-0.08031843
