Run_GIN_ModelCheckpoint_EvFr_2/NCI1_reps_2_folds_5_epochs_20_2023-04-26_11-05/rep_1_fold_4/checkpoints/model_trial_5.ckpt (torch, 96717 bytes, 86 tensors)

gnn.convs.0.nn.lins.0.weight f4 [16, 37]
0.45543322 0.16925842 -0.23456068 0.26786643 -0.41089186 0.039461635 0.28582734 0.10570785
-0.25796074 -0.20998603 -0.21541521 -0.22262935 -0.11624984 -0.16994862 0.118033946 -0.14237134
-0.3102148 -0.1668843 -0.22600365 -0.04285362 0.359954 0.82655686 -0.0031940048 -0.09124372
-0.07772161 -0.141748 -0.6003315 0.06657216 0.06033584 0.22900835 0.17529391 0.08250161
0.03058814 0.14718185 0.09197387 -0.10783782 0.11475057 -0.32211205 -0.27044407 0.17154133
-0.41057616 0.18494816 -0.09129778 0.15470222 0.08718 -0.5078244 -0.19070503 -0.11959032
-0.11787448 0.00016576743 0.09212145 0.15698645 -0.15867609 -0.12032911 0.040308304 -0.41584453
-0.426464 0.09520716 0.0098622395 -0.035461985 0.00048166694 -0.34839258 -0.1267559 0.022136107
-0.29851803 -0.2599023 0.260642 -0.028247021 0.015454618 -0.044011895 0.06866739 -0.082681224
-0.13325997 -0.118250005 0.00058549625 -0.36265576 -0.13631476 -0.22393201 0.1381088 0.13804492
-0.012850256 0.14954773 -0.1457204 0.42448303 0.19994467 0.2993515 -0.0090074 -0.028984575
-0.07884259 -0.10542324 0.30033928 0.041638944 0.124864005 0.09056605 -0.036282957 0.15517701
0.06144882 0.038799837 -0.109225646 -0.1523747 -0.041538857 0.44477165 -0.12164331 -0.0391614
-0.030783854 -0.14073117 -0.004264386 0.041403014 0.0015231099 -0.14383325 -0.009450002 -0.14943053
-0.08912216 -0.0884084 -0.27645388 0.08873518 0.14819735 -0.07268285 0.11551653 0.78362477
0.41812506 0.23837502 0.014840729 0.38447347 -0.10285772 -0.11001734 0.22764897 -0.07465748
0.22491337 0.44118363 -0.046491325 -0.014997813 0.0014317038 0.031651545 -0.106451936 0.5577491
-0.11587934 0.33351532 0.045847423 -0.14525093 -0.0718064 -0.12415257 0.036997046 0.010231264
-0.089552216 -0.019119188 0.072616436 0.033226654 -0.09075404 -0.057134937 -0.07898233 -0.35446706
0.27667308 0.19201504 -0.13827582 -0.13258642 1.0537304 0.33839372 0.5297644 -0.03900856
0.46537933 -0.27802184 0.050032027 0.17220286 0.010264549 0.28445575 0.34412432 0.5137899
-0.20200035 -0.39558312 0.000908852 0.2719081 0.3161482 0.10259422 0.4655834 0.09950631
-0.1864798 -0.028105779 -0.22245023 0.07729902 -0.20007749 -0.18296 -0.1326374 0.042597122
-0.12093943 0.4219518 -0.45086738 0.025582517 -0.2941527 0.029312061 -0.59024215 0.03646007
0.042432617 1.2022324 0.7551478 0.86697435 -0.12694012 0.49584043 -0.017846255 0.09787439
0.060148537 0.057893455 -0.018764487 0.3893717 -0.12074826 -0.18555826 -0.030901005 0.13817781
0.011174969 0.35576633 -0.45625427 0.2266468 0.27154773 0.05124612 -0.08440567 0.016730852
-0.053561572 0.0327709 -0.08156628 -0.14908361 -0.13891934 -0.018456988 -0.24787953 0.09157642
-0.23740724 -0.12058521 0.09820275 -0.020963836 -0.15446617 -0.09952676 1.2965292 0.65645385
-0.06713652 -0.13717787 -0.09389278 -0.15568654 0.146991 -0.049604855 -0.10700881 -0.10082926
0.5263281 0.81930643 -0.112603016 -0.023703102 -0.04549808 -0.06400295 0.38718098 0.52705115
0.093053974 0.38005066 -0.029614082 -0.17956974 -0.030672926 0.017493289 -0.0014448928 0.048394307
00000000: 8b2e e93e 1452 2d3e ad30 70be ca25 893e
00000010: 6b60 d2be 86a2 213d f657 923e 5b7d d83d
00000020: 6e13 84be 9406 57be ce95 5cbe f3f8 63be
00000030: 6514 eebd 0307 2ebe c8bb f13d cbc9 11be
00000040: 79d4 9ebe b8e3 2abe 806d 67be 4787 2fbd
00000050: e44b b83e 3b99 533f 8252 51bb fddd babd
00000060: 822c 9fbd 6326 11be 53af 19bf fc56 883d
00000070: b722 773d 2a81 6a3e 3f80 333e 9bf6 a83d
00000080: fb93 fa3c d7b6 163e cc5c bc3d 13da dcbd
00000090: 5902 eb3d dfeb a4be a577 8abe 88a8 2f3e
000000a0: 0a37 d2be 0d63 3d3e 55fa babd 426a 1e3e
000000b0: 6e8b b23d c800 02bf 2e48 43be c5eb f4bd
000000c0: 2d68 f1bd dbd1 2d39 2caa bc3d 0ec1 203e
000000d0: fc7b 22be 1c6f f6bd 521a 253d 93e9 d4be
000000e0: 7d59 dabe f9fb c23d 3b95 213c 9640 11bd
000000f0: 3e88 fc39 8360 b2be 4ccc 01be c856 b53c
00000100: 5bd7 98be ea11 85be de72 853e 4c66 e7bc
00000110: 5e35 7d3c d145 34bd 7da1 8c3d c654 a9bd
00000120: 4d75 08be 0f2d f2bd fd7b 193a 04ae b9be
00000130: 1996 0bbe 6f4e 65be 656c 0d3e a65b 0d3e
00000140: e189 52bc 0a23 193e bb37 15be d755 d93e
00000150: 4cbe 4c3e 9a44 993e c693 13bc 0f71 edbc
00000160: 3978 a1bd 24e8 d7bd 12c6 993e 998d 2a3d
00000170: b3b8 ff3d b17a b93d 709d 14bd b9e6 1e3e
00000180: c2b1 7b3d 94ec 1e3d b2b1 dfbd 1d08 1cbe
00000190: a624 2abd 1cb9 e33e 2120 f9bd b467 20bd
000001a0: 6c2e fcbc d51b 10be 43bc 8bbb 3596 293d
000001b0: 16a3 c73a 0649 13be 2ed4 1abc 5104 19be
000001c0: ae85 b6bd 770f b5bd 5d8b 8dbe caba b53d
000001d0: 0cc1 173e bfda 94bd ee93 ec3d a29b 483f
000001e0: 7d14 d63e 9518 743e 8726 733c b5d9 c43e
000001f0: 11a7 d2bd c550 e1bd d01c 693e 05e6 98bd
00000200: b14f 663e d2e2 e13e b06d 3ebd 63b9 75bc
00000210: 02a8 bb3a 0da5 013d 7903 dabd a5c8 0e3f
00000220: 2652 edbd 85c2 aa3e 82ca 3b3d a9bc 14be
00000230: 3c0f 93bd b443 febd 378a 173d 08a1 273c
00000240: 2767 b7bd d89f 9cbc edb7 943d ac18 083d
00000250: 41dd b9bd 5306 6abd 7dc1 a1bd b57c b5be
00000260: 18a8 8d3e 979f 443e 2d98 0dbe bcc4 07be
00000270: a3e0 863f f141 ad3e a49e 073f 71c7 1fbd
00000280: 3346 ee3e e158 8ebe 62ee 4c3d f255 303e
00000290: a42c 283c 2fa4 913e 1031 b03e bc87 033f
000002a0: 2ed9 4ebe df89 cabe 0640 6e3a 8a37 8b3e
000002b0: 2dde a13e eb1c d23d f360 ee3e f7c9 cb3d
000002c0: 90f4 3ebe 173e e6bc fec9 63be f34e 9e3d
000002d0: 1de1 4cbe de59 3bbe 19d2 07be 527a 2e3d
000002e0: 18af f7bd 110a d83e 17d8 e6be 6d92 d13c
000002f0: 2f9b 96be d91f f03c 1c1a 17bf 2857 153d
00000300: d3cd 2d3d c0e2 993f 5e51 413f 08f2 5d3f
00000310: 97fc 01be ccde fd3e 4f32 92bc 5e72 c83d
00000320: 505e 763d b021 6d3d fbb7 99bc ba5b c73e
00000330: dd4a f7bd fc02 3ebe 1b24 fdbc 7c7e 0d3e
00000340: 3817 373c 0127 b63e 299a e9be 1916 683e
00000350: 4e08 8b3e 74e7 513d e1dc acbd 240f 893c
00000360: 6163 5bbd c73a 063d 390c a7bd 60a9 18be
00000370: df40 0ebe 1c33 97bc 22d4 7dbe 6b8c bb3d
00000380: e21a 73be 61f5 f6bd 861e c93d 5abc abbc
00000390: 612c 1ebe b0d4 cbbd abf4 a53f 5c0d 283f
000003a0: df7e 89bd 5b78 0cbe dc4a c0bd 4b6c 1fbe
000003b0: cf84 163e 762e 4bbd 6f27 dbbd 927f cebd
000003c0: 70bd 063f 11be 513f 699c e6bd 022d c2bc
000003d0: 325c 3abd fb13 83bd 963c c63e d3ec 063f
000003e0: 1593 be3d 0096 c23e 3b99 f2bc 21e1 37be
000003f0: ca45 fbbc 164e 8f3c 8f62 bdba 1c39 463d

gnn.convs.0.nn.lins.0.bias f4 [16]
0.059655525 -0.07753698 -0.06984231 -0.03393575 0.07565861 -0.13929221 -0.1523224 0.1879209
-0.1547377 0.07751351 0.23015349 -0.17814685 -0.04908917 0.066717036 0.018346617 -0.21314992
00000000: 5a59 743d b5cb 9ebd 7c09 8fbd 3700 0bbd
00000010: e7f2 9a3d 9ea2 0ebe 67fa 1bbe 566e 403e
00000020: 8f73 1ebe 67bf 9e3d 5bad 6b3e 216c 36be
00000030: ba11 49bd f1a2 883d a54b 963c f943 5abe

gnn.convs.0.nn.lins.1.weight f4 [16, 16]
0.6083996 -0.33166006 0.0969331 -0.28125733 -0.4713681 0.060729202 -0.2811027 0.026686577
0.2922154 0.3830071 0.08773844 0.6450049 0.10518323 -0.23778297 0.055529233 0.11872109
-0.35364577 -0.0050938996 -0.24194059 0.11889908 -0.077918276 0.009330146 0.258176 0.14219727
0.1620004 0.097067855 0.32429788 -0.7191998 -0.023242887 0.13254854 0.06616782 -0.13610445
0.1569396 -0.028051715 -0.18182257 0.27939287 0.19124895 0.022036372 -0.10181198 0.225749
-0.062031105 0.060710825 0.31779546 -0.56498253 -0.015443883 0.11570066 0.31242293 0.072629675
-0.3778992 -0.46929818 0.30926397 0.067993395 0.112239495 0.3372747 -0.117856294 0.55689424
0.2362836 0.29494658 0.4173479 -1.1081768 0.10374954 0.18454114 0.29213843 0.16159052
-0.40870503 0.023072371 0.156607 -0.21525551 -0.17631279 0.18671145 0.20099136 0.37840554
0.28517008 0.31090146 0.31622505 -0.90342754 -0.20550278 0.17577289 0.005376472 -0.034822743
0.036730327 0.22537296 0.05351051 -0.06468658 0.10018774 0.15931791 0.06450179 0.058592442
0.16222411 -0.036179587 -0.04192902 0.29854816 -0.24467202 0.038789887 0.19895183 -0.01766183
0.14983213 -0.05147381 -0.22073305 0.10230602 0.15466882 -0.12621877 0.01794195 0.18654943
-0.10075744 -0.09152735 0.029321369 -0.03506881 -0.13204983 -0.21851015 -0.076696225 -0.06101933
-0.07735326 -0.18814766 0.20783219 0.1460832 -0.09771269 0.11642865 0.20340142 0.38097155
-0.04340261 0.14663222 0.5510781 -1.1119244 -0.2102405 0.1182954 0.3318728 -0.09103501
-0.33917007 -0.16823123 0.40237358 0.20682716 0.12205631 0.40440795 -0.030960916 0.46984127
0.12924351 0.24123523 0.13551036 -0.7153551 0.13894047 -0.070114024 0.039255727 0.15272285
0.52985036 -0.24840222 0.16384251 -0.17236358 -0.08923263 0.12511453 -0.31551063 0.023001723
0.06456525 0.29458526 0.2802534 0.71920127 0.043010373 -0.4972377 0.028135804 0.010058542
-0.34354678 -0.072875656 0.31857044 -0.17072865 -0.10815149 0.21516165 0.25054342 0.546526
-0.10760205 0.25435942 0.25835755 -0.91997534 0.03265761 0.39203292 0.17663169 0.09858689
-0.0022049043 -0.3223264 0.12630387 0.07307569 -0.17895813 0.13125667 0.16336021 0.2883028
-0.25432628 0.06193852 0.062864475 -0.37756592 0.019051012 0.19857283 0.10051663 0.06440183
-0.090611525 0.074087285 -0.03179355 -0.21961688 -0.4193946 0.108041145 -0.19248237 -0.45940563
-0.55773896 -0.1379366 0.042400423 0.13223933 -0.12082955 -0.2969438 -0.13603485 -0.24153545
-0.66548663 -0.07299131 0.035271417 0.08508228 0.17950422 0.012859376 -0.1327727 0.08588982
0.24190944 0.2079838 0.32536075 -0.36975116 0.013242799 0.09911865 0.2535541 0.12697408
0.119094804 -0.1645093 -0.036191393 -0.14549458 -0.17706789 0.17444837 -0.10461894 -0.10769112
-0.09524205 -0.23186238 -8.452634e-05 -0.17142336 0.10980855 0.07539166 -0.0020532715 0.08989203
-0.007532163 -0.45182705 0.4180075 -0.014754417 -0.042511035 0.070506066 0.21621916 0.247809
0.06072134 0.12379585 0.18973558 -0.4020043 0.14222503 0.42215094 -0.11481869 0.20942709
00000000: 14c0 1b3f 59cf a9be dc84 c63d f600 90be
00000010: 2957 f1be 2fbf 783d b1ec 8fbe cf9d da3c
00000020: 429d 953e 8219 c43e 36b0 b33d 0b1f 253f
00000030: 4e6a d73d 617d 73be 9f72 633d 0b24 f33d
00000040: 0f11 b5be baea a6bb 46bf 77be 5c81 f33d
00000050: 9e93 9fbd 78dd 183c a52f 843e 299c 113e
00000060: 6fe3 253e 83cb c63d 5f0a a63e 7a1d 38bf
00000070: de67 bebc ceba 073e fe82 873d f75e 0bbe
00000080: c6b4 203e b6cc e5bc b22f 3abe 950c 8f3e
00000090: c4d6 433e 9f85 b43c cd82 d0bd bf2a 673e
000000a0: 5414 7ebd eaab 783d 16b6 a23e b2a2 10bf
000000b0: 5708 7dbc 78f4 ec3d e6f5 9f3e debe 943d
000000c0: 017c c1be da47 f0be d957 9e3e 1f40 8b3d
000000d0: d2dd e53d 45af ac3e a45e f1bd 9f90 0e3f
000000e0: 54f4 713e 3d03 973e a0ae d53e bdd8 8dbf
000000f0: a47a d43d 5af8 3c3e 2b93 953e fc77 253e
00000100: c941 d1be 4502 bd3c 965d 203e f16b 5cbe
00000110: 578b 34be 4931 3f3e aed0 4d3e 5fbe c13e
00000120: d001 923e 7a2e 9f3e 40e8 a13e 0747 67bf
00000130: 526f 52be cffd 333e 1e2d b03b 4ba2 0ebd
00000140: 8a72 163d 2bc8 663e d62d 5b3d 667a 84bd
00000150: 3b2f cd3d 3c24 233e 8419 843d a1fe 6f3d
00000160: 141e 263e 0c31 14bd c4bd 2bbd 4edb 983e
00000170: 4d8b 7abe 25e2 1e3d 07ba 4b3e 8baf 90bc
00000180: 986d 193e 34d6 52bd d807 62be d285 d13d
00000190: 8161 1e3e 7e3f 01be fffa 923c d006 3f3e
000001a0: eb59 cebd b172 bbbd 5e33 f03c 50a4 0fbd
000001b0: 1238 07be 20c1 5fbe e912 9dbd 68ef 79bd
000001c0: 636b 9ebd c8a9 40be f6d1 543e d696 153e
000001d0: 971d c8bd 2572 ee3d 7648 503e b40e c33e
000001e0: efc6 31bd c226 163e 7413 0d3f 8a53 8ebf
000001f0: 4949 57be dc44 f23d 3beb a93e 9070 babd
00000200: b3a7 adbe cf44 2cbe e903 ce3e 80ca 533e
00000210: a9f8 f93d 8f0e cf3e bfa1 fdbc 098f f03e
00000220: 6958 043e 5e06 773e 3ac3 0a3e 8321 37bf
00000230: 6946 0e3e f197 8fbd 9dca 203d 6163 1c3e
00000240: 46a4 073f 275d 7ebe 55c6 273e 1480 30be
00000250: 99bf b6bd 061e 003e 9c8a a1be 1c6e bc3c
00000260: c93a 843d e1d3 963e 607d 8f3e 931d 383f
00000270: a52b 303d f195 febe 0f7d e63c 95cc 243c
00000280: 5de5 afbe d53f 95bd aa1b a33e 7ed3 2ebe
00000290: 877e ddbd 5653 5c3e 3a47 803e 21e9 0b3f
000002a0: 775e dcbd 663b 823e 7147 843e 8183 6bbf
000002b0: fcc3 053d 8ab8 c83e f0de 343e ece7 c93d
000002c0: 2880 10bb f707 a5be cd55 013e b5a8 953d
000002d0: cd40 37be 2668 063e e647 273e 6d9c 933e
000002e0: 0e37 82be 3fb3 7d3d 17bf 803d 5250 c1be
000002f0: de10 9c3c ad56 4b3e aadb cd3d 1be5 833d
00000300: 8992 b9bd 13bb 973d f439 02bd 3fe3 60be
00000310: e4ba d6be ad44 dd3d 191a 45be 3737 ebbe
00000320: fbc7 0ebf 413f 0dbe 11ac 2d3d bf69 073e
00000330: 7c75 f7bd 0509 98be b84c 0bbe 1255 77be
00000340: 555d 2abf 787c 95bd c378 103d 9e3f ae3d
00000350: f4cf 373e 22b0 523c 91f5 07be 00e7 af3d
00000360: 1cb7 773e b5f9 543e af95 a63e 0650 bdbe
00000370: 53f8 583c b8fe ca3d d8d1 813e 7e05 023e
00000380: fae7 f33d 2075 28be 6d3d 14bd 88fc 14be
00000390: 4951 35be 98a2 323e 7442 d6bd 298d dcbd
000003a0: 440e c3bd 556d 6dbe bc43 b1b8 9b89 2fbe
000003b0: 4ee3 e03d f166 9a3d 2e90 06bb 5019 b83d
000003c0: 5dd0 f6bb e055 e7be 1405 d63e 83bc 71bc
000003d0: 0d20 2ebd 7c65 903d 8e68 5d3e a4c1 7d3e
000003e0: f1b6 783d ae88 fd3d 0b4a 423e 82d3 cdbe
000003f0: 70a3 113e 2b24 d83e 1026 ebbd 0e74 563e

gnn.convs.0.nn.lins.1.bias f4 [16]
-0.17578399 0.14089513 0.077879556 0.052228026 -0.06289811 0.05052811 -0.23630746 0.072616436
0.10177163 -0.15865113 0.18025297 0.14152907 -0.23710145 -0.027219577 -0.067167036 0.10985011
00000000: b800 34be d046 103e 517f 9f3d 0eed 553d
00000010: b9d0 80bd 90f6 4e3d 95fa 71be edb7 943d
00000020: a56d d03d 7175 22be 3c94 383e ffec 103e
00000030: b9ca 72be 97fb debc df8e 89bd 18f9 e03d

gnn.convs.1.nn.lins.0.weight f4 [16, 16]
-0.09271479 2.5445663e-05 0.05368065 0.035236858 0.16066088 0.011125031 -0.06936911 0.18691315
0.0899269 -0.035182226 -0.17248134 0.2680287 0.10360376 0.078283735 0.14976792 -0.09507031
-0.12030417 -0.024855113 -0.20132981 -0.27733505 -0.16461115 0.033528753 0.21452504 -0.4602042
0.0028632376 -0.2063687 -0.14005613 0.22228384 0.10601011 -0.012303912 -0.097656734 0.10758722
-0.1781891 -0.18658777 0.06582364 -0.113058545 -0.3013673 -0.116772585 0.14998665 0.07470014
-0.056467984 -0.09569508 -0.19211459 -0.03158948 -0.14005312 -0.17963377 -0.23674527 -0.08369225
-0.21298897 0.0031340718 0.052601367 0.052968413 -0.008646369 -0.11826116 0.1205869 -0.15661013
-0.086489916 -0.059875786 -0.13956597 -0.1371325 0.17107925 0.19958031 -0.19380969 -0.03142506
-0.20706269 0.09978539 -0.21682957 0.23996428 0.4391537 0.21097599 -0.28630373 0.23585248
0.028184272 0.025443422 -0.18203431 -0.13509893 -0.12768343 -0.06340373 -0.082983434 -0.004139197
0.12675782 -0.26437303 -0.32496423 0.155015 -0.040295005 -0.3257174 0.049338758 -0.037735045
-0.040326968 -0.167112 -0.21572322 0.066785544 -0.2374118 0.060961306 0.15658501 -0.028795216
-0.061580434 0.15015593 -0.15212665 0.057742998 -0.18829939 -0.264616 0.15606439 -0.21481827
-0.18151124 -0.0115347 0.12190021 0.049587227 0.13886802 -0.14049055 0.1620402 -0.07163147
-0.24632469 0.06737059 -0.079272315 0.6468013 0.3195415 0.124033526 0.17617872 0.2234717
0.077221654 -0.28340104 0.23977455 0.0884972 0.04181829 0.23911937 0.22665223 0.068540536
0.28211987 -0.2581547 -0.23659796 0.06598879 -0.17625518 -0.35322225 -0.18782967 -0.3533519
0.29422554 0.1215039 0.12242201 0.17857662 -0.011040498 -0.09612378 0.18425673 0.052685626
-0.510732 0.16601671 0.017090961 0.81976384 0.32836035 -0.14229071 0.14588088 0.42215276
0.3608355 -0.3474952 0.24245305 0.09550315 0.09599466 0.21428087 -0.26207533 0.13242313
0.13257085 -0.23313679 -0.08796698 -0.3170558 0.038769126 -0.29968736 -0.0377115 -0.124458686
-0.06801016 -0.1885909 0.15250851 -0.0014372385 0.0109816305 0.039169323 0.09599772 0.2950218
-0.111076705 0.18676353 0.07053104 0.52332735 0.29007217 -0.14896993 -0.14685704 0.35550034
0.16837645 -0.45109826 -0.1559076 0.13090329 -0.09364827 0.003870432 -0.17638531 0.06872303
0.08153149 -0.099223785 0.04119619 -0.10191136 -0.30721712 -0.30934656 0.19447237 -0.16045946
-0.13091809 -0.14191027 0.08583073 -0.09169436 -0.2930829 -0.13161439 -0.23931307 -0.09560609
-0.05567607 -0.100021124 -0.32259688 0.20651042 -0.20315203 0.10202039 0.118656784 -0.08072892
0.13989908 -0.00036411543 -0.014313569 0.17898273 -0.1892301 -0.25659916 0.05189714 -0.32413468
-0.14890288 -0.08964503 0.2970575 0.71883404 0.33876505 -0.11038484 -0.2939062 0.36100078
0.05918749 -0.5703056 0.15731405 0.06082776 -0.100874715 0.032124393 -0.049001798 0.2964092
0.13698795 0.2020751 -0.2224203 0.11937063 -0.11149992 -0.23873794 -0.22748446 -0.011520069
0.034758817 -0.20004854 -0.20288262 -0.048114665 0.15573688 0.024882348 0.13185084 0.19037889
00000000: 40e1 bdbd 2574 d537 3ee0 5b3d 8654 103d
00000010: 4984 243e c345 363c 6411 8ebd 2966 3f3e
00000020: 982b b83d 3d1b 10bd f39e 30be 0f3b 893e
00000030: 352e d43d 3953 a03d c35c 193e 39b4 c2bd
00000040: 0862 f6bd f39c cbbc 6729 4ebe dcfe 8dbe
00000050: d38f 28be 7255 093d 74ac 5b3e e39f ebbe
00000060: 28a5 3b3b 5152 53be e06a 0fbe 609e 633e
00000070: d41b d93d 5996 49bc 4100 c8bd b056 dc3d
00000080: 3477 36be dd10 3fbe 8bce 863d 3d8b e7bd
00000090: d14c 9abe 7726 efbd 1a96 193e 63fc 983d
000000a0: f94a 67bd c8fb c3bd b0b9 44be f863 01bd
000000b0: 166a 0fbe eaf1 37be 5a6d 72be d866 abbd
000000c0: c819 5abe 0065 4d3b 8874 573d 68f5 583d
000000d0: 80a9 0dbc e832 f2bd 44f6 f63d 685e 20be
000000e0: a021 b1bd 5040 75bd 62ea 0ebe 766c 0cbe
000000f0: 662f 2f3e c85e 4c3e 0c76 46be 90b7 00bd
00000100: 3e08 54be 485c cc3d 9208 5ebe 32b9 753e
00000110: c1d8 e03e 170a 583e 6796 92be 5083 713e
00000120: b4e2 e63c b96e d03c 3467 3abe 6057 0abe
00000130: 72bf 02be d1d9 81bd 38f3 a9bd 1aa2 87bb
00000140: cdcc 013e e75b 87be b661 a6be 41bc 1e3e
00000150: 600c 25bd 6ec4 a6be 7017 4a3d 1090 1abd
00000160: e42d 25bd 681f 2bbe 8ce6 5cbe dcc6 883d
00000170: 141c 73be 90b2 793d d257 203e f2e3 ebbc
00000180: c43b 7cbd 7ac2 193e 17c7 1bbe ec83 6c3d
00000190: 8ed1 40be c07b 87be 58cf 1f3e 52f9 5bbe
000001a0: 15de 39be 0afc 3cbc d1a6 f93d fa1b 4b3d
000001b0: 6b33 0e3e c1dc 0fbe deed 253e 85b3 92bd
000001c0: 8a3c 7cbe 98f9 893d 8659 a2bd c594 253f
000001d0: f29a a33e 4a05 fe3d 3268 343e c4d5 643e
000001e0: 6326 9e3d f119 91be 7687 753e 053e b53d
000001f0: a849 2b3d b5db 743e 8617 683e fb5e 8c3d
00000200: 0472 903e da2c 84be bc46 72be 2125 873d
00000210: 3d7c 34be 8cd9 b4be 6c56 40be 8aea b4be
00000220: bba4 963e 09d7 f83d 64b8 fa3d cadc 363e
00000230: 34e3 34bc 8bdc c4bd ccad 3c3e e2cc 573d
00000240: 55bf 02bf 4900 2a3e 5802 8c3c 0bdc 513f
00000250: d91e a83e a8b4 11be cc61 153e 6824 d83e
00000260: 6ebf b83e e4ea b1be 9d45 783e 2897 c33d
00000270: d998 c43d 726c 5b3e bd2e 86be ee99 073e
00000280: a7c0 073e 69bb 6ebe 0828 b4bd 2355 a2be
00000290: 60cc 1e3d 9f70 99be 6077 1abd 32e4 febd
000002a0: e948 8bbd f91d 41be 312b 1c3e b961 bcba
000002b0: 4cec 333c 0370 203d 749a c43d 190d 973e
000002c0: 2f7c e3bd f03e 3f3e 9472 903d c8f8 053f
000002d0: 5784 943e 938b 18be b161 16be 2404 b63e
000002e0: e06a 2c3e 5af6 e6be 3ea6 1fbe 830b 063e
000002f0: aaca bfbd 13a7 7d3b 5a9e 34be a9be 8c3d
00000300: fbf9 a63d d735 cbbd 56bd 283d e7b6 d0bd
00000310: 904b 9dbe ac62 9ebe c423 473e 7c4f 24be
00000320: 640f 06be ed50 11be 06c8 af3d 41ca bbbd
00000330: f60e 96be ecc5 06be 7c0e 75be 20cd c3bd
00000340: 970c 64bd e0d7 ccbd 6b2b a5be 7877 533e
00000350: 1607 50be 11f0 d03d 5402 f33d 3455 a5bd
00000360: b441 0f3e bfe6 beb9 7683 6abc 4047 373e
00000370: 89c5 41be f760 83be 1892 543d fbf4 a5be
00000380: ff79 18be d097 b7bd ec17 983e 8205 383f
00000390: 9d72 ad3e 7211 e2bd e07a 96be 18d5 b83e
000003a0: 956e 723d 8cff 11bf ef16 213e 8726 793d
000003b0: 6797 cebd de94 033d 1cb6 48bd f2c2 973e
000003c0: 9246 0c3e c6ec 4e3e 26c2 63be 9778 f43d
000003d0: 125a e4bd b877 74be b0f1 68be acbe 3cbc
000003e0: 435f 0e3d 86d9 4cbe 76c0 4fbe e213 45bd
000003f0: 7d79 1f3e 11d6 cb3c e803 073e aff2 423e

gnn.convs.1.nn.lins.0.bias f4 [16]
0.080573685 0.06733971 -0.21634284 -0.11418477 0.21235235 0.0014381023 -0.11590283 -0.28535014
-0.099563405 -0.2777941 0.034085255 0.18273054 -0.18216492 -0.2150709 -0.12408377 0.0025658894
00000000: d103 a53d 67e9 893d fa88 5dbe b4d9 e9bd
00000010: e572 593e b57e bc3a 775e edbd 6a19 92be
00000020: e6e7 cbbd 073b 8ebe fb9c 0b3d b71d 3b3e
00000030: 7189 3abe 8c3b 5cbe a21f febd 7b28 283b

gnn.convs.1.nn.lins.1.weight f4 [16, 16]
-0.083810106 -0.03771441 0.18907058 -0.17608634 -0.030373272 -0.06258151 0.09574068 -0.15153064
-0.0459381 0.27253193 -0.017985959 -0.18159215 0.18465856 0.0925042 0.091930024 0.27424788
-0.15448846 0.2608207 -0.073869556 0.17824927 0.2265845 -0.11227563 0.07585354 -0.18297088
0.13736208 -0.28651553 -0.24965745 -0.067986585 -0.15721206 0.09867493 0.10372008 0.040932033
0.022405168 -0.120040596 0.122645944 0.084359825 -0.103207454 0.1968911 -0.16968945 -0.1213879
-0.15341151 -0.111084014 0.05274546 -0.09005394 -0.065796375 -0.10936853 -0.17303702 0.07712957
0.019536773 -0.093776464 -0.09621385 -0.20910189 0.15008613 0.12204468 0.21803248 0.15458852
0.5713743 -0.4012178 -0.18688354 -0.44056323 -0.024140997 -0.12083563 -0.27600852 0.26373082
-0.08565086 -0.60525876 0.24810255 -0.048835635 -0.7633969 -0.054879278 -0.17404497 0.49478945
0.026661653 0.33047614 0.13843594 0.2587918 0.12546994 0.04754421 0.38609043 0.28280857
-0.2707462 -0.12274009 -0.01376912 0.17401922 0.16937178 -0.0945417 -0.18887779 0.1365684
-0.16470653 -0.10149895 -0.075348526 0.12018247 -0.14788324 -0.24781743 -0.2581685 -0.05214581
-0.12543264 0.20536864 0.04142505 0.1413936 -0.24137989 -0.11363912 0.06740922 -0.10683492
-0.22980493 0.09298393 -0.19890213 0.08144197 0.14838144 -0.073076814 -0.23752487 -0.1963247
-0.21660325 -0.009940851 0.18277186 0.22361872 -0.31571347 0.10762356 0.1151184 -0.14222822
0.06461765 0.2547494 0.16583705 -0.06295721 -0.08114706 -0.22469822 -0.16198209 -0.107550465
0.093443476 -0.069669425 0.05630046 -0.20249665 -0.025308779 0.19241193 -0.11284843 -0.020759292
-0.121456295 -0.051296752 -0.048876017 -0.19998124 -0.23606566 0.2019251 0.09593224 -0.20610163
-0.3162373 0.15733542 -0.07979411 -0.16919601 0.15656781 -0.103929654 0.12604493 -0.0029326805
-0.047199458 -0.20275508 -0.04632703 -0.074799456 0.10388693 -0.093504936 -0.21939266 0.26381668
0.07881316 0.18898025 0.05034368 -0.062294364 -0.207378 -0.07834256 -0.024927648 0.2231554
-0.12078858 0.60304105 0.09595548 -0.034538116 0.07882592 0.018521218 0.43283477 0.022890814
0.14452055 0.06875359 0.18942045 0.14041698 0.17881131 0.061652202 0.037291713 0.39615682
-0.039210223 0.65974677 0.2302718 0.1776577 0.00041187543 0.09726717 0.49618217 -0.110492036
-0.19289362 -0.23498929 0.15604186 -0.0681569 -0.06473932 0.10169569 0.068983406 -0.13207951
-0.061906606 -0.18260065 -0.23421794 0.13376993 0.0071545243 0.22197136 0.09418529 0.16688222
-0.05020914 0.07552918 -0.0142316185 -0.15931588 0.121572495 -0.07015944 0.10198989 0.2497047
-0.20749296 0.0136144 0.19513097 -0.05770262 -0.045316584 0.009643769 0.33884624 -0.23882456
-0.14731883 -0.132429 0.15783732 -0.10062623 0.06676879 -0.17460784 0.06532334 0.5021987
-0.13622014 0.48372367 -0.05770247 0.10207053 -0.18051328 -0.10422827 0.41382518 0.078014724
-0.053999133 -0.14613387 0.1322367 -0.10306299 -0.19603921 -0.015312628 -0.16426472 0.14947139
-0.08755411 -0.099163525 -0.20096591 -0.21824135 -0.103634454 0.3138485 0.15417719 0.0040737567
00000000: a2a4 abbd 6d7a 1abd b89b 413e fa4f 34be
00000010: 5ed1 f8bc bc2a 80bd b113 c43d d92a 1bbe
00000020: 9729 3cbd 4e89 8b3e 4a57 93bc 4bf3 39be
00000030: 2217 3d3e d872 bd3d cf45 bc3d 386a 8c3e
00000040: 3932 1ebe 4a8a 853e ec48 97bd fa86 363e
00000050: c405 683e c4f0 e5bd 1a59 9b3d b85c 3bbe
00000060: a5a8 0c3e 2ab2 92be 34a6 7fbe 8d3c 8bbd
00000070: 33fc 20be 1516 ca3d 316b d43d 59a8 273d
00000080: 0b8b b73c d8d7 f5bd cc2d fb3d d8c4 ac3d
00000090: 6e5e d3bd d29d 493e 12c3 2dbe 389a f8bd
000000a0: e817 1dbe 0480 e3bd a00b 583d 336e b8bd
000000b0: 40c0 86bd 9cfc dfbd 9e30 31be 1cf6 9d3d
000000c0: 950b a03c e00d c0bd c40b c5bd ce1e 56be
000000d0: 2eb0 193e 90f2 f93d e843 5f3e 744c 1e3e
000000e0: 9645 123f 6b6c cdbe 665e 3fbe 8191 e1be
000000f0: 57c3 c5bc ac78 f7bd fd50 8dbe ba07 873e
00000100: b869 afbd 3df2 1abf 980e 7e3e e007 48bd
00000110: fb6d 43bf 18c9 60bd d838 32be 0b55 fd3e
00000120: 8a69 da3c 2b34 a93e 27c2 0d3e 5c80 843e
00000130: 317b 003e b8bd 423d a5ad c53e 49cc 903e
00000140: 3f9f 8abe 285f fbbd e097 61bc 1832 323e
00000150: cc6f 2d3e 149f c1bd 2e69 41be 96d8 0b3e
00000160: d4a8 28be aede cfbd 5450 9abd 3a22 f63d
00000170: b46e 17be dac3 7dbe a92e 84be d896 55bd
00000180: 6a71 00be 284c 523e 50ad 293d 7cc9 103e
00000190: 4a2c 77be a0bb e8bd d80d 8a3d 44cc dabd
000001a0: fc51 6bbe 5c6e be3d 00ad 4bbe 0ccb a63d
000001b0: 4ef1 173e 4ca9 95bd b839 73be 5809 49be
000001c0: 3ecd 5dbe f3de 22bc 8c28 3b3e 4efc 643e
000001d0: 32a5 a1be be69 dc3d 32c3 eb3d 46a4 11be
000001e0: 4256 843d 836e 823e 30d1 293e b6ef 80bd
000001f0: 6e30 a6bd 4a17 66be a2de 25be 6b43 dcbd
00000200: 4b5f bf3d d8ae 8ebd 509b 663d 485b 4fbe
00000210: 5b54 cfbc a207 453e 141d e7bd 640f aabc
00000220: 14be f8bd 8b1c 52bd 3832 48bd e2c7 4cbe
00000230: 32bb 71be 74c5 4e3e 1f78 c43d 4e0c 53be
00000240: dbe9 a1be 891c 213e 186b a3bd b841 2dbe
00000250: 5053 203e 12d9 d4bd ec11 013e 3732 40bb
00000260: 3854 41bd 079f 4fbe 69c1 3dbd 7530 99bd
00000270: acc2 d43d 847f bfbd 78a8 60be fb12 873e
00000280: cb68 a13d 0a84 413e 2d35 4e3d 6028 7fbd
00000290: e65a 54be 1072 a0bd 1135 ccbc d982 643e
000002a0: 0160 f7bd e660 1a3f 4f84 c43d d777 0dbd
000002b0: 7c6f a13d cfb9 973c 859c dd3e 8485 bb3c
000002c0: 32fd 133e afce 8c3d 6ff7 413e 78c9 0f3e
000002d0: 501a 373e 0587 7c3d 32bf 183d 11d5 ca3e
000002e0: e69a 20bd 2ae5 283f 5fcc 6b3e e6eb 353e
000002f0: fcf0 d739 0334 c73d 970b fe3e a649 e2bd
00000300: e885 45be 08a1 70be 70c9 1f3e d895 8bbd
00000310: 0c96 84bd d445 d03d 2c47 8d3d da3f 07be
00000320: c891 7dbd aafb 3abe d4d6 6fbe fcfa 083e
00000330: 8070 ea3b 764c 633e 38e4 c03d 2ce3 2a3e
00000340: 19a8 4dbd 0baf 9a3d bc2b 69bc b423 23be
00000350: 00fb f83d c1af 8fbd 13e0 d03d 97b2 7f3e
00000360: 0979 54be ef0e 5f3c 6ad0 473e 9559 6cbd
00000370: e29d 39bd e600 1e3c 417d ad3e 6d8e 74be
00000380: bfda 16be 789b 07be 1ba0 213e 2015 cebd
00000390: 13be 883d 66cc 32be 3ec8 853d 1890 003f
000003a0: 4b7d 0bbe a1aa f73e 6d59 6cbd 5b0a d13d
000003b0: 79d8 38be a275 d5bd e5e0 d33e 2fc6 9f3d
000003c0: 322e 5dbd 1ea4 15be 0f69 073e b012 d3bd
000003d0: 81be 48be d1e1 7abc 0335 28be 070f 193e
000003e0: 924f b3bd 3f16 cbbd 02ca 4dbe a97a 5fbe
000003f0: 4d3e d4bd c0b0 a03e a0e0 1d3e 267d 853b

gnn.convs.1.nn.lins.1.bias f4 [16]
-0.015324073 0.094907105 -0.047738943 -0.23051032 -0.069568135 -0.25538573 -0.17072746 -0.023677709
-0.20204826 -0.08391177 0.020712761 0.047987927 -0.16435122 0.15001373 0.14882313 0.15812293
00000000: d211 7bbc a85e c23d e989 43bd e60a 6cbe
00000010: bd79 8ebd ebc1 82be 2ed3 2ebe c1f7 c1bc
00000020: bde5 4ebe efd9 abbd cfad a93c fd8e 443d
00000030: b04b 28be 339d 193e 1765 183e faea 213e

gnn.convs.2.nn.lins.0.weight f4 [16, 16]
0.18326771 0.1587872 0.072737254 -0.4450921 0.10825933 -0.08244378 0.14965224 -0.07865835
0.0054609724 -0.048193898 0.20453484 0.24680158 0.07629812 0.14386284 0.20827213 0.22358736
0.11055466 -0.2454755 -0.11925861 -0.0937445 0.18716316 0.1163294 0.06711379 0.24090587
0.1698515 0.24450113 0.14158733 -0.100278355 0.11396423 -0.21703094 -0.24818012 -0.06380478
0.031514686 0.088202566 0.060041737 -0.12552853 0.19797355 0.106155746 -0.022304893 -0.053002637
-0.21411481 -0.052834425 0.22573404 0.24129166 0.07799393 0.045805763 0.275178 -0.08167074
-0.0646889 -0.106039636 -0.021135075 0.0348677 -0.08901353 -0.013544697 0.12507766 0.08224755
0.22931296 -0.063309334 0.12264531 0.3794389 -0.18590051 -0.028439302 0.28034443 -0.13233753
-0.0058739535 -0.2459486 0.18338451 -0.07290116 0.35499033 -0.09690401 -0.08218205 0.01434604
0.022918956 -0.04329725 -0.18640742 0.034187622 0.06206888 -0.10598104 0.07439447 -0.06942507
-0.20592345 0.41267705 -0.06436995 0.47374412 0.06052926 0.19672436 0.075576395 0.54750955
0.0879266 -0.09184846 -0.25485635 -0.16444102 -0.13515782 -0.09827274 -0.198334 0.13226777
-0.14381878 0.13080968 0.15592478 -0.22991654 0.23477331 -0.15527163 -0.18231195 -0.16842659
0.11221701 0.20037204 0.19441691 0.050517447 -0.16474551 0.05424233 0.17116544 -0.04217066
-0.14171514 0.1711584 -0.14772062 -0.008547499 -0.059077986 0.13023022 -0.0493823 -0.18125555
0.14091113 0.0047907652 -0.044397518 -0.08833346 -0.15802026 0.0015754047 0.04293773 -0.13069497
0.17680421 0.031142302 0.047299407 -0.10900256 0.097804375 -0.14019112 -0.24622005 -0.11449019
0.007785963 -0.10875487 0.27600467 0.13396046 0.03643921 -0.09171492 0.25274178 0.17249405
0.101332925 -0.29199257 -0.029137624 -0.14897531 -0.45555145 -0.006106278 -0.1094605 -0.104506955
-0.12491854 0.13434204 -0.113577776 -0.01084375 0.19758871 0.16314887 0.10298311 -0.14923531
0.014958898 -0.087283246 0.20343775 -0.338373 -0.058766045 -0.15172859 -0.08575615 0.07999448
0.00038849792 -0.07699091 0.25920305 0.24593386 -0.022030324 0.19733283 0.1464726 -0.09429221
-0.1197294 0.0698538 0.18230999 -0.089766346 0.2265974 0.015382081 0.14660704 -0.021993965
-0.007827222 0.021745563 0.07264181 -0.21112263 -0.18021372 -0.028530637 -0.09107516 -0.251576
-0.12163076 -0.1311702 -0.1499756 -0.029579718 -0.14632279 -0.12493822 0.06456652 -0.10649344
-0.16325915 -0.19347993 0.18439241 -0.23144554 0.056255907 -0.23379652 0.102911696 -0.04198126
-0.12352313 -0.19943814 0.1254378 0.07704852 -0.004306993 0.004612237 0.23176077 -0.074711666
0.20488691 -0.027505985 -0.07454134 -0.14433587 -0.15921411 -0.1261304 -0.21054874 -0.30406106
-0.021504581 -0.14723818 -0.0117124915 -0.016810264 -0.023162847 -0.16609034 -0.0981178 -0.053387642
0.24893367 -0.010461152 0.1762461 -0.34615505 0.07886031 0.03990528 -0.19453532 0.0937404
-0.15586954 0.24279186 0.11840114 0.1775721 -0.046480168 0.1867319 -0.07820848 0.12753011
0.082688846 -0.11623952 0.008168003 0.20661914 0.20643541 -0.056951758 -0.25039366 -0.035335667
00000000: 88aa 3b3e 1d99 223e 45f7 943d 1de3 e3be
00000010: 11b7 dd3d 49d8 a8bd 703e 193e a117 a1bd
00000020: f5f1 b23b f766 45bd 9571 513e 8eb9 7c3e
00000030: 3042 9c3d c850 133e 4a45 553e 16f4 643e
00000040: 7b6a e23d ee5d 7bbe dc3d f4bd 1efd bfbd
00000050: b3a7 3f3e 1c3e ee3d f472 893d 07b0 763e
00000060: 8ded 2d3e 815e 7a3e 45fc 103e bd5e cdbd
00000070: 1466 e93d 5c3d 5ebe ee22 7ebe 15ac 82bd
00000080: 8b15 013d 8ca3 b43d 53ee 753d 8d8a 00be
00000090: 94b9 4a3e 2f68 d93d c0b8 b6bc 4b19 59bd
000000a0: ea40 5bbe e968 58bd d326 673e 2915 773e
000000b0: 48bb 9f3d d39e 3b3d 21e4 8c3e fd42 a7bd
000000c0: 9d7b 84bd 4f2b d9bd 7723 adbc 6fd1 0e3d
000000d0: ba4c b6bd 94ea 5dbc 5c14 003e 6771 a83d
000000e0: 04d1 6a3e 53a8 81bd 772d fb3d d145 c23e
000000f0: b45c 3ebe 8af9 e8bc 4e89 8f3e 7d83 07be
00000100: 4b7a c0bb f3d9 7bbe 26c9 3b3e 344d 95bd
00000110: 4bc1 b53e 9c75 c6bd 104f a8bd a70b 6b3c
00000120: 89c0 bb3c 7558 31bd 96e1 3ebe 5208 0c3d
00000130: f03b 7e3d 960c d9bd 215c 983d bb2e 8ebd
00000140: 99dd 52be 684a d33e 64d4 83bd 978e f23e
00000150: 88ed 773d 1c72 493e ccc7 9a3d 9629 0c3f
00000160: dc12 b43d 0c1b bcbd 887c 82be 3a63 28be
00000170: d066 0abe 3843 c9bd 1118 4bbe 3471 073e
00000180: 3b45 13be f9f2 053e bfaa 1f3e 3e6f 6bbe
00000190: 6a68 703e 87ff 1ebe fcaf 3abe 0578 2cbe
000001a0: 08d2 e53d 542e 4d3e 3a15 473e 62eb 4e3d
000001b0: 0cb3 28be 352d 5e3d fe45 2f3e 24bb 2cbd
000001c0: c61d 11be 2644 2f3e 1344 17be cf0a 0cbc
000001d0: c2fb 71bd 125b 053e 1845 4abd 0e9b 39be
000001e0: 024b 103e dafb 9c3b 2cda 35bd 2ce8 b4bd
000001f0: 10d0 21be cf7d ce3a 79df 2f3d e7d4 05be
00000200: 2a0c 353e 241e ff3c 06bd 413d bc3c dfbd
00000210: a94d c83d 438e 0fbe 1c21 7cbe d579 eabd
00000220: 6421 ff3b e0ba debd 7c50 8d3e ee2c 093e
00000230: 4841 153d 08d5 bbbd 5f67 813e 48a2 303e
00000240: a387 cf3d 0d80 95be 07b2 eebc fc8c 18be
00000250: 0a3e e9be 2c17 c8bb d42c e0bd be07 d6bd
00000260: 4bd5 ffbd f690 093e 779b e8bd fca9 31bc
00000270: b254 4a3e 7f10 273e cfe8 d23d 24d1 18be
00000280: 2a16 753c 8fc1 b2bd fc51 503e 3a3f adbe
00000290: aab4 70bd bd5e 1bbe eca0 afbd 25d4 a33d
000002a0: 4faf cb39 69ad 9dbd 43b6 843e 16d6 7b3e
000002b0: f078 b4bc 9e11 4a3e eafc 153e 461c c1bd
000002c0: b034 f5bd 820f 8f3d 78af 3a3e 6bd7 b7bd
000002d0: 2609 683e 2005 7c3c 2820 163e b02c b4bc
000002e0: c03d 00bc c023 b23c 3bc5 943d 8830 58be
000002f0: f289 38be 15b9 e9bc 9d85 babd 92ce 80be
00000300: 8c19 f9bd 7b51 06be 3493 19be 2a51 f2bc
00000310: a4d5 15be 9cdf ffbd 743b 843d 3c19 dabd
00000320: 682d 27be 9a1f 46be 5dd1 3c3e 0f00 6dbe
00000330: 986c 663d 5b68 6fbe 5ec3 d23d 8bf4 2bbd
00000340: b2f9 fcbd 8339 4cbe c472 003e 9dcb 9d3d
00000350: ad21 8dbb 4022 973b b252 6d3e 6e02 99bd
00000360: e0cd 513e 3b54 e1bc 21a9 98bd c8cc 13be
00000370: 0609 23be 5428 01be 179a 57be e4ad 9bbe
00000380: 602a b0bc 9bc5 16be c0e5 3fbc aeb5 89bc
00000390: 03c0 bdbc 9613 2abe fcf1 c8bd 00ad 5abd
000003a0: 78e8 7e3e 4065 2bbc dc79 343e 3c3b b1be
000003b0: 8481 a13d b873 233d 4434 47be f8fa bf3d
000003c0: 449c 1fbe 6e9e 783e 4c7c f23d 76d5 353e
000003d0: fd61 3ebd a636 3f3e c42b a0bd 4197 023e
000003e0: c558 a93d fc0e eebd 16d3 053c f893 533e
000003f0: ce63 533e 3f46 69bd 9933 80be 22bc 10bd

gnn.convs.2.nn.lins.0.bias f4 [16]
-0.1640567 0.10174657 -0.16818817 0.24885282 0.16069311 -0.23126243 0.18027353 0.18413973
-0.10936491 0.043719865 -0.26781866 -0.0033152879 -0.102911875 0.12147272 -0.3477394 -0.09219516
00000000: 7bfe 27be 8160 d03d 8539 2cbe 46d3 7e3e
00000010: bc8c 243e 0fd0 6cbe a099 383e 208f 3c3e
00000020: b6fa dfbd 9a13 333d 871f 89be 4d45 59bb
00000030: 76c3 d2bd b0c6 f83d e60a b2be d1d0 bcbd

gnn.convs.2.nn.lins.1.weight f4 [16, 16]
-0.17326489 9.698563e-05 0.081161804 -0.3369352 -0.048492134 0.091243215 -0.34650794 0.103148006
0.10212436 0.00083976984 0.20212677 0.13178721 -0.10911691 -0.22319087 -0.11610779 -0.32162866
-0.02419032 0.19769862 -0.15416706 -0.13408236 -0.09887979 -0.13887843 -0.28742144 -0.21903239
-0.2754427 0.10506377 -0.038573924 -0.13816094 0.18956643 -0.18541698 -0.10379857 0.05037865
-0.19686957 0.42243823 -0.2993223 -0.11119764 0.023432164 -0.14568976 0.04440557 -0.06110024
-0.0044937287 0.073642485 0.06574774 0.14152023 -0.07340214 -0.17660768 -0.24962333 -0.38143986
0.053668194 0.31164464 -0.05156877 0.02744563 0.08056332 -0.21063328 -0.29118967 0.008817312
0.3171301 0.10296508 0.08559597 0.2488238 0.17650901 0.20417178 0.18475392 -0.5005345
0.22714871 -0.04028611 0.39154613 0.123490274 -0.05061991 -0.75230134 0.19127874 -0.016207177
0.1154196 -0.17951337 0.06788975 0.26111317 -0.24829501 0.16457722 0.12970178 -0.15467581
-0.144979 -0.07825655 -0.030085385 -0.07816529 -0.05526182 -0.17360204 -0.07112265 0.16922751
0.16651478 0.0024378598 0.19066715 -0.084166616 -0.055530816 -0.1975213 0.17200488 -0.104774326
-0.086515784 -0.20708951 0.20434797 -0.20216548 0.008309275 -0.17273977 -0.044585526 0.10350761
0.15352347 -0.20540074 -0.19379991 0.059753925 -0.01795739 -0.14662322 -0.20602196 0.13658386
0.013614464 0.15429568 -0.032396507 0.03269037 0.025247166 -0.08559847 -0.012611003 -0.06118805
-0.25613344 0.15227543 -0.25652814 -0.16465521 -0.01932019 0.20857617 -0.21226111 0.02844426
-0.0073241293 -0.10244629 0.091475844 -0.20592552 0.0029565096 -0.2311604 -0.19828695 -0.15476689
-0.23446223 0.119642586 -0.19292137 0.020141274 -0.13399234 -0.2353619 0.1881091 0.22018147
0.008802449 -0.08422697 0.27782637 0.26721847 0.39839852 -0.5520788 -0.09842372 0.09510013
0.31991473 -0.2743145 0.25891042 -0.10343319 -0.0924447 0.12819064 0.014191419 0.06714552
0.079798274 0.06628432 0.3462314 0.0818117 -0.19619672 -0.38303185 0.014308469 -0.06594355
0.17043771 -0.16491166 0.47938323 -0.057407834 -0.2742775 0.10327057 0.15631959 0.006989246
0.25693366 -0.17564538 0.11310966 0.11083213 -0.22564174 0.062918246 0.13290446 0.10574096
-0.2828144 0.19274408 0.17152297 0.0057218173 0.08207998 -0.18577915 -0.13460506 0.023876831
-0.24973407 -0.20786875 -0.22331414 -0.43548736 -0.10035494 -0.0651535 -0.24984515 -0.03002684
-0.0029035509 -0.20067447 0.15325087 0.17688003 -0.20694616 0.24521114 -0.12376815 -0.1456088
0.15310588 0.16962934 -0.100386895 0.20973727 -0.11791542 -0.14246719 0.024175452 0.01797093
0.33243552 0.09653608 0.15550826 -0.10877699 0.17494291 -0.15904656 -0.19892654 -0.2584276
-0.3095648 0.08132835 0.025556015 0.081806086 -0.081125006 -0.038407665 0.02911833 -0.29867342
-0.26333413 0.029461183 0.023540724 0.06327832 -0.15263605 -0.071506396 0.024436682 0.013137955
0.30301136 0.07491556 0.45391256 0.28024423 0.30948693 -0.0017795423 0.23132344 -0.028208317
0.26356912 -0.17054632 0.49004522 -0.0949229 -0.1642336 -0.18114568 -0.074469276 -0.0009729434
00000000: 5a6c 31be c364 cb38 2938 a63d c582 acbe
00000010: b09f 46bd b9dd ba3d 7d69 b1be 433f d33d
00000020: 9426 d13d 0024 5c3a 52fa 4e3e 3af3 063e
00000030: b078 dfbd 268c 64be ecc9 edbd 83ac a4be
00000040: c72a c6bc 8271 4a3e f8dd 1dbe e34c 09be
00000050: 7d81 cabd 2636 0ebe e728 93be 074a 60be
00000060: d306 8dbe ad2b d73d b1ff 1dbd 107a 0dbe
00000070: b41d 423e f3dd 3dbe 5894 d4bd d859 4e3d
00000080: 2d98 49be d349 d83e c640 99be 97bb e3bd
00000090: cff4 bf3c b22f 15be 9de2 353d 3f44 7abd
000000a0: 2140 93bb dfd1 963d c0a6 863d aeea 103e
000000b0: dc53 96bd a5d8 34be 429d 7fbe 164c c3be
000000c0: 2ed3 5b3d e38f 9f3e c639 53bd a8d5 e03c
000000d0: 62fe a43d 40b0 57be d016 95be 7d76 103c
000000e0: e05e a23e 5bdf d23d f14c af3d abcb 7e3e
000000f0: c7be 343e 6812 513e 2230 3d3e 0723 00bf
00000100: ac99 683e 0c03 25bd bc78 c83e 78e8 fc3d
00000110: d356 4fbd d296 40bf 93de 433e eac4 84bc
00000120: 1c61 ec3d 5ad2 37be c809 8b3d a0b0 853e
00000130: 0c41 7ebe ee86 283e 8bd0 043e 5663 1ebe
00000140: 6075 14be f844 a0bd a075 f6bc 2015 a0bd
00000150: 385a 62bd bcc4 31be c0a8 91bd fa49 2d3e
00000160: da82 2a3e 80c4 1f3b 403e 433e 8c5f acbd
00000170: 4874 63bd 0643 4abe 0c22 303e ec93 d6bd
00000180: 302f b1bd 460f 54be 9840 513e 7804 4fbe
00000190: a023 083c b2e2 30be 509f 36bd ccfb d33d
000001a0: 4235 1d3e 9254 52be 7c73 46be 88c0 743d
000001b0: 601b 93bc 6624 16be 6cf7 52be a4dc 0b3e
000001c0: 330f 5f3c b0ff 1d3e 33b2 04bd 56e6 053d
000001d0: 25d3 ce3c 404e afbd 619e 4ebc 52a0 7abd
000001e0: ec23 83be 17ee 1b3e a857 83be 609b 28be
000001f0: 6045 9ebc fe94 553e fa5a 59be f003 e93c
00000200: 40ff efbb 5ccf d1bd b057 bb3d 24de 52be
00000210: 00c2 413b 50b5 6cbe bc0b 4bbe 367b 1ebe
00000220: de16 70be 2c07 f53d 2e8d 45be 50ff a43c
00000230: 4a35 09be b602 71be ac9f 403e 4077 613e
00000240: 2638 103c 317f acbd 423f 8e3e dcd0 883e
00000250: e4fa cb3e 0955 0dbf 6092 c9bd dbc3 c23d
00000260: ddcb a33e f372 8cbe e88f 843e c8d4 d3bd
00000270: a653 bdbd 6844 033e 2083 683c 9783 893d
00000280: 476d a33d 13c0 873d 3e45 b13e e48c a73d
00000290: cbe7 48be c01c c4be 126e 6a3c 690d 87bd
000002a0: 3987 2e3e 9ade 28be b871 f53e 7a24 6bbd
000002b0: 1a6e 8cbe 857f d33d 3e12 203e 0b06 e53b
000002c0: cf8c 833e 62dc 33be 0aa6 e73d f5fb e23d
000002d0: a10e 67be 48db 803d 1b18 083e b78e d83d
000002e0: 0dcd 90be b45e 453e b8a3 2f3e 157e bb3b
000002f0: 8c19 a83d e43c 3ebe e9d5 09be 5899 c33c
00000300: 4aba 7fbe 8cdb 54be 76ac 64be 33f8 debe
00000310: e486 cdbd 336f 85bd 68d7 7fbe d9fa f5bc
00000320: 8049 3ebb 9c7d 4dbe cced 1c3e 0a20 353e
00000330: b2e9 53be a118 7b3e 287a fdbd 791a 15be
00000340: cac7 1c3e 50b3 2d3e a597 cdbd 5ec5 563e
00000350: a47d f1bd ebe2 11be 990b c63c c637 933c
00000360: fd34 aa3e b5b4 c53d 8f3d 1f3e 78c6 debd
00000370: 3c24 333e 1add 22be 66b3 4bbe 9f50 84be
00000380: 477f 9ebe 7a8f a63d d95a d13c f389 a73d
00000390: de24 a6bd 5b51 1dbd 9089 ee3c b9eb 98be
000003a0: bbd3 86be 9458 f13c 7ad8 c03c 1098 813d
000003b0: a04c 1cbe f271 92bd 702f c83c 9440 573c
000003c0: 4e24 9b3e 546d 993d 3a67 e83e 2c7c 8f3e
000003d0: 1275 9e3e 883f e9ba 0de0 6c3e 2115 e7bc
000003e0: 88f2 863e b2a3 2ebe 35e7 fa3e f066 c2bd
000003f0: da2c 28be 417e 39be 5983 98bd 200d 7fba

gnn.convs.2.nn.lins.1.bias f4 [16]
-0.21345064 -0.06994103 0.042812176 -0.012739469 -0.010229719 -0.06460133 -0.14437523 -0.15236297
-0.033740938 -0.23461473 -0.3295998 -0.20422886 -0.4939237 0.1701238 -0.10836957 -0.1935544
00000000: ce92 5abe 3e3d 8fbd d25b 2f3d 35b9 50bc
00000010: 8d9a 27bc b44d 84bd 1ad7 13be 0a05 1cbe
00000020: f033 0abd d83e 70be 4ec1 a8be 5f21 51be
00000030: 91e3 fcbe ef34 2e3e ddf0 ddbd 2033 46be

gnn.convs.3.nn.lins.0.weight f4 [16, 16]
0.06334185 0.00052624836 0.03692482 0.1816674 -0.19622482 -0.23353973 -0.08074534 0.18658806
-0.06965375 -0.0012264702 0.14838083 0.21112084 0.11639536 0.21578468 0.25880697 -0.14606993
0.03545585 0.07956526 0.16117409 -0.06872424 0.13385908 0.09000057 -0.030877203 -0.048331816
0.04661119 -0.03130223 -0.11804905 0.1248672 0.043294333 0.08467421 0.11806456 0.26444152
-0.21493578 0.15197828 -0.16221797 0.009792507 0.040747464 0.1820682 -0.1681093 0.0932121
0.016428113 0.058160275 -0.06777549 -0.10940382 -0.17859685 -0.06534064 -0.16271144 -0.24584243
0.15809634 0.068612754 -0.31065324 -0.21422735 -0.20258333 0.21541336 -0.2056016 0.13707075
-0.04537967 -0.06554091 -0.24233025 0.0050530336 -0.107969895 -0.22707103 0.1119988 -0.14005187
0.12743625 -0.06648728 -0.062472653 0.09230363 -0.41266978 0.09484187 0.1290003 0.023810953
-0.117384136 0.11013498 0.039024986 -0.20059769 0.06955901 -0.32216346 -0.21306726 -0.13677959
-0.032312155 0.18144684 0.18938781 -0.052631162 0.07263799 0.12066075 0.008224517 0.08380526
-0.11990768 0.09670532 0.27467915 0.07238268 -0.018940445 -0.0006791733 0.14314099 0.48469102
0.1773747 -0.16886865 0.21581595 0.21829695 0.20575069 -0.17057988 -0.10730237 -0.09342815
0.0005891919 0.12982722 0.35312033 0.016488556 0.08919959 0.2647477 0.01818565 0.33864895
-0.17356129 -0.17883961 -0.17419422 -0.064463645 -0.11297776 0.068302274 -0.19233787 -0.02782506
-0.23622563 -0.34102982 -0.12866665 -0.06776332 -0.08753215 -0.10727732 0.1907842 -0.015555642
0.11044443 -0.022950971 -0.06356806 0.3245071 0.021320343 -0.21176419 -0.009976029 0.030368088
-0.03223452 0.31502137 0.39867973 0.2148847 0.06056394 0.1875729 -0.13299748 0.39712477
0.058178455 0.17793544 0.116914965 -0.09692366 0.15491776 -0.2079337 0.08326122 0.18395674
-0.16435167 0.10593337 0.16577408 0.25102735 -0.19350561 -0.2281995 -0.1420248 0.31816632
0.356034 -0.13293329 -0.0535108 -0.19095832 -0.08929516 0.22358015 0.2225152 0.14155664
-0.11526957 0.1989215 -0.113346 0.11879828 0.07079942 0.17017825 -0.13759318 -0.0059551545
0.04827085 -0.113577224 0.16499913 0.19499366 0.15584037 0.008562058 0.20311731 -0.28072193
0.13311094 -0.09497225 -0.062260043 -0.06770539 -0.15422463 -0.23654167 -0.27694276 0.04927522
-0.10468042 -0.05666363 -0.25847015 -0.03823101 0.1736245 -0.036278307 -0.12352583 -0.070256144
-0.19512418 0.15078312 0.05687745 -0.24684253 -0.046944246 -0.2502889 0.16192296 -0.29388726
-0.075934865 0.0029590945 -0.057022445 0.13966033 0.045443367 -0.24380255 -0.014225155 -0.13169718
0.1207346 0.2714897 -0.10881378 0.0053694653 0.08943245 -0.09114885 0.28855303 0.006014021
-0.21045995 -0.1218836 -0.15908474 0.103939585 0.17239389 -0.13241085 -0.021010965 0.07905415
0.14877108 -0.101534955 -0.079311505 0.053578865 -0.23806694 -0.2824361 0.009967436 -0.67220986
-0.11123049 -0.046291918 0.26066434 -0.06223457 0.17703612 0.24131393 0.15009445 0.06947419
0.069289654 0.018892327 -0.021900332 0.18351954 -0.13644347 0.1551547 -0.17318764 0.13279869
00000000: 5fb9 813d eef3 093a 7b3e 173d 0507 3a3e
00000010: 29ef 48be 0a25 6fbe d05d a5bd f110 3f3e
00000020: a0a6 8ebd 83c1 a0ba 25f1 173e 1030 583e
00000030: b160 ee3d a9f6 5c3e 5982 843e 5b93 15be
00000040: 273a 113d 1cf3 a23d d20a 253e 4bbf 8cbd
00000050: 5b12 093e 3852 b83d 30f2 fcbc 95f7 45bd
00000060: 60eb 3e3d c436 00bd b3c3 f1bd 60ba ff3d
00000070: 6655 313d ac69 ad3d d5cb f13d e164 873e
00000080: 2018 5cbe 32a0 1b3e 781c 26be c070 203c
00000090: d0e6 263d 1670 3a3e d824 2cbe fce5 be3d
000000a0: 4094 863c 7839 6e3d e0cd 8abd 1c0f e0bd
000000b0: 18e2 36be 50d1 85bd d49d 26be 1ebe 7bbe
000000c0: 02e4 213e d884 8c3d f10d 9fbe 6a5e 5bbe
000000d0: 0172 4fbe 5295 5c3e 3a89 52be 465c 0c3e
000000e0: 08e0 39bd 503a 86bd 6c25 78be eb93 a53b
000000f0: 521f ddbd 4f85 68be a05f e53d c269 0fbe
00000100: a67e 023e 7c2a 88bd 53e3 7fbd b009 bd3d
00000110: 7449 d3be 743c c23d a818 043e 300f c33c
00000120: 1867 f0bd 738e e13d aad8 1f3d 7b69 4dbe
00000130: f474 8e3d 9cf2 a4be 4e2e 5abe f30f 0cbe
00000140: c059 04bd 33cd 393e e1ee 413e c693 57bd
00000150: 3ac3 943d fc1c f73d 20c0 063c 18a2 ab3d
00000160: 2892 f5bd 700d c63d bfa2 8c3e 5f3d 943d
00000170: fe28 9bbc 8c0a 32ba 8d93 123e 6c29 f83e
00000180: b7a1 353e e7eb 2cbe dbfe 5c3e 3c89 5f3e
00000190: 4fb0 523e 7eac 2ebe 58c1 dbbd 4257 bfbd
000001a0: 0074 1a3a 6df1 043e 30cc b43e 0213 873c
000001b0: 46ae b63d 038d 873e 13fa 943c 6563 ad3e
000001c0: 0dba 31be bb21 37be f85f 32be 8405 84bd
000001d0: e260 e7bd 10e2 8b3d 38f4 44be 61f1 e3bc
000001e0: 22e5 71be 769b aebe 31c1 03be 7fc7 8abd
000001f0: 0e44 b3bd 36b4 dbbd ef5c 433e 17dd 7ebc
00000200: b030 e23d ad03 bcbc f92f 82bd cb25 a63e
00000210: 00a8 ae3c b6d8 58be 8072 23bc 7fc6 f83c
00000220: 5808 04bd 7b4a a13e c01f cc3e bc0a 5c3e
00000230: e511 783d 1c13 403e 7e30 08be f053 cb3e
00000240: 884c 6e3d b534 363e 1d71 ef3d e97f c6bd
00000250: c3a2 1e3e 92ec 54be dc84 aa3d 285f 3c3e
00000260: ce4b 28be 98f3 d83d aec0 293e a886 803e
00000270: 5626 46be 21ad 69be f36e 11be b2e6 a23e
00000280: 174a b63e aa1f 08be 242e 5bbd 948a 43be
00000290: 61e0 b6bd 32f2 643e 06db 633e 39f4 103e
000002a0: 7412 ecbd 14b2 4b3e f321 e8bd 834c f33d
000002b0: 49ff 903d 3543 2e3e 3ae5 0cbe 7523 c3bb
000002c0: a8b7 453d 2d9b e8bd 88f5 283e 6bac 473e
000002d0: 9e94 1f3e e047 0c3c fcfd 4f3e c9ba 8fbe
000002e0: 3c4e 083e d080 c2bd 6304 7fbd 20a9 8abd
000002f0: 10ed 1dbe fb37 72be 71cb 8dbe d0d4 493d
00000300: b062 d6bd 1f18 68bd 3356 84be 1f98 1cbd
00000310: 9fca 313e 9098 14bd 1cfb fcbd 74e2 8fbd
00000320: a2ce 47be e466 1a3e 54f8 683d 4ac4 7cbe
00000330: 9c48 40bd de25 80be 22cf 253e 6478 96be
00000340: bd83 9bbd 5eed 413b 5e90 69bd 1e03 0f3e
00000350: d322 3a3d 60a7 79be a010 69bc a0db 06be
00000360: b443 f73d b300 8b3e c2d9 debd 57f2 af3b
00000370: 5c28 b73d 40ac babd 39bd 933e 4411 c53b
00000380: d082 57be 1c9e f9bd 1ce7 22be 47de d43d
00000390: 0688 303e b696 07be 301f acbc 24e7 a13d
000003a0: 7257 183e 8ff1 cfbd 126e a2bd 8375 5b3d
000003b0: d2c7 73be 779b 90be 754e 233c f215 2cbf
000003c0: d0cc e3bd 989c 3dbd cc75 853e ade9 7ebd
000003d0: f548 353e 001b 773e 5cb2 193e 7c48 8e3d
000003e0: bce7 8d3d 15c4 9a3c 5368 b3bc 8cec 3b3e
000003f0: d6b7 0bbe e0e0 1e3e 1a58 31be 61fc 073e

gnn.convs.3.nn.lins.0.bias f4 [16]
0.18743993 0.11016507 -0.04844165 -0.004225307 -0.6180973 -0.09051947 -0.10301239 0.09084748
-0.2307613 -0.071031116 0.02331606 -0.047608085 0.0470956 0.19173113 0.1596508 -0.30933803
00000000: 41f0 3f3e 399e e13d c06a 46bd 7274 8abb
00000010: a03b 1ebf 4662 b9bd 29f8 d2bd 3e0e ba3d
00000020: b14c 6cbe c378 91bd 5201 bf3c b200 43bd
00000030: 51e7 403d 2a55 443e 807b 233e 8e61 9ebe
