Run_GIN_ModelCheckpoint_EvFr_2/NCI1_reps_2_folds_5_epochs_20_2023-04-26_11-05/rep_0_fold_3/checkpoints/model_trial_3.ckpt (torch, 96717 bytes, 86 tensors)

gnn.convs.0.nn.lins.0.weight f4 [16, 37]
0	0x3d159a9f	0.03652441
1	0xbe301772	-0.17196444
2	0xbdc4b469	-0.09604723
3	0xbeb60e07	-0.35557577
4	0x3d649cec	0.055813715
5	0xbd8e94ca	-0.06961973
6	0xbde57120	-0.112032175
7	0xbd9ce0a8	-0.07660037
8	0xbf035fc7	-0.5131802
9	0xbea43dcb	-0.32078394
10	0xbe23d1b3	-0.15997963
11	0xbe170ce2	-0.14751008
12	0xbe20e921	-0.15713932
13	0x3db39dfa	0.08770366
14	0xbe145538	-0.14485633
15	0xbe44c871	-0.19217087
16	0xbe8c4672	-0.27397496
17	0xbe11c124	-0.14233834
18	0xbeb82527	-0.35965845
19	0xbed106a4	-0.4082538
20	0xbdd43f07	-0.10363584
21	0xbe284b46	-0.16434965
22	0xbda2558e	-0.079264745
23	0x3d8cb021	0.068695314
24	0xbe8dc2ca	-0.27687675
25	0x3c8651c6	0.016396414
26	0xbe991da8	-0.29905438
27	0xbe59a15a	-0.21252957
28	0xbdf39acd	-0.1189476
29	0xbe098d47	-0.134328
30	0x3e0f3c4a	0.13987842
31	0x3dc69427	0.096962266
32	0xbd827842	-0.063705936
33	0xbe042417	-0.12904392
34	0xbc7e15fa	-0.015508169
35	0xbd3bb4e6	-0.045826815
36	0x3d4c74cf	0.049916085
37	0x3f233ec7	0.63767666
38	0x3ee9151a	0.45523912
39	0x3d8b6b3f	0.06807565
40	0xbfa17efd	-1.2616879
41	0x3eb198ae	0.34686798
42	0x3f2a81dd	0.66604406
43	0xbed13d58	-0.40867114
44	0xbba0ccc3	-0.004907222
45	0x3fb0a2b4	1.3799653
46	0x3f819573	1.0123733
47	0x403a534a	2.9113336
48	0x3fccac9f	1.599018
49	0xbdfd544e	-0.123695955
50	0x3f175f6b	0.5912997
51	0x3f979b0e	1.1844194
52	0xbd16404f	-0.036682423
53	0xbea981b6	-0.33106774
54	0xbd83bed8	-0.06432885
55	0x3fc2c34e	1.5215852
56	0x3fb58bc3	1.4183277
57	0xbf153cf3	-0.58296126
58	0xbf5696df	-0.8382396
59	0x3cd03343	0.025415068
60	0x3b8fbc17	0.0043864357
61	0x3fbf008a	1.492204
62	0x3ef3ab34	0.47591555
63	0x3f3a04a3	0.72663325
64	0x3f5e486f	0.86829275
65	0xbd873243	-0.066013835
66	0x3fe448e1	1.7834741
67	0xbd2adab3	-0.041712474
68	0x3d6369fa	0.05552099
69	0xbdc33c89	-0.095330305
70	0xbd615645	-0.055013914
71	0xbd912e67	-0.07088929
72	0x3d6b9f82	0.057525165
73	0xbe9754bd	-0.29556838
74	0x3da3d71e	0.08000015
75	0xbee9fe17	-0.45701668
76	0xbf09bc81	-0.5380326
77	0x3eea054c	0.45707166
78	0xbe70dc51	-0.23521544
79	0xbf68cf1a	-0.9094101
80	0xbe3a3c84	-0.18187147
81	0xbf0dda72	-0.55411446
82	0x3fa676de	1.3005025
83	0x3f89c06d	1.0761849
84	0x4008ab6b	2.1354625
85	0x3f808c4d	1.0042816
86	0x4048a208	3.1348896
87	0xbebf3950	-0.37348413
88	0x3fae9c6e	1.3641489
89	0x3feb5985	1.8386694
90	0xbcae8477	-0.021303399
91	0x40371f58	2.861288
92	0x3dbd9781	0.09257413
93	0x3f7e9138	0.99440336
94	0xbe7c0a52	-0.24613312
95	0xbef2ea85	-0.4744455
96	0x3ca7c115	0.02047781
97	0x3fe7b222	1.8101237
98	0x400faf1b	2.2450626
99	0x3fa7adfd	1.3099972
100	0x3f9258cd	1.143335
101	0x3f98405e	1.1894643
102	0xbf4c2041	-0.79736716
103	0x3fc9e50d	1.5773026
104	0x3d2fe7b2	0.04294557
105	0xbdeceba8	-0.11568385
106	0xbf3cf76c	-0.73815036
107	0xbf1d63c4	-0.61480355
108	0xbf65be26	-0.8974327
109	0xbc8a8938	-0.016911134
110	0xbf08e653	-0.53476447
111	0xbc74f33a	-0.014950568
112	0xbda49070	-0.08035362
113	0xbe93ceec	-0.28868806
114	0xbea55f55	-0.32299295
115	0x3e96dcef	0.29465434
116	0xbe3a362a	-0.18184724
117	0xbe20d9f0	-0.15708137
118	0xbd9d2d15	-0.07674614
119	0x3f867aab	1.0506185
120	0x3fac3c5a	1.3455918
121	0xbc62f957	-0.013853393
122	0x3daef302	0.08542444
123	0x3d1555c0	0.03645873
124	0xbdac1fed	-0.08404527
125	0x3d91b83a	0.071152166
126	0x3dcf9134	0.10135117
127	0xbc1781d9	-0.009247267
128	0xbdf23f0f	-0.11828434
129	0x3da89630	0.08231771
130	0x3e09c895	0.13455422
131	0xbe0e2bf3	-0.13883953
132	0xbdfcf6f8	-0.12351793
133	0xbd967d71	-0.07348145
134	0x3d94a7b5	0.0725855
135	0xbd37d1ed	-0.044877935
136	0xbdd53478	-0.10410398
137	0x3f66731e	0.90019405
138	0x3f82773b	1.0192636
139	0x3d3052c1	0.04304767
140	0x3d9311d3	0.07181134
141	0x3dc93105	0.09823803
142	0xbd8a39c0	-0.06749296
143	0x3db0740d	0.08615885
144	0xbe0dcd43	-0.13847832
145	0xbde833af	-0.11337983
146	0xbd34f134	-0.04417534
147	0xbe30e263	-0.1727386
148	0x3d58e200	0.052949905
149	0xbdf637d3	-0.120223664
150	0xbe167853	-0.14694338
151	0x38ec3aca	0.00011264307
152	0xbe25fe8b	-0.16210382
153	0xbe6cc065	-0.23120268
154	0x3d36fba7	0.044673588
155	0xbc8f8c64	-0.017522998
156	0xbe1e365a	-0.15450421
157	0xbe1502a8	-0.14551795
158	0x3e2646b4	0.16237909
159	0xbd8f9bdb	-0.07012149
160	0x3dcec61f	0.10096382
161	0xbdaa7f7d	-0.08325098
162	0xbe111978	-0.14169872
163	0xbd8222f3	-0.06354322
164	0x3db50170	0.08838165
165	0xbdcf57df	-0.10124182
166	0x3db1b4ee	0.08677088
167	0x3b9f9845	0.004870447
168	0x3e04f6b8	0.1298474
169	0x3ced2bf5	0.028951624
170	0x3c8a5709	0.016887205
171	0xbbd88276	-0.006607349
172	0xbdc94fdd	-0.09829686
173	0xbe099b52	-0.13438156
174	0x3d56e993	0.052468847
175	0x3dd770fb	0.10519596
176	0x3dacfca8	0.08446628
177	0x3e0e413f	0.13892077
178	0xbd7b25a6	-0.0613152
179	0x3dc8bfe2	0.09802224
180	0xbdc21dc9	-0.09478337
181	0x3d9de461	0.077095754
182	0x3d7785ec	0.060430452
183	0xbe03ad62	-0.12859109
184	0x3d4bd747	0.04976585
185	0x3f2ad7eb	0.66735715
186	0x3ea1f733	0.3163391
187	0x3de1ded4	0.11028829
188	0xbe8ff885	-0.28119293
189	0xbdd36754	-0.10322443
190	0x3ed6a691	0.41923955
191	0xbeb2ba0b	-0.34907565
192	0xbe0da51d	-0.13832517
193	0x3fce3244	1.610909
194	0x3fae32c6	1.3609245
195	0x404b0901	3.1724246
196	0xbe08d3ee	-0.13362095
197	0xbd8ce852	-0.06880249
198	0x3eef9177	0.46790668
199	0xbdbfce74	-0.0936555
200	0x3fc925ae	1.5714624
201	0xbe97dbde	-0.29659933
202	0xbe17dc01	-0.14830019
203	0x3fd6128c	1.672441
204	0x3fd2863b	1.6447214
205	0xbf30950d	-0.68977433
206	0xbf80cff2	-1.006346
207	0x3d437cfb	0.047726613
208	0xbd2b5c64	-0.041836157
209	0x3fedce65	1.8578612
210	0x3fa000a0	1.2500191
211	0x3f87ed34	1.0619264
212	0x3f912102	1.1338198
213	0xbe067519	-0.13130607
214	0x40034610	2.0511513
215	0x3da75a85	0.08171562
216	0xbdd0fea7	-0.10204821
217	0xbe1919ef	-0.14951299
218	0xbdc3ab9f	-0.095542185
219	0xbd80b254	-0.062840134
220	0x3dbabfd7	0.09118622
221	0xbeb33197	-0.34998772
222	0xbd94a98b	-0.072589
223	0xbe1085d5	-0.14113553
224	0xbdc44219	-0.095829196
225	0xbb392b22	-0.002825447
226	0xbce552f3	-0.027993655
227	0xbb658294	-0.0035020458
228	0xbdd82e93	-0.10555758
229	0x3d379918	0.044823736
230	0x3cf76b50	0.030202538
231	0xbd9c6d37	-0.076380186
232	0xba4faab0	-0.0007921858
233	0xbe153e1a	-0.14574471
234	0x3d981ab6	0.0742697
235	0x3cb169ba	0.02165686
236	0x3d89b080	0.06723118
237	0x3c0c991a	0.008581424
238	0x3d815259	0.06314535
239	0xbdd0345f	-0.10166239
240	0x3d9d3553	0.076761864
241	0xbca77221	-0.020440163
242	0xbe16ca0a	-0.1472551
243	0x3d26f58f	0.040761527
244	0xbc9ca487	-0.019121422
245	0xbe225e23	-0.15856223
246	0x3ce00381	0.02734542
247	0xbcc56e00	-0.024100304
248	0x3d23267c	0.039831623
249	0xbd7f794e	-0.062371545
250	0xbe23fadc	-0.16013664
251	0x3de99fd1	0.11407436
252	0x3df72b52	0.120688096
253	0xbe2402b8	-0.16016662
254	0x3de45e26	0.1115077
255	0xbd23a523	-0.03995241

gnn.convs.0.nn.lins.0.bias f4 [16]
0	0xbe8a6f2b	-0.2703794
1	0xbe1bfb0b	-0.15232484
2	0x3f2a6143	0.6655466
3	0xbe2b11d5	-0.16706021
4	0xbe781e11	-0.2423022
5	0xbe0bb463	-0.13643031
6	0xbe0f445e	-0.13990924
7	0xbf12a8cf	-0.5728883
8	0x3eb2eeb7	0.3494775
9	0xbec5c6c6	-0.38628215
10	0x3ed9eda0	0.42564106
11	0x3e6429d5	0.22281583
12	0xbeef498d	-0.46735802
13	0x3f04c181	0.51857764
14	0xbf3cfc8a	-0.73822844
15	0xbdcc436a	-0.09973796

gnn.convs.0.nn.lins.1.weight f4 [16, 16]
0	0xbe89758b	-0.2684749
1	0x3e74b9a7	0.23898946
2	0x3f8f5e81	1.1200715
3	0x3e93c6a0	0.28862476
4	0x3e3a1e56	0.18175635
5	0x3eb00dff	0.34385678
6	0x3e613392	0.21992329
7	0xbf39e7fe	-0.72619617
8	0xbf550ac2	-0.8321954
9	0x3e4cfc1e	0.2001805
10	0x3f3f8e87	0.74826854
11	0x3f8f8946	1.1213768
12	0xbf8badde	-1.0912435
13	0x4000eeb2	2.0145688
14	0x3f41e2c9	0.7573667
15	0x3f2c5265	0.67313224
16	0xbe89951e	-0.2687158
17	0x3e4f655b	0.20253508
18	0x3f958b9f	1.1683234
19	0x3ea1db9a	0.31612855
20	0x3e1dcabd	0.1540937
21	0x3ec75bd4	0.38937247
22	0x3dd338e2	0.10313584
23	0xbc946a0f	-0.018116979
24	0xbf43bf3b	-0.7646367
25	0x3df0ef51	0.11764396
26	0x3ebffb6b	0.37496504
27	0x3f8d9a6e	1.1062753
28	0xbfa8bbc7	-1.3182305
29	0x3f6dd357	0.92900604
30	0x3eb744c8	0.35794663
31	0x3d6b15f4	0.057393983
32	0xbe5e9c00	-0.21739197
33	0xbf12aeb8	-0.5729785
34	0xbf449830	-0.7679472
35	0xbe9814bd	-0.29703322
36	0x3dbf5f47	0.093443446
37	0xbf450533	-0.7696106
38	0x3da1b64d	0.07896099
39	0x3f5831ff	0.8445129
40	0xbe4d6659	-0.20058574
41	0x3dc25bfc	0.09490201
42	0x3d00ce3b	0.031446677
43	0x3f167519	0.58772427
44	0x3fc7e062	1.5615351
45	0xbe5865e4	-0.21132618
46	0x3f6245ca	0.8838774
47	0x3e576f55	0.21038564
48	0xbe89b7e0	-0.26898098
49	0x3c15a7b6	0.009134224
50	0xbe9b36f1	-0.30315354
51	0xbde14edc	-0.11001369
52	0x3e581790	0.21102738
53	0xbdeaa24e	-0.114567384
54	0xbddf43ac	-0.10901579
55	0xbed7c218	-0.4214027
56	0xbde46ded	-0.11153779
57	0xbd2a2e25	-0.041547913
58	0x3cb31ace	0.021863367
59	0xbd8913b1	-0.06693209
60	0x3e05b6c2	0.13057998
61	0xbd36cc6f	-0.044628557
62	0xbd7928fb	-0.060830098
63	0x3e3b7eda	0.18310109
64	0xbc7a1a33	-0.015265035
65	0x3ea09a34	0.31367648
66	0x3fa11ac1	1.258629
67	0x3d9a478c	0.07533178
68	0xbe1db4ec	-0.15401047
69	0x3f15a162	0.58449376
70	0x3e2376d0	0.15963292
71	0x3e8c2150	0.27369165
72	0xbe84f4f5	-0.25968137
73	0x3f1370b5	0.5759385
74	0x3f8d6bd8	1.1048536
75	0x3f097630	0.53695965
76	0xbff83dec	-1.9393897
77	0x3f9c560b	1.2213758
78	0x3e9c0f51	0.30480435
79	0x3e47d583	0.19515042
80	0x3b9466c0	0.0045288503
81	0xbe2cdf9a	-0.16882172
82	0xbdeb6570	-0.11493957
83	0xbddd3ef0	-0.1080302
84	0x3d9b761c	0.07590887
85	0xbdf27398	-0.11838454
86	0x3e7d4cc6	0.24736318
87	0x3cc09a60	0.023511112
88	0xbd593fc0	-0.053039312
89	0xbe687c5e	-0.22703692
90	0x3e0f8e14	0.14019042
91	0x3ddc6efc	0.10763356
92	0xbd47cb88	-0.048778087
93	0xbd7cc838	-0.06171438
94	0x3d874d3c	0.06606528
95	0xbda1f054	-0.07907167
96	0xba75a47a	-0.0009370517
97	0xbdd10e7f	-0.10207843
98	0xbd1b8252	-0.03796608
99	0xbd7e8815	-0.062141497
100	0xbe2a3ffe	-0.16625974
101	0x3ce0a265	0.027421186
102	0xbe106e60	-0.14104605
103	0xbee4b1db	-0.44666943
104	0xbbb33b9f	-0.005469754
105	0x3e03ed2e	0.12883446
106	0x3c006e99	0.007838869
107	0xbeadae77	-0.3392217
108	0xbd9ccf68	-0.07656747
109	0x3e0eb68d	0.13936825
110	0xbe3ec8b3	-0.18631248
111	0xbc3d32a6	-0.01154772
112	0xbf049402	-0.5178834
113	0xbdcbd42f	-0.0995258
114	0xbea0de29	-0.31419495
115	0xbea0f71d	-0.31438532
116	0xbde37bbc	-0.11107585
117	0xbda242c1	-0.079228885
118	0xbe362d56	-0.17790732
119	0xbe6e7d74	-0.23290044
120	0xbd499bab	-0.049220722
121	0x3e1d258e	0.15346357
122	0xbe349743	-0.17635827
123	0xbda6cea4	-0.08144882
124	0x3cb9bb40	0.022672296
125	0xbe71c4be	-0.23610207
126	0xbe7b12b4	-0.24518853
127	0x3e20c6cc	0.15700835
128	0x3e187fc5	0.1489249
129	0xbda4fd5a	-0.080561355
130	0xbe611a27	-0.21982633
131	0x3dca8f09	0.09890563
132	0x3e05d6cc	0.1307022
133	0x3d927934	0.07152024
134	0x3d8afd34	0.06786576
135	0x3d81fc7c	0.06346986
136	0xbe3d7bc0	-0.18504238
137	0x3e3db587	0.18526278
138	0xbd955063	-0.07290723
139	0x3d9a9ec4	0.075498134
140	0xbd789548	-0.06068924
141	0x3d372994	0.044717386
142	0xbe272815	-0.16323884
143	0x3dc4af0f	0.09603702
144	0xbe50ecc6	-0.20402822
145	0xbe76c69a	-0.24099198
146	0xbdb4528c	-0.08804807
147	0x3da18b91	0.07887948
148	0x3e4aedae	0.1981723
149	0xbe959fb3	-0.29223403
150	0x3e798122	0.24365667
151	0xbd8c9bfb	-0.068656884
152	0xbe0009e3	-0.12503771
153	0xbd39de68	-0.04537812
154	0xbe844c6c	-0.25839555
155	0xbeffbc7f	-0.499485
156	0x3d2b24f2	0.04178328
157	0x3b3e8063	0.0029068224
158	0x3d7564cf	0.05991059
159	0xbe6f1a6a	-0.2334992
160	0x3deedc74	0.11663142
161	0x3ef0da53	0.47041568
162	0xbe6960af	-0.22790788
163	0xbb2719cd	-0.0025497556
164	0xbd12f4c4	-0.035877958
165	0x3e6e61b8	0.23279464
166	0xbce0c2f7	-0.027436716
167	0x3f803f2d	1.001928
168	0x3e870f41	0.26378825
169	0x3d14953e	0.03627514
170	0x3f293a1b	0.66104287
171	0xbed44d46	-0.41465205
172	0xbfa42b19	-1.2825652
173	0xbe594d01	-0.21220781
174	0x3eaad7f1	0.33367875
175	0x3e9817fa	0.29705793
176	0xbe66eb2e	-0.22550651
177	0xbf000025	-0.5000022
178	0xbf502790	-0.8131037
179	0x3e1af26c	0.15131539
180	0xbe224b5e	-0.15849063
181	0xbefe98ee	-0.4972605
182	0xbe1f64ef	-0.15565847
183	0x3f03a6f6	0.5142664
184	0x3e311a19	0.17295112
185	0x3d30deb6	0.043181144
186	0xbea4a988	-0.32160592
187	0x3e7ed3b4	0.24885446
188	0x3fb65280	1.4243927
189	0x3e4c041b	0.19923441
190	0x3ebf70bc	0.37390697
191	0x3eaf6f11	0.34264424
192	0xbdec2331	-0.1153015
193	0xbdc45aaf	-0.09587609
194	0xbf660be9	-0.89861923
195	0x3e0c9697	0.1372932
196	0xbe25dff5	-0.16198714
197	0xbb6e9653	-0.0036405518
198	0x3dfb3aec	0.12267098
199	0x3e0af08e	0.13568327
200	0xbea7a734	-0.32744753
201	0xbe7cdd6e	-0.24693844
202	0xbfd0cf48	-1.6313257
203	0x3f23b9d1	0.6395541
204	0x3f97a33c	1.184669
205	0x3dd7116c	0.1050137
206	0x3ee7b035	0.45251623
207	0xbf0fe023	-0.5620138
208	0xbe00c7d3	-0.12576227
209	0xbe85b826	-0.26117057
210	0x3e077f90	0.13232255
211	0x3dc25606	0.09489064
212	0x3df85a0c	0.1212655
213	0xbde8996d	-0.11357389
214	0x3dc348a8	0.095353425
215	0xbe9fe00d	-0.31225625
216	0xbe1ef87d	-0.15524478
217	0x3e80755e	0.25089544
218	0xbefdc4af	-0.4956412
219	0x3d125d18	0.035733312
220	0x3e53abc3	0.2067099
221	0x3d404e68	0.046949774
222	0x3dc423c5	0.09577135
223	0xbda7e0eb	-0.081971966
224	0xbd8a0b21	-0.06740404
225	0x3eb87702	0.36028296
226	0x3fb7bdd7	1.435481
227	0x3d9037b0	0.070418715
228	0x3d386efb	0.045027714
229	0x3ef20a85	0.4727365
230	0x3c8d5842	0.017253999
231	0x3ec6a463	0.38797292
232	0xbec55588	-0.38541818
233	0x3eb9ad7f	0.3626518
234	0x3f6fd7b8	0.93688536
235	0x3ed0acfc	0.40756977
236	0xbfa4e724	-1.2883039
237	0x3f9c42dc	1.2207904
238	0x3eaa164f	0.33220145
239	0xbd5f2c83	-0.05448581
240	0xbcbe595c	-0.02323597
241	0x3e950f1d	0.29113093
242	0x3f390080	0.7226639
243	0xbe8490e8	-0.25891805
244	0xbe05b147	-0.13055907
245	0x3ea569a2	0.32307154
246	0x3d6cbc4b	0.057796758
247	0x3f26f4ba	0.65217173
248	0xbc59f071	-0.013301955
249	0xbd974fc9	-0.07388265
250	0x3f42ebb6	0.76140916
251	0x3f60ba55	0.8778432
252	0xc0004c23	-2.004647
253	0x3f5f1109	0.8713537
254	0x3e80671b	0.25078663
255	0x3ee333a7	0.44375345

gnn.convs.0.nn.lins.1.bias f4 [16]
0	0xbe381d4d	-0.17979927
1	0x3daa60f6	0.08319275
2	0xbee927e2	-0.4553824
3	0xbd2dda4c	-0.042444512
4	0xbe4d6fca	-0.20062175
5	0xbe4d6b64	-0.20060498
6	0xbe57a7ba	-0.21060076
7	0xbefe6e72	-0.49693638
8	0xbe802c9f	-0.25034043
9	0xbea5db31	-0.32393792
10	0xbe9883d9	-0.29788092
11	0xbf54e4ba	-0.8316151
12	0xbf1b8df3	-0.6076347
13	0xbe4d07e9	-0.20022549
14	0x3d8729b0	0.06599748
15	0xbe8ec056	-0.27881116

gnn.convs.1.nn.lins.0.weight f4 [16, 16]
0	0x3ee47eb2	0.4462791
1	0x3e9f442d	0.31106701
2	0xbe7f6505	-0.2494088
3	0x3e76ad93	0.24089651
4	0xbf0d2076	-0.55127656
5	0xbe504142	-0.20337394
6	0xbd1a889e	-0.037727945
7	0x3d292b8c	0.041301295
8	0x3d8bf475	0.06833736
9	0x3ec90123	0.3925868
10	0xbe8a1c77	-0.26974842
11	0xbebfc271	-0.37453035
12	0xbf7702f2	-0.9648887
13	0x3df4da17	0.1195566
14	0x3ed6863b	0.41899285
15	0x3df84925	0.12123326
16	0xbe5d8bad	-0.21635313
17	0xbda8c791	-0.08241189
18	0x3ce4da3a	0.02793609
19	0xbdb24414	-0.08704391
20	0x3ea59ca6	0.32346076
21	0x3e5ee7ba	0.21768084
22	0xbe41466d	-0.18874522
23	0xbe394c4c	-0.18095511
24	0xbc570ffd	-0.0131263705
25	0xbe4d147c	-0.20027345
26	0xbdc5846b	-0.09644397
27	0xbd5f3d24	-0.054501668
28	0xbf1ed38c	-0.62041545
29	0x3f0451d5	0.51687366
30	0xbbbe494a	-0.0058070766
31	0xbe8e6ab6	-0.2781579
32	0x3eded20b	0.43519625
33	0xbf057c29	-0.5214258
34	0xbecf8149	-0.40528324
35	0x3c90ff15	0.017699758
36	0xbef5e018	-0.48022532
37	0x3d0d8a18	0.034555525
38	0xbda1391a	-0.078722194
39	0xbe52d59c	-0.20589298
40	0x3e53cc93	0.20683508
41	0xbc87a66f	-0.016558854
42	0xbf93b68b	-1.1540083
43	0xbea5a067	-0.3234894
44	0xbbc5cb1a	-0.0060361745
45	0xbe2bf8f5	-0.16794188
46	0xbf0453a8	-0.5169015
47	0xbd9e9709	-0.077436514
48	0xbc144261	-0.009049029
49	0x3e799d14	0.24376327
50	0xbe24a3f5	-0.1607817
51	0xbe41694b	-0.18887822
52	0x3f0f6cbd	0.56025296
53	0xbe1d4a96	-0.15360484
54	0x3e947693	0.28996715
55	0xbe81cd37	-0.2535188
56	0xbd6c6b0c	-0.057719275
57	0xbe776cdd	-0.24162622
58	0xbea22473	-0.31668434
59	0xbe336018	-0.17517126
60	0xbf7d01f1	-0.9883109
61	0x3d9ce12f	0.07660138
62	0xbeaa2efe	-0.33238977
63	0xbf1c3371	-0.61015993
64	0x3e11b556	0.1422933
65	0xbe4b9939	-0.19882669
66	0xbddabc7e	-0.10680483
67	0x3e3f790d	0.18698521
68	0xbefa987e	-0.48944467
69	0x3df0e184	0.11761764
70	0xbd331d79	-0.04372928
71	0xbdcfa0ff	-0.101381294
72	0x3cd6caae	0.026219692
73	0x3db192e3	0.086705945
74	0xbcd2c507	-0.025728716
75	0xbdb92a42	-0.09041263
76	0xbd9a9236	-0.07547419
77	0xbe72cc65	-0.23710783
78	0xbd0da36d	-0.034579683
79	0xbe270b0f	-0.16312812
80	0x3b7b4a00	0.0038343668
81	0xbcd6a6af	-0.026202528
82	0xbce59926	-0.028027128
83	0x3e29ec01	0.16593935
84	0xbe98a5f5	-0.29814115
85	0x3dc9aef4	0.09847823
86	0xbde673d0	-0.11252558
87	0xbe2d7eba	-0.16942874
88	0xbc42524c	-0.011860441
89	0x3d227718	0.039664358
90	0xbe506b92	-0.20353535
91	0xbdc596b5	-0.09647886
92	0xbe40a795	-0.18813927
93	0xbb9ef094	-0.0048504565
94	0xbbb60ff4	-0.005556101
95	0xbddcfeed	-0.10790811
96	0x3f192b22	0.5983144
97	0x3efe7fea	0.49706966
98	0xbec317a9	-0.3810399
99	0xbddcabe8	-0.10774976
100	0xbeb1677e	-0.3464927
101	0xbca09150	-0.01960054
102	0x3d1cd03b	0.03828452
103	0xbe92a95a	-0.2864483
104	0x3e7da154	0.24768573
105	0xbe483d02	-0.19554523
106	0xbf560867	-0.8360657
107	0xbdafb8e1	-0.08580185
108	0xbf01b16d	-0.50661355
109	0x3df02b39	0.11726994
110	0xbe456a36	-0.19278798
111	0xbe28c941	-0.16483022
112	0xbe6c9c13	-0.23106413
113	0xbe04a131	-0.12952115
114	0xbe532b56	-0.20622
115	0x3e85dc8b	0.26144823
116	0xbcc63f27	-0.024200035
117	0x3de30800	0.1108551
118	0x3db2bef0	0.08727825
119	0xbe3dd2a5	-0.18537386
120	0x3d73f489	0.05955938
121	0x3d18ffe0	0.037353396
122	0xbec4ecb3	-0.38461837
123	0x3c48efe6	0.0122642275
124	0xbe8462ab	-0.25856528
125	0xbd282b58	-0.04105696
126	0xbd9baa51	-0.07600845
127	0x3d49ae4d	0.04923849
128	0xbd8cda10	-0.068775296
129	0xbe92aca8	-0.2864735
130	0xbd9ad494	-0.07560077
131	0xbe5b9613	-0.21443968
132	0xbe9541a1	-0.29151633
133	0xbc9b6d90	-0.018973142
134	0x3d0f1b08	0.03493789
135	0x3bdafdc0	0.0066830814
136	0x3dd15539	0.10221333
137	0xbdc53cb0	-0.09630716
138	0xbe5fa45c	-0.21840042
139	0xbd6030f6	-0.054734193
140	0xbcf192c6	-0.029488932
141	0xbbbe74c0	-0.0058122575
142	0xbe82502f	-0.254518
143	0xbe72e410	-0.23719811
144	0x3e600fff	0.21881102
145	0x3e7f8556	0.24953207
146	0xbe8d0b4e	-0.27547687
147	0x3e7c1ee2	0.24621156
148	0xbd8b57c8	-0.06803852
149	0xbe05cbf2	-0.1306608
150	0x3c9c2168	0.019058898
151	0x3df77f36	0.120848104
152	0xbe748848	-0.23880112
153	0x3da9b8e8	0.08287221
154	0xbf802d9d	-1.001392
155	0xbd518bc2	-0.051158674
156	0xbf25395a	-0.64540637
157	0x3e58b7a9	0.21163811
158	0xbde2a523	-0.110666536
159	0xbe9d2cd5	-0.30698267
160	0xbf2aa11b	-0.6665208
161	0x3e96273b	0.29326805
162	0xbf12b3ab	-0.573054
163	0xbe847d12	-0.2587667
164	0x3ee9a5c6	0.45634288
165	0x3b126180	0.0022335947
166	0x3e8f97de	0.28045553
167	0x3d19277b	0.037391167
168	0x3da4855e	0.0803325
169	0xbe0019ac	-0.12509793
170	0xbf44a9ce	-0.768216
171	0xbef5ea33	-0.48030242
172	0xbf376976	-0.71645296
173	0xbe4f4fcc	-0.20245284
174	0xbee69cf8	-0.45041633
175	0xbef28c66	-0.4737274
176	0xbd723d0e	-0.059140258
177	0xbde23269	-0.11044771
178	0xbefaff1e	-0.49022764
179	0x3e2bf288	0.16791737
180	0xbdfbd3b8	-0.122962415
181	0x3e39b514	0.18135482
182	0xbd0ba1b5	-0.034089763
183	0x3e7d415e	0.24731967
184	0xbe320f5c	-0.17388672
185	0x3d79e16b	0.06100599
186	0xbe030574	-0.12795049
187	0x3ea73fda	0.32665902
188	0xbf1d131f	-0.613573
189	0xbe02d52e	-0.12776634
190	0xbdb2609e	-0.087098345
191	0xbe555cf6	-0.20836243
192	0xbe4159cc	-0.18881911
193	0x3b129bc4	0.0022370676
194	0xbe8720b9	-0.26392153
195	0xbe71fc5a	-0.2363142
196	0xbd8c12e1	-0.06839538
197	0x3db83804	0.08995059
198	0x3cd6bee9	0.02621408
199	0x3ddc49ec	0.10756287
200	0x3e04361d	0.12911268
201	0x3c88ad40	0.016684175
202	0xbe1145b3	-0.14186744
203	0xbd23952b	-0.03993718
204	0xbe5e16c0	-0.21688366
205	0xbe968c26	-0.294038
206	0xbb85da11	-0.0040848334
207	0xbec3e370	-0.3825946
208	0x3ec056a5	0.37566105
209	0x3eef2417	0.46707222
210	0xbfa1369c	-1.259479
211	0x3e8af5cf	0.27140662
212	0x3ef4d868	0.47821355
213	0xbe2cc50c	-0.16872042
214	0x3e85167a	0.2599371
215	0xbe3c912c	-0.18414754
216	0x3e5d09f9	0.21585836
217	0x3e964a79	0.29353693
218	0x3e749c4d	0.23887749
219	0xbf83908f	-1.0278491
220	0xbf0b1461	-0.5432797
221	0xbe54edf4	-0.20793897
222	0x3ea890aa	0.3292287
223	0x3e07861d	0.13234754
224	0xbe3427a5	-0.17593248
225	0xbe43a7f5	-0.1910704
226	0xbef0b520	-0.47013187
227	0xbd99ab3b	-0.07503363
228	0xbecce550	-0.40018702
229	0x3cbfe1a0	0.023423016
230	0xbd9a2d0a	-0.07528122
231	0x3e91583b	0.28387627
232	0x3d40d73f	0.047080275
233	0xbef4631c	-0.47731864
234	0x3d31099e	0.043222062
235	0xbd62c580	-0.055364132
236	0x3ce08826	0.02740867
237	0x3ba8c69a	0.0051506283
238	0xbe6e5d5b	-0.232778
239	0xbee86648	-0.45390534
240	0x3e4582c8	0.1928817
241	0x3eabe12e	0.33570236
242	0xbfbf2259	-1.4932357
243	0xbc87b55b	-0.01656597
244	0x3e9973c4	0.29971135
245	0x3e1bb208	0.15204632
246	0xbe4ba978	-0.19888866
247	0xbe267573	-0.16255741
248	0xbe348129	-0.17627396
249	0x3c9cd96d	0.019146645
250	0x3ec93dde	0.39305013
251	0xbf802999	-1.0012695
252	0xbf618e69	-0.88107926
253	0xbd8f9ef9	-0.070127435
254	0x3ea72355	0.32644144
255	0x3ea5fdf8	0.32420325

gnn.convs.1.nn.lins.0.bias f4 [16]
0	0xbd0bb174	-0.03410478
1	0xbeb22c29	-0.34799317
2	0xbe0f7e45	-0.14013012
3	0xbd979e63	-0.07403257
4	0xbdabd3e8	-0.08390027
5	0xbeb4ac6c	-0.35287797
6	0xbe646dc4	-0.22307497
7	0xbeb755ec	-0.3580774
8	0xbd6d9551	-0.058003727
9	0xbe7377f4	-0.23776227
10	0xbe51ac5e	-0.20475909
11	0x3eb9fa61	0.36323836
12	0xbe0fbac3	-0.14036088
13	0x3e486cfe	0.19572827
14	0xbdc56d6b	-0.096400104
15	0x3c6db4f0	0.014508471

gnn.convs.1.nn.lins.1.weight f4 [16, 16]
0	0xbe040f52	-0.12896469
1	0x3dce5f10	0.100767255
2	0xbd487423	-0.04893888
3	0x3d717a8c	0.05895476
4	0x3daeef71	0.085417636
5	0x3e20509e	0.15655753
6	0xbe8533b4	-0.2601601
7	0xbde843fd	-0.11341093
8	0x3d01c594	0.031682566
9	0xbe180bd2	-0.14848259
10	0xbc31ec5b	-0.010859574
11	0xbe646875	-0.22305472
12	0xbd5cf44e	-0.053943925
13	0x3dcea799	0.100905605
14	0xbea933bc	-0.33047283
15	0xbeb35165	-0.35023037
16	0x3e1a6d45	0.15080746
17	0x3c890f69	0.016730981
18	0x3ed45b20	0.41475773
19	0x3dc88ad6	0.09792106
20	0x3d4e3edf	0.050352927
21	0x3e563e19	0.20922126
22	0xbd4b54c9	-0.049641404
23	0x3dabfd79	0.083979554
24	0x3e29b05e	0.16571185
25	0xbdb89ffc	-0.090148896
26	0x3e6a3dfc	0.22875208
27	0xbe8a89b4	-0.27058184
28	0xbe14e205	-0.14539345
29	0x3ed3de03	0.4138032
30	0x3dfe5ced	0.12420068
31	0x3f057a24	0.52139497
32	0x3efc2a66	0.49251097
33	0xbdd6b0ce	-0.104829416
34	0x3ec45950	0.3834939
35	0x3e45ef39	0.19329537
36	0x3d6c0beb	0.057628553
37	0xbd44328d	-0.04789977
38	0x3ebfef6f	0.3748736
39	0xbe109a8f	-0.1412146
40	0x3dfe5c45	0.12419943
41	0x3ed998f2	0.424995
42	0x3e806931	0.25080255
43	0xbd3ce8de	-0.046120517
44	0xbda8f822	-0.082504526
45	0x3ea07e3d	0.31346312
46	0x3df0be4c	0.11755046
47	0x3e858bac	0.26083124
48	0xbe64ef9a	-0.22357026
49	0xbe2017a5	-0.1563402
50	0xbe31f7d8	-0.17379701
51	0xbe588031	-0.21142651
52	0xbdc69cb1	-0.09697855
53	0xbdb24599	-0.08704681
54	0x3d999ffa	0.07501216
55	0xbe8ddaa7	-0.2770588
56	0x3e2f3c7a	0.17112914
57	0xbc68b57f	-0.014203428
58	0xbb69485a	-0.0035596103
59	0xbd948c8f	-0.07253372
60	0x3e0e837b	0.13917343
61	0x3d5744d7	0.052555885
62	0xbe900746	-0.2813055
63	0xbe028415	-0.12745698
64	0x3d32d5da	0.043660976
65	0xbe8fbf78	-0.28075767
66	0xbe474622	-0.19460347
67	0x3de7b6c1	0.113141544
68	0xbe1c6e7f	-0.15276526
69	0x3dacea40	0.08443117
70	0x3d5f3daf	0.054502185
71	0x3e65f800	0.22457886
72	0xbd33bdc8	-0.04388216
73	0xbe900499	-0.28128508
74	0x3c086519	0.008324885
75	0xbe3fb789	-0.18722357
76	0x38615413	5.372248e-05
77	0xbe061805	-0.130951
78	0xbe715db0	-0.23570895
79	0xbc4bca23	-0.01243833
80	0xbd7c0ab5	-0.06153365
81	0xbe6dab03	-0.23209767
82	0xb9371c57	-0.00017462797
83	0xbe37e305	-0.17957695
84	0xbe085379	-0.13313092
85	0x3c9ccde6	0.019141149
86	0xbe816000	-0.25268555
87	0x3daede57	0.08538502
88	0xbe7775fe	-0.24166104
89	0xbc30e2f4	-0.010796297
90	0xbf3a6fd7	-0.72826904
91	0x3d9ff54c	0.078104585
92	0x3e3dd821	0.18539478
93	0xbc8c8cf7	-0.017157061
94	0xbe2a43c9	-0.1662742
95	0x3ee3fa69	0.44526985
96	0x3e384b07	0.1799737
97	0xbe63d115	-0.22247727
98	0xbccc1148	-0.024910584
99	0x3d686a5a	0.05674205
100	0xbe5931fa	-0.21210471
101	0xbcbfa270	-0.023392886
102	0x3e2a0d75	0.16606696
103	0x3da480f0	0.080324054
104	0xbd7fd86e	-0.062462263
105	0xbdce20ba	-0.10064836
106	0x3e3101d6	0.17285857
107	0xbbf80103	-0.00756848
108	0xbe989135	-0.29798284
109	0xbe7b09a5	-0.24515398
110	0xbdfdfb21	-0.12401415
111	0xbe6a2073	-0.22863941
112	0xbdf63556	-0.12021892
113	0x3e8b4d53	0.2720743
114	0x3dac8312	0.08423437
115	0x3ecc7e27	0.39939997
116	0x3cbf01f7	0.023316367
117	0xbd1bb770	-0.038016737
118	0x3d9cee28	0.07662612
119	0xbe2459bf	-0.1604986
120	0xbdd24de6	-0.10268764
121	0x3d9d9dae	0.07696091
122	0x3f111c64	0.56683946
123	0xbecaadf7	-0.3958585
124	0xbd22d7cc	-0.03975658
125	0x3efd6a63	0.4949523
126	0xbe384fa8	-0.17999136
127	0x3ea11f0e	0.31469005
128	0xbd0f068c	-0.034918353
129	0x3d893c8b	0.06701001
130	0x3eb46f31	0.35241082
131	0x3cf31b56	0.02967612
132	0x3dfca238	0.12335628
133	0x3e334f16	0.17510638
134	0xbe38c19f	-0.1804261
135	0x3de56c39	0.112022825
136	0xbd2df443	-0.042469274
137	0xbec9f22d	-0.39442578
138	0x3efac431	0.48977807
139	0xbc89a027	-0.0168
140	0xbe10595f	-0.14096592
141	0x3ee12772	0.43975407
142	0xbd9cc930	-0.07655561
143	0x3f0e6819	0.5562759
144	0xbd8e37d6	-0.069442436
145	0xbd988d79	-0.07448859
146	0xbe624dbd	-0.22099967
147	0xbe9d9390	-0.30776644
148	0xbe9f7cc3	-0.31149873
149	0xbc96dca0	-0.01841575
150	0xbd8499d2	-0.064746514
151	0x3e013586	0.12618074
152	0xbe608c98	-0.21928632
153	0xbcacf975	-0.021115044
154	0x3d17eca8	0.037090927
155	0x3c763dfb	0.015029426
156	0x3e05ac61	0.13054039
157	0xbeb85394	-0.36001265
158	0xbe7ab22d	-0.24482031
159	0x3d7364f7	0.05942246
160	0x3e053dea	0.130119
161	0xbdb8ce31	-0.09023703
162	0x3db636e8	0.08897191
163	0x3de646b2	0.11243953
164	0xbdfd2787	-0.12361055
165	0x3e604737	0.21902166
166	0x3e4d3792	0.2004073
167	0x3df62187	0.120181136
168	0xbe2ab5d1	-0.1667092
169	0x3d8d1b92	0.06890024
170	0x3f08c3b3	0.53423613
171	0xbe2f5522	-0.1712232
172	0xbceb019e	-0.028687295
173	0x3eb2bc3a	0.3490923
174	0xbdf869f6	-0.121295854
175	0x3eb1c5a5	0.34721103
176	0x3ca635ef	0.02028939
177	0xbe56fa92	-0.20994022
178	0x3e03e1c7	0.12879096
179	0xba5c9d11	-0.00084157387
180	0x3e0d8b1b	0.13822596
181	0x3db7a059	0.08966131
182	0x3c49f04e	0.0123253595
183	0x3e388abe	0.18021676
184	0xbe1249ba	-0.14285937
185	0xbd7733ce	-0.06035214
186	0xbe4b11d5	-0.19831021
187	0xbdb75356	-0.08951442
188	0x3d841bcb	0.064506136
189	0xbda7eeeb	-0.08199867
190	0xbe26163b	-0.16219418
191	0xbee32054	-0.44360602
192	0x3d11d0b0	0.03559941
193	0xbe4c955c	-0.19978851
194	0xbe6cf933	-0.23141937
195	0xbe6816c2	-0.22664931
196	0xbe1d51ae	-0.1536319
197	0x3d2c5038	0.04206869
198	0xbe24c938	-0.16092384
199	0xbe0462da	-0.12928334
200	0x3e2db456	0.16963324
201	0xbe2877e2	-0.16451982
202	0xbe1d0a6c	-0.15336007
203	0xbd6979d1	-0.05700094
204	0xbdd050e8	-0.10171682
205	0xbea6f8fd	-0.32611838
206	0xbe4dbf36	-0.20092472
207	0xbda91968	-0.08256799
208	0x3e42f065	0.19037016
209	0xbcdf4550	-0.02725473
210	0x3e0b7438	0.13618553
211	0x3d889a41	0.066700466
212	0x3dd3eb89	0.10347659
213	0x3d8a6af4	0.06758681
214	0x3e420d8a	0.18950477
215	0xbcc9bd44	-0.024626382
216	0xbde69f14	-0.112608105
217	0xbd2de241	-0.0424521
218	0x3ec82d83	0.39097223
219	0xbe7d9734	-0.2476471
220	0x3d091be3	0.03347386
221	0x3ec831f2	0.39100605
222	0x39a23736	0.00030940183
223	0x3f2e6388	0.6812062
224	0xbe479ab4	-0.19492608
225	0xbe0ed13b	-0.13947003
226	0xbe46ba63	-0.19407038
227	0xbdbf151f	-0.093302004
228	0x3de155c0	0.11002684
229	0xbbba0064	-0.005676316
230	0xbea15e8c	-0.31517446
231	0xbde32592	-0.1109115
232	0xbe41d133	-0.1892746
233	0x3dcd0b34	0.100119025
234	0x3d833837	0.064072065
235	0xbe9f5427	-0.3111889
236	0xbe074d8a	-0.13213173
237	0xbe32abe9	-0.17448391
238	0xbd05b649	-0.032644544
239	0x3d7aaeae	0.061201744
240	0x3dee1ea5	0.11626939
241	0x3b9ec8dd	0.004845722
242	0xbe2ae960	-0.16690588
243	0x3d75dd10	0.060025275
244	0xbcc60250	-0.024171025
245	0x3db526e8	0.088453114
246	0xbe54a49f	-0.20765923
247	0x3d1f2102	0.038849838
248	0x3d03692e	0.03208273
249	0xbd66cf8f	-0.056350287
250	0xbd34e182	-0.044160374
251	0x3d364267	0.04449692
252	0xbd823ece	-0.06359635
253	0xbe97c0c5	-0.2963926
254	0xbe7a0a8b	-0.24418084
255	0x3e1fa40a	0.1558992

gnn.convs.1.nn.lins.1.bias f4 [16]
0	0xbe122667	-0.14272462
1	0xbd98b97a	-0.07457252
2	0xbdffdb52	-0.12493004
3	0xbe93dcd3	-0.28879413
4	0xbe838d52	-0.25693756
5	0x3e71fef0	0.23632407
6	0xbd924e1a	-0.07143803
7	0xbd88cd0e	-0.06679736
8	0xbda54365	-0.08069495
9	0xbe1ea5af	-0.15492891
10	0xbd39830e	-0.045291
11	0x3ece2571	0.4026294
12	0xbe123961	-0.14279701
13	0xbd99a9ec	-0.07503113
14	0xbcab2c60	-0.020895183
15	0xbdc18010	-0.09448254

gnn.convs.2.nn.lins.0.weight f4 [16, 16]
0	0x3d6b6248	0.057466775
1	0xbd720032	-0.059082218
2	0xbeb3b569	-0.35099342
3	0xbdbc1c13	-0.09185042
4	0x3e8f9989	0.28046826
5	0xbdec7b84	-0.11546996
6	0xbe4209b1	-0.1894901
7	0xbe53465b	-0.20632307
8	0xbe98f60d	-0.29875222
9	0x3dbba91d	0.09163115
10	0xbe3858d5	-0.18002637
11	0xbdf9478e	-0.12171851
12	0xbd50af4e	-0.050948434
13	0x3d23ad0a	0.039959945
14	0xbe571ad5	-0.2100633
15	0xbb1f0344	-0.002426342
16	0x3e0ef8ed	0.13962145
17	0xbd4d6d9a	-0.050153352
18	0xbe66d9ee	-0.22544071
19	0x3e229673	0.15877704
20	0xbd33e0c4	-0.043915525
21	0xbe192ef8	-0.14959323
22	0xbdc44bb8	-0.09584755
23	0x3e0a6160	0.13513708
24	0x3d9184ae	0.07105385
25	0x3e1b6ad3	0.15177469
26	0x3e31593f	0.17319201
27	0xbe4cf036	-0.20013508
28	0x3d33cb07	0.043894794
29	0xbe83ff65	-0.25780788
30	0x3dfc587d	0.12321565
31	0xbd3f864b	-0.04675893
32	0xbe35d190	-0.17755723
33	0xbdea801e	-0.11450218
34	0xbe3368a3	-0.17520384
35	0x3da8800b	0.08227547
36	0x3d54a4af	0.051914867
37	0x3c939958	0.018017456
38	0xbd52bbbd	-0.051448572
39	0xbeb26f27	-0.34850428
40	0xbdf937ea	-0.12168868
41	0x3e8cb16b	0.2747911
42	0xbe83fd53	-0.2577921
43	0x3d93c1da	0.072147086
44	0x3d59ca8b	0.053171676
45	0x3e069631	0.13143231
46	0xbe272bb3	-0.16325264
47	0x3e1fbf17	0.15600239
48	0xbe225825	-0.15853937
49	0xbcb5f496	-0.022211354
50	0xbe8e0993	-0.2774168
51	0x3f15dfef	0.5854482
52	0x3e15019e	0.14551398
53	0xbe841af7	-0.25801823
54	0xbe14aa49	-0.14518084
55	0xbdf389ee	-0.118915424
56	0xbd0977fa	-0.033561684
57	0xbdbca343	-0.09210827
58	0xbbd81e2e	-0.0065953946
59	0xbdbf4ab7	-0.093404226
60	0xbdb30be9	-0.08742506
61	0xbe6e2420	-0.23255968
62	0xbd7346ee	-0.059393816
63	0x3e502634	0.20327073
64	0x3dec68ee	0.11543451
65	0x3d459e19	0.048246477
66	0xbc1ecf4d	-0.009692979
67	0xbe1d027c	-0.15332979
68	0x3e64e92b	0.22354572
69	0x3e54ec82	0.20793346
70	0xbe83696f	-0.25666377
71	0x3ddbee11	0.10738767
72	0xbe4a5c33	-0.19761734
73	0xbd00bc60	-0.03142965
74	0xbe2a948a	-0.16658226
75	0x3d86538c	0.06558904
76	0x3d5cad23	0.053876054
77	0xbe75256d	-0.23940058
78	0xbdbe522e	-0.09293018
79	0x3e002ca1	0.12517025
80	0xbe508c1a	-0.20365945
81	0x3d3cdad4	0.04610713
82	0xbd8cf9e5	-0.06883601
83	0xbc4d8987	-0.012544996
84	0x3e42855d	0.18996187
85	0x3cf8130e	0.030282523
86	0xbb30dbe1	-0.0026986527
87	0xbe229a46	-0.15879163
88	0xbcf9120c	-0.030404113
89	0x3d02f95a	0.03197608
90	0xbdba95d3	-0.09110608
91	0xbe80541e	-0.25064176
92	0xbe09b097	-0.1344627
93	0xbe6e5c24	-0.23277336
94	0x3e45a0d5	0.19299634
95	0xbe509f07	-0.20373164
96	0xbd9a0d7c	-0.07522103
97	0x3d248275	0.040163476
98	0x3d8bb852	0.06822266
99	0xbd23a67b	-0.03995369
100	0xbe22df17	-0.15905415
101	0xbdb1bbe6	-0.08678417
102	0xbeaf37e0	-0.34222317
103	0xbdc65699	-0.09684486
104	0xbe8331da	-0.2562397
105	0x3e0f896c	0.14017266
106	0xbe94242b	-0.28933844
107	0x3e0dfa84	0.13865095
108	0x3c0451cd	0.008076143
109	0xbe1a2bca	-0.15055767
110	0xbd25102f	-0.040298637
111	0x3d891ed1	0.06695331
112	0xbda3528e	-0.079747304
113	0xbeba6ee5	-0.3641273
114	0xbea99998	-0.33124995
115	0x3dd89ede	0.105771765
116	0x3e169c9c	0.14708179
117	0xbc4975f3	-0.012296188
118	0xbed20bd0	-0.41024637
119	0x3b0509f8	0.0020300131
120	0xbd123152	-0.035691567
121	0xbe28f965	-0.16501386
122	0xbed2766a	-0.41105968
123	0xbea05ef5	-0.31322446
124	0x3e1586d1	0.1460221
125	0xbefab25f	-0.4896421
126	0x3d54f046	0.051986955
127	0xbe73ab2f	-0.2379577
128	0x3e1c4793	0.15261678
129	0xbe8794b0	-0.26480627
130	0xbe2a88cb	-0.16653745
131	0xbe7900d1	-0.24316718
132	0xbe656332	-0.22401121
133	0xbe6762da	-0.22596303
134	0xbe346934	-0.17618257
135	0x3d2c0278	0.041994542
136	0xbc217cde	-0.009856431
137	0xbe898a6a	-0.26863414
138	0x3c98390f	0.018581895
139	0x3cc95abd	0.0245794
140	0xbcc3499a	-0.023838807
141	0xbd8be2c5	-0.06830362
142	0xbca84e0e	-0.020545032
143	0xbea0f88b	-0.31439623
144	0xbe305c9d	-0.17222829
145	0xbced2eb2	-0.02895293
146	0xbd614068	-0.054993063
147	0x3d688262	0.056764968
148	0x3e7a69b5	0.24454387
149	0xbde9b56a	-0.11411555
150	0xbd3d364a	-0.046194352
151	0x3e43c095	0.19116433
152	0xbecdd4d8	-0.4020145
153	0x3e27ec89	0.16398825
154	0xbded9d51	-0.11602271
155	0xbe079d23	-0.13243537
156	0x3cdd577e	0.027019259
157	0xbe4c39f6	-0.19943985
158	0x3b816cec	0.003949752
159	0x3daa1ca4	0.08306244
160	0xbdb981c9	-0.09057958
161	0xbd86c073	-0.065796755
162	0xbe22eaf1	-0.15909936
163	0x3e0e8583	0.13918118
164	0x3e19ca73	0.15018634
165	0xbebff4ea	-0.37491542
166	0x3cfd101d	0.030891472
167	0xbd01d1d7	-0.03169426
168	0x3d9b3705	0.075788535
169	0x3d0d6d92	0.034528323
170	0x3e1ce2e4	0.15320927
171	0xbe84f19f	-0.25965592
172	0xbb3f769c	-0.0029214984
173	0xbcab3907	-0.020901216
174	0x3dd8f2ac	0.10593161
175	0x3dc7ca64	0.097554
176	0xbe3acacc	-0.18241423
177	0xbde053b6	-0.109534666
178	0xbe907915	-0.28217378
179	0x3e05a6ff	0.13051985
180	0xbdc3e136	-0.0956444
181	0xbdeccd45	-0.115625896
182	0xbda2efb6	-0.079558775
183	0xbe6e69e2	-0.23282579
184	0xbe1b785c	-0.15182632
185	0x3e229e4c	0.15880698
186	0x3d804695	0.062634625
187	0x3e0b49e3	0.13602404
188	0xbe06ec0c	-0.13175982
189	0xbdfa50e6	-0.122224614
190	0xbd3dff2f	-0.04638594
191	0xbe18949b	-0.14900438
192	0x3defbccc	0.11705932
193	0xbea6a174	-0.32545054
194	0xbe016402	-0.12635806
195	0x3e358960	0.17728186
196	0xbe3479f6	-0.1762465
197	0xbf7baf38	-0.9831424
198	0xbd9a467d	-0.07532976
199	0x3dfce743	0.12348797
200	0x3eb279c8	0.34858537
201	0xbe12e51c	-0.14345211
202	0x3c96a70c	0.018390201
203	0xbf2a55bc	-0.6653707
204	0x3ced644d	0.028978491
205	0x3e52db92	0.20591572
206	0x3d46a8ab	0.048500698
207	0x3dea36da	0.11436243
208	0xbe377a87	-0.17917834
209	0xbcca414d	-0.024689341
210	0xbdd0aaf9	-0.101888604
211	0x3cf042b1	0.029328676
212	0xbdce26c2	-0.10065986
213	0x3e7c8643	0.24660592
214	0x3df1075e	0.11768983
215	0x3d056de2	0.032575496
216	0xbdb201c0	-0.0869174
217	0xbd20eb68	-0.039287
218	0xbea72fd8	-0.3265369
219	0x3ebf29ea	0.37336665
220	0x3e550f63	0.20806651
221	0xbe1a294e	-0.15054819
222	0x3cc37319	0.023858594
223	0xbe98f458	-0.2987392
224	0xbe984261	-0.29738143
225	0xbd27f157	-0.041001644
226	0xbe67b989	-0.2262937
227	0x3e4b1486	0.19832048
228	0xbdc23602	-0.094829574
229	0xbddcbd9b	-0.10778352
230	0x3d3b717a	0.045762517
231	0xbd847cf1	-0.06469143
232	0x3d88dd7c	0.0668287
233	0xbdfd8972	-0.12379731
234	0x3d8822e6	0.06647281
235	0xbdf60312	-0.12012304
236	0xbe643706	-0.22286615
237	0xbd2c8717	-0.04212102
238	0xbe8d2bb8	-0.27572417
239	0xbcf9be08	-0.030486122
240	0x395c314d	0.00020999201
241	0x3d822356	0.06354396
242	0x3d2887a3	0.04114498
243	0xbd9149e0	-0.07094169
244	0x3e41e567	0.18935166
245	0xbe26a44d	-0.16273613
246	0x3e427e87	0.18993579
247	0xbe5b7b88	-0.21433842
248	0xbdaeafa0	-0.085295916
249	0x3dcb003c	0.09912154
250	0xbe50a5a9	-0.20375694
251	0x3e89dc01	0.26925662
252	0x3e47a250	0.19495511
253	0xbe8d682c	-0.2761854
254	0xbd645dcc	-0.055753514
255	0x3dfd5240	0.123692036

gnn.convs.2.nn.lins.0.bias f4 [16]
0	0x3d3a84f7	0.04553696
1	0xbdd2496d	-0.10267911
2	0xbea06db2	-0.3133369
3	0xbd5a60b0	-0.053314865
4	0x3e3fe8d3	0.18741159
5	0xbea7a3ae	-0.32742065
6	0xbe3be0bc	-0.18347448
7	0xbd7208c5	-0.059090395
8	0xbe94b021	-0.29040626
9	0x3e177996	0.14792475
10	0xbe86fa2b	-0.26362738
11	0x3beb2681	0.007176221
12	0xbeb6836f	-0.3564715
13	0xbaa31485	-0.0012442028
14	0xbe703346	-0.2345706
15	0x3e0498c4	0.129489

gnn.convs.2.nn.lins.1.weight f4 [16, 16]
0	0x3ebb35a7	0.3656437
1	0xbed8f138	-0.42371535
2	0x3ebff11e	0.37488645
3	0xbcd76ea5	-0.026297877
4	0xbe309ebb	-0.17248051
5	0x3dfe3b61	0.124136694
6	0xbe2700f7	-0.16308962
7	0xbc1afce0	-0.009459704
8	0xbd7f8504	-0.062382713
9	0xbe73be33	-0.23803024
10	0x3c301550	0.010747269
11	0x3e535087	0.20636187
12	0xbdcfb849	-0.101425715
13	0x3cf3e5e1	0.0297727
14	0xbe8b12e8	-0.27162862
15	0x3e7d50e5	0.2473789
16	0xbb32b080	-0.0027265847
17	0xbdb7584c	-0.08952388
18	0x3ca3421a	0.01992898
19	0xbe27ea16	-0.1639789
20	0xbe49a262	-0.1969085
21	0xbe6f0a25	-0.23343714
22	0xbde6cca1	-0.112694986
23	0xbde68fa0	-0.11257863
24	0x3d57d656	0.05269464
25	0xbe8dc23f	-0.2768726
26	0xbe502f90	-0.20330644
27	0xbe3f15e8	-0.186607
28	0xbdb4f183	-0.08835127
29	0x3e05d455	0.1306928
30	0x3d11d9bc	0.03560804
31	0x3de08764	0.10963324
32	0x3d4918f8	0.049096078
33	0x3de3c4b2	0.11121501
34	0xbe2540c3	-0.16137986
35	0x3c38c489	0.011277326
36	0xbdc95049	-0.09829766
37	0x3e0ff235	0.14057238
38	0xbdac6528	-0.084177315
39	0x3de30f43	0.11086895
40	0xbe170b8e	-0.14750502
41	0x3d402446	0.046909593
42	0x3dc356aa	0.09538014
43	0x3dc3b293	0.09555545
44	0x3e39b363	0.18134837
45	0x3e2be706	0.16787347
46	0x3a87ab90	0.0010350812
47	0x3e01e923	0.12686591
48	0x3cbe3ba1	0.023221793
49	0xbe4630d9	-0.19354571
50	0x3dfc2468	0.123116314
51	0xbdce76ed	-0.10081277
52	0xbe8e16bd	-0.27751723
53	0xbd4e38be	-0.050347082
54	0xbe499cb9	-0.19688691
55	0x3e838921	0.2569056
56	0xbca2e002	-0.019882206
57	0xbe9c2fb6	-0.3050515
58	0x3dd39530	0.1033119
59	0xbd942e19	-0.07235355
60	0x3e8c2cdd	0.27377978
61	0x3e09bdbd	0.13451286
62	0x3d05d9ba	0.032678343
63	0x3e11d4ca	0.14241329
64	0x3d470420	0.04858792
65	0xbe9c0f3e	-0.3048038
66	0xbe445efa	-0.19176856
67	0xbdee453c	-0.11634299
68	0x3d16dc21	0.036831025
69	0x3e2c93ce	0.16853258
70	0xbcdeba9a	-0.027188588
71	0xbc86856f	-0.016421048
72	0xbe9be660	-0.304492
73	0x3e0a2ec7	0.13494407
74	0xbd9d0645	-0.076672114
75	0x3ce0012e	0.027344313
76	0xbdf59bfd	-0.11992643
77	0xbe803cfb	-0.25046524
78	0xbe6431f8	-0.22284687
79	0xbdceb483	-0.10093024
80	0xbe51cd83	-0.20488553
81	0xbe8edf4b	-0.27904734
82	0x3e598c82	0.21245006
83	0xbcedcccd	-0.02902832
84	0xbd91a210	-0.07110989
85	0xbe9f791e	-0.31147093
86	0xbe58d4d8	-0.21174943
87	0xbe1ad73f	-0.15121172
88	0xbdf62ba6	-0.12020044
89	0x3ddc3cf7	0.107538156
90	0xbdba547b	-0.090981446
91	0xbcf63576	-0.030054789
92	0xbe4715b9	-0.1944188
93	0x3dafdbdf	0.08586859
94	0x3e62b48f	0.2213919
95	0xbdfbbfc4	-0.12292436
96	0xbe058621	-0.13039447
97	0x3c15c670	0.0091415495
98	0x3dc90d7e	0.098170266
99	0xbc5e9b9e	-0.013586907
100	0xbe395ab4	-0.18101007
101	0xbe1d1b56	-0.15342459
102	0x3dc2a729	0.095045395
103	0x3cb7c599	0.02243309
104	0xbe65f2f0	-0.22455955
105	0xbd49d361	-0.049273852
106	0xbd6a2423	-0.05716337
107	0xbdfbd876	-0.12297146
108	0xbe264caf	-0.1624019
109	0xbcfe5e7b	-0.031050911
110	0x3b6693ed	0.0035183385
111	0x3e4d3672	0.200403
112	0x3d264a9b	0.040598493
113	0x3ce9db80	0.028547049
114	0x3dc278ce	0.09495698
115	0x3e418fe0	0.1890254
116	0xbc932817	-0.017963452
117	0xbde6f107	-0.11276441
118	0x3e3ebf61	0.18627693
119	0xbc287fc4	-0.010284368
120	0x3dc183ef	0.094489925
121	0xbe2472b5	-0.16059382
122	0x3dec8aae	0.115498886
123	0x3e8ffcaa	0.28122455
124	0x3db4bd78	0.08825201
125	0xbe4a61d6	-0.19763884
126	0xbc7e89ec	-0.015535813
127	0x3e357a40	0.17722416
128	0xbd464628	-0.04840675
129	0x3d287259	0.041124675
130	0x3daaa80d	0.083328344
131	0x3e1fa9ea	0.15592161
132	0x3e466547	0.19374572
133	0x3dc1b421	0.09458185
134	0x3d79108a	0.06080679
135	0x3cf2e636	0.029650789
136	0xbc78edcf	-0.015193417
137	0xbd72e663	-0.059301745
138	0xbdbf2323	-0.09332874
139	0xbdb78c2f	-0.08962285
140	0xbe864726	-0.26226157
141	0x3e2ee309	0.17078795
142	0x3b281cb2	0.002565187
143	0x3dbb7ac8	0.09154278
144	0x3d46d7dd	0.048545707
145	0x3c33fa7b	0.010985012
146	0x3dd183fe	0.10230254
147	0xbe402f35	-0.18768008
148	0x3e1ea8b6	0.15494046
149	0x3cc0f772	0.023555491
150	0x3e22a6b1	0.158839
151	0x3e435b9f	0.1907792
152	0x3da85757	0.08219784
153	0xbd8179c6	-0.063220546
154	0x3dae8427	0.085213
155	0xbe5cd0e8	-0.21564066
156	0xbe6e9250	-0.23298001
157	0x3de9bec8	0.11413342
158	0x3cdee320	0.027207911
159	0xbc7630c4	-0.015026275
160	0xbe3a0e3e	-0.18169495
161	0xbe02a200	-0.1275711
162	0xbe87a235	-0.26490942
163	0xbe4d36f6	-0.20040497
164	0x3cec805f	0.028869806
165	0x3da40953	0.08009591
166	0xbe0b8175	-0.13623603
167	0x3e08de3a	0.13366023
168	0xbdbe9adb	-0.0930688
169	0x3d1df291	0.038561407
170	0xbe16546b	-0.1468064
171	0x3da1b365	0.07895545
172	0xbd1e763d	-0.03868698
173	0xbe4260e9	-0.18982281
174	0xbe4789b5	-0.19486125
175	0x3c89ec64	0.016836353
176	0xbe649f8f	-0.22326492
177	0x3e28eaee	0.16495869
178	0xbee5578c	-0.44793355
179	0xbea0f69f	-0.31438157
180	0xbe39476f	-0.18093656
181	0xbe5014f9	-0.203205
182	0xbe208b18	-0.1567806
183	0xbdceb901	-0.100938804
184	0xbdbbc6e0	-0.09168792
185	0x3e45269f	0.19253014
186	0x3d12c036	0.035827838
187	0xbd3b8b9f	-0.04578745
188	0xbbe52238	-0.0069926046
189	0xbecf2437	-0.40457317
190	0xbda4b2ee	-0.08041941
191	0xbd4ec546	-0.050481103
192	0x3e878509	0.26468685
193	0x3dfba0c7	0.12286525
194	0x3db8facd	0.090322115
195	0x3e5cecd1	0.21574713
196	0x3dc20ab0	0.09474695
197	0xbd254ab6	-0.040354453
198	0x3c6744f4	0.014115561
199	0x3d32e0f0	0.04367155
200	0x3e3c11b2	0.18366125
201	0xbc5b5201	-0.0133862505
202	0x3d9c21c4	0.07623628
203	0x3e595215	0.21222718
204	0xbeb61724	-0.3556453
205	0x3d815a4b	0.0631605
206	0x3dae12bb	0.08499666
207	0xbe36c6f7	-0.17849337
208	0x3ce8849b	0.028383544
209	0xbe5f813d	-0.21826644
210	0xbe178190	-0.14795518
211	0x3e794d1d	0.24345823
212	0xbd9d3d00	-0.076776505
213	0xbdf9f7ef	-0.12205493
214	0xbe97d103	-0.2965165
215	0xbd0af315	-0.033923227
216	0xbd018624	-0.031622067
217	0xbdef7390	-0.11691964
218	0xbd81b678	-0.06333631
219	0x3e0e88f9	0.13919438
220	0xbe2c55de	-0.1682963
221	0xbcca27ed	-0.024677241
222	0x3d0b9045	0.034073133
223	0xbe9a9e84	-0.30199063
224	0xbe78c156	-0.24292502
225	0xbe5592b4	-0.20856744
226	0xbe76a7ae	-0.24087402
227	0x3e7d2ed8	0.247249
228	0xbe5b5b38	-0.21421516
229	0xbbe6ed00	-0.0070472956
230	0xbbc47040	-0.0059948266
231	0xbe159d44	-0.14610773
232	0x3cc7bf7e	0.024383303
233	0xbd140a48	-0.036142617
234	0xbea897d8	-0.32928348
235	0x3e4f2416	0.2022861
236	0xbe1d261e	-0.15346572
237	0xbd9a0f40	-0.0752244
238	0xbe7849ca	-0.24246898
239	0xbd4515c0	-0.048116446
240	0xbdd4b5f9	-0.10386271
241	0xbeb32e72	-0.34996372
242	0xba0f4754	-0.0005465646
243	0xbe2fb203	-0.1715775
244	0xbdf7cbbe	-0.120994076
245	0x3df73996	0.120715305
246	0xbdb0d472	-0.08634271
247	0x3e868f74	0.2628132
248	0xbd003e7e	-0.031309597
249	0xbe9ba3b4	-0.30398333
250	0xbe06e68b	-0.13173883
251	0xbdfc06b2	-0.123059645
252	0xbd51c3c8	-0.051212102
253	0xbda0caaa	-0.07851155
254	0xbe85259b	-0.26005253
255	0xbe822c90	-0.25424623

gnn.convs.2.nn.lins.1.bias f4 [16]
0	0xbe992f0f	-0.29918715
1	0xbe9e6832	-0.3093887
2	0xbe70daff	-0.2352104
3	0xbe896388	-0.2683375
4	0xbe0420e1	-0.12903167
5	0xbd1d6f03	-0.038435947
6	0xbe972116	-0.2951743
7	0xbd9634a1	-0.07334257
8	0xbe27d96c	-0.16391534
9	0xbb0d7161	-0.0021582472
10	0xbe9214b7	-0.2853143
11	0x3ea98cde	0.33115286
12	0xbdba9a01	-0.09111405
13	0xbd72d06a	-0.05928079
14	0xbea9ec7c	-0.33188236
15	0x3e1e82bf	0.15479563

gnn.convs.3.nn.lins.0.weight f4 [16, 16]
0	0x3e03953e	0.128499
1	0x3e6ec0cb	0.23315732
2	0xbdcb4e61	-0.09927059
3	0xbd0aa635	-0.033849914
4	0xbe0d3019	-0.13787879
5	0x3dfd9ce6	0.123834416
6	0x3e45cfbe	0.19317529
7	0xbd329a5b	-0.043604236
8	0xbe5a703c	-0.21331877
9	0x3ddffa5f	0.10936426
10	0x3e165212	0.14679745
11	0xbd53d07a	-0.05171249
12	0xbe1f122f	-0.1553428
13	0x3e31c094	0.17358619
14	0xbbf4f521	-0.0074755107
15	0x3e10f1be	0.14154717
16	0xbcc036d7	-0.02346365
17	0xbe29e2c8	-0.16590416
18	0xbe95dcd4	-0.2927004
19	0xbe0ce454	-0.13758975
20	0xbeb1b9b5	-0.34711996
21	0x3e7ac84d	0.24490471
22	0xbd86f121	-0.065889604
23	0x3d500e39	0.050794814
24	0xbe5ef65d	-0.21773668
25	0xbda4180d	-0.080124
26	0x3e64f6f6	0.22359833
27	0xbe94dbb0	-0.29073858
28	0xbda402dc	-0.08008358
29	0x3e2bcae2	0.16776612
30	0xbd861190	-0.065463185
31	0xbe206051	-0.15661742
32	0xbd80a611	-0.06281675
33	0x3d8becae	0.068322524
34	0xbe861549	-0.26188114
35	0xbe977ef7	-0.29589054
36	0xbe4000d6	-0.18750319
37	0x3e486961	0.19571449
38	0xbe0763e1	-0.13221695
39	0xbecf847d	-0.40530768
40	0x3da9042c	0.08252749
41	0xbccdc0cc	-0.025116347
42	0xbd8e77a1	-0.06956411
43	0xbe17ff45	-0.14843471
44	0x3cb77e1f	0.022399006
45	0x3e57c896	0.21072611
46	0x3dce39d0	0.100696206
47	0xbd459d2d	-0.048245598
48	0x3cdd0d8a	0.026983995
49	0xbd0596b8	-0.03261444
50	0x3e923588	0.28556466
51	0x3e8225a1	0.25419334
52	0x3d74d030	0.059768856
53	0x3d4bc1cc	0.049745366
54	0x3e427553	0.18990068
55	0x3d8eef85	0.069792785
56	0xbd36b50e	-0.04460626
57	0xbda36839	-0.07978863
58	0xbe206af3	-0.15665798
59	0xbe6ae811	-0.22940089
60	0xbd02cf5f	-0.031936046
61	0x3e2217ce	0.15829393
62	0xbe282dbe	-0.164237
63	0xbd72076e	-0.059089117
64	0xbe3e51df	-0.18585919
65	0xbdc3dc45	-0.095634975
66	0xbccb4b7c	-0.024816267
67	0x3b2f0a24	0.0026708925
68	0xbd83ea4a	-0.064411715
69	0x3dfbe244	0.12299016
70	0x3ddf7f28	0.10912925
71	0xbe62387e	-0.22091863
72	0x3e2ca5ff	0.16860197
73	0xbe2549fd	-0.16141506
74	0xbd2981a0	-0.041383386
75	0x3d41c999	0.0473114
76	0xbe53dc34	-0.2068947
77	0x3daafb94	0.08348766
78	0x3d7b3bf0	0.061336458
79	0x3e8ab5ac	0.2709173
80	0xbd8b9be5	-0.06816844
81	0xbdbd1cb0	-0.09233987
82	0xbe8e668a	-0.27812606
83	0xbb62c676	-0.0034603155
84	0x3e9f7a7c	0.31148136
85	0xbdd70986	-0.10499863
86	0xbac4df3c	-0.0015020142
87	0xbbd8f859	-0.006621402
88	0x3a2dff64	0.00066374824
89	0xbe48fbfb	-0.19627373
90	0x3b882e48	0.004155908
91	0xbddfa19b	-0.10919496
92	0xbe93f632	-0.2889877
93	0x3d4fdedf	0.050749656
94	0x3e68cde0	0.22734785
95	0x3e4154a8	0.1887995
96	0xbe01dd5e	-0.12682101
97	0xbe77ca3e	-0.24198243
98	0xbd157561	-0.036488894
99	0xbd51c0e3	-0.05120934
100	0x3eade315	0.33962312
101	0xbe66faf7	-0.22556673
102	0x3e67f301	0.22651292
103	0xbdb2305a	-0.087006286
104	0xbd7b6226	-0.0613729
105	0xbe2e0fca	-0.1699821
106	0x3ce75af0	0.028241605
107	0xbef37062	-0.4754668
108	0xbe7d45d6	-0.24733672
109	0xbe8adcea	-0.2712167
110	0x3e1e19ee	0.15439579
111	0x3e792eab	0.24334209
112	0x3d5343c6	0.051578306
113	0xbda162b9	-0.07880158
114	0xbe98a76c	-0.29815233
115	0x3d80117f	0.06253337
116	0x3dc9c5da	0.0985219
117	0x3d1b8372	0.037967153
118	0x3e3b3d2e	0.18285057
119	0xbe1418b4	-0.14462548
120	0x3d9d6961	0.07686115
121	0x3dc622c5	0.096746005
122	0xbe0f8a51	-0.14017607
123	0xbd104eab	-0.035231274
124	0xbe952b2a	-0.29134494
125	0xbdd80004	-0.10546878
126	0xbe5d98ec	-0.21640366
127	0xbc93b552	-0.018030796
128	0x3f303c14	0.6884167
129	0xbdb70a1c	-0.08937475
130	0xbcb2f1e2	-0.021843854
131	0xbe6d868b	-0.23195855
132	0x3de97610	0.11399472
133	0x3ec29a6d	0.38008443
134	0xbe69798a	-0.2280027
135	0xbe20297f	-0.1564083
136	0xbd2b8a67	-0.041880038
137	0xbea00609	-0.31254604
138	0xbe3df602	-0.18550876
139	0xbe2da379	-0.16956891
140	0xbe7999e4	-0.24375111
141	0xbd1c8ad8	-0.03821835
142	0x3e28bfd2	0.16479424
143	0xbe67d15d	-0.2263846
144	0x3d996cd6	0.07491462
145	0x3e2faf65	0.17156751
146	0x3c83ec27	0.016103817
147	0xbe642b34	-0.22282106
148	0xbd6084b5	-0.05481406
149	0x3d9c321d	0.07626746
150	0xbdebb200	-0.1150856
151	0x3d3a57fc	0.045494065
152	0x3d23066b	0.039801043
153	0x3e05adf0	0.13054633
154	0xbe15fa72	-0.14646319
155	0x3d2fee04	0.0429516
156	0x3d574b1a	0.052561857
157	0xbdce0511	-0.1005956
158	0xbe4ae7a7	-0.19814931
159	0x3d1392a4	0.03602852
160	0x3e7565cb	0.23964612
161	0xbe9a0768	-0.30083776
162	0xbe1d8e01	-0.15386201
163	0xbe29d088	-0.16583455
164	0xbede6f43	-0.4344426
165	0xbddd4b68	-0.10805398
166	0xbf26565e	-0.64975536
167	0xbe711e66	-0.23546752
168	0xbf259e58	-0.6469474
169	0xbe209380	-0.15681267
170	0x3cbd09d9	0.023075985
171	0xbf9af587	-1.2106179
172	0xbe994745	-0.29937187
173	0x3e56b6b2	0.2096813
174	0xbe3ceea0	-0.18450403
175	0xbf1549df	-0.58315843
176	0x3e4a770f	0.1977198
177	0xbe016fd0	-0.1264031
178	0xbe44a833	-0.19204788
179	0xbe0ab05c	-0.13543838
180	0x3e2e0bbf	0.16996668
181	0x3e00991c	0.12558407
182	0x3c90e7a7	0.017688585
183	0xbe6ea50c	-0.23305148
184	0x3d875fa3	0.06610038
185	0x3d8a9812	0.06767286
186	0x3d8486ea	0.06471045
187	0xbd9bd39f	-0.07608723
188	0xbde96e4a	-0.11397989
189	0x3e3d39de	0.18479106
190	0xbe543bf4	-0.20725995
191	0x3e00f691	0.12594058
192	0xbe870551	-0.26371244
193	0xbe04d12e	-0.1297042
194	0xbd4c0282	-0.04980708
195	0xbcfa2cfd	-0.03053903
196	0xbdc20e56	-0.094753906
197	0xbce544d7	-0.027986927
198	0x3e5d8435	0.21632464
199	0xbe5a6bae	-0.21330139
200	0x3e50b143	0.2038012
201	0xbe92336e	-0.28554863
202	0xbe1fbfd5	-0.15600522
203	0xbefaf635	-0.49015966
204	0xbe807e37	-0.25096294
205	0x3cb63985	0.022244224
206	0x3dcc93f8	0.0998916
207	0x3da72fd1	0.08163417
208	0xbc9528a5	-0.018207857
209	0x3da6c5f4	0.08143225
210	0xbe0cf27e	-0.13764378
211	0xbc862c3e	-0.016378518
212	0xbe2cceb8	-0.16875732
213	0x3e150821	0.14553882
214	0x3d104edf	0.035231467
215	0xbe0a425f	-0.13501881
216	0x3e0273a3	0.12739424
217	0xbdaf52d7	-0.08560722
218	0x3e382776	0.17983803
219	0xbd904241	-0.07043887
220	0xbe7c1a2f	-0.24619363
221	0x3d9b09ca	0.075702265
222	0x3d703748	0.05864647
223	0xbb9f0062	-0.0048523406
224	0x3e00c472	0.12574938
225	0xbdbd33ef	-0.09238421
226	0xbe215b11	-0.15757395
227	0x3e40edca	0.1884071
228	0x3d0ed8cf	0.034874734
229	0x3da4ecd5	0.080529846
230	0x3dcccea0	0.10000348
231	0x3d4e6ba3	0.05039562
232	0xbda7ac98	-0.081872165
233	0xbd071c12	-0.032985754
234	0xbcadf12b	-0.021233162
235	0x3dae2eb7	0.08505004
236	0xbc7a35f6	-0.015271654
237	0xbe4a9fa4	-0.1978746
238	0x3e50978b	0.20370309
239	0xbe3e9263	-0.1861053
240	0xbda718e3	-0.08159044
241	0xbdf285cd	-0.11841927
242	0xbe3feaf6	-0.18741974
243	0x3e19e3f8	0.1502837
244	0xbe47ccbd	-0.19511695
245	0x3db4ea7c	0.08833787
246	0x3e09c029	0.1345221
247	0xbd8b10aa	-0.06790288
248	0xbe000640	-0.12502384
249	0xbe979d34	-0.29612124
250	0x3e038a03	0.12845616
251	0xbd70a4c2	-0.058750875
252	0x3d5be02c	0.053680584
253	0xbe8b7630	-0.27238607
254	0xbe56111a	-0.20904961
255	0x3e711768	0.23544085

gnn.convs.3.nn.lins.0.bias f4 [16]
0	0xbdb37fd2	-0.08764614
1	0xbe6081ee	-0.21924564
2	0xbed41e60	-0.41429424
3	0xbd801267	-0.0625351
4	0x3e97a208	0.29615808
5	0xbd3f2ef6	-0.046675645
6	0xbea52325	-0.32253376
7	0x3ec9eac4	0.39436924
8	0xbe7a9dfe	-0.24474332
9	0x3ea4b961	0.32172683
10	0x3e885e63	0.2663451
11	0xbdd7f9f4	-0.10545722
12	0xbeac7d0b	-0.3368915
13	0xbdca5f50	-0.09881461
14	0x3eb1cafa	0.3472517
15	0x3e9724ed	0.2952036
