Run_GIN_ModelCheckpoint_EvFr_2/NCI1_reps_2_folds_5_epochs_20_2023-04-26_11-05/rep_0_fold_3/checkpoints/model_trial_1.ckpt (torch, 245261 bytes, 86 tensors)

gnn.convs.0.nn.lins.0.weight f4 [32, 37]
00000000: def1 0d3e 4608 8bbc d4d5 d7bd 44fe 18bf
00000010: 95ad 8e3e fd33 003d 9004 90be 69a4 8dbd
00000020: 4bef 9c3f dab5 853f a5d1 d43f f311 893f
00000030: edb5 c53f d729 e9be 2875 393f e86c 363f
00000040: e65c 90bd 15e0 b23f 1da6 213f 8fdb 343f
00000050: 157f c3be 44b3 d8be 4581 7e3d 115e 9c3f
00000060: ac37 993f 46bf e3be b1c1 293f 9e58 043f
00000070: d5ee a6bd 90ee 723f 657c 163d 9eb2 d53d
00000080: 997d 3cbe 4a2d c6bd e40d e5bc 4af9 fcbd
00000090: 868b 0fbd 574f 3bbe cad4 42be 9cf4 babd
000000a0: 9129 15bf bcdc 8c3c d7db f93d a563 973d
000000b0: 0353 e73b 801d a6be 4a55 7fbe 19da 1ebe
000000c0: 66c3 f8bd 8457 b23d b86b 99be c33e b0bd
000000d0: 7b88 f9bd f1e2 4dbe 7203 993d 1de3 2dbd
000000e0: 1ce8 57bd 9873 aebd df50 24bd b5de e23c
000000f0: b2d4 bc3e 7ce4 5cbc 9af5 74bb e638 893c
00000100: c6cd f63d db20 043f fc7f 393c 8df7 d0bd
00000110: 3bbe e3bd cbdf bc3e eae7 3fbc 91db 01be
00000120: e7e7 57bd 1f75 aebd d151 5fbc 9363 723d
00000130: 887c 9bbe 4baa 163c 06b5 323f fe59 30be
00000140: dcda ae3c 4086 db3b 2137 ab3f 6ff5 793f
00000150: 330a 4140 1262 713f cfa2 0a40 97c0 1d3f
00000160: 66ef 763f 22ec 853f 78cf e1be 665f fb3f
00000170: 9725 bb3d d2ea 43bd 4006 a7bd 19a2 0e40
00000180: 9385 633b 4064 db3f be3c 16be 001d 463f
00000190: 2df2 853f 3a6d 153f 31e0 693e fe9e d13f
000001a0: 73fa 143e c8db 71bc 92ca a23d 56d2 a63e
000001b0: fe43 99be 46ec febd 7343 1f3d 8f73 14bb
000001c0: 76ce 14be 27e9 423c 9e84 ddbe 4fb8 c53e
000001d0: 4b66 e63e b1fc 05be 39d1 0cbd e65c 923f
000001e0: 71de 703f 4b91 1340 b3c1 7f3f 5392 503c
000001f0: da47 b9be 5229 913c 2636 49bd 4ba1 193e
00000200: 7181 a83f 4a8c a03f 2a24 623f f9a7 dfbe
00000210: 157d d3be 29d8 1dbe 8ffa 033d 34ef 983f
00000220: 657f acbd a43a 5b3f 3e14 053f e199 26be
00000230: 9f7c 4ebd 5b89 cebd 10c8 c33d f9ee a4bd
00000240: 2a81 adbd ccb9 ae3c f6e5 a33d c8b8 0bbc
00000250: c814 7fbd 11a6 933e 99ea 0dbf 6443 51bf
00000260: 10e7 2e3f 0012 49bf 6342 6ebe 7118 abbe
00000270: a38e af3f ca56 263f 738d 2a40 2b45 803f
00000280: efd3 2740 bc19 c1be 3f33 d33f 16f5 a43f
00000290: 06fe f9bd f707 cb3f 2b1d 87bd 2d8c b1bd
000002a0: fae1 f93c 4bd0 ddbe 1cfe f6bc 31de c73f
000002b0: d795 bb3f 7269 38bf 88b4 8c3f d81a 283f
000002c0: 3d2a 9cbe 4a0c 0440 4539 b1bd eec7 c8bd
000002d0: 7d80 15bf a302 17bf 6ab9 f7be adc9 ff3c
000002e0: af55 20bd eacf e2be 1578 263e 8e69 00bf
000002f0: 5358 05bf 6ebb fa3e 8723 9a3e e992 b03d
00000300: 7c72 34be a146 ee3d bc73 2a3f 2978 ca3f
00000310: f210 c73e a315 493f c348 69bd c589 7d3f
00000320: 3e70 2cbe 2dd5 c6be 0cf9 803f dec7 673d
00000330: ad9a 0abe 7345 e83d baed 00bd b074 9a3d
00000340: 5348 693f b5aa 603e dafe 233e 9e48 4f3e
00000350: 7691 08bd 10d1 0ebe 906b 3c3f c22c efba
00000360: d2a3 27be 9d38 e83e a5ba 2ebe 0d22 dcbd
00000370: 355f f8bd b43e 923c 432a 15bf 61db 51be
00000380: 4eb9 1fbe 2a30 2f3f e095 f0be 5f93 143f
00000390: c428 9fbe a9aa 56be 85c2 b33f 98e0 943f
000003a0: 93e4 4340 660f 923f 90e6 0c40 20ce 49bf
000003b0: 946f c03f 3d10 aa3f c638 603e 0857 1140
000003c0: 06ad a33f 6363 cd3f f12c 1dbe f85d 90be
000003d0: 0765 083e 226a e13f 544e b93f 3aba 503f
000003e0: 72d8 5c3f 13cc 213f 97bc 16be 21d2 d23f
000003f0: 0d05 00be 7fbb b63d 0043 13be b56b 17be
0.13861796 -0.016971719 -0.10538831 -0.5976298 0.27866808 0.03129958 -0.2812848 -0.069161244
1.2260526 1.0446122 1.6626478 1.0708603 1.5446144 -0.45539734 0.7244439 0.7125993
-0.07048969 1.3974634 0.63144094 0.7064752 -0.38182893 -0.4232427 0.062135 1.2216207
1.1970115 -0.44481868 0.66311175 0.5169772 -0.08151022 0.9489527 0.036739726 0.10434459
-0.18407287 -0.09676607 -0.027960725 -0.123522356 -0.03504517 -0.18291984 -0.19026485 -0.09128687
-0.5826655 0.017195098 0.12200134 0.073920526 0.0070594563 -0.32444382 -0.24934879 -0.15512885
-0.12146644 0.087080985 -0.29964995 -0.08605721 -0.12184235 -0.20106103 0.0747136 -0.04245292
-0.05271159 -0.085181415 -0.040116187 0.027694086 0.36881024 -0.013482209 -0.0037377835 0.016750764
0.12050967 0.51612633 0.011322018 -0.102034666 -0.11120268 0.3688949 -0.011713007 -0.12681414
-0.052711394 -0.08518433 -0.013630346 0.059176993 -0.30368447 0.009195874 0.6980747 -0.1722183
0.021344595 0.0066993535 1.3376199 0.97640127 3.0162475 0.9429027 2.166187 0.61621994
0.96459043 1.0462687 -0.441036 1.9638488 0.09138029 -0.047831364 -0.08155489 2.2286437
0.0034717068 1.7139969 -0.14671609 0.77388 1.0464531 0.5836979 0.22839428 1.6376646
0.14548664 -0.014761873 0.079487935 0.3258235 -0.29934686 -0.12447409 0.038882684 -0.0022651886
-0.14531884 0.011896408 -0.4326524 0.3861718 0.44999918 -0.13084675 -0.034379218 1.14346
0.9408942 2.305743 0.99904937 0.012730199 -0.3618763 0.017719898 -0.049123906 0.15002935
1.3164502 1.2542813 0.8833643 -0.4368284 -0.41306368 -0.1541449 0.032221373 1.1947999
-0.08422736 0.85636353 0.5198401 -0.16269638 -0.050411817 -0.10084792 0.09559643 -0.08053393
-0.08471902 0.02132883 0.08002846 -0.008527942 -0.062275678 0.28837636 -0.5543609 -0.81743455
0.68321323 -0.7854309 -0.23267512 -0.33417085 1.3715404 0.6497618 2.6648834 1.0021108
2.6223104 -0.37714946 1.6500014 1.2887294 -0.12206654 1.5861806 -0.0659736 -0.086693145
0.030503262 -0.43322977 -0.030150466 1.5614682 1.4655102 -0.72035897 1.0992594 0.6566596
-0.30500975 2.06325 -0.086535014 -0.098037586 -0.5839918 -0.589884 -0.48383647 0.031224096
-0.039144214 -0.4429925 0.16256745 -0.50161064 -0.520879 0.48971123 0.3010523 0.08621771
-0.17621797 0.11634565 0.66582847 1.581792 0.38880116 0.7854864 -0.056954157 0.99038345
-0.16839692 -0.38834515 1.0076003 0.056587093 -0.13535567 0.113413714 -0.031476714 0.075417876
0.91125983 0.2194012 0.16015187 0.20242545 -0.033341847 -0.13946939 0.7360163 -0.0018247592
-0.16371086 0.45355693 -0.17063387 -0.10748682 -0.12127534 0.017852165 -0.5826761 -0.20493843
-0.15598032 0.6843287 -0.46989346 0.5803737 -0.3108579 -0.20963539 1.4043738 1.163104
3.060826 1.1410949 2.2015724 -0.78830147 1.5034051 1.3286206 0.21896657 2.270937
1.2787178 1.6045955 -0.15349175 -0.28196692 0.13319789 1.7610514 1.4477029 0.8153416
0.8626777 0.6320202 -0.14720379 1.6470376 -0.12501927 0.08922481 -0.14381027 -0.1478718

gnn.convs.0.nn.lins.0.bias f4 [32]
00000000: 98bb 053e c5cd d9bd 0353 1e3d 0017 dabe
00000010: 1646 093f 8516 07be d963 573d e742 3fbe
00000020: d0a2 f8bd 32d6 053d cc05 28bf 4929 fcbe
00000030: 72f9 e2ba 7c05 ccbe d955 45be 21f3 0fbe
00000040: 40fd 86be 75a9 bbbd 1532 b73d 6ddc 61be
00000050: 6f55 1fbe 1295 96bd a8f1 b7bd cb3e 97be
00000060: a58b 4dbc c7d3 d7be 947f 96be 5132 343e
00000070: 02a1 7abd 2978 193c e009 07be 927b 35be
0.13059843 -0.106349505 0.038653385 -0.42595673 0.5362257 -0.13192184 0.052585457 -0.18677865
-0.12140429 0.032674976 -0.65633845 -0.49250248 -0.0017316772 -0.39847934 -0.1927103 -0.1405759
-0.2636509 -0.09163181 0.08945099 -0.22056742 -0.15559934 -0.07352652 -0.08981639 -0.29540095
-0.012545501 -0.4215376 -0.2939421 0.17597319 -0.061188705 0.009367027 -0.13187361 -0.1772292

gnn.convs.0.nn.lins.1.weight f4 [32, 32]
00000000: 2cf8 f23d 1f6e a4be 57d8 34be a41c da3d
00000010: acae 6c3c 25e6 3a3e b37a 8c3d f5fd 1ebe
00000020: 41d2 103d 3006 443c 713b 223e 5c2d f83d
00000030: a8eb 6d3e 39a9 09be 9baa 67bb abe9 4f3d
00000040: fd6b 6a3e c7cc 3d3b 6bd0 5ebe 5929 3b3e
00000050: 3eba 853e 59f4 81be 9878 82bf 7db5 8b3d
00000060: 4bb4 5e3f 120c babd 7cc7 423d 94bb 25bf
00000070: dc58 bb3e 3f56 d23e 3c42 9c3d 0a4c e03e
00000080: 85c6 143e 0f87 ae3e 67d7 a23f 9271 053d
00000090: 2fce 8f3f 9ffd 4abe 9c93 943f 11ec 503e
000000a0: b2f6 453c 9923 963e 7a71 b73e 1249 9abd
000000b0: b89b 223f 764f ccbe f20b 773e d93d be3d
000000c0: 7dc5 083f 8954 8c3e f3ef 283f b25c a23d
000000d0: 6fcd 1a3f 680a 31bd 82c6 59bf b771 65be
000000e0: 454e c83d 5f25 e6be 300f d1bd e641 063d
000000f0: f670 af3e 6efd ec3d 7b69 f93e 976a d8be
00000100: 6716 6c3f 8479 84be b867 d23e f73c 053d
00000110: 7569 103f c455 043e 8570 433f 6a09 fcbc
00000120: 77a3 dc39 83de 393e 4de3 fd3c a908 8a3e
00000130: 64bd 1c3e 2f93 20bf 81e5 2fbe a085 aa3e
00000140: 9288 d43e 07b9 6d3e 431a e1be d46e 54bd
00000150: a2fe f13e cce1 f6be 1c16 4bbf 9800 1e3d
00000160: 1761 163f 654f 03be 010b 6c3d 80d6 4abf
00000170: 213b bcbc c00e 293f 69a6 383f 4fc6 1dbe
00000180: 52c0 313e 726c bcbe 3ffe 39be 1782 a03d
00000190: deee 4a3e 8695 263e e5c3 f73d dec6 93bd
000001a0: 812f 62be 9ecf 25be 1d01 343e 3c2e 5e3e
000001b0: 031a 8bbe 744e b2be 2a9c 92bc 5c34 4cbc
000001c0: 0950 203d 6f4b b73e 4d4b 2fbd f815 353e
000001d0: 448b ac3d a87f a1bd f8cc 6ebf cbbf 65bd
000001e0: 42a8 813e 0de3 fa3d 7353 f8bc e925 6ebf
000001f0: 4c97 423e 4e99 193f 877e 0d3e 11a1 033f
00000200: f264 e23e 43be 243e 4269 183f e8b8 573e
00000210: b7c7 723f ffb0 c73d e839 f33e 5e50 c43d
00000220: 5d65 09bf 41a4 413e 8e33 213f 1b6b bb3d
00000230: a71f 233e 7ea3 c5be cd1c 353c ead3 9ebc
00000240: 377a e03e c840 aa3d 1528 abbe a130 ea3d
00000250: 583c eb3b ed7d 10bf 05c7 b1bf 3b77 bd3c
00000260: 0724 1f3f 4d51 f33e fbbe 73be b0fd b6bf
00000270: d1c5 aa3e fbe4 193f 19d1 dc3e 195d 1c3e
00000280: e2d5 1cbd 04aa 80bd 4087 8fbe 4c8e 38be
00000290: c1ec 53bd 26fe e9bc 411e 8abd 640e 0abd
000002a0: 4e84 18bb 6ac0 16be c833 acbd a9ce 093e
000002b0: 1e38 09be 988b 1cbe daf4 0ebe 9818 a6bd
000002c0: 7e89 8e3c b5cc 9f3c 3ce2 4dbe d075 923d
000002d0: d364 54bd 7d35 bd3d 92af d2be 32cb f83d
000002e0: 6ce1 24be 8974 0bbe c024 223e a236 1dbe
000002f0: 6eda 123d 530d 203d 15bc fabd 0fef f6bd
00000300: 18cf e4bc 7b11 983d a28d d83e 3598 e6bc
00000310: 09a0 d23e 1197 c43d 023a 9d3e e08d 9e3b
00000320: d6dd 93be 5705 9fbe f2c7 14be f1a8 b6bd
00000330: 60fe 503e 26a2 2abd 1182 713e 1653 67be
00000340: 2f82 813e a5e0 e43d eedf b13e 8058 123e
00000350: 528c cf3e 952c b03d 78f5 7fbf 4603 69be
00000360: e68f 373e 1f50 08be 83a7 8abd e117 09bf
00000370: e910 97bc e2f9 6fbd e63d 043c 47b6 a4be
00000380: 197e 57be 68a8 a13d 7834 bebd 3137 09be
00000390: 8d7e bdbc fade 20be bc36 953d e054 4ebc
000003a0: 6b66 9abd 0076 643d 745a ffbd 7190 22be
000003b0: 260b 773c 852c 71be ecd3 2dbd ef4b 35be
000003c0: ee21 5fbe 4a52 ecbd a0b7 83bd 3087 89be
000003d0: 5bc1 76be 662f b3bd 1181 8b3d 001c 02be
000003e0: d13d 80bc 9b70 2dbe 8f46 1d3d c822 e3bd
000003f0: 945d a33c 051e 5bbe 9a73 62be a683 90bd
0.11863741 -0.32115266 -0.17660652 0.10649994 0.014445942 0.18251856 0.068593405 -0.15526564
0.035356764 0.011964366 0.15842988 0.121180266 0.23234427 -0.1344346 -0.0035349492 0.050759953
0.22892757 0.0028961168 -0.21759193 0.18277492 0.26118654 -0.25381735 -1.0193052 0.068217255
0.86993855 -0.090843335 0.047553524 -0.64739347 0.36591232 0.41081426 0.07629821 0.43808013
0.14528854 0.34087417 1.2721986 0.032579012 1.1234797 -0.19823311 1.1607547 0.20402552
0.0120827425 0.29324034 0.35828763 -0.07533468 0.6351886 -0.39904374 0.2412565 0.0928914
0.53426343 0.27408245 0.65991133 0.079278365 0.60469717 -0.043222815 -0.85068524 -0.2240666
0.09780554 -0.44950387 -0.10207975 0.03277769 0.3426587 0.115717754 0.48713288 -0.42268822
0.92221683 -0.2587396 0.41094756 0.032528844 0.56410915 0.12923342 0.76343566 -0.030766208
0.0004208346 0.18151288 0.030992175 0.26959732 0.15306622 -0.62724584 -0.17177393 0.33305073
0.41510445 0.23215114 -0.4396535 -0.051863506 0.47264582 -0.48219144 -0.7933061 0.038574785
0.587419 -0.12823255 0.05762768 -0.7923355 -0.022977414 0.6603813 0.7212892 -0.1540768
0.1735852 -0.36801487 -0.18163393 0.07837313 0.19817683 0.16267976 0.12097911 -0.07215665
-0.22088434 -0.16192481 0.1757855 0.21697325 -0.27168283 -0.3482548 -0.01789673 -0.012463655
0.039138827 0.3579974 -0.04279642 0.17684162 0.08425 -0.078856766 -0.9328151 -0.05609111
0.25323683 0.12250338 -0.03031323 -0.93026596 0.19003028 0.5999955 0.13817798 0.5141764
0.4421764 0.16088204 0.5953561 0.2106663 0.9483599 0.09750556 0.47505116 0.09585641
-0.53670293 0.18910314 0.6296929 0.09151288 0.15930043 -0.38601297 0.01105423 -0.019388158
0.43843243 0.08313137 -0.33429018 0.114350565 0.0071788244 -0.5644215 -1.3888861 0.023128143
0.6216435 0.47522965 -0.23803322 -1.4296169 0.33354047 0.6011502 0.4312828 0.15269889
-0.038289912 -0.06282428 -0.28032875 -0.18023032 -0.051739458 -0.02856357 -0.06744052 -0.03370513
-0.002327222 -0.14721838 -0.08408314 0.13457741 -0.13400313 -0.15287626 -0.13960591 -0.0811016
0.017399546 0.019506792 -0.20105833 0.07151377 -0.051853966 0.09238718 -0.41149575 0.121481314
-0.16101617 -0.13618673 0.15834332 -0.15352872 0.035852842 0.039075207 -0.12242905 -0.120573156
-0.027930781 0.07425209 0.42295557 -0.02814875 0.41137722 0.09599126 0.3070832 0.00483869
-0.28880185 -0.3105876 -0.14529398 -0.08918942 0.20409536 -0.041658543 0.23584773 -0.22590289
0.25294635 0.1117566 0.34741157 0.14291573 0.40536743 0.08602253 -0.9998393 -0.22755155
0.17925987 -0.13311814 -0.067702316 -0.5355206 -0.01844068 -0.058587916 0.008071398 -0.32170317
-0.21044196 0.07893449 -0.09287351 -0.1339996 -0.023131633 -0.15710059 0.072858304 -0.012593478
-0.07539066 0.055776596 -0.124684244 -0.15875413 0.015078342 -0.23552139 -0.042438433 -0.17704748
-0.21790287 -0.11539133 -0.06431508 -0.26860952 -0.24097197 -0.08749275 0.06811727 -0.12705994
-0.015654476 -0.16937487 0.038397368 -0.11090618 0.019942082 -0.2139817 -0.22114411 -0.0705636

gnn.convs.0.nn.lins.1.bias f4 [32]
00000000: f22c c53e 9558 5b3e 8359 e2be 6b0a dc3e
00000010: 9fa8 c03d 8d79 28be bb17 7b3e 2976 fcbd
00000020: 7cc1 c8bd b2c3 48bf 3645 9d3e a07e f8be
00000030: 9ebd d73e 597f 23be 5613 42be 1235 41bf
00000040: 2e12 2cbf fc6f 48be 2417 a03e 6439 3bbe
00000050: 8b7b 24be f700 343e ab42 abbe 08e1 c6be
00000060: 3c01 75bd 0a48 14bf 3acc 713e 3228 933e
00000070: e36b 29be 3a03 b9be 6e4c 0ebe f3f3 76be
0.38510853 0.2142051 -0.44208917 0.42976698 0.09407162 -0.16452618 0.24520771 -0.12327225
-0.09802529 -0.7842361 0.30716866 -0.48534107 0.42136854 -0.15966548 -0.18952689 -0.75471604
-0.6721524 -0.19573969 0.31267655 -0.18283612 -0.16062753 0.17578493 -0.334493 -0.3884356
-0.05981563 -0.5792242 0.23613063 0.28741604 -0.16545062 -0.36135274 -0.13896343 -0.24116497

gnn.convs.1.nn.lins.0.weight f4 [32, 32]
00000000: fcaa 25be ea77 d03e 45b7 973e 19ce 373e
00000010: 98b7 0e3f fc08 b5bd 1365 303e 9837 c73c
00000020: 2de2 32bc d40c 7abf 8bed 353e 45c8 ba3e
00000030: 66cf ab3e 2b7c 2ebd 23cb 953d 45da aebe
00000040: 0fc0 60bf 3de2 1ebe ba59 263e d737 353b
00000050: cd42 5c3e 4980 1d3d 8871 033e 5382 2bbf
00000060: fe27 0ebe c302 0abf e7c5 773d b254 6d3d
00000070: c28f 2dbe cbf9 54be 703b 6b3e 4097 463c
00000080: 7533 32bd 63e5 6e3e 07d0 9a3e c232 543d
00000090: 8fef 3a3f e80b 59bd 3f85 923e 1880 853e
000000a0: ec8f 943d 8926 8cbf a12f 6b3e 1694 633e
000000b0: e345 803e 6053 a43d 782f 1fbd 614a 84be
000000c0: b226 d6be 8289 6a3e f69f 953e c662 df3d
000000d0: aa4c 713e 8f58 4f3e 06e8 c6bd 4ce9 0fbf
000000e0: 8747 233d 2517 a3be 31f4 e93d ca00 38be
000000f0: 885f adbd bb7b f5bc 50af 1b3d 9eb7 b43d
00000100: 5ff2 b2bf 4ad8 213f 71ba 673e b0aa d6bf
00000110: dbcf 0cbf 0bba 4ebe 4f78 1e3d 5d13 4ebd
00000120: a33d bdbd 374f 9e3e 7658 56bf 53b4 7f3e
00000130: a113 c3bf 7dce e839 8bb5 4a3d ca0c 0d3f
00000140: 457d 923e f0ad 87bd 9d45 84bf 7718 6c3e
00000150: fe15 44bd 068e d2bf 307f 283e 7df1 963d
00000160: f2b1 6a3d 0338 9dbe a9c6 99bf 6d54 31bf
00000170: 81c4 80be 19dc 593c 8f51 7dbf 0a58 b13d
00000180: af06 8e3e 3aa3 41bf 7d54 d93e 007f 913c
00000190: 58fe 7cbe a76b 8a3e 958a e9be 801f 443d
000001a0: da07 b0bd 9167 7e3f 3433 9cbe 54a0 8dbd
000001b0: a2e5 54be 89e5 443b efa1 4a3e 5dd0 d83f
000001c0: eca2 f53d 9fff 9b3d 3a16 4c3e dd68 ac3e
000001d0: 12e5 64be fbbb babd 9d9a 8c3d 206d ef3e
000001e0: c340 b7bd 23ca ec3d 068f cbbe 48cf 84be
000001f0: e0ed ac3d ae76 813e 1f91 84be 1b95 f5bb
00000200: d982 2cbd 1735 8d3e 410e cf3e 21ae 8d3d
00000210: 7fc9 f03e f71e bb3d 99df 4e3e 5936 833c
00000220: a423 693e f8fa 54bf 8511 fb3d f0e1 963e
00000230: 4d87 fe3d d88f 213e 01dc 133e 801a 9cbe
00000240: 67dc 71bf dce1 fbbd c308 953e c173 f23d
00000250: 09e9 923e 9dbe 963e 7a3a 84be 7bd4 1cbf
00000260: 4530 553e 5ce2 9abe 29a6 7d3e 0ec9 253e
00000270: 36ef 083e a6cc 43be 4361 843e 9959 29bc
00000280: 5451 f83d 3f7a 3e3e ce74 983e cc89 c1bd
00000290: 1b95 a33e be19 d6bd 0f43 083e 8051 653e
000002a0: e3ed 353d c9f7 88bf 14ed 4b3e f4f8 b33e
000002b0: 5099 cd3d aaf2 993d d7f4 a23d d401 35bf
000002c0: ac17 79be 11ca d8bd cbfb b03c 3426 27bd
000002d0: 2a1f 3a3e 8403 423d 8177 31bd 5dbf 0cbf
000002e0: f8c2 dabd 5055 97be eca4 3a3e bc23 8b3d
000002f0: d7e5 bb3d 8045 363d f86b b03e 534e 383d
00000300: 9715 45be a4ee a5bd 619c 9ebd 2aab 65bd
00000310: 138f 32be 8a1a 0abe ed2a 08bd 2e45 f7bd
00000320: 3a89 ba3d f898 6ebe a51b 8a3d a440 2bbe
00000330: 5cdf bebd 8e04 c73d 2654 bf3d 6a2d 9bbd
00000340: 78a4 33bd 4f82 2d3e ffc9 6a3d 9d1a 98bd
00000350: f1fc 54be 49f9 03bc f052 54be c441 9bbc
00000360: 63da 0bbe 7755 66bd 95a2 aa3c 626f 02bd
00000370: 93cd 4cb9 83fb 13bd 630c 44be bf5d 11be
00000380: e43d 893c 09a7 70be 4e80 223e e5fc a23d
00000390: 2c97 a63d e776 d93b e1a8 b3bd 888d eebd
000003a0: 2377 ff3c dba4 7dbe 4b46 0d3e 30f0 a13d
000003b0: ac60 44be 43ac 433d 1be9 053e e8e9 b53e
000003c0: 6f7c 9fbe 0352 efbd 9bf8 e6bc b5d6 abbd
000003d0: bdf0 3a3e ced9 21bd dfa2 a4be 9c90 8ebe
000003e0: cb95 9cbd a261 ffbe 288f 313c 4e6b ac3d
000003f0: 9ba8 a73d ae07 01be b7fb 7a3e 39cb b33d
-0.16178507 0.40716487 0.2963201 0.17949714 0.5574889 -0.08839604 0.17226057 0.024318501
-0.010918182 -0.97675824 0.17766397 0.3648092 0.3355667 -0.042598885 0.07314136 -0.341509
-0.8779306 -0.1551599 0.16245165 0.0027651691 0.21509857 0.03845242 0.12836277 -0.66995734
-0.13882443 -0.53910464 0.06049147 0.0579421 -0.1694937 -0.20798413 0.22971892 0.012121022
-0.043506104 0.23329692 0.30236837 0.05180622 0.7302179 -0.05298987 0.28617284 0.2607429
0.072540134 -1.094926 0.22967388 0.22224459 0.2505332 0.08023715 -0.03886363 -0.25837997
-0.41826397 0.22904018 0.29223603 0.109075114 0.23564401 0.20248626 -0.09712224 -0.5621536
0.039863136 -0.31853595 0.11423529 -0.17969051 -0.08465487 -0.029966226 0.038008988 0.08824085
-1.3980216 0.63220656 0.22629716 -1.677084 -0.5500466 -0.20188157 0.038688954 -0.050311435
-0.09240272 0.3091981 -0.8372873 0.24971132 -1.5240365 0.00044404334 0.04948954 0.5509764
0.28611198 -0.06624973 -1.0333744 0.23056208 -0.047872536 -1.6449592 0.16454768 0.07370279
0.057298608 -0.30706796 -1.2013751 -0.6926945 -0.2514992 0.013297104 -0.98952574 0.0865937
0.27739474 -0.7563969 0.42447272 0.017760754 -0.247064 0.27035257 -0.45613542 0.047881603
-0.085952476 0.9937678 -0.30507815 -0.06915346 -0.20790723 0.003004404 0.19788335 1.6938587
0.119939655 0.07617115 0.19930354 0.33673754 -0.22353008 -0.09117886 0.06865428 0.46762943
-0.08947899 0.11561992 -0.39757556 -0.25939393 0.084438086 0.25285858 -0.2589197 -0.0074945814
-0.042116974 0.27579567 0.40440562 0.06917978 0.4702873 0.091367655 0.20202483 0.016017126
0.22767502 -0.8319545 0.12259201 0.29469252 0.1242815 0.15777528 0.14439394 -0.30488968
-0.9447693 -0.12298939 0.29108247 0.118384846 0.28693417 0.294423 -0.25825864 -0.6126172
0.20819195 -0.30250823 0.24770416 0.16189978 0.13372502 -0.19121036 0.25855455 -0.010336303
0.12124887 0.1860132 0.29776615 -0.09450111 0.31949696 -0.10454129 0.13306831 0.22394371
0.04441632 -1.0700618 0.19914657 0.35150874 0.10039008 0.075169876 0.07956856 -0.70705914
-0.24325436 -0.10585416 0.02160444 -0.040807918 0.1817595 0.047366634 -0.04332686 -0.549795
-0.106817186 -0.29557276 0.18226975 0.06793925 0.09174698 0.044499874 0.34457374 0.04499657
-0.19246517 -0.08102158 -0.07744671 -0.056071438 -0.17437391 -0.13486686 -0.033244062 -0.12073742
0.09108205 -0.2330054 0.06743554 -0.16723877 -0.09319946 0.097176656 0.09342222 -0.075770214
-0.04385802 0.1694424 0.057321545 -0.07426951 -0.20799614 -0.00805504 -0.20734763 -0.018952258
-0.13657527 -0.05623385 0.020829478 -0.031844504 -0.00019531538 -0.036128532 -0.1914535 -0.14195918
0.016753145 -0.23501219 0.15869257 0.07958392 0.081343025 0.0066364887 -0.087724455 -0.11648089
0.031184739 -0.24769919 0.13796346 0.0790714 -0.19177502 0.047771703 0.13077204 0.3553002
-0.31149623 -0.11685564 -0.028194716 -0.083905615 0.18255897 -0.039514355 -0.3215551 -0.27844703
-0.07645758 -0.49879175 0.010837354 0.08418904 0.08186456 -0.12600586 0.24510084 0.08778996

gnn.convs.1.nn.lins.0.bias f4 [32]
00000000: 6304 643f fb08 243f 1dd6 9a3f 505d 45bf
00000010: df5c 3f3f 4b47 723f df8a 75be eca8 133e
00000020: f0ad 103e 592a a93d 78cb 873f 3111 543e
00000030: b197 11bd 5a05 d63d 9831 68be e389 393e
00000040: 42a2 503b 58ea 8cbe 2e0d fbbc 9c34 8e3d
00000050: 973c d5bd 0821 843e dc43 2a3d 79d7 e9bd
00000060: c2a0 d6bd 2fc9 c23d f7a9 ab3e 9aaa 143e
00000070: 7535 67bb 2b2e 8c3f 0fe5 3d3f 0658 ff3d
0.89069194 0.64076203 1.2096592 -0.7709551 0.74751085 0.94640034 -0.23978756 0.14419907
0.14128852 0.0826003 1.0608969 0.20709683 -0.035545055 0.104502395 -0.22675169 0.18119006
0.0031834994 -0.2752254 -0.030645933 0.06943628 -0.10411947 0.2580645 0.041568622 -0.11418051
-0.10479881 0.09511029 0.3352811 0.14518204 -0.0035279666 1.0951589 0.7417764 0.12467961

gnn.convs.1.nn.lins.1.weight f4 [32, 32]
00000000: 20e2 74bd 9931 57be 7114 8ebd 9cc8 63be
00000010: cc7e 43bc bf1e 2bbe b4cd 1d3e e760 a9bd
00000020: 8b85 283e 4099 963c 1743 81be 8bf7 0abc
00000030: 39ee bfbc 4d92 45bd 4178 c2bd ff9c be3c
00000040: ca72 123e 6030 98be a62c 49be c68b 0bbe
00000050: 1418 fcb9 acbb 2c3e e2be 33be e0ad bcbd
00000060: 1d30 853d b839 233e 450a 973c 733e 39be
00000070: dbfa 9a3d b027 6fbd 7dad d5bd 39f2 47be
00000080: c5b3 e1be 1e06 84be 00a4 253b bfc8 f1be
00000090: b4be 133d 1b1f 703e 45bb d33c 6b01 7fbe
000000a0: 58fa a5bd bcfc 893b e3fc e539 9acb b3be
000000b0: e17f c33d 9854 4cbb 5c56 2e3f 1274 b0be
000000c0: 453a 713d 341e 843e 83ba 733f 8978 32be
000000d0: 0687 693d 8561 09be 70f3 bdbe bb05 1cbf
000000e0: ad7d 49bd bcd2 ef3e 80fe b8bd eea9 e3be
000000f0: 1e6e eebe 81c0 95be 72c8 fdbd 0676 f13e
00000100: 3107 963e c67c db3c 93b5 b3bf 266f 1ebe
00000110: 4f01 f93e e5b6 6f3e 147b 57bd cc53 503e
00000120: 2b22 393e dc8d af3d 9877 a23e 10d0 c3be
00000130: a671 493d 8a15 963e ac41 943c dd93 d13d
00000140: c684 d6bd 612d 203f ba20 953e f13b ccbc
00000150: 26f9 84bc 406c bf3d 9a24 093e c897 e43e
00000160: 278e 18bd 4f65 2c3e 6ca3 083d 2b10 0c3e
00000170: 0d3b 103e 2acf 85bf b2e8 d53e 50d5 f43c
00000180: 922b 943e 46ce 673e bf70 7ebf a38d 84be
00000190: 1137 7a3e 7759 f53d 01d5 893c 1dd4 7cbe
000001a0: 551e c2bd 21c4 eebc 4b43 743e 0996 26bf
000001b0: 83b9 83bd 5690 44bd 7ac1 06bf 3241 40bd
000001c0: d60f 0bbe 4aec babd 8fb4 a1be 9769 91bd
000001d0: 09b0 16be b185 c7bd 7485 3cbe 826f adbe
000001e0: 7bda 2d3e b0f4 ae3e dfd9 61bd bbe7 a5bd
000001f0: 9879 b5be 9293 09bf f5b9 e4bc 8552 bb3d
00000200: 9dc1 aebd 3d3a 64be 3561 5d3e ac2b 423f
00000210: a984 c4be ab72 62bd b7d8 c73d 7a4e 72be
00000220: b94b 83be ad17 fbbd 10fe d1be 286b 3f3d
00000230: 0fef 2dbe cc28 743c 5a32 f83e 5a06 c6bd
00000240: 1f44 11be 0c2b 83bd 39d4 5e3e 2f5a 89be
00000250: 3e13 47be 23f9 263d 47a9 c6bd a6af 37bf
00000260: 53a2 2dbe 5262 c5bc dee3 87be 8758 67be
00000270: 242d f43d acb2 603d 2a2b 17be 0e22 193c
00000280: 4c93 9bbd 98bc 75be 9aec c3bb ed48 c4be
00000290: 93f3 32be 5db1 f03b 40ca 353e 1129 14be
000002a0: 9bb4 cabd 926a 9c3d af4c d4bd 5fab 81be
000002b0: 7853 053d 7535 dcbc 04df bb3e 9810 68be
000002c0: a766 a53d 178c afbe a0e0 95be f01e cb3c
000002d0: a7f6 133e a0db 74bd c934 d1bd 4a56 dabd
000002e0: 72d6 8a3d 81f2 dabd e4f1 9c3d 5c29 6abd
000002f0: c034 2a3e 0493 0ebe be44 83be 6c4c 313e
00000300: 3f06 8a3e ce7a 843e 79f0 a3bf 15ff ef3c
00000310: 8b1c b93e 3aeb 793e 1a41 4e3e 2db7 a83d
00000320: 08f1 e23d 34f3 a03e 0ad2 b63e ff95 59be
00000330: f3e8 29bd 88ea 923d 1564 ccbd ecb6 ad3d
00000340: 28d2 b63d 6bb0 923e 8801 ed3d b56a 663e
00000350: 8207 64bd b89e 063e 88c9 1e3e ce51 823e
00000360: 80f3 913e 56df f1bd c5d8 093d 589b 15be
00000370: 7c07 423e 4dcf 9dbf 5a18 a93e 5546 503e
00000380: 1494 4a3c 8955 68be dd50 32be 00b7 c1be
00000390: b818 02bd a0fb 15be a971 c3bd 9cec a23c
000003a0: c9c1 8a3c a310 1cbe a65f 2bbe 3686 dabd
000003b0: 6ea4 fa3c 2474 1d3d 6299 b7bd 471f 6abe
000003c0: 4846 fd3c c628 32be aa72 cf3c 2394 dcbd
000003d0: 952c bcbb 1fa5 933d bd11 a93d 2eea 32be
000003e0: ccdc 863b b198 04be 8576 07be b558 45bd
000003f0: f36f 38be 06ad 26be 8a6f fbbb cba7 1ebd
-0.059785962 -0.21015014 -0.06937493 -0.22244495 -0.011932086 -0.16710947 0.15410501 -0.08270436
0.16457193 0.018383622 -0.25246498 -0.00848187 -0.023429023 -0.048235226 -0.09495593 0.023268221
0.14301601 -0.29724407 -0.19645938 -0.13627538 -0.00048083125 0.16868466 -0.17553285 -0.092128515
0.065033175 0.15939987 0.018437514 -0.18090229 0.07567378 -0.05838746 -0.10433481 -0.19525994
-0.44082466 -0.25785917 0.0025274754 -0.4722347 0.03607054 0.23449366 0.025846133 -0.24902885
-0.0810439 0.0042110365 0.000438667 -0.35116273 0.09545875 -0.0031178351 0.68100524 -0.34463555
0.05889346 0.25804293 0.9520647 -0.17428793 0.057013534 -0.13416107 -0.3709979 -0.60946244
-0.04919212 0.46840465 -0.09032917 -0.44465584 -0.46568388 -0.2924843 -0.123917475 0.47160357
0.29302362 0.026792895 -1.4039787 -0.15472087 0.4863381 0.23409612 -0.05260761 0.20344466
0.1807944 0.085719794 0.31731868 -0.38244677 0.04918065 0.29313308 0.018097721 0.10233281
-0.10474543 0.6256924 0.2912653 -0.024930926 -0.016232084 0.09346819 0.13392869 0.4464705
-0.037244942 0.16835521 0.033358976 0.13678043 0.14085026 -1.0453846 0.41779095 0.029886872
0.28939492 0.22637281 -0.99390787 -0.2588931 0.24435069 0.11979955 0.016825201 -0.2469029
-0.094784416 -0.029146256 0.23853795 -0.65072685 -0.06431868 -0.047989212 -0.5263897 -0.046937175
-0.1358026 -0.091271 -0.31583068 -0.07100218 -0.1471559 -0.097422965 -0.18410283 -0.33874136
0.16977875 0.34171057 -0.05513942 -0.0810084 -0.3544433 -0.537408 -0.027920702 0.09146599
-0.085330226 -0.22287841 0.21619113 0.7584789 -0.38382462 -0.055285137 0.09758132 -0.23662749
-0.2564371 -0.12260375 -0.41014147 0.04673305 -0.16985725 0.014902305 0.48475915 -0.0966918
-0.14186142 -0.06404695 0.21760644 -0.26826617 -0.19440934 0.04076494 -0.09700256 -0.71752393
-0.16956453 -0.024094734 -0.26541036 -0.22592364 0.119226724 0.054857895 -0.1476256 0.009346498
-0.07596454 -0.23997724 -0.005979133 -0.38336888 -0.17475729 0.007345362 0.17752934 -0.1446879
-0.09897729 0.07637514 -0.10366189 -0.25326058 0.032550305 -0.026880959 0.36693585 -0.2266258
0.0807622 -0.34286568 -0.29272938 0.024795026 0.14449559 -0.059779763 -0.10215146 -0.106609896
0.067791834 -0.10690785 0.076633245 -0.05716835 0.16621685 -0.1392327 -0.25638384 0.17314309
0.2695789 0.25874943 -1.2807761 0.029296437 0.3615459 0.24406138 0.20142022 0.08238063
0.11081129 0.3143555 0.35707122 -0.21248625 -0.041481923 0.071736395 -0.09980027 0.08482155
0.08926803 0.2865022 0.11572558 0.22501643 -0.055671223 0.13146484 0.15506566 0.25453037
0.28506088 -0.11810176 0.033653993 -0.1461004 0.18948168 -1.2328888 0.3302639 0.2033933
0.012364406 -0.22688879 -0.1741366 -0.3783493 -0.031761855 -0.14646769 -0.09543163 0.019888215
0.016938107 -0.15240721 -0.16735706 -0.1067013 0.030595984 0.03844084 -0.08964802 -0.22863494
0.030917302 -0.17398366 0.02532323 -0.10770442 -0.0057426193 0.07209229 0.082553364 -0.17472145
0.0041156765 -0.12948872 -0.13228805 -0.0481803 -0.18011455 -0.1627694 -0.0076732086 -0.03873424

gnn.convs.1.nn.lins.1.bias f4 [32]
00000000: 5c7b 9ebd ae0a 6abd 87ee 2c3f 4bcf 7e3e
00000010: 5758 293c 9f68 21be 936e e43e 89e5 ebbd
00000020: 4315 633f 7959 d7be 7159 0dbe 3396 02bf
00000030: 8f9f c4bd 49fd 1c3f 24be 013f 16df 68be
00000040: 11d4 2bbe b0ca b03e 7208 f3bd 6dbe a13e
00000050: 6ecb f53e e5e7 ddbc ff4f 2abf 7315 12bf
00000060: 219f b3bd 69b5 b33e d2f2 c23e 00b9 283f
00000070: 8c95 0bbd 8365 a7bc 249c 833e 631b a23e
-0.07738373 -0.05713909 0.67551464 0.24883763 0.010336003 -0.15762566 0.4461561 -0.1151839
0.8870432 -0.4206045 -0.1380365 -0.51010436 -0.09600746 0.6132398 0.50680757 -0.2274135
-0.16780116 0.34529638 -0.11866845 0.31590596 0.48006767 -0.027088115 -0.66528314 -0.5706398
-0.08770586 0.35099342 0.38075882 0.6590729 -0.034078166 -0.020434147 0.25705063 0.3166152

gnn.convs.2.nn.lins.0.weight f4 [32, 32]
00000000: 7a00 c0bc 4a4c a8bc c8a0 0f3f 3353 e83d
00000010: 6f12 0bbf 23be fd3d c52a 9c3e 9b1f 42bc
00000020: 984d df3e 8cbe 28be 5d3c 7fbe 7b0e 90bd
00000030: eec1 a7bb 4954 c83e e95f b63e f3a0 debe
00000040: bc8a af3d 3828 c63e ec18 3ebd 4956 87bf
00000050: 269f cc3e 49dc 2ebe b594 f1bd 5998 913e
00000060: 904f 223d f41f 7f3e 3474 b23d 8f7d b23e
00000070: b042 c53d e3f8 90bd 12d2 b4bd 5f26 9e3e
00000080: 32e8 ba3d 599e b33d 13d6 55be 9bf5 f2be
00000090: 8c41 8ebc a69a 05bc 3ae3 bdbd 82b8 94bd
000000a0: 7329 75be 3221 c9bd 18fc f4be 228a 86bd
000000b0: b051 a0bd 6194 3cbe 0249 6ebe 3e1a 72be
000000c0: 84dc db3d e0eb 38be 76a1 42be 7386 92be
000000d0: c494 3cbe 617a 0b3e 7189 0abd a170 adbe
000000e0: 1e3d ecbb 55c5 1a3e 6d48 31bd b41e f5bd
000000f0: 500a 06be 5373 5dbc 7e66 0ebf 3711 bfbd
00000100: 91ce d1bd ecad 9dbe dfec 0abe ebce 9fbe
00000110: 125a 653e 08dc 24be d59d 7ebe b90c b5be
00000120: 4ec6 b3be c13e 033f e060 363c 64a0 babe
00000130: dc99 d1bd 2cea 7dbe 4773 38be 4706 dbbd
00000140: 5726 2d3e 6d2f 9bbd d0d7 35bd bd18 0f3e
00000150: 339c 8abe af2e fabd a5f3 bc3c 3018 ae3e
00000160: 81cc b8bd 3eb5 f8bd 5a8f 33be cc31 d6be
00000170: 6bf4 8e3d 2e06 183d 067e 1d3e a0b2 c8be
00000180: aa6e 56be 4da2 49be 5643 68bf 32ca 57be
00000190: 1c0c 3f3f 5cf2 bc3e decb 93be 321f 13be
000001a0: eead 23bf aff3 843f 0355 f8bd 9c2e f03c
000001b0: 21c8 d23e 8d70 c7bd 8f6e 03bf 145f 363f
000001c0: f492 79bd f482 febe ad46 c6bb 9a14 e03e
000001d0: 0a2f 2fbf 7796 1ebe 9559 b43c e5a7 b4bd
000001e0: 69d5 4d3f 4ee0 83be b1b8 12be 9f0b 753d
000001f0: 4d2d 9d3e 6781 00be 0d96 ce3e e8d7 043e
00000200: 4685 453e fe69 983c 9147 61be 223c 0a3d
00000210: abff 3f3e 5767 b3bd c159 76bc 502f 8a3b
00000220: 6370 b3be d0dc afbe 6da5 1ebe 5abf c6be
00000230: 9ce2 bfbd 5782 c13c 8ab1 f83d 178c 23bf
00000240: dc6e b83d 72cb 3a3e 78b5 1dbd 6657 1bbc
00000250: 710b a53d cce4 59bd d95d a23e 6923 2b3e
00000260: 51c6 343d 3205 48be 1c65 103d 6c02 67bd
00000270: 917c a3bd 304d 393e d1e1 7cbe 608e 9cbe
00000280: 94bd babd 1afd b2bd bc5b 033f d844 b13e
00000290: 355f b6bd ff07 493e fb0a 183f fab1 903d
000002a0: 0939 363f 68cf e8be bef4 1a3e 8a3b b4bb
000002b0: e4c9 553e 26f6 6e3e f505 a63e 76cf ecbd
000002c0: 25cd bbbd b715 843e 8140 463e b5eb 78be
000002d0: 6f59 a73e 1aef 9abd 7acc a1bd deec 0a3e
000002e0: 2731 37be cb5b 0d3f 9411 143e dad4 5f3e
000002f0: c292 28bd 7591 063d e072 42be 070a 0c3f
00000300: aed6 a93d 89ea c3bd f969 a1be 6838 9cbe
00000310: 01e3 a5be ca4c e93c baa2 c8be 8c96 b1bb
00000320: 0be0 32bb e9ff 82bd 2163 813e b429 00be
00000330: d5d0 44bd f75a 34bc f87f 843c bb98 8c3d
00000340: 0047 5a3d 3730 cbbd 6c49 313d 8a81 5ebe
00000350: 66b9 76be 9ffd 343d e6e4 573e 6305 c5be
00000360: 08b1 8ebe 8eb8 493d 291d f9bd afaf 95be
00000370: b14c 5abe 3856 31bd 0f76 e9be 9029 e53d
00000380: 0b2c 4e3d 1be3 32be b16c 2bbe 1f77 2dbe
00000390: df23 2b3d 0071 32bc cac0 0ebe a0e2 8e3c
000003a0: c2c9 b1bc 8b7a 9ebe 4308 06be 15d9 02be
000003b0: 1a10 c2bb 9866 96bd 50a2 86bd 4408 4ebe
000003c0: 38da 763c f7dd 22be 5a3d 04be 0a9a e63c
000003d0: 569d 36be 99ea b1bd 9b73 01be 76be adbd
000003e0: dadf 60be 0fcc 01be 1905 2cbe 27ad 54be
000003f0: 72a5 5f3d dc84 d03d bc94 a83d 5ed3 7dbc
-0.023437727 -0.02054419 0.5610471 0.11343994 -0.54325 0.12389781 0.3050138 -0.011848356
0.43613887 -0.16478938 -0.2492537 -0.07034012 -0.0051195538 0.39126804 0.3562005 -0.4348217
0.08571383 0.3870256 -0.046410486 -1.0573207 0.3996517 -0.1707622 -0.11795942 0.28436545
0.039626658 0.24914533 0.0871357 0.3486142 0.0963186 -0.070787214 -0.0882913 0.3088865
0.09126319 0.08770437 -0.20882444 -0.47453007 -0.01736524 -0.008154547 -0.09271856 -0.072617546
-0.23941593 -0.09820785 -0.47848582 -0.065693155 -0.07828081 -0.18415977 -0.23270038 -0.23642823
0.107354194 -0.18058729 -0.19006905 -0.28618202 -0.18416125 0.13620903 -0.03382248 -0.33874992
-0.007209434 0.15114339 -0.04328196 -0.11968747 -0.13089871 -0.013516265 -0.5562514 -0.09329455
-0.102444775 -0.30796754 -0.13566922 -0.31212553 0.2239764 -0.1609956 -0.24864896 -0.3536127
-0.35112232 0.5126763 0.011131495 -0.36450493 -0.102344245 -0.2479636 -0.18012725 -0.10694557
0.16909157 -0.07577405 -0.044395268 0.1397428 -0.27072296 -0.122159354 0.023065398 0.3400283
-0.09023381 -0.12143944 -0.17535153 -0.41834867 0.06980213 0.03711527 0.15380105 -0.3919878
-0.20940652 -0.19690819 -0.90727746 -0.21073225 0.7462785 0.36903656 -0.28866476 -0.14367369
-0.6393727 1.0386866 -0.1212559 0.0293191 0.4116831 -0.09738264 -0.51340574 0.7123883
-0.06093116 -0.49709284 -0.0060509057 0.43765718 -0.6843115 -0.15487085 0.022015372 -0.08821086
0.80403763 -0.25757068 -0.14328267 0.059825536 0.30698624 -0.12549363 0.40348855 0.12972987
0.19289121 0.018605229 -0.21999957 0.033748753 0.18749873 -0.08759945 -0.015036047 0.004217066
-0.35046682 -0.34348154 -0.15492792 -0.38817865 -0.09369394 0.023621721 0.12143238 -0.63885635
0.0900552 0.1824167 -0.03850314 -0.009481287 0.08058823 -0.053196713 0.31712225 0.16712727
0.04413444 -0.19533232 0.035252675 -0.056398794 -0.079827435 0.18095851 -0.24695517 -0.30577374
-0.091181904 -0.087396815 0.5131185 0.34622836 -0.08904878 0.19631957 0.59391755 0.07065196
0.7118078 -0.45470738 0.15132424 -0.0055002617 0.20877796 0.23336086 0.3242642 -0.115630075
-0.091699876 0.25797817 0.19360544 -0.24308665 0.3268542 -0.07565136 -0.07900329 0.1356692
-0.17889844 0.5521819 0.1445983 0.2185854 -0.041155584 0.032853562 -0.18989134 0.547028
0.082929 -0.095662184 -0.31526163 -0.30511785 -0.32399753 0.028478999 -0.3918665 -0.005419558
-0.0027294185 -0.06396467 0.25270942 -0.12515908 -0.04805072 -0.011008016 0.016174302 0.068650685
0.053290367 -0.099213056 0.04328291 -0.21729103 -0.24094161 0.044187184 0.21083412 -0.38480672
-0.2786944 0.04924827 -0.12163765 -0.29235598 -0.21318318 -0.043295115 -0.45597884 0.11189568
0.05033497 -0.17469446 -0.16740681 -0.16939972 0.041782256 -0.010891199 -0.1394073 0.017442048
-0.021702651 -0.30952868 -0.13089089 -0.12778123 -0.0059223296 -0.07343787 -0.065739274 -0.2012034
0.015066676 -0.15904985 -0.12914029 0.028149623 -0.17833456 -0.08687324 -0.12641756 -0.08483593
-0.21960393 -0.12675498 -0.1679882 -0.20769177 0.05460114 0.10181591 0.08231494 -0.015492288

gnn.convs.2.nn.lins.0.bias f4 [32]
00000000: 49bb e53e bf60 14be 7dce 843d 459d 2ebf
00000010: 73ea a43b d7a0 083f 8789 1a3e 5ea7 283d
00000020: a9e4 f9bd 1eb3 8f3d eb4b acbd 482d dc3d
00000030: a214 b43e 369b 5dbd 3743 003f b8fc fc3c
00000040: cfaa f8bd e51a 3a3d 3c46 cb3e 75cf 9e3d
00000050: 88fb 043f 04fc 13be 4669 d23e 488c 953e
00000060: 735c e43e 1737 4ebe bd9e 32be 7537 913c
00000070: 84f2 ebbd 0c4a 8c3e 2b43 3cbb 6ddb 8d3e
0.4486945 -0.1449003 0.06484697 -0.68208724 0.0050328313 0.5337042 0.15091525 0.04117524
-0.122018166 0.07016586 -0.08412918 0.10750824 0.35171992 -0.0541031 0.5010256 0.030882224
-0.12141954 0.045435805 0.39702022 0.07754413 0.51946306 -0.14451605 0.41095942 0.2920859
0.44601783 -0.20138203 -0.17443366 0.01772664 -0.115208656 0.27400243 -0.0028726559 0.2770647

gnn.convs.2.nn.lins.1.weight f4 [32, 32]
00000000: 1aef 8c3d 7d82 e6bc 2a60 d43d 7b4e c5be
00000010: 384e a13d 2bc2 31be bd62 eb3d 630e 603e
00000020: 32c2 af3d e695 643d 7d62 a43d a49a 91bd
00000030: 89d4 f5bd 05d6 003e 5e92 b33c 0909 bd3d
00000040: 3433 85bd 81b3 aebd a3d1 2abe f57f 293d
00000050: 456f 04be ef88 ddbd 1091 09bb 36fe 5c3d
00000060: ed33 0cbe 1717 c83d e792 ac3d a11d 253e
00000070: 9c05 7fbc 44e7 21be 03f5 d63c 424b c43c
00000080: 54c1 0cbe d0fa 0bbe fd37 ebbd 2a49 e7bd
00000090: 4ac6 e33c 9158 07be 275c 68be 7f18 4b3d
000000a0: f8df ebbd c7b5 2a3c 8692 2c3c ff74 8dbd
000000b0: 816c 13be 1cd2 3fbd 290f 87bd 2a21 43be
000000c0: 07ae 3bbe e86c 06be af81 af3d 395a 10be
000000d0: 9445 1cbe e35a 8c3b b578 703d 3782 51be
000000e0: 692c 47be afc7 ffbd 755c 26be 4697 89bd
000000f0: 1cbc 31be 204a a23d 96ef a9bd e366 4abc
00000100: a59c d2bc 9537 fabd 386d d73c e60f a0be
00000110: 9db0 c1bd 165d 183c e2a7 0ebd 15e7 40be
00000120: d238 87bd 421c acbd 88d6 66be 9a3a a7bd
00000130: d5fc ad3d 6d98 063e 97d2 28bd 7342 c3ba
00000140: 9a89 033e 9a24 323d 1384 9bbc 3db6 303c
00000150: 1787 84be c3dc 403e e7f0 c1bb fa34 2dbd
00000160: 02b0 733d a51d c9bc 19b7 12bd cd60 10be
00000170: 5699 5cbe ca2e 9bbd 0fad 0e3d 802c 3a3d
00000180: 23d9 043f a0f1 543d 3788 4ebe 0c94 d4be
00000190: 6c69 f7bc 3def 0f3f 3bd6 2a3e 5696 2f3c
000001a0: 2b35 42be 2067 f9bd 2910 2dbe 7ef5 fc3d
000001b0: 753b c83e d426 b73d 9d62 ae3e c4b9 4e3d
000001c0: c881 863e 0489 43bd 7d71 cc3e d68b e33d
000001d0: 1ea2 203f 7c5e 05be 3b9c 363f 3d92 003f
000001e0: 7e14 8d3e ab2f e73b f762 ccbe d017 8ebe
000001f0: d8ff 18be 377b c13e c92c 323e 38ff 5e3e
00000200: acef c73d 75f8 07be 9b8a 133d 1b7c 9ebe
00000210: 3d04 483e 39a5 b2bd 735e e9bd 3723 9dbd
00000220: 98c3 b0bc 7e3f 19bd e146 043d df2b b1bd
00000230: ba0a 0dbe 3f5c 813c 435b 613d 36fa 083e
00000240: cbbd 1f3e 552f b43c 3989 2fbc 70f9 e8bd
00000250: b45e 49be 16a9 a7bd 6c5d 9c3d 27ad f23d
00000260: c4ed 1c3e 6fd5 cd3c abd0 eabd 5a10 523d
00000270: 59a0 adbe 182b 28be e9ab 403e 93d8 23be
00000280: 2faf ad3e 2a80 0bbe ae64 5fbd bb8f cabc
00000290: 49da 973d 3bbd f13e a99d 23be 4c57 763e
000002a0: 38e3 413e 6318 fbbd adc8 d83d 4ee4 16be
000002b0: fac5 9c3e e373 2dbd 8b98 243e 0516 9c3d
000002c0: b25e b2bd 18b1 29be 6d24 903e b5b9 593e
000002d0: 62ae 193f cac1 fabd d04d cb3e 80c2 ee3e
000002e0: c644 983e d55d c63d 42d6 343e 3fb0 5ebe
000002f0: 0c3a dabc 7c01 d63e fb62 cb3c 9871 fc3e
00000300: 14a5 8a3d c93b 86be 1ffd 0f3e bbdc 09be
00000310: e668 7fbe c26e 18be 34f0 a63c 23f9 383e
00000320: 8f3e a8bd 06d1 d7bb 428f 2fbd cf6b 9e3d
00000330: 6e1f 0fbe a433 37be 242c a3bd fce5 683e
00000340: 3072 eabc acb7 58bd d6f8 37be 1ec4 883d
00000350: c631 d23c 5d10 a33d b06f 8fbc 1f44 f7bc
00000360: 349f d03d bd28 f83c fa75 a73d fbea bb3d
00000370: a741 eb3c c48f 7ebd f510 9abc f794 20bd
00000380: 0205 f6be 4e76 423f 927b 033f faa6 9a3f
00000390: 8a06 30be fb35 45bf ed80 483e c10c 593c
000003a0: ebf9 e13e e7f7 14be 2dbc 523e 9ea4 8e3d
000003b0: 0123 85be cc01 33be 57c9 0dbe 09c3 20bd
000003c0: 592a c6bb 5d5c 1c3f c4ea bebe a0cc a73d
000003d0: ac14 77be 3289 d13d 1870 d0be 4b99 bebe
000003e0: 358b ffbd cc38 f23d 7473 be3e a97c d1bd
000003f0: 4237 2d3f d7d3 e8be 2999 37bd e857 6bbe
0.068815425 -0.028138394 0.10369904 -0.38536438 0.07876247 -0.17359225 0.11493442 0.21880488
0.08581962 0.055807017 0.08026598 -0.071095735 -0.120034285 0.12581642 0.02192038 0.09230239
-0.06503907 -0.085303314 -0.16681533 0.041381795 -0.12933071 -0.10817134 -0.0020991005 0.053953372
-0.13691683 0.09770029 0.08426457 0.16124584 -0.015565302 -0.15810877 0.026239878 0.023961667
-0.13745624 -0.13669896 -0.11485288 -0.11293252 0.027804513 -0.13217379 -0.22691403 0.04958391
-0.11517328 0.010419316 0.010532981 -0.06907081 -0.1439686 -0.046831235 -0.065946884 -0.1905562
-0.18328105 -0.13127482 0.08569657 -0.14096917 -0.15260917 0.0042832955 0.058708865 -0.2045983
-0.19450535 -0.124892585 -0.16246207 -0.06718306 -0.17356914 0.079242945 -0.082976505 -0.012353632
-0.02570946 -0.12217633 0.026297197 -0.3126213 -0.094575144 0.009299537 -0.034828074 -0.18838151
-0.066026345 -0.08403827 -0.22542775 -0.08165474 0.084954895 0.13144083 -0.04121646 -0.0014897123
0.1284546 0.043491937 -0.018983876 0.0107856365 -0.25884315 0.18834214 -0.0059186104 -0.04228685
0.059494026 -0.024550268 -0.035819147 -0.14099427 -0.21542868 -0.07577284 0.03483301 0.045452595
0.51893824 0.051988244 -0.2016915 -0.415192 -0.030201636 0.56224424 0.16683285 0.010716995
-0.18965594 -0.12177873 -0.16900696 0.123515114 0.39107862 0.08942953 0.3405961 0.05047013
0.2627089 -0.04773809 0.39930335 0.11110656 0.6274737 -0.13024324 0.7133214 0.5022314
0.27554697 0.007055243 -0.39919254 -0.27752542 -0.14941347 0.37789318 0.17399897 0.21777046
0.09762511 -0.13278373 0.036020856 -0.3095406 0.19532867 -0.0872292 -0.11394968 -0.07672732
-0.021577641 -0.037414066 0.032294158 -0.08650946 -0.13773623 0.015791057 0.055018675 0.13376698
0.15599744 0.021995226 -0.010713869 -0.113757014 -0.19665033 -0.081865475 0.07635006 0.118494324
0.15325075 0.025126187 -0.114655815 0.051285125 -0.33911398 -0.16422689 0.18815579 -0.16000585
0.33922717 -0.1362311 -0.054539375 -0.02472674 0.074146815 0.47214684 -0.15978111 0.24056739
0.18934333 -0.12260511 0.10585151 -0.14735529 0.30619794 -0.042346846 0.16073816 0.076213874
-0.08709468 -0.16571462 0.2815279 0.21262248 0.6003171 -0.122439936 0.39707804 0.46632767
0.2973997 0.09685866 0.17659858 -0.2174692 -0.026639007 0.41798007 0.024827471 0.49305415
0.067697674 -0.26217487 0.14061402 -0.13463108 -0.2494236 -0.14886001 0.02037821 0.18063788
-0.08215057 -0.006586197 -0.04286123 0.077354066 -0.13976833 -0.17890793 -0.079674035 0.22743982
-0.028618902 -0.05290954 -0.17966017 0.066780314 0.0256585 0.079621054 -0.017509311 -0.03018385
0.101866156 0.030292863 0.08176799 0.09175678 0.028717829 -0.062148824 -0.018806914 -0.039204564
-0.48050696 0.7596177 0.5136043 1.2082207 -0.17189994 -0.7703549 0.19580431 0.01324767
0.44135985 -0.14547692 0.20579596 0.06964992 -0.26003268 -0.17481154 -0.13846336 -0.0392485
-0.0060475287 0.61078435 -0.37288487 0.08193326 -0.2412898 0.10231246 -0.4071052 -0.37226328
-0.124777235 0.118272394 0.3719746 -0.10228855 0.6766244 -0.4547412 -0.0448238 -0.22982752

gnn.convs.2.nn.lins.1.bias f4 [32]
00000000: e78e 513e c586 deb8 ad5f 42bd b362 093e
00000010: dbe8 b43d 0bc2 663d 9650 52be a448 e6bc
00000020: 3ab0 80bd 904e 813d 71f9 92bd b46b 04be
00000030: 58c1 b43d 3c8a 273e 951b d33d e65b 1cbd
00000040: 80ff ec3d b4b8 c43d 4945 153d 804e 13be
00000050: 2108 273e e04d d03d e247 ddbc 5785 65bd
00000060: 3e8d 323e 70ed 9f3d 7fdf 3d3e 8262 cf3d
00000070: 9940 c8be 5f10 0fbe a859 0d3e 2738 e13d
0.20464669 -0.00010610888 -0.047454525 0.13416557 0.08833476 0.056337398 -0.20538554 -0.02811081
-0.062836125 0.06313813 -0.071764834 -0.1293171 0.0882594 0.16361326 0.10307995 -0.03817358
0.1157217 0.09605542 0.03644303 -0.14385414 0.16311695 0.101711035 -0.027011815 -0.056035366
0.17436692 0.078089595 0.18542288 0.10126211 -0.39111784 -0.13971089 0.13803732 0.10997038

gnn.convs.3.nn.lins.0.weight f4 [32, 32]
00000000: 71e9 91bd 588d 4c3d 293c 783d 6974 f03e
00000010: 0dd8 f93d aa7f 053f b7f2 583d 2b02 e2be
00000020: 281a 0d3e 3982 0c3d 9597 ce3e 87bb 383e
00000030: 6cad 78bb 5e8e c23e 2c4f b73e 9038 323e
00000040: d6b8 003e d716 5e3e c499 34be 1d98 2ebc
00000050: abff 263d 60ae 873d 6ba8 b53e cb5e 063e
00000060: b70f f43d b4e6 a23e f0f9 b03c decd a13e
00000070: 923e 49bf a6b7 203e 7142 c43e f92f df3e
00000080: 59dc 1c3e f687 ce3d f0db acbd daac 2abe
00000090: dd33 263e 42ad d1bd 55d2 03be d33e 11be
000000a0: c96f 8fbd 34d6 ef3d fe5b 903d 9d42 bdbd
000000b0: ad14 85bb 44d2 5cbe 3d57 eabc ab75 0dbe
000000c0: 67ca 7bbe 975a c5bd 1267 63bd 5d51 3abe
000000d0: 8c5b 71be 6595 0fbe ae40 a7bc b27c 153e
000000e0: 2835 88bd 8e81 dd3c ae2b 85bd fbbc 233c
000000f0: f2ae 16bc 0efb ee3c f6e8 d7bd c268 c8bc
00000100: 9ef1 97bd b14b 81bd 6f18 21be 7da8 19be
00000110: 0132 f73d 7d85 703e 55fb 083e b3f9 13bf
00000120: 5677 993c d879 653c bd99 f5bd 8fc2 56bd
00000130: adc7 50be df0b 043f 1cde 8abd a611 17be
00000140: c5cc 2dbd 72d2 54bd ada9 b8bd d2f4 f13c
00000150: 97c7 473d 5374 d7bd b4a3 e33c 6394 b13d
00000160: 0bcb 5dbd b28b d5be 502c 98bb f4be 143e
00000170: 7f39 40bf c46e 98bd 1b1b 9b3d 0d44 423e
00000180: c885 e2bc f7b1 2c3e 1dbe 4b3e ac9f 2abd
00000190: fd8b 903d 1d9c 8abd 93bb 1e3e 2e21 883f
000001a0: 05bc 2fbd d67b 353b 2239 9cbd 3004 aebc
000001b0: ac70 8b3d c359 16be ec26 2a3d 9b2e 72be
000001c0: 92d2 f4bd 0487 1ebe 1edb 69be d5cf 82bd
000001d0: 32a0 cc3d 9953 71be cb2b 1a3d de3c 093a
000001e0: 4c0e dd3d 31c0 2a3e 6696 aebd 03b4 4ebd
000001f0: 7125 943f fe81 123e de6f d53d bc3d 36be
00000200: 2b7e 85bd d440 2b3d e1ea 203e 3067 70bd
00000210: efc5 46be 35e4 bdbc 49c2 f6bc 9cc5 a4bc
00000220: 9d4d 6bbe bf66 6d3b 4586 9dbd 56e8 e6bd
00000230: f8a5 b6bd a627 32be 17bd bcbd bb35 af3d
00000240: 3c82 cbbd b27f 2abe e829 c53d 8f76 f03c
00000250: cbdc 04be b29a 93bd c7f7 6e3d c4df 333d
00000260: 994d 49be 5855 01bd 5b60 593d 9838 69be
00000270: 8497 c8bd 6f3e fbbd f3ea bb3c 0700 a7bd
00000280: 9aa7 92bc ba0c e33d d510 5abd 92f2 ef3e
00000290: 9b29 fd3d e78f 333e f3e2 943c eadb 96be
000002a0: aef5 c5bd 6833 b33d 0395 c53e 470e 183c
000002b0: 71c4 f33d b9e3 d53e 2a1e a33e 959c 2cbd
000002c0: d8ae 863e be7f a63e 76ed ff3b 56c2 4bbe
000002d0: bb3d 93bd 3ece 0e3e 9fd1 3a3e 8d49 53bd
000002e0: 8fd2 043d fe0f a73d e566 d7bd 7080 c53e
000002f0: 9a08 f0be 83d0 be3d 791d 253e 2db4 963e
00000300: 1b8b 22bd 6a91 0ebe b42f cbbc 2749 023f
00000310: 9500 d8bd f1ff 963e 57bf 64bd c2d0 d8be
00000320: 42e4 c53c 2531 4abd cf0e 8d3e 902b 38bd
00000330: 1e00 f0bd 993f 943e bc13 dd3e 6cce b73d
00000340: 5d36 b03e 84ac 423e 9739 053d 1ad3 debd
00000350: 7f90 55bd 204b bdbc 7fab 32bd 30a1 773d
00000360: 90ee 52bc 2f1f 043e e4de dd3d dab5 943e
00000370: 9ecb 32bf ed97 043e 9aaf fe3d 3201 863e
00000380: 5fb7 dabc f10c 1d3c 928a db3d 8a7e c33e
00000390: bc75 18bc 4f67 d13e 6e31 d73d 7043 11bf
000003a0: 8201 85bd 7185 03bd 7a33 ca3e cf3b 0fbd
000003b0: 23db 6ebd 6398 023f 8c19 db3e 24bf c8bc
000003c0: a1c7 3e3c 9a33 c13e e931 ea3d cbcc 543e
000003d0: aafe 1a3d bf73 423e e6cd 493e b513 1f3e
000003e0: 72da 93bd 559c b63e c8ad 293e db26 d93e
000003f0: dc60 61bf 12d4 3f3e f390 1d3e 3a7e bc3e
-0.071246035 0.049939483 0.06060425 0.46963814 0.121994115 0.52147925 0.052965846 -0.4414228
0.13779509 0.034303878 0.40350023 0.18040286 -0.0037945164 0.37999243 0.3580259 0.1740439
0.1257051 0.216884 -0.17636782 -0.010656384 0.040771168 0.06625056 0.35480055 0.13122098
0.1191706 0.31816638 0.021603554 0.31602377 -0.786111 0.15695056 0.3833194 0.43591288
0.15318431 0.10084526 -0.08440387 -0.166675 0.16230722 -0.102381244 -0.12873204 -0.14184122
-0.07003743 0.11710778 0.07048796 -0.09241221 -0.0040613026 -0.21564585 -0.028606052 -0.13814418
-0.24588929 -0.09636419 -0.055518217 -0.181951 -0.23570079 -0.14021833 -0.020416584 0.14598349
-0.06650764 0.027039316 -0.06502472 0.009993787 -0.009196984 0.029172447 -0.10542481 -0.024464015
-0.07419132 -0.06313265 -0.15731977 -0.1500568 0.12070084 0.23488422 0.13377126 -0.57802886
0.018733662 0.014006101 -0.11992214 -0.05243164 -0.2038867 0.51580614 -0.06780645 -0.14752826
-0.04243161 -0.05195851 -0.09016738 0.029535685 0.048774328 -0.10520234 0.02778802 0.08670881
-0.054148715 -0.41708142 -0.0046439543 0.14525968 -0.7508773 -0.07443002 0.07573529 0.18971272
-0.027651682 0.16864763 0.19896741 -0.04165618 0.07057951 -0.067680575 0.15501241 1.0635126
-0.04290392 0.002769222 -0.07628085 -0.021242231 0.068086 -0.14682679 0.041541025 -0.23650591
-0.119542256 -0.15481192 -0.22837493 -0.06387297 0.09991492 -0.23567046 0.03763942 0.0005235205
0.107937425 0.16674878 -0.0852478 -0.05046464 1.1573926 0.143074 0.104217276 -0.17796987
-0.06518205 0.04180987 0.15714599 -0.058692157 -0.19411443 -0.023180107 -0.03012194 -0.020113759
-0.22978826 0.0036224572 -0.076916255 -0.11274783 -0.08918375 -0.17397937 -0.092157535 0.0855517
-0.099369496 -0.16650274 0.096271336 0.029353408 -0.12974851 -0.0720724 0.058341768 0.04391457
-0.19658507 -0.03157553 0.053070407 -0.22775495 -0.09794524 -0.12267768 0.022939181 -0.08154302
-0.017902184 0.11086412 -0.05323871 0.46864754 0.12361451 0.17535363 0.018174624 -0.29464656
-0.09666 0.08750039 0.3859025 0.009280748 0.119027026 0.417753 0.3185895 -0.042141516
0.2630527 0.32519335 0.00781029 -0.19898352 -0.071895085 0.13945863 0.18244027 -0.051583815
0.032427367 0.08157347 -0.105176724 0.38574553 -0.46881562 0.09317114 0.16124524 0.29434338
-0.039683443 -0.13922659 -0.02480302 0.5089287 -0.10546986 0.29492143 -0.05584654 -0.4234677
0.024156693 -0.049363274 0.2755036 -0.04496342 -0.11718772 0.2895477 0.4317912 0.08974919
0.34416476 0.19011122 0.032525625 -0.10880108 -0.052139755 -0.023107111 -0.043620583 0.060456455
-0.012874261 0.1290252 0.10833529 0.29044992 -0.69841945 0.1294858 0.12435837 0.26172787
-0.026698766 0.009585605 0.107197896 0.3818248 -0.009305414 0.4089913 0.10507475 -0.56743526
-0.06494428 -0.03210968 0.39492399 -0.034969147 -0.058314454 0.51013774 0.42792928 -0.024505205
0.011644275 0.3773468 0.11435301 0.20781247 0.037840523 0.18989466 0.1970745 0.15534861
-0.072193995 0.35666147 0.16570199 0.42412457 -0.8803842 0.18733242 0.15387325 0.36815053

gnn.convs.3.nn.lins.0.bias f4 [32]
00000000: 8920 5d3e dc8e b43d ed33 ef3d 7279 e3bd
00000010: ed6a e2bd 6328 483e 2f3d bbbd c86d 4c3d
00000020: b7e7 d2bd 3737 92bd 3c45 c63d 5032 92bd
00000030: fbf0 9b3d 29fe 403e 811b d5bd 977f c03d
00000040: 4f83 273e 91d1 a53d 685c 353e 8ce6 d3bd
00000050: 09ae ddbc 33d6 223d 1625 9fbd c4e2 b9bd
00000060: 7019 6cbd 317d d53b e0d1 643d 9e77 283d
00000070: 45e6 10bc bfc3 833b 60b7 cebd 447b 1c3e
0.21594442 0.08816311 0.11679826 -0.11107148 -0.11055551 0.19546656 -0.09142529 0.049909383
-0.10298102 -0.07139438 0.09681174 -0.071385026 0.07614323 0.18846954 -0.104056366 0.09399336
0.16358684 0.08096612 0.17711031 -0.10346708 -0.027060525 0.039755058 -0.077707455 -0.09076455
-0.057641447 0.006515168 0.055864215 0.0411297 -0.008843963 0.0040211375 -0.1009357 0.15281397
