Run_GIN_ModelCheckpoint_EvFr_2/NCI1_reps_2_folds_5_epochs_20_2023-04-26_11-05/rep_1_fold_1/checkpoints/model_trial_2.ckpt (torch, 96717 bytes, 86 tensors)

gnn.convs.0.nn.lins.0.weight f4 [16, 37]
000000 7c 08 32 be f9 a1 74 bf 04 13 27 bf e2 be d5 3e
       -0.17386049 -0.9555965 -0.6526339 0.41747195
000010 da 42 35 be 0b d5 f8 bd 84 c5 39 3d 30 0a 27 bf
       -0.17701283 -0.1215001 0.04535438 -0.6524992
000020 9c 46 0f 3f 04 c4 da 3e af 41 2d 40 ac 03 2a 3f
       0.55967116 0.42727673 2.707134 0.6641185
000030 6d c4 f3 3f 35 76 6d 3f 92 39 64 3e cc 72 bf 3f
       1.9044319 0.92758495 0.22287586 1.4956908
000040 8c 51 3a be f2 d6 af 3f 7d 2b 98 3f 47 87 2f bd
       -0.1819517 1.3737471 1.1888272 -0.04285362
000050 d8 c3 8a bd cc c1 b4 be 82 52 51 bb b4 33 f5 3f
       -0.067756355 -0.35304105 -0.0031940048 1.9156404
000060 82 2c 9f bd 4b e1 9f 3f 5c a2 06 3f 54 06 4e 3f
       -0.07772161 1.2490629 0.5259149 0.80478406
000070 ce a9 29 bf 74 dc fc 3d ad fc 22 bf 9b f6 a8 3d
       -0.66274726 0.123467356 -0.636668 0.08250161
000080 66 fe 12 bf 2b 13 16 bf 2b ea 30 bf 13 da dc bd
       -0.5741943 -0.58623 -0.6910731 -0.10783782
000090 23 56 10 bf a7 d0 ee 3e 36 2d a6 be 65 7f 85 3e
       -0.56381434 0.46643564 -0.32456368 0.26073757
0000a0 3d 9e 1f bf 30 86 09 bf 01 39 36 bf 0c 8a 62 be
       -0.6235083 -0.5372038 -0.7118073 -0.22122973
0000b0 41 b5 29 3d 55 f1 8e 3e 3e 08 a3 3f c5 eb f4 bd
       0.041432623 0.27918497 1.273689 -0.11959032
0000c0 2d 68 f1 bd 8d 2a 43 bc cf 51 c6 be 83 cb 4b 3c
       -0.11787448 -0.011912 -0.3873429 0.012438658
0000d0 fc 7b 22 be 39 46 63 be 52 1a 25 3d 9f 21 81 3f
       -0.15867609 -0.22194757 0.040308304 1.0088385
0000e0 be e9 71 3f df 2c 9f be 29 94 1f bf 96 40 11 bd
       0.9449729 -0.3108892 -0.6233545 -0.035461985
0000f0 c6 20 a5 3d fd d7 ca 3f 0d d3 6d bf 6d 25 9e be
       0.08062892 1.5847164 -0.9290016 -0.3088793
000100 2e 39 8d bd c2 e5 f2 bd 42 ee 34 be 4c 66 e7 bc
       -0.06895672 -0.11860229 -0.17669013 -0.028247021
000110 5e 35 7d 3c d1 45 34 bd 49 87 30 3e c6 54 a9 bd
       0.015454618 -0.044011895 0.17239107 -0.082681224
000120 4d 75 08 be a1 8f c0 be 65 c4 45 3f 3f 32 0e 3f
       -0.13325997 -0.3760958 0.772528 0.5554542
000130 1b b6 b5 be 99 4f 28 bf 56 3a 11 bf 59 06 1f bf
       -0.35490498 -0.65746456 -0.5672964 -0.6211906
000140 2e 57 bf bd 56 09 39 3f 61 b6 9f bd 44 45 6a bd
       -0.093428 0.7227987 -0.07798458 -0.057194963
000150 a3 c2 13 bc 38 fc 0e be 47 87 d9 ba f3 2b e0 3c
       -0.009018573 -0.13963401 -0.0016596102 0.027364707
000160 39 78 a1 bd 24 e8 d7 bd 88 da 16 3f 47 2b ad 3c
       -0.07884259 -0.10542324 0.589272 0.0211388
000170 c5 ff 8a bc 29 ce 8b bd a7 eb a7 be a8 07 11 bf
       -0.016967664 -0.06826431 -0.32796976 -0.5665231
000180 c2 b1 7b 3d 00 83 c3 3c b2 b1 df bd 3e 1c d4 3e
       0.06144882 0.023866177 -0.109225646 0.41427797
000190 d4 a8 ed bd ae 6e 6d 3e 21 20 f9 bd 0f 5a 49 be
       -0.11604467 0.23186752 -0.12164331 -0.19663261
0001a0 f5 41 c7 bd d5 1b 10 be 5a f0 13 3f 57 ba 06 be
       -0.09729377 -0.14073117 0.5778862 -0.1315702
0001b0 3a 2c ef 3e 06 49 13 be 50 4d 8d bf a7 da 7f bd
       0.4671343 -0.14383325 -1.1039219 -0.062464382
0001c0 bc 66 c4 3c 58 7f a6 bd 54 d4 33 bf 5f 28 56 bf
       0.023974769 -0.08129758 -0.7024586 -0.8365535
0001d0 1c ea ce be 84 2a 86 be c5 db 98 bd 9d a4 6f 3f
       -0.40412986 -0.26204312 -0.07463793 0.93610555
0001e0 e9 0b 52 3f be 64 33 40 f9 3d 87 3f 42 ac 00 40
       0.82049423 2.8030238 1.0565788 2.0105138
0001f0 fe 76 fd 3e 1b 09 6e 3c ca 13 bb 3f 5b 31 2d be
       0.49504846 0.014528538 1.4615414 -0.16913359
000200 33 49 89 3f 08 47 a6 3f e2 18 ba 3f 14 9c 89 be
       1.0725464 1.2990427 1.4538844 -0.2687689
000210 38 74 7d be 0d a5 01 3d 79 03 da bd 3b 0d 13 40
       -0.24751365 0.031651545 -0.106451936 2.2976825
000220 88 2f 58 be e4 c5 1e 3f 3a 5f 93 3d d9 99 55 be
       -0.21111882 0.6202071 0.071958974 -0.2085947
000230 cf 8b 43 be b4 43 fe bd 37 8a 17 3d 30 6e 8d bd
       -0.19096301 -0.12415257 0.036997046 -0.06905782
000240 58 5f b7 bd 8d 94 2a bd ed b7 94 3d df 84 07 bd
       -0.08953732 -0.041645575 0.072616436 -0.0330857
000250 ec 62 39 bd 52 7f a8 3e ec 8d 2f be 2c 3e c9 be
       -0.045260355 0.32909638 -0.17143983 -0.39305246
000260 db 92 1b 3e 81 c6 77 3f 3a cc e1 be 5e 75 64 be
       0.1519274 0.9678727 -0.44101125 -0.22310397
000270 f3 eb 8d 3f e5 43 d8 3e 4d 3e 17 40 ca 9a 01 3f
       1.1087631 0.422393 2.3631775 0.50626814
000280 b2 bc ee 3f 8d e7 91 be 69 7c 06 3f ac af d4 3f
       1.8651335 -0.28496972 0.52533585 1.6616111
000290 a2 32 73 3c e3 7a 8a 3f 32 2b 8e 3f 84 38 d3 3f
       0.014843615 1.0818752 1.1106932 1.6501622
0002a0 9d ca 00 bf 7a d9 15 bf 06 40 6e 3a 4f 8e f4 3f
       -0.50309163 -0.5853497 0.000908852 1.9105929
0002b0 87 f3 ca 3f 4a d7 a7 3f 6e 3e 1b 3f 61 65 cd 3e
       1.5855569 1.3112576 0.60642135 0.40116408
0002c0 c5 9a 21 be 3a 68 ba be 6f cf 16 be f3 4e 9e 3d
       -0.15781696 -0.36407644 -0.14727567 0.07729902
0002d0 06 93 59 be b3 2b 53 be 7a 7c bf bd 52 7a 2e 3d
       -0.21247491 -0.20622139 -0.09349914 0.042597122
0002e0 50 b1 16 be 71 69 62 3f 84 b6 3d bf 85 1c 5d 3e
       -0.14716077 0.8844214 -0.7410662 0.2159291
0002f0 36 89 39 bf 43 de 28 bf a8 63 b0 bf b0 d7 56 be
       -0.7247499 -0.65964144 -1.3780413 -0.20980716
000300 d3 cd 2d 3d 47 08 c4 3f 30 b0 9a 3f d9 ad 41 40
       0.042432617 1.5315026 1.2085018 3.0262358
000310 97 fc 01 be c5 2b ef 3f d7 bf 81 be 4f 65 c1 3e
       -0.12694012 1.8685232 -0.25341675 0.37772605
000320 50 5e 76 3d c1 2f a7 be fb b7 99 bc a9 8c 88 3f
       0.060148537 -0.3265362 -0.018764487 1.0667926
000330 14 50 b2 3f 6e 23 02 bf b6 08 80 bf 7c 7e 0d 3e
       1.3930688 -0.5083531 -1.0002658 0.13817781
000340 38 17 37 3c 75 b9 f7 3f bc 6e bd bf 73 af 15 bc
       0.011174969 1.9353472 -1.4799418 -0.009136069
000350 56 ba 2b 3f 74 e7 51 3d 87 c5 a3 be 24 0f 89 3c
       0.670812 0.05124612 -0.3198664 0.016730852
000360 61 63 5b bd c7 3a 06 3d 39 0c a7 bd 60 a9 18 be
       -0.053561572 0.0327709 -0.08156628 -0.14908361
000370 df 40 0e be 3f 2d 3c bf 5b 5e ee 3e ca d4 c5 3e
       -0.13891934 -0.7350654 0.46556363 0.38638908
000380 3d 2d 55 3d 5c cd 3c bf 6f 7d 71 3e d1 a6 4b bf
       0.052045096 -0.73750854 0.23583005 -0.79551417
000390 05 80 ed be b0 d4 cb bd 9c 78 a5 3f 58 b0 36 3f
       -0.46386734 -0.09952676 1.2927432 0.7136283
0003a0 df 7e 89 bd 5b 78 0c be dc 4a c0 bd 50 65 cf be
       -0.06713652 -0.13717787 -0.09389278 -0.40506983
0003b0 40 f9 8e 3e 76 2e 4b bd 28 42 0a bf 92 7f ce bd
       0.27924538 -0.049604855 -0.54007196 -0.10082926
0003c0 a1 b6 7a 3f e2 81 c7 3f 06 aa 05 bf 5c 6b 44 bf
       0.9793492 1.5586512 -0.5221256 -0.7672632
0003d0 32 5c 3a bd fb 13 83 bd 3f 72 ae 3f 0e fc 85 be
       -0.04549808 -0.06400295 1.3628615 -0.26168865
0003e0 01 b5 8c 3e e0 31 2a 3f 6b d5 a9 bc e3 77 07 bf
       0.27481845 0.66482353 -0.020731648 -0.5291731
0003f0 16 24 07 be 16 4e 8f 3c 12 67 83 bd f0 f0 c6 bd
       -0.1319736 0.017493289 -0.064161435 -0.09713924

gnn.convs.0.nn.lins.0.bias f4 [16]
000000 e2 aa 04 3f 23 c1 41 bf 7d db 8e be dc 67 1d be
       0.51823246 -0.7568533 -0.2790183 -0.1537165
000010 65 77 f7 ba d2 8e 1a bf 11 d7 aa be 63 d1 40 3f
       -0.0018880187 -0.60374177 -0.33367208 0.753195
000020 24 10 16 bf 2d 99 15 be bd 61 03 3d 09 f6 a0 be
       -0.5861838 -0.14609213 0.032075632 -0.3143771
000030 a9 e2 06 3f ce 66 4d 3f cc 57 8b be d6 99 5d be
       0.52689606 0.8023499 -0.2721542 -0.21640715

gnn.convs.0.nn.lins.1.weight f4 [16, 16]
000000 e7 d3 94 3f 64 c0 1a bd 51 c6 a7 be 5f 6e 96 3f
       1.1627167 -0.037781134 -0.3276849 1.1752433
000010 1d 35 40 be 99 78 fe 3c cf 83 da be 17 3a ce 3e
       -0.18770261 0.031063365 -0.42678687 0.40278694
000020 52 c4 e0 3d ea 81 05 bf 25 f7 99 bb ae bc 93 bf
       0.10974945 -0.5215136 -0.0046986514 -1.1541955
000030 70 9d b1 3f 85 8c be 3e fb a2 2c 3e 64 88 37 3c
       1.3876171 0.37216583 0.16859047 0.011201952
000040 9b 6a 47 3f 8c 16 f4 3e 6e 0c 74 bf 85 5c da 3e
       0.7789704 0.47673452 -0.95331466 0.42648712
000050 b4 d2 fa 3c 98 a6 17 3f e2 5d 59 3e 82 24 25 3f
       0.03061805 0.59238577 0.2122722 0.6450883
000060 ae 93 2c 3f ef 40 d8 bf ab 07 c4 3e 67 b2 de bd
       0.6741284 -1.6894816 0.382871 -0.10873871
000070 27 e3 fd 3f 02 34 b0 3f 05 cb c7 3e ae d3 82 be
       1.9834946 1.3765872 0.3902208 -0.25552124
000080 2a 60 65 3f c3 f4 89 3e c2 45 62 be 14 9a 15 3f
       0.8959986 0.2694455 -0.22096923 0.5843823
000090 d6 e8 35 3e e7 6a 63 3f a4 a2 d7 3d 15 ee b0 3e
       0.17764601 0.88834995 0.10529068 0.34556642
0000a0 43 3a 37 3e 00 5b d1 bf 8e 36 aa 3e 5f 26 9b bd
       0.17893319 -1.6355896 0.33244747 -0.07575678
0000b0 51 46 dc 3f 04 a5 2b 3f 5e ed 00 3f 5c f2 19 3d
       1.7208959 0.6704867 0.50362194 0.037584648
0000c0 3e 64 dc 3e eb 0e d0 3d 2d 3e 92 be 05 54 5b 3c
       0.4304523 0.101590954 -0.2856306 0.013386731
0000d0 c1 f2 fd 3d 58 50 0d 3f d2 c2 a1 bd dd b2 52 3f
       0.12399817 0.5520072 -0.07898487 0.82304174
0000e0 22 f8 1a 3f 79 61 f3 bf f7 2f ab 3e c0 ea 8d be
       0.6053487 -1.9014121 0.33435032 -0.27718163
0000f0 a8 c8 4d 3f 3b 8d 84 3f 0e 61 bf 3e 40 7b 1a 3e
       0.803843 1.03556 0.37378734 0.15086079
000100 2e f9 82 3f 13 31 ba 3e 7b 04 d0 be 63 1b 80 3e
       1.0232294 0.36365566 -0.40628418 0.25020894
000110 52 02 24 bc f2 3d c0 3e 18 0a bd 3d af ee 25 3f
       -0.010010319 0.3754726 0.09230441 0.6481733
000120 95 fe 1e 3f a5 6d cc bf 08 06 1d 3e 8b 5e 3a bc
       0.6210721 -1.5970961 0.15334332 -0.01137508
000130 ae a5 5f 3f 79 80 84 3f c8 94 51 3e 2a 9b 0e bd
       0.8736218 1.0351707 0.20466912 -0.034815945
000140 d3 f5 48 3f f3 c7 b2 3e 60 fe 10 bf 26 a0 27 3e
       0.785001 0.34918174 -0.56638145 0.16369686
000150 8e 1f 17 3e bf 9d 69 3f 3c ba 9e 3d 53 57 d1 3e
       0.14758131 0.91256326 0.07750365 0.40886936
000160 a2 f0 11 3f 1b cf bd bf a8 13 7c 3e d4 83 b0 3e
       0.570078 -1.4828829 0.24616873 0.34475577
000170 ed 47 75 3f cb bc 87 3f 53 e1 0e 3f 27 0a b6 3d
       0.95812875 1.060449 0.5581257 0.08888655
000180 cb 5e 28 3f e8 77 8e 3e 3f 48 d0 be 30 46 69 3e
       0.6576964 0.27825856 -0.4068012 0.2278068
000190 a0 14 3c 3e 0e 3c 2f 3f 46 fc b1 3e ca 01 48 3f
       0.18367243 0.6845101 0.34762782 0.7812773
0001a0 10 03 10 3f 70 d7 e6 bf 19 99 0e 3f 59 39 8e 3d
       0.56254673 -1.8034496 0.5570236 0.06944532
0001b0 43 bd a4 3f be f4 d2 3e 31 1d 16 3e 68 ef 79 bd
       1.2870258 0.41202348 0.14659573 -0.06101933
0001c0 4f 7e 7d 3f c9 fc 89 3e d5 53 72 bf 28 da ff 3e
       0.99020857 0.26950672 -0.9465917 0.49971128
0001d0 35 67 1c 3e 73 84 e2 3e ff 8b e0 3d 35 97 30 3f
       0.15273745 0.44241676 0.10964202 0.68980724
0001e0 b3 1e 28 3f 34 75 aa bf 78 70 e0 3e 80 15 00 bf
       0.65671843 -1.3317018 0.43835807 -0.50032806
0001f0 87 e5 a9 3f 25 28 91 3f fc 8e fe 3e 90 70 ba bd
       1.3273171 1.1340376 0.49718463 -0.09103501
000200 dc 7c 51 3f e2 59 eb 3b 60 a3 67 bf e9 a8 63 3e
       0.81831145 0.0071823457 -0.90483665 0.22232403
000210 a0 ee cd 3e 3a 1f 39 3f f0 57 e4 3d b7 c4 10 3f
       0.4022112 0.7231327 0.11149585 0.56550163
000220 eb 00 52 3f 5f 7a 89 bf b4 62 cd 3d 28 9c 98 3d
       0.8203265 -1.074047 0.10028592 0.074516594
000230 2f f4 ca 3f c6 44 6e 3f 93 0c a1 3d d3 e3 1a 3e
       1.5855769 0.9307369 0.078637265 0.1512597
000240 35 aa aa 3e 13 12 6d be f6 6b 41 be 51 76 2a be
       0.33332983 -0.23151426 -0.1888884 -0.16646697
000250 56 cc 2f 3e 68 27 38 be 0c f0 1a be 0b fb 11 bf
       0.17167792 -0.17983782 -0.15130633 -0.57023686
000260 47 b1 b9 be 9f d8 de 3c b3 ad 03 3e 02 06 bf bc
       -0.36268064 0.027202902 0.1285923 -0.023318294
000270 1e 50 57 bd 66 21 e1 be 65 bf 38 3d 94 f2 29 3e
       -0.05256664 -0.43970793 0.045104403 0.16596442
000280 db b3 62 3f 84 91 6d 3d 0a f2 91 3f c1 69 35 bf
       0.8855569 0.058000103 1.140199 -0.7086449
000290 a7 83 a2 be 36 e9 cd 3d 21 bc bd 3e 38 7b 3c 3f
       -0.31741068 0.10054247 0.37057593 0.73625517
0002a0 09 b2 ed 3c 69 38 34 3f 1c 30 07 be cd 5c a6 be
       0.029015558 0.70398575 -0.13201946 -0.32492676
0002b0 72 26 1b 3f c0 5c ca 3e de a7 ae bd d3 cd c9 3d
       0.6060554 0.39523888 -0.08528112 0.09853711
0002c0 54 05 90 bf e1 8d 33 bf 25 56 a0 be 20 56 5c 3f
       -1.1251626 -0.70138365 -0.31315723 0.86068916
0002d0 f8 5d 8e be e2 69 13 bf 5b ae 47 bf c1 a2 0f 3f
       -0.27806067 -0.5758344 -0.7800042 0.5610772
0002e0 38 a1 65 be 6f d8 87 3e c6 03 eb be 6b c4 e9 be
       -0.22424781 0.26532313 -0.45901316 -0.45657668
0002f0 5e ff 33 bf 63 d9 40 bc 8a bf af bd e4 f7 fd 3d
       -0.70311534 -0.011770579 -0.08581455 0.12400797
000300 5b 88 d2 bf 19 0d dc be cf b5 47 bf 1a 1f c0 be
       -1.6447862 -0.42978743 -0.7801179 -0.3752373
000310 38 b9 b4 be 93 22 23 bf 2a fe a2 bf a1 61 17 3f
       -0.3529756 -0.6372463 -1.2733815 0.59133345
000320 93 26 32 bf e0 27 6f 3f 5f 70 47 3d d6 38 d2 3d
       -0.6959011 0.9342022 0.04869115 0.10264747
000330 c0 a8 8a bf 08 0e 35 3f 11 70 3d be 12 55 77 be
       -1.0832748 0.70724535 -0.18499781 -0.24153545
000340 9b 4d 9e 3e 03 76 81 bf 22 a8 1c be 23 b9 42 be
       0.30918583 -1.0114139 -0.15298513 -0.19015937
000350 d5 66 2e bd 8f 34 e5 bf c0 1c 57 3d 6e ce 8f 3e
       -0.042578537 -1.7906665 0.052517653 0.2808718
000360 59 b5 b4 3d a6 30 93 3f cb 07 0e 3e f9 18 c1 3e
       0.08823652 1.1499221 0.1387016 0.37714365
000370 d5 63 2d 3d 7f c5 3d bf fc e1 76 3d f4 1c 89 3d
       0.042331535 -0.7412948 0.06027411 0.066949755
000380 8a 81 31 3f 2a cc b8 3e 2e 7d 05 bf 62 f4 9a 3d
       0.69338286 0.36093265 -0.52144134 0.075661436
000390 ca f4 f9 3d 66 0e 68 3f 61 4c 08 3e ff a5 4e 3f
       0.12204893 0.9064697 0.13310386 0.8072204
0003a0 1f af 27 3f 9e 2e d6 bf b6 9b 99 3f 3e d5 55 3c
       0.6550159 -1.6732976 1.2000644 0.013051329
0003b0 44 7c ec 3f b1 b8 9e 3f e8 88 78 3f 50 19 b8 3d
       1.8475423 1.2400113 0.970839 0.08989203
0003c0 e6 86 51 bd f8 5b cd be 5a 85 4f 3d 8e b1 86 bd
       -0.05115404 -0.4010923 0.050664283 -0.065768346
0003d0 b9 31 47 3c 54 70 07 be d8 b0 28 3e 2e d0 71 be
       0.012157851 -0.13226444 0.1647371 -0.2361457
0003e0 4d dc dc bd b9 b0 eb bc e0 b1 a7 bd 21 15 87 be
       -0.107842065 -0.028770791 -0.08188224 -0.26383308
0003f0 12 49 72 bd 29 85 11 3b ec d6 76 be 0e 74 56 3e
       -0.059151717 0.0022204614 -0.24105424 0.20942709

gnn.convs.0.nn.lins.1.bias f4 [16]
000000 24 0e 4a be 67 41 03 bb 2e 7c f6 be 1e 12 ea bd
       -0.19731957 -0.0020027997 -0.48141617 -0.11429237
000010 c7 4d 10 be ff 9b 27 bc 04 26 a7 bd 49 a1 a3 bd
       -0.1409217 -0.010230063 -0.08161548 -0.07989747
000020 fc 88 b8 bd cc ff 72 be 53 fe 13 bf d5 4f d0 3d
       -0.09010503 -0.23730391 -0.5780994 0.10171477
000030 64 27 bd be 8b 7a d5 be 76 f6 02 be 98 2d ee bd
       -0.36944115 -0.41695055 -0.1278933 -0.1162979

gnn.convs.1.nn.lins.0.weight f4 [16, 16]
000000 32 07 86 3e db 73 8b 3e d7 90 b1 3e 1a a5 38 bd
       0.26177365 0.27236828 0.34680817 -0.045079328
000010 4b 6c c8 3e 8c 2b 94 3e 87 0a 99 3e 82 42 79 3e
       0.3914512 0.28939474 0.29890844 0.24341777
000020 f5 22 fb 3d bb a9 29 3e 28 60 a4 be cd fd a1 3d
       0.12262527 0.16568653 -0.3210461 0.07909737
000030 d6 19 85 bf eb a1 7c bf 00 df 8d be 1c ff a6 bd
       -1.039851 -0.9868457 -0.27709198 -0.08154127
000040 9a 08 31 be 7f c7 0e 3e 11 14 a6 bd 4f 6b 71 bf
       -0.17288437 0.13943289 -0.08109296 -0.94304365
000050 47 31 2d be 79 4b d8 be e8 5c 20 3f fd 89 0d bf
       -0.16913329 -0.4224508 0.62641764 -0.5528868
000060 dc 7f 6d 3e 08 1f ba be b2 0e df bd 01 96 8c bd
       0.23193306 -0.363518 -0.10891475 -0.068645485
000070 66 ba d7 be 6a ac de be 55 2b d0 3d 26 ba 76 3e
       -0.42134398 -0.43490916 0.10164515 0.24094447
000080 b2 ac 2d bf 02 27 da be 8b 63 50 3e e6 d4 a3 be
       -0.6784164 -0.42607886 0.20350473 -0.31998366
000090 00 44 e8 be 50 36 32 be 00 01 20 bb a6 b9 58 3e
       -0.4536438 -0.17403531 -0.0024414659 0.2116457
0000a0 23 95 c3 be 51 02 c0 bd 9b b7 04 be db 29 9f 3d
       -0.3819972 -0.09375442 -0.12960665 0.07771655
0000b0 a8 27 d7 be f5 4a 6b be 76 dd 91 bd 0f 25 35 be
       -0.42022443 -0.22977813 -0.071223184 -0.17689918
0000c0 9f ad 97 3f c0 11 dd 3c 81 6e f2 bd 1b 1c 00 3d
       1.184986 0.026986003 -0.11837483 0.031276803
0000d0 cd 80 9d be 76 88 6a be 07 95 15 be 1d d4 45 bf
       -0.3076233 -0.22903618 -0.1460763 -0.77276784
0000e0 01 53 70 be fe 30 93 bd 13 85 a0 3d 3b e4 93 3e
       -0.23469163 -0.07187079 0.07837882 0.28885064
0000f0 13 b7 d2 3d 42 c4 8a 3e 77 dd 41 bf 16 c1 60 3d
       0.10288825 0.27102858 -0.75728554 0.05487164
000100 3a 74 89 bd 13 c5 8b 3e 41 45 01 3e 40 85 57 3e
       -0.067116216 0.27298793 0.12624075 0.21046925
000110 19 61 b1 3e d2 b8 f0 3e d7 c3 b5 3d ed b2 81 3e
       0.34644392 0.47016007 0.08875244 0.25331822
000120 ec 33 5f 3d 8c f2 dd 3d a3 ba 1c bf 95 d5 80 be
       0.054492876 0.10837278 -0.61222285 -0.2516295
000130 52 68 4b bf 74 cd 99 bf 54 95 d5 be 09 b2 8e 3d
       -0.79456055 -1.2015824 -0.4171549 0.06967551
000140 a1 ec 1c bd 1a 16 04 bf 02 27 4c bf 68 24 70 3e
       -0.038311604 -0.51596224 -0.7974702 0.23451388
000150 98 15 81 be 68 e5 85 be 8b dd c0 bd 5e 4a 2b be
       -0.25211787 -0.26151586 -0.09417256 -0.16727588
000160 a4 78 f0 bd d4 b0 4d be 41 c1 85 bc d2 b1 4b 3e
       -0.117417604 -0.20086986 -0.016327502 0.19892052
000170 94 24 46 be ad 71 9a bd df 5c 19 bf a0 ca 22 3e
       -0.19349891 -0.07541213 -0.59907335 0.15897608
000180 04 34 30 bd 26 86 cd 3e ff 00 04 3f 37 e8 e6 3e
       -0.043018356 0.4014141 0.5156402 0.4509904
000190 a0 28 57 3e 4a 4c 37 3e df de d2 3e 8a 97 09 be
       0.21011591 0.17900196 0.41185662 -0.13436714
0001a0 2f 96 01 3f f6 d0 0f bd 1e c6 1f bf e3 42 11 3d
       0.50619787 -0.03511139 -0.6241168 0.03546418
0001b0 65 e2 8d bf 6e ab 94 bf c9 97 ae 3e 0e 96 14 bd
       -1.1084715 -1.1614816 0.34100178 -0.036275916
0001c0 db fd 8d 3e 03 a7 be 3d 8c b2 36 3e 4c 04 f1 3d
       0.2773274 0.09309199 0.17841548 0.11768398
0001d0 39 88 a0 3d 3f 92 82 3e 88 aa bd bb d5 24 d2 3d
       0.078384824 0.25502202 -0.005788151 0.102609314
0001e0 c8 21 87 be 0b 6b c3 3d 45 4f 41 be 52 aa 71 be
       -0.2639296 0.09541901 -0.18877895 -0.23600128
0001f0 4a 31 89 bf 49 f0 58 bf 9b 6f 69 be e0 41 79 bd
       -1.0718167 -0.84741646 -0.2279648 -0.06085384
000200 c5 e8 20 3f 38 9f ad be 84 11 92 be fd e0 c5 be
       0.6285518 -0.33910537 -0.28528988 -0.38648215
000210 dc 52 fc be 2c 11 0d bf d7 c1 57 3e 56 7a e8 bd
       -0.49281967 -0.5510433 0.21070038 -0.11351459
000220 cf 2e fe 3e 98 73 82 3e 0c ea 5b be 3d 98 8d bf
       0.49645087 0.25478816 -0.21476 -1.1062084
000230 5e 6f 04 bf 86 5f ff be 08 55 5a bf 93 98 73 bd
       -0.5173243 -0.49877566 -0.85286 -0.059471678
000240 76 e4 e9 3c 29 61 b0 be 1d da 8d be 52 ea 90 be
       0.028551321 -0.34449127 -0.2770547 -0.28303772
000250 01 59 1f bd 77 4a 98 be af 4a c9 3e a0 59 da be
       -0.03890324 -0.29744312 0.39314792 -0.42646503
000260 bd a8 7c 3e 00 20 20 3e 6a 6a 5d be b2 5d b7 ba
       0.24673744 0.15637207 -0.21622625 -0.0013989715
000270 36 1f c0 bc ad 3d 09 3c e4 0c 1d 3f e4 e5 48 bd
       -0.023452383 0.008376521 0.61347795 -0.049047366
000280 90 71 91 bc ff 29 06 bf 62 e0 79 be cd 92 c0 be
       -0.017754346 -0.5240783 -0.24402002 -0.37612
000290 a4 a1 d4 be 95 6d 2d bf ba 01 17 bf 1c fb b4 be
       -0.41529572 -0.67745334 -0.5898701 -0.3534783
0002a0 bc 1f 9b bc b9 91 9b 3e 07 89 a0 be d0 90 9d 3e
       -0.01893603 0.30384615 -0.31354544 0.30774546
0002b0 62 0e 28 3e 0f bb 0a 3f f6 9e 59 be bd a9 37 3d
       0.16411737 0.5419168 -0.21252045 0.04483961
0002c0 6a 73 53 3d 22 bd bc 3e e8 15 c6 3e 8a a6 d7 3d
       0.05162374 0.36863047 0.38688588 0.10529812
0002d0 95 db 8c 3e 91 3a d2 3d 3a f8 b0 3e 50 57 58 3e
       0.27511278 0.10265077 0.34564382 0.21127057
0002e0 20 f9 41 3b 3f ab 94 be a7 85 0e bf 46 1e ca bb
       0.0029597953 -0.290369 -0.5567269 -0.0061681597
0002f0 bf 9e a2 bf 75 c5 87 bf a4 8a 13 bd da 48 fe bd
       -1.2704695 -1.0607134 -0.03602089 -0.12416239
000300 e9 f2 15 be 29 0f b2 be b7 d5 55 3c bf 16 00 be
       -0.14643444 -0.3477719 0.013051442 -0.12508677
000310 17 5b 8f be ff 39 21 bf 33 ed cb 3d a2 8d af be
       -0.27999184 -0.6297912 0.099573515 -0.34287745
000320 89 d1 8d be 1f ef d4 bd 50 29 52 be 39 bd 68 3e
       -0.27698925 -0.10397171 -0.20523572 0.22728433
000330 e1 16 1f be 0f 1e d0 bc c9 17 40 bd dc a1 15 3d
       -0.15536071 -0.025404958 -0.046897683 0.036531314
000340 0b 38 93 bd 9f 08 95 be 74 9e 01 bf 93 bc 6e bd
       -0.07188424 -0.2910814 -0.50632405 -0.058285307
000350 88 e8 70 bf be d0 ac bc 45 f4 a5 be e0 7f 97 be
       -0.94104815 -0.02109563 -0.32412925 -0.29589748
000360 92 15 a8 be 59 d7 56 bd 05 7f a3 bd 13 93 55 3e
       -0.32828957 -0.052451465 -0.079832114 0.20856886
000370 e5 8b ea bc 09 c6 2d bf 75 49 c6 be e2 66 37 be
       -0.02863116 -0.678803 -0.38727918 -0.1791034
000380 2f 2a 9f 3e eb 53 b9 be 10 ea 70 3e 12 2e b3 3e
       0.3108687 -0.36196837 0.23526788 0.34996086
000390 2c 8c 00 bd 99 69 a2 be a3 e5 55 be b1 3f 63 3e
       -0.03138368 -0.3172119 -0.2088838 0.22192265
0003a0 ef 6a e5 be 8e cd d7 bd 84 78 b0 3c e9 c3 47 bf
       -0.44808146 -0.10537253 0.021541841 -0.7803331
0003b0 43 cc d8 be 87 ff fa be bb 2a b2 be 40 b3 70 3e
       -0.4234334 -0.49023077 -0.34798226 0.23505878
0003c0 95 e2 64 3e 13 f6 86 3e 9c 0c 5d 3d ac 39 c5 be
       0.22352059 0.26359615 0.053967103 -0.38520563
0003d0 1c d4 01 be 2e 92 5e bf f9 92 e5 be 1d f3 70 be
       -0.1267857 -0.869418 -0.44838694 -0.2353024
0003e0 81 0e 38 be 1f d5 53 3e 10 b4 1c bf e2 12 37 be
       -0.17974283 0.20686768 -0.61212254 -0.17878297
0003f0 6c 31 e4 be 4a 68 d2 be 68 55 c6 3e 66 8b 8a 3e
       -0.44568956 -0.4109519 0.38737035 0.27059478

gnn.convs.1.nn.lins.0.bias f4 [16]
000000 87 d6 36 3e 24 87 e7 3b 13 27 04 be fe 0b cb 3e
       0.17855273 0.0070656706 -0.1290553 0.39657587
000010 8e 78 c4 3d 49 06 38 be 4c bb fb 3d 1a 82 f6 bd
       0.095933065 -0.17971148 0.122915834 -0.12036534
000020 de 08 9e bd 2e 92 91 be ab ae d3 be b6 18 26 3e
       -0.07716535 -0.2843184 -0.413442 0.16220364
000030 44 86 f5 be 99 cf a1 bc 22 19 ec be 39 f9 30 be
       -0.47954 -0.01975231 -0.46112925 -0.17282571

gnn.convs.1.nn.lins.1.weight f4 [16, 16]
000000 0c 85 08 3d e3 21 89 3e 1b a0 69 3e b7 e0 3f bf
       0.03333001 0.26783666 0.22814982 -0.7495226
000010 80 6b 0e 3e 11 82 0b 3e 1a 68 be 3e 18 66 f6 bd
       0.13908195 0.13623835 0.37188798 -0.120311916
000020 f0 6c 87 3e fd 2d d8 3e 61 d7 be be 5c b3 9b 3d
       0.264503 0.42222586 -0.37273696 0.076025695
000030 60 35 61 3e c7 50 9c 3e 01 5e ac 3e 7c f1 19 3f
       0.21993017 0.30530378 0.3366547 0.601341
000040 8f 60 aa 3d 42 cc 61 3e fc b3 eb bc d4 5c 1b be
       0.08319198 0.22050574 -0.028772347 -0.1517213
000050 16 8e 65 3e cd 32 6c 3d de 72 34 3e 2c f3 8e 3d
       0.22417483 0.057665635 0.17621943 0.06979975
000060 bb 13 01 3f d9 4e 39 3d fd 3e a0 be 14 c7 b2 bb
       0.5042073 0.04524121 -0.31298056 -0.005455861
000070 99 87 b4 3d c3 a1 cd 3e 7d 87 86 3e a6 b6 04 3d
       0.08814926 0.40162477 0.26275244 0.03240075
000080 45 6f b7 3d ad c5 27 be cc 2d fb 3d f4 9b b0 bc
       0.0895677 -0.16384001 0.122645944 -0.02155874
000090 99 0b 6f be 6d 86 fc 3b e3 49 fe be 8b 79 9c be
       -0.23344268 0.0077064545 -0.49665746 -0.3056148
0000a0 4c 38 13 bf a8 40 44 be 93 8d 0a be e8 b9 80 3e
       -0.5750778 -0.1916529 -0.13530569 0.25141835
0000b0 f1 b4 bc bb 4a 4f 91 be d8 1e e4 be ac 03 ef 3d
       -0.0057588746 -0.28380805 -0.44554782 0.11670622
0000c0 61 56 90 3e f6 18 9a 3e bb be 41 be 83 5b 8b bf
       0.28190902 0.3009717 -0.18920414 -1.0887302
0000d0 68 1a 89 3e f2 1f 23 3e 01 e0 fa 3e 66 55 ad 3c
       0.2677796 0.15930155 0.48999026 0.021158885
0000e0 f9 9e 6e 3e e7 d3 04 3e 4e bc 9e bc 16 a0 8f 3e
       0.23302831 0.1297146 -0.0193769 0.28051823
0000f0 f1 c8 67 be 33 af 5a 3e f8 b9 08 bd 43 15 69 3e
       -0.22635247 0.21355896 -0.03338048 0.22762017
000100 15 04 9f be 70 55 87 be 98 0e 7e 3e 59 08 38 be
       -0.31057802 -0.2643237 0.24810255 -0.17971934
000110 0e 23 81 be d8 47 3d be 94 86 5a be 6c 28 cb be
       -0.25222057 -0.18484437 -0.213404 -0.39679277
000120 a2 4b 3c 3e 97 ff d2 bc 87 70 68 be 95 2a 67 bc
       0.18388227 -0.02575664 -0.22699176 -0.014109273
000130 b8 13 0b 3e 6d 66 98 bd 2b 3b 87 bd 1c a2 01 bd
       0.13581741 -0.07441411 -0.06603082 -0.03164874
000140 68 81 22 bf 19 8a 88 be fb 91 4d be 9d f0 40 3c
       -0.6347871 -0.2666786 -0.20075218 0.011776117
000150 7b 82 3d be b2 e5 c4 3e ac a0 87 be ed 32 3d bd
       -0.18506806 0.38456494 -0.2648977 -0.046191145
000160 04 78 e6 be 56 5a 95 3e fe a2 11 bd 4e e0 b2 be
       -0.4501344 0.29170483 -0.035555832 -0.34936756
000170 bb db 43 3e 6b c8 b0 be a2 9b 16 bf 76 93 e9 3e
       0.1912679 -0.34527907 -0.58831227 0.45620316
000180 79 2e 84 3d 10 2c b4 3e ec 1d 4d 3f 80 61 a3 bd
       0.064541765 0.35189867 0.8012378 -0.07977581
000190 87 55 02 3d 06 85 81 3c 42 f6 70 3e e4 87 5a 3e
       0.031819846 0.0158105 0.2353144 0.213409
0001a0 cb 35 8e 3e f6 3e 90 3e fc db 0a bf 82 63 b1 3d
       0.27775416 0.28173035 -0.5424192 0.08661558
0001b0 63 ec 14 bf c1 d7 c5 be 94 a2 cb 3e 9a e1 ac 3c
       -0.581732 -0.3864117 0.39772475 0.021103669
0001c0 9a bf 6b be df ab 15 bd 96 97 84 3e a7 ab 6c bd
       -0.23022309 -0.036540862 0.258969 -0.057780888
0001d0 13 b6 a8 be cc 73 af 3d c0 0e a5 bc 4c e6 b4 bd
       -0.32951412 0.085670084 -0.020148635 -0.08832988
0001e0 f1 b5 a5 bd fe 63 a9 3d f8 3e 1a bd b7 cb a9 bd
       -0.08091343 0.08271025 -0.037657708 -0.08290809
0001f0 d4 a3 7d bd 94 ba ba be b9 75 31 be 07 76 97 be
       -0.061923817 -0.36470473 -0.17330064 -0.29582235
000200 53 c9 eb be 14 79 1a be 35 42 cc bd cd 02 04 be
       -0.46052036 -0.1508525 -0.099735655 -0.12891693
000210 18 7f bf be ba f5 db 3d 06 50 9a bf 46 0b 21 be
       -0.37401652 0.10740228 -1.2055671 -0.15726957
000220 60 e7 15 be 64 d1 7e be 19 bc 17 bf 1f bd 21 bf
       -0.14639044 -0.24884564 -0.5927139 -0.631792
000230 75 bd 9d be c2 f9 59 bd 63 ac 13 3d a1 36 a9 bd
       -0.30808607 -0.053216703 0.036053073 -0.08262373
000240 d6 e4 49 bd a2 d1 ac 3e 8f 46 2e 3f b1 5e 5d bf
       -0.0492905 0.33753687 0.68076414 -0.8647261
000250 d1 d0 8b 3e eb 62 b3 be ae f4 81 3e 28 3d 02 3e
       0.27307752 -0.35036406 0.25381988 0.12718642
000260 24 d3 db 3e 89 14 aa 3e c8 00 0f bf 17 45 1f 3d
       0.42934525 0.33218792 -0.5586057 0.03888425
000270 82 49 3d 3e 1f 56 5e 3e c3 db 92 3d 1a 99 df 3e
       0.18485072 0.2171254 0.071708225 0.43671495
000280 05 d3 51 3d 19 df f0 3d e3 d9 56 bc bb e0 3e bf
       0.051226635 0.117613025 -0.013113472 -0.7456166
000290 94 19 bb be a5 db b2 be ca 59 4d bd fe 59 a6 3d
       -0.36542952 -0.349332 -0.050134458 0.081226334
0002a0 79 80 4a bd 73 95 ba 3c 93 24 9f 3d 93 eb 19 be
       -0.049438927 0.022776341 0.07770648 -0.1503127
0002b0 f0 4c 5f 3e 08 97 08 be a4 f8 87 3e f0 70 2a be
       0.21806693 -0.13338864 0.26556885 -0.16644645
0002c0 67 f5 6f 3e 52 9c c3 3d bf 3f da 3d 5c 6a 91 be
       0.23433457 0.095513 0.1065669 -0.28401458
0002d0 dd d0 78 3e 04 85 38 3e 4e 56 5b 3d 52 a5 81 3e
       0.24298425 0.18019491 0.053549103 0.25321442
0002e0 c2 8c b9 bd ff 88 3d 3f 39 32 85 bd 97 04 0d 3e
       -0.090600505 0.74037164 -0.0650372 0.13771282
0002f0 0f ba e4 bc 56 bc 21 bd 4d a1 9f 3e 7a 2d 4d be
       -0.02792075 -0.03948625 0.3117775 -0.20036879
000300 e4 ea 99 be e3 0a dd be 70 c9 1f 3e 48 09 2c be
       -0.3006202 -0.43172368 0.15604186 -0.16800416
000310 91 39 2e be fb 29 68 bb bd 8d db bc 56 9b 56 be
       -0.17014147 -0.0035425413 -0.026800985 -0.20957693
000320 ef 8d 59 be c6 48 b7 be 6e d0 bd be 89 40 a7 3c
       -0.2124555 -0.3579771 -0.37073082 0.020416515
000330 80 70 ea 3b ae cf 28 bd 21 53 c1 3d 1e 31 62 3d
       0.0071545243 -0.041213684 0.09439684 0.055222623
000340 c3 a1 57 3e 05 6f 15 3e af 11 48 3b 5a 90 2e bf
       0.21057801 0.14593132 0.0030528118 -0.68189013
000350 54 43 a0 3e 2d 33 47 bd 6e 01 ab 3c 50 ab 88 3d
       0.31301367 -0.04863279 0.020874705 0.066733
000360 6f 6e 78 3d 85 dc a0 3e 42 e8 ad bc 21 69 13 3e
       0.060652193 0.31418243 -0.021228913 0.14395572
000370 bd aa eb 3d 62 f9 de bd 1c 66 c2 3e 78 ad 12 be
       0.11507175 -0.1088741 0.37968528 -0.14323986
000380 20 7b 4f 3e f3 04 91 be 35 52 39 3e df 28 1a bf
       0.20261812 -0.28324088 0.18097766 -0.60218614
000390 3b 8e 89 3e c7 ff 25 bd a2 13 c9 be b4 d6 1b 3e
       0.26866326 -0.04052713 -0.3927279 0.15218621
0003a0 fc 71 2e be 16 bd 84 bc f0 1f f3 be 2a 2f 23 3e
       -0.17035669 -0.016203444 -0.47485304 0.1593596
0003b0 2c 30 15 3c ed e9 89 bd 63 68 1f 3e 54 23 c2 bd
       0.009105723 -0.06734071 0.15567164 -0.094793946
0003c0 5a fb c3 bd 80 29 83 be 90 d4 0f 3e 1b 38 3f bf
       -0.09569426 -0.256176 0.1404593 -0.74694985
0003d0 5f 1b bc be e8 da 82 3d 2d e7 0f be 4a 1c 72 3e
       -0.36739632 0.06389409 -0.1405303 0.23643604
0003e0 bb 83 80 bd 0d fc a0 bd ce 74 05 be 0e 3e a8 be
       -0.062751256 -0.07860575 -0.13032839 -0.32859844
0003f0 1d 6b 0b 3d 71 95 0e 3e 62 1f 87 3e ab a8 89 be
       0.034037698 0.13924195 0.2639113 -0.26886496

gnn.convs.1.nn.lins.1.bias f4 [16]
000000 4b 12 28 3d 34 dc cf bc fb 52 70 be de 5f 86 3e
       0.04103307 -0.025373556 -0.23469155 0.26245016
000010 25 e4 70 be cd f4 86 be a8 6c 94 bd e0 91 b1 bd
       -0.2352453 -0.26358643 -0.07247287 -0.086704016
000020 9a d0 31 3f 75 a7 0f 3d 74 5a 69 bd c6 db dd 3d
       0.69458926 0.03507181 -0.05697103 0.10832934
000030 88 77 a3 be 38 01 97 3e ef 9f 9e bc a2 f1 0d 3e
       -0.31927133 0.29493117 -0.019363372 0.13861707

gnn.convs.2.nn.lins.0.weight f4 [16, 16]
000000 1f f2 38 bd 16 bd 53 bd bb c9 17 bd b9 84 90 be
       -0.04515278 -0.051694 -0.03705762 -0.2822626
000010 61 2e b8 bd 45 da 0e be 42 08 ac be 4f f4 f3 bd
       -0.08993221 -0.1395045 -0.3360005 -0.119118325
000020 59 0f 5b bd 77 29 4e be b6 f7 0c bd 99 c3 91 3c
       -0.053481434 -0.20133005 -0.034415923 0.017793464
000030 10 6a 89 3e cb db 2b 3d 2a 73 1e bd bb 28 45 3e
       0.26838732 0.041957658 -0.038684048 0.19253819
000040 1f c1 4a 3d 2e bb a1 be 2b 05 bb be 07 e6 85 be
       0.04950058 -0.3158812 -0.3652738 -0.2615206
000050 b4 c3 cf 3e 90 ff 1d be 81 80 d8 be cc d8 0d 3e
       0.40578997 -0.1542952 -0.4228554 0.13852233
000060 68 7c e1 bd f5 b1 f1 bd 14 a2 bb 3e 79 c7 37 be
       -0.11010057 -0.11801521 0.36647093 -0.17947187
000070 b8 06 65 3d fa 4b 91 be 95 68 2e be de b4 08 3c
       0.05591461 -0.28378278 -0.17032082 0.008343903
000080 99 18 8c bd 89 f3 c7 bd b5 82 1d bd 4b 8e 80 b9
       -0.06840629 -0.097632475 -0.03845473 -0.0002452008
000090 3f 8b 18 bd e9 93 dc be 26 4a a9 be cb 43 f0 bd
       -0.03724217 -0.43081596 -0.33064383 -0.117316805
0000a0 e6 16 61 be 11 ac 2f be 25 be f9 bc 72 06 e6 bd
       -0.21981391 -0.17155482 -0.030486176 -0.11231698
0000b0 37 e2 7c 3e 93 92 c1 3c b5 4e 84 3d 25 64 41 bd
       0.24695669 0.023629462 0.06460325 -0.047214646
0000c0 0f f0 13 bf 2c fe f6 be ca d9 6f 3e af 3e cc bd
       -0.57788175 -0.48240793 0.23422924 -0.099728934
0000d0 04 3b 89 be 43 07 01 bf 2e 4b 42 bf d1 f5 08 3e
       -0.26802838 -0.50401706 -0.75895965 0.13375022
0000e0 c5 90 b3 3d 46 a4 98 be 51 ae 29 be a1 cb bf bc
       0.08767847 -0.2981283 -0.16570403 -0.023412528
0000f0 c4 cd 18 be 98 68 0f be a1 1d ec 3d 3f 20 84 be
       -0.14922243 -0.14004743 0.11529089 -0.25805852
000100 68 87 8a bc 44 d5 93 be c6 bf e4 3d 61 99 06 be
       -0.01691027 -0.28873646 0.111693904 -0.13144447
000110 36 24 65 39 4c f8 cb be 7e 90 39 bf 90 c3 36 bd
       0.00021852631 -0.39837873 -0.724861 -0.044620097
000120 b5 d1 f6 be 99 23 65 bc f2 7e 4b be 0b bb 2f bd
       -0.4820687 -0.013985538 -0.19872645 -0.042902987
000130 9e d8 27 3e 21 a0 a1 bd 6f 61 a6 bd 99 d8 8d bd
       0.16391227 -0.0789187 -0.08124053 -0.06926078
000140 ef 0d 4d bf b6 2d 20 3d dd 15 f9 bd bc e4 6f bd
       -0.80099386 0.039106093 -0.12162373 -0.058567747
000150 51 60 98 be d5 4d 8f 3e 97 82 41 be 6a 85 8f 3d
       -0.29760984 0.2798907 -0.18897472 0.070078686
000160 c7 53 78 be c8 c7 7b be d1 f0 0f bf 40 a2 aa be
       -0.24250709 -0.24587929 -0.5622683 -0.33326912
000170 ab 1a 8c be 06 7e 11 be 6b 01 0a bf fe 32 ea 3d
       -0.27364096 -0.1420823 -0.53908414 0.11435507
000180 13 34 a0 be 1d 9b ca bd 01 c9 38 bd 73 9e d4 bd
       -0.3128973 -0.09892867 -0.045113567 -0.10381784
000190 fe e1 a4 3d d1 05 0c be 59 05 0d bf 73 37 90 bc
       0.08050917 -0.13674094 -0.55086285 -0.017604565
0001a0 c7 86 38 bd cf 3b ec 3c fa ab 10 3e 6d b3 d7 bd
       -0.04505041 0.028837113 0.14128104 -0.105322696
0001b0 98 bc 45 3b 83 ca 59 3d 4b 93 e5 bd 84 63 fe 3b
       0.0030172225 0.053171646 -0.112097345 0.007763328
0001c0 f8 79 ce be 5c 4d fc 3c 8a 00 5d be 8f 5d 72 be
       -0.4032743 0.030798607 -0.21582237 -0.23668502
0001d0 1e b5 01 be e8 1d bc be a8 71 67 be 6f 46 74 bc
       -0.12666747 -0.36741567 -0.2260195 -0.014909371
0001e0 45 d7 62 bd ae 14 ca 3d 6b cd 0f bc 2d 4e 5d be
       -0.05538108 0.098672256 -0.008777003 -0.21611853
0001f0 2c 3a 16 bc 01 a0 25 3d 75 c1 a4 bd 02 c7 25 be
       -0.009169143 0.040435795 -0.080447115 -0.16189197
000200 22 bd 94 bd c5 53 0a 3e 77 28 90 3d 7f 33 8d be
       -0.07262637 0.13508518 0.07038968 -0.2757835
000210 86 6f 37 be ac d9 c0 be 2c e9 d8 be ef 72 24 3e
       -0.17913637 -0.3766607 -0.42365396 0.16059469
000220 c4 a0 8a 3e e7 41 0c bf 6d 87 96 3e 42 a2 f5 bc
       0.2707578 -0.5478806 0.29400197 -0.029984597
000230 25 6b 1d 3e 48 a5 82 be 01 da a4 bd 38 94 30 3e
       0.15372904 -0.25516725 -0.080493934 0.17244041
000240 b1 ac 96 3e 02 a2 c1 be 7c cf b7 bd f0 a9 47 be
       0.29428628 -0.37818915 -0.089751214 -0.1949842
000250 c6 f4 22 be 26 2d cf bc 59 6e 9f 3e d4 aa e2 bd
       -0.15913686 -0.025290083 0.31138876 -0.11067739
000260 56 c0 86 be e2 81 5c 3e 71 33 05 be 63 8c ae be
       -0.26318616 0.21533921 -0.13007905 -0.34091482
000270 3a b3 6f 3e 08 04 7c 3d d1 eb 59 be 2d d4 06 be
       0.23408213 0.061527282 -0.21281363 -0.13166876
000280 f1 1d 5f bf 84 58 04 be d9 5e c6 3d 69 c6 89 be
       -0.8715506 -0.12924391 0.096860595 -0.26909187
000290 69 ec bc be 29 ca ad be d7 c9 9d 3e 33 a1 0b 3e
       -0.36899117 -0.33943298 0.30818054 0.13635711
0002a0 21 2d bf bc 48 ea 2b 3b 51 fb e5 3d 2d 1c 30 be
       -0.023336949 0.0026232172 0.112295754 -0.17198248
0002b0 31 ec 15 3e 6d 7b 16 be a4 3b 03 be 20 28 c2 be
       0.14640881 -0.1469552 -0.1281572 -0.37921238
0002c0 3b d9 2c bd 6d 87 b9 bc c3 e7 bc 3d f3 8d e4 bd
       -0.042199355 -0.022647584 0.092238925 -0.11159887
0002d0 e6 32 11 3e fb 11 d1 be 7b a7 44 3b f1 b8 fe 3c
       0.14179572 -0.4083403 0.0030007053 0.031094046
0002e0 9d 80 b3 be 5a c4 be bd e3 bd c1 3d 83 08 8c be
       -0.35059062 -0.09314795 0.09460046 -0.27350244
0002f0 37 66 17 be c8 5e f2 bc 05 94 eb bd 52 73 76 be
       -0.14785086 -0.02958621 -0.11502842 -0.24067429
000300 b1 2c 5e bd 03 9f c2 be 90 50 cb bd 23 7e bb be
       -0.05424184 -0.3801194 -0.099274755 -0.36619672
000310 a4 d5 15 be 29 49 80 be bf 49 a1 be d3 90 1b be
       -0.14632279 -0.25055817 -0.31501576 -0.15191965
000320 0b a6 87 be 63 5e 91 be 6c d3 d1 3d de c1 5c be
       -0.26493868 -0.28392324 0.10245404 -0.2155833
000330 98 6c 66 3d ce 7f 28 be a6 e1 37 3d 58 5e 6c bd
       0.056255907 -0.16455004 0.04489293 -0.05770716
000340 9a 69 d7 bd 3f 74 d0 be 98 88 99 3e d9 47 9c 3d
       -0.10518189 -0.4071369 0.29987025 0.07630891
000350 b7 fe 3c 3e cf 64 da be cd f4 23 be 15 e1 20 bd
       0.18456541 -0.42655036 -0.16011353 -0.039277155
000360 78 10 41 be 41 a1 40 be 37 65 a3 bd 47 fa 2b be
       -0.18853939 -0.18811513 -0.079782896 -0.16794692
000370 0e 3a b7 3c 60 e9 41 bc 36 e9 32 be a7 63 a3 be
       0.02236655 -0.011835426 -0.17471775 -0.31911966
000380 ab 47 ba bd d2 04 39 be d8 b0 18 be 51 ba 7a bd
       -0.09095701 -0.18068245 -0.1491121 -0.06121284
000390 54 34 d1 3d 96 13 2a be fc f1 c8 bd 61 3d a4 bd
       0.10215059 -0.16609034 -0.0981178 -0.080195196
0003a0 9b da 95 bd 37 08 a0 bd dd 88 b5 3d 36 6a 9e be
       -0.07317086 -0.07814067 0.08863995 -0.30940408
0003b0 43 17 f5 3c 6f 23 76 bd c8 b0 76 be a3 9a f5 3d
       0.029918319 -0.060092386 -0.24090874 0.11992385
0003c0 12 51 4a bf 1f c4 8c 3e 83 16 7a 3e a3 c3 a9 be
       -0.79029953 0.2749338 0.2442265 -0.3315707
0003d0 0d 19 e0 bd dd ce 4a 3c a2 12 82 be 6f 79 ac 3e
       -0.10942278 0.012378422 -0.2540484 0.33686396
0003e0 a5 fb f4 be cd 73 20 3d 83 7b 6e 3e b9 7e 29 be
       -0.4784824 0.039172936 0.23289303 -0.16552247
0003f0 b4 61 fb 3e f7 58 8d be b6 31 18 bd 09 3d a7 bd
       0.4909798 -0.27606937 -0.037156783 -0.081659384

gnn.convs.2.nn.lins.0.bias f4 [16]
000000 7a 34 21 be 32 ea 34 3d 54 ce 48 bd 57 57 5d 3e
       -0.15742674 0.04416866 -0.049024895 0.21615349
000010 cb 67 64 3e e5 ea f6 be 69 d0 63 3e a1 d3 ba 3e
       0.22305219 -0.48226085 0.22247471 0.36489585
000020 b7 d6 b4 bd e1 7b 85 bd ea 43 b5 be d2 00 94 bd
       -0.08830016 -0.06517769 -0.35403377 -0.07226719
000030 cb 0b c7 bd af 51 ec 3d bf ea 9c be f9 a0 a8 be
       -0.09719046 0.115390174 -0.30647847 -0.32935312

gnn.convs.2.nn.lins.1.weight f4 [16, 16]
000000 3b 40 91 be ff c8 b7 3e 13 4c bc 3d cb bb 8d be
       -0.28369316 0.35895535 0.091941975 -0.27682337
000010 eb 98 f5 3b 99 15 7c 3b 70 ad 73 be 88 aa f8 3d
       0.007495036 0.0038465022 -0.2379663 0.12141901
000020 df cf 3e bd 34 b6 4d be 4b e6 37 bd 01 d0 b2 3d
       -0.04658496 -0.20089036 -0.04489736 0.0873108
000030 89 c1 72 be 34 48 04 be a9 c7 42 be d6 1d c6 be
       -0.2370664 -0.12918168 -0.19021477 -0.38694638
000040 25 62 91 3d 02 45 86 bd 12 6b 2f be 7e 4f 48 bd
       0.07098798 -0.06556131 -0.17130688 -0.048903935
000050 17 31 df 3c c0 94 03 bf 86 eb 84 be 17 b9 18 bf
       0.027245088 -0.5139885 -0.2596094 -0.59657425
000060 da 8c a1 bd b1 de c2 3d 81 4c 20 3e 37 db 0d 3c
       -0.078881934 0.09515131 0.15654184 0.008658222
000070 e0 83 5b 3d 39 6d dd be ed 66 ea bd f4 fa 28 bf
       0.053592563 -0.43247393 -0.11445413 -0.66007924
000080 e1 51 ff bd 38 38 be 3d 6a b0 68 be 7e 7f 4b be
       -0.12466789 0.092880666 -0.22723547 -0.19872853
000090 6f 03 15 3e 19 8c 43 be 79 7c 01 3e 1b f4 8a bc
       0.14552091 -0.19096412 0.12645139 -0.016962102
0000a0 fe 91 64 bd 9d 26 c1 bc 63 6a 8d 3e e8 41 a1 3d
       -0.05580329 -0.023577983 0.2762023 0.07873899
0000b0 2f 54 32 3b 85 0e 0f bd 7e 35 65 be 21 40 47 bd
       0.0027210822 -0.034925956 -0.22383687 -0.048645142
0000c0 55 b2 f3 3c 77 37 4f 3e 95 d8 93 be 5c de 4a bc
       0.029748121 0.20236002 -0.28876176 -0.012382116
0000d0 da 96 c1 3d 2a a0 8b be 57 da 9e be c5 d5 fc bd
       0.09452601 -0.27270633 -0.31025955 -0.12345461
0000e0 07 05 17 3d c3 89 a1 3d 00 5e a0 3c 25 9a 4d 3e
       0.03687003 0.07887604 0.019576073 0.20078333
0000f0 fe df 14 3e f3 5c fd 3d 09 70 d3 3d 50 03 34 be
       0.14538571 0.12371244 0.103241034 -0.17579389
000100 72 0e 19 3e 77 13 8c bd 70 e7 9a 3d 0a 4f 98 3e
       0.14946917 -0.0683965 0.075636744 0.29747802
000110 3a f7 b0 bc ff 74 c2 bd 75 c4 e4 3d 61 dc 75 bb
       -0.021602262 -0.094949715 0.11170284 -0.003751539
000120 fb fd 51 be bc 74 18 be 13 12 f5 bc 33 c7 9c 3d
       -0.20507042 -0.1488828 -0.029915845 0.07655182
000130 33 c5 73 be 5d fb 64 3c b9 b7 df 3d 44 f9 aa bd
       -0.23805694 0.013975945 0.10923714 -0.08348325
000140 2d dd 3d be 5e 31 7c 3e 92 6d 11 bd c8 5b 8c 3e
       -0.18541403 0.24628207 -0.035504885 0.27413774
000150 4b 4a 34 3f 8b 46 21 bf d9 c2 55 3e e6 1a 24 3e
       0.7042586 -0.62998265 0.2087511 0.16025886
000160 e2 b7 7c 3e 08 fe 27 bf 71 43 9c bd ea 6c f2 3d
       0.2467952 -0.65621996 -0.07630051 0.1183718
000170 af eb 9f 3c f8 a3 f3 bc 0c 22 30 3e 91 f0 df 3e
       0.019521562 -0.029741272 0.17200488 0.43738225
000180 eb ec 24 3c 77 84 86 bd b3 19 49 3e a6 d9 59 be
       0.010066251 -0.065682344 0.1963871 -0.21274433
000190 03 24 79 bd 21 9f 43 be 81 a6 1c 3c 78 7d 16 3e
       -0.06082536 -0.19103672 0.009561182 0.146963
0001a0 7c 1a 68 3d 15 52 d7 3d f9 b5 79 3d 37 54 04 be
       0.056665882 0.10513703 0.06096456 -0.1292275
0001b0 46 f5 6a 3e a3 d6 ed be 25 84 9a bd 2f c8 6e 3d
       0.22945127 -0.46452817 -0.07544736 0.05829638
0001c0 20 57 c2 bb 75 32 61 3d 79 86 89 3d 2d ef a3 bd
       -0.0059307963 0.05497976 0.06715102 -0.080046035
0001d0 6e 4b 0d bd b6 22 04 ba db dd f5 3c 8c a4 c7 3d
       -0.034495763 -0.0005040573 0.030013015 0.09748182
0001e0 19 45 95 be a4 bd e4 39 be f7 a1 be 02 bc 60 be
       -0.2915428 0.00043628842 -0.31634325 -0.2194672
0001f0 a5 d4 10 bd 93 d6 b1 bd c6 23 9b bd 46 18 24 be
       -0.035359044 -0.08683505 -0.075751826 -0.16024885
000200 9b fd a9 bd 5c cf d1 bd 80 18 d3 bd b6 77 b3 be
       -0.083003245 -0.10244629 -0.103074074 -0.3505227
000210 0c d0 4e bd 02 3c 13 3d 0f b7 cd be f0 ec a9 be
       -0.050491378 0.0359459 -0.40178725 -0.3318858
000220 9b 7c b8 be 5a 65 87 be 9f 10 e6 be 50 ff a4 3c
       -0.36032566 -0.26444513 -0.44934556 0.020141274
000230 4a 35 09 be 40 d8 c5 be b2 e0 09 3e 2c 0b ba 3d
       -0.13399234 -0.38641548 0.1346462 0.09084162
000240 26 b5 a3 3c 3e 4b e9 3e 07 9d 12 3e 06 7c e6 3d
       0.01998384 0.45565218 0.14317714 0.11254124
000250 8e d3 51 be 61 e0 a0 bd 20 61 53 bc 5d ab 1b 3e
       -0.20490858 -0.07855297 -0.012901574 0.15202089
000260 27 0d 8b 3e b5 26 3b be c7 12 f6 bd a4 d1 45 be
       0.27158472 -0.18276484 -0.120153 -0.19318253
000270 0a 6b 1d 3d 90 b0 75 be 51 6c 38 3e 28 bf 1c 3e
       0.03843216 -0.23993134 0.1801007 0.15307295
000280 aa 42 2e 3d f2 b8 37 bd be fd c6 3d 15 d8 d7 3c
       0.042544045 -0.044854112 0.09716366 0.026348153
000290 82 1f 74 bd 4d 8a 25 be 2f 48 48 3e ab 48 b9 3c
       -0.05960036 -0.16166039 0.19558786 0.022617659
0002a0 b8 be e7 bb 63 f4 2a be 6f 10 db bd 13 7e 83 bd
       -0.007072296 -0.16694789 -0.10696494 -0.06420531
0002b0 03 5f 2d be 7c f4 d8 3d 77 01 62 3e ae bf 4f be
       -0.16930775 0.10593507 0.22070871 -0.20287964
0002c0 29 e4 07 3e 6e 2c ad be 2b 1e 78 bc 89 06 21 3e
       0.1327063 -0.3382296 -0.015143911 0.15725149
0002d0 32 71 3f be 8d 78 89 3e 4c dd 8e 3d 86 81 a3 3d
       -0.18695524 0.26849785 0.06975803 0.07983689
0002e0 15 7b ff be ab b1 89 3d 5c 9d df 3d 5b 4c ed bd
       -0.49898592 0.067233406 0.10918686 -0.11586829
0002f0 fe d4 1e 3e 7f 6b b2 be e3 6a e7 bd a0 14 34 be
       0.15510938 -0.34847638 -0.11299684 -0.17585993
000300 4c c7 11 bf 03 75 5e be c1 16 ef bc 81 97 7e be
       -0.5694473 -0.21724324 -0.029185655 -0.24862482
000310 e4 86 cd bd 37 bc 5b 3d c3 f2 a7 be 72 64 97 bd
       -0.10035494 0.053646293 -0.328024 -0.07392205
000320 06 38 80 be 07 19 25 bf 99 4c d1 be 39 9a b8 bd
       -0.25042742 -0.64491314 -0.40878752 -0.09013791
000330 b2 e9 53 be 5e ed a5 bd 28 7a fd bd e8 57 fd bd
       -0.20694616 -0.08101915 -0.12376815 -0.123702824
000340 e0 72 2e bc b9 a8 16 bd 4d b4 cf be 56 39 a4 3d
       -0.0106475055 -0.036782 -0.40567246 0.080187485
000350 a2 e2 90 be 2b 61 90 be c8 5d f2 bd 58 48 f1 bd
       -0.28297907 -0.28199133 -0.118342936 -0.117813766
000360 ea 36 47 bd 9e 5c b1 bd 53 da 03 be a7 58 5f be
       -0.048636355 -0.086602435 -0.12876253 -0.21811162
000370 d9 65 15 3e 29 bc 9d be 42 a7 01 bd cf d2 1b be
       0.14589633 -0.30807617 -0.03165365 -0.15217136
000380 d4 c5 99 be 6c bb 6d 3d 09 e7 1c 3e c9 3e ba 3d
       -0.30033743 0.058040068 0.15322508 0.090940066
000390 87 d4 9b bd 0e 3b 00 be c0 43 67 3d 0f 8c c5 be
       -0.07608896 -0.12522528 0.056461096 -0.3858342
0003a0 29 5f eb be 55 b3 9f bd 4a 93 20 bc bf 7e 14 3e
       -0.4597104 -0.07797877 -0.009800741 0.14501475
0003b0 09 8c 8c 3c 87 ac e2 bd 1f cf 2b bb c7 f3 b2 3c
       0.017156618 -0.11068063 -0.0026215983 0.021844758
0003c0 7d 09 09 be 74 c9 ac be 7c bc a0 3c 94 ee 23 3d
       -0.13382526 -0.33747447 0.019621126 0.040022448
0003d0 6b 0a 81 bd 43 f0 0c be 19 d9 7f bd de b0 63 be
       -0.06300815 -0.13763528 -0.0624629 -0.22235438
0003e0 dc ee 2a be 15 08 06 be d2 30 a5 bd a0 25 47 be
       -0.1669268 -0.1308902 -0.08065952 -0.19447947
0003f0 da 2c 28 be a3 71 6d bd 01 1e dd 3d 8f ae 12 be
       -0.1642336 -0.0579697 0.107967384 -0.14324401

gnn.convs.2.nn.lins.1.bias f4 [16]
000000 f4 ed 50 be 2e a8 90 be 8a bf 2d 3d b9 76 e4 bc
       -0.20403272 -0.2825331 0.042418994 -0.027888643
000010 34 1f e0 bc 61 e8 c3 bd ce 51 72 3d 68 08 63 be
       -0.027358629 -0.09565807 0.059160046 -0.22171175
000020 22 89 01 bf a2 5d 75 be 26 61 ae 3c 29 9a 08 be
       -0.50599873 -0.239615 0.021286558 -0.13340057
000030 e6 fd 47 bf 52 5a 22 bc 8a 1b cd bd ae 5f 23 be
       -0.78121793 -0.009909229 -0.10015018 -0.15954468
