Run_GIN_ModelCheckpoint_EvFr_2/NCI1_reps_2_folds_5_epochs_20_2023-04-26_11-05/rep_1_fold_1/checkpoints/model_trial_1.ckpt (torch, 245261 bytes, 86 tensors)

gnn.convs.0.nn.lins.0.weight f4 [32, 37]
0	0xbd50b0d3	-0.050949883
1	0x3d2cec89	0.042217765
2	0xbe1e45d2	-0.15456322
3	0x3dbfc66e	0.09364019
4	0xbe4471ff	-0.19184111
5	0x3c9d7791	0.019222053
6	0x3d50bf42	0.050963648
7	0xbe246197	-0.16052853
8	0xbd030163	-0.031983744
9	0xbe30c1ec	-0.17261475
10	0xbdeaf068	-0.11471635
11	0xbd96225e	-0.07330774
12	0xbe0f3c5c	-0.13987869
13	0xbe3d6af7	-0.18497835
14	0xbdeca918	-0.115556896
15	0xbdd18af7	-0.102315836
16	0xbe01b9be	-0.12668511
17	0x3dbc235a	0.0918643
18	0xbd85183e	-0.064987645
19	0xbddf07ca	-0.108901575
20	0x3eb55b91	0.35421422
21	0xbde1db3c	-0.11028144
22	0xbe24170c	-0.16024417
23	0xbd791426	-0.06081023
24	0xbd7f73f0	-0.062366426
25	0xbeba21fe	-0.3635406
26	0xbe178f38	-0.14800727
27	0xbbb58128	-0.0055390783
28	0x3e2a1a22	0.16611531
29	0xbdb23dbf	-0.087031834
30	0x3ed6629b	0.41872105
31	0x3deb14a2	0.11478545
32	0xbe09093d	-0.1338243
33	0x3e061cd0	0.13096929
34	0x3e1c2386	0.15247926
35	0xbe259b2b	-0.16172473
36	0xbce35a17	-0.02775292
37	0x3d9c4481	0.076302536
38	0xbcddaee3	-0.027060932
39	0x3d01b514	0.03166683
40	0x3da8afe9	0.08236677
41	0xbe6a5391	-0.2288344
42	0x3d9fc244	0.07800725
43	0xbe801fbe	-0.25024217
44	0xbc2101c6	-0.009827083
45	0x3f57004a	0.83984816
46	0x3d3b1e3a	0.045683123
47	0x40020b51	2.0319407
48	0xbe0b4887	-0.13601886
49	0xbd392629	-0.045202408
50	0xbe84b0b3	-0.2591606
51	0x3f2519fd	0.6449278
52	0xbe263d32	-0.16234282
53	0xbdee5269	-0.11636812
54	0x3ef88ff2	0.48547322
55	0x3f865028	1.0493212
56	0x3f6793dc	0.9045999
57	0xbeda0084	-0.42578518
58	0xbe04860a	-0.12941757
59	0x3dbdef06	0.09274106
60	0x3d1fe986	0.039041065
61	0x3fb102b1	1.3828946
62	0x3cc3dfd4	0.02391044
63	0x3d133a63	0.035944354
64	0xbd79e7f6	-0.06101223
65	0xbd8b8875	-0.068131365
66	0x3d9b914a	0.07596071
67	0xbcaa49ed	-0.020787204
68	0xbdb6e3a3	-0.08930137
69	0x3d62ac41	0.055340055
70	0xbcf96419	-0.030443238
71	0xbdae7f82	-0.08520414
72	0xbd641a8f	-0.05568939
73	0xbd311c34	-0.043239787
74	0xbb3dc320	-0.0028955415
75	0xbe206147	-0.15662108
76	0xbbc79bd2	-0.0060915733
77	0xbd879450	-0.06620085
78	0xbdb8d4d4	-0.09024969
79	0xbe075262	-0.1321502
80	0xbe046ad4	-0.12931377
81	0x3e15cb4f	0.14628337
82	0x3f28c46e	0.6592473
83	0xbd17c5fd	-0.03705405
84	0xbdd35944	-0.103197604
85	0x3d51f4e4	0.051258937
86	0xbced14a7	-0.028940512
87	0xbe454190	-0.19263291
88	0x3b8e14c8	0.0043359734
89	0x3cc6b416	0.024255794
90	0xbc6db287	-0.014507896
91	0xbce91622	-0.028452937
92	0x3dbe4432	0.09290351
93	0x3f5254d0	0.82160664
94	0xbe7fb919	-0.24972953
95	0xbea5ca7b	-0.32381043
96	0x3dc450b8	0.095857084
97	0xbcda7d62	-0.026671115
98	0x3f87e2a7	1.0616044
99	0xbd49db37	-0.049281325
100	0xbde083e7	-0.109626584
101	0xbdc685c6	-0.09693484
102	0xbc5645b2	-0.01307814
103	0xbe01af97	-0.12664638
104	0xbcf6e6af	-0.030139295
105	0x3dc1b68b	0.094586454
106	0x3dbd0359	0.09229154
107	0x3c6ce8ad	0.014459771
108	0xbd37fe48	-0.044920236
109	0x3ce9f727	0.028560234
110	0x3e226cb3	0.15861778
111	0x3d5c83cd	0.053836633
112	0xbe80edb3	-0.2518135
113	0xbe9b4964	-0.3032943
114	0xbea96d31	-0.3309112
115	0x3e817e9e	0.25291914
116	0xbe87d79e	-0.2653169
117	0x3cfa6d29	0.03056963
118	0xbbd95b3a	-0.0066331895
119	0x3f86609a	1.049823
120	0x3f298d2e	0.6623105
121	0x4004a42f	2.072521
122	0xbe1d9094	-0.15387183
123	0x3f5feaa4	0.8746741
124	0xbca336cf	-0.019923596
125	0xbde867f3	-0.11347952
126	0x3f5a9d55	0.8539632
127	0x3e596b87	0.21232425
128	0x3ee7aa4a	0.45247108
129	0x3f07f1c1	0.5310326
130	0x3f5608a4	0.83606935
131	0xbe8d9674	-0.2765385
132	0xbeb13ae2	-0.34615237
133	0xbdfc579d	-0.123213984
134	0xbd9667ce	-0.07344018
135	0x3cd5a92f	0.02608165
136	0xbe1d6931	-0.15372159
137	0x3f35722f	0.70877355
138	0x3f2d8c38	0.6779208
139	0xbdb32a76	-0.08748333
140	0x3e101efe	0.14074323
141	0xbd8b47ee	-0.06800829
142	0x3db22dc8	0.08700138
143	0xbe1e1e1d	-0.15441175
144	0x3d47b8ad	0.048760105
145	0xbc436d31	-0.011927889
146	0xbd4749f0	-0.048654497
147	0x3dec7a21	0.11546732
148	0xbf49ae87	-0.7878193
149	0xbee968e4	-0.45587838
150	0x3e2cd990	0.16879869
151	0xbe8c9401	-0.27456668
152	0x3e870b52	0.26375824
153	0xbe9aceef	-0.30236003
154	0xbdde6af8	-0.108602464
155	0x3ecfb7f1	0.40570024
156	0xbe31fc4a	-0.17381397
157	0xbf0726b7	-0.5279345
158	0xbdcd62ff	-0.10028648
159	0xbe52abbe	-0.20573327
160	0xbe15e310	-0.14637399
161	0xbde0c2b8	-0.1097464
162	0xbd1fdd22	-0.039029248
163	0xbb25f92c	-0.002532552
164	0x3d83a533	0.064279936
165	0xbcc2e753	-0.023791945
166	0xbf1adc8c	-0.6049278
167	0xbf223f76	-0.63378084
168	0x3ebda186	0.37037295
169	0x3eae400b	0.34033236
170	0xbe116015	-0.14196809
171	0xbda2db0a	-0.07951935
172	0xbf3573d6	-0.70879877
173	0xbf06d304	-0.52665734
174	0x3e1fe8c5	0.15616138
175	0xbea75aaa	-0.3268636
176	0x3db4c0cd	0.08825836
177	0x3f09cd2d	0.538287
178	0x3c97f11f	0.018547593
179	0xbc61db89	-0.013785251
180	0xbde97319	-0.11398906
181	0xbdad4928	-0.08461219
182	0xbde694df	-0.11258864
183	0xbc018620	-0.007905513
184	0xbe18b0bf	-0.14911173
185	0x3e1a7297	0.15082775
186	0x3c1d5418	0.009602569
187	0xbe247369	-0.1605965
188	0x3f385aa3	0.720133
189	0x3e507c06	0.20359811
190	0xbeaccda9	-0.33750656
191	0x3deab624	0.11460522
192	0xbe01b239	-0.12665643
193	0xbe05483b	-0.13015835
194	0xbe9dc0ac	-0.3081106
195	0x3d009c3a	0.03139899
196	0xbdf9aa08	-0.12190634
197	0xbe0a2c39	-0.13493432
198	0x3f203572	0.6258155
199	0x3d919ecf	0.071103685
200	0xbded68ac	-0.1159223
201	0xbe27c2b1	-0.16382863
202	0xbe203c12	-0.15647915
203	0xbd8e7d4c	-0.06957492
204	0x3d54e2b0	0.051974
205	0x3e05c9fd	0.13065334
206	0xbb5c97c8	-0.0033659805
207	0xbe085990	-0.13315415
208	0xbdacfeee	-0.084470615
209	0x3d9ffa54	0.07811418
210	0xbe470b6b	-0.1943795
211	0x3bd9d78b	0.006648009
212	0xbd673cb4	-0.056454375
213	0xbdb38590	-0.087657094
214	0x3ccd3a57	0.025052233
215	0x3cc00168	0.02343817
216	0xbd9a1559	-0.07523603
217	0x3c8cd57d	0.017191643
218	0xbe25a3ff	-0.16175841
219	0x3d8261fa	0.06366344
220	0x3d398863	0.045296084
221	0xbd7ac9b5	-0.06122752
222	0xbd54196b	-0.051782053
223	0xbdb9e158	-0.09076184
224	0xbeab0110	-0.33399248
225	0xbe1a6483	-0.15077405
226	0xbe2c27c8	-0.1681205
227	0x3e3a22ae	0.18177292
228	0x3e2146c4	0.15749651
229	0x3eb5dbd2	0.35519272
230	0xbd6ddcaf	-0.05807179
231	0x3da81cd5	0.08208624
232	0x3bd5a5bc	0.006520001
233	0xbdc8af25	-0.09799031
234	0xbb91d9f8	-0.0044510327
235	0x3d6ef0b7	0.058335032
236	0x3cab6e0d	0.0209265
237	0xbc02c11d	-0.007980612
238	0xbe110d16	-0.14165148
239	0x3cbd1022	0.023078982
240	0x3d46f3e5	0.04857244
241	0x3e1555d5	0.14583524
242	0x3d7a8ce9	0.06116954
243	0xbe129e21	-0.14318134
244	0xbd850690	-0.06495392
245	0x3c279550	0.01022847
246	0xbe274f22	-0.1633878
247	0xbd54c902	-0.05194951
248	0xbe0ee77f	-0.13955496
249	0x3d39be84	0.045347705
250	0x3f07a54c	0.529866
251	0x3dceab21	0.10091234
252	0x3d60e73d	0.054908026
253	0x3e07b2f6	0.13251862
254	0xbdf871d3	-0.12131085
255	0xbcb7dfaa	-0.022445519

gnn.convs.0.nn.lins.0.bias f4 [32]
0	0xbbf357fd	-0.0074262605
1	0xbe9aac5b	-0.30209622
2	0xbe547ea9	-0.20751442
3	0xbdfef3f5	-0.12448875
4	0xbdd952bd	-0.10611484
5	0xbea5b576	-0.32365006
6	0xbe34f1cf	-0.17670368
7	0xbe07790e	-0.13229772
8	0xbe59cfc2	-0.2127066
9	0xbdc155a8	-0.09440166
10	0x3d142a1d	0.036172975
11	0xbdcf3b53	-0.10118737
12	0xbea44871	-0.32086518
13	0xbe644b20	-0.22294283
14	0xbe62bbe9	-0.22141995
15	0xbed79d94	-0.4211241
16	0xbdf07223	-0.1174052
17	0xbe9eae40	-0.30992317
18	0xbe40f289	-0.1884252
19	0xbe48f10a	-0.19623199
20	0x3e15f1d0	0.14643025
21	0xbe8df635	-0.27726904
22	0xbe5e0ead	-0.21685286
23	0xbcdeda32	-0.027203653
24	0xbe89ce92	-0.26915413
25	0x3df59151	0.119906075
26	0xbeb79cad	-0.35861722
27	0xbd411af7	-0.047144856
28	0xbe180566	-0.1484581
29	0xbc96396b	-0.018337926
30	0xbe41a37a	-0.18910018
31	0xbe3b1a70	-0.18271804

gnn.convs.0.nn.lins.1.weight f4 [32, 32]
0	0xbe4527ab	-0.19253413
1	0xbd6cf610	-0.05785185
2	0x3d606306	0.054781936
3	0x3df836f8	0.121198595
4	0xbe2c6a66	-0.16837463
5	0xbd81fabc	-0.06346652
6	0xbdd114b8	-0.1020903
7	0x3e4aa7d8	0.1979059
8	0xbd21faa3	-0.039545666
9	0x3da1a6d1	0.07893146
10	0x3dd263bf	0.10272931
11	0xbdcae50b	-0.09906968
12	0xbf17d276	-0.5930551
13	0xbe213362	-0.15742257
14	0xbda6a28c	-0.08136472
15	0xbe957d5e	-0.2919721
16	0xbe24762a	-0.16060701
17	0xbd152560	-0.036412597
18	0xbba9b41c	-0.0051789414
19	0xbd945baa	-0.07244046
20	0x3f578703	0.84190387
21	0xbe6bdce0	-0.23033476
22	0x3e16f432	0.1474159
23	0x3f21c033	0.631839
24	0xbe41f9ad	-0.189429
25	0xbe4964b8	-0.19667327
26	0xbea0757b	-0.3133963
27	0x3d043844	0.03228022
28	0x3f0c53a7	0.54815143
29	0xbe335733	-0.17513733
30	0xbdb58550	-0.08863318
31	0xbe3b1f45	-0.18273647
32	0x3e70f0ed	0.23529406
33	0x3c9d5cec	0.019209348
34	0xbe20fd72	-0.15721682
35	0xbf212893	-0.62952536
36	0xbda084f2	-0.07837857
37	0x3ed93699	0.42424467
38	0x3e2dfaba	0.16990176
39	0xbe9a093c	-0.3008517
40	0xbe36e71a	-0.17861596
41	0x3d52c7e9	0.05146018
42	0x3d94e4a0	0.07270169
43	0x3f1fba4b	0.62393636
44	0x3f17fc71	0.5936957
45	0xbdf80604	-0.121105224
46	0xbe9328d9	-0.28742102
47	0xbf089d46	-0.5336498
48	0xbece0407	-0.40237448
49	0x3eb073ff	0.34463498
50	0x3d359303	0.044329654
51	0xbd0420eb	-0.032257956
52	0x3c549052	0.012973862
53	0x3e34deb6	0.17663082
54	0x3dbe5e46	0.09295325
55	0xbd377649	-0.04479054
56	0x3dd71e54	0.105038315
57	0xbe420ff9	-0.18951406
58	0x3f0905c3	0.53524417
59	0xbec3082d	-0.38092175
60	0xbf7c7edb	-0.98631066
61	0xbdf4041b	-0.119148456
62	0x3f34cb2d	0.7062252
63	0x3d22eab6	0.03977462
64	0x3d86ba6e	0.065785274
65	0x3dc806e0	0.09766936
66	0x3e39997d	0.18124957
67	0xbe02a45d	-0.12758012
68	0x3c685b6a	0.014181951
69	0x3dcd1037	0.10012858
70	0xbe151f77	-0.14562784
71	0x3e2c183a	0.16806117
72	0x3de157ec	0.11003098
73	0x3e0e58b6	0.13901028
74	0xbe57c890	-0.21072602
75	0x3db1b281	0.08676625
76	0x3d046c24	0.032329693
77	0xbcf668e4	-0.030079313
78	0xbd344167	-0.044007685
79	0x3c08cc28	0.008349456
80	0xbb16d4b1	-0.0023014958
81	0xbd821cf0	-0.06353176
82	0xbe34d3a8	-0.17658865
83	0xbe168357	-0.1469854
84	0xbe3b6312	-0.18299511
85	0xbdbe20c0	-0.0928359
86	0xbe0897a2	-0.13339093
87	0xbd39cab9	-0.045359347
88	0xbe6cbac9	-0.23118128
89	0xbdaeabab	-0.08528837
90	0xbd885bc0	-0.06658125
91	0xbe4f03a2	-0.2021623
92	0x3db481f5	0.0881385
93	0x3e095157	0.13409935
94	0xbe9b55d7	-0.30338928
95	0x3e0e0abf	0.13871287
96	0x3dd41df7	0.10357278
97	0x3ea71e23	0.3264018
98	0x3e191569	0.14949574
99	0x3e63373c	0.22189039
100	0x3d4e5f20	0.050383687
101	0xbdac4c42	-0.084129825
102	0xbe4468ad	-0.19180556
103	0xbe9ba3f6	-0.3039853
104	0xbdce5121	-0.10074068
105	0x3d1e5bff	0.038661953
106	0x3f271812	0.65271103
107	0xbf19adc8	-0.60030794
108	0x3bd4af43	0.0064906194
109	0xbb265b88	-0.0025384147
110	0x3e6a21ea	0.228645
111	0xbe17386e	-0.1476762
112	0x3f4568e1	0.7711316
113	0x3e4d2321	0.20032932
114	0xbe644305	-0.22291191
115	0x3d8b6622	0.0680659
116	0x3f14be2b	0.58102673
117	0x3e5ddcf8	0.21666324
118	0xbe1f2b64	-0.15543896
119	0x3e82d74e	0.2555489
120	0x3e97ab99	0.29623106
121	0xbf1f841c	-0.6231096
122	0xbe92f825	-0.28704944
123	0x3e30e7b7	0.17275892
124	0x3ed2dbc8	0.41183305
125	0x3e2fac37	0.17155538
126	0xbf469267	-0.7756714
127	0xbe36a43b	-0.17836086
128	0x3c8d8d69	0.017279344
129	0x3da4e44f	0.08051359
130	0xbc0ce12f	-0.00859861
131	0xbdc406f8	-0.09571642
132	0x3d8673fe	0.065650925
133	0x3d6d7768	0.057975203
134	0xbd7892f2	-0.060687013
135	0xbb807b12	-0.003920921
136	0x3cca1c32	0.024671648
137	0xbdb09337	-0.08621829
138	0xbd301570	-0.042989194
139	0xbd83b866	-0.064316556
140	0xbc3cfb19	-0.011534476
141	0xbdd92fa7	-0.10604792
142	0xbdedd5ed	-0.11613069
143	0xbde64148	-0.1124292
144	0x3d07905c	0.033096656
145	0x3b8eee4d	0.0043619038
146	0xbd621998	-0.05520019
147	0xbad60576	-0.0016328532
148	0x3d367193	0.044541907
149	0x3d54b1b8	0.0519273
150	0x3c447470	0.0119906515
151	0xbd3b1afe	-0.04568004
152	0xbdd113e2	-0.102088705
153	0xbda7338c	-0.08164129
154	0xbcc372c9	-0.023858445
155	0xbe06b8ca	-0.13156429
156	0xbcb35af6	-0.02189396
157	0xbdebf76d	-0.11521802
158	0xbe29e749	-0.16592135
159	0x3d975218	0.07388705
160	0x3e0d123c	0.13776487
161	0x3e2b9726	0.16756877
162	0xbe3dad20	-0.18523073
163	0xbe1df094	-0.15423805
164	0xbd84ba23	-0.06480815
165	0x3f396108	0.7241368
166	0x3e9b6bd3	0.303557
167	0xbf0f0de4	-0.5588057
168	0x3e9b382a	0.30316287
169	0x3dc32c98	0.0952999
170	0x3aa94ff9	0.001291751
171	0x3ef12c9e	0.47104353
172	0x3ed7270b	0.42021975
173	0xbdf14284	-0.11780265
174	0x3d9627a0	0.073317766
175	0x3e523d8a	0.20531288
176	0xbdfc4352	-0.12317528
177	0x3e2d1413	0.16902189
178	0xbe081efd	-0.13293071
179	0x3d202e2f	0.039106544
180	0xbe9931a7	-0.29920694
181	0x3d44f858	0.0480884
182	0x3e5b6923	0.21426825
183	0xbecf796e	-0.4052233
184	0x3e316c4e	0.17326471
185	0xbe95c741	-0.2925358
186	0x3ef92e5f	0.4866819
187	0xbdaf4594	-0.08558193
188	0xbe0a18e2	-0.13486055
189	0xbe60fa1e	-0.21970412
190	0x3f5a7ea9	0.8534952
191	0xbd8c7084	-0.06857398
192	0xbdcc071c	-0.099622935
193	0xbeb04437	-0.34427044
194	0xbe8ec079	-0.2788122
195	0xbcd17479	-0.025568234
196	0xbe159405	-0.14607246
197	0xbd17f880	-0.037102222
198	0x3e2ed0b5	0.17071803
199	0xbe890e75	-0.26768842
200	0x3e549ac4	0.20762163
201	0x3d76acc2	0.06022335
202	0xbeb8eb59	-0.36117056
203	0x3e3fb004	0.18719488
204	0x3e5e0b22	0.21683934
205	0xbe3ddb63	-0.1854072
206	0xbe933054	-0.2874781
207	0x3f9cb18a	1.2241681
208	0x3e5f763b	0.21822445
209	0xbd415811	-0.047203127
210	0x3cb02b94	0.021505155
211	0x3dcc3059	0.09970159
212	0x3ebb09f5	0.36531034
213	0x3da009d7	0.07814377
214	0x3df4c850	0.11952269
215	0xbe2f4d5f	-0.17119358
216	0xbefa881a	-0.48931962
217	0xbecaeca1	-0.3963366
218	0x3e8378fa	0.25678235
219	0xbdd0391b	-0.10167142
220	0x3e02c136	0.12769017
221	0xbeeb6b8a	-0.45980483
222	0x3e9bb76c	0.30413377
223	0x3e03cb4b	0.12870519
224	0xbde924e0	-0.113839865
225	0x3dd5d5e6	0.104411885
226	0xbdd732c2	-0.10507728
227	0x3d0e9336	0.03480836
228	0xbe41d173	-0.18927555
229	0xbe2a47de	-0.16628978
230	0x3da1e9f9	0.07905955
231	0xbd9c907a	-0.07644744
232	0x3dd2f8cb	0.1030136
233	0x3dacf514	0.084451824
234	0xbe61b264	-0.22040707
235	0x3d6829e5	0.05668058
236	0xbdff348a	-0.12461193
237	0xbe2fd2af	-0.17170213
238	0xbc72a64e	-0.014810158
239	0x3dc3c76a	0.095595196
240	0x3e1f70ed	0.15570422
241	0xbbd51e9c	-0.006503893
242	0x3e131855	0.1436475
243	0x3e14295a	0.144689
244	0xbd64f5df	-0.055898543
245	0x3ea2771d	0.317315
246	0xbde352fa	-0.11099811
247	0x3db9db51	0.090750344
248	0xbd45db6a	-0.048304953
249	0xbda33e07	-0.07970815
250	0xbe47b574	-0.19502813
251	0xbd50b543	-0.050954115
252	0xbea127fe	-0.31475824
253	0x3d6206fd	0.055182446
254	0x3ce31667	0.027720643
255	0xbdd5b9b1	-0.104358084

gnn.convs.0.nn.lins.1.bias f4 [32]
0	0x3e002801	0.1251526
1	0xbf125f6c	-0.5717685
2	0xbe646b4a	-0.22306553
3	0x3eeca8c3	0.46222505
4	0xbe205220	-0.15656328
5	0xbeed26b4	-0.4631859
6	0xbe6234e0	-0.22090483
7	0xbe78f617	-0.24312626
8	0x3ea34817	0.31890938
9	0xbde730de	-0.112886176
10	0xbd56dd61	-0.052457217
11	0xbc95d8ff	-0.018291948
12	0xbe05313e	-0.13007066
13	0x3ec369b6	0.3816659
14	0xbd81e9a6	-0.06343393
15	0xbe51ed87	-0.20500766
16	0xbe9a1707	-0.30095693
17	0xbe62a39a	-0.22132722
18	0xbde3efc1	-0.11129714
19	0xbeb3581c	-0.3502816
20	0xbdccb5f1	-0.0999564
21	0x3e4117cc	0.18856734
22	0xbea9e041	-0.33178905
23	0xbdc6c72e	-0.09705959
24	0xbe754bb3	-0.23954658
25	0xbe6f8c48	-0.23393357
26	0xbdb069d4	-0.08613935
27	0x3e41cb54	0.1892522
28	0xbdc8de2f	-0.09808003
29	0x3dd4ce22	0.10390879
30	0x3e6d4a6a	0.23172918
31	0xbe495486	-0.1966115

gnn.convs.1.nn.lins.0.weight f4 [32, 32]
0	0xbdd66502	-0.104684845
1	0xbea044b8	-0.31302428
2	0x3daeb556	0.08530681
3	0xbf9eb231	-1.239813
4	0x3caf84ec	0.021425687
5	0xbddbec1a	-0.10738392
6	0x3ed13648	0.40861726
7	0xbdd0b496	-0.10190694
8	0xbf330917	-0.69935745
9	0x3dc5e953	0.09663644
10	0x3de34904	0.11097911
11	0xbe020dbc	-0.12700552
12	0xbe349b6d	-0.17637415
13	0xbf09c28c	-0.5381248
14	0xbd5d00c7	-0.05395582
15	0x3dbb4fe3	0.091460966
16	0x3e93fb16	0.289025
17	0xbe381301	-0.17976
18	0xbc8f5702	-0.017497543
19	0x3e2db683	0.16964154
20	0x3defd20d	0.11709986
21	0xbe990e36	-0.29893655
22	0x3e2c931c	0.16852993
23	0xbe2f2960	-0.17105627
24	0xbf1ad15c	-0.6047571
25	0x3e2c186d	0.16806193
26	0x3af4ad40	0.0018667355
27	0xbf06a525	-0.5259574
28	0x3e44da53	0.19223909
29	0xbf098395	-0.53716403
30	0xbeba65e3	-0.36405858
31	0x3d37e718	0.044898123
32	0x3d4c5fab	0.049895924
33	0xbda2f249	-0.079563685
34	0x3c926f9a	0.017875481
35	0xbdf695ac	-0.120402664
36	0xbe205d77	-0.15660654
37	0xbdf05a64	-0.11735991
38	0xbe2d93f8	-0.16950977
39	0xbe36f121	-0.17865421
40	0x3c56d472	0.013112174
41	0xbd08f814	-0.03343971
42	0xbc3605c1	-0.01110977
43	0xbca43600	-0.02004528
44	0xbcbfeb04	-0.023427494
45	0xbddf9a2c	-0.10918078
46	0x3c33b682	0.010968806
47	0x3da84dcd	0.08217964
48	0xbd7036ad	-0.058645893
49	0xbe00327c	-0.12519258
50	0x3c251e1a	0.010077978
51	0xbe57e2e2	-0.21082643
52	0x3d4c364d	0.049856473
53	0xbe1dc0d6	-0.15405592
54	0x3d9050e1	0.070466764
55	0xbd143597	-0.03618392
56	0x3cc1fc21	0.023679795
57	0x3da32bd0	0.07967341
58	0xbdff039a	-0.12451859
59	0xbe366117	-0.17810474
60	0xbd52bdac	-0.051450416
61	0xbc15e433	-0.009148645
62	0xbe140f6d	-0.1445901
63	0x3a1e9075	0.00060487475
64	0xbe8764d1	-0.26444104
65	0xbc66190c	-0.014044058
66	0xbde85c51	-0.11345733
67	0xbe9f9ed7	-0.31175873
68	0x3db8ad29	0.09017403
69	0xbe6366b6	-0.2220715
70	0x3e2b1c7e	0.16710088
71	0x3da7be67	0.08190613
72	0x3ddef426	0.10886411
73	0x3dc3496c	0.095354885
74	0xbd1129b5	-0.035440166
75	0xbe240ce2	-0.1602054
76	0x3d8a6891	0.06758226
77	0xbe3eb6ec	-0.18624467
78	0xbd67e6d6	-0.056616627
79	0xbddd2de2	-0.10799767
80	0xbe7f5cd3	-0.24937753
81	0xbb290076	-0.0025787628
82	0xbe0cff39	-0.13769235
83	0xbe3f153d	-0.18660446
84	0xbc86bb7f	-0.016446827
85	0xbe5bfcda	-0.21483174
86	0xbdea6810	-0.114456296
87	0xbe08f319	-0.13373984
88	0xbe35d8cf	-0.17758487
89	0xbce77f7f	-0.028259037
90	0xbe124a2e	-0.1428611
91	0xbe3b6cdc	-0.18303245
92	0x3d7b5cd4	0.061367825
93	0xbe841b14	-0.2580191
94	0xbd1dba7b	-0.03850792
95	0x3dac56f0	0.084150195
96	0xbbead089	-0.0071659726
97	0xbe49df7e	-0.19714162
98	0xbc83501e	-0.016029414
99	0xbe9e360c	-0.3090061
100	0xbe12d90b	-0.14340608
101	0xbed490a4	-0.41516602
102	0x3edb1d0a	0.42795593
103	0x3d04d1ab	0.032426517
104	0xbdaa47c9	-0.08314473
105	0x3de2f07b	0.11081024
106	0x3e25ae44	0.16179758
107	0xbd87eec0	-0.06637335
108	0x3d7b2439	0.06131384
109	0xbce4dc54	-0.027937092
110	0xbd30a7df	-0.043128844
111	0x3cb82636	0.022479158
112	0xbe688286	-0.2270604
113	0xba556037	-0.00081396423
114	0xbdf12287	-0.11774164
115	0xbe81e237	-0.253679
116	0x3e9707d1	0.2949815
117	0x3e57a61f	0.21059464
118	0x3e178d97	0.14800106
119	0xbe1f707a	-0.1557025
120	0x3e1988e6	0.14993629
121	0xbc9c1630	-0.019053549
122	0x3d12ed55	0.03587087
123	0x3ea5a3dc	0.32351577
124	0x3d5f3661	0.05449522
125	0x3b6f97ec	0.0036559058
126	0xbe5b5901	-0.21420671
127	0xbd84c79d	-0.06483386
128	0x3dcb21bb	0.09918543
129	0xbe46eeeb	-0.19427077
130	0xbc6219c9	-0.013800093
131	0xbd4da9a6	-0.050210617
132	0x3e05f3ec	0.1308133
133	0xbf157c80	-0.58393097
134	0x3eac7126	0.33680075
135	0xbb80e653	-0.003933707
136	0xbb83c214	-0.0040209386
137	0xbe21cd97	-0.15801083
138	0xbd87a8d4	-0.06623998
139	0x3de1f5ab	0.110331856
140	0x3e1ab864	0.15109402
141	0x3c9c5b6a	0.019086558
142	0xbd95b78f	-0.07310402
143	0x3c82a0dd	0.015945846
144	0xbe792e6d	-0.24334116
145	0xbe04feea	-0.12987867
146	0xbdd7f431	-0.10544623
147	0xbef25fc7	-0.47338697
148	0x3dc3815e	0.09546159
149	0x3da323bd	0.07965801
150	0xbd8115c6	-0.06302981
151	0x3b9bcfa2	0.0047549764
152	0x3e684cb9	0.22685517
153	0xbdc96561	-0.098337896
154	0xbbc79195	-0.006090353
155	0x3e033d3d	0.1281633
156	0x3daebb92	0.0853187
157	0x3db05d97	0.08611601
158	0x3dc905c4	0.09815553
159	0x3e0e3245	0.13886364
160	0xbd4426a2	-0.047888406
161	0x3ecc9960	0.39960766
162	0xbdb5b761	-0.088728674
163	0xbe471501	-0.19441606
164	0xbd5560f8	-0.05209443
165	0xbe56367d	-0.20919223
166	0xbe90d2c5	-0.28285804
167	0x3e037307	0.12836848
168	0x3cb23f9f	0.021758853
169	0x3e64e197	0.2235168
170	0x3b8d9d00	0.0043216944
171	0x3e289796	0.16464075
172	0x3e00d8b1	0.12582661
173	0xbe151477	-0.14558588
174	0xbd3f741c	-0.04674159
175	0xbe3e7ed1	-0.18603064
176	0xbd897034	-0.06710854
177	0x3e5f75e4	0.21822315
178	0x3da29a6f	0.07939612
179	0xbd64aab8	-0.055826873
180	0xbda539c6	-0.0806766
181	0xbe1aa2f3	-0.15101223
182	0xbeb6124b	-0.3556083
183	0x3da97664	0.08274534
184	0xbdb0057a	-0.085947946
185	0xbe0b4958	-0.13602197
186	0x3e7e9a24	0.24863487
187	0xbe8cbb61	-0.2748671
188	0x3c408ada	0.011751855
189	0xbd8f2a28	-0.069904625
190	0x3cd5a360	0.02607888
191	0x3d019a9c	0.031641588
192	0x3e3cbc1e	0.18431136
193	0xbebdb734	-0.37053835
194	0x3e6b26d5	0.22964032
195	0x3c830209	0.015992181
196	0xbc9cadcb	-0.01912584
197	0xbf17d738	-0.5931277
198	0x3e59c186	0.2126523
199	0x3ded7cbb	0.11596056
200	0x3dd86daa	0.10567792
201	0xbc53197e	-0.012884496
202	0x3e18f162	0.1493583
203	0xbe230c71	-0.15922715
204	0xbdd4b823	-0.10386684
205	0x3bda2997	0.00665779
206	0xbdc22b79	-0.09480948
207	0xbc4ac35b	-0.012375678
208	0xbeab2edc	-0.33434188
209	0xbd48ba6f	-0.049005922
210	0x3e381ecd	0.179805
211	0xbe9c442a	-0.30520755
212	0x3d87ac69	0.066246815
213	0x3e255052	0.16143921
214	0x3d046bcc	0.032329366
215	0x3ea549c3	0.32282838
216	0xbe471eac	-0.19445294
217	0x3d8f1b9f	0.0698769
218	0x3e692b51	0.2277043
219	0x3db7e777	0.08979695
220	0x3e878d3c	0.2647494
221	0x3ea8da47	0.32979032
222	0x3d0eacab	0.034832638
223	0x3e2c2929	0.16812576
224	0x3e8f1838	0.27948165
225	0x3e99cb0a	0.3003772
226	0x3cc5e43b	0.02415668
227	0xbeef1b80	-0.46700668
228	0xbda255b1	-0.079265006
229	0x3e3c6253	0.18396883
230	0x3d984686	0.07435326
231	0x3c29ce94	0.0103641935
232	0xbd86cee0	-0.06582427
233	0x3d619a4e	0.055078797
234	0x3d4270da	0.047470905
235	0x3dac95f0	0.08427036
236	0x3dc43fb7	0.09582465
237	0x3d9367a5	0.07197503
238	0x3e390433	0.18068008
239	0x3e6cfba4	0.23142868
240	0x3dfac962	0.12245442
241	0x3b3917a2	0.0028242846
242	0x3dcebd77	0.10094731
243	0x3dfcad01	0.123376854
244	0x3e12bbd1	0.14329459
245	0xbd9f639c	-0.07782671
246	0x3da3c9e1	0.0799749
247	0xbe237c0f	-0.15965293
248	0xbdc1a52e	-0.09455334
249	0x3d06728d	0.032824088
250	0x3d752927	0.0598537
251	0x3de6f8d5	0.1127793
252	0x3bb5497b	0.005532441
253	0x3c939c39	0.018018829
254	0xbe091115	-0.13385423
255	0xbb53f321	-0.003234096

gnn.convs.1.nn.lins.0.bias f4 [32]
0	0x3ec91f62	0.39281756
1	0xbdf30359	-0.11865873
2	0xbe2e3c70	-0.17015243
3	0xbd03f4ad	-0.032215763
4	0x3eaf28e0	0.34210873
5	0xbde4b666	-0.11167602
6	0x3ec8964b	0.39177164
7	0xbe35fec1	-0.17772962
8	0xbdd5e392	-0.10443796
9	0xbe358e88	-0.17730153
10	0x3f146160	0.5796108
11	0x3ee5d75d	0.44890872
12	0xbefba704	-0.4915086
13	0xbdd32348	-0.10309464
14	0xbda1ba6d	-0.07896886
15	0xbe5bc232	-0.21460798
16	0xbe2475f5	-0.16060622
17	0xbea675d8	-0.32511783
18	0xbdaeb381	-0.085303314
19	0x3ee543c0	0.44778252
20	0xbe11589f	-0.14193963
21	0x3eb41922	0.35175425
22	0xbdc38ff8	-0.09548944
23	0xbe25db1d	-0.16196866
24	0x3ed79592	0.421063
25	0x3ec122af	0.37721774
26	0xbe9cc557	-0.30619308
27	0xbd853073	-0.065033816
28	0xbe5fbe74	-0.21849996
29	0x3e5f4ae2	0.2180591
30	0xbd437bf4	-0.047725633
31	0x3ef1233d	0.47097197

gnn.convs.1.nn.lins.1.weight f4 [32, 32]
0	0xbd2cb378	-0.042163342
1	0x3cdf8c59	0.027288603
2	0x3d9fda6a	0.07805331
3	0xbdeaa0b4	-0.11456433
4	0xbe4b0023	-0.19824271
5	0xbd5f01de	-0.05444514
6	0xbe4a380e	-0.19747946
7	0xbe947887	-0.28998205
8	0x3dad14f0	0.08451259
9	0x3d27b899	0.04094753
10	0xbe3a3e82	-0.18187907
11	0xbe591cf3	-0.2120245
12	0xbe95899c	-0.2920655
13	0x3d85510c	0.06509599
14	0xbd2eccc3	-0.042675745
15	0xbe323f75	-0.1740702
16	0xbe2b9431	-0.1675575
17	0x3ecf878c	0.40533102
18	0x3d068b94	0.032847956
19	0xbe4fae83	-0.20281415
20	0xbdfe5f2b	-0.124204956
21	0xbdcf5a0b	-0.10124596
22	0xbdf0dcd4	-0.117608696
23	0xbd99a1ab	-0.07501539
24	0xbe806143	-0.25074205
25	0xbcd7d993	-0.026348865
26	0x3d99894d	0.07496891
27	0xbcbfff78	-0.023437247
28	0x3c497827	0.012296713
29	0x3bc599aa	0.006030281
30	0xbe51bc35	-0.20481952
31	0xbe04bbd4	-0.12962276
32	0xbddfaa40	-0.109211445
33	0xbe0afb00	-0.13572311
34	0x3d944789	0.07240207
35	0xbd3659ba	-0.044519164
36	0xbe49e978	-0.19717968
37	0xbd8e620c	-0.06952295
38	0xbe08b5d1	-0.13350607
39	0xbdab79a3	-0.0837281
40	0xbc3b0a94	-0.011416096
41	0xbe099a92	-0.1343787
42	0x3d4f49d2	0.05060751
43	0xbccb922b	-0.024849972
44	0x3d51998a	0.051171817
45	0xbe1a94c0	-0.15095806
46	0xbddfd816	-0.10929887
47	0xbe646747	-0.22305022
48	0x3d53292f	0.051552948
49	0xbdc5187c	-0.09623811
50	0xbc1c01f2	-0.009521948
51	0xbd03c261	-0.032167796
52	0x3e0e2c64	0.13884121
53	0xbe1227d9	-0.14273013
54	0xbe07b045	-0.13250835
55	0xbd9e9433	-0.077431105
56	0xbe3c181d	-0.18368573
57	0x3dee98db	0.116502486
58	0xbd1fe73d	-0.039038885
59	0x3e243b86	0.16038331
60	0x3d7d1f92	0.061797686
61	0xbe824f75	-0.25451246
62	0xbd4f0f6b	-0.050551813
63	0xbe06fb98	-0.13181913
64	0xbf25fbd1	-0.64837366
65	0x3d04275c	0.0322641
66	0x3da422fe	0.08014487
67	0xbd9e67c5	-0.07734636
68	0x3de0f2d3	0.10983815
69	0xbd7055e9	-0.05867568
70	0x3e3030eb	0.1720616
71	0xbd67c8a0	-0.056587815
72	0x3dd62c53	0.10457673
73	0xbcadf01f	-0.021232663
74	0xbf51b66c	-0.8191898
75	0x3e216259	0.15760173
76	0xbd04e8b5	-0.03244849
77	0xbf048585	-0.51766235
78	0x3c494955	0.01228555
79	0xbd1935b2	-0.037404723
80	0x3e18cb65	0.14921339
81	0xbe87495d	-0.2642316
82	0x3d09a331	0.033602897
83	0xbf2e9ad7	-0.68205017
84	0xbda3cf6b	-0.07998546
85	0x3ea9c605	0.3315889
86	0xbe40b094	-0.18817359
87	0xbde2cec4	-0.11074594
88	0x3ea5c65a	0.32377893
89	0x3ebff202	0.37489325
90	0xbc72172e	-0.014776034
91	0xbddb0113	-0.10693564
92	0xbd0c1e92	-0.03420884
93	0xbed4f0b3	-0.4158989
94	0xbe97ba3f	-0.29634282
95	0x3e9d376f	0.30706355
96	0xbdb5d389	-0.08878238
97	0xbe0ae3e7	-0.135635
98	0xbd831622	-0.06400706
99	0xbe02bd64	-0.1276756
100	0xbe787890	-0.24264741
101	0x3ddc5292	0.107579365
102	0xbdf12cd9	-0.11776132
103	0xbe3396b4	-0.17537957
104	0x3bc9b34c	0.006155407
105	0xbd8a2330	-0.06744993
106	0x3d15d6ac	0.03658168
107	0xbddf07ee	-0.10890184
108	0xbbaec473	-0.005333477
109	0xbea301d9	-0.31837347
110	0x3d95f2d0	0.073217034
111	0x3b0798c5	0.0020690423
112	0x3dd54f0a	0.10415466
113	0xbece3d7b	-0.4028128
114	0xbd8ee68b	-0.06977566
115	0x3dc183f4	0.09448996
116	0xbe5b6ab6	-0.21427426
117	0xbcfb6f1c	-0.03069263
118	0xbcd9aa61	-0.0265705
119	0xbe0f468f	-0.1399176
120	0xbe1a8a7e	-0.15091893
121	0xbcce838d	-0.025209213
122	0xbe2df8be	-0.16989419
123	0xbda6a414	-0.08136764
124	0xbc649b6a	-0.013953069
125	0x3df3f456	0.11911838
126	0xbdb31f1d	-0.08746169
127	0xbc4f0dc7	-0.012637562
128	0xbe5fcd68	-0.218557
129	0xbbf9b33e	-0.0076202443
130	0x3e4ed5ef	0.20198797
131	0xbcb5dcd6	-0.02220003
132	0xbd161b92	-0.036647387
133	0x3c4014de	0.011723725
134	0xbe4d0a51	-0.20023467
135	0x3cc16c56	0.023611229
136	0xbd226c7b	-0.039654236
137	0x3e3c18f3	0.18368892
138	0xbcddf267	-0.027093126
139	0xbd14cae5	-0.036326308
140	0x3d11b350	0.035571396
141	0x3db638a9	0.08897526
142	0xbc0aaeb8	-0.008464508
143	0x3e1d0b94	0.15336448
144	0xbce1ef42	-0.027579907
145	0x3cad6c16	0.021169703
146	0xbe2a1f9f	-0.16613625
147	0xbe91c952	-0.28473908
148	0x3d9b02f2	0.07568921
149	0xbdfef7f6	-0.124496385
150	0x3d94ca75	0.07265178
151	0x3cb6e6ce	0.022326853
152	0x3c82a566	0.015948009
153	0x3da20340	0.07910776
154	0xbda52e00	-0.080654144
155	0xbe6d2064	-0.23156887
156	0xbe376449	-0.1790935
157	0xbe851a55	-0.25996652
158	0xbe3c4f75	-0.18389685
159	0xbdb86fb6	-0.09005682
160	0x3dedaedc	0.116056174
161	0xbe0fefe6	-0.14056358
162	0xbde22a9a	-0.11043282
163	0x3ec33296	0.38124532
164	0xbe8e26a1	-0.27763847
165	0x3e9baee3	0.30406865
166	0xbe8ce06f	-0.2751498
167	0x3d356c94	0.044293
168	0x3e675f32	0.22594908
169	0xbd9a5fc1	-0.07537795
170	0xbec873ad	-0.39150754
171	0xbe844183	-0.2583123
172	0x3e92f4a4	0.2870227
173	0x3e6a9cbf	0.22911356
174	0x3e302b76	0.17204079
175	0xbcb7e5f9	-0.022448527
176	0xbdc43ccf	-0.09581911
177	0x3e44f6a2	0.19234708
178	0x3e4d52fe	0.2005119
179	0x3e440767	0.19143449
180	0x3c861b34	0.016370393
181	0xbec30765	-0.3809158
182	0x3df4211a	0.11920376
183	0xbdbb7875	-0.09153835
184	0xbe7f9d8f	-0.24962448
185	0x3cb9af9b	0.022666743
186	0xbe2c96db	-0.16854422
187	0xbbb0c392	-0.0053944075
188	0x3e6c4600	0.23073578
189	0x3e2dd8fa	0.16977301
190	0x3e5d3878	0.21603572
191	0xbe7168a8	-0.2357508
192	0xbdbea57c	-0.093089074
193	0x3cba91c3	0.022774583
194	0x3da645ac	0.081187576
195	0x3ce23275	0.02761195
196	0xbe5f0cc9	-0.21782221
197	0xbe576e68	-0.2103821
198	0xbe44924b	-0.19196431
199	0x39cbe77a	0.0003889164
200	0xbd42892c	-0.0474941
201	0x3d245173	0.04011674
202	0xbe50d0cf	-0.20392154
203	0x3d09d53d	0.033650625
204	0x3d397a8b	0.04528288
205	0xbdbf7db0	-0.09350145
206	0x3db4db03	0.08830836
207	0x3dec57f0	0.1154021
208	0xbd1270ae	-0.03575199
209	0xbc08a7be	-0.008340774
210	0xbdb22f34	-0.087004095
211	0xbe89bf11	-0.26903585
212	0xbd346a87	-0.044046905
213	0xbe5f299a	-0.21793213
214	0x3d3e6cb6	0.046490394
215	0x3d295918	0.041344732
216	0xbe07c82f	-0.13259958
217	0xbdef1b2d	-0.11675105
218	0xbddcf3c0	-0.10788679
219	0xbac22f1c	-0.0014815065
220	0xbe42131d	-0.18952604
221	0xbd8e6186	-0.06952195
222	0x3d0b474e	0.03400355
223	0xbda00902	-0.07814218
224	0x3dd36563	0.10322072
225	0xbe30f9ce	-0.17282793
226	0xbdb59010	-0.08865368
227	0xbe480450	-0.19532895
228	0xbe44bda2	-0.19212964
229	0xbe145360	-0.1448493
230	0xbe31d94c	-0.17368048
231	0xbd2b58ca	-0.041832723
232	0xbe271186	-0.16315278
233	0xbe4be7f9	-0.1991271
234	0x3d9b6bd7	0.07588928
235	0xbdb2ab89	-0.08724124
236	0x3d40a88e	0.047035746
237	0xbe40cbe7	-0.18827783
238	0x3e300944	0.17191035
239	0xbd853b09	-0.06505401
240	0x3d37cad7	0.044871178
241	0x3dbf6364	0.09345129
242	0xbe13a405	-0.14418037
243	0xbdced12c	-0.1009849
244	0x3dabde79	0.08392043
245	0x3de5d3b5	0.112220205
246	0xbe3d79ad	-0.18503447
247	0x3e7bb45b	0.24580519
248	0x3c3b67d3	0.011438328
249	0xbe4db6b5	-0.20089228
250	0x3d791571	0.060811464
251	0x3e1db205	0.1539994
252	0xbe0268ea	-0.12735334
253	0xbdf58860	-0.11988902
254	0xbd79d5b2	-0.06099481
255	0xbd95bde3	-0.07311609

gnn.convs.1.nn.lins.1.bias f4 [32]
0	0x3c5be80e	0.013422025
1	0xbe50e513	-0.20399885
2	0x3e755b19	0.23960532
3	0xbc8318bd	-0.016003007
4	0xbd2620fa	-0.040558793
5	0xbe53a6a8	-0.20669043
6	0x3ce97151	0.028496416
7	0x3c9ff3d8	0.019525453
8	0xbcd8d4bb	-0.026468625
9	0x3e8fda24	0.28096116
10	0xbe01ea57	-0.1268705
11	0x3e8c9e89	0.27464703
12	0x3bf426ae	0.0074509
13	0xbd796dac	-0.060895607
14	0xbe132358	-0.14368951
15	0x3e0042a7	0.12525426
16	0xbe1a16a7	-0.15047704
17	0x3e677dcf	0.22606586
18	0x3dfccefd	0.123441674
19	0x3dcf4a35	0.10121576
20	0xbed76c2d	-0.4207472
21	0x3e9ae9aa	0.30256397
22	0x3ea3f613	0.32023677
23	0x3daa8a0e	0.08327113
24	0x3e596439	0.21229638
25	0xbdf1b732	-0.1180252
26	0x3e492b51	0.1964543
27	0xbe624fad	-0.22100706
28	0xbe41f267	-0.18940125
29	0x3dd291c9	0.102817126
30	0xbe69ea70	-0.22843337
31	0x3e20fc11	0.15721156

gnn.convs.2.nn.lins.0.weight f4 [32, 32]
0	0xbd0668d7	-0.032814827
1	0xbe2af7e0	-0.1669612
2	0x3ed2e62c	0.41191232
3	0x3dda7533	0.10666885
4	0x3d0077fb	0.031364422
5	0xbf41a03e	-0.75635135
6	0x3e1cbe94	0.15307075
7	0xbd1f4d10	-0.038891852
8	0xbe0841fd	-0.13306423
9	0x3dee136c	0.11624798
10	0xbea5d1fc	-0.32386768
11	0x3e0b47ff	0.13601683
12	0x3d675ff2	0.056487985
13	0xbd0d6b7e	-0.03452634
14	0xbe3f1b76	-0.1866282
15	0x3cdf7d4f	0.027281431
16	0x3e2aedde	0.16692302
17	0x3e5b6225	0.21424158
18	0x3e4d5cb8	0.200549
19	0x3de3166a	0.110882595
20	0xbe23b47f	-0.15986823
21	0x3e7909d0	0.2432015
22	0x3e59a6c4	0.21255022
23	0x3d91693e	0.071001515
24	0x3e84c4fd	0.2593154
25	0xbd67de91	-0.05660874
26	0x3ea4d413	0.3219305
27	0x3d8e6410	0.06952679
28	0x3d9b6a1e	0.075885996
29	0xbe79644d	-0.24354668
30	0x3d990d17	0.074732
31	0xbec9e141	-0.39429668
32	0xbd89a9ee	-0.06721865
33	0x3e76a93e	0.24087998
34	0x3d85b1bd	0.065280415
35	0x3e593a48	0.21213639
36	0xbe312bc0	-0.17301846
37	0x3ec2fe0c	0.38084447
38	0x3d67a0f0	0.056549966
39	0x3e3ad544	0.18245417
40	0xbdcdddde	-0.100520834
41	0xbe28fcbd	-0.16502662
42	0xbdb18a2d	-0.08668933
43	0x3da58035	0.08081094
44	0x3ca9581e	0.0206719
45	0xbdff0c04	-0.12453464
46	0xbd946559	-0.07245893
47	0xbed1d14f	-0.40980002
48	0x3e01fa1a	0.12693062
49	0xbe0c92e7	-0.13727914
50	0xbe4c61d2	-0.1995919
51	0x3e3e00fc	0.18555063
52	0xbe0e3318	-0.13886678
53	0xbda68286	-0.08130364
54	0xbdeb007d	-0.114747025
55	0xbd94d63d	-0.07267425
56	0xbe70e08c	-0.23523158
57	0x3d73e385	0.05954315
58	0xbe09c132	-0.13452604
59	0xbd7fab36	-0.06241914
60	0x3e9178fd	0.2841262
61	0xbcd77235	-0.026299575
62	0xba8bfc56	-0.001068006
63	0xbe2d7aa0	-0.16941309
64	0xbe01eca6	-0.1268793
65	0xbea59b6a	-0.32345134
66	0xbeeee88d	-0.46661797
67	0x3e5dbe55	0.21654637
68	0x3e47e523	0.19521002
69	0xbe816689	-0.2527354
70	0xbd662614	-0.056188658
71	0xbdee9156	-0.116488144
72	0xbde6a2a8	-0.11261493
73	0x3ccde95a	0.025135685
74	0xbe202c45	-0.15641887
75	0xbeb3fdb3	-0.35154495
76	0xbdd4f018	-0.10397357
77	0x3e303e81	0.17211343
78	0xbe78ffeb	-0.24316375
79	0x3d8e362f	0.069439285
80	0xbd335e30	-0.043790996
81	0xbe952bf1	-0.29135087
82	0xbe25c7a6	-0.16189441
83	0xbe4ed1e1	-0.2019725
84	0xbe83b0fb	-0.25720963
85	0x3e608ef2	0.2192953
86	0xbeba544f	-0.36392447
87	0x3d4773de	0.048694484
88	0xbe5de1f9	-0.21668233
89	0x3d85124b	0.0649763
90	0x3e071f9d	0.13195653
91	0xbde337eb	-0.1109465
92	0xbe494303	-0.19654469
93	0x3e54c75a	0.20779172
94	0xbc1dd510	-0.009633318
95	0xbe2bb3ef	-0.16767858
96	0x3d807952	0.0627314
97	0xbd1d64f8	-0.03842637
98	0x3ed86963	0.42267904
99	0x3e355faf	0.17712282
100	0x3c0fe2a1	0.00878206
101	0xbe42dfb4	-0.19030648
102	0x3ca308d7	0.019901676
103	0x3bf10c34	0.007356191
104	0x3d4633da	0.048389293
105	0x3ed16e3f	0.40904424
106	0x3da3e43c	0.080025166
107	0x3e9cb29e	0.30605024
108	0x3ce99aca	0.028516192
109	0x3d75bd9d	0.059995282
110	0xbcf989da	-0.03046124
111	0x3e7a94c9	0.2447082
112	0xbd0a9ac2	-0.033838995
113	0x3e1c95ed	0.15291567
114	0x3e971118	0.2950523
115	0x3d6c07ba	0.057624556
116	0xbdb02759	-0.08601255
117	0x3f03b518	0.514482
118	0x3ed5b025	0.4173595
119	0x3c4b9dc2	0.012427749
120	0x3e880c11	0.26571706
121	0xbc3003aa	-0.010743061
122	0x3e6585ab	0.22414272
123	0x3c0e2cd6	0.008677682
124	0x3cfed55e	0.0311076
125	0xbe8f99e0	-0.28047085
126	0xbd9de9b9	-0.07710595
127	0xbe03ad2f	-0.12859033
128	0x3d3b6187	0.045747306
129	0x3ce119e3	0.027478164
130	0x3e74e8d2	0.23916939
131	0xbe6f8957	-0.23392235
132	0x3da5b0a8	0.08090335
133	0x3eac873c	0.33696926
134	0xbe4bb6f5	-0.19894011
135	0xbc90b5fe	-0.017664906
136	0x3dc4fe0e	0.096187696
137	0x3ddbd7a0	0.107344866
138	0xbe5969d3	-0.21231775
139	0x3ea5ad12	0.32358605
140	0xbaf37450	-0.0018574093
141	0xbe1d5953	-0.15366106
142	0xbc67e186	-0.01415289
143	0x3e1365ab	0.14394252
144	0x3da9d68d	0.082928754
145	0x3e8d741a	0.2762764
146	0xbda003bf	-0.078132145
147	0xbe8cc932	-0.2749725
148	0xbf3112f9	-0.69169575
149	0x3ea47775	0.32122388
150	0xbbef24b7	-0.007298078
151	0xbea5f476	-0.3241307
152	0x3dcbe949	0.09956605
153	0xbd876b62	-0.066122785
154	0x3da6a3fd	0.08136747
155	0x3e2fad57	0.17155968
156	0xbe88ac63	-0.2669402
157	0xbe3151c9	-0.17316355
158	0x3d822bd8	0.06356019
159	0xbe57bbe2	-0.21067765
160	0xbdcded01	-0.100549705
161	0xbdeda9ad	-0.11604629
162	0xbe3ed619	-0.1863636
163	0x3de70efb	0.11282154
164	0x3cec4139	0.028839694
165	0xbe22f064	-0.15912014
166	0xbd49b4cd	-0.04924469
167	0xbd97c37c	-0.074103326
168	0x3c2b4ba2	0.010455044
169	0xbd331fd1	-0.043731514
170	0x3cdc27a4	0.02687437
171	0xbc8240e6	-0.015900087
172	0xbd29b3c0	-0.04143119
173	0x3d6c7ed0	0.057738125
174	0xbcac71c8	-0.021050349
175	0xbd32efc0	-0.043685675
176	0xbdc81da2	-0.09771277
177	0xbe592d11	-0.21208598
178	0xbcb2af06	-0.021811973
179	0xbca0c628	-0.019625738
180	0xbda1f0f4	-0.07907286
181	0xbe1fe44b	-0.1561443
182	0xbd77fa1d	-0.06054126
183	0x3ccac405	0.024751673
184	0xbe0d9c23	-0.13829093
185	0x3d8a3fe3	0.06750467
186	0xbcc98f8d	-0.024604583
187	0x3cdd841b	0.027040532
188	0x3a9f8122	0.0012169222
189	0xbe13cb27	-0.14432965
190	0xbde7281f	-0.11286949
191	0xbdb9edeb	-0.090785824
192	0x3cf027aa	0.029315788
193	0xbe06e9a0	-0.13175058
194	0xbe0c04f7	-0.13673769
195	0xbe287885	-0.16452225
196	0xbd8bdb04	-0.06828883
197	0xbdc1713d	-0.094454266
198	0xbdf04591	-0.11732019
199	0xbd88da10	-0.06682217
200	0xbe0d128d	-0.13776608
201	0xbd33fb03	-0.043940555
202	0xbe042249	-0.12903704
203	0xbe376fb7	-0.1791371
204	0xbd0da15b	-0.03457771
205	0x3dac740b	0.08420571
206	0xbe0a13fc	-0.13484186
207	0x3cf87009	0.03032686
208	0xbcd70de9	-0.02625175
209	0xbddacbe2	-0.10683419
210	0x3b59c602	0.0033229594
211	0xbe5f7f14	-0.2182582
212	0xbe6c2ef9	-0.23064794
213	0xbd8b5e5b	-0.06805106
214	0x3cc5f082	0.024162535
215	0xbe3b358b	-0.18282144
216	0xbdfdd3f5	-0.12393943
217	0xbe42a94f	-0.19009899
218	0x3d585a4b	0.052820485
219	0xbd3653d5	-0.044513542
220	0x3bf0e60f	0.007351644
221	0xbdd6dfc1	-0.104918964
222	0xbe1a46d5	-0.15066083
223	0xbe1ee919	-0.15518607
224	0x3eb44e6f	0.3521609
225	0xbe33e9e5	-0.17569692
226	0x3b6eddd0	0.0036448129
227	0x3b8330ce	0.0040036207
228	0x3dc64247	0.0968061
229	0xbde09e92	-0.10967745
230	0xbd1a7660	-0.037710547
231	0xbdeacf35	-0.11465303
232	0xbe127fe2	-0.14306596
233	0x3e04f55c	0.12984222
234	0xbdbb9a2f	-0.091602676
235	0x3debb265	0.115086354
236	0x3d846b9c	0.06465837
237	0xbe2776d8	-0.16353929
238	0xbe8934ad	-0.26798
239	0x3d0f6445	0.035007734
240	0xbb56b197	-0.003275966
241	0xbd08568e	-0.03328567
242	0xbe3c5cdc	-0.18394798
243	0x3c218c98	0.00986018
244	0xbdd23b09	-0.10265166
245	0xbcaff7ca	-0.02148046
246	0xbc9c9db0	-0.01911816
247	0x3d7c716f	0.061631616
248	0xbe4b3a2a	-0.19846407
249	0xbde5082c	-0.11183199
250	0x3c7ce073	0.015434372
251	0x3c909bb6	0.017652374
252	0xbdeaf950	-0.11473334
253	0x3d9eb6b4	0.077496916
254	0xbcba1a81	-0.022717716
255	0xbe5620b1	-0.20910908

gnn.convs.2.nn.lins.0.bias f4 [32]
0	0x3de708d8	0.11280984
1	0xbddc4d21	-0.10756899
2	0xbdd91dc3	-0.1060138
3	0x3dedb9c3	0.11607697
4	0x3e44f518	0.19234121
5	0xbd69107d	-0.05690049
6	0x3cd13859	0.025539564
7	0xbd92572c	-0.07145533
8	0xbdcd29ad	-0.10017715
9	0xbcbbc98a	-0.02292325
10	0x3ccf39c1	0.025296094
11	0xbe047559	-0.1293539
12	0x3e7b7a25	0.24558313
13	0xbdda4cf2	-0.106592074
14	0x3e66e70e	0.22549078
15	0x3f2586ba	0.646587
16	0xbec4d253	-0.38441715
17	0xbe02537a	-0.12727156
18	0x3dfa8964	0.122332364
19	0xbe6e65f7	-0.23281084
20	0x3ede3ff1	0.43408158
21	0xbddebc3a	-0.10875745
22	0x3bbaefd6	0.00570486
23	0xbe18aff8	-0.14910877
24	0x3e00ae2d	0.12566443
25	0xbdbd89de	-0.09254812
26	0x3d4912db	0.049090248
27	0xbd85e860	-0.06538463
28	0x3e74ecbf	0.23918436
29	0xbe042b45	-0.12907131
30	0xbdf0a3f7	-0.11750024
31	0x3e4048a5	0.18777712

gnn.convs.2.nn.lins.1.weight f4 [32, 32]
0	0x3ea78504	0.3271867
1	0x3ddf21fb	0.10895153
2	0xbe1fc5fb	-0.15602867
3	0x3e81e124	0.2536708
4	0xbd3473c1	-0.044055704
5	0xbdf96b5d	-0.12178681
6	0x3e3262f4	0.1742056
7	0x3c546628	0.012963809
8	0x3c9eaf4c	0.019370697
9	0x3e1b85db	0.1518778
10	0x3d3f4905	0.046700496
11	0x3ead383f	0.33831975
12	0x3d865edc	0.06561062
13	0xbe84810c	-0.25879705
14	0x3e1309a3	0.14359145
15	0x3e93aa19	0.28840712
16	0x3db8ab73	0.09017076
17	0x3e154609	0.14577498
18	0xbe168b4d	-0.14701577
19	0x3e38f23b	0.18061154
20	0x3ea8421e	0.32862943
21	0x3b4bc4cb	0.003109264
22	0x3d09b3b0	0.03361863
23	0x3e47992e	0.19492027
24	0x3e6a5e37	0.22887503
25	0xbd0619b1	-0.032739345
26	0x3e4f3c36	0.20237812
27	0xbd9b52e6	-0.07584171
28	0x3e539c39	0.20665063
29	0x3d3c188b	0.045921843
30	0xbd972df5	-0.073818125
31	0x3e44dc3e	0.1922464
32	0x3dffb86d	0.12486348
33	0xbe8d2efc	-0.2757491
34	0x3db60d81	0.088892944
35	0xbdea498d	-0.1143981
36	0xbe642cad	-0.22282667
37	0x3e6044de	0.21901271
38	0xbe6b293d	-0.2296495
39	0xbdc910d5	-0.098176636
40	0xbc2df456	-0.010617336
41	0xbdb1cb3a	-0.086813405
42	0xbc265810	-0.010152832
43	0x3d8b5bf4	0.06804648
44	0xbdfe703c	-0.12423751
45	0xbd394205	-0.045228977
46	0xbe48b72b	-0.19601123
47	0x3e1c7467	0.15278779
48	0xbd680426	-0.05664458
49	0xbd8f24ab	-0.06989416
50	0xbc78eaa2	-0.01519266
51	0x3d6f2670	0.058386266
52	0xbbd412bc	-0.00647196
53	0x3d6eec99	0.058331106
54	0xbd569026	-0.052383564
55	0xbe07baa1	-0.13254787
56	0x3cca8453	0.0247213
57	0x3c5a900b	0.013340007
58	0x3dde045e	0.10840677
59	0xbd3f44c6	-0.046696447
60	0xbe6fe587	-0.23427401
61	0x3dafb0fe	0.085786805
62	0xbe4ea2e3	-0.20179324
63	0xbda1e7c8	-0.07905537
64	0xbd950af6	-0.07277481
65	0x3dff4ad6	0.12465446
66	0x3ed472c6	0.41493815
67	0x3d3e2646	0.04642322
68	0xbf025678	-0.5091319
69	0x3e280733	0.16408996
70	0x3d85ac96	0.06527059
71	0x3d9ea690	0.07746613
72	0x3ed5ebc0	0.41781425
73	0xbcf009b3	-0.0293015
74	0x3d8e636c	0.06952557
75	0xbd215862	-0.03939093
76	0xbe8c22d3	-0.2737032
77	0x3f76daee	0.9642781
78	0xbc87d455	-0.01658074
79	0xbe9de4b2	-0.30838543
80	0x3ebcf2e3	0.36904058
81	0xbe26cdcb	-0.16289441
82	0x3f3b6c2b	0.73211926
83	0x3d8ca397	0.0686714
84	0xbe4b2592	-0.1983855
85	0xbecdfa83	-0.40230188
86	0xbe0ef146	-0.13959226
87	0x3eb678cf	0.35639045
88	0xbee85ec9	-0.45384815
89	0xbc3b2728	-0.01142291
90	0xbdc22d42	-0.094812885
91	0x3dd3e340	0.10346079
92	0xbe7e8723	-0.24856238
93	0xbe52b258	-0.20575845
94	0xbdf27bcc	-0.11840019
95	0xbe8f10f3	-0.2794262
96	0xbe3672c8	-0.17817223
97	0x3dc66616	0.0968744
98	0x3ea7cf78	0.32775474
99	0x3d73bd94	0.059506968
100	0x3ced4f78	0.028968558
101	0x3e1debb0	0.15421939
102	0x3e00870c	0.12551516
103	0xbc3ade9a	-0.011405611
104	0x3ef3a552	0.47587067
105	0x3add69cf	0.0016892495
106	0x3db734c3	0.089456104
107	0x3d71e79f	0.05905878
108	0xbe3d3894	-0.18478614
109	0xbd1ff85f	-0.039055225
110	0xbda114f6	-0.07865326
111	0xba95753d	-0.0011402738
112	0x3f040376	0.5156778
113	0x3dc3255f	0.09528612
114	0x3daa02fa	0.08301349
115	0xbd16eca3	-0.036846768
116	0xbe55116c	-0.20807427
117	0x3dc2a787	0.095046096
118	0xbd6a1eb4	-0.057158187
119	0xbd1614fe	-0.036641113
120	0xbddb5137	-0.1070885
121	0x3d9add76	0.075617716
122	0xbde0e3e9	-0.109809704
123	0xbce9f718	-0.028560206
124	0xbdbff034	-0.09371987
125	0x3de1ffd2	0.11035122
126	0x3e0e6ed1	0.1390946
127	0x3cfe0bac	0.031011425
128	0x3e130f82	0.14361385
129	0xbec71387	-0.38882086
130	0x3e5722d1	0.21009375
131	0x3e879a69	0.26484993
132	0x3df1f87c	0.11814973
133	0xbe0a8eed	-0.13531084
134	0x3df54b8b	0.11977299
135	0xbd06b580	-0.032887936
136	0xbf144360	-0.57915306
137	0x3e77a25d	0.2418303
138	0x3e209f82	0.15685847
139	0x3e87a7fd	0.26495352
140	0x3d69cafa	0.05707834
141	0xbe36cdba	-0.17851916
142	0x3ce08056	0.027404945
143	0x3ecf2ec0	0.40465355
144	0xbe24025c	-0.16016525
145	0x3ba7ea27	0.0051243487
146	0xbe10b17d	-0.14130206
147	0xbe3c8b73	-0.1841257
148	0xbc498aea	-0.012301186
149	0xbe44e9d5	-0.19229825
150	0x3e027c9c	0.12742847
151	0x3e0c62a9	0.13709511
152	0x3e3a111b	0.18170588
153	0x3e086bc0	0.13322353
154	0xbc831324	-0.016000338
155	0x3e1e53d8	0.15461671
156	0x3db2f8bd	0.08738849
157	0xbe6938ff	-0.22775649
158	0xbe3a9dc9	-0.18224253
159	0x3e67f5f0	0.22652411
160	0x3eea4ca8	0.4576161
161	0xbbccf41a	-0.006254685
162	0xbe52c697	-0.20583569
163	0x3eb63feb	0.3559564
164	0x3e7ee172	0.24890688
165	0xbc55bc77	-0.013045422
166	0xbd273e35	-0.04083081
167	0xbd2d4e39	-0.042310927
168	0xbe29a50a	-0.16566864
169	0xbdd20db8	-0.10256523
170	0x3dca43d5	0.09876219
171	0x3e6e36b1	0.2326305
172	0x3e1b0c76	0.15141472
173	0xbcb5f15b	-0.022209814
174	0x3eb70b31	0.35750726
175	0x3eae547c	0.3404883
176	0xbec40018	-0.38281322
177	0xbd4805b5	-0.048833568
178	0xbd305b01	-0.043055538
179	0x3de9b60a	0.11411674
180	0x3e624f2a	0.22100511
181	0xbc81edce	-0.015860464
182	0x3d97c2f1	0.07410229
183	0x3daf3999	0.08555908
184	0x3e9f35ec	0.31095827
185	0xbd970ca9	-0.073754616
186	0x3d4e5418	0.050373167
187	0x3e0553d0	0.13020253
188	0x3e2e5802	0.1702576
189	0x3d38ac19	0.045086
190	0xbd995f60	-0.074888945
191	0x3e6e4dd8	0.23271883
192	0xbe05b382	-0.13056758
193	0xbce25b2a	-0.027631361
194	0x3e24c233	0.16089706
195	0xbd902902	-0.070390716
196	0xbdbb151b	-0.09134885
197	0xbdd1084f	-0.10206663
198	0x3d01f2ec	0.03172581
199	0xbe329e43	-0.17443185
200	0xbdccb31a	-0.099950984
201	0xbdffb9f5	-0.1248664
202	0x3df1a0b2	0.11798228
203	0x3ce637af	0.028102724
204	0xbe26aba0	-0.16276407
205	0xbb2911a7	-0.0025797875
206	0xbc8e6a34	-0.017384626
207	0xbe9578d9	-0.29193762
208	0xbd4bb0b0	-0.04972905
209	0x3df9e9d7	0.122028045
210	0xbdee24f7	-0.11628144
211	0xbe1e4e33	-0.15459518
212	0x3c056a0d	0.00814296
213	0xbe17e503	-0.14833455
214	0xbdb40070	-0.08789146
215	0xbe1e33d2	-0.15449455
216	0x3c9eaee3	0.019370502
217	0xbd295046	-0.04133632
218	0xbd797c7e	-0.06090974
219	0x3db39204	0.08768085
220	0xbe514b08	-0.20438778
221	0xbdb41290	-0.08792603
222	0xbcfb3a4b	-0.030667445
223	0xbdf1affa	-0.11801143
224	0x3cbf3569	0.023340898
225	0xbc1285f5	-0.008943071
226	0xbdc8a04b	-0.097961985
227	0xbde2fc6e	-0.110833034
228	0xbd704244	-0.058656946
229	0x3dc5e679	0.096631
230	0xbdaed344	-0.085363895
231	0xbdb06bb6	-0.08614294
232	0x3cef9a43	0.029248362
233	0xbdb0d6c9	-0.08634717
234	0x3dceb0c1	0.10092307
235	0xbcb45a33	-0.022015667
236	0xbe51b123	-0.20477729
237	0xbdf4b59e	-0.11948703
238	0x3c428074	0.011871446
239	0xbdf2b782	-0.118514076
240	0xbe822528	-0.25418973
241	0x3dd99d99	0.106257625
242	0xbdccc14a	-0.099978045
243	0xbe26f631	-0.16304852
244	0xbe3cce21	-0.18438007
245	0xbe310028	-0.17285216
246	0x3c211f9b	0.0098341955
247	0x3d83711e	0.0641806
248	0xbd6d570f	-0.057944354
249	0x3cdca604	0.026934631
250	0x3dbde612	0.09272398
251	0xbe1f52be	-0.15558907
252	0x3bfbbb7f	0.0076822634
253	0xbd159b0e	-0.036524825
254	0xbaf22dce	-0.0018476786
255	0xbe4ca8f1	-0.19986321

gnn.convs.2.nn.lins.1.bias f4 [32]
0	0x3c3cfbb8	0.011534624
1	0xbdc25b72	-0.09490098
2	0x3e6f7995	0.23386224
3	0xbe28692b	-0.16446368
4	0x3cd598f9	0.02607392
5	0x3e62ca7e	0.22147557
6	0xbe97319e	-0.29530042
7	0xbda37f9d	-0.07983325
8	0xbdb3e61d	-0.08784125
9	0xbe06d500	-0.1316719
10	0x3e5ac4e6	0.21364173
11	0xbd84ba7d	-0.06480882
12	0x3cf9485b	0.03043001
13	0xbdfbf9fa	-0.123035386
14	0x3ab72fa2	0.0013975988
15	0xbe639284	-0.2222386
16	0x3e836acf	0.25667426
17	0xbe658764	-0.22414929
18	0xbe38a4e0	-0.18031645
19	0x3e0a7d70	0.13524413
20	0x3e731af2	0.23740748
21	0x3e1fe85d	0.15615983
22	0xbdd9ad61	-0.106287725
23	0x3e27e9a0	0.16397715
24	0xbdb6d9e1	-0.08928276
25	0x3e94cbb2	0.29061657
26	0xbe5dd2e6	-0.21662483
27	0xbe42b789	-0.19015326
28	0xbe184c9f	-0.14872979
29	0xbe39ed5e	-0.18156955
30	0xbe0d63c7	-0.13807593
31	0xbe65fb15	-0.22459061
