Run_GIN_ModelCheckpoint_EvFr_2/NCI1_reps_2_folds_5_epochs_20_2023-04-26_11-05/rep_1_fold_1/checkpoints/model_trial_3.ckpt (torch, 96717 bytes, 86 tensors)

gnn.convs.0.nn.lins.0.weight f4 [16, 37]
000000 ea 96 df bc 69 11 89 bd 9c 72 54 be 93 7e 12 be
       -0.027293641 -0.06692774 -0.20746845 -0.14306097
000010 b8 49 8e bd 1d da 8b bd fd ea 61 3d c7 37 ac 3d
       -0.069476545 -0.06828711 0.055155743 0.08409076
000020 e4 af e5 3c 2a 12 53 3c 53 76 c3 bd 39 41 1e bd
       0.028037973 0.012882749 -0.09544053 -0.03863642
000030 8a 44 1a be 47 87 2f bd 36 64 09 3d 90 78 4f 3d
       -0.15065208 -0.04285362 0.033542834 0.050652087
000040 82 52 51 bb 20 8e 78 3d 82 2c 9f bd 22 57 6f 3d
       -0.0031940048 0.060682416 -0.07772161 0.058432706
000050 f7 f6 15 be 8d be 0f 3e 58 08 eb bc d6 cd eb 3b
       -0.14644991 0.14037533 -0.028690502 0.0071961684
000060 7c e0 93 b9 9b f6 a8 3d 75 80 1b be d5 bf f0 3d
       -0.0002820528 0.08250161 -0.15185721 0.11755339
000070 95 36 0c be 13 da dc bd 79 08 0c 3d a9 be e9 3d
       -0.13692696 -0.10783782 0.034187768 0.11413319
000080 55 2d d7 bd 5a 02 e0 3d 68 19 88 bb ea 46 0c 3e
       -0.10506693 0.109379485 -0.0041534193 0.13698927
000090 b5 a7 6f 3d 48 24 b6 bd cf 19 4d 3e 71 a9 d7 be
       0.058509547 -0.08893639 0.20029376 -0.4212146
0000a0 c5 f6 e3 bc b5 b4 01 bf e6 7c 49 3d 15 73 09 3d
       -0.02782763 -0.5066636 0.049191378 0.033557016
0000b0 72 e3 db bd 07 fc 15 bc fc 7b 22 be 77 83 52 bd
       -0.10736741 -0.009154326 -0.15867609 -0.051394906
0000c0 95 b8 a1 bc 57 d4 b5 bd 90 33 e5 bd 32 c5 ca bd
       -0.019741336 -0.08878391 -0.111914754 -0.09900893
0000d0 7d 42 9d bd 47 26 cd 3d 2c 23 8f bd 8d 3a 04 bd
       -0.07678697 0.100170664 -0.069891304 -0.0322824
0000e0 07 23 50 3d 88 3d ce bd 49 29 00 be c2 e5 f2 bd
       0.050814655 -0.1007033 -0.12515749 -0.11860229
0000f0 8f cc 87 bd 4c 66 e7 bc 41 17 14 bd d1 45 34 bd
       -0.06630813 -0.028247021 -0.03615499 -0.044011895
000100 81 0f 83 3d c6 54 a9 bd 4d 75 08 be 9a 7a 67 bd
       0.063994415 -0.082681224 -0.13325997 -0.056513406
000110 5e 9e 7a 3d e3 8d 02 be 8a c2 82 3e cd bc 0c be
       0.061186187 -0.12749438 0.25539047 -0.13743897
000120 0e c9 07 3e b0 f0 a4 3e 37 2b 0c 3f 77 dc 28 3f
       0.1326029 0.3221488 0.5475344 0.659614
000130 8f b1 8f be a3 1f 35 3f de e7 47 bf d1 48 1c 3e
       -0.28065154 0.707514 -0.78088176 0.15262152
000140 2f 06 ad 3e 9b 20 f0 3e 39 78 a1 bd c3 61 22 be
       0.3379378 0.46899876 -0.07884259 -0.15857606
000150 44 69 22 bc d9 81 84 3b e0 83 8d bd 4f 43 e4 3b
       -0.009912793 0.0040437994 -0.06909919 0.0069660316
000160 42 52 df bd 58 23 1c be 91 62 ea 3e ad 2b 35 bd
       -0.10904361 -0.15247858 0.45778325 -0.044231106
000170 b2 b1 df bd 1d 08 1c be 6f 4c f7 3b fe fd e0 3f
       -0.109225646 -0.1523747 0.0075469534 1.7577512
000180 21 20 f9 bd b4 67 20 bd 51 95 67 3d a5 35 01 3c
       -0.12164331 -0.0391614 0.056538884 0.007886325
000190 a0 ac b7 be a0 2c e2 3c 83 6f f6 3e 06 49 13 be
       -0.3587389 0.02760917 0.48131952 -0.14383325
0001a0 b0 a7 57 3d e0 5b bd bd 98 6d ee bd 93 6f c2 3b
       0.052650154 -0.092460394 -0.11641997 0.005933711
0001b0 92 0b f6 bd 09 d9 ec bd 18 c6 34 3c 5a 8b 9e bd
       -0.120139256 -0.11564834 0.011033557 -0.07741423
0001c0 c3 15 da 3d ab 0d 8d be 28 0f ec bc ca 08 51 be
       0.10648682 -0.2754949 -0.02881582 -0.20413509
0001d0 e4 b7 7d be 86 ac 99 3e 28 7a 50 bd c5 50 e1 bd
       -0.2477718 0.30014437 -0.050897747 -0.11001734
0001e0 2e 4e 88 bd 9c bc ee bd 33 ba de bd dc f8 07 bd
       -0.066555366 -0.11657068 -0.108753584 -0.033196315
0001f0 b3 c5 32 be e2 a7 cd bd 36 8c 41 bc 96 0f dc bc
       -0.17458229 -0.10041787 -0.011813214 -0.0268629
000200 b8 04 2c bd b4 9a ea bc ef 6c 2d bd 5e e6 b7 bd
       -0.041996688 -0.028638221 -0.042340215 -0.08979486
000210 49 67 b3 bc a9 bc 14 be b1 7b 24 be b4 43 fe bd
       -0.021899836 -0.14525093 -0.1606281 -0.12415257
000220 4d 5a 11 bd c0 e8 02 be 65 79 1a bd f7 11 5d bd
       -0.03548651 -0.127841 -0.037713427 -0.05397221
000230 3b 7d fe bd 0a 21 b2 3e dc f4 12 be 0b e6 e7 bd
       -0.124262296 0.34790832 -0.14351219 -0.11323174
000240 df 17 00 3e 74 90 c2 bd 3c 18 1a bd 46 62 fb 3a
       0.12509106 -0.095002085 -0.037620768 0.0019179068
000250 20 a2 9f 3e dd f3 ca ba c7 e4 98 3e aa 0b 65 3d
       0.3117838 -0.0015484054 0.29862043 0.055919327
000260 11 95 39 3e be 24 48 3e b7 f6 19 be 1a 59 88 be
       0.1812327 0.19545266 -0.1503552 -0.2663048
000270 64 e0 9e 3f c2 83 4b 3f fb 81 31 40 14 d5 74 3f
       1.2412229 0.7949792 2.7735584 0.9563763
000280 85 d2 f6 bd 56 c6 c3 3d 75 a6 a3 bd 5b 62 e6 3b
       -0.12051872 0.09559314 -0.079907335 0.007030768
000290 64 01 31 be ab c5 e1 3f 7c b5 8c 3f 38 7c d4 3f
       -0.17285687 1.7638448 1.0992885 1.6600409
0002a0 d2 dd 23 bf ee 9f 33 bf d1 d5 2d bd be ed f1 3f
       -0.64010346 -0.7016591 -0.04244024 1.8900678
0002b0 05 ce e4 3f 7a 6e 7f 3f 6a 23 f6 3e 06 69 34 3f
       1.7875372 0.9977795 0.48073894 0.70472753
0002c0 bf 41 10 be d0 8d ae be 49 35 23 be 47 ce 1b 3e
       -0.1408758 -0.3409257 -0.15938295 0.15215407
0002d0 da 61 24 be 1a 77 dd bc 76 c2 d5 bd d4 a8 ea bc
       -0.16052952 -0.027034331 -0.10437481 -0.028644957
0002e0 63 55 7d be 3c 93 4b 3c d2 27 f4 3d 2e 32 1c be
       -0.24739604 0.01242524 0.119216576 -0.15253517
0002f0 cb e0 9c be c2 a8 f0 3e 5b 4e 3c 3c 54 ea bc 3d
       -0.30640253 0.47003752 0.011493291 0.09224382
000300 fc ec 2f bc 7d 9c 8e 3f 01 a5 1f 3f af 1f d9 bd
       -0.010737654 1.1141506 0.6236115 -0.10601746
000310 1f e5 4a be 1e 08 8a 3f b2 fe 60 be 39 6a cb 3d
       -0.19813965 1.0783727 -0.21972159 0.0993237
000320 b1 42 81 3f b3 c3 a3 3b b6 5a bb 3f 78 29 55 3f
       1.0098478 0.0049976944 1.4637058 0.832664
000330 46 16 1f 3e a8 e9 63 be a0 e1 92 3d 74 e7 51 3d
       0.1553584 -0.22257102 0.07171941 0.05124612
000340 e1 dc ac bd f7 c1 bc 3f e2 cb 67 be 61 8f 01 3f
       -0.08440567 1.4746693 -0.22636369 0.50609404
000350 e8 37 02 3f 60 a9 18 be df 40 0e be b3 67 c6 bd
       0.50866556 -0.14908361 -0.13891934 -0.09687748
000360 10 90 4c bc 22 da 0d be 1d 5c 2c 3c 07 a4 6b bd
       -0.012485519 -0.13852742 0.010520008 -0.057529476
000370 93 bf 9b bd 8d 3f 84 bd 54 87 bb bf 7e ca 80 bf
       -0.07604899 -0.06457434 -1.4650674 -1.0061796
000380 ec a6 9b 3e c5 a8 1b 3d fb 49 9a 3e c5 f5 65 bf
       0.3040079 0.038002748 0.30134568 -0.8982814
000390 05 43 a5 3e e1 8d 29 be e8 12 62 bf 14 7e cb be
       0.32277694 -0.16558029 -0.883101 -0.39744627
0003a0 c5 9d 4a be 62 f4 85 be c4 45 4c be 94 e3 94 3e
       -0.19786747 -0.26163012 -0.19948488 0.29079878
0003b0 f3 9e 0c be b7 35 51 be bb 16 c7 be a1 85 57 be
       -0.1373251 -0.20430647 -0.3888453 -0.21047069
0003c0 7d 62 5d bf a3 b0 75 bf c8 37 a6 3d 64 e3 61 bd
       -0.86478406 -0.9597265 0.08116108 -0.055148497
0003d0 f6 38 84 3d 63 d5 80 be c8 b2 92 bf 69 5f 33 bf
       0.06456177 -0.251628 -1.146081 -0.7006746
0003e0 c1 07 82 3e 50 3e 2e bf 51 fa 1f 3e d2 4e 90 3e
       0.2539654 -0.6806383 0.15622832 0.28185135
0003f0 40 a7 8a 3e cb 2c 91 bd 1a 81 91 be 0d 6e 1b be
       0.27080727 -0.07088622 -0.2841881 -0.151787

gnn.convs.0.nn.lins.0.bias f4 [16]
000000 00 b0 e0 bd e8 60 6a be 48 75 a1 be 83 3b 15 be
       -0.10971069 -0.2288853 -0.3153479 -0.14573483
000010 dd 67 0d bf 8c 96 af bd 3e 77 26 3d e0 fc 45 3e
       -0.5523661 -0.085736364 0.040641062 0.19334745
000020 b0 e8 bf 3c 3d cc 6b be fa 4b 00 be 74 90 52 be
       0.023426384 -0.2302713 -0.12528983 -0.20562917
000030 9e 45 a4 3e e1 1e 53 bd 28 bd 28 be 96 ab b3 be
       0.32084364 -0.05154312 -0.16478407 -0.35091847

gnn.convs.0.nn.lins.1.weight f4 [16, 16]
000000 64 a1 90 bd c0 c9 91 3d 37 bc 0b be b3 fb 12 bd
       -0.07062033 0.07118559 -0.13646017 -0.03588457
000010 30 19 15 be 9d 84 9b be ff 9d 59 bd b0 49 3a be
       -0.1456039 -0.30374613 -0.053129192 -0.18192172
000020 c0 23 15 3e 58 3c 71 3d e9 d7 60 be 68 51 c5 3d
       0.14564419 0.05889544 -0.21957363 0.09634668
000030 40 4d 7c be b2 ac 0c 3e 08 39 72 bd 9d a4 4f be
       -0.24638844 0.13737753 -0.05913642 -0.20277639
000040 55 39 a1 3d 9c 4e a6 bc 67 36 cb be 12 65 1b be
       0.07872263 -0.020301156 -0.39689943 -0.15175274
000050 d2 49 59 3e 1f 84 ea 3e 0b a1 5a bf 2f a9 85 bf
       0.21219566 0.45803925 -0.8540198 -1.0442256
000060 c5 aa d1 3e 58 92 f7 bd 54 9d 9b 3b 59 d0 f3 bd
       0.409506 -0.1208846 0.0047489796 -0.119049735
000070 d7 33 a7 3e 9a ef 66 3e 12 3f b9 3c cd c2 0e 3e
       0.32656738 0.22552338 0.022613082 0.13941498
000080 2e 32 bb be d5 ef 40 3e 94 33 35 bf 76 68 1b be
       -0.36561722 0.18841489 -0.70781827 -0.15176567
000090 b7 6c d8 3e 9e 2b c3 3d b1 5f 3e bf f9 7b 44 bf
       0.42270443 0.09529804 -0.74364763 -0.7675167
0000a0 b1 bd 19 3f b0 60 c7 3d e0 87 92 bc 83 28 38 be
       0.6005507 0.097352386 -0.017887056 -0.17984204
0000b0 22 c2 51 3f d3 0e 5d 3e 64 55 42 3d 4d 9e d8 3e
       0.8193685 0.21587686 0.047444716 0.42308274
0000c0 8a d8 19 be 3b 36 80 3d 48 3a 90 bd 5b 3a 11 be
       -0.1502401 0.06260344 -0.07042366 -0.14182417
0000d0 1c 36 c3 bd 7a 44 43 be be 66 b6 3d 54 05 22 bd
       -0.09531805 -0.1906909 0.08906315 -0.039555863
0000e0 f6 a7 1e 3e 5e 18 2b 3d b3 4b 13 be 67 de e4 3d
       0.1549376 0.041771285 -0.14384346 0.111752324
0000f0 80 75 b4 3c ca 48 31 be c4 fa cb bd bf 25 ec 3c
       0.022028685 -0.17312923 -0.09959939 0.028826592
000100 24 aa b8 3d 67 3f 32 bd 30 9c 6f bf 3e 85 5e bd
       0.09016827 -0.043517496 -0.935977 -0.05432629
000110 a0 08 9e 3e 7e 15 99 3e a3 26 0d bf a8 88 4b bf
       0.30865955 0.2989921 -0.5513708 -0.79505396
000120 23 dc bf 3e 71 bd 1d be 40 db 4d be 92 1a 46 3e
       0.37472638 -0.15404297 -0.20103168 0.19346073
000130 b1 e3 73 3f 5d 32 a8 3e c9 09 26 bd 90 20 9a 3e
       0.95269305 0.32850924 -0.040536676 0.30102968
000140 ec f0 bf bd 04 be da be 21 c8 4f bf 25 0e a3 be
       -0.09372124 -0.42723095 -0.8116475 -0.3184673
000150 99 f7 6f 3e 0f 47 a4 3e 0f c7 3f bf 01 55 fe be
       0.23434295 0.32085463 -0.74913114 -0.49674228
000160 c9 23 24 bd 08 5b 0f bd b9 3c 2a be 2b e9 7f bd
       -0.04007319 -0.034998924 -0.16624726 -0.062478226
000170 a5 17 44 3f 38 58 51 3e d5 c7 0a 3e 65 93 83 3d
       0.7659858 0.20443809 0.13552792 0.06424598
000180 24 83 8d 3d d0 06 3f 3e 18 2b 4b bd e8 63 25 bd
       0.06909779 0.18654943 -0.049601644 -0.04037848
000190 2e 7d 49 bd a0 86 0e be 0d 12 3c be d4 5e 2b be
       -0.049191646 -0.13918543 -0.18366261 -0.16735393
0001a0 cd e1 5f bd 24 ab e6 bd 37 32 2e bd fc ee 9c bd
       -0.0546587 -0.11263111 -0.042528357 -0.0766277
0001b0 a3 8e 45 3b da 12 bc 3d cc 62 cd bd 59 ac 5f be
       0.0030144833 0.09183283 -0.1002861 -0.21843089
0001c0 27 b1 9e 3d d9 5b 37 be 80 d3 15 bf f1 7a 71 3b
       0.07748633 -0.17906131 -0.5852585 0.003684696
0001d0 2a e1 08 3f f9 c6 b1 3d 34 07 59 bf ed db 2e bf
       0.53468573 0.08680529 -0.84776616 -0.6830433
0001e0 25 97 56 3f 6e ae 33 bd 96 6b 81 be df fc 4b 3d
       0.8382438 -0.04386752 -0.25277394 0.049801704
0001f0 c8 a5 80 3f 34 6a 9c 3e 10 f7 48 bd f7 6f b2 3e
       1.0050592 0.30549777 -0.049063742 0.34851047
000200 18 b1 fb bd e5 5a 17 bd 54 d4 2f be a9 eb 89 bd
       -0.12289637 -0.03695192 -0.1717084 -0.06734402
000210 1a c8 84 be 00 15 9b bc 59 da 51 3c 18 b3 9f be
       -0.25933915 -0.018930912 0.012808406 -0.31191325
000220 52 1d e9 bd fd e0 22 3e 0f bf dd 3d b6 82 20 be
       -0.113825455 0.15906139 0.10827457 -0.15674862
000230 c9 d6 0c 3c 34 8b 20 bd 36 4f 53 3e 8d 3b 4a bd
       0.008596131 -0.039195254 0.20635685 -0.0493732
000240 1f 5d ae bd ad 21 8d be c2 ed 59 bf dc f9 f5 3b
       -0.08513855 -0.27564755 -0.85128415 0.007506592
000250 d6 21 a5 3e 75 88 5d 3e d8 a8 31 bf b9 d3 31 bf
       0.32252377 0.21634085 -0.6939826 -0.6946369
000260 93 37 5f 3e c4 f9 b4 3c 3e e8 41 be 77 32 0e 3d
       0.21798544 0.022091754 -0.1893625 0.034716096
000270 64 12 9c 3f b9 8e 92 3e 33 4b 82 bd 4f f8 c2 3e
       1.2193112 0.28624514 -0.06361999 0.3808007
000280 2e 49 79 3d 27 d5 47 3e 46 7c 49 bf 46 6a fe bb
       0.060860805 0.19514905 -0.7870525 -0.0077641336
000290 10 3b 5c 3e 41 9f 7b 3e 5f 31 41 be 29 38 80 bf
       0.21506906 0.2457247 -0.1886649 -1.0017139
0002a0 80 2e 5a 3f c4 67 6c 3e 73 36 9b 3e 41 b5 23 be
       0.85227203 0.23086458 0.3031498 -0.15987112
0002b0 52 e4 81 3f 9e c1 9d 3e 24 b8 97 be a0 6c 1f 3e
       1.0147803 0.3081178 -0.29632676 0.15568781
0002c0 e0 26 5f be 34 53 3b 3e b9 a9 22 bf 6e bb 27 be
       -0.21792173 0.18293458 -0.63540226 -0.16380093
0002d0 fd 0b 2c 3e c1 06 60 bd f1 a6 61 bf d7 4c 66 bf
       0.16801448 -0.05469394 -0.8814536 -0.89961
0002e0 70 18 1f 3f 8f 99 40 3e 6a 00 47 3e 3b 90 c3 3d
       0.62146664 0.18808578 0.19433752 0.09548994
0002f0 d1 8e 27 3f d5 e0 07 3f e0 0e 1a bd fa 64 05 3f
       0.65452296 0.5307744 -0.037611842 0.52107203
000300 5d 62 82 be 79 11 92 be 96 63 21 bf a2 fe 84 bd
       -0.2546567 -0.28528956 -0.6304258 -0.0649388
000310 50 fe d9 3e 80 48 0a 3e c4 8a 48 bf cc 9e 91 bf
       0.42576838 0.13504219 -0.7833674 -1.1376586
000320 20 b5 f4 3e ea d7 3b be 2e a4 24 bd dc 5b cd 3d
       0.47794437 -0.18344083 -0.040195636 0.100272864
000330 cc 56 2e 3f 3c 9e b9 3e 90 d6 05 bd 47 ae 6d 3e
       0.6810119 0.36253536 -0.032675326 0.23211013
000340 9c 1d 7d be 41 00 f3 be d7 99 17 bf 9c a5 e9 3d
       -0.24718326 -0.4746113 -0.59219116 0.114085406
000350 dd cd ff 3e 25 cd df 3e d4 14 60 3c f4 24 8e bf
       0.4996175 0.437112 0.013676841 -1.1105027
000360 33 ac e3 3e aa 55 e6 3c 83 5b 20 3f ff 80 04 be
       0.44467315 0.02811702 0.62639636 -0.12939833
000370 04 6e 93 3f 49 9c 23 3e 64 f5 90 be ce a6 89 3e
       1.1517949 0.15977587 -0.28312218 0.26885074
000380 5e 21 23 be 17 a1 a7 3e 15 ab 13 bf 58 52 c7 be
       -0.15930697 0.3274009 -0.57682925 -0.3893001
000390 9d 85 84 3e 41 be 8c 3d 71 ed a1 3d 84 7c ea be
       0.2588319 0.068722256 0.079066165 -0.45798123
0003a0 db 7e 57 3e 04 17 c0 3c 7c 37 e6 3d 91 9f a4 be
       0.21044485 0.023448475 0.112410516 -0.3215299
0003b0 8d 53 5d 3f d6 22 b7 3e 16 92 40 be 1f ab 13 bd
       0.86455613 0.35768765 -0.18805727 -0.036051866
0003c0 1c 80 36 3e 1d f2 e1 bd a4 0a 9a bd 20 95 4f 3d
       0.17822307 -0.110325076 -0.07521561 0.050679326
0003d0 3e 20 d9 bd 08 09 91 bd 78 52 3b 3d d1 84 b3 3d
       -0.10601853 -0.07081801 0.045732945 0.08765567
0003e0 8a 85 2d be 2a f5 18 3e 50 82 9b 3d b5 7b c8 3d
       -0.16945472 0.14937273 0.075932145 0.0978922
0003f0 e0 e1 09 3d 00 e3 d1 bb 58 c8 03 bd de c5 94 bd
       0.033662677 -0.0064052343 -0.032173485 -0.07264303

gnn.convs.0.nn.lins.1.bias f4 [16]
000000 5e 0f df be 90 0d 00 be 4f e9 cf 3d a3 80 88 be
       -0.43566412 -0.12505174 0.10151922 -0.26660642
000010 2e 7a b9 3e a6 88 ad 3e 99 0b 67 be 6d 96 99 bc
       0.36226028 0.33893317 -0.22563018 -0.018748486
000020 30 41 13 be 96 ec 4e 3e b5 07 3f 3e 89 85 95 3e
       -0.14380336 0.20207438 0.18655284 0.29203442
000030 47 ce 6d 3e 41 a8 66 bd 0d ba ba 3c 1f 86 87 be
       0.2322322 -0.056312803 0.022793794 -0.26469514

gnn.convs.1.nn.lins.0.weight f4 [16, 16]
000000 8b 20 b2 bc ca c6 bb 3e d3 a6 d5 3e cd ae 23 3d
       -0.021744033 0.36675102 0.4172884 0.039961625
000010 52 f8 94 3e 0c f9 c8 3e b6 9f 4f 3d 2e 8e a2 3c
       0.29095703 0.39252508 0.05068942 0.019843187
000020 04 56 58 3e c8 16 b2 bc bd 06 a2 3d 78 b5 e9 3d
       0.21126562 -0.021739379 0.079114415 0.114115655
000030 76 47 c6 3e c4 73 01 3f a8 4a a5 3e 03 36 f9 3d
       0.38726395 0.5056727 0.3228352 0.12168505
000040 28 d4 dc 3d 7b ae b2 bd 8c 7c bb 3e 3c ee 5f be
       0.10782653 -0.08724686 0.3661846 -0.21868223
000050 2f 95 11 3e 74 7b 96 3e 7e e5 bf bd 52 5c 22 3e
       0.14217065 0.29391062 -0.09369944 0.1585553
000060 4c 14 76 be 00 64 84 3e 36 12 83 be 3d 1a b4 bf
       -0.2403118 0.25857544 -0.2559983 -1.4070507
000070 ea e9 4f 3e 9c cd 8c 3e 5a c9 0a 3e 40 31 84 bc
       0.20304075 0.27500618 0.13553372 -0.016136765
000080 49 97 62 3e 02 de 80 3e fd a7 05 3e b5 7b 4b be
       0.22128023 0.2516938 0.13052364 -0.19871409
000090 e4 40 9a bd dd 1d 46 3e 84 ff 6f be b6 4e bb bd
       -0.07531908 0.1934733 -0.23437315 -0.09145872
0000a0 ef 71 3d be c0 91 5f bd 49 88 a7 be bf 46 46 bf
       -0.18500493 -0.054582357 -0.32721165 -0.774517
0000b0 95 0b c8 3d bb 7e b0 bd 8f 27 82 be e8 32 f2 bd
       0.09767834 -0.08617922 -0.25420806 -0.11826116
0000c0 44 f6 f6 3d c4 08 28 3f e0 67 c8 3e 50 40 75 bd
       0.1205869 0.65638375 0.3914175 -0.059875786
0000d0 80 49 03 bf 3e 99 99 3c 3f 6b 9a 3e fb 3a 21 3f
       -0.5128403 0.01874983 0.30159947 0.6298062
0000e0 62 68 e9 bd cd 0e 49 bf ad 2e 49 bf e7 11 93 3e
       -0.113968626 -0.7853821 -0.78586847 0.28724596
0000f0 25 69 e4 be b3 47 06 3f 78 c7 17 3e 04 42 5d 3e
       -0.4461147 0.52453154 0.14822185 0.21607214
000100 19 24 09 be d8 fd fc be 69 f6 32 bf 2e 9c 98 3e
       -0.13392676 -0.49412417 -0.6990724 0.29806656
000110 04 9f 87 bf 01 e9 9d bf 03 01 47 3c c8 26 a7 bf
       -1.0595403 -1.2336732 0.012146237 -1.305871
000120 64 bc 20 be 13 86 72 bf f0 3e 47 3e 67 9d 57 bf
       -0.15696865 -0.9473583 0.19457603 -0.8422455
000130 06 2e 46 bf 46 a5 c5 3e 34 5f a9 3c 94 ae 3b be
       -0.77413976 0.38602656 0.02067528 -0.18328315
000140 aa d1 6f 3e cf 12 88 3b ab 1b 24 be dc 55 0d be
       0.23419824 0.004152633 -0.1602618 -0.13802284
000150 fd da be bd 9c f0 cb 3d 4e 7e 80 be 70 b8 be 3e
       -0.093191124 0.09958002 -0.25096363 0.3725009
000160 9c 09 c1 3d 0e b4 51 be 28 83 10 be f3 4f 6e bb
       0.09425661 -0.20478842 -0.14112532 -0.0036363571
000170 17 e3 57 be b1 fd 8c be 9d e5 4b bf 99 79 fe bd
       -0.21082722 -0.275373 -0.7964724 -0.12425537
000180 58 cf 1f 3e 21 fb 27 be 75 69 2f be 5b 84 8e bc
       0.15606439 -0.16404392 -0.17130072 -0.017397096
000190 04 e7 9a 3d 51 0b 3a bc 18 20 34 3e 67 5e 85 be
       0.07563594 -0.011355237 0.17590368 -0.26048586
0001a0 02 61 cf 3d 07 6b 26 be e0 b5 2f be 24 47 d0 be
       0.10125925 -0.16251765 -0.17159224 -0.40679276
0001b0 41 dc 82 be dd bb 16 3d de 71 e0 bd 18 83 fd 3d
       -0.25558665 0.036800254 -0.109592184 0.1237852
0001c0 60 62 68 3e bd 6e 97 bd 1b 5b 18 be be 47 2c 3e
       0.22693777 -0.073941685 -0.14878504 0.16824242
0001d0 d0 5c 8a bd ac bc 8f 3d 34 46 80 3d ac b0 24 3e
       -0.06755984 0.07018408 0.0626339 0.1608302
0001e0 a5 44 50 3e 40 22 cc be 38 ea 88 3d b6 c8 cd bd
       0.20338686 -0.3986988 0.06685299 -0.10048048
0001f0 53 1f e9 be 40 b3 8e be e0 c1 65 be ff ee 0d be
       -0.4553171 -0.27871132 -0.22437239 -0.13860701
000200 6c 56 40 be 15 17 90 be 11 d5 e0 3d b4 18 42 3e
       -0.18782967 -0.2814261 0.10978139 0.18954736
000210 32 4b 33 3e f4 de 23 be ec 72 0a be 8b 44 0b bf
       0.17509153 -0.16003019 -0.13520402 -0.54401463
000220 4d 28 fd 3d 00 62 13 be b8 f5 77 be 71 53 89 3d
       0.123612024 -0.14392853 -0.24214828 0.06705368
000230 91 3c 10 be 09 f5 4b bd 1c 25 e7 bb ce b7 03 be
       -0.14085604 -0.04979423 -0.0070539843 -0.12863085
000240 f7 e0 8a 3e e1 11 1d 3e 5b 8e bb 3e c9 d5 9c 3d
       0.2712476 0.15338852 0.36632046 0.07657964
000250 e2 1b dd 3e b5 81 9e 3e 1f 40 98 3c cb 8f 89 3e
       0.43185335 0.30958334 0.018585263 0.26867518
000260 dc b4 a0 be 1d 8c 7c 3d 0e c5 db 3d 37 f1 11 be
       -0.31387985 0.06165706 0.107309446 -0.14252172
000270 78 29 8f 3e f3 47 37 be 80 41 3d 3c e9 75 17 be
       0.27961326 -0.1789854 0.011551261 -0.14791073
000280 5a 30 d9 bd a1 a9 e8 bb 22 ac 91 3e da fc 3c be
       -0.106049255 -0.0071002995 0.2845164 -0.1845583
000290 91 14 05 3f 10 b9 f6 3d 5a b1 1a be 2a 55 4b 3e
       0.51984507 0.120470166 -0.15106717 0.19856706
0002a0 49 e7 17 3e b4 e6 3a 3e f5 30 83 3d bf 19 70 3e
       0.14834322 0.18252069 0.06405822 0.23447321
0002b0 6a 75 0a 3f db 60 de 3e db d3 2c 3e 85 b9 3d be
       0.5408541 0.4343327 0.16877691 -0.18527801
0002c0 d3 9f 30 bd f9 45 84 3e 18 fe 82 3e 35 28 24 be
       -0.04312117 0.25834635 0.25584483 -0.16030963
0002d0 46 3f 8a 3e a7 ec 1f 3f 4f 92 d8 bd 92 9d 07 3f
       0.270014 0.6247048 -0.10574781 0.5297481
0002e0 6a a3 d1 bd 42 5b 63 3d 07 00 fe 3d e2 74 a0 bc
       -0.10236247 0.055506952 0.12402349 -0.019586984
0002f0 db fe 8c 3d 0c 95 28 bf 7b 2d 96 be ec 63 2a be
       0.06884547 -0.6585243 -0.29331574 -0.1663968
000300 5e a0 22 3e 86 c0 83 be 90 28 36 be 89 cf 06 be
       0.15881488 -0.2573282 -0.17788911 -0.13165106
000310 3a 23 bb bc 98 5e b4 bc cc 7a 23 be 9d 94 0e bf
       -0.022843946 -0.022017762 -0.15964812 -0.55695516
000320 47 b6 9e be 6e f8 ad bd f1 a0 af bd 50 cb 31 be
       -0.30998442 -0.0849465 -0.08575619 -0.17362714
000330 4f 83 01 be d8 f1 b7 3d 0d cb 8c be 8d bb 0a 3e
       -0.12647747 0.08981675 -0.27498665 0.13548107
000340 54 02 f3 3d 8a 9e 93 be 99 e3 21 bd 54 c4 07 3d
       0.118656784 -0.28831893 -0.039523695 0.033146217
000350 13 48 39 be 02 68 0b bf cb 6c 6c be 0a 59 a0 bf
       -0.180939 -0.5445558 -0.23088376 -1.2527173
000360 73 45 04 bc 9d ed dc be 79 ba 09 be 4a f6 90 bf
       -0.008073199 -0.43150035 -0.1345004 -1.1325161
000370 18 e6 6f be e4 ee 83 3e 23 c9 d4 3e e0 bc 53 be
       -0.23427618 0.25768197 0.41559705 -0.20677519
000380 96 99 3a be 75 67 ad 3d e8 da 75 bd a5 a8 eb bd
       -0.18222651 0.084669985 -0.06002322 -0.11506776
000390 bb 72 91 bd ae 39 0c bf 06 2c bf bc 6f 64 69 be
       -0.07101961 -0.5477551 -0.023336422 -0.22792219
0003a0 aa 68 c3 bd 99 e1 4f 3e a9 fc de 3c 3f ed 21 3c
       -0.095414475 0.20300902 0.027220087 0.009883224
0003b0 46 4f 45 be 59 ea 17 be 58 8c 08 be ff 38 1f be
       -0.19268522 -0.1483549 -0.13334787 -0.15549086
0003c0 56 1c 29 be 74 16 e2 3d bd e7 a1 3e d9 50 51 be
       -0.16514716 0.11039439 0.31622115 -0.20440997
0003d0 dd 38 71 3e 70 4a 86 3e ce d5 10 3d 0b be 62 3e
       0.23556848 0.26228666 0.03536015 0.22142808
0003e0 6b d9 30 3e 55 b1 8e 3e 71 3c c1 3d a3 a6 55 3e
       0.17270438 0.2786967 0.094353564 0.20864348
0003f0 1d 69 a1 3e d0 cf 11 3e 3e 0d 8e 3e 60 8d 8f 3c
       0.31525508 0.1423943 0.27744478 0.017523468

gnn.convs.1.nn.lins.0.bias f4 [16]
000000 53 56 3c be 34 7b 1b bf e6 68 62 be ef 70 b7 be
       -0.18392305 -0.6073487 -0.22110328 -0.3582835
000010 16 5f 1d 3f 83 30 25 be f8 f9 95 be 81 f6 83 be
       0.61473215 -0.16131787 -0.29292274 -0.25774005
000020 37 71 2b be af 3b d8 bd 88 6d bb bc 0e c0 af bd
       -0.16742407 -0.10558259 -0.022879377 -0.085815534
000030 ca 02 4b be 32 25 b4 be be 97 a9 bd 10 05 24 bd
       -0.19825283 -0.35184628 -0.08280896 -0.04004389

gnn.convs.1.nn.lins.1.weight f4 [16, 16]
000000 1e 54 3d be 8d 93 3b bf 99 63 8a be e6 bd 84 3e
       -0.1848912 -0.7327202 -0.27029112 0.2592613
000010 ea f1 3d be 1c 91 8c be 22 9c 33 3e da 70 c3 3c
       -0.18549314 -0.2745446 0.17540029 0.023857523
000020 af 8f c7 3d c7 77 ef 3c 78 4e d8 be cc d4 0b bd
       0.09744202 0.029231919 -0.42247367 -0.034138486
000030 f8 9f 56 be 92 8c 82 3c 01 f0 d3 3b a1 10 97 bd
       -0.2095946 0.01593617 0.0064678197 -0.073762186
000040 ac 7f 2f bd 62 16 8e be 51 bc 06 3e 3c 1d 94 be
       -0.042846367 -0.27751452 0.13157775 -0.28928554
000050 df 92 90 be c8 9d fd bd 54 0b 25 be 0d 7c 92 bd
       -0.28237054 -0.1238361 -0.16117603 -0.07152567
000060 85 59 7a 3d 9f 69 32 bc 32 15 6a bd b2 1e 5d be
       0.06112053 -0.01088944 -0.05714912 -0.2159374
000070 f3 79 52 3d 94 67 bd 3c 56 68 0a be 25 4f 1d 3d
       0.05138583 0.023120679 -0.13516364 0.038405556
000080 46 66 91 be 38 9a f8 bd e8 17 1d be 04 80 e3 bd
       -0.2839834 -0.1213879 -0.15341151 -0.111084014
000090 fe 2c 3a bb 3a e5 bd bd 40 c0 86 bd c7 e9 28 be
       -0.0028408165 -0.09272237 -0.065796375 -0.16495429
0000a0 9e 30 31 be 0d 77 b0 3b 2a a6 3b 3d d5 98 b1 bd
       -0.17303702 0.0053852857 0.045812763 -0.086717285
0000b0 55 1a 80 be ff 3b 1d be fd 66 d6 3d ef 07 1a bb
       -0.2502009 -0.15354918 0.10468862 -0.0023503264
0000c0 01 08 87 3e 6c c1 bd 3e 72 79 0c 3e 8a 3e 43 3e
       0.26373294 0.37061632 0.13718203 0.19066826
0000d0 de ee 6a bf dd d1 82 be 23 4a 35 3c 11 5c 8e be
       -0.9177073 -0.25550738 0.011065039 -0.27804616
0000e0 f8 6c 06 3e 35 1c 24 bc 15 17 49 bc 14 f3 87 be
       0.13127506 -0.010016491 -0.01227357 -0.2655264
0000f0 2a a4 32 3d 7b c4 78 be a7 cd 7d be e9 95 22 3d
       0.04361359 -0.24293701 -0.24785481 0.039693747
000100 7f b4 19 be c2 9a 24 be 12 5c 8c 3e a4 ef 5e 3d
       -0.1501026 -0.1607466 0.27413994 0.054427758
000110 0b 45 42 bb f5 46 81 3d c0 51 a5 3d 61 68 d3 bb
       -0.0029643204 0.06312362 0.08072233 -0.006451652
000120 db ca 3d 3c 8b 7c e1 3d 60 88 81 be 16 0e 36 be
       0.011584009 0.11010083 -0.25299358 -0.17778811
000130 0d ee 85 bd e6 d3 e9 3d 86 73 e7 3d 2d e8 23 be
       -0.06539545 0.114173695 0.11301331 -0.16006537
000140 a5 f1 ca be d5 b9 a2 3d 05 8a af be 30 81 51 bd
       -0.39637485 0.07945601 -0.34284988 -0.051148593
000150 9d 5b c9 bd df 33 a0 3d e4 21 ea bd 1b 4e 93 be
       -0.09831927 0.078223936 -0.114322454 -0.28770527
000160 98 31 6f be 9b bb b0 bd fa 5d 2a be 6d 5e 31 3e
       -0.23358762 -0.08629533 -0.16637412 0.17321177
000170 7b 25 05 3d 59 36 df 3d 8e be 6c be 25 94 45 be
       0.032506447 0.10899038 -0.23119566 -0.19294794
000180 33 cd 9b bd 87 1c ee 3c 73 75 4f bd 95 7f b6 bd
       -0.07607498 0.029066337 -0.050649118 -0.08911053
000190 74 f2 6c be ea c0 06 3e 62 27 43 3e 01 4c 8b bc
       -0.23139364 0.13159528 0.19057992 -0.017004015
0001a0 b8 39 73 be 7e 09 00 bf a5 88 ed bd 57 af 80 3d
       -0.23752487 -0.50014484 -0.115983285 0.062834434
0001b0 b3 ad 65 3e 98 d4 29 3e d2 b8 2e be 46 25 47 be
       0.22429542 0.16585004 -0.17062691 -0.19447812
0001c0 36 8c 9b 3e 2d 66 6f 3d 73 68 0b bd 8d be f1 3e
       0.3038041 0.05844705 -0.034035157 0.4721569
0001d0 6f 1a 48 bf 9c 1e 3d be ad 1a bc bd a1 5c 86 be
       -0.78165334 -0.18468708 -0.091847755 -0.26242545
0001e0 ac cd 4e bc 38 af d5 bd e3 ff ab 3e f1 37 a1 be
       -0.012622278 -0.10433811 0.33593664 -0.31487992
0001f0 46 38 47 3d 97 f5 2e bf c4 44 d9 3c 62 97 3b 3e
       0.04863765 -0.6834349 0.026522048 0.18319467
000200 57 9a 4f be a8 ae 63 3d 4a 5b 98 be dd 4a 0e bd
       -0.2027372 0.055586487 -0.29757148 -0.034739364
000210 30 c1 94 bd 9f 7c 8e be 32 20 4b be 30 e7 3d 3e
       -0.0726341 -0.27829453 -0.198365 0.18545222
000220 2b 52 f1 3d 12 06 7e be 77 e5 9e be e1 af 28 3e
       0.117832504 -0.24807003 -0.31034443 0.16473342
000230 ec a3 2a be 89 28 8b be e0 d5 8f 3e cd 2c 25 be
       -0.16664094 -0.27179363 0.2809286 -0.16130371
000240 91 91 95 3e 80 bc 28 3e a0 56 fe bc 56 89 9b 3d
       0.2921262 0.16478157 -0.031047165 0.07594554
000250 5d 9a 7d bf 02 e4 b6 bd a5 22 01 3e bd 25 cc bd
       -0.99063665 -0.08930208 0.12610872 -0.099681355
000260 eb 03 99 bd 83 39 3c 3e a8 2d 4d 3e 78 b1 c8 bc
       -0.074714504 0.18381314 0.20036948 -0.024498686
000270 f0 85 9a bc a8 43 81 be 72 c8 34 be 02 67 1e bd
       -0.018862695 -0.2524693 -0.17654589 -0.038672455
000280 2a 6f f5 3d be 6f b5 3d 6e 97 13 be ee ec f5 3d
       0.119840935 0.08859204 -0.14413235 0.120080814
000290 ad ac 29 bf d4 4a 40 be 22 4d ca 3d 39 b4 89 be
       -0.6627911 -0.18778545 0.09877993 -0.2689531
0002a0 10 e8 94 3e 88 eb 99 3d 40 01 7d 3e 82 86 98 3c
       0.290833 0.07515627 0.24707508 0.018618826
0002b0 8d f5 ef bd 67 30 5c be a8 86 06 3e 34 a2 43 3e
       -0.11716757 -0.21502839 0.13137305 0.19104844
0002c0 aa b2 87 be 52 a6 16 3e 87 6a 7b be 3b ab 73 bd
       -0.26503497 0.14711884 -0.24552356 -0.05948947
0002d0 6d b2 a8 bd 99 4c 27 bd 4c 60 89 3d 80 bf 92 3b
       -0.08237157 -0.040844534 0.0670782 0.004478395
0002e0 58 7a 12 3e 26 c5 2c be 7a 09 cf be 08 a1 70 be
       0.14304483 -0.16872081 -0.40436918 -0.23498929
0002f0 77 03 53 bd d8 95 8b bd 0c 96 84 bd c4 5b d6 bd
       -0.051516976 -0.0681569 -0.06473932 -0.10466722
000300 6c ee 62 3e 1f d8 c6 bd 1a 54 94 3c 33 72 6c 3e
       0.22161263 -0.097091906 0.018106509 0.23090439
000310 15 95 81 bf da e2 94 bc bb e6 81 3d 1b 33 9e 3c
       -1.0123621 -0.018174578 0.063428365 0.019311478
000320 c5 11 60 3e bd 7f 7f 3d fb 1b e3 3d b9 f5 2c be
       0.21881779 0.06237768 0.11089321 -0.16890611
000330 cf 33 90 bd a0 44 fe be 83 39 1d 3e f0 e2 1a 3b
       -0.07041132 -0.49661732 0.1535397 0.00236338
000340 c7 3f e7 bc e3 54 42 3e bc 55 62 3c a9 af 09 3e
       -0.028228654 0.18977694 0.013814386 0.13445915
000350 fe ae 55 3f 16 2b 51 3d 55 88 65 be 4f b1 29 3d
       0.8347014 0.05106648 -0.22415288 0.04142886
000360 90 a8 a5 bc 02 ba db be 93 f0 e3 be 43 30 14 bf
       -0.020221978 -0.4291535 -0.4451948 -0.5788614
000370 86 a6 92 3d 99 46 d3 bd 86 22 86 3d d6 6b 99 be
       0.07160668 -0.103162 0.065495536 -0.29965085
000380 81 4a f6 bc b1 49 04 3e 4a 25 0d be ae c2 ba be
       -0.030064823 0.12918736 -0.13783756 -0.36476654
000390 6b 04 1d be c9 9e 87 bd 9e 2d cb be b6 f4 49 be
       -0.15333717 -0.06622083 -0.3968324 -0.19722256
0003a0 f2 99 74 bd 4c 52 23 3d c9 7a be bd b6 56 93 be
       -0.059717126 0.039873406 -0.09300763 -0.28777093
0003b0 20 02 f8 3b 73 dc 4a be 89 ce b3 be a2 e1 ee bd
       0.0075686127 -0.19810657 -0.3511851 -0.1166413
0003c0 26 ab 2a be 17 05 61 3e 89 f9 01 be 30 8f eb 3c
       -0.1666685 0.21974598 -0.12692846 0.0287548
0003d0 ec 48 53 be ed 61 91 be 3f 7c 33 bd cc fe 81 3e
       -0.20633286 -0.28395024 -0.043819662 0.25389707
0003e0 34 7c fb 3d b6 a2 ce bc d4 e7 92 3c dc 2b cd 39
       0.12279549 -0.025224071 0.01793281 0.00039133325
0003f0 d2 dc 9a bc a3 36 3f 3b 8e b2 89 bd 2c 41 69 be
       -0.018904123 0.0029176853 -0.0672351 -0.22778767

gnn.convs.1.nn.lins.1.bias f4 [16]
000000 fb ec e9 be a7 54 4e bd 22 98 48 be e7 b4 8c bd
       -0.45688614 -0.0503737 -0.19589284 -0.06870442
000010 2e 10 0c bd c7 89 25 bc f2 0e 78 be 49 18 1a bd
       -0.034195118 -0.010103649 -0.24224451 -0.037620816
000020 2c 35 97 3c 3a 4d d1 bd 07 8c 87 bb 76 3f af be
       0.018457972 -0.10219808 -0.0041365656 -0.34228104
000030 00 61 15 3e 93 42 ca 3e 98 39 95 be df 6b 18 bd
       0.14587784 0.39503917 -0.29145503 -0.03721225

gnn.convs.2.nn.lins.0.weight f4 [16, 16]
000000 40 05 70 3e 06 a8 5e bd 64 02 59 bc 6b 69 d1 bd
       0.23439503 -0.05435946 -0.013245199 -0.10225185
000010 f6 83 f4 3d ba 48 fa 3c 3f d1 04 3d b6 34 66 bd
       0.11939232 0.030552257 0.032426115 -0.056202613
000020 fd 46 09 3e 30 64 50 3b 6c 18 a1 bb 42 a1 79 be
       0.13405986 0.0031797998 -0.0049162414 -0.24377921
000030 03 e3 a1 be 52 bc 23 bf e5 34 f7 3d 5f 55 48 3e
       -0.3161851 -0.6395923 0.12070636 0.19563816
000040 7c 13 1f 3e fe ee b8 3d 40 39 34 3e 38 f3 1d 3d
       0.15534776 0.09029959 0.17599964 0.03856203
000050 fa 15 42 3e 58 d7 b3 bd 59 fa 40 3e 1d bd cb be
       0.18953696 -0.08781308 0.188455 -0.3979272
000060 62 21 94 be 14 aa 04 be fa 8c c5 bd a0 57 17 3d
       -0.2893172 -0.12955505 -0.0964603 0.0369488
000070 8e 1c 0b be f8 e3 9e 3d ee ec 48 3e dd 65 77 bd
       -0.13585111 0.07758325 0.19621632 -0.06039988
000080 e4 f7 ac 3c bf 55 42 be 8c 69 16 be 8f a4 ac be
       0.021114297 -0.18978022 -0.146887 -0.33719298
000090 42 ab a4 3d ff c0 99 3a 9f 84 c9 3c b3 5c 85 bc
       0.08040477 0.0011730491 0.024599371 -0.016279554
0000a0 e9 90 ca 3d a1 78 47 be 4b c5 3b be f4 39 1f be
       0.09890921 -0.1947961 -0.1833698 -0.15549451
0000b0 a8 10 4f be 9d 01 89 3d 1d 6e 87 bd 1f 68 18 be
       -0.20221198 0.06689761 -0.06612799 -0.14883469
0000c0 b3 61 b1 bc 29 34 24 3d 34 e4 52 3e d3 9c ae be
       -0.021653032 0.040088806 0.20594865 -0.34104022
0000d0 24 16 3d be 1f e7 19 3e e0 ea b2 bd 66 ed 3b be
       -0.18465477 0.15029572 -0.08736205 -0.18352279
0000e0 57 f4 2b 3e f2 14 a9 be 21 b0 23 bf 0a b0 30 be
       0.16792427 -0.33023793 -0.63940626 -0.17254654
0000f0 9f e6 b2 bb fe 1a 33 bf 41 2c 69 bd 7e fd 3a be
       -0.005459621 -0.6996306 -0.05692697 -0.18260762
000100 10 4f a8 bd 07 24 82 bd a8 c0 1d 3d 2d b5 fa bd
       -0.08218205 -0.06354528 0.03851381 -0.12241588
000110 34 d2 23 be a9 4f 04 3e f0 3b 7e 3d 48 5d e3 bd
       -0.15998155 0.12921013 0.06206888 -0.11101776
000120 65 3f 80 3d 76 38 88 bd aa e4 36 be 0c 01 77 3e
       0.062620915 -0.06651394 -0.17860666 0.24121493
000130 0a 13 75 be 4a 95 2c bd b0 c5 e3 bd 22 f8 04 3e
       -0.23933044 -0.04213456 -0.1112169 0.1298528
000140 00 f9 d9 3d cc 5a 3c 3e d2 73 e4 bd 5a 75 60 bd
       0.10643196 0.18394011 -0.111549035 -0.054799415
000150 77 ce 1d be 06 83 84 be f5 7d 49 be 6a 05 e5 bd
       -0.15410791 -0.25881213 -0.19676955 -0.11182673
000160 0c 30 91 bd 7f 29 79 bd b5 52 3b bf 18 bd 7d 3d
       -0.07089242 -0.06083059 -0.73173076 0.061947912
000170 06 16 2f 3d 4f fe ae be fb a3 33 3e 3c 06 68 be
       0.042745613 -0.34178397 0.17543022 -0.22658628
000180 4d 89 77 be 6a de 31 be 18 f6 39 3e d5 f7 8e bb
       -0.2417347 -0.1737 0.18160284 -0.00436304
000190 7d 30 ac 3c b5 02 aa bc 0c b3 28 be 0c 81 0f be
       0.021019215 -0.020753244 -0.16474551 -0.14014071
0001a0 bd 53 99 3d f7 52 6b be 40 be a7 be 60 18 f8 3d
       0.07486675 -0.22980867 -0.32762337 0.12114024
0001b0 0a d6 8e be b4 66 96 bd fa 69 76 bd c4 ce ca bb
       -0.27897674 -0.07343808 -0.06015966 -0.006189199
0001c0 ea 46 86 3d ff c6 5b be 57 8f 9c 3d ff 3b 78 bd
       0.065564945 -0.2146263 0.076445274 -0.06060409
0001d0 13 c5 ab 3b 18 01 dd 3a fa a7 97 bd 02 0d 5a bd
       0.005241999 0.0016861288 -0.07405086 -0.05323506
0001e0 03 fc dd 3d 8e b7 a9 bd ff 24 46 be 80 32 b3 3d
       0.10839083 -0.082869634 -0.1935005 0.087498665
0001f0 a9 6c d3 bc f9 57 0a bf 4f f5 4e 3d 76 0f 3a be
       -0.02580865 -0.54040486 0.050526913 -0.1816996
000200 6b 8c 36 be 9d 2b da 3d dd 5e 3e bd 7c ff ea be
       -0.17827003 0.1065285 -0.046477187 -0.45898044
000210 55 6d 3f 3e 66 5c ed 3c c1 61 4e 3d ce 22 b8 be
       0.1869405 0.028974723 0.050386194 -0.35964054
000220 ac 76 60 3e 2c c8 c7 3c fd fd 31 be 82 39 6a be
       0.2192027 0.024387442 -0.17382045 -0.228735
000230 d6 63 71 be 63 ac 18 bf 9f 09 2c be 32 13 5a bd
       -0.2357324 -0.5963804 -0.16800545 -0.053240962
000240 9d 44 94 be aa ca 97 bb 41 d2 45 bd 00 e5 5d bc
       -0.28958598 -0.0046323137 -0.048296217 -0.013543367
000250 00 e9 f9 3c 03 98 17 3e 6e 6c 82 3e 36 ac a0 bd
       0.03050661 0.14804082 0.2547335 -0.07845347
000260 26 6d 53 3e 1d 24 0d be 28 2b 83 be 90 12 7a bd
       0.20647106 -0.13783307 -0.25618863 -0.06105286
000270 60 24 82 3d 41 4e ed be 81 7b b1 bc 48 6b f8 bd
       0.06354594 -0.46348765 -0.021665337 -0.12129837
000280 29 7e 24 be da e5 01 3e 8e ab 48 3d 46 95 2d be
       -0.16063751 0.12685338 0.048991732 -0.16951475
000290 fe 75 4c 3e 61 94 47 3e 72 63 86 bd c0 fa 40 3c
       0.19966885 0.19490196 -0.065619364 0.011778533
0002a0 0b 73 2c 3e 4c 7b a9 be ef 13 ba 3d d0 c1 6f 3d
       0.1684076 -0.3310188 0.09085833 0.058534443
0002b0 f1 70 84 bc eb c3 bb bc 64 ac 83 3e 5c af 41 3d
       -0.016167136 -0.02292057 0.2571746 0.047286376
0002c0 2a 87 0d 3f fb ea 14 3c c0 3d 00 bc 40 e4 db bd
       0.5528437 0.009089227 -0.007827222 -0.107368946
0002d0 a3 9d 3c 3d 36 82 8c be 3c 90 95 be a8 00 be bd
       0.04604877 -0.27443093 -0.29211605 -0.09277469
0002e0 14 ea 09 be b0 73 6c 3d e3 1e 24 3e 7f 91 30 bd
       -0.134682 0.057727516 0.16027407 -0.043107506
0002f0 56 fa d7 be 96 cb bf 3e 76 22 8c be bc 36 2e be
       -0.4218318 0.3746001 -0.27370042 -0.17013067
000300 26 77 2b 3e 1e e0 40 be c9 9d dc bd 71 2e 87 be
       0.1674467 -0.18835494 -0.10772283 -0.2640262
000310 b9 d8 16 3e 46 80 2a be 4c a6 c5 bb b8 42 b5 be
       0.1473111 -0.16650495 -0.006031787 -0.35402465
000320 32 39 ba 3d ef 2d 55 bd c8 80 7d be c8 e2 e6 bd
       0.090929404 -0.05204576 -0.24756157 -0.11273724
000330 d4 a6 91 bd 0d 03 da bc 5a 76 2c 3d 36 90 46 38
       -0.07111898 -0.026612783 0.042105056 4.7341186e-05
000340 9c 02 12 3d 5c 8f 4b bd e0 cd 51 3e 3d 4c eb 3b
       0.03564702 -0.049697265 0.20488691 0.007180719
000350 e6 31 e0 3d df d6 37 be 7b 42 a3 bc 97 0f 5c be
       0.10947017 -0.1795306 -0.019929161 -0.21490322
000360 57 1a 8f 3d 23 c5 a8 be 64 09 76 3e 50 cb c2 bc
       0.06987446 -0.32962903 0.2402702 -0.023778588
000370 de 79 13 be ee 8e ce bd cf 0d f1 3d 18 83 84 bd
       -0.14401957 -0.100858554 0.11770212 -0.06470317
000380 4b 1c 1d be 2b a5 bb bc 43 e5 9b 3e 85 92 00 be
       -0.15342824 -0.022905907 0.3044835 -0.12555893
000390 20 63 ef 3d 62 66 84 be 77 6e 20 3e ae 13 0a be
       0.116888285 -0.25859362 0.15667139 -0.1348407
0003a0 0e 9a 38 be cf 73 40 3c e0 93 1b bf 6c 5d 5e 3e
       -0.18027517 0.011746361 -0.60772514 0.21715325
0003b0 41 d0 18 bc 43 6b fa be d7 3c 53 bd f3 35 e6 3d
       -0.009326995 -0.4890996 -0.051571693 0.11240759
0003c0 c5 4d 91 be d3 67 de bd ff ae 48 bd c3 40 ae be
       -0.28379646 -0.10859647 -0.048995014 -0.34033784
0003d0 1f 5c 2c be ff 1c 4d 3e cd a4 68 3e a3 b6 d9 be
       -0.16832016 0.20030592 0.22719117 -0.42522153
0003e0 3b a5 54 bd 36 9e 87 be 51 21 d8 be 8c 92 98 3d
       -0.05191539 -0.26487893 -0.42212918 0.074498266
0003f0 12 be 70 3d 62 ae 89 3f 40 11 9d 3e 4d 02 6b be
       0.058775015 1.0756342 0.30677223 -0.22950096

gnn.convs.2.nn.lins.0.bias f4 [16]
000000 41 4e 6c bd d6 e7 9e 3d e0 a5 1e be 01 5f 8a bd
       -0.057691816 0.07759063 -0.15492964 -0.06756402
000010 c2 f4 80 be 54 43 0f bd 1c e5 2f be 92 9e f0 3d
       -0.25186735 -0.03497632 -0.17177242 0.11748995
000020 ef 4c 94 be ed 39 0e be 27 99 1f be 0f 62 2b 3d
       -0.28964946 -0.13889284 -0.15585767 0.041841563
000030 fe 62 22 3d 25 b9 32 be dd be 46 be 6f 4b 67 3f
       0.039645188 -0.1745344 -0.19408746 0.9034948

gnn.convs.2.nn.lins.1.weight f4 [16, 16]
000000 5a 0d 5d be 1f 7d ca 3d 94 26 d1 3d 00 24 5c 3a
       -0.21587124 0.09887146 0.10212436 0.00083976984
000010 5a 4f 8f 3d 3a f3 06 3e b0 78 df bd 26 8c 64 be
       0.06997557 0.13178721 -0.10911691 -0.22319087
000020 ec c9 ed bd d8 ed 05 be 37 e7 1c bd 38 ec a6 bd
       -0.11610779 -0.13079011 -0.03830644 -0.08150524
000030 52 85 85 be 03 55 4c be 50 77 f7 bc ff 8f 8c be
       -0.26078278 -0.19954304 -0.03020826 -0.2745361
000040 27 f8 5b be 89 8d db bc a6 5e 63 be 04 9c 30 3e
       -0.21481381 -0.026800888 -0.22204074 0.17247015
000050 60 51 e9 3c 94 2f 21 be b4 1d 42 3e 50 6c 2a be
       0.028481185 -0.15740806 0.18956643 -0.1664288
000060 58 94 d4 bd 27 cd 37 be 95 43 80 be b2 e2 f0 bc
       -0.10379857 -0.17949353 -0.2505156 -0.029404972
000070 77 40 e4 be 1d 0d 1d be 18 e7 41 3d 69 7b e6 be
       -0.44580433 -0.15337034 0.04733953 -0.4501603
000080 c4 f1 60 3d e5 2a 97 bb 61 82 66 bd 95 0e 6a 3d
       0.054918066 -0.0046132677 -0.056276683 0.057142813
000090 e3 a1 18 3e 73 29 28 3d 83 26 a8 3c 4f 17 89 be
       0.14905505 0.041055154 0.020526176 -0.26775596
0000a0 32 29 2d be 9d a1 cd bd 0a 93 6a 3d e5 55 b6 bd
       -0.16910246 -0.10040591 0.057269134 -0.08903102
0000b0 89 f8 46 be b1 f0 12 bd 1a 53 18 3e e8 4b b5 be
       -0.19430746 -0.035874072 0.1487545 -0.35409474
0000c0 63 41 98 be 7d a9 99 3e 6d da 23 3e 75 6f d5 3d
       -0.29737386 0.30012122 0.16001292 0.10421649
0000d0 78 3f 09 3e 1d 39 ab bb 81 7f 42 3e 3c 41 db 3d
       0.13403118 -0.0052253143 0.18993951 0.10705802
0000e0 a1 48 2e 3c 26 4c 1e be de 57 ee 3c d6 5d 00 be
       0.010637433 -0.15458736 0.029094633 -0.12535796
0000f0 70 17 2d be 38 49 68 3e cc 8e 18 be 42 9a d1 be
       -0.16903472 0.2268418 -0.14898223 -0.40938002
000100 78 04 8f 3e 0b c5 14 3e 11 1e ed bc bf a0 10 be
       0.27933097 0.14528291 -0.028945 -0.1412382
000110 f4 17 aa bd 90 f9 71 3e 14 9e dd bd 93 09 70 3e
       -0.0830535 0.23630357 -0.10821167 0.23441152
000120 20 36 af 3e 32 df 89 bc 73 38 aa bd 21 cb a1 be
       0.34220982 -0.01683006 -0.08311548 -0.31600288
000130 b8 da 45 3c 30 d4 c3 be eb 0f ba bc 79 6a b1 be
       0.012076072 -0.38247824 -0.022712668 -0.34651545
000140 e6 8b 3d 3d 8f f1 2a bd da 82 2a 3e 52 51 ef bd
       0.046275996 -0.041734274 0.16651478 -0.116854325
000150 40 3e 43 3e a4 84 1a be 48 74 63 bd 6b 70 5b be
       0.19066715 -0.15089661 -0.055530816 -0.21429603
000160 77 e0 14 3e 68 24 4f be db 02 cb bd 53 59 7c be
       0.14538752 -0.20228732 -0.09912654 -0.2464345
000170 6e b1 31 3e e2 a7 eb be ff 2c 6f bc 0e f9 a8 be
       0.1735284 -0.46026522 -0.01459813 -0.33002514
000180 77 04 02 be 20 c6 04 3e dc 3d 25 be 93 2c 71 be
       -0.12697016 0.12966204 -0.16136879 -0.2355216
000190 fa 4c 3f be 3a 7f d7 bc e6 cb 04 3c 34 be 79 be
       -0.18681708 -0.026305784 0.008105254 -0.24388963
0001a0 40 4b c9 bd 5a d2 f1 bb 91 27 bb bd 0c 0c b8 bd
       -0.09828806 -0.007379812 -0.09138406 -0.08986673
0001b0 54 48 23 bb 03 f9 04 be a5 7f d0 3d 62 5a 98 be
       -0.0024914937 -0.12985615 0.10180596 -0.29756457
0001c0 ab 6f 1f bd 7a 48 79 bd 0b 14 71 be dc 9c 19 3e
       -0.038924854 -0.060860135 -0.23542802 0.15001243
0001d0 cb e6 2e be 79 84 84 be c9 08 22 bd 67 1b f1 3c
       -0.17080228 -0.2588232 -0.03955916 0.029432012
0001e0 93 18 56 be d9 c3 11 bd 44 38 2b bd f4 cc 33 be
       -0.20907812 -0.035587166 -0.041801706 -0.17558652
0001f0 22 0f d9 3c a9 1d 4b be 00 5a 79 bd d9 42 01 bf
       0.026496474 -0.19835533 -0.060876846 -0.50492626
000200 62 0a df bd f8 f9 fa ba 92 bc f3 be 99 cf d6 3d
       -0.10890652 -0.0019147983 -0.47604805 0.10488815
000210 2e 8d 45 be da 75 35 3c e4 4f 15 be 0b 11 5a be
       -0.19292137 0.011075461 -0.14581257 -0.21295564
000220 b9 37 bc 3e 57 a9 f9 3d e2 e5 d2 bd ec 73 53 be
       0.36761263 0.12190502 -0.10297753 -0.2064969
000230 cf 19 af 3d 65 83 d5 bb 3b ea 51 3e b1 2b df be
       0.085498445 -0.0065159076 0.20499508 -0.4358802
000240 a6 dc 84 3d cb 48 db bd 24 a0 2f 3e 05 32 8e bd
       0.06487398 -0.107072435 0.17150933 -0.06943134
000250 78 99 60 3d 65 e1 8b bd bb 11 22 be 1a 63 35 3d
       0.05483386 -0.068301 -0.15827076 0.044283964
000260 c8 db a5 3e af 06 85 3e 48 82 dc 3d 4e c7 51 ba
       0.32394242 0.25981662 0.10767037 -0.0008002416
000270 fe 6a 3c bc ea 9e 52 3e 17 ec fc 3b 67 fe 86 bf
       -0.011500118 0.20568433 0.007718574 -1.0546387
000280 08 e9 18 3e 45 b3 eb 3d c0 44 3b 3e 2a 1f 13 be
       0.14932644 0.11508802 0.18287945 -0.14367357
000290 24 25 b0 3d db ab 12 be d4 93 04 be 18 44 a8 bc
       0.08600834 -0.1432337 -0.12947017 -0.020540282
0002a0 cb ce 4e 3e db 53 6f 3e 7f 5f 0f 3e 8e 55 d9 be
       0.20196073 0.23371832 0.14001273 -0.42448086
0002b0 46 cd 25 3e dc d7 ba 3d cb c3 31 be f1 1a d9 be
       0.16191587 0.09123203 -0.17359845 -0.42403367
0002c0 b5 7c 48 3d 9d 28 39 bc b4 d6 25 be 16 f9 c2 3e
       0.048947055 -0.011301187 -0.16195184 0.38080662
0002d0 18 d4 5b 3d 08 57 39 3e b0 91 54 3e 3d ee 45 3d
       0.053669065 0.18099606 0.207587 0.048322905
0002e0 3f a5 02 3e fe ce c6 3d e3 88 09 3e 8c b5 34 bf
       0.12758349 0.097074494 0.13431124 -0.7058952
0002f0 60 84 b4 be b7 05 27 bf 34 02 20 bd 86 8f 01 bf
       -0.35257244 -0.65243095 -0.0390646 -0.50609624
000300 cb c1 38 bd de 93 e5 3e de d1 c3 3e 2c 4b 18 bd
       -0.04510669 0.44839376 0.38246053 -0.037181064
000310 cc ed 1c 3e 11 34 ff 3d ff ec ac bd 49 66 f0 3d
       0.15325087 0.12461103 -0.08443641 0.11738259
000320 6e f6 f6 bd 1c 80 ac 3d c9 b1 6e bd 07 28 e2 bd
       -0.120587215 0.084228724 -0.058275018 -0.11042791
000330 52 59 f3 be 1c 38 31 3d 24 3d 7f bd c4 d6 2e be
       -0.47529083 0.0432664 -0.062314168 -0.17074114
000340 71 03 a7 bd 26 04 5a 3d 09 ff 19 3e 8d 77 90 bd
       -0.08154953 0.053226613 0.15038694 -0.070540525
000350 10 af 30 3d e8 80 60 be ea ad 3e 3e 65 04 bc be
       0.043135703 -0.21924174 0.1862103 -0.36722103
000360 74 37 06 3d 8c 58 5d be 0b 64 9d be ed ff d4 be
       0.032767728 -0.21615809 -0.3074039 -0.41601506
000370 04 e0 aa 3d d3 41 bb bd 80 b7 93 bd 9f 00 15 bf
       0.08343509 -0.09143414 -0.07212734 -0.5820407
000380 70 c2 05 3e 65 6a bc bd f3 52 03 be c1 49 4d 3e
       0.13062453 -0.09199981 -0.12824611 0.20047666
000390 65 f1 d7 3d 9b 35 d7 bc 53 03 1a bd c1 23 e3 bd
       0.10544089 -0.026270678 -0.037600826 -0.11090804
0003a0 fc 1d 54 3d a9 cc 7f bc 10 04 4b bd 7c 2f af be
       0.051786408 -0.01561276 -0.04956442 -0.34215915
0003b0 2c 9f 99 3d af 38 bb 3d 50 9f 99 bc a3 0e 16 bf
       0.07501063 0.09141671 -0.018752724 -0.58616084
0003c0 15 ca ac bd 4a d8 82 bd a7 99 00 3e d8 4d 00 be
       -0.084369816 -0.0638891 0.12558614 -0.12529695
0003d0 30 a1 85 bc c8 3a 3e be da 2c 28 be 59 6b e1 bd
       -0.016312212 -0.18577111 -0.1642336 -0.11006803
0003e0 5f e3 11 bd 8f 1b bc be 5c a3 91 3e 6a 71 90 bd
       -0.03561723 -0.36739776 0.28444946 -0.07052882
0003f0 e2 34 30 bd cd 0f d6 3d c8 44 a1 bd 4b 2b 1d be
       -0.043019183 0.104522325 -0.07874447 -0.15348546

gnn.convs.2.nn.lins.1.bias f4 [16]
000000 99 6f 1c bf 5a 71 ce be f8 57 b2 bd 5f 58 b3 be
       -0.61107785 -0.40320855 -0.08708185 -0.3502836
000010 d5 6e 73 bd 60 11 5e be 17 8c ae be 4b 95 b8 3d
       -0.05943187 -0.21686316 -0.34091255 0.090128504
000020 39 8b 9c 3e 12 1a b4 3e aa ed c5 3d 59 fb 43 bd
       0.30574968 0.3517614 0.096644714 -0.047847126
000030 42 d6 73 bc 04 8a 65 3e 52 2d 94 3d cd 8a e9 be
       -0.014882626 0.2241593 0.07235207 -0.4561371
