Run_GIN_ModelCheckpoint_EvFr_2/NCI1_reps_2_folds_5_epochs_20_2023-04-26_11-05/rep_1_fold_1/checkpoints/model_trial_5.ckpt (torch, 96717 bytes, 86 tensors)

gnn.convs.0.nn.lins.0.weight f4 [16, 37]
0	0x3f10b46c	0.565253
1	0x3e6fa99e	0.23404548
2	0xbe4b28d6	-0.19839796
3	0x3efeb676	0.49748582
4	0xbf472b73	-0.77800673
5	0x3e0e1557	0.13875328
6	0x3e87d028	0.26525998
7	0x3eff831d	0.4990472
8	0xbe8414ab	-0.25797018
9	0xbe914470	-0.28372526
10	0xbe6c721a	-0.23090401
11	0xbe82a557	-0.2551677
12	0xbe52f6a8	-0.20601904
13	0xbe8124ef	-0.2522349
14	0xbe32ac90	-0.1744864
15	0xbe42cce9	-0.1902348
16	0xbea86258	-0.3288753
17	0xbe5d0e91	-0.21587588
18	0xbe676d0c	-0.22600192
19	0xbd2f8747	-0.04285362
20	0x3e8fb888	0.28070474
21	0x3f9f8ec7	1.2465447
22	0xbb515282	-0.0031940048
23	0xbe0a678a	-0.1351606
24	0xbd9f2c82	-0.07772161
25	0xbe8ddbd8	-0.2770679
26	0xbf4a5780	-0.79039764
27	0xbd439bad	-0.047755886
28	0x3e12c8db	0.14334433
29	0x3ed8625e	0.42262548
30	0x3ea0c3f3	0.31399497
31	0x3da8f69b	0.08250161
32	0x3ef659f3	0.481155
33	0x3ef2a7b5	0.47393575
34	0x3e9754a7	0.29556772
35	0xbddcda13	-0.10783782
36	0x3db039f3	0.08604803
37	0xbf3ea63a	-0.7447239
38	0xbeffedbf	-0.49986073
39	0x3e696918	0.22793996
40	0xbf0813d2	-0.53155243
41	0x3e85171e	0.259942
42	0xbec02b65	-0.37533107
43	0x3ec9a281	0.39381793
44	0x3dada9c2	0.08479644
45	0xbf162f50	-0.58665943
46	0xbe3e546d	-0.18586893
47	0xbdf4ebc5	-0.11959032
48	0xbdf1682d	-0.11787448
49	0x3d20dc1f	0.039272424
50	0xbe2402d6	-0.16016707
51	0x3dae44ea	0.08509238
52	0xbe227bfc	-0.15867609
53	0xbd03cda1	-0.032178525
54	0x3d251a52	0.040308304
55	0xbf10cff7	-0.5656733
56	0xbf047289	-0.51737267
57	0xbe7312f0	-0.23737693
58	0xbbd7634f	-0.006573118
59	0xbd114096	-0.035461985
60	0xbcb1be23	-0.02169711
61	0xbf22f3f5	-0.636535
62	0xbecd6b89	-0.40121105
63	0x3e9ca60b	0.3059543
64	0xbebcedd9	-0.36900213
65	0x3e14e541	0.14540578
66	0x3ed393fb	0.41323838
67	0xbce7664c	-0.028247021
68	0x3c7d355e	0.015454618
69	0xbd3445d1	-0.044011895
70	0x3d8ca17e	0.0686674
71	0xbda954c6	-0.082681224
72	0xbe08754d	-0.13325997
73	0xbdf0e585	-0.117625274
74	0x3e42b969	0.19016041
75	0xbee9d213	-0.45668086
76	0xbee9a9d3	-0.45637378
77	0xbf120bdc	-0.57049346
78	0x3ea482ac	0.32130945
79	0xbe17fb8e	-0.14842054
80	0xbc5289e1	-0.012850256
81	0x3d62f41e	0.05540859
82	0x3dfdb219	0.12387485
83	0x3f4bb1be	0.7956809
84	0x4004d027	2.0752046
85	0x3f67e93a	0.9059025
86	0xbbb41f8e	-0.0054969257
87	0xbced2a19	-0.028950738
88	0xbda17839	-0.07884259
89	0xbdd7e824	-0.10542324
90	0x3f261083	0.64868945
91	0x3d2a8d9b	0.04163895
92	0xbd34686f	-0.044044908
93	0x3db97ab1	0.09056605
94	0xbd149d69	-0.03628293
95	0x3e1b5f27	0.15173016
96	0x3d7bb1c2	0.06144882
97	0x3d1eec94	0.038799837
98	0xbddfb1b2	-0.109225646
99	0xbeb722ce	-0.3576874
100	0x3e549d3e	0.20763108
101	0x3ecd1252	0.4005304
102	0xbdf92021	-0.12164331
103	0xbd2067b4	-0.0391614
104	0xbd17efce	-0.03709393
105	0xbe101bd5	-0.14073117
106	0xbc4f0aba	-0.012636835
107	0xbdfbd3b7	-0.12296241
108	0xbb62637a	-0.0034544156
109	0xbe134906	-0.14383325
110	0xbc70b196	-0.014690777
111	0x3d91c2b3	0.07117214
112	0x3d921637	0.071331434
113	0xbddde986	-0.10835557
114	0xbea1d104	-0.3160478
115	0x3ebd5e55	0.36986032
116	0x3d9ee9a8	0.0775941
117	0xbe13b94a	-0.14426151
118	0x3dc76681	0.09736348
119	0x3f086fb9	0.53295475
120	0x3ebe82da	0.37209207
121	0x3fa532e4	1.2906156
122	0x3ee25afb	0.44210038
123	0x3f4009f2	0.75015175
124	0x3eadafd2	0.33923203
125	0x3dc62d89	0.09676654
126	0x3e840db2	0.257917
127	0xbdd80f93	-0.105498455
128	0x3ec85026	0.39123648
129	0x3e21a2cb	0.15784757
130	0x3e9d3e20	0.3071146
131	0xbc3fe389	-0.011711963
132	0xbdd560d8	-0.10418862
133	0x3d01a50d	0.031651545
134	0xbe97259f	-0.2952089
135	0x3f52f4f1	0.82405
136	0xbe47ac39	-0.19499291
137	0x3f3dac0c	0.7409065
138	0xbdfbed36	-0.12301104
139	0xbe4a7a72	-0.19773272
140	0xbe357e4a	-0.17723957
141	0xbe7c9aaf	-0.24668382
142	0x3d178a37	0.036997046
143	0xbddcd8e5	-0.10783557
144	0xbdcf0355	-0.101080574
145	0xbe164c04	-0.14677435
146	0x3d94b7ed	0.072616436
147	0x3d23e85c	0.040016517
148	0x3d9437a3	0.07237174
149	0xbd803440	-0.06259966
150	0xbe7d7fc2	-0.24755767
151	0xbe67a6a7	-0.22622167
152	0x3ee760fb	0.45191178
153	0x3eb4da88	0.35322976
154	0xbe9b5d4d	-0.3034462
155	0xbee7d6dd	-0.45281115
156	0x3f8bf910	1.0935383
157	0x3f2d4952	0.6769
158	0x3ff41f99	1.9072143
159	0x3f2d5eb4	0.6772263
160	0x3f9954e1	1.1979028
161	0xbde3f01f	-0.11129784
162	0x3f29b30e	0.6628884
163	0x3ed58dbf	0.41709706
164	0xbead137f	-0.33803937
165	0x3f799845	0.9749797
166	0x3f099d83	0.5375597
167	0x3f8939d1	1.0720769
168	0xbe43efad	-0.19134398
169	0xbeecdb6c	-0.46261156
170	0x3a6e4006	0.000908852
171	0x3f74677e	0.95470417
172	0x3f85434c	1.0411162
173	0x3f323f28	0.6962762
174	0x3f6182ad	0.8809002
175	0x3e982611	0.29716542
176	0xbe6bfee5	-0.23046453
177	0xbe179c12	-0.1480563
178	0xbeefd889	-0.4684489
179	0x3d9e4ef3	0.07729902
180	0xbee75a1a	-0.4518593
181	0xbec7b38b	-0.39004168
182	0xbef28e22	-0.47374064
183	0x3d2e7a52	0.042597122
184	0xbddfdfd0	-0.10931361
185	0x3f029cc7	0.51020473
186	0xbf11eacf	-0.56998914
187	0x3dad79be	0.08470486
188	0xbe9a9fc2	-0.3020001
189	0xbdb5a098	-0.088685215
190	0xbf87a996	-1.0598629
191	0xbe2b824e	-0.16748926
192	0x3d2dcdd3	0.042432617
193	0x3fa3915d	1.2778736
194	0x3f61f948	0.88271
195	0x3ffca999	1.9739257
196	0xbe01fc97	-0.12694012
197	0x3f8f0984	1.1174779
198	0x3ea071ea	0.3133691
199	0x3f36c412	0.7139293
200	0x3d765e50	0.060148537
201	0xbe335650	-0.17513394
202	0xbc99b7fb	-0.018764487
203	0x3f2401f7	0.640655
204	0xbdf74add	-0.12074826
205	0xbe885e2b	-0.26634344
206	0xbdc933e6	-0.09824352
207	0x3e0d7e7c	0.13817781
208	0x3c371738	0.011174969
209	0x3f77eaa4	0.9684241
210	0xbe96cdde	-0.2945394
211	0x3e6ff09f	0.23431633
212	0x3ecdb2d7	0.40175506
213	0x3d51e774	0.05124612
214	0xbdacdce1	-0.08440567
215	0x3c890f24	0.016730852
216	0xbd5b6361	-0.053561572
217	0x3d063ac7	0.0327709
218	0xbda70c39	-0.08156628
219	0xbe18a960	-0.14908361
220	0xbe0e40df	-0.13891934
221	0xbcc8b9c5	-0.024502644
222	0xbebc5c88	-0.36789346
223	0xbd671479	-0.05641601
224	0xbda0fdac	-0.07860884
225	0x3d875e7f	0.066098206
226	0xbd4d7d36	-0.05016824
227	0xbdbacc72	-0.09121026
228	0xbe2777ef	-0.16354345
229	0xbdcbd4b0	-0.09952676
230	0x3fbd9ba6	1.4813125
231	0x3f8a7bd8	1.0819044
232	0x3e71ec6b	0.23625343
233	0xbe0c785b	-0.13717787
234	0xbdc04adc	-0.09389278
235	0xbe1929cd	-0.14957352
236	0x3f475b8c	0.77874064
237	0x3e026a1c	0.1273579
238	0xbe17c69d	-0.14821859
239	0xbdce7f92	-0.10082926
240	0x3f835c63	1.0262569
241	0x3f9e4701	1.2365419
242	0xbe28b526	-0.16475353
243	0xbd446f6b	-0.04795782
244	0xbd3a5c32	-0.04549808
245	0xbd8313fb	-0.06400295
246	0x3f901eac	1.125936
247	0x3f7c9c7e	0.9867629
248	0x3a0c58b9	0.0005353797
249	0x3ef0fd46	0.47068232
250	0xbd92bdee	-0.071651325
251	0xbe37e198	-0.17957151
252	0xbe790e99	-0.24321975
253	0x3c8f4e16	0.017493289
254	0xbe605dcf	-0.21910785
255	0xbe570e83	-0.2100163

gnn.convs.0.nn.lins.0.bias f4 [16]
0	0x3ad5fc3c	0.0016325782
1	0xbe82578b	-0.25457415
2	0xbd8a78c1	-0.06761313
3	0x3df90145	0.12158445
4	0x3efb99cc	0.49140775
5	0xbdf6a958	-0.120440185
6	0x3d900477	0.070321016
7	0x3c97ef7d	0.018546814
8	0xbdfb062e	-0.12257038
9	0x3e0419f8	0.12900531
10	0x3ea60354	0.32424414
11	0xbe58fe52	-0.21190766
12	0xbdea3e7f	-0.114377014
13	0x3eccf948	0.40033937
14	0xbe0ebbcb	-0.13938825
15	0xbe5a43fa	-0.21314994

gnn.convs.0.nn.lins.1.weight f4 [16, 16]
0	0x3f1b11ad	0.60573846
1	0xbf086ee3	-0.532942
2	0xbd993cb6	-0.07482283
3	0xbde891da	-0.11355944
4	0xbf07f794	-0.5311215
5	0x3cc26388	0.0237291
6	0xbeea0c73	-0.45712623
7	0xbe4aca7f	-0.19803809
8	0x3ea920fa	0.33032972
9	0x3eda25db	0.42607006
10	0x3e33eb78	0.17570293
11	0x3f456c5d	0.77118474
12	0x3dab3f14	0.083616406
13	0xbeba42a3	-0.36378965
14	0x3e3d85cd	0.18508072
15	0x3df3240b	0.11872109
16	0xbefa7171	-0.48914674
17	0x3e679720	0.22616243
18	0xbe1f89b4	-0.15579873
19	0x3e22c1e0	0.1589427
20	0xbc9dc285	-0.019257793
21	0x3de2b945	0.110704936
22	0x3f090f23	0.5353872
23	0x3e4823ed	0.19544955
24	0x3d957815	0.072982945
25	0xbdf55a0c	-0.11980066
26	0x3e2fea3d	0.17179199
27	0xbf79241d	-0.9732073
28	0xbd9f8a6f	-0.07790076
29	0x3e871b2e	0.26387924
30	0x3d7a4976	0.061105214
31	0xbe0b5ef6	-0.13610443
32	0xbe57961e	-0.21053359
33	0xbe8e5800	-0.27801514
34	0xbdf711ac	-0.120639175
35	0x3e2d382e	0.16915962
36	0x3e3db26f	0.18525098
37	0x3da77ce3	0.08178117
38	0x3ba7eda8	0.0051247664
39	0x3e7088b4	0.23489648
40	0xbd1920ec	-0.037384912
41	0x3d304ad6	0.04304012
42	0x3df25f85	0.11834625
43	0xbf57d513	-0.843095
44	0x3d18c3e8	0.037296206
45	0x3e18f661	0.14937736
46	0x3e81b43c	0.2533282
47	0x3d94bede	0.072629675
48	0xbe6a7530	-0.22896266
49	0xbf555c8b	-0.83344334
50	0x3f32be15	0.6982129
51	0xbbb4849c	-0.0055089723
52	0x3e979814	0.29608214
53	0x3ee59875	0.44842878
54	0x3f16845e	0.58795726
55	0x3f13acba	0.57685435
56	0x3dfd11a5	0.12356881
57	0x3ea98fe3	0.3311759
58	0x3ed76be9	0.42074516
59	0xbfa03997	-1.2517575
60	0x3d71bf46	0.059020303
61	0x3ec29edf	0.38011834
62	0x3e6509ed	0.22367068
63	0x3e2577fc	0.16159052
64	0xbe97af3e	-0.29625887
65	0x3e0ffbd0	0.14060903
66	0x3ede88f6	0.43463868
67	0xbe3dea27	-0.18546353
68	0xbd764959	-0.060128544
69	0x3ea9cada	0.33162576
70	0x3f125064	0.57153916
71	0x3eaf2752	0.34209687
72	0x3e932f6d	0.2874712
73	0x3ea84510	0.3286519
74	0x3e951578	0.29117942
75	0xbf66fc06	-0.9022831
76	0xbe41fc62	-0.18943933
77	0x3e6becac	0.23039502
78	0xbd78eaca	-0.060770787
79	0xbd0ea24a	-0.03482274
80	0x3e5b1cc5	0.21397693
81	0x3db87ac9	0.090077944
82	0xbddb8612	-0.10718931
83	0xbbc188e5	-0.0059062117
84	0xba9c1005	-0.001190663
85	0x3e2fed61	0.17180397
86	0xbb89324b	-0.0041869036
87	0xbd8d325e	-0.068943724
88	0x3c383ec2	0.011245431
89	0xbe5aeb5e	-0.21378848
90	0xbd0ffb1f	-0.035151597
91	0x3ed94056	0.42431897
92	0xbe780888	-0.24222004
93	0xbde9a536	-0.114084646
94	0x3e4dc1ef	0.20093511
95	0xbc90af8e	-0.017661836
96	0xbc6b6c4e	-0.014369084
97	0xbd52d634	-0.05147381
98	0xbe149437	-0.14509664
99	0x3dd0b72d	0.10191188
100	0x3e1d1596	0.15340266
101	0xbe1fc21f	-0.15601395
102	0x3c92faf8	0.017941937
103	0xbc973978	-0.01846002
104	0xbde69d6e	-0.11260496
105	0xbe4f7e88	-0.20263112
106	0xbdcf986e	-0.101364955
107	0xbe551350	-0.20808148
108	0xbe073812	-0.13204983
109	0xbe5fc120	-0.21851015
110	0xbda29e0b	-0.079403006
111	0xbd79ef68	-0.06101933
112	0xbec1bddf	-0.37840173
113	0xbeb29a9a	-0.34883577
114	0x3eee3603	0.46525583
115	0x3e648f26	0.22320232
116	0xbbf7b7d8	-0.0075597577
117	0x3de95247	0.11392646
118	0x3f474369	0.77837235
119	0x3ec0feb7	0.37694332
120	0x3a91c15f	0.0011120251
121	0x3db00e3d	0.08596466
122	0x3ea86e9c	0.32896888
123	0xbfbb31a3	-1.4624523
124	0xbe44e66c	-0.19228524
125	0x3e83ac4d	0.25717393
126	0x3ea66646	0.32499903
127	0xbdba7090	-0.09103501
128	0xbeae583d	-0.34051695
129	0xbc860a37	-0.016362293
130	0x3f1b60cf	0.60694593
131	0x3e46a5d0	0.1939919
132	0x3e6be450	0.23036313
133	0x3ee09add	0.4386815
134	0x3ecefa7f	0.40425488
135	0x3ebd5888	0.36981606
136	0x3e5aa751	0.21352889
137	0x3e6806fe	0.22658917
138	0x3de45629	0.11149246
139	0xbf4ebf3c	-0.8076055
140	0x3cddc339	0.027070628
141	0x3dc623f1	0.09674824
142	0x3d458f66	0.04823246
143	0x3e1c6361	0.15272285
144	0x3f131360	0.5745144
145	0xbf0c15d5	-0.54720813
146	0xbe0b6724	-0.13613564
147	0xbdbc887c	-0.0920572
148	0xbde6c376	-0.1126775
149	0x3dedc8df	0.11610579
150	0xbef4bf6a	-0.47802287
151	0xbe658cbc	-0.22416967
152	0x3dc2c4d6	0.095102
153	0x3f0247c6	0.5089077
154	0x3ee9f6ec	0.456962
155	0x3f560953	0.8360798
156	0x3c9fc40c	0.019502662
157	0xbf3a43b5	-0.7275956
158	0x3e15952c	0.14607686
159	0x3c24cca5	0.010058557
160	0xbe74526e	-0.2385957
161	0x3d5ef4bc	0.054432616
162	0x3ef3e27e	0.47633737
163	0xbe69b4a2	-0.22822812
164	0xbc0af2ac	-0.008480709
165	0x3ea73e9f	0.32664964
166	0x3f1675d6	0.58773553
167	0x3f0617f3	0.52380294
168	0xbdadf1d8	-0.08493394
169	0x3e5cddf1	0.21569039
170	0x3e757a99	0.23972549
171	0xbf6c67f2	-0.9234611
172	0x3baed15a	0.0053350152
173	0x3ee0fc92	0.43942696
174	0x3e412b3c	0.18864149
175	0x3dc9e7ec	0.09858689
176	0xbe227886	-0.15866289
177	0xbe978066	-0.29590148
178	0xbdc6184e	-0.096726045
179	0xbf020159	-0.50783306
180	0xbdcb427a	-0.09924789
181	0x3d754d1f	0.059888
182	0xbe4a18aa	-0.19735971
183	0x3dd5d710	0.104414105
184	0xbe2d83d7	-0.16944824
185	0xbe677894	-0.2260459
186	0xbe663379	-0.22480573
187	0xbf233d0e	-0.6376504
188	0x3caa1f9a	0.020767022
189	0xbde54f98	-0.11196822
190	0xbd1b04b2	-0.037846275
191	0x3d83e51a	0.06440182
192	0xbe0841fc	-0.13306421
193	0x3d33f225	0.0439321
194	0xbcea1adb	-0.028577259
195	0xbe5572f5	-0.20844634
196	0xbe315fc7	-0.17321692
197	0x3e19720d	0.14984913
198	0xbe2b3f55	-0.16723378
199	0xbe9ab7d7	-0.30218384
200	0xbeb69317	-0.35659096
201	0xbdc03ffe	-0.093872055
202	0x3dac3f0d	0.084104635
203	0x3e08f5cb	0.13375013
204	0x3d8009c7	0.06251865
205	0xbe76cd8b	-0.24101846
206	0xbdc49273	-0.095982455
207	0xbe775512	-0.24153545
208	0xbf6b641b	-0.91949624
209	0xbe473b6b	-0.1945626
210	0x3e7ab4cf	0.24483036
211	0x3cc700b2	0.024292324
212	0x3e3a0c6c	0.18168801
213	0x3dfee27e	0.12445544
214	0x3e80f272	0.2518497
215	0x3e3c7c7e	0.18406865
216	0x3c2f7f8a	0.01071156
217	0x3e53e86f	0.20694135
218	0x3e2e85d1	0.17043234
219	0xbf37c833	-0.71789855
220	0xbb98cab9	-0.0046628383
221	0x3d1270f7	0.035752263
222	0x3e47118f	0.19440292
223	0x3e02057e	0.12697408
224	0x3c938698	0.018008515
225	0xbec48a62	-0.38386828
226	0xbd144178	-0.03619525
227	0xbe14fc88	-0.14549458
228	0xbecdce80	-0.4019661
229	0x3e32a298	0.17444837
230	0xbdd6492e	-0.10463177
231	0xbddc95af	-0.107707374
232	0xbdc17b11	-0.09447301
233	0xbe6c581a	-0.23080483
234	0xbca68555	-0.02032725
235	0xbe2ebe7e	-0.17064855
236	0xbdafd220	-0.08585
237	0x3b9f484a	0.0048609124
238	0xbaab680e	-0.0013077275
239	0x3db81950	0.08989203
240	0xbdfac564	-0.122446805
241	0xbf71ba50	-0.94424915
242	0x3f614229	0.8799158
243	0x3de10f49	0.109892435
244	0x3ed56e68	0.41685796
245	0x3f00cbf1	0.5031119
246	0x3f815412	1.0103781
247	0x3eebadc9	0.46031025
248	0xbc1ed41e	-0.009694127
249	0x3e51ed8e	0.20500776
250	0x3e42ba60	0.19016409
251	0xbf2b23d5	-0.6685155
252	0x3e16e912	0.14737347
253	0x3f3438f6	0.70399415
254	0xbe5df3cc	-0.21675032
255	0x3e56740e	0.20942709

gnn.convs.0.nn.lins.1.bias f4 [16]
0	0xbec7a847	-0.38995573
1	0x3db4d36a	0.088293865
2	0xbba7072f	-0.005097292
3	0x3e85dffe	0.26147455
4	0x3d05cf53	0.032668423
5	0xbe4a9c53	-0.19786195
6	0xbe87fd53	-0.2656046
7	0xbca565e7	-0.020190192
8	0x3e326035	0.17419513
9	0xbe9b5ae0	-0.3034277
10	0x3e73140d	0.23738118
11	0x3d258145	0.040406484
12	0xbe4b1597	-0.19832455
13	0xbd1f4272	-0.038881727
14	0xbe16e5b3	-0.14736061
15	0x3ea7faa4	0.3280841

gnn.convs.1.nn.lins.0.weight f4 [16, 16]
0	0x3c3b17a7	0.011419213
1	0xbd90b9e8	-0.07066709
2	0x3cbd1054	0.023079075
3	0xbdb00cc8	-0.08596188
4	0x3ed54e38	0.4166124
5	0xbd5f5543	-0.05452467
6	0x3e18d8ae	0.14926407
7	0x3e31851d	0.17335935
8	0x3debdc0a	0.115165785
9	0x3e7b7afd	0.24558635
10	0xbe3b07a7	-0.18264638
11	0x3ea61f58	0.32445788
12	0x3df84e8e	0.12124358
13	0x3d837343	0.06418469
14	0x3e1aa72a	0.1510283
15	0xbea1d394	-0.31606734
16	0xbd9ced12	-0.07662405
17	0x3a016256	0.00049356127
18	0xbe1655ed	-0.14681216
19	0xbe6e837d	-0.23292346
20	0xbdbe78ca	-0.093003824
21	0x3dc1d2d7	0.09464043
22	0x3e5bb324	0.21455055
23	0xbed48c32	-0.4151321
24	0x38a14e64	7.69168e-05
25	0xbe5ed2c7	-0.21760093
26	0xbe1acb40	-0.15116596
27	0xbea04fb8	-0.3131082
28	0x3dc09b48	0.094046175
29	0xbd237fbe	-0.039916746
30	0xbdd09075	-0.10183803
31	0x3db3f69c	0.087872714
32	0xbe367734	-0.1781891
33	0xbe469878	-0.193941
34	0x3d6f89cb	0.05848102
35	0xbdec2fcc	-0.11532554
36	0xbe4de63a	-0.20107356
37	0xbdfe34c2	-0.124124065
38	0x3e19961a	0.14998665
39	0x3d8a254a	0.067453936
40	0xbd82da44	-0.06389287
41	0xbdc3fbc8	-0.09569508
42	0xbe4c3434	-0.19941789
43	0xbd0163f8	-0.03158948
44	0xbe0f6a16	-0.14005312
45	0xbe3f6c31	-0.18693615
46	0xbe726d5a	-0.23674527
47	0xbdab66d8	-0.08369225
48	0xbe5a19c8	-0.21298897
49	0x3b4d6500	0.0031340718
50	0x3d577488	0.052601367
51	0x3d58f568	0.052968413
52	0xbc0da980	-0.008646369
53	0xbdf232e8	-0.11826116
54	0x3df6f644	0.1205869
55	0xbe205e68	-0.15661013
56	0xbdb121a0	-0.086489916
57	0xbd754050	-0.059875786
58	0xbe0eea62	-0.13956597
59	0xbe0c6c76	-0.1371325
60	0x3e2f2f66	0.17107925
61	0x3e4c5ec8	0.19958031
62	0xbe46760c	-0.19380969
63	0xbd00b790	-0.03142506
64	0xbe62e2a5	-0.2215677
65	0xbb8e74d8	-0.004347425
66	0xbe82bdd7	-0.2553546
67	0x3dfc8827	0.123306565
68	0x3e110d6f	0.14165281
69	0x3e2ac9e8	0.16678584
70	0xbe929853	-0.2863184
71	0x3df3a4c3	0.1189666
72	0xbe19005b	-0.14941542
73	0x3d030630	0.031988323
74	0xbe919f6d	-0.28441945
75	0xbefeca76	-0.4976384
76	0xbe0bf307	-0.13666926
77	0xbdaaff89	-0.08349521
78	0xbdd467f3	-0.10371389
79	0xbdbe6265	-0.09296111
80	0x3e01417c	0.12622637
81	0xbe875bee	-0.26437324
82	0xbea661bb	-0.32496437
83	0x3e23dde3	0.16002612
84	0xbd250c60	-0.040295005
85	0xbea6c474	-0.32571757
86	0x3d4a1770	0.049338758
87	0xbd1a9010	-0.037735045
88	0xbd1882db	-0.03723417
89	0xbe823097	-0.25427696
90	0xbe5c928a	-0.21540275
91	0x3d88c6dc	0.066785544
92	0xbe731c14	-0.2374118
93	0x3d79b290	0.060961306
94	0x3e2057d2	0.15658501
95	0xbcae5ec7	-0.021285428
96	0xbd7c3f93	-0.061584067
97	0x3e145e87	0.14489184
98	0xbe1bd94b	-0.1521961
99	0x3d6c2cd9	0.057659958
100	0xbe493e19	-0.19652595
101	0xbe8781a0	-0.26466084
102	0x3e1fcf58	0.15606439
103	0xbe5c1408	-0.21492016
104	0xbe405aeb	-0.18784682
105	0xbc3d04c7	-0.011536784
106	0x3df195bf	0.1179614
107	0xbddec500	-0.108774185
108	0x3e110fe4	0.14166218
109	0xbe0fe19d	-0.14050908
110	0x3e25edde	0.1620402
111	0xbd9ee7af	-0.07759034
112	0xbea46ebb	-0.3211573
113	0x3db89dcf	0.090144746
114	0xbe194ab6	-0.14969906
115	0x3f3cc164	0.7373259
116	0x3e027376	0.12739357
117	0xbcb530de	-0.022118028
118	0xbd5682be	-0.05237078
119	0x3e6edd73	0.23326664
120	0x3dd3abf3	0.10335531
121	0xbec0dfdf	-0.376708
122	0x3ea252d5	0.3170382
123	0x3e0bba16	0.13645205
124	0x3ce16153	0.027512228
125	0x3e44c97d	0.19217487
126	0x3e6bd734	0.23031312
127	0x3ea9905e	0.33117956
128	0x3f0521c3	0.5200464
129	0xbdecd2aa	-0.115636185
130	0x3c739fd0	0.014869645
131	0xbe94d44b	-0.29068217
132	0x3e1525c5	0.14565189
133	0x3d5cd120	0.053910375
134	0x3cca9234	0.024727918
135	0xbe7b2b2f	-0.24528192
136	0x3ede1628	0.4337628
137	0x3eb5d82e	0.35516495
138	0x3e811106	0.252083
139	0x3d08adda	0.033368923
140	0xbdd7b3bd	-0.10532329
141	0xbda3cbac	-0.07997832
142	0x3d9c8116	0.07641809
143	0xbde09dcf	-0.109675996
144	0xbf1cc62f	-0.61239904
145	0x3e696d23	0.22795539
146	0x3ddfa157	0.10919445
147	0x3f831d45	1.0243307
148	0x3ebddb5e	0.37081426
149	0xbdb32bda	-0.087485984
150	0xbdb1a2ef	-0.08673655
151	0x3ef0f402	0.47061163
152	0x3ed20918	0.41022563
153	0xbeca97d4	-0.3956896
154	0x3ea51cd5	0.3224856
155	0x3ba946d4	0.005165914
156	0xbc84789a	-0.016170789
157	0x3e37cf92	0.17950276
158	0xbe6b83ec	-0.22999543
159	0x3f17e6d3	0.59336585
160	0x3dc10295	0.094243206
161	0xbe78f9fd	-0.24314113
162	0xbdbeff3f	-0.09326028
163	0xbea36d64	-0.31919396
164	0x3cf4432d	0.029817188
165	0xbe99bb91	-0.30025914
166	0xbd1a7760	-0.0377115
167	0xbe186507	-0.14882289
168	0xbd9dd2be	-0.077062115
169	0xbe5503a4	-0.2080217
170	0x3e10be0b	0.14134996
171	0xbe02bf92	-0.12768391
172	0x3cbab80f	0.022792844
173	0x3d039174	0.032121137
174	0x3dc49a74	0.09599772
175	0x3cbe6b35	0.02324448
176	0xbe8e83ae	-0.2783484
177	0x3e3e0c69	0.18559422
178	0x3da2bb74	0.0794591
179	0x3f50e71e	0.81602657
180	0x3e6e80d7	0.23291336
181	0xbe115be8	-0.14195216
182	0xbec1491f	-0.377511
183	0x3ec4d8c3	0.38446626
184	0x3debc934	0.11512986
185	0xbf0d80d7	-0.5527472
186	0xbe2aa5f1	-0.16664864
187	0x3dc2b24d	0.095066644
188	0xbdfc1277	-0.123082094
189	0xbcd773d6	-0.026300352
190	0xbe19e1da	-0.15027562
191	0x3eec474e	0.4614815
192	0x3dc8509f	0.09781002
193	0xbdcb35d7	-0.099223785
194	0x3d28d0fa	0.04121492
195	0xbdd0b6e7	-0.10191136
196	0xbe9d4b90	-0.30721712
197	0xbe9b9f98	-0.30395198
198	0x3e4723c4	0.19447237
199	0xbe244f7c	-0.16045946
200	0xbe060f64	-0.13091809
201	0xbdf11f63	-0.11773565
202	0x3dafc7d4	0.08583036
203	0xbdbbca41	-0.09169436
204	0xbe897afa	-0.26851636
205	0xbe06c5ec	-0.13161439
206	0xbe750e7c	-0.23931307
207	0xbc8355a7	-0.016032053
208	0xbd641831	-0.055687133
209	0xbdccd7e0	-0.100021124
210	0xbea5300d	-0.32263222
211	0x3e537778	0.20651042
212	0xbe500716	-0.20315203
213	0x3dd0e486	0.101998374
214	0x3df30254	0.118656784
215	0xbda55534	-0.08072892
216	0x3e0f41b4	0.13989908
217	0xb9c95105	-0.00038398072
218	0xbc6a2a7f	-0.014292358
219	0x3e374740	0.17898273
220	0xbe41e87d	-0.18936343
221	0xbe8375b4	-0.25675738
222	0x3d549218	0.05189714
223	0xbea5fa7e	-0.32417673
224	0xbe130582	-0.1435757
225	0xbd8aa38a	-0.06769474
226	0x3e86a298	0.26295924
227	0x3f4c7e23	0.7987997
228	0x3d84ce66	0.0648468
229	0xbec32673	-0.38115272
230	0xbf069308	-0.525681
231	0x3ebe5163	0.37171468
232	0x3e830ba0	0.25594807
233	0xbf1a67fe	-0.6031493
234	0x3e47bd37	0.19505773
235	0xbdbb69f2	-0.09151067
236	0xbe4e6391	-0.20155169
237	0x3d49d072	0.049271055
238	0xbcfd33f1	-0.030908557
239	0x3f13bd2a	0.57710516
240	0xbed5802a	-0.41699344
241	0x3e7bf518	0.24605215
242	0xbdeea49a	-0.11652489
243	0x3d8352dd	0.06412289
244	0xbef28bad	-0.4737219
245	0xbec5fe82	-0.38670737
246	0xbe68f1b0	-0.22748446
247	0x3e8948d3	0.26813373
248	0xbd8f6892	-0.07002367
249	0xbf800a2f	-1.0003108
250	0xbe81011e	-0.25196165
251	0xbee27989	-0.4423335
252	0x3efbf58e	0.4921078
253	0x3e8aa08f	0.2707562
254	0x3e0703e8	0.13185084
255	0x3d305358	0.043048233

gnn.convs.1.nn.lins.0.bias f4 [16]
0	0x3d81cc7a	0.06337829
1	0x3d9a8df0	0.07546604
2	0xbe651641	-0.2237177
3	0xbde9d9b4	-0.11418477
4	0x3dc5cf23	0.09658649
5	0x3b177227	0.0023108812
6	0xbdf494b2	-0.11942424
7	0xbe756be5	-0.2396694
8	0x3e07d42e	0.13264534
9	0xbe49a6c9	-0.1969253
10	0x3b649766	0.003488028
11	0x3dfb933b	0.12283941
12	0xbe388dff	-0.18022917
13	0xbe5c4423	-0.21510367
14	0xbdbdfde3	-0.09276941
15	0xbe5a54a0	-0.21321344

gnn.convs.1.nn.lins.1.weight f4 [16, 16]
0	0xbd45b33d	-0.048266638
1	0xbd1fb0af	-0.038986858
2	0x3dc22b3f	0.09480905
3	0xbe344ffa	-0.17608634
4	0xbcb54185	-0.022125969
5	0xbd806f68	-0.06271249
6	0x3dbd3fe4	0.09240702
7	0xbd94d2d0	-0.07266772
8	0xbe20435b	-0.15650694
9	0x3f150ba7	0.58220905
10	0xbc93caca	-0.018041033
11	0xbde4577e	-0.111495
12	0x3e3d1722	0.18465856
13	0x3dbd72d8	0.0925042
14	0x3e5cd29d	0.21564718
15	0x3ed164f8	0.40897346
16	0xbdfd7f65	-0.12377814
17	0x3e8990db	0.26868328
18	0xbd9748ec	-0.073869556
19	0x3e3686fa	0.17824927
20	0x3e646bb4	0.2230671
21	0xbde452f9	-0.11148638
22	0x3d9b48bb	0.075822316
23	0xbe29e223	-0.1659017
24	0xbdf6f4d2	-0.120584145
25	0xbe79ab22	-0.24381688
26	0xbe7ff29e	-0.24994895
27	0xbc439852	-0.011938171
28	0xbe20863b	-0.15676205
29	0x3dc8dcd7	0.09807747
30	0x3e3c872d	0.1841094
31	0xbb2eae19	-0.0026654063
32	0x3cd23967	0.025662137
33	0xbdec3cb6	-0.11535017
34	0x3dfb2dcc	0.122645944
35	0x3dacc4d8	0.084359825
36	0xbdd11a17	-0.10210054
37	0x3e499dd2	0.1968911
38	0xbe2dc312	-0.16968945
39	0xbdf89a38	-0.1213879
40	0xbe1d17e8	-0.15341151
41	0xbde38004	-0.111084014
42	0x3d580ba0	0.05274546
43	0xbdb32b36	-0.08748476
44	0xbd86c040	-0.065796375
45	0xbddffc9c	-0.10936853
46	0xbe31309e	-0.17303702
47	0x3d9df61c	0.07712957
48	0x3dd3b8a7	0.10337954
49	0xba89617c	-0.0010481323
50	0xbe47503a	-0.19464198
51	0xbe561ece	-0.20910189
52	0x3df0498f	0.1173278
53	0x3e3308ff	0.174839
54	0x3e80a3f7	0.25125095
55	0x3eab725f	0.33485696
56	0x3f2fd58c	0.6868522
57	0xbe2207cb	-0.15823285
58	0xbe38ad05	-0.18034752
59	0x3d3b2e2a	0.045698322
60	0xbe06d594	-0.13167411
61	0xbdf778ac	-0.12083563
62	0xbd896fcf	-0.06710779
63	0x3e96674d	0.29375687
64	0xbed532e2	-0.41640383
65	0xbe2530b6	-0.16131863
66	0x3e7e0e98	0.24810255
67	0xbd4807e0	-0.048835635
68	0x3dedace3	0.11605241
69	0xbd884225	-0.06653241
70	0xbe828cc2	-0.25498015
71	0x3dae35d5	0.085063614
72	0x3e1b4e16	0.15166506
73	0x3e9f340d	0.310944
74	0x3c684a24	0.014177833
75	0x3eb95f2e	0.3620543
76	0x3d092144	0.03347899
77	0x3d42bdb8	0.04754421
78	0x3eb7d040	0.3590107
79	0x3ebd6fdd	0.36999407
80	0xbe8606ee	-0.26177162
81	0xbdfb5f28	-0.12274009
82	0xbc6197e0	-0.01376912
83	0x3e323218	0.17401922
84	0x3e2d6fcc	0.16937178
85	0xbdc19f14	-0.0945417
86	0xbe41692e	-0.18887779
87	0x3e153377	0.14570414
88	0xbe28a8d4	-0.16470653
89	0xbdbc6228	-0.09198409
90	0xbd9a5054	-0.075348526
91	0x3e040aaf	0.128947
92	0xbe176eb4	-0.14788324
93	0xbe7dc3da	-0.24781743
94	0xbe75295e	-0.23941562
95	0xbd5596d8	-0.05214581
96	0xbe704d2f	-0.23466943
97	0x3e524c28	0.20536864
98	0x3d29ad50	0.04142505
99	0x3e10c97c	0.1413936
100	0xbe772c4a	-0.24137989
101	0xbde8bba0	-0.11363912
102	0x3d8a0dd8	0.06740922
103	0xbe5d3f3d	-0.21606155
104	0xbe6b51fc	-0.22980493
105	0xbc853f26	-0.016265463
106	0xbe4bad00	-0.19890213
107	0xbce3a522	-0.027788702
108	0x3e17f14e	0.14838144
109	0xbd95a94c	-0.073076814
110	0xbe7339b8	-0.23752487
111	0xbe490958	-0.1963247
112	0xbddc4d73	-0.1075696
113	0xbc6ed47b	-0.0145770265
114	0x3e3b288c	0.18277186
115	0x3e64fc4e	0.22361872
116	0xbe9b5179	-0.30335596
117	0x3ddc30ac	0.10751471
118	0x3de1dda1	0.110286005
119	0x3e8bbd33	0.27292785
120	0xbed20a70	-0.41023588
121	0x3f210211	0.6289378
122	0x3e294bd1	0.16532828
123	0x3e0296d9	0.12752856
124	0xbda6306e	-0.08114706
125	0xbe66174a	-0.22469822
126	0x3d78a2fb	0.060702305
127	0x3e0cf01e	0.13763472
128	0x3ddc180e	0.107467756
129	0xbd8f1a09	-0.06987388
130	0x3d669b50	0.05630046
131	0xbe4f5b48	-0.20249665
132	0xbcd095c1	-0.025462033
133	0x3e4507a2	0.19241193
134	0xbde71d14	-0.11284843
135	0xbbf7ac92	-0.007558414
136	0xbdf8be14	-0.121456295
137	0xbc93027a	-0.017945517
138	0xbd483238	-0.048876017
139	0xbe3a0404	-0.18165594
140	0xbe71bb32	-0.23606566
141	0x3e4ec574	0.2019251
142	0x3e053710	0.13009286
143	0xbe530c4e	-0.20610163
144	0xbea1e9fc	-0.31623828
145	0x3e211c3a	0.15733424
146	0xbda36b18	-0.07979411
147	0xbe2d41b8	-0.16919601
148	0x3e205314	0.15656692
149	0xbdd4d92b	-0.10392984
150	0x3e0111a3	0.12604384
151	0xbb405d4a	-0.002935248
152	0xbd41565f	-0.04720151
153	0xbe4f9f04	-0.20275503
154	0xbd3dbf5b	-0.04632507
155	0xbd9930b8	-0.074799955
156	0x3dd4c2ac	0.10388693
157	0xbdbf7f84	-0.093504936
158	0xbe60a86f	-0.21939252
159	0x3e871364	0.2638198
160	0x3d7c8de4	0.061658755
161	0x3e415098	0.188784
162	0x3d678040	0.056518793
163	0xbd7f2860	-0.062294364
164	0xbe38dc2c	-0.18052739
165	0xbda0b584	-0.07847121
166	0xbd040523	-0.03223146
167	0x3e80a734	0.25127566
168	0xbea64e4f	-0.3248162
169	0x3f49b53a	0.78792155
170	0x3dc4771c	0.09593031
171	0x3e3c3166	0.18378219
172	0x3dc320d6	0.09527747
173	0x3c94dd0b	0.018171808
174	0x3f228464	0.6348326
175	0x3e99fb9b	0.30074772
176	0x3de1f74d	0.11033497
177	0x3d878f99	0.06619186
178	0x3e482aa9	0.19547524
179	0x3e0fc978	0.14041698
180	0x3e457d98	0.19286191
181	0x3d7c635c	0.061618194
182	0x3cf745f9	0.030184733
183	0x3ecaa655	0.39580026
184	0xbe0cca60	-0.13749075
185	0x3f4602c2	0.7734796
186	0x3e692b70	0.22770476
187	0x3ebce9c5	0.36897102
188	0x3bcd66d7	0.006268363
189	0x3dc6d8d8	0.097093284
190	0x3f2d904c	0.67798305
191	0x3e131886	0.14364824
192	0xbe4585e8	-0.19289362
193	0xbe70a108	-0.23498929
194	0x3e1fc970	0.15604186
195	0xbd8b95d8	-0.0681569
196	0xbd84960c	-0.06473932
197	0x3dd045d4	0.10169569
198	0x3d8d472c	0.068983406
199	0xbe073fda	-0.13207951
200	0xbd7d91c8	-0.061906606
201	0xbe3afbaa	-0.18260065
202	0xbe6fd6d4	-0.23421794
203	0x3e08fafc	0.13376993
204	0x3bea7080	0.0071545243
205	0x3e634c76	0.22197136
206	0x3dc0e438	0.09418529
207	0x3e2ae32c	0.16688222
208	0xbd9071d9	-0.07052965
209	0x3da45969	0.08024866
210	0xbc60c2c6	-0.013718313
211	0xbe2323b4	-0.15931588
212	0x3e04cbb7	0.12968336
213	0xbd8fb82e	-0.07017551
214	0x3dcfaf67	0.10140877
215	0x3e6b6ca4	0.22990662
216	0xbe815c3a	-0.25265676
217	0x3cf6f817	0.030147595
218	0x3e475f23	0.19469886
219	0x3d09253f	0.033482786
220	0xbd399de1	-0.04531658
221	0x3c1339d2	0.008985953
222	0x3ec10a2e	0.3770308
223	0xbd9e98f2	-0.07744016
224	0xbe26d5aa	-0.16292444
225	0xbe07ec8b	-0.13273828
226	0x3e27eb53	0.16398363
227	0xbdce1520	-0.10062623
228	0x3dc2885a	0.09498663
229	0xbe334884	-0.17508131
230	0x3d64fcca	0.05590514
231	0x3f02b8a6	0.51063
232	0xbe96d09c	-0.2945603
233	0x3f230d5e	0.6369227
234	0xbd6cd154	-0.05781682
235	0x3eabaef5	0.3353192
236	0xbe38d87a	-0.1805133
237	0xbdd5b4d5	-0.104348816
238	0x3f10a372	0.564994
239	0x3ea75ec4	0.32689488
240	0xbc97ee81	-0.018546345
241	0xbe1d57e2	-0.15365556
242	0x3e020a5f	0.12699269
243	0xbdd312b0	-0.10306299
244	0xbe4abe01	-0.19799043
245	0xbc7105b2	-0.0147108305
246	0xbe2826fc	-0.16421121
247	0x3e372e64	0.1788879
248	0xbe7d6e67	-0.24749146
249	0xbdd4924b	-0.10379466
250	0xbe4d8410	-0.20069909
251	0xbe580641	-0.21096136
252	0xbdd3fa18	-0.10350436
253	0x3ea010c5	0.31262794
254	0x3dac13e3	0.084022306
255	0xbd620541	-0.05518079

gnn.convs.1.nn.lins.1.bias f4 [16]
0	0xbcb2eba2	-0.021840874
1	0x3df30428	0.11866027
2	0xbd401a3b	-0.046900015
3	0xbd66473d	-0.056220282
4	0xbe0df368	-0.13862383
5	0xbe7e000d	-0.24804707
6	0xbe8f5372	-0.2799335
7	0xbc568cb1	-0.013095067
8	0xbe48e5e9	-0.19618954
9	0xbdabda86	-0.083912894
10	0x3cbc3f76	0.02297948
11	0x3cee88aa	0.0291179
12	0xbe284bb0	-0.16435122
13	0x3e2747ec	0.1633603
14	0x3df0a8d5	0.11750952
15	0x3e2409c7	0.16019355

gnn.convs.2.nn.lins.0.weight f4 [16, 16]
0	0x3e522f20	0.2052579
1	0x3e32d870	0.17465377
2	0x3d8b3044	0.06796315
3	0xbea422d8	-0.32057834
4	0x3e50442e	0.20338508
5	0xbda2be65	-0.07946471
6	0x3e7c0782	0.24612239
7	0x3e256f62	0.1615577
8	0xbc95ca64	-0.018284984
9	0xbd45680e	-0.048194937
10	0x3e90156d	0.28141347
11	0x3e9427af	0.28936526
12	0x3d9c4230	0.07629812
13	0x3e10fd09	0.14159025
14	0x3e8ad4ea	0.27115566
15	0x3e59a8ac	0.2125575
16	0x3e9f4ea4	0.31114686
17	0xbc918661	-0.017764272
18	0xbdebeac7	-0.115193896
19	0xbe544fd5	-0.20733579
20	0x3e97b9e9	0.29634026
21	0x3de8d593	0.11368861
22	0x3e1af477	0.15132318
23	0x3e41d868	0.18930209
24	0x3e674819	0.22586097
25	0x3e7a5d43	0.24449639
26	0x3eb29240	0.34877205
27	0x3df34a78	0.11879438
28	0x3de96614	0.11396423
29	0xbe50535e	-0.20344302
30	0xbde5ec99	-0.11226768
31	0x3dd2adf3	0.102870844
32	0x3d962df0	0.07332981
33	0x3df16e03	0.11788561
34	0x3d621de8	0.055204302
35	0xbdb393d0	-0.08768427
36	0x3e3bbc1c	0.18333477
37	0x3ddf6c1c	0.10909292
38	0x3dadc1ac	0.084842056
39	0x3e555766	0.20834121
40	0xbe721617	-0.23641239
41	0xbd586973	-0.05283494
42	0x3ea50c20	0.32235813
43	0x3ea5a686	0.3235361
44	0x3d9fbb48	0.07799393
45	0x3cfb8a9a	0.030705739
46	0x3ed3c669	0.41362312
47	0xbdba1af1	-0.0908717
48	0xbc214e29	-0.009845295
49	0xbdbae3bc	-0.09125468
50	0xbcd3d666	-0.02585907
51	0xbcc63eb2	-0.024199817
52	0xbdbd49f3	-0.0924262
53	0xbc2e7d75	-0.0106500285
54	0x3e6d0f7a	0.23150435
55	0x3e94ee9e	0.290883
56	0x3e4939e4	0.1965099
57	0xbd81a819	-0.0633089
58	0x3e8c094e	0.2735085
59	0x3efe4fe1	0.49670318
60	0xbe3e5cb4	-0.18590051
61	0xbcee9727	-0.02912481
62	0x3ee9f154	0.4569193
63	0xbdf3904f	-0.11892759
64	0xbd36be62	-0.044615157
65	0xbe7836af	-0.2423961
66	0x3e40e823	0.18838553
67	0x3c7ae019	0.015312218
68	0x3d1947ce	0.037421994
69	0xbdc6759c	-0.09690401
70	0xbda84f10	-0.08218205
71	0x3ceabd88	0.028654829
72	0x3cbbf927	0.022945954
73	0xbd31578f	-0.043296393
74	0xbea7d1d7	-0.32777283
75	0xbd81b947	-0.06334167
76	0x3d7e3bf0	0.06206888
77	0xbdee1aff	-0.11626243
78	0xbc97f6b1	-0.018550249
79	0xbd9546b8	-0.07288879
80	0xbe33f28f	-0.17572998
81	0x3f032413	0.5122692
82	0xbd83d464	-0.06436995
83	0x3e2fe280	0.17176247
84	0xbe2ceb22	-0.16886571
85	0x3e49721c	0.19672436
86	0x3d9ac7cc	0.075576395
87	0x3e645da7	0.2230135
88	0x3db412dc	0.0879266
89	0xbdbc1b0c	-0.09184846
90	0xbd92b43c	-0.07163283
91	0xbdf19588	-0.11796099
92	0xbe0a66d0	-0.13515782
93	0x3e9a32d3	0.301169
94	0xbde18cf4	-0.11013213
95	0x3e447b96	0.1918777
96	0xbe414afe	-0.18876263
97	0x3e054ca9	0.13017525
98	0x3e1af4b0	0.15132403
99	0xbc8faec4	-0.01753939
100	0xbd7e6d49	-0.06211594
101	0xbe1c0d96	-0.15239558
102	0xbe91354b	-0.28360972
103	0xbdf59a50	-0.119923234
104	0x3dd76aa1	0.10518385
105	0x3e4d2e65	0.2003723
106	0x3d5e7103	0.054306995
107	0xbd9141a2	-0.070925966
108	0xbe28b30c	-0.16474551
109	0x3d5bdd77	0.053678002
110	0x3d86d814	0.065841824
111	0xbdb52d3b	-0.08846518
112	0xbe3940d4	-0.18091136
113	0x3e3faecf	0.18719028
114	0xbe1c64e5	-0.15272863
115	0xbeec95e5	-0.4620811
116	0x3dee030a	0.116216734
117	0x3e08a1de	0.13342997
118	0x3d52ff00	0.05151272
119	0xbea24cb0	-0.31699133
120	0x3e196945	0.14981563
121	0x3b9d019d	0.004791452
122	0x3c87bc37	0.01656924
123	0xbd40938f	-0.047015723
124	0xbe21d010	-0.15802026
125	0x3cce1f1d	0.02516132
126	0x3d8c4e56	0.06850879
127	0xbd953704	-0.07285884
128	0x3e6f861f	0.23391007
129	0x3dd27a8a	0.10277279
130	0x3d2e5e48	0.042570382
131	0xbe4b9e83	-0.19884686
132	0x3dbcbc7d	0.09215639
133	0xbe0c7cff	-0.13719557
134	0xbe0e3a33	-0.13889389
135	0x3eb12ef7	0.34606144
136	0xba9b5554	-0.0011850991
137	0xbddeb611	-0.1087457
138	0x3ef253ed	0.47329655
139	0x3e9b8981	0.30378345
140	0x3d154148	0.03643921
141	0xbdcab24c	-0.09897289
142	0x3efe5275	0.49672285
143	0x3e5683ea	0.20948759
144	0x3e0427ff	0.12905882
145	0xbe95fe56	-0.29295605
146	0xbcf991a7	-0.03046496
147	0xbd48a1bf	-0.048982378
148	0xbdbb496c	-0.091448635
149	0xbcc65f97	-0.024215503
150	0xbde02cd4	-0.1094605
151	0xbe2132af	-0.1574199
152	0xbe000225	-0.12500818
153	0x3e0990f9	0.13434209
154	0xbda55da8	-0.08074504
155	0x3c94614b	0.0181128
156	0x3e4a54b2	0.19758871
157	0x3e215365	0.15754469
158	0x3df57d06	0.11986737
159	0xbe1fa68f	-0.15590881
160	0x3d2f8b19	0.042857263
161	0xbdade278	-0.08490461
162	0x3e5051fc	0.20343775
163	0xbea29768	-0.3175614
164	0xbd8d4d6c	-0.06899533
165	0xbe17eb5e	-0.14835879
166	0x3cb5d11b	0.022194436
167	0x3eb2a4dd	0.34891406
168	0xbd720c59	-0.059093807
169	0xbd9dad5b	-0.076990806
170	0x3eaaae51	0.33336118
171	0x3e92aace	0.2864594
172	0xbcb478f0	-0.022030324
173	0x3e216c38	0.15763938
174	0x3e50bfc5	0.20385654
175	0xbde84331	-0.11340941
176	0xbce02100	-0.027359486
177	0xbd9a7791	-0.07542337
178	0x3e3aaf78	0.18230999
179	0xbe25b310	-0.16181588
180	0x3dc6799f	0.09691166
181	0x3c7c0520	0.015382081
182	0x3e162028	0.14660704
183	0xbcb42cb0	-0.021993965
184	0xbc003dc0	-0.007827222
185	0x3cb223c0	0.021745563
186	0x3ddb7914	0.10716453
187	0xbe3a9d64	-0.18224102
188	0xbe3889f2	-0.18021372
189	0xbbf7b6c0	-0.0075596273
190	0xbdce1b08	-0.100637496
191	0xbe3a5686	-0.18197069
192	0xbdf9198c	-0.12163076
193	0xbe06273f	-0.13100909
194	0xbe199334	-0.1499756
195	0xbcf25342	-0.029580716
196	0xbe15d5a4	-0.14632279
197	0xbdffdf9c	-0.12493822
198	0x3d843b74	0.06456652
199	0xbdda193c	-0.10649344
200	0xbe272d68	-0.16325915
201	0xbe461f9a	-0.19347993
202	0x3e3cd150	0.18439221
203	0xbe6d0018	-0.23144567
204	0x3d666c98	0.056255907
205	0xbe6f6868	-0.23379672
206	0x3dd2c34b	0.102911554
207	0xbd2bf4c9	-0.041981492
208	0xbe2149ba	-0.1575078
209	0xbe4acbf5	-0.19804366
210	0x3e0072c4	0.1254378
211	0x3d9cf841	0.07664538
212	0xbe418252	-0.1889737
213	0x3b972240	0.004612237
214	0x3e6d52b2	0.23176077
215	0xbdb556d7	-0.08854454
216	0x3e51cde0	0.20488691
217	0xbce153ef	-0.027505843
218	0xbe1471a5	-0.14496477
219	0xbe46713b	-0.19379131
220	0xbe230906	-0.15921411
221	0xbe09bc51	-0.13450743
222	0xbea18b4a	-0.31551582
223	0xbe9be0fd	-0.3044509
224	0x3db9c261	0.09070278
225	0xbc905fa2	-0.017623726
226	0xbc3fe5c0	-0.0117124915
227	0xbd4db5c3	-0.05022217
228	0x3d0a7f85	0.03381302
229	0xbe2a1396	-0.16609034
230	0xbdc8f1fc	-0.0981178
231	0x3e998144	0.29981434
232	0x3e7ee878	0.24893367
233	0xbc2b6540	-0.010461152
234	0x3f06c2c5	0.52640945
235	0x3d5993aa	0.05311934
236	0x3da18184	0.07886031
237	0xbda0d673	-0.07853403
238	0x3e40ad26	0.18816051
239	0x3ece3f2a	0.40282565
240	0xbe0eb206	-0.13935098
241	0x3e5e5d6c	0.21715325
242	0x3df27c4c	0.11840114
243	0xbe11e1ae	-0.14246246
244	0x3b512800	0.003191471
245	0x3e3f36a6	0.1867319
246	0xbda02bc4	-0.07820848
247	0xbd1885e8	-0.037237078
248	0x3bd06500	0.0063596964
249	0xbdee0efc	-0.11623952
250	0xbd9ee230	-0.077579856
251	0x3e04fae0	0.12986326
252	0x3e5363ce	0.20643541
253	0xbe306d6c	-0.17229241
254	0xbda8a468	-0.08234483
255	0xbe05b244	-0.13056284

gnn.convs.2.nn.lins.0.bias f4 [16]
0	0xbe2b4872	-0.16726854
1	0x3e3e3f0f	0.18578742
2	0xbe06fc8a	-0.13182274
3	0x3e863964	0.2621566
4	0x3e197b4a	0.14988437
5	0xbd676102	-0.056489
6	0x3e27c1d1	0.16382529
7	0x3e3794c6	0.17927846
8	0xbda00c7e	-0.07814883
9	0x3d34018a	0.04394678
10	0xbe9fea0d	-0.31233254
11	0xbdf74009	-0.120727606
12	0xbdd2c3eb	-0.10291275
13	0x3dbac9d3	0.09120526
14	0xbe22cae8	-0.15897715
15	0xbe04eace	-0.12980196

gnn.convs.2.nn.lins.1.weight f4 [16, 16]
0	0xbe8e5e91	-0.27806523
1	0x3ce3eefa	0.027823914
2	0x3ddb77a9	0.10716183
3	0xbe9d26a9	-0.30693558
4	0xbd469fb0	-0.048492134
5	0x3dbbc929	0.09169228
6	0xbee0e4ed	-0.43924657
7	0x3e04b566	0.12959823
8	0xbb33fe96	-0.0027464977
9	0x3a5c2400	0.00083976984
10	0x3dc784a2	0.097420946
11	0x3d3e2a47	0.046427038
12	0xbddf78b0	-0.10911691
13	0xbeb6ef22	-0.3572932
14	0xbe7f5a1d	-0.24936719
15	0xbe4138e2	-0.18869355
16	0xbcc62ad1	-0.024190338
17	0x3e4a7182	0.19769862
18	0xbe1dde7b	-0.15416901
19	0xbe094ce4	-0.13408238
20	0xbdca817f	-0.09887981
21	0xbe0e3626	-0.13887843
22	0xbe9328e8	-0.28742146
23	0xbe604a09	-0.21903242
24	0xbe8d06d3	-0.2754427
25	0x3dd72bac	0.105063766
26	0xbd1dffbb	-0.03857396
27	0xbe0d7a10	-0.13816094
28	0x3e421db4	0.18956643
29	0xbe3dddf3	-0.18541698
30	0xbdd49458	-0.10379857
31	0x3d4e59d8	0.05037865
32	0xbe49ff24	-0.19726235
33	0x3ef4b4e9	0.47794273
34	0xbea2a3f7	-0.3176572
35	0xbde5fcfe	-0.11229895
36	0x3cb8f9e3	0.022580093
37	0xbe68ace5	-0.22722204
38	0x3d32d457	0.043659534
39	0xbd70b241	-0.058763746
40	0xbc1c1d66	-0.0095284935
41	0x3d96937c	0.07352349
42	0x3d69e3fe	0.057102196
43	0x3ccf5b30	0.025312036
44	0xbd9653dc	-0.07340214
45	0xbe351394	-0.1768325
46	0xbe846040	-0.25854683
47	0xbddbe508	-0.107370436
48	0x3e1673fe	0.14692685
49	0x3e901a65	0.28145137
50	0x3d85e496	0.0653774
51	0x3e06b4c4	0.13154894
52	0x3cb039b8	0.021511897
53	0xbe43b57e	-0.19112203
54	0xbe5f3aa0	-0.21799707
55	0x3dc8b8a2	0.09800841
56	0x3ee7f215	0.4530188
57	0x3dd4f197	0.10397642
58	0x3e807927	0.25092432
59	0x3e1d5134	0.15363008
60	0x3da9bca7	0.08287936
61	0x3cba742d	0.022760475
62	0x3df3b783	0.119002365
63	0xbd0b1050	-0.033951104
64	0x3e700ec6	0.23443136
65	0xbcc6d7c4	-0.024272807
66	0x3ef12e85	0.47105804
67	0x3e1a1a04	0.15048987
68	0xbd970a32	-0.073749915
69	0xbe65cf2b	-0.2244231
70	0x3e4a8415	0.19776948
71	0x398f2305	0.00027301177
72	0x3e210408	0.15724194
73	0xbe35e6c0	-0.17763805
74	0x3de919aa	0.11381848
75	0x3e6e89b6	0.2329472
76	0xbe7e3068	-0.24823153
77	0x3d8d5934	0.0690178
78	0x3ee1155e	0.43961614
79	0xbda7b334	-0.08188477
80	0x3d9f6553	0.07782998
81	0x3d885fac	0.06658873
82	0x3e1a10aa	0.1504542
83	0x3d3cf9fa	0.046136834
84	0xbf8e4b0b	-1.1116651
85	0xbe278569	-0.16359486
86	0xbe06bf4e	-0.13158914
87	0x3dc30632	0.09522666
88	0x3ebea1d5	0.37232843
89	0x3e009181	0.12555505
90	0x3ed38ab2	0.41316754
91	0xbdac5f8c	-0.084166616
92	0xbd637448	-0.055530816
93	0xbf5c72aa	-0.86112463
94	0x3e7e3b1b	0.24827234
95	0xbdd693ec	-0.104774326
96	0xbdb12f30	-0.086515784
97	0xbe540f46	-0.20708951
98	0x3e514098	0.20434797
99	0xbe4f0478	-0.20216548
100	0x3c0823a0	0.008309275
101	0xbe30e2b2	-0.17273977
102	0xbd369f50	-0.044585526
103	0x3dd3fbcc	0.10350761
104	0x3e1d3542	0.15352347
105	0xbe525492	-0.20540074
106	0xbe46737c	-0.19379991
107	0x3d74c088	0.059753925
108	0xbc931b60	-0.01795739
109	0xbe162466	-0.14662322
110	0xbe52f76c	-0.20602196
111	0x3e0bdca4	0.13658386
112	0x3c5f0154	0.0136111565
113	0x3e1dffb0	0.15429568
114	0xbd04b45a	-0.03239856
115	0x3d05e0f2	0.032685228
116	0x3ccc6d4f	0.024954466
117	0xbe58a252	-0.2115567
118	0xbc4edac2	-0.012625398
119	0xbd7aa187	-0.0611892
120	0xbe8323ec	-0.25613344
121	0x3e1bec9b	0.15226977
122	0xbe835867	-0.25653383
123	0xbe289b60	-0.16465521
124	0xbc9e4560	-0.01932019
125	0x3daa34d5	0.08310858
126	0xbea3e109	-0.32007626
127	0x3ce903f0	0.02844426
128	0xbbefff40	-0.0073241293
129	0xbdd1cf5c	-0.10244629
130	0x3dbb57b0	0.091475844
131	0xbe52de24	-0.20592552
132	0x3b41c200	0.0029565096
133	0xbe6cb550	-0.2311604
134	0xbe4b0bbc	-0.19828695
135	0xbe1e7b36	-0.15476689
136	0xbe7016de	-0.23446223
137	0x3df5072c	0.119642586
138	0xbe458d2e	-0.19292137
139	0x3ca4ff50	0.020141274
140	0xbe09354a	-0.13399234
141	0xbe7102b6	-0.2353619
142	0x3e409fac	0.1881091
143	0x3e617740	0.22018147
144	0x3c8a4817	0.016880078
145	0xbcb5ddab	-0.022200426
146	0x3ec577e6	0.38568038
147	0x3eababac	0.33529413
148	0x3e32d205	0.17462929
149	0xbb640b22	-0.0034796675
150	0xbdc9bd5f	-0.09850573
151	0x3dbe9e00	0.0930748
152	0x3ecb514a	0.39710456
153	0xbd503e52	-0.050840683
154	0x3f2be6c9	0.67149025
155	0xbe40906c	-0.18805093
156	0xbde67a0c	-0.11253747
157	0x3e22dee6	0.15905342
158	0xbdb0133d	-0.085974194
159	0x3e6d3728	0.23165572
160	0x3e721bac	0.23643368
161	0x3dcfac69	0.101403065
162	0x3f052a92	0.5201808
163	0x3e95a2f5	0.2922589
164	0xbe62bcd2	-0.22142342
165	0xbdae765d	-0.0851867
166	0x3e3b4d70	0.18291259
167	0x3cc22222	0.023697916
168	0x3eb90399	0.36135557
169	0xbdf88ac8	-0.121358454
170	0x3f3a78eb	0.72840756
171	0xbdff2bd8	-0.124595344
172	0xbe8c62f3	-0.27419242
173	0x3de4381e	0.11143516
174	0xbbc0c95a	-0.005883378
175	0x3e72ab1c	0.23698086
176	0x3e9884ed	0.29788914
177	0xbe1a3060	-0.15057516
178	0x3e80de6c	0.25169694
179	0x3e538084	0.20654494
180	0xbe6c2740	-0.23061848
181	0x3e86fbb1	0.263639
182	0x3e33a240	0.17542362
183	0x3e1faae0	0.15592527
184	0xbdbc9cb3	-0.092095755
185	0x3e48e7d3	0.19619684
186	0x3e847441	0.25869945
187	0xbde2e165	-0.11078147
188	0x3da83992	0.08214106
189	0xbeab2f67	-0.33434603
190	0xbda7e0df	-0.08197188
191	0xbba29040	-0.0049610436
192	0xbe7fba4a	-0.24973407
193	0xbe54db8c	-0.20786875
194	0xbe64ac76	-0.22331414
195	0xbebf4428	-0.37356687
196	0xbd859c23	-0.06523921
197	0xbbe39476	-0.006945188
198	0xbed6ba29	-0.41938904
199	0x3e5c4910	0.21512246
200	0xbb3e4980	-0.0029035509
201	0xbe4d7d9c	-0.20067447
202	0x3e1cedcc	0.15325087
203	0x3d5429eb	0.05179779
204	0xbe53e9b2	-0.20694616
205	0x3d68b894	0.056816652
206	0xbe8d8562	-0.27640826
207	0x3d909510	0.070596814
208	0x3e438ff9	0.1909789
209	0x3da27adf	0.07933592
210	0x3d5297c5	0.05141427
211	0x3e9580c3	0.291998
212	0xbe0dd02b	-0.13848941
213	0x3b37bb20	0.002803512
214	0x3d8ecfa1	0.06973196
215	0x3d2cf812	0.042228766
216	0x3efc1207	0.49232504
217	0x3dca6df1	0.09884251
218	0x3e8c6656	0.27421826
219	0xbe2bc8be	-0.16775796
220	0x3e332d1d	0.17497678
221	0xbd4bef98	-0.04978904
222	0x3cea6956	0.028614681
223	0xbdf09920	-0.11747956
224	0xbea294e8	-0.3175423
225	0xbc813874	-0.01577399
226	0x3cfae6bb	0.030627599
227	0x3d71a575	0.058995683
228	0xbda6317f	-0.081149094
229	0xbe336bd3	-0.175216
230	0x3da79d8f	0.08184349
231	0xbea91336	-0.3302247
232	0xbe844ee8	-0.2584145
233	0x3cf15892	0.029461179
234	0xbc540e40	-0.012942851
235	0x3d819810	0.06327832
236	0xbe1c4ca0	-0.15263605
237	0xbd92e671	-0.071728595
238	0xbde8806a	-0.11352618
239	0x3de93138	0.11386341
240	0xbd617c02	-0.055049904
241	0xbd6855ad	-0.05672233
242	0x3d7e225f	0.062044498
243	0x3d17df32	0.03707809
244	0xbdafc4b4	-0.0858244
245	0xbe13ec68	-0.1444565
246	0xbc977679	-0.01848911
247	0xbe450ee3	-0.1924396
248	0xbdccebdc	-0.10005924
249	0xbd79ab04	-0.06095411
250	0x3c8e3bb9	0.017362462
251	0xbe1992e4	-0.1499744
252	0xbe282cda	-0.1642336
253	0xbe22d09c	-0.1589989
254	0xbdbb750b	-0.091531835
255	0x3bca2280	0.0061686635

gnn.convs.2.nn.lins.1.bias f4 [16]
0	0xbe870574	-0.26371348
1	0xbd8f3d3f	-0.06994104
2	0x3d32bb08	0.0436354
3	0xb94e63bd	-0.00019682846
4	0xbbf2c1be	-0.00740835
5	0xbe015f60	-0.12634039
6	0xbe13d71a	-0.14437523
7	0xbe1c0636	-0.15236744
8	0xbd0a33f0	-0.033740938
9	0xbe77688b	-0.24160974
10	0xbe7f72e1	-0.24946167
11	0xbe40b1c5	-0.18817814
12	0xbeccbde9	-0.3998864
13	0x3e2e3af2	0.17014673
14	0xbdd0f495	-0.102029
15	0xbdaa7127	-0.08322363

gnn.convs.3.nn.lins.0.weight f4 [16, 16]
0	0x3d845fa8	0.064635575
1	0x3a09d64b	0.00052580674
2	0x3d12ec26	0.03586974
3	0x3e0788e9	0.13235821
4	0xbe6d6846	-0.23184308
5	0xbecfb04b	-0.40564188
6	0xbda55dd0	-0.08074534
7	0x3e3f1910	0.18661904
8	0xbd8ea6a0	-0.06965375
9	0xbe919bdc	-0.28439224
10	0x3d011200	0.031511307
11	0x3e500f5e	0.20318362
12	0x3db43eaa	0.08801015
13	0x3e366ebe	0.17815682
14	0x3e88f881	0.26752093
15	0xbe084b20	-0.13309908
16	0x3d112ef6	0.035445176
17	0x3da2f314	0.0795652
18	0x3e2a6150	0.16638684
19	0xbe1319c1	-0.14365293
20	0x3e461117	0.19342457
21	0x3d594421	0.05304349
22	0xbcfcf230	-0.030877203
23	0xbd45e9e9	-0.048318777
24	0x3d3eeb60	0.04661119
25	0xbe806cfa	-0.25083143
26	0xbe54bec8	-0.20775902
27	0x3e50fa20	0.20407915
28	0x3d131fc4	0.035918966
29	0x3e038b31	0.12846066
30	0x3df49545	0.119425334
31	0x3e578608	0.21047223
32	0xbe5c1820	-0.21493578
33	0x3e1ba032	0.15197828
34	0xbf709e17	-0.93991226
35	0x3de1db99	0.11028213
36	0x3f284948	0.6573682
37	0x3eabeefd	0.3358077
38	0xbe2c24d8	-0.1681093
39	0x3dbee5fc	0.0932121
40	0x3c869440	0.016428113
41	0x3eb90da8	0.3614323
42	0x3eb2fb68	0.34957433
43	0x3e644e16	0.22295412
44	0xbe36e218	-0.17859685
45	0x3e9ad606	0.30241412
46	0xbe269dd4	-0.16271144
47	0xbe7bbe1e	-0.24584243
48	0x3e8ae47a	0.2712744
49	0x3d8c84d8	0.068612754
50	0xbe9fe3b1	-0.31228402
51	0xbe35cbdb	-0.17753546
52	0xbe053cbf	-0.13011454
53	0x3e1c4718	0.15261495
54	0xbe52893a	-0.2056016
55	0x3e0c5c46	0.13707075
56	0xbd39e008	-0.04537967
57	0x3c9438bc	0.01809346
58	0xbe9c549c	-0.30533302
59	0x3e9199d2	0.28437668
60	0xbc6f34c6	-0.0145999845
61	0xbe544a40	-0.20731449
62	0x3de53fd8	0.11193818
63	0xbe3e0586	-0.18556795
64	0x3e4a71e0	0.19770002
65	0xbd882a7c	-0.06648728
66	0x3e9cb1b4	0.30604327
67	0x3f02c8a9	0.51087433
68	0x3c63be38	0.013900332
69	0x3e68fe54	0.22753268
70	0x3e0418a8	0.1290003
71	0xbde019a3	-0.1094239
72	0xbdf06718	-0.117384136
73	0x3f0e684c	0.55627894
74	0x3eedc5a2	0.46439844
75	0x3e4e9da5	0.20177324
76	0xbdaeca54	-0.08534685
77	0x3e08384b	0.13302724
78	0xbe53e5bd	-0.20693107
79	0xb8d86332	-0.00010318159
80	0xbd371e2b	-0.044706505
81	0x3e39cd37	0.1814469
82	0x3e42cbf6	0.19023117
83	0xbe2f68df	-0.17129849
84	0xbdfe5625	-0.124187745
85	0x3e192220	0.14954424
86	0x3c06c020	0.008224517
87	0x3dab8c9d	0.08376429
88	0xbdf59228	-0.11990768
89	0xbd5fbda4	-0.054624215
90	0x3dacabbe	0.08431195
91	0xbcbea25d	-0.02327078
92	0x3e00b57c	0.12569231
93	0xbe2f8af4	-0.1714285
94	0x3e0ba4b8	0.13637054
95	0x3e756877	0.23965631
96	0x3df8fcbf	0.121575825
97	0xbe2cebdf	-0.16886853
98	0x3e5797f3	0.21054058
99	0x3e0dd511	0.1385081
100	0x3dd165f7	0.102245264
101	0x3da76dc5	0.08175234
102	0xbddbc158	-0.10730237
103	0xbdc82414	-0.09772506
104	0x3a1a7400	0.0005891919
105	0x3d525366	0.051349066
106	0x3eafbd73	0.34324226
107	0xbd300b10	-0.0429793
108	0x3d8f567a	0.06998916
109	0x3e3b1f9f	0.18273781
110	0x3c72225d	0.014778701
111	0x3d8d5750	0.06901419
112	0xbdbd22e9	-0.09235174
113	0xbe3721b2	-0.17883947
114	0xbe32e3fa	-0.17469779
115	0xbd8405e6	-0.064464375
116	0xbde69ab0	-0.11259973
117	0x3d8be210	0.068302274
118	0xbe44f438	-0.19233787
119	0xbce3df74	-0.027816512
120	0xbe71e522	-0.23622563
121	0xbe69aeed	-0.22820635
122	0xbe03c058	-0.12866342
123	0xbd8996f0	-0.06718242
124	0xbe18063f	-0.14846133
125	0xbddb8fd1	-0.1072079
126	0x3e435cea	0.19078413
127	0xbc7268e0	-0.014795512
128	0x3d4f7a66	0.050653838
129	0xbcbc056f	-0.02295181
130	0xbd98540f	-0.07437908
131	0x3e7db337	0.24775396
132	0x3d7dc717	0.061957445
133	0xbd358677	-0.04431769
134	0xbc237280	-0.009976029
135	0xbb9701f2	-0.004608386
136	0xbd040858	-0.03223452
137	0x3ebf730b	0.37392458
138	0x3f03af47	0.51439327
139	0x3ea0215e	0.31275457
140	0x3d550400	0.052005768
141	0x3e855a47	0.2604544
142	0xbe41f17c	-0.18939775
143	0x3e39f494	0.18159705
144	0xba8a2a07	-0.001054109
145	0x3e3634b4	0.17793542
146	0x3dfe96e6	0.12431125
147	0xbdc195ad	-0.094523765
148	0x3d745c7f	0.059658524
149	0xbf5b246c	-0.8560245
150	0x3daa84dc	0.08326122
151	0x3e3b39d7	0.18283783
152	0xbe284bce	-0.16435167
153	0xbce9c9c8	-0.0285386
154	0x3d842d93	0.06454005
155	0x3e1c11c7	0.15241157
156	0xbe53efa6	-0.20696887
157	0xbe9caa5c	-0.30598724
158	0xbe3da1eb	-0.18518798
159	0x3e278139	0.16357888
160	0x3e16b8e8	0.14718974
161	0xbe081faa	-0.13293329
162	0xbd5cd61f	-0.05391514
163	0xbe3681d3	-0.17822962
164	0xbd314269	-0.043276224
165	0x3f6ef31f	0.93339723
166	0x3e63db06	0.2225152
167	0x3e1228d9	0.14273395
168	0xbdec1274	-0.11526957
169	0x3ecc7a4b	0.39937052
170	0x3b9a6de2	0.004712806
171	0x3e35fdf5	0.17772658
172	0x3e428874	0.18997365
173	0x3e3f48ae	0.18680069
174	0xbcc6935c	-0.024240188
175	0xbd6d698c	-0.057961985
176	0x3d45b7a8	0.04827085
177	0xbde89b3c	-0.113577336
178	0x3e28f576	0.16499886
179	0x3e47ac94	0.19499427
180	0x3e1fdd37	0.1561173
181	0x3c0c47e0	0.008562058
182	0x3e4ffdfc	0.20311731
183	0xbe8fbae6	-0.2807228
184	0x3e084e3c	0.13311094
185	0xbdc280d0	-0.09497225
186	0xbd7e1393	-0.062030386
187	0xbd8a5521	-0.06754518
188	0xbe1ded10	-0.15422463
189	0xbe723742	-0.23653892
190	0xbe8dcb71	-0.27694276
191	0x3d49d4d0	0.04927522
192	0xbdd662b0	-0.10468042
193	0xbd681820	-0.056663632
194	0xbe845642	-0.2584706
195	0xbd4de1f8	-0.05026433
196	0x3d886765	0.06660346
197	0xbdc9e5c5	-0.09858278
198	0xbdfcfb1c	-0.12352583
199	0xbabb6041	-0.0014295654
200	0xbe47cea2	-0.19512418
201	0xbc784132	-0.0151522625
202	0xbd44d972	-0.048058935
203	0xbe91c7d7	-0.28472778
204	0xba91a100	-0.0011110604
205	0xbe96a98a	-0.29426223
206	0x3e25cf21	0.16192295
207	0xbe667e96	-0.22509226
208	0xbec48d63	-0.3838912
209	0x3b41ef9b	0.002959228
210	0xbd7330e0	-0.059372783
211	0x3e119c07	0.14219676
212	0x3e1bb6cd	0.15206452
213	0x3e646839	0.22305383
214	0xbc6910a0	-0.014225155
215	0xbe072fce	-0.1320183
216	0x3df743b4	0.1207346
217	0x3eba85ac	0.3643011
218	0xbcb6baee	-0.022305932
219	0x3da010be	0.07815693
220	0xbe88a435	-0.2668778
221	0xbc48fc8d	-0.012267244
222	0x3e938fc2	0.28820616
223	0xbd3d048d	-0.046146918
224	0xbe21c689	-0.15798391
225	0xbdf99e33	-0.12188377
226	0xbe22d4db	-0.1590151
227	0x3dd49248	0.103794634
228	0x3e312111	0.1729777
229	0xbe1c091f	-0.15237854
230	0xbcac1f30	-0.021010965
231	0x3da1e7b4	0.07905522
232	0x3e185772	0.14877108
233	0xbe91ef3a	-0.28502828
234	0xbda6797c	-0.0812864
235	0x3d53df08	0.05172637
236	0x3d6b6b9a	0.057475664
237	0xbe8edea4	-0.27904236
238	0x3c234dbc	0.009967264
239	0xbe7ed808	-0.24887097
240	0xbc8f25ef	-0.017474143
241	0xbd3d9c98	-0.046291918
242	0x3e88d252	0.26722962
243	0xbe3ea2e7	-0.1861683
244	0x3d7671c6	0.060167097
245	0x3e12b28a	0.1432592
246	0x3e19b25c	0.15009445
247	0x3d8e50a6	0.06948976
248	0x3d8de7bc	0.069289654
249	0xbd3f624e	-0.04672461
250	0xbdd519c8	-0.10405308
251	0x3df5ed95	0.12008206
252	0xbdeeab86	-0.11653809
253	0x3d292918	0.041298956
254	0xbe6bdc7a	-0.23033324
255	0xbdb1bca2	-0.08678557

gnn.convs.3.nn.lins.0.bias f4 [16]
0	0x3e344a75	0.17606528
1	0x3e10af99	0.14129485
2	0xbd4dbda9	-0.050229702
3	0xbd2e885b	-0.042610507
4	0xbeb5f7fb	-0.35540757
5	0xbdfe8cdf	-0.12429213
6	0xbdda8349	-0.10669572
7	0x3dbac1ac	0.09118971
8	0xbe309f70	-0.1724832
9	0xbd865ec0	-0.06561041
10	0x3c3b5ce5	0.011435722
11	0xbd42de51	-0.0475753
12	0x3d2ffbf2	0.042964883
13	0x3e46d936	0.19418797
14	0x3e2553cc	0.16145247
15	0xbeafd6cb	-0.34343562
