Run_GIN_ModelCheckpoint_EvFr_2/NCI1_reps_2_folds_5_epochs_20_2023-04-26_11-05/rep_1_fold_2/checkpoints/model_trial_0.ckpt (torch, 245261 bytes, 86 tensors)

gnn.convs.0.nn.lins.0.weight f4 [32, 37]
000000 01 65 60 bd a6 fe 28 bd b5 70 e9 bc cb a2 d0 be
       -0.054783825 -0.041258477 -0.028496126 -0.407492
000010 87 ac 99 bc 2a 94 29 3d ad ac 17 be df 5d 07 3e
       -0.018759025 0.041401066 -0.14811964 0.13219403
000020 66 61 49 3f ac 0f a1 3d 70 9e 7b 3d 4e 9d ad bd
       0.78664243 0.07864317 0.061430395 -0.08477269
000030 f9 c9 48 bd de 3b 6c 3f 8c dc 38 be e9 25 b5 bc
       -0.04902074 0.9227885 -0.18052882 -0.022112804
000040 c7 fe 87 3e de a8 4a 3c 50 cc 29 3f f2 9e 29 3f
       0.26561567 0.012369363 0.6632738 0.66258156
000050 09 74 9b be 0a 00 c0 bd c0 8d 0b bd b4 42 89 3c
       -0.30361965 -0.093750075 -0.03407073 0.01675544
000060 01 03 8a bd 36 8c bf bd f2 5a 7c 3f 08 96 5e 3f
       -0.06738854 -0.09352915 0.9857627 0.8694768
000070 58 ab d0 3c 9a e3 4f 3d e8 07 98 3d 42 50 f3 3d
       0.025472328 0.050754167 0.07423383 0.11880542
000080 21 c6 ff 3c 29 04 ad bd c6 f8 6a 3c 8c b2 13 3e
       0.031222405 -0.08448059 0.014341539 0.14423579
000090 9e 46 c6 bd a6 6c c6 be 78 97 e3 bd 03 5f 00 be
       -0.09681438 -0.38754767 -0.11112875 -0.12536244
0000a0 dd c6 07 3e 0c ba 0a bf 59 dc 05 3d 6f 3c 6b bd
       0.13259454 -0.54190135 0.032680843 -0.05743068
0000b0 1c 7f 30 bd 69 10 35 3f 62 4a 1d 3f d0 8f 28 40
       -0.04308997 0.70728165 0.61441624 2.6337776
0000c0 63 ec 6f 3f a0 11 13 40 83 56 81 be 90 5f c4 3e
       0.9372007 2.2979507 -0.25261316 0.38354158
0000d0 03 31 79 bd 6f 90 ca 3d e6 98 fa 3f 50 19 16 be
       -0.060837757 0.0989083 1.9577911 -0.14658093
0000e0 57 66 a5 bd f1 6e e2 bc 80 42 1b 3c 47 d5 0a 3e
       -0.080761604 -0.027640792 0.009476304 0.13557921
0000f0 26 da 29 40 5b 29 dd 3f dd f8 05 3f 81 cd de 3e
       2.6539397 1.7278246 0.5233286 0.43516162
000100 88 36 15 be c1 00 a9 bd 95 76 89 be 41 98 d5 bc
       -0.14571583 -0.08252097 -0.26848283 -0.026073577
000110 e8 9d 65 3d eb 94 cf bd b2 3c 81 be 64 97 ec bd
       0.056058794 -0.10135826 -0.2524162 -0.11552313
000120 38 53 20 3e 58 ae 08 be fc 48 eb 3d 99 38 82 3e
       0.15656745 -0.13347757 0.1148853 0.25433806
000130 c6 8f 0c be 9d 7a 95 be c6 eb 44 be 91 49 ef 3d
       -0.1372672 -0.2919511 -0.19230565 0.116839536
000140 a8 24 0a 3d 77 11 10 be ab fe 81 3f 9a aa c0 3e
       0.033726364 -0.14069162 1.0155843 0.3763016
000150 48 5d 88 40 b7 88 bb bc a9 9e 80 3b b7 ee 12 be
       4.261387 -0.02289234 0.0039251638 -0.14348875
000160 3e 06 6b bd 0c c6 f5 bc 21 c2 9f be e0 39 87 bd
       -0.057379 -0.030001663 -0.31202796 -0.06602836
000170 9f b4 84 3f e9 18 3c 3f c3 bd 8f 3d dd 90 cd be
       1.0367621 0.7347551 0.07018616 -0.40149584
000180 21 08 23 be ca 82 78 bc a2 d7 cc 3f e2 73 6c be
       -0.1592107 -0.015167901 1.6003306 -0.23091081
000190 e9 54 31 3f bc 39 93 3e 15 87 76 be 67 21 9c bd
       0.6927019 0.28754985 -0.24074967 -0.076235585
0001a0 15 78 7e bb d9 33 0f 3e 2d 46 57 bd ee ed f3 bc
       -0.0038828899 0.13984622 -0.05255716 -0.02977654
0001b0 b3 9c a9 bd 68 5e df bc c9 d2 81 bd 58 fa 38 3f
       -0.08281841 -0.027266696 -0.06339032 0.72256994
0001c0 fa a2 1d 3f e4 ff d8 bc 00 0f 19 bd 6f 5e 48 3d
       0.6157681 -0.026489206 -0.03736782 0.048918184
0001d0 0a ce 1f 3f 55 5d a7 be 2f 39 dc bd bf 02 69 3f
       0.62423766 -0.32688394 -0.107530944 0.91019815
0001e0 de 41 07 be a7 48 e9 bd ee ce 04 bd 51 de 06 bd
       -0.1320872 -0.113908105 -0.032423906 -0.03292686
0001f0 b3 95 87 be d8 23 08 3d 01 75 41 3d da 52 96 bf
       -0.264814 0.03323731 0.047230724 -1.1744034
000200 4a 71 40 bd 2a 3e d1 3e 22 ff 06 3f 3f 09 fd be
       -0.04698304 0.4086774 0.5273305 -0.49421117
000210 38 81 e9 3e f0 5e ac 3d ea 5a 0d be 88 82 f9 3e
       0.456064 0.084165454 -0.13804212 0.487324
000220 9d 71 59 bd 23 60 31 3d 8a 8d 36 3e 63 81 14 be
       -0.053086866 0.043304574 0.1782743 -0.14502482
000230 39 99 06 bf 00 f0 9a bd 27 50 24 3d 62 7d e5 bd
       -0.5257755 -0.075653076 0.0401155 -0.112055555
000240 d7 e0 1a be 93 0b d7 bd 40 f8 1d 3e 15 b0 51 3c
       -0.15124832 -0.105002545 0.15426731 0.012798329
000250 7b 96 80 3d 77 52 3e 3e 7f be 58 be f7 74 35 be
       0.06278702 0.18586145 -0.21166418 -0.177204
000260 53 5e 42 3e 77 6b 00 3f 84 71 89 be 0d fc e6 be
       0.18981294 0.5016398 -0.26844418 -0.45114174
000270 1f 57 b9 3f ac 38 2a 3f e0 2c 49 40 ce e2 8a 3f
       1.4479712 0.66492724 3.143364 1.0850465
000280 36 df a6 3f de e4 8f be a0 d6 1b 3e 62 b0 dd 3f
       1.3036869 -0.281043 0.15218592 1.7319453
000290 98 2b 05 bf f0 f3 c3 3f 85 9c 87 3f 08 b4 9f 3f
       -0.52019644 1.5308819 1.0594641 1.2476816
0002a0 3b b3 b1 be e3 17 df be 38 6e 1b 3e 82 26 e7 3f
       -0.34707054 -0.43572912 0.15178764 1.8058627
0002b0 ee 2f c7 3f a3 eb 41 3f 66 a1 ed 3e fc c8 fd 3e
       1.5561502 0.7575018 0.464122 0.495674
0002c0 58 1f cc be 6e 6b 9c be f6 88 91 be c6 3a 73 bd
       -0.39867663 -0.30550712 -0.28424805 -0.059382223
0002d0 ff 23 f1 be c3 9e 68 be 76 e1 9c be b0 07 79 3d
       -0.47097775 -0.22716813 -0.30640763 0.060798347
0002e0 a0 59 ba bc c7 8b 58 be 71 ab 97 bd b1 78 e0 3b
       -0.022747815 -0.21147071 -0.07405747 0.006850325
0002f0 ee 33 14 be ef 91 9a 3e ab 36 66 bd 0f 59 2b be
       -0.14472935 0.30189463 -0.05620448 -0.16733192
000300 14 76 43 3e e7 c8 a4 3e 2a 84 54 3e 2b 44 a6 bd
       0.19088012 0.32184526 0.20753542 -0.08118471
000310 5a 0d ac bc d7 b9 30 bd e5 e2 ae bd 9f 3b 9e bd
       -0.02100246 -0.04314598 -0.085393704 -0.077262156
000320 db 6d 1e bc 1a 4d 35 3e fd 69 49 bd b7 c0 7e be
       -0.009669746 0.17705193 -0.049173344 -0.24878202
000330 6b 0f a7 bd f1 68 be be d2 9d cf be ce 64 5a bd
       -0.081572376 -0.3718944 -0.40550095 -0.05331879
000340 39 bd db bb 2d e4 25 bd 36 87 4a 3d 32 2f 4f 3d
       -0.0067059067 -0.04050081 0.049445353 0.05058212
000350 a5 c4 96 bd 3e b7 e3 bd ac 9a 53 be ed 8d a4 bb
       -0.07361726 -0.11118935 -0.20664471 -0.0050218017
000360 a4 6e 22 be 4d 1f 09 3e 91 b5 b9 bd 7f 8c 35 bc
       -0.15862519 0.13390847 -0.09067834 -0.01108086
000370 41 cf 24 3d e3 df 0d be 11 4e 6a 3e 50 9c 05 bf
       0.040236715 -0.13854937 0.22881342 -0.5219164
000380 51 f7 7e bf af f6 2a bf bb 47 4d 3e db 2e 2e bf
       -0.99596125 -0.6678266 0.20046894 -0.68040246
000390 fe e0 90 3d 5b aa d1 be c6 be 60 3f 5c cd 12 3e
       0.07074164 -0.40950283 0.877911 0.14336151
0003a0 0a 25 39 40 02 ce 75 3f e3 85 2f 40 09 80 da be
       2.8928857 0.9601747 2.7425468 -0.42675808
0003b0 01 32 f5 3e dc 68 70 3f 32 a7 39 be b8 32 8d 3f
       0.47889712 0.9391 -0.18130186 1.1031103
0003c0 e0 fc 81 3e f3 9c de 3c 1d 9f 23 3f 59 fb 93 be
       0.2538824 0.027174449 0.6391466 -0.289027
0003d0 3b 32 ac bc 04 81 c9 3f 79 58 18 bd bf ca 62 bf
       -0.021020046 1.5742497 -0.03719375 -0.88590616
0003e0 2f a8 8b bd e4 84 b8 3e 47 70 b7 be 15 51 ed 3e
       -0.06819188 0.36038888 -0.35827848 0.46350923
0003f0 3b 8a b6 be 89 01 05 3e d9 84 a4 be 7a c4 b9 be
       -0.35652336 0.12988867 -0.32132605 -0.36282712

gnn.convs.0.nn.lins.0.bias f4 [32]
000000 db 7f e3 bd 90 f4 bc bd f5 c0 fe bd 5f a7 eb bd
       -0.11108371 -0.09226334 -0.124391474 -0.11506533
000010 ec 3c 8f 3e c3 87 b2 be 64 6d 8f 3e 49 67 2e 3e
       0.27976167 -0.34869203 0.28013146 0.17031588
000020 27 cb a7 3e 16 80 6d be f9 4e 05 3f f9 4d 69 3e
       0.3277218 -0.23193392 0.5207363 0.2278365
000030 d8 49 af be cd c9 0c bf 32 14 21 be 29 49 ac be
       -0.34236026 -0.54995424 -0.1573036 -0.33649567
000040 3e a8 1f bf 02 88 85 be cb 91 c4 be e8 ce 98 be
       -0.6236609 -0.26080328 -0.3839248 -0.29845357
000050 d9 64 a4 3e 9e 4c 6c bd 63 5a 02 3d e0 30 e0 be
       0.3210819 -0.057690255 0.03182448 -0.4378729
000060 ac 10 2c bd ca 48 0c 3f 8c 2a 24 be 94 85 ff be
       -0.042008087 0.5479857 -0.16031855 -0.499066
000070 50 8d bc 3e ea bc 3c bd b2 30 55 3e d4 c3 22 be
       0.36826563 -0.0460786 0.20819357 -0.15895015

gnn.convs.0.nn.lins.1.weight f4 [32, 32]
000000 5a c3 1a be 3c f4 c5 3d 4c 1e 99 3d 45 da 28 3d
       -0.15113583 0.09665725 0.07476482 0.041223783
000010 2d e5 89 3b e3 12 06 be 4b f3 e8 bd 66 73 2b be
       0.004208228 -0.13093142 -0.113745295 -0.1674324
000020 76 77 46 be 86 4f 49 3e 76 30 4e bd 0a 79 47 be
       -0.19381508 0.19659242 -0.050339185 -0.19479766
000030 9a e9 de be 31 55 ac 3d bb eb 0f 3d 75 a7 31 bd
       -0.435376 0.084146865 0.03513692 -0.04337259
000040 b0 98 91 be be 8b c3 bd 21 31 f6 bd 8a 90 93 bd
       -0.28436804 -0.09548138 -0.12021089 -0.07205303
000050 37 ef 78 be ee 40 83 bd 45 67 67 3c f1 fc 79 be
       -0.24310003 -0.06408869 0.0141237425 -0.24412896
000060 c7 87 82 be b1 ec 24 be db fa 56 bd 0b 13 65 bd
       -0.25494215 -0.16105916 -0.05248533 -0.055926364
000070 ac ed 41 be b9 ce 62 3d a2 fd 79 3e b9 63 e8 bc
       -0.18938321 0.055372927 0.2441316 -0.028367864
000080 fb c9 ca be 12 9c bf 3d 88 95 b2 bd 46 d6 19 3e
       -0.39607224 0.0935594 -0.08719927 0.15023145
000090 e1 81 e6 3d 20 43 4f be d8 b8 33 be b2 8f 8a be
       0.11255241 -0.2024045 -0.17550981 -0.27062756
0000a0 ec 0f 11 bf 83 c7 fb 3d 6c 93 40 3e 8f ab 70 bd
       -0.5666492 0.12293913 0.18806237 -0.05875736
0000b0 89 22 b4 3f 58 b4 6b 3f 3b ca 22 be 72 9c ad 3e
       1.4073039 0.9207206 -0.15897457 0.3390842
0000c0 0e 02 eb 3e e8 ee a7 bd 78 64 1e bf 47 75 f2 bc
       0.45900005 -0.081998646 -0.61872053 -0.029596938
0000d0 ad 2d 10 be 59 08 d8 be 57 be ff 3e f9 a4 95 3e
       -0.14079924 -0.4219387 0.49949905 0.29227427
0000e0 70 44 af bf 3d ba 9e be 1c c0 12 be 96 31 dd 3c
       -1.369276 -0.31001464 -0.14331096 0.027001183
0000f0 01 2b b6 be f5 a5 11 3f 4b 4c 91 3c 10 35 f6 bd
       -0.35579684 0.56893855 0.017736575 -0.120218396
000100 d4 bd bf be d5 31 1c 3f fa 30 92 3e 0c bc 96 bf
       -0.37449515 0.6101354 0.2855299 -1.1776137
000110 5b e8 48 bd 39 db 4c bf d3 97 fd 3e 36 de b4 bd
       -0.049049716 -0.8002201 0.49529895 -0.08831446
000120 ec c8 09 be d0 9d d1 bd 86 eb 5b be a0 da a5 3f
       -0.13455552 -0.102351785 -0.21476564 1.2957344
000130 e9 5d 51 be ee c1 65 3f a0 0c 85 3a ae 95 16 3f
       -0.2044598 0.8974904 0.0010150857 0.58822143
000140 2d 44 13 bf aa 31 65 3f 6b 60 12 bf d4 55 0b bd
       -0.57525903 0.89528906 -0.5717837 -0.0340174
000150 a8 f0 2d be 68 b6 86 be fc b1 9d be 38 4b 89 be
       -0.16986334 -0.2631104 -0.30799854 -0.268152
000160 0e 9d 12 bf db af 95 40 ff f2 67 3f a1 2c 88 be
       -0.57270896 4.6777167 0.9060516 -0.2659655
000170 1a d9 96 3e 7e bb db bd 35 43 9e 3f 60 60 11 3f
       0.2946251 -0.10729121 1.236426 0.5678768
000180 eb 63 66 be 72 3c 9a 3c ac db cd 3d 1d 69 39 be
       -0.22499053 0.01882765 0.10051665 -0.18106504
000190 65 3d bd bd 7f cc 44 3d 01 8e 65 be a2 fb 17 3c
       -0.09240226 0.048046585 -0.22417451 0.0092763025
0001a0 a7 4c 6b be 61 78 12 be 42 c7 ef bd c9 12 2f be
       -0.2297846 -0.14303733 -0.11707927 -0.1709701
0001b0 e0 7b 5e bd 7a be 4b be e1 df e9 3c 70 44 c7 3d
       -0.054317355 -0.1989688 0.028549137 0.0972985
0001c0 82 14 5d bd ce ce 5f bd fb 51 46 bd 9b 5f f9 bd
       -0.053974636 -0.054640584 -0.048418026 -0.121764384
0001d0 e6 0c 4d be f5 85 96 bd 1a d6 c8 3b db 59 2f be
       -0.20024452 -0.07349769 0.0061290385 -0.17124121
0001e0 44 4b 68 be a7 ef 63 be ee b8 59 be 8a 50 1b bd
       -0.22684962 -0.22259389 -0.21261951 -0.037918605
0001f0 c2 65 3c be 16 90 06 3c 1e 93 1f be 06 5f e8 3d
       -0.18398193 0.008213064 -0.15583465 0.11346249
000200 36 97 9b 3d 17 41 5d be 0c fb 01 3e 33 25 09 be
       0.075972006 -0.21606861 0.12693423 -0.13393097
000210 de 7a 0e be 31 45 2f be 65 1f 15 3f a7 05 39 3f
       -0.13914058 -0.17116238 0.5825103 0.7227425
000220 2b 7a 8b 3e ba b4 b1 bd 98 15 6f 3d 33 29 19 3f
       0.27241644 -0.08677049 0.058370203 0.5982849
000230 be a7 8f bf 37 4c d3 be d2 be 82 3d da 59 66 3e
       -1.1223066 -0.41269085 0.06384052 0.22495213
000240 40 b3 23 bf 21 90 b5 b8 54 3b bb bc ba fb 5a 3d
       -0.6394539 -8.657599e-05 -0.022855438 0.05346272
000250 f4 ac 84 be c5 1e 3d 3d bd 02 95 3e 58 35 c2 3d
       -0.25913203 0.046171922 0.29103652 0.09482831
000260 d2 ff b3 3d 53 1d 2e 40 c3 a9 28 bd ed 7f 21 3b
       0.08789028 2.7205398 -0.041177522 0.00246429
000270 84 74 89 3e 8e 79 97 3c 22 3b 71 3d c4 3a 99 3d
       0.26846707 0.018490579 0.058894284 0.07481912
000280 c7 fa 0e bc 0e 73 67 3d 4f 61 0c 3d 4b c9 a9 3e
       -0.008726782 0.05650621 0.03427249 0.33161387
000290 96 7d c7 3d 7f 87 d2 3d 18 d5 39 3f 9e 4e 48 3f
       0.097407505 0.1027975 0.7259078 0.7824496
0002a0 0a 77 01 bd 80 e1 b3 3d c3 22 c4 3e 0d 6b 23 3f
       -0.031607665 0.08783245 0.3830777 0.6383522
0002b0 e8 e1 a5 bf 94 b4 a5 bf 55 e5 16 3e a2 67 d7 3e
       -1.2959566 -1.2945733 0.1473592 0.42071253
0002c0 02 ca bd bf 4e 30 4a 3e da 61 9c be ea 8c 4d be
       -1.4827273 0.1974499 -0.30543405 -0.20073286
0002d0 38 a6 77 3d 02 3d 8d 3e 74 07 ef 3e d8 04 02 3f
       0.060461253 0.27585608 0.46685374 0.5078864
0002e0 ab 74 be be 54 89 37 40 a7 1d 77 3e 9e 9c fe 3d
       -0.37198386 2.8677568 0.24132405 0.12432216
0002f0 0e 78 1b 3e fb 0b 67 be 15 12 4e 3e 1e de 8a 3e
       0.15182516 -0.22563164 0.20124085 0.27122587
000300 91 86 3e 3f 34 b1 0d 3e 72 70 6d 3e 24 d3 15 bf
       0.7442408 0.13837129 0.23187426 -0.585253
000310 2e f3 14 be 9d b6 a3 3e 06 a7 ca be df b0 a0 3d
       -0.1454589 0.3197526 -0.39580554 0.078462355
000320 2e 9f 9d 3e 70 86 d8 bd 44 b9 c2 be 5e 6d 92 3f
       0.30785507 -0.10572517 -0.3803197 1.1439626
000330 22 15 a9 3e c3 ed b0 bd 7d 39 c3 bd ca b0 06 3e
       0.33023936 -0.086390994 -0.095324494 0.13153377
000340 15 8e 26 bf 2a bc 9a 3e d6 d7 da 3d 17 9b 9c bd
       -0.6506055 0.30221683 0.10685699 -0.076467685
000350 c8 ed a8 3f a6 29 16 3f e6 17 de be 13 a7 89 3d
       1.3197565 0.586573 -0.43377608 0.0672132
000360 48 3d 7d 3e 2e 41 37 3f 17 88 ff 3c 40 a8 68 3e
       0.24730408 0.7158383 0.031192822 0.22720432
000370 65 c0 d1 3e f7 14 5f 3d 56 20 88 3e 6f 45 fb 3e
       0.40967098 0.054463353 0.2658717 0.4907641
000380 15 26 03 3f e6 f0 60 3f 66 92 42 3e b0 ba 07 bf
       0.51229984 0.8786758 0.19001159 -0.5301924
000390 48 08 7f 3e 1b af ec bd 2f 6b 07 3f 74 2b 84 3f
       0.24905503 -0.11556836 0.52897924 1.0325761
0003a0 2a f0 2d 3f 33 e9 2e 3e df ef 58 3e 5c 16 15 3f
       0.67944586 0.17081146 0.21185254 0.5823724
0003b0 33 76 d8 bf 2b 11 84 bf 34 55 42 bc 3e 09 ee 3e
       -1.6911072 -1.0317739 -0.011861134 0.46491426
0003c0 61 0b bc bf f5 c3 5b bc af 6d 03 be bd 27 08 3d
       -1.4690973 -0.013413419 -0.1283481 0.033241022
0003d0 c5 d8 0f 3f 5f bc 0c 3f f7 88 cd 3e 2e 59 83 3d
       0.5619014 0.5497493 0.40143558 0.06413494
0003e0 ea ad 31 be 7c ee 49 40 c5 2a 10 3f 67 17 aa 3e
       -0.17351499 3.155181 0.5631526 0.3322098
0003f0 70 2a 8c 3f e1 5d 2c be 71 b4 ba 3e cf 3d 68 3f
       1.0950451 -0.16832687 0.3646579 0.9071931

gnn.convs.0.nn.lins.1.bias f4 [32]
000000 81 1a 26 bd 6d ed 07 bf 0e ff 08 bf f6 07 11 be
       -0.04055262 -0.5309666 -0.5351418 -0.14163193
000010 4e 74 d5 bd 51 13 c4 3e 25 14 15 3f c3 fc 47 be
       -0.10422574 0.38295987 0.58233863 -0.19530015
000020 7b 2b 60 bd 81 15 b2 ba 38 35 c1 be 4c e9 a0 3e
       -0.054728966 -0.0013586731 -0.37735915 0.3142799
000030 72 a1 de ba c8 a5 3c bd 35 b0 ad be d4 15 b8 bd
       -0.001698537 -0.04605654 -0.33923498 -0.089885384
000040 76 39 c9 bd 4f 99 e6 3e 29 08 16 bf 6a 9e da be
       -0.09825413 0.4503884 -0.586062 -0.42698985
000050 b7 a8 68 3e d8 af b6 be ad 17 d1 bd 07 f9 17 be
       0.2272061 -0.35681033 -0.10209594 -0.1484109
000060 ce 8b 10 3d 72 8e ba bd 89 b4 ed 3d b2 c7 88 be
       0.03528958 -0.091092005 0.116067 -0.26714855
000070 58 56 55 be cf a7 5b bc 3e 88 d4 bd eb 0e 01 be
       -0.20833719 -0.013406708 -0.10377549 -0.12603347

gnn.convs.1.nn.lins.0.weight f4 [32, 32]
000000 bc 54 dd bd f1 4a 4f bd 36 8c 31 3d c0 4c 21 be
       -0.108071774 -0.05060858 0.043346606 -0.15751934
000010 d9 bd 9a bd 8f eb 06 3d 27 b5 47 be 53 1e 99 bd
       -0.07555742 0.03293949 -0.19502698 -0.07476487
000020 af 0c 43 be e4 0f e8 3d ab 1e 0b be ef 89 d1 ba
       -0.19047807 0.11331156 -0.13585918 -0.0015986542
000030 92 17 e9 bc 19 17 b8 bd 1e 62 9a bc c7 75 ac bd
       -0.028453622 -0.089887805 -0.018845614 -0.08420902
000040 95 84 d3 bd d7 d3 1d 3d bf d5 a2 3d 9f bf 7f bd
       -0.103280224 0.038532104 0.07950925 -0.062438603
000050 54 57 74 be 58 38 35 3d 95 6a 48 3d 15 66 94 bd
       -0.23861438 0.044243187 0.04892977 -0.07246033
000060 58 af 4b be 46 c3 1e bd 31 cf d4 bd d6 5d 54 3c
       -0.19891107 -0.038760446 -0.10391081 0.012961825
000070 bf 11 6f 3d ad 70 3d 3c a9 19 8c 3d 8d 09 9f 3d
       0.058366533 0.0115625085 0.06840832 0.077654935
000080 14 31 28 3e 75 8c e1 be 15 e9 b6 bd ae 1c e9 bd
       0.16424972 -0.44052473 -0.089311756 -0.11382423
000090 51 e6 8d be c7 51 38 be c0 14 d1 be 86 4b 75 be
       -0.2771478 -0.17999946 -0.40836143 -0.23954591
0000a0 0f f9 bc 3d 01 4f dc 3c 2d 93 a0 3e f3 73 39 bd
       0.09227192 0.02689314 0.31362286 -0.045276593
0000b0 3b 3f df bd f8 05 0c bd 10 48 4e 3d cf ec 03 be
       -0.10900732 -0.03418538 0.050361693 -0.12883304
0000c0 4b ba 1b be 72 a6 18 be d8 d2 b2 bc b6 f7 56 bd
       -0.15207784 -0.14907244 -0.021829054 -0.05248233
0000d0 ad 1a b2 3d 6f 81 a1 3d c1 66 8c bd c1 aa 3c 3e
       0.08696494 0.078860156 -0.06855536 0.18424512
0000e0 5e 68 87 3d 7b 7f 30 bc 4d 32 1d 3e 3c af 50 3e
       0.06611703 -0.010772581 0.1535122 0.20379347
0000f0 06 d2 57 3e 0b 10 2c 3c fe 90 43 3e 32 d6 b7 3d
       0.21076211 0.010501872 0.19098279 0.089764014
000100 72 35 ac 3d e4 69 8a bc 8f f1 4b bc 9d ee db 3d
       0.084086314 -0.016896196 -0.012447729 0.10738871
000110 99 11 19 be 04 b7 58 3c 35 24 50 bd dc bd 27 3e
       -0.14948119 0.013227228 -0.05081578 0.1638102
000120 dd 64 0a be dc 84 0a be be 6c 1b be 07 3d 5b bd
       -0.13515039 -0.13527244 -0.151782 -0.053524997
000130 76 5a af bd 02 46 81 bd 7d c2 e9 bd 4e 11 93 3d
       -0.08562176 -0.06312181 -0.11414049 0.07181035
000140 a9 2f 1c 3d 36 8f b2 3d c1 00 6b bd 90 0c 19 3e
       0.03813139 0.087187216 -0.057373766 0.14946198
000150 b1 f8 e6 bd 16 13 ad bd e5 03 66 bd d6 47 8d 3d
       -0.11277903 -0.08450906 -0.056156058 0.06898467
000160 75 c4 38 bd 65 5e c9 bd 87 88 7c b9 ff 30 7f 3d
       -0.04510923 -0.098324575 -0.00024083453 0.062302586
000170 c0 a8 e0 3d d3 ab 40 bd 23 b6 d8 bd d3 06 76 bd
       0.109696865 -0.047038864 -0.10581615 -0.0600651
000180 43 d7 ae bd 5a c5 db bd fa 3f 2e 3d ff af 1d 3e
       -0.08537152 -0.10731001 0.04254148 0.15399168
000190 6c 2a 16 bd 13 fa 92 3b 9f cc f0 bd a5 68 f1 3c
       -0.03666155 0.0044853776 -0.117577784 0.029468844
0001a0 eb 5e 3e 3e 9a 53 98 bd 40 e1 77 be e4 53 55 be
       0.18590896 -0.07437821 -0.2420702 -0.20832783
0001b0 ab c2 c2 bd b5 6c 83 3c 82 34 f5 bd 52 f6 cc bd
       -0.09509786 0.016043046 -0.11972906 -0.10007919
0001c0 79 7e 29 3e d5 fa ab bd b2 ae bc 3d 00 f7 2c be
       0.16552152 -0.08397452 0.09213008 -0.16891098
0001d0 67 7f 1a be a2 ad f5 bd de 95 0d bd 40 ed bf bd
       -0.15087663 -0.119960085 -0.034566753 -0.09371424
0001e0 c4 b6 e9 3d 6f 36 08 bc f6 0b 9e 3d 10 68 57 be
       0.11411813 -0.008313759 0.07717125 -0.2103579
0001f0 e7 40 52 bd 26 8c 37 be b4 7f 2c bd e5 fa 3c be
       -0.051331427 -0.17924556 -0.042113975 -0.18455084
000200 6e bb 00 3e 5a 34 3e bf 73 ae cb 3f 71 78 92 3d
       0.12571499 -0.7429863 1.5912613 0.071518786
000210 a0 f8 48 3e 7f 82 15 3f 31 3f 0b 3e a4 c8 40 3f
       0.19626093 0.58402246 0.13598324 0.75306153
000220 a1 ac fe 3d e0 0e 88 be a3 f9 5c be 81 18 00 3f
       0.1243527 -0.2657385 -0.21579604 0.5003739
000230 a5 e5 e2 3d ef 48 77 3e 0a 03 70 3f 66 76 18 3e
       0.110789575 0.24148916 0.9375464 0.14888915
000240 16 ba 2d 3e 32 b1 b6 3e 56 16 68 3d 2e 68 64 3f
       0.16965517 0.35682064 0.056661926 0.89221466
000250 10 22 aa 3e 99 6d 02 40 c2 67 c8 ba 57 89 7a 3e
       0.33229113 2.0379393 -0.0015289711 0.24466453
000260 46 93 41 3e 74 45 3d 3f 93 07 53 3e f7 a8 0d bf
       0.18903837 0.739341 0.20608358 -0.55335945
000270 80 93 54 3e 57 07 ab be 27 06 1f 3f 3c e0 ba 3e
       0.20759392 -0.33404037 0.6211876 0.36499202
000280 26 77 03 be 1b 1b 87 be f3 28 80 be 36 04 3f be
       -0.1283842 -0.26387867 -0.25031242 -0.1865395
000290 1d af a8 bd f4 f3 c1 3d 09 03 6f be 0e e8 46 be
       -0.08236525 0.094703585 -0.23341002 -0.1942446
0002a0 8b 83 5c be 7e 8e 02 bd 3f 7d 19 3d 63 7b ae bd
       -0.21534555 -0.031874172 0.03747296 -0.08519628
0002b0 00 f0 a3 bd d2 e2 af 3d c3 fe 2a 3e 36 1f df 3d
       -0.08004761 0.085881844 0.16698746 0.10894625
0002c0 27 e8 b8 bd 0c a1 85 be 17 47 da bd dd 37 00 be
       -0.090286545 -0.26099432 -0.106580906 -0.1252131
0002d0 73 73 5d bd c8 be 63 be 65 2a 9c 3d 65 1b 07 3c
       -0.05406518 -0.22240746 0.076252736 0.008246277
0002e0 24 74 82 3d c5 62 1e 3e f2 2f f9 3c 22 ba b2 3d
       0.06369808 0.15467365 0.03041837 0.08726908
0002f0 df 65 dd 3c 88 6a c0 be e0 cd de bd 2a 08 88 3d
       0.027026115 -0.37581277 -0.10879111 0.06642182
000300 0a e9 09 3d 7d 9d 90 bf c9 66 0b 40 7c ce 28 be
       0.03366951 -1.1298062 2.1781485 -0.16485018
000310 83 5c f8 3d ba 46 47 3f be f3 3c 3e 0a 7a 72 3f
       0.1212702 0.77842295 0.18452355 0.94717467
000320 a6 93 fe bc 2b e6 f4 be e2 70 94 be 48 ab 45 3f
       -0.031076264 -0.47831854 -0.28992373 0.7721448
000330 b0 5b 76 3e bc 68 dd 3e c3 5b 8a 3f 8b ee 50 be
       0.24058414 0.43243968 1.0809253 -0.20403497
000340 16 32 c0 3e 24 d9 41 3f 9a 25 6a 3d 68 af 91 3f
       0.37538213 0.75721955 0.057164766 1.1381655
000350 f9 d8 2b 3f f6 f8 0c 40 1b da d3 3d 43 80 be 3e
       0.6712795 2.2026954 0.10344335 0.3720723
000360 ef a4 e8 3e c9 6f 91 3f eb fb 38 3e 04 03 29 bf
       0.45438334 1.1362239 0.18064849 -0.66020226
000370 41 d2 be 3d e4 ea a9 be 9f ab bd 3e ba f9 18 3f
       0.093174465 -0.3318702 0.37045 0.5975605
000380 83 e0 01 3d 4e b9 2c bd cf 03 3c be c2 2a 20 be
       0.03170825 -0.042168908 -0.18360828 -0.15641311
000390 97 4f b4 bd 32 17 64 be f0 1b 3b 3c 28 94 e7 bd
       -0.08804243 -0.22274473 0.011420235 -0.113075554
0003a0 20 a8 dd 3c 81 96 7d be 5f 51 ae be 5d 1e 87 be
       0.027057707 -0.24764444 -0.34046456 -0.26390353
0003b0 a4 05 42 be dc 28 e4 bd 45 a5 90 be 9c 1b 2d 3e
       -0.18947464 -0.11140606 -0.2825109 0.16905063
0003c0 77 bf a1 3b 58 f7 a2 be 0a 5b 1c 3d e4 cd 11 bd
       0.0049361545 -0.31829333 0.03817276 -0.035596743
0003d0 21 e3 82 be b4 2b 5b 3d 37 e2 e6 3d 68 70 91 bd
       -0.2556391 0.053508475 0.11273616 -0.07101518
0003e0 37 cf 99 be 74 33 26 be 37 57 3e be f3 c6 83 be
       -0.30040905 -0.16230565 -0.18587957 -0.25737724
0003f0 90 f7 59 bd 69 9b 7c be 1f 43 1e be 5f 81 6d 3c
       -0.05321461 -0.2466866 -0.15455292 0.0144961765

gnn.convs.1.nn.lins.0.bias f4 [32]
000000 7e 5f 37 be 55 09 f2 bb c1 a3 7b be 2a 9a d2 3c
       -0.17907521 -0.0073863664 -0.24574186 0.025708277
000010 83 7d 4f be 98 51 7e 3d 06 62 4a be 05 6a 6b be
       -0.20262723 0.062089533 -0.19763955 -0.22989662
000020 e0 49 8f be 59 2c ca bb 1f ed 63 be d1 92 a1 be
       -0.2798605 -0.0061698374 -0.22258423 -0.31557325
000030 15 1e 1b bb 95 b9 e2 be 18 7e 28 bf 9f d3 53 be
       -0.0023669053 -0.44282213 -0.65817404 -0.20686196
000040 23 97 01 bf b7 47 09 be d3 8b b6 3d 5e 62 11 be
       -0.5062124 -0.13406263 0.08913388 -0.1419768
000050 c0 ab 15 bd 0a 40 61 be 3c 94 3b 3f f5 bc 96 39
       -0.036540747 -0.21997085 0.7327306 0.00028751013
000060 b0 c0 8a be 07 fd 3e 3e f8 cd 26 be 08 00 43 3d
       -0.27100134 0.1865121 -0.16289508 0.04760745
000070 17 53 1c be 41 e0 c3 3d ba 58 e8 be e0 b7 25 be
       -0.15266071 0.095642574 -0.45380193 -0.16183424

gnn.convs.1.nn.lins.1.weight f4 [32, 32]
000000 3d 44 6f bd c9 bb 22 bd d5 ee 2d be 83 92 15 be
       -0.058414686 -0.039729867 -0.16985638 -0.14606671
000010 3c d9 f7 bd 7c 37 87 bd 6c 0b 37 bb 85 bf 5a bd
       -0.12101981 -0.0660238 -0.0027930392 -0.053405304
000020 91 ca d0 bd f8 94 99 bd e0 d5 2c be 91 03 7d bd
       -0.101948865 -0.07499117 -0.16878462 -0.06177098
000030 87 4d 2b be 76 a6 3b be 4d ff d2 be ff 7d e8 bd
       -0.16728793 -0.18325219 -0.41210404 -0.11352157
000040 7f cf 05 3e 13 30 05 be 25 3c 85 bc a1 9f 35 3d
       0.13067435 -0.1300662 -0.01626403 0.044341687
000050 fa 96 23 3e f4 5d d7 bd ca a4 63 be 08 82 aa bd
       0.15975562 -0.10515967 -0.22230831 -0.08325583
000060 42 b7 0e 3c e8 d2 ee bd 44 96 53 3d e5 c0 c4 3c
       0.008710684 -0.11661321 0.051656976 0.02401776
000070 d6 ec 12 3e 56 2b 25 be ad f7 bb 3c 77 9b 1d 3d
       0.14348158 -0.16129813 0.02294525 0.03847834
000080 a4 0a 03 3e 08 91 ba 3d a8 6e cb bc 80 fd c0 bd
       0.12797028 0.09109694 -0.024833038 -0.09423351
000090 63 75 9b be 15 c5 77 3d 23 58 74 be d4 d0 12 bd
       -0.30362996 0.060490686 -0.23861746 -0.035843685
0000a0 90 a7 d9 3d f4 49 9c 3d 17 19 c4 3d 07 f4 d6 bc
       0.10627663 0.07631293 0.09575098 -0.026239408
0000b0 f6 46 1f bd da 54 0d 3d a1 63 bb bd e9 48 a3 bd
       -0.038886033 0.03450475 -0.09149862 -0.07972891
0000c0 0f c4 bf 3d 2f 3a 05 3e ad 68 5b 3e ad ba 9d bd
       0.09363567 0.13010477 0.2142665 -0.07701621
0000d0 d5 e9 e2 bb 23 1b b1 bb a9 95 88 bd 67 fb d3 3d
       -0.0069248476 -0.0054048463 -0.066691704 0.103506856
0000e0 38 00 74 3e 72 f6 5a 3d 80 ae fa bc b6 f4 41 3e
       0.23828208 0.053457685 -0.030600786 0.18941006
0000f0 b4 af 2a 3d 1e 76 a9 3d 83 c4 ac 3d bb ab b5 bd
       0.04167147 0.08274482 0.08435919 -0.088706456
000100 5f 64 08 3e 9d 29 63 3c 55 17 07 3d b9 5d 80 bc
       0.13319539 0.013864902 0.032981236 -0.01566969
000110 ea 65 2b bd d5 71 b4 bd a6 b1 30 bf 86 da 34 be
       -0.04184524 -0.08810774 -0.6902107 -0.17661485
000120 9f b0 0e be 29 3c 69 bd 9c c9 03 3d 6f c5 b3 bc
       -0.13934563 -0.05694214 0.03217469 -0.02194473
000130 3d 76 7d bc 84 45 0c be 09 b6 a4 3e 17 9f 3d be
       -0.015470085 -0.13698393 0.32170132 -0.18517719
000140 e5 15 ad 3d 83 09 2f 3d 2a 5a 1a be 7e da 1e bf
       0.08451442 0.04273368 -0.15073457 -0.6205214
000150 bc 77 4a be e8 a2 25 3e 1a 65 7f bf e0 e9 64 3d
       -0.19772238 0.16175425 -0.99763644 0.055887103
000160 a9 f9 c1 3d c0 12 3b 3d 63 9c 05 be fd c8 03 be
       0.09471447 0.04567218 -0.13047938 -0.1286964
000170 88 61 73 3d 9e b1 c9 bd 25 3e 2f 3d 2f f4 5b be
       0.059419185 -0.09848331 0.042783875 -0.21479867
000180 68 2e a5 3c 34 c2 16 be 73 de 33 3d e4 e7 be be
       0.02016373 -0.1472252 0.043913316 -0.37286294
000190 4d 9a f7 3d 2d 5c e7 bd 18 ea 82 bc 62 19 52 3d
       0.120899774 -0.11296878 -0.015980765 0.05129374
0001a0 4f 98 21 be 38 0b 31 bc 8b d1 29 3e c5 1a ef be
       -0.15780757 -0.010805897 0.1658384 -0.4670011
0001b0 ad 83 0e be 90 eb f2 3c 26 ba ba be ce 61 72 3c
       -0.13917418 0.02965334 -0.36470145 0.014793826
0001c0 56 67 20 be 48 b8 76 be 3c 09 21 bd 0b e8 d7 be
       -0.1566442 -0.24093735 -0.039315447 -0.42169222
0001d0 be 19 9d 3d 6c 01 81 bd d0 a1 78 bd e0 ff 0a bd
       0.076709256 -0.06299099 -0.06070119 -0.033935428
0001e0 fd e0 c0 3d 6c 3b a8 be b4 ae e9 bd 42 fd af 3d
       0.09417913 -0.32857835 -0.11410275 0.08593227
0001f0 66 0e cf bd cb 55 73 be 0f 3f 2b 3e 3a 2b 87 bd
       -0.10110168 -0.23763196 0.16723274 -0.06600042
000200 73 c0 23 3d 19 f1 ac bd 4c bd c3 3d d3 f4 0c bc
       0.039978456 -0.08444423 0.0955759 -0.0086032925
000210 4e ff 4a 3e 30 06 99 3e b9 22 19 3f 60 8c 47 3e
       0.19823954 0.29887533 0.5981861 0.19487143
000220 1b d2 25 3e 04 9b e0 bb b3 05 a5 bd 2d b0 ea bd
       0.1619343 -0.006854417 -0.08057728 -0.11459384
000230 37 1c 72 3c ef e1 bc be 5a a2 9d be 7a 02 60 bd
       0.014777235 -0.36891124 -0.30787927 -0.05468986
000240 09 88 20 3e 93 ec c2 be 30 d9 1e 3e 75 6a 24 3c
       0.15676893 -0.38071117 0.15512538 0.010035147
000250 95 46 4a bd ae cf f2 bd 37 3d 8b bf 78 ad 41 be
       -0.04938372 -0.11856018 -1.0878056 -0.1891383
000260 33 44 49 be 6f cb 88 3e 7d fa 5f be 60 0c bf bd
       -0.19654922 0.26717708 -0.21872897 -0.09328532
000270 a2 10 9a bd c0 64 34 3e 97 79 f1 bc 76 2f 42 3e
       -0.07522704 0.17616558 -0.029476924 0.18963417
000280 32 d4 88 3d 44 71 62 3e 69 b9 9f bd 35 c6 9f 3d
       0.06681098 0.2211352 -0.07799036 0.07801477
000290 a8 72 b2 bd dd ae d9 3d b4 42 b1 bd 36 31 9f bd
       -0.08713275 0.10629056 -0.08655301 -0.07773058
0002a0 05 c4 ce 3d 96 c7 55 3e c2 e3 9f 3d 60 dc 0b bd
       0.100959815 0.20876917 0.07807113 -0.034145713
0002b0 02 fb 82 3d 79 ff 09 bc dc 79 17 3e 6e 84 83 be
       0.06395532 -0.008422726 0.1479258 -0.25686973
0002c0 28 89 e1 bd 38 68 af bd 98 2f 48 3e 82 68 f4 be
       -0.110124886 -0.085648 0.19549406 -0.47735983
0002d0 ed db ae 3c ca 61 9a 3d b5 b7 94 be 86 d4 f1 3c
       0.021345103 0.07538183 -0.29046407 0.029520284
0002e0 c9 9f b1 3d 4f 0e 4f be 69 b8 af bc 8d d8 74 3d
       0.08673055 -0.20220302 -0.021450238 0.05977683
0002f0 06 7b d9 3d 04 b1 34 3e a8 34 dc bd c8 e1 e6 bd
       0.10619168 0.17645651 -0.10752231 -0.11273533
000300 eb ed a4 3c ad a9 ce 3e ee 72 a8 3d 43 27 2f 3e
       0.02013298 0.40363827 0.08225046 0.17104821
000310 01 52 24 3e 0f 8f 11 3e f0 14 96 3e dd bd ac bc
       0.16046907 0.14214729 0.2931285 -0.021086628
000320 04 6c 39 3d db 2e ea 3d 11 8d 5f bd 7f ee 19 bf
       0.045269027 0.11434718 -0.05457789 -0.6012954
000330 bb 48 49 3e ed 7a aa 3e 14 10 18 bd 5f ba 00 3e
       0.1965665 0.3329691 -0.03712471 0.12571095
000340 b8 3b 82 3e da 5c c2 3e 61 c3 66 3d 11 95 a9 3e
       0.25436187 0.37961465 0.05633867 0.3312154
000350 78 1d fb 3d 4d 0c 8f 3d 95 59 30 bf 3e 8d e3 3d
       0.1226148 0.06984768 -0.6888669 0.11110924
000360 d0 4e be 3e d2 43 f5 3e fe cf f3 bd 62 cd 33 3e
       0.37169504 0.47903305 -0.11904906 0.17558816
000370 9b 40 f8 bd b6 d8 0e 3e f0 0b f9 bd 05 4c 97 3e
       -0.121216975 0.13949856 -0.1216048 0.29550186
000380 6f fc 2f be cf 25 46 3d e4 4e 05 be c3 69 0f be
       -0.1718614 0.0483759 -0.13018376 -0.14005189
000390 92 82 70 be 4a a4 46 3c 83 f4 f5 bd 84 67 18 be
       -0.23487309 0.0121241305 -0.120095275 -0.14883238
0003a0 f6 0a 28 bd db b4 61 3d 26 f3 1e be aa b2 e4 3a
       -0.04102608 0.055104118 -0.15522441 0.0017448266
0003b0 b6 59 06 3e ec 98 f6 bd ba 63 08 be 4d a8 0c be
       0.1312016 -0.12040886 -0.13319293 -0.13736077
0003c0 e1 58 30 be f8 45 1a 3d 3a 52 1c be 98 47 ea bd
       -0.17221405 0.037664384 -0.15265742 -0.11439437
0003d0 f9 b6 c2 3d dc 75 0c 3e bd 79 78 bc 15 bf 06 3e
       0.095075555 0.13716835 -0.015165743 0.1315883
0003e0 65 fe 0f 3e 6d 46 41 3d ed 0f 72 bd 45 ae 2a 3d
       0.14061888 0.047186304 -0.05909722 0.041670103
0003f0 ab 88 34 3e 5c a6 84 3d 5d f5 27 3e a7 91 2f be
       0.1763026 0.06477043 0.16402192 -0.17145406

gnn.convs.1.nn.lins.1.bias f4 [32]
000000 e4 66 fa be 97 65 96 3d ae 5b 72 3d b5 17 ba bc
       -0.48906624 0.073435955 0.059169464 -0.022716383
000010 6d 81 09 be fd e6 ab be e4 bd 9a 3d 6c d2 39 be
       -0.13428278 -0.33574668 0.0755575 -0.18146676
000020 25 1f 85 bc 13 6c 22 3e b7 d8 c9 3c 89 1a ba bd
       -0.016250202 0.1586154 0.02463947 -0.090870924
000030 56 57 92 be 7c 32 68 bd 2a 33 ce 3d e3 ea 14 be
       -0.28582257 -0.05668877 0.100683525 -0.14542727
000040 bf e0 e7 3d 06 93 0f be 93 d3 c3 be 4e c7 2b bc
       0.11322164 -0.14020929 -0.38247356 -0.01048453
000050 2e 74 b3 3c 98 b0 b5 3c a0 1a ae bd 1e c1 ac 3d
       0.021905985 0.022178933 -0.08501172 0.08435272
000060 18 0a 78 be 5f cb 44 be 75 28 cb 3c 35 f2 d7 3d
       -0.242226 -0.19218205 0.024799565 0.10544244
000070 ad 01 f7 3d 9e 65 c1 3d 2b 64 c8 be 3f 6e 35 be
       0.120608665 0.0944321 -0.39138922 -0.17717837

gnn.convs.2.nn.lins.0.weight f4 [32, 32]
000000 ba 40 c3 bd 68 81 ab bd e2 76 20 be e2 13 6b be
       -0.0953383 -0.08374292 -0.1567035 -0.22956803
000010 12 90 84 bc 15 8b 17 3e e1 a4 81 3d 80 43 f7 bd
       -0.01618198 0.1479915 0.06330276 -0.120734215
000020 8d a3 8e bd a7 86 07 be d3 04 60 bc 96 20 bd bd
       -0.069647886 -0.1323496 -0.013673025 -0.09234731
000030 12 9d e7 3c d5 0d 44 3d f5 80 91 bc ac 33 6a 3d
       0.02827314 0.047864754 -0.017761687 0.057178184
000040 6c 3e 87 bd c3 42 c9 bd 8c e5 3d bd f7 8a 3c be
       -0.06603703 -0.09827187 -0.04636149 -0.18412386
000050 8e d3 13 be 8e 1f 78 bd 4a 77 19 be 17 9d 24 be
       -0.1443617 -0.060576968 -0.14986911 -0.1607555
000060 09 2a b8 3d b1 24 11 bd 04 57 bc bd 83 2c 05 be
       0.089923926 -0.035435382 -0.091962844 -0.13005261
000070 9a 13 ba 3c dc a1 13 bd 6f f8 0e 3e 68 55 8d bd
       0.022714425 -0.036043033 0.13961957 -0.069010556
000080 50 05 33 3d f2 fb 1f bd 28 d3 54 be 9f 8b 5b be
       0.04370624 -0.039058633 -0.20783675 -0.2143998
000090 f9 d9 cf 3e 67 ae 82 be 12 9c 8e 3e 34 e4 17 3d
       0.40595987 -0.25523683 0.27853447 0.037082866
0000a0 2d 30 fd 3e 28 79 bc 3d a1 9f b2 bd b7 69 6a bd
       0.49450818 0.09202796 -0.08721853 -0.057229724
0000b0 84 83 b1 bd 1d af 32 be 1d e7 59 3d 3c 39 7f 3b
       -0.08667663 -0.17449613 0.053198922 0.0038944026
0000c0 24 bd d8 bd 5e 60 c7 3d 5a ff 3f 3e f2 64 8b bd
       -0.10582951 0.097351775 0.18749753 -0.06806363
0000d0 25 ae 32 be 92 7e a3 3a f2 fc 39 3e f8 e1 2a bd
       -0.17449243 0.0012473634 0.18162897 -0.041719407
0000e0 93 35 34 3e 21 22 6a be d7 91 5f 3d bc 67 db 3d
       0.17598562 -0.22864582 0.054582443 0.10713145
0000f0 d0 c1 6c bb 08 b9 6e bd 00 ba 98 bd 23 0f db 3c
       -0.0036126263 -0.05828193 -0.07457352 0.026740616
000100 6e bf 97 bc f1 12 1f be 95 ab 02 3e f6 be 18 bd
       -0.018523898 -0.1553457 0.12760766 -0.03729149
000110 51 a5 57 be 87 19 1f 3d 96 40 a3 be 9e d3 25 3d
       -0.21059157 0.038842704 -0.31885213 0.040485017
000120 36 b6 02 bd cb 12 1c be 99 83 1a be ba d7 2e 3e
       -0.03191205 -0.15241544 -0.15089263 0.1707448
000130 cf c7 50 bd 6e 84 1a be 4c de 8d be bb 09 f7 bc
       -0.050971802 -0.1508958 -0.27708662 -0.030156007
000140 aa 94 0d bd 39 da c7 3d ba 7a bb 3d fd 89 71 be
       -0.034565605 0.097584195 0.091542676 -0.23587795
000150 da f9 8b 3d df 2b 8f be 77 e9 81 be 11 97 e5 bd
       0.06834765 -0.27963158 -0.25373432 -0.11210454
000160 70 48 18 3e 3b 9b 8b bd 5b c1 61 be 63 eb dd bc
       0.14871383 -0.06816717 -0.22046416 -0.02708978
000170 fb 19 ca bd 30 04 f6 bd 83 e4 16 3e 33 9d df 3d
       -0.09868237 -0.120125175 0.14735608 0.10918655
000180 ec 7a 8f 3d df 4e 93 bc 8f 52 91 3a 8c 2a 10 be
       0.07005867 -0.017981945 0.0011087226 -0.1407873
000190 5b 6f 75 be db 3f be 3d 1f dc 75 3d 74 7c b9 bd
       -0.2396826 0.09289523 0.060024377 -0.09056941
0001a0 2e 4f 4e be 46 86 39 3c bd 49 09 3e 3c 7f 9c bb
       -0.20147392 0.011323517 0.13407035 -0.0047759097
0001b0 b9 e6 d3 bc 9a d4 8c 3c ae cf 49 3e f9 f6 d8 bd
       -0.025866853 0.01719122 0.1970813 -0.10593981
0001c0 ad 8b 98 3e a0 d0 bd 3d 21 9f 90 3e f4 92 22 be
       0.29794064 0.09268308 0.28246406 -0.1587637
0001d0 50 66 8c bd de da f4 3d 8c 28 47 3e f5 5f 08 3e
       -0.06855452 0.11955808 0.19449061 0.13317855
0001e0 e0 1b db bd ec 90 75 be e2 de 6e 3d d1 62 60 3e
       -0.10698676 -0.23981065 0.058318026 0.21912695
0001f0 14 9a 16 3e d7 3f 79 bd 74 8e 54 be 9a 66 8c 3e
       0.14707214 -0.060851898 -0.20757467 0.2742203
000200 b6 20 5c 3d 47 c4 1b 3e 8e 86 55 3e bf 0e 4c be
       0.053742133 0.15211593 0.2085211 -0.199275
000210 b4 3b db bd da 83 e6 3b c3 53 6f 3d fb 1b a7 bd
       -0.10704747 0.007034761 0.05842949 -0.08159634
000220 30 7f 6b be fd 2f da bb 82 c2 ff 3d 71 6d 81 3d
       -0.22997737 -0.0066585527 0.12488271 0.063197024
000230 fd ef be bd 7a 6a 70 3e 53 7a ef 3c f1 ed 8a 3d
       -0.09323118 0.23478118 0.029233133 0.06783665
000240 c7 5a 94 bd f8 5b a6 3d 3e f7 1c be 33 75 5d be
       -0.07243877 0.081230104 -0.1532869 -0.21626739
000250 f9 bd af bd bf 36 6e bc f8 2a f9 3c 55 f9 51 3e
       -0.08581156 -0.01453942 0.030415997 0.20505269
000260 52 55 d2 bd 32 cf 5a be 6b 75 61 be 76 ec 31 3e
       -0.1027018 -0.21368101 -0.22017448 0.17375359
000270 c4 1c 55 3e f5 41 05 3e d4 5f 9f be ef 0e 03 3e
       0.20811754 0.13013442 -0.311278 0.12798665
000280 5e 90 9b 3d 63 00 cf 3d 08 a2 5b bd 71 e5 97 bd
       0.07595895 0.10107496 -0.053621322 -0.07416809
000290 12 8e 0b be d5 ae d6 3d ad 6f 39 3e e5 40 de bd
       -0.13628414 0.10482565 0.18109007 -0.108522214
0002a0 b3 9a 9c be 12 2e be 3c 07 d7 7d 3e f8 d4 1b be
       -0.30586776 0.023215327 0.24789058 -0.1521796
0002b0 8a 61 f3 bd 31 d9 b6 bc 7e 25 3f 3e 34 5c 08 be
       -0.118838385 -0.022320362 0.18666646 -0.13316423
0002c0 d8 24 c9 3d 30 26 a1 bd e8 1d ae be 6f 4b d2 be
       0.098214805 -0.07868612 -0.34007192 -0.41073176
0002d0 ac 07 94 bd 05 4f fc 3d 0c 71 85 3e ec e8 74 bd
       -0.07228026 0.12319759 0.2606281 -0.059792444
0002e0 70 70 02 be c2 86 93 3d 79 62 72 3e 85 80 aa 3d
       -0.12738204 0.072034374 0.23670377 0.083252944
0002f0 14 1b 35 3d 0d 36 37 3d 76 47 9c bd 65 91 e4 bc
       0.044215277 0.04472928 -0.076308176 -0.02790136
000300 6f f4 83 3d f3 0d 50 be 00 b2 a0 bd 46 4c e6 bd
       0.064431064 -0.20317821 -0.07846451 -0.11245017
000310 0b a2 a5 bd c6 15 fb bb da 8c 5d bd bb 83 c8 3d
       -0.08087548 -0.0076625077 -0.054089405 0.097907506
000320 49 75 31 bc d8 84 82 bd e9 03 d3 bd 50 4b b3 3d
       -0.010831186 -0.06372994 -0.1030348 0.08754599
000330 66 68 bf 3d 25 f5 3c bd 8a b4 04 be 57 52 40 3c
       0.09346084 -0.046132226 -0.12959495 0.011738381
000340 de ee 97 3d f0 4e 7f bb eb d7 12 be 5c 2d 47 be
       0.07418607 -0.0038956963 -0.14340179 -0.19450897
000350 c6 4a 43 be 78 8b b9 3d 98 59 b8 3d 96 01 5b be
       -0.19071493 0.09059805 0.09001464 -0.21387324
000360 8b c2 09 be 26 66 99 3d 32 fa 6b be 31 45 ec bc
       -0.13453119 0.074901864 -0.2304466 -0.028841587
000370 15 f9 1f 3d 77 e4 a4 3c eb 5d c5 bc ff a9 5e 3d
       0.039055903 0.020128472 -0.024092635 0.05436134
000380 58 91 71 3d 24 64 f6 3d 72 00 3f 3f 59 5b 60 3e
       0.0589765 0.12030819 0.74610054 0.21909846
000390 73 c9 9b 3e 28 26 0c bf 82 13 11 3f 1c 12 4b be
       0.3042713 -0.5474572 0.5667039 -0.19831127
0003a0 d0 cd b7 3e 70 16 f6 3e 27 c1 70 3e 31 dd 6c 3d
       0.3589921 0.48063993 0.23511182 0.057828132
0003b0 c2 02 cd be 07 04 e2 bd fe ee d8 bd df 30 5d bd
       -0.40041167 -0.110359244 -0.10592459 -0.054001685
0003c0 1e 6e c3 3e fa 37 d8 bc 42 7d a5 3e 03 b9 93 3e
       0.3816995 -0.02639388 0.32322127 0.2885209
0003d0 3b 47 ca bd 37 02 16 bf a2 bd 8f 3c 95 b2 ad 3e
       -0.098768674 -0.5859713 0.017546479 0.3392531
0003e0 bc 10 e0 bd f7 be b1 3d 0b 8d 00 3e 8e d8 ab 3e
       -0.10940692 0.08679002 0.12553804 0.33563656
0003f0 fd 29 a8 3e 73 f4 93 be d1 4c 4c 3e c3 f6 4f bd
       0.32844535 -0.28897437 0.19951178 -0.05077244

gnn.convs.2.nn.lins.0.bias f4 [32]
000000 68 c0 90 3c 64 d9 33 bd 1c b3 71 be 8a 51 53 3e
       0.017669871 -0.04390849 -0.23603481 0.20636573
000010 3b 50 9a 3d f7 e5 80 3d 30 38 20 bd 30 93 a4 3e
       0.07534834 0.06293862 -0.039116085 0.32143545
000020 ff ec 2b 3e 8a 60 3d be 01 99 10 3c 1c 21 99 3b
       0.16789626 -0.18493858 0.0088255415 0.0046731364
000030 f1 c3 93 3d df ce 8f 3d e1 65 84 be 1c bd 0c bf
       0.07215107 0.070218794 -0.25858977 -0.5497606
000040 08 1f ae 3d 61 5e 20 be 7a 42 de 3c 07 29 82 be
       0.085020125 -0.15661003 0.027131308 -0.25421926
000050 63 12 be 3d 69 e1 1f 3e 01 e6 e5 3d c8 fb 10 3d
       0.09280851 0.15613331 0.112255104 0.035396367
000060 84 c2 e9 be e8 38 cf bd 22 70 ff be 61 4d da bd
       -0.45656216 -0.10118276 -0.49890238 -0.1065929
000070 a8 8d f0 be d8 ec 36 bd 28 88 31 3e 57 e0 99 3e
       -0.46983075 -0.044659466 0.17337096 0.3005397

gnn.convs.2.nn.lins.1.weight f4 [32, 32]
000000 c7 7e 04 bb 9b 43 4d 3d b5 7f 5a 3e ec 3c 8f bd
       -0.0020217167 0.0501133 0.21337779 -0.06994042
000010 c1 23 9b bd 83 b4 08 bd b6 3c 7d 3d 51 9c 26 be
       -0.07575179 -0.033375274 0.061825477 -0.16270567
000020 ea 47 2c 3d 99 dd 93 bd 01 19 46 be fc b2 78 be
       0.04206077 -0.07220001 -0.19345476 -0.24287027
000030 6f 9c ed bd 76 72 16 3f 5d bc 6e 3d e1 e0 4c 3e
       -0.11602103 0.58768404 0.058285106 0.2000766
000040 e8 46 a5 3d 07 4b fc bd f3 30 5a bd ec ed 32 3e
       0.08070165 -0.12318998 -0.053269338 0.17473572
000050 51 46 7e bd 78 21 35 3e d7 70 f0 3d d6 b1 eb 3d
       -0.062078778 0.17688549 0.117402725 0.11508529
000060 e2 a5 d2 3d 90 08 a1 bd f8 d2 9e 3d 1b 00 14 be
       0.10285546 -0.07862961 0.07755083 -0.14453165
000070 c4 b8 24 3e f7 90 df 3d 33 3b 9a 3d e8 3f 1c bd
       0.16086107 0.10916322 0.075308226 -0.038146883
000080 2f 6f 14 be ed ca 2c be c8 09 0d be 99 56 d9 3d
       -0.14495538 -0.16874285 -0.13773263 0.1061222
000090 3c e7 4a be 09 c0 ae 3d be b9 25 3e 35 f6 17 bd
       -0.19814771 0.085327215 0.16184136 -0.037100036
0000a0 f7 ad 7c be 24 e3 df bd ed 78 0e 3e f2 75 5b bd
       -0.24675737 -0.109319955 0.13913317 -0.05357928
0000b0 a0 a1 e6 bd f0 eb 12 3d de 02 f9 3c e1 e1 e7 bd
       -0.11261296 0.03586954 0.030396875 -0.1132238
0000c0 dd 4a 92 bd 74 1f 95 3d 5b 2c a7 bc c0 f0 1c 3e
       -0.07143185 0.0728139 -0.020406893 0.15326214
0000d0 53 ae ca 3d 51 db 17 be 06 6a 60 3c 23 04 05 be
       0.09896531 -0.14829756 0.013697153 -0.1298986
0000e0 57 07 2c 3e 2d eb 10 bd 92 02 1a 3c 4a 7e 90 bd
       0.16799675 -0.03538053 0.009400027 -0.07055338
0000f0 49 cd b3 ba fa 21 fb 3c c2 3c 7e 3c 7b 55 c1 bd
       -0.0013717796 0.03065585 0.0155174155 -0.09440132
000100 c7 c8 8c bd 68 19 69 bd 18 37 92 bc 8b 6d 3c be
       -0.06874233 -0.056908995 -0.017848536 -0.18401162
000110 21 1a 80 be 57 3a df be 4f 68 2e be 4b 8b ca bb
       -0.25019935 -0.43599197 -0.17031978 -0.006181156
000120 39 82 d5 be a7 d3 11 bf 5b e8 49 3c 5a 0a 9b be
       -0.41700915 -0.5696358 0.012323464 -0.30281335
000130 83 a4 9b bb 55 45 b6 be 42 d2 0c be 29 e0 23 bd
       -0.004749836 -0.3559977 -0.13752082 -0.040008698
000140 de 2b 66 be 78 c9 6d be 17 46 03 3e 66 f8 09 be
       -0.22477672 -0.23221385 0.12819706 -0.13473663
000150 50 8a 5e 3d f0 4a 84 3c 64 42 9e 38 bf c3 da bc
       0.054331124 0.016149014 7.546393e-05 -0.026704667
000160 6f 83 9e 3d 97 52 bd 3c ef 01 8f bd 55 89 c8 3d
       0.07739913 0.023110671 -0.06982791 0.09791819
000170 f9 21 16 be b9 72 1e be 0c d4 a0 be 4a ef d2 bc
       -0.14661397 -0.1547345 -0.3141178 -0.025748868
000180 5c dc ab 3c 3d d9 b0 be 90 f3 c8 bc 10 25 73 bd
       0.020979099 -0.3454074 -0.024530202 -0.059361517
000190 c7 58 25 3d 32 a4 b0 bd 93 e6 e5 bd 0d 98 f7 be
       0.040367868 -0.08625068 -0.11225619 -0.48358193
0001a0 19 4a c2 bd d1 23 9a bd 3d f2 06 be 74 4b 5d 3c
       -0.09486789 -0.07526363 -0.13178344 0.013506759
0001b0 48 fe 11 bd c9 4e 8d be 89 8f d4 bd 7a 50 ca 3c
       -0.035642892 -0.2759917 -0.1037894 0.024696577
0001c0 9d 92 6a be d2 79 cf 3d 71 4e 04 be 16 c1 bd 3c
       -0.22907491 0.10130657 -0.12920548 0.02316336
0001d0 2f 84 4a 3d 01 dc dc bd e1 0d 4e bd 52 01 d8 3c
       0.049442466 -0.1078415 -0.050306205 0.026367817
0001e0 9d bc c7 3c 4c 7b d4 bd 2c 83 02 be 2d c5 09 be
       0.02438193 -0.103750795 -0.1274535 -0.13454123
0001f0 9a 10 52 3c 5c 45 aa 3c 38 50 b2 bd eb 3b b4 3d
       0.012821341 0.020785026 -0.08706707 0.08800491
000200 93 37 26 3e e1 81 18 3e 93 1e 00 3e a4 c2 a0 be
       0.16232137 0.14893295 0.12511663 -0.313985
000210 a9 12 f0 be e3 94 83 be cd 61 a0 3c 71 1d 0f bd
       -0.46889237 -0.2569953 0.019577885 -0.034940187
000220 c4 ae a6 be 97 2e cd be 4b c0 1a be ca b7 68 bd
       -0.3255521 -0.40074608 -0.15112416 -0.0568159
000230 0e 65 f9 bd 44 c3 bd be 40 d8 32 3e 28 c0 52 bd
       -0.12177478 -0.37063038 0.17465305 -0.051452786
000240 12 13 83 be d7 58 18 be 50 5c f4 3d f0 5e 2a be
       -0.25600487 -0.1487764 0.1193167 -0.16637778
000250 84 e8 1e bd ef 20 fd 3d 7e 2b 24 3e 97 ba d7 3c
       -0.038795963 0.12359797 0.16032216 0.02633409
000260 db 65 0c 3e cd a6 44 be 4b 5f 1b be 88 a2 cf bd
       0.1371073 -0.19204254 -0.1517307 -0.10138422
000270 98 77 86 bc e2 ae ba bc b6 1b cd be ff 0b a0 bc
       -0.016414449 -0.022788469 -0.40060204 -0.01953697
000280 73 7f 0e 3e f1 54 41 3e 14 fa e2 bd cc 8f 74 3e
       0.13915806 0.18880059 -0.11082855 0.23882979
000290 02 e4 7a 3d 78 0d 5e be 34 43 1a be 25 54 12 be
       0.0612526 -0.21684825 -0.15064698 -0.14289911
0002a0 da b4 76 be 5e 32 f9 bd b2 82 1b 3d ff e2 3f 3c
       -0.24092427 -0.1216781 0.037966438 0.011711835
0002b0 ed b0 25 be 18 ef bd 3e a8 b5 51 be 9f e2 a8 3e
       -0.16180773 0.37096477 -0.20479453 0.32985398
0002c0 5d 91 c7 3c 11 2e 0d bd f4 2d 71 be fc 0b 49 bd
       0.024361307 -0.03446776 -0.23552686 -0.049083695
0002d0 5b 9d 98 bc 60 5d 88 3e 29 55 07 3e e2 82 05 be
       -0.01862972 0.2663374 0.1321608 -0.13038209
0002e0 d2 f6 05 3e d5 c4 35 bd 23 85 90 be 07 60 7c bd
       0.13082436 -0.044377167 -0.28226575 -0.061615016
0002f0 0e 49 02 3f 47 79 d4 bd 2c 45 5d be 09 1f 92 3e
       0.5089272 -0.10374694 -0.21608418 0.28539303
000300 1c 46 8e 3c 75 fd 58 3e 0d 82 d4 3d e6 48 90 bc
       0.017367415 0.21190436 0.10376368 -0.017612886
000310 a1 9d 1f bd 1d 0c 01 3e 3f 59 2d 3e a2 85 68 be
       -0.038968686 0.12602277 0.16928576 -0.22707227
000320 60 91 66 3e b6 ad 76 be c3 21 51 bd 56 be 16 3e
       0.22516394 -0.24089703 -0.05105759 0.14721045
000330 c3 2e 45 3e 15 a1 ac bd 62 d8 c7 bc b3 b2 8b be
       0.1925612 -0.084291615 -0.024395172 -0.27284774
000340 c4 30 cf bc 85 67 c1 3d fe 67 1b 3e 66 af f6 3c
       -0.025291808 0.09443573 0.15176389 0.030112933
000350 26 8a c0 3d 4d 4d 25 be c3 60 d8 bc 6d 34 e9 bd
       0.0940135 -0.16142769 -0.026413327 -0.113869525
000360 0f 8a 25 bd 2e f7 a0 be 38 35 c8 ba a8 1c a6 bd
       -0.040414866 -0.31438583 -0.001527465 -0.081109345
000370 fa 85 5d be 7f 8b 2f 3e c2 b1 0a 3e f6 df 8b bd
       -0.21633139 0.17143057 0.13544372 -0.068298265
000380 f8 ef ae bd a4 fc c0 3d 65 ad 23 3e 48 3d bd bb
       -0.08541864 0.094231874 0.15984114 -0.0057751276
000390 96 bc 4a be 89 b2 ca bd 71 e0 07 be 2f ad 96 be
       -0.19798502 -0.09897334 -0.13269211 -0.29429004
0003a0 a3 9d 2d 3d 57 b7 49 be f3 90 82 3b 46 f5 c9 bd
       0.042386662 -0.19698845 0.0039845644 -0.09861235
0003b0 db df 5e be de 83 78 be a2 bc e7 3d 95 7e 2c be
       -0.21765082 -0.24269053 0.11315276 -0.16845162
0003c0 a5 f0 d3 3d 5f 9f a0 be e0 2c 00 be 97 da dc bc
       0.10348634 -0.3137159 -0.12517118 -0.0269597
0003d0 9f 22 1b bc 6f a6 d4 bd d1 7b 05 3d fd 92 67 3d
       -0.0094687035 -0.10383307 0.032588784 0.056536663
0003e0 2b b3 c2 3d 9b b4 1a be b5 36 5e be 2d e3 0b be
       0.0950683 -0.15107958 -0.21700557 -0.1366088
0003f0 31 d5 75 3d 5a 4e fc bd 56 8d 03 be e1 e2 46 be
       0.06001777 -0.12319632 -0.12846884 -0.19422485

gnn.convs.2.nn.lins.1.bias f4 [32]
000000 89 0e ae 3d 12 6f 3d be db c8 dc be af 6b 7f be
       0.08498866 -0.18499401 -0.4312199 -0.24943422
000010 fc f4 c8 be f8 e9 cf 3c 83 90 ee bc b3 a8 98 3d
       -0.39249408 0.02538012 -0.029121643 0.07454052
000020 44 72 38 bc fc 81 0c bf c9 91 3c be d5 c7 6e bd
       -0.011257712 -0.5488584 -0.18414988 -0.058296043
000030 85 8b 98 3c ce eb 00 be 95 9e 5b bd 18 cd 74 be
       0.018621216 -0.12589952 -0.053618032 -0.23906362
000040 53 03 e8 bd 37 57 18 be 9d d3 c4 be bc 99 68 3e
       -0.11328759 -0.1487702 -0.38442698 0.22714895
000050 b5 a3 4f 3d ba 6a a1 3d 00 2e 14 3d 41 6d b8 be
       0.050693233 0.078816846 0.03617668 -0.36020854
000060 8d 2e b5 bc cf 33 a5 3d f5 5c e6 3c 5d da 0a 3e
       -0.022116924 0.08066522 0.028120497 0.13559861
000070 e8 fb 2f bc af 9e 48 3e 67 80 22 3e 14 b8 30 be
       -0.0107412115 0.19591783 0.15869294 -0.1725772
