Run_GIN_ModelCheckpoint_EvFr_2/NCI1_reps_2_folds_5_epochs_20_2023-04-26_11-05/rep_1_fold_2/checkpoints/model_trial_4.ckpt (torch, 245261 bytes, 86 tensors)

gnn.convs.0.nn.lins.0.weight f4 [32, 37]
000000 66 27 2f 3e 86 54 54 3e 5e 1b 73 be 33 26 b2 3e
       0.17104873 0.20735368 -0.23740909 0.3479477
000010 1e 91 0c bf 7f aa 45 be 93 51 88 3d bc 56 ba 3e
       -0.5490893 -0.1930332 0.06656184 0.36394298
000020 b5 c1 a3 be 09 2a 01 3d 09 e4 3f be 2b 9b 25 be
       -0.31983724 0.03153423 -0.18739332 -0.16172473
000030 17 5a e3 bc 7d 6d 0f 3f 66 22 57 3d 6b 1b 86 3e
       -0.02775292 0.5602644 0.05252304 0.26192793
000040 6b 07 4e bf cb fe 9c bd 43 61 1b 3e f1 57 eb bc
       -0.8048007 -0.076657854 0.15173821 -0.028728457
000050 5b 27 38 3f 64 4b 8a 3f 3a 1e 3b 3d 8d c7 05 bd
       0.7193505 1.0804257 0.045683123 -0.03266101
000060 87 48 0b be 62 49 9f be 71 9e e0 be 2f de c2 3d
       -0.13601886 -0.31110674 -0.4387088 0.095150344
000070 4f b3 e7 3d 46 56 90 be 85 5f 0b 3e b2 d8 93 3d
       0.11313497 -0.2819082 0.13610657 0.07219066
000080 22 51 1b 3e 5a bc 20 be 51 b6 eb bb 06 ef bd 3d
       0.15167668 -0.1569685 -0.0071933647 0.09274106
000090 af 6d d5 3d 83 40 37 3f a4 d1 b8 3e 32 35 01 be
       0.10421311 0.7158281 0.36097443 -0.12617949
0000a0 e4 38 4e 3f 5f 23 50 bf 4c cb 3a 3e f9 13 84 be
       0.8055556 -0.8130397 0.18241614 -0.25796488
0000b0 a3 e3 b6 bd a2 56 ff 3c 19 64 f9 bc 82 7f ae bd
       -0.08930137 0.03116924 -0.030443238 -0.08520414
0000c0 ab 8c 8d 3b 33 5d a2 3c dd 70 9b 3e 34 21 1b be
       0.0043197474 0.019819831 0.30359545 -0.15149385
0000d0 85 f2 41 3d 70 a4 40 be dc e8 1f bd c0 42 88 bc
       0.047350425 -0.18812728 -0.03904043 -0.016633391
0000e0 02 95 d9 39 22 b8 30 3f a5 12 98 3f 79 19 7e bd
       0.00041500485 0.69030964 1.188069 -0.06203601
0000f0 44 59 d3 bd e4 f4 51 3d c6 c4 7e be e2 06 8c bf
       -0.103197604 0.051258937 -0.2487975 -1.09396
000100 c8 14 8e 3b bf 13 e6 3e 8c 71 85 bd 22 16 e9 bc
       0.0043359734 0.4493694 -0.06515798 -0.028452937
000110 61 51 23 be 93 7b 29 3f 28 9f c9 bd 25 1e d5 bd
       -0.15949012 0.66204184 -0.0984481 -0.1040614
000120 b8 50 c4 3d 39 f9 3b bd 6a 6f 39 3f 29 8c 5f 3e
       0.095857084 -0.045891974 0.7243563 0.2183081
000130 84 a6 7a be 51 44 37 3f a0 68 5d bf 86 6a a2 be
       -0.24477583 0.7158862 -0.8648777 -0.31721896
000140 1c 2d 80 be b7 2b 3d 3f fb 76 e4 bd 13 ed c0 bd
       -0.25034416 0.7389483 -0.11155506 -0.09420218
000150 a7 d4 24 be 53 64 80 bd f5 93 ec bd aa 02 9f 3e
       -0.16096745 -0.06269135 -0.11551658 0.3105672
000160 84 d2 ba bd 96 05 1f be 37 f1 d0 3a 46 2f bb bd
       -0.09122184 -0.15529475 0.0015941028 -0.09139876
000170 1e 9f c8 bd 47 c0 05 3d 30 93 0a 3f 5c 63 9c 3f
       -0.09795974 0.032654073 0.5413084 1.2217822
000180 4b 0b f3 bd ca 4a 12 be 94 90 1d be 60 15 8d be
       -0.11867388 -0.14286342 -0.15387183 -0.2755537
000190 5e fa 20 bf f3 67 e8 bd 9c 81 20 3f 86 c5 95 bd
       -0.6288203 -0.11347952 0.6269777 -0.07313065
0001a0 eb 45 5a 3f aa 22 83 bd 34 6e 0b 3f 4e 01 a6 bd
       0.85262936 -0.06403096 0.5446503 -0.081057176
0001b0 81 94 26 be 9d 57 fc bd ba 3b a5 bd 46 14 98 be
       -0.16267587 -0.123213984 -0.080680326 -0.29702967
0001c0 d1 a6 82 be 39 d5 ec 3b 6a b1 3b 3e 53 b9 bb be
       -0.25517896 0.0072275666 0.18329397 -0.3666483
0001d0 75 0c 6d bd 50 40 0f be de 1a 86 3c 3e 6c 4d 3f
       -0.057873208 -0.13989377 0.016370233 0.8024329
0001e0 7f 4c 2e 3f 37 46 2d 3d f0 49 47 bd 86 0c 08 40
       0.68085474 0.04230329 -0.048654497 2.1257644
0001f0 2c be 08 bf 26 3c b1 ba ca 4e 73 3d df 75 7a 3d
       -0.5341518 -0.0013521954 0.05940131 0.061147567
000200 3e b8 9e 3f cd 61 6d 3f 0a 62 36 3f 7d 5e e8 be
       1.2399976 0.9272736 0.71243346 -0.4538459
000210 a3 f0 e5 be 05 ed 39 3d de a8 ba 3f 44 47 f0 3f
       -0.44910154 0.045392055 1.4582784 1.8771749
000220 b6 dc 2e 3f 57 ba c5 3e 3c b1 f0 3e 44 ff 8e bc
       0.6830553 0.3861873 0.4701022 -0.017455705
000230 95 fe 16 bc 7e fa f2 3c 29 47 2b bd 4d 63 84 bd
       -0.0092159705 0.02966046 -0.04181591 -0.064642526
000240 ad 87 ff 3d 74 ce da bd 15 60 11 be 3c d6 2d 3e
       0.1247705 -0.10683909 -0.14196809 0.16976255
000250 42 6d c2 be 1d 94 21 be 3b 37 c9 bd 83 0e 28 3e
       -0.37973982 -0.15779157 -0.098249875 0.16411786
000260 a4 ac a3 bd eb ab 99 be 23 9e 60 3f 89 db 61 bc
       -0.07991913 -0.30013976 0.877413 -0.013785251
000270 19 73 e9 bd eb f7 00 bd df 94 e6 bd 20 86 01 bc
       -0.11398906 -0.031486433 -0.11258864 -0.007905513
000280 bf b0 18 be d1 c5 ab 3d 37 64 82 3d 3b 6f 8f 3d
       -0.14911173 0.0838734 0.06366771 0.070036374
000290 44 0b 0c be d3 7a 95 bd 63 88 89 bd 7b 2a 62 3d
       -0.13676172 -0.072988175 -0.06715467 0.055216294
0002a0 39 b2 01 be 1e 75 61 3e bc 9d 8a bd 3a 9c 00 3d
       -0.12665643 0.22017333 -0.06768367 0.03139899
0002b0 08 aa f9 bd 39 2c 0a be 51 a6 8f 3b db 94 7c bc
       -0.12190634 -0.13493432 0.00438384 -0.015416349
0002c0 84 bd 37 3e 7f 71 ee bd 12 3c 20 be 4c 7d 8e bd
       0.17943388 -0.116427414 -0.15647915 -0.06957492
0002d0 43 62 1f 3f 23 9f 65 3d f5 52 8e bd 90 59 08 be
       0.6225931 0.056059968 -0.069494165 -0.13315415
0002e0 ee fe ac bd 3f 77 d8 3d f9 79 24 3e a6 8e 0e be
       -0.084470615 0.105696194 0.16062154 -0.13921604
0002f0 42 8a 13 bd 79 53 08 3e cd ec 77 3e 94 bb 0c be
       -0.036020525 0.13313092 0.24211426 -0.1374343
000300 59 15 9a bd a4 e9 b8 3f 9e 17 74 3f 74 1f 47 40
       -0.07523603 1.4446301 0.95348537 3.1112947
000310 aa 30 6b 3f b5 c9 7a bd 4a ec 35 be 56 c4 57 3f
       0.9187113 -0.06122752 -0.17765918 0.8428396
000320 3f 9b 20 be 3e ce 05 bd 86 2e 96 bd 17 4e 9f 3f
       -0.15684222 -0.03266739 -0.073330924 1.2445706
000330 0e 9a 9b 3f 55 62 80 be 26 d9 30 be d4 02 10 3e
       1.2156389 -0.2507502 -0.17270336 0.14063579
000340 91 65 d3 3f b6 f1 9b 3f 80 98 83 3f 65 02 06 3f
       1.6515371 1.2183139 1.0280914 0.52347404
000350 ab 5c 50 3f a3 a6 00 be d4 37 b0 be 0c a7 2c be
       0.813914 -0.12563567 -0.34417593 -0.16860598
000360 e5 f3 46 3d 14 13 ea 3d f2 3b a1 bd 21 9e 12 be
       0.04857244 0.1142942 -0.07872762 -0.14318134
000370 90 06 85 bd 06 4e 11 bd 30 20 96 3e 27 05 ca 3e
       -0.06495392 -0.0354748 0.29321432 0.39457056
000380 f3 02 ab be 9d d1 02 bf 63 e8 53 3f b4 cd ac be
       -0.33400688 -0.51101094 0.8277647 -0.3375069
000390 4c 43 2d be dd 39 8e bd 96 da 02 bf 04 73 80 3f
       -0.16920203 -0.0694463 -0.51114786 1.00351
0003a0 c4 d9 4c 40 57 d1 91 3f a0 8e 05 40 f7 9e 4b bf
       3.2007914 1.139201 2.0868301 -0.79539436
0003b0 98 26 46 3f c1 d5 ab 3f b6 bb 93 bd 59 dc f9 3f
       0.7740264 1.3424608 -0.072135374 1.952037
0003c0 09 e3 4c 3f 45 ed ef 3b 11 52 3a 3f cc 6a 90 be
       0.8003393 0.007321986 0.72781473 -0.2820648
0003d0 5b 31 1d bd 7f a5 d9 3f e2 6d e4 3f 44 8f 94 be
       -0.038377147 1.700363 1.7846034 -0.29015553
0003e0 60 24 67 3f 2f 03 6d 3f 5a f2 79 be 37 8c c8 3c
       0.9028988 0.9258298 -0.24408856 0.024480922
0003f0 20 31 87 be 25 ae 0b 3e f0 4e 32 be d6 db c3 be
       -0.26404667 0.1364065 -0.17412925 -0.3825366

gnn.convs.0.nn.lins.0.bias f4 [32]
000000 c3 78 ae be 2c fd 77 be 92 e9 98 bc cf 54 bc be
       -0.3407651 -0.24217671 -0.018666063 -0.36783454
000010 c1 6c fc bd 3b 8b 22 bd db 9c ad 3e 05 dc 9b be
       -0.12325431 -0.03968356 0.33908734 -0.304413
000020 d4 be ff be 4c 6f 8e bd f4 21 8a be 68 79 8a 3e
       -0.49950278 -0.06954822 -0.2697903 0.2704575
000030 96 13 82 bd 33 44 03 bd f5 3a 36 be a3 9d 4f bd
       -0.06351392 -0.03204746 -0.17795928 -0.050687443
000040 27 62 81 be ed 5c 47 3e c9 b7 a5 be e4 e0 83 bc
       -0.25270197 0.19469042 -0.3236678 -0.016098447
000050 07 c5 b5 be 14 b8 07 bf 7f 6b e1 3d 0f d6 d8 bc
       -0.35501882 -0.53015256 0.110068314 -0.026469259
000060 8b c6 ba be 23 dc 5a bd a1 d3 5b be a8 5b f2 bd
       -0.364796 -0.053432595 -0.21467449 -0.11833888
000070 69 1c 81 3e bd 64 9a be 80 61 52 bd 86 9b 90 be
       0.25216988 -0.30154982 -0.051362514 -0.28243655

gnn.convs.0.nn.lins.1.weight f4 [32, 32]
000000 30 ce 06 bf 9c ad 9b be 46 72 5b bf aa 39 ad 3d
       -0.5265837 -0.3040589 -0.8572124 0.08458264
000010 44 3e 39 be 95 ac 13 3e 52 4d 2b 3f 0e b4 50 bd
       -0.18090159 0.14421304 0.66914856 -0.050952964
000020 92 17 ad 3e 3c 05 16 3e fb 36 84 be 3c b6 05 bd
       0.33807045 0.14650434 -0.25823197 -0.032644495
000030 3e de a4 3e a9 96 97 3e 7e f8 ab 3e d5 e4 b5 be
       0.32200807 0.29607132 0.33588022 -0.35526147
000040 ee 43 9a 3b 8a df b2 3e fb 7c 36 3e 4a 73 fd bd
       0.004707805 0.34936172 0.17821114 -0.12375505
000050 9e b2 a1 3e 5c 32 87 bf 4c 18 17 be 4b dd 23 3e
       0.31581587 -1.0562243 -0.14755362 0.16002385
000060 42 ab d6 be 2b 12 2c 3e f8 1b 2d 3e 14 3f c6 3d
       -0.41927534 0.16803806 0.169052 0.0968
000070 2c 9e ad 3e 29 04 ad bc 18 96 f1 bc fd 41 47 be
       0.33909738 -0.021120148 -0.029490516 -0.19458766
000080 cd b4 bd 3e fa d8 5a 3f 2f 56 22 3f 88 63 cc be
       0.37052003 0.8548733 0.63412756 -0.39919686
000090 6e 96 90 3e 00 7a 3c 3e 43 25 eb bb 97 2b 65 3e
       0.2823977 0.18405914 -0.007176073 0.2237991
0000a0 72 24 7b 3f 16 d2 76 3e 0b 1c 11 3f 1d 3f 90 be
       0.98102486 0.24103579 0.56683415 -0.28173152
0000b0 63 32 c3 bd f2 d4 8b 3d 47 58 08 bf aa 71 ac 3e
       -0.09531095 0.068277255 -0.532597 0.3368047
0000c0 43 1e 74 3e 6c 95 89 3e ff 9d bc 3e 07 49 4d 3c
       0.23839669 0.26871812 0.3683929 0.012529618
0000d0 4c bd 8c be bb a6 8f 3f 2e f9 8a be c5 65 63 be
       -0.27488172 1.1222757 -0.27143234 -0.22206791
0000e0 e8 4a e6 3e 01 fd 3e be 60 23 3f 3e a8 2e 1e 3e
       0.44979024 -0.18651201 0.18665838 0.15447485
0000f0 11 4a ea 3d 47 2e b1 3e 03 86 a7 be d9 e0 07 3e
       0.11439908 0.3460562 -0.3271943 0.13269366
000100 fd dd 01 3e 51 f1 5c be 27 6d 36 bf 56 20 dc 3b
       0.12682338 -0.2157643 -0.71260303 0.006717722
000110 13 b4 cc be 5b 38 80 3e 30 52 54 be d8 db 43 3e
       -0.39981136 0.25042996 -0.20734477 0.19126832
000120 8d 49 96 3e 61 44 55 3e 34 3e 98 3e c0 1e c1 3d
       0.2935299 0.20826866 0.29734957 0.09429693
000130 2d 9c cb 3d 20 c3 cd 3e 02 af 02 bf ac ba 33 3e
       0.099418975 0.4018793 -0.5104829 0.17551678
000140 52 26 26 3d 85 58 68 3e 2f a2 94 3e 88 c1 92 bc
       0.04056389 0.22690018 0.29029986 -0.017914549
000150 95 b0 6c bf 78 b7 92 bf a4 db a6 bc 9f 7b 58 be
       -0.9245694 -1.146224 -0.020368405 -0.21140908
000160 9d 49 88 3e 57 32 5e bc 2e 0d b0 bc 40 f5 a1 bc
       0.26618662 -0.013561807 -0.02149066 -0.019770265
000170 a3 c4 6c 3e 51 85 62 3e 35 3d 2e 3e a5 11 00 be
       0.23121886 0.22121169 0.17015536 -0.12506731
000180 29 3a 06 3f cc f6 68 bc 01 f0 d8 be 7f c8 a4 3e
       0.52432495 -0.014218997 -0.42370608 0.32184216
000190 02 c0 9b be c6 34 5d 3e a3 a6 24 3f 98 85 b4 bd
       -0.30419928 0.21602163 0.6431677 -0.088145435
0001a0 fd 07 09 3f 72 fc 1b 3e 97 83 5b 3d f3 65 03 3e
       0.53527814 0.15233019 0.05359229 0.1283186
0001b0 c3 f4 82 3e 25 8d 09 3e e9 51 c8 3d b7 1e 47 bc
       0.25577363 0.13432749 0.09781248 -0.012153319
0001c0 ae 1c ce 3d c7 15 08 3f 23 0f 8d be d5 e1 bb bc
       0.10064064 0.5315823 -0.2755061 -0.022934834
0001d0 49 59 20 3e 00 38 2a bf df 13 15 be ae 02 29 be
       0.1565906 -0.664917 -0.14558361 -0.16504928
0001e0 47 56 c4 3e a3 27 e2 bc ed 29 20 3e 56 a0 06 bc
       0.38347074 -0.02760679 0.15640993 -0.008216938
0001f0 55 b2 7b 3e fd fa e5 3d d9 5b bb 3d 7e 38 8b be
       0.24579747 0.11229513 0.09148378 -0.27191538
000200 e2 13 d1 bd e0 27 f0 bd 10 67 cb bd a5 cd 22 be
       -0.102088705 -0.117263556 -0.09931767 -0.1589876
000210 f6 5a b3 bc 77 6e 17 be 49 e7 29 be 46 4d 37 3d
       -0.02189396 -0.14788233 -0.16592135 0.044751428
000220 86 c5 e8 bc 2a 5c 9d bd f3 15 35 be 78 d6 67 bd
       -0.028414499 -0.076835945 -0.17684154 -0.056601018
000230 64 5d 8e bd 07 4c 16 3e 02 27 b0 be 9f 19 34 be
       -0.069514066 0.1467744 -0.3440476 -0.17587899
000240 ef 47 c4 3d f2 63 00 be d2 aa 22 bd db eb a8 3d
       0.09584033 -0.12538126 -0.03971369 0.08248111
000250 53 1a 5d be 06 b0 41 be 56 5b 17 be 23 ae 3a be
       -0.21592073 -0.18914804 -0.14780936 -0.1823049
000260 06 18 aa be d1 c8 ea be 8f 96 0c be 2f 2e 20 3d
       -0.33221453 -0.45856336 -0.13729309 0.039106544
000270 08 73 01 3d d2 f7 da 3d b6 4b 33 be dd 59 14 be
       0.031603843 0.10691799 -0.1750935 -0.14487405
000280 e6 a6 90 3d 88 e8 c8 be fe 75 cd 3c 6f 3d c4 3c
       0.07063083 -0.39239907 0.025080677 0.023955075
000290 af 6f eb be be 2b ab 3e 34 c4 e7 3e 70 c5 00 be
       -0.45983645 0.3343181 0.4526688 -0.12575316
0002a0 52 68 49 3d ab a0 24 3e 9e 06 a4 bd f8 e4 7a 3c
       0.049171753 0.16076915 -0.08009075 0.0153133795
0002b0 eb 82 c8 3e a4 95 f3 3d be e1 52 bd 08 ca 14 3e
       0.39162382 0.11893776 -0.051484816 0.14530194
0002c0 89 5b c0 bd f4 c7 1c 3f df 04 8b be 8d 64 35 be
       -0.09392459 0.61242604 -0.27152154 -0.17714138
0002d0 75 5b 15 bf c7 9b 2c bf e8 f9 b2 3d 68 ae 65 bc
       -0.5834268 -0.674252 0.08739072 -0.0140186325
0002e0 d8 d8 01 3d 91 e4 ef 3c fb fd b4 3d cf 38 6c 3d
       0.03170094 0.029283794 0.088375054 0.057671364
0002f0 64 8c 55 3e bc 9d 0c 3d a2 a7 5a 3e d0 4e 04 be
       0.20854336 0.034330115 0.2135301 -0.1292069
000300 ae 90 84 be d6 72 4d 3c 18 72 35 3d a9 74 9c bc
       -0.25891632 0.012539586 0.04429826 -0.019098597
000310 05 39 32 3d 14 25 73 be eb 1d 94 3d b6 2b 0a be
       0.04351141 -0.23744613 0.07232269 -0.13493237
000320 70 15 85 bd ce 1d 3a 3c d2 68 b4 bc f9 ba db 3b
       -0.064982295 0.011359645 -0.022022638 0.0067056385
000330 e9 45 5a be 93 96 58 be 6a db a9 bd 2b fe ae be
       -0.21315731 -0.2115119 -0.08293803 -0.3417829
000340 cc 09 37 3d 96 06 03 bc 22 85 84 bd 8b 76 e7 3d
       0.044687077 -0.007997176 -0.064707056 0.11301907
000350 32 2b c2 bd 09 28 31 3e 5a d8 bc 3d af e9 dc 3a
       -0.09480895 0.17300428 0.09220953 0.0016854311
000360 a1 ee 09 3b 2e b3 36 be 06 33 17 3d 52 b1 c0 3d
       0.0021046775 -0.17841789 0.036913894 0.09408821
000370 9c f3 76 be 6e 4d ed bc 59 b0 20 be 48 03 9c bd
       -0.24116367 -0.028967585 -0.15692271 -0.07617813
000380 cf c5 10 3d d3 bb a2 bd 94 ed 78 be c2 36 84 be
       0.035344895 -0.07945981 -0.24309379 -0.25823027
000390 ce 4a 10 be da 4e 6a 3c eb 90 34 be 23 0f f4 bd
       -0.14091036 0.014301026 -0.17633407 -0.119169496
0003a0 ac c3 9b 3d 82 b6 0e be c5 dc 20 bd 52 8f 61 be
       0.07605681 -0.13936809 -0.039273042 -0.22027329
0003b0 b7 d0 82 be 2a 75 67 be a5 3d 19 be f6 94 66 bd
       -0.25549862 -0.22603288 -0.14964922 -0.056294404
0003c0 d8 55 8c bd f8 ba 3c be 76 10 20 3e 02 98 cc bd
       -0.06852311 -0.18430698 0.1563128 -0.09989931
0003d0 a1 31 24 be d9 2c aa bb f0 6f 61 be ec fb bd bc
       -0.16034557 -0.0051933345 -0.22015357 -0.023191415
0003e0 db db 01 be 34 1a 99 bb 8d 78 0e be d0 d1 12 3e
       -0.12681524 -0.004672313 -0.13913174 0.1433785
0003f0 02 da 3c bd 63 7a 4d be e0 7c 92 be 03 20 ef 3d
       -0.046106346 -0.20066218 -0.28610897 0.116760276

gnn.convs.0.nn.lins.1.bias f4 [32]
000000 dc c3 05 be 11 e9 39 bf e6 10 c4 3e fc 3e 9e 3e
       -0.13062996 -0.72621256 0.38294142 0.30907428
000010 77 2b cf be 23 5d a5 3e 23 f0 6a be 5e 25 b9 be
       -0.4046285 0.3229762 -0.22943167 -0.3616132
000020 83 36 b0 be 65 91 ad bd 19 9b d8 3e da 33 b8 bd
       -0.3441659 -0.084749974 0.4230583 -0.08994265
000030 f7 25 98 3e b3 24 22 3c 91 7b 66 bd fe 0f c7 3e
       0.29716465 0.009896445 -0.056270186 0.3887939
000040 34 94 de bd 5e df 94 bc 83 db 83 be 3e 97 a5 be
       -0.10868111 -0.018172916 -0.25753412 -0.3234195
000050 75 19 b2 bd 01 70 14 bf c3 c0 07 3f 2f 39 b3 bd
       -0.08696262 -0.57983404 0.53028506 -0.08751141
000060 4b 5b 52 be 5b 9a 8e ba 22 ee 8a bd 14 bc 5d be
       -0.20542638 -0.0010879742 -0.067837015 -0.21653777
000070 e5 ac 8e bd fb 35 bc bb c8 b0 33 be 41 4c dc bd
       -0.06966571 -0.0057437397 -0.17547905 -0.10756732

gnn.convs.1.nn.lins.0.weight f4 [32, 32]
000000 f4 e4 db 3d fb 93 48 3f ab 49 85 bf be 2b 77 3e
       0.10737029 0.783508 -1.0413107 0.2413778
000010 d9 3d 30 3e 5a a5 0c 3e bf fb 63 be 2e 5b 2d bd
       0.17211093 0.13734952 -0.22264002 -0.042323284
000020 f1 4c cb 3d cf 85 eb 3c 2a 2c f5 bd ce a9 ae 3e
       0.09926785 0.028750328 -0.11971314 0.34113926
000030 67 54 55 bf 6f c0 d9 3d 32 02 6f be 5b 03 a8 be
       -0.8333191 0.10632407 -0.23340681 -0.3281506
000040 93 d5 a6 3d 9b 08 b3 3c 34 1a 25 3e 6c 13 09 3e
       0.08146205 0.02185469 0.16123277 0.13386315
000050 aa 50 99 bd 92 e4 4c 3d 9d 75 2b bf 51 0a 5c 3d
       -0.074860886 0.05002267 -0.6697634 0.053720776
000060 16 a6 6c 3d 6b e8 c5 3c d3 38 12 3e 27 63 a7 bd
       0.05777558 0.024158677 0.14279489 -0.08173209
000070 04 55 88 ba 56 4f ce 3d 90 11 14 3e 69 27 2c 3f
       -0.0010401313 0.10073726 0.14459825 0.67247635
000080 43 99 af bd 69 43 e5 3c 58 26 26 be 72 de 4f bd
       -0.08574154 0.027986245 -0.16225564 -0.05074925
000090 2f 87 10 bc cc c7 69 bd 2f d4 44 bd 1b 73 78 3d
       -0.008821293 -0.057075307 -0.048053917 0.060656648
0000a0 22 73 d2 bd 5e 34 68 3d 7c 07 1f be d8 92 02 be
       -0.10275866 0.056690566 -0.15530199 -0.12751329
0000b0 d2 01 61 bc ea 0f 8d be c2 c2 71 3d 17 53 1d bd
       -0.013733344 -0.27551204 0.059023626 -0.03840932
0000c0 fa 15 34 3e 15 07 1f 3e 60 9e c9 3c 31 28 cd bd
       0.17586508 0.15530045 0.024611652 -0.100174315
0000d0 91 68 8a 3d 3d a1 00 be c7 25 cd bd e2 2d dd bd
       0.06758226 -0.12561508 -0.10016971 -0.10799767
0000e0 8b 0a 2c be 55 eb 3c bd 15 2e 24 bd dd 2d 01 be
       -0.16800897 -0.046122868 -0.04008301 -0.12615152
0000f0 d3 91 49 3d f7 1c 84 be aa 02 5f be 71 de 93 bd
       0.049211334 -0.25803348 -0.2177836 -0.07220162
000100 69 5b 20 be 3b 58 5f bd 7b 3f 2c be fd 4f 5c be
       -0.1565987 -0.054527503 -0.16821091 -0.21514888
000110 09 08 08 3e 49 69 d2 bd 41 b7 9f 3c d7 a9 13 3e
       0.13284315 -0.10273988 0.019496562 0.14420258
000120 b1 43 e6 bd 68 39 42 3d 10 b3 55 bd 40 1e 83 b8
       -0.1124338 0.047418028 -0.05217272 -6.252201e-05
000130 7a 9a 57 be de 0f 31 be 21 52 4b 3a 43 8c e1 3a
       -0.21055022 -0.17291209 0.00077560736 0.0017207939
000140 f4 c8 fc 3c 94 d0 49 3d cc 73 9e 3d 48 e5 e9 bd
       0.03085754 0.04927118 0.0773693 -0.11420685
000150 39 24 7b 3d 61 ac 4e bd 95 8c f4 bb 8b cb f9 3d
       0.06131384 -0.050457362 -0.0074630477 0.12197026
000160 e1 18 64 3c 05 49 da bc 12 c3 1c bd 5c a6 43 bd
       0.013921947 -0.026646147 -0.03827197 -0.047766075
000170 e9 44 80 3d 83 29 08 3d 63 4a a1 3c f8 a5 85 be
       0.062631436 0.033242714 0.01968879 -0.26103187
000180 ab c9 2b 3e 26 bf 63 bf fa 76 d7 3e 1a a1 ec 3e
       0.16776149 -0.88963544 0.4208296 0.4621666
000190 25 c9 d0 bd 3f f8 c8 3e d8 29 dd 3b 8e 34 d3 bc
       -0.10194615 0.39251897 0.006749373 -0.025781896
0001a0 a3 21 2e 3f 5f 62 60 3d 3f a0 8d 3e 41 2d 16 3e
       0.68020076 0.054781314 0.2766132 0.146657
0001b0 e1 cf fb 3e 74 39 5d 3d 4d 8e 65 3e fb c5 35 3e
       0.49182037 0.05400987 0.22417565 0.17751305
0001c0 c6 8e a1 bd ce a8 0a be 2c ba fd bd 96 91 8d 3d
       -0.0788856 -0.13540956 -0.12389025 0.06912534
0001d0 7c 5c 27 3e 79 6a be be b3 a6 6e 3e 7c eb 77 bd
       0.16343874 -0.37190607 0.23305778 -0.06052731
0001e0 1a 7b 02 be 95 a0 71 bd 53 03 07 3f 6f a8 72 be
       -0.12742272 -0.058991034 0.5273945 -0.23697065
0001f0 05 80 e3 3d 9f a4 48 3e 2a 57 0b 3e 37 92 f3 bd
       0.11108402 0.19594048 0.13607469 -0.11893123
000200 8d 8e 81 3e 24 54 ee be e1 27 c2 bf 5f 4a 46 3e
       0.2530407 -0.4654857 -1.516842 0.19364308
000210 c1 0b 21 bd 19 46 f3 bc ea e6 be 3d af 06 a6 3d
       -0.03931785 -0.029696511 0.09321387 0.081067435
000220 06 89 f0 3d cf 5b 93 3e 4e c8 8c bd 05 dd 5c ba
       0.11744885 0.28780982 -0.068741426 -0.00084252685
000230 78 c2 7d bf 37 28 0c 3e 4f ed 12 be 02 14 0a 3d
       -0.9912486 0.13687216 -0.14348339 0.033710487
000240 38 60 6a bc 2f 2a de 3e 08 c3 88 bd 7c 3b 78 3e
       -0.014305167 0.4339156 -0.06677824 0.24241441
000250 be f1 36 3e 41 1f 75 bd f3 87 87 bf 88 de 68 be
       0.17865655 -0.05984426 -1.0588363 -0.22741139
000260 1b 49 f0 3e 0d 7a 3c 3e c5 1d 1b 3e 1b e4 8a bd
       0.46930775 0.18405934 0.15148075 -0.06781789
000270 d2 83 97 be 59 e1 7c 3e 69 0d 1e 3d c4 38 93 bd
       -0.29592758 0.24695338 0.038587008 -0.071885616
000280 f4 79 0b 3e c4 f9 8c bf 2d d6 4d 3e 52 0a bc bb
       0.1362074 -1.1013722 0.20101233 -0.005738535
000290 b9 38 5d be 3e d6 3c 3e eb ee ed bd a5 78 c0 3d
       -0.21603669 0.18441102 -0.116178356 0.09398011
0002a0 f6 cc b8 3e 0e 07 5e 3c 70 5d c6 3e ed b1 5b be
       0.36093873 0.013551487 0.38743162 -0.21454592
0002b0 af eb 3c 3e a0 2e a4 3d be f2 0a 3f 18 43 84 3e
       0.18449281 0.080167055 0.54276645 0.25832438
0002c0 d4 a3 d3 bc a2 af 39 bc 09 e5 c7 3c 6f 69 4a be
       -0.025834955 -0.011333378 0.024401205 -0.19766782
0002d0 40 3c 69 be 6f 8c 86 be 76 5d 88 3d 58 2d 31 3b
       -0.2277689 -0.26279017 0.06658451 0.0027035084
0002e0 a4 ab 18 3b 1d 43 a7 3d 33 c1 bb 3e ac 9b 23 3c
       0.0023295665 0.08167098 0.36670837 0.009985846
0002f0 c6 f5 27 3e 99 6c 95 3e 72 a3 10 3d bc e3 2f bd
       0.16402349 0.29184416 0.035312124 -0.042941794
000300 6a 00 e8 be 19 20 50 3e 82 6b d6 3d 7f d2 f0 be
       -0.45312816 0.20324744 0.10469724 -0.47035596
000310 57 8e 13 3e 0f fa f9 bd c6 c4 f7 bd b8 cb e4 3d
       0.14409767 -0.12205898 -0.120980784 0.11171669
000320 46 7b 93 be e9 75 11 3d 98 ab a8 bc 3e 7b 2f 3f
       -0.28804988 0.03551284 -0.020589635 0.6854743
000330 89 6c 3d be 1a 61 be bd ed bc b6 bd 2d 3e 6d be
       -0.18498434 -0.092958644 -0.089227535 -0.2316825
000340 54 cb e4 bc 8c 5e 9a bd ea d5 33 3e 00 53 93 bd
       -0.027928986 -0.07537565 0.1756207 -0.07193565
000350 b9 00 1d 3e 59 f4 33 3e 72 ad 87 bd 2a 6c f3 3d
       0.15332307 0.1757368 -0.06624879 0.11885865
000360 fe 9f 5a 3d 91 91 5d bc b5 ca 9b bd 6f 59 56 3d
       0.053375237 -0.013523475 -0.07607023 0.052331384
000370 a7 1b e1 3d 6f 29 5d 3c 04 75 cb bd ab df 97 3d
       0.109916024 0.013498648 -0.09934428 0.07415708
000380 62 12 ff be 87 9c 18 3f 05 a2 fe 3e d9 c1 86 be
       -0.49818712 0.5961384 0.49732986 -0.2631977
000390 bc 40 f6 3d b4 fa f0 3e e9 ba a2 3b 6d 9d 81 bd
       0.12024066 0.4706627 0.004966129 -0.06328855
0003a0 52 df 28 be 62 97 3d 3d af de e0 3d e6 ad 03 3e
       -0.1649144 0.046286948 0.109799735 0.12859306
0003b0 7e 29 09 3f 60 4e c7 bd 0d 78 a6 be 28 3f 25 3e
       0.5357894 -0.09731746 -0.32513466 0.16137373
0003c0 f2 ac e5 3d cd 70 3b be 3a 1b a2 3d 60 fc 42 be
       0.11214627 -0.18304749 0.07915349 -0.19041586
0003d0 f3 71 87 3e 82 83 7f 3c ac e4 88 3e 70 70 08 be
       0.26454124 0.015595319 0.26736963 -0.13324142
0003e0 d2 7e 50 be b3 ca 3a 3d b7 5c b5 be 7f 34 5c be
       -0.20360878 0.045603465 -0.35422298 -0.215044
0003f0 7d 2f 2d 3c ef 98 e4 be 06 ed e9 be 82 e3 bb be
       0.010570404 -0.4464793 -0.45688647 -0.36697012

gnn.convs.1.nn.lins.0.bias f4 [32]
000000 13 d5 0e 3f 9e a2 55 be 4a 4e 86 be 23 55 09 3d
       0.55793875 -0.20862815 -0.26231605 0.03352846
000010 c3 27 c6 3e 42 ff 63 3e 98 f2 86 be db a6 19 bf
       0.3870221 0.22265342 -0.2635696 -0.60020226
000020 ab d5 e8 bc af 08 85 bb 91 0d ae bd 61 e2 b0 be
       -0.028422197 -0.004059873 -0.08498681 -0.34547713
000030 16 76 0a 3f bf 1d a9 be 7c e6 3a be ce 56 3c be
       0.54086435 -0.33030507 -0.18251985 -0.18392488
000040 c2 8c bf be 66 c9 fd 3c 00 06 35 be fa 30 87 be
       -0.37412077 0.030979823 -0.1767807 -0.26404554
000050 34 01 b4 be 2d c1 00 bf 3d a6 2e bd 77 e1 47 be
       -0.35157168 -0.5029476 -0.042639006 -0.19519602
000060 d7 19 9b bd c2 a9 ff 3d 92 9b 58 be 92 81 44 be
       -0.07573288 0.124835506 -0.21153095 -0.19190052
000070 f3 15 a3 3d 20 48 92 bd 1b a1 df bd 7a 41 0a 3e
       0.07963171 -0.07142663 -0.109194 0.1350154

gnn.convs.1.nn.lins.1.weight f4 [32, 32]
000000 99 20 3b be a4 10 2a 3e 1c 16 19 3e ab 4a f4 3d
       -0.18274154 0.1660791 0.1494984 0.11928304
000010 33 82 21 be e6 de 7f 3e 55 c1 39 be 8e a8 6e be
       -0.15772323 0.24987373 -0.18140157 -0.23306486
000020 7b 34 cb be f7 89 c9 bd ed 63 69 3e 64 2a b3 3c
       -0.39688477 -0.09840768 0.22792025 0.0218708
000030 58 9d 54 bf 5c 70 4b 3e 91 2d 10 be c9 d6 24 bd
       -0.8305259 0.1986708 -0.14079882 -0.040243898
000040 de 28 93 be 1c da 55 3e ee d5 56 3e 3c e8 90 ba
       -0.28742117 0.20883983 0.20980045 -0.0011055539
000050 5b 74 5f 3d e5 56 35 3d c9 21 d2 3d e0 03 e2 bd
       0.054554325 0.044272322 0.1026035 -0.11035895
000060 e5 c4 2b 3e fe 7a 0c 3e 14 bc 15 be 93 45 aa 3d
       0.16774328 0.13718793 -0.14622527 0.083140515
000070 43 a0 98 3e 25 29 32 be 52 10 26 be d3 7c 91 3d
       0.2980977 -0.17398508 -0.16217163 0.071038865
000080 9b 10 63 be ae fc 12 3e 7c b1 a0 bc 8e 71 62 3d
       -0.22174303 0.14354202 -0.019615881 0.055284075
000090 4c df 03 3e 9d 0a 61 bd 87 34 1b be 8e c6 3e bd
       0.1287815 -0.054941762 -0.15156756 -0.046576075
0000a0 e0 48 c0 3d d6 37 92 3d 79 a6 dc 3c 5b 73 fb bd
       0.093889 0.07139556 0.02693485 -0.12277862
0000b0 17 84 4c 3e 5b d9 ac bd 7f 2b b3 3c 9d c3 76 bd
       0.19972263 -0.08439895 0.021871326 -0.060245145
0000c0 9f be 31 3e 80 41 03 be 16 1d 2a 3e 73 cc ba 3d
       0.17357872 -0.12817955 0.16612658 0.09121027
0000d0 ad 3a 16 3e d6 30 b6 be e9 2b 23 bd cb ce 5d 3c
       0.1467082 -0.35584134 -0.039836798 0.013538073
0000e0 86 62 f9 3d 00 76 e2 bd 7a b1 71 3d cd 26 35 3d
       0.12176995 -0.11057663 0.059007145 0.044226456
0000f0 87 d8 13 be 7c 48 0b 3e 87 6d 15 be e6 10 70 be
       -0.14438067 0.1360187 -0.14592563 -0.23443946
000100 73 30 25 bd 1c d8 81 3e 0b 2d 4d be 05 60 15 be
       -0.040329408 0.2536019 -0.20036714 -0.1458741
000110 e5 04 eb bd b3 84 fa bb 70 6b 5e 3d ba 6f f1 bc
       -0.11475543 -0.0076452135 0.05430168 -0.02947222
000120 e4 4a cf bc 3a fd 07 be 1b ff 8c be e1 40 0a be
       -0.025304265 -0.13280192 -0.2753838 -0.13501312
000130 81 2c 48 be 3e 15 16 3e 23 c5 63 3c a1 ff 31 be
       -0.19548227 0.14656541 0.0139019815 -0.17382671
000140 67 ee 88 bd f9 32 c3 bc f9 56 35 3d 36 70 67 bd
       -0.06686097 -0.023828017 0.044272397 -0.056503497
000150 05 3e c3 bd 8c 78 3b bc 79 15 69 3e 06 f1 8b bd
       -0.09533314 -0.011442315 0.22762097 -0.06833081
000160 b4 be 9f 3d 03 f4 6c be ff ec 0f 3e ac a3 61 3e
       0.078000456 -0.23139958 0.1405525 0.22035092
000170 06 9a 13 bd 2c e1 c5 3d 7e f4 f2 bb 0f 0f cc bc
       -0.03603556 0.09662089 -0.0074143996 -0.024909524
000180 a4 5a bc be f9 14 3e 3e 58 46 89 bd ce 47 9b be
       -0.36787903 0.18562688 -0.0670287 -0.3032822
000190 25 7d 21 be b1 d0 b1 3d ac f4 f6 bb 30 b7 76 bf
       -0.15770395 0.08682383 -0.0075364914 -0.9637327
0001a0 8f 27 e4 bd 1b 64 39 3d 2f 12 bb 3e 4b 07 66 3e
       -0.11140358 0.045261484 0.3653731 0.2246372
0001b0 d4 12 3a be c9 cf 02 bd 22 45 17 be 41 28 63 3d
       -0.18171245 -0.03193644 -0.14772466 0.05545831
0001c0 b5 a7 83 be 24 8a 19 3e 11 68 0a 3d 33 47 c5 bc
       -0.25713888 0.14994103 0.03379065 -0.024081802
0001d0 af c9 ec bd 8e f9 da 3d df 88 ad 3d 14 9b d0 3d
       -0.115619056 0.1069213 0.08473372 0.10185829
0001e0 05 c7 5d be 2f 37 3d bd 3f 71 bf bd 21 48 81 bd
       -0.21657951 -0.046195205 -0.09347772 -0.063125856
0001f0 b5 77 30 3e 28 b1 26 be ff c0 ca 3d 7b 46 5e be
       0.17233165 -0.16278517 0.09900092 -0.21706574
000200 de ae 83 3d a6 e2 9e 3d 69 08 25 3d 10 81 f4 be
       0.06429838 0.077580735 0.040291224 -0.47754717
000210 37 de 74 be cb 55 56 be b1 93 ca 3e 97 33 3e bd
       -0.23912893 -0.20931165 0.39565805 -0.04643592
000220 ea 5f fe be 8e 2a c3 39 79 d6 06 bf 5c b1 f9 3d
       -0.49682552 0.00037225004 -0.5267101 0.12192032
000230 95 4a 9f be 2b ba 62 3e 07 c8 e1 bd 71 eb e4 3d
       -0.3111159 0.2214133 -0.1102448 0.111777194
000240 9b a3 46 3f 6d 78 04 be b9 87 d8 3c 8e 0c cf bd
       0.7759339 -0.12936564 0.026431905 -0.101098165
000250 0e 0f fd bd 4c eb 91 3f 52 10 6d 3d 42 d8 cf bd
       -0.12356387 1.1399932 0.057876892 -0.1014867
000260 4f b6 03 be 4f 5a 7f bd 7e 19 a0 3c 43 72 c2 bd
       -0.12862514 -0.062341984 0.019543406 -0.0949445
000270 40 48 cd bd 0d de 18 be b9 01 b5 3d b8 88 e9 be
       -0.10023546 -0.14928456 0.08838219 -0.4561212
000280 66 29 fb bc d3 b2 80 3e 93 38 f3 bd 97 c3 df 3d
       -0.030659389 0.25136432 -0.11876025 0.10925978
000290 3c fa c9 be 3f 8b 66 3e 6a 23 06 be 8f 2b f3 3c
       -0.39448726 0.22514056 -0.13099447 0.029683856
0002a0 e8 7e 01 be e0 2e 65 3c ab 81 a6 3d 64 57 f3 bc
       -0.12646067 0.013988227 0.08130201 -0.029704757
0002b0 92 d5 4a bf 68 e8 1e bd fb 93 59 bd 91 34 f0 3b
       -0.7923213 -0.03879586 -0.05311964 0.007330485
0002c0 9d 3a bd bd ae 4f 5b 3e c1 2b 26 be 5c d1 9e 3d
       -0.09239695 0.21417114 -0.16227628 0.07754776
0002d0 bb 92 08 bd ab 2a 4f be 90 aa 8e 3e 36 ae 3c 3e
       -0.033343058 -0.2023112 0.27864504 0.18425831
0002e0 1e 14 77 3d a4 01 01 3e 28 3a e0 3c 35 29 bb bd
       0.06032192 0.12598282 0.027371481 -0.09138719
0002f0 bb a9 0b 3e 94 db b1 bd 8f 3d b5 3d 3c 4f 5c 3e
       0.13638966 -0.08684459 0.08849632 0.215146
000300 fc eb 80 bd 83 e5 a0 bd 14 88 4d bc 3d be 8b bd
       -0.062950104 -0.07856276 -0.012544651 -0.068233944
000310 41 cf 2e be 4f 6f ce bd 4a f7 49 3d 4e bf 94 bd
       -0.17071249 -0.10079824 0.0493081 -0.07263051
000320 49 3b da 3d bc 7c 42 be e2 d4 11 be cd 10 2c be
       0.10655839 -0.18992895 -0.14241365 -0.16803284
000330 8a 09 07 be a4 82 89 bd 88 b8 4b be 67 56 a8 3c
       -0.13187233 -0.06714371 -0.19894612 0.020549012
000340 ce 69 4f bd 0f d3 80 be cf 97 ff bc 5e 5b b6 3c
       -0.050638013 -0.25161025 -0.031200318 0.022260364
000350 99 3b c1 3c cf f9 4b be 7a e9 31 3d 5b c5 e6 bc
       0.023587989 -0.19919513 0.04343555 -0.028170278
000360 b3 68 49 be fa 19 83 3d fc a1 11 bd 1e 33 2c be
       -0.19668846 0.06401439 -0.03555487 -0.16816375
000370 27 0e b2 3d a6 6f 56 3d 1e fa 55 be 59 15 ba 3d
       0.086941056 0.05235257 -0.20896193 0.09086103
000380 f8 e9 60 3c d7 f5 ee bd c8 a0 03 3e 68 2d b0 3d
       0.0137276575 -0.11667984 0.12854302 0.086024106
000390 93 10 2e be 5a a2 5e be 66 f8 42 be ef c0 f7 bd
       -0.1699851 -0.2174162 -0.19040069 -0.12097346
0003a0 99 d8 a3 bd 38 4f df 3d c4 f2 05 be e1 79 41 be
       -0.08000297 0.10903782 -0.13080889 -0.1889415
0003b0 a2 3f 64 be 81 62 6e be bd 94 02 bb 8b 2a 66 bd
       -0.22289899 -0.23279764 -0.001992508 -0.056192916
0003c0 67 13 ae bd 1a 1a a1 bd de 38 0b 3e c6 80 e5 bd
       -0.084997945 -0.078663066 0.13595912 -0.11206202
0003d0 24 6d 1e 3e d6 de 3c bb b1 18 48 3c 3e b2 d8 bd
       0.15471321 -0.0028819344 0.012212918 -0.10580872
0003e0 67 f7 5b 3d 87 09 4d be 7d 9b 1d be 3f 16 6b be
       0.053702738 -0.20023166 -0.15391345 -0.22957705
0003f0 07 8c 0d be a0 18 3f 3d bc 30 1b bd d3 25 1d 3d
       -0.13822947 0.046654344 -0.037888274 0.03836615

gnn.convs.1.nn.lins.1.bias f4 [32]
000000 c4 2b 26 3d de 36 35 be 6f 9b 6d 3d db 51 71 be
       0.040569082 -0.17696711 0.05800956 -0.23566382
000010 7a 2f 56 be 65 d8 74 3e de 0a 46 be b6 64 c7 bc
       -0.20916548 0.23910673 -0.19340083 -0.024340015
000020 ce e5 5e bd 08 3e 4e be d3 9c bb be 9a f1 7e 3e
       -0.054418378 -0.2014085 -0.36643085 0.24896851
000030 4e 12 3d bd 49 48 5f bd 12 05 0d 3e 1b 7f 5d 3d
       -0.046160035 -0.054512296 0.13771465 0.054076295
000040 22 7a 0a be 20 f5 18 be e1 9d 8f be 6f 40 54 bc
       -0.13523152 -0.14937258 -0.2805014 -0.012954815
000050 76 fa 8b 3c 22 0c 7b 3d 21 17 8e be 05 f9 3a be
       0.017087203 0.061290868 -0.2775202 -0.18259056
000060 78 4b 96 be 36 f2 19 3e c2 7d 8e 3d 37 cc 88 3e
       -0.29354453 0.15033802 0.0695758 0.26718304
000070 e4 ce 92 be b3 2a c8 bc 8c ec 87 bd 7e 84 41 be
       -0.2867347 -0.024434423 -0.066369146 -0.18898198

gnn.convs.2.nn.lins.0.weight f4 [32, 32]
000000 41 77 3c 3e 0f 48 99 bd 2a fe 55 3e 92 d6 f2 3e
       0.18404867 -0.07484447 0.20897737 0.4742933
000010 63 39 df 3c 6d cc 50 bc 7e 5e 33 be de 22 61 be
       0.027249044 -0.012744051 -0.17516515 -0.21985957
000020 ff 07 82 bd 5e 5d b7 bd a1 5e 9c bd c9 13 55 3e
       -0.063491814 -0.08953355 -0.076352365 0.20808329
000030 fc fd f5 bd 4a 57 9c 3e 5c 64 34 3c eb 6d 23 3f
       -0.12011334 0.30535346 0.011010256 0.63839597
000040 6a 1b 1f be 70 21 3f be 9c 08 60 be d2 1b 40 3e
       -0.15537801 -0.18665099 -0.21878284 0.18760613
000050 5b 62 ac 3d 91 1d 87 be 80 88 86 be 65 60 97 bd
       0.08417197 -0.26389745 -0.26276016 -0.07391433
000060 68 c5 50 3f 4d 5a 06 be 3a cb 6a be 36 5c 56 3e
       0.8155122 -0.13120385 -0.22929087 0.20933613
000070 1a 5f 86 bb 05 55 41 be ba d3 d8 bd 77 ca 7c be
       -0.0041006925 -0.18880089 -0.10587259 -0.24686609
000080 b0 d7 23 be bc 39 9d 3d 7a 35 a3 be 53 84 b8 bd
       -0.16000247 0.076770276 -0.31876737 -0.09009614
000090 dd 8a ca bc c2 75 96 be a4 ac 7d bd ad f4 0a be
       -0.024724418 -0.29386717 -0.06193222 -0.13569899
0000a0 3a 96 6f be c7 4c 18 be be d8 12 be 5e 04 0c bd
       -0.2339715 -0.14873038 -0.14340493 -0.034183852
0000b0 41 fa eb ba 0c a7 c6 3c 7c 98 d4 bd 68 b8 90 bd
       -0.0018003659 0.024249576 -0.103806466 -0.07066423
0000c0 70 ee 8f bd 05 97 26 3e 4e 03 2e bd 89 88 bc bd
       -0.070279 0.16268547 -0.04248362 -0.092057295
0000d0 ac 19 dd 3c c1 0e 75 bc 2b 2c 14 3d 97 66 07 3e
       0.02698978 -0.014957131 0.036174934 0.13222729
0000e0 30 5e 33 bd b0 48 ee 3a 1a d6 1e be cc c4 a7 be
       -0.043790996 0.0018179622 -0.15511361 -0.32767332
0000f0 ff cb 8e be 3f b1 d8 3d 32 ac b6 bd ed 11 06 3d
       -0.27890012 0.10580682 -0.089195624 0.03273194
000100 34 9e 1d 3e 75 6a 1d 3e 84 c8 5a bd 29 d3 63 3e
       0.15392381 0.15372641 -0.053413883 0.2224852
000110 8c 47 c9 be ef 9b 85 3d 3d 06 6d 3d 98 4f 6e bd
       -0.39312398 0.065238826 0.057867277 -0.058181375
000120 12 17 4c 3b 41 a6 6d bc 01 c8 48 3e 43 e8 8f 3d
       0.003114168 -0.01450497 0.19607545 0.07026722
000130 41 a3 8f bd ad 87 f6 3c 61 7a 4d 3c b0 15 1e 3f
       -0.0701356 0.030093992 0.012541384 0.6175184
000140 66 4b d4 bc d3 45 49 3e 26 cb 1e 3d b0 71 af bc
       -0.025914859 0.19655542 0.038767956 -0.021416515
000150 0e c8 e5 3d e4 ab d6 bd dc b3 1d be f3 eb 94 3d
       0.11219798 -0.10482004 -0.15400642 0.07271566
000160 1b 19 51 3f 0c e3 b0 bd 9e d6 90 3d 62 be 98 3d
       0.8167893 -0.08637056 0.07072185 0.07458188
000170 f0 88 39 bd b0 b4 d5 3d 6e 1b 3b 3e 3e 1c 0b 3e
       -0.04529661 0.10434854 0.18272182 0.13584992
000180 d4 86 94 be ba 9c aa bd d4 75 26 3d 9b 01 a8 be
       -0.29009116 -0.083306745 0.040639713 -0.32813725
000190 98 7a 58 3a 73 a2 b9 be 69 a7 27 be e2 7f 16 be
       0.0008258014 -0.3625675 -0.16372456 -0.14697221
0001a0 82 4f 32 3e 10 e4 22 3e 4c d7 23 be 23 fb a8 be
       0.17413142 0.15907311 -0.16000098 -0.33004102
0001b0 f3 c6 5d be 3e 08 c9 bd b2 9f d8 be f3 5b d0 be
       -0.21657924 -0.09816025 -0.42309338 -0.40695152
0001c0 ec c1 d5 3d f0 5c c1 3c 53 7a 21 be 75 d3 07 3e
       0.10437378 0.023603886 -0.15769319 0.13264258
0001d0 ce 7d aa be 6e 98 3c be e9 26 d5 bd ab 90 46 bc
       -0.33299106 -0.18417522 -0.10407812 -0.0121194525
0001e0 b9 f9 52 be a6 8c 92 bd 83 94 87 be f1 61 c2 be
       -0.20603074 -0.07155733 -0.26480493 -0.37965348
0001f0 28 ec 26 be bf 38 d2 bc fc 3d 13 be 04 37 86 bd
       -0.16301024 -0.025661824 -0.14379114 -0.06553462
000200 29 3f f3 3c fd e5 f7 bc 2b b7 fa bd e8 a8 b7 3e
       0.029693203 -0.030261034 -0.12241968 0.35871053
000210 03 ca 94 be a6 eb 22 be 80 71 cf bc 44 49 37 be
       -0.29060373 -0.15910205 -0.025322676 -0.17899042
000220 ad bb 3b be 44 53 34 be fd 6b 16 bd 15 fa af 3c
       -0.18333311 -0.17609888 -0.03672408 0.021481553
000230 4d 85 0d 3d d7 5d 28 bd 3c 5e 38 bd 38 7f d1 bb
       0.034550954 -0.041105118 -0.045011744 -0.0063933395
000240 20 8a 8e 3d 86 cc 8f 3d af c4 15 3c 20 dd d9 bd
       0.06959939 0.070214316 0.009141131 -0.10637879
000250 89 d7 35 bb 8f 89 51 3d 07 10 a6 bd b5 74 d4 bd
       -0.0027746877 0.051156577 -0.08108526 -0.103738226
000260 a2 1d c8 bd f6 86 05 be 31 6a 9a bc 4b 68 b2 bd
       -0.09771277 -0.13039765 -0.018849464 -0.087112986
000270 d4 a0 0d be 09 0e 24 be 81 ab 2d 3c af 64 bd bd
       -0.13830882 -0.16020979 0.010599972 -0.092477195
000280 3c 35 38 be d4 9d f6 3d 1f d1 3b be 1b 84 dd 3c
       -0.17989057 0.12041822 -0.18341492 0.027040532
000290 e8 9d 66 3c 59 06 a5 be 1f 28 e7 bd 96 e9 fd 3d
       0.014075734 -0.32231405 -0.11286949 0.123980686
0002a0 09 64 e5 bc c6 00 e1 bd d2 4f 45 bc 02 19 78 be
       -0.028001802 -0.10986476 -0.012042956 -0.2422829
0002b0 b4 51 e1 3b d4 96 84 be ba 14 8d bd 97 05 ce bd
       0.006876195 -0.25896323 -0.06888719 -0.1005966
0002c0 ce 89 98 bd 76 7b c1 3d 68 0c 8f bd 2c 1f 2a bd
       -0.07448159 0.094473764 -0.06984788 -0.041533634
0002d0 b8 30 06 bd 59 c1 0e bc d8 55 27 be 0a c1 b7 3d
       -0.032761306 -0.00871309 -0.1634134 0.08972366
0002e0 22 7e a8 3c c1 2d c3 bb 06 f3 0e 3e fb 58 a8 be
       0.020567957 -0.005956382 0.13959894 -0.32880387
0002f0 11 ea c3 bd 6a c0 e9 3c 1a 84 da 3d 1b 5e 0b be
       -0.09566129 0.028534133 0.106697276 -0.13610117
000300 47 ed 81 3d 15 92 9c bd 1c f4 62 3d 2f ad ad be
       0.06344085 -0.076450504 0.055408582 -0.3392119
000310 aa 26 66 3e b9 68 96 bc 37 7e 9b bd 13 77 1c 3c
       0.22475687 -0.018360483 -0.07592433 0.009549874
000320 25 40 c9 3d ca 18 e0 3d 72 99 97 be 02 7c 0f 3d
       0.09826688 0.10942228 -0.29609257 0.035030372
000330 5d 39 0b 3e 41 c3 9f 3e b1 83 fc 3d cb 50 21 bf
       0.13596101 0.31203654 0.12329806 -0.63013905
000340 e1 45 48 be 7d fa 16 be 73 49 1d be 72 7e 5a 3e
       -0.19557907 -0.14743991 -0.1536005 0.21337298
000350 b0 ac 0f 3c fe f4 3d be 5f 2e 60 be f9 69 96 3e
       0.008769199 -0.18550488 -0.21892689 0.29377726
000360 62 9f 22 3e 29 99 87 bb 5c 97 53 bd a8 27 44 bd
       0.15881112 -0.004138131 -0.05165802 -0.04788938
000370 28 f1 b9 bd 7a ec 74 bd a1 b7 17 3d b5 3d b5 3e
       -0.090792 -0.059795834 0.037040357 0.3539864
000380 1f 9b 4f 3d fa 5a 78 bd 5e 21 59 3e 8d de 9a 3d
       0.050685044 -0.060633637 0.21204135 0.075619794
000390 11 61 77 bd 17 d9 ad 3c 0b 56 db 3c fb 5b be bd
       -0.060395304 0.02122168 0.026774427 -0.09294888
0003a0 52 ed 4a 3e f6 86 93 3d a2 0f 7e 3d 16 85 9c 3d
       0.19817093 0.07203476 0.062026627 0.07642572
0003b0 20 d1 fc bd e7 48 17 3e 18 10 9e 3d 99 2e f0 3c
       -0.12344575 0.14773904 0.077179134 0.029319094
0003c0 b9 23 42 be 0c fe 03 3e 73 4d bd 3d 16 9f cd 3d
       -0.1895894 0.1288988 0.09243288 0.10040109
0003d0 9b 6f dd 3d 06 88 24 bd 75 e9 d6 3d 89 b7 81 be
       0.10812303 -0.040168785 0.10493747 -0.2533534
0003e0 04 ec 34 be 75 3b 5a be 93 a7 92 bd bd f6 78 3e
       -0.17668158 -0.21311744 -0.071608685 0.24312873
0003f0 98 58 83 bd 25 3f fa 3d 4c 9b b7 bc a9 ef d9 3c
       -0.06413382 0.12219075 -0.022412919 0.026603537

gnn.convs.2.nn.lins.0.bias f4 [32]
000000 40 5a fc 3c d4 e1 98 bd f4 94 b5 3d 60 88 d6 bd
       0.030804753 -0.07464948 0.08866301 -0.1047523
000010 30 65 e1 bb bc 0f 03 be e2 71 68 be 71 a4 5f 3d
       -0.0068785176 -0.12798971 -0.22699693 0.054600183
000020 01 ce 57 3e 7a fb 8f 3d 10 93 46 be 5b 4f 1d 3d
       0.21074678 0.07030387 -0.19392037 0.038405757
000030 c3 47 c4 be db 3d 40 3d 7d a7 1e 3d 35 61 1d be
       -0.38336 0.04693399 0.038733948 -0.15369113
000040 29 bf 08 3e ea d7 90 3d 7f 8b 54 3d f5 db 33 3d
       0.13354172 0.07072432 0.051890846 0.04391094
000050 4b 66 83 bd b6 3e 7c 3d 6f ef 88 3d c3 ca ac be
       -0.06415995 0.061583243 0.06686293 -0.33748445
000060 06 c3 87 bd 2e d8 fd 3d 3c 37 70 be f2 4d 62 3e
       -0.06628995 0.12394749 -0.2345857 0.22100046
000070 67 c7 82 3e 0a 3a 04 bd 5e 29 c2 3d fa 69 d1 3d
       0.25542757 -0.032281913 0.094805464 0.102252916

gnn.convs.2.nn.lins.1.weight f4 [32, 32]
000000 22 3e 18 3d 2e d3 f2 3d 2d 1f 98 3d f6 80 36 3e
       0.03716863 0.118566856 0.07427821 0.17822632
000010 3e 33 9a bc 1f 7d 16 3c 98 cc 7b be 31 fc 98 bc
       -0.018823262 0.009185105 -0.24589765 -0.018674942
000020 9b dc 14 3b ac c1 10 be a2 89 36 3e d0 7d e7 bd
       0.00227145 -0.1413638 0.1782594 -0.11303294
000030 12 03 a4 bd ad e3 eb 3d f8 37 cd bd 24 15 73 bc
       -0.08008398 0.11518035 -0.10020441 -0.014836583
000040 63 00 4a 3e b2 11 ca bd c2 3d e5 bc c1 7d 98 3d
       0.1972671 -0.09866656 -0.02798355 0.07445861
000050 4c ef ee bd ed b2 71 bd 55 f3 4a be 63 16 ab 3c
       -0.11666736 -0.059008528 -0.19819386 0.020884698
000060 43 fa dc bd f7 8d a1 bd e9 b0 7d 3b 11 19 18 3d
       -0.10789921 -0.07888406 0.0038710183 0.03713328
000070 56 18 27 3b bf 16 6d bd 72 0a 3b bd 7d 0c 11 be
       0.0025496683 -0.05788302 -0.04566426 -0.1416492
000080 4e b3 cc 3b 76 7d c0 3c 72 84 d8 3d 9c f5 f8 3c
       0.0062469607 0.023497324 0.10572137 0.030390553
000090 05 09 70 be a6 76 91 3c 67 51 97 be 78 33 54 be
       -0.2344094 0.017756771 -0.29554293 -0.20722759
0000a0 52 7e 30 be ae 09 ed bd f1 4b be 3e d7 d2 5e be
       -0.17235687 -0.11574112 0.37167314 -0.21760117
0000b0 3d dc a8 be 4f 52 99 3d c4 3a ee bd b8 fd bd bc
       -0.32980528 0.07486402 -0.116323024 -0.023192272
0000c0 cd 5c fd bc d5 65 24 bc 36 58 1b 3d 73 35 d1 bd
       -0.03092804 -0.010034044 0.03792592 -0.10215273
0000d0 16 82 ce bd 0c 25 57 3d f5 03 f6 3b 42 d1 22 be
       -0.10083406 0.052525565 0.007507796 -0.15900138
0000e0 d2 8a 20 be a6 49 6f be a6 d7 02 3a 3d 3e ad bb
       -0.15677956 -0.23367938 0.00049912406 -0.0052869604
0000f0 1a f5 b4 bd c1 4b 86 bd e7 22 29 be 52 1d 71 be
       -0.08835812 -0.06557418 -0.1651722 -0.23546341
000100 74 d9 0e be be e5 a4 bb c1 52 24 bc 39 24 f3 3d
       -0.1395014 -0.00503227 -0.010029496 0.11872143
000110 ab 55 d9 3d c3 f6 49 3d b1 9e 22 be cc 24 a1 bd
       0.10612043 0.049307596 -0.15880848 -0.078683466
000120 e5 d9 b4 bd 57 80 29 3e 5f 65 00 3e 30 9c b0 3d
       -0.088306226 0.16552864 0.1253867 0.086235404
000130 dd 19 59 3d aa e6 a1 3d b8 bb 25 bd 14 c5 14 3d
       0.05300318 0.07905324 -0.040462226 0.03632076
000140 83 b4 20 be 98 ff 96 bd fa 6e b0 bc 55 19 9c bd
       -0.1569386 -0.073729694 -0.021537293 -0.07622019
000150 1b 5f 35 bd 9b 49 12 be 79 dc 6d be ce 5a 9d be
       -0.044280153 -0.14285891 -0.23228635 -0.3073334
000160 ac c4 3f be 16 2d 1e 3e 52 cf b0 3d 4a ea b4 bd
       -0.18727368 0.15446886 0.08633293 -0.088337496
000170 ee 3e 18 be 79 c6 64 3c 21 3a 93 bd cd 5f 2f 3d
       -0.14867756 0.013963335 -0.071888216 0.042815972
000180 73 0c 51 be b2 d8 6e bd 32 25 72 3d 42 d6 c5 bc
       -0.20414905 -0.058312126 0.059117503 -0.024150018
000190 12 f1 54 3d 68 49 63 bd 3e d9 39 3e ef 3a 5b 3e
       0.051987715 -0.055489928 0.18149278 0.214092
0001a0 ef d5 46 bd 17 01 84 be 74 fc 9b 3e a0 20 b5 3d
       -0.048543867 -0.2578208 0.30466044 0.08844113
0001b0 a1 83 f0 3d 49 64 64 3e 2e 7a f5 be cd ef 13 be
       0.11743856 0.22303881 -0.47944778 -0.14446945
0001c0 dc 67 8b be ca 66 13 3d b4 7b 8f 3e b2 eb 1f bb
       -0.27227676 0.0359867 0.28024065 -0.002440196
0001d0 d7 0f 15 3e f9 39 0b 3c d9 22 50 be f5 e6 c1 bd
       0.14556824 0.0084977085 -0.20325793 -0.0946788
0001e0 71 e2 01 bf 3f dd 74 be 8a c0 ab bd 46 8b 4e be
       -0.5073615 -0.23912524 -0.08386333 -0.20170316
0001f0 de 43 0b be f9 75 64 be 35 fb 04 3d c0 e8 bc 3d
       -0.13600108 -0.22310628 0.032466132 0.09224081
000200 7a 90 1d bd 31 0d 21 3e 67 f8 68 be e9 67 1f 3e
       -0.03846786 0.15727688 -0.22751008 0.15566982
000210 c1 5a 86 3c 62 36 14 be ba b1 53 bd 58 99 b7 3d
       0.016400697 -0.1447387 -0.051683165 0.08964795
000220 51 bc 1e 3d ef 61 81 3d c9 00 59 be 37 33 54 3b
       0.03875381 0.063175075 -0.21191706 0.003237916
000230 fb a3 85 3d b5 be 1f be 23 42 95 be 04 80 d7 bd
       0.065254174 -0.15600093 -0.2915202 -0.10522464
000240 db 04 65 be b9 35 0f be 0c 49 e2 ba e5 61 99 3d
       -0.22365133 -0.13985337 -0.0017264201 0.07489375
000250 25 0b 08 be eb 4a 64 3c 95 09 7f bd 67 53 b9 3d
       -0.13285501 0.013933877 -0.062264998 0.09049111
000260 44 13 69 be 9e 5f e5 bd fe 8f 61 3d 00 d7 86 3d
       -0.22761256 -0.11199878 0.055068962 0.06583977
000270 16 05 aa bc 4a eb 27 be 89 ed 1e bd c1 e4 80 bd
       -0.020754378 -0.1639835 -0.03880075 -0.06293631
000280 a0 7d 5c 3d 5f 47 d1 bd 6f 87 c4 bd 4e f1 77 bc
       0.053830743 -0.10218691 -0.095961444 -0.015133215
000290 66 15 33 3d 9f a4 d7 3c 2f 40 25 be 48 ce 90 bd
       0.04372158 0.026323615 -0.16137765 -0.07070595
0002a0 d4 86 cb bd 03 94 e9 3b 33 c2 24 3e 98 46 18 be
       -0.09937826 0.00712824 0.16089706 -0.1487068
0002b0 1b 15 bb bd f0 fa d2 3a 15 eb e3 bd 43 9e 32 be
       -0.09134885 0.0016096514 -0.11128823 -0.17443185
0002c0 44 0e 5c bd f5 b9 ff bd 2c 6e 0a 3d 13 c4 14 3e
       -0.053724542 -0.1248664 0.033796474 0.14527921
0002d0 a0 ab 26 be 6b f6 b1 bd e0 cc 24 be 5d 2e 9d be
       -0.16276407 -0.086895786 -0.16093779 -0.30699435
0002e0 0e 52 94 bd 8f f6 1a 3d 51 de fd bc a1 ba 7c be
       -0.07242213 0.037832793 -0.030989798 -0.24680568
0002f0 a0 fe 9b bd 8c 1c 6e be 12 36 30 be c3 92 ac bd
       -0.07616925 -0.23253077 -0.17208126 -0.0842643
000300 66 e3 04 3e 46 50 29 bd 7e 7c 79 bd 07 bd 8c bc
       0.1297737 -0.04133632 -0.06090974 -0.017179979
000310 f4 2b f6 bd f3 65 7e ba ef ba 90 3d f0 6a fe bc
       -0.12020102 -0.00097045227 0.07066905 -0.031056851
000320 f3 c1 06 bd 39 31 2a 3e 4b a0 c8 bd e5 de 4e bd
       -0.03289981 0.1662034 -0.097961985 -0.050505538
000330 9f ac 98 3a d1 62 18 3d 41 71 4e be fd b7 d5 bc
       0.0011648125 0.037203614 -0.2016039 -0.026088709
000340 3b f2 08 be 9c 6b d7 bc 39 67 27 3d 3a 2f 3c 3d
       -0.13373654 -0.02629643 0.040869925 0.045943476
000350 97 25 14 be 37 42 72 bd cd 67 78 bc ac 92 43 be
       -0.14467464 -0.05914518 -0.015161467 -0.1909892
000360 19 02 99 bd 09 41 3d 3d 61 8c 17 be aa e5 dd bd
       -0.07471103 0.0462046 -0.14799644 -0.108348206
000370 1b 0d 00 be 76 03 e7 bd 80 21 8f 3d d5 b4 02 3e
       -0.12505 -0.11279957 0.069888115 0.12764294
000380 ed 15 7d be 3e ba 89 bc 8e d5 05 3d 3c b3 c3 bd
       -0.24715395 -0.01681244 0.032674365 -0.095556706
000390 7d b0 8b 3d ce c6 8a bd 9e 8d 10 be 79 90 00 bf
       0.06820772 -0.067762 -0.14116523 -0.5022045
0003a0 7d 0e b6 3d 0b 2f 2a 3c 32 9e 19 3e a7 fe 1d be
       0.08889482 0.0103871925 0.15001753 -0.15429173
0003b0 9a 20 8f 3c 14 4e b1 bd 49 58 8c bd da 65 8c bd
       0.0174716 -0.0865747 -0.068527766 -0.06855364
0003c0 8d e3 5d be eb 58 9a 3d 5a 27 10 be 56 be 00 3e
       -0.21668835 0.07536491 -0.14077511 0.12572607
0003d0 2f 45 2f 3e a0 8c 5d be 75 03 49 be 0f ff 73 bb
       0.17116235 -0.21635675 -0.19630225 -0.0037230884
0003e0 6e 7a e7 bd 8e 1c 5d be 8e e0 ef bd a1 26 87 be
       -0.113026485 -0.21592924 -0.11712752 -0.2639666
0003f0 ce 42 fa be 0d 1e c6 bd 1c 4a 4f 3d f7 3c 31 3d
       -0.48879093 -0.096737005 0.050607786 0.04327103

gnn.convs.2.nn.lins.1.bias f4 [32]
000000 c8 0c d9 bd 10 98 a3 3d 7c d2 8e be 59 67 f2 3d
       -0.10598141 0.07987988 -0.27894962 0.11836118
000010 7e b6 e8 bd ca e8 3a be 81 4f 2f be 61 9d 8b be
       -0.113629326 -0.18252864 -0.17120172 -0.27268508
000020 59 25 6d 3c f0 14 df 3d b8 86 24 bd 83 68 53 be
       0.014474236 0.108926654 -0.04016754 -0.20645337
000030 2e 0d 6f be e9 60 5b ba dd 32 d0 3d 1b 8d ce be
       -0.23344871 -0.0008368628 0.101659514 -0.4034203
000040 ad bb f9 bd b6 63 a0 3d 0b 95 3b be ff 58 8e bb
       -0.121939994 0.07831518 -0.18318574 -0.0043441053
000050 aa e2 7f be 3e 37 41 3e 0f 39 7b be 72 a6 9f 3d
       -0.24988809 0.1886873 -0.24533485 0.07795419
000060 04 56 92 be 3a 4b 4a be 5f 0d 81 3d c6 20 54 bd
       -0.2858125 -0.19755259 0.063013785 -0.051789068
000070 38 cb 47 3e c4 65 52 bd 2e af 3d be 5d 7f 46 be
       0.19511116 -0.051366583 -0.18523857 -0.19384523
