Run_GIN_ModelCheckpoint_EvFr_2/NCI1_reps_2_folds_5_epochs_20_2023-04-26_11-05/rep_1_fold_0/checkpoints/model_trial_5.ckpt (torch, 96717 bytes, 86 tensors)

gnn.convs.0.nn.lins.0.weight f4 [16, 37]
0	0xbcb9cdfb	-0.022681227
1	0xbd207443	-0.039173376
2	0xbd8e4a3d	-0.069477536
3	0xbde7beb5	-0.11315671
4	0xbd5c2385	-0.05374481
5	0xbd8bda1d	-0.06828711
6	0x3e6c42d2	0.23072365
7	0x3dc3c402	0.0955887
8	0x3c3b662e	0.011437936
9	0xbd7446fa	-0.059638
10	0xbdc37653	-0.09544053
11	0x3d6f388c	0.058403537
12	0xbe1a448a	-0.15065208
13	0xbd2f8747	-0.04285362
14	0x3e6ed065	0.23321684
15	0xba1f0374	-0.0006065883
16	0xbb515282	-0.0031940048
17	0x3c3d56ac	0.011556309
18	0xbd9f2c82	-0.07772161
19	0x3d6f5722	0.058432706
20	0xbe15f6f7	-0.14644991
21	0x3e9bb4a1	0.30411246
22	0xbceb0858	-0.028690502
23	0x3daa51e3	0.083164
24	0xb993e07c	-0.0002820528
25	0x3d8126e5	0.06306247
26	0xbe1b8075	-0.15185721
27	0x3e3243b6	0.17408642
28	0xbd860635	-0.06544153
29	0xbddcda13	-0.10783782
30	0x3d0c0879	0.034187768
31	0x3de9bea9	0.11413319
32	0xbdd72d55	-0.10506693
33	0x3cd0f928	0.025509432
34	0xbd6fd962	-0.05855692
35	0x3e0c46ea	0.13698927
36	0x3df87f7a	0.12133689
37	0x3e82963c	0.25505245
38	0x3dada6a1	0.084790476
39	0xbe646baa	-0.22306696
40	0x3e7f2232	0.24915388
41	0xbe9531c3	-0.29139528
42	0xbec472d8	-0.3836887
43	0xbd3a6535	-0.045506675
44	0xbddbe372	-0.10736741
45	0xbcff6b6e	-0.031179156
46	0xbe227bfc	-0.15867609
47	0xbd528377	-0.051394906
48	0x3d633ff3	0.05548091
49	0xbdb5d457	-0.08878391
50	0xbde5432e	-0.11194454
51	0xbdcac532	-0.09900893
52	0xbcdbed35	-0.026846508
53	0xbdc9a801	-0.09846497
54	0x3dcb550f	0.09928333
55	0xbd043a8d	-0.0322824
56	0x3d502307	0.050814655
57	0x3c5a365c	0.013318624
58	0xbe002949	-0.12515749
59	0xbdf2e5c2	-0.11860229
60	0x3d801105	0.06253246
61	0xbce7664c	-0.028247021
62	0xbe0c94c2	-0.13728622
63	0xbe7e892c	-0.24857014
64	0x3e353a54	0.17698032
65	0xbd2811a1	-0.041032437
66	0xbe08754d	-0.13325997
67	0xbd677a9a	-0.056513406
68	0x3d7a9e5e	0.061186187
69	0xbe028de3	-0.12749438
70	0x3d0017b4	0.031272605
71	0xbe0cbccd	-0.13743897
72	0x3e07c90e	0.1326029
73	0x3e49bcc8	0.1970092
74	0xbd8245a8	-0.06360942
75	0x3d4721b1	0.048616115
76	0xbe5613c4	-0.20905977
77	0xbc080d2f	-0.008303924
78	0x3d77f8af	0.060539898
79	0x3daf19a4	0.085498124
80	0x3dd38a38	0.103290975
81	0x3cda60e7	0.026657535
82	0xbda17839	-0.07884259
83	0xbe225e05	-0.15856178
84	0x3da77e3c	0.08178374
85	0x3dc2c692	0.095105305
86	0x3cba982e	0.022777643
87	0x3db97ab1	0.09056605
88	0x3c7526bd	0.014962849
89	0x3dfb79a5	0.12279061
90	0x3d7bb1c2	0.06144882
91	0x3d1eec94	0.038799837
92	0xbddfb1b2	-0.109225646
93	0xbe1c081d	-0.1523747
94	0x3da5b803	0.08091738
95	0x3e154cea	0.14580122
96	0xbdf92021	-0.12164331
97	0xbd2067b4	-0.0391614
98	0x3d679551	0.056538884
99	0xbe101bd5	-0.14073117
100	0x3e1ba8d3	0.1520112
101	0x3ce22ca0	0.02760917
102	0x3ddd6d1c	0.108118266
103	0xbe134906	-0.14383325
104	0x3d57a7b0	0.052650154
105	0xbdbd5be0	-0.092460394
106	0xbdee6d98	-0.11641997
107	0x3bc26f93	0.005933711
108	0xbdf60b92	-0.120139256
109	0xbdecd909	-0.11564834
110	0xbd2f9449	-0.042866025
111	0x3ec55c1e	0.38546842
112	0x3e07fd65	0.13280256
113	0xbe346876	-0.17617974
114	0x3eac13be	0.33608812
115	0xbebbf419	-0.3670967
116	0xbdbe6960	-0.092974424
117	0x3dd02c91	0.1016475
118	0x3e0f9fbe	0.1402578
119	0xbe418faf	-0.18902467
120	0x3ce7f374	0.02831433
121	0xbe0c6f57	-0.13714348
122	0x3e2b1099	0.1670555
123	0xbde78877	-0.113053255
124	0xbda54bdf	-0.08071112
125	0xbdce68bb	-0.100785695
126	0x3d0a9139	0.0338299
127	0x3d146b21	0.03623498
128	0xbe40fc37	-0.18846212
129	0x3da6fe85	0.081540145
130	0xbd2d6cef	-0.042340215
131	0x3d9fe161	0.078066595
132	0x3de1ad11	0.11019338
133	0xbe14bca9	-0.14525093
134	0xbd6fb2ed	-0.058520246
135	0xbdfe43b4	-0.12415257
136	0xbe3f6751	-0.18691756
137	0xbd7f992b	-0.06240193
138	0xbd1a7965	-0.037713427
139	0x3e8fcb2a	0.2808469
140	0xbc1a18ef	-0.009405359
141	0x3e170104	0.14746481
142	0xbe12f4dc	-0.14351219
143	0xbde7e60b	-0.11323174
144	0x3e3cc070	0.18432784
145	0xbdc29074	-0.095002085
146	0xbd1a183c	-0.037620768
147	0x3e029b05	0.12754448
148	0x3e5fb274	0.21845418
149	0x3dc64103	0.09680369
150	0x3e31a071	0.1734636
151	0xbe76a688	-0.24086964
152	0x3e639785	0.22225769
153	0xbe482616	-0.19545779
154	0xbe07ded3	-0.13268594
155	0xbe320008	-0.17382824
156	0x3f3a43ce	0.7275971
157	0x3eaa4607	0.33256552
158	0x3e081842	0.13290504
159	0x3e3e3180	0.1857357
160	0x3bc5fe2c	0.0060422625
161	0x3e284e53	0.16436128
162	0x3df38d3b	0.11892172
163	0xbd313305	-0.043261547
164	0x3cf361ac	0.02970966
165	0x3e70b5fa	0.23506919
166	0x3da5307e	0.0806589
167	0x3d931749	0.07182176
168	0x3db70c44	0.08937886
169	0xbec2e49f	-0.3806505
170	0xbd2dd5d1	-0.04244024
171	0x3dbf4d86	0.09340958
172	0x3db94631	0.09046591
173	0x3e6bde14	0.23033935
174	0x3e4411c4	0.19147402
175	0xbd98b355	-0.0745608
176	0xbdba419e	-0.09094547
177	0x3d89975f	0.06718325
178	0xbddefc6e	-0.10887991
179	0x3e1bce47	0.15215407
180	0xbe5241ea	-0.20532957
181	0xbcdd59e5	-0.027020404
182	0xbdd5384f	-0.10411131
183	0xbceaa8d4	-0.028644957
184	0xbe2c619e	-0.16834113
185	0xbbd1f835	-0.0064077624
186	0xbdba61c6	-0.0910068
187	0xbdc2c58f	-0.095103376
188	0x3e5f5389	0.2180921
189	0x3d319511	0.04335505
190	0xbe3b26fe	-0.18276593
191	0x3d2af3bf	0.04173636
192	0x3d84f25f	0.06491541
193	0x3d62607f	0.055267807
194	0xbc91cde5	-0.017798373
195	0x3d07c41a	0.033146
196	0xbc99b7fb	-0.018764487
197	0xbc09a55c	-0.008401241
198	0xbdf74add	-0.12074826
199	0x3ce6937f	0.028146503
200	0x3e00e9f1	0.12589242
201	0x3e87ba0f	0.2650914
202	0x3c371738	0.011174969
203	0x3c531535	0.012883474
204	0xbe0c5e43	-0.13707833
205	0xbd82787d	-0.063706376
206	0x3d399657	0.04530939
207	0x3d51e774	0.05124612
208	0xbdacdce1	-0.08440567
209	0x3c890f24	0.016730852
210	0xbd5b6361	-0.053561572
211	0x3d063ac7	0.0327709
212	0xbda70c39	-0.08156628
213	0xbe18a960	-0.14908361
214	0xbe0e40df	-0.13891934
215	0x3d698956	0.05701574
216	0xbc4c9010	-0.012485519
217	0xbe0dda22	-0.13852742
218	0x3c2c5c1d	0.010520008
219	0xbd6ba407	-0.057529476
220	0xbd9bbf93	-0.07604899
221	0xbd0beffa	-0.034164406
222	0xbf0d2ffc	-0.55151343
223	0xbecf8e12	-0.4053808
224	0x3de5fc73	0.112297915
225	0x3d478f21	0.048720483
226	0x3de0b30a	0.10971649
227	0xbe3051b2	-0.17218664
228	0x3dad1996	0.08452146
229	0xb9db6e7a	-0.00041853247
230	0xbec03173	-0.37537727
231	0xbd4b2e76	-0.049604855
232	0xbd8ff18a	-0.07028492
233	0xbdce7f92	-0.10082926
234	0xbcdcd6aa	-0.026957829
235	0xbaf31809	-0.0018546592
236	0xbcb802e2	-0.022462312
237	0x3da59fef	0.080871455
238	0xbe0a42ef	-0.13502096
239	0xbd8313fb	-0.06400295
240	0xbe8591c7	-0.26087782
241	0xbe52cfc9	-0.20587076
242	0xbd277b01	-0.04088879
243	0x3e958006	0.29199237
244	0x3d8438f6	0.06456177
245	0xbda0a8f8	-0.07844728
246	0xbe2d4778	-0.16921794
247	0xbe96aaec	-0.29427278
248	0xbe0394e1	-0.12849762
249	0x3d330025	0.04370131
250	0xbcbbcb71	-0.022924157
251	0xbdc9d3bc	-0.09854838
252	0x3c847ee1	0.016173782
253	0xbd912ccb	-0.07088622
254	0x3bf7be55	0.007560531
255	0xbe1b6e0d	-0.151787

gnn.convs.0.nn.lins.0.bias f4 [16]
0	0xbd0078aa	-0.031365074
1	0xbca9dea0	-0.020736039
2	0xbe5876c9	-0.21139063
3	0x3d17cd53	0.037061047
4	0x3e5ef043	0.2177134
5	0xbe2698be	-0.16269204
6	0xbd39aa35	-0.045328338
7	0x3c9f070d	0.019412542
8	0xbdab9fd7	-0.083800964
9	0xbe63a76b	-0.22231834
10	0x3d914e2f	0.070949905
11	0xbb95e05a	-0.004573864
12	0x3e0fa412	0.14027432
13	0x3d524520	0.051335454
14	0xbe4f9d83	-0.2027493
15	0xbd7719de	-0.060327403

gnn.convs.0.nn.lins.1.weight f4 [16, 16]
0	0xbd90a164	-0.07062033
1	0x3e556386	0.20838746
2	0x3de94bfc	0.11391446
3	0x3e7c62d1	0.2464707
4	0xbe6d8c39	-0.23198022
5	0xbeb71b98	-0.3576324
6	0x3d595126	0.053055905
7	0xbd55e873	-0.052223634
8	0x3e1523c0	0.14564419
9	0xbca089a0	-0.019596875
10	0xbd3dacf0	-0.046307504
11	0x3d99517d	0.07486246
12	0xbe7c4d40	-0.24638844
13	0xbc0fdf9f	-0.008781343
14	0xbde63b9e	-0.1124184
15	0xbe5a9124	-0.21344429
16	0x3dd8144a	0.10550745
17	0xbc39feaf	-0.011352225
18	0x3e61b071	0.22039963
19	0xbe7ab869	-0.2448441
20	0x3e3893ea	0.18025175
21	0xbccdf0f6	-0.025139313
22	0xbdee6e44	-0.11642125
23	0x3ce747ec	0.028232537
24	0x3d130cb8	0.0359008
25	0xbe188836	-0.1489571
26	0x3e51b29f	0.20478295
27	0xbec956a6	-0.3932392
28	0x3e19e2b4	0.15027887
29	0x3ea9f4bf	0.3319454
30	0x3d8f743f	0.07004594
31	0x3d5c6564	0.05380763
32	0xbea767c2	-0.32696348
33	0x3df5bdd8	0.119991004
34	0xbdb0b0b8	-0.086274564
35	0xbe26b32c	-0.16279286
36	0x3e1dd394	0.15412742
37	0xbe0d7b49	-0.13816561
38	0xbe5c0317	-0.21485554
39	0xbe456fdb	-0.1928095
40	0x3e1f5318	0.15559042
41	0x3debf86e	0.115219936
42	0xbd337110	-0.043808997
43	0xbf13d9ca	-0.57754195
44	0x3e8a7f1a	0.27050096
45	0x3e084fd5	0.13311704
46	0x3ce0fd56	0.02746455
47	0x3e62d96b	0.22153251
48	0xbe19d88a	-0.1502401
49	0x3dbfa141	0.093569286
50	0x3cc03bc0	0.023465991
51	0xbda64f40	-0.081205845
52	0xbdc415d0	-0.09574473
53	0xbe4c452f	-0.19948266
54	0x3e349220	0.17633867
55	0x3d6ea11f	0.058259126
56	0x3e1ea7f6	0.1549376
57	0x3d29e99b	0.04148255
58	0xbe0bae64	-0.13640743
59	0x3de24688	0.11048609
60	0x3cb47580	0.022028685
61	0xbe43adb7	-0.19109236
62	0xbdcbfac4	-0.09959939
63	0x3cea3060	0.02858752
64	0x3e5ade51	0.2137387
65	0x3ded983e	0.116013035
66	0x3ddf853e	0.10914086
67	0x3e869dbe	0.26292223
68	0xbc61c717	-0.013780377
69	0xbd0c18b6	-0.034203254
70	0xbe15a8be	-0.14615151
71	0x3cdec801	0.027194979
72	0xbdeeb1d4	-0.11655012
73	0xbe1c6584	-0.152731
74	0x3d786184	0.060639873
75	0x3e453baa	0.19261041
76	0x3d6a04d6	0.05713352
77	0xbdbcd5bf	-0.09220456
78	0x3c60cc61	0.013720603
79	0x3da6a517	0.08136957
80	0xbe97a420	-0.29617405
81	0x3ea12558	0.31473804
82	0x3caaf5de	0.020869192
83	0xbc875cd2	-0.016523752
84	0xbcd592b5	-0.026070932
85	0x3e2a94a1	0.1665826
86	0xbe65e4ff	-0.22450636
87	0xbd259153	-0.040421795
88	0x3e1e6161	0.15466835
89	0x3b94624b	0.004528319
90	0x3dde3971	0.108508
91	0xbd8bd704	-0.0682812
92	0xbe3869f5	-0.1800917
93	0x3e0e78ed	0.13913317
94	0x3ceef45e	0.029169258
95	0xbdf4e11f	-0.11957001
96	0x3bd62d62	0.006536172
97	0x3e7cf344	0.24702173
98	0x3b64b1c1	0.0034895989
99	0xbc6f2efb	-0.014598603
100	0x3d605c85	0.054775734
101	0x3e438c18	0.1909641
102	0xbe312a39	-0.17301263
103	0xbe883beb	-0.26608214
104	0xbaca54cf	-0.0015436652
105	0xbe029f08	-0.12755978
106	0xbcece39e	-0.02891713
107	0xbc6cfba9	-0.014464297
108	0x3f004292	0.5010158
109	0x3e604237	0.21900259
110	0xbe3333dc	-0.17500252
111	0xbd3666fc	-0.044531807
112	0x3daa49a9	0.08314831
113	0xbe0d6537	-0.13808142
114	0xbcb95fcb	-0.022628685
115	0xbed64628	-0.418504
116	0x3e8b0c26	0.27157706
117	0x3d8bcae7	0.0682581
118	0xbecec267	-0.40382692
119	0xbe4bbd3f	-0.1989641
120	0x3e5cdbfd	0.21568294
121	0xbd6d5b7a	-0.057948567
122	0xbe06233c	-0.13099378
123	0xbec149ac	-0.3775152
124	0x3f19c859	0.6007133
125	0x3e6b02e2	0.22950318
126	0x3cc48056	0.023986977
127	0x3ed8ee6a	0.42369395
128	0xbdfbb118	-0.12289637
129	0x3dfa2f9a	0.122161105
130	0x3e03f9f0	0.12888312
131	0x3daa4b1c	0.08315107
132	0xbe83f99b	-0.2577637
133	0x3dd2f2ba	0.10300203
134	0x3d9eccab	0.07753881
135	0xbdbb0b62	-0.091330305
136	0xbe1e6214	-0.15467101
137	0x3e1e4979	0.15457715
138	0x3e2de164	0.16980511
139	0xbe78ccda	-0.24296895
140	0x3e0729a8	0.13199484
141	0xbd20379c	-0.039115533
142	0x3ddd98d2	0.10820164
143	0xbd36786b	-0.044548433
144	0xbe2a5b55	-0.16636403
145	0xbe693f8b	-0.22778146
146	0xbe21d645	-0.15804394
147	0xbe93b6ca	-0.28850394
148	0x3e289e31	0.16466595
149	0xbd8670d7	-0.06564491
150	0xbe68e7dc	-0.22744697
151	0xbe96664e	-0.29374927
152	0xbd1d9f18	-0.0384818
153	0x3df6935c	0.12039825
154	0xbd71f29c	-0.05906926
155	0xbece0fa1	-0.402463
156	0x3ee36cbe	0.444189
157	0xbdda4556	-0.10657756
158	0xbe3d2041	-0.18469335
159	0x3e8c4474	0.27395976
160	0x3db12a0a	0.086505964
161	0x3e4fb104	0.2028237
162	0xbddfcf2c	-0.10928187
163	0x3bee53e4	0.007273184
164	0x3d4d60e7	0.05014124
165	0xb8c2f863	-9.2969065e-05
166	0xbecc357d	-0.39884558
167	0xbabc2a31	-0.0014355836
168	0x3ddca9fc	0.107746094
169	0x3dbb7318	0.09152812
170	0xbe05e38f	-0.13075088
171	0xbf13b469	-0.5769716
172	0x3e2aae99	0.16668166
173	0x3e2c044b	0.16798513
174	0xbea6d96c	-0.32587755
175	0x3e3b700c	0.18304461
176	0xbe4db166	-0.20087203
177	0x3d5f6069	0.054535303
178	0xbe407b23	-0.18796973
179	0xbe5dee9f	-0.21673058
180	0xbe7d1b42	-0.2471743
181	0xbe837707	-0.25676748
182	0xbaa8dfe3	-0.0012884106
183	0xbdd11687	-0.10209375
184	0xbd7e8c0b	-0.062145274
185	0x3df2a114	0.118471295
186	0xbe35e0fc	-0.17761606
187	0x3d4f3a3c	0.050592646
188	0xbda1dd4d	-0.07903538
189	0xbda7b822	-0.081894174
190	0xbdec3325	-0.115331925
191	0x3d3a64e9	0.04550639
192	0xbdb68149	-0.08911378
193	0xbe4343c0	-0.19068813
194	0xbe2d09f4	-0.16898328
195	0xbe6a0504	-0.22853476
196	0x3e19912e	0.14996788
197	0x3e5fbedd	0.21850152
198	0x3ca9d1dc	0.020729952
199	0x3c91f722	0.017818037
200	0xbc7b5954	-0.015341122
201	0xbe446742	-0.19180015
202	0xbe0064a8	-0.12538397
203	0xbea82267	-0.32838747
204	0x3e28914c	0.16461676
205	0x3e24b415	0.16084321
206	0x3e521346	0.20515165
207	0xbd8a526b	-0.06754001
208	0xbe88f185	-0.26746765
209	0xbe857348	-0.26064515
210	0xbd389ccf	-0.04507142
211	0x3e4b5e5d	0.19860215
212	0x3ddac148	0.10681397
213	0x3e0cb6bd	0.13741584
214	0xbd1ddd60	-0.038541198
215	0xbe3d763a	-0.18502131
216	0x3dddd3e3	0.1083143
217	0x3c8f2331	0.017472835
218	0x3da4f7a1	0.08055044
219	0xbe9025ce	-0.28153843
220	0xbd5f6f71	-0.05454964
221	0xbe341b0d	-0.17588444
222	0xbe93954e	-0.28824848
223	0x3e032cd5	0.12810071
224	0xbe7b2b4b	-0.24528234
225	0xbe653edf	-0.22387265
226	0xbda4e1c7	-0.08050876
227	0xbe6e1cfe	-0.23253247
228	0xbd05d822	-0.032676823
229	0xbe0d9574	-0.13826543
230	0x3def43d4	0.11682859
231	0x3c559e0e	0.013038171
232	0xbd0680a6	-0.032837532
233	0x3cd429e4	0.025898881
234	0xbdd31f8e	-0.10308753
235	0xbea0132a	-0.3126462
236	0x3e2449e2	0.16043809
237	0xbdd9f45d	-0.10642312
238	0x3c041360	0.00806126
239	0xbe397ff3	-0.18115215
240	0x3e88604c	0.2663597
241	0x3e5b826c	0.21436471
242	0x3c84e317	0.016221566
243	0x3f1403b2	0.5781814
244	0x3d676405	0.05649187
245	0x3d74b8dc	0.05974661
246	0x3ebf9c17	0.37423775
247	0x3e9f0a80	0.31062698
248	0xbe09fda7	-0.13475667
249	0x3edf2a95	0.43587175
250	0x3e9eab4d	0.30990067
251	0x3f234172	0.63771737
252	0xbe96c5f7	-0.2944791
253	0xbd373127	-0.04472461
254	0x3d1d4f31	0.0384056
255	0x3d02775e	0.03185212

gnn.convs.0.nn.lins.1.bias f4 [16]
0	0xbe2bc689	-0.16774954
1	0x3c68b88b	0.014204155
2	0x3d6699ae	0.056298904
3	0xbe48863a	-0.19582453
4	0x3dd6bc94	0.10485187
5	0x3ddb1679	0.10697646
6	0xbe0444aa	-0.12916818
7	0x3ccfbb3e	0.025357839
8	0xbdc3b761	-0.09556461
9	0x3cd5a6ed	0.026080573
10	0x3e61673d	0.22012039
11	0x3d2c816a	0.042115606
12	0x3e6599eb	0.22421996
13	0xbdbb2378	-0.091376245
14	0xbd76be6f	-0.060240205
15	0xbd681003	-0.056655895

gnn.convs.1.nn.lins.0.weight f4 [16, 16]
0	0xbe66029e	-0.22461936
1	0x3e244d1a	0.16045037
2	0x3dd6f8cf	0.10496675
3	0x3e69f12a	0.22845903
4	0xbea40414	-0.3203436
5	0x3d11d00b	0.035598796
6	0xbcbbc525	-0.022921154
7	0xbc295100	-0.010334253
8	0x3e28c5b6	0.1648167
9	0xbe98fcc1	-0.29880336
10	0xbe2129dd	-0.15738626
11	0x3e4ab854	0.19796878
12	0xbe14e130	-0.14539027
13	0xbe7019f3	-0.23447399
14	0xbd2d1098	-0.042252153
15	0x3d144670	0.036199987
16	0x3e3656f8	0.17806613
17	0xbe969ec6	-0.2941801
18	0x3d9f5712	0.07780279
19	0xbe5fee3c	-0.21868223
20	0xbd558011	-0.052124087
21	0xbdd3d7c5	-0.10343889
22	0xbc1335a4	-0.008984957
23	0x3cd8041d	0.026369149
24	0xbdf65f58	-0.12029904
25	0x3de7bf8e	0.11315833
26	0xbe8568ce	-0.26056522
27	0xbe0af972	-0.13571718
28	0x3da741b3	0.08166828
29	0xbdc44cd4	-0.09584966
30	0xbe4de63a	-0.20107356
31	0xbdb3dfe7	-0.0878294
32	0x3e0135c7	0.1261817
33	0x3e89bb8f	0.26900908
34	0x3e736983	0.23770718
35	0xbdc3fbc8	-0.09569508
36	0x3d06bd40	0.032895327
37	0x3e969c89	0.29416302
38	0x3d1dd223	0.03853048
39	0x3e76b47e	0.2409229
40	0xbe589660	-0.21151114
41	0x3cd77ecd	0.02630558
42	0x3d8091a2	0.06277777
43	0xbd2895da	-0.041158535
44	0x3dedcd26	0.116113946
45	0x3e11e31e	0.14246795
46	0xbc0da980	-0.008646369
47	0xbed3a46c	-0.4133638
48	0xbe3cbbc5	-0.18431003
49	0xbe9957bb	-0.29949746
50	0xbe745cbc	-0.238635
51	0xbd754050	-0.059875786
52	0xbe914b8d	-0.28377953
53	0xbe881dfb	-0.26585373
54	0xbdc5e64a	-0.09663065
55	0xbdcda7ec	-0.10041794
56	0xbe8b7ead	-0.27245083
57	0xbe680c71	-0.22660996
58	0xbed7111d	-0.42005244
59	0x3dc2108c	0.09475812
60	0xbeb93fbb	-0.36181435
61	0x3dad800f	0.08471691
62	0x3e790906	0.24319848
63	0x3dc81fff	0.09771728
64	0xbe5d7915	-0.2162822
65	0x3e738a08	0.23783123
66	0x3df6ccd1	0.120507844
67	0x3e30a200	0.17249298
68	0xbdbb17dd	-0.09135411
69	0xbd554224	-0.05206503
70	0x3cb5b482	0.0221808
71	0x3e9bc1cc	0.30421293
72	0xbd3ec2ca	-0.046572484
73	0x3e0ac80a	0.13552871
74	0x3eab2cf8	0.33432746
75	0xbe7594c3	-0.2398253
76	0xbe0d9259	-0.13825358
77	0x3ea90f07	0.33019277
78	0x3ce2443e	0.027620431
79	0xbed68dc6	-0.4190504
80	0x3d4a1770	0.049338758
81	0xbd7844cb	-0.06061248
82	0xbb650612	-0.0034946245
83	0xbdde67bb	-0.10859629
84	0xbe51358a	-0.2043058
85	0x3dae902f	0.085235946
86	0xbe271488	-0.16316426
87	0x3e869ff7	0.26293918
88	0x3dad2336	0.084539816
89	0x3c3d7450	0.011563376
90	0xbd500737	-0.05078813
91	0x3e13c7c4	0.14431673
92	0xbdc73764	-0.09727362
93	0x3db8e284	0.090275794
94	0xbe6ec798	-0.23318326
95	0xbe348863	-0.17630152
96	0x3e2dc575	0.16969855
97	0x3c453d0e	0.012038482
98	0xbcc14c12	-0.023595843
99	0x3dd09db2	0.10186328
100	0x3e7a8a49	0.24466814
101	0x3d98f47c	0.07468507
102	0x3cd8478c	0.026401304
103	0xbe0e6a31	-0.13907696
104	0x3e381fc0	0.17980862
105	0x3dd51db3	0.10406055
106	0xbcfdadad	-0.030966604
107	0x3d89c275	0.06726543
108	0x3d8b40ff	0.067995064
109	0x3e8b586e	0.27215904
110	0x3e091627	0.13387357
111	0x3edcd62c	0.4313215
112	0x3e686260	0.22693777
113	0xbdb95fb6	-0.090514585
114	0xbdf89c21	-0.12139154
115	0x3d45ae58	0.04826197
116	0x3e0339ce	0.1281502
117	0x3d89e910	0.06733906
118	0x3e36d31f	0.17853974
119	0x3dc89d39	0.09795613
120	0x3e4cf06a	0.20013586
121	0xbe1287c9	-0.1430961
122	0x3e3c656e	0.18398067
123	0xbdc1e050	-0.09466612
124	0xbe3e3249	-0.1857387
125	0xbd8d2394	-0.068915516
126	0xbe19591e	-0.14975402
127	0xbe5e0548	-0.21681702
128	0xbe40566c	-0.18782967
129	0xbe917766	-0.28411406
130	0x3df6e20f	0.12054836
131	0x3e04a2fe	0.12952802
132	0x3e32f137	0.17474829
133	0xbe299bf1	-0.16563393
134	0xbe0a72ec	-0.13520402
135	0xbdeedde8	-0.11663419
136	0x3dfe5ec8	0.12420422
137	0xbda890f0	-0.0823077
138	0xbe713a87	-0.23557483
139	0xbc46abc1	-0.01212591
140	0xbe05b115	-0.13055833
141	0xbd3274d9	-0.043568466
142	0xbd6fa27e	-0.058504574
143	0xbe4133c2	-0.188674
144	0x3e2e1259	0.16999187
145	0x3e3cd538	0.18440711
146	0x3ee2f97b	0.44330963
147	0x3dacceb9	0.08437867
148	0x3e55e325	0.2088743
149	0x3dcebe44	0.10094884
150	0x3e8c094c	0.27350843
151	0x3eae2bc6	0.3401777
152	0xbe132e65	-0.14373167
153	0x3dc88e53	0.09792771
154	0x3ed81f0c	0.42211187
155	0xbe2bde6a	-0.16784063
156	0x3de245b9	0.11048455
157	0xbdf52578	-0.11970037
158	0xbd951464	-0.0727928
159	0xbf0b7079	-0.54468495
160	0xbc80bfc5	-0.015716443
161	0xba75b488	-0.00093729096
162	0x3ddab915	0.10679833
163	0xbe3c1e17	-0.18370853
164	0x3ea404af	0.32034823
165	0x3d36935b	0.044574123
166	0x3e6bf082	0.23040965
167	0x3eef8b8f	0.46786162
168	0x3e222a04	0.1583634
169	0x3e883438	0.2660234
170	0x3ded7f58	0.115965545
171	0x3e669cab	0.22520702
172	0x3e11d317	0.1424068
173	0x3e331a58	0.17490518
174	0x3dfd2d16	0.12362115
175	0xbefee475	-0.49783674
176	0x3c99f734	0.018794633
177	0x3e7dccf9	0.24785222
178	0x3e9262c1	0.28590968
179	0xbe1bf12f	-0.15228723
180	0xbdd8168c	-0.105511755
181	0x3ed65b3e	0.41866487
182	0x3e15ad3a	0.14616862
183	0x3e97e380	0.29665756
184	0xbdb07074	-0.08615199
185	0x3e19c6de	0.15017268
186	0x3eb54c4e	0.35409778
187	0xbcadb185	-0.021202812
188	0x3e6b1be3	0.22959857
189	0xb9cee806	-0.00039464253
190	0xbe54591b	-0.20737116
191	0xbee3cf67	-0.44494173
192	0x3e539a25	0.2066427
193	0xbe8aa7dd	-0.27081195
194	0xbded1437	-0.11576121
195	0xbc3a1f26	-0.011359965
196	0x3de5001d	0.11181662
197	0xbda7c512	-0.08191885
198	0x3e01a13d	0.12659164
199	0xbdbd380d	-0.092392065
200	0xbe975b7d	-0.29561988
201	0xbd3a4724	-0.045478
202	0xbc59553a	-0.0132649485
203	0xbe0bc5b5	-0.13649638
204	0xbe8ee132	-0.27906185
205	0x3e27d611	0.16390254
206	0xbe82cb1a	-0.2554558
207	0x3e781e83	0.2423039
208	0x3df30254	0.118656784
209	0xbe042bbd	-0.1290731
210	0x3dadffc7	0.08496051
211	0x3e1cc047	0.15307723
212	0x3cb97e49	0.022643225
213	0x3dfbcad4	0.12294546
214	0xbd0e6366	-0.034762762
215	0xbe4cbb3d	-0.199933
216	0xbc188673	-0.009309399
217	0xbe9152d2	-0.283835
218	0xbdad070d	-0.084486105
219	0xbe8694e6	-0.26285475
220	0x3e41cfac	0.18926877
221	0x3e3aacce	0.18229982
222	0x3e07e061	0.13269188
223	0xbdb4bae2	-0.088247076
224	0xbe794b40	-0.24345112
225	0x3d3ba2b9	0.04580948
226	0xbd602e42	-0.054731615
227	0xbe85ba78	-0.26118827
228	0xbb569c6d	-0.0032747046
229	0xbe9ed147	-0.3101904
230	0xbdc541b0	-0.096316695
231	0xbd253106	-0.040329956
232	0xbdd5694f	-0.10420477
233	0x3d944136	0.072390005
234	0x3d9ef6e0	0.077619314
235	0x3e1390c0	0.14410686
236	0xbe902505	-0.28153244
237	0x3d8ab282	0.06772329
238	0xbe0107ea	-0.12600675
239	0xbe92208b	-0.28540453
240	0xbe6e3297	-0.23261486
241	0x3df0e0e3	0.11761644
242	0x3e48b386	0.19599733
243	0xbe13f4dc	-0.14448875
244	0xbe03b9fd	-0.12863918
245	0x3dea70bb	0.11447283
246	0x3e69a85e	0.22818133
247	0x3e8f4f55	0.27990213
248	0x3dd04394	0.101691395
249	0x3e9dba6a	0.30806285
250	0x3e834b7d	0.2564353
251	0x3e46fefd	0.19433208
252	0xbd953616	-0.07285707
253	0x397ef81b	0.00024315754
254	0x3e6169ca	0.22013012
255	0xbed6ae0b	-0.4192966

gnn.convs.1.nn.lins.0.bias f4 [16]
0	0xbe34ff7e	-0.17675588
1	0xbe960c14	-0.2930609
2	0x3d4f9cbf	0.050686594
3	0xbe92fdea	-0.28709346
4	0x3e2993b2	0.16560248
5	0x3e1c1592	0.15242603
6	0xbd04705f	-0.032333728
7	0xbe1ec1dc	-0.15503639
8	0xbe2be3e0	-0.16786146
9	0x3da06758	0.07832211
10	0x3d835060	0.06411815
11	0x3dcb2df7	0.099208765
12	0x3e0dc17a	0.13843337
13	0xbe6d6c9b	-0.23185961
14	0xbd0d4fc2	-0.03449989
15	0xbc8edea6	-0.017440151

gnn.convs.1.nn.lins.1.weight f4 [16, 16]
0	0x3da756c4	0.08170846
1	0xbe4ec900	-0.20193863
2	0xbe4640a0	-0.1936059
3	0x3e1db7fa	0.15402213
4	0xbde61d23	-0.11236026
5	0xbe2800c1	-0.16406538
6	0x3df58807	0.11988836
7	0x3da1b902	0.078966156
8	0x3e2146ca	0.1574966
9	0x3df31399	0.11868972
10	0xbe4bc366	-0.19898757
11	0x3df52d01	0.119714744
12	0xbd777a4d	-0.06041937
13	0x3e1165af	0.14198945
14	0x3dafe07d	0.085877396
15	0xbe096a10	-0.13419366
16	0x3dd9aaba	0.10628267
17	0xbe861e2c	-0.26194894
18	0x3e63b959	0.22238673
19	0xbe13258c	-0.14369792
20	0xbe828863	-0.2549468
21	0xbdca3e20	-0.09875131
22	0xbe168cc3	-0.14702134
23	0xbd309160	-0.04310739
24	0x3d854189	0.065066405
25	0x3d87d86a	0.066330746
26	0x3d112227	0.03543296
27	0xbdcaec2b	-0.09908327
28	0x3d979e3a	0.07403226
29	0x3cf90b1c	0.030400805
30	0xbe0041cc	-0.125251
31	0x3e72cb00	0.23710251
32	0xbe2dc312	-0.16968945
33	0xbdf89a38	-0.1213879
34	0xbe50bd55	-0.20384724
35	0xbde38004	-0.111084014
36	0x3ac71167	0.0015187681
37	0xbd181d78	-0.03713748
38	0xbdef6cfa	-0.116907075
39	0xbddffc9c	-0.10936853
40	0xbe31309e	-0.17303702
41	0x3cd403f6	0.025880795
42	0x3dc0011d	0.09375212
43	0xbd804638	-0.06263393
44	0xbe47503a	-0.19464198
45	0xbe561ece	-0.20910189
46	0x3e324d36	0.17412266
47	0x3df9f290	0.12204468
48	0x3dea66d1	0.11445392
49	0x3e7ca472	0.24672106
50	0x3c402b5d	0.011729089
51	0xbe6b9af7	-0.23008333
52	0xbe939840	-0.28827095
53	0xbdc20195	-0.09472958
54	0xbcb51dfa	-0.02210902
55	0xbdf778ac	-0.12083563
56	0xbdf38070	-0.11889732
57	0x3d06ff10	0.03295809
58	0xbe7c0a3b	-0.24613278
59	0xbe9da0db	-0.30786785
60	0x3f0b1ee1	0.5434399
61	0xbd4807e0	-0.048835635
62	0xbdeeb28c	-0.11655149
63	0xbdca430a	-0.09876068
64	0xbe677e99	-0.22606887
65	0xbd8873c0	-0.066627026
66	0x3e0e0f16	0.13872942
67	0xbd3d4a26	-0.04621329
68	0xbaed5d85	-0.0018109536
69	0x3d74ab62	0.059733756
70	0x3d795bed	0.060878683
71	0xbc5691ab	-0.013096253
72	0x3b2cb7d1	0.002635468
73	0x3dd357f0	0.10319507
74	0xbe829e49	-0.25511387
75	0xbe35a4ef	-0.17738698
76	0xbd9c3e07	-0.07629018
77	0x3df1654d	0.117869
78	0x3de3a52f	0.11115491
79	0xbdf5a84d	-0.119949915
80	0xbe41692e	-0.18887779
81	0x3e574082	0.21020702
82	0xbe049765	-0.12948377
83	0xbcd51c60	-0.026014507
84	0xbe07fdd5	-0.13280423
85	0x3e0aab54	0.13541919
86	0xbe54d5f8	-0.20784748
87	0xbe9d779f	-0.30755326
88	0xbe3134ce	-0.173053
89	0xbde0ea03	-0.10982134
90	0xbe3d0016	-0.18457064
91	0x3e174425	0.14772089
92	0xbc9c6e83	-0.019095665
93	0x3daa4802	0.08314516
94	0xbe998131	-0.29981378
95	0xbe2df70c	-0.16988772
96	0x3d8a0dd8	0.06740922
97	0xbddacc44	-0.10683492
98	0xbe6b51fc	-0.22980493
99	0x3cc84853	0.02444855
100	0xbe4bad00	-0.19890213
101	0x3da6cb0c	0.08144197
102	0xbd804957	-0.062639885
103	0xbd95a94c	-0.073076814
104	0xbe7339b8	-0.23752487
105	0xbe490958	-0.1963247
106	0xbe000166	-0.12500533
107	0x3d947330	0.07248533
108	0xbcc58a44	-0.024113782
109	0x3e64fc4e	0.22361872
110	0xbe68ab2a	-0.22721544
111	0x3e379da8	0.17931235
112	0x3d7c800c	0.061645553
113	0x3c01ffdb	0.007934536
114	0x3e9c9f20	0.30590153
115	0x3e7c4fbd	0.24639793
116	0x3eba9185	0.36439148
117	0x3da68e75	0.0813264
118	0xbe64b76b	-0.22335593
119	0xbe2c6746	-0.1683627
120	0xbcf122bb	-0.029435506
121	0x3e126ea8	0.14300025
122	0x3eafe868	0.34357
123	0x3e4c7d6a	0.19969717
124	0x3dc4a326	0.096014306
125	0xbe11fb7f	-0.14256094
126	0x3dc2dafd	0.09514425
127	0x3f04a3c9	0.51812416
128	0xbe27d240	-0.16388798
129	0x3d2f39a0	0.042779565
130	0xbdc34aa9	-0.09535725
131	0x3cef98d0	0.029247671
132	0xbdf2e44d	-0.11859951
133	0xbe51651d	-0.20448728
134	0xbe9f2279	-0.31080988
135	0x3e0ff0de	0.14056727
136	0x3df9142e	0.12162052
137	0xbe8ea552	-0.27860504
138	0xbe97b325	-0.29628864
139	0x3e2cd845	0.16879375
140	0xbe0f682f	-0.14004587
141	0xbe6f5e8b	-0.23375909
142	0x3e39c280	0.18140602
143	0xbe97c7f9	-0.29644755
144	0x3e0a30be	0.13495156
145	0x3e1d7426	0.15376338
146	0x3e60fa09	0.21970381
147	0xbe211b2b	-0.1573302
148	0x3e49b2a0	0.19697046
149	0x3d97e3f1	0.07416523
150	0xbcd7eacb	-0.026357075
151	0xbd0450e9	-0.032303724
152	0xbdb894ba	-0.09012742
153	0x3f18ff29	0.59764344
154	0x3e982ff3	0.29724082
155	0x3ec52994	0.38508284
156	0xbc2d91c3	-0.010593834
157	0xbba29392	-0.0049614394
158	0xbe287bd4	-0.16453487
159	0x3e97509b	0.29553685
160	0xbd4e828a	-0.05041746
161	0x3d92697c	0.07149026
162	0xbe0b7cd4	-0.13621837
163	0x3e6c3bf6	0.23069748
164	0xbd660786	-0.05615952
165	0xbdd88548	-0.105722964
166	0x3e1058af	0.1409633
167	0xbe074e9c	-0.13213581
168	0x3e0f4d63	0.13994364
169	0xbdbce48d	-0.0922328
170	0x3dccc37e	0.09998225
171	0xbc65968b	-0.014012943
172	0x3d17ead0	0.03708917
173	0x3daaea36	0.083454534
174	0x3de39db5	0.111140646
175	0x3e069566	0.13142928
176	0xbd736b48	-0.059428483
177	0x3e16a652	0.14711884
178	0xbd3397e0	-0.04384601
179	0x3daa756b	0.08323177
180	0x3e068e64	0.13140255
181	0x3e21e9fe	0.15811917
182	0xbb25ee9f	-0.0025319231
183	0x3b92bf80	0.004478395
184	0x3e127a58	0.14304483
185	0xbe2cc526	-0.16872081
186	0xbe4585e8	-0.19289362
187	0xbe70a108	-0.23498929
188	0x3db10875	0.08644191
189	0xbd8b95d8	-0.0681569
190	0xbd84960c	-0.06473932
191	0x3dd045d4	0.10169569
192	0x3e15b05d	0.14618059
193	0xbd65fd70	-0.0561499
194	0x3e1c9272	0.1529024
195	0xbe32fcae	-0.17479202
196	0xbdd05412	-0.10172285
197	0x3e4441c0	0.19165707
198	0xbcdbcb62	-0.026830379
199	0x3e915ac6	0.28389567
200	0x3e1de7fb	0.15420525
201	0x3ea4f5de	0.32218832
202	0x3dbe3091	0.09286607
203	0x3e3a5880	0.18197823
204	0xbd7ccafa	-0.06171701
205	0xbdd2230c	-0.10260591
206	0x3e4f7386	0.20258912
207	0x3e846570	0.2585864
208	0x3df27cf4	0.11840239
209	0x3e4e52b2	0.20148733
210	0xbe8b5bd9	-0.27218512
211	0xbdeccf01	-0.1156292
212	0x3d74fcf2	0.05981154
213	0xbdeb8811	-0.11500562
214	0x3e5e2b27	0.21696149
215	0xbda747c8	-0.08167988
216	0x3e616110	0.22009683
217	0xbeb60d36	-0.35556954
218	0xbea3cc72	-0.31991917
219	0xbeb2ae4d	-0.34898606
220	0x3e6a4f83	0.22881894
221	0xbdce1520	-0.10062623
222	0xbd9a6504	-0.075387985
223	0xbd9eb282	-0.077488914
224	0x3d8d9268	0.069126904
225	0x3e5911e6	0.21198234
226	0xbe07eb5c	-0.13273376
227	0x3cabb6f0	0.020961255
228	0xbcc28200	-0.02374363
229	0xbceec750	-0.029147774
230	0xbe76539e	-0.24055335
231	0xbe49f4b6	-0.19722256
232	0xbd8c1ae4	-0.068410665
233	0x3dfbc058	0.12292546
234	0x3c3f4dc0	0.011676252
235	0xbe6710aa	-0.2256495
236	0x3e6d9144	0.23199946
237	0xbdd312b0	-0.10306299
238	0xbe556362	-0.20838693
239	0x3c76aa40	0.015055239
240	0xbdbf295f	-0.09334063
241	0x3e26285b	0.16226332
242	0xbdd0248b	-0.1016322
243	0x3d0aa7b2	0.033851333
244	0xbe52a094	-0.20569068
245	0xbe2802ca	-0.16407314
246	0x3e6bf4f5	0.23042662
247	0x3ea1b44f	0.31582877
248	0x3dfd3b8a	0.12364872
249	0xbb723870	-0.003695991
250	0x3d00e319	0.031466577
251	0x3d9183f8	0.07105249
252	0x3dbc6a95	0.092000164
253	0xbd9dc6d9	-0.07703943
254	0xbcc3355e	-0.023829158
255	0xbe754e3d	-0.23955627

gnn.convs.1.nn.lins.1.bias f4 [16]
0	0xbe75e329	-0.24012436
1	0x3bfe8949	0.0077678305
2	0xbe3d99ec	-0.18515748
3	0x3e1deac5	0.15421589
4	0xbd284d3d	-0.041089285
5	0xbaec5a13	-0.0018032215
6	0xbebb67c5	-0.36602607
7	0x3e7196e8	0.23592722
8	0x3de3b55e	0.111185774
9	0x3e8c73ce	0.27432102
10	0xbe52045d	-0.20509477
11	0xbe4a5e58	-0.19762552
12	0x3e62934e	0.22126505
13	0x3dc3f3c2	0.095679775
14	0xbe7b84d6	-0.24562392
15	0x3d8c0408	0.068367064

gnn.convs.2.nn.lins.0.weight f4 [16, 16]
0	0x3c00a280	0.007851243
1	0xbd63e461	-0.05563772
2	0x3dbeea98	0.09322089
3	0xbea7786f	-0.3270907
4	0x3ded875c	0.115980834
5	0x3e519dd2	0.2047036
6	0x3db514a5	0.08841828
7	0x3ea3affc	0.31970203
8	0x3e68c8b8	0.22732818
9	0x3ec17b70	0.37789488
10	0x3e79c8b2	0.24392965
11	0xbe328367	-0.17432939
12	0xbcdc11af	-0.026863901
13	0xbea9272d	-0.330377
14	0x3e4474ce	0.19185182
15	0x3d5767fa	0.052589394
16	0x3e8f4a86	0.27986544
17	0x3dce287c	0.100663155
18	0x3e6d1dbc	0.23155874
19	0x3ec71251	0.38881162
20	0x3e41febe	0.18944833
21	0xbdad70c1	-0.08468772
22	0x3e576e2f	0.21038125
23	0xbe8a02d7	-0.26955292
24	0xbe8d6af7	-0.2762067
25	0xbda4eeb7	-0.08053344
26	0xbe331e16	-0.17491946
27	0x3d1757a0	0.0369488
28	0xbc75e0ab	-0.015007178
29	0x3edc4a7f	0.43025586
30	0x3ddb8968	0.107195675
31	0x3e3dc419	0.18531837
32	0xbcb6b8c0	-0.022304893
33	0xbd8fe504	-0.07026103
34	0xbe16698c	-0.146887
35	0xbdd755ac	-0.105143875
36	0x3cc03db0	0.023466915
37	0x3db2642c	0.087105125
38	0x3d9fbb48	0.07799393
39	0x3d20ef50	0.039290726
40	0x3e3aa81c	0.18228191
41	0xbde0e920	-0.10981965
42	0xbe4fb312	-0.20283154
43	0xbe1f39f4	-0.15549451
44	0xbd71e618	-0.059057325
45	0x3e1c14fc	0.1524238
46	0xbe330248	-0.17481339
47	0xbdb85f90	-0.09002602
48	0x3e1bc564	0.15212017
49	0x3d046ebb	0.032332163
50	0x3e19fc94	0.15037757
51	0xbe06094b	-0.13089482
52	0xbe3e4a5e	-0.18583056
53	0x3e12e53b	0.14345257
54	0xbe3e5cb4	-0.18590051
55	0xbe0027ae	-0.12515137
56	0x3e140812	0.14456204
57	0xbe6c3532	-0.23067167
58	0x3c21515b	0.009846057
59	0xbe30b00a	-0.17254654
60	0x3e259e1d	0.16173597
61	0xbd845c56	-0.06462924
62	0x3c7c7dc0	0.0154108405
63	0xbe1b82bd	-0.15186591
64	0xbe5469e8	-0.20743525
65	0xbc1e2880	-0.009653211
66	0x3d1dc0a8	0.03851381
67	0xbe18822e	-0.1489341
68	0xbe959f40	-0.2922306
69	0x3da25cc8	0.07927853
70	0x3d7e3bf0	0.06206888
71	0xbe2b85dd	-0.16750284
72	0x3dc09c70	0.09404838
73	0xbe04c01a	-0.12963906
74	0xbe952d2b	-0.29136023
75	0x3e77010c	0.24121493
76	0xbe4c9f3e	-0.19982621
77	0x3c46e8cc	0.012140464
78	0xbde3c5b0	-0.1112169
79	0x3d662209	0.056184802
80	0xbd5c83cc	-0.05383663
81	0x3e4aab17	0.19791828
82	0x3e0e270b	0.13882081
83	0xbeadec34	-0.3396927
84	0xbe1e92b2	-0.15485647
85	0xbe25fb0d	-0.1620905
86	0xbdd8bb3d	-0.10582588
87	0x3e2b1a9c	0.1670937
88	0xbd371d3a	-0.044705607
89	0x3e74a059	0.23889293
90	0xbe3f2ab2	-0.1866863
91	0x3e0687a4	0.1313768
92	0x3e3dafd8	0.1852411
93	0xbe5a9d54	-0.21349078
94	0x3e667502	0.22505572
95	0xbeaab077	-0.33337757
96	0xbe3aaffc	-0.18231195
97	0xbdd4cafc	-0.10390279
98	0x3e39f618	0.18160284
99	0x3de81740	0.113325596
100	0x3da60998	0.081072986
101	0xbd4cf330	-0.05003661
102	0xbe28b30c	-0.16474551
103	0xbbdf66c0	-0.0068176687
104	0x3e0a28d2	0.13492134
105	0xbdb5c6b4	-0.0887579
106	0xbe5f3512	-0.21797588
107	0x3df81860	0.12114024
108	0xbe36598c	-0.17807597
109	0xbd9666b4	-0.07343808
110	0x3ce5d5d0	0.028056055
111	0x3d5c9d20	0.053860784
112	0xbdc8e2e3	-0.098089
113	0xbdcd2793	-0.10017314
114	0x3e39f061	0.18158104
115	0xbe979477	-0.29605457
116	0x3bcd0b6b	0.0062574646
117	0xbdc3fb44	-0.095694095
118	0xbdec1806	-0.115280196
119	0xbd2f336b	-0.042773645
120	0x3e14721c	0.14496654
121	0xbe07c6f9	-0.13259496
122	0x3d60e11e	0.05490219
123	0x3e205e13	0.15660886
124	0x3d1d5190	0.038407862
125	0xbeaf851d	-0.34281245
126	0xbcf1fc10	-0.029539138
127	0xbe9831ef	-0.29725596
128	0xbe7c211c	-0.24622005
129	0x3d814d04	0.06313518
130	0xbd9f2624	-0.077709466
131	0xbe389d00	-0.18028641
132	0x3e0567d6	0.13027892
133	0x3adcdf00	0.0016851127
134	0x3d154148	0.03643921
135	0xbdf8b6ec	-0.121442646
136	0x3e301a5c	0.17197555
137	0x3dd41934	0.103563696
138	0x3e31c860	0.17361593
139	0xbe6a3982	-0.228735
140	0xbd077d40	-0.033078432
141	0xbde45580	-0.1114912
142	0xbdbb0fc4	-0.091338664
143	0xbdbfd8a4	-0.09367493
144	0xbe686d18	-0.22697866
145	0x3d48ebd4	0.04905303
146	0xbd929558	-0.07157391
147	0x3da4b2e1	0.08041931
148	0x3d0409e5	0.032236
149	0x3e09896b	0.13431327
150	0x3e379cb2	0.17930868
151	0x3eee2cfa	0.4651869
152	0x3e638e6d	0.222223
153	0x3e23a7ec	0.15982026
154	0x3d0807ac	0.03321044
155	0x3c04c861	0.008104415
156	0x3e9fb8ea	0.31195766
157	0xbed10479	-0.40823725
158	0xbe118578	-0.1421107
159	0xbea8a2c2	-0.32936674
160	0xbdfc663b	-0.123241864
161	0x3e687e68	0.2270447
162	0xbe34c62a	-0.17653719
163	0xbd33d117	-0.043900575
164	0x3e4a8e2d	0.19780798
165	0x3e49439a	0.19654694
166	0xbd7dc9ec	-0.061960146
167	0x3e82fc85	0.25583282
168	0x3e16371c	0.1466946
169	0xbe178fd0	-0.14800954
170	0x3d1b8343	0.037966978
171	0xbb2c1a6a	-0.0026260861
172	0x3e3b41d4	0.1828683
173	0xbc7072d3	-0.014675814
174	0x3e6cc446	0.23121747
175	0xbdeb7d1c	-0.11498472
176	0x3e162028	0.14660704
177	0xbda7af7c	-0.08187768
178	0xbc003dc0	-0.007827222
179	0x3cb223c0	0.021745563
180	0x3d4293bd	0.047504175
181	0xbe780028	-0.2421881
182	0xbe3889f2	-0.18021372
183	0xbd8a6060	-0.06756663
184	0xbe247734	-0.16061097
185	0xbe7b101e	-0.24517867
186	0xbdf9198c	-0.12163076
187	0xbd9cb03c	-0.076508015
188	0xbe57041a	-0.20997658
189	0xbd0dbc03	-0.03460313
190	0xbe15d5a4	-0.14632279
191	0xbdffdf9c	-0.12493822
192	0x3d4d149e	0.05006849
193	0xbe2abd86	-0.1667386
194	0xbde96d38	-0.11397785
195	0xbebb0784	-0.3652917
196	0x3e373261	0.17890312
197	0xbe72eb1b	-0.23722498
198	0x3daa46bd	0.083142735
199	0xbe712b3e	-0.23551652
200	0x3dc99ce9	0.09844381
201	0xbd3096b9	-0.04311249
202	0xbdd1fa49	-0.10252816
203	0xbd355003	-0.04426576
204	0x3d8888fa	0.06666751
205	0xbda062ba	-0.078313306
206	0xbd244470	-0.04010433
207	0xbd0e66f8	-0.034766167
208	0x3e6d52b2	0.23176077
209	0xbcbd1610	-0.02308181
210	0x3e51cde0	0.20488691
211	0x3d47afc8	0.048751622
212	0x3c462d60	0.012095779
213	0xbd749788	-0.059714824
214	0xbe230906	-0.15921411
215	0xbd2dcc80	-0.042431355
216	0xbdfdebc0	-0.12398481
217	0xbe6684d0	-0.22511601
218	0xbcb02a60	-0.021504581
219	0xbcc2cb50	-0.023778588
220	0xbc3fe5c0	-0.0117124915
221	0x3deae5f4	0.11469641
222	0x3dd13454	0.10215059
223	0xbe2a1396	-0.16609034
224	0xbe0ae1a0	-0.13562632
225	0xbe04e8d2	-0.12979439
226	0x3e4afb81	0.19822504
227	0x3d5b982b	0.053611916
228	0x3deb6e9c	0.114957064
229	0xbe89a193	-0.26881084
230	0x3dbecb22	0.09316088
231	0xbd9d4fc4	-0.0768123
232	0xbe7b7721	-0.24557163
233	0x3daea264	0.08527067
234	0xbe4b40bd	-0.19848914
235	0x3e251ab0	0.16123462
236	0x3d158427	0.036502983
237	0xbddc47e8	-0.107559025
238	0x3b512800	0.003191471
239	0x3e4efcf5	0.20213683
240	0xbd1fe1cb	-0.039033692
241	0x3d021f9c	0.031768426
242	0x3bd06500	0.0063596964
243	0x3dad069d	0.08448527
244	0xbc81d01c	-0.015846305
245	0x3e3c6c94	0.18400794
246	0x3e6482ef	0.22315572
247	0xbd95d11d	-0.07315276
248	0xbd036fce	-0.032089047
249	0xbcbb1e42	-0.022841576
250	0x3d5fff04	0.05468656
251	0x3c0eee5b	0.008723821
252	0xbc8430d6	-0.016136568
253	0x3ef5f966	0.48041838
254	0x3e68dbac	0.22740048
255	0x3c8f3082	0.017479185

gnn.convs.2.nn.lins.0.bias f4 [16]
0	0x3e1c2840	0.15249729
1	0x3df14177	0.117800646
2	0xbdb40384	-0.08789733
3	0x3da7e9ef	0.08198916
4	0xbe9d85fa	-0.30766279
5	0x3d56aaa7	0.05240884
6	0xbd454208	-0.048158675
7	0x3e6192b8	0.22028625
8	0xbe63431c	-0.22193569
9	0xbe01d941	-0.12680532
10	0xbe32f215	-0.1747516
11	0x3d9283a6	0.07154016
12	0x3e1bb2e8	0.15204966
13	0xbe4ee32c	-0.20203847
14	0xbdeaf834	-0.11473122
15	0x3e9fac9a	0.31186372

gnn.convs.2.nn.lins.1.weight f4 [16, 16]
0	0xbe5d0d5a	-0.21587124
1	0x3e0bebf5	0.13664229
2	0x3dd12694	0.10212436
3	0x3a5c2400	0.00083976984
4	0x3e4efa52	0.20212677
5	0x3e06f33a	0.13178721
6	0xbddf78b0	-0.10911691
7	0xbe648c26	-0.22319087
8	0xbdedc9ec	-0.11610779
9	0xbe4138e2	-0.18869355
10	0xbd9ef00b	-0.07760628
11	0x3e4a7182	0.19769862
12	0xbe006afc	-0.12540811
13	0xbd85f0bc	-0.06540057
14	0xbcf77750	-0.03020826
15	0xbe730003	-0.23730473
16	0xbe61060e	-0.21974966
17	0xbe1c2d22	-0.15251592
18	0xbe635ea6	-0.22204074
19	0x3e309c04	0.17247015
20	0x3ce95160	0.028481185
21	0xbe0d7a10	-0.13816094
22	0x3e421db4	0.18956643
23	0xbe005f50	-0.12536359
24	0xbdd49458	-0.10379857
25	0x3d4e59d8	0.05037865
26	0xbe381caa	-0.17979684
27	0x3e42eac8	0.19034874
28	0xbe74ad94	-0.2389434
29	0xbd774a08	-0.060373336
30	0x3d41e718	0.04733953
31	0xbdf25b14	-0.11833778
32	0x3d1689ce	0.036752515
33	0xbd7fdde4	-0.06246747
34	0x3bf26440	0.0073972046
35	0x3e241c36	0.16026387
36	0x3dbfbdd4	0.09362379
37	0xbcbcdbf3	-0.023054099
38	0xbd9653dc	-0.07340214
39	0xbe4df3ee	-0.20112583
40	0xbe7f9d42	-0.24962333
41	0xbe1d2ae7	-0.15348397
42	0x3db1ac61	0.08675457
43	0x3e3c06fc	0.1836204
44	0xbdebb2c8	-0.11508709
45	0x3d8b7340	0.068090916
46	0x3dda7082	0.106659904
47	0xbe57b040	-0.21063328
48	0xbe68ed16	-0.22746691
49	0x3d71ef00	0.05906582
50	0x3e60291c	0.21890682
51	0x3e3d2816	0.18472323
52	0x3e093f78	0.13403118
53	0x3e1d5134	0.15363008
54	0x3e05216e	0.13001034
55	0x3e67e77e	0.22646901
56	0x3e3d3022	0.18475392
57	0xbd0b1050	-0.033951104
58	0x3e5c82fc	0.21534342
59	0xbdbbc98c	-0.091693014
60	0x3e56dae0	0.20981932
61	0x3e1192b2	0.14216116
62	0xbd598a48	-0.05311039
63	0xbe7b7194	-0.24555045
64	0x3eadf592	0.33976418
65	0x3d9d5801	0.07682801
66	0x3cc75220	0.024331152
67	0xbe0967df	-0.1341853
68	0xbe31d16b	-0.17365043
69	0x3ebfa6f3	0.3743206
70	0xbe466080	-0.1937275
71	0x3e92c8b2	0.28668743
72	0x3e6c3628	0.23067534
73	0x3dd0398a	0.10167225
74	0xbaa78fdf	-0.0012783966
75	0xbc958f92	-0.018256936
76	0x3cd8afd2	0.026451025
77	0xbda01520	-0.07816529
78	0x3d00b9f7	0.03142735
79	0xbebd99f7	-0.37031528
80	0xbd91a8c0	-0.07112265
81	0x3e24253b	0.16029827
82	0x3e2a82da	0.16651478
83	0x3b1fc480	0.0024378598
84	0x3e433e40	0.19066715
85	0xbdac5f8c	-0.084166616
86	0xbd637448	-0.055530816
87	0xbe4a4306	-0.1975213
88	0x3e30220c	0.17200488
89	0xbdd693ec	-0.104774326
90	0xbdb12f30	-0.086515784
91	0xbe540f46	-0.20708951
92	0x3e514098	0.20434797
93	0xbe4f0478	-0.20216548
94	0xbb9e5883	-0.0048323288
95	0xbe3a40b3	-0.18188743
96	0x3cdc7410	0.026910812
97	0x3e02a8f4	0.12759763
98	0x3e1d3542	0.15352347
99	0xbe525492	-0.20540074
100	0xbe46737c	-0.19379991
101	0x3dfc912a	0.12332375
102	0xbc931b60	-0.01795739
103	0xbe162466	-0.14662322
104	0xbe52f76c	-0.20602196
105	0x3e655837	0.22396933
106	0x3e04d99f	0.12973641
107	0x3e1dffb0	0.15429568
108	0x3bc03a00	0.005866289
109	0x3d9045f8	0.070445955
110	0x3ca531cc	0.020165347
111	0xbd8d5ff3	-0.069030665
112	0xbd23f6a2	-0.04003013
113	0xbda7a44c	-0.08185634
114	0xbe516d92	-0.20451954
115	0x3e01e0d2	0.12683418
116	0xbe627a2e	-0.2211692
117	0xbe6e3694	-0.23263007
118	0xbc9e4560	-0.01932019
119	0x3e176362	0.14784005
120	0xbe595afa	-0.21226111
121	0xbd1a8127	-0.037720826
122	0xbd97d8cb	-0.07414397
123	0xbe2663dc	-0.16249031
124	0x3cf44d1b	0.029821923
125	0xbe52de24	-0.20592552
126	0xbd81910b	-0.06326493
127	0xbe8f5309	-0.27993038
128	0xbe844529	-0.25834015
129	0xbe5bf9b3	-0.21481971
130	0xbe7016de	-0.23446223
131	0x3d74141f	0.0595895
132	0xbe458d2e	-0.19292137
133	0xbd237a72	-0.039911695
134	0xbe09354a	-0.13399234
135	0xbe974098	-0.2954147
136	0x3e409fac	0.1881091
137	0x3e23f8b2	0.16012838
138	0xbe54c340	-0.20777607
139	0xbe4a1af4	-0.19736844
140	0x3dd280ed	0.10278497
141	0x3e602348	0.21888459
142	0x3dbec2a5	0.09314469
143	0xbded0d44	-0.11574796
144	0xbe3a4524	-0.18190438
145	0x3cd7db30	0.026349634
146	0x3e4678d4	0.1938203
147	0xbe792f7c	-0.2433452
148	0x3d609978	0.05483386
149	0xbe40906c	-0.18805093
150	0xbe13ef96	-0.14446864
151	0x3e034468	0.12819064
152	0x3c688320	0.014191419
153	0x3e6d3728	0.23165572
154	0x3d806474	0.0626916
155	0xbd3adba8	-0.045619637
156	0x3e499032	0.19683912
157	0x3e249650	0.16072965
158	0xbe4c96b0	-0.19979358
159	0xbe3dc1bc	-0.18530935
160	0x3e1dc076	0.1540545
161	0xbde82a6a	-0.11336215
162	0x3e2e069a	0.16994706
163	0xbe86a126	-0.26294822
164	0xbd27c1e3	-0.04095639
165	0xbe1c62ab	-0.15272014
166	0xbe611fb6	-0.21984753
167	0x3c9c832b	0.019105515
168	0x3e20123e	0.15631959
169	0x3e63df24	0.2225309
170	0x3e218b4d	0.15775795
171	0xbe8d0ab1	-0.2754722
172	0x3db1752d	0.08664928
173	0x3e5439e0	0.20725203
174	0xbe8c51ef	-0.2740626
175	0x3d68c358	0.05682692
176	0x3e12b9e5	0.14328726
177	0x3c76f28f	0.015072479
178	0xbe658ec8	-0.22417748
179	0x3dc4b101	0.09604073
180	0xbd79489e	-0.06086027
181	0xbd4a0ddf	-0.049329635
182	0x3e0bd5aa	0.13655725
183	0xbe2df6ae	-0.16988632
184	0xbd5b9420	-0.05360806
185	0xbd85edef	-0.06539523
186	0xbeb877fd	-0.36029044
187	0xbe178fcf	-0.14800952
188	0xbe937891	-0.28802922
189	0xbe4623a0	-0.19349527
190	0xbe35c695	-0.17751534
191	0xbda5acf4	-0.08089629
192	0xbe7fd768	-0.24984515
193	0x3df66ae1	0.12032104
194	0xbb3e4980	-0.0029035509
195	0xbe4d7d9c	-0.20067447
196	0x3e1cedcc	0.15325087
197	0x3e35200a	0.17688003
198	0xbe53e9b2	-0.20694616
199	0x3e5f4d48	0.21806824
200	0xbdfd7a28	-0.12376815
201	0x3d909510	0.070596814
202	0x3d48a562	0.048985846
203	0xbc585200	-0.013203144
204	0xbe57879c	-0.21047825
205	0x3e23a976	0.15982613
206	0xbdbfa5ff	-0.09357833
207	0xbe70fe91	-0.2353461
208	0xbd7784d7	-0.06042942
209	0x3c19b72f	0.009382053
210	0x3e5f9086	0.21832475
211	0xbd8cc93c	-0.0687432
212	0x3d6e3682	0.05815745
213	0xbe51bdaf	-0.20482515
214	0x3e6b199e	0.22958991
215	0xbe978f25	-0.29601398
216	0xbdcb467c	-0.09925553
217	0xbe24bc1f	-0.16087388
218	0xbe891187	-0.26771185
219	0x3d145d25	0.036221642
220	0x3dad0bcc	0.08449516
221	0x3e435124	0.19073921
222	0xbd87f50c	-0.06638536
223	0xbe9d032d	-0.30666485
224	0x3e90d289	0.28285626
225	0xbe5a397a	-0.21310988
226	0xbe1604ba	-0.1465024
227	0x3e18ce5f	0.14922474
228	0x3b3828d2	0.0028100503
229	0x3e88979c	0.2667817
230	0xbe1c4ca0	-0.15263605
231	0xbd91f592	-0.07126917
232	0x3cc82f70	0.024436682
233	0x3ea961c0	0.3308239
234	0x3e0304d2	0.12794808
235	0xbd9a4525	-0.075327195
236	0x3e1b9f2e	0.15197441
237	0x3da7ea04	0.08198932
238	0x3cfe67a1	0.031055273
239	0xbe3dcd1c	-0.18535274
240	0x3d0ee9d8	0.03489098
241	0xbdf9b700	-0.121931076
242	0xbd790520	-0.060795903
243	0xbdba47d8	-0.09095734
244	0xbc85a130	-0.016312212
245	0xbe1992e4	-0.1499744
246	0xbe282cda	-0.1642336
247	0xbe22d09c	-0.1589989
248	0x3d3fb760	0.04680574
249	0x3bca2280	0.0061686635
250	0xbd9fe078	-0.07806486
251	0xbb175600	-0.0023092031
252	0x3d8101d4	0.06299177
253	0x3d9665c4	0.07343629
254	0x3c8aea20	0.016957343
255	0xbd844db4	-0.06460133

gnn.convs.2.nn.lins.1.bias f4 [16]
0	0xbe7c4398	-0.2463516
1	0xbdec755c	-0.11545822
2	0xbd558fd7	-0.05213913
3	0xbe3e8684	-0.18606001
4	0xbba44945	-0.005013617
5	0xbe31794e	-0.1733143
6	0xbe7810ad	-0.24225111
7	0x3d291205	0.04127695
8	0xbdcd494b	-0.10023745
9	0xbd7f0bb8	-0.062267035
10	0xbb9d612a	-0.0048028426
11	0xbe0c4600	-0.13698578
12	0xbe1c462d	-0.15261145
13	0x3e478fa0	0.19488382
14	0x3e1771df	0.14789532
15	0xbe507470	-0.20356917

gnn.convs.3.nn.lins.0.weight f4 [16, 16]
0	0x3b00b6ee	0.0019640285
1	0x3e653732	0.22384337
2	0xbd0b3c47	-0.03399303
3	0xbd4f2258	-0.050569862
4	0x3ea6d626	0.32585257
5	0x3e729256	0.23688635
6	0x3e40a1ac	0.18811673
7	0x3e93d63c	0.28874385
8	0x3e896cd3	0.2684084
9	0xbe1294d4	-0.14314586
10	0x3e4b5a0d	0.1985857
11	0x3d4e3dfb	0.050352078
12	0x3cb1001f	0.021606503
13	0xbdd5c0ed	-0.10437188
14	0x3e8cb675	0.27482954
15	0x3db85238	0.09000057
16	0xbcfcf230	-0.030877203
17	0xbdeef25c	-0.1166732
18	0x3d748c07	0.059703853
19	0xbe72f4e0	-0.23726225
20	0xbe83ff12	-0.2578054
21	0x3e14d10e	0.14532873
22	0x3e549270	0.20758986
23	0x3d718591	0.05896527
24	0x3dfcb688	0.123395026
25	0x3e560c34	0.20903093
26	0xbe8db9fe	-0.27680963
27	0x3e58fbc5	0.21189792
28	0xbe261c78	-0.16221797
29	0xbd53e8a6	-0.051735543
30	0xbcaf39ab	-0.021389803
31	0x3e3a7016	0.1820682
32	0xbdbe9dfd	-0.093074776
33	0x3dbee5fc	0.0932121
34	0x3c869440	0.016428113
35	0x3d6e3978	0.058160275
36	0xbe2e0f95	-0.16998132
37	0xbde00f1c	-0.10940382
38	0xbe36e218	-0.17859685
39	0xbd85d150	-0.06534064
40	0xbe269dd4	-0.16271144
41	0xbe7bbe1e	-0.24584243
42	0x3dc519c4	0.09624055
43	0xbbe8bf36	-0.0071028722
44	0xbe72b9e2	-0.23703721
45	0xbe148c2a	-0.14506593
46	0xbe906ac9	-0.2820647
47	0x3e5c9552	0.21541336
48	0xbe1d432e	-0.15357658
49	0x3e0c5c46	0.13707075
50	0xbd39e008	-0.04537967
51	0xbd863a50	-0.06554091
52	0xbe78256c	-0.24233025
53	0x3e74862c	0.23879308
54	0xbe4422e4	-0.19153935
55	0xbe15fd86	-0.14647493
56	0x3de55fa0	0.1119988
57	0xbe3e0586	-0.18556795
58	0xb7b8b0f6	-2.2016913e-05
59	0xbd844f26	-0.06460409
60	0x3df1ea00	0.1181221
61	0x3de19f37	0.11016696
62	0xbe7ab93b	-0.24484722
63	0x3dc23c74	0.09484187
64	0x3e594da6	0.21221027
65	0x3cc30f30	0.023810953
66	0xbd0a7ef3	-0.033812474
67	0x3e6c4528	0.23073256
68	0x3e9100a5	0.28320804
69	0xbd6118c8	-0.054955274
70	0x3da9138a	0.0825568
71	0xbbc2d750	-0.0059460774
72	0xbe5a2e4e	-0.21306726
73	0xbd2e74c0	-0.04259181
74	0xbd8e4ef5	-0.069486536
75	0xbccc4b31	-0.024938198
76	0x3de00565	0.10938529
77	0xbd9e67ef	-0.077346675
78	0x3df39277	0.1189317
79	0x3df71cfc	0.12066075
80	0x3da9eb0c	0.08296785
81	0x3d6df650	0.05809623
82	0xbe599014	-0.21246368
83	0xbdde9678	-0.108685434
84	0x3d4dc02a	0.05023209
85	0x3d0dc618	0.034612745
86	0x3dc9b177	0.09848302
87	0x3db59fde	0.08868383
88	0x3e0b1787	0.13583194
89	0x3e6a6600	0.22890472
90	0x3db5346b	0.088478886
91	0xbdac6cd9	-0.084191985
92	0x3e130e24	0.14360863
93	0x3e77d1d4	0.24201137
94	0x3e44c958	0.19217432
95	0xbe2eac7e	-0.17057988
96	0xbcbf604c	-0.023361348
97	0xbe00a9f4	-0.12564832
98	0x3d20e17e	0.039277546
99	0xbd84cae4	-0.06484011
100	0x3e9b99a4	0.30390656
101	0xbd98b011	-0.07455457
102	0x3e82b3c7	0.25527784
103	0x3e96d87b	0.29462036
104	0x3c70c36f	0.0146950325
105	0x3d71be40	0.059019327
106	0xbd240c4b	-0.040050786
107	0xbe1c6feb	-0.15277068
108	0xbe910db1	-0.28330758
109	0xbbe22415	-0.006901274
110	0x3d1ec858	0.03876528
111	0x3d8be210	0.068302274
112	0xbe043ee8	-0.12914622
113	0x3c22f800	0.009946823
114	0xbe85a53e	-0.26102632
115	0xbe4501d0	-0.19238973
116	0x3c487fea	0.012237528
117	0xbcc71c38	-0.024305448
118	0xbe70d5e4	-0.23519093
119	0xbccccadc	-0.024999075
120	0x3e435c1e	0.19078109
121	0xbc7268e0	-0.014795512
122	0x3d2f6552	0.042821236
123	0xbcb2e05c	-0.021835499
124	0xbe7bc211	-0.24585749
125	0x3d6af813	0.05736549
126	0x3d3a7d7a	0.04552982
127	0xbe58d8b6	-0.21176419
128	0x3d963c0b	0.07335671
129	0xbca6c710	-0.020358592
130	0xbdf7c8b1	-0.12098826
131	0x3e0d3acc	0.1379196
132	0x3ea258fb	0.31708512
133	0x3dc50f46	0.09622054
134	0x3e6f2d29	0.23357071
135	0x3e945f6e	0.28979057
136	0xbe058726	-0.13039836
137	0x3e2e5936	0.17026219
138	0x3dbc30bc	0.09188983
139	0x3e0dbf3f	0.13842486
140	0x3dd39ed3	0.10333028
141	0x3c823192	0.015892778
142	0x3e92b21d	0.28651515
143	0xbe54ec92	-0.2079337
144	0x3e2df191	0.16986682
145	0x3e6637a6	0.22482166
146	0xbe284bce	-0.16435167
147	0x3d8d96e4	0.06913546
148	0x3daf5bf2	0.08562459
149	0x3e5fc680	0.21853065
150	0x3c7cce40	0.015430033
151	0xbe6a2198	-0.22864377
152	0xbe7b0c8e	-0.24516508
153	0x3e743f06	0.23852167
154	0x3e6ae34b	0.22938268
155	0xbe4b799a	-0.19870606
156	0x3c574320	0.013138562
157	0xbe12c3a2	-0.1433244
158	0xbe22836c	-0.15870446
159	0x3e64f232	0.22358015
160	0x3e05307b	0.13006775
161	0x3de0c4a4	0.10975006
162	0xbd1c3e6e	-0.038145475
163	0x3de7b8f8	0.11314577
164	0xbe5e5359	-0.21711482
165	0x3e1b3ae2	0.15159181
166	0xbd112be2	-0.03544224
167	0x3e355b89	0.17710699
168	0xbe100931	-0.14066006
169	0xbd8fab10	-0.070150495
170	0xbb548aeb	-0.0032431434
171	0xbe37045f	-0.17872761
172	0x3e96c178	0.2944448
173	0x3e3ed8ac	0.18637341
174	0x3e118b58	0.14213312
175	0x3c0c47e0	0.008562058
176	0x3e4ffdfc	0.20311731
177	0xbe6ac9c4	-0.2292853
178	0x3d6c6775	0.05771585
179	0xbdc280d0	-0.09497225
180	0xbe47f113	-0.19525556
181	0xbd49f000	-0.049301147
182	0xbe1ded10	-0.15422463
183	0xbe18c0fc	-0.14917368
184	0xbe5e1a70	-0.21689773
185	0x3d49d4d0	0.04927522
186	0xbe31f702	-0.17379382
187	0x3b3f6080	0.0029201806
188	0xbe4fab82	-0.20280269
189	0x3c7eb32b	0.015545647
190	0x3e18e7c8	0.14932168
191	0xbd149890	-0.036278307
192	0xbd27b2e0	-0.040942073
193	0xbd8fe274	-0.070256144
194	0xbdd7bda8	-0.10534221
195	0x3e1a66e4	0.15078312
196	0x3e6f0715	0.23342545
197	0xbe15bff2	-0.14624003
198	0x3d039856	0.0321277
199	0xbdfae8a5	-0.12251405
200	0x3e906545	0.28202263
201	0xbe667e96	-0.22509226
202	0xbe18fd6b	-0.14940421
203	0x3e15e4fa	0.14638129
204	0xbddfe912	-0.109331265
205	0x3e550b52	0.208051
206	0x3e633d5a	0.22191373
207	0xbe79a760	-0.24380255
208	0x3dd6738f	0.1047126
209	0xbe2c3d46	-0.16820249
210	0x3e640c12	0.2227023
211	0x3e0fb110	0.14032388
212	0x3e057715	0.13033707
213	0x3d97876c	0.073988765
214	0xbdfb59bd	-0.122729756
215	0x3d84ffa4	0.06494072
216	0x3e93c3a8	0.2886021
217	0xbd682bf8	-0.056682557
218	0xbe18b7c8	-0.14913857
219	0xbe103341	-0.14082052
220	0xbe232d4f	-0.15935253
221	0x3e54e783	0.2079144
222	0x3eb3c91e	0.35114378
223	0xbe0796b6	-0.13241085
224	0x3da2cff6	0.07949822
225	0x3b82f680	0.0039966702
226	0x3e6a2ddd	0.22869058
227	0xbe107e4c	-0.14110678
228	0x3e71da55	0.23618443
229	0x3dc4de89	0.09612758
230	0x3ca7919f	0.02045518
231	0xbe9302c6	-0.28713053
232	0x3d8f64a4	0.070016176
233	0xbe7ed808	-0.24887097
234	0x3d0a32fc	0.03374003
235	0xbe2237eb	-0.15841644
236	0x3db5ce69	0.0887726
237	0xbe8968c8	-0.26837754
238	0x3ec3a15e	0.3820905
239	0x3e771b00	0.24131393
240	0x3db671a9	0.08908398
241	0x3df3b34c	0.118994325
242	0x3e043fe4	0.12914997
243	0xbe3c9844	-0.1841746
244	0xbe68b890	-0.22726655
245	0x3dd5b24c	0.10434398
246	0x3d368c78	0.044567555
247	0x3e09c60b	0.13454454
248	0xbe94aca5	-0.29037967
249	0xbdca137c	-0.098669976
250	0x3dfc08fd	0.12306402
251	0x3dbff50e	0.09372912
252	0xbd466ac0	-0.04844165
253	0x3c975102	0.018471245
254	0xbe818d29	-0.2530301
255	0xbccab4a0	-0.024744332

gnn.convs.3.nn.lins.0.bias f4 [16]
0	0xbd39be38	-0.045347422
1	0x3d33610d	0.043793727
2	0xbe6bf6d1	-0.23043372
3	0xbe0ea41d	-0.13929792
4	0x3c1c82d5	0.009552677
5	0x3d2909c4	0.04126908
6	0x3dba6db9	0.09102959
7	0x3e849edf	0.2590246
8	0x3e7645b8	0.24050033
9	0xbe648378	-0.22315776
10	0x3e111a70	0.14170241
11	0xbe98cb8b	-0.2984279
12	0x3e1b9d38	0.15196693
13	0x3d6fd8d7	0.058556404
14	0xbe513a18	-0.20432317
15	0xbe102ee2	-0.14080384
