Run_GIN_ModelCheckpoint_EvFr_2/NCI1_reps_2_folds_5_epochs_20_2023-04-26_11-05/rep_1_fold_0/checkpoints/model_trial_1.ckpt (torch, 245261 bytes, 86 tensors)

gnn.convs.0.nn.lins.0.weight f4 [32, 37]
0	0x3f88c1a3	1.0684093
1	0x3f4c6ab1	0.798503
2	0xbe455f47	-0.19274627
3	0x3f53e511	0.827714
4	0xbf89b899	-1.075946
5	0x3e44d78f	0.19222854
6	0xbe674789	-0.22585882
7	0x3deff1d2	0.117160454
8	0x3d0f580c	0.034996077
9	0xbd22c08a	-0.0397344
10	0x3d498060	0.049194694
11	0xbddd048d	-0.107918836
12	0x3d0b64f0	0.03403181
13	0xbe72ec45	-0.23722942
14	0xbe18e53c	-0.14931196
15	0xbe10556c	-0.14095086
16	0xbed705dd	-0.4199666
17	0xbce6d368	-0.028176978
18	0xbdb53ac5	-0.088491
19	0x3e61de67	0.22057496
20	0xbcec3a26	-0.028836321
21	0x3f8af61e	1.0856359
22	0xbe0fda19	-0.14048041
23	0xbe08fa2f	-0.13376687
24	0xbdc94eb7	-0.09829467
25	0x3d8867c0	0.06660414
26	0xbf3ac5c4	-0.72958016
27	0x3e0936bd	0.13399787
28	0xbdf346d6	-0.11878745
29	0x3f172567	0.59041446
30	0xbd391602	-0.045187004
31	0xbda106f1	-0.07862652
32	0x3d39ba38	0.045343608
33	0xbb97d3dd	-0.0046334104
34	0x3cd833d6	0.026391905
35	0xbe072601	-0.13198091
36	0xbe359dc2	-0.17735961
37	0xbe64a7be	-0.22329614
38	0xbe3153cd	-0.17317124
39	0x3d772f47	0.06034782
40	0xbeeddfdc	-0.46459854
41	0xbc8bb6c8	-0.01705493
42	0xbeb03f61	-0.34423354
43	0xbef6fa1f	-0.48237702
44	0xbe4c9455	-0.19978459
45	0x3ebda14c	0.37037122
46	0xbe24c8a6	-0.16092166
47	0xbef94a0b	-0.48689303
48	0x3e1618fe	0.14657971
49	0xbee4055c	-0.4453534
50	0xbf10d4ea	-0.5657488
51	0x3d35f930	0.044427097
52	0xbe4dd648	-0.20101273
53	0x3e0004aa	0.12501779
54	0x3e5f0a08	0.2178117
55	0x3e792510	0.24330544
56	0x3eb225c4	0.34794438
57	0xbf24dab6	-0.64396226
58	0xbf708911	-0.93959147
59	0xbe259b2b	-0.16172473
60	0xbecc6e69	-0.39927986
61	0x3e831369	0.25600746
62	0x3e2a44d0	0.16627812
63	0x3f910a30	1.1331234
64	0x3eefcac1	0.46834376
65	0xbe83ceff	-0.25743863
66	0xbdf2a1b6	-0.1184725
67	0xbf0f5381	-0.5598679
68	0x3d4aa86f	0.049477037
69	0xbeb07885	-0.3446695
70	0x3dadc97b	0.08485695
71	0x3db4d2ef	0.08829295
72	0xbe0b4887	-0.13601886
73	0xbe98850a	-0.29789
74	0x3f3e5fbb	0.74364823
75	0x3eeebc11	0.46627858
76	0xbe532029	-0.20617737
77	0x3f66be42	0.9013406
78	0xbf5363e1	-0.8257428
79	0x3e6ce760	0.23135138
80	0x3e30302f	0.1720588
81	0x3f964ac3	1.1741565
82	0xbe82c7ec	-0.25543153
83	0xbdd35c2e	-0.10320316
84	0xbe5fc510	-0.21852517
85	0x3e45666f	0.19277357
86	0xbe7eec6a	-0.24894872
87	0x3ed76e58	0.42076373
88	0xbe5e23a7	-0.21693288
89	0xbe54c9b6	-0.20780072
90	0x3eb15774	0.34637034
91	0x3ac2eb47	0.0014871144
92	0x3dc80e62	0.09768368
93	0xbea58988	-0.3233149
94	0xbe2a2071	-0.16613938
95	0x3fb7f444	1.4371419
96	0xbd641a8f	-0.05568939
97	0xbe075d60	-0.13219213
98	0xbdd4db00	-0.103933334
99	0xbed7e451	-0.4216638
100	0xbeaeb9ba	-0.34126073
101	0xbdb16a80	-0.086628914
102	0x3e692060	0.22766256
103	0xbcdf852c	-0.027285181
104	0x3e1f5d38	0.15562904
105	0x3df22fe7	0.11825543
106	0x3ed286de	0.4111852
107	0x3e3c9689	0.184168
108	0x3d0dddc5	0.034635324
109	0x3d51f4e4	0.051258937
110	0x3e4d3b34	0.20042115
111	0x3c586b90	0.013209239
112	0xbdf22cae	-0.11824928
113	0xbdd9ac3e	-0.10628556
114	0xbdfc22ec	-0.12311348
115	0xbddb2b08	-0.10701567
116	0xbe9ef654	-0.31047308
117	0xbd9ebd6e	-0.077509746
118	0xbd526914	-0.05136974
119	0x3da36aa0	0.079793215
120	0xbdbfdb12	-0.09367956
121	0xbe48cc84	-0.19609267
122	0x3daab6dc	0.08335659
123	0xbe789985	-0.24277313
124	0xbea51efc	-0.32250202
125	0x3defa84a	0.117020205
126	0xbdd9024d	-0.10596142
127	0xbd9bd748	-0.07609421
128	0xbd9f3eff	-0.077756874
129	0x3dcb319a	0.0992157
130	0xbd085554	-0.0332845
131	0xbe415dca	-0.18883434
132	0xbeb0266b	-0.3440431
133	0x3ce9f727	0.028560234
134	0xbe0a5f88	-0.13513005
135	0xbe010cab	-0.12602489
136	0xbe403e83	-0.18773846
137	0xbe3d7eb2	-0.18505362
138	0x3e55d7fe	0.20883176
139	0xbe59fcfb	-0.2128791
140	0xbe38356f	-0.17989133
141	0xbd814501	-0.063119896
142	0x3df56012	0.119812146
143	0xbe0cdf33	-0.13757019
144	0xbe88a9d3	-0.26692066
145	0xbd88149a	-0.066445544
146	0xbe1d9094	-0.15387183
147	0xbe3b6f9b	-0.18304293
148	0x3e137bb3	0.14402656
149	0xbe13925e	-0.14411303
150	0xbe005bc4	-0.12535006
151	0xbee0d408	-0.43911767
152	0xbe9641f4	-0.29347193
153	0xbe398c02	-0.18119815
154	0xbeb9e623	-0.36308393
155	0xbee0fe06	-0.43943805
156	0x3ca9b702	0.020717148
157	0x3dc3ed68	0.09566766
158	0xbe94adf5	-0.2903897
159	0xbe14c15c	-0.14526886
160	0xbdab755c	-0.08371994
161	0x3f130ceb	0.57441586
162	0x3e5ee9b6	0.21768841
163	0xbdcbd82d	-0.09953342
164	0x3f36c229	0.71390015
165	0x3c0c75a9	0.008572974
166	0x3b6a8928	0.0035787318
167	0xbc857c6c	-0.01629468
168	0xbee28414	-0.44241393
169	0xbf1c8959	-0.61147076
170	0xbd4749f0	-0.048654497
171	0x3d1edf85	0.038787384
172	0xbe069b69	-0.13145222
173	0x3e8fd019	0.28088453
174	0x3f848894	1.035418
175	0x3e410317	0.18848835
176	0x3e01b756	0.12667593
177	0xbe401f55	-0.18761952
178	0xbedd88cc	-0.4326843
179	0xbc12ed95	-0.008967777
180	0xbe400b4d	-0.18754311
181	0x3cd8d3f6	0.026468258
182	0x3dd2158e	0.102580175
183	0x3e0b868e	0.13625547
184	0xbe6da7bc	-0.23208517
185	0x3f40e976	0.75356233
186	0x3f37350f	0.71565336
187	0xbeab0e90	-0.33409548
188	0x3f7367b0	0.9508009
189	0xbf6b5f0a	-0.91941893
190	0x3e2c31ee	0.16815922
191	0xbe9419b6	-0.28925866
192	0x3dcc9618	0.099895656
193	0xbe3ada72	-0.18247393
194	0xbe47cda6	-0.19512042
195	0xbdf2b92c	-0.11851725
196	0xbca86ddb	-0.020560196
197	0xbe11cf75	-0.14239295
198	0x3edc099d	0.42976084
199	0xbdb497e7	-0.088180356
200	0xbc8a3ebc	-0.016875617
201	0x3e150ec8	0.1455642
202	0x3df51fdb	0.119689666
203	0xbdb679df	-0.08909964
204	0xbde97319	-0.11398906
205	0x3f13c84c	0.57727504
206	0x3f6b8c71	0.9201117
207	0xbc018620	-0.007905513
208	0xbe18b0bf	-0.14911173
209	0xbda83268	-0.08212739
210	0xbe8b4bf6	-0.2720639
211	0xbf2a0b62	-0.6642362
212	0xbe0c0b44	-0.13676172
213	0x3f12ec74	0.5739205
214	0x3d03cb65	0.032176394
215	0x3f53ce91	0.8273707
216	0xbe01b239	-0.12665643
217	0xbddb2154	-0.10699716
218	0xbd8a9dbc	-0.06768367
219	0x3e13568c	0.14388484
220	0xbdf9aa08	-0.12190634
221	0xbdb5e9e3	-0.08882501
222	0x3f0b11ad	0.54323846
223	0x3f153a72	0.58292305
224	0x3ca166d1	0.019702347
225	0x3ebdd81b	0.37078938
226	0xbd86b0a5	-0.06576661
227	0x3eee07c5	0.46490303
228	0xbeadf911	-0.33979085
229	0x3dfbb6a6	0.12290697
230	0x400a34ed	2.1594803
231	0x3fac20a9	1.3447467
232	0x3ff7abc5	1.9349295
233	0x3f48f555	0.78499347
234	0x3f835954	1.0261636
235	0xbf45f67d	-0.77329236
236	0x3f1209d3	0.5704624
237	0xbda3f711	-0.080061086
238	0xbe88b8c4	-0.26703465
239	0x3df52fcf	0.119720094
240	0x3f8b1bf2	1.0867903
241	0x3fb1e7bf	1.3898848
242	0xbeb7f899	-0.35931852
243	0xbe316408	-0.17323315
244	0x3d398863	0.045296084
245	0x3f2d7739	0.67760044
246	0x3fb78143	1.4336323
247	0x3f82a4bd	1.0206524
248	0x3e262673	0.16225605
249	0x3f092774	0.53575826
250	0xbd022f02	-0.03178311
251	0xbebb65a6	-0.3660099
252	0xbe5e08b2	-0.21683004
253	0x3e27e03a	0.1639413
254	0xbe45e242	-0.19324592
255	0x3d378ec7	0.044813897

gnn.convs.0.nn.lins.0.bias f4 [32]
0	0xbf03261d	-0.5123003
1	0x3ef30ec7	0.47472212
2	0xbe041058	-0.1289686
3	0x3d515db8	0.051114768
4	0x3e43da94	0.1912635
5	0xbeb81f89	-0.3596156
6	0xbdbae046	-0.09124808
7	0x3dd173d4	0.102271706
8	0xbe7c2f70	-0.24627471
9	0xbe24022f	-0.16016458
10	0xbdfe2c44	-0.12410787
11	0xbeae9253	-0.34096012
12	0x3d332718	0.043738455
13	0xbccf9798	-0.02534084
14	0xbe9ddfe7	-0.30834886
15	0xbe799143	-0.24371819
16	0xbe09eefe	-0.13470075
17	0xbe526ef4	-0.20550138
18	0xbeb09b5f	-0.3449354
19	0xbe1ee569	-0.155172
20	0xbe775b81	-0.24156
21	0xbd6c14f4	-0.05763717
22	0x3d1ff557	0.039052334
23	0x3f0e5da3	0.5561163
24	0x3e6ca946	0.23111448
25	0xbe10018c	-0.1406309
26	0xbe25734f	-0.16157268
27	0xbe0fdd5e	-0.14049289
28	0xbe1172ca	-0.14203945
29	0xbe35bedf	-0.17748593
30	0xbe278c1f	-0.16362046
31	0xbe398b31	-0.18119504

gnn.convs.0.nn.lins.1.weight f4 [32, 32]
0	0xbde85f5b	-0.113463126
1	0x3d60cf72	0.054885335
2	0x3e2634d4	0.1623109
3	0xbd80037a	-0.06250663
4	0x3d945470	0.07242668
5	0xbdf9e8b9	-0.122025914
6	0x3c51bf6c	0.012801986
7	0xbe4f7dad	-0.20262785
8	0x3d73386b	0.059379976
9	0xbe0cd4df	-0.13753079
10	0xbdfa9ffd	-0.122375466
11	0xbe55e8b3	-0.20889549
12	0x3da92990	0.082598805
13	0xbe521252	-0.20514801
14	0xbd689114	-0.056778982
15	0xbd7e56d0	-0.06209451
16	0xbdc05e5b	-0.09392997
17	0x3c20d75c	0.009816971
18	0x3d124697	0.03571185
19	0xbe14b9dc	-0.14524025
20	0xbe49ce2b	-0.19707553
21	0xbca9c4e7	-0.020723773
22	0xbd01b60e	-0.03166776
23	0xbe40c8c7	-0.1882659
24	0xbe52ab4e	-0.2057316
25	0x3dc5cb68	0.09657937
26	0xbcdaa955	-0.026692072
27	0x3d3075bb	0.043081027
28	0xbd6ea8b8	-0.05826637
29	0xbc9ce8a6	-0.019153904
30	0x3cc73aaf	0.024319975
31	0xbd77eb6e	-0.060527258
32	0xbd44cd69	-0.048047457
33	0xbd001610	-0.03127104
34	0xbe018139	-0.12646951
35	0x3da594ac	0.080849975
36	0xbe7f6d88	-0.24944127
37	0xbe3ee903	-0.18643574
38	0xbdf1d8ea	-0.11808951
39	0x3d5c18ce	0.053734593
40	0xbe689e56	-0.2271665
41	0xbdb0535a	-0.08609648
42	0xbdae1700	-0.08500481
43	0xbe182e7e	-0.14861485
44	0xbcdc29c1	-0.026875379
45	0xbdf94f8e	-0.12173377
46	0xbdae7792	-0.085189
47	0xbe2760c5	-0.16345508
48	0xbe607515	-0.21919663
49	0xbe135755	-0.14388783
50	0xbe5c5b05	-0.21519096
51	0x3dad42cf	0.08460008
52	0xbd9c9e33	-0.076473616
53	0xbd5e43a4	-0.054263726
54	0xbe3d4e0d	-0.18486805
55	0xbebb5baf	-0.36593387
56	0x3ddb78bc	0.10716388
57	0x3e1f6dac	0.1556918
58	0xbe660cae	-0.22465774
59	0xbe90aad5	-0.28255334
60	0x3d14c9ba	0.036325194
61	0x3dc0f797	0.09422224
62	0x3d64b88d	0.055840064
63	0xbda79ef6	-0.08184616
64	0xbf858e11	-1.043398
65	0xbd900a03	-0.070331596
66	0xbda88d6d	-0.082301
67	0xbe486b87	-0.19572268
68	0xbe74a1a2	-0.23889783
69	0xbf7417dc	-0.95348907
70	0x3ea5c824	0.32379258
71	0x3eb9bf29	0.36278656
72	0xbdd2a046	-0.10284476
73	0x3f09272c	0.53575397
74	0x3e87f425	0.26553455
75	0x3ec74db3	0.38926467
76	0x3e18ee4c	0.14934653
77	0x3d52f934	0.05150719
78	0x3f486598	0.7828002
79	0xbdb3c258	-0.087773025
80	0x3ef21673	0.47282752
81	0x3ee6bf6e	0.45067924
82	0xbf0cc3f5	-0.54986507
83	0xbe399e37	-0.1812676
84	0x3dd37595	0.10325161
85	0x3c799814	0.015234012
86	0xbf4b0689	-0.79306847
87	0xbe4e7691	-0.20162417
88	0x3f4a7696	0.790872
89	0x3de6144a	0.112343386
90	0x3eb90b02	0.3614121
91	0xbf24b193	-0.64333457
92	0x3eb0c733	0.34526977
93	0x3f064d2e	0.52461517
94	0xbe4e1562	-0.20125344
95	0x3e1ee5dd	0.15517373
96	0x3e2186c8	0.15774071
97	0xbc203b67	-0.009779788
98	0xbe225264	-0.15851742
99	0x3d4839fd	0.048883427
100	0xbe3942dc	-0.18091911
101	0x3c43b00a	0.011943826
102	0x3d3a226f	0.045442995
103	0xbe012c91	-0.12614657
104	0xbddc046d	-0.10743032
105	0xbde918d3	-0.11381688
106	0xbeb22cd2	-0.3479982
107	0xbe4adb37	-0.19810186
108	0xbe58cb70	-0.21171355
109	0xbe4072a6	-0.18793735
110	0xbdf9918b	-0.12185963
111	0x3de9bd49	0.114130564
112	0xbe34e83f	-0.1766672
113	0x3d555c36	0.052089892
114	0xbd59d239	-0.053179
115	0xbe114dc8	-0.14189827
116	0x3dddee54	0.10836473
117	0x3d4b9a44	0.049707666
118	0xbea32d15	-0.31870332
119	0xbd5f87af	-0.054572757
120	0xbe0d98fd	-0.13827892
121	0x3d4c7860	0.049919486
122	0xbd39eb65	-0.045390505
123	0xbe382239	-0.17981805
124	0xbe4c6125	-0.19958933
125	0xbd719eb2	-0.058989234
126	0xbe1d3487	-0.15352069
127	0xbdce6009	-0.10076911
128	0xbefaa14b	-0.48951182
129	0xbbdca6de	-0.0067337593
130	0x3df13eb5	0.117795385
131	0xbd9a2314	-0.07526222
132	0xbe2999b3	-0.16562538
133	0xbf0f7087	-0.5603108
134	0x3e1f1b99	0.15537871
135	0xbecde39a	-0.4021271
136	0xbeac1f3f	-0.3361759
137	0xbe8dc3a2	-0.27688318
138	0xbebc9a23	-0.36836347
139	0x3e9a1d91	0.30100682
140	0xbc9d6fbd	-0.01921832
141	0x3ce5327b	0.027978173
142	0x3d0108c8	0.031502515
143	0xbe155848	-0.14584458
144	0x3d1343fd	0.03595351
145	0xbe80bda6	-0.2514469
146	0xbf0ffd74	-0.56246114
147	0x3d81a214	0.06329742
148	0x3c92e191	0.017929824
149	0xbdd39ff7	-0.10333245
150	0xbe956639	-0.29179552
151	0xbec79c0f	-0.3898625
152	0xbe0e34a8	-0.13887274
153	0x3da4e44f	0.08051359
154	0x3e109d53	0.14122514
155	0xbe40ae44	-0.18816477
156	0xbdb27811	-0.08714307
157	0x3e01b505	0.1266671
158	0xbd2e7647	-0.042593267
159	0x3d65eb65	0.056132693
160	0x3d67aed5	0.056563217
161	0xbe687f16	-0.2270473
162	0xbdce1a50	-0.100636125
163	0xbe00d95e	-0.12582919
164	0xbc07e827	-0.0082950955
165	0xbd83f33c	-0.06442878
166	0xbe5d6c3d	-0.21623321
167	0xbddcb7d5	-0.10777251
168	0x3d1239cd	0.035699654
169	0x3cbeeb91	0.023305686
170	0xbdc9ddd1	-0.09856761
171	0xbc803c48	-0.015653744
172	0x3d805a21	0.06267191
173	0xbd6d710c	-0.057969138
174	0x3cd049cc	0.025425814
175	0x3c37e9e6	0.011225199
176	0xbd7e860b	-0.062139552
177	0xbddb975d	-0.1072223
178	0x3b074f33	0.0020646572
179	0xbd29c4d5	-0.04144748
180	0xbd487286	-0.048937343
181	0xbdf2e8c1	-0.118608005
182	0xbe4fd0d9	-0.20294513
183	0xbe068dd8	-0.13140047
184	0xbdf65ced	-0.12029443
185	0xbddb347a	-0.107033685
186	0x3d9a16eb	0.075239025
187	0xbd7a2a91	-0.06107575
188	0x3d0f1c3b	0.034939032
189	0x3e11a1a8	0.14221823
190	0x3e0962f8	0.1341666
191	0xbdd9499b	-0.10609742
192	0x3d9fe9e0	0.0780828
193	0xbe131481	-0.1436329
194	0xbe48df37	-0.196164
195	0x3d08c113	0.033387255
196	0x3dee93b9	0.116492696
197	0xbe72d26c	-0.23713082
198	0xbddc3dfd	-0.10754011
199	0xbe5218d0	-0.20517278
200	0xbe5e5009	-0.21710218
201	0xbe5aee2f	-0.21379922
202	0xbe0c968f	-0.13729309
203	0xbc46fd2f	-0.012145325
204	0x3c8d38c1	0.017238976
205	0x3db451ae	0.08804642
206	0x3d81721d	0.063205935
207	0xbe1459dd	-0.14487405
208	0xbd41dc78	-0.047329396
209	0xbe5a09a8	-0.21292746
210	0x3dbd6990	0.0924865
211	0xbd048c7c	-0.03236054
212	0x3d83a978	0.06428808
213	0xbe28b4c8	-0.16475213
214	0xbc0cc7d9	-0.008592569
215	0xbe8a8da3	-0.27061185
216	0x3d70f448	0.058826715
217	0xbd092d44	-0.033490434
218	0xbd957cab	-0.07299169
219	0xbe4833b5	-0.19550975
220	0x3d5d9967	0.054101374
221	0x3d312185	0.043244857
222	0xbd66ac69	-0.056316767
223	0xbd76cecc	-0.06025581
224	0xbe31378b	-0.17306344
225	0xbe016301	-0.12635423
226	0xbe3db077	-0.18524347
227	0xbe5b2b7a	-0.21403304
228	0xbe13f660	-0.14449453
229	0xbe35254a	-0.17690006
230	0xbd870963	-0.06593587
231	0x3de7265e	0.11286615
232	0xbe0a540f	-0.13508628
233	0xbe5ed957	-0.21762596
234	0xbd0a9064	-0.033829108
235	0x3d203180	0.039109707
236	0x3d566142	0.052338846
237	0xbdf8443e	-0.12122391
238	0xbd65e36c	-0.05612509
239	0xbda74b0c	-0.08168611
240	0xbe5fafa8	-0.21844351
241	0xbdb6e241	-0.08929873
242	0xbdc59e2b	-0.09649309
243	0x3ddee836	0.108841345
244	0x3d764fe6	0.06013479
245	0xbe509b2c	-0.20371693
246	0xbe82b35d	-0.25527468
247	0xbed73670	-0.4203372
248	0xbd8fb8e6	-0.070176885
249	0x3dac9f0b	0.084287725
250	0xbe0c6c18	-0.1371311
251	0xbeb03f0e	-0.34423107
252	0xbe6e8b39	-0.23295297
253	0xbe48f217	-0.196236
254	0xbcde0e0b	-0.027106306
255	0xbe651742	-0.22372153

gnn.convs.0.nn.lins.1.bias f4 [32]
0	0xbe148bfb	-0.14506523
1	0x3d927541	0.07151271
2	0xbf037920	-0.513567
3	0xbe506d75	-0.20354255
4	0xbd92ce34	-0.071682364
5	0x3dcd46ca	0.100232676
6	0xbcf98d06	-0.030462753
7	0x3d364091	0.04449517
8	0x3d924287	0.07141595
9	0x3c275701	0.010213614
10	0xbdb70b3e	-0.08937691
11	0x3d13be97	0.036070433
12	0xbe734700	-0.23757553
13	0xbf19ec46	-0.6012615
14	0xbe554ad2	-0.20829323
15	0xbf1196f4	-0.5687096
16	0xbe362d4e	-0.1779072
17	0x3e698fd0	0.22808766
18	0xbe7c339a	-0.2462906
19	0x3d2b75f9	0.041860554
20	0x3cd91a3a	0.026501764
21	0xbdf6b9e2	-0.12047173
22	0xbed849cd	-0.42243806
23	0x3b6f27ce	0.0036492231
24	0x3c1a90ff	0.009433984
25	0xbefe36a9	-0.49651077
26	0xbcab3dae	-0.020903435
27	0xbe468076	-0.19384941
28	0xbeabc182	-0.33546072
29	0x3c9e1c7a	0.019300688
30	0xbda754d6	-0.08170478
31	0xbe8058bf	-0.25067708

gnn.convs.1.nn.lins.0.weight f4 [32, 32]
0	0xbdeca422	-0.11554743
1	0x3cd9df59	0.026595758
2	0xbe199f99	-0.15002288
3	0xbc6797e6	-0.0141353365
4	0xbe1b235d	-0.15150209
5	0xbd29c258	-0.041445106
6	0x3d9b711e	0.07589935
7	0x3d4f252a	0.05057255
8	0xbd119708	-0.035544425
9	0x3d6868f0	0.0567407
10	0x3e253a6e	0.1613557
11	0xbf2a6dab	-0.6657359
12	0xbec621fb	-0.386978
13	0x3e2dffa7	0.16992055
14	0x3dec9a9a	0.115529254
15	0xbde2840a	-0.11060341
16	0xbd99f982	-0.07518293
17	0x3dcc59d3	0.0997807
18	0x3d21eca9	0.039532337
19	0x3dcf2fff	0.101165764
20	0xbe62b149	-0.22137941
21	0xbe3c51af	-0.18390535
22	0x3eeddbcc	0.46456754
23	0xbefa8483	-0.48929223
24	0xbd0e1ae6	-0.03469362
25	0xbdbb0108	-0.09131056
26	0xbf2c1693	-0.67221946
27	0xbe60bfcd	-0.21948166
28	0xbe1eaecf	-0.15496372
29	0x3dc85dfa	0.097835496
30	0xbd613908	-0.05498603
31	0xbde04099	-0.10949821
32	0x3d5e6475	0.054295022
33	0x3de4d9c6	0.111743495
34	0xbc12f56d	-0.008969647
35	0xbdf7694f	-0.12080633
36	0xbed7ed9d	-0.42173472
37	0xbda45dab	-0.08025678
38	0xbd84dcfd	-0.06487463
39	0x3d1cc900	0.038277626
40	0x3cf47634	0.02984152
41	0xbb8b3523	-0.0042482777
42	0x3d1debbe	0.0385549
43	0x3e097b70	0.13425994
44	0xbd4829ae	-0.048867874
45	0x3e3627a6	0.17788562
46	0x3de4d9b5	0.11174337
47	0xbcbf35a7	-0.023341013
48	0xbd72251e	-0.05911743
49	0x3e82c610	0.25541735
50	0xbe34ba3d	-0.1764917
51	0x3cbb08ed	0.022831405
52	0x3e113b64	0.14182812
53	0x3cfdfb48	0.03100361
54	0xbe8788ed	-0.26471654
55	0x3b3da541	0.002893761
56	0x3e3556d6	0.17708907
57	0xbec43ce9	-0.3832772
58	0x3e469fe6	0.19396934
59	0x3d8c7bd4	0.06859556
60	0xbee371dd	-0.44422808
61	0x3d928500	0.07154274
62	0xbeb5b4da	-0.3548954
63	0xbd2bd379	-0.041949723
64	0x3ce2a731	0.027667614
65	0xbdb78470	-0.08960807
66	0x3acea737	0.0015766387
67	0x3d23c615	0.039983828
68	0xbcbfeb04	-0.023427494
69	0xbe33709a	-0.17523423
70	0xbd5759d8	-0.052575916
71	0x3cb5fd74	0.022215582
72	0x3b8b6a2f	0.0042546014
73	0xbde3d8b6	-0.11125319
74	0x3df19751	0.117964394
75	0xbea1d186	-0.31605166
76	0x3de3da58	0.1112563
77	0xbdbc0640	-0.091808796
78	0x3bb11744	0.005404385
79	0xbd6a4b3f	-0.057200667
80	0x3d89cfd2	0.06729092
81	0xbd49ed08	-0.049298316
82	0xbdadc7ce	-0.08485375
83	0x3d4b8659	0.04968867
84	0xbd4677a0	-0.048453927
85	0x3d382927	0.04496112
86	0xbe3b6d03	-0.18303303
87	0xbd624bf5	-0.05524822
88	0x3d1538b8	0.036431044
89	0xbe8c94d0	-0.27457285
90	0xbe3caa29	-0.18424286
91	0xbe0292d8	-0.12751329
92	0x3db8ad29	0.09017403
93	0xbe11b61f	-0.1422963
94	0xbd330b1f	-0.043711778
95	0x3d86e87a	0.0658731
96	0x3e899d81	0.26877978
97	0x3cf2262d	0.02955922
98	0x3f3692d3	0.71317786
99	0x3d91b969	0.07115442
100	0x3d850e92	0.0649692
101	0xbdf05ee0	-0.11736846
102	0x3d589dd6	0.0528849
103	0x3e20eb9e	0.15714881
104	0xbd1ce8c6	-0.038307928
105	0x3ef2573e	0.47332186
106	0x3dfe10a4	0.12405518
107	0x3e285144	0.1643725
108	0x3db6a6a5	0.08918504
109	0xbf9b7757	-1.2145795
110	0xbdea6810	-0.114456296
111	0xbee6bd69	-0.45066383
112	0xbe9be299	-0.30446318
113	0x3ea4e8a9	0.32208756
114	0xbd01fc7c	-0.03173493
115	0x3e82058d	0.2539486
116	0x3d05ccfd	0.032666195
117	0xbceda1fa	-0.0290079
118	0xbf8560e8	-1.0420198
119	0x3e820057	0.25390884
120	0xbda73427	-0.08164244
121	0xbed2b533	-0.4115387
122	0x3e49d346	0.197095
123	0x3cd6fca2	0.026243512
124	0x3dd1eebb	0.10250612
125	0x3e838006	0.25683612
126	0x3edd3ef2	0.43212086
127	0x3dfa4cc7	0.12221675
128	0xbcef2084	-0.02919031
129	0xbc989c60	-0.018629253
130	0x3dc9c8d4	0.09852758
131	0xbd93cc45	-0.07216696
132	0xbdc3d1bb	-0.09561487
133	0xbdd9c5e1	-0.106334455
134	0xbd6deae9	-0.058085356
135	0x3d656fa5	0.056014676
136	0xbd7d834e	-0.0618928
137	0x3d1666a9	0.036718998
138	0x3d0ffbfa	0.035152413
139	0xbebea2e0	-0.3723364
140	0x3ebec2eb	0.37258086
141	0xbd06f1d9	-0.032945488
142	0x3e292c57	0.1652082
143	0xbe74d96d	-0.23911066
144	0x3aad7bf3	0.0013235792
145	0x39d1f0a0	0.00040042866
146	0x3df819e9	0.12114317
147	0x3e0407be	0.12893578
148	0xbc857fd6	-0.016296308
149	0x3e06d868	0.1316849
150	0xbe4a9e64	-0.19786984
151	0xbee8f36b	-0.45498213
152	0x3cde9b52	0.027173672
153	0xbe754852	-0.2395337
154	0xbea81b04	-0.3283311
155	0x3d9a7a85	0.075429
156	0x3e8043d1	0.2505174
157	0x3e71f200	0.23627472
158	0xbe94232b	-0.2893308
159	0x3d566641	0.05234361
160	0x3d524925	0.051339287
161	0xbdb6cc42	-0.08925678
162	0xbe0d37ed	-0.13790865
163	0x3e60e425	0.2196203
164	0xbdfba536	-0.12287371
165	0xbdf31861	-0.11869884
166	0xbc60811c	-0.013702657
167	0x3e7b40cf	0.24536441
168	0xbe1bf804	-0.15231329
169	0xbdf9db17	-0.12199991
170	0x3cac6184	0.021042593
171	0xbe980836	-0.29693764
172	0x3da00246	0.078129336
173	0xbe81141d	-0.25210658
174	0xbc953035	-0.018211463
175	0xbe72a45c	-0.2369551
176	0x3dc52810	0.09626782
177	0xbe3772de	-0.17914912
178	0xbd4f3841	-0.050590757
179	0xbe241691	-0.16024233
180	0x3e16d066	0.14727935
181	0x3e0eac32	0.13932875
182	0xbdb484ec	-0.08814415
183	0xbe33a8b8	-0.1754483
184	0x3cb52b3d	0.022115344
185	0xbd8d209f	-0.068909876
186	0xbe888ba5	-0.2666904
187	0x3d54eeda	0.0519856
188	0xbd5560f8	-0.05209443
189	0xbe1cb505	-0.15303428
190	0xbe4baafc	-0.19889444
191	0x3daf704c	0.08566341
192	0xbd984927	-0.07435828
193	0x3e3ede77	0.18639551
194	0xbe13593d	-0.1438951
195	0x3dcf8ba6	0.10134058
196	0xbce0b41c	-0.027429633
197	0xbe034fe2	-0.12823442
198	0xbdd9d6fb	-0.106367074
199	0xbd4f4d05	-0.05061056
200	0xbc5a4496	-0.013322016
201	0x3d477977	0.048699822
202	0x3b502acd	0.0031763793
203	0xbd50b118	-0.05095014
204	0xbdfc32bb	-0.123143636
205	0xbda9cfc2	-0.0829158
206	0xbdf730d8	-0.12069863
207	0x3d1ec9a5	0.038766522
208	0xbe078d47	-0.13237487
209	0xbe62c194	-0.22144157
210	0x3db76141	0.089540966
211	0xbe38ca22	-0.18045858
212	0xbdd8e479	-0.10590453
213	0x3e17233f	0.14759539
214	0xbdb40afc	-0.087911576
215	0xbe003d5f	-0.12523411
216	0x3d44b8d2	0.04802782
217	0xbece3fb1	-0.40282968
218	0xbd5cc6b5	-0.05390044
219	0x3d367607	0.044546153
220	0xbc9cadcb	-0.01912584
221	0xbdb6f076	-0.08932583
222	0xbda1d9fb	-0.079029046
223	0x3e0b6c64	0.13615566
224	0xbd1860c1	-0.037201647
225	0x3c6af34c	0.014340233
226	0x3d983cfe	0.07433508
227	0xbd3edebb	-0.04659913
228	0xbc0484f8	-0.008088343
229	0xbdce459f	-0.10071873
230	0xbde0c550	-0.109751344
231	0xbc2a8a6a	-0.010408977
232	0xbd534901	-0.051583294
233	0xbe2463fb	-0.16053765
234	0x3de6f755	0.112776436
235	0xbe2abafe	-0.16672894
236	0x3e9e7c67	0.30954286
237	0xbe676ea0	-0.22600794
238	0x3ccafb8d	0.024778152
239	0x3d4956a0	0.049154878
240	0xbdd67047	-0.10470634
241	0xbeb067b0	-0.34454107
242	0x3dfa0b43	0.12209179
243	0xbd12f85d	-0.03588139
244	0x3e3816f9	0.17977513
245	0x3da9f98e	0.08299552
246	0xbe18b569	-0.14912952
247	0xbe612212	-0.21985653
248	0xbdf8f677	-0.121563844
249	0xbdb573fd	-0.08860014
250	0xbea47e5e	-0.3212766
251	0x3dd89bc2	0.105765834
252	0xbea0eaa9	-0.31429031
253	0xbedd77c2	-0.4325543
254	0xbea1d327	-0.3160641
255	0xbdacb0d1	-0.084321626

gnn.convs.1.nn.lins.0.bias f4 [32]
0	0xbd8998d8	-0.06718606
1	0x3da99b5a	0.08281584
2	0xbe6c746d	-0.23091288
3	0x3e14a87f	0.14517401
4	0xbcd7f165	-0.026360223
5	0xbe2eb01c	-0.17059368
6	0xbe013708	-0.12618649
7	0x3f03bd15	0.5146039
8	0xbe72b40a	-0.23701492
9	0x3d03be43	0.03216387
10	0xbe90fef0	-0.28319502
11	0x3e665937	0.2249497
12	0x3f082591	0.5318232
13	0x3f122d52	0.57100403
14	0x3e3bad19	0.1832775
15	0xbe015da7	-0.12633382
16	0x3f072566	0.5279144
17	0xbde8492c	-0.113420814
18	0x3f011d91	0.5043574
19	0xbd65089b	-0.05591641
20	0x3ef60e18	0.48057628
21	0x3e2a3ec2	0.16625503
22	0xbe8a4924	-0.27008927
23	0xbef4b5a9	-0.47794846
24	0xbe8e8625	-0.2783672
25	0xbc12e376	-0.008965364
26	0xbe7970b2	-0.24359396
27	0xbc16611a	-0.009178424
28	0x3f3fcc04	0.7492068
29	0xbed6fbac	-0.41988885
30	0x3ed18dbb	0.40928444
31	0xbe1eddaa	-0.15514246

gnn.convs.1.nn.lins.1.weight f4 [32, 32]
0	0xbcf38a3b	-0.029729
1	0xbe2851bb	-0.16437428
2	0x3dd3e79e	0.10346912
3	0xbd2ac787	-0.04169419
4	0xbe483f9f	-0.1955552
5	0xbdc755cb	-0.097331606
6	0x3e23f6fb	0.16012184
7	0xbdcdadba	-0.10042901
8	0xbe4f6bea	-0.2025601
9	0xbe01e0be	-0.12683389
10	0xbe2c0afd	-0.16801067
11	0x3daa23df	0.08307623
12	0xbd3e3c7a	-0.046444394
13	0x3daef07c	0.085419625
14	0x3d9e9de7	0.07744961
15	0xbe23e016	-0.16003451
16	0xbdaa2372	-0.08307542
17	0xbdda9630	-0.10673177
18	0xbdde5227	-0.10855513
19	0xbc10e979	-0.008844727
20	0xbe0d6b95	-0.1381057
21	0x3dd711a3	0.10501411
22	0x3c1254ed	0.008931381
23	0xbe0c3b7d	-0.13694568
24	0xbd3c5a57	-0.045984592
25	0x3c3d4dea	0.011554221
26	0x3da355f3	0.07975378
27	0xbe727bbb	-0.23680012
28	0xbe3c7693	-0.18404607
29	0xbe675410	-0.22590661
30	0xbd801697	-0.06254309
31	0xbe01e19d	-0.12683721
32	0x3da8a3a8	0.0823434
33	0xbd79cb76	-0.06098505
34	0xbda1c529	-0.078989334
35	0xbec3b9d8	-0.38227725
36	0xbe30700e	-0.17230245
37	0x3efe24f7	0.49637577
38	0xbccc2fae	-0.02492508
39	0xbdc51102	-0.096223846
40	0xbde14a5c	-0.11000511
41	0x3e25a1a8	0.16174948
42	0xbed3ff7b	-0.41405854
43	0xbdb0563a	-0.086101964
44	0xbe3fe469	-0.18739475
45	0xbe8b4f48	-0.27208924
46	0xbd145b49	-0.03621987
47	0xbd88384e	-0.06651364
48	0xbe80f55c	-0.25187194
49	0x3d89f852	0.067368165
50	0xbc3ca089	-0.011512884
51	0x3e2338b5	0.15939601
52	0xbcf06771	-0.0293462
53	0x3dcfcce3	0.10146501
54	0xbdd004a7	-0.10157137
55	0x3e45ea7a	0.19327727
56	0xbe22a86a	-0.15884557
57	0xbde9a082	-0.114075676
58	0x3d6a9670	0.057272375
59	0xbdebb5b3	-0.11509266
60	0xbf18de58	-0.5971427
61	0xbed745fd	-0.42045584
62	0xbe8bb296	-0.27284688
63	0xbdbe7893	-0.093003415
64	0xbd80c644	-0.06287816
65	0x3dc1c61d	0.09461615
66	0x3dd139ff	0.1021614
67	0xbe4511e3	-0.19245104
68	0xbc5d6a9b	-0.013514186
69	0x3db3aa83	0.08772757
70	0xbd1d8544	-0.03845717
71	0xbe2c08ac	-0.16800183
72	0xbc7c2aac	-0.015391033
73	0xbc9ec3e9	-0.019380527
74	0xbd6d8bfc	-0.057994828
75	0x3c94c44d	0.01816001
76	0x3e03bdc4	0.12865359
77	0xbe8d24c8	-0.27567124
78	0xbe39543e	-0.18098542
79	0xbd5aa72b	-0.05338208
80	0xbe504eea	-0.20342603
81	0x3ddee3c4	0.108832866
82	0xbe76d6c5	-0.24105366
83	0x3d6966cd	0.056982804
84	0xbb51e3f8	-0.003202675
85	0xbdc821c1	-0.09772063
86	0xba8c8724	-0.0010721427
87	0xbec84fae	-0.3912329
88	0xbd550c6d	-0.052013803
89	0x3d6da544	0.058018938
90	0xbd03eb36	-0.032206737
91	0xbe3f6107	-0.18689357
92	0x3d6672ac	0.056261703
93	0xbdb1ee6c	-0.086880535
94	0xbd892900	-0.06697273
95	0xbdd03501	-0.1016636
96	0x3d56a9c8	0.05240801
97	0xbe1c5322	-0.15266088
98	0x3def6a81	0.11690236
99	0x3f12cdc6	0.57345235
100	0x3d843304	0.06455043
101	0xbb91bcf9	-0.004447576
102	0xbd0c23a6	-0.034213684
103	0xbe9aedbb	-0.302595
104	0x3e390e18	0.18071783
105	0x3e3c12eb	0.18366592
106	0xbe0206e6	-0.12697944
107	0xbdb4be4b	-0.08825358
108	0xbf573aa0	-0.8407383
109	0x3ebf3d7a	0.3735159
110	0xbe9b31d9	-0.30311468
111	0xbe6d4a3d	-0.23172851
112	0x3f1dc28d	0.61624986
113	0x3e6a3232	0.2287071
114	0x3e2eb351	0.17060591
115	0xbe079a05	-0.13242348
116	0x3e9db57d	0.30802527
117	0x3d20059a	0.039067842
118	0x3d4817e6	0.048850916
119	0xbe404c11	-0.18779017
120	0xbefe55b0	-0.4967475
121	0xbe3ed08c	-0.18634242
122	0xbe574590	-0.2102263
123	0xbe3f1eee	-0.18664142
124	0xbf960b56	-1.172221
125	0xbe953deb	-0.29148802
126	0x3e4f28ff	0.20230483
127	0xbde5a28e	-0.112126455
128	0x3cb66405	0.02226449
129	0xbcb35e46	-0.021895539
130	0x3e43fbdf	0.1913905
131	0xbe013986	-0.126196
132	0x3e406fb9	0.18792619
133	0xbe1068c8	-0.14102471
134	0x3e621fd9	0.22082461
135	0xbc477e44	-0.0121761
136	0x3e62ec02	0.22160342
137	0xbcc3d70f	-0.023906259
138	0x3d4257f4	0.04744716
139	0x3e45603e	0.19274995
140	0xbd060653	-0.032720875
141	0x3e234fe2	0.15948442
142	0x3e17da2b	0.14829318
143	0x3bb4cd41	0.0055176322
144	0xbe45fd0e	-0.19334814
145	0x3dc2b777	0.095076494
146	0xbd2bde54	-0.041960075
147	0x3d4c1668	0.049826056
148	0xbd50fbd6	-0.05102142
149	0x3e7c5536	0.2464188
150	0x3be2d6ed	0.006922594
151	0xbee6848c	-0.45023
152	0xbe3d0727	-0.1845976
153	0x3e1d1f2a	0.1534392
154	0x3e752b98	0.23942411
155	0x3e369ac9	0.17832483
156	0x3c8849c1	0.016636731
157	0xbde280e2	-0.11059739
158	0xbe621e5c	-0.22081894
159	0x3d9d7f88	0.0769034
160	0xbd86ba28	-0.06578475
161	0x3cee5786	0.029094469
162	0x3b06227a	0.0020467327
163	0x3d991408	0.07474524
164	0xbe071d22	-0.13194707
165	0x3d9cb4ec	0.076516956
166	0xbd80024f	-0.0625044
167	0x3d178d5e	0.037000053
168	0xbe0ba7b4	-0.13638192
169	0x3d8a6f95	0.06759564
170	0xbd99649d	-0.074898936
171	0xbe02e208	-0.12781537
172	0x3d3da7a2	0.046302445
173	0xbe3e0499	-0.18556441
174	0x3d822a78	0.063557565
175	0x3d3a57b2	0.04549379
176	0x3d8589f9	0.06520457
177	0xbcbf5fee	-0.023361173
178	0xbe23505a	-0.1594862
179	0xbe7ec19b	-0.24878542
180	0xbdd48ac4	-0.1037803
181	0xbe4d9630	-0.20076823
182	0xbe10a9b8	-0.14127243
183	0xbec3f3c3	-0.38271913
184	0xbda29818	-0.07939166
185	0xbd9bb785	-0.07603363
186	0xbde1d620	-0.11027169
187	0x3cf99a78	0.030469164
188	0xbe211837	-0.15731893
189	0xbd003fb0	-0.031310737
190	0xbe323783	-0.17403989
191	0x3e354902	0.17703632
192	0x3d2fef05	0.042952556
193	0xbdc5769b	-0.09641763
194	0xbc7c7af3	-0.015410173
195	0xbe22e37a	-0.15907088
196	0xbe3c0620	-0.18361712
197	0x3db8a126	0.090151116
198	0x3c991573	0.018686986
199	0xbdcfd842	-0.1014867
200	0xbe1f9caa	-0.15587106
201	0xbdeb70f7	-0.11496156
202	0xbd9d073b	-0.07667395
203	0xbdc27243	-0.0949445
204	0x3caae2ee	0.020860162
205	0xbe18de0d	-0.14928456
206	0x3ce810a8	0.028328255
207	0xbdbc7592	-0.09202112
208	0xbc1d0e88	-0.009585984
209	0x3e17b088	0.14813435
210	0xbe371887	-0.1788045
211	0xbd09632e	-0.03354185
212	0xbd1691ac	-0.036760017
213	0x3d1ad200	0.037797928
214	0xbe1fe601	-0.15615083
215	0x3badd72e	0.0053051924
216	0xbe16d3c5	-0.14729221
217	0x3d33eb92	0.04392583
218	0x3db303d7	0.08740967
219	0xbd61f3cd	-0.055164147
220	0xbe21092a	-0.15726152
221	0xbe653f2d	-0.22387381
222	0xbe3161dd	-0.17322488
223	0x3d831ef7	0.064023905
224	0xbe0013a6	-0.12507495
225	0xbc8f8c34	-0.017522909
226	0xbcd686b3	-0.026187276
227	0x3d07eb2f	0.033183273
228	0x3d8bb9fb	0.06822582
229	0x3e0531c4	0.13007265
230	0x3dc8a14a	0.097963884
231	0x3e42f0a8	0.19037116
232	0xbdb7fcef	-0.0898379
233	0x3d9c269a	0.0762455
234	0xbd31a598	-0.043370813
235	0xbe040672	-0.12893084
236	0xbda5ec63	-0.08101728
237	0xbea26d9b	-0.31724247
238	0x3de62105	0.11236767
239	0x3d0afd2e	0.033932857
240	0xbdad8d14	-0.08474174
241	0xbc9db19a	-0.019249726
242	0xbda2d935	-0.07951585
243	0x3ddbc0c0	0.107301235
244	0xbe90d208	-0.2828524
245	0xbd8321cd	-0.06402931
246	0x3e0e7b50	0.13914227
247	0xbd06d928	-0.03292194
248	0x3db9aebd	0.09066532
249	0xbe473e84	-0.19457442
250	0xbe66f125	-0.22552927
251	0xbe5fb110	-0.21844888
252	0xbebdf251	-0.37098935
253	0xbdcb9805	-0.09941105
254	0xbecd48db	-0.40094647
255	0xbd2d6ea4	-0.042341843

gnn.convs.1.nn.lins.1.bias f4 [32]
0	0xbe03dccb	-0.12877195
1	0xbdebe989	-0.11519153
2	0xbe0a247d	-0.13490482
3	0x3df9a979	0.121905275
4	0x3e627299	0.22114028
5	0xbdd64d3b	-0.10463949
6	0xbe5a55cc	-0.21321791
7	0x3cf4ba74	0.029874064
8	0x3ea9d207	0.3316805
9	0x3e0e765e	0.13912341
10	0x3dddaee3	0.108243726
11	0xbe763a41	-0.2404566
12	0x3e14169e	0.14461753
13	0x3d90b9f9	0.070667215
14	0x3eb5b7b6	0.35491723
15	0x3d8c0cac	0.068383545
16	0x3dd2d76b	0.10294994
17	0xbe43e5bd	-0.19130607
18	0xbeba7f57	-0.36425278
19	0x3def8701	0.11695672
20	0xbe0180b6	-0.12646756
21	0xbc92ed2f	-0.017935364
22	0x3d6d4c11	0.05793387
23	0x3e485056	0.19561896
24	0x3df9f716	0.12205331
25	0xbec1a97a	-0.37824613
26	0x3e947a33	0.2899948
27	0x3df33a42	0.11876346
28	0xbd8939a3	-0.067004465
29	0xbdd658fd	-0.10466192
30	0x3dd58b39	0.10426945
31	0x3d2e3026	0.042526387

gnn.convs.2.nn.lins.0.weight f4 [32, 32]
0	0xbe2916c6	-0.16512594
1	0xbc6f84cf	-0.014619066
2	0x3c8ff02f	0.017570583
3	0xbdde6cc8	-0.10860592
4	0x3d565dd8	0.05233559
5	0x3d236026	0.039886616
6	0x3dc42415	0.095771946
7	0x3d81bd4a	0.06334932
8	0xbe959ff6	-0.29223603
9	0xbc2f15cc	-0.010686349
10	0xbd80fa75	-0.06297771
11	0x3d89bd64	0.067255765
12	0x3ea5d724	0.32390702
13	0x3e86f867	0.2636139
14	0xbea96f1e	-0.33092588
15	0xbe37666c	-0.17910165
16	0xbd646f4c	-0.055770203
17	0xbe18c259	-0.14917888
18	0xbf4d8bea	-0.80291617
19	0xbd2718d9	-0.04079518
20	0x3e609849	0.21933092
21	0xbcfc1b62	-0.030774776
22	0x3d27697e	0.04087209
23	0x3d1e8d19	0.03870878
24	0xbe0138bc	-0.12619299
25	0x3cb01613	0.0214949
26	0xbc0cd006	-0.0085945185
27	0xbd131857	-0.035911884
28	0x3e13dc99	0.1443962
29	0xbe6fa251	-0.23401763
30	0x3e314ccc	0.17314452
31	0xbe1f140c	-0.15534991
32	0xbdd21616	-0.10258119
33	0xbe1ac5ab	-0.15114467
34	0xbe6e0809	-0.23245253
35	0xbe438185	-0.19092377
36	0x3dfb10ea	0.122590855
37	0xbe23e8ea	-0.16006818
38	0x3b4da8a5	0.0031381038
39	0xbe34abb8	-0.1764363
40	0xbe5628be	-0.2091398
41	0xbea03be0	-0.3129568
42	0xbd7047a3	-0.058662068
43	0x3e809846	0.25116175
44	0x3e28b4e6	0.16475257
45	0x3df93b1f	0.121694796
46	0x3b7beefe	0.003844201
47	0x3d99f947	0.07518249
48	0x3ca0bd79	0.019621598
49	0xbd454718	-0.048163503
50	0xbd270bf9	-0.040782902
51	0x3d53e3c3	0.051730882
52	0x3e2ca193	0.1685851
53	0xbdacbf92	-0.08434977
54	0x3e0a6451	0.1351483
55	0xbdb0e708	-0.08637816
56	0x3c03a99e	0.008036045
57	0xbbc0bffb	-0.005882261
58	0xbd9f6d1d	-0.077844836
59	0x3dfd76b6	0.12376158
60	0xbe1e0e51	-0.15435149
61	0x3de37ee9	0.111081906
62	0x3e239031	0.15972973
63	0x3d70ce1c	0.05879031
64	0xbe852db1	-0.26011422
65	0xbe9693f0	-0.29409742
66	0xbe500e6a	-0.20317999
67	0x3ee5a141	0.4484959
68	0xbeaa8137	-0.33301708
69	0xbef1319b	-0.47108158
70	0xbd6cf4d0	-0.05785066
71	0xbee8fbd7	-0.4550464
72	0x3ed9841e	0.4248361
73	0x3ebe0376	0.37112015
74	0xbf2b806d	-0.6699284
75	0x3e339e23	0.17540793
76	0x3f19d1d2	0.60085785
77	0xbe89710d	-0.26844063
78	0x3f3e6b80	0.7438278
79	0xbe460e95	-0.193415
80	0x3ef224e0	0.47293758
81	0xbdc7350b	-0.09726914
82	0x3ca66ad0	0.020314604
83	0xbea4cc6e	-0.32187217
84	0x3eb55a75	0.35420576
85	0xbea4e6a3	-0.32207212
86	0xbe297d3e	-0.16551682
87	0xbf606da5	-0.87667304
88	0xbe8e421e	-0.27784818
89	0x3c328ac6	0.010897344
90	0x3ed3422d	0.41261426
91	0xbf826310	-1.0186481
92	0xbe95b849	-0.2924216
93	0x3e3390b1	0.17535664
94	0x3de18a81	0.11012746
95	0x3e7ec93c	0.24881452
96	0xbdff7ec1	-0.12475348
97	0x3d73ffcd	0.059570123
98	0xbd9d812a	-0.07690652
99	0xbe2c8af3	-0.1684988
100	0xbd34a39e	-0.04410135
101	0x3dd66798	0.10468978
102	0x3e37725a	0.17914715
103	0x3e1ceb08	0.15324032
104	0xbea04263	-0.3130065
105	0x3cf63951	0.030056627
106	0xbe2d1413	-0.16902189
107	0xb9be7d96	-0.00036333193
108	0x3daad748	0.08341843
109	0x3e45fc06	0.1933442
110	0xbe0f22e5	-0.13978155
111	0x3cf4c161	0.029877366
112	0xbe070728	-0.13186324
113	0x3e2fc4df	0.17164944
114	0xbf85b430	-1.0445614
115	0xbe2111d5	-0.15729459
116	0xbdaba788	-0.083815634
117	0x3bd82b65	0.00659697
118	0x3e2dbfa2	0.16967633
119	0x3ce5582a	0.027996141
120	0x3e25178b	0.16122262
121	0x3dc8b240	0.097996235
122	0xbd5d1cad	-0.053982425
123	0x3d2b4528	0.041814
124	0xbda03464	-0.07822493
125	0xbccbf5b2	-0.02489743
126	0x3d271864	0.040794745
127	0x3d88f984	0.06688216
128	0x3d8b5050	0.06802428
129	0x3dca0d5a	0.09865828
130	0x3e0a6057	0.13513313
131	0xbe05bc68	-0.13060153
132	0xbd8bbc3d	-0.06823013
133	0x3ccbcc1c	0.0248776
134	0xbe1b97aa	-0.15194574
135	0xbe7074f8	-0.2348212
136	0xbec37a03	-0.38179025
137	0xbe26666b	-0.16250007
138	0x3dee405b	0.116333686
139	0xbb6c5662	-0.003606223
140	0x3e6abb23	0.2292295
141	0x3e95254f	0.29130027
142	0x3e0151a2	0.12628797
143	0x3dccc231	0.099979766
144	0xbc3dfc31	-0.011595772
145	0xbcc0cd7e	-0.023535486
146	0xbd28b7db	-0.041190963
147	0xbd9aebb2	-0.075644866
148	0x3dfdc867	0.12391739
149	0xbe206219	-0.15662421
150	0x3dd71cc5	0.10503534
151	0xbc89c6a8	-0.01681836
152	0x3e6cfdb4	0.23143655
153	0x3e59a35b	0.21253721
154	0xbdc39241	-0.0954938
155	0xbe83b83c	-0.25726497
156	0x3d1d0a84	0.038340107
157	0x3e5fb8b1	0.21847798
158	0xbd8c3f53	-0.06848016
159	0xbd9df891	-0.07713426
160	0xbd237fc3	-0.039916765
161	0xbe984cba	-0.29746038
162	0xbe679245	-0.22614391
163	0x3f07d1dc	0.53054595
164	0xbd085574	-0.03328462
165	0xbee1fe25	-0.4413921
166	0xbdd526e9	-0.10407812
167	0xbe8e6fc4	-0.27819645
168	0x3ea85a64	0.32881463
169	0x3f1a20b7	0.6020617
170	0xbf0af373	-0.54277724
171	0xbdf21858	-0.118210495
172	0x3ebeb3a7	0.3724644
173	0xbd8da1a6	-0.069155976
174	0x3f401656	0.7503408
175	0xbe38a165	-0.18030317
176	0x3ee5b9c7	0.448683
177	0xbe703fc3	-0.23461823
178	0xbc3086d0	-0.010774329
179	0x3e34475c	0.17605346
180	0xbcdc751b	-0.026911309
181	0xbdeebd67	-0.116572194
182	0xbe71efec	-0.23626679
183	0xbf23c582	-0.6397325
184	0xbeb4e883	-0.35333642
185	0x3d0685f0	0.032842577
186	0x3ebebea3	0.3725482
187	0xbead7329	-0.33876923
188	0xbd934411	-0.07190717
189	0xbde1e0f3	-0.11029234
190	0x3d050306	0.032473586
191	0x3e55f0fb	0.20892708
192	0x3c1e71cb	0.009670685
193	0x3c0e015f	0.008667319
194	0x3c477c8d	0.012175691
195	0xbcd94c53	-0.026525652
196	0x3ca2d3c6	0.019876372
197	0x3d219a22	0.039453633
198	0x3d1e51c6	0.038652204
199	0xbd34f9d4	-0.044183567
200	0xbe9e7bc6	-0.30953807
201	0xbdf5af99	-0.11996383
202	0xbda7e850	-0.08198607
203	0x3d13cc2c	0.036083385
204	0xbe21c250	-0.1579678
205	0xbe0b2b26	-0.13590679
206	0x3c9e6633	0.019335842
207	0xbd040ad4	-0.03223689
208	0xbddefa19	-0.10887546
209	0x3df69dd4	0.12041822
210	0xbea16e4d	-0.31529465
211	0x3daa9a48	0.08330208
212	0x3e52e877	0.20596491
213	0xbe4ee1ce	-0.20203325
214	0xbe160d88	-0.146536
215	0xbdbf9a37	-0.09355586
216	0x3d5b96fb	0.053610783
217	0xbde100c6	-0.10986476
218	0xbd29f994	-0.041497782
219	0xbe229987	-0.15878879
220	0xbd0a9e0f	-0.033842143
221	0xbe664f05	-0.22491081
222	0xbd12409c	-0.035706148
223	0xbd077931	-0.03307456
224	0xbe09b8a1	-0.13449337
225	0xbd7c5299	-0.06160221
226	0x3c5db7af	0.013532563
227	0xbe061042	-0.1309214
228	0xbda624d5	-0.08112494
229	0x3dd6accd	0.10482178
230	0xbbe41527	-0.0069605294
231	0x3c2cef6a	0.010555128
232	0xbd725fba	-0.059173323
233	0xbd98cd6c	-0.07461056
234	0x3b30352c	0.0026887162
235	0xbe6643e1	-0.22486831
236	0xbe3abc4a	-0.18235889
237	0x3cd9be97	0.026580138
238	0x3c095554	0.00838216
239	0xbe62efcf	-0.22161792
240	0xbe1b14d2	-0.15144661
241	0xbe066a35	-0.13126452
242	0xbdcf0b8f	-0.101096265
243	0xbe06846a	-0.1313645
244	0xbbcdf701	-0.0062855487
245	0xbe55208d	-0.20813198
246	0xbd70a962	-0.058755286
247	0xbe2cef2c	-0.16888112
248	0x3db6c84f	0.089249246
249	0x3de018ca	0.10942228
250	0xbdfb686d	-0.12275777
251	0xbb47a0fc	-0.0030460944
252	0x3db81890	0.0898906
253	0xbdc55e61	-0.09637142
254	0x3a836d7b	0.0010027135
255	0xbe5961bb	-0.21228687

gnn.convs.2.nn.lins.0.bias f4 [32]
0	0xbd5c95a8	-0.05385366
1	0x3daaea2b	0.08345445
2	0x3f71d097	0.9445891
3	0x3d20df48	0.039275438
4	0x3e44e3de	0.1922755
5	0x3f7ea2dd	0.9946726
6	0x3dd48f26	0.10378866
7	0x3d9fdc99	0.078057475
8	0x3e379e36	0.17931446
9	0xbd9a653f	-0.075388424
10	0x3e3378be	0.17526528
11	0xbe042ad8	-0.12906969
12	0xbc8563be	-0.016282912
13	0x3d00f41e	0.03148281
14	0x3c8d4ea7	0.017249418
15	0x3dde5df4	0.10857764
16	0xbafddc22	-0.0019367973
17	0x3db9a2aa	0.09064229
18	0x3e0f9610	0.14022088
19	0xbd2be31e	-0.041964643
20	0xbe1ab975	-0.15109809
21	0x3e6585ee	0.22414371
22	0xbd1080cf	-0.03527909
23	0x3d52f0ee	0.0514993
24	0xbd9ba4f4	-0.07599822
25	0x3f2dd3c2	0.6790124
26	0xbe029dd6	-0.12755522
27	0x3d2f45cd	0.042791177
28	0x3e5042bb	0.20337956
29	0x3d296552	0.041356392
30	0x3d525f5d	0.051360477
31	0x3f2a4883	0.66516894

gnn.convs.2.nn.lins.1.weight f4 [32, 32]
0	0x3e05d0a5	0.13067873
1	0x3cada013	0.021194493
2	0x3f1d61a4	0.6147711
3	0xbdfadc89	-0.12249095
4	0x3e2b95c7	0.16756354
5	0x3e30751d	0.17232175
6	0xbb94a70b	-0.0045365146
7	0x3d4a97a1	0.04946101
8	0xbc88f12c	-0.016716562
9	0xbd51f7d5	-0.05126174
10	0x3e21a110	0.15784097
11	0xbe59ee0a	-0.21282211
12	0x3e0ce1a6	0.13757953
13	0xbd1e62fa	-0.03866861
14	0x3d1e0ec4	0.0385883
15	0xbe4f8897	-0.20266949
16	0xbd6681af	-0.05627602
17	0xbc8d4dd3	-0.017249024
18	0xbd923d66	-0.07140617
19	0xbd5f8463	-0.054569613
20	0x3e08c335	0.13355716
21	0x3d8115e5	0.06303004
22	0xbdd1e5c0	-0.102488995
23	0x3ca01be6	0.019544553
24	0x3da0617c	0.07831094
25	0x3ece868b	0.40337023
26	0xbe1e3c65	-0.15452726
27	0x3e02472c	0.12722462
28	0x3d913140	0.07089472
29	0x3e58879e	0.21145484
30	0xbe100a5a	-0.14066449
31	0x3ec01f88	0.37524056
32	0xbd00b722	-0.03142465
33	0x3e290b26	0.16508159
34	0xbd3f1eff	-0.04666042
35	0x3df922fc	0.12164876
36	0xbe0857b8	-0.13314712
37	0xbe772b36	-0.24137577
38	0x3dbf2c84	0.093346626
39	0xbd912826	-0.07087736
40	0x3cf0877c	0.029361479
41	0x3de2154c	0.11039218
42	0xbd9368b1	-0.07197703
43	0x3eabe426	0.335725
44	0x3e6151dd	0.22003885
45	0x3cc9dc39	0.024641143
46	0x3e6cb95b	0.23117582
47	0x3e088125	0.13330515
48	0x3e2e34d7	0.17012344
49	0x3e63d8e3	0.22250704
50	0x3e963821	0.29339698
51	0xbd8c31db	-0.06845447
52	0x3e4899bb	0.19589894
53	0x3da2f366	0.07956581
54	0xbdde8e31	-0.108669646
55	0x3e26c387	0.16285525
56	0x3d2e929b	0.042620283
57	0xbd7419b1	-0.059594814
58	0x3e0507d2	0.12991264
59	0x3d66f16c	0.05638258
60	0xbd06733e	-0.032824747
61	0x3dd3d437	0.10343211
62	0xbdfd1c2a	-0.123588875
63	0xbe0b397a	-0.13596144
64	0x3d21e4bd	0.039524782
65	0xbdda6e4c	-0.10665569
66	0xbdf16492	-0.117867604
67	0x3de4f486	0.11179452
68	0xbe088440	-0.133317
69	0x3e1217ff	0.14266966
70	0xbe655764	-0.22396618
71	0x3dcd7481	0.10031987
72	0xbdae7af9	-0.08519549
73	0xbde67791	-0.11253274
74	0x3bc7ca1f	0.0060970928
75	0x3d8d245f	0.06891703
76	0x3d6f0b1f	0.058360215
77	0xbcf97d11	-0.030455144
78	0xbc80bac9	-0.015714066
79	0xbdfe42ee	-0.124151096
80	0x3cd369fb	0.025807371
81	0x3d55114e	0.052018456
82	0x3e32e02c	0.17468327
83	0x3dbc203e	0.09185837
84	0xbdc96aa4	-0.09834793
85	0x3df1331f	0.11777329
86	0xbe675bb1	-0.22593571
87	0xbe3ce19d	-0.1844544
88	0xbd96de7c	-0.07366654
89	0xbe7fb537	-0.24971472
90	0x3d6fe034	0.058563426
91	0xbe6417b9	-0.22274674
92	0xbe05779c	-0.13033909
93	0x3dbef541	0.09324122
94	0xbe6380f8	-0.22217166
95	0xbdae29ca	-0.085040644
96	0x3cf69767	0.030101491
97	0xbe0844e0	-0.13307524
98	0x3eea8fb9	0.45812777
99	0xbe04deb7	-0.12975584
100	0xbe4bf2b9	-0.1991681
101	0x3ecbf936	0.3983857
102	0x3ce572c0	0.028008819
103	0x3b2f3f6a	0.0026740679
104	0xbe7ff5f1	-0.24996163
105	0xbe778bad	-0.24174376
106	0xbdbe7e7b	-0.09301468
107	0x3c004ab8	0.007830314
108	0xbde5aa98	-0.11214179
109	0xbca6e475	-0.020372609
110	0xbe2867db	-0.16445868
111	0xbe790cff	-0.24321364
112	0xbe317c42	-0.17332557
113	0xbd8d5285	-0.06900505
114	0xbd2386ad	-0.03992336
115	0x3d34ba94	0.044123247
116	0x3d63bd86	0.055600666
117	0x3bf2878c	0.0074014124
118	0xbda2e674	-0.07954112
119	0xbdc456e1	-0.09586883
120	0x3e37c2fe	0.17945477
121	0x3ec6654f	0.38749167
122	0x3d2b5a1c	0.041833982
123	0x3cccd077	0.025001748
124	0x3cb022ad	0.02150091
125	0x3e035473	0.12825184
126	0x3d131f74	0.035918668
127	0x3e8d8f91	0.27648595
128	0x3e813908	0.25238824
129	0x3da0fd7e	0.0786085
130	0x3d6160ad	0.055023838
131	0x3d10567c	0.035238728
132	0x3b7d25a4	0.0038627172
133	0xbe9e55b6	-0.30924767
134	0xbd0ea90a	-0.034829177
135	0xbde9a1ba	-0.114078
136	0x3d371da2	0.044705994
137	0x3dff2150	0.12457526
138	0x3e7ed6bf	0.24886607
139	0xbd0cb24f	-0.034349736
140	0xbe582239	-0.21106805
141	0x3d4865a9	0.048925076
142	0xbe0a0ad0	-0.13480687
143	0x3de5fa39	0.11229367
144	0xbc144417	-0.009049437
145	0x3d69cee2	0.057082064
146	0x3d35f8f0	0.04442686
147	0xbd7ffee3	-0.06249894
148	0xbd1ba434	-0.037998393
149	0x3e11e7e5	0.14248617
150	0x3d7ad57c	0.06123875
151	0x3da74810	0.08168042
152	0xbc86f97a	-0.016476382
153	0xbe3cbd2e	-0.18431541
154	0x3da23ab8	0.07921356
155	0x3e5ff808	0.2187196
156	0x3dacc9b4	0.08436909
157	0x3e4155f6	0.18880448
158	0x3dedf330	0.1161865
159	0xbe563903	-0.20920186
160	0xbe45acf8	-0.19304264
161	0x3d3db0d7	0.046311226
162	0x3f080685	0.5313495
163	0x3d431cd5	0.04763492
164	0xbe3a78e7	-0.18210183
165	0x3e9240ef	0.28565165
166	0xbdc66799	-0.096877284
167	0x3e2344fe	0.15944287
168	0x3c4fcc94	0.012683053
169	0xbd4d0f1c	-0.050063238
170	0xbe263323	-0.16230445
171	0x3eced45c	0.40396392
172	0xbc93595d	-0.017986948
173	0xbe945b30	-0.2897582
174	0x3d9fc489	0.07801158
175	0x3d73e408	0.05954364
176	0x3df68114	0.120363384
177	0x3e81ef7f	0.25378034
178	0xbeeac82c	-0.45855844
179	0x3e7d2e5b	0.24724714
180	0xbe95f63b	-0.2928942
181	0xbdb86574	-0.09003726
182	0xbe362de9	-0.17790951
183	0x3dd404bc	0.103524655
184	0xbe11af14	-0.14226943
185	0x3edbc1e2	0.42921358
186	0xbe7a680e	-0.24453756
187	0xbcca3582	-0.024683718
188	0x3e750afb	0.2392997
189	0x3e897b29	0.26851776
190	0x3dc61fe9	0.09674055
191	0x3e71c0fc	0.23608774
192	0xbe795e2d	-0.24352331
193	0xbe0cb0a0	-0.13739252
194	0x3d2a4242	0.041567095
195	0x3d541915	0.051781733
196	0xbe3f9921	-0.18710758
197	0x3d8c6c72	0.06856622
198	0x3d71bbf3	0.059017133
199	0x3c022b1b	0.007944847
200	0xbe16f738	-0.14742744
201	0xbdd4b533	-0.103861235
202	0x3d3f91a9	0.04676977
203	0x3dafd298	0.085850894
204	0xbd26eef4	-0.040755227
205	0xbdfb4cb4	-0.12270489
206	0x3d370ab5	0.044687945
207	0xbdaa454d	-0.08313999
208	0x3dd04408	0.10169226
209	0xbe1da414	-0.15394622
210	0xbdd04fc5	-0.10171465
211	0x3e1748d4	0.14773875
212	0xbc885fed	-0.016647303
213	0xbd80e0ef	-0.06292903
214	0xbe015aa7	-0.12632237
215	0xbda58680	-0.080822945
216	0xbd377803	-0.044792186
217	0xbc435807	-0.011922843
218	0x3e423519	0.18965568
219	0xbde75af6	-0.11296646
220	0xbd213e99	-0.03936634
221	0xbd7a7c31	-0.061153594
222	0x3d32c39c	0.04364358
223	0xbea6a03f	-0.32544133
224	0x3e48af4f	0.19598125
225	0xbe237b8a	-0.15965095
226	0x3ea83c27	0.32858393
227	0xbd21cfe8	-0.039504915
228	0xbddca44b	-0.10773524
229	0x3e6d69e3	0.23184924
230	0xbd8209c0	-0.06349516
231	0xbdcb1d0c	-0.099176496
232	0x3f0b1949	0.5433546
233	0x3eb517ad	0.35369626
234	0xbdae7cf1	-0.085199244
235	0xbe36193c	-0.17783064
236	0x3e27e3a2	0.16395429
237	0x3dd3fc67	0.10350876
238	0x3dc38d88	0.09548479
239	0x3dcc0fff	0.099639885
240	0x3b720fd2	0.00369357
241	0x3ea6149c	0.324376
242	0xbe1e94d5	-0.15486462
243	0x3e020bbb	0.12699787
244	0xbe08ca62	-0.13358453
245	0x3f25de93	0.64792746
246	0x3d6da15b	0.05801521
247	0xbcd01b2a	-0.025403578
248	0xbdd5e093	-0.10443225
249	0x3ebf90ee	0.3741526
250	0xbe2e1b21	-0.17002536
251	0xbe3c1b23	-0.18369727
252	0x3da0a8a9	0.07844669
253	0x3f1ee974	0.6207497
254	0x3ebaec0b	0.36508211
255	0x3dfc4b1b	0.12319013

gnn.convs.2.nn.lins.1.bias f4 [32]
0	0x3e366047	0.17810164
1	0xbd64b96d	-0.0558409
2	0xbd33c6df	-0.04389083
3	0x3d8e687a	0.06953521
4	0x3e35cd81	0.17754175
5	0x3ba2cab9	0.004968014
6	0xbc683065	-0.014171694
7	0x3f1b0ba2	0.60564625
8	0x3e189f75	0.14904578
9	0xbd569c8c	-0.05239539
10	0xbda04a2c	-0.07826647
11	0x3e6df0ff	0.23236464
12	0xbd52848e	-0.051395945
13	0x3d02dbb6	0.031947814
14	0x3dd9eeae	0.10641228
15	0x3dd52396	0.10407178
16	0xbdf9d847	-0.12199455
17	0xbd16b69a	-0.036795236
18	0x3ea2e101	0.3181229
19	0xbdf267c8	-0.11836201
20	0x3e8278f0	0.25482893
21	0x3c64fbf3	0.013976085
22	0xbe190ae4	-0.1494556
23	0x3d6d7feb	0.05798332
24	0xbe6df4da	-0.23237935
25	0xbdb3b101	-0.08773995
26	0xbd9e5db1	-0.07732714
27	0xbe665567	-0.22493516
28	0xbe3756e5	-0.17904241
29	0x3e180be7	0.1484829
30	0xbe23ae91	-0.1598456
31	0xbd9fcf4b	-0.0780321
