Run_GIN_ModelCheckpoint_EvFr_2/NCI1_reps_2_folds_5_epochs_20_2023-04-26_11-05/rep_1_fold_0/checkpoints/model_trial_2.ckpt (torch, 96717 bytes, 86 tensors)

gnn.convs.0.nn.lins.0.weight f4 [16, 37]
0	0xbec5a1d1	-0.3860002
1	0xbe0b6d32	-0.13615873
2	0xbeeac660	-0.45854473
3	0x3f31b9c5	0.69424087
4	0xbcca9a47	-0.024731768
5	0xbec37735	-0.38176885
6	0x3e6c6477	0.230852
7	0xbea10a3a	-0.31453115
8	0x3f029052	0.51001465
9	0xbe968e72	-0.29405552
10	0x401a2c17	2.408941
11	0x3f160d26	0.5861381
12	0x40019c6c	2.0251722
13	0x3f880479	1.0626365
14	0x3f170ac8	0.59000826
15	0x3fc09f80	1.5048676
16	0xbe7c9107	-0.24664699
17	0x3fd14fa5	1.635243
18	0x3f154f20	0.5832386
19	0x3f9b90d9	1.2153579
20	0x3e55af4c	0.20867652
21	0xbe2bebbe	-0.16789147
22	0xbb515282	-0.0031940048
23	0x3fabbdfe	1.3417356
24	0xbd9f2c82	-0.07772161
25	0x3fd53673	1.6657242
26	0x3f161dfe	0.58639514
27	0x3f3cb983	0.7372057
28	0xbf03f28f	-0.5154199
29	0x3ef5e777	0.48028156
30	0xbe5d7a6e	-0.21628734
31	0x3da8f69b	0.08250161
32	0xbeda3ba7	-0.42623636
33	0xbe31772d	-0.17330618
34	0xbea0195c	-0.31269348
35	0xbddcda13	-0.10783782
36	0xbe1b818d	-0.15186138
37	0x3d12f26f	0.035875734
38	0xbdfdbe91	-0.12389863
39	0xbdcb8174	-0.099368006
40	0x3bfef340	0.0077804625
41	0x3eb77a60	0.35835552
42	0xbe01ea63	-0.12687068
43	0xbdb32894	-0.08747974
44	0x3d29b590	0.041432917
45	0x3eb397b1	0.3507667
46	0x3ec9ad4c	0.39390028
47	0xbdf4ebc5	-0.11959032
48	0xbdf1682d	-0.11787448
49	0x3e20f800	0.15719604
50	0xbde716d2	-0.112836495
51	0x3c4bd70c	0.012441408
52	0xbe227bfc	-0.15867609
53	0x3d3f4990	0.046701014
54	0x3d251a52	0.040308304
55	0xbd319ff1	-0.043365423
56	0x3d88c619	0.06678409
57	0xbe2ae305	-0.16688164
58	0xbe909045	-0.2823507
59	0xbd114096	-0.035461985
60	0xbd0e83b0	-0.034793556
61	0x3e2cf0ed	0.16888781
62	0x3cfad0af	0.030617086
63	0xbda4eeb5	-0.08053342
64	0xbd9499c8	-0.07255894
65	0xbdf2e5c2	-0.11860229
66	0xbe3c70c8	-0.18402398
67	0xbce7664c	-0.028247021
68	0x3c7d355e	0.015454618
69	0xbd3445d1	-0.044011895
70	0x3e1d62a7	0.15369664
71	0xbda954c6	-0.082681224
72	0xbe08754d	-0.13325997
73	0x3bd5ae26	0.0065210043
74	0xbdeed712	-0.11662115
75	0xbe02ae60	-0.12761831
76	0xbe26d3a2	-0.16291669
77	0xbe9ce473	-0.30643043
78	0x3ce1c607	0.027560247
79	0x3e5f58b1	0.21811177
80	0xbc5289e1	-0.012850256
81	0x3cbf2d58	0.023337051
82	0xbe1537bb	-0.1457204
83	0x3e0b9d05	0.13634117
84	0x3d180785	0.037116546
85	0x3c66f421	0.014096291
86	0x3f57813d	0.84181577
87	0x3e233d49	0.15941347
88	0xbda17839	-0.07884259
89	0xbdd7e824	-0.10542324
90	0x3e54014a	0.20703617
91	0x3d2a8d7d	0.04163884
92	0x3ed0f7c5	0.40814033
93	0x3db97ab1	0.09056605
94	0x3c7526bd	0.014962849
95	0x3d9b9781	0.075972565
96	0x3d7bb1c2	0.06144882
97	0x3d1eec94	0.038799837
98	0xbddfb1b2	-0.109225646
99	0xbe1c081d	-0.1523747
100	0x3e5eafd6	0.21746764
101	0x3f6f7ad2	0.93546784
102	0xbdf92021	-0.12164331
103	0xbd2067b4	-0.0391614
104	0x3d679551	0.056538884
105	0xbe101bd5	-0.14073117
106	0x3d50a4ca	0.050938405
107	0x3ce22ca0	0.02760917
108	0x3d298655	0.041387875
109	0xbe134906	-0.14383325
110	0x3d57a7b0	0.052650154
111	0xbb3858ef	-0.002812918
112	0xbe53c566	-0.2068077
113	0xbe14f0ab	-0.14544933
114	0xbf059633	-0.5218231
115	0xbf1a10e5	-0.6018203
116	0xbdcf7fa1	-0.10131765
117	0xbe640ed6	-0.22271284
118	0xbcfd98b5	-0.030956605
119	0x3f4fff9f	0.8124942
120	0x3f13bca5	0.57709724
121	0x400ad34e	2.169147
122	0x3f28f902	0.66004956
123	0x4000e55b	2.0139987
124	0xbd6a22a5	-0.057161946
125	0xbe061367	-0.13093339
126	0x3fc52ca0	1.5404243
127	0xbd96528b	-0.073399626
128	0x3fbef3c3	1.491814
129	0x3f8d9b2a	1.1062977
130	0x3fa9423f	1.3223342
131	0xbe30988a	-0.17245689
132	0xbe6540fc	-0.22388071
133	0x3d01a50d	0.031651545
134	0xbe08aad4	-0.13346416
135	0x3ff8808a	1.9414227
136	0xbe7ae454	-0.24501163
137	0x3eda9f09	0.4269946
138	0x3deaa836	0.11457865
139	0xbe55da34	-0.20884019
140	0xbe4a9086	-0.19781694
141	0xbdfe43b4	-0.12415257
142	0x3d178a37	0.036997046
143	0xbd28770f	-0.041129168
144	0xbdb75f58	-0.08953732
145	0xbd5d5748	-0.054038316
146	0x3d94b7ed	0.072616436
147	0xbe43de2c	-0.1912772
148	0xbded215f	-0.11578631
149	0x3e041da9	0.1290194
150	0xbe4ec508	-0.20192349
151	0xbe70b5f6	-0.23506913
152	0xbd94460c	-0.07239923
153	0x3d2dcbdf	0.042430755
154	0xbe8660f5	-0.26245847
155	0xbe2f6cc4	-0.17131335
156	0x3f749bb6	0.95550096
157	0x3ec0549c	0.37564552
158	0x3fd87772	1.6911452
159	0xbe2b2e89	-0.1671697
160	0x3fd04eda	1.6274064
161	0xbe48a13c	-0.19592756
162	0x3f45d70b	0.77281255
163	0x3d6ae11a	0.05734358
164	0xbea94fdf	-0.3306875
165	0x3ddfe3a2	0.109320894
166	0x3e8e75c3	0.2782422
167	0x3fa5a5f1	1.2941266
168	0xbe8997aa	-0.26873523
169	0xbef7c1a9	-0.48389938
170	0x3a6e4006	0.000908852
171	0x3f8be0d1	1.0927984
172	0x3dc24c3d	0.094871975
173	0x3c82bd25	0.015959332
174	0x3f10ab75	0.5651162
175	0xbca9e26f	-0.020737855
176	0xbe3284f4	-0.1743353
177	0xbd5e3e07	-0.054258373
178	0xbe15b027	-0.14617978
179	0x3d9e4ef3	0.07729902
180	0xbe4a39e0	-0.1974864
181	0xbe3b5abe	-0.18296334
182	0xbd71a3ed	-0.058994222
183	0x3d2e7a52	0.042597122
184	0xbdec38cc	-0.11534271
185	0x3f19dba8	0.60100794
186	0xbf4a472f	-0.7901487
187	0x3e392429	0.180802
188	0xbef975c7	-0.4872267
189	0xbec82855	-0.3909327
190	0xbf2944f2	-0.6612083
191	0xbead9728	-0.33904386
192	0x3d2dcdd3	0.042432617
193	0x3fab3e9b	1.3378481
194	0x3f54143b	0.8284337
195	0x400c7c18	2.195074
196	0xbe01fc97	-0.12694012
197	0x3fa7e0fa	1.3115532
198	0xbe367369	-0.17817463
199	0x3f6901ea	0.91018546
200	0x3d765e50	0.060148537
201	0xbdc62fa4	-0.096770555
202	0xbc99b7fb	-0.018764487
203	0x3f895e73	1.0731949
204	0x3f5c3e88	0.86032915
205	0xbe95b13b	-0.2923678
206	0xbeefb094	-0.46814406
207	0x3e0d7e7c	0.13817781
208	0x3c371738	0.011174969
209	0x3fd372a3	1.6519359
210	0xbfb5fa8e	-1.4217088
211	0x3e872224	0.26393235
212	0x3f4513ad	0.7698315
213	0x3d51e774	0.05124612
214	0xbe3ded0e	-0.1854746
215	0x3c890f24	0.016730852
216	0xbd5b6361	-0.053561572
217	0x3d063ac7	0.0327709
218	0xbda70c39	-0.08156628
219	0xbe18a960	-0.14908361
220	0xbe0e40df	-0.13891934
221	0xbee38608	-0.44438195
222	0xbe6f9aba	-0.23398867
223	0x3db6908f	0.08914291
224	0xbebf6294	-0.37379897
225	0x3d2732c7	0.04081991
226	0x3ed4884e	0.41510242
227	0xbe5e9e39	-0.21740045
228	0xbeab189c	-0.33417213
229	0xbebac370	-0.36477232
230	0x3f84465a	1.033397
231	0x3f138a21	0.57632643
232	0x401609d7	2.3443506
233	0x3f2854e5	0.6575454
234	0x3fc0a01e	1.5048864
235	0xbeb1e4d7	-0.34744903
236	0x3f5def81	0.8669358
237	0x3fadd1c0	1.3579636
238	0xbea0d55d	-0.31412783
239	0x3f8996cf	1.0749148
240	0x3fbe4ee2	1.4867823
241	0x3fd2ccbd	1.6468731
242	0xbeb79c5c	-0.3586148
243	0xbe6dbf57	-0.23217522
244	0xbd3a5c32	-0.04549808
245	0x3f9b0690	1.2111378
246	0x3fe88d3c	1.8168101
247	0x3f85bb8a	1.0447857
248	0xbe856c05	-0.26058975
249	0x3f45f35b	0.77324456
250	0xbe7a11fa	-0.2442092
251	0x3d84af5d	0.064787604
252	0xbeb4a00f	-0.35278365
253	0x3c8f4e16	0.017493289
254	0xbef24e5c	-0.47325408
255	0xbea8bf6e	-0.3295855

gnn.convs.0.nn.lins.0.bias f4 [16]
0	0x3e1cd66c	0.1531617
1	0xbeab94f4	-0.3351208
2	0xbe86197b	-0.26191315
3	0xbd1468c1	-0.036232714
4	0xbdff9a97	-0.124806575
5	0xbed6b302	-0.41933447
6	0x3de651cc	0.1124607
7	0x3ef70443	0.4824544
8	0xbf2eca49	-0.6827741
9	0xbe2abc4c	-0.16673392
10	0xbeb51de2	-0.3537436
11	0xbee50727	-0.4473202
12	0x3f20960a	0.6272894
13	0x3e9705c5	0.2949659
14	0xbde73dc0	-0.11291075
15	0xbe5d99d7	-0.21640716

gnn.convs.0.nn.lins.1.weight f4 [16, 16]
0	0xbf0cdfad	-0.550288
1	0xbe773d03	-0.24144368
2	0x3d8d2f7e	0.06893824
3	0x3e3b48cf	0.18289493
4	0xbe8ceead	-0.27525845
5	0xbe3635cc	-0.1779396
6	0xbe28bcb1	-0.1647823
7	0xbe9db6af	-0.3080344
8	0xbf5e0e43	-0.8674051
9	0x3e140ff3	0.14459209
10	0xbf1428c0	-0.5787468
11	0xbf659519	-0.8968063
12	0xbe77edcf	-0.2421181
13	0xbd041a5e	-0.03225171
14	0x3dab977c	0.08378503
15	0x3c3787fb	0.011201854
16	0x3ef4f7a2	0.4784518
17	0x3e168cf9	0.14702214
18	0xbeb7d6d1	-0.3590608
19	0x3eba46ae	0.3638205
20	0xbde2e6c0	-0.11079168
21	0x3e95a7d9	0.2922962
22	0x3f22e157	0.6362509
23	0x3fc13716	1.5094936
24	0x3e5999da	0.21250096
25	0xbe315478	-0.17317379
26	0x3dbbd42b	0.09171327
27	0xbf81f1ac	-1.0151877
28	0x3ff6ac6a	1.9271367
29	0x3f624f5d	0.8840235
30	0x3e7ca5bf	0.24672602
31	0xbe82d3ae	-0.25552124
32	0x3f46c24b	0.7764022
33	0xbe07840e	-0.13233969
34	0xbe4e2c3b	-0.2013406
35	0x3f109170	0.5647192
36	0x3e59d6cd	0.21273346
37	0x3ed840da	0.42236978
38	0x3edfc35a	0.4370373
39	0x3f9d960f	1.2311419
40	0x3ef4846d	0.47757283
41	0xbdbbe0cc	-0.09173736
42	0x3f10bee0	0.5654125
43	0xbfbd7d58	-1.4803877
44	0x3f785eb2	0.97019494
45	0x3ed33303	0.41249856
46	0x3f15e2ad	0.58549005
47	0x3d19f25b	0.037584644
48	0x3f00c3e5	0.5029891
49	0xbe88cca9	-0.26718643
50	0xbe16aec7	-0.1471511
51	0x3eefe620	0.4685526
52	0x3e259c6b	0.1617295
53	0x3ed63a5f	0.4184141
54	0x3eb647a2	0.35601526
55	0x3f2f5ce1	0.68501097
56	0x3f084c60	0.5324154
57	0xbe1cfdd0	-0.15331197
58	0x3e9e8944	0.309641
59	0xbf89eb6f	-1.0774974
60	0x3f98db41	1.1941911
61	0x3f2fc757	0.68663543
62	0x3f023812	0.50866807
63	0x3e1a7b3f	0.15086077
64	0x3f0331d2	0.51247895
65	0x3bdda28f	0.0067637633
66	0x3e1125fa	0.14174643
67	0x3e2fd17f	0.1716976
68	0xbd7f4249	-0.062319074
69	0x3eee0385	0.4648706
70	0x3ecaff85	0.3964807
71	0x3f9b2c28	1.212285
72	0x3f1a451b	0.60261697
73	0xbddb164e	-0.10697614
74	0x3f09d5bb	0.5384175
75	0xbfa10537	-1.2579716
76	0x3efdca30	0.4956832
77	0x3f33dcf5	0.7025903
78	0x3e3cddf6	0.18444046
79	0xbd0e9b2a	-0.034815945
80	0x3f522e70	0.8210211
81	0x3dba8669	0.09107668
82	0x3da154e0	0.07877517
83	0x3ef3fa91	0.47652104
84	0x3e035bdd	0.12828012
85	0x3ef59c3e	0.47970766
86	0x3ea79b7d	0.32735816
87	0x3fc151c0	1.5103073
88	0x3ed47fa0	0.4150362
89	0xbe9f3446	-0.3109457
90	0x3e821e0c	0.2541355
91	0xbfb01949	-1.3757716
92	0x3f53960e	0.8265084
93	0x3f7361ff	0.95071405
94	0x3f27c65c	0.6553705
95	0x3db60a46	0.08888678
96	0x3da115bf	0.07865476
97	0xbcfa80b5	-0.03057895
98	0xbe2faab6	-0.17154965
99	0x3d892fd5	0.06698576
100	0x3e1f4970	0.15555358
101	0xbd3e15db	-0.04640756
102	0x3c85de9c	0.0163415
103	0x3d9d849f	0.07691311
104	0xbde9e749	-0.11421067
105	0xbd0de24f	-0.034639653
106	0x3d2f4344	0.04278876
107	0xbdb1cee5	-0.0868204
108	0xbe073812	-0.13204983
109	0xbe11fde4	-0.14257008
110	0xbd0cf969	-0.034417544
111	0xbd79ef68	-0.06101933
112	0x3ec5b8e8	0.38617635
113	0xbc9472b7	-0.018121107
114	0x3e133069	0.14373936
115	0x3f24b4bd	0.64338285
116	0x3c6c92fe	0.014439343
117	0x3f0ba199	0.54543453
118	0x3f1387b2	0.5762893
119	0x3f9d93bf	1.2310714
120	0x3e99395d	0.29926577
121	0xbe2c475e	-0.168241
122	0x3f15a3d2	0.58453095
123	0xbf9e2c74	-1.2357316
124	0x3fbb6d19	1.4642669
125	0x3f21b796	0.63170755
126	0x3eff46ae	0.49858612
127	0xbdba7090	-0.09103501
128	0x3f420cee	0.7580098
129	0xbc91f488	-0.017816797
130	0x3e8270e4	0.25476754
131	0x3e94d4b1	0.2906852
132	0x3e4f59ef	0.2024915
133	0x3e997791	0.29974034
134	0x3ee8ea69	0.4549134
135	0x3fca1e65	1.5790526
136	0x3f0961f7	0.5366511
137	0x3cf548be	0.029941913
138	0x3e772622	0.2413564
139	0xbf8139af	-1.0095729
140	0x40037999	2.0542967
141	0x3f32f442	0.6990396
142	0x3dbc3b25	0.091909684
143	0x3e1ae3d3	0.1512597
144	0x3f59be0e	0.85055625
145	0xbe8276be	-0.25481218
146	0x3e2788f0	0.16360831
147	0x3ec0c63e	0.37651247
148	0x3e994960	0.29938793
149	0x3f02dfc6	0.511227
150	0x3e9e2386	0.30886477
151	0x3d7f214e	0.06228762
152	0xbd91b1ac	-0.07113966
153	0x3e5328b8	0.20621002
154	0x3e8771c6	0.2645399
155	0xbf12b0c5	-0.5730098
156	0x3e77f5bf	0.24214838
157	0x3ea7b994	0.32758772
158	0x3e9e5537	0.3092439
159	0x3e29f291	0.16596438
160	0x3f44e599	0.7691284
161	0xbe94a7e7	-0.2903435
162	0x3e382742	0.17983726
163	0x3eb7e2dc	0.35915267
164	0xbded0d76	-0.11574833
165	0x3e8db159	0.27674368
166	0x3ea8ec13	0.3299261
167	0x3fcade14	1.5849023
168	0x3e872a68	0.2639954
169	0xbd845d92	-0.064631596
170	0x3f0558bf	0.5208854
171	0xbf94658e	-1.1593492
172	0x3ff8661c	1.9406161
173	0x3f7a772c	0.9783809
174	0x3ebec988	0.3726313
175	0x3dc9cdd3	0.09853711
176	0x3b86c5cc	0.0041129347
177	0xbe881f60	-0.26586437
178	0x3e86a2b1	0.26296
179	0x3d94f08f	0.072724454
180	0xbdffc534	-0.124887854
181	0xbe833390	-0.25625277
182	0xbe192df8	-0.14958942
183	0x3d62fb20	0.055415273
184	0xbf08b998	-0.53408194
185	0x3eaa71de	0.3329
186	0xbf2fef0e	-0.68724144
187	0xbe60d638	-0.21956718
188	0xbe9e5852	-0.30926758
189	0x3d823927	0.06358557
190	0xbdf3105b	-0.11868354
191	0x3dfdf7e4	0.12400797
192	0xbe42f0ed	-0.19037218
193	0x3c8a551c	0.016886286
194	0x3dea3089	0.114350386
195	0xbeb90d3a	-0.36142904
196	0xbdf74f78	-0.12075704
197	0xbeb1b271	-0.34706452
198	0x3d3d54cb	0.046223443
199	0x3e6412d1	0.22272803
200	0x3e9ffe21	0.31248572
201	0x3ebc32b5	0.36757436
202	0x3ebdabf0	0.3704524
203	0x3f8d30b7	1.1030492
204	0xbe346da1	-0.17619945
205	0xbeed92a2	-0.46400934
206	0xbe9b64ca	-0.30350333
207	0xbe775512	-0.24153545
208	0xbd932ed7	-0.07186668
209	0xbdc11c7d	-0.09429262
210	0xbd9a8191	-0.07544244
211	0xbdd17ea4	-0.10229233
212	0x3e1ef69b	0.1552376
213	0xbe5e6ce6	-0.21721229
214	0xbe70e6e4	-0.23525578
215	0x3ebe76a1	0.37199882
216	0x3ed08bdb	0.407317
217	0x3ebb3064	0.36560357
218	0x3e48e470	0.19618392
219	0x3fa020bd	1.2509991
220	0xbf17362f	-0.5906705
221	0xbe3504b7	-0.1767758
222	0xbe026a40	-0.12735844
223	0x3d891cf4	0.066949755
224	0x3ce48674	0.027896143
225	0xbe287520	-0.1645093
226	0xbdbda898	-0.09260672
227	0xbe869b4a	-0.2629035
228	0xbea67382	-0.3251
229	0x3e32a298	0.17444837
230	0xbe8ea141	-0.27857402
231	0xbe8d6e01	-0.2762299
232	0xbca82510	-0.020525485
233	0xbe2e8e30	-0.17046428
234	0xbdab14d2	-0.083535805
235	0xbdc5dacc	-0.09660873
236	0x3e3cd770	0.18441558
237	0x3d95aca4	0.07308319
238	0xbdb769c0	-0.08955717
239	0x3db81950	0.08989203
240	0xbf059211	-0.52176005
241	0xbf27a095	-0.65479404
242	0x3d924624	0.071422845
243	0x3e5db67f	0.21651648
244	0x3eb5e862	0.35528857
245	0xbf1dce1b	-0.61642617
246	0x3daf44e5	0.085580625
247	0xbe60d975	-0.21957953
248	0xbdf4091f	-0.11915802
249	0x3fc2445f	1.5177115
250	0x3d8c5225	0.06851605
251	0x3fb1557b	1.3854212
252	0xbf6f1070	-0.93384457
253	0x3d841c4f	0.06450712
254	0xbeb02d1c	-0.34409416
255	0x3e56740e	0.20942709

gnn.convs.0.nn.lins.1.bias f4 [16]
0	0x3e9eda83	0.31026086
1	0xbdcd0c07	-0.1001206
2	0xbe22232c	-0.1583373
3	0xbdc020f4	-0.09381285
4	0xbdaa4b97	-0.08315199
5	0xbe4bc59a	-0.19899598
6	0xbe717edd	-0.23583551
7	0xbdabbb14	-0.08385292
8	0xbd9f0af8	-0.07765764
9	0x3c9b7b58	0.018979713
10	0xbd9d9288	-0.07693964
11	0xbd80e0c9	-0.06292874
12	0xbf10c2c5	-0.56547195
13	0xbf2126f8	-0.62950087
14	0xbe1ed3fd	-0.15510555
15	0xbea28450	-0.3174157

gnn.convs.1.nn.lins.0.weight f4 [16, 16]
0	0xbed15cd5	-0.40891138
1	0x3e879c18	0.26486278
2	0x3edf7ab2	0.43648297
3	0x3db638c8	0.08897549
4	0x3e983635	0.29728857
5	0x3e883a1f	0.26606843
6	0xbd386e56	-0.0450271
7	0x3e968e61	0.294055
8	0x3eae77f3	0.3407589
9	0x3f1c7977	0.6112284
10	0x3dc1c6ee	0.09461771
11	0xbd230429	-0.03979889
12	0xbf5f3f8d	-0.87206346
13	0xbf24b5c5	-0.6433986
14	0x3dbac2ae	0.091191635
15	0xbec9d318	-0.39418864
16	0x3ebba46d	0.36648884
17	0x3e0cf760	0.13766241
18	0xbe94af4f	-0.2904
19	0xbefd6d04	-0.49497235
20	0xbecbf06e	-0.3983187
21	0xbeaf3706	-0.34221667
22	0x3eb7d25f	0.35902688
23	0xbe082d7f	-0.13298605
24	0xbe5485c8	-0.20754158
25	0xbe39d179	-0.18146314
26	0xbd399282	-0.045305736
27	0x3de6a547	0.11261993
28	0xbec1d794	-0.37859786
29	0xbdc58810	-0.096450925
30	0xbde7f442	-0.11325885
31	0xbe3d4349	-0.18482699
32	0xbe6690f0	-0.22516227
33	0xbe763cb4	-0.24046594
34	0x3d5b7b59	0.05358443
35	0xbe7a4eda	-0.24444142
36	0xbefcd518	-0.49381328
37	0xbe48feb9	-0.19628419
38	0x3d8a903c	0.06765792
39	0x3daa4491	0.08313859
40	0xbe1b5c8d	-0.15172024
41	0xbdbdf168	-0.0927456
42	0xbe6c6ff6	-0.23089585
43	0xbd0163f8	-0.03158948
44	0xbefd2f17	-0.4944999
45	0xbe0c6d8a	-0.13713661
46	0xbe726d5a	-0.23674527
47	0xbe50962f	-0.2036979
48	0xbf5a79ad	-0.8534191
49	0xbea83e3c	-0.3285998
50	0x3df27821	0.11839319
51	0xbb9ad2cb	-0.0047248355
52	0x3e951439	0.2911699
53	0x3dba84f8	0.09107393
54	0x3df6f644	0.1205869
55	0x3e009096	0.12555155
56	0x3e2f9f29	0.17150559
57	0x3c706843	0.014673295
58	0xbe7985aa	-0.24367395
59	0x3d3593c8	0.04433039
60	0x3f66d9b8	0.9017596
61	0x3f016844	0.5054972
62	0xbe46760c	-0.19380969
63	0x3f0f0335	0.5586427
64	0xbf29a2d7	-0.662641
65	0x3eb60341	0.35549358
66	0x3d9389a2	0.07203986
67	0x3e8d40ba	0.27588445
68	0x3e81e023	0.25366315
69	0x3e923ddf	0.2856283
70	0xbdbe52bc	-0.09293124
71	0x3ea02ab2	0.31282574
72	0x3e6530e0	0.22381926
73	0x3efb0f6c	0.49035203
74	0x3e64632a	0.22303453
75	0xbeea707d	-0.45788947
76	0xbf913630	-1.1344662
77	0xbf7f6c87	-0.99774975
78	0xbe4610cd	-0.19342346
79	0xbecf97ba	-0.40545446
80	0xbe1ccdce	-0.15312883
81	0x3d698df4	0.057020143
82	0xbeb3f97a	-0.35151273
83	0x3e0e5685	0.13900192
84	0xbddaa18f	-0.10675346
85	0xbe42a1f0	-0.19007087
86	0x3dc1c420	0.09461236
87	0xbea42e30	-0.32066488
88	0xbd7b1f8b	-0.06130938
89	0x3ef43401	0.47695926
90	0x3ecb9643	0.39763078
91	0xbd882ef1	-0.06649578
92	0xbf43d2d2	-0.7649356
93	0xbe992dcc	-0.29917753
94	0x3d6859d8	0.056726307
95	0xbeea98f0	-0.45819807
96	0xbe342707	-0.17593013
97	0x3e2af7dc	0.16696113
98	0xbe48f264	-0.19623715
99	0xbe123b3c	-0.14280409
100	0xbedcc1d2	-0.43116623
101	0xbefc9780	-0.49334335
102	0x3e21c3c1	0.1579733
103	0xbe5f41e4	-0.21802479
104	0xbe7284b1	-0.2368343
105	0xbcfdacb8	-0.030966148
106	0x3cee82e4	0.029115148
107	0x3e39f644	0.18160349
108	0xbdd016ac	-0.10160574
109	0x3ea32854	0.31866705
110	0x3e25edde	0.1620402
111	0x3d54f8d5	0.051995117
112	0xbcf5dcd7	-0.030012531
113	0x3e553663	0.20821528
114	0x3e0ef4c8	0.13960564
115	0x3eb28dcc	0.34873807
116	0x3b3a0370	0.0028383397
117	0x3e8ef4ff	0.27921292
118	0x3e57212d	0.2100875
119	0xbda7dbbf	-0.0819621
120	0x3c67b4a3	0.014142188
121	0x3e83c321	0.2573481
122	0x3ea3c22e	0.31984085
123	0x3e566643	0.20937447
124	0xbf1d1488	-0.61359453
125	0xbf130e3e	-0.57443607
126	0x3e0e1d8e	0.13878462
127	0xbf214099	-0.62989193
128	0x3ed9d338	0.4254396
129	0x3e10eccd	0.14152832
130	0xbf1d08d1	-0.6134158
131	0xbef139db	-0.47114453
132	0xbf472453	-0.777898
133	0xbf2ef09d	-0.68335897
134	0xbe2cb5fd	-0.16866298
135	0xbf26a0c7	-0.65089077
136	0xbea9edef	-0.3318934
137	0x3f23a282	0.6391984
138	0xbb7cef5b	-0.0038594815
139	0x3d3f5e90	0.04672104
140	0x3e1b3632	0.15157393
141	0xbdd80f64	-0.105498105
142	0x3e3cadcc	0.18425673
143	0x3eb17922	0.3466273
144	0xbcee1afc	-0.029065602
145	0xbdf21c7c	-0.11821839
146	0xbe19e36d	-0.15028162
147	0xbe8a9b06	-0.27071398
148	0x3d13a93c	0.036050066
149	0xbdf28360	-0.11841464
150	0x3e2cdc7c	0.16880983
151	0xbde03d2b	-0.10949167
152	0x3cf8b67a	0.03036045
153	0x3eb484a9	0.35257462
154	0xbb5b9411	-0.0033505003
155	0xbc2a20d4	-0.010383803
156	0x3e813dee	0.2524256
157	0x3e595a40	0.21225834
158	0xbe74bb9c	-0.23899692
159	0x3d6f119e	0.05836641
160	0x3d7737c0	0.0603559
161	0xbe9499d0	-0.290236
162	0xbd79381d	-0.06084453
163	0xbeb437ba	-0.35198766
164	0xbe082fd0	-0.13299489
165	0xbe92b1ca	-0.28651267
166	0xbcd950c6	-0.026527774
167	0xbe51bab6	-0.20481381
168	0xbdd97d23	-0.10619571
169	0xbda354a1	-0.07975126
170	0x3dd4565a	0.10368033
171	0xbe29ffa4	-0.16601425
172	0xbd3911a2	-0.04518283
173	0x3cc1a309	0.023637312
174	0x3dc49a74	0.09599772
175	0xbe2ea9b3	-0.17056923
176	0x3d657284	0.056017414
177	0x3c8650f0	0.016396016
178	0xbe33060e	-0.17482778
179	0xbebb79aa	-0.3661626
180	0xbe660b13	-0.22465162
181	0xbeb946b3	-0.36186752
182	0x3bd4867a	0.0064857574
183	0x3dd98eb2	0.1062292
184	0xbdf87481	-0.12131596
185	0xbdcce16f	-0.100039355
186	0xbe95eadf	-0.29280755
187	0x3dcd2844	0.10017446
188	0xbf311351	-0.691701
189	0xbd23a525	-0.039952416
190	0xbe7e6a77	-0.248453
191	0xbe7b3564	-0.24532086
192	0xbc1c27e1	-0.009530992
193	0x3bac84ac	0.005264839
194	0xbdc60858	-0.0966956
195	0x3ded5ce5	0.11589984
196	0xbf00bc0d	-0.5028694
197	0xbdb32d69	-0.08748896
198	0x3de6687c	0.112503976
199	0xbec8cc29	-0.39218262
200	0xbe659cfe	-0.22423169
201	0xbe53d8ed	-0.2068822
202	0x3eaa2fd5	0.33239618
203	0x3e4f8db7	0.20268904
204	0xbeed3610	-0.4633031
205	0xbdfb1aa2	-0.12260939
206	0xbe750e7c	-0.23931307
207	0xbea5c4e2	-0.32376772
208	0xbf55c17d	-0.83498365
209	0x3cdb2266	0.0267498
210	0xbef61caf	-0.4806876
211	0x3c47963b	0.012181814
212	0xbf8f617b	-1.1201624
213	0x3f42fa23	0.7616293
214	0x3d7f63cb	0.06235103
215	0x3d30b3cd	0.04314022
216	0x3dbf427f	0.09338855
217	0x3ec694f3	0.38785514
218	0xbea8874c	-0.32915723
219	0x3e259907	0.16171657
220	0xbe5bb4a9	-0.21455635
221	0xbf7ccbeb	-0.98748654
222	0x3d549218	0.05189714
223	0xbf15803e	-0.5839881
224	0xbeb39962	-0.3507796
225	0x3e8acc82	0.27109152
226	0x3f0b4ea3	0.54416865
227	0x3ec3f671	0.38273957
228	0x3e730d2f	0.23735498
229	0x3e92751d	0.28604975
230	0xbd77dc00	-0.060512543
231	0x3ebef329	0.3729489
232	0x3e64fb74	0.22361547
233	0x3eb00cdf	0.3438482
234	0x3eee8fd2	0.465941
235	0xbed1e8b3	-0.40997848
236	0xbf9b7309	-1.2144481
237	0xbf981972	-1.1882765
238	0xbe19a594	-0.1500457
239	0xbef63667	-0.4808838
240	0x3f65d0fe	0.8977202
241	0x3eb4844a	0.3525718
242	0xbf1ea69a	-0.61972964
243	0xbeea6dba	-0.4578684
244	0xbf1bb4b8	-0.6082263
245	0xbf11263d	-0.5669897
246	0xbe170e55	-0.14751561
247	0xbe2ea126	-0.17053661
248	0xbe3fcc8a	-0.18730369
249	0x3d5a887a	0.05335281
250	0xbe8cf995	-0.27534166
251	0xbdceb0f9	-0.100923486
252	0x3e39afd8	0.18133485
253	0x3ea55c50	0.3229699
254	0x3e0703e8	0.13185084
255	0x3d272631	0.040807907

gnn.convs.1.nn.lins.0.bias f4 [16]
0	0x3e35fe1e	0.1777272
1	0x3e99e950	0.30060816
2	0xbe9271ea	-0.28602535
3	0xbed7d119	-0.42151716
4	0x3e914b8a	0.28377944
5	0xbe02532e	-0.12727043
6	0xbe7021d4	-0.23450404
7	0xbcab6297	-0.020921035
8	0x3ea358ab	0.31903586
9	0xbe5140ec	-0.20434922
10	0xbcf7d0b0	-0.030250877
11	0x3e86cc61	0.26327804
12	0xbe83c403	-0.25735483
13	0xbe6d5436	-0.23176655
14	0x3e572a7a	0.21012297
15	0x3ee98477	0.45608875

gnn.convs.1.nn.lins.1.weight f4 [16, 16]
0	0xbdc0aae5	-0.094075955
1	0xbb95fbfb	-0.0045771576
2	0x3e6afbca	0.22947612
3	0xbeb79947	-0.3585913
4	0x3c064181	0.008194328
5	0xbe1c2bad	-0.15251036
6	0x3ca06682	0.01958013
7	0xbe6f6a21	-0.23380329
8	0xbe9bd051	-0.3043237
9	0x3e356f7e	0.17718312
10	0xbdfa88aa	-0.12233098
11	0xbe2da908	-0.16959012
12	0x3e469003	0.19390874
13	0x3d4b7f26	0.049681805
14	0xbcb4e353	-0.022081053
15	0x3dc1f33f	0.09470224
16	0x3d862358	0.0654971
17	0xbe089537	-0.13338171
18	0x3c5078da	0.012724126
19	0xbebaef63	-0.36510763
20	0x3eb72d06	0.35776538
21	0x3e8ffb3f	0.28121373
22	0x3dffc2df	0.124883406
23	0x3cda8052	0.026672516
24	0xbeb6b3f5	-0.3568417
25	0xbe811132	-0.2520843
26	0xbe366bd4	-0.1781457
27	0xbdd95c14	-0.10613266
28	0x3e89015f	0.2675886
29	0x3eb78d9a	0.3585022
30	0x3ef35c9d	0.47531596
31	0xbef035d3	-0.46916065
32	0xbd433610	-0.04765898
33	0xbe170af6	-0.14750275
34	0x3dfb2dcc	0.122645944
35	0xbdc2aa3d	-0.095051266
36	0xbe0b70b9	-0.13617219
37	0x3db874b9	0.09006638
38	0xbe1bb5a0	-0.15206003
39	0xbe2d4929	-0.1692244
40	0xbe46a813	-0.19400053
41	0xbe9551df	-0.29164025
42	0xbe291ee5	-0.16515692
43	0xbdc6f79e	-0.09715198
44	0xbbbcb4f3	-0.0057588755
45	0xbddffc9c	-0.10936853
46	0xbe2f167c	-0.17098421
47	0xbd83caea	-0.06435187
48	0x3edf5e25	0.43626514
49	0xbe6aa1be	-0.22913262
50	0xbdd3bb0f	-0.10338413
51	0xbeb9177d	-0.36150733
52	0x3f0ab661	0.5418454
53	0x3e38088a	0.17972007
54	0x3ec183d2	0.37795883
55	0x3eaefac9	0.3417571
56	0xbe64a1cd	-0.22327347
57	0xbe543514	-0.20723373
58	0xbe5ebf75	-0.21752723
59	0xbe876f7f	-0.26452252
60	0xbda736cb	-0.08164748
61	0x3eba5b14	0.36397612
62	0x3f35d50d	0.71028215
63	0xbf0b0851	-0.54309565
64	0xbe70508b	-0.23468225
65	0xbe19be17	-0.1501392
66	0x3e7e0e98	0.24810255
67	0xbe8f611b	-0.28003773
68	0xbe20596e	-0.15659115
69	0xbe6a06bf	-0.22854136
70	0xbea9af0b	-0.3314136
71	0xbe78239b	-0.24232332
72	0xbda8ab08	-0.082357466
73	0xbd5e4c5d	-0.054272044
74	0xbdf73e03	-0.12072375
75	0x3db8f58b	0.090312086
76	0xbd24e206	-0.040254615
77	0xbdc27925	-0.09495763
78	0xbdf34548	-0.11878449
79	0xbd979e83	-0.074032806
80	0xbe779de2	-0.24181321
81	0xbe3195c7	-0.17342292
82	0xbc6197e0	-0.01376912
83	0xbd90aeca	-0.07064588
84	0x3e0114ee	0.1260564
85	0x3dae43d7	0.08509033
86	0xbeb4f8d5	-0.35346094
87	0x3e29a4b3	0.16566734
88	0xbd8164c6	-0.06318049
89	0xbe91697a	-0.28400785
90	0xbe4ae91d	-0.19815488
91	0x3e1b8651	0.15187956
92	0xbe176eb4	-0.14788324
93	0xbe7dc3da	-0.24781743
94	0xbe62abe2	-0.2213588
95	0xbe8dce3f	-0.27696416
96	0xbe53bd22	-0.20677617
97	0xbe2f777f	-0.17135428
98	0x3d29ad50	0.04142505
99	0xbe6446f2	-0.22292688
100	0xbdef4135	-0.11682359
101	0xbde8bba0	-0.11363912
102	0xbd8bdc1a	-0.068290904
103	0xbddacc44	-0.10683492
104	0xbf011fda	-0.50439227
105	0xbe96e6b1	-0.2947288
106	0xbea19fe8	-0.3156731
107	0xbd87db9f	-0.06633686
108	0x3e17f14e	0.14838144
109	0xbd95a94c	-0.073076814
110	0xbe7339b8	-0.23752487
111	0xbf0b0cc1	-0.54316336
112	0xbe2422e9	-0.16028942
113	0xbd6e6a3b	-0.058206778
114	0x3e14a75a	0.14516965
115	0x3e984f8a	0.29748183
116	0xbe8f770e	-0.2802052
117	0x3e24c063	0.16089015
118	0xbe62435c	-0.22096008
119	0xbdfcc864	-0.12342909
120	0xbe898e01	-0.26866153
121	0xbe0acab8	-0.13553894
122	0x3d54b483	0.051929962
123	0xbdb9d586	-0.090739295
124	0x3e067f61	0.13134529
125	0xbf27d7fc	-0.6556394
126	0xbdf25e8e	-0.11834441
127	0xbf573b1e	-0.8407458
128	0x3beed7f5	0.0072889277
129	0xbe53c685	-0.20681198
130	0x3e5b4846	0.21414289
131	0xbec60a2c	-0.38679636
132	0x3de2dcfc	0.11077306
133	0x3d02f0f4	0.031968072
134	0xbe8c41e4	-0.2739402
135	0x3c86ec20	0.016470015
136	0xbe135fb0	-0.1439197
137	0x3d32f7fa	0.04369352
138	0x3e4f9076	0.20269951
139	0xbd978b70	-0.073996425
140	0x3e176c03	0.14787297
141	0x3eba7ba5	0.36422458
142	0x3e59255e	0.2120566
143	0xbf08f1bb	-0.5349385
144	0xbea57144	-0.32312977
145	0x3e27b511	0.16377665
146	0xbe079578	-0.13240612
147	0xbea7bc71	-0.32760957
148	0x3e0917b7	0.13387953
149	0xbe5baa6d	-0.21451731
150	0x3df4c680	0.11951923
151	0x3d4d3197	0.05009612
152	0xbe5072bb	-0.20356266
153	0xbca77b97	-0.020444674
154	0xbdadcbd7	-0.08486145
155	0xbd8630b0	-0.06552255
156	0x3de15f62	0.11004521
157	0xbe0d6e57	-0.13811623
158	0xbe6956f1	-0.22787072
159	0x3da014f4	0.078164965
160	0xbd54b2ed	-0.05192845
161	0x3d661a30	0.056177318
162	0xbc5849a7	-0.013201154
163	0x3c4570f2	0.012050854
164	0xbeddb397	-0.4330108
165	0xbddb9f73	-0.10723772
166	0xbe34741f	-0.17622422
167	0xbe57d199	-0.21076049
168	0xbe538752	-0.2065709
169	0xbe1f4e04	-0.15557104
170	0x3d8f8843	0.07008412
171	0xbe1e146c	-0.15437478
172	0x3e9bf862	0.3046294
173	0xbe0b28b5	-0.13589747
174	0x3c5938a2	0.013258131
175	0xbe67597e	-0.22592732
176	0x3e8daff7	0.27673313
177	0xbdc66370	-0.09686935
178	0x3e376cf7	0.1791266
179	0xbecbc5b9	-0.39799288
180	0x3eb60608	0.35551476
181	0x3d320eeb	0.043471258
182	0xbbd93916	-0.0066291196
183	0x3ea2dadd	0.31807604
184	0xbecf3a18	-0.4047401
185	0x3e3fe29f	0.18738793
186	0x3dcc91ae	0.09988724
187	0x3e6d5bdf	0.23179577
188	0x3e3ce008	0.18444836
189	0x3e6c764f	0.23092006
190	0x3eec78dd	0.4618596
191	0xbe8652c7	-0.2623503
192	0xbeb03cc8	-0.34421372
193	0xbe70a108	-0.23498929
194	0x3e1fc970	0.15604186
195	0xbd8b95d8	-0.0681569
196	0xbe5d9533	-0.21638946
197	0xbdf8c609	-0.12147147
198	0xbdbc0b58	-0.09181851
199	0xbeb5ea34	-0.35530245
200	0xbe87e67e	-0.2654304
201	0xbe3afbaa	-0.18260065
202	0xbe6fd6d4	-0.23421794
203	0x3eb6362a	0.355882
204	0xbe5cd5c8	-0.21565926
205	0x3e634c76	0.22197136
206	0xbd8968ad	-0.067094184
207	0x3de86924	0.11348179
208	0x3e8122ae	0.2522177
209	0xbdd4d417	-0.103920154
210	0x3d4d3eed	0.05010884
211	0xbec7d176	-0.39026994
212	0x3eb50aab	0.35359702
213	0xbdbcce5e	-0.09219049
214	0x3dd815f7	0.105510645
215	0x3e6bc3da	0.2302393
216	0xbe9cd633	-0.3063217
217	0xbe7a870c	-0.24465579
218	0x3e7e679b	0.2484421
219	0x3d7113b1	0.05885667
220	0x3e824dba	0.25449926
221	0x3f0c56d7	0.5482001
222	0x3f1a405a	0.6025444
223	0xbeff527d	-0.4986762
224	0xbe8265af	-0.25468203
225	0xbe83ddcf	-0.25755164
226	0xbcfbc318	-0.030732676
227	0xbf1f85c6	-0.623135
228	0xbd954000	-0.07287598
229	0xbec62568	-0.38700414
230	0xbcfb985e	-0.030712303
231	0x3db190b8	0.08670181
232	0xbed191fe	-0.40931696
233	0xbd004566	-0.031316184
234	0xbcb650f2	-0.022255395
235	0xbdf09a1a	-0.117481425
236	0xbe3df07a	-0.18548766
237	0xbe8ab7eb	-0.27093443
238	0xbbb8a4e4	-0.005634891
239	0xbe55fa0c	-0.20896167
240	0x3dec5426	0.115394875
241	0xbe9dccc6	-0.30820292
242	0x3dc8bddc	0.09801838
243	0xbe6f6591	-0.23378588
244	0xbc6c2c8a	-0.014414916
245	0x3db0e95a	0.08638258
246	0xbdee242e	-0.116279945
247	0x3d97f203	0.07419207
248	0xbee3f1fd	-0.4452056
249	0xbe8ab41b	-0.27090535
250	0xbe00b2e9	-0.12568249
251	0xbe95c571	-0.29252198
252	0x3e049829	0.1294867
253	0x3d3dfc58	0.046383232
254	0x3f0430ee	0.5163716
255	0xbf13660d	-0.5757759

gnn.convs.1.nn.lins.1.bias f4 [16]
0	0xbcd58b2c	-0.026067339
1	0x3d2ef295	0.042711813
2	0xbe11cc2b	-0.1423804
3	0x3e40d4b7	0.18831144
4	0xbed5f75d	-0.41790286
5	0xbf13ac4e	-0.5768479
6	0xbed23b92	-0.41061074
7	0xbe2e78e1	-0.17038299
8	0x3deb0c84	0.114769965
9	0xbd9b0bf3	-0.075706385
10	0xbde5f174	-0.11227694
11	0x3e4ae690	0.19814515
12	0xbee24720	-0.4419489
13	0x3e115655	0.1419309
14	0x3d5e8a83	0.054331314
15	0x3e88a3a1	0.2668734

gnn.convs.2.nn.lins.0.weight f4 [16, 16]
0	0x3e14abf5	0.14518721
1	0xbe0b9575	-0.13631232
2	0x3c991fcc	0.01869192
3	0xbef4f39e	-0.47842115
4	0x3ca066cf	0.019580273
5	0xba0eee1a	-0.000545235
6	0x3d01a36b	0.03164999
7	0xbec08c8a	-0.37607223
8	0xbd47fe33	-0.048826408
9	0xbe08c04b	-0.13354604
10	0xbe12a894	-0.1432212
11	0xbd25ca28	-0.040475994
12	0x3d9c4230	0.07629812
13	0xbbd9be7d	-0.0066450224
14	0x3db4b754	0.088240296
15	0x3d4b3d76	0.04961916
16	0x3efd6ddb	0.49497876
17	0xbecfa855	-0.40558115
18	0xbe9cd7e2	-0.30633456
19	0xbe4cb894	-0.19992286
20	0x3eb0eff2	0.34558064
21	0xbdbaa94f	-0.09114324
22	0x3e7dd08b	0.24786584
23	0xbd922f54	-0.071379334
24	0xbdb11fd1	-0.086486466
25	0x3d9106af	0.07081353
26	0x3dbfd49d	0.09366725
27	0xbd5e13c4	-0.05421807
28	0xbd666a06	-0.056253456
29	0xbe3844dc	-0.17995018
30	0xbe5a4017	-0.21313511
31	0xbd9653d5	-0.073402084
32	0x3c851347	0.016244544
33	0xbcca174f	-0.024669318
34	0xbbd28c38	-0.006425407
35	0xbda56e22	-0.08077647
36	0x3d71ad9a	0.05900345
37	0x3edb138f	0.4278836
38	0xbebfc10b	-0.37451968
39	0xbecce00c	-0.40014684
40	0xbe655bb7	-0.22398268
41	0xbcd2a23a	-0.025712121
42	0xbe9bd0cc	-0.30432737
43	0xbd46ac0a	-0.048503913
44	0x3e939c54	0.28830206
45	0x3d826e8d	0.06368742
46	0x3e48d75c	0.19613403
47	0xbe01428e	-0.12623045
48	0xbe594db5	-0.21221049
49	0xbebe5537	-0.3717439
50	0x3e2f6d99	0.17131652
51	0xbd4d42b8	-0.050112456
52	0xbe6eb681	-0.23311807
53	0x3f1d9f7c	0.6157148
54	0x3d86afc1	0.06576491
55	0xbe1708c1	-0.14749433
56	0xbd5851ec	-0.0528125
57	0xbe37e245	-0.17957409
58	0xbeaec27f	-0.34132764
59	0xbc8bea1c	-0.017079405
60	0xbe4cd2b0	-0.20002246
61	0xbdc7952b	-0.097452484
62	0x3df08285	0.117436446
63	0xbe90c8b9	-0.2827814
64	0x3cbdf11e	0.023186263
65	0xbea6a625	-0.32548633
66	0x3da9db61	0.08293796
67	0xbda93406	-0.08261876
68	0xbe646358	-0.22303522
69	0xbede6328	-0.43435025
70	0x3df6457e	0.12024973
71	0xbe110e1d	-0.1416554
72	0xbe53ce0b	-0.20684068
73	0xbdb98b40	-0.09059763
74	0xbe484b20	-0.19559908
75	0xbdcbed51	-0.09957374
76	0xbe30832d	-0.1723754
77	0xbdd40d71	-0.10354126
78	0xbb720011	-0.003692631
79	0xbdb1a385	-0.08673767
80	0xbe3c484b	-0.18386953
81	0x3d83eda3	0.0644181
82	0xbde7ebb4	-0.11324254
83	0xbdb020bb	-0.08599993
84	0xbde3c5b0	-0.1112169
85	0x3efb9bce	0.49142307
86	0x3d9ac7cc	0.075576395
87	0xbde00192	-0.109377995
88	0xbe939f44	-0.28832448
89	0xbd96303c	-0.07333419
90	0xbe74c971	-0.23904969
91	0xbe7101b0	-0.235358
92	0xbe0a66d0	-0.13515782
93	0xbddbb08f	-0.10727035
94	0xbe0cf465	-0.13765104
95	0xbe32b6e0	-0.17452574
96	0xbe265f81	-0.1624737
97	0xbd9091c5	-0.07059053
98	0x3c52a432	0.01285653
99	0xbe5a9907	-0.21347438
100	0x3e6abe97	0.22924267
101	0xbe2e7e44	-0.17040354
102	0x3d9195ff	0.071086876
103	0xbe057a47	-0.13034926
104	0x3d934b4a	0.071920946
105	0x3e3fb5ae	0.18721649
106	0x3b30b964	0.002696597
107	0xbd9af0fb	-0.075654946
108	0x3dcda02e	0.100403175
109	0xbbd43ad1	-0.006476738
110	0x3e4b4bcc	0.19853133
111	0xbdf0f24d	-0.11764965
112	0xbd58a70e	-0.05289369
113	0xbd989ec8	-0.0745216
114	0xbe4ec29b	-0.20191424
115	0xbea54f6f	-0.32287166
116	0x3cea1c39	0.02857791
117	0x3f20d184	0.62819695
118	0x3bec0d4d	0.007203734
119	0xbeda4bee	-0.42636055
120	0x3ddb6a2b	0.10713609
121	0xbae96703	-0.0017807189
122	0xbe98a7b8	-0.2981546
123	0xbdd42ae2	-0.10359742
124	0x3dc57606	0.09641652
125	0xbd0b1acd	-0.033961106
126	0x3e1a5cbb	0.15074436
127	0xbe26bb73	-0.16282444
128	0x3d51d373	0.051227044
129	0x3de1d645	0.11027197
130	0xbce395af	-0.027781336
131	0xbef7baca	-0.48384696
132	0x3d0cce55	0.03437646
133	0xbe02c3e0	-0.12770033
134	0xbe8e6697	-0.27812645
135	0xbe7f1673	-0.24910907
136	0xbda3b5ea	-0.07993682
137	0xbd47f4e9	-0.04881755
138	0xbd05a24d	-0.032625485
139	0xbd3a19d6	-0.045434795
140	0x3d154148	0.03643921
141	0xbde0752e	-0.1095985
142	0x3e64b66e	0.22335216
143	0xbe286582	-0.16444972
144	0x3ded2bc9	0.11580617
145	0xbea9584a	-0.33075172
146	0x3c163069	0.009166815
147	0xbe55c400	-0.2087555
148	0xbe6f3698	-0.2336067
149	0xbdabf062	-0.08395459
150	0xbe64c66c	-0.22341317
151	0xbdcbfc9e	-0.09960292
152	0xbe96291f	-0.29328248
153	0x3e03cb71	0.12870575
154	0xbdc9e59d	-0.098582484
155	0xbbd5ed30	-0.006528519
156	0x3ee49049	0.4464133
157	0x3cea7c0a	0.0286236
158	0x3df25871	0.11833275
159	0xbe2bdf3c	-0.16784376
160	0xbdb2f9ad	-0.08739028
161	0xbe6376d2	-0.22213295
162	0x3d2242e4	0.039614573
163	0xbe5c4ba1	-0.21513225
164	0xbea45dc7	-0.32102796
165	0xbea56398	-0.32302547
166	0x3e12ced0	0.14336705
167	0xbd64d1d7	-0.05586418
168	0xbe768161	-0.24072792
169	0xbd489c4b	-0.048977178
170	0x3c7a2c13	0.015269297
171	0xbd443029	-0.04789749
172	0xbcb478f0	-0.022030324
173	0x3d96b52c	0.073587745
174	0x3d835409	0.06412513
175	0xbe547ec1	-0.20751478
176	0x3bae7f99	0.0053252694
177	0xbc5a1724	-0.013311181
178	0x3e52c419	0.20582618
179	0xbdca25d3	-0.09870496
180	0x3e73d69f	0.2381234
181	0x3f29d4e2	0.6634046
182	0x3ee39651	0.4445062
183	0xbd8279f4	-0.06370917
184	0xbd917724	-0.071028024
185	0x3d07b693	0.0331331
186	0x3dafb871	0.08580101
187	0xbe938489	-0.28812054
188	0xbe3889f2	-0.18021372
189	0xbbcca725	-0.006245511
190	0xbcf27eac	-0.029601417
191	0xbe84ffb0	-0.25976324
192	0xbd6e675e	-0.058204047
193	0xbd6dc902	-0.058053024
194	0xbbe81f4e	-0.00708381
195	0xbe0f84fb	-0.14015572
196	0xbcbdb4c1	-0.02315748
197	0xbe69f863	-0.22848658
198	0xbe30eaf1	-0.17277123
199	0xbde38a47	-0.11110359
200	0xbe058a2f	-0.13040994
201	0xbe1d05f4	-0.15334302
202	0x3e703865	0.23459013
203	0xbe3d047d	-0.18458743
204	0x3d666c98	0.056255907
205	0xbe33b49e	-0.17549369
206	0x3f298f92	0.66234696
207	0x3c80d31e	0.015725669
208	0xbd2d320d	-0.04228406
209	0xbf0ad528	-0.542315
210	0x3d838619	0.064220615
211	0x3e807102	0.25086218
212	0x3e052f86	0.1300641
213	0x3ee33837	0.44378826
214	0x3efb9983	0.49140558
215	0xbdcd3647	-0.10020118
216	0x3dbbaa4b	0.0916334
217	0xbcde8c8b	-0.027166625
218	0xbe50c1a3	-0.20386367
219	0xbe1bbeec	-0.1520955
220	0xbbef54f3	-0.007303828
221	0xbe9b25d4	-0.30302298
222	0xbe3aaca5	-0.18229921
223	0x3e0ee9d9	0.13956393
224	0xbe05008e	-0.12988493
225	0xbe411867	-0.18856965
226	0x3e612608	0.21987164
227	0xbee24814	-0.44195616
228	0x3d2448e1	0.040108565
229	0xbebbfb37	-0.367151
230	0x3e806684	0.25078213
231	0x3d1dad3e	0.038495295
232	0x3e70d0ec	0.23517197
233	0xbd77ea19	-0.060525987
234	0xbcd63143	-0.026146537
235	0xbe7f161e	-0.24910781
236	0x3da18184	0.07886031
237	0xbe889498	-0.26675868
238	0xbe879718	-0.26482463
239	0x3e43b11d	0.19110532
240	0xbdf782fe	-0.12085532
241	0x3e651725	0.2237211
242	0xbd0062e4	-0.03134431
243	0xbf51312d	-0.8171566
244	0xbdf2b4b4	-0.11850873
245	0xbe193be8	-0.14964259
246	0x3d8e59d7	0.06950729
247	0xbeb4801b	-0.35253987
248	0x3e2e054f	0.16994213
249	0xbe857fe7	-0.26074144
250	0xbe09fc03	-0.13475041
251	0x3e4fd972	0.20297793
252	0x3e5363ce	0.20643541
253	0x3e22ae71	0.15886857
254	0x3e71b119	0.23602714
255	0xbf270f17	-0.652574

gnn.convs.2.nn.lins.0.bias f4 [16]
0	0xbe1bc519	-0.15211906
1	0xbd6a533a	-0.057208277
2	0xbd9700d3	-0.07373204
3	0x3ec55d31	0.38547662
4	0x3e333b9c	0.17503208
5	0xbec7995b	-0.38984188
6	0x3e103120	0.1408124
7	0x3cd7a89f	0.026325522
8	0xbe3ef380	-0.18647575
9	0x3d4a31be	0.049363844
10	0xbe888d47	-0.26670286
11	0xbce46ba2	-0.027883355
12	0xbd2cf131	-0.042222206
13	0x3dd995b9	0.106242605
14	0xbe3e58f3	-0.18588619
15	0xbe15a372	-0.1461313

gnn.convs.2.nn.lins.1.weight f4 [16, 16]
0	0xbe0e525c	-0.13898605
1	0x3db7b946	0.08970885
2	0x3e9f98b1	0.31171182
3	0x3d0ccf7e	0.034377567
4	0x3e11b455	0.14228947
5	0x3e459d00	0.19298172
6	0xbe1c76fe	-0.15279767
7	0x3e8a239b	0.2698029
8	0x3b6a0acb	0.0035712
9	0xbda8a0bf	-0.08233785
10	0x3de0dc0e	0.10979472
11	0x3d989f0f	0.07452213
12	0xbde73a92	-0.11290468
13	0xbd97bb11	-0.07408727
14	0xbf68f6d4	-0.9100163
15	0xbea521c3	-0.3225232
16	0x3db18bc5	0.08669237
17	0xbd4f601d	-0.05062877
18	0xbe0011bd	-0.12506767
19	0xbd175e62	-0.036955245
20	0x3c892b68	0.01674433
21	0xbd74b896	-0.059746347
22	0xbe6d82d2	-0.23194435
23	0xbe2d8dfb	-0.16948693
24	0xbea75300	-0.3268051
25	0x3e341ddc	0.17589515
26	0xbb119a5c	-0.002221725
27	0xbddbe6b8	-0.107373655
28	0xbd31814c	-0.043336198
29	0xbe4943aa	-0.19654718
30	0xbeb021a2	-0.3440066
31	0xbe35b223	-0.17743735
32	0xbdacf62f	-0.08445393
33	0xbc85695d	-0.016285593
34	0xbe20059d	-0.15627141
35	0x3c1a3106	0.009411102
36	0x3df7b755	0.12095515
37	0xbd9d5ba9	-0.076834984
38	0x3e1e1b25	0.15440042
39	0x3d215a7a	0.039392926
40	0x3de24390	0.11048043
41	0x3e235f79	0.15954389
42	0x3e1128a2	0.14175656
43	0x3ddf2eba	0.10897584
44	0xbe83586e	-0.25653404
45	0xbe020c35	-0.12699969
46	0xbe8e99e0	-0.27851772
47	0xbded3653	-0.11582627
48	0x3d0854ca	0.033283986
49	0x3d08eb57	0.033427563
50	0xbe61d4c1	-0.22053815
51	0xbc75604d	-0.014976573
52	0x3d9e7c89	0.07738597
53	0xbe4a66cf	-0.19765781
54	0xbea70f37	-0.32628796
55	0xbce493b8	-0.027902469
56	0x3dc15871	0.09440697
57	0x3de6d973	0.11271944
58	0x3d98acd7	0.074548416
59	0x3e447243	0.19184212
60	0xbd9cf4bc	-0.07663867
61	0x3ca77730	0.020442575
62	0xbf0118ae	-0.50428283
63	0xbcc87c92	-0.024473462
64	0x3e67453a	0.22585002
65	0xbda742d7	-0.081670456
66	0x3e0ab2a2	0.13544706
67	0x3d77ea64	0.060526267
68	0xbdee2028	-0.11627227
69	0xbe82f7d5	-0.25579706
70	0x3e21d285	0.15802963
71	0x3d8c7ad4	0.06859365
72	0xbd87479b	-0.066054545
73	0xbdeb6d07	-0.11495405
74	0x3b2e6dc1	0.0026615711
75	0x3e2f1f58	0.171018
76	0xbe5b59c7	-0.21420966
77	0x3e4ac932	0.19803312
78	0x3ead9793	0.33904704
79	0xbdeb8773	-0.11500444
80	0xbe560b3e	-0.20902726
81	0xbda044f8	-0.07825655
82	0xbdb0737f	-0.08615779
83	0xbe07d559	-0.1326498
84	0xbd625a38	-0.05526182
85	0xbe74d4d7	-0.23909317
86	0xbe114844	-0.14187723
87	0x3dc8180a	0.0977021
88	0x3cd70ecc	0.026252173
89	0xbd6ca60e	-0.05777555
90	0x3e05e0f8	0.130741
91	0xbe1c625c	-0.15271896
92	0xbe797d5c	-0.24364227
93	0xbec3bb07	-0.38228628
94	0xbca7ff4c	-0.020507477
95	0xbe2bc36d	-0.16773768
96	0x3dbe0a9f	0.092793696
97	0xbe2b3e83	-0.16723065
98	0x3e010b90	0.12602067
99	0xbea423f7	-0.3205869
100	0xbec38244	-0.38185322
101	0xbe0d9b9a	-0.13828889
102	0xbcadad7b	-0.021200886
103	0x3da275f0	0.07932651
104	0x3e78db33	0.24302368
105	0x3d6b6ccb	0.0574768
106	0x3d42fed1	0.047606293
107	0x3cb59d89	0.022169845
108	0xbd1029ca	-0.035196103
109	0xbe06ed51	-0.13176467
110	0x3ec8b2ed	0.3919901
111	0x3e75b0c7	0.23993216
112	0xbd6f7dd5	-0.058469612
113	0x3d819e70	0.06329048
114	0x3d30cb3d	0.043162573
115	0x3bcd1b03	0.0062593236
116	0xbcc2f2d9	-0.02379744
117	0xbe0061c8	-0.125373
118	0xbdb436bb	-0.087995015
119	0xbd9e8a0f	-0.07741176
120	0xbe58dbff	-0.21177672
121	0x3de3e97a	0.111285165
122	0xbe70719c	-0.23480839
123	0xbec34af7	-0.3814313
124	0xbe3695a1	-0.17830516
125	0xbd4b1f71	-0.04959053
126	0xbe6b1654	-0.22957736
127	0xbc1460eb	-0.00905631
128	0x3d5a1fa8	0.053252846
129	0xbed68ad9	-0.41902807
130	0x3ea7d499	0.32779387
131	0xbe8090dd	-0.25110522
132	0xbdccfc0f	-0.10009014
133	0xbf1c1c79	-0.60980946
134	0x3dd8b5e3	0.10581567
135	0xbd80aa96	-0.06282537
136	0xbeb26291	-0.34840825
137	0xbd9b7108	-0.075899184
138	0xbea2274d	-0.3167061
139	0xbe6c3fc8	-0.23071206
140	0x3de75c62	0.112969175
141	0xbe99f4df	-0.30069634
142	0x3e5aa367	0.21351396
143	0xbd8f5c28	-0.06999999
144	0x3e099302	0.13434985
145	0xbe26e9ca	-0.16300121
146	0x3e387e8a	0.18017021
147	0x3dc7eee2	0.0976236
148	0xbe619d11	-0.22032572
149	0xbd5743b8	-0.052554816
150	0x3d007968	0.031365782
151	0x3e226e1d	0.15862317
152	0x3e8efddc	0.27928054
153	0xbe78b607	-0.24288188
154	0x3e1a61e8	0.15076411
155	0xbe22c700	-0.15896225
156	0xbd872b5c	-0.06600067
157	0xbdd8587e	-0.105637535
158	0xbde1ca90	-0.11024964
159	0x3ec4d9f5	0.38447538
160	0x3d904d3a	0.0704598
161	0xbe5e8b15	-0.21732743
162	0x3d38ff06	0.045165084
163	0x3bff3cc7	0.0077892276
164	0xbe869a31	-0.26289514
165	0xbe09c888	-0.13455403
166	0x3e0237c2	0.12716582
167	0xbdc80164	-0.0976589
168	0x3df5a777	0.11994832
169	0xbde12729	-0.10993797
170	0x3deeddc3	0.116633914
171	0xbd808417	-0.06275194
172	0xbea279a7	-0.31733438
173	0xbd68a9ff	-0.056802746
174	0xbdbf485e	-0.09339975
175	0x3cc3f82b	0.023922047
176	0x3e326598	0.17421567
177	0xbefb1971	-0.49042848
178	0x3d869bad	0.065726615
179	0x3e340dc1	0.17583372
180	0xbe389518	-0.18025625
181	0x3e4ab143	0.19794182
182	0x3e1312cd	0.1436264
183	0x3e27abcf	0.16374134
184	0xbebb764d	-0.36613694
185	0x3e85fc82	0.2616921
186	0x3e08872b	0.13332812
187	0x3d581fe2	0.05276478
188	0xbd405ff5	-0.04696651
189	0xbd8d1f2c	-0.06890711
190	0xbe36d287	-0.17853747
191	0xbe74938f	-0.23884414
192	0x3cfdcebd	0.03098237
193	0xbeb585fc	-0.35453784
194	0x3db410aa	0.08792241
195	0xbf5d539b	-0.86455697
196	0xbecb0f6d	-0.39660206
197	0x3d4e0afb	0.05030344
198	0xbe0fc15b	-0.14038603
199	0x3edd1371	0.43178895
200	0xbba2e471	-0.00497108
201	0xbdc8de24	-0.09807995
202	0x3e59079c	0.21194309
203	0xbc6bf6f3	-0.014402139
204	0xbe781291	-0.24225833
205	0xbf12471a	-0.5713974
206	0x3d7945bf	0.06085753
207	0x3ebe4fcd	0.37170258
208	0x3b4bd4b2	0.0031102118
209	0xbe28044e	-0.16407892
210	0xbe6d79b4	-0.23190957
211	0x3dfd9c7c	0.12383363
212	0xbe956a96	-0.2918288
213	0xbccdc4e0	-0.025118291
214	0xbd33c80e	-0.04389196
215	0x3d68dbb6	0.056850158
216	0x3e58608b	0.21130578
217	0xbdabca30	-0.083881736
218	0xbe0c949b	-0.13728563
219	0xbea6f77b	-0.32610688
220	0x3e97313b	0.29529747
221	0xbe8a965f	-0.2706785
222	0xbe813e7b	-0.2524298
223	0xbe230c78	-0.15922725
224	0xbe8daa5a	-0.2766903
225	0x3c8662c2	0.016404513
226	0x3e24eb42	0.16105369
227	0x3e1f9f38	0.15588081
228	0xbd9dec41	-0.077110775
229	0xbde96f3e	-0.11398171
230	0x3e01fbd0	0.12693715
231	0xbebe7258	-0.37196612
232	0xbbf36f4f	-0.0074290405
233	0x3d1d0730	0.038336933
234	0x3d59b245	0.053148527
235	0xbbc58ca3	-0.006028728
236	0xbd0d8f6a	-0.0345606
237	0xbea38ec0	-0.31944847
238	0x3e2e2c6f	0.17009138
239	0xbdf254f9	-0.118326135
240	0xbe08ae6c	-0.13347787
241	0xbe423318	-0.18964803
242	0x3cb43a15	0.022000352
243	0x3d2feda7	0.042951252
244	0xbd810277	-0.06299298
245	0x3d17cdd1	0.037061516
246	0xbd7fe214	-0.062471464
247	0xbe63b21f	-0.22235917
248	0xbe2fede9	-0.171806
249	0xbe05f834	-0.13082963
250	0xbda4ac0e	-0.08040629
251	0xbe472573	-0.1944788
252	0xbe282cda	-0.1642336
253	0xbd638342	-0.0555451
254	0xbd013985	-0.031548996
255	0xbde3830e	-0.11108981

gnn.convs.2.nn.lins.1.bias f4 [16]
0	0xbeae0699	-0.3398941
1	0xbcbaadf9	-0.022788035
2	0x3d63c720	0.055609822
3	0xbd51e14a	-0.051240243
4	0xbcd790a3	-0.026314085
5	0xbe0abef7	-0.1354941
6	0x3dfc4caa	0.1231931
7	0xbea26f02	-0.31725317
8	0x3da0274b	0.078199945
9	0xbe506cb8	-0.20353973
10	0xbd08cf4f	-0.03340083
11	0xbd9a859c	-0.07545015
12	0x3df9957c	0.12186715
13	0x3d143b7f	0.036189552
14	0xbddc855c	-0.10767624
15	0xbe21d4b9	-0.15803804

gnn.convs.3.nn.lins.0.weight f4 [16, 16]
0	0xbd8529a6	-0.065020844
1	0x3c9041ec	0.017609559
2	0x3cf89cb3	0.030348158
3	0x3e132d1c	0.14372677
4	0xbed54557	-0.41654465
5	0xbef8fc3e	-0.48629946
6	0xbeab037d	-0.334011
7	0x3dd6155b	0.10453292
8	0x3edf50c7	0.43616316
9	0xbe667f7f	-0.22509573
10	0xbcc21e8f	-0.023696212
11	0x3df1383e	0.117783055
12	0x3f2d882d	0.6778591
13	0x3e17ecfd	0.14836498
14	0x3ebba5f2	0.36650044
15	0xbddd296d	-0.10798917
16	0xbe1ae880	-0.15127754
17	0x3dcb88b0	0.099381804
18	0x3d212240	0.039339304
19	0xbe64c4c2	-0.22340682
20	0x3d70e9ef	0.058816846
21	0x3d17ea2c	0.037088558
22	0xbe51e6ee	-0.20498249
23	0xbe9d2de1	-0.30699065
24	0xbf3dde5f	-0.74167436
25	0xbec40960	-0.38288403
26	0xbea2f4b6	-0.31827325
27	0x3c0edada	0.0087191705
28	0xbefe25d6	-0.49638242
29	0x3e435e39	0.19078912
30	0x3d6b6314	0.057467535
31	0x3ea8ab62	0.32943255
32	0xbe279e2c	-0.16368932
33	0x3dbc467c	0.09193131
34	0xbdcfacea	-0.101404026
35	0xbd4ddda1	-0.05026019
36	0xbda1ef39	-0.07906956
37	0x3e3a7016	0.1820682
38	0xbe824d8a	-0.25449783
39	0xbcaa2db1	-0.02077374
40	0x3c869440	0.016428113
41	0xbdad8dbe	-0.08474301
42	0xbe5b070f	-0.21389411
43	0xbe599284	-0.21247298
44	0xbe36e218	-0.17859685
45	0xbe0063f7	-0.12538134
46	0xbe269dd4	-0.16271144
47	0xbe7bbe1e	-0.24584243
48	0x3de67b8d	0.11254034
49	0x3dd736e5	0.10508517
50	0xbeaa7fad	-0.33300534
51	0xbe76cac8	-0.24100792
52	0xbe8b4e3d	-0.2720813
53	0x3c500e10	0.012698665
54	0xbec731b3	-0.38905105
55	0xbcd7d4ea	-0.026346643
56	0xbe202301	-0.15638353
57	0xbe7cc7bc	-0.24685568
58	0xbeb06b17	-0.34456703
59	0x3de31425	0.11087827
60	0xbe4422e4	-0.19153935
61	0xbe4ca1aa	-0.19983545
62	0xbe02fb65	-0.12791212
63	0xbdf12ba3	-0.11775901
64	0xbe2bc25b	-0.1677336
65	0xbe12d4b8	-0.14338958
66	0xbcca6c3d	-0.024709815
67	0xbca1df55	-0.019759813
68	0xbd440457	-0.0478557
69	0x3d1830f8	0.037156075
70	0xbc244eb5	-0.010028531
71	0xbda3cb81	-0.079978
72	0xbe99b0f6	-0.30017823
73	0x3d1162c2	0.035494573
74	0x3e438ec5	0.19097431
75	0xbe18d371	-0.14924408
76	0xbe7b34c4	-0.24531847
77	0xbecb1e46	-0.39671534
78	0xbe72d08f	-0.23712371
79	0xbd78d591	-0.060750548
80	0xbd2db9f2	-0.04241366
81	0x3d34c8f0	0.04413694
82	0x3da53454	0.080666214
83	0xbe0b3bee	-0.1359708
84	0xbbbd1239	-0.0057699946
85	0x3d7c8409	0.061649356
86	0xbc9328c4	-0.017963775
87	0x3d2397da	0.03993974
88	0xbeba5072	-0.363895
89	0xbe2df6bb	-0.16988651
90	0xbd3d65fd	-0.04623984
91	0xbdf27908	-0.11839491
92	0xbe9d4d11	-0.3072286
93	0xbcd31143	-0.025765067
94	0xbc218368	-0.00985799
95	0x3e975c1c	0.2956246
96	0xbd81cb51	-0.06337608
97	0xbe2dcc31	-0.16972424
98	0x3dec7c10	0.115471005
99	0x3dfe60ab	0.12420782
100	0x3dc4b679	0.096051164
101	0xbd5f9c85	-0.054592628
102	0xbe317b4c	-0.1733219
103	0xbe200e7c	-0.15630525
104	0xbe9754f9	-0.29557016
105	0xbdefb29e	-0.117039904
106	0x3e5576f5	0.2084616
107	0xbe178de3	-0.14800219
108	0xbebf49c0	-0.37360954
109	0x3e334a04	0.17508703
110	0xbdad15a9	-0.08451397
111	0xbcf0d58b	-0.0293987
112	0xbe2847af	-0.16433595
113	0xbe8fa5db	-0.28056225
114	0x3d4f8603	0.050664913
115	0xbe02ec42	-0.12785438
116	0xbbb5b8e4	-0.0055457223
117	0x3c016cb9	0.007899457
118	0xbe4e0784	-0.20120054
119	0xbcb7b1d8	-0.02242367
120	0xbe667372	-0.22504976
121	0xbec01d9b	-0.37522587
122	0xbce4d13f	-0.027931808
123	0x3d8512d0	0.06497729
124	0xbfaf7f75	-1.3710772
125	0xbd1b0e43	-0.037855398
126	0x3d5af479	0.053455804
127	0x3d38132e	0.044940166
128	0xbcb51cc1	-0.022108437
129	0xbdaf5926	-0.085619256
130	0xbe8b2a09	-0.27180508
131	0x3e2be9c6	0.16788396
132	0xbe166a4d	-0.14688988
133	0xbf1b3aed	-0.6063679
134	0xbe6250c6	-0.22101125
135	0xbd830c90	-0.063988805
136	0xbe4faa81	-0.20279886
137	0xbc3ef58a	-0.011655221
138	0xbace9db9	-0.0015763558
139	0xbdf7fedb	-0.12109157
140	0xbf383dae	-0.71969116
141	0x3e8af38b	0.27138934
142	0xbe82c85e	-0.25543493
143	0x3da19d1a	0.07891293
144	0x3deec173	0.11657991
145	0x3e34ee7b	0.17669098
146	0x3e259d93	0.16173391
147	0x3d78c7bc	0.060737357
148	0x3d7169b3	0.058938693
149	0xbcae436d	-0.021272385
150	0x3c6aac4a	0.0143233035
151	0x3e827300	0.25478363
152	0xbf4fee43	-0.81222934
153	0xbc1d6d2e	-0.00960855
154	0x3e3b16f2	0.18270472
155	0x3e544b5a	0.2073187
156	0xbe5cb7e6	-0.21554527
157	0xbe0204cc	-0.12697142
158	0xbe838ee4	-0.25694954
159	0x3e0e279f	0.13882302
160	0x3e024821	0.12722827
161	0xbe8000d1	-0.25000623
162	0x3e15982d	0.14608832
163	0xbe868433	-0.26272735
164	0xbe55e7f4	-0.20889264
165	0x3efd936f	0.49526545
166	0x3d95f3ca	0.0732189
167	0xbe324112	-0.17407635
168	0xbd358b80	-0.04432249
169	0x3dcffd04	0.10155681
170	0xbe817f2a	-0.2529233
171	0xbbffc3b5	-0.0078053125
172	0x3d1613b2	0.036639877
173	0x3e08f2e1	0.13373901
174	0xbd2564c4	-0.0403793
175	0xbe0fe549	-0.14052309
176	0x3dcc783d	0.09983871
177	0xbe2fb30c	-0.17158145
178	0x3d68b357	0.056811657
179	0xbd936293	-0.07196536
180	0x3dfe12ba	0.124059156
181	0xbe46be4f	-0.19408534
182	0x3e483fb0	0.19555545
183	0xbdc03f69	-0.093870945
184	0x3d0ef0e7	0.03489771
185	0xbeb4e020	-0.35327244
186	0xbdb1d50b	-0.08683213
187	0xbb8bc379	-0.0042652455
188	0x3e8bc690	0.2729993
189	0xbe96bc35	-0.29440466
190	0xbe178f8b	-0.14800851
191	0xbd39a6ab	-0.045324963
192	0xbee798d1	-0.45233777
193	0x3d97378a	0.0738364
194	0xbe67854d	-0.22609444
195	0x3cb11b1e	0.021619376
196	0x3dd3bbe7	0.10338574
197	0x3d8200ac	0.063477844
198	0xbe7d5a21	-0.24741413
199	0x3d68340c	0.05669026
200	0xbf08c4db	-0.5342538
201	0x3e1790fa	0.14801398
202	0xbc90516c	-0.01761695
203	0xbe842b93	-0.25814494
204	0xbe8b7609	-0.2723849
205	0xbe22fb5f	-0.15916203
206	0xbe068a7a	-0.13138762
207	0xbe706d25	-0.23479135
208	0xbe52ab8e	-0.20573255
209	0x3a864e77	0.0010246773
210	0xbe42c77f	-0.19021414
211	0x3d8baeb6	0.06820433
212	0x3d156bcf	0.036479767
213	0xbe9d3e3f	-0.30711553
214	0xbe043508	-0.12910855
215	0x3bdf04de	0.006806
216	0xbdfbade4	-0.122890264
217	0xbceb9ec4	-0.028762229
218	0x3cd184f5	0.025576094
219	0xbd4a616d	-0.04940932
220	0xbf1f5c87	-0.6225056
221	0xbdc0a814	-0.09407058
222	0x3db0169b	0.08598062
223	0xbe126e69	-0.1429993
224	0xbe14c33f	-0.14527605
225	0xbe03c6bf	-0.12868784
226	0xbe6e8931	-0.23294522
227	0x3d232f4d	0.03984003
228	0xbcd9045d	-0.026491338
229	0xbe4b372b	-0.19845264
230	0xbdbef821	-0.093246706
231	0xbcbd24ef	-0.0230889
232	0xbe084482	-0.13307384
233	0xbe980ab6	-0.29695672
234	0xbdd06905	-0.10176281
235	0x3d1af99a	0.037835695
236	0xbec768b2	-0.38947064
237	0xbe36d49c	-0.17854542
238	0xbe02e72f	-0.12783502
239	0xbe57db9b	-0.21079867
240	0xbd342f8b	-0.043990653
241	0xbd2bdfce	-0.041961484
242	0x3ce67da4	0.028136082
243	0xbea60bd5	-0.32430902
244	0x3cf59791	0.029979499
245	0x3dbcc999	0.09218139
246	0x3d8502db	0.06494685
247	0x3d5b27bd	0.053504694
248	0xbf12e74c	-0.5738418
249	0xbf0a16db	-0.53941125
250	0xbe1f277a	-0.15542403
251	0x3d169a0b	0.036768
252	0x3baa3e7a	0.005195436
253	0x3e0d4b4d	0.13798256
254	0xbe80c7bd	-0.25152388
255	0xbe00b126	-0.12567577

gnn.convs.3.nn.lins.0.bias f4 [16]
0	0x3e618b15	0.22025712
1	0x3e173870	0.14767623
2	0xbe164f97	-0.14678799
3	0xbe1fdd29	-0.1561171
4	0xbeaaa87b	-0.33331665
5	0xbdde447b	-0.10852905
6	0xbe19b0c6	-0.1500884
7	0x3e4d1539	0.20027627
8	0xbed1e8e8	-0.40998006
9	0x3c27203b	0.010200555
10	0x3d80f0cb	0.062959276
11	0x3d10e740	0.035376787
12	0x3de8f6e5	0.113752164
13	0x3e09617f	0.13416098
14	0x3e5b6891	0.21426608
15	0xbdf397a9	-0.11894161
