Run_GIN_ModelCheckpoint_EvFr_2/NCI1_reps_2_folds_5_epochs_20_2023-04-26_11-05/rep_1_fold_3/checkpoints/model_trial_1.ckpt (torch, 245261 bytes, 86 tensors)

gnn.convs.0.nn.lins.0.weight f4 [32, 37]
000000 cc 2c da bc 1e cc ff 3c 5a 9d 8c be 0a f6 ac 3d
       -0.026632689 0.03122526 -0.274638 0.08445366
000010 92 36 04 bf bd ac a2 bd bc fb f9 bd 84 1f 35 3e
       -0.5164577 -0.079431035 -0.12206218 0.17687804
000020 b8 69 c2 3c 7c 4e 81 bd 84 2b 7d be a7 3f 1d bd
       0.023732051 -0.06313798 -0.24723631 -0.03839078
000030 f0 42 53 be 6a e8 aa bd a8 75 3e 3e 56 21 94 bd
       -0.20631003 -0.08345111 0.1859957 -0.07232921
000040 34 3f ad 3e 58 88 3e 3f 9d a7 1b 3f 56 06 af be
       0.33837283 0.74426794 0.6080263 -0.3418452
000050 02 0b 07 3d d8 53 66 3c 3a 1e 3b 3d 6c 2d 85 bd
       0.032969482 0.014058076 0.045683123 -0.06502804
000060 87 48 0b be be cf 85 be d0 34 8c be 66 f3 24 3e
       -0.13601886 -0.26135057 -0.27384043 0.16108474
000070 d5 89 8e be fd 58 80 be 74 cc 64 3e b2 d8 93 3d
       -0.27839532 -0.25067893 0.22343618 0.07219066
000080 d2 f0 9f 3e 5a bc 20 be d0 7b 3e be 06 ef bd 3d
       0.3123842 -0.1569685 -0.18601918 0.09274106
000090 08 93 8c 3e e9 8e 9a 3e 5b e2 7e 3e 1a f1 a4 bd
       0.27455926 0.30187157 0.24891035 -0.08053799
0000a0 a1 27 af be 88 3d 09 3e 4b df bc 3e c0 bc 7c be
       -0.34209922 0.13402379 0.3688911 -0.24681377
0000b0 ec f0 49 be 20 b4 dd 3f ba 55 95 3f b3 1d 13 40
       -0.1972081 1.7320595 1.1666787 2.2986877
0000c0 b7 95 29 3d f9 8b 98 3f 5a e8 2d 3e 24 13 93 be
       0.041402545 1.1917716 0.16983166 -0.2872554
0000d0 f6 d0 93 3f f4 80 a1 be dc a1 83 3e 2a 70 89 3f
       1.1548145 -0.31543696 0.25709426 1.0737355
0000e0 1e a6 c2 3f e7 cf d2 be 72 78 c5 be 79 19 7e bd
       1.5206945 -0.41174242 -0.38568455 -0.06203601
0000f0 41 ed 87 3f 2e b8 b1 3f cc 25 37 3f fd 45 0f 3f
       1.0619279 1.3884332 0.7154205 0.5596617
000100 74 42 28 3f 79 8a 5f be 3e 32 b3 be 18 12 80 be
       0.657264 -0.21830167 -0.3499927 -0.25013804
000110 61 51 23 be a8 bf 47 be 18 5f b2 be 81 4d 48 be
       -0.15949012 -0.19506705 -0.34838176 -0.19560815
000120 b8 50 c4 3d d2 bc 8d be 3c 4c 43 3e bf ba b0 be
       0.095857084 -0.2768312 0.1907205 -0.34517476
000130 87 99 ec be ea 64 18 bf f9 5e f3 3d 98 9a 19 be
       -0.46210882 -0.5952898 0.11883349 -0.15000379
000140 eb be 39 be 09 d1 49 3d 11 fb ec bd 66 fd df bd
       -0.18139236 0.049271617 -0.115713246 -0.10937004
000150 79 69 ac 3f d2 b1 be 3d ab b4 ad 3f 33 ff 09 3f
       1.3469688 0.0931126 1.357076 0.5390503
000160 cc ca 0f be 2d d0 13 3f 08 fb 88 bd 49 e5 85 bb
       -0.14042205 0.57739526 -0.066885054 -0.004086171
000170 77 6b d0 3e fc 59 c1 3d 91 2d 74 bd bc fc a8 bd
       0.4070699 0.09440991 -0.059613768 -0.0825133
000180 4b 0b f3 bd 94 60 79 3e 94 90 1d be 0e de 43 be
       -0.11867388 0.24353248 -0.15387183 -0.19127676
000190 86 28 3c 3f 1d f8 68 3e 3c 50 e1 bd 05 13 ac 3e
       0.73499334 0.22750898 -0.110016316 0.3360826
0001a0 16 6d 47 be aa 22 83 bd 4d 22 99 be d6 15 08 be
       -0.19475207 -0.06403096 -0.29908982 -0.1328958
0001b0 81 94 26 be 9d 57 fc bd 74 44 0b be 91 9c 12 be
       -0.16267587 -0.123213984 -0.13600332 -0.14317538
0001c0 fa c2 63 bd 82 1c 75 bd 20 c5 6b 3e 27 53 1d be
       -0.055605866 -0.05984164 0.23024416 -0.15363751
0001d0 cb 14 8d bb 92 50 48 be c8 2d b2 3d 2b cc 7a 3e
       -0.004305457 -0.19561985 0.08700138 0.24491946
0001e0 6e 26 a6 3e 37 46 2d 3d f0 49 47 bd 3e c3 39 3e
       0.32451195 0.04230329 -0.048654497 0.18140885
0001f0 9c f5 51 be 26 3c b1 ba b9 29 c3 3d dc 2b e5 3d
       -0.20503849 -0.0013521954 0.09529442 0.11190006
000200 5b 9a 90 3d 41 e7 22 3e 7c c7 9e 3e 0f 67 93 be
       0.07060691 0.15908529 0.3101157 -0.28789565
000210 bf a3 3a be 05 ed 39 3d 98 73 de 3d 4c a7 b9 3d
       -0.18226527 0.045392055 0.108618915 0.090651125
000220 04 52 17 3f 91 78 86 3e 5c 6d 2f 3f 90 9d 94 3d
       0.5910952 0.2626386 0.68526244 0.07256615
000230 05 3e e9 ba 7e fa f2 3c 29 47 2b bd 4d 63 84 bd
       -0.0017794973 0.02966046 -0.04181591 -0.064642526
000240 11 a6 54 3d 74 ce da bd 15 60 11 be f7 71 54 3d
       0.051916186 -0.10683909 -0.14196809 0.051866498
000250 81 91 8d be 90 9f 16 be 1f 43 b9 bd 84 65 29 3e
       -0.27650073 -0.14709306 -0.090460055 0.16542631
000260 78 55 9b bb aa b7 d3 3e 74 39 d2 3d 89 db 61 bc
       -0.0047404133 0.41351062 0.102648646 -0.013785251
000270 19 73 e9 bd 28 49 ad bd df 94 e6 bd 20 86 01 bc
       -0.11398906 -0.08461219 -0.11258864 -0.007905513
000280 bf b0 18 be 6a a2 26 bc 62 07 12 3e 3b 6f 8f 3d
       -0.14911173 -0.0101705585 0.14260629 0.070036374
000290 0c 34 d3 be d3 7a 95 bd 63 88 89 bd 5e 60 ef 3d
       -0.41250646 -0.072988175 -0.06715467 0.116883025
0002a0 39 b2 01 be c2 5a 2f be bc 9d 8a bd 3a 9c 00 3d
       -0.12665643 -0.17124465 -0.06768367 0.03139899
0002b0 08 aa f9 bd 39 2c 0a be af 37 83 3d b1 71 06 3e
       -0.12190634 -0.13493432 0.06407105 0.13129307
0002c0 0d eb 32 be 7f 71 ee bd 12 3c 20 be 4c 7d 8e bd
       -0.17472477 -0.116427414 -0.15647915 -0.06957492
0002d0 b1 d7 e8 3d 23 9f 65 3d f5 52 8e bd 90 59 08 be
       0.11369265 0.056059968 -0.069494165 -0.13315415
0002e0 ee fe ac bd f5 d4 a6 3e b6 5e ad be f8 df ac 3d
       -0.084470615 0.32584348 -0.3386132 0.08441156
0002f0 96 60 05 bf 58 f9 c7 be ff 60 1f 3f 99 43 94 be
       -0.52100503 -0.39057422 0.6225738 -0.28957823
000300 59 15 9a bd 4d d8 ee 3f ff a3 25 be b1 12 13 40
       -0.07523603 1.865976 -0.16175841 2.2980158
000310 4c f9 f1 3d b5 c9 7a bd 49 96 c3 3e 50 7f 61 3d
       0.11815128 -0.06122752 0.38200596 0.055053055
000320 3f 9b 20 be 56 98 1f 3f 69 a3 a3 3f 34 77 99 3f
       -0.15684222 0.6234182 1.2784244 1.1989503
000330 ac a8 ae 3f 9c 85 38 be dc e1 f2 be d4 02 10 3e
       1.3645225 -0.18019718 -0.47437942 0.14063579
000340 bc a5 d5 3b 75 19 2e be 77 b3 08 bd e4 ce 0c 3f
       0.006520001 -0.17001899 -0.033374276 0.5500319
000350 67 26 6c 3f 48 5c 02 be ac b1 98 be 2c 9f bb bc
       0.922461 -0.12730515 -0.29823053 -0.022903048
000360 e5 f3 46 3d 9e ab 29 3d 80 97 fc 3c 21 9e 12 be
       0.04857244 0.041423433 0.03083396 -0.14318134
000370 90 06 85 bd 83 94 6b be 9f f7 90 3c 8f a0 08 3d
       -0.06495392 -0.23005871 0.0176962 0.033356246
000380 44 9b a3 be 72 85 e3 3e ef e8 db 3e 9f 71 11 3f
       -0.31954396 0.44437748 0.42951152 0.56814
000390 27 d0 b1 be ca e3 ed be 29 ef 66 3f 04 36 70 3f
       -0.3472912 -0.46462852 0.9020868 0.9383242
0003a0 f6 6f 26 40 48 4b 41 3f 6e c4 b1 3f 23 1a d2 be
       2.6005836 0.75505495 1.388807 -0.41035566
0003b0 d6 a7 fd 3d 81 0a 98 3f ed 20 ac be 6e 26 8e 3f
       0.12385528 1.1878206 -0.3361887 1.1105478
0003c0 4f 56 7b 3f d3 42 3a 3c 94 65 b2 be 63 b8 21 be
       0.9817857 0.011368471 -0.34843123 -0.15792994
0003d0 5b 31 1d bd 61 3a bb 3f 19 1c e8 3f 31 a9 30 3f
       -0.038377147 1.4627191 1.8133575 0.69008166
0003e0 c0 04 6d 3f d3 2c 6e 3f d2 01 ea be 8e a7 a8 3b
       0.9258537 0.93037146 -0.45704514 0.005146927
0003f0 eb f0 11 bf 25 ae 0b 3e 37 cd 04 bf 32 d8 02 bf
       -0.57008237 0.1364065 -0.51875633 -0.5111114

gnn.convs.0.nn.lins.0.bias f4 [32]
000000 da d3 9c bd 31 c7 80 3d d6 dc 18 be f0 a9 a3 be
       -0.07657595 0.06287993 -0.14927992 -0.3196559
000010 8c 5a 99 be 00 09 9c be 1f fc fc 3e 8c 63 48 be
       -0.29951894 -0.30475616 0.49411103 -0.19569224
000020 78 6d 7f be 3b ff 54 3e 3f 40 0e bd 52 67 bf 3c
       -0.24944103 0.20800488 -0.03472924 0.023364697
000030 8f e6 67 be 44 4d 6e bd b8 4b b9 bd 34 7d 4b be
       -0.22646545 -0.058179155 -0.09047645 -0.1987198
000040 f8 8e aa be 21 9e 43 be 6b 9d 91 be 2b 8c ca 3d
       -0.33312201 -0.1910329 -0.28440413 0.09890016
000050 0e c7 6d be eb 99 6f be ca 78 46 be 10 d9 76 be
       -0.23220465 -0.23398559 -0.19382015 -0.2410624
000060 84 f8 6d be 95 26 45 bd c7 b7 1a bf ef d1 54 be
       -0.23239332 -0.048132498 -0.6043667 -0.20783208
000070 13 9d a0 bd a5 93 83 be 97 8e 21 3b 65 4d 79 be
       -0.078424595 -0.2569858 0.002465164 -0.2434593

gnn.convs.0.nn.lins.1.weight f4 [32, 32]
000000 18 79 a5 be 4b 0a 01 3e ea 68 48 3e 48 4d 2b 3d
       -0.3231895 0.12601583 0.19571272 0.041821748
000010 97 6d 06 be 1a 71 93 3e b7 9a d5 3d 15 bc 53 be
       -0.13127743 0.28797227 0.104299 -0.20677216
000020 18 76 f0 3d d9 9f 48 3e 01 e3 47 be 18 1d 70 3d
       0.117412746 0.19592227 -0.19520189 0.058621496
000030 c9 b7 fa 3e 6b 7c d0 3e 2c 65 17 bf 15 ca 98 3e
       0.48968342 0.40719923 -0.5913875 0.29841676
000040 82 f2 ae 3c fe e6 15 be 5c c6 f1 3d 7a e0 5e 3f
       0.021355871 -0.14638898 0.11805412 0.87061274
000050 4c c3 2e be ca a0 a5 bf 81 bc d9 bc fd 21 b7 3d
       -0.17066687 -1.2939694 -0.026579143 0.089420296
000060 7e 1f 73 be de 8c b2 3e 9a 1b 71 be 1d 32 49 be
       -0.23742482 0.34873098 -0.23545685 -0.19648023
000070 f4 3c 24 3f 82 1e a3 3e 70 15 b1 be 15 a8 ce bd
       0.6415551 0.31859213 -0.34586668 -0.10090653
000080 83 15 8d 3d 9d 79 b5 bb e0 80 88 3d 24 11 4f be
       0.06888869 -0.005538179 0.06665206 -0.20221382
000090 1a 36 62 3c 4b 70 ac bd 07 24 d1 bd 02 00 2b 3d
       0.013806844 -0.08419856 -0.1021195 0.041748054
0000a0 f2 44 30 3d fa 55 0f 3e 99 db 11 3e c9 ee 33 be
       0.0430345 0.13997641 0.14243926 -0.17571558
0000b0 7e 66 bb 3d 5f bc cf 3d a1 be 40 be d4 41 4a 3d
       0.09150408 0.10143351 -0.18822719 0.049379185
0000c0 72 2c 00 3e 22 16 65 3e a6 be 43 be f7 56 83 bd
       0.12516955 0.22371724 -0.19115695 -0.064130716
0000d0 91 a2 15 3d 32 63 a0 bd 2f 5f 46 3d 8b cb 7b bd
       0.03653199 -0.0783142 0.048430618 -0.06147341
0000e0 93 a1 c4 bd 81 a1 c0 3c 8f 70 8d be 15 78 c3 bd
       -0.0960113 0.023514511 -0.27624938 -0.09544388
0000f0 00 55 56 be 6d a7 37 be f9 c5 de bd 66 bb 80 3d
       -0.20930862 -0.17934962 -0.10877604 0.062857434
000100 a4 3d fe 3d 5b b8 25 3e 44 88 f4 3d 4b a6 f9 3d
       0.12414101 0.16183607 0.11940053 0.12189921
000110 08 9b 01 3d d2 bd 9e 3d fc a5 60 3e 21 43 85 3e
       0.03164199 0.07751049 0.21938318 0.26027778
000120 f4 95 61 bd 74 48 46 3e 98 55 ef bc da b8 9d 3e
       -0.055074647 0.19363576 -0.029215619 0.30805093
000130 ed ca 1e 3d a2 6c 9d 3e c4 b4 d2 be b9 b4 e2 3d
       0.038767744 0.30746943 -0.41153538 0.11069626
000140 4c 79 7a 3e 08 f7 6c 3d 68 7d b5 3d 6d 29 58 3f
       0.24460334 0.057852775 0.0886181 0.8443821
000150 cd 17 0e be d9 f6 ac bf ed 2b 8f 3e 40 2e 02 bd
       -0.13876267 -1.3512832 0.279632 -0.03178239
000160 3b 32 20 bc b0 8f 90 3d 2a f2 2c bf b6 33 de 3d
       -0.009777601 0.07058656 -0.67557013 0.10849707
000170 71 e4 18 3f d3 74 9e 3e 6c 4e eb 3c 5c 07 20 be
       0.59723574 0.30948505 0.028723918 -0.15627807
000180 99 49 f2 3e 01 be bf be 3d 43 b6 bc 0c 20 02 3c
       0.47321776 -0.3744965 -0.022248859 0.007942211
000190 0d 3a 94 3d f6 4b 4d be 06 c2 d9 be eb ef 91 be
       0.07237635 -0.20048508 -0.4253084 -0.28503355
0001a0 da d2 9f 3c 0e 24 25 3d c1 9a a2 3d cd 84 ab bd
       0.019509722 0.040317588 0.07939673 -0.08374939
0001b0 08 f1 c7 3d f7 95 1b 3d fd f3 f4 39 2a 1f 1d be
       0.0976277 0.037984814 0.00046721092 -0.1534392
0001c0 f4 18 ea bd 06 fb 9f bd 36 90 8a be ec f1 86 bd
       -0.11430541 -0.07811551 -0.2706315 -0.06589112
0001d0 c0 38 e9 bd d5 d3 f7 bb 6d 2f 14 be ea a1 11 3d
       -0.11387777 -0.007563094 -0.14471216 0.035554804
0001e0 c3 65 c5 3d ca 70 a0 3d fc f2 5c bd 87 38 2a be
       0.0963855 0.07834013 -0.053942665 -0.16623126
0001f0 be 79 f7 bb c7 1d 98 bd 11 44 da 3d 76 42 9f bc
       -0.0075523546 -0.074275546 0.10657514 -0.01944087
000200 e2 13 d1 bd 0d d2 97 bd c9 72 c3 bc ca b8 06 be
       -0.102088705 -0.07413111 -0.023858445 -0.13156429
000210 92 a7 56 bd d0 e1 18 be 56 6d dc be ca 76 82 bc
       -0.0524059 -0.1492989 -0.43052167 -0.015925784
000220 86 c5 e8 bc d9 9f fa bc 4a e2 a3 3d b1 ec e5 3d
       -0.028414499 -0.0305938 0.080021456 0.11226786
000230 31 a2 88 bd e4 75 09 3e c1 ad 42 bd 68 96 50 be
       -0.066715606 0.13423878 -0.047528986 -0.20369875
000240 31 9e b3 bd b5 3d bd bd 82 59 90 bd db eb a8 3d
       -0.08770407 -0.09240285 -0.07048322 0.08248111
000250 85 b8 2b 3e 3d 89 11 be 4b d5 3d bd 7a 19 d4 be
       0.16769607 -0.14212508 -0.04634599 -0.41425687
000260 79 d4 29 be db 81 26 be 46 49 26 be 2f 2e 20 3d
       -0.16584958 -0.16260473 -0.16238889 0.039106544
000270 2c 7d 1c 3d 53 c5 38 3c 75 69 ea 3d dd 59 14 be
       0.03820531 0.0112775145 0.114458956 -0.14487405
000280 f6 98 37 be 0d d8 74 be 00 4d ea 3e c9 2b 0e bc
       -0.17929444 -0.23910542 0.4576187 -0.008677431
000290 33 d8 30 bb 58 ff 19 be 18 5b c7 3e 7e 10 10 be
       -0.0026984334 -0.15038812 0.38936687 -0.14068791
0002a0 4a 5b 54 3b de f4 b1 bd 22 35 87 bd 1d 11 a9 bd
       0.0032403045 -0.08689283 -0.06601931 -0.08255217
0002b0 f4 af cf 3d 27 0b c3 ba ef b6 68 be 81 50 25 be
       0.10140982 -0.0014880643 -0.22726034 -0.16143991
0002c0 29 2c 21 be 06 26 63 3d af 52 22 be 61 d3 00 3e
       -0.15739502 0.055456184 -0.15851854 0.12580635
0002d0 ca fc 5f bd 4a 70 f5 be 7c 0a 8f 3d a9 18 bf 3d
       -0.054684438 -0.47937232 0.069844216 0.093308754
0002e0 cd 46 ae bd 59 3f 13 be f8 aa 80 3c 14 42 a7 bb
       -0.08509598 -0.14379634 0.015706524 -0.0051043127
0002f0 ef 42 b1 3d 88 ff 1b be bc df 60 bd 8b 69 ff bd
       0.08655345 -0.15234196 -0.05490087 -0.124713026
000300 e6 5f 2f be cc 83 b5 bd 69 5f 3f be 09 d7 47 3d
       -0.17126426 -0.08863029 -0.1868874 0.048789058
000310 19 05 76 3d 21 05 43 be e6 c3 cd bd 72 2d 3d be
       0.060063455 -0.19044925 -0.1004713 -0.18474367
000320 fd 04 c5 bd 64 b3 ab 3d 8b 2f 50 bd 5e 95 2c 3d
       -0.09620092 0.083838254 -0.05082659 0.042134635
000330 2f 93 6e be 48 90 5f be f7 fb 19 bd fd 12 64 be
       -0.23298334 -0.21832383 -0.037593808 -0.22272868
000340 0f 58 79 3d d3 63 0b 3e fb 97 ee bd 2d ce 66 bd
       0.060874995 0.13612299 -0.11650082 -0.05634897
000350 d6 8f fe bd 35 34 29 be 47 4b e3 3c c7 77 08 3c
       -0.12429778 -0.16523822 0.027745856 0.008329338
000360 1e 7e 04 3e 10 b7 51 bd c7 1a 9c bb 5a 29 14 3e
       0.12938735 -0.051199973 -0.0047639343 0.144689
000370 18 d6 4c be 8d 13 15 3c 00 aa 05 bd d4 77 2d 3b
       -0.20003545 0.0090989 -0.032632828 0.0026469128
000380 cf c5 10 3d 1e 20 1c be 4c 2a 2e be f8 19 98 bd
       0.035344895 -0.15246627 -0.17008322 -0.07426828
000390 ce 4a 10 be 90 84 14 bc 93 b7 82 3d ef cb 58 be
       -0.14091036 -0.0090648085 0.0638267 -0.21171544
0003a0 ac c3 9b 3d 5e d7 47 3d c5 dc 20 bd 06 82 15 bc
       0.07605681 0.048789375 -0.039273042 -0.009125238
0003b0 f2 ec 8e be 16 58 80 be 10 c4 3c be 72 73 ab bd
       -0.2791515 -0.25067204 -0.18434167 -0.08371629
0003c0 ef 2c bf bd 97 94 0b 3e 76 10 20 3e 02 98 cc bd
       -0.09334742 0.13630901 0.1563128 -0.09989931
0003d0 a1 31 24 be d9 2c aa bb be f4 88 bc 96 9a 71 3d
       -0.16034557 -0.0051933345 -0.016718265 0.058985315
0003e0 db db 01 be 7f 54 9e 3d 8d 78 0e be d0 d1 12 3e
       -0.12681524 0.0773096 -0.13913174 0.1433785
0003f0 cd 2b 80 bd 86 5e 6d be b5 c0 5b 3c 03 20 ef 3d
       -0.06258354 -0.23180589 0.013412644 0.116760276

gnn.convs.0.nn.lins.1.bias f4 [32]
000000 3a 62 b6 3e 4d 40 4f be b2 ee 95 3e 03 bc f5 bd
       0.35621816 -0.20239373 0.29283673 -0.11998751
000010 e9 9f 90 be d4 01 1f be 18 b0 25 be 58 e9 77 be
       -0.28247002 -0.15528041 -0.16180456 -0.24210107
000020 bf 1a 6a be 96 59 15 3e 40 86 7a 3e 64 8c cb bd
       -0.22861765 0.14584956 0.24465275 -0.09938887
000030 23 8b 88 bc 18 a7 f9 be 6a d8 ad 3d c4 ef 75 3d
       -0.016667908 -0.48760295 0.08488543 0.06004311
000040 b7 3e 11 be 4d a1 10 bf 39 96 31 be df 30 5f be
       -0.1418408 -0.56496125 -0.17342462 -0.21795987
000050 91 b9 c9 bd bf ac 36 bf b8 c6 18 3e dd f9 19 bd
       -0.09849847 -0.7135734 0.14919555 -0.037591804
000060 45 95 34 be e8 97 81 bc 0a 5e 9a 3d e0 f3 61 be
       -0.17635067 -0.015819505 0.07537468 -0.22065687
000070 9b bd 88 3e af e5 9a bc 81 a9 22 bd 2e 2f 41 bf
       0.26707157 -0.01890835 -0.039712433 -0.75462615

gnn.convs.1.nn.lins.0.weight f4 [32, 32]
000000 74 f7 27 bf 01 30 21 bc ac 96 27 bf 46 04 9f bd
       -0.6561196 -0.009838105 -0.6546428 -0.07764487
000010 8f d9 b0 bd 2c d8 97 3d 58 d7 ec bd 77 ee d6 3d
       -0.08635246 0.074142784 -0.11564511 0.10494702
000020 7b 84 40 3e 38 42 9b be 4f 41 1d bf 6a 9d 0e 3e
       0.18800537 -0.30323958 -0.6142778 0.13927236
000030 5c 7d c9 be c2 1d da bd ed 8d 6b 3e de dc d2 be
       -0.39353454 -0.10650207 0.23003359 -0.41184133
000040 19 37 8b bd 81 98 b1 be 3d 04 d6 3d 51 26 bc bd
       -0.067976184 -0.34686664 0.10450027 -0.09186996
000050 a3 76 c2 3c 22 34 81 3d ea 65 b1 be 24 54 ab 3d
       0.023738211 0.06308772 -0.34648067 0.08365658
000060 a2 2b 06 3f 0d e2 25 ba 8e 80 0a be fc cd 90 bd
       0.5241033 -0.00063279347 -0.13525602 -0.070705384
000070 a0 a2 4d be 09 9b bc bd 0f f9 83 3d 34 f2 13 be
       -0.20081568 -0.09209258 0.064439885 -0.14447862
000080 0f 5c bc bd 9c b7 10 bc b0 09 0b be 9b 1a 7f bd
       -0.09197246 -0.008832838 -0.13577914 -0.062281232
000090 2f 87 10 bc 43 03 1a b9 5b e8 f0 3b 1b 73 78 3d
       -0.008821293 -0.000146878 0.0073519177 0.060656648
0000a0 19 c7 75 bd 80 27 48 bd 79 cc b1 bd d8 92 02 be
       -0.060004327 -0.048865795 -0.08681578 -0.12751329
0000b0 f3 78 55 bc dd e6 87 be cf 49 1d 3d be d1 f3 bc
       -0.013029325 -0.26543322 0.038400467 -0.029763099
0000c0 fa 15 34 3e 32 b2 13 bc 60 9e c9 3c 31 28 cd bd
       0.17586508 -0.009014653 0.024611652 -0.100174315
0000d0 d3 69 1b 3e 3d a1 00 be 91 aa b7 bd 6c eb b2 bd
       0.15177087 -0.12561508 -0.0896808 -0.087363094
0000e0 a3 40 77 be 24 ea b1 bb 68 c9 b2 bc 9e ab 3e be
       -0.2414575 -0.005429523 -0.021824554 -0.18620154
0000f0 7e ac 4b bd eb 68 61 be 2b f3 5e bd c9 70 f1 bd
       -0.04972505 -0.2201268 -0.05443112 -0.1178909
000100 55 fc 8f bd cb 8e 00 3e 5a 6e cf be 1e ee c4 be
       -0.070305504 0.12554471 -0.4051388 -0.3846292
000110 09 08 08 3e 29 22 2e be 41 b7 9f 3c bb f8 30 3e
       0.13284315 -0.17005219 0.019496562 0.17282383
000120 79 33 e6 bc d2 7e c1 bd ce cc c4 bd 9c b5 b0 3d
       -0.028100716 -0.09448017 -0.09609376 0.08628389
000130 17 0c 0c be f3 c4 8d be 41 f8 0f bd 40 fa 22 3d
       -0.13676487 -0.27689323 -0.035148863 0.03978944
000140 2c 8e 15 3e 26 25 db bd cc 73 9e 3d 48 e5 e9 bd
       0.14605016 -0.10700445 0.0773693 -0.11420685
000150 ed 1a a9 be 2c 7d 03 bd 4b 91 f3 bd ad 10 73 3d
       -0.33028355 -0.032101795 -0.11892947 0.059342075
000160 b5 c0 0d 3d c7 78 71 3d 9b f1 75 be 5c a6 43 bd
       0.034607608 0.058953073 -0.24017946 -0.047766075
000170 1b 6e dc 3d fd a3 fb bd ae 6f 91 3d 45 95 35 be
       0.107631885 -0.12287138 0.07101379 -0.17732723
000180 77 40 99 3e cd af 48 bd 12 df e4 3e cc f7 98 3e
       0.29931995 -0.04899578 0.4470144 0.29876554
000190 49 b7 8a 3e a5 fb 6e 3d 33 f6 36 be ed f6 d0 bc
       0.2709296 0.058345456 -0.17867355 -0.025508368
0001a0 73 fa 19 3e c8 8e 15 3d 5e 23 56 3e c0 a5 16 3e
       0.15036945 0.03651312 0.20911929 0.14711666
0001b0 b4 11 9a 3e 00 e9 a3 bd 86 a9 64 3e 52 ec ff bb
       0.3009163 -0.080034256 0.22330293 -0.007810154
0001c0 45 9a 39 3d b7 04 0c bf fd c6 70 bd 8e 6a cb 3d
       0.04531314 -0.54694694 -0.05878352 0.09932433
0001d0 f4 98 b8 bd e9 5f 2f be a1 c7 be 3d e3 4c 06 3c
       -0.090135485 -0.1712643 0.0931542 0.008197042
0001e0 f6 c3 82 3d c5 a0 83 bc f5 d4 e8 3d cd 63 ea bd
       0.06385033 -0.016067872 0.11368743 -0.11444817
0001f0 30 4c 1b 3e 14 50 1a ba 80 6f f7 3c f9 23 03 bf
       0.15165782 -0.00058865664 0.030204535 -0.51226765
000200 58 16 43 3e 44 07 75 be 63 09 3d be 82 62 9a 3c
       0.19051492 -0.23928553 -0.18460612 0.0188458
000210 52 1e a8 3e 0d 05 ed 3d d9 42 2d 3e af 06 a6 3d
       0.32835633 0.11573229 0.16920032 0.081067435
000220 fb 6f bb bc 06 db 4d 3d 0b b8 bb be 14 dd e4 3d
       -0.022880545 0.050257705 -0.3666385 0.1117498
000230 6c 01 6d bd fc 3d 83 bc 57 e9 ea be ba 27 ff bd
       -0.057862684 -0.016020767 -0.4588115 -0.12458749
000240 e2 9b 0b 3e f3 25 10 be 08 c3 88 bd f7 50 6b bc
       0.13633683 -0.14076976 -0.06677824 -0.014362565
000250 6f 7d 96 3d b4 ee 9c be 08 80 53 be 12 6e 3f be
       0.07348143 -0.30650866 -0.20654309 -0.18694332
000260 65 18 1b 3d b8 cb dd 3d 7d 4d 74 3e b7 9a 94 bd
       0.03786506 0.10829872 0.23857684 -0.07256072
000270 b0 57 24 be f9 e2 8d bc b0 ec f6 bd 91 d1 50 be
       -0.16049075 -0.017320143 -0.12056863 -0.20392443
000280 1e a7 d3 bc 2e 88 83 be df 62 61 3e da 79 be bd
       -0.025836524 -0.25689834 0.22010373 -0.09300585
000290 ed b1 eb 3d d3 d9 f9 3d 53 36 7a bd 9e 28 6c 3d
       0.11508546 0.1219975 -0.061086964 0.057655923
0002a0 24 43 54 3d be 44 66 3d 6a e9 4f 3e 84 42 86 bd
       0.051821843 0.0562179 0.20303884 -0.065556556
0002b0 e7 40 3e 3d d8 e8 92 be d3 f5 03 3e b4 74 3b 3d
       0.046448614 -0.2869327 0.12886743 0.045765594
0002c0 27 78 03 bd 58 da f6 be d4 cc 7d 3d 49 68 27 be
       -0.032097008 -0.48213458 0.061962917 -0.16348375
0002d0 26 c1 ae bd c2 d8 6a bf cf 6d 11 be 60 d7 12 be
       -0.08532934 -0.91736996 -0.14202045 -0.14339972
0002e0 7e 96 32 3e 95 d0 9c bd ad 3a cd 3d 57 9b ed bd
       0.1744022 -0.07656971 0.10020957 -0.11601894
0002f0 5a 55 91 bd ef 63 1b be 6e b7 cb bd 6e 9e 1a bf
       -0.07096358 -0.1517484 -0.09947096 -0.60397995
000300 03 d6 98 3d 4e cd e0 3c 00 6c 95 3e ab c4 37 be
       0.074626945 0.027441647 0.2918396 -0.17946117
000310 46 46 8a 3e 19 75 73 bd 44 a4 d6 3b 06 f3 4e 3e
       0.2700674 -0.059437845 0.0065503437 0.20209894
000320 9a 01 2a be ac fb 95 bb b6 02 11 3d f6 c6 d5 3d
       -0.16602173 -0.0045771208 0.035402976 0.104383394
000330 00 7a ca bc e1 f2 72 be 63 50 d3 3d ce 0d 83 bd
       -0.024716377 -0.23725463 0.10318067 -0.063991174
000340 a9 5f 19 be dd 44 f4 be 1e 7d 57 3d f3 5c 84 bd
       -0.14977898 -0.4770879 0.052609555 -0.06463041
000350 e4 97 d1 3d 43 4e 49 be c0 b5 3a 3d 07 46 d8 3d
       0.10234049 -0.1965876 0.045583487 0.10560232
000360 09 7f 82 3e 25 e4 f9 bb 15 6b 41 3e 8b f9 91 3d
       0.25487545 -0.007626074 0.18888505 0.07127675
000370 82 f6 2c 3e b5 5c 46 3d 8e 46 af bd 93 57 ed be
       0.1689091 0.048428256 -0.08558379 -0.46355876
000380 73 92 d4 bd 82 57 28 3d 09 0c a8 3c ca 44 55 3d
       -0.103794955 0.04109908 0.020513551 0.052067555
000390 dc 82 87 3d 54 7f 8a 3c a6 db 87 3b 6d 9d 81 bd
       0.06616756 0.016906418 0.004146057 -0.06328855
0003a0 b5 e6 1d bc 8a 87 a9 be 09 cb 48 3c f8 77 1b 3d
       -0.009637524 -0.3311122 0.012255439 0.037956208
0003b0 59 4b e1 bd 9c ed ae bd 80 61 3b be 0f 1e 5e bd
       -0.110006995 -0.08541414 -0.18298912 -0.054227885
0003c0 9f 67 0c bc ac 41 83 be af 69 8a bb 09 17 3d 3c
       -0.008569627 -0.2563604 -0.0042240242 0.011541137
0003d0 dd da 29 3e b5 ef 03 3d ef 6c 89 3d 78 e4 48 be
       0.16587396 0.032211024 0.067102306 -0.19618404
0003e0 02 63 4a be 3d d5 eb 3d d5 f9 8b bd 2f c3 51 be
       -0.19764331 0.11515281 -0.06834761 -0.20484613
0003f0 f5 67 08 be 44 cd bc bd 5e 47 55 be c8 ad 9a bd
       -0.13320906 -0.09218839 -0.20828006 -0.075526774

gnn.convs.1.nn.lins.0.bias f4 [32]
000000 ac 2e fa 3e 30 5a 4f be 7a 08 cf be 3e ee b9 3e
       0.48863733 -0.20249248 -0.40436155 0.36314577
000010 17 46 45 be be e5 b6 3e bb 86 fe 3e b4 83 2b bd
       -0.19265018 0.35722154 0.49712166 -0.04187365
000020 de 55 7c 3e 33 26 cd 3e 77 bf 48 bc c7 eb 86 be
       0.2464213 0.40068206 -0.01225268 -0.2635176
000030 8f fd a0 be 18 54 84 be ab fb 07 3f 0b 3d 89 be
       -0.3144345 -0.25845408 0.5311839 -0.26804385
000040 7b 6d 59 3f fe 26 0a 3f cf d8 e3 3e 81 dc 9d be
       0.8493268 0.5396575 0.4450135 -0.30832294
000050 07 d9 2d 3f 14 b1 01 3f 82 a9 c3 3e 81 80 34 be
       0.6790928 0.50660825 0.38215262 -0.17627145
000060 32 c0 25 3f a9 ca 90 bd 0f d4 f8 bd a3 49 4c be
       0.6474639 -0.07069904 -0.12149822 -0.19949965
000070 20 58 18 3f a3 0c d7 3e ae b2 de bd b3 73 cf 3e
       0.5950947 0.4200183 -0.10873924 0.4051796

gnn.convs.1.nn.lins.1.weight f4 [32, 32]
000000 99 7e f8 be a2 19 29 3d 91 c0 3c 3e 3e fa f0 3d
       -0.48534086 0.04128421 0.18432833 0.1176648
000010 a5 aa 77 3e 75 3c 83 3e e6 f7 7e 3b b6 f7 a2 bd
       0.2418619 0.25632063 0.0038905083 -0.07957403
000020 ac 9f b6 bd a3 40 06 3e e9 19 39 bd ea 83 57 3d
       -0.08917174 0.13110594 -0.045190725 0.052616037
000030 5c 09 82 be e1 0f 40 3d f6 0b fb 3d 2d 0b e8 3e
       -0.25397766 0.046890143 0.12258141 0.45321026
000040 5e fe 58 bf 63 b2 b2 3e 21 38 1c 3e 49 0e 38 bd
       -0.84763134 0.34901723 0.15255786 -0.0449355
000050 f0 3f 26 bf 72 9b 58 3e 36 90 e4 3b 3f 11 46 bd
       -0.6494131 0.21153048 0.006975199 -0.04835629
000060 a1 1b 2e bf 91 27 0d 3d eb 43 f9 bd 93 6a 29 3e
       -0.6801091 0.03446156 -0.121711574 0.16544561
000070 5d 0b b7 3e 6c d5 b6 bd 21 2f 13 be 67 23 91 3d
       0.35750857 -0.08927426 -0.14373447 0.070868306
000080 1e 33 69 be ae fc 12 3e 07 e7 45 3d 29 e9 89 3d
       -0.22773406 0.14354202 0.048316028 0.06733925
000090 de ef 64 3e 3d d4 95 bd 77 97 8f bd 40 03 2b bd
       0.22357127 -0.07315872 -0.070113115 -0.041751146
0000a0 19 e6 22 3d 9b 9d e6 3d 81 0f c6 bc 89 64 34 be
       0.03977022 0.112605296 -0.024177315 -0.17616476
0000b0 98 a3 1a bd 27 71 d7 bd 05 d3 1f bd 98 9f 5b be
       -0.03775367 -0.10519629 -0.039019603 -0.21447599
0000c0 f5 5b b4 3d 08 da 0d be b9 20 1b 3d 0c b9 80 3e
       0.08806602 -0.13852704 0.037873004 0.2514118
0000d0 53 06 54 3e a1 78 69 be f2 da 70 bd e8 99 b0 be
       0.20705537 -0.22799923 -0.058802553 -0.3449242
0000e0 8c 97 00 be ae 38 e9 bd 70 da 8c be 3e 1f 90 3c
       -0.1255781 -0.11387764 -0.27510405 0.017593022
0000f0 bd eb 19 be c2 84 9c 3d 43 98 1b 3c db ae 5e be
       -0.15031333 0.07642509 0.009496751 -0.2174639
000100 2d ab 81 3d ed b4 be 3d ea c6 f5 bd 93 23 25 be
       0.06331477 0.093118526 -0.120008305 -0.16126852
000110 1c e4 ee bc 2c 72 be bd 10 49 89 bd a3 26 e1 bc
       -0.029161505 -0.0929912 -0.06703389 -0.027484244
000120 a3 6f 25 be f2 52 21 be 2d ae 84 bd bf f1 16 be
       -0.16155867 -0.15754297 -0.06478534 -0.14740656
000130 39 c0 45 be 44 24 e3 3d 8f 30 d9 bd d2 fe 0c be
       -0.19311608 0.110909015 -0.10604965 -0.13769081
000140 ff 6f 1b be 4b ab 47 bd 91 44 33 3e 36 70 67 bd
       -0.15179442 -0.048747342 0.17506625 -0.056503497
000150 0c e0 a0 3b 15 d7 05 be 3d 64 dd 3d d9 66 d4 bb
       0.004909521 -0.13070329 0.108101346 -0.006481987
000160 a0 08 0a be 6b a6 65 be 63 ad 1c 3e ea 0f c4 3d
       -0.13479853 -0.22426765 0.15300517 0.09573348
000170 b0 5f 1f be 53 bb cb bc 75 1f ed 3d d0 11 14 be
       -0.15563846 -0.024869597 0.115782656 -0.1445992
000180 59 3b 84 3e f6 98 d8 3c 58 46 89 bd 44 4f d8 bc
       0.2582653 0.026440125 -0.0670287 -0.026404984
000190 b5 00 df 3c 1f 25 e4 3d a8 6b f5 bd 31 8d 0d bc
       0.027222017 0.11139893 -0.119834244 -0.00863962
0001a0 3a 64 81 be a3 1e e1 3c 4a 08 17 3e f2 4a a0 3d
       -0.2527178 0.027480429 0.14749256 0.07826795
0001b0 6d 4b a7 be 72 91 18 be 17 0e 50 be 8a 79 92 3b
       -0.32674733 -0.14899233 -0.20317875 0.004470055
0001c0 45 7b 24 bd 41 ce 8b 3d 23 03 b8 bd 33 47 c5 bc
       -0.04015662 0.06826449 -0.08984973 -0.024081802
0001d0 ca ea ca 3c a7 fc a5 3d 7d 48 72 bd 14 9b d0 3d
       0.02477016 0.0810483 -0.05915116 0.10185829
0001e0 16 62 9d be c5 98 de 3c d8 fe 16 be 8d 7b 39 be
       -0.30738896 0.027172456 -0.14745653 -0.18113537
0001f0 c8 5f 38 3d ec a1 24 be ea 22 52 3e 87 6e 0a 3c
       0.04501322 -0.16077393 0.20521131 0.008449203
000200 da e9 85 3f a6 e2 9e 3d a0 fd 33 be 54 b5 8b be
       1.0461991 0.077580735 -0.17577219 -0.2728678
000210 b4 a5 eb bd 90 95 96 be dc fa 9f bd f7 d8 5b be
       -0.11506215 -0.29410982 -0.078115195 -0.21469484
000220 92 c6 06 be 67 18 eb bd 64 7e a9 be 5c b1 f9 3d
       -0.13161686 -0.11479264 -0.3310424 0.12192032
000230 3e 2b 85 bb 0f c8 67 3e 19 7a 1a be 8e 41 00 3f
       -0.0040639928 0.2263491 -0.15085639 0.5010003
000240 c8 c2 92 3f a6 0b 69 ba 33 ad 9b 3b 95 d8 80 3e
       1.1465693 -0.00088899804 0.0047508716 0.2516524
000250 c2 2f 17 3f 4c c2 e5 bd ff 9e f6 bc 40 24 75 bd
       0.5905725 -0.112187 -0.030105112 -0.059849024
000260 39 f2 fc 3e b8 52 af 3d 72 11 1d 3f e0 45 75 ba
       0.4940355 0.08560699 0.61354744 -0.00093564205
000270 37 a0 22 3e 30 9c 19 be 1b a6 1f 3d c9 a8 31 be
       0.1588143 -0.15000987 0.03897677 -0.17349543
000280 01 ba 21 3f 7a 63 69 3e 7a 48 d8 bd 5a df ae bd
       0.63174444 0.22791854 -0.10560699 -0.08538695
000290 b4 f8 64 3c ea 05 f1 3d 99 6a bf bd 9d 38 07 bc
       0.013975311 0.11768706 -0.09346504 -0.008253244
0002a0 d7 ed d9 bd 2a 55 0a 3e 8a f9 34 3e 91 f1 87 3d
       -0.106410675 0.1350905 0.17673317 0.06637872
0002b0 63 4b 54 be 29 a6 b3 bd 3f 1a 6e be d9 86 d6 bd
       -0.20731883 -0.08771927 -0.232522 -0.10474939
0002c0 04 d5 ca 3e 73 b5 e3 3d 7e 62 32 be ad 5a 11 3f
       0.39615643 0.11118593 -0.17420384 0.56778985
0002d0 c3 70 7e 3f 2e 56 4c be a5 4f 30 3e 02 94 70 3e
       0.9939081 -0.1995475 0.17217882 0.2349396
0002e0 e2 fa 19 3f ca ec e5 3d 32 a1 01 3e af 35 c0 bd
       0.6014844 0.112268046 0.12659147 -0.09385239
0002f0 37 12 dd 3d 2b 1d 82 be d4 8c 4f 3e 49 d6 40 3d
       0.1079449 -0.25412878 0.20268565 0.04707936
000300 65 92 23 be 12 74 03 bd ee ba f4 bd 0f 3f 94 3e
       -0.15973814 -0.032093115 -0.119497165 0.2895436
000310 a5 31 04 3e 97 ae a4 3e 02 51 d1 3e 46 56 a6 bd
       0.12909563 0.3216445 0.40882117 -0.08121924
000320 a9 de a5 3e 21 45 1c 3e cb 7b e8 bd e0 f1 0a be
       0.3239644 0.15260746 -0.11351737 -0.1356883
000330 51 2d 0c be fc 9a 6a bb d7 d1 9a 3e f6 cb 75 3c
       -0.13689162 -0.0035797944 0.3023822 0.015002241
000340 54 60 2d bf af 3c 9b 3e fb 6c af 3e 62 1e 2b be
       -0.6772511 0.30319735 0.34262833 -0.16710809
000350 f5 3a df be 30 09 88 3e 57 be bd 3e c1 3f 45 bd
       -0.43599668 0.2656951 0.3705928 -0.048156504
000360 b3 c3 2c bf 92 20 11 3e 3f 55 0a bd d3 0e 1a bd
       -0.67486113 0.14172581 -0.033772703 -0.037611794
000370 01 6e 03 3f 28 d3 c8 3e b4 29 94 bd f9 f9 f2 3e
       0.5133973 0.392236 -0.07234517 0.4745634
000380 76 69 42 be 3e 96 d2 bd 72 23 51 3e 15 1b ce 3e
       -0.18985543 -0.10282563 0.20423678 0.40255037
000390 ec 6a f8 bd 47 9d 13 3d e4 95 b3 3d 9d 64 4b 3c
       -0.12129769 0.036038663 0.08768824 0.012414125
0003a0 d5 b8 cc 3d dd 51 c4 3e af f5 16 be b5 da 1c bd
       0.099961914 0.38343707 -0.14742158 -0.038294513
0003b0 f2 0c 89 bd 5e c5 b2 bd 89 f3 07 3f 89 a8 36 3e
       -0.06691922 -0.08729051 0.5310598 0.17837729
0003c0 9f e4 cc be 19 ae ad 3e de 6f e9 3e 01 b3 02 bd
       -0.40018174 0.33921888 0.4559316 -0.031908993
0003d0 0a 4e bf be a0 29 08 3f 05 b5 63 3e da a0 a5 bd
       -0.37364227 0.53188515 0.22237022 -0.080873206
0003e0 61 69 84 bf 75 ce 65 bd 23 bd 96 be 32 2b 9e bd
       -1.0344659 -0.056105096 -0.29441175 -0.077230826
0003f0 83 a6 86 3e e2 37 c2 3e f4 0f be bd 73 ac da 3e
       0.26298913 0.3793326 -0.092803866 0.42709693

gnn.convs.1.nn.lins.1.bias f4 [32]
000000 f9 3b bf 3e 40 f4 39 be 89 cc 02 bc c1 64 6b be
       0.37350443 -0.1815958 -0.007983335 -0.22987653
000010 cf 22 da 3e 14 f5 2c 3e cd 17 c6 3e 2f fa 53 3e
       0.42604682 0.16890365 0.38690034 0.20700906
000020 f7 a9 52 3e e6 39 cc 3d 7f c4 60 be 66 bd 97 3e
       0.20572649 0.09971981 -0.21949957 0.29636687
000030 be c7 85 3e cc d0 03 be 8b c5 88 3e 40 61 d2 bc
       0.26128954 -0.12872618 0.26713213 -0.025681138
000040 c7 3f a3 be 2c 8c ee 3e dc 22 aa 3b 43 4e 3d 3d
       -0.31884596 0.46591318 0.005192144 0.046217214
000050 02 12 43 3e 37 a6 90 bd de 3b 35 3d ba 54 9d bd
       0.19049838 -0.07062953 0.044246547 -0.07682176
000060 6c b4 ea bd fd bd 3f bc 20 ca f5 3d 9d 8a 2b 3e
       -0.11460194 -0.011703012 0.12001443 0.16752096
000070 fd ad 18 3e cb 2d 5c 3e 38 ec 42 be 33 9e f9 3d
       0.14910121 0.21501844 -0.19035423 0.12188377

gnn.convs.2.nn.lins.0.weight f4 [32, 32]
000000 0b 66 84 bc dc a3 db bd 73 ae cd 3d c4 f0 0e 3d
       -0.01616194 -0.10724613 0.10043039 0.03489758
000010 97 3e 42 be 51 49 02 be b1 8a 73 bd 02 25 7c be
       -0.18969189 -0.1272328 -0.05945844 -0.24623492
000020 64 d6 d8 bd 9f 39 a9 bd 13 96 40 3e d2 de b7 3d
       -0.10587767 -0.082629435 0.18807249 0.089780465
000030 63 3c 2b be 70 e2 f9 3d 0a ce 44 bd d8 6b 99 3d
       -0.16722254 0.12201393 -0.048048057 0.07491273
000040 29 c8 00 be 4d 91 7d be 1a d6 e1 be c7 9e 5f 3e
       -0.12576355 -0.24762459 -0.4410866 0.21837912
000050 37 47 a9 bd 6d 92 ef be 63 06 d2 bd 14 49 ac be
       -0.08265536 -0.46791402 -0.102551244 -0.33649504
000060 eb 23 54 3d ea 66 ea bd 73 79 6a be 44 be 13 3e
       0.051792067 -0.114454105 -0.22897892 0.1442805
000070 02 3a d7 3c fa be 3e be a1 74 6f 3d 43 33 d4 bd
       0.026272777 -0.1862754 0.058460835 -0.1036134
000080 10 5e df bd 70 f0 32 3c 0e 04 2d be ad a4 69 3e
       -0.10906613 0.010921583 -0.16896078 0.22816725
000090 69 7a 7d 3e 04 3a d7 be bf f5 2f be 02 29 82 be
       0.24753727 -0.4203645 -0.17183588 -0.2542191
0000a0 c0 6b 33 be 23 28 4e be be d8 12 be 65 06 3c be
       -0.17521572 -0.20132498 -0.14340493 -0.18361814
0000b0 da 5c 1e be 9d 0c a4 3d ef 44 0b be 17 b0 08 be
       -0.15465108 0.08010218 -0.13600515 -0.13348423
0000c0 fe e1 e4 bd 23 5b d4 3d 0b 91 17 be 24 88 eb bd
       -0.11175917 0.103689454 -0.14801423 -0.11500576
0000d0 90 9c 79 be 27 b3 00 be fb 5c 80 3d 7c ac b6 3d
       -0.2437613 -0.12568341 0.062677346 0.089196175
0000e0 10 2c 63 bd 42 7a a8 bd 8e 63 51 be a1 2c 2d be
       -0.055461943 -0.08226444 -0.20448133 -0.16911556
0000f0 4f 06 4a bf e1 c4 33 3e 32 ac b6 bd eb 3f 3c 3c
       -0.78915876 0.17555572 -0.089195624 0.011489849
000100 c8 91 0f be ac 81 34 3e 3a b2 13 3b e1 5a 0d be
       -0.14020455 0.17627591 0.0022536651 -0.13804199
000110 3f 7e 96 bf c6 c8 ff 3c 0a 5a 6a 3d 71 e5 8b 3b
       -1.1757277 0.031223666 0.057214774 0.004269295
000120 b8 89 1a 3e c8 fe ce bc 93 b1 35 3e 34 e5 06 3d
       0.15091598 -0.025267974 0.1774352 0.03293343
000130 8b 5b 0b be 98 8c fa bd 48 2e 6b bd c0 54 66 bd
       -0.1360914 -0.122338474 -0.057417184 -0.056233168
000140 1f 3c 2b bd b0 6d ff 3d 74 4e cb 3d 17 07 dd 3b
       -0.041805383 0.12472093 0.09927073 0.00674523
000150 d5 c3 15 be 29 f4 c7 3c 15 6c 12 be 6f ae ed 3c
       -0.14625485 0.024408417 -0.14299043 0.02901384
000160 bc 08 e1 ba 5a c3 a0 be e9 fe ba 3d 73 e3 dd 3c
       -0.0017168741 -0.3139904 0.091306515 0.027085995
000170 a0 8d b3 bd 25 b9 44 3d 5d 37 bf 3c 94 4e 12 3e
       -0.08767247 0.04802813 0.023341829 0.14287788
000180 be c8 a5 bd e8 69 33 be a5 0c 65 3d 95 24 bf bc
       -0.08094929 -0.17520869 0.055920262 -0.023332873
000190 64 67 09 be a7 84 2d be 9e be 13 be 4c 83 68 be
       -0.13418347 -0.16945134 -0.14428183 -0.22706336
0001a0 a0 5e 2f 3d 60 c1 ac 3d fd b3 9a 3d c1 e1 4b be
       0.04281485 0.08435321 0.07553861 -0.19910337
0001b0 9d 4f db 3c 52 cc 1d 3e 10 7f 85 be 8b b2 95 bd
       0.026771361 0.15409973 -0.26073503 -0.07309445
0001c0 ec c1 d5 3d 50 f7 e1 bd d3 1a 47 be da f3 c0 3d
       0.10437378 -0.11033499 -0.19443826 0.09421511
0001d0 32 3b 06 be 39 87 56 be c0 39 ff bd 4a 66 21 bd
       -0.13108519 -0.20950021 -0.12462187 -0.03940419
0001e0 bd 0e a2 3c dc 88 e8 3d 27 0e 4c be 1a 52 51 be
       0.019782418 0.11354229 -0.19927274 -0.20441476
0001f0 b3 f9 4b be 5b ba b8 bd fc 3d 13 be 48 c6 22 be
       -0.19919471 -0.090199195 -0.14379114 -0.15895951
000200 dc 53 9a 3e 2e 69 3b bc 7c a6 bd 3d 20 7e 5e 3e
       0.30142105 -0.011438651 0.0926027 0.217278
000210 1f a2 02 bf 94 8c 1c be 53 70 c9 3e 9e 48 c9 3e
       -0.5102863 -0.15288001 0.3934351 0.39313215
000220 08 a7 97 3e b3 df 42 3c d5 78 28 be 35 17 e2 3e
       0.29619622 0.011894154 -0.16452344 0.4415833
000230 86 b9 b7 3e 66 fa 05 be 77 a1 b3 3e c5 cf 42 3d
       0.3588373 -0.130838 0.35084125 0.047561426
000240 1b 73 83 3d 60 f2 44 3e 52 ac 18 3e e3 fa 74 bb
       0.06418439 0.19233084 0.14909485 -0.0037380985
000250 ad 6e 65 3e 13 9d 14 bb 2b 5d b1 3e 09 32 84 bd
       0.224055 -0.0022676631 0.34641394 -0.06454856
000260 60 b1 91 bd e0 bd 5f 3e 60 a3 e0 3d 23 bc f1 3c
       -0.0711391 0.21849775 0.10968661 0.029508656
000270 67 e2 be be 8f b4 89 3e 96 09 0a 3d 3e dc 7c 3e
       -0.37282106 0.26895568 0.033700548 0.2469339
000280 7a 26 ee 3e e9 15 e6 3d 82 12 30 bd d5 01 b6 3e
       0.4651373 0.11234648 -0.0429864 0.35548273
000290 6e 99 a9 3c af 8c 14 bf 3d 7b bc 3e 59 b2 1a 3f
       0.020703044 -0.58027166 0.36812773 0.60428387
0002a0 d9 d3 17 3f 5d 8b c0 3d db a8 c2 3d 2c b6 9f 3e
       0.5930763 0.094015814 0.09504863 0.31193674
0002b0 f4 f5 db 3e 48 53 5a 3e 6a f2 2d 3f 4a e1 b9 bd
       0.42961085 0.21320832 0.6794802 -0.090761736
0002c0 5c 00 b3 bd f7 aa 0b 3f fd 03 3f ba ed 49 31 bd
       -0.08740303 0.54557747 -0.0007286666 -0.04328339
0002d0 f4 f6 fa 3e 21 02 1f 3e c8 3d ed 3e d6 12 07 3e
       0.49016535 0.15528156 0.46336198 0.13190779
0002e0 82 a6 82 3d 7a d7 25 3f fb 43 61 3e a8 08 79 be
       0.06379415 0.64781916 0.21998589 -0.24319708
0002f0 17 aa c8 be 13 26 e9 3e 68 7d 96 3d 47 ff 7f 3e
       -0.39192268 0.4553686 0.07348138 0.24999724
000300 6f 85 a8 3e 92 20 84 bd b6 2b 8a 3d 12 e4 a2 bd
       0.32914302 -0.06451525 0.067466184 -0.07953657
000310 9c c5 0a be 40 93 80 be d7 ff 8a 3e ac 26 c4 3e
       -0.13551944 -0.25112343 0.27148315 0.38310754
000320 3e e6 04 3f 54 62 22 3e 27 ea c9 3d ed 10 8b 3e
       0.5191382 0.15857822 0.09859114 0.2716135
000330 ce ea b4 3e 44 09 8f bd d3 c1 c3 3e bf c7 23 bd
       0.35335392 -0.06984189 0.38233814 -0.039985415
000340 27 55 e3 bd 3e 45 86 3e 12 6e fc 3d 1a c7 6f 3e
       -0.11100226 0.26224703 0.12325682 0.23415795
000350 79 2a d3 3e 6f ca 80 be ca fa 0f 3e db 9a 5b 3d
       0.41243342 -0.25154445 0.14060512 0.05361448
000360 43 54 5d 3d 38 ad e8 3e 3b b1 21 bd f2 77 17 3d
       0.054035436 0.45444655 -0.03947566 0.036979623
000370 c5 86 8d be 48 03 b7 3e bc 5a 87 3d 03 f6 cc 3e
       -0.27641883 0.3574469 0.06609103 0.40031442
000380 1b 3d 6f 3d 6d 96 33 be ff 6e 7a 3e 6b a4 08 bd
       0.058407884 -0.17537852 0.24456404 -0.033359926
000390 4e e7 fc 3c f8 24 23 bd 33 48 85 bd b5 08 73 be
       0.030872013 -0.039830178 -0.065079115 -0.2373379
0003a0 ee 11 82 3c 41 5b 01 bd 52 cc 9a 3d dc 6d 6b 3d
       0.01587769 -0.031581167 0.07558502 0.057477817
0003b0 80 e6 58 be 43 1d aa 3b 56 68 be 3d 99 16 2c 3c
       -0.21181679 0.0051914765 0.09297244 0.010503435
0003c0 e4 36 2f be a1 54 c7 bc 49 66 a8 3d 89 e6 53 bc
       -0.17110783 -0.024332346 0.08222634 -0.012933382
0003d0 42 95 a7 bc 1c f5 01 be f6 dd dd bc 44 78 3e be
       -0.020456914 -0.12691158 -0.027083378 -0.18600565
0003e0 43 8f 2c be 04 44 20 be 40 dc 21 be 0e ae 9c 3d
       -0.16851525 -0.15650946 -0.15806675 0.07650386
0003f0 26 1f 13 be 7e 1c 97 bc 9e 99 f5 3d 45 fb b1 bd
       -0.14367351 -0.018446203 0.11992191 -0.08690504

gnn.convs.2.nn.lins.0.bias f4 [32]
000000 7c 01 87 bd f9 8d f2 bd 9e 07 02 3e 4b b7 90 bd
       -0.0659208 -0.118434854 0.12698218 -0.0706621
000010 3b 20 7c 3e f5 a4 1f 3f ed 8b 26 3e 2a 75 5b bd
       0.2462167 0.6236108 0.16264315 -0.053578533
000020 df bc 53 3e 0b 1f 9c 3e a0 be 77 3e f9 2e d1 bc
       0.20677517 0.30492434 0.24193811 -0.025535094
000030 ce 79 b1 3d a6 1c d0 3d e6 76 93 bd 4a 8d c8 bd
       0.086658105 0.10161714 -0.072004125 -0.09792574
000040 c1 b7 35 bd 44 13 8d 3d bd a3 23 3d 51 8f e4 3e
       -0.044364695 0.0688844 0.039951075 0.44640592
000050 62 75 45 be 4c a8 1b 3e 0a 37 a2 bc 59 a6 01 be
       -0.19283059 0.15200919 -0.019801635 -0.12661113
000060 09 dd 83 bd e9 98 30 3e a7 b9 4b be 2b c9 73 3e
       -0.064386435 0.1724583 -0.1989504 0.23807208
000070 09 de 30 3e 87 60 97 3d ba 3b 4e 3e b6 f6 d1 3d
       0.172722 0.07391458 0.20139971 0.102521345

gnn.convs.2.nn.lins.1.weight f4 [32, 32]
000000 93 87 16 3e 65 48 e4 3c 31 11 4b 3e 80 86 8c bd
       0.14700155 0.027866552 0.19830777 -0.06861591
000010 af 57 72 3e a1 11 0e 3f 4a f9 93 3e 5a 56 01 3e
       0.23666261 0.5549565 0.2890113 0.12630597
000020 71 fa 05 3e de dd 54 3e a7 43 cb 3e 41 76 00 3d
       0.13083817 0.2078776 0.39700052 0.031362776
000030 79 67 0b 3d c2 4a 47 3e 9d 04 c1 bd b6 0f 60 3e
       0.034034226 0.19462112 -0.09424708 0.21880993
000040 08 81 9c bc 08 87 44 3d 41 ba d2 3d 95 2a 07 3f
       -0.019104496 0.04798034 0.10289431 0.5279935
000050 63 6c 99 be e6 cb 2a 3e 78 1e 87 bd 67 b2 08 3e
       -0.29965505 0.16679344 -0.06597608 0.13349305
000060 df 79 1f bd b9 53 0e 3e a5 5b c1 bc 35 02 23 3e
       -0.038934585 0.13899125 -0.02360327 0.1591881
000070 63 57 ec 3d 16 62 08 3e d8 ea 2c 3e b8 e3 51 bc
       0.11540105 0.13318667 0.16886461 -0.01281064
000080 ca e2 00 3d 9c 21 24 be 0c 7d df 3d 4d 2e 6b 3d
       0.031466283 -0.16028446 0.10912523 0.057417203
000090 81 3b 65 be 65 44 93 3d 28 c2 62 be e4 b1 3d be
       -0.2238598 0.071907796 -0.22144377 -0.18524891
0000a0 47 51 2a be ef 48 e0 bd 85 a0 84 3d b7 94 5a be
       -0.16632567 -0.10951411 0.06475929 -0.21345793
0000b0 ed 32 23 be 9a 53 d0 3d 5c f7 59 be 28 fe fb 3c
       -0.15937395 0.10172196 -0.21285766 0.03076084
0000c0 17 ce 07 3d 84 92 b5 bd 7b dd 07 3d 88 4d cf bd
       0.033155527 -0.08865836 0.033170205 -0.1012221
0000d0 80 97 22 be 85 04 cb bc 20 c6 89 3c 3e 98 00 3d
       -0.15878105 -0.024782429 0.016818106 0.03139519
0000e0 07 4b cd bd 83 a1 66 be a2 86 3b bd 18 31 f0 3b
       -0.10024076 -0.2252255 -0.045782693 0.007330071
0000f0 7c b6 6f bd f8 22 1e bd e9 78 27 be 19 56 6a be
       -0.05852364 -0.038607568 -0.16354717 -0.22884406
000100 df 4f 83 be b0 ee 4e bd 9a 49 bd bc 49 71 f3 3d
       -0.25646874 -0.0505206 -0.023106385 0.11886842
000110 56 2b d5 3e 2f 8b d3 3e 3c e7 39 3e dc f2 b4 bc
       0.41634625 0.41317126 0.18154615 -0.02208846
000120 23 e9 87 bd 90 35 da 3e 65 19 c5 3e 80 af c1 3c
       -0.06636264 0.4261899 0.38495937 0.023643255
000130 c7 6f 3a 3e 5e 24 94 3e 54 ea 7c 3d 7c c2 1b 3e
       0.18206702 0.28933996 0.06174691 0.15210909
000140 22 d2 dd 3d 14 2f c4 bd a3 f8 d3 3c e1 99 b4 3e
       0.10831095 -0.09579292 0.025875395 0.3527365
000150 4f 89 aa bd 52 cf 39 bc 3c af 0a bd 6e 02 31 bb
       -0.08326971 -0.011340933 -0.033858523 -0.0027009505
000160 aa fc e2 be 80 20 b2 3e d6 51 2e 3e 65 20 26 be
       -0.44333392 0.3479042 0.17023405 -0.16223295
000170 e9 4a ad be 10 26 b0 3d 02 5a 08 3e 62 e6 ab 3c
       -0.33846214 0.0860101 0.13315585 0.020983879
000180 c5 67 a4 bd d3 39 11 3f a5 d6 62 bd 42 d6 c5 bc
       -0.08027605 0.5672886 -0.055380482 -0.024150018
000190 c4 00 20 be 41 e4 96 be 9d a9 89 be 2e 8a 97 bd
       -0.15625292 -0.2947102 -0.26887217 -0.073994026
0001a0 1e 72 98 bd 94 81 f8 be 8e 8a 12 3e 5e f9 86 3d
       -0.07443641 -0.4853636 0.14310667 0.06590532
0001b0 15 35 a3 be 81 08 e6 3c 6c 03 e4 3d cd ef 13 be
       -0.31876436 0.028080227 0.11133465 -0.14446945
0001c0 ab dc 49 be 35 da 83 3d 33 fd 55 3e 19 50 56 be
       -0.19713084 0.06438104 0.20897369 -0.20928992
0001d0 01 2a be bc 2f 3c 5d be 03 86 31 be 26 4d 82 3f
       -0.023213388 -0.2160499 -0.17336278 1.0179794
0001e0 c0 89 4a bd b2 0e 7b be 8a c0 ab bd dc c3 0b be
       -0.049447775 -0.24517325 -0.08386333 -0.13648933
0001f0 49 ed 51 be fc dd 44 be e4 33 0d be 6d d5 93 3d
       -0.20500673 -0.19225305 -0.13789326 0.07218442
000200 a5 bd 95 bb 68 8d 12 bd 4e c8 7b be e9 67 1f 3e
       -0.0045697265 -0.035779387 -0.24588129 0.15566982
000210 5f 2b 32 bc de da 89 be 29 54 48 be 9f e6 ad 3d
       -0.010874598 -0.26924795 -0.19563355 0.08491253
000220 2d 4d 91 3c 8d 98 07 3d a9 6c 53 be 4c b8 98 bc
       0.017736996 0.033104468 -0.2064692 -0.018642567
000230 a1 f6 b6 3d 59 08 a9 bc bc a5 34 be 04 80 d7 bd
       0.089337595 -0.020633863 -0.17641348 -0.10522464
000240 4a 2a 8f bd af d6 1c be d5 d5 44 bd 50 18 84 3c
       -0.06990488 -0.1531627 -0.04805549 0.016124874
000250 af 81 4c be 55 15 11 be 72 ca 00 3d 97 62 85 3d
       -0.19971345 -0.14168294 0.031443067 0.06512945
000260 ec fd 70 be 3e 6e 08 be 8f b4 5a 3d d9 75 9c 3d
       -0.23534364 -0.13323304 0.05339485 0.07639665
000270 07 37 96 bd 7f 74 2a be b8 68 1d bd 38 6b 96 bd
       -0.073347144 -0.16646002 -0.038429946 -0.07344669
000280 95 f1 10 be f1 ad a5 bd fd 01 df bb 90 42 e7 3d
       -0.14154656 -0.08089817 -0.006805657 0.11291993
000290 6f 89 54 3e ac e5 a4 3e c6 ab 73 3e 2c 4e 37 3e
       0.20755552 0.32206476 0.23795995 0.17900914
0002a0 9e 29 22 3d f9 bd de 3e 28 a3 b2 3e 72 4a 0d bd
       0.03959047 0.43504313 0.34890103 -0.034494825
0002b0 4a 38 d1 3d 34 e7 cb 3c d6 d4 8f bc bb 33 98 bd
       0.102158144 0.02489052 -0.017557543 -0.07431742
0002c0 59 98 9e 3d a2 18 3b be e1 d0 25 3e ed 4e 0a 3f
       0.07743902 -0.18271115 0.16192962 0.5402668
0002d0 e3 8b 88 bd 1b 61 a8 bc fb 98 80 3c 87 73 19 be
       -0.06667306 -0.020554116 0.015697947 -0.14985476
0002e0 93 14 f6 3d f3 51 ae 3e ce 5b eb 3d 78 a3 5e bd
       0.12015643 0.34046897 0.1149212 -0.054355115
0002f0 d2 ab 00 bd d5 dc a4 3d 7f 20 4d 3e a7 b3 5a 3e
       -0.03141386 0.08049933 0.20031928 0.21357594
000300 bd d5 48 3e fd 8c 63 be 13 d3 1f bd dd 8d 1b 3d
       0.19612785 -0.22221752 -0.039019655 0.03797709
000310 bd c1 6c bd b2 ed c9 3b cd b8 d3 bc 4b 9b 16 be
       -0.05780195 0.0061623687 -0.025844956 -0.14707677
000320 87 6d 87 bd 37 2a ad 3d bc cc fa bd b1 a2 b8 bd
       -0.066126876 0.084553175 -0.12246081 -0.09015406
000330 c5 36 c6 bd 87 cd af 3d bf 57 c6 bd fd b7 d5 bc
       -0.09678415 0.08584123 -0.09684705 -0.026088709
000340 e4 48 4b 39 86 18 82 bc ed 73 65 3d 89 d4 9f bb
       0.00019386742 -0.015880834 0.05601876 -0.004877631
000350 de 3d d8 bd 31 2c 82 bd fb 83 25 3d 63 4e 47 be
       -0.10558675 -0.06356085 0.04040907 -0.19463496
000360 9c 58 40 3c 1f 50 e0 3b 61 8c 17 be d3 a0 33 be
       0.011739876 0.0068454887 -0.14799644 -0.17541818
000370 c5 62 cc bd e7 6f 67 be 14 24 d0 3c be 6c 25 3e
       -0.09979776 -0.22601281 0.025407828 0.16154763
000380 a9 12 10 be 04 91 43 3e 53 a9 23 3d 58 6e 92 bd
       -0.14069618 0.19098288 0.039956402 -0.07149953
000390 1f 5f 02 3d 8e 71 52 3e 92 d7 3d 3e 0b 7b 40 bd
       0.031828996 0.2055113 0.18539265 -0.046992343
0003a0 d3 cb f6 3d 95 d2 86 3e 68 03 55 3e f1 a2 c1 bc
       0.12050595 0.26332536 0.2080208 -0.023637267
0003b0 46 b3 36 3e a6 f5 34 3e 24 e4 87 3d b5 36 7d bd
       0.17841825 0.17671832 0.06635311 -0.06181975
0003c0 5e 15 d1 3d 00 0b 42 3e 0b 56 0a bd e8 9f b7 3e
       0.102091536 0.18949509 -0.033773463 0.35864186
0003d0 10 61 2f 3e 0d 10 f0 bd e1 c1 0e bc da 1d 12 3e
       0.1712687 -0.117218114 -0.0087132165 0.142692
0003e0 d7 66 10 3e 43 a8 11 3d a4 ea a9 bc 03 6e 8a 3d
       0.1410173 0.035560858 -0.020741768 0.06759264
0003f0 e7 07 a9 be d3 e8 b5 3d d7 2a 32 3e 15 56 f9 3c
       -0.33013842 0.08882298 0.17399155 0.030436555

gnn.convs.2.nn.lins.1.bias f4 [32]
000000 f6 e1 18 3d 8b 60 bf 3d 1a 35 95 bb 0c 3a 20 be
       0.03732487 0.09344586 -0.0045534493 -0.15647143
000010 76 85 07 be 17 00 e9 3d 22 25 c2 bd b2 47 a5 bb
       -0.13234505 0.1137697 -0.09479739 -0.005043947
000020 e7 0f 90 3d c6 46 a9 3d b1 4d 92 bd 36 7b 36 be
       0.07034283 0.08265452 -0.07143725 -0.17820439
000030 a3 4d 4f be 21 1a 4e 3e 04 bf bd bc d6 bc 85 bd
       -0.2024446 0.20127155 -0.023162372 -0.06530158
000040 ec ca 8c 3d bf 50 58 3e 76 53 1b be c3 95 ea bd
       0.06874642 0.21124552 -0.15168557 -0.11454346
000050 16 f4 af 3c 3c d8 8d 3e 55 d6 3b bd c8 1e 83 bc
       0.021478694 0.27704036 -0.0458587 -0.016005889
000060 0f 9a f8 bd ea 2d 9c be 88 24 b9 bd 01 ed 53 bd
       -0.12138759 -0.3050378 -0.09040171 -0.051739696
000070 9e 9a fa 3d 83 8f 10 be 75 95 05 3c 8a fa 41 be
       0.12236522 -0.14117245 0.008153309 -0.1894323
