Run_GIN_ModelCheckpoint_EvFr_2/NCI1_reps_2_folds_5_epochs_20_2023-04-26_11-05/rep_1_fold_3/checkpoints/model_trial_0.ckpt (torch, 245261 bytes, 86 tensors)

gnn.convs.0.nn.lins.0.weight f4 [32, 37]
000000 63 84 3b 3c 0a 48 41 3e d9 80 45 be 42 19 82 be
       0.011445138 0.18875137 -0.19287433 -0.25409895
000010 63 4e b5 3e 1b 8d 82 bd 87 c2 12 be 63 96 00 3e
       0.35411367 -0.0637457 -0.14332019 0.12557368
000020 27 f6 d2 3e 52 ad 05 3f 82 06 a6 3f 4e 9d ad bd
       0.41203424 0.5221759 1.2970736 -0.08477269
000030 f9 c9 48 bd 7c fb 19 bd e1 28 92 3c e9 25 b5 bc
       -0.04902074 -0.03759335 0.017841758 -0.022112804
000040 d0 d0 81 be de a8 4a 3c 56 4e 64 3f e3 66 47 3e
       -0.25354624 0.012369363 0.8918203 0.19472842
000050 0a cf 13 be 6c 3b 1b be c0 8d 0b bd 39 d3 fc 3d
       -0.14434448 -0.15159386 -0.03407073 0.12344975
000060 55 0c 07 3e 3b dc 39 bc e5 95 a5 3e 08 69 5b 3f
       0.13188298 -0.011344011 0.32340923 0.8570714
000070 47 bc ed 3c 35 77 de bd 68 8f 10 3d 42 50 f3 3d
       0.029020442 -0.10862581 0.035293013 0.11880542
000080 52 c7 1c 3d 29 04 ad bd 51 9b 7d 3c 8c b2 13 3e
       0.038276024 -0.08448059 0.015478925 0.14423579
000090 9e 46 c6 bd d2 82 11 bd 9b 86 80 be 97 d9 8a be
       -0.09681438 -0.03552515 -0.25102696 -0.27119133
0000a0 66 ab 40 bd 9c cf 78 bd 0f 6b d2 bd f3 a1 5f 3c
       -0.04703846 -0.060744867 -0.10274326 0.013649452
0000b0 2a c4 3e 3d 28 bd 1d 3d dc f1 1a 3c 9f 45 33 3c
       0.046573795 0.03851047 0.009457078 0.010941892
0000c0 97 88 5d 3d 1d 1b 34 3d 98 38 2d bd 6d 42 5a 3d
       0.05408534 0.04397117 -0.0422903 0.053286005
0000d0 03 31 79 bd de b1 2c 3e 3e 4b ee 3f 50 19 16 be
       -0.060837757 0.16864726 1.8616712 -0.14658093
0000e0 01 fe e3 3d 53 84 8c bd b3 38 07 3c 47 d5 0a 3e
       0.11132432 -0.06861176 0.008253264 0.13557921
0000f0 34 e3 b2 3f 5b 5c 93 3f ec 85 bf bc c1 ef b5 bd
       1.3975587 1.151256 -0.023379289 -0.0888362
000100 88 36 15 be 68 9c 6f bd 83 be 07 bd 41 98 d5 bc
       -0.14571583 -0.05849877 -0.03314067 -0.026073577
000110 e8 9d 65 3d b5 31 c1 bc 52 14 c5 bc 64 97 ec bd
       0.056058794 -0.023583272 -0.024057541 -0.11552313
000120 38 53 20 3e 58 ae 08 be 37 8e 7f 3e 9d c9 56 bd
       0.15656745 -0.13347757 0.24956594 -0.052438367
000130 c9 fa 4a be ad a0 b3 be 53 65 25 3e 01 ff 43 be
       -0.1982223 -0.35083523 0.16151933 -0.19140245
000140 7d dd cc bc 77 11 10 be d6 f6 39 3f dc 66 64 3f
       -0.025007958 -0.14069162 0.72642267 0.8921945
000150 9f 08 36 40 03 65 c1 bc 89 93 10 40 21 05 83 3c
       2.8442762 -0.023607736 2.2590048 0.015993657
000160 a3 78 b4 3c 50 94 68 3d 52 09 af bd bf 35 88 3c
       0.02203018 0.056782067 -0.085466996 0.01662719
000170 56 30 63 3f 37 4a 8f 3f 8b 7d e9 3d eb fe 95 be
       0.8874563 1.1194524 0.114008985 -0.2929605
000180 21 08 23 be ca 82 78 bc 07 55 ce 3f 36 37 9e be
       -0.1592107 -0.015167901 1.6119698 -0.30901498
000190 fc 6d 67 3e 6a 3a a2 3e 8f 0d 5f be f0 a1 0a 3d
       0.2260055 0.3168519 -0.21782516 0.033845842
0001a0 15 78 7e bb d9 33 0f 3e 2d 46 57 bd 9f fb f3 bc
       -0.0038828899 0.13984622 -0.05255716 -0.029783068
0001b0 b3 9c a9 bd 68 5e df bc 65 86 5e be 02 f2 91 be
       -0.08281841 -0.027266696 -0.21730955 -0.2850495
0001c0 d3 91 1f 3f 1d fd 51 be 4e 8c 3d bf 56 0c 0d be
       0.62331885 -0.20506711 -0.7404221 -0.13774237
0001d0 b5 90 a4 3e ec 44 31 be 3c 8a 17 be 6d b4 3a 3f
       0.32141653 -0.17311448 -0.14798826 0.7293156
0001e0 59 8c 82 3d 92 16 0c 3d 2f 2e 8e bc cd 2e a8 3d
       0.063744254 0.034201212 -0.017356006 0.082120515
0001f0 82 ac ba 3d 86 7c fd bc 64 30 8b bd 61 23 97 3e
       0.091149345 -0.030943166 -0.06796339 0.2951918
000200 31 0a c6 3d 00 27 30 bd 6b 95 c9 3e 14 00 9f be
       0.096699126 -0.043005943 0.3937181 -0.31054747
000210 e9 ca 8b be f0 5e ac 3d 5b dd be 3d ff 9c 38 3e
       -0.27303246 0.084165454 0.09319564 0.1802864
000220 e0 34 cf bd 81 e0 cf 3e 7a 82 41 3e 63 81 14 be
       -0.10117507 0.4060097 0.18897429 -0.14502482
000230 94 25 69 be fd d7 b2 bd 27 50 24 3d a0 9b c3 bd
       -0.22768241 -0.08732603 0.0401155 -0.095511675
000240 f1 92 e4 bc 21 3b dd bd 40 f8 1d 3e b9 65 94 3c
       -0.027902098 -0.108022936 0.15426731 0.018114911
000250 24 6d 07 3f ee f1 29 3f 75 ea e7 bd 11 51 a2 bf
       0.5290091 0.6638478 -0.11324016 -1.268099
000260 4a 88 2f be 07 a4 2a 3f 83 20 f1 be d4 7c a5 be
       -0.17141834 0.66656536 -0.47095117 -0.323218
000270 9b f8 a1 3f b9 7a 9c 3f d0 7a 2f 40 b0 ec 48 3f
       1.2653993 1.2224952 2.7418709 0.78486156
000280 c3 2d fb 3f ae 72 1d 3e 70 a2 c0 3e fa 8e 78 3f
       1.962334 0.15375778 0.3762393 0.97093165
000290 96 f9 68 bf 5f a5 b9 3f fd c0 b6 3f 75 9f b8 3f
       -0.9100584 1.4503592 1.4277645 1.4423662
0002a0 18 9b 01 bf b2 45 4c bf 38 6e 1b 3e 26 f6 98 3f
       -0.5062728 -0.79793847 0.15178764 1.1950119
0002b0 5a 26 a2 3f 39 5d 05 3f 1f d2 c4 3e a6 93 73 3f
       1.2667954 0.5209537 0.3844156 0.9514717
0002c0 56 eb 26 be 11 87 29 bf 03 96 e3 be c6 3a 73 bd
       -0.16300711 -0.6622172 -0.44450387 -0.059382223
0002d0 37 c4 c4 be a9 a6 b1 be ca d6 0a bf b0 07 79 3d
       -0.3843095 -0.34697464 -0.5423399 0.060798347
0002e0 fb 8c fc be 7e 9e b6 be 1b 77 15 bd ce fa 38 be
       -0.4932631 -0.35667795 -0.03649054 -0.18064424
0002f0 e6 12 e5 3d 67 a1 54 be 49 cd 86 bd f0 cb 3b be
       0.11185245 -0.20764695 -0.06582124 -0.18339515
000300 b9 05 29 3c ce 8a 83 3f 58 94 8f 3f 50 b0 8f 3c
       0.010316306 1.0276735 1.1217146 0.017540127
000310 0c 52 6a be f7 08 65 3f 83 08 2b be 9f 3b 9e bd
       -0.22882861 0.89466804 -0.16702466 -0.077262156
000320 eb d9 1d 3f d7 f3 a6 bb 0d 27 27 3f 3e e0 01 3d
       0.6166064 -0.005094986 0.6529396 0.031707995
000330 87 89 a2 3f c0 74 64 be 23 f4 8e be ce 64 5a bd
       1.269822 -0.22310162 -0.27920637 -0.05331879
000340 39 bd db bb c7 f0 83 3f 38 4b 99 3e 08 99 6d 3d
       -0.0067059067 1.0307854 0.299402 0.05800727
000350 fd 06 77 3f 3e b7 e3 bd ba 2f 0d be ed 8d a4 bb
       0.9649504 -0.11118935 -0.13787737 -0.0050218017
000360 a4 6e 22 be 66 16 03 3d 91 b5 b9 bd 7f 8c 35 bc
       -0.15862519 0.032003783 -0.09067834 -0.01108086
000370 41 cf 24 3d e3 df 0d be 06 fa 41 3e e8 42 47 be
       0.040236715 -0.13854937 0.18943033 -0.19459116
000380 c6 90 00 bf 65 57 33 bf b6 c1 c9 3e f9 47 3f 3e
       -0.50220907 -0.7005523 0.39405602 0.18679799
000390 15 82 49 3d 95 3c 84 3d 20 20 13 be 33 f1 3c 3e
       0.04919632 0.064568676 -0.14367723 0.18451385
0003a0 12 10 e0 bd da eb e6 bd eb c0 cf 3f cb 14 00 be
       -0.10940565 -0.11275454 1.6230749 -0.12507932
0003b0 56 d1 01 3d 7b 2e 13 be be 64 de 3e 37 d1 27 be
       0.03169378 -0.143732 0.43436235 -0.16388403
0003c0 59 46 5d bd f3 9c de 3c fb 1f 27 3f a7 72 19 be
       -0.054022167 0.027174449 0.65283173 -0.14985143
0003d0 3b 32 ac bc 75 a4 91 bd 79 58 18 bd b4 9d 89 be
       -0.021020046 -0.07111446 -0.03719375 -0.2687813
0003e0 ed b4 a4 3e ae aa db 3e 92 fa 2e bd 7e 62 ab 3e
       0.32169285 0.42903656 -0.04271943 0.3347358
0003f0 50 60 95 bc 89 01 05 3e cc 94 93 bd 6e b3 c9 bd
       -0.018234402 0.12988867 -0.07206115 -0.098486766

gnn.convs.0.nn.lins.0.bias f4 [32]
000000 a9 bd 68 be 70 7a b2 be 63 51 27 be 89 82 63 be
       -0.227286 -0.34859037 -0.1633964 -0.22217764
000010 03 69 98 3e a4 29 52 be fc 25 3a be ae f7 30 be
       0.29767618 -0.20523697 -0.18178552 -0.17281982
000020 9e 07 3b be 44 80 6d be fe ab 4a 3e 0a 53 be 3d
       -0.18264624 -0.2319346 0.19792172 0.09293182
000030 ca cb a9 be c7 39 06 bf 32 14 21 be a0 23 09 3d
       -0.3316329 -0.5243191 -0.1573036 0.03348124
000040 06 f3 19 bf f8 e5 24 3f d0 8a 73 be dd 3c 3f 3d
       -0.6013645 0.64413404 -0.23783422 0.046688903
000050 9d 37 e3 bd 5a 44 54 be c8 37 18 be 34 55 ff 3d
       -0.11094592 -0.20729199 -0.14865029 0.12467423
000060 40 5c b1 bc a7 35 81 be 40 47 ca bd 3a e6 59 be
       -0.021650434 -0.25236246 -0.09876871 -0.2127923
000070 38 65 8a 3e bf 12 8a be c0 22 4b be d7 07 4e be
       0.2703035 -0.26967427 -0.19837475 -0.20120178

gnn.convs.0.nn.lins.1.weight f4 [32, 32]
000000 e2 43 ae bd f0 7c bc 3d 5e 9b 69 3d a3 55 59 be
       -0.08509041 0.092035174 0.057032935 -0.21224074
000010 1c 62 42 3d 75 2e be 3d 7c ba 1b bf cf 6a 03 bf
       0.047456846 0.09286205 -0.6083143 -0.5133485
000020 6e 6f 58 be 85 4f 49 3e d0 ec 28 be fd 78 e3 bc
       -0.21136257 0.1965924 -0.16496587 -0.027767653
000030 88 8b 97 be a1 2b 8c 3f bb eb 0f 3d fc 7e b8 bd
       -0.2959864 1.0950814 0.03513692 -0.09008595
000040 a6 ed 61 3f 4f 9e 84 bc fd 10 3f 3c 70 26 86 3e
       0.8825325 -0.016188769 0.011661765 0.262012
000050 a1 b1 9d bd d2 ea db 3e 44 54 03 bf fd f4 45 3f
       -0.07699896 0.4295259 -0.51300454 0.7732695
000060 a2 c8 23 be 2b ef b0 3d c5 ab 92 be 44 c3 61 bd
       -0.15994504 0.08639368 -0.28646675 -0.05511786
000070 4f ff 21 bf 75 90 3c 3f 1f 8b 1c 3e 77 88 e1 bb
       -0.63280195 0.73657924 0.15287445 -0.006882723
000080 18 cc b9 3d f9 5d c8 3e bc 40 57 3e 31 25 f5 bd
       0.09072131 0.39134195 0.21020788 -0.11969984
000090 e5 fe ff 3e 08 92 a8 3f 82 c9 b8 3c ca f1 f9 3e
       0.49999157 1.3169565 0.022557024 0.48817283
0000a0 b9 ed d2 be 83 c7 fb 3d fc d4 dc 3e fe d5 28 3f
       -0.41196993 0.12293913 0.43131244 0.65951526
0000b0 00 88 43 bd 3b 3b c7 bf 3b ca 22 be 67 82 17 3f
       -0.04773712 -1.5564951 -0.15897457 0.59183353
0000c0 aa 68 24 c0 49 71 33 3f bc 7e c1 3e 93 c3 a6 3e
       -2.5688882 0.70094734 0.37792003 0.32571086
0000d0 d1 c7 e3 3e 09 35 8c 3e ee 96 a6 3e 37 b3 cc 3e
       0.44488385 0.27384213 0.32537025 0.3998048
0000e0 9d d0 65 be bc e0 08 3e 45 48 10 3f b1 4c e4 bd
       -0.22442861 0.1336698 0.56360275 -0.1114744
0000f0 cb 61 05 3f 69 75 84 3d 4f 56 37 be 78 d4 92 3e
       0.52102345 0.06467707 -0.17904018 0.28677726
000100 6e f8 af 3d d2 1f b7 3e aa 9f 60 3e b0 26 a6 bd
       0.08592306 0.35766464 0.21935907 -0.08112848
000110 0c 23 1a 3d d6 7b b7 bd 0d 5f 70 3d b8 88 99 3e
       0.03763108 -0.08959167 0.058684397 0.2998712
000120 46 08 90 3d d0 9d d1 bd df 00 38 3e 00 48 b2 3d
       0.07032828 -0.102351785 0.17969082 0.08705139
000130 67 b8 c7 3e 88 37 1f bf a0 0c 85 3a 65 9c cd 3d
       0.39007875 -0.6219411 0.0010150857 0.100395955
000140 b6 e1 a0 bf f5 ab 89 3f 6c 0d cd 3d 75 7c bc 3e
       -1.2568882 1.0755602 0.10012326 0.36813703
000150 3f 9a a6 3e 6a 49 8c 3e 55 b4 df 3d 7f 8d a5 3e
       0.32539555 0.2739976 0.109230675 0.32334515
000160 50 7c df bc 2d b1 38 3a 69 4c 31 3f c9 35 9b be
       -0.027280957 0.0007045444 0.6925722 -0.30314472
000170 19 8b 0e be 71 c6 2a bf d5 06 6b 3e bf 7d 2e 3e
       -0.13920249 -0.6670905 0.22951825 0.17040156
000180 cf 76 65 be bb 4f ae 3c d1 3b cf 3d 98 8e 3d be
       -0.22408603 0.021278253 0.10118831 -0.18511426
000190 97 41 be bd 9c 37 46 3d b1 15 80 3d 92 42 59 3c
       -0.09289854 0.048392877 0.06254137 0.0132605005
0001a0 7b 89 2f be 61 78 12 be f5 39 f0 bd 48 ef ef 3d
       -0.17142288 -0.14303733 -0.117298044 0.11715561
0001b0 cf 48 fa 3d 16 c9 ce bc e1 df e9 3c 74 bc d9 3d
       0.122209184 -0.02524237 0.028549137 0.10631648
0001c0 6b 1b 73 bd ce ce 5f bd 50 36 56 bd ba 4e fd bd
       -0.05935232 -0.054640584 -0.05229789 -0.123685315
0001d0 d2 41 20 be d4 84 8e bd 93 ac 35 3c 6f 90 2f be
       -0.15650108 -0.06958929 0.011088508 -0.17144941
0001e0 44 4b 68 be 0c ad 72 3d 17 e2 59 be d5 65 45 3e
       -0.22684962 0.05924706 -0.21277653 0.19277127
0001f0 1e 6d 61 3e 86 be 0b 3c 65 95 1d be d4 41 ea 3d
       0.22014281 0.008529311 -0.1538902 0.11438337
000200 d5 09 4c be 62 81 19 bd d0 cb f8 3d 12 fa f0 bc
       -0.19925626 -0.037476905 0.12148249 -0.029416118
000210 24 2a 9d bd c5 4f da bd 11 d6 82 bd 71 05 49 3e
       -0.07674053 -0.10659746 -0.06388486 0.19630982
000220 f6 9a 8a bd 7e b4 b1 bd 2d db ad 3d 2a 34 04 3f
       -0.06767838 -0.08677004 0.0848907 0.51642096
000230 17 4d d7 be ef a7 38 bf d2 be 82 3d 70 88 60 3e
       -0.42051002 -0.72131246 0.06384052 0.21927047
000240 9c 75 4c be 19 7e 49 3e 57 59 1f 3e cd c3 36 bd
       -0.1996674 0.19677009 0.15561424 -0.044620324
000250 7c e7 86 be 4b d1 fd be e7 2b 4e 3e e9 df 0a bf
       -0.26348484 -0.4957374 0.20133935 -0.5424791
000260 14 34 1a 3e 1b fc 2c 3f f9 2f 14 3f e3 c4 1f be
       0.15058929 0.6757218 0.578857 -0.1560245
000270 78 dc 0a 3e 3e e7 14 3e 60 25 2d be d6 98 8d bc
       0.13560665 0.14541337 -0.16908789 -0.017284792
000280 3a ae 9f bd 6f a5 28 3e af 48 d2 3d 5b 87 74 3b
       -0.07796903 0.16469358 0.102677695 0.0037312123
000290 81 f8 39 3f f5 99 97 3e d0 a9 50 3e 0c 45 b1 3e
       0.7264481 0.29609647 0.20377278 0.3462299
0002a0 fd a2 19 3e 87 e1 b3 3d af 42 90 be 09 12 8a 3e
       0.15003581 0.0878325 -0.28175876 0.26966885
0002b0 63 52 6c bf 62 7e 8a bf 55 e5 16 3e 69 db ad 3e
       -0.9231321 -1.0819819 0.1473592 0.3395646
0002c0 eb 9f 3f bf 57 94 88 bd b7 d7 88 3e 42 9e 3c be
       -0.7485339 -0.066689186 0.26727077 -0.18419746
0002d0 56 8e f9 bc 27 4f 1b be 9e 32 99 3d 73 25 95 bc
       -0.030463379 -0.15166913 0.074803576 -0.018206334
0002e0 a9 4f cd bc 4f 7c a1 3d c0 06 36 3e 69 59 85 3e
       -0.025062399 0.07885038 0.17776012 0.26044777
0002f0 9d ca d8 3e e4 19 48 bd 66 e8 cd 3b bb 6c c3 3d
       0.42342082 -0.048852816 0.0062838076 0.09542223
000300 19 d0 09 3d f5 13 1b 3c 3c d1 05 3e 18 b0 13 be
       0.033645723 0.009465207 0.13068098 -0.14422643
000310 4e 24 cd bd eb 76 16 3e 09 49 c2 be ce b4 84 3e
       -0.1001669 0.14693801 -0.37946346 0.25919193
000320 61 64 63 3c ba 86 d8 bd 1a f9 7f 3d 4b a3 c5 3e
       0.013878913 -0.10572572 0.06249342 0.38601145
000330 41 23 4d 3f 52 56 6d be 7d 39 c3 bd d9 48 af 3c
       0.8013192 -0.2317746 -0.095324494 0.021397041
000340 0f 29 5f bf 30 93 99 3f 43 42 33 3d 23 ea 13 3e
       -0.87172025 1.1998043 0.043764364 0.14444785
000350 04 e4 c5 3e 69 c9 62 3e ec 12 01 be 42 2d 4f 3e
       0.38650525 0.22147144 -0.12604874 0.20232108
000360 4b a2 61 bd 86 b8 a8 3b a9 d1 af 3e e8 32 0e be
       -0.055086415 0.00514895 0.34339646 -0.13886607
000370 24 51 57 be 90 88 e9 bc 1a af 2c 3d 80 be 99 bc
       -0.21027046 -0.0285075 0.042159177 -0.018767595
000380 65 39 19 be b3 e0 5b 3e 9d f1 8b bd 24 74 37 be
       -0.149633 0.21472435 -0.068331935 -0.17915398
000390 21 c4 e7 bd 1a 30 24 be 88 37 dd 3d 07 6c d2 bd
       -0.113167055 -0.16033974 0.10801607 -0.10274511
0003a0 eb e0 b3 3d 33 e9 2e 3e 8a d1 d3 bd dd b9 de bd
       0.08783134 0.17081146 -0.10342701 -0.10875294
0003b0 0e 14 a6 be 37 ee 23 3e 34 55 42 bc 4c 5c c4 3d
       -0.32437176 0.1600884 -0.011861134 0.09587917
0003c0 48 ce cf bd 11 fc 13 be f9 e3 ab 3d 77 1d dd bc
       -0.10146767 -0.14451624 0.08393092 -0.026991589
0003d0 bf 7c eb 3d a1 a5 60 3d b7 13 78 3e 47 73 c1 bd
       0.11498403 0.054845456 0.2422627 -0.094458155
0003e0 28 f4 11 3e 6c 6f d5 3c 29 4f 63 bd 96 b8 0d 3e
       0.14253294 0.026054107 -0.055495415 0.13839945
0003f0 5d 87 b3 3d 3a d0 3e be c8 b6 da bd 35 42 d7 bd
       0.08766053 -0.1863412 -0.10679394 -0.10510675

gnn.convs.0.nn.lins.1.bias f4 [32]
000000 40 e2 47 3b b7 06 8c 3e c2 c7 87 3e 0b 81 11 be
       0.0030499846 0.27348873 0.2651959 -0.14209382
000010 17 a3 91 be 39 bf 8d bd 5c 08 9a 3e de 11 2a be
       -0.2844474 -0.069212385 0.30084503 -0.16608378
000020 f3 8f 5c bd a9 81 0e bd 10 0f c6 bd e7 54 d9 bd
       -0.05384822 -0.034791622 -0.09670842 -0.10611897
000030 3e 3f 3a 3e 4a 03 b5 bd c7 93 8c be e9 cf c0 3d
       0.18188187 -0.08838518 -0.27456495 0.09414656
000040 a0 9a ae bd 46 41 af bd b1 32 7d be 55 9f 61 be
       -0.08525586 -0.08557372 -0.24726368 -0.22033437
000050 a9 0b f4 bd e5 ed 8e bd 4c da 35 bd 79 f8 3c be
       -0.119162865 -0.069789685 -0.044397637 -0.1845416
000060 6e 45 93 bd 48 78 96 be e4 14 85 bc 16 ca 3b be
       -0.07190977 -0.29388642 -0.016245313 -0.18338808
000070 2b f6 7d be 7a 88 58 3e fa ec a4 bd 58 db a2 be
       -0.24800937 0.21145812 -0.08053012 -0.3180797

gnn.convs.1.nn.lins.0.weight f4 [32, 32]
000000 ae f3 cc be 65 6b 3a 3e a6 77 74 bd 97 e4 58 3a
       -0.40029663 0.1820503 -0.05968442 0.00082738086
000010 3f 25 e9 bd bf 21 02 3d 33 12 89 be 3b d0 e2 bd
       -0.11384057 0.031770464 -0.26771697 -0.11074873
000020 6e 0d 43 be 0e 2f 55 3e f9 30 91 bd 41 cf f2 3c
       -0.19048092 0.20818731 -0.07089419 0.029639842
000030 99 cf e2 3d 7f 33 c6 bd f0 90 ae 3d 45 c9 fd be
       0.11074752 -0.09677791 0.085237384 -0.4956762
000040 7c 63 0d 3d 10 5d 18 3e ce db e1 bc 8d 73 63 bc
       0.034518704 0.1487925 -0.027570631 -0.01388253
000050 d9 ed 59 be 48 6b 33 3d fa 6f 34 bd 33 7d 13 bd
       -0.21282138 0.043803483 -0.0440521 -0.03600807
000060 0d 75 9f bd d5 f5 86 3b 0e c4 3b be 15 c3 d5 3d
       -0.077859975 0.004118661 -0.18336508 0.104375996
000070 eb ae 2c bf 8d 27 82 be 8a b9 8f 3d 73 03 82 3d
       -0.67454404 -0.254208 0.07017811 0.06348314
000080 77 8e 18 3e 38 d7 e5 be 84 13 8a be 9b a5 68 bd
       0.14898096 -0.4489076 -0.26968014 -0.05679856
000090 8d a3 73 bd 6f 9a b3 bb 46 03 b3 be a9 04 2e be
       -0.059482146 -0.0054810564 -0.34963435 -0.16993965
0000a0 1c f9 bc 3d e4 20 67 be 92 01 e1 3d f2 f2 bf 3c
       0.09227201 -0.2257114 0.10986628 0.023431275
0000b0 e5 0a 7b bd 35 f8 59 3d e7 2d ca 3d de ac 8f be
       -0.061289687 0.053215224 0.098720364 -0.28061575
0000c0 c3 8e 11 be f7 7b 94 bd 06 40 69 bd 6f 7c 2a bc
       -0.14214616 -0.07250207 -0.056945823 -0.010405644
0000d0 f8 d8 15 3e f2 92 bb 3d 35 0f 91 bd 9a 61 a0 3e
       0.14633548 0.09158887 -0.07082979 0.31324464
0000e0 0e de cd b9 92 91 95 3c 7a fd 12 3e 60 5a cb bc
       -0.0003926609 0.01825789 0.14354506 -0.024823368
0000f0 43 8f 43 bd 18 c9 c1 be e2 0f 47 3e 3d d7 b7 3d
       -0.047744047 -0.37848735 0.19439653 0.089766
000100 7b 8e 10 be cd 6a 0f be 5e 51 27 be 9d ee db 3d
       -0.14116852 -0.14005585 -0.16339633 0.10738871
000110 3e 3c 0d be 42 8c 81 3c 25 e6 75 bd 8d d3 20 3e
       -0.13792512 0.01581395 -0.060033936 0.157057
000120 9a 64 0a be 38 5a fa bd 64 e3 2a be de e4 32 bd
       -0.13514939 -0.12224239 -0.16688305 -0.043675296
000130 f1 ed 7b be a7 3f 56 bd 82 da 23 be 98 42 b1 3d
       -0.24602486 -0.052306797 -0.16001323 0.0865528
000140 a9 2f 1c 3d 5d cb b0 3d c1 00 6b bd 2a 21 3e 3e
       0.03813139 0.086325385 -0.057373766 0.18567339
000150 92 ba e3 bd e6 c6 6b be c1 03 66 bd 27 b0 9e 3d
       -0.1111957 -0.23025092 -0.056155924 0.07748442
000160 d1 90 68 bd 3c 85 07 be 4a d5 05 be 81 7d 29 3d
       -0.056778733 -0.13234419 -0.13069645 0.041379455
000170 c0 a8 e0 3d 19 51 3d be 7f 93 86 be 34 07 76 bd
       0.109696865 -0.18487968 -0.26284406 -0.060065463
000180 b9 7f 02 bf 8e d7 83 3f 24 b8 6c 3e 94 ce e7 3e
       -0.5097614 1.0300157 0.23117119 0.45274794
000190 49 d2 99 bd a2 77 dd 3d 03 60 3a 3e 4a a7 93 3d
       -0.07510812 0.10813834 0.18200688 0.07209642
0001a0 05 fa 93 3d dd 71 d2 3c ec 3f 40 be 5d 11 76 bd
       0.07225422 0.02568906 -0.18774384 -0.060075153
0001b0 26 34 81 3e 4a e0 9f 3d bf a1 17 3d 2f a2 9e bf
       0.252351 0.078064516 0.037019487 -1.2393245
0001c0 77 6f 66 3e c7 f2 18 3e bd b3 81 3e 00 d2 95 bd
       0.22503458 0.14936362 0.25332442 -0.07315445
0001d0 cd 4b 3c 3b 9e 19 49 be db 6f 3f be f8 8d 0d 3d
       0.0028731704 -0.19638678 -0.18695013 0.03455922
0001e0 8a 24 5e 3e f2 3b 57 3e 63 80 2b bd 8a 43 e5 3d
       0.21693626 0.21018961 -0.041870486 0.11194523
0001f0 2b 49 90 3e 74 8c a7 3e 1b 3f 24 bd cf 97 68 be
       0.28180823 0.32724345 -0.040099245 -0.2271416
000200 95 f1 b7 bd 76 38 e4 3e 55 56 17 3e 20 83 57 3d
       -0.08981625 0.44574326 0.14779027 0.052615285
000210 5f af a1 3d 99 5b 3a 3e 00 c4 f8 3d 5d f7 bd 3d
       0.078947775 0.18199004 0.12146759 0.092756964
000220 ea 26 f9 3d 48 75 7d 3e e2 fd 57 3e aa 73 a9 3d
       0.121656254 0.2475177 0.21092942 0.08274014
000230 51 09 85 3e 60 7a 9b 3d a1 a8 95 3e 90 2f 2a bf
       0.2598367 0.075917006 0.29230216 -0.66478825
000240 44 ef 8b 3d 6b 50 b5 3d a8 a5 05 3e b7 c9 6b 3d
       0.06832746 0.08853229 0.13051474 0.057565417
000250 1b 87 6d 3b 61 b2 6e be b4 25 48 3e af 36 bb 3d
       0.003624386 -0.23310234 0.19545633 0.091412894
000260 b9 aa f6 3e 02 09 c5 3e 5a 4d 3f bd 1d b8 d6 3d
       0.48177126 0.38483435 -0.046704628 0.104843356
000270 f5 6a f8 3e 1f 97 08 be 80 f2 b0 3e 54 ca a8 bd
       0.48519102 -0.13338898 0.34560013 -0.08241716
000280 57 0a 15 be a0 02 c1 bc cd 26 00 bf 76 2a 36 be
       -0.14554726 -0.023560822 -0.50059205 -0.17789635
000290 69 54 99 3d 42 47 67 3e 94 cc 98 be 7c 23 23 be
       0.07486803 0.22585776 -0.2984358 -0.15931505
0002a0 90 83 5c be bd 55 12 be 92 c9 04 3c c8 d1 56 bc
       -0.21534562 -0.14290519 0.008104699 -0.013111539
0002b0 fc 5f a8 bd cf 09 0f 3e 44 f0 72 3e 7f a3 00 3d
       -0.082214326 0.13968585 0.23724467 0.031405922
0002c0 14 8b b6 bd de ae 27 be a9 77 16 be 19 75 35 be
       -0.08913246 -0.163753 -0.14694084 -0.1772045
0002d0 fe e3 f3 bc 69 8e 5f be 30 68 1f bd d6 3a 90 3d
       -0.029771801 -0.21831669 -0.03891772 0.07042472
0002e0 a0 eb 59 3d aa 74 32 3e a4 fa 5b bd 85 40 e9 bd
       0.053203225 0.17427316 -0.053705826 -0.11389259
0002f0 55 57 ba bb 9d 8a 37 bf 59 94 de bd b8 00 88 3d
       -0.0056866803 -0.7169588 -0.10868139 0.06640762
000300 f7 67 18 3f 29 f5 2c bf f7 bf 9c 3e 30 83 70 bc
       0.5953364 -0.67561585 0.30615208 -0.014679715
000310 bc b9 68 bd 6b 04 7e 3e ac fc 0f 3e b2 23 07 3e
       -0.056817755 0.24806373 0.1406123 0.1319721
000320 82 af a2 3b 9c fb 53 3e db 49 69 3e e9 89 51 3e
       0.00496477 0.2070145 0.2278208 0.20462765
000330 b3 41 14 3d 84 1c ce 3d f2 74 02 3e 41 28 f8 3e
       0.03619547 0.10064033 0.12739924 0.4846821
000340 bb 08 f2 3d a2 5c ec 3d b1 24 4f 3e a2 76 6a 3e
       0.118180715 0.11541106 0.2022884 0.22896817
000350 9d 3c 1e 3e 1d 4f d1 be c1 83 0c bc 7e 04 5f ba
       0.1545281 -0.4088067 -0.008576334 -0.0008507444
000360 eb 72 0a 3f b3 ca ac bd 89 a2 c6 3d ed 51 aa 3c
       0.540816 -0.08437099 0.0969897 0.020791018
000370 46 39 7c 3d 4a e8 57 3e ab 80 81 3d 3e 08 26 bf
       0.061578058 0.21084705 0.063233696 -0.64856327
000380 a2 4c b8 3e 61 3a 7c be d9 54 bc 3e 3e f0 0e be
       0.35995966 -0.24631645 0.36783484 -0.13958833
000390 ce b8 51 bf 07 6c e4 bf 8b d1 28 3f d1 3d bb bd
       -0.81922615 -1.7845467 0.6594474 -0.0914265
0003a0 84 23 f5 3e 84 4e 6c 3e 10 48 87 bf 99 af 0f be
       0.4787866 0.23076826 -1.0568867 -0.14031829
0003b0 e5 6d 24 bf e1 b2 c6 be 22 96 16 bf 92 59 4d 3f
       -0.64230186 -0.3880835 -0.58822834 0.802148
0003c0 ff 95 aa 3e 87 98 ec bf f1 c6 8b 3e e4 cd 11 bd
       0.33317563 -1.8484048 0.27300218 -0.035596743
0003d0 1d 91 48 bf ec be e9 3e e5 35 73 3e ed 0c fe 3d
       -0.78346425 0.45653474 0.23751028 0.12404809
0003e0 9c 50 a0 be 56 38 f2 bd 59 94 1f be cd 08 8d be
       -0.313115 -0.118271515 -0.15583934 -0.27545777
0003f0 43 4b 7b 3f 1e 96 2e 3e db 1e 8d be 62 4a df bc
       0.98161715 0.17049453 -0.27562603 -0.027257148

gnn.convs.1.nn.lins.0.bias f4 [32]
000000 d7 f0 b6 be 99 a3 0a be b2 c7 db be 6b 9b 8c be
       -0.3573062 -0.1353897 -0.42925793 -0.27462325
000010 d9 97 77 be 10 a5 24 bc 1d 80 21 3f dd d7 4a 3f
       -0.24179019 -0.01004912 0.6308611 0.7923563
000020 a8 e4 a2 be 65 cb 0d 3d 2c dd 44 be d9 35 10 bd
       -0.31815076 0.0346178 -0.19224995 -0.035207603
000030 f8 23 36 3d be dc 1f bc 33 eb 0f be ad 24 dc bd
       0.044467896 -0.009757219 -0.14054565 -0.10749183
000040 49 1e fc bd 2e 02 66 be c1 6e 0d 3d e8 93 8a be
       -0.12310464 -0.22461769 0.03452945 -0.2706597
000050 9c 98 7d bc 29 26 47 be 56 7b c8 be c6 19 57 ba
       -0.015478279 -0.1944815 -0.39156598 -0.00082054397
000060 c9 39 c6 be 49 9a ba 3d 52 75 df be b6 81 27 3d
       -0.38715962 0.09111459 -0.43644196 0.040895186
000070 8c 15 a0 be 97 6a f8 bb 17 17 1a be fc 4f 1c be
       -0.3126644 -0.007581066 -0.1504787 -0.15264887

gnn.convs.1.nn.lins.1.weight f4 [32, 32]
000000 a2 d1 10 be 53 69 ed 3d d5 ee 2d be ca 7b b9 be
       -0.14142469 0.115923546 -0.16985638 -0.36227256
000010 68 81 67 3d 42 a0 44 3e 54 d6 17 3e c8 bd 2b 3f
       0.056519896 0.19201759 0.14827853 0.6708646
000020 e7 d2 19 be f8 94 99 bd e6 40 84 be d1 e6 2f 3e
       -0.15021859 -0.07499117 -0.25830764 0.17177893
000030 fe 6e 74 be 49 92 f1 bd d4 d8 91 be ff 7d e8 bd
       -0.23870465 -0.1179548 -0.2848574 -0.11352157
000040 bb 03 3a 3e 13 30 05 be 76 36 61 3e bd d9 23 3d
       0.18165486 -0.1300662 0.21993431 0.040002573
000050 7f f9 4c 3d 22 e8 53 be d4 2a 3b bf 08 82 aa bd
       0.050042626 -0.2069402 -0.73112226 -0.08325583
000060 c3 b2 9f 3e e5 fc 04 be 9e ff c2 be 35 30 59 be
       0.31191072 -0.12987097 -0.38085645 -0.21209796
000070 33 a8 04 3f 9d 3d 39 3e ad f7 bb 3c ff 78 c6 3e
       0.5181915 0.1808991 0.02294525 0.38764188
000080 e6 df 39 3e fd 5d 04 bd 42 91 27 be 28 a0 14 be
       0.18151817 -0.032316197 -0.16364005 -0.1451422
000090 d3 a6 90 bd 71 21 3c 3e 70 f9 56 be 22 8c 25 be
       -0.07063069 0.18372132 -0.2099359 -0.16166738
0000a0 ea d7 c2 3c d6 4b 9c 3d 9c 56 94 bc f8 56 06 be
       0.023784596 0.07631652 -0.018107705 -0.13119113
0000b0 4e 2b 12 be a8 f1 c7 3c 3c 1f 69 be ea 48 a3 bd
       -0.14274332 0.024407223 -0.22765821 -0.07972892
0000c0 92 19 b3 3d 2f 3a 05 3e d7 ca de 3d f6 78 f9 bd
       0.087451115 0.13010477 0.108785324 -0.121812746
0000d0 ab 58 26 3d 61 a1 bd bb 64 3b 81 be 4d fb d3 3d
       0.040611904 -0.00578706 -0.25240624 0.10350666
0000e0 9e 07 49 3e 9f 3c 04 3e cb ba 34 be 82 77 38 3e
       0.19631812 0.1291375 -0.17649381 0.18014339
0000f0 af 5b d1 3e 98 cf 7a 3d 80 c4 ac 3d 3e 65 2f 3c
       0.40890262 0.061233133 0.08435917 0.01070529
000100 5f 64 08 3e b0 29 63 3c 55 17 07 3d 00 d3 7b bc
       0.13319539 0.01386492 0.032981236 -0.015370131
000110 fe a9 a4 bd ad 7a b4 bd 86 c9 85 bd 86 da 34 be
       -0.08040236 -0.08812461 -0.06532578 -0.17661485
000120 9f b0 0e be 26 3c 69 bd 9c c9 03 3d da 71 90 bd
       -0.13934563 -0.056942128 0.03217469 -0.070529655
000130 a9 4f 7d bc 14 65 0a be 9f 71 8c 3d 17 9f 3d be
       -0.015460887 -0.1351512 0.06857609 -0.18517719
000140 0b c9 2c bb 83 09 2f 3d 78 40 21 be da 53 22 be
       -0.0026364948 0.04273368 -0.15747249 -0.158523
000150 c2 77 4a be e8 a2 25 3e d1 a9 05 be e1 e9 64 3d
       -0.19772246 0.16175425 -0.13053061 0.055887107
000160 a9 f9 c1 3d b6 e4 3b 3d 42 9d 05 be 70 c9 03 be
       0.09471447 0.045872413 -0.1304827 -0.12869811
000170 84 61 73 3d b0 bc c9 bd 25 3e 2f 3d e5 f3 5b be
       0.05941917 -0.098504424 0.042783875 -0.21479757
000180 63 db 9c 3b 4c d8 19 be 0f b9 82 3e 88 2e 56 3e
       0.004786895 -0.15023917 0.25531814 0.20916188
000190 0f 91 3a 3e 9b af e8 bd b7 16 9c bf 28 cd 54 bf
       0.18219398 -0.11361619 -1.2194432 -0.83125544
0001a0 5c 50 10 3e 5a f5 43 bc 61 c2 b9 3e 43 11 5d bd
       0.14093155 -0.011960352 0.36281112 -0.05397154
0001b0 de b0 52 3e 33 3e ef 3d af 84 af 3c fe bc f3 3d
       0.20575282 0.116817854 0.021425573 0.11901282
0001c0 56 67 20 be 21 a2 13 bd f2 4b 3f bd ee d2 a4 bd
       -0.1566442 -0.03604329 -0.046703286 -0.08048044
0001d0 2c 4d 04 3e 38 b6 c5 3d 43 07 8d 3f 79 b2 07 be
       0.12920064 0.09653896 1.1017841 -0.13251676
0001e0 62 79 b0 3d 57 ff 62 be 34 ff dd 3e 68 c2 af 3d
       0.08616902 -0.22167717 0.43358767 0.08582002
0001f0 b5 c1 a9 bc 08 96 77 be 5a 29 30 3e 9b 06 e9 bd
       -0.02072225 -0.24178326 0.17203274 -0.11378213
000200 46 14 3d be bc b5 be 3e 89 5b 64 3d 72 ba 5e be
       -0.18464765 0.37248027 0.055751357 -0.2175081
000210 26 3b 35 3c 9d da 27 3e f6 96 94 be 3e b8 62 3e
       0.011061465 0.16391988 -0.29021424 0.22140595
000220 33 d1 9c 3e 23 6f 09 be 36 06 00 3e 71 22 26 be
       0.30628356 -0.13421302 0.1250237 -0.16224076
000230 c3 6e 95 be 4d e7 a7 3f e7 e7 72 3f d5 8e 18 be
       -0.29186067 1.3117462 0.94885105 -0.14898236
000240 ce 20 e8 bd 4f 0c 71 3d 30 55 2e bf 7a 61 5e bd
       -0.11334382 0.05884963 -0.68098736 -0.05429218
000250 19 0e 0e bd be 89 8c be c0 b5 06 be 78 ad 41 be
       -0.034681413 -0.2744884 -0.1315527 -0.1891383
000260 a6 05 03 be 67 da b6 3f 82 08 66 be 56 86 c2 3d
       -0.12795123 1.4285401 -0.22464183 0.09498279
000270 ad 64 cb be ed 3e 35 bf c1 5c ae 3d 1e 5e 27 be
       -0.39725247 -0.7079914 0.08513785 -0.16344497
000280 54 b6 d9 bd da b9 c7 3d 61 15 b3 bd 3d f8 17 bd
       -0.106304795 0.09752245 -0.08744312 -0.037101973
000290 96 0f aa bd c7 91 ba 3e b2 41 40 be fb 17 09 bf
       -0.08303754 0.36439344 -0.18775061 -0.53552216
0002a0 38 88 9d be 3d c6 55 3e d4 09 0a bd 69 bb 5b 3d
       -0.3076799 0.20876403 -0.03370078 0.053645525
0002b0 72 c0 75 3c 40 66 8a 3d fa 71 f0 3c ce 8e 13 be
       0.014999496 0.06757784 0.029351223 -0.14409944
0002c0 ca 18 7a bd 38 68 af bd 18 c3 3b 3e 66 ae 14 bd
       -0.061058797 -0.085648 0.18336141 -0.03629913
0002d0 55 e4 3a be ca 61 9a 3d 39 e5 c7 bb 86 d4 f1 3c
       -0.18251164 0.07538183 -0.0061003235 0.029520284
0002e0 43 da d4 3d 16 c4 97 bc 18 11 62 be 2d 99 d9 bd
       0.103931926 -0.018526118 -0.22076833 -0.10624919
0002f0 15 70 ae 3e aa dc 50 3e ab 34 dc bd 82 54 ef 3d
       0.34069887 0.20396677 -0.10752233 0.116860405
000300 c8 91 e0 bd 53 8f 2c 3e 51 ca d4 3d 2f 20 58 bd
       -0.109653056 0.16851549 0.10390151 -0.052765068
000310 d5 c3 84 be 3b 9f 13 3e 27 de c3 be ed 5a 29 bc
       -0.25930658 0.1441621 -0.38255426 -0.01033662
000320 b4 ff 87 3d d9 ec f9 3d 11 8d 5f bd 6d 8c c5 bd
       0.066405684 0.12203378 -0.05457789 -0.09645925
000330 c9 65 be bd 1f f2 3d 3e 76 9c 2b bd b7 0e f4 bc
       -0.09296758 0.18549393 -0.04189726 -0.029792173
000340 2c 06 6a bd 6b 9b f0 3d 57 8b d2 bd 74 e0 33 3e
       -0.057134792 0.117483936 -0.10280483 0.17566091
000350 d2 f3 60 3e 9d 56 9b 3d 84 5e c6 b9 e0 8b e3 3d
       0.2196801 0.075848795 -0.00037835923 0.111106634
000360 3a 3d 51 3e e7 9f 1b 3d 9a cb 46 be 7c e9 34 3e
       0.20433512 0.03799429 -0.19413605 0.17667192
000370 f8 1a d5 3d 99 3b fb 3c 9d 40 66 bd 16 18 59 3e
       0.104055345 0.030668067 -0.056213964 0.21200594
000380 33 79 1f be 35 01 74 bd 5d d8 16 be d6 d5 9f 3e
       -0.15573578 -0.059571464 -0.14730974 0.3121783
000390 5b ac a1 3e 28 20 fb bd f5 eb 04 bf 66 fe 86 bf
       0.3157681 -0.12261993 -0.5192254 -1.0546386
0003a0 96 c8 6a 3c db b4 61 3d 79 06 82 3e 22 1f ed 3c
       0.01433005 0.055104118 0.25395563 0.02894551
0003b0 74 91 57 3d 3f 8e ef be 35 9d e0 be 87 14 87 3d
       0.05262895 -0.46788213 -0.4386994 0.06595712
0003c0 e1 58 30 be 42 f7 16 be 48 69 29 bf 98 47 ea bd
       -0.17221405 -0.14742759 -0.6617627 -0.11439437
0003d0 e6 01 b4 bd ee 8b a7 3e c0 93 35 3f f3 51 81 be
       -0.087894246 0.32723945 0.70928574 -0.25257835
0003e0 d2 d5 05 3d c2 ec 79 bf ca 3f de 3e 83 9f f5 3e
       0.032674618 -0.9762689 0.43408042 0.4797326
0003f0 a9 17 25 3d e8 e4 82 be 5d f5 27 3e d7 0b 8f be
       0.040305767 -0.25565267 0.16402192 -0.2793872

gnn.convs.1.nn.lins.1.bias f4 [32]
000000 55 45 ae be d6 78 48 3d 50 8b 64 3d 48 88 11 be
       -0.3403727 0.048943363 0.05579692 -0.14212143
000010 21 07 b1 be 1c 94 db be 59 2f 31 bd 7a 48 92 3c
       -0.3457575 -0.42886436 -0.043258045 0.017856825
000020 ff d9 c8 3d fd 98 21 3e 18 e6 56 bd 2d cd a9 bd
       0.098072045 0.15781017 -0.05246553 -0.08291087
000030 cf 00 8b bb eb 08 67 3d 5b 53 6a 3d 63 3d a6 bd
       -0.0042420398 0.05640499 0.0572084 -0.08117177
000040 7b 1c e7 3d dd b6 34 be f9 ac 5d be 4c 17 b0 bc
       0.11284729 -0.17647882 -0.21648015 -0.021495484
000050 a8 2a 8b 3c f0 71 de 3b 17 fc 98 be e9 1d af 3d
       0.016988114 0.0067884848 -0.2987983 0.08550627
000060 b0 a9 99 bd f8 e9 81 be b8 6f e8 bc be b9 dd 3d
       -0.075030684 -0.25373816 -0.028373584 0.10826443
000070 7a d7 a0 3d ce 05 bf 3d 91 47 fa bd 97 96 14 be
       0.07853599 0.09327279 -0.122206815 -0.1451057

gnn.convs.2.nn.lins.0.weight f4 [32, 32]
000000 4b 88 4b 3f ab 66 3f bc 64 76 20 be 14 36 24 bf
       0.7950484 -0.011682193 -0.15670162 -0.64145017
000010 f6 77 35 bf 14 90 8d 3d d0 4d 15 3c 23 53 0d bf
       -0.7088617 0.06912246 0.00911279 -0.5520498
000020 8b 5c b9 3d b5 53 53 be 36 23 a3 be d2 68 c4 bd
       0.09050854 -0.206374 -0.318628 -0.095903054
000030 10 fa 06 3d ad 42 0f 3f 8d c4 48 be ac 33 6a 3d
       0.032953322 0.55961114 -0.19606228 0.057178184
000040 6c 3e 87 bd c3 42 c9 bd b5 43 16 bd 6b a1 23 bd
       -0.06603703 -0.09827187 -0.036685664 -0.039948862
000050 1a 11 fd bd 95 4a 4a 3e 4a 77 19 be 98 c2 41 be
       -0.123567775 0.19755013 -0.14986911 -0.18921888
000060 14 32 af 3e e3 a7 41 be 06 b0 5a 3c 18 74 06 be
       0.34217894 -0.189117 0.013347631 -0.13130224
000070 43 32 87 3e 7c 77 ce bc f2 15 82 3c ba 48 24 3e
       0.26405534 -0.025203459 0.015879605 0.16043368
000080 d1 8c e9 3d 27 95 4a bd 9f d4 5c be d0 ef 07 bd
       0.11403812 -0.04945865 -0.21565484 -0.033187687
000090 07 07 94 bd 32 6c ce bd 68 71 34 3e a5 b5 a3 be
       -0.07227903 -0.1007923 0.17621386 -0.3197452
0000a0 b0 90 a0 bd c9 f4 9c 3d 4e cf fe bd 2f 71 5d bd
       -0.07840097 0.076638766 -0.12441884 -0.05406302
0000b0 92 61 e3 3c a9 9f 52 be 67 17 87 3d d4 b9 95 3c
       0.027756486 -0.20568718 0.065962605 0.018277086
0000c0 86 84 d6 bd 8d be 8b 3a 92 ce e3 3d ad 1d 75 3c
       -0.104744956 0.0010661647 0.111233845 0.014960689
0000d0 a2 ae 32 be 8a 04 c8 3c 35 1d 58 3e 69 65 8a bd
       -0.1744943 0.024416227 0.21104892 -0.06757624
0000e0 ce 15 13 bf 76 ab 0b be de 61 56 3d 0c 2a dc 3d
       -0.57455146 -0.13639626 0.052339427 0.10750207
0000f0 bd c8 e4 bd 48 54 6e bd d0 bf 6a be 9b 4c bd 3c
       -0.111711 -0.058185846 -0.22924733 0.023107817
000100 58 ba 94 bd 77 9d 69 3d dd 8f 13 3e b0 a6 f4 be
       -0.07262105 0.057034936 0.14410348 -0.47783422
000110 8d bc 33 bf 1b 6e 47 3d 7c 7b c9 bd 75 83 52 bf
       -0.7020958 0.04868899 -0.09838006 -0.8223184
000120 95 e0 30 3d 0a 09 8a bc 06 1c 12 be ba d7 2e 3e
       0.043182928 -0.016850013 -0.14268503 0.1707448
000130 c8 14 11 3d 2f 7b 41 bf 67 60 b6 be bb 09 f7 bc
       0.03542021 -0.7557859 -0.35620424 -0.030156007
000140 fd 2a 8c 3d b2 89 50 3c 23 b3 1a 3e 33 25 4c bf
       0.06844137 0.012728142 0.15107398 -0.7974426
000150 1e 48 6a 3d 20 97 bd 3c 40 fd e0 bd 35 80 e5 3d
       0.057197683 0.023143351 -0.109858036 0.11206094
000160 c9 cb 59 3e 3b 9b 8b bd 52 bd 01 be 63 eb dd bc
       0.21269144 -0.06816717 -0.12669876 -0.02708978
000170 94 f1 45 3e 30 04 f6 bd 0e a5 cc 3d 82 9c f5 3e
       0.19330436 -0.120125175 0.09992419 0.47970968
000180 71 62 88 3e 20 9a 54 bd 56 20 59 bc f1 23 97 be
       0.26637605 -0.051904798 -0.013252338 -0.2951961
000190 6b 3a 96 be dc 0b a5 3d 26 fb d7 3e b2 05 d9 3e
       -0.29341444 0.080589026 0.421838 0.42387158
0001a0 76 25 36 be b3 a5 3d 3e ab 28 c4 3d 68 01 b3 3d
       -0.17787728 0.1852024 0.09578069 0.087405026
0001b0 4f ff ad bc 1d 5d ef bc 7c 0b 5e bb f9 d3 24 be
       -0.021239905 -0.029219205 -0.0033881357 -0.16096486
0001c0 28 d5 77 3e 27 f1 48 3e 82 54 14 3e 1a ac 90 3e
       0.24202406 0.19623242 0.14485362 0.28256303
0001d0 5f b2 77 bd 1b de 20 3d 6a c4 d2 3e ae 15 80 3e
       -0.060472842 0.039274316 0.41165477 0.2501654
0001e0 d3 f3 8c 3c d1 25 99 be 4b f8 e1 3e 85 e1 68 3e
       0.017206108 -0.29911664 0.44134745 0.22742279
0001f0 a0 d0 9b 3e d8 bf 43 3c ec 46 ae bd 80 75 91 3e
       0.30432606 0.011947595 -0.08509621 0.28409958
000200 23 2a fd 3e 86 84 2c 3e da 3b 56 3e 68 d3 78 bf
       0.4944621 0.16847429 0.20921269 -0.9719758
000210 87 90 15 bf a1 d6 cf 39 67 78 b4 3d b9 78 15 bf
       -0.58423656 0.00039642028 0.088120274 -0.58387333
000220 28 3a 37 be 19 13 a0 3b af de bf 3d 44 4a 91 3d
       -0.17893279 0.004885089 0.093686454 0.07094243
000230 95 6d bc bd c6 71 08 3e bc ba 8a bd 56 eb 93 3c
       -0.092005886 0.13324651 -0.06773898 0.018056553
000240 9e f7 10 3b 59 d6 2f 3e 68 55 cb 3c 73 d4 2e 3e
       0.0022120248 0.17171611 0.024820998 0.1707323
000250 26 98 aa bd a0 b1 32 bd 7e 26 c5 bb f9 75 55 3e
       -0.08329801 -0.043626428 -0.0060165515 0.20845784
000260 05 19 5b 3f b2 59 8c be 0a b0 c6 bd 4a 7d 32 3e
       0.8558505 -0.27412182 -0.097015455 0.17430606
000270 6f 3d 8a 3e 00 ac 04 3e 4c ad d9 bd b5 0e 00 3e
       0.26999995 0.12956238 -0.10628757 0.1250561
000280 7f fa 83 3e 27 45 a9 3d e5 6f 60 bd 7c 31 09 bf
       0.2577705 0.08265143 -0.05479421 -0.5359113
000290 be 41 fc bc a6 b7 d5 3d f5 07 aa 3e cf 0d 9b be
       -0.030793067 0.10435419 0.33209196 -0.30283973
0002a0 e6 7b 03 be ff 4b f2 3c 89 a3 1b 3e 11 ad 08 be
       -0.12840232 0.029577253 0.15199102 -0.1334727
0002b0 69 78 ec bd 63 5a 65 be c2 91 16 3d 5d 2e 34 be
       -0.11546404 -0.22397761 0.0367601 -0.17595811
0002c0 63 97 27 3e b6 88 f2 3c af fb 33 be d6 df 88 bd
       0.16366343 0.029606204 -0.17576478 -0.06683318
0002d0 c4 5f 98 bd 7a a5 45 3d fa d3 d2 3e 19 12 25 bd
       -0.07440141 0.048253514 0.4117735 -0.040300462
0002e0 5e be bc 3c 56 dc 5e 3c 76 c1 15 3e 45 34 ac 3d
       0.023039993 0.013602337 0.1462458 0.08408407
0002f0 ae 4d 7d b9 38 58 6f 3d b5 c6 70 3d 38 d4 37 be
       -0.00024156898 0.05843374 0.05878325 -0.17952049
000300 50 40 84 bd 20 0f 50 be 01 b2 a0 bd 6e 8d 77 be
       -0.06457579 -0.2031827 -0.078464516 -0.24175045
000310 25 35 53 be 40 57 a2 bd 34 85 85 bd 72 8b 8c 3d
       -0.20625742 -0.07926798 -0.06519547 0.068625346
000320 25 68 3b bc 35 9f 82 bd b2 d0 d5 bd 55 4b b3 3d
       -0.011438404 -0.063780226 -0.10440196 0.08754603
000330 28 5d bf 3d fb 01 3d bd 3d c7 04 be 57 52 40 3c
       0.0934394 -0.046144467 -0.12966628 0.011738381
000340 dc 9d 97 3d f0 4e 7f bb ff dd 27 be b0 25 47 be
       0.07403156 -0.0038956963 -0.16393279 -0.1944797
000350 c5 4a 43 be e1 70 ab 3d 42 ec 76 bd 3a c6 5b be
       -0.19071491 0.08371139 -0.060283907 -0.21462336
000360 0e 48 c9 bd 26 66 99 3d 57 45 6c be 36 45 ec bc
       -0.098281965 0.074901864 -0.23073326 -0.028841596
000370 c9 2b 36 be a4 a4 a4 3c 9b cc 50 bc 4b 96 15 be
       -0.1779014 0.020098038 -0.012744094 -0.14608113
000380 09 b9 97 3e 38 af 9c 3e d6 ce b8 bd 75 53 d5 be
       0.29633358 0.3060243 -0.09023826 -0.41665235
000390 6a 7d 62 bb b8 55 db bd ba 32 df bc a0 0f 0e be
       -0.0034559616 -0.10709709 -0.027245868 -0.13873148
0003a0 c0 d9 45 3e 61 98 04 3e 62 bf 88 be aa 63 f3 bd
       0.19321346 0.12948753 -0.26708513 -0.11884244
0003b0 2d 19 4e bd b6 06 65 3e e2 7c 91 bd a6 91 a7 3d
       -0.05031698 0.22365841 -0.07103898 0.08182077
0003c0 6e f2 8f 3e 40 e7 bd bd 37 80 46 3e f5 f0 87 3e
       0.28114647 -0.09272623 0.19384848 0.26551023
0003d0 32 f2 06 3e 08 42 a6 bb e7 fd 08 3e dc c7 46 3d
       0.13178328 -0.0050737895 0.13378106 0.048530445
0003e0 a2 d6 25 be 1e 8f d8 3d fd e6 cf 3e f6 af 49 bd
       -0.16195157 0.105741724 0.40605918 -0.049240075
0003f0 8a 1f ab be b9 c3 2a 3f a8 ef f0 3d 57 42 01 bf
       -0.334225 0.667049 0.11764461 -0.5049185

gnn.convs.2.nn.lins.0.bias f4 [32]
000000 2f 4b 24 3e f6 38 17 bd 63 59 3b be 65 6f 46 3e
       0.16044305 -0.036919557 -0.18295817 0.19378431
000010 87 b4 bf 3d 6d a3 5d 3d eb ee 80 bd fe 4d 1e 3e
       0.09360605 0.054110933 -0.0629557 0.15459439
000020 6e a1 dc 3d de cf f8 3d cc 18 d5 bd d4 30 11 be
       0.10772978 0.121490225 -0.1040512 -0.14178783
000030 4a d9 0d bd 06 8a f2 bc 2c a6 99 3e 44 69 3c 3e
       -0.03463105 -0.02960683 0.30009592 0.1839953
000040 af 73 c7 3d 60 fa b8 be 7f 8d 02 bd f6 67 a2 be
       0.09738862 -0.3612852 -0.031873222 -0.3171994
000050 c6 97 1b 3d b6 0d d7 3e 22 a4 91 3d f6 d9 ef 3d
       0.03798654 0.42002648 0.07111384 0.117114946
000060 5a b3 7f be be e5 9e bd a4 d1 88 be 99 7f 30 3e
       -0.24970761 -0.077586636 -0.26722443 0.17236175
000070 35 42 d5 3b 7a 3b 70 bd 88 a1 aa 3e 3f 88 ba 3e
       0.0065081366 -0.05865047 0.33326364 0.36432073

gnn.convs.2.nn.lins.1.weight f4 [32, 32]
000000 3c 4d 7e 3e 40 8d 5c 3d f3 85 da 3c 2b 51 0a be
       0.2483415 0.053845644 0.0266752 -0.13507526
000010 8f aa 63 bb e5 bc eb bc 11 06 85 3d 0f 15 17 3e
       -0.0034739112 -0.028776595 0.06495298 0.14754127
000020 47 e1 a6 3d af dc 7d 3e ae 0b 83 3e fa b4 8d bd
       0.08148437 0.24791215 0.25594848 -0.06919284
000030 fe 23 9e be bd 97 ec 3d 94 4b 9d 3e 2f b3 b0 bc
       -0.30886835 0.11552379 0.30721724 -0.021569816
000040 c2 17 d6 bc d2 ff 61 be 33 19 fc bb af 41 38 3e
       -0.026134375 -0.22070244 -0.0076934337 0.17993806
000050 61 88 83 be 2a 14 55 be 6d e4 f1 3d bd c5 f6 3d
       -0.25689986 -0.20808473 0.11811147 0.12049434
000060 2b a1 88 bd fc 91 26 be 22 fa 99 3e ac a6 c4 3e
       -0.06671365 -0.16266626 0.3007365 0.3840841
000070 47 25 a0 bd 65 44 e7 3d e4 2a c1 bd ed 12 79 be
       -0.0781961 0.11292342 -0.09432009 -0.24323626
000080 0f 21 5c bd 1e 06 a8 bb c0 e6 12 be 21 d0 3f 3e
       -0.053742465 -0.0051276824 -0.14345837 0.18731739
000090 93 d6 99 bd b7 21 50 3e 87 f7 49 be 1e f6 12 be
       -0.0751163 0.20325361 -0.1972333 -0.14351699
0000a0 e3 f6 2d be 88 03 92 3d d2 b5 6b bd 58 a4 69 3e
       -0.16988711 0.0712958 -0.057546444 0.22816598
0000b0 e7 a3 f9 be 02 ad e7 bc 9a bc 28 be 23 da 2f be
       -0.4875786 -0.028280739 -0.16478196 -0.17173056
0000c0 e3 79 c5 bb 5a 55 43 3e f0 a6 fe bd 66 84 8f bd
       -0.006026493 0.19075528 -0.124341846 -0.07007675
0000d0 6b 4f 5b bd e1 88 db be 5d 81 e0 3d 60 a0 b7 bc
       -0.053542536 -0.42877868 0.10962174 -0.02241534
0000e0 57 07 2c 3e 3b 5d 2d be f4 76 97 3e b3 42 a0 bc
       0.16799675 -0.16930096 0.29582942 -0.019563055
0000f0 de f7 24 3e 42 63 43 be e1 c2 08 3e 77 95 1a bf
       0.16110179 -0.19080833 0.1335559 -0.60384315
000100 04 b6 4d 3f 2c 98 9e be 86 65 79 3e 84 79 a5 3e
       0.8035586 -0.30975473 0.24355134 0.32319272
000110 fa a6 ea 3e 22 a1 47 3d a1 fb 2a 3d 1d b1 9a 3e
       0.45830518 0.048737653 0.04174388 0.30213252
000120 fc c8 8d 3e 1f fc 82 3e 34 07 f3 be 09 7e 96 3e
       0.276924 0.25582978 -0.47466433 0.29393032
000130 e5 1b 93 3e 8d d1 a6 bc be f0 d8 3d 51 8a 17 3d
       0.2873222 -0.020363593 0.10592793 0.036997143
000140 48 82 0a 3e bb fe f7 3d 01 2d c6 3d fa b6 95 3d
       0.13526261 0.12109133 0.096765526 0.07310291
000150 8b 0c 7b 3d 93 82 35 3e 21 ad 1d 3f d5 21 00 3f
       0.06129126 0.17725591 0.615923 0.50051624
000160 b3 f4 75 3d e0 b9 3d 3e f2 b0 b9 3e 3f f6 28 3f
       0.060047816 0.18527937 0.3626781 0.6600074
000170 49 1d 19 3d 50 01 9a 3d a6 0c e1 3e 82 0a 39 bf
       0.037381444 0.075197816 0.43954962 -0.7228166
000180 5a 08 52 3d 23 0a 29 3e eb dd 14 3e 1d 69 15 be
       0.051277496 0.16507773 0.1453778 -0.14590879
000190 e8 31 44 bd 04 a8 f3 bd b9 69 f9 be d6 14 05 be
       -0.047899157 -0.11897281 -0.48713472 -0.1299623
0001a0 9f a3 46 bd 0a fd 92 be 38 47 26 bf 8a 48 5d 3c
       -0.048495885 -0.28708678 -0.6495242 0.013506064
0001b0 4f 7d b6 3f b9 f7 45 be c8 f2 63 bf 8f 7f 08 bf
       1.4256991 -0.1933278 -0.8904233 -0.5331964
0001c0 8d 24 a5 bd 74 79 cf 3d 55 28 15 bf 34 1e 41 bd
       -0.08063612 0.10130587 -0.58264667 -0.047147945
0001d0 68 4a 0a be 40 ab 6e be 2e e8 30 be 05 4e d6 bc
       -0.13504946 -0.23307514 -0.1727607 -0.02616025
0001e0 b0 6b fc bd 8e 5d 02 be bb d8 98 be 5f 3f 02 be
       -0.12325227 -0.12731001 -0.29852852 -0.12719487
0001f0 dc 29 0f 3d 18 aa a9 3c 9b 65 02 bf 10 74 96 3e
       0.03495203 0.02071099 -0.5093629 0.29385424
000200 2c 16 b6 be ca 05 2e be ba 98 24 3e 7b e5 ca bc
       -0.3556379 -0.16994396 0.16073886 -0.024767628
000210 a4 20 ff bd a5 e6 d7 bc 1b 6a 64 be b8 98 0a 3e
       -0.124573976 -0.026355097 -0.22306101 0.1353482
000220 bc 69 b0 bd 3e 43 28 3e cf 8a 4c 3b 8b 37 11 be
       -0.08613917 0.16431901 0.0031210666 -0.14181344
000230 d8 08 c4 be 18 cb d3 3d 5f 0e 13 3f e6 3d 00 3e
       -0.38287997 0.103414714 0.57443804 0.12523612
000240 ae 5f 5b bd 25 73 ac bd 3b 70 ec 3d b0 c9 d2 bd
       -0.053558044 -0.084203996 0.11544844 -0.10292375
000250 85 ef b6 be d3 1c ae 3e b1 a4 cd 3d 0a 7b c9 3e
       -0.35729614 0.34006366 0.10041178 0.39351684
000260 81 40 0b 3e ee 8f 77 bf 66 38 b6 be 30 1a 7b be
       0.13598825 -0.96703994 -0.35589904 -0.24521708
000270 32 c0 1c 3d 81 e5 c4 bd f1 3b ef be 68 0d 91 3e
       0.03826923 -0.09614087 -0.4672542 0.2833054
000280 f5 35 a2 3e 0b 47 06 bd 20 f7 05 bf 06 64 24 3e
       0.3168179 -0.032782596 -0.5233021 0.16053781
000290 68 bc b8 3d 6d 71 33 be b9 36 3e be 5f fd ca be
       0.09020311 -0.17523737 -0.18575563 -0.39646432
0002a0 32 80 24 be 3d 96 db bd 70 9c a0 bc fa 77 ab 3d
       -0.16064528 -0.10722015 -0.019605845 0.08372493
0002b0 bc da 40 bf 32 75 8a be 00 e0 15 bf c6 ca 06 be
       -0.7533376 -0.27042538 -0.5854492 -0.1316329
0002c0 4c 38 ae 3d 16 06 08 be 7b eb fa bd 6c 8e 91 3d
       0.085068315 -0.13283572 -0.122519456 0.07107243
0002d0 3e f0 ba 3e ae ac ad be 43 31 87 3d 5a 1e 01 be
       0.36511415 -0.33920807 0.06601193 -0.12609234
0002e0 fc 56 05 3e ab 47 8c be ea 2c c9 3c e0 52 39 be
       0.13021463 -0.27398428 0.02455755 -0.1809802
0002f0 dd dd 97 3c 7e 18 ae bd 4c 77 93 be 60 ad 5f 3e
       0.01853841 -0.08500765 -0.28801954 0.21843481
000300 e7 d6 04 be ef 9b 23 3e 07 35 e5 3d 11 30 c6 bd
       -0.12972604 0.15977453 0.11191755 -0.09677137
000310 a2 28 3c be 0d 49 87 3d 53 ec 1e 3e 55 19 0f bc
       -0.18374875 0.0660573 0.15519838 -0.008734067
000320 bb 1b 14 3e ea 45 62 be 8b 9f 6c bd 64 25 5a be
       0.14463703 -0.22096983 -0.05776934 -0.21303326
000330 70 9d a2 bc 1a 7c b9 3d 31 54 c9 be 9f 91 d5 bd
       -0.019850463 0.090568736 -0.39322045 -0.10428166
000340 fd 7d 63 bd 7b 92 68 3d 96 47 13 3e 75 63 0b 3e
       -0.055540074 0.05678032 0.14382777 0.13612159
000350 ae 95 c0 3d 60 08 74 be 3a ab 93 3d 04 53 42 be
       0.09403549 -0.2383132 0.07210393 -0.1897698
000360 0f 8a 25 bd 63 d8 33 be 01 f8 cd bd c8 43 1a be
       -0.040414866 -0.17563014 -0.100570686 -0.15064919
000370 db 24 5c be ba ed 2d 3e 1d c0 a9 bd 77 7f 09 be
       -0.21498434 0.16985217 -0.08288596 -0.1342753
000380 f8 ef ae bd 14 45 c6 3d af bf 29 3d f4 a2 bd ba
       -0.08541864 0.09681144 0.04144257 -0.001446812
000390 da d4 49 be af 1f c4 bd 55 e0 07 be d0 3b 91 be
       -0.19710103 -0.09576356 -0.1326917 -0.28365946
0003a0 75 5b 3e 3d e9 4f 61 bd 5d 5d 83 3d f9 b3 bc bd
       0.04647394 -0.05500785 0.06414292 -0.092140146
0003b0 de cc 5e be e6 f6 93 be 0c d4 b5 bd 9a 6e 83 be
       -0.21757838 -0.28899306 -0.08878335 -0.2567032
0003c0 49 0d e6 3d 0c 45 fc bd 03 23 00 be 91 da dc bc
       0.11233003 -0.12317857 -0.12513356 -0.02695969
0003d0 4c 91 de bb 7f 62 70 be e7 b9 ae 3d 36 7c 8f 3d
       -0.006792223 -0.23475073 0.08531552 0.07006113
0003e0 a9 7c 76 3d 4d 44 1b be 34 cc 82 bd 13 e3 0b be
       0.06017748 -0.15162773 -0.06386605 -0.1366084
0003f0 b0 75 ed 3d 83 ca f8 bd 5c 8a 09 be e5 d4 25 be
       0.11594713 -0.12148001 -0.13431686 -0.16194494

gnn.convs.2.nn.lins.1.bias f4 [32]
000000 75 c9 15 3e 4d fe 9a be 5f ba 53 3e f6 15 bc be
       0.14627631 -0.3027214 0.20676564 -0.36735505
000010 eb 2e cf 3e 82 3f 24 bd 31 c4 1a bd d2 79 9c 3d
       0.40465483 -0.04009963 -0.03778476 0.07640423
000020 45 fe 27 bc d3 28 91 be 79 9a 83 3e 87 69 66 bd
       -0.010253494 -0.2835146 0.2570379 -0.056252982
000030 58 46 2f 3d 7d 67 ad bd e9 99 c8 bd 2b 8c 2c bd
       0.042791694 -0.084670044 -0.09794981 -0.042125862
000040 25 83 a8 be 72 c0 04 bf ad c7 bc be 76 2d 87 3e
       -0.32912555 -0.5185615 -0.3687109 0.2640187
000050 ba 3b c1 3d 54 68 5b 3d a6 ef a5 3d df 9b 9e be
       0.0943522 0.053566292 0.0810235 -0.30978295
000060 ef 11 b8 3c 55 79 77 3d 10 6a 3d 3d 2c 4e 30 3e
       0.022469489 0.060418446 0.046243727 0.1721732
000070 67 f9 b8 bd 4e c9 5e 3e fc 50 36 3e e5 01 55 be
       -0.09031945 0.21756479 0.1780433 -0.20801504
