Run_GIN_ModelCheckpoint_EvFr_2/NCI1_reps_2_folds_5_epochs_20_2023-04-26_11-05/rep_1_fold_3/checkpoints/model_trial_3.ckpt (torch, 96717 bytes, 86 tensors)

gnn.convs.0.nn.lins.0.weight f4 [16, 37]
00000000: 038d 42be 73c8 d0be 82ed 03bf 937e 12be
00000010: 06e7 adbe 1dda 8bbd cbb3 15be 7da8 b43e
00000020: d2d7 97be 785e 69be 5376 c3bd d9f6 163e
00000030: 8a44 1abe f7bf e7ba 2564 093d d48e 40be
00000040: 8252 51bb cc53 c7bd 822c 9fbd 2257 6f3d
00000050: da0f a13d 5264 66bd 5808 ebbc 8851 5abe
00000060: 7ce0 93b9 3dba 23be 7580 1bbe bb2c 943e
00000070: cff8 c1be 13da dcbd 7908 0c3d a9be e93d
00000080: 552d d7bd c5c9 663f 6819 88bb ea46 0c3e
00000090: b5a7 6f3d 79d4 5ebe e37e 833e eefd 6fbf
000000a0: b969 fcbd 0fa6 c3be 3e42 a6be ef82 013e
000000b0: 72e3 dbbd 0580 b0bd fc7b 22be 15ea 13be
000000c0: bc4b 2dbe 57d4 b5bd 8f33 e5bd 32c5 cabd
000000d0: caa1 9dbd f009 de3e a6a9 5dbd 8d3a 04bd
000000e0: 0723 503d 883d cebd 4929 00be c2e5 f2bd
000000f0: 889f 88bd 4c66 e7bc a265 6e3f 4264 62be
00000100: 800f 833d 7cf7 7c40 4d75 08be 9a7a 67bd
00000110: 5e9e 7a3d e38d 02be 4f34 673f cdbc 0cbe
00000120: 0ec9 073e b7f7 963f f35b 883f 7f84 0c3f
00000130: dd2f aebe 7f9f ee3e 0c2e 82bf efd3 173f
00000140: a2f1 823d 80e2 53bd 3978 a1bd c361 22be
00000150: b1f0 3dbe b66c 27be f378 8dbd 7f21 03bf
00000160: 949e 35be 7e08 1bbe d874 8f3e 7b16 35bd
00000170: b2b1 dfbd 1d08 1cbe dc6c 2bbe ca72 e93f
00000180: 2120 f9bd b467 20bd 5195 673d c685 ef3d
00000190: ec05 f7be a02c e23c bcf0 4440 0649 13be
000001a0: 6543 a53f e05b bdbd 986d eebd 41fe 7c3f
000001b0: 920b f6bd 09d9 ecbd 4b71 813f 40d4 85bd
000001c0: c2d1 a53d 13d3 95be 5c89 1bbe 90d9 60be
000001d0: 2920 2abe 1760 903c 0cbd a2bd 3ceb f0be
000001e0: cff1 30be 13c7 a9bd 6cbc 0bbe 999e 44be
000001f0: eabb 35bc daa7 cdbd c4c7 13be 52e1 4e3e
00000200: 212e 17be dff1 2abe ef6c 2dbd 99fb 233f
00000210: 8d3f 3ebe a9bc 14be b76c 25be b443 febd
00000220: 38af b1bd fde9 c7be 6579 1abd e849 18be
00000230: e3ee 02be 9796 d33c dcf4 12be 5fa0 543e
00000240: b4f1 0abe ab6d 78be 3c18 1abd 1ceb 2d3f
00000250: 9e4e b03e b4ba ccbe 1918 8c3e 9484 c9bc
00000260: 8766 39be 66c1 c63e 05e0 90be 4159 88be
00000270: b1d6 bb3f 362d 753f ceb8 6c40 2562 ae3f
00000280: 5c57 0740 4921 9c3e d201 53bd b9cf e93b
00000290: 1df3 693e 374e ef3f ce9e ae3f 7ee1 aa3f
000002a0: 2bc5 fcbe 95d8 0cbf d1d5 2dbd 0211 1d40
000002b0: d15c 0040 0225 9b3f 74f8 153f 82fa 0d3f
000002c0: bd11 eabd 697b 65be 8a22 23be 47ce 1b3e
000002d0: da61 24be 1a77 ddbc 76c2 d5bd d4a8 eabc
000002e0: 7fed 8bbe 6538 3bbe 443e 8b3e c40c 95be
000002f0: e8a9 bbbe 142b 243f 3353 be3d 93a3 c43c
00000300: 97ed 2fbc ee16 5f3f ae4f 723f d590 833c
00000310: fbb7 99bc 5ca5 09bc b5f4 5bbe ae6c 83bd
00000320: dd93 c73f 836d a63c e51c d43f 59e2 2f3f
00000330: f0fb 593d f24d 96be cfde 89be 74e7 513d
00000340: e1dc acbd 3242 733e 1ec9 4fbd a72c 60bd
00000350: 3cf8 183f 60a9 18be c5cd 75be 5b20 35bd
00000360: 1090 4cbc 22da 0dbe 1d5c 2c3c 07a4 6bbd
00000370: 93bf 9bbd 9a9d 83be 46d0 01c0 d04c 9ebf
00000380: a4c2 cf3e 441e 31be 37d6 073f 88d6 70bf
00000390: 87fe 3e3f 9193 9cbe d1fa cfbe dfa5 9c3e
000003a0: 3b96 4abe caf4 85be 1f94 c6be 5c33 283f
000003b0: 4eca 91be 847c adbe f249 d8be 68c0 7bbe
000003c0: e88b a5bf 0c0d 82bf 8ee6 55be a201 4b3f
000003d0: f638 843d ac24 96be c11a a7bf fa38 eabe
000003e0: 3930 263e d04c 1ebf 6c8e 31bf 61ff ca3d
000003f0: a23d 3ebe cb2c 91bd 20a6 2c3f 00c5 c8be
-0.18999104 -0.4077793 -0.51534283 -0.14306097 -0.3396532 -0.06828711 -0.14619367 0.35284796
-0.29656845 -0.22789943 -0.09544053 0.14742602 -0.15065208 -0.0017681111 0.03354277 -0.18804485
-0.0031940048 -0.0973278 -0.07772161 0.058432706 0.078643516 -0.056248017 -0.028690502 -0.21320164
-0.0002820528 -0.15989013 -0.15185721 0.28940377 -0.37885138 -0.10783782 0.034187768 0.11413319
-0.10506693 0.90151626 -0.0041534193 0.13698927 0.058509547 -0.2176074 0.25682744 -0.9374684
-0.123248525 -0.3821263 -0.32472414 0.12647603 -0.10736741 -0.08618168 -0.15867609 -0.14444764
-0.16923422 -0.08878391 -0.11191475 -0.09900893 -0.076968744 0.43366957 -0.054116867 -0.0322824
0.050814655 -0.1007033 -0.12515749 -0.11860229 -0.06671053 -0.028247021 0.9312383 -0.22108558
0.06399441 3.9526052 -0.13325997 -0.056513406 0.061186187 -0.12749438 0.9031419 -0.13743897
0.1326029 1.1794347 1.0653061 0.54889673 -0.34020892 0.4660606 -1.0170302 0.5930776
0.06393744 -0.05172968 -0.07884259 -0.15857606 -0.18548848 -0.16350064 -0.06907835 -0.51222986
-0.17736274 -0.15139958 0.28018832 -0.044210892 -0.109225646 -0.1523747 -0.16740745 1.8238156
-0.12164331 -0.0391614 0.056538884 0.11695437 -0.48246706 0.02760917 3.0771933 -0.14383325
1.2911192 -0.092460394 -0.11641997 0.9882546 -0.120139256 -0.11564834 1.0112699 -0.06534624
0.08096649 -0.292626 -0.15189117 -0.21957994 -0.1661383 0.017623944 -0.07946214 -0.4705447
-0.17279743 -0.082899235 -0.13646096 -0.19201125 -0.0110921655 -0.10041781 -0.14431673 0.2020314
-0.1476369 -0.16693829 -0.042340215 0.6405578 -0.1857893 -0.14525093 -0.16154753 -0.12415257
-0.086759984 -0.39045706 -0.037713427 -0.14871943 -0.1278644 0.025828643 -0.14351219 0.20764302
-0.13568765 -0.24260585 -0.037620768 0.67936873 0.3443498 -0.39986193 0.27362135 -0.024599351
-0.18105517 0.38819426 -0.28295913 -0.26630595 1.4674894 0.9577211 3.6987796 1.3623701
2.114707 0.30494145 -0.051515408 0.007135358 0.22846647 1.8695744 1.3642213 1.3350065
-0.49369177 -0.5501798 -0.04244024 2.454163 2.005665 1.2120669 0.58582234 0.5546037
-0.114291646 -0.22410358 -0.15931144 0.15215407 -0.16052952 -0.027034331 -0.10437481 -0.028644957
-0.27329633 -0.18283232 0.27195942 -0.29111302 -0.36653066 0.6412823 0.09293213 0.02400378
-0.010737798 0.8714436 0.9465283 0.016060272 -0.018764487 -0.008401241 -0.21480067 -0.064172134
1.5591999 0.020315891 1.6571318 0.68704754 0.053218782 -0.29356343 -0.26927802 0.05124612
-0.08440567 0.2375572 -0.05072891 -0.054730084 0.59753776 -0.14908361 -0.24004276 -0.04422031
-0.012485519 -0.13852742 0.010520008 -0.057529476 -0.07604899 -0.25706178 -2.028337 -1.2367191
0.40578187 -0.17296702 0.5306124 -0.9407735 0.7460713 -0.30581334 -0.40621045 0.305953
-0.19783871 -0.26163322 -0.38784882 0.6570337 -0.2847466 -0.3388406 -0.42243916 -0.24585116
-1.2933321 -1.0160232 -0.20888731 0.79299366 0.06456177 -0.29324853 -1.305504 -0.45746595
0.16229333 -0.61835957 -0.69357944 0.09911991 -0.18578199 -0.07088622 0.67440987 -0.392128

gnn.convs.0.nn.lins.0.bias f4 [16]
00000000: 0e2f 8bbe 9962 37be d1cc abbd 4f9b 00be
00000010: 60b1 24bf e1eb 9cbe 87c4 973d b065 06bf
00000020: cc08 1a3e 4955 f4be 4bc9 a8bd d009 5bbe
00000030: 2cde 033f c31f 02bf ceb2 2fbe e527 b4be
-0.27184337 -0.17908706 -0.08388675 -0.12559246 -0.6433315 -0.3064871 0.074105315 -0.5249891
0.15042418 -0.47721317 -0.082415186 -0.21390462 0.5151088 -0.50829715 -0.17158052 -0.35186687

gnn.convs.0.nn.lins.1.weight f4 [16, 16]
00000000: 64a1 90bd 229b 8c3d 121d 43be 9c9f 6e3d
00000010: 2e91 3abe dbe1 a1be d640 dcbd 1c85 74be
00000020: c023 153e ab14 2abe fd2f 66be 6851 c53d
00000030: 404d 7cbe b2ac 0c3e 0839 72bd b9ee 51be
00000040: 1804 8f3c 4751 1abf 154a a1bf b3d6 ab3b
00000050: 4615 f93e f155 a0bd 5c6c 4cbf 5a4f 1abf
00000060: 0762 253f 76ec 1abe c931 31bb ea05 93be
00000070: e439 713e c434 033c 6885 ba3c 3b67 b33e
00000080: cc43 16bf 8744 4cbe f527 91bf 69f8 ee3c
00000090: 1f5c b83e 1ff5 05bc e08f 90bf 686f 31bf
000000a0: d8d6 bd3e 49f9 ef3e 6346 74be 9cfb 35be
000000b0: bf1f 213f ece5 0e3f e557 233d 36e5 a53e
000000c0: 8ad8 19be 85ef c03d f52a d0bd 1d50 e1bd
000000d0: 81c8 5dbe 7a44 43be bb73 653d 1b50 383d
000000e0: 52cb e3bd 6018 2b3d e8ba 10be 68de e43d
000000f0: 2e0a 7abe ca48 31be c4fa cbbd c125 ec3c
00000100: e7bc 8c3e 4277 01bd c7b4 71bf bdae 833e
00000110: bb7f ed3e 0929 ac3d 33d8 78bf 9e7c 7dbf
00000120: ab7b d53e 7d0a 6dbe 6ceb 31be 1c30 683e
00000130: 8bd2 f63e 75b1 3b3d 0ddc 05bd fa34 ce3e
00000140: 986a be3e 4c4c 03be cdf7 63bf b12d 5dbe
00000150: 9544 2c3e 1f45 1a3e 721e 65bf 6d47 40bf
00000160: 95fb ef3e 4abd 843e 4437 0d3e 5cbd 47bd
00000170: 03b9 2a3f c698 513e 9f77 0b3e 86c0 ba3e
00000180: 2483 8d3d d006 3f3e 53cd a6be cd70 acbe
00000190: b644 70bc efb0 13be 4e56 a7be e2c2 17bf
000001a0: 8400 abbe 07e8 f83d a8e1 19be fcee 9cbd
000001b0: e38a d0bd 6779 193e cc62 cdbd 90ee 5ebe
000001c0: f143 9f3e d3cf ddbe 839c 95bf 8f65 d1bd
000001d0: a734 503f 9a82 b33e e03e 87bd 211d 82bf
000001e0: 1706 953f b465 343e 1bf7 a2ba efff 9c3c
000001f0: ccaa 983f dc0f 333f 4724 a83d c4c8 0c3f
00000200: d9c4 803b d55d 33be ce83 87bf e145 edbd
00000210: 15a1 f03d 76af 88bd 187b adbd 02e5 1fbf
00000220: 6fd3 10bf e2ac a43d 73b8 353f 45a0 20be
00000230: 9df3 953f 545c ed3e 364f 533e a5e2 89be
00000240: d86f b1be cb1c f3be f6ee 72bf 8951 353e
00000250: eec8 c93e 0b19 313e e139 23bf c498 54bf
00000260: ae8b ba3e b6a8 893e 2aac a5be 745a 0bbc
00000270: 6a67 803f cd7f 3bbd 7575 07bd c946 f73e
00000280: a220 81bd 1c50 0ebf 6711 9ebf 9dab 0d3e
00000290: eddb 8f3e 71a4 503d dfd1 60bf fa03 80be
000002a0: 8c0e ee3e 517a b53e 18d0 9f3d 26d6 2bbe
000002b0: 5ca7 2a3f 9042 0b3e ee64 98be 38c1 053f
000002c0: bb72 50be cf33 8f3d ca8b 00bf 5e42 32be
000002d0: ccdb 7bbe adb0 93be 0448 0fbe 3791 5abe
000002e0: ca14 61be d68a b33d 437d 1bbe 9ea6 c83d
000002f0: f9c7 38be caba ddbd e00e 1abd 9495 8f3d
00000300: aed4 e3bd cf06 4cbf 6964 b1bf 3deb 543b
00000310: 96e9 f53e 0400 04be 28d7 4dbf 4d52 e9be
00000320: 73a5 b43e 08c7 3fbc 0c4f 32bc 95d8 673c
00000330: 8009 113f 8a75 f6bd c1fa 593c c3da 903e
00000340: de0f 75be 9b47 aabe e061 59bf 6674 cb3e
00000350: e77a cc3e 6a35 5f3e 9812 44bf f96b 88bf
00000360: 91d1 153f 1f8d 813d acd0 233f 73ea 05be
00000370: 031b 2c3f 2783 d93c 3ff5 90be b1df 8f3e
00000380: ff20 393f 2725 953f 10e7 323f 16cd f73b
00000390: 8708 b23d afdb 67be 984f c8bd d67f 1b3f
000003a0: e436 c5be 3c7e a13e cf2a 6dbe 3e2a c7bc
000003b0: 4407 3dbe b871 963e 4873 663d 574a 9abe
000003c0: c0dd 4d3f 7b14 fc3f 97b3 163f 7b3f be3e
000003d0: ece7 d1be c141 2a3f 8283 96be 5fb7 a13f
000003e0: 00f3 3d3e 8591 4c3e d305 f13e b57b c83d
000003f0: faf7 c73e 23dd d53e 58c8 03bd 199f 4cbf
-0.07062033 0.06865527 -0.19054058 0.058257684 -0.18219444 -0.31617627 -0.10754554 -0.23878902
0.14564419 -0.16609447 -0.22479244 0.09634668 -0.24638844 0.13737753 -0.05913642 -0.20501222
0.017458007 -0.6028027 -1.2600733 0.0052441 0.48649043 -0.07828892 -0.79852843 -0.6027733
0.646027 -0.15129265 -0.002703773 -0.2871545 0.2355724 0.008008186 0.022768691 0.35039696
-0.586972 -0.19948016 -1.1340319 0.029171186 0.36007783 -0.008176117 -1.1293907 -0.6931062
0.37077975 0.46869877 -0.23854975 -0.17771763 0.62939066 0.5581958 0.039878745 0.32401437
-0.1502401 0.09420685 -0.101644434 -0.110016085 -0.21658517 -0.1906909 0.056018572 0.04499827
-0.11122765 0.041771293 -0.14133799 0.11175233 -0.24417946 -0.17312923 -0.09959939 0.028826596
0.2748787 -0.031607874 -0.9441647 0.25719252 0.46386513 0.08406264 -0.97204894 -0.99018276
0.41695914 -0.23148532 -0.17374963 0.22674602 0.48207507 0.045823533 -0.03268056 0.40274793
0.371907 -0.12822074 -0.8904999 -0.21599461 0.16823037 0.1506543 -0.8949958 -0.7510899
0.4687163 0.25925666 0.13790613 -0.04876457 0.66688555 0.20468435 0.1361985 0.3647501
0.06909779 0.18654943 -0.32578525 -0.3367981 -0.014664819 -0.14422964 -0.32683033 -0.5928174
-0.3339883 0.12153631 -0.15027487 -0.0766277 -0.101827405 0.14987718 -0.1002861 -0.21770692
0.31106523 -0.4332262 -1.1688389 -0.10224449 0.8133034 0.3506058 -0.06603789 -1.016514
1.1642483 0.17616922 -0.0012433262 0.019165007 1.1927123 0.69946074 0.08210044 0.54993844
0.003929716 -0.17516263 -1.0587099 -0.11585594 0.11749474 -0.066740915 -0.08470744 -0.62458813
-0.5657262 0.08040787 0.7098457 -0.15686138 1.171497 0.46359503 0.20635685 -0.2693073
-0.34655643 -0.47482905 -0.94895875 0.17706884 0.3941111 0.1729471 -0.6376019 -0.830456
0.36434692 0.2688653 -0.32357913 -0.008505452 1.003156 -0.045776177 -0.033071 0.48296192
-0.06305052 -0.5559099 -1.2349061 0.13834997 0.28097478 0.050938074 -0.8782024 -0.25003034
0.46495473 0.35444883 0.078033626 -0.1678091 0.6666162 0.1359961 -0.29764503 0.52247953
-0.20356266 0.069923036 -0.502133 -0.1740813 -0.24595565 -0.2884573 -0.13992316 -0.21344458
-0.21980587 0.08766715 -0.15184502 0.09797405 -0.18045034 -0.10826643 -0.037611842 0.07010952
-0.1112455 -0.7969789 -1.3858768 0.0032488846 0.48029774 -0.12890631 -0.8040643 -0.45570603
0.35282478 -0.011705168 -0.010883104 0.014150758 0.5665512 -0.120341375 0.013304413 0.28291902
-0.23931834 -0.33257756 -0.8491497 0.39737242 0.39937517 0.2179772 -0.7659087 -1.0657951
0.585229 0.06325745 0.63990283 -0.13077717 0.67228717 0.026551796 -0.28312108 0.2810035
0.72315973 1.1651963 0.69883823 0.00756229 0.08693033 -0.22642396 -0.09780806 0.6074194
-0.3851844 0.31541622 -0.23160861 -0.024312135 -0.18459803 0.29383636 0.056262285 -0.30134842
0.8041649 1.969375 0.5886778 0.37157807 -0.40997255 0.6650658 -0.29397207 1.2634085
0.18549728 0.19977386 0.47074756 0.0978922 0.3905638 0.41770276 -0.032173485 -0.79930264

gnn.convs.0.nn.lins.1.bias f4 [16]
00000000: ea71 fabe 689e 9a3e f0e0 883e db64 6cbe
00000010: 45b8 9d3e c772 93be f2ae 84be 5ab2 0fbd
00000020: 41b2 d6bc a139 033f 70e2 603e 782c 4dbd
00000030: 0a75 153e 2d68 203e e8c9 15bf d583 0ebf
-0.48915035 0.3019898 0.26734114 -0.23085348 0.3080465 -0.28798506 -0.25914723 -0.0350822
-0.026208045 0.5125981 0.21961379 -0.050091237 0.14595428 0.1566474 -0.5851121 -0.5566991

gnn.convs.1.nn.lins.0.weight f4 [16, 16]
00000000: 2160 42be 253d bb3e 24c6 1d3e 2500 983d
00000010: 5c06 b13c a55c 673f 6f87 12bc 4efa 76bd
00000020: 3f38 f43e d49f 893d c6b6 fa3d 4443 973d
00000030: 99c0 ad3d a4fc 263e a44f 93bf 123e b8bf
00000040: f71a d63d 2766 ad3d 86fe ed3d bd50 99be
00000050: 8c2f d23c 5773 3d3f a243 1bbe 83bc 92bd
00000060: 876b c53e 5268 1b3e 9e3b d03d ce26 96be
00000070: 567f 823e 54ee 923e f8ed 96bf 6c66 a6bf
00000080: f3df 153e 666c cd3d 7ea9 7dbc e9a0 59be
00000090: f260 193e cbb1 66be d76b 903c e3c2 1f3d
000000a0: 815b 08bf 4520 af3d 4142 49be ff68 97bd
000000b0: ad2e bbbd 9629 013f 1097 ce3d 1348 403f
000000c0: 44f6 f63d 3016 79bf de1e 3ebe 5040 75bd
000000d0: e43e c8be 7a98 cbbd 76b1 823e 3519 8f3e
000000e0: 6de7 95be 439f b0bc 410a d8be 5261 363f
000000f0: 9086 dfbe 4c3f 7dbe cc30 263d b569 0dbf
00000100: 9830 b4bc f671 2fbf 6da1 47bf 4785 313e
00000110: 6b0c d5be df2a 16bf 301f 033f d60e c7bf
00000120: 31fd e7be 28cc 43bf 0b39 34be 75cd 2fbe
00000130: 5572 17bf 4012 08be 79d4 6cbe 888b 84be
00000140: e36c f63d ca1a ffbd 837b bbbd 0c0e dbbd
00000150: 3418 14be ce9b d83d 6890 8cbe a227 12be
00000160: 6450 32be 4d17 c0bc b57e 53bd 68de 003e
00000170: 7d12 04bd 377f 5dbd 5c41 91be 9d10 43be
00000180: a430 ba3e d44d ffbf 4616 1fc0 5d84 8ebc
00000190: 094f c7bf bf7e 12be 140f 1cbc bfeb 2d3e
000001a0: 69de e13e 4b38 8fbf b116 aabf 6e35 463d
000001b0: 2a6c debf f007 1abf fe2c 0b3e 406e babc
000001c0: 6062 683e 5acb 98bd 908a 01be be47 2c3e
000001d0: 9c14 ed3c 54a2 ffbb 3446 803d 1c48 ffbd
000001e0: b0be d7bc 69b3 4fbe 0ebc a53d 90fb 3bbe
000001f0: 8c86 49be f2ff c0bd 1b73 09be fdee 0dbe
00000200: 6c56 40be 219c 8ebe 6fac 7a3d b418 423e
00000210: 914d fe3d 0d16 41be ec72 0abe b395 82be
00000220: 2b3e f6bd 072e 0ebe eefa 7ebe f666 fe3d
00000230: 11e8 26be ea37 5abd e357 5fbd ceb7 03be
00000240: 2be0 603d b58e 133e 7f87 4d3e bd4b 103e
00000250: d45d 043e aa5d f53e 1add ca3d 0237 67bd
00000260: cf29 183e 08b7 413d ab3a c73d 83d4 4abe
00000270: 8b51 343d dd5f 4d3e b7b6 5abf 159e 5abf
00000280: 8d78 46be bbc2 ac3d a3b2 6bbd 92c5 42be
00000290: a92a eb3d 21b0 c33e efa1 edbd fc27 f2bd
000002a0: 24b8 233e 23cf f93d 90ad e7bb 7029 083e
000002b0: c6e9 0f3e 9909 8c3e 740d 47bf 9f6d 5bbf
000002c0: 5ebc 7abe e0d8 833d 4e57 79bd 012b aabd
000002d0: 0dca 6ebe 3a8d 103f 7c41 53bd acb6 73be
000002e0: 42f9 d53d 28dc 1bbe 730f 623e 64c2 563b
000002f0: 583c f93d 92e0 843d 1192 51bf 0ba1 5cbf
00000300: 8a02 0e3e 2539 84be d06a 07be 8acf 06be
00000310: 8831 d73a 48d3 43bd cc7a 23be a5d0 a1be
00000320: 28de c3be 0c99 09bd 7ee1 cebd 19da dbbd
00000330: 0e49 5ebe 71a1 463d d5fe 73be 8fa6 47bd
00000340: 5402 f33d 16f0 36be f3cd 603b 52c4 073d
00000350: 44d3 d4bc 8c17 833d 854b aebe 1b1f eebe
00000360: 3432 22be 05ba a5be e50f 09be fb2f 3abe
00000370: 9923 4d3d 5a13 ea3d ed48 55bc aab0 28bf
00000380: 523d 2dbe 620c a03d 3720 97bd 5eff 0cbe
00000390: 74b7 c9bd 9ba0 a8be a8bd 8fbe 4d1c 5cbe
000003a0: 2dd1 87be b9d9 e8bb 6c44 3cbc 6ad6 18bc
000003b0: e855 4bbe c772 11bd 1865 08be a609 92be
000003c0: f443 babe bb86 623e e348 a7bd 996c 94be
000003d0: d685 67bd f162 2f3f 0a41 b03d 3547 21be
000003e0: c48d a03e 55ad 863e f219 583e 27d6 b73d
000003f0: 0b6c 403d 9081 333e 1bc3 8cbf 4f1b 8dbf
-0.18981983 0.36570087 0.15407616 0.074219026 0.021609478 0.9037574 -0.008943423 -0.060297303
0.47699162 0.06719938 0.122418925 0.07385877 0.08484001 0.16307312 -1.1508679 -1.4393942
0.10454362 0.0846675 0.11620812 -0.2994441 0.025657438 0.7400412 -0.15162519 -0.07164862
0.385586 0.15176514 0.10167621 -0.2932648 0.25487775 0.28697455 -1.1791372 -1.3000007
0.14636211 0.10030441 -0.015482305 -0.21252789 0.14978388 -0.2252876 0.017629547 0.039004218
-0.53264624 0.08551077 -0.1965418 -0.07393073 -0.09139762 0.5045408 0.10087407 0.75109977
0.1205869 -0.9729948 -0.18566462 -0.059875786 -0.39110482 -0.09941192 0.25526017 0.2794892
-0.29278126 -0.021560317 -0.42195323 0.7124225 -0.4365735 -0.24731177 0.04057388 -0.5523942
-0.021995828 -0.68533266 -0.7798069 0.17335998 -0.41611037 -0.58659166 0.51219463 -1.5551403
-0.45310357 -0.7648339 -0.17599885 -0.1716822 -0.5915883 -0.13288212 -0.23127927 -0.25887704
0.12032487 -0.124562815 -0.09154417 -0.106960386 -0.14462358 0.105765924 -0.27453923 -0.14272931
-0.17413479 -0.02344861 -0.05163451 0.12584841 -0.032244194 -0.0540764 -0.28370178 -0.19049306
0.36365235 -1.9945626 -2.4857345 -0.0173971 -1.5570995 -0.14306162 -0.009525079 0.16984461
0.44114998 -1.1189054 -1.3288175 0.0483908 -1.7376759 -0.6016836 0.13591382 -0.02275765
0.22693777 -0.07460661 -0.12650514 0.16824242 0.028940491 -0.0078013334 0.0626339 -0.12464926
-0.026336044 -0.20283283 0.08092509 -0.18357682 -0.19680232 -0.09423818 -0.13422816 -0.13860698
-0.18782967 -0.27853492 0.0611996 0.18954736 0.12417138 -0.18856068 -0.13520402 -0.25504836
-0.12023576 -0.13884746 -0.2490041 0.12421982 -0.16299464 -0.05327598 -0.054527175 -0.12863085
0.054901283 0.14409907 0.20071219 0.14091392 0.12926418 0.47923023 0.09905453 -0.056448944
0.14859699 0.047293693 0.09727987 -0.1980763 0.044023078 0.200561 -0.8543505 -0.85397464
-0.19381924 0.084355794 -0.057543408 -0.1902068 0.11482746 0.38220313 -0.11603152 -0.11824033
0.15988213 0.12197711 -0.007070251 0.13297057 0.14054021 0.27351072 -0.777549 -0.85714144
-0.24485919 0.0643785 -0.060874276 -0.083089836 -0.23319264 0.56465495 -0.051576123 -0.23800153
0.10447933 -0.15220702 0.22076206 0.0032769674 0.12169713 0.06488146 -0.81863505 -0.8618323
0.13868156 -0.25824848 -0.1322434 -0.13165107 0.001641796 -0.047808915 -0.15964812 -0.31604496
-0.3825543 -0.033593222 -0.10101603 -0.10734958 -0.21707556 0.048493806 -0.2382768 -0.048742827
0.118656784 -0.17865023 0.0034302443 0.03314621 -0.025979646 0.064009756 -0.34041992 -0.46508107
-0.15839463 -0.32368484 -0.1338497 -0.18182366 0.050082777 0.11429472 -0.013017875 -0.6589457
-0.16917923 0.07814862 -0.07379191 -0.1376929 -0.09849444 -0.32935032 -0.28074384 -0.21495171
-0.26526776 -0.0071060327 -0.011490922 -0.009328464 -0.1985699 -0.03550985 -0.13319814 -0.28522986
-0.3637997 0.22121708 -0.08168199 -0.28989103 -0.05652412 0.6851035 0.08606155 -0.1574982
0.3135816 0.26304117 0.21103647 0.08976393 0.046978038 0.17529893 -1.0997041 -1.1023959

gnn.convs.1.nn.lins.0.bias f4 [16]
00000000: 9335 853e 0fdb a23e e852 25bf ebe2 0dbf
00000010: 3e51 d83e f7bf f8bb 7a08 f63e 9895 88be
00000020: 3e89 68be c974 623e cec8 e7bc 1c29 0cbe
00000030: b878 13be 56ed 8bbe a4b6 05be d6ea f63d
0.26017436 0.31807753 -0.6457963 -0.55424374 0.42249483 -0.0075912434 0.48053342 -0.2667663
-0.22708604 0.22114863 -0.028293993 -0.13687557 -0.1440152 -0.2732951 -0.13057953 0.1205651

gnn.convs.1.nn.lins.1.weight f4 [16, 16]
00000000: 4468 1fbe de67 18bf 17ce 29bf c4b0 18bd
00000010: 6592 cfbe 38b1 39be 56e2 103d babf d73c
00000020: af8f c73d a46f cebc 1e1d a6be 592c 753c
00000030: e83b 09be 362e eb3d 935f 943d 5d6c 59be
00000040: 26a3 383c 58ee 87be 01c3 3fbd b112 213e
00000050: 046c 91be a86b f2bd 34f9 76be 007c 92bd
00000060: 4897 7c3d 14b1 733b 38ef 88bc b3b7 1bbe
00000070: d87c 523d d56a be3c 2a51 0ebe 3d6d a93d
00000080: 5aad 66be 389a f8bd e817 1dbe 0480 e3bd
00000090: dd2c 3abb 3ae5 bdbd 40c0 86bd c7e9 28be
000000a0: 9e30 31be 9a78 b03c bb1f b73d 4929 89bd
000000b0: 551a 80be ff3b 1dbe aac2 f23d 171b 883d
000000c0: 0d7f e23e 829d 053f a331 25be 1898 65be
000000d0: 0d4a b6be 38c6 e2bd 2da0 99bf 0ef8 36be
000000e0: f572 f3bd 5e5e 8b3e e467 0a3e bf8e 42bc
000000f0: 367f 12bd cfe2 353d cfca debd da96 863e
00000100: 05d5 dbbe 1596 33be 64d1 78ba f426 c53e
00000110: 12a5 10bd 8347 7a3d 43ba aabe 6068 d3bb
00000120: dbca 3d3c 7a2a 153e 015f 80be 9c13 3abe
00000130: 81f6 85bd 1a43 eb3d b467 e73d f4a4 21be
00000140: 850b c5be b126 a53d 4756 afbe 601c d5bc
00000150: e18e cfbd b8f2 af3d 6e4a 0abe 6cfb 92be
00000160: e408 71be ef96 9fbd 61d7 2bbe 0e32 3b3e
00000170: 8b96 f43c 2abd de3d 51c4 80be 0e65 2fbe
00000180: 170d 733e ed23 7a3e 230d 1fbe cbf2 0abf
00000190: fae7 a0be 0f31 14bd 2442 96bf e3ba 8a3c
000001a0: f1aa b9bc fa80 df3c 2cb4 f93c 9dd7 1b3e
000001b0: b852 fa3d e839 b73e 423d 57bd 6352 603e
000001c0: bf08 7f3e cbd5 383e ed43 07be 678f cd3e
000001d0: 9fab aebd 621d d1bd 8602 9ebf c750 28be
000001e0: e757 55bc a0a9 94bc 44ea 423e 3c4b 173e
000001f0: f101 c33d 0a2d 12be 7497 853d 8234 b73e
00000200: f1dc 51be ef80 82bc 2e93 57be a94e 87be
00000210: 46aa 70bd 0d2f 94be 1c9a 4bbe 55e1 3d3e
00000220: 2b52 f13d 1480 8ebe 4c16 a3be 7575 1b3e
00000230: 2b25 12be 8a28 8bbe 1b4e 6b3e 372d 5abe
00000240: 2318 863e 0c52 743e d514 07be 4b2d 69be
00000250: 604a 7abe 548c b9bd 0477 a3bf 73ba 12bd
00000260: d928 9abd d796 963e 756a 2c3e 1b2c f93b
00000270: b395 5c3a 812a fb3a 08d3 5ebe 9815 a73d
00000280: 2b8e 10be fbcd 393d d60b 16be 4838 a23e
00000290: 5506 463d 0397 35be 5c9d 20be 7e03 f8bd
000002a0: c62e 8c3e 0bd1 aabd cb7a a83d d169 06be
000002b0: 9f79 803d 7cd3 873d fda9 f03d e54e 06bd
000002c0: 486b 73bd 52a6 163e e097 33bd dd9e ff3b
000002d0: f345 49bc fee9 213e 0f0b 9ebd 80bf 923b
000002e0: 587a 123e 26c5 2cbe cd43 acbe 08a1 70be
000002f0: 70c9 1f3e d895 8bbd 0c96 84bd 6de0 2ebd
00000300: 2a9f 323e 5128 323d 76c2 80be 6712 cfbe
00000310: b559 ecbe 8c25 b43c 2ca7 93bf 4fca 883e
00000320: 941c 0c3d 7a8c 4a3e 8e9d 9e3d 63d6 a6bc
00000330: 1d73 80bd 9dc0 fdbd e7e6 4b3e 4d95 fa3d
00000340: be29 71be 6552 9bbe 3351 3fbf 8304 c43d
00000350: e9b4 483f 208a 6d3d 11b0 d03e 0802 18be
00000360: 8156 6e3e 6799 c5be 332e 0ebf fb6f dfbe
00000370: 31f3 acbc c16a 11be b132 57bd 9111 08bf
00000380: 5465 133e 12dd e53d 3fa9 c5be 0176 42be
00000390: b145 513d 1f05 903d f20b 94bf 2138 b1be
000003a0: 373f 2d3e 914f a73d 160f a9bc d8de a4bd
000003b0: abdd 6f3e 57c2 03be a8a6 1ebe 7f01 0d3c
000003c0: e35e 36be 071b 933d b7dc 05be fc9e 77be
000003d0: fe48 53be 1567 91be e986 38bd 0efe 813e
000003e0: 4acc fb3d 07f5 08bd f5c6 313c 9ed4 7c39
000003f0: 58ce 9abc 0080 353b f692 89bd 8b43 81be
-0.15567118 -0.5953349 -0.66330093 -0.03727795 -0.40541378 -0.1813401 0.0353721 0.02633654
0.09744202 -0.025199719 -0.3244409 0.014964187 -0.13401759 0.114834234 0.07244792 -0.21232744
0.011269366 -0.2654903 -0.04681683 0.15729786 -0.28402722 -0.1183694 -0.24118501 -0.071525574
0.06166771 0.0037184404 -0.01671563 -0.15206794 0.05138859 0.0232443 -0.13898149 0.08272789
-0.22527066 -0.1213879 -0.15341151 -0.111084014 -0.0028408088 -0.09272237 -0.065796375 -0.16495429
-0.17303702 0.021541882 0.08941599 -0.06697328 -0.2502009 -0.15354918 0.118535355 0.06645792
0.44237557 0.5219346 -0.16132216 -0.224213 -0.3560337 -0.110729635 -1.2002007 -0.17868063
-0.11887161 0.27220434 0.13516194 -0.011874854 -0.03576585 0.044405755 -0.108785264 0.26286966
-0.42935959 -0.1753772 -0.0009491651 0.3850628 -0.035313673 0.061103355 -0.3334523 -0.0064516515
0.011584009 0.14566985 -0.25072482 -0.18171543 -0.065411575 0.11487408 0.11299077 -0.15785581
-0.3848535 0.080640204 -0.34245512 -0.026014507 -0.10134674 0.08591217 -0.13504955 -0.28707445
-0.23538548 -0.0779246 -0.1678138 0.18280813 0.02985694 0.10875924 -0.25149778 -0.17128393
0.23735462 0.24427767 -0.15532355 -0.5427672 -0.31426984 -0.0361796 -1.1738935 0.016934818
-0.022664519 0.02728318 0.03048142 0.15218969 0.122228086 0.35786366 -0.052548654 0.21906428
0.2490568 0.18050306 -0.13209505 0.4014847 -0.08528828 -0.102106825 -1.234452 -0.16437064
-0.013021446 -0.01814729 0.19034678 0.14774793 0.09521855 -0.14274994 0.06523028 0.35782248
-0.20494439 -0.015930621 -0.21052238 -0.264272 -0.058756135 -0.28942147 -0.19883007 0.18542989
0.117832504 -0.2783209 -0.3185295 0.15181525 -0.14271991 -0.27179366 0.22979014 -0.2130631
0.2619029 0.23859423 -0.1319154 -0.22771184 -0.24442434 -0.090599686 -1.2770696 -0.035822343
-0.07527322 0.29411957 0.16837485 0.0076041347 0.0008414641 0.0019162447 -0.2176019 0.081584156
-0.14116733 0.045362454 -0.14652953 0.31683564 0.048345882 -0.17733388 -0.15685028 -0.12110041
0.27379435 -0.08340653 0.08226546 -0.13126303 0.062731974 0.06632134 0.11751173 -0.032790083
-0.059428483 0.14711884 -0.04384601 0.0078009204 -0.012284744 0.15811917 -0.07716953 0.004478395
0.14304483 -0.16872081 -0.33645478 -0.23498929 0.15604186 -0.0681569 -0.06473932 -0.042694498
0.17443529 0.04349548 -0.25148362 -0.40443727 -0.4616219 0.02199056 -1.1535392 0.2671685
0.03420694 0.1978015 0.07744895 -0.0203659 -0.06271956 -0.12390254 0.19912301 0.12235508
-0.2355108 -0.303363 -0.74733275 0.09571173 0.78401047 0.057993054 0.40759328 -0.14844525
0.23275186 -0.385936 -0.55539244 -0.43640122 -0.021112056 -0.1420088 -0.052538577 -0.53151804
0.14394122 0.112238064 -0.38605687 -0.18990327 0.051091854 0.07032227 -1.1566145 -0.34613135
0.16918646 0.08169473 -0.020637076 -0.080503166 0.23424403 -0.12867104 -0.15493262 0.008606314
-0.17809634 0.071828894 -0.13072477 -0.24181741 -0.20633313 -0.28398958 -0.045050535 0.2538914
0.122948244 -0.0334368 0.010850658 0.00024111799 -0.01889722 0.0027694702 -0.06717484 -0.25246844

gnn.convs.1.nn.lins.1.bias f4 [16]
00000000: fb9a b7be 382b 2dbd 150a 42be 4b60 b03e
00000010: 4d62 08bd 68de 88bc 89db 653e b6a4 333d
00000020: 07e4 feba 21bf a83e ce30 9bbe c7cb 8bbe
00000030: 65ad c93e b74a 0a3f 0300 903e d63f 31bd
-0.35860428 -0.042277545 -0.18949158 0.34448466 -0.033296872 -0.016707614 0.22447027 0.043858252
-0.001944662 0.3295832 -0.30310673 -0.27303907 0.39390102 0.54020256 0.2812501 -0.04327377

gnn.convs.2.nn.lins.0.weight f4 [16, 16]
00000000: 416c c03e ad79 1abe 6e02 59bc 5891 2fbe
00000010: 839e e93d 121c 493c 0de7 243e abb3 393c
00000020: 9fa4 1e3e 8a45 67bd 369e 5d3e 41cf e3bd
00000030: 1b89 40be 63bd 4ebf e6ba 55be 6e64 483e
00000040: d496 a0bb 0b8e a43d 4039 343e 8879 c3bc
00000050: 2995 92bc a4de b8bd 1c24 913c db3a efbe
00000060: 50a9 94be 72ed 15be d81b 60be a057 173d
00000070: 07a0 57be c95f 36bc e012 97bb dc7b 77bd
00000080: ea3b bf3e 7c9e 05be 8c69 16be 2ecc 50be
00000090: ef06 813d 969e a13a e180 d23d 50a1 6a3e
000000a0: 9dd9 c23d 756c 35bf a942 4c3d f439 1fbe
000000b0: b901 42be 395a ee3e 8b6a 3bbf 1d68 18be
000000c0: 27fd f23c 70e4 1a3d 34e4 523e 4b3e 80be
000000d0: 7a85 3cbe 2f16 1b3e 718c 4fbe ff76 23be
000000e0: 508c 2b3e 0775 89be 95dd 403d 0ab0 30be
000000f0: 7f6a b03d 56fa 8bbe 47b8 69be 7ffd 3abe
00000100: 104f a8bd 0c24 82bd a8c0 1d3d 4338 1abe
00000110: 2946 9cbe a64f 043e 1b56 abbd e98c 51be
00000120: 553f 803d cfd9 7abd aae4 36be 0c01 773e
00000130: a21a 4bbe f951 95bd 7090 7dbe 21f8 043e
00000140: 28d2 213f 533a 2f3e 9112 063d afb4 95bd
00000150: a7e7 b8bd eae3 8fbe ea29 d6bd decd d6bd
00000160: f9eb 75bd 42ae 0cbd c7c0 eabd 781e 383e
00000170: e380 2f3d 1fc2 29bf c59a 943c cb12 68be
00000180: 4c89 77be 8edf 31be 18f6 393e bcab 98bb
00000190: 365a 69bd 6bb9 f1bc 0cb3 28be 3acd 09be
000001a0: bc53 993d 95a6 6cbe a5f2 a8be 6018 f83d
000001b0: d3b2 91be 9f85 a2be 27cf 8cbd c6ce cabb
000001c0: 341f 423e 122e 3dbe c134 9e3d d4d4 a9be
000001d0: 6db0 cc3d 243b 14bd 7743 e3be 78e2 3f3e
000001e0: 8b28 0f3e ac75 18be e52e 133e e47e 593e
000001f0: 0fca 14be 3339 5dbe f7d3 7cbd 0503 3abe
00000200: f361 2bbe 0ea8 493d a85f 3ebd 3c0c 92be
00000210: e031 65ba f954 e43c d541 31bd 2964 e9bd
00000220: 818e 5f3e 6fa6 8d3d c14b 193e 8239 6abe
00000230: de50 cebd 0862 003d eead 70be 3d16 5abd
00000240: 7bc7 11be 3fcd 9bba 8787 88bd d6bb 54bd
00000250: 512b 6fbb 0d6d 023e 2fad 86bd f2c4 60bc
00000260: 77cc 5b3e ed15 bb3c f4c3 cfbc 62c4 963d
00000270: f708 b33d 0a8b 7cbf f46e 88be 4874 f8bd
00000280: 3219 1dbc 8507 4e3e 676c 39be 30ae 3bbe
00000290: a1df 643d 152c 463e 0de0 97be 7bfe f03d
000002a0: 1c71 303e 5e21 23be 5178 39bd 5d87 e43d
000002b0: 4033 823d 8df8 cbbd 2b19 98be 47dc 413d
000002c0: 5e0e ecbd c15e 293c c03d 00bc 6b18 b6bd
000002d0: 963b 40be 344d 8ebe 745f 3dbe 381c e1bd
000002e0: 2338 2abe ce1b 84be 538f 39be 3cb0 9cbd
000002f0: e928 8abe 2123 5dbd e605 9cbd cb36 2ebe
00000300: f0f9 30ba ec59 39be c99d dcbd b5cb dfbe
00000310: 8a48 193e e78b 32be 0974 e6bd 5a4e 17bf
00000320: 634c b73d 7864 f9bd 427c 02bd c8e2 e6bd
00000330: 6d99 f9bd aca1 a33e cc92 633d 6680 8e37
00000340: 7d02 59be 32cd ab3d e0cd 513e 7b2f 573e
00000350: 0de0 1b3e ff62 f7bd 3ff0 8abe 8882 46bd
00000360: c3e2 56be 3606 28bd 21f6 383d e5b4 cc3d
00000370: 2feb cd3d 96ce ddbe 66be c23e 64bf acbd
00000380: a43e bebe eb7e c8bd 43e5 9b3e 2c41 82be
00000390: 7255 823e ffd6 85be e15a 133e a8f6 72be
000003a0: 0350 39be 532c 013e 66fc 8abe 6c5d 5e3e
000003b0: 38df 14bc 4855 86bf 07b1 34be d53d e63d
000003c0: 395a ae3e 556f c8bd 03af 48bd 243f e0be
000003d0: 839b 06bf 5863 493e 1f9a a5be fba8 d8be
000003e0: f5cc e2bd b244 0cbf c530 88bd 8c92 983d
000003f0: dc7f c6be 1858 b23e 155d 4cbe 39f2 6abe
0.3758259 -0.15085478 -0.013245208 -0.17145288 0.11407187 0.012274759 0.16103764 0.01133434
0.15492485 -0.056462802 0.21642384 -0.11123515 -0.18802302 -0.8075773 -0.20872077 0.19569561
-0.0049007926 0.08034905 0.17599964 -0.023861662 -0.01789339 -0.0902684 0.017717414 -0.4672459
-0.29035425 -0.1464136 -0.21885622 0.0369488 -0.2105714 -0.011131235 -0.0046104044 -0.060420856
0.37350398 -0.13048738 -0.146887 -0.20390388 0.063001506 0.0012330587 0.10278488 0.22913098
0.09514163 -0.7086862 0.04986826 -0.15549451 -0.1894597 0.4655321 -0.73209447 -0.14883466
0.029661728 0.03781551 0.20594865 -0.25047526 -0.18410292 0.15145181 -0.20268418 -0.15963362
0.16752744 -0.26847097 0.047086317 -0.17254654 0.086140625 -0.2733943 -0.22824202 -0.18260764
-0.08218205 -0.06354532 0.03851381 -0.15060525 -0.30522278 0.12921008 -0.08366033 -0.20463909
0.062620796 -0.061242875 -0.17860666 0.24121493 -0.19834378 -0.07291026 -0.2476213 0.12985279
0.632113 0.17112093 0.03273255 -0.07309853 -0.09028559 -0.28103572 -0.10457213 -0.10488485
-0.060039494 -0.034345873 -0.114625506 0.17980373 0.042847525 -0.6631183 0.018140206 -0.22663419
-0.24173468 -0.17370436 0.18160284 -0.004659144 -0.056970797 -0.02950736 -0.16474551 -0.13457194
0.07486674 -0.23110421 -0.32997623 0.12114024 -0.28456745 -0.3174257 -0.06875449 -0.0061892
0.18957216 -0.18474606 0.07724906 -0.33170187 0.09994588 -0.036189213 -0.4438741 0.18738735
0.1398031 -0.14888638 0.14373358 0.21239811 -0.14530204 -0.21603851 -0.061725583 -0.18165214
-0.16736583 0.049232535 -0.046477944 -0.2852496 -0.00087430887 0.02787255 -0.043275673 -0.11396057
0.21831705 0.0691651 0.14970304 -0.228735 -0.10074018 0.03134349 -0.23503849 -0.053243864
-0.14236252 -0.001188673 -0.06666475 -0.051936947 -0.0036494324 0.12736912 -0.06576001 -0.01371883
0.21464716 0.022837603 -0.025361992 0.07361676 0.08741944 -0.98649657 -0.2664715 -0.12131554
-0.009588527 0.20120056 -0.18107758 -0.18328166 0.05587733 0.19352753 -0.29663125 0.11767288
0.17230648 -0.15930697 -0.04528076 0.11158631 0.063574314 -0.09959517 -0.29706702 0.047329213
-0.11526178 0.0103375325 -0.007827222 -0.08891376 -0.1877273 -0.27793276 -0.18493444 -0.109917104
-0.16622977 -0.25802463 -0.1812108 -0.076508015 -0.26984337 -0.05398858 -0.076183125 -0.1701309
-0.0006751111 -0.18100709 -0.10772283 -0.43710104 0.14969078 -0.17436181 -0.11252601 -0.5910393
0.089501165 -0.12177366 -0.031856783 -0.11273724 -0.12187467 0.31959283 0.05555992 1.698751e-05
-0.21192355 0.08388747 0.20488691 0.21014206 0.15222187 -0.12079429 -0.27136418 -0.048464328
-0.2098494 -0.04102155 0.0451566 0.099954404 0.10054623 -0.43321675 0.38035887 -0.08434942
-0.37157166 -0.09789833 0.3044835 -0.25440347 0.25455815 -0.26140592 0.14390136 -0.23726904
-0.18096928 0.12614565 -0.2714569 0.21715325 -0.009086423 -1.0494776 -0.17645656 0.11242262
0.3405321 -0.0978686 -0.04899503 -0.43798172 -0.5258104 0.19666803 -0.32344148 -0.42316422
-0.11074249 -0.5479232 -0.06649927 0.074498266 -0.38769424 0.34832835 -0.19957383 -0.22943963

gnn.convs.2.nn.lins.0.bias f4 [16]
00000000: 1fda efbc 6797 36bd a353 b2be 161a d9bb
00000010: 009f dfbe 7277 3abd aef7 31be 691f 5f3e
00000020: a69c 9cbe 264a debd 28c9 2ebe 08a9 adbd
00000030: c285 dfbd 2b63 edbd 14f9 2bbe eedf 183e
-0.029278813 -0.044577982 -0.34829435 -0.006625424 -0.43675995 -0.04552407 -0.17379639 0.21789326
-0.30588263 -0.108539864 -0.17068923 -0.08479506 -0.10914184 -0.115911804 -0.16794235 0.14929172

gnn.convs.2.nn.lins.1.weight f4 [16, 16]
00000000: 8050 66be 828e 6f3e 4ce5 fdbb 0024 5c3a
00000010: 52fa 4e3e c19b 83bd b078 dfbd 268c 64be
00000020: ecc9 edbd e238 41be e870 8fbc 8271 4a3e
00000030: fc6a 00be 7049 93be 1216 51be 7d8d 95be
00000040: cc9c cbbe 222d 1cbe a65e 63be 049c 303e
00000050: 6051 e93c 9845 86be b41d 423e 505f 00be
00000060: 5894 d4bd f9e1 9dbd aa1c 38be c8ea 423e
00000070: 94ad 74be 1a8d 59be e6ad a1bd 6d65 31be
00000080: b950 f53d 4e8a 05bc 20e9 bc3e 3d93 6a3d
00000090: 28bd 2dbd 429d 4cbc 37bb 393d 2218 9cbe
000000a0: ba5e 93bd 683d 04be 8e55 de3d 79bf 183e
000000b0: 4801 22be 9752 a4be de2d a33d 8135 7dbf
000000c0: cb9b aabe ecdb 84be 4b34 0fbe 9e27 243e
000000d0: 783f 093e 9e1c 8f3c 85dd 3fbd e8ed 13bd
000000e0: d05f b4bd c691 72be 4059 2e3d 4c77 d5bb
000000f0: 53b0 c5bd ee14 15be e850 61be 5451 63be
00000100: c5b4 093e 2512 34bd e146 ad3d eb7a 0dbe
00000110: 9ba4 96be 69e4 513d cffc 13be 807a b63e
00000120: e075 393d dbd4 9a3b d640 4abc bef0 263d
00000130: 65f5 c4bd cbf0 1abe fae7 8dbd 4d5e b9be
00000140: c047 0abe f266 4f3e 04e3 3abd 5dbd eb3d
00000150: 9e57 363d 1795 35be c050 96be bdbf 293e
00000160: 179f 5f3e 37d9 85be 6011 56be ff6f f53d
00000170: 68f2 ff3d c93c 35bf 7552 d6bd 1f67 6dbe
00000180: b677 8f3d 7ad5 083e 0071 e33e 8e98 53bd
00000190: 4440 93be 961b 1abc 7908 d63c 75c7 40be
000001a0: 7339 a13e 0885 723d f773 88bc 759d 9dbd
000001b0: b607 9c3e f683 02be 46bf a2bd 4cad b03e
000001c0: 93c3 1ebd 5faa abbd 3b81 8abe e477 1d3e
000001d0: c5e6 2ebe 29c0 90be a130 a4bd d32d 7ebc
000001e0: 97ef 7cbe b250 b2bd e76d 71bd e451 1dbe
000001f0: 4e83 e63c 3bcb 9bbe 0dc3 5cbd 35a3 7fbe
00000200: b78d 06be bbc3 763b 5e96 eebe 0111 083e
00000210: 555d 83be 01d4 ed3c 22a3 13be 95e7 48be
00000220: be26 463e 72ac 213e 3fca 23be e4f1 32be
00000230: 4cdf b33c 0154 40be d2d3 083e e15d acbe
00000240: 5239 583b 9e62 6ebd 1c4f 173d e247 f1bd
00000250: d868 f1bc 2224 b4bd ac28 e6bd 5d04 6f3b
00000260: 756e 343d 3653 673e 1780 2a3e 4884 c6bb
00000270: b73b 853e 61f5 72be d1f7 febd 8e40 0fbf
00000280: 0544 b13c 7277 533d aceb e3be 053b f7bd
00000290: 3a15 49bb 388f babe 72cd d9bd c3e5 02bd
000002a0: ec69 dd3d 3317 773d c480 7e3d 1c6e 2dbe
000002b0: 89aa 64be 4cca 9cbe ce56 8cbe a721 b0bd
000002c0: bbe1 053e 1e87 2cbb 42f1 953d b870 913d
000002d0: 969a 17be d6e8 743d 4cbf 553e 1b92 1dbe
000002e0: fe59 d53c 1f56 ca3c 3bf9 3e3c e8c7 88be
000002f0: 8d30 97be e7cf 66bf f340 21be 0ab6 88ba
00000300: cf87 02be 3a1f 5e3e ee69 033f 53a4 8bbd
00000310: cced 1c3e 6d90 0fbd e8f5 2cbe 40f6 053e
00000320: cd85 6ebe 1547 bf3c 64c4 8d3d 9bc3 44bd
00000330: f45c f9be 8f38 8abe 8009 5bbe 9ba8 92bd
00000340: f371 a7bd 0831 de38 3654 dfbe 72ac a3bd
00000350: 416d 0f3c 4a7f 2dbe 2231 383e 8ace 80be
00000360: 77aa 0ebe 5f27 09be 5b2a 95be 85c4 573d
00000370: c891 1c3d 2696 ac3d f59d 6dbd 3480 cabe
00000380: 1a89 ce3d ac24 cfbd 751d 02be c740 253e
00000390: a076 86bd 7e47 3bbd ec3d 14bd 6fdc 03be
000003a0: e288 073d 7d60 6a3d f2f8 4b3b b078 ddbd
000003b0: b229 023c 9e85 d0bd 6c0a 92bd 5f43 36be
000003c0: 2956 4fbd 7b8f 52be 2005 79bd d847 babd
000003d0: 30a1 85bc 17d8 70be da2c 28be 9cd0 22be
000003e0: 60b7 3f3d 73f5 a2bd 9161 823b 0056 17bb
000003f0: d401 813d 8582 48bc 5a53 8bbd b44d 84bd
-0.22491646 0.23394206 -0.0077482816 0.00083976984 0.20212677 -0.06426192 -0.10911691 -0.22319087
-0.11610779 -0.18869355 -0.017509893 0.19769862 -0.12540811 -0.28766966 -0.20418575 -0.2920951
-0.39768064 -0.15251592 -0.22204074 0.17247015 0.028481185 -0.2622497 0.18956643 -0.12536359
-0.10379857 -0.077091165 -0.17979684 0.19034874 -0.2389434 -0.21245232 -0.078944966 -0.17323847
0.11978287 -0.00815065 0.3689661 0.057269324 -0.04241672 -0.012488665 0.045344558 -0.30487162
-0.07195802 -0.1291405 0.10856162 0.14916791 -0.15820801 -0.3209426 0.07967733 -0.98909765
-0.33321986 -0.25949037 -0.13984792 0.16030738 0.13403118 0.0174697 -0.046842117 -0.036115557
-0.08807337 -0.2368842 0.042565584 -0.0065144654 -0.09652772 -0.14558765 -0.2200352 -0.22198993
0.13447864 -0.043962616 0.08460785 -0.1381642 -0.2942246 0.05124322 -0.14451908 0.35640335
0.04527843 0.0047250814 -0.01234456 0.040756933 -0.09617118 -0.15130918 -0.06929012 -0.36204758
-0.13503933 0.20254114 -0.045626655 0.115107276 0.044517152 -0.17732655 -0.29358482 0.16577049
0.21838032 -0.26142284 -0.20905066 0.11984252 0.12497407 -0.70795876 -0.10464946 -0.23183869
0.07005255 0.13362685 0.4442215 -0.05165916 -0.28759968 -0.009405991 0.026127087 -0.18826087
0.31489143 0.0592089 -0.016656859 -0.07696048 0.30474633 -0.12745652 -0.07946639 0.34507215
-0.038760733 -0.08382105 -0.2705172 0.15377766 -0.17080219 -0.28271607 -0.08017088 -0.015513855
-0.24700771 -0.08706798 -0.0589427 -0.1536327 0.028138783 -0.3042849 -0.053896952 -0.24964602
-0.13139997 0.0037653286 -0.46599096 0.13287736 -0.25657144 0.029031755 -0.14417699 -0.19619592
0.19350716 0.15788439 -0.1599512 -0.17475086 0.021957062 -0.18782045 0.13362053 -0.33665374
0.003299315 -0.058199517 0.03694068 -0.11781289 -0.029468939 -0.08795954 -0.11238226 0.0036471107
0.044050653 0.22590336 0.16650425 -0.0060582496 0.2602212 -0.23726417 -0.12449611 -0.5595788
0.02163888 0.051627584 -0.4451574 -0.12071804 -0.0030682818 -0.36437392 -0.10634889 -0.0319574
0.108112186 0.06032486 0.06213452 -0.16936535 -0.22330679 -0.3062309 -0.27409977 -0.08600169
0.1307439 -0.0026325653 0.07321407 0.071015775 -0.14805064 0.059792362 0.20873755 -0.15387766
0.026043888 0.024699269 0.011656101 -0.26715016 -0.2952923 -0.90160984 -0.15747432 -0.0010430228
-0.1274712 0.216916 0.5133351 -0.06818452 0.15325087 -0.035049845 -0.16890681 0.13082218
-0.23293228 0.023349324 0.06922224 -0.048038106 -0.4870373 -0.26996276 -0.21390343 -0.07161065
-0.08176031 0.00010594918 -0.43618935 -0.07991876 0.0087540755 -0.16943088 0.17987493 -0.25157577
-0.13932215 -0.13393925 -0.29133877 0.05267765 0.038224965 0.08427076 -0.058011968 -0.39550936
0.10084744 -0.101144165 -0.1270655 0.16137992 -0.06565595 -0.045722477 -0.036191866 -0.12877057
0.033089526 0.057220925 0.0031123725 -0.10814035 0.007944511 -0.101817355 -0.07130894 -0.17799138
-0.050619278 -0.20562546 -0.060795903 -0.09095734 -0.016312212 -0.23519932 -0.1642336 -0.1589989
0.04680574 -0.07956972 0.003978916 -0.0023092031 0.06299177 -0.0122381495 -0.068030074 -0.06460133

gnn.convs.2.nn.lins.1.bias f4 [16]
00000000: eb4f b2be b63d e1bd 6111 76bd e21c c4be
00000010: a195 52be 963a 86be 63c6 67be 1151 11bc
00000020: 92bd 85bc b5b8 07bd fc62 ed3d a400 49be
00000030: 7a67 6ebe 527f 63bd 782d 2abc 5bc6 93be
-0.34826598 -0.109980986 -0.060075168 -0.38303286 -0.20564891 -0.26216573 -0.22634272 -0.008869425
-0.016325746 -0.033135135 0.115911454 -0.1962915 -0.2328166 -0.055541344 -0.010386817 -0.2886227

gnn.convs.3.nn.lins.0.weight f4 [16, 16]
00000000: 263b bc3d 13e4 8f3e 77f5 843c 3129 19bd
00000010: c424 7e3d 46d4 833e 51ac 333e ec02 923e
00000020: 6c5e 493e 3437 0bbe 6c15 2f3d f000 303e
00000030: e31c 57bb f6dd 19be 12bc 163e ae67 333e
00000040: 7c57 03bd 4913 b63d ee5b ebbc 0265 8dbe
00000050: fd1c fcbe 893e 9f3e 9ff4 ccbc 7e68 933d
00000060: c125 7fbd d3c5 f73d 0b17 88be a858 15bd
00000070: c066 03be 2c5d 8fbd 8662 ae3b 59e4 853e
00000080: d824 2cbe fce5 be3d f147 863c e0a9 20be
00000090: 19c2 2ebe bae2 633b df5e b8be 27f4 e63b
000000a0: 19cc 28be cc64 a1be 52d1 24bb f0fa 54bc
000000b0: d90e babe 4ce9 8cbe 9852 3bbe 5295 5c3e
000000c0: fc33 bcbe ecb1 133e 845f 54bd c4c5 a6bc
000000d0: d2eb f7be 726a c8bd 8ac1 2cbf 4c4f 81be
000000e0: 236b 21be 9530 97bd 4e9b cd3c f02e 57be
000000f0: 026a f43d 39b1 4dbc 00b8 cbbd 743c c23d
00000100: a818 043e 300f c33c abf1 67be 3acf 033f
00000110: c1b3 993d dfda 90be bf79 31be a4c5 bebd
00000120: 8487 c6be c8ae 10be 99ae 82be c0a1 abbc
00000130: 677d b63d 0303 42be 842c 2abe c04f 493e
00000140: 57b6 a8bd d3d6 10be 6a49 dabd a687 3fbe
00000150: b37f 23bd c905 41be cf87 2bbe 3b83 a43d
00000160: a23a 14be 793a 073e 02da b9bd cc08 b43d
00000170: d3fa ee3c dbd7 e33d 0624 353d c340 b1bd
00000180: 58c1 dbbd f4a9 00be 187b bf3c b93d 643d
00000190: a51a 043d 5f77 e23c 3d01 14bf 620a 1d3e
000001a0: b067 8d3e ac65 ddbe 6018 5bbe f3f9 91be
000001b0: 88c5 2cbf 0ec7 cdbe e343 49be 10e2 8b3d
000001c0: 2a26 c2be b0f2 08bd bd06 b3bd f457 9abe
000001d0: 4deb 1bbe 03a4 16be 1a39 2ebe e8d2 afbc
000001e0: 57c5 c2bd f134 e0bd 60f9 1b3d 5e93 c0bd
000001f0: 3b25 76be 4b6f 0abe afba b0bd 50cf 04be
00000200: 3598 273e 0d8c 09be 1b23 dbbd 83ab 813e
00000210: e22a 743d ff52 98bd b79c f2bd 2e91 8e3e
00000220: e314 adbe eddb cf3d 57e4 d9bc 671f 003e
00000230: e72b fcbd 3f87 c83d 08b4 483d dbdc fdbd
00000240: eef9 88bd a637 663e ac94 62be 7299 9ebd
00000250: db38 02bd 4416 1cbe cd7c 03be 5685 a5be
00000260: 42d1 8cbe f5c2 213e faa7 0a3e f506 8dbe
00000270: 68e7 65bd 4ec3 eabd b104 5fbd 32f2 643e
00000280: 5ef3 063d cce6 913e f996 91bd fbbe ab3e
00000290: f52c b9be c7d0 53be 0acb 3abe 696e 3a3e
000002a0: 035e a1bd 165f 7bbc 7d3f fabd 60e9 d1bd
000002b0: 0809 c03d 1d3c d23d 3e5f 873d 6853 ba3d
000002c0: fcfd 4f3e c4c9 6abe 3246 edbb f7d7 36bd
000002d0: 9fdf 7cbe d2b6 39bd 7178 8abe a171 a7be
000002e0: 15b8 90be 59ae 8abe eea2 78be b0fe 54bd
000002f0: 695c 79be d54d aabd f62e b23d 9098 14bd
00000300: ae18 283c a56b 87bd 7ccc 92be 32b5 eebd
00000310: 2a5c 0cbd 5c27 b6bd 1991 67be f82b 85be
00000320: 3f17 80bd db61 15bf 0f12 96be ea2f b43b
00000330: 31e0 d0bd 1d8f c9bd 6d22 f53c 60a7 79be
00000340: a010 69bc 7562 32be 2659 cd3d 3400 193e
00000350: 702f 8bbe 1cc1 f7be 674c 8fbe 735e a63d
00000360: cd80 c23d 3871 1dbe b19a b9be 5e36 63be
00000370: 96d9 e4bd d6cf dd3d 54c7 1a3e d1d6 43bd
00000380: 301f acbc 43ff 313e 17e5 3e3e ad3b 80be
00000390: b227 e7bd f5d1 f83d bed1 443d b560 45be
000003a0: f410 c6bd a6b3 d9be 18c8 1ebe 908c 593d
000003b0: 323c ff3d 2987 07bf d599 cf3d 645e a53e
000003c0: 5cb2 193e 4cb3 f33d 6249 8cbd 3c7f 75be
000003d0: f05d a8be c4ea 7bbe 5300 29be 227c 053e
000003e0: 90e8 51be 2fcb 66be 3c60 273d 7f82 753e
000003f0: f698 e5bd baae 88bd 4c25 d9be a0b4 cabc
0.09190969 0.28103694 0.016230328 -0.0373928 0.06204678 0.2574789 0.17546202 0.28517854
0.19664925 -0.13595277 0.04274504 0.17187858 -0.0032823614 -0.15026078 0.1472018 0.1752002
-0.032065853 0.08890397 -0.028730359 -0.27616125 -0.49240866 0.31102398 -0.025018988 0.07197665
-0.062291864 0.12098279 -0.2658008 -0.036461502 -0.12832165 -0.07000193 0.0053218035 0.26150778
-0.1681093 0.0932121 0.016391726 -0.15689802 -0.1706623 0.003477259 -0.3600988 0.007048148
-0.16484107 -0.31522214 -0.0025149179 -0.012999281 -0.36339453 -0.2752174 -0.18293226 0.21541336
-0.3675841 0.1442334 -0.051848903 -0.020357974 -0.48422104 -0.09785928 -0.6748282 -0.2525581
-0.15763526 -0.07382313 0.02509847 -0.21013999 0.11934282 -0.01255446 -0.099472046 0.09484187
0.1290003 0.023810953 -0.22650783 0.5148808 0.075049885 -0.28291985 -0.17331599 -0.09315041
-0.38775265 -0.14129174 -0.25523832 -0.020951152 0.08910637 -0.18946461 -0.16618544 0.19659328
-0.082379036 -0.14144449 -0.10658534 -0.1870409 -0.039916705 -0.18849863 -0.16751026 0.08032843
-0.14475492 0.132059 -0.09074785 0.0879074 0.029172337 0.111251555 0.044223808 -0.086549304
-0.10730237 -0.12564832 0.023374125 0.055722926 0.032251973 0.027644811 -0.5781439 0.15335992
0.2761817 -0.43241632 -0.21396017 -0.2851101 -0.6748891 -0.4019093 -0.19654803 0.068302274
-0.37919742 -0.03343457 -0.087415196 -0.30145228 -0.15226479 -0.14711003 -0.1701397 -0.021462873
-0.09510296 -0.10947598 0.03807962 -0.09403108 -0.2403764 -0.13519017 -0.08629357 -0.12969708
0.16366656 -0.13432331 -0.10700055 0.25326166 0.05961121 -0.07437705 -0.11846297 0.27845138
-0.33804998 0.101493694 -0.026598139 0.12511979 -0.12313061 0.09791421 0.048999816 -0.123956405
-0.06688295 0.22482166 -0.22127026 -0.07744111 -0.031792503 -0.15242869 -0.12840576 -0.3232829
-0.275034 0.15797026 0.1354064 -0.2754437 -0.05612889 -0.11463033 -0.054447833 0.22358015
0.032946937 0.28496397 -0.07108874 0.33544144 -0.36167112 -0.20685111 -0.18241516 0.1820618
-0.078792594 -0.0153424945 -0.12219141 -0.10249591 0.093767226 0.10265372 0.06609963 0.0909794
0.20311731 -0.2292853 -0.007241034 -0.044639554 -0.2469468 -0.045340367 -0.27045015 -0.3270388
-0.28265443 -0.27086142 -0.24280903 -0.0520007 -0.24351658 -0.083156265 0.08700363 -0.036278307
0.01025979 -0.066123284 -0.28671634 -0.11655654 -0.034267582 -0.08894226 -0.22613944 -0.26010108
-0.06254434 -0.5835244 -0.29310653 0.005498876 -0.10199011 -0.0984175 0.029923642 -0.24380255
-0.014225155 -0.17420371 0.10026769 0.14941484 -0.2718463 -0.48389518 -0.27987978 0.081234835
0.09497223 -0.15375221 -0.36250833 -0.22188708 -0.11174314 0.10830657 0.151151 -0.047812287
-0.021010965 0.17382531 0.18642078 -0.2504553 -0.11286868 0.12149421 0.04805159 -0.19275172
-0.09671202 -0.42519873 -0.15506017 0.053112566 0.12462653 -0.52940613 0.10136763 0.32298577
0.15009445 0.118994325 -0.06849934 -0.23974317 -0.3288417 -0.24601275 -0.1650403 0.13035634
-0.20498872 -0.22538446 0.04086326 0.23975562 -0.112108156 -0.066739514 -0.42411268 -0.024744332

gnn.convs.3.nn.lins.0.bias f4 [16]
00000000: 5c96 d2bd 3c51 c0bd 1624 37be 070c 5dbd
00000010: 3352 63be 5538 72bb 9aa2 a93e 3a90 6cbd
00000020: 10d7 8b3d b91a 73be 301e c2bc 2426 b4be
00000030: d32c 08bd f75f 6ebc 09ab b1be a424 3fbe
-0.10282585 -0.09390494 -0.1788486 -0.05396655 -0.22199325 -0.0036959846 0.33131868 -0.057754733
0.06828129 -0.23740663 -0.023696035 -0.3518535 -0.033245873 -0.014549247 -0.34700802 -0.18666321
