Run_GIN_ModelCheckpoint_EvFr_2/NCI1_reps_2_folds_5_epochs_20_2023-04-26_11-05/rep_0_fold_4/checkpoints/model_trial_3.ckpt (torch, 96717 bytes, 86 tensors)

gnn.convs.0.nn.lins.0.weight f4 [16, 37]
0.25091353 -0.14279385 0.060046487 -0.6924578 0.1906287 0.14541523 -0.22805905 -0.19908345
2.79993 1.7542844 2.0075345 0.9667065 1.6523651 0.13040827 1.1621263 0.6623988
-0.36811826 1.0239695 1.1589803 1.8728366 -0.5812482 -0.6157183 -0.103989266 1.3356113
1.6828486 -0.13204373 1.1038883 1.1804292 -0.35896617 1.1887681 0.08452015 -0.123695955
-0.23616701 -0.21659891 -0.36755127 0.09278098 -0.23961873 0.16464114 -0.52798045 -0.15629062
0.69743973 -0.24233478 0.6968396 -0.3344465 -0.05441042 0.8101918 1.130452 1.4729166
1.1058524 1.1339889 0.5837246 1.2578635 0.57768404 0.23976985 1.4424342 1.0860093
1.789621 -0.2830577 -0.17992002 -0.011245385 1.2721344 1.5032878 1.8789654 0.96425414
-0.06721499 -0.3030595 0.8347971 0.011792244 0.15993886 -0.24566771 -0.20287888 -0.218365
0.017195715 -0.076803885 0.49595502 0.21587281 0.30729833 0.09653772 -0.37853712 0.029819937
-0.08928078 0.0027308424 -0.8845688 -0.3245199 -0.35591635 -0.31654647 -0.33353886 0.1055631
-0.44018763 -0.39555225 0.17482512 -0.32540557 -0.38798398 -0.42928445 -1.100018 -0.43743968
0.09506933 0.21150227 -0.6924685 0.49539122 -0.4255117 0.19854489 -0.16006815 -0.3504362
0.08542444 0.13252217 -0.30883634 0.22002922 0.2933476 -0.0170307 0.029333815 -0.11530671
-0.08070303 -0.13284865 0.10254001 -0.07348145 0.086907364 -0.120023705 -0.06550807 0.11293094
-0.01985607 0.1030968 0.07181134 0.09823803 -0.06749296 0.08615885 -0.13847832 -0.11337983
-0.04417534 -0.07093961 0.119314454 -0.120223664 -0.08804342 0.009616428 -0.16210382 -0.16309935
0.09695885 -0.017522998 -0.15450421 -0.14551795 0.16237909 -0.07012149 0.10096382 -0.08325098
-0.14169872 -0.06354322 0.08838165 -0.10124182 0.1831019 0.122686975 0.16933754 -0.1335615
0.20462102 0.11601031 -0.045465145 -0.18996505 3.1217463 2.0503762 1.4882464 0.6867231
1.351565 0.06966043 -0.1460258 1.1007886 -0.30196142 1.4760306 0.84979075 1.2197795
-0.4684848 -0.79981047 0.016805755 1.2890329 1.4463993 1.5989784 0.79885834 1.0859601
-0.20030849 0.73009455 -0.13362095 -0.06880249 -0.21672218 -0.18344209 -0.09287758 -0.038150344
-0.21909708 0.34960058 0.22671475 0.25586724 -0.39856756 0.43940187 0.0003567119 -0.3174385
-0.06935671 2.3561406 1.67489 -0.070254445 0.991978 1.9346777 -0.98230666 -0.04174544
0.9276143 -0.31121022 1.912962 0.9896144 1.3874382 -1.0892923 -0.93920475 -0.002825447
1.0406023 1.671187 1.2875152 1.0401692 1.0848296 -0.110415526 1.2438519 -0.14574471
0.0742697 -0.051352855 -0.097312264 -0.085372895 0.06314535 -0.2470477 -0.14658336 0.03001657
-0.4737086 0.03648018 -0.12586361 -0.4018478 0.02734542 -0.024100304 0.020729167 -0.062371545
-0.16013664 0.62820226 1.1118767 -0.16016662 1.0895679 -0.03995241 0.47498512 1.2400854
0.022123916 0.046309393 -0.1310329 -0.017196009 0.13664499 -0.03363691 0.15995727 -0.0009955139
0.5299381 0.056204736 -0.104927436 0.08340727 -0.084580265 0.14811833 -0.09060314 0.07084692
00000000: bd77 803e 8d38 12be 4ef3 753d ea44 31bf
00000010: 2c34 433e bbe7 143e 5088 69be 88dc 4bbe
00000020: 0e32 3340 648c e03f 727b 0040 147a 773f
00000030: b380 d33f bf89 053e 8ec0 943f f892 293f
00000040: ff79 bcbe 6f11 833f 7759 943f 1cb9 ef3f
00000050: afcc 14bf b79f 1dbf 53f8 d4bd 50f5 aa3f
00000060: 9567 d73f 7936 07be 364c 8d3f 4e18 973f
00000070: 6aca b7be 8e29 983f e718 ad3d 4e54 fdbd
00000080: c4d5 71be 1bcc 5dbe ae2f bcbe f403 be3d
00000090: 9d5e 75be b097 283e ba29 07bf a60a 20be
000000a0: 698b 323f 9c26 78be 1464 323f 923c abbe
000000b0: 76dd 5ebd bb68 4f3f a7b2 903f 8888 bc3f
000000c0: 928c 8d3f 8c26 913f fa6e 153f ac01 a13f
000000d0: 1ae3 133f 3a86 753e afa1 b83f 5a02 8b3f
000000e0: 4d12 e53f f0ec 90be f43c 38be 903e 38bc
000000f0: 4dd5 a23f bc6b c03f f081 f03f 5cd9 763f
00000100: 03a8 89bd 9d2a 9bbe 43b5 553f 4234 413c
00000110: 03c7 233e 5190 7bbe 7bbf 4fbe 139b 5fbe
00000120: 07de 8c3c 5b4b 9dbd d1ed fd3e c30d 5d3e
00000130: 3556 9d3e 91b5 c53d 9ecf c1be f148 f43c
00000140: d7d8 b6bd eff7 323b 1a73 62bf 7927 a6be
00000150: ab3a b6be 6112 a2be 9bc5 aabe 7731 d83d
00000160: 4660 e1be d385 cabe 5b05 333e 8f9b a6be
00000170: d6a5 c6be 2ccb dbbe 64cd 8cbf 18f8 dfbe
00000180: b5b3 c23d 0d94 583e 9e45 31bf eba3 fd3e
00000190: abdc d9be 5a4f 4b3e e8e8 23be 606c b3be
000001a0: 02f3 ae3d e4b3 073e cc1f 9ebe 574f 613e
000001b0: a831 963e f783 8bbc 784d f03c ed25 ecbd
000001c0: a147 a5bd 7a09 08be 7f00 d23d 717d 96bd
000001d0: 7dfc b13d fdce f5bd 1829 86bd 5648 e73d
000001e0: 32a9 a2bc 6a24 d33d d311 933d 0531 c93d
000001f0: c039 8abd 0d74 b03d 43cd 0dbe af33 e8bd
00000200: 34f1 34bd c948 91bd 235b f43d d337 f6bd
00000210: 1c50 b4bd 398e 1d3c 8bfe 25be 8403 27be
00000220: 5d92 c63d 648c 8fbc 5a36 1ebe a802 15be
00000230: b446 263e db9b 8fbd 1fc6 ce3d 7d7f aabd
00000240: 7819 11be f322 82bd 7001 b53d df57 cfbd
00000250: 117f 3b3e 4f43 fb3d d266 2d3e 59c4 08be
00000260: 2c88 513e d096 ed3d a939 3abd 3386 42be
00000270: b1ca 4740 5d39 0340 dc7e be3f 16cd 2f3f
00000280: 1500 ad3f 21aa 8e3d ca87 15be a4e6 8c3f
00000290: b09a 9abe 92ee bc3f e38b 593f bc21 9c3f
000002a0: 3ddd efbe 61c0 4cbf 39ac 893c 08ff a43f
000002b0: 9d23 b93f 53ab cc3f fb81 4c3f be00 8b3f
000002c0: ab1d 4dbe 7ae7 3a3f eed3 08be 52e8 8cbd
000002d0: 6bec 5dbe 3ed8 3bbe 9a36 bebd 8943 1cbd
000002e0: fc5a 60be d9fe b23e e927 683e 0801 833e
000002f0: 0c11 ccbe 48f9 e03e 1005 bb39 4d87 a2be
00000300: e40a 8ebd 02cb 1640 cc62 d63f 90e1 8fbd
00000310: 45f2 7d3f 85a3 f73f 7378 7bbf 44fd 2abd
00000320: 2178 6d3f f256 9fbe f0db f43f 5f57 7d3f
00000330: 9397 b13f ee6d 8bbf b96f 70bf 222b 39bb
00000340: 7532 853f 75e9 d53f 4ccd a43f 4424 853f
00000350: b2db 8a3f 8921 e2bd 8a36 9f3f 1a3e 15be
00000360: b61a 983d 5f57 52bd a74b c7bd fcd7 aebd
00000370: 5952 813d 13fa 7cbe f319 16be 4fe5 f53c
00000380: ef89 f2be 3e6c 153d 64e2 00be ffbe cdbe
00000390: 8103 e03c 006e c5bc 37d0 a93c 4e79 7fbd
000003a0: dcfa 23be ddd1 203f fa51 8e3f b802 24be
000003b0: f676 8b3f 23a5 23bd 4031 f33e 1ebb 9e3f
000003c0: 373d b53c ebae 3d3d 7d2d 06be a5de 8cbc
000003d0: aaec 0b3e dbc6 09bd d7cb 233e e77b 82ba
000003e0: 06aa 073f f036 663d 32e4 d6bd 6ed1 aa3d
000003f0: 6b38 adbd 55ac 173e 248e b9bd 3118 913d

gnn.convs.0.nn.lins.0.bias f4 [16]
0.18614534 0.06817474 0.27510968 -0.20756103 0.11054701 0.008832803 -0.27893028 -0.46507537
-0.18911043 -0.1064743 -0.085482486 0.2539484 0.109682895 0.31498054 -0.04645871 0.12979737
00000000: e29c 3e3e 339f 8b3d 2ddb 8c3e e18a 54be
00000010: 7966 e23d 76b7 103c f3cf 8ebe 5c1e eebe
00000020: 2aa6 41be 330f dabd 7111 afbd 8605 823e
00000030: 6da1 e03d 2145 a13e 7d4b 3ebd 9ae9 043e

gnn.convs.0.nn.lins.1.weight f4 [16, 16]
0.06525161 0.7751429 0.40555325 0.06184537 0.41568005 0.017053248 -0.20971023 -1.1732949
0.27205583 0.40063438 -0.5194283 -0.10249639 0.11020124 -0.67739236 0.42393994 -0.3513111
-0.081542306 -0.30507013 -0.295397 -0.22259146 -0.10898949 -0.30118915 0.02903694 -0.07997829
-0.088792086 -0.028682126 0.029936366 -0.33114293 -0.16388972 -0.07045841 -0.5297998 -0.15970378
-0.22397682 0.12326157 0.023172673 0.02901973 -0.3591731 -0.05768022 -0.01098318 1.3497461
-0.34060246 -0.07910807 0.07406194 -0.035076145 -0.13546893 0.41248056 -0.38796464 0.16111186
0.37177718 0.13930471 -0.5447255 0.14133526 0.059305213 0.07761181 -0.1986401 0.92647666
0.31840047 -0.26368907 -0.24208593 0.009964967 0.13001472 -0.02354544 0.23423022 -0.31253487
0.013437215 -0.42984876 -0.0853059 -0.1620156 0.3343271 0.15962973 -0.18413427 -0.42768446
0.339733 0.1984036 -1.6046399 -0.30586234 0.21821578 0.4397997 -0.90822446 0.20853846
-0.0884908 0.7455096 -0.06528259 0.02001528 -0.24978939 -0.7111344 0.14150612 1.2991996
0.107752934 -0.3713728 0.45712835 -0.13604273 -0.14930569 0.015611994 -0.5248625 0.16111642
-0.36709404 -0.35776132 -0.026309997 0.20233285 -0.20682581 -0.1880371 0.3548336 1.7477499
-0.5250218 -0.06809912 0.7150778 -0.9266228 -0.69235486 0.6882068 0.21760875 -0.0613669
-0.67722017 0.5577277 -0.00786047 0.17169793 0.04154032 0.10719611 -0.09992897 -0.3390823
-0.15601622 -0.2549067 -0.81279325 0.044256307 0.2601095 -0.028970687 -0.4348448 -0.31947878
0.1394944 0.2720656 0.5403542 -0.2284801 0.43551034 0.1046509 0.4516615 -1.7958527
0.041393936 0.100393936 0.016921444 0.3108682 0.047216117 -0.32450908 0.16902015 0.20910984
0.31842333 0.36163887 0.13647167 -0.22204158 0.09903317 0.37907976 0.23471195 -1.2801559
1.3084677 0.23436491 -0.6046009 0.24754418 -0.2078294 -0.4902894 0.2241877 -0.28198934
0.10855162 0.23751724 -0.36761808 0.06280452 -0.21417075 0.040216327 0.14728856 -0.038809568
-0.13879308 -0.099366575 -0.020125559 -0.018305931 -0.17140782 0.06756891 -0.11165854 -0.14253852
0.0227811 0.21442448 -0.4175899 -0.18852802 -0.016444737 -0.09477043 0.18150406 -0.08072407
0.28450695 0.06316867 0.0004312112 -0.18713541 -0.16534925 -0.11480728 0.074810304 -0.4010238
0.0013478843 -0.03606081 -0.06478632 -0.07465631 0.045623753 -0.27546716 -0.1732811 -0.16186158
-0.17410582 -0.09900333 0.05490834 0.066792235 0.07268365 -0.0042724395 -0.10254557 0.055369087
0.02417312 -0.43633246 -0.5014696 0.16299 0.11678695 0.075093985 -0.0574421 1.8525603
0.10839518 -0.22595331 0.65594095 0.11721438 0.2528315 0.3588795 -0.98505354 0.32001626
0.80114967 0.7673182 -1.0597457 0.07684401 0.22121398 0.4962501 0.6184992 -2.0029438
1.4295856 0.1923139 -0.43425116 0.2871561 0.57968825 -1.2282554 0.26792425 -0.33379003
0.20550284 0.013615012 -0.22066918 -0.20060498 -0.1791269 -0.21549386 -0.1944659 -0.011680394
-0.062598035 0.061531853 -0.119048774 -0.07921276 0.13093495 0.0034100602 -0.009850264 0.011080492
00000000: a3a2 853d c46f 463f ada4 cf3e 9251 7d3d
00000010: 04d4 d43e 41b3 8b3c 47be 56be 872e 96bf
00000020: e74a 8b3e f31f cd3e 41f9 04bf a1e9 d1bd
00000030: 30b1 e13d 9669 2dbf a80e d93e 0cdf b3be
00000040: a7ff a6bd 2732 9cbe 473e 97be 04ef 63be
00000050: e235 dfbd 7735 9abe e0de ed3c a8cb a3bd
00000060: a0d8 b5bd c7f6 eabc 1c3d f53c 918b a9be
00000070: b5d2 27be 804c 90bd f6a0 07bf 6389 23be
00000080: 2e5a 65be 9070 fc3d 9ed4 bd3c c9ba ed3c
00000090: 89e5 b7be 1842 6cbd ccf2 33bc 7bc4 ac3f
000000a0: 7263 aebe 6903 a2bd c9ad 973d 01ac 0fbd
000000b0: 5eb8 0abe a730 d33e 4da3 c6be 82fa 243e
000000c0: 9459 be3e e5a5 0e3e 2173 0bbf 31ba 103e
000000d0: 06ea 723d f1f2 9e3d 4f68 4bbe 932d 6d3f
000000e0: 6305 a33e 4102 87be 60e5 77be 1a44 233c
000000f0: 9422 053e 5ee2 c0bc 0cda 6f3e 9204 a0be
00000100: c427 5c3c 2315 dcbe dcb4 aebd 6be7 25be
00000110: ec2c ab3e fa75 233e b28d 3cbe 75f9 dabe
00000120: 7cf1 ad3e 502a 4b3e d764 cdbf fd99 9cbe
00000130: f573 5f3e 6d2d e13e 6681 68bf 1b8b 553e
00000140: aa3a b5bd b8d9 3e3f e1b2 85bd 16f7 a33c
00000150: cac8 7fbe e70c 36bf fbe6 103e 2c4c a63f
00000160: 92ad dc3d 9324 bebe ba0c ea3e c94e 0bbe
00000170: 97e3 18be 73c9 7f3c 645d 06bf b4fb 243e
00000180: c0f3 bbbe 7e2c b7be 1088 d7bc 5830 4f3e
00000190: 25ca 53be cc8c 40be c0ac b53e 45b6 df3f
000001a0: d467 06bf 8d77 8bbd 570f 373f 2737 6dbf
000001b0: 2b3e 31bf 522e 303f d4d4 5e3e dc5b 7bbd
000001c0: 4d5e 2dbf 3ec7 0e3f 33c9 00bc 95d1 2f3e
000001d0: 2f26 2a3d a289 db3d 8fa7 ccbd 329c adbe
000001e0: b7c2 1fbe 2283 82be 3813 50bf 1a46 353d
000001f0: 132d 853e ef53 edbc faa3 debe b992 a3be
00000200: 9fd7 0e3e 2f4c 8b3e a754 0a3f b0f6 69be
00000210: 36fb de3e 3653 d63d 2d40 e73e 80de e5bf
00000220: b08c 293d 569b cd3d d79e 8a3c 1e2a 9f3e
00000230: b065 413d 0e26 a6be 9e13 2d3e e420 563e
00000240: 6208 a33e bb28 b93e 3bbf 0b3e de5e 63be
00000250: e7d1 ca3d be16 c23e 5458 703e 26dc a3bf
00000260: df7b a73f 5bfd 6f3e 20c7 1abf 397c 7d3e
00000270: 3bd1 54be 3607 fbbe 7691 653e e860 90be
00000280: 5050 de3d b837 733e 7038 bcbe a89f 803d
00000290: 944f 5bbe e0b9 243d d0d2 163e c8f6 1ebd
000002a0: c61f 0ebe b480 cbbd 5bde a4bc 52f6 95bc
000002b0: 8885 2fbe 9261 8a3d 3cad e4bd 9ef5 11be
000002c0: 6e9f ba3c 1792 5b3e 58ce d5be 7d0d 41be
000002d0: 1db7 86bc 0017 c2bd 33dc 393e a952 a5bd
000002e0: e5aa 913e 935e 813d 3014 e239 6da0 3fbe
000002f0: 5051 29be 1420 ebbd 2536 993d fe52 cdbe
00000300: 7eab b03a 80b4 13bd b1ae 84bd 68e5 98bd
00000310: f9df 3a3d 080a 8dbe 9a70 31be 0bbf 25be
00000320: cc48 32be 42c2 cabd 91e7 603d 5eca 883d
00000330: 2adb 943d d2ff 8bbb 6903 d2bd b2ca 623d
00000340: b506 c63c f866 dfbe 5060 00bf dae6 263e
00000350: ff2d ef3d e0ca 993d 6848 6bbd b220 ed3f
00000360: 4bfe dd3d 4e60 67be bfeb 273f 180e f03d
00000370: 2173 813e 0ebf b73e 782c 7cbf 2cd9 a33e
00000380: 2518 4d3f f76e 443f bfa5 87bf 6460 9d3d
00000390: eb85 623e 7e14 fe3e f755 1e3f 3b30 00c0
000003a0: a9fc b63f efed 443e 2b56 debe 2006 933e
000003b0: 7366 143f 7937 9dbf 5e2d 893e 87e6 aabe
000003c0: 566f 523e 8011 5f3c 1af7 61be 646b 4dbe
000003d0: 0b6d 37be 6caa 5cbe 1222 47be 205f 3fbc
000003e0: 6633 80bd d308 7c3d d8cf f3bd 4d3a a2bd
000003f0: d013 063e 517b 5f3b 0063 21bc f48a 353c

gnn.convs.0.nn.lins.1.bias f4 [16]
0.022425082 -0.45719367 0.30612606 0.04427911 0.2790492 0.0068717026 -0.320731 -0.4543477
0.074461624 0.2109899 -0.28795865 -0.09941939 -0.15503581 0.19977029 -0.11989488 -0.20612986
00000000: ceb4 b73c 4a15 eabe 8ebc 9c3e 035e 353d
00000010: 89df 8e3e 052c e13b db36 a4be 43a0 e8be
00000020: 567f 983d bd0d 583e 516f 93be 659c cbbd
00000030: b5c1 1ebe 9590 4c3e 728b f5bd b513 53be

gnn.convs.1.nn.lins.0.weight f4 [16, 16]
0.27322894 -0.06897779 -0.59474903 0.03989717 -0.4639944 -0.22029032 -0.5691805 0.14069429
0.4404724 0.41180712 -0.082300186 0.06717306 0.086969286 -0.43487564 0.8347966 -0.22389418
-0.22778744 0.0007611348 0.16938785 0.204844 -0.098599166 0.54395103 0.0493824 -0.045031685
-0.35451093 0.096719086 -0.14604992 0.09178489 -0.09701962 0.36133504 -0.4045077 0.21897243
0.08896783 -0.4554873 0.34148425 0.1165665 0.44566256 -0.41299522 -0.2969682 -0.6882176
0.063974105 0.5494973 -0.09838721 0.101519 0.18654858 -0.35268262 0.027926732 -0.1609699
0.3559851 0.24044356 -0.10322068 0.24891122 -0.20348886 -0.22060776 -0.5046978 0.16099134
0.35402986 0.49262714 0.19568399 -0.30372733 0.120890945 -0.2228485 1.0110412 0.081830814
0.68807167 0.41666487 -0.19012655 0.24661648 0.2128869 -0.32184315 -0.93231475 0.44271213
-0.39878383 0.12881209 -0.12823549 0.12576501 -0.026682006 -0.29852346 0.8523824 0.24562377
0.39432958 -0.019443931 0.2812361 0.1067394 -0.09231545 -0.6309591 -0.95415586 0.43319798
-0.5397458 0.19461776 -0.090862125 0.10025584 0.20740657 -0.2600563 0.6972134 -0.12705955
-0.20491216 0.31039277 -0.06961654 0.06831243 0.107570834 -0.4688278 -0.28950885 -0.29777697
-0.47763675 -0.20259863 -0.18474248 0.108268335 -0.06384854 0.010254476 0.039735746 -0.10948114
0.58439934 -0.19018888 -0.48433316 0.110760674 -0.14762865 -1.1721095 -0.59552413 0.0069601024
0.3287427 0.612981 0.02635771 0.009133874 -0.28165245 -0.26491353 -0.51862234 0.06079331
0.22997077 0.3353146 -0.30906767 -0.24735644 -0.13893299 0.22164764 -0.831174 0.31311893
0.0037973374 0.49544576 0.17591941 0.012522273 -0.20254773 -0.33383736 1.2212305 0.055701483
-0.2265362 0.046054613 -0.12447476 0.010328205 0.080387376 -0.16881377 -0.23617621 -0.21467033
-0.3768156 -0.31305996 0.03414187 0.0810962 -0.029230688 -0.10543999 0.37661976 -0.101727635
-0.20813316 -0.008951378 0.18642533 0.33741695 -0.45122463 0.3070261 0.23407353 0.3574294
-0.12068059 -0.1636034 -0.34263626 -0.09405839 0.28446537 0.49397844 -0.011911406 0.24715316
0.18228713 -0.3232226 -0.022205366 -0.14243697 -0.29733846 -0.0030182214 -0.49977016 0.18200818
0.33838043 0.37297532 0.0022440986 -0.11932112 0.1940155 -0.47214144 1.0497419 0.15631244
-0.4191997 0.24381629 0.017336909 -0.35314754 -0.11794753 0.0064630993 -0.3787018 -0.0462548
-0.5102971 -0.611344 0.076446414 -0.19264093 -0.0062715914 -0.53097105 -0.6443673 -0.099586755
-0.3449605 -0.06774211 -0.17489016 0.066047095 -0.28938124 -0.21805887 -0.15648496 -0.24416375
-0.1376479 0.079782054 0.1714727 -0.2161325 -0.041095 -0.25525257 -0.14520615 0.1461328
-0.45904723 0.14682108 0.24784361 0.26194507 -0.01436624 0.46130887 0.29332867 -0.03134389
0.19119427 -0.045289867 -0.12326695 -0.2779806 -0.04439201 -0.55471855 -0.06648167 -0.01664454
0.01885875 0.07169485 -0.04609194 -0.2546533 -0.20941673 -0.16110122 -0.06697288 -0.23215578
-0.22814386 -0.004501926 0.09800416 0.05462561 0.09990015 -0.34430504 -0.11928404 0.17456762
00000000: aae4 8b3e 3a44 8dbd 7941 18bf 376b 233d
00000010: ad90 edbe c993 61be d0b5 11bf 2a12 103e
00000020: 9985 e13e 62d8 d23e 008d a8bd 0792 893d
00000030: f41c b23d 05a8 debe 3bb5 553f 8444 65be
00000040: 1c41 69be e486 473a 0274 2d3e a0c2 513e
00000050: 5cee c9bd 6040 0b3f 3345 4a3d 2573 38bd
00000060: 7582 b5be a814 c63d 1c8e 15be b7f9 bb3d
00000070: 39b2 c6bd e800 b93e a21b cfbe 4f3a 603e
00000080: c434 b63d a235 e9be 06d7 ae3e 6bba ee3d
00000090: e22d e43e 1c74 d3be 370c 98be 072f 30bf
000000a0: db04 833d dbab 0c3f 3c7f c9bd 32e9 cf3d
000000b0: 9706 3f3e d192 b4be 9ac6 e43c 4bd5 24be
000000c0: ae43 b63e d636 763e 5d65 d3bd 95e2 7e3e
000000d0: 625f 50be 00e7 61be e033 01bf eada 243e
000000e0: 6743 b53e a039 fc3e 6261 483e 2682 9bbe
000000f0: ac95 f73d 6632 64be cc69 813f ea96 a73d
00000100: 7725 303f 1955 d53e 89b0 42be 0889 7c3e
00000110: 06ff 593e a0c8 a4be 2eac 6ebf 2aab e23e
00000120: 652d ccbe 51e7 033e 2a50 03be 8bc8 003e
00000130: 3994 dabc 11d8 98be bc35 5a3f cc84 7b3e
00000140: 91e5 c93e e148 9fbc 2efe 8f3e 309a da3d
00000150: e20f bdbd 8986 21bf 8f43 74bf 20cc dd3e
00000160: c82c 0abf e149 473e ec15 babd ef52 cd3d
00000170: 6362 543e 1926 85be 947c 323f e61b 02be
00000180: 7ed4 51be cdeb 9e3e 1e93 8ebd 63e7 8b3d
00000190: 194e dc3d 330a f0be 813a 94be 3976 98be
000001a0: ce8c f4be 0476 4fbe 222d 3dbe cabb dd3d
000001b0: 06c3 82bd 6402 283c f3c1 223d a637 e0bd
000001c0: 329b 153f e0c0 42be 84fa f7be 7ed6 e23d
000001d0: f72b 17be af07 96bf 4574 18bf 9211 e43b
000001e0: f750 a83e 53ec 1c3f 20ec d73c 3fa6 153c
000001f0: c034 90be bfa2 87be 6fc4 04bf 6802 793d
00000200: 757d 6b3e 5bae ab3e 1e3e 9ebe 024b 7dbe
00000210: 7344 0ebe 99f7 623e d2c7 54bf 2051 a03e
00000220: c0dc 783b 11ab fd3e 3824 343e 382a 4d3c
00000230: ac68 4fbe bbec aabe 4851 9c3f 3d27 643d
00000240: 1bf9 67be c3a3 3c3d 9fec febd a237 293c
00000250: 23a2 a43d 84dd 2cbe 2dd8 71be 8ad2 5bbe
00000260: f9ed c0be 6549 a0be 58d8 0b3d c415 a63d
00000270: 3275 efbc ecf0 d7bd 4ed4 c03e 9456 d0bd
00000280: dc20 55be cda8 12bc 48e6 3e3e eac1 ac3e
00000290: ea06 e7be 8632 9d3e f9b0 6f3e fc00 b73e
000002a0: 6327 f7bd a687 27be 056e afbe afa1 c0bd
000002b0: 72a5 913e beea fc3e 0f28 43bc b815 7d3e
000002c0: 7aa9 3a3e 6f7d a5be 07e8 b5bc ffda 11be
000002d0: bf3c 98be 5acd 45bb e0e1 ffbe 5a60 3a3e
000002e0: 3340 ad3e 9ff6 be3e ba11 133b a25e f4bd
000002f0: 00ac 463e 86bc f1be f15d 863f 5e10 203e
00000300: 58a1 d6be faaa 793e 2206 8e3c c1cf b4be
00000310: 798e f1bd 68c8 d33b 34e5 c1be ac75 3dbd
00000320: d5a2 02bf 0a81 1cbf f08f 9c3d aa43 45be
00000330: ec81 cdbb b8ed 07bf 41f5 24bf 24f4 cbbd
00000340: aa9e b0be 60bc 8abd 6816 33be b343 873d
00000350: c729 94be d34a 5fbe 983d 20be 1006 7abe
00000360: 92f3 0cbe c664 a33d 8a96 2f3e d751 5dbe
00000370: 3b53 28bd 77b0 82be ecb0 14be d6a3 153e
00000380: 3d08 ebbe 4458 163e b7ca 7d3e aa1d 863e
00000390: 6160 6bbc ad30 ec3e 2d2f 963e 7362 00bd
000003a0: 6ec8 433e de81 39bd 6273 fcbd 7953 8ebe
000003b0: 65d4 35bd 0902 0ebf 8b27 88bd 215a 88bc
000003c0: aa7d 9a3c c0d4 923d e7ca 3cbd eb61 82be
000003d0: 5771 56be b8f7 24be 1429 89bd 3fba 6dbe
000003e0: 8b9e 69be e484 93bb 68b6 c83d 1bbf 5f3d
000003f0: 7398 cc3d c048 b0be 314b f4bd dbc1 323e

gnn.convs.1.nn.lins.0.bias f4 [16]
-0.030795317 -0.2438006 0.41321295 0.3305047 0.36261582 0.34679565 -0.21874942 0.40949014
0.14209546 -0.18968253 -0.16436031 0.2586524 -0.42896593 -0.48422465 0.19718708 -0.28916857
00000000: 7646 fcbc dda6 79be a690 d33e e937 a93e
00000010: c8a8 b93e 338f b13e d9ff 5fbe b1a8 d13e
00000020: 7981 113e 233c 42be 124e 28be 166e 843e
00000030: 6ca1 dbbe 4bec f7be 69eb 493e e70d 94be

gnn.convs.1.nn.lins.1.weight f4 [16, 16]
0.3456548 0.065933704 -0.09710721 0.4329849 0.15177901 -0.043774676 0.14103714 0.6053539
0.16370474 -0.15903765 -0.14295256 0.3057869 0.0031702453 -0.20865744 -0.29483077 -0.12665325
0.36062616 0.104325935 -0.09113745 0.049997807 0.56798273 0.20860709 0.08293983 0.35965347
0.10521897 0.2628638 -0.3636648 0.2242106 -0.07298275 -0.16071594 -0.34327185 -0.067670226
-0.2915652 -0.36675295 -0.19778448 -0.29243845 0.097803794 -0.23180775 0.09705912 0.019170765
0.048516512 0.09665054 -0.008625844 -0.09253869 -0.21142091 -0.05469531 0.054546807 -0.23329252
-0.3320145 -0.04984308 -0.8949463 -0.018733842 0.092814125 0.1767432 -0.05284617 -0.0964046
-0.27496865 -0.19464634 -0.053668834 -0.30973136 0.14098133 0.027386636 0.098586015 -0.19061153
-0.03434364 -0.2562351 -0.33887804 -0.36837095 0.04140494 0.03197801 -0.23604366 -0.087425254
-0.4941261 0.04852712 -0.09574459 -0.3577317 -0.24804714 0.19800818 -0.19769116 -0.21019948
-0.051784545 0.10912394 -0.28063214 -0.099849544 0.05179307 0.081440456 -0.020185744 -0.045294322
0.0066588013 0.08829695 -0.27142408 -0.29620576 -0.06767902 -0.13620883 -0.18009222 -0.05696093
-0.12674877 0.018637633 -0.010436142 -0.040086996 -0.05759752 -0.33802038 -0.12451162 0.03308264
-0.38307542 -0.07358931 -0.24767147 -0.03329425 -0.21294273 0.009334094 0.0052338373 -0.06334287
0.33571193 0.24910465 0.36492884 0.43787143 0.602446 0.5090796 -0.27019066 0.17236485
0.54802257 0.17088644 -0.3973845 0.346647 0.020139588 -0.06541391 0.041503944 0.16769205
-0.4804576 0.24900934 -0.746941 -0.12492546 -0.18376265 0.12534931 -0.1450172 0.30414706
-0.04825668 0.20923144 0.7759131 -0.22722207 0.52160174 0.2542943 0.3842828 0.05808278
0.37060797 0.28659263 -0.30799735 0.39468613 0.6163937 0.30294085 -0.091185026 0.17898168
0.06777813 -0.07134781 -0.24718675 0.32831535 -0.10777764 -0.017127575 0.067190096 0.02080662
-0.1331028 -0.26876244 0.074059114 -0.3026783 -0.11626415 0.027257904 -0.28328106 -0.006954824
-0.49427173 -0.23751222 -0.14658427 -0.34143263 -0.262311 -0.32881653 0.028627638 -0.2605088
-0.2779833 -0.17675692 -0.10004837 -0.016711017 0.25355887 -0.18233296 0.16593231 -0.39749143
-0.047790375 0.14496899 -0.09320446 -0.27447277 -0.20092472 0.18730141 0.045328088 -0.23169452
0.20268923 -0.37091157 0.293287 0.36935493 0.5334106 0.47468665 0.08147195 -0.16980249
0.14482291 0.101967625 0.22224963 0.20442735 0.062451176 -0.036668357 -0.17925212 0.14151284
-0.409454 0.04446562 -0.011089339 -0.22780961 -0.28757942 -0.12115639 -0.21288571 0.12834844
-0.17764877 -0.06340543 -0.3416882 -0.30659145 -0.07437587 -0.10563365 0.09295578 0.122398555
-0.19106658 -0.18405476 -0.100705415 -0.1423863 -0.24712858 -0.02291728 0.08271171 -0.05878368
0.009003043 0.13235818 -0.13234763 -0.24101774 -0.111320764 0.20599341 -0.007769337 0.17398086
0.18138686 -0.12958229 -0.81163245 0.12164793 0.7503785 0.5251243 0.20773578 1.1497804
0.4021504 0.34471676 -0.245886 0.3505018 0.31550512 0.44264746 -0.094399706 -0.13584189
00000000: aaf9 b03e 4008 873d 25e0 c6bd 32b0 dd3e
00000010: f56b 1b3e 134d 33bd 0a6c 103e 79f8 1a3f
00000020: 37a2 273e c4da 22be 2862 12be 1a90 9c3e
00000030: e4c3 4f3b 4caa 55be 0ff4 96be 64b1 01be
00000040: fea3 b83e d6a8 d53d 45a6 babd 80ca 4c3d
00000050: 5167 113f 199d 553e 5cdc a93d 8024 b83e
00000060: 0b7d d73d 1696 863e 4632 babe 7797 653e
00000070: fb77 95bd b892 24be 54c1 afbe b096 8abd
00000080: 0948 95be 0bc7 bbbe 0488 4abe 7eba 95be
00000090: 5b4d c83d 035f 6dbe efc6 c63d 020c 9d3c
000000a0: 40b9 463d b8f0 c53d 6953 0dbc ed84 bdbd
000000b0: b97e 58be 3008 60bd 796c 5f3d 3ce4 6ebe
000000c0: cefd a9be 4228 4cbd 331b 65bf b777 99bc
000000d0: 5515 be3d 2bfc 343e 3a75 58bd c66f c5bd
000000e0: b1c8 8cbe 5f51 47be dad3 5bbd 1c95 9ebe
000000f0: 695d 103e f059 e03c 77e7 c93d ab2f 43be
00000100: ebab 0cbd 3f31 83be 6c81 adbe 1e9b bcbe
00000110: 3a98 293d 60fb 023d 6eb5 71be 030c b3bd
00000120: 19fe fcbe 60c4 463d bd15 c4bd 9c28 b7be
00000130: 1200 7ebe a8c2 4a3e 8d6f 4abe 883e 57be
00000140: 081c 54bd 5f7c df3d 04af 8fbe eb7d ccbd
00000150: f824 543d 41ca a63d 935c a5bc 8a86 39bd
00000160: 1332 da3b 08d5 b43d 19f8 8abe 48a8 97be
00000170: 4c9b 8abd 547a 0bbe 186a 38be dd4f 69bd
00000180: 6eca 01be f3ad 983c 5afc 2abc 4332 24bd
00000190: 61eb 6bbd 0211 adbe f3ff febd aa81 073d
000001a0: 7622 c4be feb5 96bd 979d 7dbe 8d5f 08bd
000001b0: a90d 5abe 07ee 183c 9c80 ab3b e8b9 81bd
000001c0: 6fe2 ab3e 4a15 7f3e f4d7 ba3e af30 e03e
000001d0: e739 1a3f 0a53 023f 6e56 8abe 6980 303e
000001e0: 354b 0c3f dbfc 2e3e fb75 cbbe b77b b13e
000001f0: c7fb a43c baf7 85bd 0a00 2a3d 77b7 2b3e
00000200: 8afe f5be 4efc 7e3e 8637 3fbf ebd8 ffbd
00000210: 472c 3cbe 925b 003e 647f 14be 2ab9 9b3e
00000220: cca8 45bd c440 563e 3ea2 463f e7ac 68be
00000230: b187 053f dd32 823e b7c0 c43e 36e8 6d3d
00000240: 54c0 bd3e 45bc 923e d4b1 9dbe 4d14 ca3e
00000250: facb 1d3f 101b 9b3e 37bf babd f946 373e
00000260: 43cf 8a3d cd1e 92bd 861e 7dbe f318 a83e
00000270: 86ba dcbd 214f 8cbc f69a 893d a572 aa3c
00000280: 1a4c 08be 3b9b 89be 4eac 973d a6f8 9abe
00000290: e61b eebd f84b df3c 370a 91be 4be5 e3bb
000002a0: 2f11 fdbe 6736 73be 301a 16be 42d0 aebe
000002b0: a14d 86be a45a a8be 8284 ea3c 6961 85be
000002c0: d453 8ebe c4ff 34be 29e6 ccbd 8be5 88bc
000002d0: 78d2 813e 7eb5 3abe 29ea 293e ff83 cbbe
000002e0: d7bf 43bd c072 143e fbe1 bebd b287 8cbe
000002f0: 36bf 4dbe f1cb 3f3e f2a9 393d 5441 6dbe
00000300: c48d 4f3e 1fe8 bdbe b729 963e 171c bd3e
00000310: 998d 083f 210a f33e c4da a63d b4e0 2dbe
00000320: 754c 143e 67d4 d03d 6895 633e 6755 513e
00000330: cecc 7f3d 8f31 16bd de8d 37be bee8 103e
00000340: f4a3 d1be 9521 363d 0fb0 35bc ec46 69be
00000350: 9c3d 93be d720 f8bd b6fe 59be c66d 033e
00000360: 8fe9 35be b5da 81bd c1f1 aebe 8ef9 9cbe
00000370: 6052 98bd 7556 d8bd 9a5f be3d 18ac fa3d
00000380: f5a6 43be da78 3cbe a43e cebd b7cd 11be
00000390: 460f 7dbe 05bd bbbc c264 a93d 28c7 70bd
000003a0: 8081 133c e788 073e 2386 07be 5bcd 76be
000003b0: 24fc e3bd f0ef 523e ec95 febb 0a28 323e
000003c0: 7abd 393e 38b1 04be 25c7 4fbf 8d22 f93d
000003d0: ce18 403f 8c6e 063f b0b8 543e 012c 933f
000003e0: a8e6 cd3e b77e b03e 8ac9 7bbe f974 b33e
000003f0: e389 a13e b0a2 e23e a254 c1bd 231a 0bbe

gnn.convs.1.nn.lins.1.bias f4 [16]
0.21176423 0.1537451 -0.25602478 -0.5332113 -0.4754613 -0.058787107 -0.17349564 -0.06787973
-0.14268437 -0.02912568 -0.10128026 -0.1300276 0.21066536 -0.35224798 -0.15551594 -0.22026174
00000000: b9d8 583e 5b6f 1d3e ae15 83be 8980 08bf
00000010: aa6f f3be c0ca 70bd d7a8 31be 8704 8bbd
00000020: da1b 12be fa98 eebc 066c cfbd f525 05be
00000030: a9b8 573e d959 b4be 923f 1fbe 4b8c 61be

gnn.convs.2.nn.lins.0.weight f4 [16, 16]
-0.40102917 0.0028006395 -0.043987047 -0.15735291 -0.010684728 0.18150416 0.0668947 -0.14701697
-0.02871503 -0.28634876 -0.0006932573 0.12686181 -0.041995905 -0.28601044 -0.18066911 -0.020359743
0.18945922 0.09581046 0.11904044 0.039613664 0.05827534 0.013991468 -0.07818398 0.041125026
-0.72975665 0.25843084 0.21246092 0.23113285 -0.034926586 0.3358809 -0.03809086 0.38400298
-0.37291515 0.06462745 0.16989763 -0.65689874 -0.0016001075 -0.15440713 0.041473206 -0.39930436
-0.59629697 -0.26272163 0.019342814 -0.05985692 -0.2153597 0.023919674 0.123602286 0.4528332
0.3150848 0.00094761135 0.27684158 0.11600497 0.040402777 0.058935445 -0.12457673 -0.29243952
-0.5038168 -0.12997487 0.06924801 -0.081344165 -0.36125457 -0.16218258 -0.015731264 0.114957
-0.21633127 -0.43520102 0.14172602 0.26883093 0.29267538 -0.12795502 0.04903502 -0.37857658
0.5102528 -0.6206853 -0.40496108 -0.16827701 -0.16268426 0.20853081 -0.10138111 0.336684
0.21512818 -0.24182077 0.22035463 0.010559861 0.26287115 -0.015106999 -0.122410044 0.13798463
-0.6982631 -0.19795127 -0.11048602 -0.16636747 -0.40584835 -0.04200413 -0.18186665 0.47170103
-0.17023353 -0.03440774 0.07130572 -0.060714737 -0.16712517 -0.030060675 -0.090912685 -0.18795565
-0.29756156 -0.3472049 -0.036420245 -0.12702596 -0.049600497 -0.21963869 0.29860753 -0.3725472
-0.40926495 -0.6822904 -0.5719247 0.27856985 0.03775577 0.18792059 -0.14574654 -0.56595004
-0.3247439 -0.21845612 0.76784307 -0.25298792 -0.5689322 0.39513773 -0.29386938 -0.023550542
-0.18837972 -0.15597498 0.14883257 -0.19311798 -0.0803321 0.060308944 0.072687924 -0.25442246
-0.17787316 -0.32314163 0.07852437 0.11909367 -0.10012772 -0.285747 -0.12849861 0.3964028
0.07406891 0.04474119 0.057666108 -0.27859777 0.095813945 0.04896508 0.1744893 -0.34769517
-0.5789068 -0.23484519 -0.16380629 0.032718435 0.27059433 0.2798436 -0.08778963 0.061028372
-0.057248183 0.33394858 0.040479127 -0.38286743 0.17823477 -0.084230505 -0.010891405 0.38887227
-0.5661091 0.42815864 -0.0074591413 0.033879623 0.23852155 0.027706353 0.034375366 -0.041523583
0.340913 0.44915992 -0.15004584 -0.38338968 0.16888785 -0.1014742 0.06455871 -0.06522742
-0.65885216 0.20522894 0.024580423 -0.029783301 0.29332185 0.13227564 -0.052224465 0.45533895
-0.0656348 -0.09500602 -0.16251096 0.120043054 0.09866774 0.32129937 -0.045877706 -0.2537877
-0.22914064 0.030777391 0.040985793 0.30256602 -0.05906873 -0.25923026 -0.21446961 -0.21048269
-0.24528274 -0.13686305 -0.14850388 0.057607014 0.19231705 -0.0778268 0.09719463 -0.1006239
-0.31881928 0.09820912 -0.22873995 -0.056155708 -0.46523058 -0.2810912 0.2639512 0.15389125
-0.08423762 -0.16770516 0.103184745 -0.21319611 0.1552712 -0.12849097 0.19827089 -0.17401448
-0.25176722 -0.012313982 0.0771762 -0.092614055 -0.40978962 0.006564469 0.14172135 -0.07637315
-0.38192576 -0.14529338 0.23458597 -0.08610831 -0.055415757 0.29481193 -0.26239014 -0.056456268
-0.2612451 -0.2205092 0.046323948 0.20554765 -0.09341179 0.17185247 0.16019833 -0.07253917
00000000: b253 cdbe ef8a 373b c32b 34bd 1f21 21be
00000010: ff0e 2fbc 3adc 393e 1700 893d 9e8b 16be
00000020: c83b ebbc 4e9c 92be b6bb 35ba 10e8 013e
00000030: e603 2cbd f66f 92be 5301 39be 7ac9 a6bc
00000040: 9901 423e 4638 c43d 79cb f33d f041 223d
00000050: 1fb2 6e3d 783c 653c ec1e a0bd b772 283d
00000060: 55d1 3abf 0c51 843e 5b8f 593e 17ae 6c3e
00000070: 2e0f 0fbd 95f8 ab3e 2905 1cbd 0a9c c43e
00000080: bcee bebe 665b 843d a5f9 2d3e 842a 28bf
00000090: b3ba d1ba e71c 1ebe cfdf 293d 9f71 ccbe
000000a0: eba6 18bf 7383 86be d274 9e3c 882c 75bd
000000b0: 4187 5cbe 31f3 c33c 3223 fd3d c1d9 e73e
000000c0: cb52 a13e 1f69 783a 2ebe 8d3e 0494 ed3d
000000d0: 627d 253d 4b66 713d 1622 ffbd a2ba 95be
000000e0: 23fa 00bf 2218 05be e7d1 8d3d c597 a6bd
000000f0: 5cf6 b8be 3113 26be dade 80bc 936e eb3d
00000100: f285 5dbe abd2 debe a020 113e 35a4 893e
00000110: 8cd9 953e a406 03be f2d8 483d cad4 c1be
00000120: ed9f 023f 3be5 1ebf 0f57 cfbe cf50 2cbe
00000130: b496 26be 1a89 553e e6a0 cfbd d861 ac3e
00000140: 904a 5c3e dd9f 77be a5a4 613e 4403 2d3c
00000150: 0c97 863e 5983 77bc 1eb2 fabd d84b 0d3e
00000160: 5fc1 32bf bdb3 4abe 7f46 e2bd 3c5c 2abe
00000170: 5bcb cfbe 860c 2cbd 403b 3abe cc82 f13e
00000180: b351 2ebe 21ef 0cbd bc08 923d 04b0 78bd
00000190: dc22 2bbe ce41 f6bc 6e30 babd 7277 40be
000001a0: fd59 98be d7c4 b1be 652d 15bd 1813 02be
000001b0: e429 4bbd f7e8 60be 16e3 983e 82be bebe
000001c0: 2d8b d1be 95aa 2ebf a869 12bf b5a0 8e3e
000001d0: cba5 1a3d 416e 403e 953e 15be 1ae2 10bf
000001e0: d544 a6be f6b2 5fbe 5d91 443f a287 81be
000001f0: 8aa5 11bf 7e4f ca3e 0c76 96be 11ed c0bc
00000200: 9de6 40be e8b7 1fbe 9167 183e b8c0 45be
00000210: 2885 a4bd 8306 773d 68dd 943d a943 82be
00000220: 6224 36be d272 a5be 63d1 a03d 62e7 f33d
00000230: c30f cdbd 6e4d 92be 2495 03be 4ff5 ca3e
00000240: 71b1 973d 8a42 373d 4c33 6c3d 5ea4 8ebe
00000250: 1a3a c43d 9c8f 483d 53ad 323e 1a05 b2be
00000260: 3c33 14bf 427b 70be d6bc 27be c403 063d
00000270: 578b 8a3e a947 8f3e 0dcb b3bd e3f8 793d
00000280: 127d 6abd 4ffb aa3e 71cd 253d 3307 c4be
00000290: 2d83 363e 0b81 acbd dd71 32bc 441a c73e
000002a0: 87ec 10bf 9c37 db3e d06b f4bb 5cc5 0a3d
000002b0: fe3e 743e 6ff8 e23c 2fcd 0c3d a214 2abd
000002c0: 268c ae3e 4af8 e53e 9ea5 19be a74b c4be
000002d0: f0f0 2c3e b5d1 cfbd 5b37 843d f495 85bd
000002e0: 89aa 28bf 8927 523e e25c c93c 1cfc f3bc
000002f0: 482e 963e 4473 073e 52e9 55bd 3022 e93e
00000300: 8a6b 86bd 8492 c2bd 4669 26be 22d9 f53d
00000310: 5012 ca3d 5a81 a43e 43ea 3bbd 76f0 81be
00000320: d8a3 6abe de20 fc3c b8e0 273d efe9 9a3e
00000330: 0df2 71bd d4b9 84be ec9d 5bbe c688 57be
00000340: 662b 7bbe d425 0cbe 6711 18be 55f5 6b3d
00000350: c3ee 443e a863 9fbd fa0d c73d e713 cebd
00000360: 483c a3be dd21 c93d ce3a 6abe 8703 66bd
00000370: b432 eebe 30eb 8fbe 9d24 873e ab95 1d3e
00000380: c684 acbd e7ba 2bbe 8652 d33d 1550 5abe
00000390: 6aff 1e3e 2393 03be 8607 4b3e da30 32be
000003a0: a2e7 80be 95c0 49bc 8e0e 9e3d 70ac bdbd
000003b0: f2cf d1be c21a d73b 671f 113e 8769 9cbd
000003c0: c68b c3be cac7 14be 4e37 703e 8e59 b0bd
000003d0: a2fb 62bd 97f1 963e 0058 86be b03e 67bd
000003e0: ebc1 85be 2acd 61be 2ebe 3d3d 157b 523e
000003f0: ae4e bfbd 18fa 2f3e 080b 243e 6b8f 94bd

gnn.convs.2.nn.lins.0.bias f4 [16]
0.11444687 -0.18598779 -0.20497565 0.2790601 -0.50305617 0.038996674 0.06680752 -0.433246
0.21910977 -0.17232029 0.26384082 0.31931633 -0.24777198 0.19355218 -0.19688314 -0.26871583
00000000: 1f63 ea3d 9573 3ebe 23e5 51be f7e0 8e3e
00000010: 4ac8 00bf faba 1f3d 62d2 883d 6bd2 ddbe
00000020: 505e 603e bb74 30be 2516 873e 6e7d a33e
00000030: f0b7 7dbe 8b32 463e bc9b 49be 1f95 89be

gnn.convs.2.nn.lins.1.weight f4 [16, 16]
-0.032701116 -0.23140763 -0.16837218 -0.17327827 -0.27672622 -0.18667783 0.10970339 -0.118747495
-0.5847566 -0.30683392 -0.120594814 0.139753 0.03877205 0.15849389 0.03887043 0.16971971
0.025089877 0.055037417 0.043202285 0.23679037 -0.44538206 -0.057163555 -0.007307638 -0.25781068
-0.13869958 0.24347506 0.35138997 0.27390742 -0.14574602 0.23642506 0.17014971 -0.15770552
0.008864661 -0.2148088 -0.22414227 -0.052017983 -0.23975964 0.09234665 0.15513743 -0.05276754
0.09593576 -0.2267156 -0.20932208 0.016094657 0.1415735 0.18548883 0.06914956 -0.18110728
-0.30619088 -0.075977355 0.1947555 0.13094193 0.21587332 0.05030192 -0.17575873 0.58816946
-0.045985054 0.050463248 -0.14545998 -0.21764252 -0.048000325 -0.04938692 -0.13176753 -0.23198089
0.059948374 0.2638805 -0.02948516 -0.2461699 0.06800715 -0.18580586 -0.06078658 -0.28554317
-0.14168358 0.27403787 0.15890762 0.36286235 0.35149208 -0.109713525 -0.09737816 0.008216759
0.054429576 -0.3751576 0.46738327 -0.24229468 0.33949032 -0.07216333 0.017639507 0.19350135
0.06544808 -0.10168309 -0.66359735 -0.2697854 -0.07663141 0.5383786 -0.10623752 -0.2069351
-0.06955138 0.024817802 0.048246946 -0.19263163 -0.022209164 -0.0027280045 0.19907507 -0.11372308
0.04361032 0.062046733 -0.04635208 -0.3222162 -0.027708253 0.21330667 -0.14041242 0.031810656
0.30860025 0.34881914 0.12899412 0.4812002 0.063884936 0.11833665 0.25015578 -0.2649747
0.056365233 0.06230486 -0.22598633 0.1997253 0.14694615 0.13333166 0.30651167 0.16478805
0.08209314 -0.0018037079 0.5618563 -0.7114344 0.5523031 0.27149576 0.052316286 0.24531826
0.45484683 -0.32580805 -0.06996192 0.058196776 -0.06755734 0.35376474 -0.060326714 -0.08725535
-0.1976416 -0.27299702 0.11885036 0.19685532 -0.16361669 0.07283268 0.12356647 0.19128731
-0.026377501 0.03478664 -0.12033382 -0.30226222 0.037237562 0.04120957 -0.27207735 0.089091904
-0.1192556 -0.06762626 -0.078280725 -0.299808 -0.20890339 -0.24935742 -0.10014959 0.14104083
-0.06258779 0.054786883 0.059204873 -0.11520562 0.15000813 0.19016299 0.20577943 0.0116085755
-0.086251624 0.48014128 0.31160024 0.22440948 0.016945155 0.57612336 0.14278011 -0.6120095
0.26617083 0.13253854 0.05036513 0.27212536 -0.07374493 -0.21676122 -0.0039695767 -0.32995287
-0.23414573 0.12515883 0.042287003 -0.15120181 -0.21118744 -0.09883586 0.047405005 -0.2535356
-0.08354423 0.10914375 -0.31516907 -0.037416846 -0.117786445 -0.26670825 -0.3304101 -0.083341874
-0.39801422 0.19631176 -0.32523283 0.37077355 -0.027585797 0.0014334482 0.16393098 -0.20146956
0.013786329 0.42276812 0.20722899 0.07429567 -0.14562178 -0.12912415 0.12556049 -0.20512639
0.23366176 0.043590553 0.59536237 0.27561668 -0.29145476 0.54962075 0.017198708 -0.17467967
0.40677884 0.42348948 0.2823012 0.028822828 -0.17768647 -0.18869181 -0.25382584 -0.21359333
-0.15607294 -0.031979166 -0.0732179 0.020507025 -0.22318628 -0.07796357 -0.08019006 0.01876573
-0.17391448 0.08238557 -0.20301619 -0.05121529 -0.18058293 0.13227832 -0.055161115 0.010107615
00000000: 9bf1 05bd 1ff6 6cbe c269 2cbe dc6f 31be
00000010: 0faf 8dbe 7928 3fbe 2cac e03d e331 f3bd
00000020: 9cb2 15bf 5619 9dbe 6afa f6bd 691b 0f3e
00000030: 71cf 1e3d 394c 223e 9a36 1f3d 01cb 2d3e
00000040: 4989 cd3c ea6e 613d e1f4 303d 2d79 723e
00000050: 1e09 e4be 5524 6abd e974 efbb c3ff 83be
00000060: 4307 0ebe 8751 793e 63e9 b33e 983d 8c3e
00000070: 723e 15be 6919 723e ba3b 2e3e 8e7d 21be
00000080: 153d 113c d7f6 5bbe 8d85 65be cf10 55bd
00000090: 8d83 75be 3e20 bd3d 59dc 1e3e c722 58bd
000000a0: f879 c43d 2228 68be 8758 56be f1d8 833c
000000b0: a5f8 103e c9f0 3d3e 499e 8d3d 3074 39be
000000c0: 0dc5 9cbe 049a 9bbd fc6d 473e a415 063e
000000d0: e50d 5d3e 6309 4e3d 19fa 33be 4692 163f
000000e0: d35a 3cbd 8db2 4e3d 76f3 14be aedd 5ebe
000000f0: fd9b 44bd f049 4abd 11ee 06be 668c 6dbe
00000100: 6d8c 753d 581b 873e dd8a f1bc f613 7cbe
00000110: 5547 8b3d e443 3ebe 59fb 78bd b732 92be
00000120: 8015 11be b14e 8c3e aeb8 223e 18c9 b93e
00000130: c5f6 b33e 7cb1 e0bd 336e c7bd 969f 063c
00000140: 8cf1 5e3d a814 c0be dc4c ef3e 191c 78be
00000150: add1 ad3e 5eca 93bd ba80 903c 3825 463e
00000160: a509 863d 393f d0bd 84e1 29bf 5021 8abe
00000170: eef0 9cbd 2ed3 093f 0f93 d9bd cbe6 53be
00000180: f470 8ebd b44e cb3c 979e 453d 3a41 45be
00000190: feef b5bc 52c8 32bb 56da 4b3e a5e7 e8bd
000001a0: bca0 323d b724 7e3d aedb 3dbd 86f9 a4be
000001b0: 6bfc e2bc 106d 5a3e 46c8 0fbe e44b 023d
000001c0: da00 9e3e 6c98 b23e 0917 043e df5f f63e
000001d0: 1bd6 823d 7c5a f23d 6b14 803e c4aa 87be
000001e0: 3bdf 663d 6233 7f3d f668 67be ca84 4c3e
000001f0: 0d79 163e 1888 083e 19ef 9c3e 33be 283e
00000200: 7320 a83d 656a ecba d1d5 0f3f 9120 36bf
00000210: bc63 0d3f 7e01 8b3e 9a49 563d b634 7b3e
00000220: afe1 e83e 50d0 a6be 3248 8fbd be5f 6e3d
00000230: 815b 8abd a720 b53e 2519 77bd efb2 b2bd
00000240: 8f62 4abe 44c6 8bbe d167 f33d 7194 493e
00000250: 228b 27be 4d29 953d 6b10 fd3d d2e0 433e
00000260: a115 d8bc 707c 0e3d 9471 f6bd 1dc2 9abe
00000270: 6a86 183d 5ecb 283d b94d 8bbe d175 b63d
00000280: 483c f4bd a37f 8abd a551 a0bd 6f80 99be
00000290: c5ea 55be 8d57 7fbe 3a1b cdbd 026d 103e
000002a0: 072e 80bd 3668 603d cf80 723d edf0 ebbd
000002b0: bb9b 193e 16ba 423e d8b7 523e e531 3e3c
000002c0: b1a4 b0bd 14d5 f53e 118a 9f3e 99cb 653e
000002d0: 91d0 8a3c d27c 133f f334 123e a8ac 1cbf
000002e0: 8b47 883e 2fb8 073e ab4b 4e3d 0454 8b3e
000002f0: 9507 97bd a7f6 5dbe 3913 82bb 95ef a8be
00000300: e6c3 6fbe a329 003e 2335 2d3d a6d4 1abe
00000310: 8541 58be 756a cabd c02b 423d 6bcf 81be
00000320: 3d19 abbd c286 df3d d75d a1be 6842 19bd
00000330: 053a f1bd fc8d 88be 832b a9be 25af aabd
00000340: 85c8 cbbe f305 493e eb84 a6be 08d6 bd3e
00000350: 9cfb e1bc 8ae2 bb3a 86dd 273e 094e 4ebe
00000360: 0ee0 613c 1075 d83e d633 543e 5428 983d
00000370: e01d 15be 1f39 04be ee92 003e a70c 52be
00000380: 0745 6f3e 028c 323d ab69 183f a11d 8d3e
00000390: 8f39 95be f2b3 0c3f 4ee4 8c3c 3adf 32be
000003a0: 5145 d03e 9dd3 d83e c889 903e da1d ec3c
000003b0: 71f3 35be 6d38 41be 76f5 81be 36b8 5abe
000003c0: 96d1 1fbe 96fc 02bd 44f3 95bd 59fe a73c
000003d0: f28a 64be 5dab 9fbd b03a a4bd 97ba 993c
000003e0: a316 32be c4b9 a83d 7ae3 4fbe 20c7 51bd
000003f0: bbea 38be f873 073e 9ff0 61bd 699a 253c

gnn.convs.2.nn.lins.1.bias f4 [16]
-0.14836122 0.45685637 -0.17255142 0.07202255 0.18876295 -0.16281231 -0.021311102 -0.028249728
-0.087039165 -0.07197901 0.0666837 -0.18295865 -0.031633694 -0.0995092 -0.1592909 0.08721302
00000000: 01ec 17be 14e9 e93e 52b1 30be 8f80 933d
00000010: 134b 413e 45b8 26be 9f94 aebc f96b e7bc
00000020: 9741 b2bd bb69 93bd 7791 883d 8359 3bbe
00000030: 5592 01bd 7bcb cbbd 271d 23be bd9c b23d

gnn.convs.3.nn.lins.0.weight f4 [16, 16]
-0.15380675 -0.56071454 -0.44954118 -0.110548615 -0.61091095 0.00058086816 -0.3994735 -0.11180186
-0.18620396 -0.06064197 -0.29956993 -0.22213016 -0.065463185 -0.7066046 -0.3896121 0.06450263
0.45605454 -0.6660627 -0.19504818 0.05657297 -0.24355805 -0.12109416 -0.21094851 -0.015913825
0.24575265 -0.007536417 -0.14844397 -0.13066977 0.050696503 -0.23163986 -0.12928964 -0.107069544
-0.21189079 0.17016418 -0.14184324 -0.49937853 0.20165944 -0.3974354 -0.1385285 -0.2031373
-0.9430444 0.14905342 -0.14453427 0.19604717 -0.10050602 0.0057701394 0.27766305 -0.20143107
-0.0033475743 -0.14529549 0.00014673959 0.21510534 0.050224025 -0.29295018 0.09940271 0.04208831
-0.42943472 -0.2888965 -0.21897362 0.59564734 0.073941186 0.09371071 0.48991984 -0.2166762
0.27360967 0.14017235 0.070651375 -0.30671716 -0.26997343 -0.5844829 -0.17327563 0.028185304
-0.38219473 0.035028253 -0.35149258 0.031513616 0.15806225 -0.0064520882 0.04103055 -0.27399546
0.106943965 0.021044854 -0.061061744 -0.50363165 -0.012660408 -0.05843201 -0.33494076 -0.14192674
-0.24889356 -0.08343458 -0.28861833 -0.43095616 0.12727894 -0.0048287865 0.4128121 -0.18854186
-0.3026027 -0.0014222083 -0.082333446 0.0013162668 0.35245556 -0.45798308 0.19241376 0.0835787
-0.03576859 -0.1463267 -0.054770656 -0.56247485 -0.1382055 -0.5312586 -0.25093654 -0.06496805
0.177435 -0.17222685 0.010045742 0.06998291 -0.26930943 -0.25794807 -0.0503629 -0.17487921
-0.74729526 -0.10997273 -0.20795204 -0.24708349 0.24065979 -0.16617298 -0.037142176 0.12671207
0.20339043 -0.031788982 -0.16492699 0.09860511 -0.022787584 0.1933571 0.27838424 0.15436673
0.0911671 -0.08916001 0.21931538 -0.56779164 -0.32859418 0.039096575 0.2938908 -0.080059834
-0.025262648 -0.31593826 -0.11663754 -0.1800237 -0.19159651 -0.12169001 -0.38356444 -0.58313274
-0.06594802 -0.3681289 0.08370831 -0.1913644 -0.18450403 -0.12328118 0.00076666445 -0.16595519
-0.06572017 0.25260907 0.088230066 0.039645486 0.10458466 -0.35225612 0.030445628 0.3474589
-0.42240387 0.09151791 -0.04328195 0.12943195 -0.124825016 0.30760613 0.08553152 -0.07888928
-0.06848338 0.25547677 0.23246929 -0.6585392 0.38235936 -0.8798311 0.08572382 -0.051439546
-0.62836546 0.016893059 -0.19694495 0.2706895 0.17884487 0.22697061 0.43753743 0.03174197
0.0037474937 -0.0046001277 -0.21705787 0.013557264 -0.06333476 -0.09826339 -0.011960252 0.038275182
0.20432168 0.10003863 -0.19574477 -0.15461448 0.096394114 -0.6578877 -0.27207372 -0.105739735
-0.04204949 -0.15240733 -0.21968038 -0.0638981 0.013291097 -0.2552987 0.12320404 -0.18881889
-0.25975803 0.03271132 -0.19884871 -0.25645453 0.070418075 -0.30466747 -0.23082861 -0.26033303
-0.111675605 0.2259505 -0.086231254 -0.3310728 0.33754164 -0.3746483 -0.09891944 0.23067765
-0.11684852 0.14489977 0.048328407 -0.00087534357 -0.17938082 0.4227026 0.16999677 -0.10550431
-0.09222693 -0.015405921 0.11751095 0.03702017 -0.32628387 0.07513448 -0.23655798 0.22037254
-0.9276021 -0.1400438 -0.36657035 -0.3087603 0.07112019 -0.014112278 0.21076368 -0.050697327
00000000: 847f 1dbe fd8a 0fbf 432a e6be 5067 e2bd
00000010: a964 1cbf 6745 183a ca87 ccbe 60f8 e4bd
00000020: 40ac 3ebe b763 78bd 3b61 99be 1776 63be
00000030: 9011 86bd 0ae4 34bf 3d7b c7be f419 843d
00000040: fb7f e93e 1683 2abf b6ba 47be 0fb9 673d
00000050: 4867 79be 3700 f8bd e302 58be b65d 82bc
00000060: 95a6 7b3e 0cf4 f6bb b201 18be 4cce 05be
00000070: 23a7 4f3d 0033 6dbe 8164 04be 4747 dbbd
00000080: e6f9 58be 853f 2e3e 5b3f 11be 8bae ffbe
00000090: d07f 4e3e a77c cbbe 6ada 0dbe 3903 50be
000000a0: 5c6b 71bf 76a1 183e cb00 14be 97c0 483e
000000b0: 1ad6 cdbd 7013 bd3b da29 8e3e f243 4ebe
000000c0: fa62 5bbb 57c8 14be 1cde 1939 9344 5c3e
000000d0: b5b7 4d3d 91fd 95be a693 cb3d cb64 2c3d
000000e0: dede dbbe 3eea 93be 9f3a 60be 587c 183f
000000f0: 7a6e 973d 67eb bf3d c6d6 fa3e 5ee0 5dbe
00000100: 9116 8c3e 5789 0f3e abb1 903d 080a 9dbe
00000110: f539 8abe aca0 15bf 2b6f 31be dee4 e63c
00000120: 07af c3be c979 0f3d d6f6 b3be 6c14 013d
00000130: 12db 213e 0a6c d3bb a60f 283d 2249 8cbe
00000140: 7005 db3d 4266 ac3c e11b 7abd 01ee 00bf
00000150: 9a6d 4fbc 6756 6fbd 5b7d abbe 3e55 11be
00000160: f4dd 7ebe c0df aabd c8c5 93be 49a6 dcbe
00000170: 6955 023e cc3a 9ebb 1c5c d33e 1e11 41be
00000180: beee 9abe 6469 baba 709e a8bd 9686 ac3a
00000190: 0e75 b43e c27c eabe 1d08 453e 4f2b ab3d
000001a0: 1682 12bd abd6 15be 3257 60bd 5afe 0fbf
000001b0: be85 0dbe 9000 08bf c17a 80be f80d 85bd
000001c0: 85b1 353e 3c5c 30be e596 243c 3353 8f3d
000001d0: ede2 89be c511 84be 5449 4ebd 8913 33be
000001e0: be4e 3fbf 6239 e1bd 61f1 54be 7403 7dbe
000001f0: 856f 763e 4029 2abe 6522 18bd cfc0 013e
00000200: 9545 503e 2a35 02bd 9fe2 28be 7af1 c93d
00000210: 07ad babc 67ff 453e 6188 8e3e 5012 1e3e
00000220: d1b5 ba3d 8699 b6bd 3694 603e cb5a 11bf
00000230: 7f3d a8be bb23 203d db78 963e 69f6 a3bd
00000240: 9df3 cebc a9c2 a1be aadf eebd 2258 38be
00000250: e031 44be 9d38 f9bd 8f62 c4be 3048 15bf
00000260: c10f 87bd 647b bcbe 436f ab3d 07f5 43be
00000270: a0ee 3cbe d87a fcbd fbf9 483a 28f0 29be
00000280: 4c98 86bd fa55 813e f7b1 b43d 4e63 223d
00000290: 7b30 d63d ea5a b4be 1c69 f93c 22e6 b13e
000002a0: 5245 d8be be6d bb3d 6a48 31bd cf89 043e
000002b0: 42a4 ffbd 8d7e 9d3e 262b af3d b490 a1bd
000002c0: 0441 8cbd dacd 823e 6e0c 6e3e 0696 28bf
000002d0: 9bc4 c33e 9c3c 61bf f88f af3d 46b2 52bd
000002e0: 8fdc 20bf 5063 8a3c f0ab 49be d097 8a3e
000002f0: 1c23 373e fc6a 683e e804 e03e de03 023d
00000300: 8398 753b abbc 96bb 6b44 5ebe 491f 5e3c
00000310: a8b5 81bd 513e c9bd eff4 43bc 70c6 1c3d
00000320: b439 513e 0ee1 cc3d 5171 48be 4253 1ebe
00000330: 476a c53d 546b 28bf 3f4d 8bbe 138e d8bd
00000340: 163c 2cbd ab10 1cbe e5f3 60be 02dd 82bd
00000350: e7c2 593c 83b6 82be 6652 fc3d bd59 41be
00000360: 01ff 84be 4efc 053d ff9e 4bbe 024e 83be
00000370: 5a37 903d 60fd 9bbe 565e 6cbe 5f4a 85be
00000380: 2eb6 e4bd 915f 673e 039a b0bd 6082 a9be
00000390: 42d2 ac3e e7d1 bfbe 4696 cabd c336 6c3e
000003a0: 474e efbd 9b60 143e 02f4 453d 5077 65ba
000003b0: 9baf 37be 7a6c d83e a213 2e3e a512 d8bd
000003c0: 79e1 bcbd 1e69 7cbc 95a9 f03d 76a2 173d
000003d0: ae0e a7be 1be0 993d 413c 72be 57a9 613e
000003e0: 5577 6dbf a467 0fbe 1caf bbbe d415 9ebe
000003f0: 76a7 913d 2f37 67bc 6fd2 573e 00a8 4fbd

gnn.convs.3.nn.lins.0.bias f4 [16]
-0.70108366 -0.41230226 -0.032591753 -0.015559893 -0.22185132 0.15757051 -0.1411837 0.06050134
0.23509176 -0.16022818 0.14360416 -0.17441085 -0.18423267 0.07537451 0.065719225 -0.40109017
00000000: 387a 33bf 4819 d3be ee7e 05bd ecee 7ebc
00000010: fe2c 63be 2a5a 213e 7692 10be 41d0 773d
00000020: e5bb 703e db12 24be f80c 133e c298 32be
00000030: 7da7 3cbe f35d 9a3d cd97 863d b15b cdbe
