Run_GIN_ModelCheckpoint_EvFr_2/NCI1_reps_2_folds_5_epochs_20_2023-04-26_11-05/rep_0_fold_0/checkpoints/model_trial_4.ckpt (torch, 245261 bytes, 86 tensors)

gnn.convs.0.nn.lins.0.weight f4 [32, 37]
0	0x3f584650	0.8448229
1	0x3f0e15cd	0.55502015
2	0xbe3965a2	-0.18105176
3	0x3f2959da	0.6615273
4	0xbf620f7b	-0.8830487
5	0xbe0fb35f	-0.14033268
6	0xbe50c203	-0.2038651
7	0xbe070af3	-0.1318777
8	0xbdd0efd1	-0.10201991
9	0xbd6404bc	-0.055668578
10	0xbcf8ea55	-0.030385176
11	0xbe0376c5	-0.12838276
12	0xbdd8d98f	-0.10588371
13	0xbec4083f	-0.3828754
14	0xbdd87b47	-0.10570388
15	0xbe0d51b8	-0.13800704
16	0x3f0be8de	0.546522
17	0xbdf55f2b	-0.119810425
18	0x3de0e052	0.10980286
19	0xbcfc9cb9	-0.03083645
20	0x3ea96c1c	0.33090293
21	0x3f8656a5	1.0495192
22	0xbe05c958	-0.13065088
23	0xbe130fa0	-0.14361429
24	0xbd11378b	-0.03545336
25	0xbdd18617	-0.10230654
26	0xbf1f4531	-0.6221495
27	0x3cf7dc02	0.030256275
28	0x3f155910	0.58339024
29	0x3d085f73	0.033294152
30	0x3cd9e13f	0.026596664
31	0xbccb711b	-0.024834206
32	0x3ec605b3	0.38676223
33	0xbd50b0cd	-0.05094986
34	0x3ee2009f	0.441411
35	0x3dc75cb3	0.09734478
36	0x3c07b991	0.008283989
37	0xbd739794	-0.059470728
38	0xbddfbef0	-0.1092509
39	0xbe6bede2	-0.23039964
40	0x3d26f87f	0.040764328
41	0xbd80d761	-0.0629108
42	0xbd84ee04	-0.064907104
43	0xbd60d416	-0.05488976
44	0x3da75b85	0.08171753
45	0xbe114606	-0.14186868
46	0xbe28f138	-0.16498268
47	0xbe1b44ba	-0.15162936
48	0xbd1855e1	-0.037191276
49	0xbe002b45	-0.12516506
50	0xbcb299dd	-0.021801883
51	0xbd366b3e	-0.044535868
52	0xbde13af8	-0.109975755
53	0xbdfcf94a	-0.123522356
54	0xbdc9a46d	-0.09845815
55	0xbe2508f1	-0.16116692
56	0xbcfba989	-0.03072049
57	0xbe069ff3	-0.13146953
58	0xbde26686	-0.11054711
59	0xbda0b611	-0.078472264
60	0xbd9ea55f	-0.07746386
61	0xbd9cbe03	-0.07653429
62	0xbd6d6ba4	-0.057963982
63	0xbdf0900e	-0.11746226
64	0xbe16d2dc	-0.14728874
65	0xbe1eda19	-0.15512885
66	0xbdf8c366	-0.12146644
67	0x3d7ff68f	0.062490996
68	0x3af9582e	0.0019023472
69	0x3e52c0a4	0.20581299
70	0xbdf9887b	-0.12184235
71	0x3ec78a3d	0.38972655
72	0x3db4430d	0.088018514
73	0xbd2de31d	-0.04245292
74	0xbeac92f9	-0.3370588
75	0xbe6dde0b	-0.23229234
76	0xbd30111d	-0.04298507
77	0xbde262b3	-0.11053982
78	0xbe2d3856	-0.16916022
79	0x3c54e4ec	0.012994032
80	0x3e533208	0.20624554
81	0x3cc11b2e	0.02357253
82	0xbe9e81cb	-0.309584
83	0x3ccecdcc	0.025244616
84	0x3c87b762	0.016566936
85	0xbdd0f78d	-0.102034666
86	0xbde3be3b	-0.11120268
87	0x3cf0d273	0.029397225
88	0x3b9e66f3	0.00483405
89	0xbe0deb9a	-0.13859406
90	0xbd8b6c2e	-0.06807743
91	0xbe2d2063	-0.16906886
92	0xbdb71526	-0.089395806
93	0xbdac090e	-0.084001645
94	0x3ed81cf0	0.42209578
95	0xbd4a77a4	-0.049430504
96	0x3ddfc205	0.10925678
97	0xbceed96f	-0.029156415
98	0xbe3cafd2	-0.18426445
99	0xbe031e1d	-0.12804456
100	0xbd9966df	-0.07490324
101	0xbd9109f4	-0.070819765
102	0xbde7f4a9	-0.11325962
103	0xbde36cc9	-0.111047335
104	0x3d5a62cb	0.053316873
105	0xbd6991d8	-0.057023853
106	0x3d15e1a2	0.036592133
107	0xbdba4707	-0.09095579
108	0xbe03ff98	-0.1289047
109	0xbd9a105d	-0.07522652
110	0xbdcb7f63	-0.099364065
111	0xbc8afa4c	-0.016965054
112	0x3e29b153	0.1657155
113	0xbdb95eff	-0.09051322
114	0xbe85a009	-0.2609866
115	0x3ec076f8	0.37590766
116	0xbe7e36b0	-0.24825549
117	0xbe0a8ea8	-0.13530982
118	0x3c04b1bc	0.008099016
119	0x3f40c27e	0.7529677
120	0x3ef794c6	0.48355693
121	0x40147a89	2.319979
122	0x3f63c173	0.88967055
123	0x401306b3	2.297284
124	0xbed839a7	-0.42231485
125	0x3fdd6a5b	1.7298082
126	0xbe001ae5	-0.1251026
127	0xbedba2e3	-0.4289771
128	0x403febc1	2.9987643
129	0x3fa2cc2f	1.2718562
130	0x3f8e70ae	1.1128137
131	0xbec5fe8e	-0.38670772
132	0xbeb6cb8c	-0.3570217
133	0x3e0340e3	0.12817721
134	0x3fe38523	1.7775005
135	0x3fae9afb	1.3641046
136	0x3f4fcbe9	0.8117052
137	0x3f239d57	0.63911957
138	0x3f86dc5a	1.0535996
139	0xbd19164a	-0.037374772
140	0x3fecb203	1.8491825
141	0x3c509253	0.012730199
142	0x3da99e70	0.08282173
143	0xbe126869	-0.14297642
144	0xbe56ee66	-0.2098938
145	0xbdbe1c28	-0.09282714
146	0x3d253c99	0.040340994
147	0x3d266178	0.040620297
148	0xbe9d0e06	-0.30674762
149	0xbd2f4859	-0.042793605
150	0xbc82cedc	-0.015967779
151	0xbe023889	-0.12716879
152	0xbe130d48	-0.14360535
153	0xbe3e579e	-0.18588111
154	0xbcc7b806	-0.024379741
155	0x3dcc6f55	0.099821724
156	0xbee8305a	-0.4534939
157	0xbdaf22ac	-0.08551535
158	0xbd4e7c9f	-0.050411817
159	0xbdce895b	-0.10084792
160	0x3d062c8f	0.032757338
161	0xbac006f9	-0.0014650516
162	0xbdad812a	-0.08471902
163	0x3dd8badb	0.10582515
164	0x3dcb1097	0.09915274
165	0xbc635572	-0.013875352
166	0xbd669b9c	-0.056300744
167	0xbe930efa	-0.28722364
168	0x3dfef153	0.12448373
169	0x3e0de4a4	0.1385675
170	0x3e0b779a	0.13619843
171	0xbe0d7288	-0.13813221
172	0xbdfa1d53	-0.122126244
173	0xbd7e07f5	-0.062019307
174	0xbdcd586e	-0.10026632
175	0xbe48e40c	-0.19618243
176	0x3e9fad0c	0.31186712
177	0xbdc8ae99	-0.09798927
178	0x3da64f8c	0.08120641
179	0xbcc63c9c	-0.024198823
180	0x3e84de43	0.25950822
181	0x3edec0cb	0.43506464
182	0xbd3c1d2b	-0.045926254
183	0xbdbba265	-0.09161834
184	0xbb9d1e2f	-0.004794858
185	0xbee8b163	-0.45447835
186	0xbf697f9c	-0.9121034
187	0xbe713be6	-0.23558006
188	0xbef3e272	-0.47633702
189	0xbd86adc7	-0.06576114
190	0x3e6af6f9	0.22945775
191	0xbdeee3c4	-0.116645366
192	0x3e2a2790	0.16616654
193	0x3ed58983	0.41706476
194	0x3f01d394	0.5071347
195	0x408a3acd	4.319678
196	0xbdb13945	-0.086535014
197	0xbdc8c7ee	-0.098037586
198	0xbe03ff71	-0.12890412
199	0xbc619ca7	-0.013770259
200	0xbbf06f25	-0.007337468
201	0x3f6b07f8	0.91809034
202	0xbe027b51	-0.12742354
203	0xbc334c32	-0.010943459
204	0xbdd7a2d9	-0.105291076
205	0xbe1cd31b	-0.15314905
206	0xbdd0a644	-0.10187963
207	0x3e1cfd7f	0.15331076
208	0xbda9d82e	-0.08293186
209	0x3fb58070	1.4179821
210	0xbdcdff25	-0.100584306
211	0x3dc64523	0.096811555
212	0x3f856303	1.0420841
213	0xbc711f8b	-0.014716993
214	0xbd566c88	-0.052349597
215	0xbd46aff5	-0.04850765
216	0xbe163ab9	-0.14670838
217	0xbe3733ae	-0.17890808
218	0xbd9de9be	-0.077105984
219	0xbdee37b1	-0.11631716
220	0x3dd1f275	0.10251323
221	0x3d67c7de	0.056587093
222	0xbfab5c27	-1.3387498
223	0xbf603c0c	-0.87591624
224	0x3e7e07ce	0.24807665
225	0xbf576ad8	-0.84147406
226	0x3ed41fd2	0.41430527
227	0xbf182f59	-0.59447247
228	0x3eaed1e2	0.34144503
229	0xbe42f2ae	-0.19037887
230	0xbdf45959	-0.11931104
231	0xbbf3b327	-0.007437128
232	0xbeae6587	-0.34061834
233	0xbe5643e8	-0.20924342
234	0xbe27a3d2	-0.16371086
235	0xbeebddd4	-0.4606768
236	0xbe655c8a	-0.22398582
237	0xbe863893	-0.26215038
238	0xbed52321	-0.41628364
239	0xbe875d96	-0.26438588
240	0xbf3bfbb1	-0.73430926
241	0xbf1aeba5	-0.60515815
242	0x3e95c9d1	0.29255536
243	0x3ee4a48b	0.44656786
244	0x3a070881	0.00051511085
245	0xbe25153a	-0.16121379
246	0xbf58d433	-0.8469879
247	0xbf01d4c2	-0.5071527
248	0x3ed94072	0.4243198
249	0xbf50bc78	-0.8153758
250	0x3ee15f9a	0.4401825
251	0xbe82672a	-0.25469333
252	0xbd89b06b	-0.06723102
253	0x3e0ebb9e	0.13938758
254	0x3ebad627	0.3649151
255	0x3f1a81e1	0.6035443

gnn.convs.0.nn.lins.0.bias f4 [32]
0	0xbe9ca544	-0.30594838
1	0x3c1c3df3	0.009536254
2	0xbd36f0d0	-0.04466325
3	0xbc079090	-0.0082742125
4	0xbe02c400	-0.1277008
5	0xbdc83ad7	-0.09776848
6	0x3cd949aa	0.026524384
7	0xbea39378	-0.31948447
8	0xbd1cf61c	-0.038320646
9	0x3cd95401	0.026529314
10	0xbd79f9b5	-0.061029155
11	0xbe5a8b72	-0.21342257
12	0xbf281475	-0.65656215
13	0xbe68adbf	-0.22722529
14	0xbe6bbf18	-0.23022115
15	0xbe85b9ef	-0.2611842
16	0xbe19a569	-0.15004505
17	0xbec83a97	-0.391072
18	0x3d20e22b	0.03927819
19	0xbd412728	-0.047156483
20	0xbe9ccad5	-0.306235
21	0x3c9ccf9f	0.01914197
22	0x3dcbf8e4	0.099595815
23	0xbe6a1053	-0.2285779
24	0x3f1eeb0a	0.6207739
25	0xbe418e7f	-0.18902014
26	0x3d00d179	0.03144977
27	0x3e15e2f8	0.14637363
28	0xbecec477	-0.40384266
29	0xbe823231	-0.25428918
30	0x3d0e57a0	0.034751534
31	0x3c422beb	0.011851291

gnn.convs.0.nn.lins.1.weight f4 [32, 32]
0	0xbf54e2b7	-0.8315844
1	0x3d447724	0.047965184
2	0x3bee29a7	0.007268149
3	0x3e4a3141	0.19745351
4	0x3d7647d2	0.060127087
5	0x3ee35101	0.4439774
6	0xbe69fc1f	-0.22850083
7	0xbea42c5c	-0.32065094
8	0xbde1ce09	-0.11025626
9	0x3f0b67c7	0.54455227
10	0xbd0c0e1d	-0.034193147
11	0x3ad17607	0.001598061
12	0xbe9f149e	-0.31070417
13	0x3e8ae526	0.2712795
14	0xbdf91849	-0.12162835
15	0x3ee58249	0.44825962
16	0x38a30fdf	7.775402e-05
17	0xbf0eb9dd	-0.55752355
18	0xbee00b5a	-0.4375866
19	0xbf176614	-0.59140134
20	0xba28521c	-0.00064209267
21	0x3f398596	0.7246946
22	0xbdbdbc11	-0.092643864
23	0x3e675433	0.22590713
24	0x3fcb122e	1.5864923
25	0x3e002ae5	0.12516363
26	0x3e9e167a	0.30876523
27	0xbeacc2ea	-0.33742458
28	0x3d749c4e	0.059719376
29	0x3f067868	0.52527475
30	0xbe52a1f5	-0.20569594
31	0x3dfa5e75	0.122250475
32	0xbe4f948a	-0.20271507
33	0x3d4804f0	0.048832834
34	0xbd9be9e2	-0.07612969
35	0xbe3cd8f8	-0.18442142
36	0x3d66ac80	0.056316853
37	0x3d8fe2d4	0.07025686
38	0xbd6023f2	-0.05472178
39	0x3d251499	0.040302847
40	0xbd07e496	-0.03317698
41	0x3d08cd86	0.033399127
42	0x3d39ce41	0.045362715
43	0x3c3e7f2f	0.011627003
44	0x3e443b35	0.1916321
45	0xbdcf85ef	-0.10132968
46	0x3d89febd	0.067380406
47	0x3b222685	0.0024742198
48	0xbe1284fd	-0.14308544
49	0x3d21cfeb	0.039504927
50	0xbe22f044	-0.15911967
51	0xbe3bcc41	-0.18339635
52	0xbdb284a9	-0.08716709
53	0xbe5dddd7	-0.21666656
54	0xbdc38112	-0.095461026
55	0xbdb56e24	-0.08858898
56	0xbeeee208	-0.46656823
57	0x3dd55e4e	0.10418378
58	0x3d8d49a8	0.068988144
59	0x3d35c673	0.04437871
60	0x3dd3c4f4	0.103403
61	0x3cbab83f	0.022792934
62	0x3cca2c88	0.024679437
63	0x3dbc5c87	0.09197336
64	0xbeb59c78	-0.3547094
65	0xbc9669f4	-0.01836107
66	0x3c637f58	0.013885342
67	0x3ecfb8db	0.4057072
68	0x3d765963	0.06014384
69	0x3f1979de	0.5995158
70	0x3d4f573f	0.050620314
71	0xbea7d0cf	-0.32776496
72	0xbe074ea3	-0.13213591
73	0x3ecf586d	0.4049715
74	0x3d94d54a	0.07267244
75	0x3e8b8a12	0.27253777
76	0xbf171435	-0.5901521
77	0x3ea57b5c	0.32320678
78	0xbdb72d5b	-0.08944198
79	0xbd58b932	-0.05291099
80	0xbd3493d4	-0.044086292
81	0xbf7f27c0	-0.9967003
82	0xbf1bdddc	-0.60885406
83	0xbe7b0913	-0.2451518
84	0xbb039e30	-0.00200833
85	0x3ee4e42e	0.44705337
86	0xbea4a48b	-0.32156786
87	0x3ba1fefc	0.0049437266
88	0x3fc693b8	1.551383
89	0x3e7c3d20	0.24632692
90	0x3e15320b	0.14569871
91	0xbdde8e1b	-0.10866948
92	0x3d2a4dfe	0.041578285
93	0x3e9dd965	0.3082992
94	0xbe608adc	-0.2192797
95	0xbe8af52d	-0.2714018
96	0xbf5067ec	-0.8140857
97	0x3c510505	0.012757544
98	0xbe2629f7	-0.16226946
99	0x3ecf2ca3	0.40463743
100	0xbe7a85c0	-0.24465084
101	0x3f2d49b1	0.6769057
102	0xbea3b4e9	-0.3197396
103	0xbeb85788	-0.3600428
104	0x3d6dcf9e	0.058059327
105	0x3eeb02a0	0.4590044
106	0xbe2a5c4a	-0.16636768
107	0x3ebad46b	0.36490187
108	0xbeb0e288	-0.3454783
109	0x3e635306	0.2219964
110	0xbddcfa96	-0.10789983
111	0x3e0e84d3	0.13917856
112	0xbe15afc4	-0.1461783
113	0xbf26b1a4	-0.6511481
114	0xbe882239	-0.2658861
115	0xbf523ed6	-0.8212713
116	0x3e9bc3ee	0.3042292
117	0x3f4c1a0b	0.7972724
118	0xbd44914d	-0.047990132
119	0x3e6be307	0.23035823
120	0x3f7f23fd	0.9966429
121	0x3e180d46	0.14848813
122	0x3e99bbd9	0.3002613
123	0xbe4660f5	-0.19372924
124	0x3e3026d1	0.17202307
125	0x3e89cca5	0.26913944
126	0xbc9eb9b8	-0.019375667
127	0xbef41f2a	-0.47680026
128	0xbf9af7da	-1.2106888
129	0xbe12c502	-0.14332965
130	0xbe7dd3b5	-0.24787791
131	0x3d2b4b41	0.041819815
132	0xbdf55d29	-0.119806595
133	0x3f70d1c6	0.9407009
134	0xbf98ed4a	-1.1947415
135	0xbcdbcd1e	-0.026831206
136	0x3e68c22e	0.22730324
137	0x3f2cacf1	0.6745139
138	0xbe76b977	-0.24094187
139	0x3eb50281	0.35353473
140	0xbea0dff3	-0.3142086
141	0x3deec962	0.116595045
142	0xbedd0699	-0.43169096
143	0x3e1ae89b	0.15127794
144	0x3d0411bd	0.03224348
145	0xbebc7b0b	-0.36812624
146	0xbedb27eb	-0.42803892
147	0xbd8b142d	-0.067909576
148	0xbce934b5	-0.028467515
149	0x3f39e1b3	0.72610015
150	0x3e20eb01	0.15714647
151	0x3ccdaa7c	0.025105707
152	0x3f1ab4f8	0.60432386
153	0x3ecde031	0.40210107
154	0x3e86862b	0.26274237
155	0x3e8ff425	0.28115955
156	0x3e87fbac	0.26559198
157	0x3e4607cc	0.19338912
158	0x3c45e261	0.012077899
159	0xbe6c5c30	-0.23082042
160	0xbdff838e	-0.12476264
161	0x3dd571b8	0.10422081
162	0xbd5f98dc	-0.054589137
163	0xbe41062c	-0.1885001
164	0x3d94cc5c	0.07265541
165	0xbda62714	-0.08112922
166	0xbe42a1ac	-0.19006985
167	0xbdf115b2	-0.11771716
168	0xbd1a057a	-0.03760288
169	0x3d2b9765	0.041892428
170	0xbe10b623	-0.1413198
171	0x3db45069	0.088043995
172	0xbe009d50	-0.1256001
173	0xbe41e098	-0.18933332
174	0x3c07f8b0	0.008299038
175	0x3dd6970d	0.104780294
176	0x3e071083	0.13189892
177	0x3d87bcfe	0.06627844
178	0xbd93c4c1	-0.07215262
179	0xbea3c7f1	-0.3198848
180	0xbe440f76	-0.19146523
181	0xbe011aac	-0.12607831
182	0xbbabc901	-0.0052424674
183	0xbd94901f	-0.072540514
184	0xbce62686	-0.028094541
185	0xbdc001e1	-0.093753584
186	0xbd7784b9	-0.06042931
187	0xbe27b1c8	-0.16376412
188	0xbdcd24f5	-0.100168146
189	0x3d863e70	0.06554878
190	0xbe1db02d	-0.15399237
191	0xbd973131	-0.073824294
192	0xbee3ee3a	-0.4451769
193	0xbdbb0675	-0.09132091
194	0x3dcde5d0	0.10053599
195	0x3daf63d3	0.08563962
196	0xbecc28e0	-0.39874935
197	0x3f277eae	0.6542767
198	0xbf3b7a64	-0.7323363
199	0xbccebefd	-0.025237555
200	0xbf1fe7bb	-0.6246297
201	0x3ed08a78	0.40730643
202	0xbf80126c	-1.0005622
203	0xbd2c94c6	-0.04213407
204	0x3ebb0b7e	0.36532205
205	0xbf22dc42	-0.63617337
206	0x3f1b1f1d	0.6059435
207	0x3ec34bcb	0.38143763
208	0xbe0ef20b	-0.1395952
209	0xbe58515f	-0.2112479
210	0x3f5c09d5	0.859525
211	0x3f23df4b	0.64012593
212	0xbe238e6b	-0.15972297
213	0x3f1064cd	0.5640381
214	0xbea51e50	-0.3224969
215	0xbd8b319f	-0.06796574
216	0x3f60ccea	0.87812674
217	0x3e6ccb8d	0.23124523
218	0x3c700834	0.014650393
219	0xbefc6c31	-0.49301293
220	0xbd4ed9ac	-0.050500557
221	0xbe7812c3	-0.24225907
222	0xbe02ad82	-0.127615
223	0xbe8efeda	-0.2792881
224	0xbf00ab32	-0.50261223
225	0xbdfa1721	-0.12211443
226	0x3dcf21bc	0.10113856
227	0xbd16de31	-0.036832992
228	0xbd166a74	-0.036722615
229	0x3e3eabbe	0.18620202
230	0xbdaf0207	-0.085453086
231	0xbe9db453	-0.3080164
232	0xbe765255	-0.24054845
233	0x3e344845	0.17605694
234	0xbd24d1c3	-0.040239107
235	0xbe2465c3	-0.16054444
236	0xbe2571d3	-0.16156702
237	0x3e632653	0.22182588
238	0x3ddbd1ba	0.107333615
239	0xbda93a03	-0.08263018
240	0xbd7c201e	-0.061554067
241	0xbedf3d29	-0.4360135
242	0xbf152993	-0.5826656
243	0xbed62b77	-0.41830036
244	0x3d46e2ad	0.04855602
245	0x3ea01e3b	0.31273064
246	0x3b631c25	0.0034654227
247	0xbd986111	-0.07440389
248	0x3f5fe0dc	0.87452483
249	0x3b900ebe	0.0043962887
250	0xbd6ca855	-0.05777772
251	0xbd6db464	-0.058033362
252	0x3e903e53	0.2817255
253	0x3d78949a	0.060688592
254	0xbd39f6d7	-0.04540142
255	0xbea3208b	-0.31860766

gnn.convs.0.nn.lins.1.bias f4 [32]
0	0x3e724d34	0.23662263
1	0xbe0d6d60	-0.13811255
2	0x3e131bd1	0.1436608
3	0x3d4e1877	0.0503163
4	0x3f03ab19	0.5143295
5	0xbdcfdb69	-0.10149271
6	0x3e3529f5	0.17691787
7	0x3cba7ddf	0.022765098
8	0xbef6e6de	-0.48223013
9	0x3e38cb13	0.18046217
10	0x3de7f5da	0.11326189
11	0x3c942d95	0.018088141
12	0x3ef24923	0.47321424
13	0xbf4bd2eb	-0.7961871
14	0xbdad64d2	-0.084664956
15	0xbe515b11	-0.20444895
16	0xbdafcfa6	-0.08584528
17	0xbe7ded0f	-0.24797462
18	0xbe29e775	-0.165922
19	0xba4b6415	-0.0007758749
20	0xbe49796b	-0.19675224
21	0x3e22612a	0.15857378
22	0x3e6753d9	0.22590579
23	0xbe4ff921	-0.20309879
24	0xbc874631	-0.016512962
25	0xbe92db18	-0.2868278
26	0xbd1c34d5	-0.038136322
27	0xbd83986f	-0.06425559
28	0x3e038656	0.12844214
29	0xbe6d52a3	-0.23176055
30	0xbf0db89c	-0.55359817
31	0xbe465b6e	-0.19370815

gnn.convs.1.nn.lins.0.weight f4 [32, 32]
0	0x3e0266c6	0.12734517
1	0xbe52f13a	-0.20599833
2	0xbe268a7d	-0.16263767
3	0xbdf8be0e	-0.12145625
4	0x3ddc06b4	0.10743466
5	0xbd27aa5e	-0.04093396
6	0xbe268c32	-0.16264418
7	0x3e811527	0.2521145
8	0xbc94a7ba	-0.018146385
9	0x3e361035	0.1777962
10	0x3b9f2137	0.0048562544
11	0xbded1e33	-0.11578026
12	0xbfde0707	-1.7345895
13	0x3e8001fc	0.25001514
14	0x3af37a2a	0.0018575836
15	0xbe23858a	-0.1596891
16	0xbe873e7f	-0.26414868
17	0xbe37e58c	-0.17958659
18	0x3d96602d	0.07342563
19	0xbdd833e3	-0.105567716
20	0xbced5e3c	-0.028975599
21	0x3f0569b8	0.5211444
22	0x3e477596	0.19478449
23	0xbdc6b1f9	-0.09701914
24	0x3d4679ee	0.048456125
25	0xbe70226a	-0.23450628
26	0xbdb69201	-0.08914567
27	0xbca6f255	-0.020379225
28	0x3bc93c43	0.006141217
29	0xbdda41e6	-0.106571004
30	0x3e98abb1	0.2981849
31	0xbc29f495	-0.010373254
32	0x3ece2e71	0.40269807
33	0xbe5f5e3e	-0.21813294
34	0x3eea1b26	0.45723838
35	0x3e8ffeaf	0.28123996
36	0x3f242063	0.6411192
37	0xbdb67404	-0.08908847
38	0x3e590f57	0.21197258
39	0x3da7470f	0.0816785
40	0x3f356731	0.7086058
41	0xbe499675	-0.19686301
42	0x3b25dcd0	0.0025308616
43	0xbd62af10	-0.055342734
44	0x3f2a37e8	0.66491556
45	0xbf5eaf0b	-0.86985844
46	0x3d73a84b	0.05948667
47	0x3d51443a	0.051090457
48	0x3fbdb2fb	1.4820246
49	0xbe52eb7b	-0.20597641
50	0x3ebb9e88	0.36644387
51	0x3e3d2e24	0.18474633
52	0x3e2418b2	0.16025046
53	0x3e70a251	0.23499419
54	0x3ea9df94	0.3317839
55	0xbe0c7936	-0.13718113
56	0x3e709efc	0.23498148
57	0x3e7c6077	0.24646173
58	0x3d9fd38e	0.07804023
59	0x3e286840	0.16446018
60	0x3c0d697c	0.0086311065
61	0xbe922431	-0.28543237
62	0xbee8826c	-0.45412004
63	0x3e2b923a	0.16755
64	0xbdd0eb9d	-0.1020119
65	0xbc3a8a38	-0.011385493
66	0x3cda44a8	0.026644066
67	0x3dd3ac51	0.10335601
68	0xbdc81c28	-0.097709954
69	0x3e2a19c8	0.16611397
70	0xbe531ad9	-0.2061571
71	0xbe0f926e	-0.14020702
72	0xbd646969	-0.05576459
73	0xbdb8ee20	-0.09029794
74	0x3cd2d196	0.025734704
75	0xbd7f7db8	-0.062375754
76	0xbe3f5b95	-0.1868728
77	0xbdfa5f95	-0.12225262
78	0x3db75334	0.089514166
79	0x3d6ccf59	0.05781493
80	0xbe195a84	-0.14975935
81	0x3d7e7b97	0.062129583
82	0xbd73f6f5	-0.05956169
83	0x3bb2130d	0.0054344
84	0x3db89af1	0.09013928
85	0xbe6f6f90	-0.23382401
86	0x3d5d789a	0.054070093
87	0xbe4d599e	-0.20053717
88	0xbcbac17e	-0.022797342
89	0xbd322c79	-0.043499444
90	0xbd82720d	-0.0636941
91	0x3da826b3	0.08210506
92	0x3cf2cae2	0.029637758
93	0xbe73292d	-0.23746176
94	0x3d706668	0.058691412
95	0x3d38a6d7	0.045080986
96	0xbc7e8195	-0.015533824
97	0x3cde0a1b	0.027104428
98	0xbe046638	-0.12929618
99	0xbd8c3220	-0.06845498
100	0x3e436132	0.19080046
101	0x3dba9aa6	0.09111528
102	0xbc7aae79	-0.015300387
103	0x3ca2d717	0.019877953
104	0x3da09a72	0.07841958
105	0x3db98ab6	0.0905966
106	0x3e194ada	0.1496996
107	0xbe15ec08	-0.1464082
108	0xbfa3ea6c	-1.2805915
109	0xbdc93212	-0.09824003
110	0xbd845ff5	-0.06463615
111	0xbddb6b76	-0.10713856
112	0x3de5d297	0.112218075
113	0xbc67d559	-0.014149987
114	0x3e46afd9	0.19403018
115	0xbd6208b4	-0.05518408
116	0xbca1865a	-0.019717384
117	0xbe6aef7d	-0.2294292
118	0x3e2e0d0c	0.16997164
119	0x3d74cab8	0.05976364
120	0xbd935cfa	-0.07195468
121	0x3d70282e	0.05863207
122	0x3e2b1d95	0.16710503
123	0xbcdc3810	-0.026882201
124	0xbdd0d46a	-0.10196765
125	0xbe3a9021	-0.18219043
126	0xbe46169f	-0.19344567
127	0xbda64e5b	-0.08120414
128	0x3e6c4c7e	0.23076054
129	0xbdb99520	-0.090616465
130	0x3e691ce5	0.22764929
131	0x3e96ad7f	0.29429242
132	0x3f1c575c	0.610708
133	0xbd3b454b	-0.04572038
134	0x3ea9c27e	0.33156198
135	0xbd500b22	-0.050791867
136	0x3e5c780b	0.21530168
137	0x3c6a3b03	0.014296296
138	0x3c085b3c	0.008322533
139	0xbd780c77	-0.060558762
140	0x3f636e67	0.88840336
141	0xbf8a7631	-1.0817319
142	0x3d1ae8cb	0.037819665
143	0x3e8e91a0	0.27845478
144	0x3e6b450a	0.22975555
145	0xbd936055	-0.07196108
146	0x3dc8b134	0.09799424
147	0xbd149c4e	-0.036281876
148	0x3d71cc52	0.059032746
149	0x3ebac371	0.36477235
150	0x3ea02055	0.31274667
151	0x3e2399b8	0.15976608
152	0x3eacabb7	0.33724758
153	0x3dc971ac	0.09836134
154	0x3e34a431	0.17640759
155	0xbd5adb58	-0.05343184
156	0x3db8bdf3	0.09020605
157	0xbe795695	-0.24349435
158	0xbef8dae4	-0.486045
159	0x3d6f535d	0.05842911
160	0xbce1b7f0	-0.027553529
161	0xbdfe0d2c	-0.12404856
162	0xbe2f7e6e	-0.17138073
163	0xbe0ec84f	-0.13943599
164	0xbe3aa616	-0.1822742
165	0x3d9a5314	0.07535377
166	0xbc6b87fe	-0.014375685
167	0xbd8cf91b	-0.068834506
168	0xbed706fe	-0.41997522
169	0xbbacb9a9	-0.005271156
170	0x3d89e87f	0.06733798
171	0xbc592aae	-0.013254805
172	0xbe738742	-0.23782066
173	0x3e439547	0.19099914
174	0x3cde5e04	0.02714444
175	0xbe33a1b2	-0.1754215
176	0xbd53ab9e	-0.05167734
177	0xbe3fb84d	-0.18722649
178	0x3daf9fac	0.08575377
179	0xbddcdf6f	-0.10784804
180	0xbd292ef6	-0.04130455
181	0xbe9411e0	-0.28919888
182	0xbe935580	-0.2877617
183	0xbe04a554	-0.12953693
184	0x3dca0381	0.098639496
185	0x3db06d44	0.08614591
186	0xbce32a29	-0.027730064
187	0xbe6a9a14	-0.22910339
188	0xbcc8021a	-0.024415065
189	0xbdb6cae2	-0.089254156
190	0xbead0053	-0.3378931
191	0x3e17ab37	0.14811407
192	0x3e1a0ae6	0.1504322
193	0x3cfd7996	0.030941766
194	0xbcfbe32b	-0.03074797
195	0xbe3da05c	-0.18518203
196	0x3a2090d7	0.00061250984
197	0xbcf7c46e	-0.030245032
198	0x3ca6454e	0.020296719
199	0xbe066e35	-0.13127978
200	0x3ec2535c	0.37954223
201	0xbe1a743a	-0.150834
202	0xbe447a17	-0.19187199
203	0x3dbd4bd5	0.092429794
204	0x3ed26b43	0.4109746
205	0xbe83040c	-0.25589025
206	0x3d8e2aed	0.06941781
207	0x3cb77984	0.02239681
208	0x3deb3e4c	0.114864916
209	0xbeb907b5	-0.36138692
210	0xbe4e3360	-0.20136786
211	0xbcf662e6	-0.030076455
212	0xbe0735d2	-0.13204125
213	0xbcae3801	-0.02126694
214	0xbd9dda9d	-0.07707713
215	0xbe5776d9	-0.2104143
216	0x3cadac23	0.021200245
217	0x3d4bfe1c	0.049802884
218	0x3c8dd1f2	0.017312024
219	0xbe62b8eb	-0.22140853
220	0x3deb4c70	0.11489189
221	0xbecaf1e2	-0.39637667
222	0xbf08997e	-0.5335921
223	0x3e0e176b	0.13876121
224	0x3ea84403	0.3286439
225	0xbd3fdf3c	-0.046843752
226	0x3e85e1ad	0.2614874
227	0x3ec2e85d	0.38067904
228	0x3f229578	0.6350932
229	0xbd92e267	-0.07172089
230	0x3e2ca19c	0.16858524
231	0x3d7275e5	0.059194464
232	0x3e80dd85	0.25169006
233	0xbd935ffd	-0.07196043
234	0x3cb61c9a	0.022230435
235	0x3d6ee8a9	0.05832735
236	0x3f8cb0d9	1.099147
237	0xbf83be8a	-1.0292523
238	0x3dfa182d	0.122116424
239	0x3dff3a20	0.12462258
240	0x3e2ceafa	0.16886511
241	0xbe4b800d	-0.19873066
242	0x3e0d6439	0.13807763
243	0xbd2e03bb	-0.042484026
244	0x3dedb3d5	0.11606566
245	0x3ec86a63	0.39143667
246	0x3e8e6421	0.27810767
247	0x3db9101b	0.09036275
248	0x3cf6f406	0.030145656
249	0x3dfdd541	0.123941906
250	0x3ca0caeb	0.019628009
251	0x3d35c332	0.044375606
252	0x3e99facd	0.30074158
253	0xbe98c831	-0.29840234
254	0xbf17c3e3	-0.59283274
255	0xbd15a0d0	-0.036530316

gnn.convs.1.nn.lins.0.bias f4 [32]
0	0x3f2e2b5d	0.6803492
1	0x3e0746e0	0.1321063
2	0x3d223d25	0.039609093
3	0xbd85eb5d	-0.065390326
4	0xbd51c7f5	-0.051216085
5	0xbd62e18d	-0.055390883
6	0x3def5831	0.11686743
7	0xbd167a6d	-0.036737848
8	0xbe50cf46	-0.20391569
9	0xbec0acfb	-0.37631974
10	0x3d2cb05a	0.04216037
11	0xbda9736d	-0.08273969
12	0xbeb063a6	-0.34451026
13	0x3f033374	0.51250386
14	0x3e1639c5	0.14670475
15	0x3f233838	0.6375766
16	0xbe199596	-0.14998469
17	0xbe7b4f48	-0.24541962
18	0xbd8ec05b	-0.06970283
19	0xbeb25ad5	-0.34834924
20	0xbf22bbc6	-0.6356777
21	0xbf7debde	-0.9918803
22	0xbddef1ca	-0.10885961
23	0x3e50d494	0.20393592
24	0xbed8793b	-0.42279992
25	0xbe5ee8b6	-0.2176846
26	0x3ba6c76f	0.0050896923
27	0x3e1f2ac1	0.15543653
28	0x3d81d77a	0.06339927
29	0x3d867311	0.06564916
30	0x3c9972ff	0.018731592
31	0xbe62cda6	-0.22148761

gnn.convs.1.nn.lins.1.weight f4 [32, 32]
0	0xbe00b298	-0.12568128
1	0x3e5be153	0.21472673
2	0x3e0a63de	0.13514659
3	0xbd44b007	-0.048019435
4	0x3efbb004	0.49157727
5	0x3e115648	0.1419307
6	0x3dfea9b1	0.1243471
7	0x3ead8f43	0.33898363
8	0x3cef8d9e	0.029242333
9	0x3d9bad37	0.076013975
10	0xbdd80f9d	-0.10549853
11	0x3d46719a	0.048448183
12	0xbe58a149	-0.21155275
13	0xbe7eecec	-0.24895066
14	0x3dcd0e33	0.10012474
15	0xbe13a73c	-0.14419264
16	0xbe2931ed	-0.16522951
17	0xbd07fd75	-0.0332007
18	0xbe213785	-0.15743835
19	0x3e64e5e6	0.22353324
20	0xbdaed8dc	-0.085374564
21	0xbf548ade	-0.83024395
22	0x3e5f7f8e	0.21826002
23	0xbe29d6b3	-0.16585808
24	0xbd8e9caf	-0.06963479
25	0x3c48689b	0.012231971
26	0x3e28d525	0.16487558
27	0x3e689d17	0.22716175
28	0xbdfc07f8	-0.123062074
29	0x3e728e2a	0.23687044
30	0xbdd5100a	-0.1040345
31	0xbcfee071	-0.031112881
32	0xbe4b1459	-0.19831981
33	0x3ee86a3b	0.45393547
34	0x3e0440e3	0.12915377
35	0x3dacf38a	0.08444889
36	0x3e4b5344	0.19855982
37	0x3be60bf7	0.0070204693
38	0x3d2d05b7	0.04224178
39	0x3ef19ae7	0.47188494
40	0xbd33a61c	-0.043859586
41	0xbe0709e5	-0.13187368
42	0x3c2e62a4	0.010643635
43	0x3dc438a5	0.095811166
44	0xbc970504	-0.018435009
45	0xbebb0dfe	-0.36534113
46	0x3e6ba194	0.23010856
47	0xbebed32d	-0.3727049
48	0x3c8105c0	0.015749812
49	0xbe2b17cf	-0.16708301
50	0xbf01c804	-0.50695825
51	0x3ea36537	0.31913158
52	0x3c432baa	0.011912266
53	0xbf88bc09	-1.0682384
54	0x3f02e52d	0.51130944
55	0xbd595f95	-0.05306967
56	0xbe7a3b5b	-0.24436705
57	0xbdb100a2	-0.08642699
58	0xbe6da0d6	-0.23205885
59	0x3e56d408	0.20979321
60	0x3da162d5	0.07880179
61	0xbca97ec9	-0.020690339
62	0xbd660c00	-0.056163788
63	0xbd5ac29c	-0.05340825
64	0xbe1255d8	-0.1429056
65	0xbdfa60da	-0.12225504
66	0x3dad2fdd	0.08456395
67	0xbda88ebc	-0.082303494
68	0x3e7c738c	0.24653453
69	0xbd944386	-0.072394416
70	0xbdd34e53	-0.103176735
71	0x3d72f4c0	0.059315443
72	0xbd48167f	-0.04884958
73	0xbe343b58	-0.17600763
74	0xbe892698	-0.26787257
75	0x3d35f848	0.044426233
76	0xbd659fbd	-0.05606054
77	0xbecdec0d	-0.40219155
78	0x3e16df87	0.14733706
79	0xbe81b6c5	-0.25334755
80	0x3db356af	0.08756768
81	0x3de93261	0.11386562
82	0xbdc73a8e	-0.09727965
83	0x3ea23812	0.31683403
84	0xbedab0c5	-0.4271299
85	0xbfa24f23	-1.2680401
86	0x3c123732	0.008924292
87	0x3d0813d1	0.033222023
88	0xbe14dd90	-0.14537644
89	0x3d08469b	0.03327046
90	0xbd9837f7	-0.074325494
91	0xbd8b5694	-0.06803623
92	0xbe0f5dec	-0.14000672
93	0xbe06df79	-0.13171186
94	0xbdb273f8	-0.087135255
95	0xbd367372	-0.04454369
96	0xbd798a3d	-0.06092285
97	0x3e6bda09	0.23032393
98	0xbd9de34e	-0.077093706
99	0x3d2ae23c	0.04171966
100	0x3ed5a8e2	0.4173041
101	0x3cee5769	0.029094415
102	0xbdee9618	-0.11649722
103	0x3ee66b09	0.45003536
104	0x3d48af6c	0.04899542
105	0x3c272f7e	0.010204194
106	0xbeb63d1e	-0.35593504
107	0x3dbfa706	0.09358029
108	0xbe095292	-0.13410404
109	0xbdbcf15d	-0.09225724
110	0x3e8e0bd0	0.27743387
111	0xbe812a0a	-0.25227386
112	0x3de0cb48	0.10976273
113	0xbd43ad6d	-0.047772814
114	0xbbc57693	-0.006026098
115	0x3eb60b11	0.35555318
116	0xbe7657ba	-0.24056903
117	0xbf6cae63	-0.92453593
118	0x3e4e226e	0.20130321
119	0x3dd783f3	0.10523214
120	0x3e0e7976	0.13913521
121	0xbd02b18c	-0.031907603
122	0xbc612b24	-0.013743196
123	0x3e84c501	0.25931552
124	0x3e445221	0.19171955
125	0x3d7d59e1	0.061853293
126	0xbb4706f5	-0.0030369137
127	0xbd17cea0	-0.037062287
128	0xbe20af2c	-0.15691823
129	0xbe210b71	-0.15727021
130	0xbe184179	-0.14868726
131	0xbe0eb83c	-0.13937467
132	0xbe16e4e8	-0.14735758
133	0xbe41b0cc	-0.18915099
134	0xbdd9f233	-0.10641899
135	0xbddc7834	-0.107651144
136	0xbe313519	-0.17305411
137	0xbd8dd2fe	-0.06925009
138	0xbd447272	-0.047960706
139	0xbbd94c17	-0.006631385
140	0xbe879528	-0.26480985
141	0x3d9609eb	0.073261105
142	0xbe2ceecc	-0.16887969
143	0xbdf6e141	-0.120546825
144	0xbe9ca7b6	-0.30596703
145	0xbd378b2b	-0.044810455
146	0x3d5f159e	0.054463975
147	0xbda31708	-0.07963377
148	0xbc477b18	-0.012175344
149	0xbe1ca20e	-0.15296194
150	0xbe040d35	-0.12895663
151	0x3e8eb2ef	0.2787089
152	0xbd6feb43	-0.058573972
153	0xbe4221a3	-0.18958144
154	0xbd901f7e	-0.07037257
155	0xbd349c38	-0.044094294
156	0xbd5120b2	-0.05105657
157	0xbe560a5a	-0.20902386
158	0x3d75db99	0.060023878
159	0x3e50061e	0.20314834
160	0x3cb57d6d	0.022154534
161	0x3d458130	0.048218906
162	0xbe4cf2a0	-0.20014429
163	0x3ccc954d	0.024973536
164	0xba8d6704	-0.0010788147
165	0x3bc7af38	0.0060938857
166	0xbdfb7700	-0.12278557
167	0x3bd25278	0.0064185224
168	0x3e065e0f	0.13121818
169	0xbdfa034e	-0.122076616
170	0xbf2c1f95	-0.6723569
171	0x3d4881e6	0.048952006
172	0xbdfb25e2	-0.12263085
173	0xbdc45092	-0.0958568
174	0xbe4102e6	-0.18848762
175	0xbebbe9b7	-0.36701748
176	0xbdfb9f28	-0.12286216
177	0xbd9f4801	-0.077774055
178	0x3d4552a6	0.048174523
179	0xbe17b917	-0.148167
180	0x3d464944	0.048409715
181	0x3c2d4d4b	0.01057751
182	0x3da73eb8	0.081662595
183	0x3b96d158	0.0046025924
184	0x3df09ed2	0.117490426
185	0xbdc883d3	-0.097907685
186	0xbdc967a4	-0.09834221
187	0xbe1d4185	-0.15357025
188	0xbd95b093	-0.073090695
189	0xbe7c76d5	-0.24654706
190	0x3dbc0cbc	0.091821164
191	0xbdad621f	-0.08465981
192	0xbe540eb3	-0.20708732
193	0xbefa9c36	-0.48947304
194	0x3c1684df	0.009186952
195	0x3ce0aed8	0.027427122
196	0xbea4a161	-0.32154372
197	0x3d1b6026	0.03793349
198	0x3dafc090	0.0858165
199	0xbdb22055	-0.08697573
200	0xbe3eb793	-0.18624716
201	0x3dace846	0.0844274
202	0xbd9a7e30	-0.075435996
203	0x3e2889b2	0.16458777
204	0x3d53c632	0.051702686
205	0xbdf5f452	-0.12009491
206	0xbd97c9ce	-0.07411538
207	0xbe285ae5	-0.16440924
208	0xbe66dc89	-0.22545065
209	0x3e03e3e6	0.12879905
210	0x3e29a02c	0.16565007
211	0x3d038352	0.03210766
212	0xbda79d39	-0.08184285
213	0x3f7ce8cd	0.98792726
214	0xbeb3f548	-0.35148072
215	0x3e412e94	0.18865424
216	0xbe5e0a6e	-0.21683666
217	0x3cba56f2	0.022746537
218	0x3c6a6a16	0.014307519
219	0x3b81458b	0.0039450577
220	0x3c60d2d3	0.013722139
221	0xbe6b9761	-0.23006965
222	0x3cec0b75	0.028814057
223	0x3e275502	0.16341022
224	0xbe87ddd3	-0.26536426
225	0xbdb64f3d	-0.08901832
226	0x3cabb1c4	0.020958789
227	0xbdb0e4cb	-0.08637389
228	0xbd117b98	-0.03551826
229	0x3d672bbe	0.0564382
230	0xbe088fe5	-0.13336141
231	0x3d819938	0.06328052
232	0xbce1b639	-0.02755271
233	0x3e33b75c	0.17550415
234	0x3d35167b	0.044210892
235	0xbd050d5b	-0.03248344
236	0xbe8de287	-0.2771189
237	0xbe63722c	-0.22211522
238	0xbbbfdc03	-0.005855085
239	0xbea2c58b	-0.31791338
240	0x3d0b5e85	0.034025688
241	0x3e82809e	0.25488752
242	0x3dab913b	0.0837731
243	0xbdf5f95e	-0.12010454
244	0xbd4ef974	-0.050530866
245	0xbe262022	-0.16223195
246	0xbe7b34a6	-0.24531803
247	0xbdebba7b	-0.11510178
248	0x3d80bf82	0.06286527
249	0xbe04c7a0	-0.12966776
250	0x3e5f6d29	0.21818985
251	0xbe437d62	-0.19090798
252	0xbd854300	-0.0650692
253	0xbc0d0022	-0.008605989
254	0x3d7d40dc	0.061829433
255	0x3e75e9f0	0.24015021

gnn.convs.1.nn.lins.1.bias f4 [32]
0	0x3e13c4a6	0.14430484
1	0xbd2f46a3	-0.042791974
2	0x3dd98267	0.106205754
3	0x3d13c9b0	0.036081016
4	0xbc0e4a3b	-0.00868469
5	0xbe7656d4	-0.2405656
6	0x3d2f0584	0.04272987
7	0xbcd5145b	-0.026010683
8	0xbc6efa87	-0.014586098
9	0x3e44870a	0.19192138
10	0x3dab7134	0.08371201
11	0xbe191803	-0.14950566
12	0xbe150adb	-0.14554922
13	0x3d196464	0.037449256
14	0xbcdcfb01	-0.026975157
15	0xbed2b501	-0.4115372
16	0x3d07dfcc	0.033172414
17	0xbe22f74a	-0.15914646
18	0xbe34e051	-0.17663695
19	0xbf0a78e2	-0.540907
20	0x3da07292	0.078343526
21	0x3de69523	0.11258914
22	0x3d939b5a	0.07207365
23	0xbdfb65cc	-0.122752756
24	0x3dd7a7b6	0.10530035
25	0xbe32c976	-0.17459664
26	0xbdb9dbb1	-0.09075106
27	0xbdd5de63	-0.104428075
28	0xbeb1c60b	-0.34721407
29	0x3d1d6c34	0.03843327
30	0x3eb53d39	0.35398272
31	0xbb04ff4a	-0.0020293766

gnn.convs.2.nn.lins.0.weight f4 [32, 32]
0	0xbead7636	-0.3387925
1	0xbef0c8b7	-0.47028133
2	0xbdecc274	-0.115605265
3	0xbe431088	-0.19049275
4	0xbd077381	-0.033069137
5	0x3e3244f8	0.17409122
6	0x3d7b9160	0.061417937
7	0x3d782190	0.060578883
8	0x3e3e718a	0.18597999
9	0xbdbb22a1	-0.09137464
10	0xbea47ef5	-0.3212811
11	0xbc1fd3b4	-0.009755064
12	0xbda7cd82	-0.081934944
13	0x3d6adb20	0.05733788
14	0x3d0e1604	0.034688964
15	0x3e2f0054	0.17089969
16	0x3df6fc4b	0.1205984
17	0xbd4c118e	-0.04982143
18	0xbab80374	-0.0014039115
19	0xbdb1138b	-0.08646306
20	0x3d84613d	0.06463859
21	0xbee62d03	-0.44956216
22	0xbe7a8652	-0.24465302
23	0xbe9f3051	-0.3109155
24	0xbf0aa5f1	-0.54159456
25	0x3dd5529d	0.10416148
26	0xbca4fabc	-0.02013909
27	0xbdf13795	-0.117781796
28	0xbda9d648	-0.08292824
29	0xbd94d71b	-0.072675906
30	0xbe855c27	-0.2604687
31	0xbee2d98f	-0.4430661
32	0x3e5f10c5	0.21783741
33	0x3e763355	0.24043019
34	0x3e66d85d	0.22543474
35	0x3e283278	0.16425502
36	0x3ce63ee5	0.028106162
37	0x3e85fdfe	0.26170343
38	0xbdcabd10	-0.09899342
39	0xbd3f7585	-0.046742935
40	0x3d265ace	0.04061394
41	0x3efea8f7	0.49738285
42	0x3d81bc16	0.06334703
43	0xbe75e68c	-0.24013728
44	0x3e16d17e	0.14728352
45	0x3e5023d6	0.2032617
46	0x3dd0682c	0.10176119
47	0x3e3e372d	0.18575735
48	0x3e02d3e7	0.12776147
49	0x3ceaa3a4	0.028642483
50	0x3dfa2ac6	0.1221519
51	0x3e17150e	0.14754125
52	0xb8e382ef	-0.00010848592
53	0x3e7f9bea	0.2496182
54	0x3e3d46c1	0.18484022
55	0xbb00e297	-0.0019666308
56	0x3d81c2b3	0.06335964
57	0xbe26b399	-0.16279449
58	0xbd8ad887	-0.067795806
59	0x3f3bdc87	0.73383373
60	0xbd33dbca	-0.04391078
61	0x3e2d178f	0.16903518
62	0x3f06423d	0.5244482
63	0xbe21cb4f	-0.15800212
64	0xbe70f48c	-0.23530787
65	0xbeb19c78	-0.3468969
66	0x3da009cb	0.07814368
67	0xbe43a538	-0.19105995
68	0xbe114082	-0.14184764
69	0xbdd09bdd	-0.101859786
70	0xbe361487	-0.17781268
71	0x3c8cd5ed	0.017191852
72	0xbd6110bd	-0.054947603
73	0xbe28894a	-0.16458622
74	0x3d8f98c1	0.07011557
75	0xbd5880d3	-0.05285723
76	0xbd9488b1	-0.07252634
77	0x3cd904f4	0.02649162
78	0xbe10133b	-0.14069836
79	0xbd9ed4b7	-0.07755416
80	0xbe329469	-0.17439426
81	0xbcb818e3	-0.022472804
82	0xbe6311ba	-0.22174731
83	0x3e2f7b0e	0.17136785
84	0xbe3c4aec	-0.18387955
85	0xbe2dcf2f	-0.16973566
86	0x3df25404	0.11832431
87	0xbe070799	-0.13186492
88	0xbe44a424	-0.1920324
89	0xbe3fc9f6	-0.18729386
90	0xbdce4dc3	-0.100734256
91	0xbe3f4226	-0.18677577
92	0x3d92a904	0.071611434
93	0xbe13dc97	-0.14439617
94	0x3c32efff	0.010921477
95	0xbd2d1720	-0.04225838
96	0x3da45f87	0.08026033
97	0x3ecdbe1c	0.40184104
98	0x3f0a6fd9	0.54076916
99	0x3d4ab676	0.049490415
100	0xbd8197ec	-0.06327805
101	0x3ebcf30e	0.36904186
102	0xbdc6f02b	-0.09713777
103	0x3d0e7810	0.03478247
104	0x3e49a178	0.19690502
105	0x3f065a96	0.52481973
106	0xbdc44ed0	-0.09585345
107	0xbe41f362	-0.189405
108	0x3d5b9bff	0.053615566
109	0xbdc6b225	-0.09701947
110	0x3e29ff03	0.16601186
111	0x3ea41b51	0.3205209
112	0x3e1b492d	0.15164633
113	0xbde6d661	-0.11271358
114	0xbb6abccd	-0.00358181
115	0x3ed4e7c4	0.41583073
116	0xbc58b846	-0.013227528
117	0x3e3d5af8	0.18491733
118	0x3e671738	0.22567451
119	0xbc8904fc	-0.01672601
120	0x3e5aab93	0.21354513
121	0xbd9f62cc	-0.07782516
122	0xbdd191bf	-0.10232877
123	0x3f125c2b	0.5717189
124	0xbe472c6f	-0.19450544
125	0x3e9216b6	0.28532952
126	0x3ed6643d	0.4187335
127	0xbe152470	-0.14564681
128	0xbd44682c	-0.04795091
129	0xbd657570	-0.0560202
130	0xbe2b006d	-0.16699381
131	0xbe624dc7	-0.22099982
132	0x3e139f2d	0.1441619
133	0xbd9339a3	-0.07188728
134	0xbdc9cb22	-0.09853198
135	0xbd333b91	-0.04375798
136	0xbe052934	-0.13003999
137	0xba829efd	-0.0009965595
138	0xbdbad2d5	-0.09122244
139	0xbe94f08f	-0.29089782
140	0x3e61f0dc	0.22064537
141	0x3d47d1a9	0.048783932
142	0x3d2f77d2	0.04283888
143	0xbe444f15	-0.19170792
144	0x3d4f4ddb	0.050611358
145	0xbcbf147f	-0.023325203
146	0x3de71eb6	0.112851545
147	0x3ddd2d6e	0.10799681
148	0xbe5fb1af	-0.21845125
149	0x3bfa35d3	0.007635811
150	0x3dfc221c	0.12311193
151	0xbe529427	-0.20564328
152	0xbcb22a0a	-0.021748561
153	0x3cfcdf16	0.030868094
154	0xbe0ab93f	-0.13547228
155	0xbdfd2cd0	-0.12362063
156	0xbdbf3580	-0.09336376
157	0xbe4ec9ad	-0.2019412
158	0x3d715de8	0.058927447
159	0x3d2ef6e4	0.042715922
160	0x3eb1bfbc	0.34716594
161	0x3e86b407	0.26309225
162	0x3e9c9b99	0.30587462
163	0x3e68a216	0.22718081
164	0x3adb39d2	0.0016725606
165	0x3e413bb2	0.18870428
166	0x3e43dfbe	0.1912832
167	0xbdde05c0	-0.108409405
168	0x3e19f829	0.15036072
169	0x3ed276a7	0.4110615
170	0x3e298f93	0.16558675
171	0xbe679c33	-0.22618179
172	0x3d48c436	0.049015246
173	0xbcdd758b	-0.027033588
174	0xbda73b43	-0.081656
175	0x3ebc07d4	0.36724722
176	0xbd995798	-0.0748741
177	0xbe01e8c9	-0.12686457
178	0x3d540d85	0.051770706
179	0x3e90d93f	0.28290746
180	0xbd7729ca	-0.060342588
181	0x3eabfe86	0.33592623
182	0x3da1900f	0.07888805
183	0xbc8cc917	-0.01718573
184	0x3eb21d11	0.347878
185	0xbcd1af42	-0.025596265
186	0x3dad541c	0.08463308
187	0x3f05ef00	0.5231781
188	0x3d51ac15	0.0511895
189	0x3d8641d3	0.06555524
190	0x3f0a26df	0.5396556
191	0xbdac7de0	-0.08422446
192	0xbeea8032	-0.4580093
193	0xbe36e85c	-0.17862076
194	0x3da5ca52	0.0809523
195	0x3dfae3b1	0.1225046
196	0x3e7ed8a8	0.24887335
197	0x3d97d5e1	0.07413841
198	0xbd14b8dc	-0.03630911
199	0xbd1e202d	-0.038604904
200	0xbdf3f550	-0.11912024
201	0xbe2bb3f6	-0.16767868
202	0xbe5e09da	-0.21683446
203	0xbe65ac08	-0.22428906
204	0xbb6b3115	-0.003588741
205	0xbdfe5f98	-0.12420577
206	0xbe1d2f3f	-0.15350054
207	0xbd19c62e	-0.037542515
208	0xbd7da5e7	-0.061925795
209	0x3dc1b339	0.09458012
210	0x3ddce694	0.10786167
211	0xbe22496e	-0.15848324
212	0xbea2da68	-0.31807256
213	0xbede71b5	-0.43446127
214	0x3daa93bc	0.08328959
215	0xbdb8e3c3	-0.09027817
216	0x3cadb02b	0.021202167
217	0x3d7b6a84	0.061380878
218	0x3b9abab5	0.0047219642
219	0xbe91add8	-0.28452945
220	0x3e1d5aad	0.15366621
221	0xbe79c49c	-0.24391407
222	0x3d945da6	0.072444245
223	0xbd16c308	-0.03680709
224	0x3bef3a3f	0.0073006446
225	0x3dbc3024	0.091888696
226	0xbc84b172	-0.016197894
227	0xbe2e184f	-0.1700146
228	0xbe065998	-0.13120115
229	0x3d438e49	0.047743116
230	0xbe3d44af	-0.18483232
231	0xbda9cbd9	-0.08290834
232	0x3d837d68	0.06420404
233	0xbd94feee	-0.072751865
234	0xbe5c5eec	-0.21520585
235	0xbe1c7dfc	-0.15282434
236	0xbe0856bf	-0.13314341
237	0xbdf79c5f	-0.12090372
238	0xbd7d3fe1	-0.061828498
239	0xbd83a7d0	-0.06428492
240	0xbe06dedd	-0.13170953
241	0x3e0d2131	0.13782193
242	0x3d010ba7	0.031505253
243	0x3de36811	0.111038335
244	0xbe39aa3f	-0.1813135
245	0xbe475982	-0.19467738
246	0x3d00f9eb	0.03148834
247	0xbc4442b3	-0.011978793
248	0xbe13f6e3	-0.14449649
249	0x3db10ff1	0.08645619
250	0x3d044ad0	0.03229791
251	0xbdb4818a	-0.0881377
252	0xbd91d5d3	-0.07120862
253	0xbe7834e4	-0.24238926
254	0xbdac2b5c	-0.08406708
255	0xbd444fa6	-0.04792752

gnn.convs.2.nn.lins.0.bias f4 [32]
0	0xbd4027a4	-0.046912804
1	0xbc5249d9	-0.0128349895
2	0xbdb70cc4	-0.08937982
3	0x3cdfdaac	0.02732595
4	0x3d04d671	0.03243107
5	0x3d7c1cf5	0.061551053
6	0xbe3e4e29	-0.18584503
7	0xbd3dae6b	-0.046308916
8	0x3d1b3b25	0.0378982
9	0x3c500288	0.012695916
10	0xbd92a640	-0.07160616
11	0x3e1281ea	0.14307371
12	0xbdb7a99e	-0.08967899
13	0x38971a19	7.205102e-05
14	0xbe9b9b9e	-0.30392164
15	0x3baff2b2	0.0053695077
16	0xbb7906cb	-0.0037998434
17	0xbe595d49	-0.21226992
18	0xbd88d708	-0.06681639
19	0x3ba42353	0.005009094
20	0x3dda829c	0.10669443
21	0xbdfb867d	-0.12281511
22	0xbc40dc4e	-0.011771275
23	0x3e56c71e	0.20974395
24	0x3cd45d05	0.025923261
25	0x3d9c8d7c	0.076441735
26	0x3e89c1e2	0.26905733
27	0x3df8b213	0.1214334
28	0x3b4cf020	0.0031271055
29	0xbc09992b	-0.0083983345
30	0xbd0ae22d	-0.033907104
31	0xbe530066	-0.2060562

gnn.convs.2.nn.lins.1.weight f4 [32, 32]
0	0x3be8fcbb	0.007110206
1	0x3e902811	0.28155568
2	0xbdb97c73	-0.0905694
3	0x3e464695	0.19362862
4	0x3e4f34ad	0.20234938
5	0x3e597c4d	0.21238823
6	0xbcd8d141	-0.026466968
7	0xbc9afb91	-0.018918784
8	0x3e40719b	0.18793337
9	0x3e1d930e	0.15388128
10	0x3e685c6c	0.22691506
11	0xbd3e00df	-0.04638755
12	0x3bcf086f	0.006318144
13	0x3e8f5216	0.27992314
14	0x3ec461cc	0.38355863
15	0xbceb0926	-0.028690886
16	0x3cbff02a	0.023429949
17	0xbd4ad5c7	-0.04952028
18	0x3e9741a2	0.2954226
19	0x3dba0df4	0.090846926
20	0x3e05c191	0.13062121
21	0xbd340202	-0.043947227
22	0x3f39a60e	0.72519004
23	0xbe096665	-0.13417967
24	0x3e050dbd	0.12993522
25	0x3e9eb01a	0.3099373
26	0x3e9030f3	0.28162345
27	0x3dc46f34	0.09591523
28	0xbd8ade20	-0.06780648
29	0xbdd37c9a	-0.103265
30	0x3d8d1595	0.06888882
31	0x3e9af7eb	0.3026727
32	0xbe34ba27	-0.17649136
33	0x3eae8c4d	0.34091416
34	0xbd7824e8	-0.06058207
35	0x3e66f833	0.22555618
36	0xbd974d11	-0.07387746
37	0x3dc13052	0.094330445
38	0xbe9656ea	-0.29363185
39	0xbdaeec89	-0.08541209
40	0x3eeb338e	0.4593777
41	0x3e2957b1	0.16537358
42	0x3c59d244	0.01329476
43	0x3e422676	0.18959984
44	0x3eb389bd	0.35066023
45	0x3e9cde01	0.30638126
46	0x3e6d94a2	0.2320123
47	0x3e968a4c	0.29402387
48	0x3e4a16e3	0.19735293
49	0x3d8e8a0f	0.06959926
50	0xbdf3a815	-0.118972935
51	0xbd7bfddd	-0.0615214
52	0x3cefe865	0.029285619
53	0xbdc5abd8	-0.09651917
54	0x3ebb9e24	0.3664409
55	0xbd854425	-0.06507138
56	0xbb5748dd	-0.0032849826
57	0x3eaec923	0.3413783
58	0xbec4adff	-0.38413998
59	0x3e45e9b7	0.19327436
60	0xbc1ca5bd	-0.009560999
61	0xbdb878f7	-0.09007447
62	0x3d2764b1	0.04086751
63	0xbe384cee	-0.17998096
64	0xbe9f6db1	-0.31138375
65	0xbd8e6a6a	-0.069538906
66	0xbd7351b4	-0.05940409
67	0xbe09b0e0	-0.13446379
68	0x3da40aeb	0.08009895
69	0xbe13ff23	-0.14452796
70	0xbe2952ab	-0.16535442
71	0x3b90669f	0.0044067646
72	0xbe3c44c5	-0.18385608
73	0xbe53b05a	-0.20672742
74	0xbe46ff3d	-0.19433303
75	0xbe01d561	-0.12679054
76	0xbe46d480	-0.19417
77	0x39399260	0.00017697504
78	0xbd94c5e3	-0.072643064
79	0x3e0dab70	0.1383493
80	0xbda508d7	-0.08058327
81	0xbd4331ae	-0.0476548
82	0xbce1147f	-0.027475594
83	0xbdc55079	-0.096344896
84	0xbd08c9e4	-0.033395663
85	0xbdc1184f	-0.094284646
86	0xbe2e0c09	-0.16996779
87	0xbc4887a5	-0.012239371
88	0x3dcd175e	0.100142226
89	0xbe6b6dc5	-0.22991093
90	0xbeaf6edc	-0.34264266
91	0xbe27c7af	-0.16384767
92	0xbe258932	-0.16165617
93	0xbdf013f1	-0.117225535
94	0x3d03803f	0.032104727
95	0x3d1b48fe	0.037911408
96	0xbdf40faf	-0.11917054
97	0xbb78bd1d	-0.0037954517
98	0x3e0ba94a	0.13638797
99	0x3c643e5d	0.013930884
100	0x3d4f692e	0.050637417
101	0xbd88fea7	-0.06689196
102	0xbe22bcc5	-0.15892322
103	0x3dce586c	0.10075459
104	0xbd83aa53	-0.06428971
105	0xbd2b5dfa	-0.04183767
106	0x3d12a03e	0.03579735
107	0xbe04de59	-0.12975444
108	0xbe2454af	-0.16047929
109	0xbe03e83e	-0.12881562
110	0xbce106aa	-0.027468998
111	0xbaf5f2de	-0.0018764397
112	0xbda76360	-0.08173251
113	0x3d0c8ed2	0.03431589
114	0x3c6986c9	0.014253327
115	0xbcef803e	-0.029235955
116	0xbe3b0d55	-0.18266805
117	0xbd5c8709	-0.053839717
118	0xbe0569f7	-0.13028704
119	0xbc40bc91	-0.011763708
120	0x3de156fc	0.11002919
121	0xbe53ff79	-0.20702924
122	0xbe3dd884	-0.18539625
123	0xbe4fb25a	-0.2028288
124	0xbd6d0d51	-0.057874028
125	0xbdf1e8d5	-0.11811987
126	0xbd114713	-0.035468172
127	0xbdf7ed60	-0.121058226
128	0xbcf939e2	-0.030423108
129	0xbde80cb2	-0.113305464
130	0x3dc5f90c	0.096666425
131	0xbcb8fd06	-0.022581588
132	0xbc87bed6	-0.01657049
133	0x3c96bfa0	0.01840192
134	0x3e26221e	0.16223952
135	0xbe11d4e8	-0.14241374
136	0x3db204a5	0.08692292
137	0x3d51bc9d	0.051205266
138	0xbd26a15d	-0.04068123
139	0xbd84486d	-0.064591266
140	0xbe041863	-0.12899928
141	0x3d465c3e	0.048427813
142	0x3e21b96e	0.15793392
143	0x3c964596	0.018343728
144	0xbe79b38b	-0.24384896
145	0xbdce02e2	-0.100591436
146	0x3df242f1	0.11829174
147	0xbe124482	-0.14283946
148	0xbdaaa4a7	-0.08332186
149	0x3cda2b7e	0.026632067
150	0x3d091c39	0.03347418
151	0xbe666565	-0.22499616
152	0xbe3105d2	-0.17287377
153	0xbe51bb56	-0.20481619
154	0xbe3312d1	-0.17487647
155	0xbdfe8ada	-0.124288276
156	0xbce17a24	-0.027524062
157	0xbdc6bff5	-0.09704582
158	0xbe24dc2d	-0.16099615
159	0x3d098563	0.033574473
160	0xbce637a3	-0.028102702
161	0x3def7837	0.11692851
162	0x3defa6d6	0.11701743
163	0xbd4dbccc	-0.05022888
164	0xbd4fed9e	-0.05076372
165	0xbe30d80c	-0.17269915
166	0xbe9541d7	-0.29151794
167	0xbdb867b1	-0.090041526
168	0x3cc9e106	0.024643432
169	0x3d1b597b	0.037927132
170	0x3d936e56	0.07198779
171	0xbdb3106c	-0.087433666
172	0xbe63f6de	-0.22262141
173	0x3c914457	0.017732782
174	0x3e6f77a8	0.23385489
175	0xbe26c62f	-0.16286539
176	0x3d3d7b31	0.046260063
177	0xbd8e5cbf	-0.06951284
178	0x3eb214b1	0.3478141
179	0x3c689dd2	0.014197784
180	0x3b89df27	0.00420751
181	0x3d68bff6	0.056823693
182	0x3eac153d	0.33609954
183	0xbe14e184	-0.14539152
184	0xbdd4d73a	-0.10392614
185	0x3da1d02f	0.07901036
186	0x3f587085	0.8454669
187	0xbe57e69e	-0.21084067
188	0x3dfff2f1	0.12497509
189	0xbda62e0e	-0.08114253
190	0xbe2fe9c2	-0.17179015
191	0xbe76a7e9	-0.2408749
192	0xbea366dc	-0.31914413
193	0x3e68425d	0.22681566
194	0xbdb1ba5d	-0.08678124
195	0x3c7e689e	0.015527872
196	0x3d063790	0.032767832
197	0x3e751149	0.23932375
198	0xbd4d8e25	-0.050184388
199	0x3e0108d7	0.12601028
200	0x3e9bbb22	0.30416209
201	0x3e0807c2	0.1328421
202	0x3e1a1870	0.15048385
203	0x3dc70480	0.09717655
204	0x3ccc843b	0.024965396
205	0x3e0ed757	0.13949333
206	0x3e8c35ea	0.27384883
207	0x3e8a21b5	0.2697884
208	0x3d114939	0.03547022
209	0x3d3d0ab7	0.046152797
210	0x3e9955d1	0.29948285
211	0x3c06c856	0.008226475
212	0x3e0229c0	0.12711239
213	0x3dcfb39e	0.10141681
214	0x3e962d11	0.29331258
215	0xbe620928	-0.22073805
216	0x3d8ec2b7	0.06970733
217	0x3e78b261	0.24286796
218	0xbe36309d	-0.17791982
219	0x3b61ebd1	0.0034472833
220	0xbd88be51	-0.06676925
221	0x3d54a560	0.051915526
222	0x3d87aa3e	0.06624268
223	0x3d3f4169	0.04669324
224	0xbeb61116	-0.3555991
225	0x3e8e6cb7	0.27817318
226	0xbeb8743d	-0.36026183
227	0x3e7458b2	0.2386196
228	0x3d994832	0.07484473
229	0x3e8c85f7	0.27445957
230	0xbdc8c88e	-0.09803878
231	0x3dfbe603	0.12299731
232	0x3ec45c83	0.3835183
233	0x3d81205d	0.06305001
234	0x3e3eac03	0.18620305
235	0x3e1b4d39	0.15166177
236	0x3ebdbcb2	0.37058026
237	0x3e68b187	0.22723971
238	0x3e95717a	0.29188138
239	0x3e3ad701	0.1824608
240	0x3d8e7680	0.06956196
241	0x3d90fac9	0.070790835
242	0xbe34cad6	-0.17655501
243	0xbe0341e8	-0.1281811
244	0xbc906941	-0.017628314
245	0x3e63af9b	0.22234957
246	0x3c23e2a0	0.010002762
247	0xbd9928fc	-0.0747852
248	0x3e7de23a	0.2479333
249	0x3e1e3ff4	0.15454084
250	0xbe5ca850	-0.21548581
251	0xbdd3a581	-0.10334302
252	0xbdbce84b	-0.09223994
253	0x3e861f82	0.26195914
254	0x3e46d1bc	0.19415945
255	0xbe37b66f	-0.17940687

gnn.convs.2.nn.lins.1.bias f4 [32]
0	0x3e2622a0	0.16224146
1	0x3d5125e8	0.05106154
2	0x3bff8dd3	0.007798889
3	0xbd1ef86e	-0.03881114
4	0xbba30899	-0.00497539
5	0x3d8c1f2f	0.06841885
6	0x3e07340b	0.13203447
7	0xbd848922	-0.064714685
8	0xbd0701bd	-0.032960642
9	0xbe034ab6	-0.12821469
10	0x3d638e1e	0.055555455
11	0xbd175d02	-0.036953934
12	0xbe1653f0	-0.14680457
13	0xbe7dd495	-0.24788125
14	0xbd6608c1	-0.056160692
15	0xbdb72e08	-0.08944327
16	0x3da4e9b8	0.08052391
17	0xbb3379a8	-0.0027385745
18	0x3e153c5d	0.14573808
19	0xb99c59df	-0.00029821598
20	0xbe8de73d	-0.27715483
21	0xbdc58d7b	-0.09646126
22	0xbc2790d6	-0.010227403
23	0xbe51df60	-0.20495367
24	0xbe5577b4	-0.20846444
25	0x3d5e4f36	0.05427476
26	0xbbd744f5	-0.0065694996
27	0x3d74126a	0.059587874
28	0xbe05e966	-0.13077316
29	0xbdc5ad06	-0.09652142
30	0x3dd09801	0.101852424
31	0xbe156b43	-0.14591698
