Run_GIN_ModelCheckpoint_EvFr_2/NCI1_reps_2_folds_5_epochs_20_2023-04-26_11-05/rep_0_fold_0/checkpoints/model_trial_2.ckpt (torch, 96717 bytes, 86 tensors)

gnn.convs.0.nn.lins.0.weight f4 [16, 37]
0	0x3cf79199	0.030220794
1	0xbd85f7e6	-0.065414235
2	0xbed3be60	-0.41356182
3	0xbf2ee7aa	-0.6832224
4	0x3e5d63bd	0.21620078
5	0xbe381fc3	-0.17980866
6	0xbd7035f1	-0.058645193
7	0xbeb41ed7	-0.3517978
8	0x3fec00d2	1.843775
9	0x3f3fcd11	0.7492228
10	0x406d6a5e	3.7096171
11	0xbebfbe47	-0.37449858
12	0x402b6682	2.6781316
13	0xbea99c00	-0.3312683
14	0x3fcf3686	1.6188514
15	0x3ebfe3d8	0.37478518
16	0x3dc8cb85	0.09804443
17	0x3fc73d31	1.5565549
18	0x3ef536e1	0.47893432
19	0x3fa410a5	1.281758
20	0x3efee3c9	0.4978316
21	0xbe9dd5cb	-0.30827174
22	0xbdd4f853	-0.103989266
23	0x400863a0	2.1310806
24	0x3fee0dbe	1.8597944
25	0xbee835e7	-0.45353624
26	0x3f9335b7	1.1500767
27	0x3f8f7660	1.1208
28	0xbe9de7ae	-0.3084082
29	0xbe9b1de9	-0.30296257
30	0x3dad18e7	0.08452015
31	0xbdfd544e	-0.123695955
32	0xbe823021	-0.25427344
33	0xbdeb21aa	-0.1148103
34	0xbe131292	-0.14362553
35	0x3dbe03f4	0.09278098
36	0x3ea0a7d9	0.31378058
37	0x3e7c4095	0.24634011
38	0xbf0d783e	-0.552616
39	0xbe97f3b0	-0.29678106
40	0xbe8d52b5	-0.27602163
41	0xbf3d5b60	-0.7396755
42	0xbe1635be	-0.14668939
43	0xbf0065d6	-0.5015539
44	0xbdd1019d	-0.10205386
45	0xbe3539d9	-0.17697848
46	0x3f77bdaf	0.9677381
47	0xbe838300	-0.25685883
48	0x3f8db8ae	1.1071985
49	0x3fe41323	1.781834
50	0x3f305d03	0.68891925
51	0x401d923e	2.462051
52	0x3f89e8f1	1.0774213
53	0x3f59a9fe	0.8502501
54	0x3fdaf3a7	1.7105607
55	0x3fd4dda6	1.6630142
56	0x3fa01142	1.2505267
57	0xbe3e73c7	-0.18598853
58	0xbe1ce5c9	-0.15322031
59	0xbc383e90	-0.011245385
60	0x4019e2c4	2.4044657
61	0x3fe0f3f8	1.7574453
62	0xbe1aa40b	-0.1510164
63	0x3f4932df	0.7859325
64	0xbd89a803	-0.06721499
65	0xbea4bc52	-0.32174927
66	0xbdfde5ca	-0.123973444
67	0x3c413442	0.011792244
68	0x3e23c703	0.15993886
69	0xbe740a93	-0.23832159
70	0xbc7624fb	-0.015023465
71	0xb8a6d632	-7.955394e-05
72	0x3c8cde07	0.017195715
73	0xbea5159f	-0.32243058
74	0x3e55ee18	0.20891607
75	0x3d8aec4e	0.06783353
76	0xbe78b562	-0.24287942
77	0xbdd1e417	-0.10248583
78	0xbe89a07e	-0.26880258
79	0xbe674aaf	-0.22587083
80	0x3f132638	0.5748019
81	0x3f29e50f	0.6636514
82	0xbf3e1917	-0.74257034
83	0xbeac2dc6	-0.33628672
84	0xbe895ee3	-0.26830205
85	0xbea03d3f	-0.31296727
86	0xbe83e993	-0.2576414
87	0x3f018a47	0.5060162
88	0xbea435d0	-0.32072306
89	0xbe90b979	-0.28266504
90	0xbe9f141a	-0.31070024
91	0xbe926701	-0.2859421
92	0xbe533e22	-0.2062917
93	0xbe198142	-0.14990714
94	0xbde564a8	-0.11200839
95	0x3e791402	0.24324039
96	0x3dc2b3b5	0.09506933
97	0xbe9c7d84	-0.3056451
98	0xbe464adf	-0.19364499
99	0x3e28ccdd	0.16484399
100	0xbf2e0bb7	-0.67986625
101	0x3d4e0c87	0.050304916
102	0xbe57fbe9	-0.2109219
103	0xbe1ff214	-0.15619689
104	0x3daef302	0.08542444
105	0x3e07b3e4	0.13252217
106	0xbd605b74	-0.054774716
107	0x3f5d9014	0.8654797
108	0xbd76abee	-0.06022256
109	0xbc8b83f7	-0.0170307
110	0xbe7c41ff	-0.2463455
111	0xbdec25ed	-0.11530671
112	0xbda54785	-0.08070282
113	0xbe0809a1	-0.13284923
114	0x3dd2003b	0.1025395
115	0xbd967d71	-0.07348145
116	0x3db1fc7b	0.08690735
117	0xbdf5cefd	-0.120023705
118	0xbd862918	-0.06550807
119	0x3de74856	0.11293094
120	0xbca2a932	-0.01985607
121	0x3dd3246a	0.1030968
122	0x3d9311d3	0.07181134
123	0x3dc93105	0.09823803
124	0xbd8a39c0	-0.06749296
125	0x3db0740d	0.08615885
126	0xbe0dcd43	-0.13847832
127	0xbde833af	-0.11337983
128	0xbd34f134	-0.04417534
129	0xbd9148c9	-0.07093961
130	0x3df45b23	0.119314454
131	0xbdf637d3	-0.120223664
132	0xbdb4501c	-0.08804342
133	0x3c1d8e39	0.009616428
134	0xbe25fe8b	-0.16210382
135	0xbe270384	-0.16309935
136	0x3dc6925d	0.09695885
137	0xbc8f8c64	-0.017522998
138	0xbe1e365a	-0.15450421
139	0xbe1502a8	-0.14551795
140	0x3e2646b4	0.16237909
141	0xbd8f9bdb	-0.07012149
142	0x3dcec61f	0.10096382
143	0xbdaa7f7d	-0.08325098
144	0xbe111978	-0.14169872
145	0xbd8222f3	-0.06354322
146	0x3db50170	0.08838165
147	0xbdcf57df	-0.10124182
148	0xbf2d3973	-0.67665786
149	0xbe145b03	-0.14487843
150	0xbe67eaa8	-0.22648108
151	0x3f46048d	0.77350694
152	0xbe5331c1	-0.20624448
153	0xbed146bb	-0.40874276
154	0x3cb81d98	0.022475049
155	0xbee0b9d4	-0.43891776
156	0x3fdfe847	1.749276
157	0x3fa6694b	1.3000883
158	0x407ed092	3.9814801
159	0x3f85dfd3	1.0458931
160	0x402ec73b	2.73091
161	0x3e9d1ff8	0.30688453
162	0x3fa1eb4e	1.2649934
163	0x3fb3cd6f	1.4047068
164	0xbe09c9b9	-0.13455857
165	0x4014ecf9	2.3269637
166	0x3fe2dc91	1.7723562
167	0x3fa7ca78	1.3108664
168	0xbe9d25fd	-0.30693045
169	0xbedb8d25	-0.42881122
170	0x3c89ac39	0.016805755
171	0x400b48ca	2.1763177
172	0x400600a7	2.0937898
173	0x3fde2b01	1.7356874
174	0x3f5afe52	0.8554431
175	0x3f98634f	1.1905307
176	0xbece0a85	-0.402424
177	0x4010e503	2.2639778
178	0xbe08d3ee	-0.13362095
179	0xbd8ce852	-0.06880249
180	0xbe582deb	-0.21111266
181	0xbee0bbbe	-0.43893236
182	0xbec049af	-0.37556216
183	0xbd1c4389	-0.038150344
184	0xbe17dc01	-0.14830019
185	0x3e2c1566	0.16805038
186	0x3e4860f6	0.19568238
187	0xbe9e5237	-0.309221
188	0xbf1ac793	-0.60460776
189	0x3ee36fc3	0.44421205
190	0xbdb8c0a9	-0.09021122
191	0xbdb511fe	-0.08841322
192	0x3d7863a3	0.060641896
193	0x3fca51f5	1.5806261
194	0x3f860fca	1.0473568
195	0xbd8fe190	-0.070254445
196	0x3ef4c4df	0.4780645
197	0x3da75a85	0.08171562
198	0xbe98f09c	-0.2987107
199	0xbd2afd44	-0.04174544
200	0x3f993629	1.1969653
201	0xbe693e2c	-0.22777623
202	0xbe4b1067	-0.19830476
203	0x3dc815b8	0.097697675
204	0x3e6fdd23	0.234242
205	0xbec0307d	-0.37536994
206	0xbf05689f	-0.52112764
207	0xbb392b22	-0.002825447
208	0x3d49b9d5	0.04924949
209	0x3fe21de6	1.7665374
210	0xbeca3c47	-0.39499113
211	0x3f89e3ed	1.0772682
212	0x3fade610	1.3585835
213	0x3a53da91	0.000808158
214	0xba4faab0	-0.0007921858
215	0xbe153e1a	-0.14574471
216	0x3d981ab6	0.0742697
217	0x3cb169ba	0.02165686
218	0x3d89b080	0.06723118
219	0x3c0c991a	0.008581424
220	0x3d815259	0.06314535
221	0xbe9ab78e	-0.30218166
222	0xbf0116d3	-0.5042545
223	0xbeb355ab	-0.35026297
224	0xbf19e12e	-0.6010922
225	0x3f2a300c	0.66479564
226	0xbe4e2bba	-0.20133868
227	0xbfafac3a	-1.3724434
228	0xbe18058a	-0.14845863
229	0xbf2ea784	-0.6822436
230	0x3ef81048	0.48449922
231	0x3f34db87	0.7064747
232	0x400eeeed	2.2333329
233	0x3e9939bf	0.2992687
234	0x4001eaae	2.0299487
235	0xbf2490b4	-0.642833
236	0x401eac3e	2.4792628
237	0x3f98e99a	1.194629
238	0x3ddd4224	0.10803631
239	0x401981e9	2.398554
240	0x3ed50618	0.41606212
241	0x3e5de27a	0.21668425
242	0x3eb5d579	0.3551443
243	0xbce48a7e	-0.02789807
244	0x3e0becaa	0.13664499
245	0x3f9f8cea	1.2464879
246	0x3fc76283	1.5576938
247	0x3edae1a6	0.4275028
248	0x3ef74cf5	0.483009
249	0x3ec0fa24	0.37690842
250	0xbf27ce22	-0.6554891
251	0x3fe2bbc8	1.7713556
252	0xbdad386b	-0.084580265
253	0x3e17ac55	0.14811833
254	0xbf4bc226	-0.7959312
255	0xbf2ec9ea	-0.68276846

gnn.convs.0.nn.lins.0.bias f4 [16]
0	0x3e4193a4	0.18903977
1	0xbe8e1a73	-0.27754554
2	0x3b959934	0.0045653824
3	0xbe548b00	-0.2075615
4	0x3e3ddc4b	0.18541066
5	0xbe1eeda2	-0.15520337
6	0x3f227daf	0.6347303
7	0xbe7f08f7	-0.24905764
8	0x3ea8cf37	0.32970592
9	0xbee19715	-0.4406058
10	0xbf3e5e02	-0.74362195
11	0x3e1d20d3	0.15344553
12	0xbdad0aa7	-0.084492974
13	0x3eebe8a7	0.46075937
14	0xbf6fdcba	-0.93696177
15	0xbe247223	-0.16059165

gnn.convs.0.nn.lins.1.weight f4 [16, 16]
0	0x3f8021b0	1.0010281
1	0x3f47fc61	0.78119475
2	0x3e58f928	0.21188796
3	0x3d7d5181	0.061845306
4	0x3f66afac	0.90111804
5	0x3edf09eb	0.43562254
6	0x3f8f73c3	1.1207203
7	0xbca6ca66	-0.020360183
8	0x3f1c7873	0.6112129
9	0x3ea2ce21	0.3179789
10	0xbfaf437d	-1.3692471
11	0x3e73b93e	0.23801133
12	0x3f056efa	0.5212246
13	0xbeefa7fc	-0.4680785
14	0x3f1bd332	0.60869133
15	0xbf8156e1	-1.0104638
16	0x3e6bd172	0.23029116
17	0xbe9c3228	-0.30507016
18	0xbe1602c0	-0.14649487
19	0xbe63ef04	-0.22259146
20	0x3d192562	0.037389167
21	0xbdff7c81	-0.12474919
22	0x3ceddee0	0.02903694
23	0x3de7ff90	0.113280416
24	0xbdb5d8a0	-0.088792086
25	0x3deccac4	0.11562112
26	0xbd4975f2	-0.049184747
27	0xbe0fda5c	-0.14048141
28	0xbe07d4fd	-0.13264842
29	0x3d8ecba0	0.06972432
30	0xbe90661e	-0.2820291
31	0xbd83bd53	-0.06432595
32	0x3f12d2bc	0.57352805
33	0x3f2be0b3	0.6713974
34	0x3e7845fe	0.2424545
35	0x3cedbc4f	0.029020457
36	0x3e9bfeac	0.30467737
37	0x3df08cad	0.11745582
38	0x3faeaf73	1.3647293
39	0xbea171c6	-0.31532115
40	0x3e58ddd2	0.21178368
41	0xbbd7dbbd	-0.006587474
42	0xbf19873c	-0.59971976
43	0xbe0fce43	-0.14043526
44	0x3d285120	0.04109299
45	0x3ea2f5d6	0.31828183
46	0x3e98e059	0.29858664
47	0xbf44fca9	-0.7694803
48	0x3f9b8160	1.2148857
49	0x3ef31352	0.47475678
50	0xbdb2cf48	-0.08730942
51	0x3e10b9bf	0.14133357
52	0x3f6c5a16	0.9232496
53	0x3f35df4c	0.7104385
54	0x3f88fbce	1.0701845
55	0x3d0f42da	0.034975864
56	0x3f03ce40	0.5148659
57	0x3dfbdc8c	0.12297925
58	0xbf906e82	-1.1283724
59	0x3db80a99	0.08986396
60	0x3f30b0db	0.6901986
61	0xbe59a681	-0.21254922
62	0x3f107eb3	0.5644333
63	0xbf7da2b9	-0.9907642
64	0x3f48eebe	0.7848929
65	0x3f2a9bf7	0.66644233
66	0x3e1b3040	0.15155125
67	0xbe25e750	-0.1620152
68	0x3f58ca40	0.8468361
69	0x3ef5b556	0.4798991
70	0x3fb37b69	1.4022037
71	0xbe98d37f	-0.2984886
72	0x3eef7f80	0.46776962
73	0x3eb0fbd5	0.34567133
74	0xbfaf6cc0	-1.3705063
75	0x3e02eca8	0.1278559
76	0x3ea42951	0.32062772
77	0xbecae458	-0.39627337
78	0x3f3d17e8	0.73864603
79	0xbf8a50b6	-1.0805881
80	0xbd7abb50	-0.06121379
81	0xbf3ded7d	-0.74190503
82	0xbd9c8b15	-0.07643715
83	0x3ca3f7b2	0.020015571
84	0x3d854eed	0.065091945
85	0xbe9b31b8	-0.3031137
86	0x3e0ea1f5	0.13928969
87	0x3e9b04b7	0.30277035
88	0xbec6f01b	-0.3885506
89	0xbdefd2d2	-0.11710133
90	0x3faa67ac	1.3312888
91	0xbebbf4ff	-0.36710355
92	0x3d191797	0.037376013
93	0xbba43445	-0.005011114
94	0xbf5f4d16	-0.87227
95	0xbd3222d0	-0.04349023
96	0xbead981d	-0.33905116
97	0xbe754260	-0.23951101
98	0xbef4c746	-0.47808284
99	0x3e4f3058	0.20233285
100	0xbe689749	-0.2271396
101	0xbcd7fb40	-0.026364923
102	0x3e6e22d4	0.23255473
103	0xbc0d03b8	-0.008606844
104	0xbddf86b0	-0.109143615
105	0xbdea2576	-0.11432926
106	0xbe59a12a	-0.21252885
107	0xbe71c4be	-0.23610207
108	0xbe99b7d2	-0.30023056
109	0x3d850787	0.06495576
110	0x3cd9908e	0.026558187
111	0xbe087896	-0.1332725
112	0xbe567ef8	-0.20946872
113	0x3df8faff	0.12157249
114	0xbcfb1796	-0.030650895
115	0x3e2fd194	0.17169791
116	0xbae732a5	-0.0017638995
117	0x3d7ca06a	0.06167642
118	0xbd9553fc	-0.072914094
119	0x3e0ae9f7	0.13565813
120	0xbc9df640	-0.01928246
121	0xbbf5ce06	-0.0075013665
122	0xbe94b19f	-0.29041764
123	0xbd70cdbf	-0.058789965
124	0xbe50a33a	-0.20374766
125	0x3c84eb1a	0.016225386
126	0xbe240e6e	-0.1602113
127	0xbeb75ab8	-0.358114
128	0x3a685d98	0.0008864044
129	0x3f1d7b38	0.6151614
130	0x3ec9d920	0.39423466
131	0xbe69f6b0	-0.2284801
132	0x3eff3ae9	0.49849632
133	0xbeaa6fcc	-0.3328842
134	0x3f05e577	0.5230326
135	0x3cd481d1	0.025940808
136	0x3e83d72c	0.257501
137	0xbe931374	-0.2872578
138	0xbf3a9d15	-0.7289594
139	0x3ee9ef2d	0.4569029
140	0x3e56232f	0.20911859
141	0xbef6ae5b	-0.48179898
142	0x3f5f617c	0.87258124
143	0x3f157c13	0.5839245
144	0x3fb6929e	1.4263494
145	0x3e99389e	0.29926008
146	0xbedc08c4	-0.42975438
147	0xbe635ed1	-0.22204138
148	0x3f3fe26d	0.74954873
149	0x3f41ad61	0.7565518
150	0x3ff3a93a	1.9036019
151	0xbe498b41	-0.19682027
152	0x3f3a1abe	0.72697055
153	0x3eff9e08	0.49925256
154	0xbfe3ae2a	-1.7787526
155	0x3ed82c57	0.4222133
156	0x3ea52a8d	0.32259026
157	0xbf0cd3ae	-0.550105
158	0x3f4be045	0.79639083
159	0xbf295a3d	-0.6615332
160	0x3e38c71e	0.18044707
161	0xbf121694	-0.570657
162	0xbea7df62	-0.32787615
163	0x3d809fa8	0.06280452
164	0x3e6d0ea3	0.23150115
165	0xbdf7fc54	-0.12108675
166	0xbdd96e8c	-0.10616788
167	0x3f26453f	0.6494941
168	0xbf7cb98a	-0.9872061
169	0xbe35855b	-0.17726652
170	0x3fb93a10	1.4470844
171	0xbf664660	-0.89951134
172	0x3e0b5c4f	0.13609432
173	0x3e7cd7ad	0.24691649
174	0xbdb7b90f	-0.08970844
175	0x3cc58326	0.024110388
176	0x3f4c785d	0.7987116
177	0x3ef27765	0.47356716
178	0xbf04bb48	-0.5184827
179	0xbe410d7e	-0.18852803
180	0x3f046d98	0.51729727
181	0x3e9d7d0f	0.30759475
182	0x3f7dda4d	0.99161226
183	0xbdad4583	-0.08460524
184	0x3f497101	0.78688055
185	0x3e8a0baa	0.26962024
186	0xbf9979f1	-1.1990339
187	0x3da2f2cd	0.07956467
188	0x3f09be89	0.5380636
189	0x3e9297a7	0.28631327
190	0x3ec3b851	0.3822656
191	0xbf703f77	-0.9384684
192	0xbe730283	-0.23731427
193	0xbd91f4ce	-0.07126771
194	0x3cdfc9d3	0.027317917
195	0xbd98e568	-0.07465631
196	0xbe120908	-0.14261258
197	0xbf08e20f	-0.5346994
198	0xbef96b92	-0.48714882
199	0xbe92cfc1	-0.2867413
200	0xbd198672	-0.037481733
201	0xbe1fc181	-0.1560116
202	0x3fabe810	1.3430195
203	0x3e3cff13	0.18456678
204	0x3d94afcc	0.07260093
205	0xbf38dfb0	-0.7221632
206	0x3e44b7be	0.19210717
207	0xbea4150f	-0.32047316
208	0xbe04dd25	-0.12974985
209	0xbe11be16	-0.14232668
210	0xbd9ca34e	-0.076483354
211	0x3e26e6d7	0.16298996
212	0x3e24022d	0.16016455
213	0xbc544214	-0.012955207
214	0xbddcd011	-0.10781873
215	0x3e6cfa0d	0.23142262
216	0xbf0449f4	-0.51675344
217	0x3c3d8a3e	0.011568604
218	0x3fb50623	1.4142498
219	0xbf2fb0e5	-0.68629295
220	0x3e02d915	0.12778123
221	0xbd0d0db6	-0.034436904
222	0xbd294405	-0.041324634
223	0x3dd24b6c	0.10268292
224	0x3ef8272b	0.48467383
225	0xbe387961	-0.18015052
226	0xbebb9713	-0.36638698
227	0x3d9d6064	0.07684401
228	0x3ee368ae	0.44415802
229	0x3ebde395	0.37087694
230	0x3fd9154b	1.6959623
231	0xbe946f62	-0.28991228
232	0x3f67208c	0.9028404
233	0x3e6f9257	0.23395668
234	0xbfc3080e	-1.5236833
235	0x3effd767	0.49969026
236	0x3e7b0b28	0.24515975
237	0xbe0def9e	-0.13860938
238	0x3f5a1e4d	0.85202485
239	0x3e203e6e	0.15648815
240	0x3e526f56	0.20550284
241	0x3c5f1180	0.013615012
242	0xbe61f71a	-0.22066918
243	0xbe4d6b64	-0.20060498
244	0xbe376d0b	-0.1791269
245	0xbe5caa6c	-0.21549386
246	0xbe472212	-0.1944659
247	0xbc3f5f20	-0.011680394
248	0xbd803367	-0.06259804
249	0x3d7c08d3	0.061531853
250	0xbdf3cfd8	-0.119048774
251	0xbda23a4d	-0.07921276
252	0x3e0613d0	0.13093495
253	0x3b5f7b51	0.0034100602
254	0xbc216300	-0.009850264
255	0x3c358af4	0.011080492

gnn.convs.0.nn.lins.1.bias f4 [16]
0	0x3e544d5c	0.20732635
1	0xbea46b6a	-0.321132
2	0x3eb0c00d	0.34521523
3	0x3dec490d	0.11537371
4	0x3e271303	0.16315846
5	0xbf08b11a	-0.53395236
6	0xbe7f95a2	-0.24959424
7	0xbebb8295	-0.36623064
8	0xbef583cb	-0.47952113
9	0x3d974b55	0.07387415
10	0xbeabe9c0	-0.33576775
11	0x3e7ea9da	0.2486948
12	0xbeb8bbde	-0.3608083
13	0xbeaf6682	-0.34257895
14	0xbdb66e20	-0.089077234
15	0xbe5313b5	-0.20612986

gnn.convs.1.nn.lins.0.weight f4 [16, 16]
0	0x3c1ec421	0.009690315
1	0x3c4ef494	0.012631554
2	0x3e9bd679	0.30437067
3	0x3e50629d	0.20350118
4	0xbd830e71	-0.06399239
5	0xbf4f82e7	-0.81059116
6	0x3e2c6a6f	0.16837476
7	0xbe78e9bd	-0.24307914
8	0x3f3380f5	0.7011865
9	0xbddb75df	-0.107158415
10	0xbf7a3f5f	-0.97752947
11	0x3dcc3548	0.099711
12	0xbf9cf6ad	-1.226278
13	0xbf2a0476	-0.66413057
14	0x3ea49d73	0.32151374
15	0xbe654484	-0.22389418
16	0xbf8037e8	-1.0017061
17	0x3daa2dbf	0.083095066
18	0xbd94d9b9	-0.0726809
19	0xbf27752b	-0.6541316
20	0xbf9b2e43	-1.2123493
21	0xbe6cf5f7	-0.23140703
22	0x3d8bf87d	0.06834505
23	0x3b7cc44d	0.0038569153
24	0x3ebd4d33	0.3697296
25	0xbf36962a	-0.7132288
26	0x3e98998e	0.29804653
27	0xbf8d8045	-1.105477
28	0xbf09f3eb	-0.53887814
29	0x3f20933c	0.6272466
30	0x3d59b902	0.053154953
31	0x3e603a4e	0.21897241
32	0xbd861a35	-0.06547967
33	0xbe8dc236	-0.27687234
34	0x3ed7e395	0.4216582
35	0x3d744371	0.05963463
36	0x3ede1f96	0.43383473
37	0xbf578fea	-0.8420397
38	0xbeb440ec	-0.3520578
39	0xbdcb7827	-0.099350266
40	0x3f059b8d	0.52190477
41	0x3d9a31a4	0.075289994
42	0xbf6a2583	-0.9146349
43	0xbdca9cc0	-0.09893179
44	0xbf8c4af4	-1.0960374
45	0xbf333e8e	-0.70017326
46	0x3e641fb2	0.22277716
47	0xbe24d54b	-0.1609699
48	0x3d97abe2	0.07405831
49	0x3e3bb8a6	0.18332157
50	0x3ce37feb	0.027770957
51	0x3e5f6b98	0.21818388
52	0x3e9faf76	0.31188554
53	0xbf20eecb	-0.6286437
54	0x3e19155c	0.14949554
55	0x3dd18cf3	0.10231962
56	0x3ec75eb1	0.3893943
57	0x3e3fd23b	0.1873254
58	0xbf05afd4	-0.5222142
59	0xbe27c9a2	-0.1638551
60	0xbf64d1ed	-0.8938282
61	0xbe8f2d12	-0.27964073
62	0x3df103b6	0.11768286
63	0x3da796eb	0.08183082
64	0x3e642bb2	0.22282293
65	0x3e18a1d6	0.14905486
66	0xbf1fd1b6	-0.6242937
67	0x3e85d2a9	0.26137283
68	0xbe8ddc3f	-0.27707097
69	0xbf069970	-0.5257788
70	0x3d71259f	0.05887377
71	0x3af71b38	0.0018852716
72	0x3e2a517f	0.16632651
73	0xbf447860	-0.7674618
74	0xbf2af482	-0.6677934
75	0xbcc74d7d	-0.024328941
76	0xbf8e4570	-1.1114941
77	0xbea6c273	-0.32570228
78	0x3ead30a9	0.33826187
79	0x3e7b84cc	0.24562377
80	0x3d140375	0.03613611
81	0xbe1474fa	-0.14497748
82	0xbea54e2f	-0.32286212
83	0xbe3081e9	-0.17237057
84	0xbda62baa	-0.08113797
85	0xbda2866c	-0.07935795
86	0x3e5e9696	0.21737131
87	0xbe34a48f	-0.17640899
88	0xbed2ca43	-0.41169938
89	0xbed25105	-0.41077438
90	0xbe44af43	-0.19207482
91	0x3dbad9c8	0.0912357
92	0xbde54d8f	-0.11196434
93	0xbe5bb272	-0.2145479
94	0xbdca9645	-0.09891943
95	0xbe021be6	-0.12705955
96	0xbe6018ba	-0.21884432
97	0x3e738053	0.2377942
98	0xbd1ff274	-0.03904958
99	0x3cc98933	0.024601554
100	0x3c98bc27	0.018644406
101	0xbeceb362	-0.40371233
102	0x3e475517	0.19466053
103	0x3d779502	0.06044484
104	0xbed6c8ed	-0.4195017
105	0xbe1add00	-0.15123367
106	0xbde82361	-0.11334873
107	0xbd22e65f	-0.03977048
108	0xbd37565d	-0.044760097
109	0x3d356e97	0.04429492
110	0xbdf15b29	-0.117849655
111	0xbde037a6	-0.10948114
112	0xbca26f8d	-0.019828582
113	0xbe42c0e0	-0.19018888
114	0xbeb0b8c4	-0.34515965
115	0xbd109efa	-0.035307862
116	0xbc42f9be	-0.0119003635
117	0xbce85de8	-0.02836509
118	0x3e2fc248	0.17163956
119	0xbd4937c3	-0.049125444
120	0xbeb3d3ea	-0.35122615
121	0xbd9af3f5	-0.07566062
122	0xbe084fac	-0.13311642
123	0xbd269037	-0.040664878
124	0xbe918ec8	-0.28429246
125	0xbe8d922e	-0.2765059
126	0xbe644914	-0.22293502
127	0x3d790268	0.06079331
128	0xbd0d1d60	-0.034451842
129	0x3e23b402	0.15986636
130	0x3e208c45	0.15678509
131	0x3d6f36ba	0.0584018
132	0x3eb58b0e	0.35457653
133	0xbf2ce67c	-0.6753919
134	0xbe3c87cc	-0.18411177
135	0x3e028f0c	0.1274988
136	0x3eb69011	0.3565679
137	0xbcf0e215	-0.02940468
138	0xbf1624b9	-0.58649784
139	0x3d2d2dad	0.042279888
140	0xbfa8afa3	-1.31786
141	0xbf1edb19	-0.62053066
142	0x3dfb2b36	0.12264101
143	0x3d64273e	0.055701487
144	0xbd7dcb18	-0.061961263
145	0xbe33514c	-0.17511481
146	0xbe98477d	-0.2974204
147	0xbe012209	-0.1261064
148	0x3dc2aedd	0.09506009
149	0xbf0d7d0e	-0.55268943
150	0x3deaea5b	0.11470481
151	0xbdd9862e	-0.10621296
152	0xbec4a24e	-0.3840508
153	0xbeb0be22	-0.3452006
154	0x3f0d7e44	0.5527079
155	0xbe6fd47e	-0.23420903
156	0x3e7c7cfd	0.24657054
157	0xbeaed9e3	-0.3415061
158	0xbeeb32e1	-0.45937255
159	0xbdd05694	-0.101727635
160	0xbf3990dd	-0.7248667
161	0xbd71160e	-0.058858924
162	0xbe982e3e	-0.2972278
163	0xbf1ec82b	-0.6202418
164	0xbf7bdd21	-0.9838429
165	0x3f0b759c	0.5447633
166	0xbe5cf145	-0.21576412
167	0x3d11eb7e	0.035624973
168	0x3ee3bd4e	0.44480366
169	0xbf3d0add	-0.738447
170	0x3e941a3a	0.2892626
171	0xbf973dd4	-1.1815743
172	0x3f929452	1.1451514
173	0x3e13f2d6	0.14448103
174	0xbd1b0da3	-0.037854802
175	0x3e7d15b8	0.24715316
176	0xbe715121	-0.23566104
177	0xbe908f06	-0.28234118
178	0x3e7c41fe	0.24634549
179	0x3dc6fa64	0.09715727
180	0x3e870dee	0.26377815
181	0xbf50b4ce	-0.81525886
182	0x3dc350a1	0.09536863
183	0x3cd4d631	0.02598104
184	0x3ef8e819	0.48614576
185	0x3d76208d	0.060089637
186	0xbf537b34	-0.8260987
187	0xbd29bc5b	-0.041439395
188	0xbfa115f8	-1.2584829
189	0xbf09da58	-0.5384879
190	0x3e8c27fc	0.27374256
191	0x3e20105e	0.15631244
192	0xbe238fb8	-0.15972793
193	0x3deac059	0.11462469
194	0x3dfff32a	0.12497552
195	0xbe76f43c	-0.24116606
196	0xbe01fef8	-0.12694919
197	0xbe4a6fa0	-0.19769144
198	0x3dfa632c	0.12225947
199	0x3e966c90	0.29379702
200	0xbe9ae3bc	-0.30251873
201	0xbd6c84fa	-0.057744004
202	0x3ccba171	0.024857255
203	0xbe495bdb	-0.19663946
204	0xbe56565c	-0.20931381
205	0xbe6f0de5	-0.23345144
206	0xbdf4424b	-0.11926707
207	0xbdcbf424	-0.099586755
208	0xbf00236f	-0.5005407
209	0x3e0adedf	0.13561581
210	0xbe0719fd	-0.13193507
211	0xbe9a45dc	-0.30131423
212	0xbf15219f	-0.58254427
213	0xbccf68a1	-0.025318446
214	0x3dd1110b	0.10208329
215	0xbe7596e3	-0.2398334
216	0xbe12cf0a	-0.14336792
217	0x3e894f6a	0.268184
218	0xbd95cd65	-0.073145665
219	0xbf5a97b2	-0.8538772
220	0xbf041546	-0.5159496
221	0xbe9af795	-0.30267015
222	0xbd9efede	-0.07763456
223	0x3e15a3d6	0.1461328
224	0xbf570a1c	-0.839998
225	0x3dc9dc8a	0.098565176
226	0xbe55cb1f	-0.20878266
227	0xbf04bcac	-0.5185039
228	0xbf907bac	-1.1287742
229	0x3e0bf247	0.1366664
230	0xbeaadfad	-0.33373776
231	0x3cef61d4	0.029221453
232	0x3ea0ea81	0.31428912
233	0xbf06eb19	-0.5270248
234	0xbe9c5267	-0.30531618
235	0xbf93930b	-1.1529249
236	0xbe87f54a	-0.26554328
237	0xbe88f1d1	-0.2674699
238	0xbd130197	-0.035890188
239	0xbc885a27	-0.01664455
240	0xbcfdcea1	-0.030982317
241	0x3d92d4c0	0.07169485
242	0x3d79ede1	0.061017875
243	0xbe963dfe	-0.2934417
244	0xbe49124e	-0.19635889
245	0xbe713182	-0.23554042
246	0x3d62f1b0	0.055406272
247	0xbe6dba3f	-0.23215578
248	0xbe4eff20	-0.2021451
249	0xbe8281dc	-0.254897
250	0xbe5646f3	-0.20925502
251	0xbda3171a	-0.07963391
252	0xbe29a5a9	-0.165671
253	0xbe920695	-0.28520647
254	0xbdf26ad2	-0.118367806
255	0x3e32c1db	0.17456762

gnn.convs.1.nn.lins.0.bias f4 [16]
0	0x3eba20eb	0.3635324
1	0x3f612e9f	0.87961763
2	0x3f3f0025	0.74609596
3	0x3e576f05	0.21038444
4	0xbe2f7793	-0.17135458
5	0xbe520fdb	-0.20513861
6	0xbe8ee2d9	-0.27907446
7	0xbe3fff3d	-0.1874971
8	0x3ee25f71	0.4421344
9	0xbef1d55f	-0.47233102
10	0x3ef53608	0.47892785
11	0x3ee3c2a8	0.44484448
12	0xbec98abe	-0.39363664
13	0xbf2832ad	-0.65702325
14	0x3efa808f	0.48926207
15	0xbeae9f17	-0.3410575

gnn.convs.1.nn.lins.1.weight f4 [16, 16]
0	0x3e172966	0.14761886
1	0xbf821b7e	-1.016464
2	0x3ed83e83	0.42235193
3	0x3ed1367b	0.40861878
4	0xbdb3aac6	-0.08772807
5	0xbdd9c1db	-0.10632678
6	0x3e0ee54a	0.13954654
7	0xbd69b36a	-0.05705587
8	0x3eaab123	0.3333827
9	0xbeb421e9	-0.3518212
10	0xbf78ce2b	-0.9718959
11	0x3eb82c6b	0.35971388
12	0x3c911bc2	0.017713431
13	0x3f0c729f	0.548624
14	0xbf06a06e	-0.52588546
15	0xbdec22c1	-0.11530066
16	0x3e7010b6	0.23443875
17	0xbf507d11	-0.81440836
18	0x3d86896e	0.065691814
19	0x3dcf840a	0.10132606
20	0x3ea8dcc5	0.32980934
21	0xbdaad783	-0.08341887
22	0xba8372ad	-0.0010028683
23	0x3e84602b	0.2585462
24	0x3e770a11	0.24124934
25	0xbea60458	-0.3242519
26	0xbf3ab8f1	-0.7293845
27	0x3e6abd33	0.22923736
28	0x3e42afe7	0.19012414
29	0x3e8ab760	0.2709303
30	0xbf49d277	-0.7883677
31	0xbd83f90e	-0.06443988
32	0xbe87e37c	-0.26540744
33	0xbe807d7e	-0.25095743
34	0xbdfd60da	-0.123719886
35	0xbe00fa37	-0.1259545
36	0x3d9bbd4b	0.07604464
37	0xbe7cf648	-0.24703324
38	0x3db5ac61	0.08870769
39	0x3d0cbf80	0.034362316
40	0xbd350b53	-0.044200253
41	0xbb2424d0	-0.0025046356
42	0xbdb27839	-0.08714337
43	0x3d8ac002	0.06774904
44	0xbe327c6f	-0.1743028
45	0xbd600830	-0.05469531
46	0xb93f1d23	-0.00018226034
47	0xbe6ee43c	-0.23329252
48	0xbe2f943e	-0.17146394
49	0x3d3ee06f	0.046600755
50	0xbe8951c0	-0.26820183
51	0x3d29bca0	0.041439652
52	0x3d9b44c3	0.07581475
53	0x3e30cf52	0.17266586
54	0xbda6d948	-0.08146912
55	0xbebc2d09	-0.3675311
56	0xbb963b88	-0.0045847334
57	0xbe479576	-0.19490609
58	0xbd954f74	-0.07290545
59	0xbdef223a	-0.1167645
60	0xbdc2465c	-0.09486076
61	0xbd081ef4	-0.033232644
62	0x3e382eba	0.17986575
63	0xbe432fa9	-0.1906115
64	0xbd2ae0e2	-0.04171837
65	0xbe522d24	-0.20525032
66	0x3d8cf803	0.06883242
67	0xbdb539a6	-0.08848886
68	0xbcb78e7a	-0.022406805
69	0xbe0b3427	-0.13594113
70	0xbe249ad8	-0.16074693
71	0x3e24e798	0.16103971
72	0xbe7769fe	-0.24161527
73	0x3d46c460	0.04852712
74	0xbcda1123	-0.0266195
75	0xbdcc16a1	-0.099652536
76	0xbddc7133	-0.107637785
77	0x3e5e4f28	0.21709883
78	0x3c15998e	0.009130849
79	0xbe573e88	-0.21019948
80	0xbd27c52e	-0.04095953
81	0x3e1ca5a3	0.1529756
82	0xbe9b2549	-0.30301884
83	0xbe03b88c	-0.12863368
84	0x3d9eb02f	0.07748448
85	0x3d35bf8e	0.044372134
86	0x3c7bfbb4	0.015379835
87	0xbd3986b2	-0.04529447
88	0xbda530e5	-0.080659665
89	0xbdaf6188	-0.085635245
90	0xbee6f371	-0.45107606
91	0xbec62938	-0.38703322
92	0x3a66a263	0.0008798001
93	0x3d95c168	0.0731228
94	0x3de8c93f	0.1136651
95	0xbd694fb1	-0.056960765
96	0xbdba981f	-0.09111046
97	0x3d25130d	0.04030137
98	0x3ced3c28	0.028959349
99	0xbc79e618	-0.0152526125
100	0xbd106d3b	-0.03526042
101	0xbea8e36c	-0.3298601
102	0xbe02d54d	-0.1277668
103	0x3e7e65be	0.24843499
104	0xbe51bafe	-0.20481488
105	0xbddbcb76	-0.107321665
106	0xbe696eac	-0.22796124
107	0xbcd8eb31	-0.026479336
108	0xbe31d46e	-0.17366192
109	0x3e84b856	0.25921887
110	0x3e1ff0fb	0.1561927
111	0xbd81b9e8	-0.06334287
112	0x3e1b4499	0.15162887
113	0xbf2e5ffc	-0.6811521
114	0x3e1f8b89	0.15580572
115	0x3da066a1	0.07832075
116	0x3da4660a	0.08027275
117	0x3e1b1f30	0.15148616
118	0xbe8a8987	-0.2705805
119	0xbe68ef9f	-0.22747658
120	0x3df09036	0.11746256
121	0xbe2d118f	-0.1690123
122	0xbf38cbd1	-0.72186
123	0x3e5a7dbe	0.2133703
124	0x3ee24b30	0.4419799
125	0x3d5e8ecd	0.054335404
126	0xbed22aa9	-0.41048172
127	0x3e210fd6	0.15728697
128	0xbebfd7e5	-0.37469402
129	0xbe5778bb	-0.21042149
130	0xbeb734c9	-0.3578246
131	0xbd37f717	-0.044913378
132	0xbcbef3f7	-0.02330969
133	0x3e1b2cf9	0.15153874
134	0xbe873a51	-0.2641168
135	0xbe032ac1	-0.12809278
136	0x3ca29c55	0.019849936
137	0xbd0ab194	-0.033860758
138	0xbd2a7557	-0.04161581
139	0xbec4b95e	-0.38422674
140	0xbe86906d	-0.26282063
141	0x3d1bb498	0.038014024
142	0x3d988ad4	0.07448354
143	0xbe623290	-0.220896
144	0x3e9b4f66	0.30334014
145	0xbf5298ac	-0.8226421
146	0x3e58d4b4	0.2117489
147	0x3e1c13c0	0.15241909
148	0x3ebdbd2c	0.3705839
149	0x3e54af25	0.20769937
150	0xbda132eb	-0.0787104
151	0x3e81e0d4	0.25366843
152	0x3ea14970	0.3150134
153	0x3e7fcd77	0.24980722
154	0xbf399a0d	-0.7250069
155	0x3e817cd1	0.2529054
156	0xbdc58f53	-0.096464776
157	0xbe65fbcf	-0.22459339
158	0xbf15b57c	-0.5848005
159	0x3caae282	0.02085996
160	0x3e83716a	0.25672466
161	0xbfa962e9	-1.323331
162	0x3f141766	0.57848203
163	0xbd4d4e0c	-0.05012326
164	0x3e180e97	0.14849316
165	0x3d84e69a	0.06489296
166	0xbe7d76c4	-0.24752337
167	0xbd25fe74	-0.04052587
168	0x3dd2d585	0.10294632
169	0x3c108d5d	0.008822766
170	0xbf04e23a	-0.51907694
171	0x3e3fc163	0.18726115
172	0xbf033093	-0.51245993
173	0x3eb80802	0.3594361
174	0xbf0a86bc	-0.5411184
175	0xbdefd83e	-0.11711167
176	0xbe942aa1	-0.28938773
177	0xbe37f787	-0.17965518
178	0xbd8d99d8	-0.06914109
179	0x3d804bdf	0.06264471
180	0x3e876af5	0.2644879
181	0xbe70ef31	-0.23528744
182	0x3e151334	0.14558107
183	0xbe0ee714	-0.13955337
184	0xbde597b7	-0.11210578
185	0x3d966b20	0.07344651
186	0xbe151969	-0.14560474
187	0xbe75151f	-0.23933838
188	0xbd0f1142	-0.034928568
189	0x3e34c1e1	0.17652084
190	0xbba02f7c	-0.004888473
191	0xbe6d4154	-0.23169452
192	0x3e958422	0.29202372
193	0xbf4e4341	-0.8057137
194	0x3ebb924f	0.36635062
195	0x3e81b8a6	0.25336188
196	0x3eb25f6a	0.3483842
197	0x3dd01abf	0.101613514
198	0x3d50d114	0.050980642
199	0xbcde9b03	-0.027173525
200	0x3e8f4877	0.27984974
201	0xbdcb9d4c	-0.099421114
202	0xbedd3628	-0.4320538
203	0x3dfd4e0c	0.12368402
204	0x3e39bc47	0.18138228
205	0x3d006fcf	0.03135663
206	0xbede61e0	-0.43434048
207	0x3e451349	0.19245638
208	0xbe8305aa	-0.2559026
209	0x3d41c5a0	0.04730761
210	0x3dcb59e2	0.09929253
211	0xbe082549	-0.13295473
212	0xbe9073d7	-0.2821338
213	0xbe010630	-0.12600017
214	0xbe417015	-0.18890412
215	0x3e1286cc	0.14309233
216	0x3d486721	0.048926476
217	0xbe689ce4	-0.22716099
218	0xbe9f6d7d	-0.3113822
219	0xbde47a60	-0.11156154
220	0x3d22a40c	0.03970723
221	0xbd9da1f5	-0.076969065
222	0xbd2194e0	-0.03944862
223	0x3dfaac18	0.122398555
224	0xbe43a6f5	-0.19106658
225	0xbe83ff00	-0.25780487
226	0xbdce3ea4	-0.100705415
227	0xbe11cdb7	-0.1423863
228	0xbe7d0f46	-0.24712858
229	0xbcbbbd05	-0.02291728
230	0x3da964c0	0.0827117
231	0xbd70c728	-0.05878368
232	0x3c138180	0.009003043
233	0xbc9a481f	-0.018833218
234	0xbe62ba4a	-0.22141376
235	0xbe76cd59	-0.24101771
236	0xbde3fc24	-0.111320764
237	0x3d9d65a8	0.07685405
238	0x3b13eefe	0.002257287
239	0x3e32280a	0.17398086
240	0xbd7491a1	-0.059709195
241	0xbe3632b7	-0.17792784
242	0xbe8dd801	-0.2770386
243	0x3d664a05	0.056222934
244	0xbd671603	-0.056417476
245	0x3be417e0	0.006960854
246	0x3e4cce72	0.20000628
247	0xbd851621	-0.064983614
248	0x3d781d2b	0.06057469
249	0xbdd3c0f5	-0.10339538
250	0xbe4f5b13	-0.20249586
251	0x3d9a7002	0.07540895
252	0x3d9ab423	0.075538896
253	0xbd9f5d78	-0.077814996
254	0xbe7289f8	-0.23685443
255	0xbe0b1a23	-0.13584189

gnn.convs.1.nn.lins.1.bias f4 [16]
0	0x3e653444	0.22383219
1	0x3eae5a42	0.34053236
2	0xbe6fcb08	-0.23417294
3	0xbe8fb2d7	-0.2806613
4	0xbeeaf3ad	-0.45889035
5	0xbe2948ab	-0.16531627
6	0xbe2d882a	-0.16946474
7	0x3de777d9	0.11302156
8	0xbd6d6e4f	-0.057966527
9	0x3e653d79	0.22386731
10	0x3ecef04f	0.40417716
11	0xbdf83dca	-0.1212116
12	0xbcd623b1	-0.026140066
13	0xbeb9d4b9	-0.36295107
14	0xbe3b1fd4	-0.1827386
15	0xbe9b34f0	-0.30313826

gnn.convs.2.nn.lins.0.weight f4 [16, 16]
0	0xbed70d69	-0.4200242
1	0xbd6c24e9	-0.057652388
2	0x3c0372e0	0.008022994
3	0xbd9a26dd	-0.07526944
4	0xbd937146	-0.071993396
5	0x3e6c039a	0.23048249
6	0x3d832012	0.06402601
7	0xbe543734	-0.20724183
8	0xbe68305b	-0.22674696
9	0xbd97c90c	-0.074113935
10	0xbebb090e	-0.36530346
11	0x3e18da98	0.14927137
12	0xbcab53cc	-0.02091398
13	0x3df76581	0.12079907
14	0x3deff511	0.117166646
15	0x3e1f5aaf	0.15561937
16	0xbdb5d72d	-0.08878932
17	0x3df8b738	0.12144321
18	0x3c9ffe55	0.019530455
19	0x3e4513bb	0.19245808
20	0xbd3d4c59	-0.04621539
21	0xbda4b662	-0.08042599
22	0xbd120dcc	-0.03565769
23	0x3e5d76b3	0.21627311
24	0xbe4048e9	-0.18777813
25	0x3e113dde	0.14183757
26	0xbee9dc9f	-0.45676133
27	0x3e3acdc3	0.18242554
28	0xbeb1e7fe	-0.34747308
29	0x3e3b84c3	0.18312363
30	0x3df745fc	0.12073895
31	0xbd81da5a	-0.063404754
32	0xbea182df	-0.3154516
33	0x3dfdc082	0.123902336
34	0x3e4f4a0a	0.20243087
35	0xbe5f25a9	-0.2179171
36	0xbe697ac8	-0.22800744
37	0xbe074386	-0.13209352
38	0xbd8170d2	-0.06320347
39	0xbe94429a	-0.28957063
40	0xbdd1b063	-0.10238721
41	0xbe665a5e	-0.2249541
42	0xbe2c8009	-0.16845717
43	0xbd8feb6a	-0.070273235
44	0xbf00bc81	-0.50287634
45	0x3e28634b	0.16444127
46	0xbce89fdd	-0.028396541
47	0x3e1303f8	0.14356983
48	0x3bfc83b4	0.00770613
49	0xbe249d58	-0.16075647
50	0x3e83e11f	0.2575769
51	0x3de9dfaf	0.114196174
52	0xbea1da2f	-0.31611773
53	0xbc9fda1d	-0.019513184
54	0xbd82acb2	-0.06380595
55	0xbe2c5304	-0.16828543
56	0xbeb1683c	-0.34649837
57	0xbd998e53	-0.07497849
58	0xbd4ba4b9	-0.04971764
59	0xbde4b7f9	-0.111679025
60	0xbe5056fb	-0.2034568
61	0x3e2c4946	0.16824827
62	0xbc00643f	-0.0078364005
63	0x3e9e2323	0.30886182
64	0xbe366c48	-0.17814744
65	0xbe370a88	-0.17875111
66	0x3e09d610	0.13460565
67	0x3e39eb35	0.1815613
68	0x3d853724	0.06504658
69	0xbe0b7cbb	-0.136218
70	0x3e1cea4c	0.15323752
71	0xbe9fec7a	-0.31235105
72	0xbc883672	-0.016627524
73	0xbe73c3a1	-0.23805095
74	0x3cb771ae	0.022393074
75	0xbe004626	-0.1252676
76	0x3dd3b678	0.103375375
77	0xbe211f5f	-0.15734623
78	0xbdcc0359	-0.09961576
79	0x3e757a28	0.2397238
80	0x3d0fdb85	0.03512146
81	0xbe0aabdf	-0.13542126
82	0xba96089b	-0.0011446656
83	0x3e19c09f	0.15014885
84	0xbe657d58	-0.22411096
85	0xbc8730f6	-0.016502839
86	0xbde83c25	-0.11339597
87	0xbd6783d7	-0.056522217
88	0xbe675284	-0.22590071
89	0xbd50ef06	-0.0510092
90	0xbe6dadbf	-0.2321081
91	0xbdb5c161	-0.08874775
92	0xbe9ea09b	-0.30981907
93	0x3e83c35a	0.2573498
94	0xbe385681	-0.18001749
95	0xbc54b2d3	-0.012982088
96	0xbe2f8117	-0.17139088
97	0xbd384480	-0.0449872
98	0x3da80a35	0.08205072
99	0x3e0a7c0a	0.1352388
100	0xbeb4375b	-0.35198483
101	0xbcf86cea	-0.030325372
102	0xbdb5a570	-0.08869445
103	0xbe836996	-0.25666493
104	0xbef501ad	-0.4785284
105	0xbeb7083c	-0.3574847
106	0xbe91a867	-0.28448793
107	0xbe0cb417	-0.13740574
108	0xbdb5e5af	-0.08881699
109	0x3d0a3792	0.033744402
110	0x3e98e316	0.29860753
111	0xbebe4c17	-0.37167427
112	0xbd252761	-0.040320758
113	0xbe641079	-0.22271909
114	0xbe75111a	-0.23932305
115	0x3c092b5e	0.008372156
116	0xbd9c54dc	-0.07633373
117	0xbe2fd292	-0.1717017
118	0xbe12bbb0	-0.1432941
119	0xbe79597f	-0.24350546
120	0xbd0230fa	-0.03178499
121	0xbcb0ec73	-0.021597123
122	0xbe9d7990	-0.30756807
123	0xbe7ef1ed	-0.24896975
124	0xbddcb30d	-0.10776339
125	0xbe46f528	-0.19429457
126	0xbe69c3f6	-0.2282866
127	0xbe6282b4	-0.22120172
128	0x3c8a0195	0.016846457
129	0xbdb176bb	-0.08665224
130	0x3e16b951	0.1471913
131	0xbd877779	-0.066145845
132	0xbd968cec	-0.073510975
133	0x3d9bdd16	0.07610528
134	0x3cad7276	0.021172743
135	0xbe255917	-0.16147266
136	0x3d3b4b26	0.045725964
137	0xbe8110ad	-0.25208035
138	0xbde0aaae	-0.109700546
139	0x3e112929	0.14175858
140	0xbe3541bb	-0.17700855
141	0x3c0e582e	0.008688016
142	0xbdb743e1	-0.08948494
143	0x3dc63fd4	0.09680143
144	0x3e419d10	0.18907571
145	0x3e0acee7	0.1355549
146	0x3d9e77d0	0.07737696
147	0xbe58b143	-0.2116137
148	0xbda7148b	-0.08158215
149	0xbe10cfed	-0.14141817
150	0x3e5d2797	0.21597134
151	0x3d9abaf5	0.075551905
152	0xbd40c3e6	-0.047061823
153	0x3d65935c	0.056048736
154	0x3e504878	0.20340145
155	0x3d1e4e1f	0.03864872
156	0x3d581561	0.052754764
157	0x3dc73da4	0.09728554
158	0x3ea38370	0.31936216
159	0xbd4b8012	-0.049682684
160	0x3d7c8100	0.06164646
161	0x3d633b48	0.055476457
162	0xbe166768	-0.14687884
163	0xbc969921	-0.018383564
164	0xb8cd92b0	-9.8024844e-05
165	0xbe223f8c	-0.15844554
166	0x3d89a68e	0.06721221
167	0xbd2a0475	-0.041508157
168	0xbe0cea7f	-0.13761328
169	0x3e28563f	0.1643915
170	0xbf345b31	-0.7045165
171	0xbe181380	-0.14851189
172	0xbe60b291	-0.21943118
173	0xbe2405f2	-0.16017893
174	0x3da0de55	0.078549065
175	0xbe0c3376	-0.13691506
176	0xbe959a70	-0.2921939
177	0x3d45860f	0.04822355
178	0xbe534947	-0.20633422
179	0xbda26586	-0.0792952
180	0xbb63f883	-0.0034785576
181	0xbe1301f3	-0.14356212
182	0x3dea830c	0.114507765
183	0xbddeee77	-0.10885327
184	0xbe7d0b48	-0.24711335
185	0xbdf0cfd1	-0.11758388
186	0xbdd80df0	-0.10549533
187	0x3cf86d79	0.030325638
188	0x3dede47e	0.11615847
189	0x3d8dcad0	0.06923449
190	0xbd8641ff	-0.065555565
191	0x3e471df3	0.19445018
192	0xbe2b05ae	-0.16701385
193	0xbd5c6a14	-0.0538121
194	0xbe5b3e08	-0.21410382
195	0x3e4476ef	0.19185995
196	0xbd1d0b51	-0.03834087
197	0x3e5974a8	0.21235907
198	0x3d6346ea	0.05548755
199	0xbe666158	-0.22498071
200	0xbea295f7	-0.3175504
201	0x3dd1c150	0.102419496
202	0x3bd46700	0.006482005
203	0x3e625806	0.22103891
204	0x3cead2c7	0.02866496
205	0xbe9a133a	-0.30092794
206	0xbe59d802	-0.21273807
207	0xbe5d66c5	-0.21621235
208	0xbde368be	-0.11103962
209	0xbe9ac93d	-0.30231658
210	0xbe2bf885	-0.16794021
211	0x3d3c5728	0.045981556
212	0xbe8cb1b5	-0.2747933
213	0xbe8d066c	-0.27543962
214	0x3da5ec71	0.08101738
215	0xbcbc38ec	-0.022976361
216	0x3d1cae39	0.03825209
217	0xbd47f784	-0.048820034
218	0x3e1324cb	0.14369504
219	0xbd5269e6	-0.051370524
220	0xbf1e6971	-0.6187964
221	0x3d9b1f84	0.075743705
222	0xbd2c417f	-0.04205465
223	0x3e4b3a97	0.19846569
224	0xbcfcd11e	-0.030861434
225	0xbe47743b	-0.19477932
226	0x3deda61f	0.11603951
227	0xbe599b15	-0.21250565
228	0x3e287938	0.16452491
229	0xbdd5c060	-0.10437083
230	0x3e453510	0.19258523
231	0xbdeb8452	-0.114998475
232	0xbed7cc6b	-0.42148146
233	0x3e165288	0.1467992
234	0x3cfaaa2b	0.03059872
235	0xbd26f627	-0.040762093
236	0xbebc218c	-0.36744344
237	0x3e34ae43	0.176446
238	0x3e1029a2	0.14078382
239	0x3bd379b0	0.0064537153
240	0xbe9fc226	-0.3120281
241	0xbb6e98f1	-0.0036407078
242	0x3e569197	0.20953976
243	0xbc46c5a6	-0.012132084
244	0xbda6f21f	-0.0815165
245	0x3e422940	0.18961048
246	0xbda150ec	-0.07876763
247	0x3d5bb4fe	0.053639404
248	0xbec17edd	-0.37792102
249	0x3cb40138	0.021973237
250	0xbf0278dc	-0.50965667
251	0x3e050ff8	0.12994373
252	0xbcdc4015	-0.026886025
253	0x3d7ad3e1	0.06123722
254	0xbcd1eec3	-0.025626546
255	0xbde6e169	-0.11273462

gnn.convs.2.nn.lins.0.bias f4 [16]
0	0x3ec81422	0.3907786
1	0xbb35c134	-0.0027733566
2	0x3e27d5c2	0.16390136
3	0xbda43937	-0.08018725
4	0xbea3ff23	-0.3203059
5	0xbe0d84fd	-0.13820262
6	0xbd961ae4	-0.07329348
7	0xbecf7ac1	-0.4052334
8	0x3e11bc03	0.14231877
9	0xbd914c40	-0.07094622
10	0xbe374bb0	-0.17899966
11	0xbe0395d3	-0.12850122
12	0xbeaef56f	-0.34171626
13	0x3e2d7be7	0.16941796
14	0xbddc3ec1	-0.10754157
15	0xbe47420e	-0.19458792

gnn.convs.2.nn.lins.1.weight f4 [16, 16]
0	0xbe92e5e1	-0.2869101
1	0xbe0c82fe	-0.13721845
2	0xbe91065f	-0.28325173
3	0xbd2fdc5f	-0.04293477
4	0x3c59cc9d	0.0132934125
5	0xbd855731	-0.06510771
6	0x3e9d9f7e	0.30785745
7	0xbb300c5a	-0.002686283
8	0x3e028102	0.12744525
9	0xbf30ee20	-0.6911335
10	0xbd470965	-0.048592944
11	0x3e4bbaf1	0.19895531
12	0x3e3b9839	0.18319787
13	0x3e8e64ca	0.2781127
14	0x3e6e19f4	0.23252088
15	0x3ec81c64	0.3908416
16	0xbe1fe864	-0.15615994
17	0xbdc59752	-0.09648003
18	0x3b997e46	0.0046842424
19	0x3e13fe53	0.14452486
20	0x3d003d32	0.03130836
21	0x3d97393a	0.07383962
22	0xbe527892	-0.20553806
23	0x3dcbefc4	0.09957841
24	0xbe2a2a17	-0.16617619
25	0xbe872905	-0.26398483
26	0x3d927fec	0.071533054
27	0x3e38e3b8	0.18055618
28	0xbdb8d5b3	-0.09025135
29	0x3e626a51	0.22110869
30	0x3dde5df4	0.10857764
31	0xbbe77c90	-0.0070644096
32	0xbe508ee7	-0.20367013
33	0xbe31b73b	-0.17355053
34	0xbe478679	-0.19484891
35	0x3cfc3f7d	0.030791992
36	0xbe486401	-0.19569398
37	0x3e136575	0.14394172
38	0x3d93f367	0.0722416
39	0xbde38eac	-0.11111197
40	0x3dcb13b1	0.09915865
41	0xbe5f2c69	-0.21794285
42	0xbe0a7efb	-0.13525002
43	0x3d2ffdac	0.04296653
44	0x3e7d6895	0.24746926
45	0xbca19335	-0.019723514
46	0x3cf20ec8	0.029548064
47	0xbe4873ba	-0.19575396
48	0xbeb990ed	-0.36243382
49	0xbde34875	-0.110978045
50	0x3e6fa9e7	0.23404656
51	0x3cbfd2ac	0.023415886
52	0x3dababeb	0.083824
53	0x3d44ea8a	0.048075236
54	0xbf160a6e	-0.58609664
55	0x3d71aa11	0.05900008
56	0xbdf3cc0f	-0.119041555
57	0xbdb3324e	-0.08749829
58	0xbe34aef6	-0.17644867
59	0xbefe2b15	-0.49642244
60	0xbe93255d	-0.28739443
61	0xbe48af88	-0.1959821
62	0xbdb356cc	-0.087567896
63	0x3e43ef5b	0.19134276
64	0xbdadb2a2	-0.08481337
65	0x3e0fc2d5	0.14039166
66	0xbe101bb5	-0.1407307
67	0xbe9b2cf7	-0.30307743
68	0xbe50381f	-0.20333908
69	0xbe02b595	-0.1276458
70	0xbe671c1d	-0.22569318
71	0x3d47ceb5	0.048781116
72	0xbe0c2baf	-0.13688539
73	0x3d38ff0c	0.045165107
74	0x3e2ee529	0.17079605
75	0x3e086de4	0.1332317
76	0x3e57a0c5	0.21057422
77	0xbd97f71f	-0.074201815
78	0xbe5922b5	-0.21204646
79	0x3e826588	0.25468087
80	0x3d9a2514	0.07526603
81	0xbde37276	-0.11105816
82	0xbedf95d9	-0.43669012
83	0x3e5635d8	0.20918977
84	0x3eb5e67f	0.35527417
85	0x3d6f2732	0.05838699
86	0x3eadc975	0.33942762
87	0x3ea4ad1f	0.3216333
88	0x3dc1409f	0.094361536
89	0xbde5d89a	-0.11222954
90	0x3d6619da	0.056176998
91	0xbda3f4f0	-0.080057025
92	0xbc53977e	-0.0129145365
93	0x3e7f440c	0.24928302
94	0xbd64a4ff	-0.055821415
95	0x3db56495	0.08857075
96	0xbe8eb0d3	-0.2786928
97	0xb9156fcf	-0.00014251399
98	0xbda69989	-0.08134753
99	0xbe254309	-0.16138853
100	0xbd5df88c	-0.05419211
101	0x3b1131d9	0.0022154956
102	0x3d4b68d3	0.049660515
103	0xbe6f307c	-0.23358339
104	0xbc95e158	-0.018295929
105	0xbd2947c2	-0.0413282
106	0xbd8dea98	-0.06929511
107	0xbe52e5c3	-0.2059546
108	0xbced9fec	-0.02900692
109	0x3e02b89a	0.12765732
110	0xbe15e40a	-0.14637771
111	0xbd78b1b6	-0.060716353
112	0x3cb3f67d	0.02196812
113	0x3e8c7f01	0.27440646
114	0x3eb481e9	0.35255364
115	0x3cea8682	0.028628591
116	0xbf1a310c	-0.6023109
117	0xbdb4920b	-0.08816918
118	0xbd50c3aa	-0.05096785
119	0xbeae00f7	-0.3398511
120	0xbea1163f	-0.31462285
121	0xbe82cc20	-0.2554636
122	0xbd499100	-0.04921055
123	0x3e2faad3	0.17155008
124	0x3d94d262	0.0726669
125	0x3b65287f	0.0034966765
126	0x3e44fc27	0.19236813
127	0x3e228cfa	0.15874091
128	0x3ea56dfc	0.32310474
129	0xbec81216	-0.39076298
130	0x3e4ac0b2	0.1980007
131	0xbdc90177	-0.098147325
132	0xbe5e5e01	-0.21715547
133	0x3e5c383f	0.21505831
134	0x3e73072f	0.23733209
135	0x3e88c7b9	0.26714876
136	0x3e28d0e4	0.16485935
137	0xbebd172c	-0.3693174
138	0xbe8febd2	-0.28109604
139	0xbe16ed6f	-0.14739011
140	0xbd9a3714	-0.075300366
141	0x3d948755	0.07252375
142	0xbea5cdb9	-0.32383516
143	0xbe3cba17	-0.18430363
144	0xbe44e71f	-0.1922879
145	0xbe94a11e	-0.29029173
146	0x3da1c5a6	0.078990266
147	0x3e074bc9	0.13212503
148	0xbe20a3f0	-0.15687537
149	0x3d971330	0.073767066
150	0x3df9b7e9	0.12193281
151	0x3de9904e	0.11404477
152	0xbd67f8b8	-0.05663368
153	0xbdd817f3	-0.10551443
154	0xbd6109bc	-0.054940924
155	0xbe51686f	-0.20449995
156	0xbc2a2453	-0.010384637
157	0x3e0d440b	0.13795488
158	0xbe898e42	-0.26866347
159	0xbd5181a1	-0.051149014
160	0xbe361412	-0.17781094
161	0xbe858fc3	-0.26086244
162	0xbe40cb59	-0.18827571
163	0xbe265be3	-0.1624599
164	0xbd16016d	-0.036622453
165	0xbdc0d886	-0.094162986
166	0xbe35dab4	-0.1775921
167	0x3dc7a9a4	0.09749153
168	0xbde8e029	-0.1137088
169	0xbc70c366	-0.014695024
170	0x3dff3852	0.12461914
171	0xbd14d19d	-0.036332715
172	0x3cbcc5c1	0.023043515
173	0x3a16399a	0.0005730629
174	0x3d971d1e	0.073786005
175	0x3dc78be8	0.09743482
176	0xb9e41405	-0.00043502465
177	0x3dea5d16	0.11443536
178	0x3e82895d	0.25495425
179	0xbe95a20f	-0.29225203
180	0x3e8eaf49	0.27868107
181	0xbe5d12e4	-0.21589237
182	0x3e0fbee9	0.1403767
183	0xbeafa449	-0.34305027
184	0x3d964591	0.073374875
185	0xbd7731e8	-0.06035033
186	0xbd382741	-0.04495931
187	0xbd78f752	-0.060782738
188	0xbe30fc09	-0.17283644
189	0xbedfbe2b	-0.43699774
190	0xbddbfbc4	-0.1074138
191	0xbde36364	-0.11102942
192	0xbe6f7c6b	-0.23387305
193	0x3df93bcf	0.12169611
194	0x3c3e3774	0.011609901
195	0xbe1692e3	-0.1470447
196	0xbe2cf4a3	-0.16890197
197	0xbdca7bbd	-0.098868825
198	0x3d40763e	0.046987765
199	0xbd323788	-0.04350999
200	0xbda600a6	-0.081055924
201	0xbd4138f3	-0.04717345
202	0xbea7ddf6	-0.3278653
203	0xbd98e9fe	-0.074665055
204	0xbdf127cd	-0.117751695
205	0xbe88e21a	-0.26735002
206	0xbea92839	-0.330385
207	0xbd945f1e	-0.07244705
208	0xbf0a251c	-0.53962874
209	0x3e67a19b	0.22620241
210	0xbef483d9	-0.47756842
211	0x3da15f2b	0.0787948
212	0xbe6bed80	-0.23039818
213	0xbce322c3	-0.027726537
214	0x3e0e9217	0.13922916
215	0xbd3a62bb	-0.045504313
216	0xbdd41996	-0.10356443
217	0x3cbf952b	0.023386559
218	0x3d86aac2	0.06575538
219	0x3d95e718	0.07319468
220	0xbe3209c7	-0.17386542
221	0xbd9a7738	-0.075422704
222	0xbd26f2a2	-0.040758736
223	0x3cfb0d06	0.030645858
224	0x3db685e8	0.08912259
225	0xbdee0644	-0.11622289
226	0xbc018382	-0.007904889
227	0x3d2e7f1b	0.042601686
228	0xbcc7b1ec	-0.024376832
229	0x3df2f54d	0.11863194
230	0x3d383a10	0.044977248
231	0xbe3f72f2	-0.18696192
232	0x3d3e1c11	0.046413485
233	0xbe5102a4	-0.20411164
234	0x3e055b67	0.13023148
235	0xbd57ad33	-0.05265541
236	0xbe89fd95	-0.2695128
237	0xbe51c91f	-0.20486878
238	0xbeb5a86c	-0.35480058
239	0xbe97cee9	-0.29650047
240	0xbe3421c4	-0.17591006
241	0xbcf860e9	-0.030319648
242	0xbd8c47aa	-0.06849606
243	0x3c37668b	0.011193882
244	0xbe82c032	-0.25537258
245	0xbda1689f	-0.07881283
246	0xbdbd65c3	-0.09247925
247	0x3d602f8a	0.054732837
248	0xbe7d520c	-0.2473833
249	0xbcc9cd75	-0.024634102
250	0xbe85c9bf	-0.26130483
251	0x3d57a6b1	0.052649204
252	0xbe3528d9	-0.17691363
253	0xbd2d00b2	-0.04223699
254	0xbdcd9639	-0.10038418
255	0x3cf95779	0.030437218

gnn.convs.2.nn.lins.1.bias f4 [16]
0	0xbd5d460c	-0.05402188
1	0x3e5ea4d7	0.21742569
2	0xbea80049	-0.32812718
3	0x3c9f9a1a	0.019482661
4	0x3d9ccfcc	0.076568216
5	0xbd4325a7	-0.04764333
6	0xbd19ce73	-0.0375504
7	0xbda25b93	-0.07927623
8	0x3e2b4326	0.16724834
9	0xbd02653c	-0.031834826
10	0x3d185c05	0.03719713
11	0xbdf37f01	-0.118894584
12	0xbd04e37b	-0.032443505
13	0x3d6c9737	0.057761397
14	0xbea16338	-0.3152101
15	0xbd54f13a	-0.051987864

gnn.convs.3.nn.lins.0.weight f4 [16, 16]
0	0x3e09eb9f	0.13468789
1	0xbe4cc306	-0.1999627
2	0xbe33ed6a	-0.17571035
3	0x3d6f6fc4	0.058456197
4	0xbebd9dc1	-0.3703442
5	0x3e2c0ecf	0.16802524
6	0xbe9d6fe7	-0.30749437
7	0xbd1c2028	-0.038116604
8	0x3ce0a9d6	0.027424734
9	0xbdf45de0	-0.11931968
10	0xbe13030d	-0.14356633
11	0xbe8b9e3c	-0.2726916
12	0x3e2c5840	0.1683054
13	0xbf0c2584	-0.54744744
14	0xbd46b1b1	-0.048509303
15	0x3e26d82e	0.16293404
16	0xbe1c48f9	-0.15262212
17	0xbeb02c0d	-0.34408608
18	0xbe5c2837	-0.21499716
19	0x3da7b357	0.08188503
20	0xbe6c23f2	-0.23060587
21	0xbe830b41	-0.25594524
22	0x3d2d3d80	0.04229498
23	0x3c82d21b	0.015969327
24	0xbe08d966	-0.13364181
25	0xbd8df016	-0.069305584
26	0xbdc3e972	-0.095660105
27	0x3c27f286	0.010250693
28	0x3d506e06	0.050886177
29	0xbd777e24	-0.06042303
30	0x3d175350	0.036944687
31	0xbdecfedb	-0.11572047
32	0xbdd9b50d	-0.10630236
33	0x3df993e7	0.12186413
34	0xbdf20ce0	-0.11818862
35	0x3dc8cc41	0.09804583
36	0x3d2d9c9e	0.04238569
37	0x3e9c576d	0.3053545
38	0x3d60dac5	0.054896135
39	0xbe7288cf	-0.23685001
40	0x3ed12209	0.4084628
41	0x3e32edd0	0.17473531
42	0x3d2becdb	0.04197393
43	0x3e5d2efb	0.21599953
44	0xbd9d2db4	-0.07674733
45	0x3e83846e	0.25686973
46	0x3e00dc86	0.12584123
47	0xbe6496d6	-0.22323164
48	0x3d6c8884	0.05774738
49	0xbedfe8e5	-0.43732372
50	0xbd46e715	-0.04856022
51	0x3d55183a	0.052025057
52	0xbd47bf3e	-0.048766367
53	0xbeeb6de5	-0.4598228
54	0xbc8554e8	-0.016275838
55	0xbec2f9d2	-0.38081223
56	0xbf08aa5c	-0.5338495
57	0xbe8a1850	-0.26971674
58	0xbe0e65cd	-0.13906021
59	0xbdbf4462	-0.09339215
60	0x3d647e8b	0.055784743
61	0xbe9e543b	-0.30923638
62	0xbd499bb6	-0.049220763
63	0xbe7e58e8	-0.24838603
64	0xbd7deeab	-0.06199519
65	0x3e7773a9	0.24165215
66	0x3bb9d9cb	0.005671715
67	0x3dde6bdb	0.108604155
68	0xbdaa0f0a	-0.0830365
69	0x3eab9cce	0.3351807
70	0x3ea53687	0.32268164
71	0xbe822e5f	-0.25426003
72	0xbd04273f	-0.03226399
73	0x3de02c3c	0.10945937
74	0xbe2c08fd	-0.16800304
75	0x3d5ba2d9	0.0536221
76	0x3e5aad9b	0.21355288
77	0x3d39b6fa	0.045340516
78	0xbe7efaae	-0.24900314
79	0xbe890d78	-0.26768088
80	0x3e669088	0.22516072
81	0x3d00335e	0.031298988
82	0xbe10e8d7	-0.14151321
83	0xbdedade0	-0.1160543
84	0x3d992dbc	0.07479426
85	0x3d71be52	0.059019394
86	0xbea02f02	-0.31285864
87	0xbdc08dae	-0.09402023
88	0xbe711632	-0.23543623
89	0xbe094200	-0.13404083
90	0xbe5feec4	-0.21868426
91	0xbe528a2c	-0.20560521
92	0x3db289f0	0.08717716
93	0x3d81254f	0.06305944
94	0x3d98fb4e	0.074698076
95	0xbe465190	-0.19367051
96	0xbf134506	-0.57527196
97	0xbe32edbe	-0.17473504
98	0xbe726786	-0.23672304
99	0x3c5d2948	0.013498612
100	0x3e0c5e4f	0.13707851
101	0xbf310bda	-0.6915871
102	0x3e7655b1	0.24056126
103	0xbd759d13	-0.05996425
104	0xbee5481f	-0.44781587
105	0xbe15ed02	-0.14641193
106	0x3af4dd42	0.0018681663
107	0xbdb0712b	-0.08615335
108	0xbde0fee3	-0.10986116
109	0xbe623c37	-0.22093283
110	0xbdc07587	-0.093974166
111	0x3dae7af5	0.08519546
112	0xbd8cd70f	-0.06876957
113	0xbe02ba72	-0.12766436
114	0xbce224e3	-0.02760548
115	0xbc241a6c	-0.010016065
116	0xbeca74a5	-0.39542118
117	0xbe47eac0	-0.19523144
118	0x3c8a08b1	0.016849848
119	0xbe2cb28a	-0.16864982
120	0xbeb5cd2f	-0.35508105
121	0xbcc7b5cc	-0.02437868
122	0xbe8c1be6	-0.27365035
123	0xbe153eaa	-0.14574686
124	0x3e6d3aaf	0.23166917
125	0xbeaf8290	-0.342793
126	0xbdb6e4dc	-0.0893037
127	0x3dfd2525	0.123606004
128	0x3b6b159e	0.003587104
129	0xbeebc1d7	-0.46046326
130	0xbe2d9240	-0.16950321
131	0xbd93170e	-0.07182132
132	0xbe75ed6f	-0.24016355
133	0xbe86273f	-0.26201817
134	0xbc59839e	-0.013276009
135	0xbdaae521	-0.08344484
136	0xbd045a7a	-0.032312848
137	0xbce8622c	-0.028367124
138	0xbddc1b1c	-0.10747358
139	0x3d800367	0.06250649
140	0xbea8b669	-0.32951668
141	0x3e01c9a6	0.12674579
142	0x3e841a6f	0.25801417
143	0xbdb16b0f	-0.08662998
144	0xbdaf0ed5	-0.08547751
145	0xbe955def	-0.29173228
146	0x3d85dde5	0.06536464
147	0x3d963424	0.07334164
148	0xbec82291	-0.39088872
149	0xbe5ca6a0	-0.21547937
150	0x3b61ed92	0.0034473878
151	0xbe00e3bc	-0.12586874
152	0x3dd8c24c	0.10583934
153	0xbe1b582a	-0.1517035
154	0xbdedfd66	-0.116205975
155	0x3e5c6834	0.21524125
156	0xbd5f5d96	-0.05453261
157	0xbe8f8f8e	-0.2803921
158	0x3e48dbd4	0.19615108
159	0xbe93309d	-0.28748026
160	0xbec9a853	-0.39386234
161	0xbc813209	-0.015770929
162	0xbbb299be	-0.0054504564
163	0x3ecd0246	0.40040797
164	0xbe4e5f69	-0.20153584
165	0xbedaafbf	-0.4271221
166	0x3ce1ed04	0.027578838
167	0x3e16b0cd	0.14715882
168	0xbea6e08e	-0.32593197
169	0xbca14980	-0.019688368
170	0x3c746c40	0.014918387
171	0x3e30c86b	0.17263953
172	0xbe092fa8	-0.13397086
173	0xbdf33bb7	-0.11876624
174	0xbe398489	-0.18116964
175	0xbd8c260e	-0.06843196
176	0xbe4bd25b	-0.19904463
177	0x3c9d3863	0.019191926
178	0xbc5bb266	-0.013409233
179	0x3d2e8b7c	0.04261349
180	0x3da60ded	0.08108125
181	0xbef66995	-0.48127428
182	0xbd0db578	-0.03459689
183	0xbe875148	-0.264292
184	0xbf09f615	-0.53891116
185	0xbdfc4f3e	-0.12319802
186	0xbe1e065d	-0.15432115
187	0x3d05f221	0.032701615
188	0x3e28876d	0.16457911
189	0xbf006678	-0.50156355
190	0x3dc79aa6	0.09746294
191	0x3ca22bc4	0.01979626
192	0xbe6139c3	-0.2199469
193	0xbcef3a10	-0.029202491
194	0xbe2a22fb	-0.16614906
195	0xbd2f4244	-0.042787805
196	0xbe11f044	-0.1425181
197	0xbda2717d	-0.079318024
198	0x3e2c424b	0.16822164
199	0xbcff7bdf	-0.031186996
200	0xbd87a969	-0.06624109
201	0x3d68f25d	0.05687176
202	0xbe92f642	-0.28703505
203	0x3dd6aec9	0.104825564
204	0x3dc83501	0.09775735
205	0xbf301f14	-0.6879742
206	0xbdadf0bc	-0.08493182
207	0xbdf14d5e	-0.11782335
208	0xbe030ec2	-0.12798598
209	0xbe50880c	-0.20364398
210	0xbe754478	-0.239519
211	0x3dd233a3	0.10263755
212	0xbc672f07	-0.014110333
213	0xbd3854d6	-0.04500278
214	0x3c6ec95f	0.014574378
215	0xbe2948fc	-0.16531748
216	0xbe531d65	-0.20616682
217	0x3d3d7fec	0.046264574
218	0xbe55a913	-0.20865278
219	0xbe861ea6	-0.26195258
220	0x3d87abc6	0.0662456
221	0xbe9dfeb8	-0.30858397
222	0x3c70e2e7	0.014702535
223	0xbe842d0a	-0.25815612
224	0xbe3b00df	-0.18262051
225	0xbdeaf97b	-0.11473366
226	0xbf032bc2	-0.51238644
227	0x3e880676	0.2656743
228	0xbc8dbe59	-0.017302679
229	0xbeaaf3ac	-0.33389032
230	0x3d9d3b8a	0.07677372
231	0xbd3e5959	-0.046471927
232	0xbdc577bd	-0.09641979
233	0xb9306199	-0.00016821026
234	0x3d8c8e38	0.068630636
235	0xbe4d7f16	-0.2006801
236	0xbe308360	-0.17237616
237	0xbdc13fcc	-0.094359964
238	0xbdb28e35	-0.0871853
239	0x3bc7dffd	0.0060996995
240	0xbe98360d	-0.29728737
241	0x3d132694	0.035925463
242	0x3d20aec0	0.039229155
243	0xbd87d34a	-0.06632097
244	0xbe91ab05	-0.2845079
245	0xbd83de3c	-0.06438872
246	0xbe75848d	-0.23976345
247	0x3d908c28	0.07057983
248	0xbe17fc71	-0.14842393
249	0xbe200b3f	-0.1562929
250	0xbe8eb290	-0.27870607
251	0xbe73ce82	-0.23809245
252	0x3d269980	0.040673733
253	0x3d312edc	0.04325758
254	0x3e36058f	0.17775558
255	0xbd80d8e5	-0.06291369

gnn.convs.3.nn.lins.0.bias f4 [16]
0	0xbe9c6ba7	-0.30550882
1	0xbe946add	-0.2898778
2	0x3e8a6039	0.27026537
3	0xbd1a23fa	-0.037631966
4	0xbe5eab21	-0.21744968
5	0x3e17495d	0.1477408
6	0xbf0ae570	-0.54256344
7	0xbb8ee756	-0.0043610735
8	0xbddc5ba5	-0.10759667
9	0xbeaa6886	-0.3328287
10	0x3d13ce2a	0.036085285
11	0xbe24e5d9	-0.16103305
12	0xbe68b263	-0.22724299
13	0x3dde32f9	0.10849566
14	0xbd82667e	-0.06367205
15	0xbe8e53b0	-0.27798223
