Run_GIN_ModelCheckpoint_EvFr_2/NCI1_reps_2_folds_5_epochs_20_2023-04-26_11-05/rep_0_fold_0/checkpoints/model_trial_1.ckpt (torch, 245261 bytes, 86 tensors)

gnn.convs.0.nn.lins.0.weight f4 [32, 37]
000000 0c 59 14 3e 23 4f 68 bd 09 e2 7f ba b0 26 f2 3e
       0.14487094 -0.056716096 -0.000976116 0.4729514
000010 f7 19 40 bf b6 8e 6f 3e 1c 40 1f be ce 5a 80 3d
       -0.7503962 0.23394284 -0.155518 0.062673196
000020 f1 0c a4 3f 9e c7 4c 3f 57 55 3a 40 d2 3f a7 3f
       1.2816449 0.7999209 2.9114587 1.3066351
000030 52 51 08 40 ae 56 80 be b9 3f 9e 3f d0 fd 75 3e
       2.1299634 -0.2506613 1.2363197 0.24022603
000040 b0 be 31 be a2 c8 39 40 ab db 71 3f 26 48 96 3f
       -0.17357898 2.9028707 0.9447581 1.1740768
000050 e7 03 d8 be 83 77 af be 45 81 7e 3d 65 48 b3 3f
       -0.42190477 -0.34270868 0.062135 1.4006468
000060 c7 ab a1 3f e4 31 5b 3f 04 9d 4f 3f af 24 29 3f
       1.2630547 0.85623 0.8109896 0.660716
000070 ff 26 94 bb ba 44 1b be 65 7c 16 3d 9e b2 d5 3d
       -0.0045212503 -0.15162936 0.036739726 0.10434459
000080 e5 4a 07 be 84 f2 b6 bb f8 3a e1 bd 4a f9 fc bd
       -0.13212164 -0.0055831093 -0.109975755 -0.123522356
000090 e6 77 17 bd a8 a9 21 bd 73 fe 5d be 53 e1 d5 be
       -0.03697958 -0.039468437 -0.21679096 -0.4177347
0000a0 15 fc 4f bf c9 fc 90 3b 9b 3c fc ba 32 ad 6e 3c
       -0.8124402 0.0044246656 -0.0019244136 0.01456766
0000b0 b8 ce a7 3d 0e 90 f0 bd 3e ec 41 be 19 da 1e be
       0.08193725 -0.11746226 -0.18937775 -0.15512885
0000c0 66 c3 f8 bd 60 de 16 40 39 3b 8c bc 80 16 24 bd
       -0.12146644 2.3573227 -0.017118083 -0.04006052
0000d0 7b 88 f9 bd d5 98 11 3d 68 a3 26 40 1d e3 2d bd
       -0.12184235 0.035546143 2.6037235 -0.04245292
0000e0 1c e8 57 bd bc 9e 28 3f d0 6e 01 bd b5 de e2 3c
       -0.05271159 0.6586721 -0.03159982 0.027694086
0000f0 5b e5 96 3f 7c e4 5c bc 67 be 36 bd 18 6a 81 be
       1.1788744 -0.013482209 -0.044615176 -0.25276256
000100 6a f6 4c 3f 69 6a 45 3f ed 3c 44 bc 8d f7 d0 bd
       0.800635 0.77115494 -0.011977416 -0.102034666
000110 3b be e3 bd db 67 6a bd a3 71 0b bd 97 f2 37 bd
       -0.11120268 -0.05722795 -0.03404392 -0.044909086
000120 e7 e7 57 bd 1f 75 ae bd 6f e4 f2 3c be 9d 1c 3e
       -0.052711394 -0.08518433 0.029649941 0.15294549
000130 9a 90 be be cf af 41 bf e6 fd b5 3e c7 4a 32 3d
       -0.37219697 -0.7565889 0.35545272 0.043528344
000140 4e a3 0c be 32 ce 2b bd 35 07 a0 3f c6 d7 3e 3f
       -0.13734171 -0.04194469 1.25022 0.74547994
000150 71 75 ce bd 06 f6 9b bd a4 cc 09 40 6d f9 99 3d
       -0.10080994 -0.076152846 2.1531153 0.07518277
000160 dc b9 a1 bd 07 47 ba bd e3 82 96 be 5d 10 9a bd
       -0.07896778 -0.09095579 -0.29396734 -0.07522652
000170 63 7f cb bd d2 ea 43 bd 3d 57 55 be d8 b1 28 3c
       -0.099364065 -0.047831364 -0.2083406 0.0102963075
000180 93 85 63 3b 51 90 bc 3f be 3c 16 be f6 26 52 be
       0.0034717068 1.4731542 -0.14671609 -0.20522675
000190 b6 de 97 3f 3f 4e 1f 3f 60 94 a1 3d 92 55 d5 3f
       1.1864841 0.6222877 0.078896284 1.6666739
0001a0 73 fa 14 3e c8 db 71 bc d5 99 8a bc 6c db 5e bd
       0.14548664 -0.014761873 -0.016919056 -0.054408476
0001b0 e5 1a 00 be 46 ec fe bd be ff b8 3d 3c 4d 11 3e
       -0.1251026 -0.12447409 0.09033154 0.14189619
0001c0 82 08 8a bd 43 da a7 bc 5f bc 22 bf 32 e2 b6 3e
       -0.06739904 -0.020489817 -0.6356868 0.35719448
0001d0 38 84 84 3e d9 76 44 3b 39 d1 0c bd 9d 26 94 3f
       0.25882125 0.0029978065 -0.034379218 1.1574284
0001e0 90 51 51 3f 2d b0 49 40 89 1f 66 3f 53 92 50 3c
       0.8176508 3.151378 0.8989187 0.012730199
0001f0 3d e2 ef bd 52 29 91 3c 26 36 49 bd 0c 07 fa bd
       -0.117130734 0.017719898 -0.049123906 -0.12208375
000200 41 b8 23 40 7e ca 8b 3f e1 c2 8e 3f 0d 55 be be
       2.558121 1.0921171 1.1153222 -0.37174264
000210 8e b8 9d be 29 d8 1d be 46 1f 71 3f 69 c8 9b 3f
       -0.30804867 -0.1541449 0.94188344 1.2170535
000220 b9 66 7f 3c be 4f 6f 3f 5e 45 fa 3e 8a 06 2a be
       0.015588456 0.9348105 0.48881048 -0.16604057
000230 9f 7c 4e bd 5b 89 ce bd 10 c8 c3 3d f9 ee a4 bd
       -0.050411817 -0.10084792 0.09559643 -0.08053393
000240 2a 81 ad bd cc b9 ae 3c f6 e5 a3 3d 0a 46 27 bc
       -0.08471902 0.02132883 0.08002846 -0.01020957
000250 1f 53 91 bd a2 c7 9f 3d 87 e2 8f be e7 d6 d9 3c
       -0.07095932 0.07801749 -0.28102514 0.026591731
000260 6a fe 75 3e 92 05 3f be 6d 17 83 be b6 8e 40 be
       0.24022833 -0.18654469 -0.2560381 -0.1880444
000270 07 6a a5 3f 09 da 30 3f 8d ab 44 40 19 9f 89 3f
       1.2922982 0.69082695 3.0729706 1.0751678
000280 d2 69 16 40 a5 9e 56 3e 2d e5 c6 3f 6b 32 af 3f
       2.3502088 0.20958956 1.5538689 1.3687261
000290 19 c0 b7 be e6 3c 44 40 e7 12 fd 3d 86 5f 81 3f
       -0.35888746 3.066217 0.12357121 1.0107276
0002a0 28 76 e6 be 11 77 9c be 1c fe f6 bc e2 1a a4 3f
       -0.4501202 -0.3055959 -0.030150466 1.2820704
0002b0 1e 81 a6 3f 66 59 b1 3e 13 3b 64 3f 52 92 2a 3f
       1.3008153 0.34638518 0.8915264 0.6662952
0002c0 55 7f 54 3b 76 d4 e3 3f 45 39 b1 bd ee c7 c8 bd
       0.0032424529 1.7799213 -0.086535014 -0.098037586
0002d0 b2 71 93 be aa a4 5f be 07 1c fb bd ad c9 ff 3c
       -0.2879768 -0.21840158 -0.12261205 0.031224096
0002e0 67 5f 91 be fc d6 6f bd fd 20 bc 3e 36 df b4 be
       -0.283931 -0.058554634 0.36743918 -0.35326546
0002f0 26 2a 94 bf d4 b4 46 3f 14 10 d1 be 8a b4 3d be
       -1.1575363 0.7761967 -0.4083258 -0.18525901
000300 2e 66 a6 be aa c9 84 3f b5 23 54 3f 9b 5b 4e 40
       -0.32499832 1.0374043 0.82866985 3.2243412
000310 7b ca 93 3f 42 b0 08 40 11 b4 31 bf da ad a8 3f
       1.1546167 2.135758 -0.69415385 1.3178055
000320 d7 71 86 3f 01 58 cb be fb 49 43 40 de c7 67 3d
       1.0503491 -0.3971558 3.0513904 0.056587093
000330 ad 9a 0a be 22 73 1b be cc 16 ab be b0 74 9a 3d
       -0.13535567 -0.15180638 -0.3341583 0.075417876
000340 7a e2 d3 3f 5e 71 d3 3f 8e af f1 3d 22 e5 8c 3f
       1.655349 1.6518972 0.118010625 1.1007426
000350 fa d5 b9 3e 83 e3 22 bf 37 3f de 3f c2 2c ef ba
       0.36296064 -0.63628405 1.7363042 -0.0018247592
000360 d2 a3 27 be 89 2a 08 bf 48 8f b2 be 2f e7 bf be
       -0.16371086 -0.53189903 -0.3487494 -0.37481067
000370 35 5f f8 bd 39 d2 ae bd 29 70 6c be f2 d3 86 be
       -0.12127534 -0.085361905 -0.2308966 -0.26333576
000380 66 a8 8c be 5a 64 e4 3e 4a dc 17 bf 47 bd bf be
       -0.27472228 0.44607812 -0.5932051 -0.37449095
000390 77 69 d9 3e db 7e 48 bd 8f 3c bc 3f 1b 91 56 3f
       0.42463276 -0.048949104 1.4705981 0.83815163
0003a0 3c 34 80 40 dd b9 95 3f 69 68 1d 40 56 33 c9 be
       4.0063763 1.1697346 2.4594977 -0.3929698
0003b0 84 40 bf 3f bc 87 c2 3f bc 23 39 3e 20 9c 44 40
       1.4941564 1.5197673 0.18080038 3.072029
0003c0 cf c7 8e 3f 66 d4 d1 3f 4d 94 42 be d1 f9 57 be
       1.1154727 1.6392944 -0.19001885 -0.21091391
0003d0 07 65 08 3e 73 35 e0 3f c0 36 e8 3f 20 0f 7a 3f
       0.13319789 1.7516311 1.8141708 0.9767933
0003e0 3c 27 32 3e c3 0b 4a 3d c6 26 2d bd 60 77 b6 3f
       0.17397779 0.049327623 -0.042273305 1.425518
0003f0 0d 05 00 be 7f bb b6 3d 20 a9 17 be b5 6b 17 be
       -0.12501927 0.08922481 -0.1481061 -0.1478718

gnn.convs.0.nn.lins.0.bias f4 [32]
000000 ce e3 84 be 19 3f 8d be 97 a8 05 be 87 64 aa be
       -0.2595505 -0.27587202 -0.13052593 -0.3327982
000010 26 99 ae bc 51 49 9c 3e 36 ce 9d bd e7 42 3f be
       -0.021313261 0.30524686 -0.07705347 -0.18677865
000020 c4 88 00 3f f8 1d ad bd 7d 36 ff be 52 06 b4 be
       0.5020869 -0.08452982 -0.4984626 -0.35161072
000030 e3 60 b8 bd f2 de ea bd 30 88 3f be 31 9f 08 be
       -0.09002855 -0.11468305 -0.18704295 -0.13341977
000040 86 92 3d be 84 1e 08 bd 43 a6 06 bd ef a4 81 be
       -0.18512926 -0.033232227 -0.032873403 -0.25321147
000050 41 ba 00 3e 9c 58 97 bd f2 d0 22 be fd 2f de 3e
       0.1257105 -0.07389948 -0.15900019 0.43395987
000060 7c 4d 21 bd 31 fd 8e be e7 af 96 be fd 96 a6 3d
       -0.039380535 -0.27927545 -0.29431078 0.081342675
000070 86 2b 18 be 9c 78 a5 bd e8 6b 6d be ff 71 07 be
       -0.14860353 -0.08079645 -0.23185694 -0.1322708

gnn.convs.0.nn.lins.1.weight f4 [32, 32]
000000 9b a6 e7 3e 40 1d af 3d 36 60 d4 3d 93 86 9a 3d
       0.45244297 0.08550501 0.10369913 0.07545199
000010 38 ca 62 3e 19 3a 11 3f 00 14 8a 3e f6 fd 1e be
       0.22147453 0.56729275 0.26968384 -0.15526566
000020 f1 54 c0 3d e7 86 e4 bd 7b 50 1e 3e 92 20 9a 3d
       0.09391201 -0.11158543 0.15460388 0.075257435
000030 de 72 2e bd a5 79 7b bf 05 0c 8b bb d7 e9 b0 3d
       -0.042590015 -0.9823249 -0.004243376 0.086383514
000040 53 de 00 3c f3 ba 3b be 66 ec 60 3d ec dc f1 3d
       0.007865506 -0.18333034 0.054912947 0.11809716
000050 32 c1 b3 3e 1d be ed 39 b8 1f 61 bf da 1c 1e 3f
       0.35108334 0.00045345808 -0.87939024 0.61762774
000060 a6 21 9f 3e 6c e9 8e 3d 35 76 43 3d 23 bd 09 bf
       0.3108036 0.069781154 0.047720153 -0.53804225
000070 5d 71 65 3e 9b 8d 1e 3e ac ba a3 3d e9 4b e8 3e
       0.22406526 0.15483706 0.07994589 0.45370415
000080 f3 fa 2f 3e ff ca 56 be 55 67 a3 3d bb 37 13 be
       0.17185573 -0.20975874 0.079786934 -0.14376728
000090 94 41 a5 3e 8a 66 f1 3e da 7c 9a 3e 12 ec 50 3e
       0.32276595 0.47148544 0.3017338 0.20402554
0000a0 6b 76 55 be 05 ab fc 3c 64 7e 42 3e c0 9f ee bc
       -0.20845954 0.030843267 0.18993527 -0.02912891
0000b0 c0 5c e3 3d d4 67 5d bf 4b 70 2c 3e 22 54 eb 3d
       0.11101675 -0.86486554 0.16839711 0.114906564
0000c0 5e af 86 3e e4 85 75 3e c1 5f 0e 3e b9 ea 6c bd
       0.2630567 0.23976856 0.13903715 -0.057841036
0000d0 81 54 d9 3e b4 a5 36 be 4e 6a 1e bf d3 c5 12 3f
       0.42447284 -0.17836648 -0.6188096 0.57333106
0000e0 e0 f3 f7 3d 55 22 4b 3f 95 ed cf bd e5 a1 0a bf
       0.12107062 0.7934926 -0.10152737 -0.5415328
0000f0 8d 21 56 3e ce 29 90 3d 5b 5f 85 3e ef e0 e1 3e
       0.20911236 0.070392236 0.26049313 0.44116923
000100 25 6c bd bd e9 c7 1b 3e 38 0f ae 3b e5 cc c4 bd
       -0.092491426 0.15212978 0.005311873 -0.09609393
000110 7b 48 2d be eb 5f 14 bc 6f e6 a3 3c 6a 09 fc bc
       -0.1692218 -0.009056072 0.02000734 -0.030766208
000120 5f 21 e3 bd 4c 20 14 3e eb 57 25 be aa 2b 28 3d
       -0.110903494 0.14465445 -0.1614682 0.041057266
000130 ed de a6 bc 59 07 8b be 81 e5 2f be 91 0a 06 bc
       -0.020369971 -0.27154043 -0.17177393 -0.00818123
000140 53 69 2e be 04 07 33 3e bc 1b 1b be 08 4a a3 bb
       -0.17032366 0.17483145 -0.15147299 -0.0049831904
000150 29 e7 8a bb 2b 96 d3 bd f1 98 0c 3d 43 5c d1 bc
       -0.004238982 -0.10331377 0.034325544 -0.02555669
000160 b9 c2 8a bd bf 17 f9 3d 01 0b 6c 3d 85 df 59 bd
       -0.06775422 0.12162732 0.05762768 -0.05319168
000170 f9 90 2f be 30 5c 0b bd 69 2e 34 bd 43 cd 45 bd
       -0.17145146 -0.034023464 -0.043989573 -0.048291456
000180 44 56 8d 3e fa e1 4f 3f 8e 33 d1 3e ca d2 4a 3e
       0.27604878 0.8120419 0.40859646 0.19806972
000190 00 63 3f 3e 00 e2 81 3f 77 3d 82 3e de c6 93 bd
       0.18690109 1.0147095 0.2543752 -0.07215665
0001a0 27 16 20 be d9 a2 12 bd 44 54 cf 3e e9 f0 d9 3d
       -0.1563345 -0.035799835 0.40493977 0.10641653
0001b0 f4 54 d7 bb 9d 12 65 bf ea 0d d9 bd d9 c6 33 be
       -0.0065714065 -0.89481527 -0.10598357 -0.17556323
0001c0 64 79 a6 3e af 01 6e 3e 67 a4 23 bd cc c9 09 bd
       0.3251449 0.2324283 -0.03995171 -0.033639714
0001d0 45 8e bb 3e 71 25 fb bd 81 bb 81 bf df 0c 83 3f
       0.3663198 -0.12263001 -1.0135347 1.0238303
0001e0 2c e9 27 3e 8a 67 0d 3f f7 54 f8 bc de b6 8e bf
       0.16397542 0.55236113 -0.030313952 -1.1149557
0001f0 3e b4 b7 bd 42 5f 0d 3f 54 e9 27 3e 42 0b ca 3e
       -0.08969925 0.55223477 0.16397601 0.39461714
000200 95 8f 87 3e 07 e6 2c 3e ba fa a0 3e 94 db 88 3e
       0.26476732 0.16884623 0.3144129 0.26730025
000210 8b 0a f3 3e 61 8e c5 bd d5 f3 17 3f 5f 50 c4 3d
       0.4746898 -0.09646297 0.59356433 0.09585642
000220 d8 ae 0b bf 0e 4e 1f 3e d6 26 4c 3e aa e5 f0 bd
       -0.54563665 0.15557119 0.1993669 -0.11762555
000230 af 4e b4 3e 73 23 82 be c7 4e 65 bc 67 77 80 3c
       0.3521628 -0.2541767 -0.013995833 0.015681935
000240 7b 5c fb 3d eb a2 80 3d ba a0 aa bb dd 09 59 3e
       0.122734986 0.06281074 -0.0052071484 0.21195169
000250 9b 48 2a 3f 95 1b de bd 05 bd 3e bf 74 2b 1f 3f
       0.6651704 -0.108451046 -0.7450717 0.6217568
000260 48 a3 dc bd 73 98 73 bb 8b 63 73 be 5b 74 74 bf
       -0.10773331 -0.0037169724 -0.23768441 -0.95490044
000270 c9 d7 b2 3e fb bf 23 3f 40 7f d3 3e 27 7a 37 3f
       0.34930256 0.63964814 0.41308022 0.71670765
000280 02 d6 1c bd 04 aa 80 bd c8 e6 aa be d5 8c 36 be
       -0.03829003 -0.06282428 -0.33379197 -0.1782716
000290 08 33 d5 bc 3d f4 1d be 4d 1e 8a bd 64 0e 0a bd
       -0.02602531 -0.15425201 -0.06744061 -0.03370513
0002a0 99 d7 97 3b c5 a4 1a be c9 33 ac bd 1c 05 e7 3d
       0.0046338555 -0.15101917 -0.08408315 0.112802714
0002b0 1f 38 09 be a2 4e e7 bc da f4 0e be c8 18 a6 bd
       -0.13400315 -0.028235737 -0.13960591 -0.081101954
0002c0 80 cb 47 bd 01 be 2e 3d d7 8f 44 be cf 45 82 3d
       -0.048778057 0.04266167 -0.19195496 0.06360971
0002d0 32 8b a6 39 0f 89 68 3d 1e 01 d2 bd 32 cb f8 3d
       0.00031765696 0.056771334 -0.10254119 0.121481314
0002e0 6c e1 24 be 89 74 0b be ca 24 22 3e d2 b1 e2 bd
       -0.16101617 -0.13618673 0.15834346 -0.11069073
0002f0 57 da 12 3d 52 af 93 bc 2b bc fa bd 15 ef f6 bd
       0.035852756 -0.018027935 -0.122429214 -0.1205732
000300 bc 0d b4 bb 56 0f 8a 3e 63 4d 92 3e 33 f8 01 be
       -0.0054948013 0.26964825 0.28574666 -0.12692337
000310 c9 11 89 3e e2 fe 2d 3f d8 d5 8e 3e e0 8d 9e 3b
       0.26771381 0.67967045 0.27897525 0.00483869
000320 3f cd f1 be ec 88 a7 3d b2 5e 6a be aa 3c 80 bd
       -0.47226903 0.08180413 -0.22887686 -0.06261571
000330 91 58 0b 3c 72 cf 2e bf bc 39 70 3e ed 92 00 be
       0.008505003 -0.68285286 0.23459524 -0.12556048
000340 6b e3 2b 3f 44 ce 73 be 7b d2 08 be 52 2a 88 3d
       0.6714389 -0.23809153 -0.13361542 0.06648697
000350 76 af cd 3d d4 ee c3 be d5 e6 62 bf 7c ce 00 3f
       0.10043232 -0.3826815 -0.8863347 0.5031507
000360 e6 5e 99 be 63 9b d2 be 2b aa 8a bd fd 1e cc be
       -0.29955214 -0.41134176 -0.06770738 -0.39867392
000370 fc fb 94 3d 8c eb 25 be f9 5d e5 bc e1 27 02 be
       0.07274625 -0.16203135 -0.027998911 -0.12710525
000380 10 41 28 be 68 a8 a1 3d 1e df d8 3d 31 37 09 be
       -0.1643107 0.07893449 0.10589431 -0.1339996
000390 a2 8d da 3d eb 47 36 bd bc 36 95 3d e0 54 4e bc
       0.106715456 -0.04450218 0.072858304 -0.012593478
0003a0 6b 66 9a bd 12 cb 9d 3d 79 5a ff bd f9 f9 22 3d
       -0.07539066 0.07704748 -0.12468428 0.039789174
0003b0 31 ed 16 3d b8 6f 5e be ec d3 2d bd ef 4b 35 be
       0.036847297 -0.21722305 -0.042438433 -0.17704748
0003c0 ee 21 5f be 4f 52 ec bd a0 b7 83 bd 07 05 8f bd
       -0.21790287 -0.115391366 -0.06431508 -0.06983381
0003d0 d9 ce 2d bd 66 2f b3 bd a7 ae ac 3d 00 1c 02 be
       -0.042433593 -0.08749275 0.0843175 -0.12705994
0003e0 d1 3d 80 bc 9b a0 b0 3c 90 46 1d 3d c8 22 e3 bd
       -0.015654476 0.021560958 0.03839737 -0.11090618
0003f0 91 5d a3 3c 06 1e 5b be 9a 73 62 be a6 83 90 bd
       0.019942077 -0.21398172 -0.22114411 -0.0705636

gnn.convs.0.nn.lins.1.bias f4 [32]
000000 24 d5 b5 bd b8 23 7c be a8 80 6f be f4 74 49 bc
       -0.08878544 -0.24623 -0.23388922 -0.01229595
000010 1c d0 eb 3e d1 23 54 be 75 d3 98 bc be ca c4 bd
       0.46057212 -0.20716788 -0.018655518 -0.096089825
000020 cf d9 0d be 31 2a 51 bf d2 b3 ca 3e 04 c8 a4 bd
       -0.13852619 -0.81705004 0.39590317 -0.080459625
000030 12 21 b1 3e 4c 84 23 be ae 1e 21 be 8c 77 36 be
       0.34595543 -0.15968436 -0.1573436 -0.17819041
000040 1e a2 85 be 66 26 f5 be 23 5d 95 bd 9e 9c c7 bd
       -0.26100248 -0.47880858 -0.07293155 -0.09746669
000050 87 a7 ec 3e 06 00 19 3e d8 b8 78 be ce 56 1b bf
       0.46221563 0.14941415 -0.24289262 -0.6067933
000060 fb 43 a6 bd d1 bd 1e bf 1f 3c fb 3e 7b 10 ea bd
       -0.08118435 -0.62008387 0.49069306 -0.11428925
000070 d6 cc 2b be c7 9b b0 be 1a 11 1e 3e da d2 76 be
       -0.16777357 -0.3449385 0.15436211 -0.24103871

gnn.convs.1.nn.lins.0.weight f4 [32, 32]
000000 68 61 09 3e 51 b6 01 3d 2f 56 b8 3c 89 17 b3 3e
       0.13416064 0.03166801 0.022502033 0.34978893
000010 65 e1 72 3e c1 27 8c bc b0 5f 4f 3e 1b 65 0d be
       0.23718794 -0.0171088 0.20251346 -0.138081
000020 59 71 4f be 37 ca fb be b3 f7 12 bd df 74 df 3d
       -0.20258082 -0.49177715 -0.035880756 0.10910963
000030 88 ef 4c 3e 28 7c 2e bd ab 90 95 3d 0e 00 6c be
       0.20013249 -0.042598873 0.07302984 -0.23046896
000040 31 51 0e 3e 10 66 cc 3d c4 f6 85 3e 64 88 a5 bd
       0.1389816 0.099804044 0.2616483 -0.08082655
000050 60 fa 2b 3e eb 39 03 3e 1e 47 ef 3d 7b 69 21 bf
       0.16794729 0.12815063 0.116834864 -0.63051575
000060 50 15 4a be 46 1b 66 bf 26 f1 23 3e 66 a2 5f be
       -0.19734693 -0.89885366 0.1600996 -0.21839294
000070 87 78 11 be c9 48 55 be 78 ae b0 3d 33 d9 47 3c
       -0.14206134 -0.20828547 0.08627027 0.01219778
000080 9e 5a 06 3e 45 1a 30 be b2 18 24 3e ce f8 23 be
       0.13120505 -0.17197521 0.16025046 -0.1601288
000090 96 af 43 3d 5a 48 20 bd c6 5b 12 bb 86 41 8c 3d
       0.047774874 -0.0391315 -0.0022332533 0.06848435
0000a0 55 3e 89 ba 75 2e 00 be 61 d2 c1 3d ea cb b1 be
       -0.0010470847 -0.12517722 0.09463955 -0.34725887
0000b0 d2 55 35 bd 5d 53 a4 3d 78 2f 1f bd b3 57 50 3d
       -0.044271298 0.08023713 -0.03886363 0.050864886
0000c0 62 b8 c8 3c 82 89 6a 3e 0a e4 6f be 72 7b 2e 3e
       0.024501983 0.22904018 -0.23426834 0.17039278
0000d0 08 5f 83 be e2 e3 be bd dc af 5e 3c 21 36 04 be
       -0.2565844 -0.09320809 0.013591733 -0.12911274
0000e0 fa 45 a6 3c 3a 96 69 bd d1 e5 e4 bd 8f 3c 9a bd
       0.02029704 -0.057028033 -0.111766465 -0.07531082
0000f0 e5 7c 1b bc d7 48 07 3e 1c 40 82 be 1d ab b4 3d
       -0.009490226 0.1321138 -0.25439537 0.088217
000100 4c 2c 8d be 75 70 62 3b f1 9a b8 3d 4f 76 88 be
       -0.27572858 0.0034551893 0.09013928 -0.26652762
000110 d9 d2 d2 be ec 59 4e be 40 cf 3e bc 41 13 4e bd
       -0.4117649 -0.2015149 -0.011646092 -0.05031133
000120 f9 44 5e 3d 6e 0b 96 bd 10 45 14 bf 6a ab ce be
       0.054264996 -0.07326399 -0.5791788 -0.40365154
000130 bc 6e 06 bf 17 ce e8 39 7b 21 49 3d 65 b1 9b 3a
       -0.5251272 0.00044404037 0.049104195 0.0011878429
000140 d2 2e fa be e5 41 03 3e a0 94 7f be cf f5 da bc
       -0.48863846 0.12818106 -0.2495904 -0.026728539
000150 11 47 31 bf bd b5 38 bf ba 1c af 3d bc 94 04 bf
       -0.69249064 -0.7215231 0.08550401 -0.5178945
000160 ee d5 60 3d 06 0d f8 be 7f b1 3c bf 26 40 58 3e
       0.05489152 -0.48447436 -0.7370834 0.2111822
000170 7e 6f 80 be 23 40 21 bd 75 c6 06 bf 0a 7a b1 3d
       -0.25085062 -0.039367806 -0.5264657 0.08665855
000180 9d 05 1a 3d b4 0d 84 be ec 8d 00 3d 14 47 4a be
       0.03760301 -0.25791705 0.031385347 -0.19753677
000190 26 b6 27 bd f3 2a 57 3e e2 b8 31 be 00 bf be 3d
       -0.040945195 0.21012478 -0.17355683 0.09313774
0001a0 2a 83 2a 3d 98 73 29 be 82 60 81 be 26 d8 f7 3d
       0.041628994 -0.16548002 -0.25268942 0.12101774
0001b0 09 17 9e bd 83 e5 44 3b 5b 28 4d 3c 0d 32 97 bd
       -0.07719237 0.0030044026 0.0125218285 -0.07382593
0001c0 cb 5a 1b 3d 9f ff 9b 3d 8a 39 b4 bc a8 8c a8 bc
       0.037928384 0.07617115 -0.022000093 -0.020574883
0001d0 38 77 6a bd 56 2e b0 be 36 e6 01 be 2a 51 96 3c
       -0.057242602 -0.34410352 -0.12685475 0.018349249
0001e0 92 ad f3 bd 9e 10 b5 bc 50 7c d0 be 77 ab 3f be
       -0.1189834 -0.02210265 -0.40719843 -0.18717752
0001f0 da 47 b9 bc 3d da d3 3d d3 56 68 be fd 47 f0 bb
       -0.02261727 0.1034436 -0.22689371 -0.0073328004
000200 0f e5 3d 3e 1c 67 15 3e 03 64 32 3e 38 22 07 3f
       0.1854441 0.14590114 0.17420964 0.5278659
000210 c7 7a ee 3d 96 8c 77 3e 9c 39 6d 3e 03 8c c4 bd
       0.11644512 0.24174723 0.23166507 -0.095970176
000220 31 a1 6b 3e 86 8c 48 bf 65 3d 1d bd 74 00 19 3e
       0.23010708 -0.7833942 -0.03838863 0.14941579
000230 f6 45 9c 3d d8 8f 21 3e 6d d2 13 3e 62 96 06 be
       0.076305315 0.15777528 0.1443574 -0.13143304
000240 6e 5b ba 3c 9c c7 1f 3e ea f9 c2 3e d4 3b 32 3e
       0.022748675 0.15603489 0.38081294 0.17405635
000250 43 fe a0 3e 18 78 c6 3e 9a 44 0e be 04 72 f2 be
       0.31443986 0.387635 -0.13893357 -0.47352612
000260 0a 46 47 3e 11 a5 14 bf b1 c3 7b 3e fb af dd 3c
       0.19460312 -0.5806437 0.24586369 0.027061453
000270 2d 41 18 3e 17 eb 26 be cf dc 61 3e 89 08 28 bc
       0.14868613 -0.16300617 0.22056888 -0.010255941
000280 43 94 ab 3e d0 2d 7c 3d 08 fc 1d 3b 80 70 4e 3e
       0.33511552 0.061567128 0.002410652 0.20160103
000290 95 9a 52 bc 41 3e ac bd 79 ff 26 3e b2 e7 18 3e
       -0.012854238 -0.084103115 0.16308393 0.14932135
0002a0 80 e8 ce bd 4a 38 46 bf 01 0d cf bc 09 35 06 3e
       -0.101029396 -0.7742964 -0.025274755 0.13106169
0002b0 12 44 a1 bd aa f2 99 3d 5e a2 41 3e 8e 07 a5 bd
       -0.078743115 0.075169876 0.18909594 -0.080580816
0002c0 58 f8 60 be 51 53 29 3e 90 fa 28 3e 52 22 a9 3d
       -0.21969736 0.16535689 0.16501832 0.08258499
0002d0 75 d4 8a 3c d9 1b 8d 3d b2 56 2f 3d 02 93 36 bf
       0.01694701 0.06890077 0.04280729 -0.71318066
0002e0 2f 0b c7 bd 8e 68 37 bf 8b 11 1b 3e 5a 2d 57 bd
       -0.0971893 -0.7164391 0.15143411 -0.052533485
0002f0 b8 ee d1 3d ce b4 8e 3d 66 29 85 3e 08 4f 39 3d
       0.1025061 0.069680795 0.26008147 0.045241386
000300 87 26 63 be 2e 9d c6 bd 61 9c 9e bd b1 4b 4a bd
       -0.22182666 -0.096979484 -0.07744671 -0.04938859
000310 7a 12 31 be 8a 1a 0a be 20 bb 0a bd 2e 45 f7 bd
       -0.17292204 -0.13486686 -0.033869863 -0.12073742
000320 cb bb d4 3d 10 71 69 be eb 5d 5b 3d ab fd 70 bd
       0.10387381 -0.22797036 0.053556364 -0.058835667
000330 b7 af c1 bd 8e 04 c7 3d 26 54 bf 3d 70 2d 9b bd
       -0.09457343 0.097176656 0.09342222 -0.07577026
000340 7a 44 8e 3c 4f 82 2d 3e 7b 51 3d 3d 9c 1a 98 bd
       0.017366637 0.1694424 0.046220284 -0.0742695
000350 df 24 56 be a0 77 f0 bd fd c6 5e bd 74 0b 9b bd
       -0.20912503 -0.11741567 -0.05438899 -0.07570544
000360 5d da 0b be 25 ad 90 bd c6 8f 6a bb c5 44 88 bc
       -0.13657518 -0.07064275 -0.0035791262 -0.016634354
000370 0b d2 4c b9 83 fb 13 bd 89 c2 41 be bf 5d 11 be
       -0.00019533203 -0.036128532 -0.18921866 -0.14195918
000380 95 68 63 3e 55 42 f5 3d db 52 1a 3e 32 54 07 3f
       0.22207864 0.119755425 0.1507067 0.52862847
000390 fe 93 31 3b ee 08 7a 3d 50 ef e1 bb a7 69 20 be
       0.0027096267 0.061043672 -0.0068949834 -0.15665303
0003a0 0f 8d 80 bc 07 c8 51 bf 55 a2 d9 3d 8a d4 20 3c
       -0.015692262 -0.8194584 0.106266655 0.009816298
0003b0 3c c1 be bc 51 ac 43 3d fc c4 05 3e a9 c3 d3 bd
       -0.0232855 0.047771756 0.13063425 -0.103400536
0003c0 26 7f 84 be 30 2a 35 3e c3 74 bf 3d fb eb 8b bd
       -0.25878257 0.17691875 0.093484424 -0.06832119
0003d0 a2 5a 37 3e 52 15 c9 3e c7 52 9f bd 71 17 ec be
       0.17905667 0.3927408 -0.077794604 -0.46111634
0003e0 4d 89 8e bd 48 21 21 bf 53 d4 32 3e 65 f9 90 bb
       -0.06959782 -0.6294141 0.17463808 -0.0044242614
0003f0 b4 ae a3 3d c7 a7 d5 bd f5 78 0b 3e 46 6b b4 3d
       0.07992306 -0.104323916 0.1362036 0.08809523

gnn.convs.1.nn.lins.0.bias f4 [32]
000000 71 46 27 3f 44 c4 ba be 9b 47 7c 3e 1f 3c 76 be
       0.6534186 -0.36477864 0.2463669 -0.24046372
000010 b4 b8 50 3f f7 25 42 3f dc 16 77 be ae 5a 20 3f
       0.81531835 0.7583918 -0.24129814 0.62638366
000020 22 a2 ad 3e b5 b8 1e 3f 37 19 76 3f 4b 4d 28 3f
       0.3391276 0.6200059 0.96132225 0.6574294
000030 98 13 4d 3e 1f 0a e1 3e a2 62 97 be 51 12 2a 3f
       0.20027006 0.43953034 -0.29567438 0.664342
000040 86 ee b1 bd 39 60 5f be 65 0b 19 be 6c 09 c9 3e
       -0.08688073 -0.2181405 -0.14945753 0.39265
000050 e9 1b 8d 3e 8c 08 cf 3e 03 e6 33 3f 92 92 03 3f
       0.27560356 0.40436208 0.70272845 0.51395524
000060 e2 be a3 3e 1e e1 89 3d 25 39 8f be 4c 48 1b 3f
       0.3198157 0.06732391 -0.27973285 0.6065719
000070 3c b1 ab be e2 c9 10 bf d5 9c 54 3f ee 20 ee bc
       -0.33533657 -0.5655805 0.83051807 -0.029068436

gnn.convs.1.nn.lins.1.weight f4 [32, 32]
000000 75 e4 d0 bd 86 57 59 be 2c 8c c5 bd d0 ac c1 3e
       -0.10199825 -0.21224794 -0.09645876 0.37827158
000010 07 99 d2 bd 51 f3 89 be 7e f8 1e 3e 12 ab 2c be
       -0.10283094 -0.26943448 0.1552448 -0.16862133
000020 24 9d 8d 3e ff f2 19 bd 4a 8d a6 be e9 06 60 3e
       0.2765895 -0.037585255 -0.3252967 0.21877636
000030 00 be 5c bd 36 c7 0e be 3e 97 b6 bd 67 14 66 bd
       -0.053892136 -0.1394318 -0.08915566 -0.0561718
000040 07 a8 0f 3e 74 98 30 3e 17 3c 25 be c9 b2 6e be
       0.14028941 0.17245656 -0.16136204 -0.23310389
000050 86 46 7e be 04 21 e1 3d 3e 50 6c be 98 22 93 be
       -0.2483159 0.10992625 -0.23077485 -0.2873733
000060 59 82 81 3e c1 1e 52 3e 5b 97 fc 3c 2d a4 8e be
       0.2529476 0.20519544 0.03083389 -0.2785963
000070 d8 bd 94 3d 93 d6 b6 be b5 f7 56 be 27 50 e8 be
       0.07262772 -0.35710582 -0.2099293 -0.4537365
000080 ee 15 72 be 75 4f 2c be ab 20 cd 3d 1f 4e 18 be
       -0.23641178 -0.16827185 0.100159965 -0.14873551
000090 5c e6 5b 3d 91 9b 5f 3c 45 bb d3 3c 8d d1 95 be
       0.053686485 0.01364793 0.025846133 -0.29261437
0000a0 42 fa 0f be b1 80 20 bc 4f ae dc 3c c9 37 c6 be
       -0.1406031 -0.009796307 0.026938586 -0.38714436
0000b0 39 60 5d 39 25 fb 4e be 06 a6 b1 3d eb cb 4b be
       0.00021112048 -0.20212992 0.086742446 -0.19902007
0000c0 0c cf 9b 3d 11 b0 90 bd 53 d0 6b 3e 47 71 f7 bc
       0.076078504 -0.07064832 0.23028688 -0.030205382
0000d0 18 bf 2b bd f3 f0 a7 bd 50 9b 91 bc e3 c2 fd bd
       -0.041930288 -0.08200254 -0.017774254 -0.12390687
0000e0 de 92 e8 bc 88 12 79 bc e2 0d a9 3b ed ca 12 be
       -0.028390344 -0.015202172 0.0051591257 -0.14335223
0000f0 5c 44 85 3d c5 d1 2e be 81 d6 31 bd dd 27 b4 3d
       0.06507179 -0.17072208 -0.043417457 0.08796666
000100 77 06 85 bc e4 32 d6 bd e5 86 32 be 5a e8 e3 bc
       -0.016238434 -0.10458925 -0.1743427 -0.027820755
000110 ce 09 85 3e 9f 8e 62 3e ee 9e 71 bd b1 37 7a 3e
       0.25984043 0.22124718 -0.058989458 0.24435307
000120 4d 3a 13 bf b0 fc cd 3d f0 b7 b1 3e 2d 8b ab bf
       -0.57510835 0.10057962 0.34710646 -1.3401848
000130 f8 96 34 bf 50 44 8b bf 9f 07 e4 bc 34 b7 39 3e
       -0.7054286 -1.0880222 -0.027835665 0.18136293
000140 47 00 15 be 7e 7f ab 3e e9 9d 0d bd ae fe 5c bf
       -0.14550887 0.33495706 -0.034574423 -0.8632611
000150 1f e4 08 bf 89 5e 4b 3d 62 7c 52 3e 37 a1 99 bf
       -0.53473085 0.049650703 0.20555261 -1.2002324
000160 11 ef 15 bf 09 32 e7 3d 49 26 de bd 2e 93 8b 3e
       -0.5856791 0.1128884 -0.10847146 0.27260727
000170 52 b7 01 be 13 0d 6b be 7c 64 a8 3e 93 80 5d bd
       -0.12667587 -0.22954206 0.32889163 -0.054077696
000180 ad 4c 13 3e ab 2a 29 3e a9 48 8e bd c9 c6 a7 3d
       0.14384718 0.16520183 -0.069474526 0.08192212
000190 05 3f 58 3d 66 15 88 3d 4d 57 71 3c b4 3e 45 be
       0.052794475 0.066447064 0.014730287 -0.192622
0001a0 5b 90 51 be 77 39 49 3c 65 77 b5 bc 99 91 c8 bc
       -0.20465223 0.012281767 -0.022151658 -0.024483489
0001b0 d1 ee 68 bd 17 ce 74 bd 1a 7a 13 be 7b 91 24 be
       -0.056868378 -0.059766855 -0.14402047 -0.16071121
0001c0 13 75 27 be bc f7 17 bc e7 06 44 bd 37 7f 04 be
       -0.16353254 -0.009275373 -0.047858145 -0.12939154
0001d0 e6 c4 4b be 18 44 8b bd a5 db a1 be ae 27 a5 bd
       -0.1989933 -0.06800097 -0.31612888 -0.08064209
0001e0 d3 4f bd 3d 55 db 9d bd d6 cb 8b be 24 f8 03 be
       0.09243741 -0.0770785 -0.27303952 -0.12887627
0001f0 ae 61 cf bd 1f de 18 bd ca 70 75 be 45 b2 45 be
       -0.10126053 -0.037321206 -0.23968807 -0.19306286
000200 51 2d 9c 3c 4c a2 3e bc 6e 28 fe 3d 69 37 0d 3d
       0.019064577 -0.011635374 0.12410055 0.03447667
000210 30 45 2f be 75 3e 80 3d be 3f c8 3d 3c ee 27 be
       -0.17116237 0.06261913 0.09777783 -0.16399473
000220 58 11 7b be fa e0 57 bd 9b 16 78 be 1c 25 22 be
       -0.24518335 -0.05270479 -0.24227373 -0.15834469
000230 91 41 30 be 69 0f 26 3d e3 78 9a 3d fc 09 2e 3d
       -0.17212512 0.04054204 0.075425886 0.04248999
000240 13 ba 04 be 26 d2 78 bd 40 25 c3 3d e8 36 5b bb
       -0.12961607 -0.06074729 0.09528589 -0.0033449475
000250 d2 5f 62 be 2a 82 c9 3d 6e fa ed bb f8 7b 22 be
       -0.22106865 0.0983928 -0.0072625196 -0.15867603
000260 f8 52 30 be a9 b3 8b bc 52 59 1b bd 0b 8b d7 bd
       -0.1721915 -0.017053442 -0.03792698 -0.10524567
000270 f9 72 f9 3d f6 84 61 be f6 1c 93 3c 8c af c1 bc
       0.121801324 -0.22023377 0.017958146 -0.023643278
000280 44 32 8a bd 21 95 52 be 95 34 32 3d 1e fc ad bc
       -0.06747869 -0.205647 0.043507177 -0.021238383
000290 c8 e3 09 be bd a9 e1 3c 40 ca 35 3e 38 6c d5 bd
       -0.13465798 0.027546758 0.17752934 -0.10421032
0002a0 68 f5 02 be 15 d7 a0 3d e5 d6 9e bd 4e 18 05 be
       -0.12788928 0.07853524 -0.07755832 -0.12997553
0002b0 1d 21 80 3d 2a 9d c9 bc 87 5f 16 be c3 d2 57 be
       0.06256316 -0.024611074 -0.14684878 -0.21076493
0002c0 13 23 04 3e 92 3d ee bd c0 bd 4f be 64 cb 05 3e
       0.12904005 -0.11632837 -0.20287228 0.13065869
0002d0 2c 80 eb 3d 91 f1 5f bd bc 9e 87 bd 25 0b 90 bd
       0.11499056 -0.054673735 -0.06622073 -0.07033376
0002e0 17 8b c9 bd 10 16 d6 3d f1 11 c4 3d 03 b6 71 39
       -0.098409824 0.10453427 0.095737346 0.00023051356
0002f0 4b 18 6b 3e 35 54 45 be 56 41 43 be a9 01 99 be
       0.22958486 -0.19270404 -0.19067892 -0.2988408
000300 ed fe 53 3d 65 1f ff 3c 89 90 56 bd 6d f9 a1 3c
       0.051756788 0.0311429 -0.052383933 0.019772256
000310 6f 25 72 3e d5 c1 5e 3e 18 db 38 3e 25 e1 56 3e
       0.23647092 0.21753629 0.18052328 0.20984323
000320 69 9b dc be 7a 71 03 3e 7d d4 90 3e eb fc a5 bf
       -0.4308732 0.12836257 0.28287116 -1.296781
000330 db de 10 3e a1 66 57 bf 93 39 5b be a7 0c 4f 3c
       0.14147513 -0.84140974 -0.21408682 0.012637294
000340 26 8b 93 3d 5c ca 48 3d 80 dd b0 3d d2 e5 ce be
       0.07204275 0.04902111 0.08635998 -0.40409714
000350 0b 00 2a bf 1c d7 36 3e fe e3 ee 3d 40 63 82 bf
       -0.66406316 0.17855495 0.1166458 -1.0186539
000360 1a a0 34 bf 43 94 30 3b c8 94 a7 3e 10 9e c1 bd
       -0.70556796 0.002694384 0.327307 -0.09453976
000370 55 d4 13 bd 1a 83 41 be 85 36 8b 3e 95 1e 28 bc
       -0.036091167 -0.18897668 0.27190033 -0.010261198
000380 75 92 52 3c af 50 0f be 29 6b 4d be 1f ce eb bd
       0.012852301 -0.13995622 -0.2006041 -0.11513924
000390 d5 e8 2e bd f6 47 14 be a9 71 c3 bd 61 5c 41 3c
       -0.042702515 -0.14480576 -0.09543163 0.01180181
0003a0 23 0c a8 bc 63 c8 1b be 26 31 2b be f5 84 08 be
       -0.0205136 -0.1521316 -0.16717967 -0.13331969
0003b0 84 e4 04 be 37 69 22 3e 34 9f b7 bd 8f a5 69 be
       -0.12977797 0.15860449 -0.089659125 -0.22817062
0003c0 d0 3f 57 3d c6 28 32 be 79 4d 3b bd f4 e3 38 bc
       0.05255109 -0.17398366 -0.04572818 -0.011284817
0003d0 c9 72 07 be 9d ee 8a 3d 62 f8 96 3d c1 3c 68 3d
       -0.13227381 0.06783793 0.07371594 0.056698564
0003e0 ad 43 fe 3b dd a2 e4 bd 6c 41 ae bd 15 6f 59 bd
       0.0077595324 -0.11163876 -0.08508572 -0.05308445
0003f0 b7 0d 01 be 29 23 28 be 70 72 89 bc f8 16 bd bd
       -0.12602888 -0.16419663 -0.0167782 -0.092328966

gnn.convs.1.nn.lins.1.bias f4 [32]
000000 1b 40 c6 bd d3 12 41 be ba 67 01 3f a4 5f 8e 3d
       -0.09680196 -0.18854837 0.505489 0.06951836
000010 73 4c 68 3d 68 3a 00 be 28 91 b9 3e 03 ad 8f bd
       0.056713533 -0.1252228 0.36243558 -0.07015421
000020 7c 38 68 3f 7b ea 28 be 22 94 ef bd 13 6c 65 be
       0.9071119 -0.16495697 -0.11698176 -0.22404508
000030 fb af 33 3d c7 1b 0e 3f 96 0b 1c 3f 7c a6 e6 bd
       0.043869 0.55511135 0.6095518 -0.11262223
000040 5b 55 7c be 6a a8 ee 3e cb f5 92 3d 92 cb 40 be
       -0.24641936 0.46612865 0.071757875 -0.18827656
000050 4c 76 0f 3f 67 08 0d bd 0d dd af be 71 48 84 be
       0.5603988 -0.03443184 -0.34348336 -0.25836518
000060 3f 14 a7 be 56 0b de 3e a7 85 1d 3f 29 56 d5 3e
       -0.32632634 0.43368024 0.6153206 0.41667297
000070 a5 00 09 3f 76 87 87 bd 2f 54 2f 3f 49 67 d1 3e
       0.5351661 -0.06617634 0.6848783 0.40899113

gnn.convs.2.nn.lins.0.weight f4 [32, 32]
000000 93 2c e9 be 32 7a 65 3e 50 1a be 3e d0 cb b8 be
       -0.4554182 0.22409895 0.3712945 -0.36092997
000010 16 9c 2e be 1c af 2e bd 27 e9 3d 3d e7 7b dc bd
       -0.1705173 -0.042647466 0.04636493 -0.1076582
000020 2e 95 b3 3e f0 18 13 3e 33 96 4a be 07 05 2d be
       0.35074753 0.14364982 -0.19783859 -0.16896449
000030 c9 4a 32 bf d9 43 c5 3e 2b db 0d 3f 27 11 9a 3c
       -0.69645363 0.38528326 0.5541255 0.018807007
000040 90 8b 6b 3d 9a ce 9b 3e 5e b9 93 bd ad 88 9b be
       0.057506144 0.30431062 -0.0721309 -0.30377713
000050 83 e9 c0 3e 8d f7 09 bd 90 5a 8c bf 20 a0 15 3e
       0.37678155 -0.03368335 -1.0965137 0.14611864
000060 66 e8 54 be 4e a0 46 3d e2 51 cc 3e 19 83 fe 3e
       -0.20791778 0.048492722 0.39906222 0.49709395
000070 79 f1 c8 3e 39 df 33 bf fb cf ca bb ea 49 88 3e
       0.3924673 -0.70262486 -0.006189344 0.26618892
000080 a4 cf b4 bd 86 96 19 be e5 7b 33 be 1f cc 28 3d
       -0.08828667 -0.14998826 -0.17527731 0.04121029
000090 51 eb 26 3e a3 b0 90 bd 66 8c 3f bd 96 ef 8d bd
       0.16300704 -0.07064941 -0.046764754 -0.06930463
0000a0 99 bc 45 be 52 ee e5 3d e5 69 2a 3a 22 8a 86 bd
       -0.19310226 0.112270966 0.0006500765 -0.065693155
0000b0 d5 2d ba be 1d 40 54 be 4d 23 28 be 8a c2 f4 bd
       -0.36363092 -0.20727582 -0.16419716 -0.11951168
0000c0 84 dc db 3d be e8 19 be 2f 62 13 be ae 9a 06 bd
       0.107354194 -0.1503019 -0.14392923 -0.032862358
0000d0 e1 f4 4d bd 12 df 09 3e b1 a1 f4 bc 41 5c ee bd
       -0.050282363 0.13464001 -0.029862257 -0.1163869
0000e0 cd af 91 bd 03 fc 14 3e f6 ed db 3d ba 15 a7 ba
       -0.071136095 0.1454926 0.10738747 -0.0012747564
0000f0 68 9b e5 bd 46 c6 b2 bc 31 92 8d be dc b4 e5 bb
       -0.11211282 -0.02182306 -0.27650598 -0.0070100855
000100 33 be c0 bd d7 56 6c 3e 21 71 da bd 53 24 64 be
       -0.094112776 0.23080002 -0.10666109 -0.22279482
000110 42 58 98 3d 08 2c fe bb d2 e7 5a be 49 53 01 be
       0.07438709 -0.007756714 -0.21377495 -0.12629427
000120 bd 7e a6 be be 32 e0 bd a9 65 11 bd a7 e1 33 be
       -0.3251857 -0.10947178 -0.03549734 -0.17566548
000130 18 56 a8 bd a5 e9 19 be e5 85 25 be c9 a3 17 3d
       -0.08219546 -0.15030535 -0.16164358 0.037021432
000140 57 26 2d 3e c4 d7 94 bd 77 76 67 bd 8d 5e 6d 3e
       0.16909157 -0.072677165 -0.05650946 0.231806
000150 22 3b 3f be 44 af f9 bd 4d 20 95 be 8b 46 e4 3d
       -0.18674901 -0.121916324 -0.29126206 0.111462675
000160 3a 31 74 be a9 ff 93 bd c9 27 92 3c ad 3a 59 be
       -0.23846903 -0.07226498 0.017841237 -0.2121379
000170 09 3b a8 3d 45 58 18 3d 32 b9 c2 bd 7f 9b 6e bc
       0.08214385 0.037193555 -0.095079795 -0.01456344
000180 49 d7 92 bd a0 81 68 bd 08 4e 96 be 90 85 fe 3d
       -0.07169969 -0.056764245 -0.29356408 0.12427819
000190 e6 96 1f bb 21 c8 60 be c1 3f 14 bd ab af e8 bd
       -0.0024351417 -0.21951343 -0.036193613 -0.11361631
0001a0 09 82 a4 bd 31 a1 ed bc a9 37 69 be c0 e3 f1 3d
       -0.08032615 -0.029007526 -0.22775139 0.11811018
0001b0 b4 1d b6 bd f2 2b e1 be 4e d9 5b be 55 12 4f be
       -0.08892384 -0.4397884 -0.21469614 -0.20221837
0001c0 b0 2f 01 be b8 b5 a8 bd 8e 03 1d 3e 49 12 ae bd
       -0.12615848 -0.08237785 0.15333387 -0.08499581
0001d0 67 39 6d be b3 c9 92 bd 34 a6 b7 be 21 98 00 bd
       -0.23166429 -0.07167377 -0.3586899 -0.03139508
0001e0 00 e8 e2 bd d2 e8 fe bd 8d e7 3e 3e 6b f4 ee 3d
       -0.11079407 -0.12446751 0.18643017 0.11667713
0001f0 bd 33 79 be 93 61 47 be 92 92 c9 3d 8e 7a 40 be
       -0.24336143 -0.19470815 0.09842409 -0.18796751
000200 48 ab 02 3e c4 0a 45 3d 9d 24 3d be 10 3c bd 3d
       0.12760651 0.04810597 -0.18470998 0.09239972
000210 f2 d3 42 3e 3a c0 74 bd b8 ee 2d 3c a2 9d 57 3c
       0.19026163 -0.059753634 0.010615997 0.013160141
000220 43 65 c1 be d2 db 2e be f7 e7 1d be 76 8c da bd
       -0.3777257 -0.17076042 -0.15420519 -0.10671322
000230 d2 65 a2 be 8b 82 7d bc 01 15 25 3e 51 25 36 bd
       -0.31718308 -0.015473018 0.16121294 -0.04446918
000240 c8 6e b8 3d f6 a5 40 3e 1c a8 0e bd 98 a1 17 3d
       0.09005505 0.18813309 -0.03482829 0.037019342
000250 dc ce c2 3d 97 cc 58 bd 0a f2 24 be 85 3b 0c 3e
       0.095121115 -0.052929487 -0.16107956 0.1369458
000260 61 b0 05 bd b2 bd b0 bd f7 d1 66 3d ee 90 26 be
       -0.03263891 -0.086299315 0.05635258 -0.16266224
000270 99 04 af bd 36 66 3a 3e 06 91 3a be 37 fc 59 be
       -0.08545799 0.18203053 -0.18219385 -0.21287619
000280 77 54 a3 3d 0f b1 5d 3e a8 db e3 3e 19 af c2 3d
       0.07975095 0.21649574 0.44503522 0.095060535
000290 70 6d fb bd 61 dc 32 bd 8f f2 ea 3e 37 d7 07 bc
       -0.12276733 -0.0436672 0.45888183 -0.008291057
0002a0 27 da 43 3f 17 a7 04 be d3 24 8a bc 7f e6 e7 bd
       0.7650475 -0.12954365 -0.016863262 -0.113232605
0002b0 b5 f2 c0 be c9 94 84 3e f6 11 ad 3e 0b 52 6c bb
       -0.3768517 0.25894764 0.33802766 -0.0036059644
0002c0 c6 63 ed bd db 99 73 3e 9b 7e 13 3e 9d fc 90 3d
       -0.11591296 0.2378916 0.14403765 0.07079432
0002d0 97 b8 7a 3e 10 f6 8f bd 0f 6d ee be 03 8f 4b 3c
       0.24484478 -0.070293546 -0.4656758 0.012424233
0002e0 ee fd 5e be d7 82 fc 3e 59 65 e0 3e e0 d9 ab 3e
       -0.21776554 0.49318573 0.43827322 0.33564663
0002f0 70 f0 80 3e 24 bf 8d 3d dd 8f b2 3e e7 be f5 3e
       0.2518344 0.06921223 0.34875384 0.4799721
000300 cb ae 27 bc cc 8b 22 3e 63 9e 36 3d 70 41 2a be
       -0.010234545 0.15873641 0.044584643 -0.16626525
000310 84 e5 a9 bd 76 51 82 bd cf 31 0b 3e 55 92 05 be
       -0.0829573 -0.06363194 0.13593219 -0.13044102
000320 63 63 2d 3f 4c e8 74 bd 9e c3 cf be 21 85 83 be
       0.6772978 -0.059791848 -0.40578932 -0.25687507
000330 25 25 df be b0 44 ca 3e 3a 33 b6 3e 3e 9e bf bd
       -0.43583027 0.3950553 0.35585958 -0.09356354
000340 00 06 3a 3e a3 36 12 3f 00 c0 a3 3c 07 99 f5 3d
       0.18166351 0.5711462 0.019989014 0.11992078
000350 9f 8e 82 3d c5 46 54 3d 64 ba f2 be ab bf 01 bd
       0.06374859 0.051825304 -0.4740783 -0.03167693
000360 a0 cc 9c be 94 d8 13 3e cc 27 0d 3f fd 6f c8 3e
       -0.30624866 0.14438087 0.5513885 0.3914794
000370 6b 76 33 3e 99 a7 93 be 4b 37 2e 3f d1 87 05 3e
       0.17525642 -0.28838804 0.6805312 0.13040091
000380 47 cc 7d 3e 27 6d 31 3e 0a 70 2a be f0 4c 2f be
       0.24784957 0.17326795 -0.16644302 -0.17119193
000390 96 64 20 3d 38 6a 53 bc 74 dc 0e be a8 62 d8 3c
       0.039158426 -0.0129037425 -0.13951284 0.02641423
0003a0 cd 7e d6 bd e2 6e 20 3b c1 fb 05 be 15 d9 02 be
       -0.10473404 0.0024480154 -0.13084318 -0.12778123
0003b0 f7 53 b1 bd f7 2b c8 bd fe 4a 90 bd c7 4d 25 bd
       -0.08658593 -0.09774011 -0.070455536 -0.040357377
0003c0 38 da 76 3c 23 33 22 be 56 12 04 be ea 63 61 3d
       0.015066676 -0.1583982 -0.1289762 0.055026926
0003d0 53 1e 3b be 3a cd b2 bd 10 52 ac be 7f 24 ab bd
       -0.18273287 -0.0873055 -0.3365636 -0.083565705
0003e0 3c 16 6b be 5c a2 06 be a2 23 47 be fb f5 5d be
       -0.229577 -0.13147873 -0.19447187 -0.21675865
0003f0 6d 09 2c 3d b0 35 bd 3d 67 3d 31 bd 09 13 a4 3c
       0.042001177 0.09238756 -0.04327145 0.020028608

gnn.convs.2.nn.lins.0.bias f4 [32]
000000 3b 55 05 3f 55 58 af bc 3e e6 a6 3d 06 82 a7 bd
       0.52083176 -0.021404425 0.08149384 -0.08179097
000010 eb 2f b4 3b 43 2e 24 3f 98 19 91 3f 1c c4 24 3d
       0.0054988763 0.6413309 1.1335936 0.040226087
000020 77 ae fd bd 6c d4 92 3d e4 16 a4 bd ca 15 37 bd
       -0.12386792 0.071694225 -0.080121785 -0.044698514
000030 8f a6 e6 3e ac 12 a9 bd 1d ec 16 3f 13 1a dd 3c
       0.4504895 -0.082555145 0.5895403 0.026989972
000040 51 a3 d8 bd 55 12 20 3e 24 fc 4e 3d d9 54 cb 3d
       -0.10578025 0.15631993 0.05053343 0.09928293
000050 d6 d2 1c 3f c5 71 19 be 89 44 11 3f 7d 26 ae 3e
       0.6125921 -0.14984806 0.567452 0.3401374
000060 b7 60 d0 3e 70 dc 46 be b8 ec 32 be 07 fb 02 3d
       0.40698788 -0.19420028 -0.17473114 0.03197768
000070 0f 3b 6d 3d 3a 30 f5 3e e2 0e 18 3e dd 20 f5 3e
       0.05791765 0.47888356 0.14849427 0.47876635

gnn.convs.2.nn.lins.1.weight f4 [32, 32]
000000 e7 7d 09 3f ed 5b 42 be 3b 67 f2 3d 1c 31 b1 be
       0.53707737 -0.1898038 0.11836096 -0.3460778
000010 a1 87 9d 3d 1b f8 5e 3d 70 50 16 3e 01 c8 5b 3e
       0.07691885 0.05443583 0.14679122 0.21463014
000020 8d af db 3d d3 45 08 bd b7 1f 85 3d 50 b3 e0 3d
       0.10726843 -0.033269715 0.0650019 0.10971701
000030 fe 5e 33 bd 34 be e4 3d 65 0a 97 3d 28 e7 6f 3d
       -0.043791763 0.11169091 0.073750295 0.058570057
000040 cd ab 86 bd 13 27 69 be 0d 82 80 be 55 93 dc bc
       -0.06575737 -0.22768812 -0.2509922 -0.026925722
000050 0b 5a 3d 3e d4 87 c1 bd 87 d6 0f 3f 4b 75 0c 3e
       0.1849138 -0.09449735 0.5618672 0.13716619
000060 e0 a9 73 3d d0 9e 3f 3d ea c9 42 be 3f 7c 20 3e
       0.059488177 0.046782315 -0.19022337 0.15672396
000070 e4 e7 97 bb bd 36 c1 3e 3b 55 5b 3d 18 9b de 3d
       -0.004635798 0.37737074 0.05354808 0.108694255
000080 54 c1 0c be d0 fa 0b be fd 37 eb bd 2a 49 e7 bd
       -0.13745624 -0.13669896 -0.11485288 -0.11293252
000090 49 c6 e3 3c 8f 58 07 be 28 5c 68 be 82 18 4b 3d
       0.02780451 -0.13217376 -0.22691405 0.04958392
0000a0 f9 df eb bd c7 b5 2a 3c 86 92 2c 3c 00 75 8d bd
       -0.11517329 0.010419316 0.010532981 -0.069070816
0000b0 82 6c 13 be 22 d2 3f bd 29 0f 87 bd 2a 21 43 be
       -0.14396861 -0.046831258 -0.065946884 -0.1905562
0000c0 07 ae 3b be e8 6c 06 be 3d e1 af 3d 39 5a 10 be
       -0.18328105 -0.13127482 0.08587883 -0.14096917
0000d0 95 45 1c be f1 5a 8c 3b b5 78 70 3d 38 82 51 be
       -0.15260918 0.004283302 0.058708865 -0.20459831
0000e0 69 2c 47 be af c7 ff bd 75 5c 26 be 45 97 89 bd
       -0.19450535 -0.124892585 -0.16246207 -0.067183055
0000f0 1c bc 31 be 20 4a a2 3d 98 ef a9 bd fd 66 4a bc
       -0.17356914 0.079242945 -0.08297652 -0.012353656
000100 ae e9 9b bd 93 94 bf bd 6b a2 71 3e 41 a4 b1 3c
       -0.0761293 -0.0935451 0.23597114 0.021684768
000110 0e df bf bd fe ae cd 3b 12 9d 32 3e 11 0f 0c bb
       -0.09368716 0.006276964 0.1744273 -0.0021371285
000120 a1 3f 19 bd b4 3d 5f bd 19 f8 66 be 0a 0a 7d bd
       -0.037414197 -0.054502204 -0.22555579 -0.061777152
000130 e4 ce ac 3d 2a 96 07 3e e4 e2 2b bd 09 4a 1b 3c
       0.08437899 0.13240877 -0.041964427 0.009478101
000140 db 4b 05 3e c0 2a 67 bc 5f ad ea 3d 43 dc 59 3c
       0.13017218 -0.0141093135 0.11458849 0.013297143
000150 49 01 85 be b0 8b 73 3e d7 97 00 bd b6 3c 30 bd
       -0.25977543 0.23783755 -0.031394806 -0.04302665
000160 b0 90 7b 3d b7 dc 2f bc 3e 90 ac bc 8c c8 c5 bd
       0.06141728 -0.010733775 -0.021064874 -0.09657392
000170 ad c6 d2 3d 4c 99 be bd 03 ff 0c 3d e5 34 32 3d
       0.10291801 -0.09306583 0.034422886 0.043507475
000180 50 be e5 3e 8d a0 5a 3d d6 1a b1 3c 69 ae 8d be
       0.4487176 0.05337577 0.021619242 -0.27672127
000190 e1 30 54 bc 97 f8 e4 3e c5 e0 ef 3e 02 75 e3 be
       -0.012951107 0.4472091 0.46851173 -0.44425207
0001a0 5e 6e d3 bd 34 48 1d be 02 1f 06 bd 24 93 b2 3e
       -0.10323785 -0.15359575 -0.032744415 0.34877884
0001b0 7e 2b a9 3e 7a e7 de 3d 1e da 9f 3e 99 42 3d 3d
       0.33040994 0.108839944 0.31221098 0.04620609
0001c0 8f 82 82 3e 43 d1 2c be 42 85 9e 3d e7 53 a4 3c
       0.25490233 -0.16876702 0.07740261 0.020059539
0001d0 f5 7b 17 3f 83 ec 75 be 92 5b 29 3f 6b 14 e5 3e
       0.5917352 -0.24016003 0.6615535 0.4474214
0001e0 f3 8b 6d 3e 66 9a dd bc 3a a4 09 bf f4 12 e7 bd
       0.23197918 -0.027051162 -0.53766215 -0.11282912
0001f0 19 13 8f 3d c6 4d 93 3e 70 58 31 3e 7d 2a 7c 3e
       0.069860645 0.28770274 0.17318892 0.24625583
000200 72 38 cf 3d f3 ec 58 be 4e 0e f4 3c 87 18 1a be
       0.10118188 -0.21184139 0.029791977 -0.15048419
000210 89 b3 47 3e e2 83 b5 bd ae b7 e0 bd 2a b0 9e bd
       0.19502081 -0.08863045 -0.10972534 -0.077484444
000220 87 00 67 bd a0 5e ca bd 56 13 00 3d 5e 85 98 bd
       -0.056396987 -0.098813295 0.03126844 -0.07447313
000230 7b b6 0c be b1 8a 65 3c a5 38 80 3d fc cf 06 3e
       -0.13741486 0.014010117 0.06260804 0.13165277
000240 c9 b8 1f 3e 39 60 ec bc ed f8 c7 3b 48 be ea bd
       0.15597834 -0.028854476 0.0061026723 -0.114620745
000250 70 2e 49 be 5a cf 5e be 88 7b e2 3c d3 ce f4 3d
       -0.19646621 -0.21758786 0.027646795 0.11953511
000260 88 f5 27 3e ad 5d 9f 3c 8d cf e9 bd 69 89 57 3d
       0.16402256 0.019453848 -0.1141654 0.05262128
000270 94 45 9f be 69 8c 09 be 7c 3e 48 3e e6 b2 22 be
       -0.3110777 -0.13432468 0.19555086 -0.15888557
000280 a5 93 f4 3e 56 ec b2 3c c6 a7 65 be 4d fd cc bd
       0.47768894 0.02184121 -0.22427282 -0.10009251
000290 53 49 81 3d 6d 08 04 3f 3c d6 b1 3e e3 46 9c bc
       0.063128136 0.51575357 0.3473376 -0.01907677
0002a0 b7 ae 39 3e f7 0e 7d be 89 df 1c be af 85 1e 3e
       0.18133055 -0.2471274 -0.15319647 0.15480684
0002b0 5d 5a c3 3e 49 7e 60 bb 1b 87 9b 3e 3b ce 9e 3b
       0.3815488 -0.003425496 0.30376515 0.004846362
0002c0 77 ee b5 bd 31 0b 11 bf 7d 15 82 bc 71 ca ac 3d
       -0.08883374 -0.566577 -0.015879387 0.0843705
0002d0 9f ed 35 3f ee 86 75 be 8c 6f 0b 3f 85 12 07 3f
       0.71065706 -0.23977253 0.5446708 0.52762634
0002e0 6a 1d 66 3e 19 93 bd 3d b2 e1 49 bf e4 f9 85 bd
       0.22472158 0.09256572 -0.7886001 -0.065418035
0002f0 0e bd 2f bd 8a df 14 3f f2 24 33 3e eb 90 18 3f
       -0.042904906 0.58153594 0.17494562 0.5959613
000300 48 a6 6c bd 69 6f db bc 51 4f 8b 3d c4 5a d6 bd
       -0.057775766 -0.026786523 0.06802238 -0.10466531
000310 e0 63 7f be c8 a2 44 be d4 19 bd 3c 2e 06 7c 3e
       -0.24940443 -0.19202721 0.023083605 0.24611732
000320 ec 9e 27 be 36 18 b9 3b b9 ad 50 bd e7 46 73 3d
       -0.16369218 0.005648638 -0.050946925 0.05939379
000330 c7 15 15 be fa d5 36 be 38 8d ac bd a0 82 50 3e
       -0.14559089 -0.17855063 -0.08425373 0.2036233
000340 0c 1f da bc 85 e3 21 be 95 7c 79 be 87 ea 83 3d
       -0.026626132 -0.15809448 -0.2436393 0.06441217
000350 70 a5 92 3c 80 8f c9 bd 64 fb 07 bd ee 62 13 bd
       0.017901152 -0.098418236 -0.03319873 -0.03598302
000360 a7 8a c0 3d 39 e8 60 3d 27 46 69 3c 7e 21 79 3d
       0.09401446 0.054908965 0.014237917 0.060822956
000370 b9 e6 e8 bc 59 06 77 be b8 9d 65 bd bf 8b 7e bd
       -0.02843033 -0.24123515 -0.056058615 -0.06214499
000380 65 9b 01 be 04 22 2f 3d 2c 30 4c be 1f 53 7e 3d
       -0.12656935 0.04275705 -0.19940251 0.06209099
000390 89 6e 37 be f0 2d e3 be 9d 4c f4 bd 4f 8e c7 3c
       -0.1791326 -0.44370985 -0.11928675 0.02435985
0003a0 c6 4f 73 3e a3 8c 82 bd 32 57 7f bd b7 c5 b4 3e
       0.237609 -0.063744806 -0.062339015 0.35307094
0003b0 dd 0b 07 be 35 a9 2e be d4 7d 6f bd f0 09 8b bd
       -0.13188119 -0.17056735 -0.05846961 -0.06789005
0003c0 fd 86 1a be b6 31 98 3f 7d 3f d9 3d 22 f2 dc 3d
       -0.15090556 1.189017 0.106078126 0.10788371
0003d0 b1 d5 8c 3d 71 ae 90 be 9e 71 82 be 16 3c 4e be
       0.06876696 -0.28258088 -0.25477308 -0.20140108
0003e0 c4 a2 21 3e b7 02 95 3d cd d5 21 3f ee 60 90 3c
       0.15784746 0.072759084 0.6321686 0.017624345
0003f0 ad ad 0a be 6f 6e f7 3e 1d 67 47 bd db a1 85 3a
       -0.13542815 0.48326442 -0.04868232 0.0010195331

gnn.convs.2.nn.lins.1.bias f4 [32]
000000 43 c8 7b 3e e3 6d b5 b8 d9 24 35 bd 5b 0f 00 3e
       0.24588113 -8.6512206e-05 -0.044224594 0.12505858
000010 f3 8d c0 3d 5d b3 0e 3e 09 81 54 be 47 ed bc 3c
       0.09402075 0.13935609 -0.20752348 0.023062361
000020 27 f7 bb bd 71 df 81 3d 09 81 dd bc 7d ee a7 be
       -0.09178 0.06341446 -0.027039068 -0.3279914
000030 37 e0 b6 3d b6 4b a8 bd 7b bf ae 3d d4 9c 1b bd
       0.08929484 -0.08217566 0.08532616 -0.03799136
000040 2a ad cb 3d 9c 7d 11 3e 56 5a 16 3d 8d bc 11 be
       0.09945138 0.14208072 0.036707245 -0.14232083
000050 d4 0a 29 3e 70 cb cf 3d b7 35 c5 bc 61 80 68 bd
       0.16508037 0.101462245 -0.024073465 -0.056763057
000060 84 56 32 3e 5f ec 85 3d 70 4d 38 3e 5a 6b 38 3d
       0.17415816 0.06539225 0.1799829 0.045024253
000070 dc 97 12 be ed 3f 91 be 5a 3e 17 3e de e8 31 3d
       -0.14315742 -0.28369084 0.14769879 0.04343497
